models/checkpoint_170000.pt (torch, 125871 bytes, 33 tensors)

shared.0.weight f4 [64, 12]
-0.13260865 -0.03846751 -0.02583717 -0.13092229 -0.0031951126 -0.0632883 -0.116817616 0.108008556
-0.015437106 0.08616973 -0.21501991 -0.032123912 -0.091874175 -0.24972765 -0.1802079 0.22917046
0.1650178 -0.26792622 -0.29929042 -0.18175611 -0.1481432 0.11732864 0.07350311 0.06238034
-0.19159468 0.33470166 -0.14103574 0.7863297 -0.055764202 -0.041272424 0.21777724 0.08409256
-0.09915299 0.04430632 0.023017002 0.09536566 -0.08232043 -0.1319744 -0.055067915 -0.06789622
-0.22165948 0.014232086 -0.1484969 -0.038486738 -0.15199666 0.05942745 0.14599524 -0.009283646
-0.051085535 0.31528473 -0.19981313 0.021035625 -0.2126111 -0.38891152 0.082001485 0.08636721
-0.00016924644 -0.027749747 0.022455834 0.026824145 -0.031513236 0.36088797 -0.11794496 0.84240174
0.018184038 0.009098673 0.3344054 0.133192 0.04157435 -0.1842573 0.10412443 0.20668738
0.068753 -0.1918385 0.011091555 0.54185647 -0.053388327 0.07791498 0.108232945 0.17727056
0.08584315 -0.18940663 -0.1289069 -0.28719604 -0.2221084 -0.18272983 -0.33448794 0.22125462
-0.279376 -0.052683003 -0.05108299 -0.14792515 0.1246444 0.03031498 0.097972244 -0.35885906
0.02920972 0.048672196 0.258831 -0.33396986 -0.3480289 0.054940023 0.010522196 -0.001311181
0.009966968 -0.083605304 0.03095932 0.26198947 -0.21399176 0.09310715 0.10403701 -0.018501291
-0.08331255 0.07146472 -0.47724026 -0.105581775 -0.46035013 0.050052796 -0.13482997 -0.16799669
-0.2940415 0.3035956 -0.035847593 0.08034016 -0.11726793 0.1670804 0.1536986 0.20318137
0.028096167 -0.09050137 0.0056886286 -0.089103736 -0.11850067 0.10313466 -0.059476815 -0.18477139
-0.31434336 0.19325703 -0.050301056 0.2997722 0.008361187 -0.07920933 0.03340998 -0.018573368
-0.1842836 -0.32852733 0.01605139 0.07320321 -0.23167089 0.021838741 -0.4766143 -0.47167486
0.0109647345 0.20312157 -0.03166521 -0.40598089 0.13508599 -0.006058014 -0.018463634 -0.551981
0.11898814 0.27104554 -0.31246936 -0.013263801 0.05450426 0.21623917 0.104458466 0.01940279
0.19081263 -0.87538075 0.21703248 -0.4377399 0.289681 -0.25182778 -0.53127515 -0.66675687
0.065617 0.107934386 0.00039890205 -0.09681027 -0.083160415 0.06563185 -0.09747814 0.43535963
0.11555451 -0.01756204 0.24381731 0.34130052 -0.09047426 -0.07656729 0.10385768 0.14830747
0.099460125 0.19143456 -0.0030128248 0.26294333 -0.40844768 -0.081510134 0.20479804 0.19342545
0.05548511 -0.025379438 0.028218992 0.027244635 0.17803836 0.029379914 -0.47079858 0.12893158
-0.35973346 0.21996596 0.22389339 0.14657393 0.03753595 0.13008825 0.07030115 -0.008827873
-0.12919907 0.18960193 0.070765235 0.13606483 -0.21031782 0.055414375 0.1416409 0.06730077
-0.013835987 -0.024460208 -0.28271893 -0.07131749 -0.21805845 -0.090999365 0.021707382 0.0176407
-0.36550343 0.17815268 -0.098359615 -0.2196064 -0.029873306 0.033473108 0.22270784 0.12672889
0.0123110935 -0.0702854 0.108453035 -0.020988306 -0.27103698 -0.06768031 -0.5427712 0.05845656
0.0560603 -0.40474278 0.010806003 0.032085143 0.048889447 -0.12005186 0.042092066 -0.9098005
00000000: 90ca 07be 1c90 1dbd 79a8 d3bc 7e10 06be
00000010: 1865 51bb 4c9d 81bd 133e efbd 9733 dd3d
00000020: eaeb 7cbc c179 b03d 2e2e 5cbe 5d94 03bd
00000030: 8728 bcbd 9bb8 7fbe 6b88 38be a9ab 6a3e
00000040: 6dfa 283e a02d 89be 983c 99be 461e 3abe
00000050: dab2 17be ff49 f03d cc88 963d 8782 7f3d
00000060: 6531 44be 045e ab3e ac6b 10be e74c 493f
00000070: 0169 64bd 460d 29bd ff00 5f3e b838 ac3d
00000080: b910 cbbd 8b7a 353d 278e bc3c 124f c33d
00000090: 9d97 a8bd 4c24 07be e58e 61bd 2c0d 8bbd
000000a0: b4fa 62be b22d 693c 920f 18be 45a4 1dbd
000000b0: 03a5 1bbe 336a 733d c77f 153e 6f1a 18bc
000000c0: 113f 51bd 006d a13e d09b 4cbe e752 ac3c
000000d0: b9b6 59be 691f c7be 65f0 a73d 4be1 b03d
000000e0: bf77 31b9 7053 e3bc 4cf5 b73c 4fbe db3c
000000f0: 0614 01bd 4fc6 b83e 218d f1bd a4a7 573f
00000100: b1f6 943c 9a12 153c 2f37 ab3e 7c63 083e
00000110: de49 2a3d f2ad 3cbe 303f d53d dba5 533e
00000120: 5fce 8c3d 5071 44be 5ab9 353c 1bb7 0a3f
00000130: b8ad 5abd e491 9f3d 3ca9 dd3d 6a86 353e
00000140: 89ce af3d d0f3 41be 2c00 04be 5c0b 93be
00000150: 6270 63be 871d 3bbe 0142 abbe 9290 623e
00000160: 5f0a 8fbe 22ca 57bd 663c 51bd b179 17be
00000170: 9045 ff3d 1f57 f83c aca5 c83d 60bc b7be
00000180: 3949 ef3c 7f5c 473d 7f85 843e 19fe aabe
00000190: d830 b2be ca08 613d 4a65 2c3c efdb abba
000001a0: 7e4c 233c 4239 abbd 669e fd3c 7c23 863e
000001b0: a820 5bbe f6ae be3d 5b11 d53d 0590 97bc
000001c0: c59f aabd 185c 923d d658 f4be 423b d8bd
000001d0: 03b3 ebbe 2904 4d3d de10 0abe 5307 2cbe
000001e0: 9c8c 96be e270 9b3e edd4 12bd 6289 a43d
000001f0: 2b2a f0bd 2017 2b3e 2a63 1d3e c70e 503e
00000200: ef29 e63c c858 b9bd ad67 ba3b 057c b6bd
00000210: 7bb0 f2bd 4438 d33d f69d 73bd b634 3dbe
00000220: 9df1 a0be 2ce5 453e 7b08 4ebd be7b 993e
00000230: 5cfd 083c 8038 a2bd e7d8 083d 2d27 98bc
00000240: d7b4 3cbe bc34 a8be 347e 833c 91eb 953d
00000250: 223b 6dbe 29e7 b23c ca06 f4be 5e7f f1be
00000260: 6ea5 333c 1aff 4f3e 61b3 01bd badc cfbe
00000270: fb53 0a3e 4e82 c6bb 0c41 97bc a04e 0dbf
00000280: 0eb0 f33d 7bc6 8a3e fcfb 9fbe 6a50 59bc
00000290: dc3f 5f3d cd6d 5d3e 52ee d53d 9af2 9e3c
000002a0: 6364 433e f418 60bf c33d 5e3e 721f e0be
000002b0: 1151 943e 92ef 80be a601 08bf 94b0 2abf
000002c0: 3562 863d b40c dd3d ba23 d139 7644 c6bd
000002d0: 0250 aabd fe69 863d 9ea2 c7bd 75e7 de3e
000002e0: d8a7 ec3d 44de 8fbc 3fab 793e f1be ae3e
000002f0: 924a b9bd 50cf 9cbd 56b3 d43d eadd 173e
00000300: c0b1 cb3d 6c07 443e d072 45bb 82a0 863e
00000310: 0e20 d1be c9ee a6bd 94b6 513e 5211 463e
00000320: 5b44 633d 8ae8 cfbc 842b e73c 2430 df3c
00000330: b04f 363e 25ae f03c 830c f1be a406 043e
00000340: fc2e b8be c23e 613e 4f44 653e 7a17 163e
00000350: 4cbf 193d db35 053e 0dfa 8f3d c8a2 10bc
00000360: c34c 04be 0227 423e 5ded 903d 9454 0b3e
00000370: 8e5d 57be 2ffa 623d 500a 113e fcd4 893d
00000380: 56b0 62bc c660 c8bc 89c0 90be e70e 92bd
00000390: b74a 5fbe e05d babd aed3 b13c 3b83 903c
000003a0: 4423 bbbe a86d 363e c470 c9bd 80e0 60be
000003b0: ddb8 f4bc 191b 093d 860d 643e 38c5 013e
000003c0: 78b4 493c cbf1 8fbd a01c de3d abef abbc
000003d0: 5cc5 8abe f99b 8abd 0ef3 0abf 2570 6f3d
000003e0: 7c9f 653d 723a cfbe a90b 313c b66b 033d
000003f0: 4d40 483d c0dd f5bd bb68 2c3d b0e8 68bf

shared.0.bias f4 [64]
-0.016023435 0.26184544 0.22232254 0.2652315 0.303187 0.15950726 0.14073005 -0.02085668
0.21164024 0.30017716 0.06591048 0.1851684 0.31307468 -0.20041639 0.11682463 0.29166922
0.2760098 0.2479913 0.19803911 0.24023187 0.18169606 0.24487631 0.2312086 0.15115945
0.20701855 0.18088557 0.18270794 0.13824256 0.10557646 0.27693832 0.08475721 0.1032034
0.21122065 0.22921124 0.2847436 0.29743195 0.08306291 0.29367226 0.1557989 0.19269875
0.25229254 0.04367635 0.13585478 0.10591184 0.185876 0.32533014 0.07573966 0.20687358
0.27632663 0.24797656 0.19439395 0.062194984 0.24074492 0.32118487 0.07531199 0.10167653
0.19601916 -0.03155226 0.29357502 -0.08820789 0.24509442 0.2351703 0.21328649 0.2078285
00000000: 9443 83bc 9b10 863e 85a8 633e 6ccc 873e
00000010: 543b 9b3e df55 233e 8a1b 103e a1db aabc
00000020: 38b8 583e d2b0 993e 13fc 863d c99c 3d3e
00000030: 534b a03e f439 4dbe c041 ef3d ab55 953e
00000040: 2851 8d3e 6ef1 7d3e c4ca 4a3e 58ff 753e
00000050: 880e 3a3e dbc0 7a3e f2c1 6c3e 8bc9 1a3e
00000060: acfc 533e 113a 393e ca17 3b3e 758f 0d3e
00000070: 7938 d83d dcca 8d3e 3095 ad3d 4e5c d33d
00000080: 3a4a 583e 5ab6 6a3e eac9 913e 0049 983e
00000090: e31c aa3d 365c 963e bf89 1f3e d252 453e
000000a0: 7d2c 813e f9e5 323d 841d 0b3e 4fe8 d83d
000000b0: 4756 3e3e ac91 a63e 651d 9b3d abd6 533e
000000c0: af7a 8d3e 91ed 7d3e 350f 473e 2bc0 7e3d
000000d0: d685 763e 5872 a43e 2c3d 9a3d c93b d03d
000000e0: 3fb9 483e f13c 01bd 774f 963e 57a6 b4bd
000000f0: 08fa 7a3e 7cd0 703e c667 5a3e ffd0 543e

shared.2.weight f4 [64, 64]
-0.07699821 0.29860198 -0.03419387 0.06506991 -0.48937696 0.13566472 0.30823818 0.32625136
0.0076079895 0.12644593 -0.33796364 0.05011335 -0.28783622 -0.08179284 0.16866374 0.099214815
0.16726471 0.17560346 -0.06669724 -0.015593539 0.22991602 -0.40620467 0.2991934 -0.001715744
-0.03512382 0.099776156 0.11234383 -0.046553805 -0.17817867 -0.032113723 -0.20343088 -0.068403885
-0.033080243 -0.10989404 0.28801683 0.16431023 -0.020965219 0.23292813 -0.050623663 -0.23290642
0.22468328 0.36993283 -0.6973013 0.012629556 0.05452359 0.3055352 -0.0044764313 0.30505684
0.23601843 0.31844178 0.19107322 0.08467099 0.08709072 0.31350198 0.9399562 -0.022929518
0.12164781 0.11129465 0.23366956 -0.13308384 0.3223192 0.08465839 0.014091412 0.099941246
0.11704783 0.2737274 0.3150263 0.23794192 -0.5023643 0.12227581 0.07041081 0.35266116
-0.12868215 0.09801325 -0.014324732 0.08469732 0.015581168 -0.15009123 0.23770629 0.21849644
0.06696539 0.518324 0.07633993 0.042745765 0.06290118 -0.3763521 0.106563196 0.16123843
0.12494591 0.22063051 -0.05510597 0.08065186 -0.0891047 0.018260187 -0.09359005 0.1344721
0.11217229 0.039282415 -0.01549777 -0.008978485 -0.07723856 0.31718567 -0.2533701 -0.28645676
0.08404031 0.21363565 -0.23546736 -0.08447371 -0.1511185 0.113489494 -0.1074761 0.23938982
0.010681767 0.15887387 0.1473674 0.13271461 0.04298917 0.37913275 0.97420615 -0.046244618
0.15369418 -0.20323953 -0.049540173 -0.30165717 -0.07870761 -0.041009013 0.20925027 0.16246705
-0.0032366992 0.39748818 0.12984979 0.011110488 -0.8405754 0.012356063 0.2965255 0.32853904
0.14023854 0.2803753 -0.13142338 0.024014331 -0.16121112 -0.11755037 0.15603775 0.2175703
0.16495287 0.47358194 -0.18478526 -0.044581164 0.36804223 -0.37200406 0.27686167 0.15258761
0.21498534 0.106195636 -0.07156001 0.24602543 0.111941785 0.08297921 -0.24878891 0.12910073
0.2930357 0.27016756 0.08238368 0.21976852 -0.05321046 0.32950702 -0.026408808 -0.040327344
0.03475542 0.36626586 -0.72034615 -0.23820569 0.015100693 0.32457417 0.12280162 0.32233965
0.041374657 0.05494011 0.0010768432 -0.028706925 0.39526913 0.13173473 1.2229707 0.20407292
-0.015735582 -0.31200755 0.18938363 -0.355297 0.28196186 -0.1806541 0.22840197 -0.004979734
0.04635682 -0.16938421 -0.5754315 -0.13218534 -0.0487288 -0.36702612 -0.44037464 -0.31026497
0.17198743 -0.43864998 -0.07743952 -0.22021489 0.50174284 0.19276129 0.6139297 -0.41143674
-0.12367738 -0.37768456 -0.3702486 0.027433207 0.2709135 0.4015223 -0.39882565 -0.035440903
0.25060627 -0.37707278 -0.03558839 -0.66534007 0.72407407 0.3157515 0.57707894 -0.53049874
0.33245215 -0.23750564 -0.3375172 -0.704839 -0.47590038 -0.76878005 0.45788118 0.6618872
0.3757438 -1.0806965 1.2865558 0.6618625 -0.52961826 -0.88404655 -0.38854703 0.4230425
-0.28215206 0.008631762 0.19849393 -0.19187193 0.14380391 -0.02068856 -0.72245413 -0.31050584
-0.19978493 0.20174034 -0.06891406 0.15511926 -0.11638213 0.6328419 -0.091355056 0.4327018
00000000: 3db1 9dbd 5ce2 983e df0e 0cbd 5f43 853d
00000010: 9e8f fabe b1eb 0a3e 65d1 9d3e 6b0a a73e
00000020: 714c f93b 0b7b 013e 9209 adbe a843 4d3d
00000030: 455f 93be 0183 a7bd 30b6 2c3e 2331 cb3d
00000040: 7147 2b3e 65d1 333e 9098 88bd 0b7c 7fbc
00000050: 1b6f 6b3e 0ffa cfbe e12f 993e d1e2 e0ba
00000060: ffdd 0fbd 7157 cc3d 8614 e63d 34af 3ebd
00000070: 7874 36be ae89 03bd 2f50 50be 5617 8cbd
00000080: 267f 07bd 2010 e1bd f176 933e f140 283e
00000090: 40bf abbc b684 6e3e c25a 4fbd 057f 6ebe
000000a0: 6013 663e d667 bd3e 5782 32bf 32ec 4e3c
000000b0: 2154 5f3d 1c6f 9c3e 07af 92bb 6930 9c3e
000000c0: d1ae 713e cd0a a33e b3a8 433e fc67 ad3d
000000d0: 9f5c b23d 5583 a03e f8a0 703f afd6 bbbc
000000e0: 7d22 f93d 73ee e33d 1347 6f3e 2147 08be
000000f0: 0607 a53e 6161 ad3d aadf 663c ffad cc3d
00000100: c6b6 ef3d ff25 8c3e 214b a13e 0ca7 733e
00000110: f29a 00bf bd6b fa3d 8b33 903d 0190 b43e
00000120: 41c5 03be 2cbb c83d 48b2 6abc ca75 ad3d
00000130: 2848 7f3c 84b1 19be 4769 733e 88bd 5f3e
00000140: 2725 893d e2b0 043f 1c58 9c3d 2f16 2f3d
00000150: 55d2 803d 39b1 c0be ce3d da3d b01b 253e
00000160: a4e3 ff3d f7ec 613e ccb6 61bd cd2c a53d
00000170: 867c b6bd 6396 953c 24ac bfbd 0eb3 093e
00000180: 96ba e53d 99e6 203d 5cea 7dbc 7f1a 13bc
00000190: 402f 9ebd 2966 a23e bab9 81be 76aa 92be
000001a0: 531d ac3d 4ec3 5a3e 5b1e 71be 8d00 adbd
000001b0: cfbe 1abe 2e6d e83d 6e1c dcbd 9b22 753e
000001c0: 9402 2f3c d5af 223e 7be7 163e 57e6 073e
000001d0: 6915 303d b01d c23e 9365 793f ff6a 3dbd
000001e0: 0262 1d3e 061e 50be a3ea 4abd cf72 9abe
000001f0: 7531 a1bd 11f9 27bd b445 563e c35d 263e
00000200: cd1e 54bb 9283 cb3e 58f7 043e c408 363c
00000210: f32f 57bf 1671 4a3c 31d2 973e 4536 a83e
00000220: b19a 0f3e 5a8d 8f3e da93 06be b4b9 c43c
00000230: 8714 25be 40be f0bd 5cc8 1f3e c0ca 5e3e
00000240: 68e9 283e 5579 f23e 5938 3dbe bd9a 36bd
00000250: 0870 bc3e 5177 bebe d0c0 8d3e ed3f 1c3e
00000260: 1e25 5c3e 197d d93d 0e8e 92bd 17ee 7b3e
00000270: bc41 e53d 01f1 a93d 85c2 7ebe fb32 043e
00000280: c608 963e 6753 8a3e c6b8 a83d 000b 613e
00000290: 36f3 59bd 25b5 a83e 4957 d8bc 492e 25bd
000002a0: b35b 0e3d 3387 bb3e 9b68 38bf 31ec 73be
000002b0: e668 773c 962e a63e 6a7f fb3d b409 a53e
000002c0: 7978 293d e108 613d dd24 8d3a c92a ebbc
000002d0: b760 ca3e 78e5 063e 4e8a 9c3f 7ef8 503e
000002e0: e8e7 80bc 74bf 9fbe c8ed 413e 7de9 b5be
000002f0: 4e5d 903e 63fd 38be 35e2 693e 092d a3bb
00000300: a6e0 3d3d 0e73 2dbe 7b4f 13bf 985b 07be
00000310: da97 47bd d9ea bbbe c978 e1be 0ddb 9ebe
00000320: 791d 303e bb96 e0be 9c98 9ebd 0380 61be
00000330: 3872 003f 3763 453e 7f2a 1d3f d6a7 d2be
00000340: 914a fdbd df5f c1be 3991 bdbe 9bbb e03c
00000350: 2db5 8a3e 5594 cd3e e032 ccbe 7b2a 11bd
00000360: 774f 803e af0f c1be 22c5 11bd ba53 2abf
00000370: eb5c 393f 2eaa a13e 72bb 133f c4ce 07bf
00000380: 2b37 aa3e ae34 73be 0ecf acbe 5470 34bf
00000390: 37a9 f3be c5ce 44bf 676f ea3e 7171 293f
000003a0: 7e61 c03e 4354 8abf dcad a43f d26f 293f
000003b0: 1095 07bf e050 62bf a3ef c6be 0799 d83e
000003c0: 3c76 90be 3c6c 0d3c fe41 4b3e 137a 44be
000003d0: 5541 133e 0e7b a9bc c1f2 38bf 9ffa 9ebe
000003e0: 6c94 4cbe 0595 4e3e d122 8dbd 95d7 1e3e
000003f0: c159 eebd ed01 223f 5c18 bbbd 178b dd3e

shared.2.bias f4 [64]
0.20012186 0.23466676 0.23799422 -0.046794776 -0.020186795 0.20855726 -0.042744234 0.21987733
-0.017510237 0.23880881 0.0 0.10519028 0.22473896 0.22094338 0.19417149 -0.0051125037
0.18662599 0.057002295 0.1866142 0.15651892 0.24240716 0.10009479 -0.024098871 0.028817944
0.22850797 0.19676399 0.24489516 0.19528227 0.21144266 0.1676484 0.21368662 0.24078864
0.16080268 -0.00946331 0.17673668 0.20027936 0.25434282 -0.020125644 0.203243 0.24721548
0.0080740955 -0.009501201 0.12804992 0.20147868 -0.021973237 0.24968709 -0.004992023 -0.013530376
0.22056596 -0.009511075 0.1899363 0.30351248 0.21627173 -0.027125185 0.20045806 0.2188743
0.06269861 -0.10344198 0.14683446 -0.012514757 -0.17802566 0.2072005 0.29914907 0.30357978
00000000: bfec 4c3e 7c4c 703e c2b4 733e e1ab 3fbd
00000010: c75e a5bc 0990 553e 9414 2fbd 8627 613e
00000020: a171 8fbc 4c8a 743e 0000 0000 006e d73d
00000030: f821 663e fb3e 623e e4d4 463e ca86 a7bb
00000040: e21a 3f3e 3d7b 693d cb17 3f3e 7f46 203e
00000050: 9539 783e 7ffe cc3d ff6a c5bc 9c13 ec3c
00000060: fefd 693e 807c 493e ccc5 7a3e 13f8 473e
00000070: 6d84 583e 06ac 2b3e aad0 5a3e 4c91 763e
00000080: 75a9 243e 000c 1bbc 76fa 343e 0816 4d3e
00000090: 3939 823e 89de a4bc ef1e 503e 0e26 7d3e
000000a0: 3649 043c edaa 1bbc 851f 033e 6d50 4e3e
000000b0: 3801 b4bc f9ad 7f3e 2094 a3bb 83ae 5dbc
000000c0: 0bdc 613e 57d4 1bbc a97e 423e fd65 9b3e
000000d0: 5676 5d3e a335 debc e144 4d3e 9620 603e
000000e0: 2168 803d 64d9 d3bd c65b 163e b20a 4dbc
000000f0: 5c4c 36be 5e2c 543e 112a 993e cf6e 9b3e

actor.0.weight f4 [32, 64]
-0.0066595213 0.05225614 0.11450675 0.17405489 -0.099586904 -0.0435747 -0.017185444 0.18520729
0.06931606 0.2346872 -0.1770274 -0.37287074 -0.004944166 -0.064742625 -0.14401229 0.1553353
-0.07502188 0.42902187 -0.06488933 -0.24784482 -0.1502931 0.014592574 0.022003043 -0.21195482
0.17261843 -0.026824754 -0.060188577 0.0031800459 0.061203 0.33968002 -0.15353262 0.19195533
0.19583558 -0.053556483 0.20474333 -0.115100645 0.024772871 -0.008114697 -0.068951815 0.11431772
0.015021991 0.21999413 -0.13526165 0.12666914 -0.095235005 -0.0808913 -0.0057484633 -0.017291958
0.25900552 -0.066624075 -0.20985176 0.14644292 0.055343162 -0.015553147 0.089989066 -0.1814403
-0.016966563 0.52972156 -0.17747143 0.07311667 0.12825446 -0.004880075 -0.39217383 -0.058605734
0.024488147 0.16629383 0.23451343 -0.2522953 0.099946715 -0.19046652 0.059715804 -0.11507235
-0.067478344 -0.11310092 0.08523175 0.15075557 -0.32809833 -0.21082246 -0.0545563 0.21763968
0.24782307 -0.26262572 0.11708224 0.11160589 -0.12888217 0.1520869 -0.16911985 0.28086758
0.016353644 -0.38691077 0.18191905 0.07883669 -0.07245906 -0.1434009 0.042235304 -0.14132524
0.040844694 -0.034119666 0.011064549 0.094215095 0.03291341 0.16931671 0.05743222 0.10761871
-0.040622402 0.036713496 0.051039845 0.08565537 0.06627182 0.26072738 -0.30647296 -0.07455846
0.07758833 0.16151261 0.0798823 0.109680034 0.28292376 -0.01577532 0.012542033 0.2590013
0.20233408 -0.790579 0.04086342 -0.07475372 -0.4742405 -0.12475929 0.07915747 0.11705056
0.035350207 -0.03475869 -0.18809457 -0.07784683 0.0836667 0.006438428 0.023139803 0.019308388
-0.044281933 0.004402299 0.05044233 -0.079038456 -0.028643388 -0.2155216 0.23245998 -0.017985465
0.15861727 -0.059468042 0.018863857 0.03206749 -0.17278005 -0.02713598 0.123025924 -0.044525024
0.17884581 0.031134838 -0.16303475 0.047448926 0.29694095 -0.24674132 0.0177264 -0.20335816
-0.07142686 -0.14990982 -0.05282498 -0.24329548 0.16589935 0.2559167 -0.13151321 -0.084969446
-0.012401801 0.06868939 0.018674836 -0.22710434 0.25043964 -0.03947208 0.11907172 0.012931495
0.10764627 -0.14616229 -0.049358975 0.0064660925 -0.11952749 -0.008507756 -0.05030547 0.087995484
0.099366985 0.2115888 -0.092208765 0.1450761 0.011922724 -0.085793264 0.10195451 0.08726829
0.2440718 0.19917 0.066796005 -0.13917615 0.027676739 0.04674512 0.22048278 -0.22323602
0.028007802 0.05785185 -0.035317246 -0.10091528 -0.046204235 -0.16808358 -0.022248453 0.053301837
0.011229375 -0.042166293 0.12089986 0.10860161 -0.07100568 -0.13514556 -0.23058718 -0.1949408
-0.11580225 0.15776497 -0.12781915 0.14362122 0.1955433 0.14981385 -0.06057546 -0.0146857975
0.051318113 0.18994026 0.13599151 -0.102005124 0.03684579 -0.1371151 -0.16504799 -0.16209403
-0.09727914 -0.06367851 -0.12403376 -0.001025937 0.08173556 -0.116560064 0.2323887 0.1862947
-0.054435905 0.106880754 -0.21048284 -0.24409111 0.001065014 -0.0112128705 -0.10040156 -0.093912594
-0.25147498 -0.07615187 0.17311999 -0.025975833 -0.039831817 -0.06670977 0.0020549798 -0.14750934
00000000: 1d38 dabb 890a 563d 8482 ea3d 723b 323e
00000010: 38f4 cbbd 627b 32bd 7dc8 8cbc fba6 3d3e
00000020: 94f5 8d3d d751 703e ac46 35be eae8 bebe
00000030: ac02 a2bb c897 84bd f577 13be 3810 1f3e
00000040: 12a5 99bd c1a8 db3e b2e4 84bd 08cb 7dbe
00000050: 6fe6 19be b115 6f3c ba3f b43c af0a 59be
00000060: e3c2 303e 96bf dbbc 4c88 76bd 5168 503b
00000070: ffaf 7a3d 8aea ad3e a837 1dbe f08f 443e
00000080: 1f89 483e 0b5e 5bbd 3ca8 513e e3b9 ebbd
00000090: 7af0 ca3c 82f3 04bc 9c36 8dbd 691f ea3d
000000a0: cc1e 763c 2446 613e 0882 0abe 8eb5 013e
000000b0: 920a c3bd 57aa a5bd 9b5d bcbb dda7 8dbc
000000c0: 5f9c 843e 3472 88bd 61e3 56be 22f5 153e
000000d0: 83af 623d a0d2 7ebc 304c b83d 7ccb 39be
000000e0: 76fd 8abc d59b 073f 12bb 35be 31be 953d
000000f0: 2355 033e 09e9 9fbb 02cb c8be 910c 70bd
00000100: 5e9b c83c ee48 2a3e 4a24 703e d92c 81be
00000110: ddb0 cc3d a809 43be 8f98 743d 0dab ebbd
00000120: 1632 8abd 75a1 e7bd fc8d ae3d ab5f 1a3e
00000130: 81fc a7be d8e1 57be 6d76 5fbd f0dc 5e3e
00000140: 55c5 7d3e e176 86be d0c8 ef3d a191 e43d
00000150: b0f9 03be abbc 1b3e c12d 2dbe e0cd 8f3e
00000160: 14f8 853c 2b19 c6be fd48 3a3e 2175 a13d
00000170: 6a65 94bd afd7 12be edfe 2c3d 90b7 10be
00000180: c44c 273d 10c1 0bbd 1548 353c d8f3 c03d
00000190: 36d0 063d 5c61 2d3e 0c3e 6b3d 3367 dc3d
000001a0: ad63 26bd e460 163d 280f 513d 156c af3d
000001b0: 85b9 873d 0f7e 853e 06ea 9cbe 1bb2 98bd
000001c0: a1e6 9e3d 9063 253e 5599 a33d ed9f e03d
000001d0: 62db 903e 3e3b 81bc 197d 4d3c d29b 843e
000001e0: aa30 4f3e 6363 4abf 6760 273d 7a18 99bd
000001f0: a7cf f2be cc81 ffbd 501d a23d 34b8 ef3d
00000200: 61cb 103d 215f 0ebd dd9b 40be 296e 9fbd
00000210: 7259 ab3d 73f9 d23b af8f bd3c a02c 9e3c
00000220: f960 35bd 2941 903b 9e9c 4e3d eade a1bd
00000230: 8aa5 eabc b2b1 5cbe fd09 6e3e 4156 93bc
00000240: 916c 223e c394 73bd 6088 9a3c 3359 033d
00000250: 41ed 30be 464c debc 04f5 fb3d df5f 36bd
00000260: 5b23 373e 7d0e ff3c 95f2 26be ce59 423d
00000270: a508 983e c2a9 7cbe f536 913c 1f3d 50be
00000280: 3f48 92bd f681 19be 025f 58bd 7322 79be
00000290: 85e1 293e 8407 833e 66ab 06be 7604 aebd
000002a0: ec30 4bbc 06ad 8c3d f8fb 983c 0a8e 68be
000002b0: a039 803e 7aad 21bd e0db f33d 9fde 533c
000002c0: a675 dc3d 91ab 15be a32c 4abd 84e1 d33b
000002d0: d4ca f4bd 1d64 0bbc 1c0d 4ebd fa36 b43d
000002e0: eb80 cb3d bcaa 583e f3d7 bcbd d48e 143e
000002f0: 8757 433c 61b4 afbd 87cd d03d b8b9 b23d
00000300: f5ed 793e 38f3 4b3e 58cc 883d 3184 0ebe
00000310: 54ba e23c d077 3f3d 3dc6 613e fc97 64be
00000320: 9e70 e53c 10f6 6c3d d1a8 10bd acac cebd
00000330: a740 3dbd 1a1e 2cbe 6342 b6bc 0753 5a3d
00000340: 6afb 373c 90b6 2cbd 599a f73d 856a de3d
00000350: 6d6b 91bd 9963 0abe 0c1f 6cbe 909e 47be
00000360: bb29 edbd 248d 213e 06e3 02be 7111 133e
00000370: 813c 483e cd68 193e f91d 78bd b39c 70bc
00000380: f132 523d b37f 423e 5c41 0b3e 10e8 d0bd
00000390: 9ceb 163d e767 0cbe 5702 29be fafb 25be
000003a0: 493a c7bd e169 82bd 6905 febd bc78 86ba
000003b0: f964 a73d 0bb7 eebd 4ef7 6d3e 0ac4 3e3e
000003c0: 2ff8 5ebd 4ce4 da3d d088 57be 05f3 79be
000003d0: f197 8b3a 30b6 37bc 559f cdbd 3f55 c0bd
000003e0: 54c1 80be 83f5 9bbd 5e46 313e 45cb d4bc
000003f0: b026 23bd 229f 88bd d7ac 063b b00c 17be

actor.0.bias f4 [32]
0.04258422 -0.011893373 -0.016988613 -0.024846945 -0.025553651 -0.012542747 -0.012199467 -0.0029476874
-0.0019847061 -0.019472424 -0.015305655 0.0071481904 0.041803174 -0.070880555 -0.003765061 -0.02723166
-0.0180079 0.038793102 -0.05540677 -0.0077003934 0.063869655 -0.030385155 -0.04945491 -0.04122102
-0.042125266 -0.015892204 -4.7057303e-05 -0.079832464 0.066655494 -0.020214992 -0.0146516105 0.05809523
00000000: cb6c 2e3d 6cdc 42bc b42b 8bbc d28b cbbc
00000010: e455 d1bc 1880 4dbc 46e0 47bc fd2d 41bb
00000020: d811 02bb a284 9fbc 92c4 7abc 5e3b ea3b
00000030: ce39 2b3d d329 91bd 3ebf 76bb ee14 dfbc
00000040: 4e85 93bc 84e5 1e3d 36f2 62bd 9553 fcbb
00000050: 18ce 823d 4aea f8bc 3b91 4abd 5fd7 28bd
00000060: 8b8b 2cbd 5e30 82bc 655f 45b8 347f a3bd
00000070: ad82 883d e999 a5bc 4f0d 70bc 44f5 6d3d

actor.2.weight f4 [2, 32]
0.08164472 -0.59128624 0.010059912 -0.059958007 -0.09157733 0.27940142 -1.0003271 0.13279873
0.17320468 -0.109097295 0.23451224 0.049000934 0.41771036 -0.24741176 -0.12619518 -0.64363533
0.33284098 0.12566102 -0.58959967 0.08077022 0.581297 0.053378575 -1.0344018 -0.85329044
-0.32387114 -0.669574 -0.08127723 -0.30254754 0.32844698 0.02751915 -0.047452156 0.34179744
-0.27313232 0.42352757 0.019569792 -0.028198997 0.2206654 -0.06380813 0.5491591 0.34033147
0.05648529 -0.17301704 0.13711719 0.14655532 -0.20489964 0.2959854 -0.32169518 0.7567303
-0.44494036 -0.40551654 0.5645705 -0.13905153 -0.40130106 -0.087794825 0.54902506 0.6148332
0.5620298 0.5017178 -0.3281948 0.090518564 -0.21098143 -0.061723255 -0.26969355 -0.16220766
00000000: 5935 a73d 895e 17bf 54d2 243c 8796 75bd
00000010: e58c bbbd b40d 8f3e b80a 80bf 64fc 073e
00000020: 915c 313e 676e dfbd fa23 703e 34b5 483d
00000030: 22de d53e 8259 7dbe 4f39 01be 49c5 24bf
00000040: 226a aa3e 48ad 003e 01f0 16bf db6a a53d
00000050: e1cf 143f 7ea3 5a3d 4767 84bf 3e71 5abf
00000060: 70d2 a5be 3469 2bbf ad74 a6bd 83e7 9abe
00000070: 342a a83e d76f e13c 315d 42bd 1300 af3e
00000080: 00d8 8bbe 9bd8 d83e d450 a03c 9501 e7bc
00000090: 1cf6 613e d6ad 82bd b195 0c3f ed3f ae3e
000000a0: 1f5d 673d 612b 31be 7368 0c3e 9912 163e
000000b0: 36d1 51be 668b 973e 3bb5 a4be 14b9 413f
000000c0: 39cf e3be dd9f cfbe b187 103f 8663 0ebe
000000d0: 5577 cdbe c6cd b3bd e88c 0c3f b565 1d3f
000000e0: 2fe1 0f3f 9470 003f 2609 a8be cc61 b93d
000000f0: 840b 58be 86d1 7cbd 4615 8abe c419 26be

actor.2.bias f4 [2]
0.058475107 -0.05847514
00000000: 9883 6f3d a183 6fbd

critic.0.weight f4 [32, 64]
-0.12386894 0.050261237 0.088183776 -0.21091306 -0.088992074 0.15791465 -0.33537892 -0.06990448
-0.13328068 -0.07260963 -0.04835921 0.05633888 -0.16761412 0.2126292 0.07439479 -0.013134742
-0.104899004 -0.15678646 -0.0943257 -0.094457574 0.113764405 -0.15925136 -0.2606516 -0.017066391
-0.10895263 -0.073331796 -0.27054182 -0.059773125 0.04297232 0.049330257 -0.12148898 0.075344205
0.0015867678 0.11564461 -0.08217938 0.14463404 0.0019560421 -0.052257314 0.06602094 -0.08132347
0.14751048 0.07113294 0.04243756 -0.013684586 0.24696669 -0.13888243 0.020183023 0.05503469
0.18108518 -0.069442034 0.20597224 -0.12906395 -0.15432169 0.07812542 0.034137525 0.0985934
0.090337016 -0.06651159 0.034755528 0.027907636 0.16308264 -0.2013669 -0.07720597 -0.030964546
0.38595536 0.0017790823 0.3088793 -2.2412875 -0.05866922 0.2206689 -0.03888417 0.14890406
-0.12519696 0.29577327 -0.17484897 0.10958866 0.1502104 0.11046842 0.087698415 0.059676763
0.13934065 0.118858255 0.17032036 0.11618585 0.10159964 0.11193455 0.101341546 -1.102233
0.16452496 0.36150125 0.110355966 -0.02291392 0.18692417 0.10027901 0.26823595 0.12176081
0.29877555 0.047418468 0.0112321805 0.14386174 0.05621966 -2.042797 0.17656532 0.2960929
-0.13087133 -0.22600953 -0.04238421 0.32508403 0.19181103 -0.116563246 0.602949 0.18628852
0.2592788 0.019087475 0.2697154 0.19350706 0.26017305 -0.14701526 -0.017326374 0.10186778
-0.9988255 -0.1795596 0.07356686 0.06477801 -1.0059986 -0.097758785 0.2590624 0.120085426
-0.09666034 0.16987525 -0.039170127 0.029720254 0.14434215 -0.10266911 0.1594742 0.0024007189
-0.056100942 -0.15803659 0.036670387 0.09561579 -0.00033612183 -0.05398682 -0.10877376 0.15696065
-0.028344067 -0.017387243 -0.07997409 -0.27223396 0.012846192 0.011868224 0.09297105 -0.017187348
-0.16192251 0.10312242 -0.03220943 -0.21519239 -0.28014287 0.1795959 0.034030665 -0.29669407
0.1682064 0.043675564 -0.008648754 -0.20746802 0.18156616 -0.11488468 0.1748347 -0.1807585
0.16568127 0.14223179 -0.12163559 0.25643203 0.039631497 -0.10438545 -0.028908279 0.014460059
-0.17032784 -0.020122493 0.030565131 -0.1972775 -0.1669937 0.04644096 0.04407323 -0.023130728
-0.09815987 -0.019806625 -0.10085768 0.048617795 -0.070747696 0.07622724 -0.034354627 -0.11083661
0.10471631 0.27860186 0.007841381 -2.3804517 -0.10850479 0.28525603 -0.08126231 0.0985398
-0.14052464 0.08566899 0.14900339 -0.016657524 0.12325023 -0.046567176 0.084339075 0.086542316
0.19882207 0.21325664 0.17857045 0.19280379 0.15610878 0.054852962 -0.017443717 -1.4998266
-0.0645095 0.17080586 0.2519318 0.12206914 0.07956891 0.27369025 0.261212 0.28687
0.20943695 -0.17110479 -0.024506057 0.23334832 0.22765288 -2.0175622 0.034934904 0.23222946
-0.014495253 0.19088516 0.18158944 0.18518707 -0.12525192 0.15170662 0.41904798 0.44592074
0.15354395 0.08038311 0.1243012 0.34113026 0.0088858865 -0.14538312 0.38711137 0.1837111
-0.7534296 -0.18632215 0.19929019 -0.131624 -0.95187056 0.041267168 0.089165695 0.23288399
00000000: 00af fdbd bade 4d3d b299 b43d 98f9 57be
00000010: 7a41 b6bd 61b4 213e c9b6 abbe 142a 8fbd
00000020: bb7a 08be 5cb4 94bd 4f14 46bd 99c3 663d
00000030: 09a3 2bbe 78bb 593e 4c5c 983d 1a33 57bc
00000040: 4ad5 d6bd a18c 20be d52d c1bd f972 c1bd
00000050: 50fd e83d ca12 23be 2074 85be d1ce 8bbc
00000060: 8e22 dfbd fb2e 96bd 7584 8abe aad4 74bd
00000070: be03 303d 860e 4a3d 37cf f8bd 104e 9a3d
00000080: 18fb cf3a 15d7 ec3d aa4d a8bd f21a 143e
00000090: f130 003b c40b 56bd fd35 873d eb8c a6bd
000000a0: fd0c 173e 26ae 913d 02d3 2d3d 5035 60bc
000000b0: d6e4 7c3e 3237 0ebe de56 a53c 0e6c 613d
000000c0: 656e 393e a037 8ebd 63ea 523e 5729 04be
000000d0: 8106 1ebe 3800 a03d cad3 0b3d 56eb c93d
000000e0: 9d02 b93d 3a37 88bd d05b 0e3d 8e9e e43c
000000f0: 23ff 263e 2033 4ebe 2a1e 9ebd 5ca9 fdbc
00000100: f19b c53e 1930 e93a 6d25 9e3e 4171 0fc0
00000110: 234f 70bd 07f7 613e 0245 1fbd 4e7a 183e
00000120: a233 00be 986f 973e 9c0b 33be 0570 e03d
00000130: c1d0 193e 443d e23d 3a9b b33d 9f6f 743d
00000140: 51af 0e3e f56b f33d 7668 2e3e d9f2 ed3d
00000150: 7913 d03d f13d e53d 288c cf3d f915 8dbf
00000160: 3b79 283e b116 b93e 4f02 e23d f9b5 bbbc
00000170: 0d69 3f3e 155f cd3d 3956 893e bb5d f93d
00000180: 1cf9 983e de39 423d 2e07 383c 7e50 133e
00000190: 9646 663d 30bd 02c0 8acd 343e 7d99 973e
000001a0: 2203 06be 0b6f 67be 119b 2dbd 6a71 a63e
000001b0: 1c6a 443e b6b8 eebd de5a 1a3f 6bc2 3e3e
000001c0: 31c0 843e 565d 9c3c 2318 8a3e b726 463e
000001d0: 6735 853e 2b8b 16be 0af0 8dbc 0ea0 d03d
000001e0: 07b3 7fbf 79de 37be 39aa 963d 55aa 843d
000001f0: 90c4 80bf c235 c8bd d4a3 843e 59ef f53d
00000200: dbf5 c5bd c7f3 2d3e db70 20bd e477 f33c
00000210: 6ece 133e 2f44 d2bd 344d 233e 6155 1d3b
00000220: 1aca 65bd 58d4 21be b033 163d 36d2 c33d
00000230: 8239 b0b9 4921 5dbd c7c4 debd 4bba 203e
00000240: d131 e8bc b16f 8ebc 75c9 a3bd 4062 8bbe
00000250: d678 523c f072 423c 9b67 be3d 7bcc 8cbc
00000260: 04cf 25be d931 d33d 09ee 03bd 655b 5cbe
00000270: e36e 8fbe fde7 373e bd63 0b3d 49e8 97be
00000280: 4c3e 2c3e 26e5 323d 81b3 0dbc 7f72 54be
00000290: 7bec 393e a948 ebbd de07 333e c218 39be
000002a0: 5aa8 293e 36a5 113e 151c f9bd 0f4b 833e
000002b0: a354 223d 0ac8 d5bd 0ed1 ecbc e2e9 6c3c
000002c0: 6c6a 2ebe edd7 a4bc ba63 fa3c 1d03 4abe
000002d0: 6600 2bbe e038 3e3d 2286 343d a77c bdbc
000002e0: 0b08 c9bd 8141 a2bc 798e cebd 7423 473d
000002f0: 2be4 90bd 071d 9c3d 70b7 0cbd 4efe e2bd
00000300: 8175 d63d e7a4 8e3e 2379 003c 5259 18c0
00000310: c237 debd 140d 923e db6c a6bd 3ccf c93d
00000320: b1e5 0fbe 3973 af3d 5894 183e 5c75 88bc
00000330: 9e6a fc3d 39bd 3ebd f7b9 ac3d 193d b13d
00000340: 0398 4b3e f35f 5a3e 2cdb 363e 5b6e 453e
00000350: fbda 1f3e 80ad 603d 20e6 8ebc 51fa bfbf
00000360: 8f1d 84bd bbe7 2e3e 34fd 803e 63ff f93d
00000370: 06f5 a23d 2121 8c3e 94bd 853e a0e0 923e
00000380: a476 563e 1836 2fbe edc0 c8bc ddf2 6e3e
00000390: d61d 693e bd1f 01c0 e717 0f3d 8fcd 6d3e
000003a0: 7f7d 6dbc 6677 433e 95f2 393e aea1 3d3e
000003b0: 0a42 00be fb58 1b3e 758d d63e b94f e43e
000003c0: a03a 1d3e e69f a43d a191 fe3d a0a8 ae3e
000003d0: 1c96 113c 50df 14be 7633 c63e c31e 3c3e
000003e0: c3e0 40bf 3ccb 3ebe ba12 4c3e 71c8 06be
000003f0: caad 73bf c307 293d 819c b63d 2479 6e3e

critic.0.bias f4 [32]
0.0 0.2528472 -0.010473762 0.18545403 0.2680987 0.23298922 -0.02348639 0.19549425
0.19149755 0.21640895 -0.0072076377 0.18342786 0.22084318 0.17620075 0.2155905 -0.002291113
-0.0047597713 -0.00845344 0.18840185 -0.008171551 0.24165694 0.18520905 -0.009182504 0.22600389
0.075917535 0.19123568 -0.038988877 0.18645515 -0.014494122 0.20319684 -0.0018007885 0.17292391
00000000: 0000 0000 3075 813e 249a 2bbc a9e7 3d3e
00000010: 3c44 893e ba94 6e3e 8866 c0bc a52f 483e
00000020: ef17 443e 4f9a 5d3e 0c2e ecbb 83d4 3b3e
00000030: b724 623e f86d 343e c2c3 5c3e 7f26 16bb
00000040: dbf7 9bbb 4c80 0abc 6aec 403e f8e1 05bc
00000050: eb74 773e 71a7 3d3e 3772 16bc 906d 673e
00000060: a77a 9b3d 49d3 433e cdb2 1fbd 19ee 3e3e
00000070: c178 6dbc d512 503e 6f08 ecba f712 313e

critic.2.weight f4 [1, 32]
0.044742346 -0.2816036 0.039709803 -0.49236095 -0.27295703 -0.4538517 0.55546004 -0.66206944
-0.42720598 -0.34163508 0.0028114174 -0.48235694 -0.30379948 -0.38032275 -0.4786926 0.030123878
0.20683822 0.09031553 -0.43570766 0.27997947 -0.4771733 -0.3305701 -0.0054583205 -0.4792224
0.5312014 -0.4025265 0.9968732 -0.55779076 0.093975104 -0.520154 -0.035097845 1.6061832
00000000: c043 373d 592e 90be bfa6 223d bc16 fcbe
00000010: 06c1 8bbe 405f e8be a132 0e3f 627d 29bf
00000020: beba dabe cbea aebe c23f 383b 7df7 f6be
00000030: 9b8b 9bbe aab9 c2be 3217 f5be 5ac6 f63c
00000040: 66cd 533e 59f7 b83d 1315 dfbe 7859 8f3e
00000050: 0f50 f4be 7c40 a9be b6db b2bb a35c f5be
00000060: d1fc 073f f417 cebe 1533 7f3f 60cb 0ebf
00000070: 0576 c03d d028 05bf c2c2 0fbd 6997 cd3f

exp_avg f4 [64, 12]
6e-45 6e-45 6e-45 6e-45 6e-45 6e-45 6e-45 6e-45
0.0 6e-45 0.0 6e-45 0.00034664618 0.0010477408 -0.00016565343 0.0014350774
0.0011079984 -0.0033878041 0.0006703255 0.0010477408 0.0037244672 0.004454959 0.00061799947 0.00055190315
-0.0035522839 0.00042932655 -0.00627573 0.00031863435 -0.0014263733 -0.0063890656 0.00017675859 0.00042932655
-0.0009256787 -0.0018873899 -0.00209866 -0.0040071765 0.001645024 0.0013414514 0.003415522 0.0018908586
0.0021776955 0.0015070244 0.00061038387 0.0013414514 0.0037527417 0.0019738784 0.0028545489 0.0013301027
-0.020002801 -0.0043332996 -0.0003198388 -0.0071268827 -0.009047279 0.0012434729 -0.002280773 -0.0043332996
-0.009545929 -0.013233288 0.00022667069 -0.02137136 -0.002095361 0.00017321703 -0.0030441708 7.82927e-05
-0.0008378197 -0.0036202604 3.949746e-05 0.00017321703 -0.0011456658 -0.0014992178 -0.0012984829 -0.0023746346
-0.0024902935 -0.00032443966 -0.0030193317 -0.0006084164 -0.0013529917 -0.0027919363 -0.000115887604 -0.00032443966
-0.0011499124 -0.0004099223 -0.0006419509 -0.0026150013 -0.00027601796 -0.00018440107 0.0 -0.00045769208
-0.00055581913 -0.0007180259 -6.5150074e-05 -0.00018440107 -0.0011201232 -0.00020948095 -0.0011201232 0.00021615288
0.0014755238 0.00096690736 0.0034659347 0.0014595338 0.0019053128 0.0005801949 0.00046196068 0.00096690736
0.0037715982 0.0018787911 0.0030050068 0.0013065113 -0.003932551 -4.0684314e-05 -0.002899981 -0.0006337498
-0.0021113907 -0.006053729 0.00021758254 -4.0684314e-05 6e-45 0.00075327215 -0.0017379432 -0.0043461807
-0.0003906157 -0.00017525176 -0.00051283353 -0.0003573681 -0.0002821473 -0.0012363753 -0.00011827482 -0.00017525176
-0.0007946324 -0.0008203845 -0.00070856785 -0.0004467097 -0.00026886587 0.00018499077 2.4409836e-05 0.00017485255
8.263327e-05 -0.0005491867 3.3089264e-06 0.00018499077 -0.00069568126 -0.0011609177 2.3631175e-05 -0.00046671237
0.0004382488 1.0573658e-05 0.0022294254 -0.0002529812 0.00018363315 0.0005189399 -8.1070946e-05 1.0573658e-05
0.0018504361 0.0012396637 0.001992215 0.00030799833 0.001209035 -0.0004111236 -0.00027756556 -0.0003974533
0.0005103675 0.0012668634 -0.00012005944 -0.0004111236 -0.0022396017 -0.00019617335 -0.0007122764 0.0013201713
-1.9227548e-06 0.0005784645 0.005427857 0.00049084274 0.0022276354 0.0017996416 0.0007026885 0.0005784645
0.008578852 0.0072082044 0.009564019 0.0013943084 -0.001167284 0.0006962611 -0.0013413354 0.00084022473
0.0001847902 -0.0028941475 0.000320029 0.0006962611 0.0011158517 0.00018340345 0.00042651856 -0.0014191688
-0.00077495584 0.0010271949 -0.0008422908 0.0013094959 0.0007212989 -0.0028932274 0.0005322951 0.0010271949
0.0032268236 0.0013880339 0.0014053397 -0.0010364433 0.0022060806 0.002852936 0.00668109 0.0038853083
0.0038499222 0.0005427201 0.0010958901 0.002852936 0.006900035 0.0029250754 0.004702643 0.0018350652
-0.00073336647 0.00015532454 -0.0007471727 0.00021218212 -3.137452e-06 -0.0012042923 2.3538882e-05 0.00015532454
-0.00026356123 4.950565e-06 0.00037057415 -0.00076280505 0.0008055281 0.0009153352 0.0024148452 0.0013108382
0.0015970055 0.00019463059 0.0004758174 0.0009153352 0.0028772065 0.0018873776 0.0022813564 0.0005693538
0.0007204742 1.410325e-05 -0.0022061067 0.0002476855 -0.0007941797 -0.0017002872 3.2888514e-05 1.410325e-05
0.0007221329 0.00038319934 0.00016200967 0.00018841724 -0.00013746093 -0.0012087692 0.0040805293 -0.0013660358
00000000: 0400 0000 0400 0000 0400 0000 0400 0000
00000010: 0400 0000 0400 0000 0400 0000 0400 0000
00000020: 0000 0000 0400 0000 0000 0000 0400 0000
00000030: 10be b539 5954 893a 41b3 2db9 3519 bc3a
00000040: 423a 913a ec05 5ebb c8b8 2f3a 5954 893a
00000050: 3116 743b e8fa 913b 3e01 223a 98ad 103a
00000060: 6fcd 68bb 3c17 e139 a4a4 cdbb 610e a739
00000070: 25f5 baba 5e5b d1bb 4658 3939 3c17 e139
00000080: 3fa9 72ba 4c62 f7ba ac89 09bb a24e 83bb
00000090: d99d d73a a4d3 af3a f3d6 5f3b b0d6 f73a
000000a0: abb7 0e3b 5987 c53a 2b02 203a a4d3 af3a
000000b0: 8ff0 753b 2f5c 013b 6213 3b3b d756 ae3a
000000c0: eadc a3bc 5afe 8dbb 09b0 a7b9 a088 e9bb
000000d0: 0a3b 14bc 07fc a23a 0579 15bb 5afe 8dbb
000000e0: 8766 1cbc 6fd0 58bc 73ae 6d39 fe12 afbc
000000f0: 5352 09bb 98a1 3539 b680 47bb 1331 a438
00000100: 21a1 5bba e441 6dbb 13aa 2538 98a1 3539
00000110: 2a2a 96ba 6781 c4ba db31 aaba c29f 1bbb
00000120: 3134 23bb 8e19 aab9 fbdf 45bb 227e 1fba
00000130: de56 b1ba ebf8 36bb af08 f3b8 8e19 aab9
00000140: a8b8 96ba d7ea d6b9 9848 28ba 7160 2bbb
00000150: 81b6 90b9 c95b 41b9 0000 0000 64f6 efb9
00000160: 64b4 11ba e739 3cba 2ea1 88b8 c95b 41b9
00000170: 19d1 92ba 1da8 5bb9 19d1 92ba 19a7 6239
00000180: 5d66 c13a 0e78 7d3a bc24 633b d44d bf3a
00000190: b0bb f93a 3818 183a 5033 f239 0e78 7d3a
000001a0: eb2c 773b c541 f63a a6ef 443b 3f3f ab3a
000001b0: a1dc 80bb 73a4 2ab8 9c0d 3ebb 3b22 26ba
000001c0: 425f 0abb 5c5e c6bb de26 6439 73a4 2ab8
000001d0: 0400 0000 3d77 453a b2cb e3ba 686a 8ebb
000001e0: 8dcb ccb9 c9c3 37b9 ad6f 06ba 225d bbb9
000001f0: 2bed 93b9 df0d a2ba 4f0a f8b8 c9c3 37b9
00000200: e14e 50ba 120f 57ba 2fbf 39ba 5c34 eab9
00000210: 91f6 8cb9 15fa 4139 b9c3 cc37 a058 3739
00000220: 664b ad38 4cf7 0fba ec0e 5e36 15fa 4139
00000230: 615e 36ba ef29 98ba 903b c637 13b1 f4b9
00000240: c2c4 e539 8465 3137 8d1b 123b 90a2 84b9
00000250: a68d 4039 7809 083a a204 aab8 8465 3137
00000260: 558a f23a 367c a23a d28f 023b d67a a139
00000270: 7c78 9e3a 138c d7b9 3886 91b9 4761 d0b9
00000280: 2fca 053a e20c a63a 6cc8 fbb8 138c d7b9
00000290: 48c6 12bb e2b3 4db9 0fb8 3aba 9909 ad3a
000002a0: ad08 01b6 18a4 173a 2adc b13b e6ab 003a
000002b0: 85fd 113b f4e1 eb3a a134 383a 18a4 173a
000002c0: 508e 0c3c cd32 ec3b 67b2 1c3c 3ac1 b63a
000002d0: 8dff 98ba 4b85 363a bfcf afba 8742 5c3a
000002e0: 3ec4 4139 bdab 3dbb 91c9 a739 4b85 363a
000002f0: c541 923a fd4f 4039 5a9e df39 6703 baba
00000300: 6826 4bba f1a2 863a 2ecd 5cba 64a3 ab3a
00000310: 8d15 3d3a 4d9c 3dbb b889 0b3a f1a2 863a
00000320: 1e79 533b b0ee b53a 6033 b83a 44d9 87ba
00000330: e493 103b 53f8 3a3b 0ced da3b a8a0 7e3b
00000340: fa4e 7c3b 5445 0e3a f8a3 8f3a 53f8 3a3b
00000350: b019 e23b 9fb2 3f3b a118 9a3b 9286 f03a
00000360: 643f 40ba 9dde 2239 e9dd 43ba 347d 5e39
00000370: 048d 52b6 58d9 9dba 5d75 c537 9dde 2239
00000380: 972e 8ab9 081d a636 9f49 c239 fbf6 47ba
00000390: 132a 533a 1bf3 6f3a 6142 1e3b 6ed0 ab3a
000003a0: 9d52 d13a c015 4c39 2177 f939 1bf3 6f3a
000003b0: 848f 3c3b e261 f73a cf82 153b b040 153a
000003c0: 35de 3c3a ff9c 6c37 5494 10bb c9db 8139
000003d0: 7f30 50ba 2cdc deba c6f1 0938 ff9c 6c37
000003e0: 854d 3d3a 25e8 c839 24e1 2939 de91 4539
000003f0: 6323 10b9 906f 9eba f6b5 853b 8e0c b3ba

exp_avg_sq f4 [64, 12]
7e-43 7e-43 7e-43 7e-43 7e-43 7e-43 7e-43 7e-43
0.0 7e-43 0.0 7e-43 0.00077110017 1.6835254e-05 0.00021650518 9.686986e-05
0.00017065354 0.0011271224 3.5010262e-06 1.6835254e-05 0.00036152874 0.00032458417 0.00033286968 0.0008059786
0.00068613625 8.745498e-06 0.00078345597 3.335471e-05 9.91876e-05 0.00065913505 2.2746758e-06 8.745498e-06
0.00038446058 0.00033527915 0.00025250885 0.0006941589 0.00018921241 1.2739017e-05 0.00022420111 4.479171e-05
6.6527886e-05 0.0003922167 2.9203281e-06 1.2739017e-05 0.00020662246 0.00014831703 0.00021341458 0.00021591512
0.001914987 6.152553e-05 1.19152e-05 0.00032611724 0.0005906367 0.000881856 1.4641337e-05 6.152553e-05
0.0016181539 0.0010658967 0.0013923373 0.0022158625 0.00016160303 1.9740137e-06 0.00021337086 6.9717476e-06
2.392948e-05 0.0001521633 4.6186005e-07 1.9740137e-06 8.3925646e-05 7.297554e-05 5.2846826e-05 0.00016393249
0.00019751913 1.2617897e-06 0.00025556394 4.8012107e-06 2.5168321e-05 0.0001241394 2.2545082e-07 1.2617897e-06
4.4824097e-05 4.0020375e-05 3.4081877e-05 0.00019712528 1.3966823e-06 2.9485088e-07 0.0 2.3106984e-06
3.418373e-06 1.9975025e-05 1.9329633e-07 2.9485088e-07 4.257407e-05 3.7209815e-05 4.257433e-05 9.928496e-07
0.00013360931 9.728587e-06 0.00013874711 3.1288793e-05 4.5216886e-05 0.00024779598 1.992494e-06 9.728587e-06
0.00013969112 7.9571124e-05 0.000116700336 0.00015037836 0.0006283959 2.0787282e-05 0.0006815752 7.137138e-05
0.000134807 0.0008397775 2.2347278e-06 2.0787282e-05 2.3456732e-25 6.619939e-05 1.7984894e-05 0.00062903384
6.1473684e-06 4.7828325e-07 1.3741471e-05 2.0431594e-06 3.66905e-06 4.1701358e-05 1.0408424e-07 4.7828325e-07
1.22196325e-05 8.405062e-06 1.247129e-05 7.264663e-06 2.0933801e-05 1.195277e-06 2.5634545e-05 3.813063e-06
5.911002e-06 3.5612895e-05 2.3899838e-07 1.195277e-06 1.9633115e-05 1.2100004e-05 1.7621776e-05 2.36245e-05
2.6715456e-05 2.3247528e-06 0.00013145896 1.2988754e-05 2.8366421e-05 0.00020001548 6.894681e-07 2.3247528e-06
0.000119207165 9.6289674e-05 0.00012062993 3.543141e-05 0.00032969489 6.3350803e-06 0.0002295749 2.5094527e-05
4.9722734e-05 0.00047262735 1.4596745e-06 6.3350803e-06 0.00018698873 0.00014010874 0.00013049306 0.00033649648
0.00033970168 2.826417e-06 0.00038661688 1.6513555e-05 6.8450994e-05 0.00018229456 8.0047914e-07 2.826417e-06
0.00017863332 0.00016225498 0.00011187422 0.000347008 0.00023889502 6.9050125e-06 0.0002613677 2.3227794e-05
4.582598e-05 0.00031469736 1.6325785e-06 6.9050125e-06 0.00016224664 0.00012312489 0.00011826329 0.0002486325
0.0003504158 1.2413105e-05 0.00033793788 4.1911662e-05 7.385049e-05 0.00050595065 2.920474e-06 1.2413105e-05
0.0002656452 0.00019577943 0.00019913574 0.00036757722 0.0009211179 5.0859562e-05 0.0007784298 0.00016908305
0.00024856976 0.001576855 1.2557688e-05 5.0859562e-05 0.00096971047 0.0006752745 0.00077272893 0.0010114
8.181202e-05 1.5441485e-06 0.000100079946 4.804911e-06 1.2337641e-05 6.0691556e-05 3.5149114e-07 1.5441485e-06
2.855546e-05 2.5895486e-05 9.954986e-06 8.240283e-05 0.00012433146 8.426448e-06 0.00012822729 2.6897173e-05
3.924129e-05 0.00022348951 1.9964566e-06 8.426448e-06 0.00014332219 9.656929e-05 0.000119483084 0.00013931455
0.0003506896 1.2467315e-05 0.00026589684 5.397164e-05 9.058968e-05 0.0005554123 4.0696244e-07 1.2467315e-05
6.4337815e-05 1.3489891e-05 4.5874192e-05 0.0003536522 0.0017378143 2.0712236e-05 0.001467891 9.967443e-05
00000000: f401 0000 f401 0000 f401 0000 f401 0000
00000010: f401 0000 f401 0000 f401 0000 f401 0000
00000020: 0000 0000 f401 0000 0000 0000 f401 0000
00000030: a823 4a3a 6f39 8d37 ab05 6339 9c26 cb38
00000040: 76f1 3239 f4bb 933a 2cf3 6a36 6f39 8d37
00000050: 918b bd39 f32c aa39 0385 ae39 4f48 533a
00000060: d3dd 333a a1b9 1237 d760 4d3a 59e6 0b38
00000070: f002 d038 cec9 2c3a a2a6 1836 a1b9 1237
00000080: 6d91 c939 68c8 af39 2a63 8439 37f8 353a
00000090: 5267 4639 a9b9 5537 8717 6b39 bbde 3b38
000000a0: e384 8b38 6fa2 cd39 dbfa 4336 a9b9 5537
000000b0: cba8 5839 8d85 1b39 0ac8 5f39 4667 6239
000000c0: 4d00 fb3a 4407 8138 65e7 4737 b7fa aa39
000000d0: f5d4 1a3a 5b2c 673a 10a4 7537 4407 8138
000000e0: 3c18 d43a 8fb5 8b3a 167f b63a 0138 113b
000000f0: fc73 2939 4c79 0436 4ebc 5f39 dbee e936
00000100: 2bbc c837 068e 1f39 90f5 f734 4c79 0436
00000110: 3d01 b038 720a 9938 d9a7 5d38 4be5 2b39
00000120: 231d 4f39 c45a a935 36fd 8539 161a a136
00000130: 8f20 d337 6b2b 0239 7313 7234 c45a a935
00000140: 8201 3c38 8ddb 2738 23f3 0e38 6ab3 4e39
00000150: a375 bb35 ff4b 9e34 0000 0000 7f11 1b36
00000160: 3367 6536 0a90 a737 e48c 4f34 ff4b 9e34
00000170: 8f91 3238 bc11 1c38 d791 3238 0d42 8535
00000180: 7a19 0c39 f737 2337 a57c 1139 163c 0338
00000190: 43a7 3d38 9dea 8139 c9b6 0536 f737 2337
000001a0: 0d7a 1239 6cdf a638 04bd f438 e2ae 1d39
000001b0: efba 243a 5960 ae37 bdab 323a 38ad 9538
000001c0: fb5a 0d39 8424 5c3a 55f8 1536 5960 ae37
000001d0: ad30 9116 87d4 8a38 44de 9637 bfe5 243a
000001e0: 7e45 ce36 6063 0035 2b8b 6637 361d 0936
000001f0: cd39 7636 7ee8 2e38 eb84 df33 6063 0035
00000200: ec02 4d37 7703 0d37 c83b 5137 fbc2 f336
00000210: ff9a af37 686d a035 c409 d737 ece3 7f36
00000220: 1f57 c636 0e5f 1538 b04f 8034 686d a035
00000230: cbb1 a437 1f01 4b37 7ad2 9337 3a2d c637
00000240: 011b e037 f302 1c36 3fd8 0939 46ea 5937
00000250: 6df4 ed37 3fbb 5139 e313 3935 f302 1c36
00000260: dcfe f938 20ef c938 b3fa fc38 309c 1438
00000270: e6da ac39 ed91 d436 0bba 7039 1682 d237
00000280: 618d 5038 f8ca f739 09ea c335 ed91 d436
00000290: 6812 4439 27ea 1239 f7d4 0839 cb6b b039
000002a0: fd19 b239 79ad 3d36 d7b2 ca39 9786 8a37
000002b0: 598d 8f38 5326 3f39 82e0 5635 79ad 3d36
000002c0: 844f 3b39 fd22 2a39 049e ea38 a0ee b539
000002d0: e57f 7a39 9bb1 e736 2e08 8939 4fd9 c237
000002e0: 4535 4038 f7fd a439 f81e db35 9bb1 e736
000002f0: c020 2a39 161b 0139 1f04 f838 e45a 8239
00000300: 03b8 b739 e141 5037 412d b139 4eca 2f38
00000310: 2ee0 9a38 c6a1 043a 5cfd 4336 e141 5037
00000320: 4c46 8b39 244a 4d39 18cf 5039 61b7 c039
00000330: 2d77 713a 0a52 5538 8a0f 4c3a e34b 3139
00000340: 7852 8239 79ae ce3a dcae 5237 0a52 5538
00000350: 2b34 7e3a e804 313a f690 4a3a f490 843a
00000360: 7e92 ab38 8a40 cf35 03e2 d138 df39 a136
00000370: c4fd 4e37 108f 7e38 93b4 bc34 8a40 cf35
00000380: 628a ef37 223a d937 5704 2737 afcf ac38
00000390: f95e 0239 525f 0d37 c074 0639 3da1 e137
000003a0: 0497 2438 8258 6a39 ddfa 0536 525f 0d37
000003b0: c248 1639 3e85 ca38 fe92 fa38 f714 1239
000003c0: c3dc b739 b62a 5137 1268 8b39 9b5f 6238
000003d0: f7fa bd38 1799 113a 7e7c da34 b62a 5137
000003e0: 1aed 8638 a452 6237 0a69 4038 656a b939
000003f0: 5fc7 e33a 30bf ad37 4066 c03a 4d08 d138

exp_avg f4 [64]
6e-45 0.0012466753 -0.0053419857 0.0040315916 -0.015038583 -0.0033279778 -0.0034028844 -0.0011201231
0.003081854 -0.0067705372 -0.0013738303 -0.0005982986 0.0012764113 -0.00012368515 0.004117637 -0.0009895822
-9.195464e-05 0.007867714 -0.0006351675 0.0025414813 -0.0020944546 -0.0013038395 -0.0029809594 0.0018090504
-0.0025867282 -0.0016644421 -0.0005929647 -0.00082214456 0.0032552646 0.0006371658 0.0027191534 -0.0033224707
0.005413276 -0.0017205224 0.00091164553 -0.0012197882 -0.0034719526 -0.00022501605 0.0071431557 0.0007494023
0.0040458776 0.001233932 0.023482474 0.007415536 -0.0004970949 -0.0052546775 -0.0043063383 0.0018589183
0.00048500742 0.008026651 0.0009865445 -0.0025304626 -0.0010358517 0.0019550335 -0.00938584 0.00026551145
-0.002374845 1.9172296e-05 0.00033573573 -0.0018521394 -0.0036681585 0.004527055 -0.0009176475 -0.0005812767
00000000: 0400 0000 7b67 a33a d30b afbb 711b 843b
00000010: 6464 76bc 341a 5abb ed02 5fbb 18d1 92ba
00000020: eef8 493b 62db ddbb 1812 b4ba 24d7 1cba
00000030: 424d a73a 7bb1 01b9 3eed 863b deb4 81ba
00000040: c5d7 c0b8 96e7 003c 5f81 26ba fb8e 263b
00000050: 1e43 09bb 98e5 aaba 335c 43bb a91d ed3a
00000060: 1986 29bb 6929 daba 3071 1bba 3085 57ba
00000070: 4756 553b 7907 273a d333 323b cfbd 59bb
00000080: da61 b13b 2783 e1ba 7ffb 6e3a 4de1 9fba
00000090: b389 63bb 49f2 6bb9 2211 ea3b 8973 443a
000000a0: 4893 843b e3bb a13a 515e c03c 06fe f23b
000000b0: 794f 02ba 6e2f acbb 2f1c 8dbb f3a6 f33a
000000c0: 9848 fe39 3782 033c f14e 813a 1ed6 25bb
000000d0: 6ac5 87ba 0520 003b 11c7 19bc 5834 8b39
000000e0: 4aa3 1bbb 31d4 a037 b005 b039 7cc3 f2ba
000000f0: 7d65 70bb b157 943b 488e 70ba d260 18ba

exp_avg_sq f4 [64]
7e-43 0.0018617884 0.0011547048 0.0006508256 0.005810414 0.0002777344 0.00028517476 4.257433e-05
0.00041291353 0.0014404156 4.9243612e-05 5.9821836e-05 0.00032882477 0.0006201537 0.0007342434 0.00049936766
0.0007797069 0.0024421432 0.00013003896 0.00036667092 0.00096425554 0.0035922495 0.0006743831 0.00016688312
0.0008084104 0.00017533258 2.2812204e-05 0.00029444633 0.0002023753 0.00019546703 0.00043923216 0.00034509288
0.00038893052 0.00065010315 0.00049900234 0.0021966056 0.0004357521 0.0013401281 0.0005786821 0.00052789826
0.00036234298 0.0021996766 0.0068419026 0.0007084471 4.4522683e-05 0.0014264884 0.000108474116 0.00052117335
0.00047451572 0.0011865087 0.0002960503 7.6509656e-05 0.0009350834 0.0009594801 0.004364674 4.709477e-05
0.00020329263 0.00059627474 0.00066922174 0.0033689137 0.00067159865 0.00027626142 0.00064856216 0.00016959466
00000000: f401 0000 4107 f43a 7759 973a 2b9c 2a3a
00000010: 4965 be3b e19c 9139 8283 9539 d791 3238
00000020: 517c d839 54cc bc3a ed8a 4e38 35e9 7a38
00000030: 1d66 ac39 cf91 223a 3e7a 403a ffe7 023a
00000040: 3f65 4c3a 5d0c 203b 115b 0839 bd3d c039
00000050: 18c6 7c3a f26b 6b3b 15c9 303a 59fd 2e39
00000060: 81eb 533a 7bd9 3739 d65c bf37 eb5f 9a39
00000070: b534 5439 48f6 4c39 be48 e639 95ed b439
00000080: 5fe9 cb39 af6b 2a3a 7bcf 023a edf4 0f3b
00000090: a875 e439 3da7 af3a b3b2 173a a762 0a3a
000000a0: daf8 bd39 7328 103b 0a32 e03b 15b7 393a
000000b0: debd 3a38 02f9 ba3a 997c e338 5a9f 083a
000000c0: 6cc8 f839 a084 9b3a 3337 9b39 cf73 a038
000000d0: 6220 753a 9f85 7b3a 8a05 8f3b a087 4538
000000e0: f32a 5539 524f 1c3a b66e 2f3a fec8 5c3b
000000f0: 390e 303a 2ed7 9039 4504 2a3a 38d5 3139
