models/checkpoint_400000.pt (torch, 125871 bytes, 33 tensors)

shared.0.weight f4 [64, 12]
0	0xbe141d4e	-0.14464304
1	0x3d0aaf6e	0.03385871
2	0x3e49cb90	0.19706559
3	0x3f43d2cc	0.76493526
4	0xbe172a7b	-0.14762299
5	0xbe0b6768	-0.13613665
6	0xbe5214fd	-0.20515819
7	0xbe15ae70	-0.14617324
8	0xbda06240	-0.0783124
9	0x3d542cf6	0.05180069
10	0xbe224bde	-0.15849254
11	0x3e03e24f	0.12879299
12	0xbdb41c4c	-0.0879446
13	0xbd5ccb2b	-0.053904694
14	0xbe6532b2	-0.2238262
15	0x3eef310e	0.46717113
16	0xbda51399	-0.080603786
17	0xbea7aee4	-0.32750618
18	0x3e03587f	0.12826727
19	0x3e31b28b	0.17353265
20	0xbd968372	-0.0734929
21	0xbe287323	-0.16450171
22	0xbd4b2dbe	-0.04960417
23	0xbc2bc82c	-0.010484736
24	0x3d9ee311	0.07758153
25	0xbeb477f5	-0.3524777
26	0x3c855130	0.016274065
27	0xbe3ba550	-0.1832478
28	0xbec403bf	-0.38284108
29	0xbc6e975f	-0.014562457
30	0x3cc56c4e	0.024099495
31	0xbe9f3eab	-0.311025
32	0xbe723055	-0.2365125
33	0x3e07f78d	0.13278027
34	0x3e8258d5	0.25458398
35	0x3d2a9dc8	0.04165438
36	0xbe196f78	-0.14983928
37	0xbea92339	-0.33034685
38	0xbcb6c770	-0.022311896
39	0x3da6252f	0.08112561
40	0x3d9bf1d9	0.07614488
41	0x3e8cf5dd	0.2753133
42	0x3e88d42d	0.26724377
43	0xbb290e66	-0.0025795936
44	0xbe712060	-0.23547506
45	0xbc89aa44	-0.016804822
46	0x3e10d37d	0.14143176
47	0x3da6b5f4	0.081401736
48	0x3e56c8e2	0.20975068
49	0xbe817a04	-0.25288403
50	0x3e076d71	0.13225342
51	0xbf1cfbbc	-0.61321616
52	0xbe2ebf5a	-0.17065182
53	0x3d5419ae	0.051782303
54	0xbf23c3fb	-0.6397092
55	0xbdd5f5e7	-0.10447293
56	0x3d75e7c1	0.06003547
57	0x3e29bd48	0.16576111
58	0xbe40980f	-0.18808006
59	0xbe4954eb	-0.196613
60	0xbe2d3ccd	-0.16917725
61	0xbcc65073	-0.024208283
62	0xbe9196cb	-0.28435358
63	0xbefb097e	-0.4903068
64	0xbec08c7e	-0.37607187
65	0x3d88f763	0.0668781
66	0xbe1dd098	-0.15411603
67	0xbdaf77f8	-0.08567804
68	0x3bd8d66c	0.006617358
69	0xbca6dad4	-0.020368017
70	0xbd37cb7e	-0.0448718
71	0x3e0043ef	0.12525915
72	0xbdffaf3c	-0.12484595
73	0x3efd3f36	0.4946229
74	0x3d410b8c	0.047130153
75	0x3ec2e803	0.38067636
76	0xbf1646e7	-0.5870194
77	0xbe670a21	-0.22562458
78	0x3d549735	0.051902015
79	0x3e8ad629	0.27116516
80	0x3dc11859	0.09428472
81	0xbc69a405	-0.014260297
82	0xbd4463a4	-0.047946587
83	0x3e0d6347	0.13807403
84	0x3d91570c	0.07096681
85	0xbeaa2460	-0.33230877
86	0x3d0142a4	0.031557694
87	0xbebf43e0	-0.37356472
88	0xbef4d383	-0.4781762
89	0xbd25f535	-0.04051705
90	0xbef3f525	-0.47647968
91	0xbe67bee2	-0.2263141
92	0xbd146292	-0.036226816
93	0xbe90065f	-0.2812986
94	0x3e2212c1	0.15827467
95	0x3d397a24	0.045282498
96	0xbe9ec34c	-0.31008375
97	0xbf000852	-0.50012696
98	0x3db45cb0	0.08806741
99	0xbe9ddfdd	-0.30834857
100	0x3e5c2af6	0.21500763
101	0x3dbca83e	0.09211777
102	0xbf9a44f3	-1.2052292
103	0xbece1433	-0.40249786
104	0x3e11f38e	0.14253065
105	0x3d574560	0.052556396
106	0xbb434e68	-0.0029801372
107	0xbf3e1cbe	-0.7426261
108	0x3d4fdee9	0.050749693
109	0x3e7ab9fc	0.2448501
110	0x3dde6597	0.108592205
111	0xbd8cbfbf	-0.0687251
112	0xbecbe7fe	-0.39825433
113	0x3dda6e1e	0.106655344
114	0xbf97e149	-1.1865627
115	0x3dc29d76	0.095026895
116	0x3c5ebe74	0.013595212
117	0xbefea751	-0.49737027
118	0x3d96e082	0.0736704
119	0xbe825edf	-0.25463006
120	0xbe1b0781	-0.15139581
121	0x3e54dddd	0.20787759
122	0x3d2cd437	0.04219457
123	0x3ec5e881	0.3865395
124	0xbf0e8c9d	-0.5568331
125	0xbe5c034d	-0.21485634
126	0x3d44e1aa	0.048066773
127	0x3d69651a	0.056981184
128	0xbbc5a2bb	-0.006031362
129	0x3cd15241	0.025551917
130	0x3d9f2154	0.07770029
131	0x3e6bcdee	0.23027775
132	0xbeb0e75d	-0.34551516
133	0x3f013d99	0.50484616
134	0x3dc5f136	0.09665148
135	0x3f772b55	0.96550494
136	0xbe6de347	-0.2323123
137	0xbde20fd3	-0.110381745
138	0x3ebc5fda	0.3679188
139	0x3ec872a3	0.3914996
140	0x3d524d0e	0.051343016
141	0xbd5e2a19	-0.054239366
142	0x3ce71853	0.02820984
143	0x3e375830	0.17904735
144	0xbe8fce58	-0.28087115
145	0x3eccb459	0.39981344
146	0xbd22cfcf	-0.039748963
147	0x3e1e6f9e	0.15472266
148	0xbe824b97	-0.25448295
149	0x3dc69685	0.09696678
150	0x3ea87b42	0.32906538
151	0x3e062bce	0.13102648
152	0x3d5d28fd	0.053994168
153	0xbe4d6810	-0.20059228
154	0xbe258f04	-0.16167837
155	0x3d1b7624	0.037954465
156	0xbecd837a	-0.4013937
157	0x3e238558	0.15968835
158	0xbdceb263	-0.10092618
159	0x3ef368c2	0.4754086
160	0x3e26f8de	0.16305873
161	0x3e062256	0.13099036
162	0x3f4ff3d1	0.8123141
163	0x3ecd03f0	0.40042067
164	0x3dc51873	0.09623804
165	0xbe83514c	-0.25647962
166	0x3dc97805	0.09837345
167	0x3eaee605	0.34159866
168	0xbdbeba4f	-0.09312879
169	0x3d39abcb	0.04532985
170	0xbe22a0de	-0.15881678
171	0x3ef36e11	0.47544912
172	0xbefd6d24	-0.4949733
173	0x3e2ca8ed	0.16861315
174	0x3ea0110d	0.3126301
175	0xbd4384a3	-0.047733914
176	0xbcc86e28	-0.02446659
177	0xbd45184f	-0.048118886
178	0x3e688510	0.2270701
179	0x3ea44af2	0.3208843
180	0x3af6c00f	0.0018825548
181	0xbed7ca9b	-0.42146763
182	0x3e29a425	0.16566522
183	0x3d28e908	0.04123786
184	0xbeb8be44	-0.3608266
185	0xbd19f7ed	-0.037589956
186	0xbe9e7814	-0.30950987
187	0xbeaca20f	-0.3371739
188	0x3ea09e2c	0.31370676
189	0xbcc24087	-0.02371241
190	0x3ddec081	0.10876561
191	0xbe10d569	-0.1414391
192	0xbe7d758e	-0.24751875
193	0x3ec324f2	0.38114125
194	0xbd419846	-0.04726436
195	0x3f18298a	0.59438384
196	0xbdaaef63	-0.08346441
197	0xbd315264	-0.043291464
198	0x3ee55051	0.4478784
199	0x3f29820f	0.6621408
200	0xbe1aec35	-0.15129168
201	0xbd6dab00	-0.058024406
202	0x3d8ee45b	0.06977149
203	0x3e82c587	0.25541326
204	0x3c990c5e	0.018682655
205	0x3c820370	0.01587078
206	0xbe24deba	-0.16100588
207	0xbd8e186c	-0.06938252
208	0xbe1aa945	-0.15103634
209	0xbd155a83	-0.03646327
210	0x3d30f67b	0.043203812
211	0xbd65363b	-0.05595992
212	0xbd86ab06	-0.06575589
213	0xbdc562c7	-0.09637981
214	0xbd96c731	-0.073622115
215	0xbd01ed38	-0.03172037
216	0xbe6a56d3	-0.22884683
217	0x3f14be7f	0.58103174
218	0x3e127ae6	0.14304695
219	0x3ed55ff9	0.41674784
220	0xbbb597c3	-0.005541773
221	0x3db7b2f4	0.089696795
222	0x3e8e8218	0.2783363
223	0x3f1a6907	0.6031651
224	0xbda1b880	-0.07896519
225	0x3d801d93	0.06255641
226	0xbf177317	-0.5915999
227	0xbe6d8d92	-0.23198536
228	0x3e86c5a7	0.26322672
229	0xbee2c813	-0.4429327
230	0xbedb9fab	-0.42895254
231	0x3f10443f	0.56354135
232	0x3e35f496	0.17769083
233	0xbd76fadd	-0.060297836
234	0xbf19f425	-0.6013816
235	0xbec4f473	-0.3846775
236	0x3d126fc1	0.035751108
237	0x3e118b71	0.14213349
238	0xbe14cfa5	-0.14532335
239	0xbe14fc98	-0.14549482
240	0x3dcfba24	0.101429254
241	0xbde97c78	-0.11400694
242	0xbe1a6ad7	-0.15079819
243	0xbd565297	-0.052324858
244	0xbef86db7	-0.48521206
245	0x3e704345	0.23463161
246	0xbe9dc319	-0.3081291
247	0xbd6a17f7	-0.05715176
248	0xbe0a1653	-0.13485079
249	0x3e8a2729	0.26983002
250	0xbe6abbbe	-0.2292318
251	0xbeb727bd	-0.35772505
252	0x3e95d8c4	0.29266942
253	0xbe3a0997	-0.1816772
254	0x3c0e59cd	0.008688402
255	0xbfcebd44	-1.6151509

shared.0.bias f4 [64]
0	0x3e5e764a	0.21724811
1	0x3e226511	0.15858866
2	0x3e115a79	0.14194669
3	0xbdf9719c	-0.121798724
4	0x3e8b79c1	0.27241328
5	0x3d7c00ee	0.061524324
6	0x3e759f26	0.23986492
7	0x3ccb75f7	0.024836523
8	0x3ead16a5	0.3380634
9	0x3e49c858	0.19705331
10	0x3e8351c6	0.25648326
11	0x3e228823	0.15872245
12	0x3df34dd0	0.11880076
13	0x3d82792b	0.06370767
14	0x3dd240c5	0.1026626
15	0x3d79f5ca	0.06102542
16	0x3e1a3322	0.15058568
17	0x00000000	0.0
18	0x3e6336ad	0.22188826
19	0x3e7e23fa	0.24818411
20	0x3d566272	0.05233998
21	0x3ea32289	0.31862286
22	0x3c8b528a	0.017007131
23	0xbe5b8394	-0.21436912
24	0x3ecce65c	0.400195
25	0x3ea21304	0.31655133
26	0x3ea61782	0.3243981
27	0xbc1bfdc4	-0.009520952
28	0x3dfa84d9	0.1223237
29	0xbd26a3a1	-0.040683392
30	0x3eb9796f	0.3622546
31	0x3e635024	0.2219854
32	0x3e9a8a7a	0.30183774
33	0xbb0fc349	-0.0021936467
34	0xbc828d0a	-0.015936393
35	0x3e28156b	0.1641442
36	0x3eb1a812	0.3469854
37	0xbd5ba136	-0.05362054
38	0x3ec6832a	0.38771945
39	0x3e65f6aa	0.22457376
40	0x3e7f85da	0.24953404
41	0x00000000	0.0
42	0x3e8f2954	0.27961218
43	0xbe59c5bf	-0.2126684
44	0x3e5f87fe	0.2182922
45	0x3ead187f	0.33807752
46	0x3ea3ebaf	0.3201575
47	0x3ea9d572	0.33170658
48	0x3debf3a3	0.115210794
49	0x3dd731c2	0.105075374
50	0x3cb79efe	0.02241468
51	0x3da932be	0.082616314
52	0x3e88a27c	0.26686466
53	0x3e81916e	0.25306267
54	0x3e7bb208	0.24579632
55	0x3e89f325	0.26943317
56	0x00000000	0.0
57	0x3e3ff488	0.18745625
58	0xbe910d67	-0.28330538
59	0x3d8fd980	0.07023907
60	0x3e899b09	0.26876095
61	0x3db71dad	0.08941207
62	0x3e2379b4	0.15964395
63	0x3e484c13	0.1956027

shared.2.weight f4 [64, 64]
0	0xbe0359ad	-0.12827177
1	0xbd98aa40	-0.074543476
2	0x3ece63dd	0.40310565
3	0x3dbd18e9	0.09233267
4	0x3eae5dc0	0.340559
5	0xbe0883f3	-0.13331585
6	0xbd96788d	-0.07347212
7	0x3e18d043	0.14923196
8	0xbf45472a	-0.7706171
9	0x3ebb9c40	0.36642647
10	0x3e518166	0.20459518
11	0xbbb48eba	-0.0055101784
12	0xbe05db2f	-0.13071893
13	0xbe53aeb4	-0.20672113
14	0xbbb1dcc8	-0.0054279305
15	0xbe4e4fd8	-0.20147645
16	0xbd566323	-0.052340638
17	0x3d8646ff	0.0655651
18	0xbdfc4bbf	-0.12319135
19	0x3df95701	0.12174798
20	0x3e25f771	0.16207673
21	0xbed04170	-0.40674925
22	0x3f52f739	0.8240848
23	0xbe12596d	-0.14291926
24	0xbcd0b4ed	-0.025476897
25	0x3e227c5f	0.15867756
26	0x3dc90891	0.09816087
27	0x3e0d6a53	0.1381009
28	0x3e9d7263	0.30751333
29	0xbf290abd	-0.6603201
30	0xbc699ab7	-0.014258078
31	0xbca1c4e4	-0.019747205
32	0x3e487282	0.19574931
33	0x3e7eac54	0.24870425
34	0xbe671197	-0.22565304
35	0x3f2fee1d	0.6872271
36	0xbd8d6879	-0.06904692
37	0x3e448b77	0.19193827
38	0xbe4bc5ae	-0.19899628
39	0xbf25ff81	-0.64842993
40	0x3d92f21d	0.07175086
41	0xbe0961df	-0.13416241
42	0x3ef0c1a0	0.47022724
43	0xbf2f83fa	-0.68560755
44	0x3e39c57f	0.18141745
45	0x3e9e4597	0.30912468
46	0x3d855e49	0.06512124
47	0xbdb388f6	-0.087663576
48	0x3c932b5b	0.01796501
49	0xbc06fcd6	-0.008238992
50	0xbc649e28	-0.013953723
51	0xbd55b911	-0.052178446
52	0xbdf65b2b	-0.12029108
53	0xbd7459dc	-0.05965601
54	0xbe10233a	-0.14075938
55	0x3e090728	0.13381636
56	0x3e080985	0.13284881
57	0xbecc4927	-0.3989956
58	0xbcf49845	-0.029857764
59	0xbe97aa94	-0.29622328
60	0x3e0c3956	0.13693747
61	0x3f11bbb8	0.5692706
62	0xbed649e1	-0.4185324
63	0xbda73f50	-0.08166373
64	0x3db5955e	0.0886638
65	0xbdb59c92	-0.08867754
66	0x3bb66893	0.0055666654
67	0xbe5dd820	-0.21664476
68	0x3ecc34e9	0.39884117
69	0xbc50c8b2	-0.012743162
70	0xbcd7a317	-0.026322884
71	0x3e063cb6	0.13109097
72	0xbed1f004	-0.4100343
73	0x3e8ebcc3	0.2787839
74	0x3dde6dd6	0.10860793
75	0x3c9a580e	0.018840816
76	0x3e052aa4	0.13004547
77	0xbd67aabe	-0.056559317
78	0x3dee3edb	0.116330825
79	0x3ebb7b2c	0.3661741
80	0x3dbc5509	0.09195907
81	0x3d16e765	0.03684177
82	0x3e9012c4	0.28139317
83	0x3e506417	0.20350681
84	0x3cbaa039	0.022781478
85	0xbef4a741	-0.47783855
86	0x3f3a6025	0.72802955
87	0xba7f2029	-0.000973227
88	0x3e1f4429	0.15553345
89	0x3df06d09	0.11739547
90	0x3eb8b703	0.36077127
91	0xbd36f276	-0.044664823
92	0x3cd00357	0.025392218
93	0xbe788d66	-0.24272689
94	0x3e246e6a	0.16057745
95	0x3e4634c3	0.19356064
96	0x3d181369	0.037127886
97	0x3ee2f5a4	0.44328034
98	0x3e2b8bea	0.16752592
99	0x3eec7525	0.46183124
100	0xbe331ed2	-0.17492226
101	0x3f22febb	0.6366994
102	0xbb9ef172	-0.00485056
103	0xbf7025ea	-0.9380785
104	0xbcfb6e39	-0.030692207
105	0xbde3a1f8	-0.111148775
106	0x3e6389f0	0.22220588
107	0xbf3f4d60	-0.7472744
108	0x3e0da41c	0.13832134
109	0x3d8a9246	0.06766181
110	0x3d3b0e54	0.04566796
111	0x3e4d0813	0.20022611
112	0x3dcd625b	0.100285254
113	0x3d0e39ec	0.034723207
114	0x3c0b504c	0.008503031
115	0xbbb75191	-0.0055944403
116	0xbdc6a781	-0.096999176
117	0xbcd21a1c	-0.025647216
118	0x3d81a435	0.06330148
119	0xbe157cdf	-0.14598416
120	0x3d2d0e65	0.042250056
121	0xbddc15b9	-0.10746331
122	0x3dbdf597	0.09275358
123	0xbd997a97	-0.07494085
124	0x3e68500a	0.22686782
125	0x3ec28d75	0.37998548
126	0xbefd62b8	-0.4948938
127	0xbe2c35f9	-0.16817464
128	0xbe39de10	-0.18151116
129	0xbe5be0bf	-0.21472453
130	0x3e56c2ed	0.20972796
131	0x3c8abb64	0.016935058
132	0x3a8c9eb7	0.0010728453
133	0xbe9c409e	-0.3051805
134	0xbd8fe180	-0.070254326
135	0x3dbc6729	0.09199364
136	0xbed0acd0	-0.40756845
137	0x3e4ab5d7	0.19795929
138	0xbdb4fd4d	-0.08837376
139	0x3c1de759	0.009637677
140	0x3e005f0b	0.12536256
141	0x3e33cd8b	0.17558877
142	0x3d848311	0.064703114
143	0xba9f06fa	-0.0012132816
144	0x3dcd7df8	0.10033792
145	0x3da6fb96	0.08153455
146	0xbc86ebea	-0.016469914
147	0x3bc60484	0.006043019
148	0x3e4daf15	0.2008632
149	0xbf24b600	-0.6434021
150	0x3ed9d239	0.425432
151	0xbdf3f191	-0.119113095
152	0x3ebc912e	0.36829513
153	0x3e738fbd	0.237853
154	0x3d8afffa	0.06787105
155	0xbda17413	-0.078834675
156	0x3e647469	0.22310032
157	0xbe8d9073	-0.27649269
158	0x3df107ea	0.117690876
159	0x3eb8c4c4	0.3608762
160	0x3e47a3d4	0.19496089
161	0x3de10c96	0.10988729
162	0x3e12bf8a	0.14330879
163	0x3f2a4f1a	0.6652695
164	0x3d96d3d3	0.07364621
165	0x3e184708	0.14870846
166	0x3da13855	0.078720726
167	0xbf6d615d	-0.9272669
168	0x3ea4ff66	0.32226104
169	0xbdad3841	-0.08457995
170	0x3deb10d0	0.11477816
171	0xbf060358	-0.5234885
172	0x3d7001c5	0.058595438
173	0xbd3510ce	-0.04420548
174	0xbe4b78ee	-0.1987035
175	0x3e3ba4ef	0.18324636
176	0xbce45bb3	-0.027875757
177	0xbd1c81a1	-0.03820956
178	0x3cf5e725	0.030017445
179	0x3d23cd81	0.039990906
180	0x3dcb016e	0.09912382
181	0xbce23a8b	-0.027615806
182	0x3e880b00	0.26570892
183	0x3e0043f2	0.12525919
184	0x3e45b581	0.1930752
185	0xbd5061b1	-0.050874416
186	0xbe555680	-0.20833778
187	0xbe9bf976	-0.3046376
188	0x3e665709	0.22494139
189	0x3ed8ba3f	0.42329594
190	0xbf113695	-0.5672391
191	0x3d238d07	0.039929416
192	0x3da9f692	0.08298983
193	0xbe2cf866	-0.16891631
194	0x3d8e32e2	0.06943299
195	0xbe3960e6	-0.1810337
196	0xbca1b241	-0.019738318
197	0xbe886569	-0.2663987
198	0xbe90b909	-0.2826617
199	0x3e2ab506	0.16670617
200	0x3d73dd7e	0.059537403
201	0x3ed8b2d0	0.42323923
202	0xbc5c01e1	-0.013428182
203	0xbe33f849	-0.17575182
204	0xbe64c8e4	-0.22342259
205	0xbe2272e5	-0.15864141
206	0xbe316ddc	-0.17327064
207	0x3de43f5e	0.11144899
208	0xbe90aab5	-0.2825524
209	0x3e2c92d1	0.16852881
210	0x3df3168c	0.11869535
211	0xbea309a0	-0.3184328
212	0x3dea7bd6	0.11449401
213	0xbec91d91	-0.3928037
214	0x3f5c9293	0.86161155
215	0xbe9e2fbc	-0.30895793
216	0x3e4a80ba	0.19775668
217	0x3e8164d8	0.2527225
218	0xbe36685b	-0.17813246
219	0xbde8fcf5	-0.11376373
220	0xbe213c7e	-0.15745732
221	0xbe43e787	-0.1913129
222	0x3d92e24b	0.07172068
223	0xbeaaf5b3	-0.3339058
224	0xbd439b2f	-0.047755416
225	0xbd92d415	-0.07169358
226	0xbe15c421	-0.14625598
227	0x3f5c8663	0.8614256
228	0xbce16448	-0.027513638
229	0x3ea74ac7	0.32674238
230	0xbdeca467	-0.11554795
231	0xbf5745d6	-0.84090936
232	0xbd4254c7	-0.04744413
233	0xbe2a4e6a	-0.16631475
234	0x3e9fe028	0.31225705
235	0xbf3d03d7	-0.73833984
236	0xbe8780d9	-0.2646549
237	0x3e814bb7	0.25253078
238	0xbde84bf2	-0.113426104
239	0x3c0df3fa	0.008664126
240	0xbcbe6d98	-0.023245618
241	0xbdcefeea	-0.10107215
242	0xbe75b9f5	-0.23996718
243	0xbdbfc7fe	-0.09364317
244	0xbeca170d	-0.3947071
245	0xbe2340e8	-0.15942729
246	0x3d903e7e	0.070431694
247	0x3e023631	0.12715985
248	0xbe0a192a	-0.13486162
249	0xbe2f4b72	-0.17118624
250	0xbefbde2b	-0.49192938
251	0x3e83df44	0.25756276
252	0xbe1ba0c5	-0.15198047
253	0x3efa70de	0.48914236
254	0xbec5d1bc	-0.38636577
255	0xbe67c8c7	-0.22635184

shared.2.bias f4 [64]
0	0x3e24678e	0.16055128
1	0x3ea7b48a	0.32754928
2	0x3e94b4cd	0.2904419
3	0x3dcf1f9f	0.10113453
4	0x3d2e9d54	0.04263051
5	0xbc94a9d0	-0.01814738
6	0xbced3e12	-0.028960261
7	0xbc929808	-0.01789476
8	0xbe959c8d	-0.29221
9	0x3ec8efcd	0.39245453
10	0x3e9e40c6	0.30908793
11	0x3e2397c0	0.15975857
12	0x3e9213e8	0.28530812
13	0x3eaf1113	0.34192714
14	0x3ebfcef3	0.37462577
15	0xbcd2c2df	-0.025727687
16	0xbd2b4935	-0.041817863
17	0xbcc3316a	-0.023827273
18	0x3ec28c45	0.37997642
19	0x3e0f8112	0.1401408
20	0x3e16ab40	0.14713764
21	0x00000000	0.0
22	0x3e2a9171	0.16657044
23	0x3ebc4254	0.36769354
24	0x3eba3490	0.36368227
25	0x3eb17286	0.34657687
26	0x3ec24dd5	0.37950006
27	0x3e632182	0.22180751
28	0xbd8e93f9	-0.06961817
29	0x3e329d0f	0.17442726
30	0x3eb8ad11	0.3606954
31	0x3ea8cf33	0.3297058
32	0x3ecbc6c8	0.39800096
33	0x3eb3ee1e	0.35142606
34	0x3e8d3bba	0.2758463
35	0x3ead9b1d	0.33907405
36	0x3eb40c4f	0.3516564
37	0x3eb73996	0.35786122
38	0x3e8e1052	0.27746826
39	0x3ed047bd	0.40679732
40	0xbca0af8a	-0.019614954
41	0xbd20cf37	-0.039260115
42	0x3eb7331c	0.3578118
43	0x3ec8b43d	0.3920001
44	0xbd305690	-0.043051302
45	0xbd01cbe6	-0.031688593
46	0x3eaa91f7	0.33314487
47	0x3e971907	0.29511282
48	0x3ea9b1bb	0.3314341
49	0x3ea12845	0.31476036
50	0x3eaae94e	0.33381122
51	0x3eabaa0a	0.33528167
52	0x3eb6d673	0.35710487
53	0x3e68a50d	0.22719212
54	0x3e8874e2	0.26651675
55	0xbd078af6	-0.033091508
56	0x3ee1b62f	0.44084308
57	0xbe3d21e2	-0.18469957
58	0x3ebb7f0d	0.3662037
59	0x3eb8c189	0.36085156
60	0x3e47d326	0.1951414
61	0x3ed6c9a6	0.4195072
62	0x3e484528	0.19557631
63	0x3e5ab8c2	0.21359542

actor.0.weight f4 [32, 64]
0	0xbd906905	-0.07051281
1	0xbe53cb3a	-0.20682994
2	0xbdb61d0b	-0.08892258
3	0xbdd399db	-0.1033208
4	0x3d4c53e6	0.0498847
5	0x3e35533c	0.17707533
6	0xbe452193	-0.19251089
7	0xbe125d27	-0.14293347
8	0x3dd3eb2b	0.10347589
9	0x3e0ecb35	0.13944705
10	0xbe553cc8	-0.20823967
11	0x3ddf185c	0.10893318
12	0x3dddcd48	0.1083017
13	0x3cc143d7	0.023591919
14	0x3d2b12a0	0.04176581
15	0xbd90946b	-0.070595585
16	0x3d8ba980	0.06819439
17	0x3dd4cbfd	0.1039047
18	0xbc688ccd	-0.014193726
19	0xbe511ead	-0.20421858
20	0x3cf4c18b	0.029877445
21	0xbe1798e4	-0.14804417
22	0x3dee18c4	0.116258174
23	0x3c671a42	0.014105381
24	0x3be4c184	0.0069810767
25	0xbdb5081f	-0.088394396
26	0x3d1d472b	0.03839795
27	0xbdb4c69c	-0.08826944
28	0xbc48f640	-0.012265742
29	0xbe95a1d1	-0.2922502
30	0xbd3cb50a	-0.04607109
31	0xbeacc3be	-0.3374309
32	0x3d775f89	0.060393844
33	0xbdc53dfd	-0.09630964
34	0x3dd1a11c	0.10235807
35	0x3e090037	0.13378988
36	0xbe05f75e	-0.13082644
37	0xbe11a12e	-0.14221641
38	0xbe845160	-0.25843334
39	0xbdb3a86b	-0.087723576
40	0xbb6d4936	-0.0036206967
41	0x3dcfd1be	0.10147427
42	0xbc5e4a34	-0.013567496
43	0xbe899526	-0.26871604
44	0x3cbb9e5b	0.022902658
45	0x3d4402f5	0.047854383
46	0x3d45ebce	0.048320584
47	0x39ad3852	0.00033039093
48	0xbdc42e59	-0.095791526
49	0xbc886a7b	-0.016652336
50	0xbe1969ce	-0.14981768
51	0xbd74d567	-0.05977383
52	0xbe044873	-0.12918262
53	0x3dee08b0	0.11622751
54	0xbd0711e5	-0.03297605
55	0xbdb51989	-0.08842761
56	0x3e604d3b	0.21904461
57	0xbe5ca42b	-0.21547
58	0xbd80582a	-0.06266816
59	0xbd7798ab	-0.06044833
60	0x3d53492e	0.05158346
61	0xbbfa19c6	-0.007632467
62	0x3c2ed681	0.010671259
63	0xbcc89c83	-0.024488693
64	0xbd2f2309	-0.04275802
65	0x3e33fe7a	0.17577544
66	0xbd01a1f0	-0.031648576
67	0x3c60f31c	0.013729837
68	0x3e97e596	0.29667348
69	0xbd185ffc	-0.037200913
70	0x3a0e32b1	0.0005424424
71	0x3d9b0689	0.07569606
72	0xbdd016a8	-0.10160571
73	0xbc0aab6e	-0.008463724
74	0x3d8c4c21	0.06850458
75	0x3ddf4b41	0.109030254
76	0xbe13a4d3	-0.14418344
77	0xbe0740a0	-0.13208246
78	0x3db4f2a8	0.088353455
79	0x3de8951d	0.11356566
80	0xbedbe4e8	-0.4294808
81	0x3d95b494	0.07309833
82	0xbdccfef3	-0.10009565
83	0xbd42b52b	-0.047536056
84	0x3c57250e	0.013131393
85	0xbdda3cff	-0.10656165
86	0x3d935571	0.07194031
87	0xbd15fa1b	-0.036615472
88	0xbda3d85c	-0.08000252
89	0x3b5d28e9	0.0033746308
90	0x3cbebeef	0.023284404
91	0x3e8e2f36	0.27770394
92	0x3e05ef65	0.13079603
93	0x3e5e2ff8	0.21697986
94	0x3cf5de54	0.03001324
95	0x3b7e6567	0.0038817765
96	0x3d284e0d	0.04109006
97	0xbb556031	-0.0032558555
98	0x3d0b5abf	0.03402209
99	0xbdc826c1	-0.09773017
100	0xbe20b962	-0.15695718
101	0xbc554a76	-0.013018241
102	0xbe6c15f7	-0.23055254
103	0xbd660ef2	-0.056166597
104	0x3e1548d5	0.14578564
105	0x3e404e27	0.18779813
106	0x3d029db5	0.031888682
107	0xbdd342e4	-0.10315493
108	0xbd854806	-0.06507878
109	0x3e002c49	0.12516893
110	0xbc80e716	-0.01573519
111	0xbc9e2872	-0.019306395
112	0x3df9f3cf	0.12204706
113	0xbe36d17e	-0.17853352
114	0xbd737975	-0.059442002
115	0xbe861061	-0.2618437
116	0xbe11fc80	-0.14256477
117	0xbdde1e91	-0.10845674
118	0xbe1c439e	-0.15260169
119	0x3c82ed53	0.015982306
120	0xbd72726b	-0.05919115
121	0xbdb3e9d6	-0.08784835
122	0x3bf95d5a	0.0076100053
123	0xbe519d38	-0.2047013
124	0xbb821056	-0.0039692326
125	0xbdb22d40	-0.08700037
126	0xbc01d04a	-0.007923195
127	0x3dd0690b	0.10176285
128	0x3dd09e6e	0.10186468
129	0x3cd049b7	0.025425775
130	0x3de97eb0	0.11401117
131	0xbd473c73	-0.048641633
132	0xbe3323ad	-0.17494078
133	0x3f1d0590	0.6133661
134	0xbcbbff5c	-0.022948913
135	0x3d83ec71	0.06441582
136	0xbd1d544c	-0.03841047
137	0xbe6c0b73	-0.23051243
138	0xbe973011	-0.2952886
139	0x3c77cff4	0.0151252635
140	0xbe59018a	-0.21191993
141	0xbe62e85e	-0.22158954
142	0xbdb196fc	-0.08671376
143	0xbc0ea4a3	-0.008706245
144	0x3d926a3e	0.0714917
145	0xbd3bedff	-0.045881268
146	0x3df1d573	0.1180829
147	0x3ee39015	0.44445863
148	0x3e554b6a	0.2082955
149	0xbc8a10eb	-0.01685377
150	0x3d8f7142	0.07004024
151	0xbc9bc699	-0.019015597
152	0xbd014526	-0.031560086
153	0xbd852431	-0.065010436
154	0x3e04381b	0.12912028
155	0xbd811c8f	-0.06304275
156	0x3e06c420	0.13160753
157	0xbe73fc78	-0.23826778
158	0xbc82cb4a	-0.015966076
159	0xbe8d14a7	-0.2755482
160	0x3e33bcba	0.17552462
161	0x3d4fa75c	0.050696716
162	0xbd07d6c2	-0.033163793
163	0xbe678a08	-0.22611248
164	0x3d39e942	0.045388468
165	0x3e0fd80f	0.14047264
166	0xbe4c0eb5	-0.19927485
167	0x3d4b844d	0.04968672
168	0xbcec0ef3	-0.028815722
169	0xbe662f19	-0.22478904
170	0xbde5bca2	-0.112176195
171	0x3e5272b8	0.20551574
172	0xbb2b1a4f	-0.002610821
173	0x3c39b7a9	0.011335292
174	0xbd6f25ff	-0.058385845
175	0x3df1fc7e	0.11815737
176	0xbd4c7cc1	-0.049923662
177	0x3e10b7fe	0.14132687
178	0xbdcf6a4c	-0.101276964
179	0xbe4defed	-0.20111056
180	0x3e4ee131	0.20203091
181	0x3e95ff7f	0.2929649
182	0xbe781be5	-0.24229391
183	0xbd52c51d	-0.051457513
184	0x3d7ba516	0.061436735
185	0x3e2bbc09	0.16770948
186	0x3e081670	0.13289809
187	0x3e447cc7	0.19188224
188	0x3dfaf310	0.12253392
189	0xbdc4739c	-0.09592363
190	0x3f268c53	0.6505787
191	0x3e470c30	0.19438243
192	0xbdc71920	-0.09721589
193	0xbd9a9e30	-0.07549703
194	0x3d5f029d	0.05444585
195	0xbe07ed23	-0.13274054
196	0x3d7b5fdd	0.06137072
197	0xbd001f90	-0.0312801
198	0x3da5df64	0.08099249
199	0x3e0ac7a5	0.13552721
200	0x3e4e5392	0.20149067
201	0xbe2a1ccd	-0.16612549
202	0x3dc98a72	0.098408595
203	0x3c70dbc9	0.014700838
204	0xbe03753e	-0.12837693
205	0x3d8c0220	0.06836343
206	0x3d0162d2	0.031588383
207	0xbe415191	-0.18878771
208	0x3d531e05	0.0515423
209	0xbcc9a78a	-0.024616022
210	0x3cf39885	0.029735813
211	0xbc2d37ac	-0.010572355
212	0x3d6dc08d	0.05804496
213	0xbd7d5991	-0.061852995
214	0x3cc4a605	0.024004946
215	0x3e156770	0.1459024
216	0xbdf17852	-0.117905274
217	0xbdf1369f	-0.11777996
218	0x3da05799	0.07829208
219	0x3e82a1d3	0.25514087
220	0xbc4b563d	-0.0124106975
221	0xbdce38fb	-0.10069462
222	0x3dd0c99c	0.10194704
223	0x3e215f6a	0.15759054
224	0x3c92d38e	0.017923143
225	0xbdf56c3b	-0.11983534
226	0x3d64ab55	0.055827457
227	0x3c25f739	0.010129743
228	0xbd869e02	-0.06573106
229	0xbe5f6390	-0.21815324
230	0xbcbe0b22	-0.023198668
231	0xbe58ed1e	-0.21184203
232	0x3e113045	0.1417857
233	0xbe36807f	-0.17822455
234	0xbe3bdaef	-0.18345235
235	0xbd8ad417	-0.06778734
236	0x3d4b8f7a	0.049697377
237	0x3dc86fa7	0.09786921
238	0x3e352a23	0.17691855
239	0xbd92a89e	-0.071610674
240	0xbe7478d9	-0.23874225
241	0x3b7e11ca	0.0038767927
242	0xbd955e80	-0.07293415
243	0x3da95294	0.08267704
244	0x3e15547c	0.1458301
245	0xbe517966	-0.20456466
246	0xbdaaa7dd	-0.08332799
247	0xbe4e21d4	-0.20130092
248	0xbcb3dda1	-0.021956267
249	0x3e216184	0.15759856
250	0x3ec02fd4	0.3753649
251	0x3e8cb948	0.27485108
252	0xbdc1d434	-0.09464303
253	0xbbcd5801	-0.0062665944
254	0x3c3da583	0.011575106
255	0xbe0fce64	-0.14043576

actor.0.bias f4 [32]
0	0x3948136f	0.00019080726
1	0xbc556f76	-0.013027063
2	0x3d7fc98d	0.062448073
3	0x3c95659d	0.01823693
4	0xbc079d16	-0.008277198
5	0x3c6f5575	0.014607777
6	0xbe1c3cd7	-0.15257584
7	0xbe41f505	-0.18941124
8	0x3dab8f1c	0.08376905
9	0x3e2d9686	0.16951951
10	0x3df0c6f8	0.117567
11	0xbc099310	-0.008396879
12	0x3e19e2a2	0.1502786
13	0xbc172399	-0.009224796
14	0x3b20cec4	0.0024537304
15	0xbd347014	-0.0440522
16	0xbdf4eb8e	-0.11958991
17	0xbc4e1f22	-0.012580665
18	0xbe25acc7	-0.1617919
19	0xbc51b4d1	-0.012799458
20	0x3c822dd5	0.015890995
21	0xbcb9b621	-0.022669854
22	0xbc497696	-0.0122963395
23	0xbb119a6b	-0.0022217284
24	0xbb3d7c2d	-0.0028913126
25	0x00000000	0.0
26	0xbe197966	-0.14987716
27	0xbc190457	-0.009339414
28	0xbb95ac2e	-0.0045676446
29	0xbb529b8c	-0.003213617
30	0xbbf81093	-0.007570335
31	0xbcc79442	-0.024362687

actor.2.weight f4 [2, 32]
0	0xbe37d035	-0.17950518
1	0xbe7da28c	-0.24769038
2	0x3e2c5bb7	0.16831861
3	0x3d8446cf	0.06458818
4	0xbc9f4427	-0.019441677
5	0xbce6c280	-0.028168917
6	0xbf372303	-0.715378
7	0xbef08375	-0.46975294
8	0x3ecdb10a	0.40174133
9	0x3f6b5899	0.91932064
10	0x3f1453f9	0.5794063
11	0x3e88f6d6	0.2675082
12	0x3f35a487	0.70954174
13	0xbec245ed	-0.37943974
14	0x3b8b433d	0.004249959
15	0xbdb958ad	-0.09050117
16	0xbf75186f	-0.9574041
17	0xbda58e26	-0.08083753
18	0xbf64b6b1	-0.89341265
19	0xbd1dfc47	-0.03857067
20	0xbc15e4e5	-0.009148811
21	0x3dfc45ea	0.123180225
22	0x3c3f0ec7	0.011661238
23	0xbe1363ab	-0.14393489
24	0xbe9b20f9	-0.30298594
25	0xbe6c2b00	-0.23063278
26	0xbf6138dd	-0.8797739
27	0xbe066480	-0.13124275
28	0x3dc205b6	0.094737455
29	0x3e798d99	0.24370421
30	0x3eb01f46	0.3439886
31	0x39dc0c61	0.00041970893
32	0x3e290a42	0.1650782
33	0xbca94d7c	-0.02066683
34	0xbe566ce1	-0.20939972
35	0xbe8a2e92	-0.26988655
36	0xbe808688	-0.2510264
37	0xbdc5562d	-0.09635577
38	0x3f1f1d5e	0.62154186
39	0x3ed0fbff	0.40817258
40	0xbf376b93	-0.7164852
41	0xbf7b4f5f	-0.98167986
42	0xbf336bab	-0.70086163
43	0xbda0d390	-0.07852852
44	0xbf6eff3a	-0.93358195
45	0xbebd3f8c	-0.36962545
46	0xbeaae5b9	-0.3337839
47	0x3e9e4802	0.30914313
48	0x3f7b6095	0.9819425
49	0xbe0ec8c9	-0.13943781
50	0x3f5b8169	0.8574434
51	0xbe55d343	-0.20881371
52	0xbe9db2a5	-0.30800357
53	0x3e14c5c2	0.14528564
54	0xbd14c7aa	-0.036323227
55	0xbd06c523	-0.032902848
56	0xbe04a3c9	-0.12953104
57	0x3d58af6f	0.05290168
58	0x3f3c7795	0.7361997
59	0x3d8e22fe	0.06940268
60	0xbe19d65a	-0.15023175
61	0xbd58e1af	-0.052949604
62	0x3e0dd9ae	0.1385257
63	0xbe31f577	-0.17378794

actor.2.bias f4 [2]
0	0x3e07ff59	0.13281001
1	0xbe07ff59	-0.13281001

critic.0.weight f4 [32, 64]
0	0x3e42aeda	0.19012013
1	0xbe567a61	-0.20945121
2	0xbdc8778c	-0.09788427
3	0x3cbffa0d	0.023434663
4	0xbd55b8b3	-0.052178096
5	0xbcfe023e	-0.031006929
6	0xbe330c80	-0.17485237
7	0xbca2d239	-0.019875633
8	0x3d418175	0.0472426
9	0x3e618836	0.22024617
10	0x3d64d6d7	0.05586895
11	0x3ddce8ba	0.107865766
12	0xbcaf7f27	-0.021422936
13	0xbc43a195	-0.01194038
14	0x3d7d81b4	0.061891273
15	0x3d959497	0.07303732
16	0x3b929e76	0.0044744564
17	0xbdca4bde	-0.09877752
18	0xbcb79685	-0.02241064
19	0xbd96bd1d	-0.07360289
20	0xbe7a9e73	-0.24474506
21	0x3d53e33c	0.05173038
22	0x3e0f3b4a	0.1398746
23	0x3dc20058	0.09472722
24	0x3c7eecd5	0.015559395
25	0xbd9f7fbf	-0.077880375
26	0xbda1f33e	-0.07907723
27	0xbdcb0563	-0.09913137
28	0x3dea58fb	0.11442753
29	0xbd5b7419	-0.053577516
30	0xbd8bc637	-0.06824916
31	0xbd114154	-0.035462692
32	0xbc03dde6	-0.00804851
33	0x3d4cdbd4	0.050014332
34	0xbbd6000d	-0.006530768
35	0x3e2c65e3	0.16835742
36	0xbebc6d45	-0.36802116
37	0xbe9439be	-0.28950304
38	0xbcc2c2a8	-0.02377446
39	0xbd842309	-0.06451995
40	0x3e19896c	0.14993829
41	0xbc3d6fb3	-0.011562276
42	0xbd7b1537	-0.06129953
43	0x3e7deecc	0.24798125
44	0x3e1f6183	0.15564542
45	0x3d077601	0.03307152
46	0x3e68019b	0.22656862
47	0xbdbacadc	-0.091207236
48	0x3e1ebb4a	0.15501133
49	0xbe1f38b7	-0.15548979
50	0xbdb8386a	-0.08995135
51	0xbd147735	-0.036246497
52	0xbd34f594	-0.044179514
53	0xbe5c49d9	-0.21512546
54	0x3da1c243	0.078983806
55	0xbe9031fe	-0.2816314
56	0x3d139f4d	0.036040593
57	0xbcb5eb29	-0.02220686
58	0xbd8ed42e	-0.06974064
59	0xbc90cf76	-0.01767705
60	0x3dcdac09	0.10042579
61	0xbdedfbe3	-0.11620309
62	0x3db82c09	0.08992774
63	0xbc14f5a1	-0.009091766
64	0x3e2947af	0.16531251
65	0x3decbbae	0.115592346
66	0x3e217356	0.15766653
67	0xbd3c1eb2	-0.04592771
68	0x3e1b4c87	0.15165912
69	0x3c96b4e6	0.018396806
70	0x3c981d7a	0.018568743
71	0x3c537fff	0.012908935
72	0xbdec9540	-0.11551905
73	0x3e214e93	0.1575263
74	0x3d86a6bc	0.06574771
75	0xbda7997d	-0.081835724
76	0xbe78197e	-0.24228474
77	0xbd137a9d	-0.036005605
78	0x3bd1d32e	0.0064033484
79	0x3e10bce2	0.14134553
80	0x3cd0548c	0.02543094
81	0xbd3e6ac8	-0.046488553
82	0x3e296452	0.16542175
83	0xbd18a51d	-0.03726684
84	0xbd5108cd	-0.051033784
85	0xbe0c30af	-0.13690446
86	0x3ce400a7	0.027832342
87	0xbe80d06a	-0.25159007
88	0xbe40d1d1	-0.18830039
89	0x3ba0fa30	0.004912637
90	0x3da8874e	0.08228932
91	0x3d5a31c9	0.053270135
92	0xbc96d383	-0.018411404
93	0xbd636ee0	-0.05552566
94	0x3e1450c2	0.14483932
95	0xbd0d5ee6	-0.03451433
96	0xbde01038	-0.109405935
97	0xbd18cade	-0.037302844
98	0xbe22926b	-0.15876167
99	0xbcf5ac99	-0.029989528
100	0xbe1caf4e	-0.15301248
101	0x3e223bbb	0.15843098
102	0xbd2e00f0	-0.042481363
103	0xbd846573	-0.064646624
104	0xbd80c0b0	-0.06286752
105	0xbda0bc85	-0.07848457
106	0x3cc57677	0.02410434
107	0xbe896203	-0.2683259
108	0x3cc88f3e	0.024482366
109	0x3e19e5f7	0.15029131
110	0x3e8c2536	0.2737214
111	0xbdb4aee0	-0.08822417
112	0xbbc1ab70	-0.0059103295
113	0xbe369c2b	-0.17833011
114	0xbe89b97a	-0.2689932
115	0xbc7708c6	-0.015077775
116	0xbe859782	-0.26092154
117	0x3e5e3e29	0.217034
118	0xbc9d4285	-0.019196758
119	0xbd68b6f6	-0.05681511
120	0xbd46161c	-0.04836093
121	0xbe46bbf0	-0.1940763
122	0xbe37b450	-0.17939878
123	0x39d94100	0.00041437894
124	0x3d5719ee	0.052514963
125	0x3d80a74f	0.062819116
126	0xbe3b488b	-0.18289392
127	0x3d998254	0.07495561
128	0xbd951281	-0.0727892
129	0xbc81a33f	-0.015824912
130	0xbda2e6d4	-0.07954183
131	0x3b30e948	0.0026994515
132	0x3d570370	0.052493513
133	0xbe30b906	-0.17258081
134	0x3cec829b	0.028870871
135	0x3e95e659	0.29277304
136	0x3dd67479	0.10471434
137	0x3e02592d	0.1272933
138	0xbdd86d23	-0.10567691
139	0xbcd93a93	-0.026517188
140	0xbdcea8eb	-0.10090812
141	0xbdcfe5da	-0.101512626
142	0xbc3a4e51	-0.011371211
143	0xbd996197	-0.07489317
144	0x3ddf403e	0.10900925
145	0xbdea917e	-0.11453532
146	0xbc343e27	-0.011001146
147	0xbe07b124	-0.13251168
148	0x3df0169c	0.117230624
149	0xbdc83868	-0.09776384
150	0x3cd2e50f	0.02574399
151	0xbe4d3105	-0.2003823
152	0x3d952894	0.0728313
153	0x3d348e9e	0.044081323
154	0x3e0ad326	0.13557109
155	0x3e7cee47	0.2470027
156	0x3cff506b	0.031166276
157	0x3b947b33	0.004531288
158	0xbe288a86	-0.16459092
159	0xbd8993ec	-0.06717667
160	0x3b7ad21f	0.0038272215
161	0x3dd07291	0.10178102
162	0xbdc97f49	-0.09838731
163	0xbde8e1ff	-0.1137123
164	0x3d8da715	0.06916634
165	0xbb88f2e5	-0.004179346
166	0x3cd429bb	0.025898805
167	0x3e62cdc3	0.22148804
168	0x3e0fca2e	0.14041969
169	0x3d8bb892	0.06822313
170	0x3d891683	0.06693747
171	0xbd708038	-0.05871603
172	0x3ea5e2a4	0.32399476
173	0xbdf1c063	-0.11804273
174	0x3d0c2c54	0.034221962
175	0xbd5908b2	-0.052986808
176	0x3b13aee8	0.0022534672
177	0xbe8c07fa	-0.27349836
178	0x3e01d303	0.12678151
179	0xbc082256	-0.008308968
180	0xbd84c171	-0.064822085
181	0x3e2c82a0	0.16846704
182	0xbdc550e5	-0.0963457
183	0x3d9544a3	0.07288482
184	0x3e63e66e	0.2225587
185	0x3e30327c	0.17206758
186	0xbd50a138	-0.050935
187	0xbe2a6012	-0.1663821
188	0xbdaf1fa9	-0.085509606
189	0xbda26d66	-0.07931022
190	0x3e8faa19	0.28059462
191	0xbdcedbb0	-0.10100496
192	0x3df8368e	0.121197805
193	0xbe19a601	-0.15004732
194	0x3c64e965	0.013971661
195	0xbe5964f4	-0.21229917
196	0x3ee284c8	0.4424193
197	0x3eaff7e5	0.34368816
198	0x3d4f56bd	0.05061983
199	0x3dc559b2	0.09636249
200	0xbeb8a97f	-0.36066815
201	0xbc4bd620	-0.012441188
202	0xbe75e6f9	-0.2401389
203	0x3dea845d	0.114510275
204	0xbcef531c	-0.029214434
205	0xbc4895d8	-0.012242757
206	0xbddfc059	-0.10925359
207	0x3c1731c1	0.009228171
208	0x3d72d35e	0.059283607
209	0x3c59e617	0.013299487
210	0x3d1cf1a9	0.038316403
211	0x3e599b3a	0.2125062
212	0x3f10fbb2	0.56634057
213	0x3d12bbf6	0.035823785
214	0x3e0f1d38	0.1397599
215	0xbd4b7a17	-0.04967698
216	0xbc4ab0eb	-0.012371282
217	0xbe8690d0	-0.26282358
218	0x3c755610	0.014974132
219	0xbcf05e7f	-0.029341934
220	0xbc85416a	-0.016266543
221	0xbe5ecbee	-0.2175748
222	0x3df28d86	0.118434
223	0xbd2d5e88	-0.04232648
224	0xbe1d6794	-0.15371543
225	0xbc8d34b7	-0.01723705
226	0x3ca614b6	0.020273548
227	0xbd8ace18	-0.067775905
228	0x3d650f94	0.05592306
229	0x3acd257e	0.0015651432
230	0xbe5dda1d	-0.21665235
231	0xbe039673	-0.1285036
232	0xbd44ee4e	-0.048078828
233	0x3ed1a922	0.4094935
234	0xbe1df5b4	-0.1542576
235	0x3eb5c438	0.35501266
236	0x3cf6490a	0.030064125
237	0x3b82fac5	0.003997179
238	0x3d3f272b	0.046668213
239	0xbd78ffea	-0.060790934
240	0x3e123850	0.14279294
241	0x3d1f8767	0.03894749
242	0x3da3f0a4	0.08004883
243	0xbce345db	-0.02774327
244	0xbe9f90c5	-0.31165138
245	0xbc28ff8b	-0.010314832
246	0xbda4e0f2	-0.080507174
247	0x3e07e8bb	0.13272373
248	0xbd312461	-0.043247584
249	0x3e842f81	0.25817493
250	0xbc16e544	-0.009209935
251	0x3cf7cd05	0.030249128
252	0xbe58965c	-0.21151108
253	0x3eb326fc	0.3499068
254	0x3e7a3f1f	0.24438141
255	0x3e6ef2e0	0.23334837

critic.0.bias f4 [32]
0	0xbc2edd9a	-0.010672951
1	0xbc991633	-0.018687343
2	0xbc960615	-0.018313447
3	0x3d79d1c6	0.06099107
4	0x3eb933bd	0.36172286
5	0x3eb34921	0.3501673
6	0xbc8f4aee	-0.017491784
7	0x3ed9995f	0.42499825
8	0x00000000	0.0
9	0xbc445979	-0.011984223
10	0x3ee9d120	0.45667362
11	0x3ec0a2da	0.37624246
12	0x3ebe47c7	0.37164137
13	0xbc03b3e8	-0.008038498
14	0x3ec73dd2	0.38914353
15	0xbc60e0ee	-0.013725502
16	0x3ebe5f32	0.37182003
17	0xbce23e62	-0.027617637
18	0xbc54eee7	-0.012996412
19	0x3eacb079	0.33728388
20	0x3ecad616	0.3961646
21	0x3ec3dd8e	0.3825497
22	0x3ebae5ac	0.3650335
23	0x3eb33277	0.3499944
24	0x3eb96cef	0.36215922
25	0x3ed9cc71	0.4253879
26	0x3ebe2383	0.37136468
27	0xbd661971	-0.056176607
28	0x3eb5827a	0.35451108
29	0xbbebf0eb	-0.0072003505
30	0x3ec5ab61	0.38607314
31	0x3ed5c212	0.41749626

critic.2.weight f4 [1, 32]
0	0x3ba0a89a	0.0049029114
1	0x3df40cd8	0.11916512
2	0x3ca2cb82	0.01987243
3	0x3f0991b7	0.5373797
4	0xbef0dba8	-0.47042584
5	0xbeb445a0	-0.3520937
6	0x3c17017b	0.009216662
7	0xbe9d21d8	-0.30689883
8	0x3e4efc1e	0.20213363
9	0x3e3d2200	0.18470001
10	0xbe8e03f3	-0.27737388
11	0xbebf1a1d	-0.3732461
12	0xbf051437	-0.5198397
13	0x3c94a914	0.018147029
14	0xbebefc02	-0.37301642
15	0x3cf8ba4f	0.030362276
16	0xbeba292d	-0.3635954
17	0x3d9fac15	0.07796494
18	0x3cdf29a1	0.02724153
19	0xbee21a53	-0.4416071
20	0xbf1075f8	-0.56430006
21	0xbf126515	-0.5718549
22	0xbf0efaa3	-0.5585119
23	0xbee89f71	-0.45434144
24	0xbed3c50a	-0.41361266
25	0xbeb98e90	-0.3624158
26	0xbec971c9	-0.39344624
27	0x3f70a3a0	0.9399967
28	0xbee5728e	-0.4481396
29	0x3ece5147	0.40296385
30	0xbed01d68	-0.40647435
31	0xbf01c569	-0.5069185

exp_avg f4 [64, 12]
0	0xba2649e0	-0.00063434057
1	0xb9a6477c	-0.00031715247
2	0xb401a95d	-1.2075675e-07
3	0xba0084fe	-0.000490263
4	0xba4376fe	-0.0007456391
5	0xba323e5f	-0.0006799455
6	0xb8f01706	-0.0001144838
7	0xb9a6477c	-0.00031715247
8	0xba9adaec	-0.0011814511
9	0xba1c765f	-0.00059685664
10	0xba52b334	-0.00080375676
11	0xba66d1eb	-0.0008805084
12	0x39703be9	0.00022910502
13	0x396691c1	0.00021988807
14	0x37bbac5d	2.23724e-05
15	0x39758c58	0.00023417303
16	0x38a69adb	7.944341e-05
17	0x3a395bb9	0.00070708577
18	0xb7594b98	-1.29518085e-05
19	0x396691c1	0.00021988807
20	0x38fb352e	0.00011978518
21	0xb8d8424f	-0.000103120336
22	0x39611c6f	0.00021468264
23	0x3998efc2	0.00029170333
24	0xb95375b1	-0.00020166372
25	0xb9ec612c	-0.00045085826
26	0xbae4a347	-0.001744368
27	0xb98c6979	-0.00026781464
28	0xbae193dc	-0.0017210203
29	0x3b35b5e9	0.0027726835
30	0xb99cea4a	-0.00029929198
31	0xb9ec612c	-0.00045085826
32	0xbb5e7fda	-0.0033950717
33	0xbaf78234	-0.0018883408
34	0xbba2c208	-0.004966978
35	0xb9255dd7	-0.00015770584
36	0x3b6a1518	0.003571814
37	0x3a8b6881	0.0010636003
38	0x3ab65b24	0.001391266
39	0x3b18cb2f	0.0023314466
40	0x3b64c75a	0.0034908862
41	0x3baceb15	0.0052770474
42	0x39627b05	0.00021598868
43	0x3a8b6881	0.0010636003
44	0x3b081e6e	0.002077009
45	0xb9835069	-0.00025046177
46	0x3b717927	0.0036845894
47	0x3baa93e3	0.0052056178
48	0xbb9ca335	-0.004780198
49	0xba7dc7e3	-0.00096809695
50	0xbb878c67	-0.0041366103
51	0xbad56c1a	-0.0016282827
52	0xbb04267e	-0.0020164545
53	0xbbbc6a50	-0.005749978
54	0xb924990a	-0.0001569727
55	0xba7dc7e3	-0.00096809695
56	0xbb1c361f	-0.002383597
57	0xba99ee67	-0.0011744023
58	0xbb0b3476	-0.0021240986
59	0xbb998df9	-0.004686114
60	0x00000004	6e-45
61	0x00000004	6e-45
62	0x00000004	6e-45
63	0x00000004	6e-45
64	0x00000004	6e-45
65	0x00000004	6e-45
66	0x00000004	6e-45
67	0x00000004	6e-45
68	0x00000004	6e-45
69	0x00000004	6e-45
70	0x00000004	6e-45
71	0x00000004	6e-45
72	0xbac09b24	-0.0014694673
73	0xb9cfaa73	-0.0003960911
74	0x3a803ca5	0.0009783698
75	0xba6c49a6	-0.000901366
76	0xbad34c0c	-0.0016120686
77	0xbb304df4	-0.0026901932
78	0xb9a56273	-0.00031544603
79	0xb9cfaa73	-0.0003960911
80	0xbb88f481	-0.0041795378
81	0xbb66754f	-0.0035165136
82	0xbb5de953	-0.0033860996
83	0xbb01a282	-0.00197807
84	0x00000004	6e-45
85	0x00000004	6e-45
86	0x00000004	6e-45
87	0x00000004	6e-45
88	0x00000004	6e-45
89	0x00000004	6e-45
90	0x00000004	6e-45
91	0x00000004	6e-45
92	0x00000004	6e-45
93	0x00000004	6e-45
94	0x00000004	6e-45
95	0x00000004	6e-45
96	0x3aa23fe6	0.0012378662
97	0x3a65a7f5	0.0008760684
98	0x3a5ec6d1	0.0008498254
99	0x3b088d87	0.002083631
100	0x3b734175	0.0037117873
101	0x3aec0016	0.0018005397
102	0x398b18e2	0.00026530685
103	0x3a65a7f5	0.0008760684
104	0x3bc42eca	0.005987023
105	0x3b519ad7	0.003198316
106	0x3bc42ecb	0.0059870235
107	0x3b387c94	0.0028150426
108	0x3ba5de13	0.0050618737
109	0xba93d4d4	-0.0011278638
110	0x3b4612ce	0.003022361
111	0xbae3b541	-0.0017372743
112	0xbb003fde	-0.0019569318
113	0x39dd5edc	0.0004222308
114	0xb89bd499	-7.430575e-05
115	0xba93d4d4	-0.0011278638
116	0xba9f3b3c	-0.001214839
117	0xb9a8d115	-0.00032199235
118	0xba991c3c	-0.0011681388
119	0x3b97ecbe	0.004636376
120	0xbb5e268d	-0.003389749
121	0xbaca196f	-0.0015418957
122	0xba834d87	-0.0010017612
123	0xbb23cdd1	-0.0024994502
124	0xbb8e5f8b	-0.0043448857
125	0xbb8239b0	-0.003974162
126	0xba38b73b	-0.00070463464
127	0xbaca196f	-0.0015418957
128	0xbc072e28	-0.008250751
129	0xbbb3c511	-0.0054861386
130	0xbbd63ced	-0.0065380246
131	0xbbab7d04	-0.005233409
132	0x3acecb2e	0.0015777105
133	0xb95d6f01	-0.00021117555
134	0x3b035b38	0.0020043384
135	0xb994e458	-0.0002839889
136	0xba2e24de	-0.0006643067
137	0x3a4b6ed0	0.0007760348
138	0xb964089e	-0.00021746985
139	0xb95d6f01	-0.00021117555
140	0xbb01d6a9	-0.0019811785
141	0xbab2f960	-0.0013654642
142	0xb9c46b63	-0.00037464043
143	0x3a3aa3da	0.00071197527
144	0xba14fffb	-0.0005683896
145	0xb9f91419	-0.00047507955
146	0xba9eff65	-0.0012130557
147	0xba176947	-0.00057758804
148	0xba1d8961	-0.0006009546
149	0xbaca40e5	-0.0015430717
150	0xb8dc001b	-0.00010490437
151	0xb9f91419	-0.00047507955
152	0xba7579bb	-0.00093641476
153	0xb9d9e43b	-0.0004155951
154	0xba8b41b7	-0.0010624443
155	0xba81e6d6	-0.0009910713
156	0x3a9d7950	0.0012014303
157	0xba2b4f41	-0.0006534942
158	0x39fde0c2	0.00048423378
159	0xba392b3f	-0.0007063634
160	0xba781b60	-0.00094645284
161	0xba5bdb1a	-0.00083868357
162	0xb9dd0742	-0.00042157812
163	0xba2b4f41	-0.0006534942
164	0xbb9a7e6a	-0.0047147768
165	0xbb618e4e	-0.0034417096
166	0xbb289356	-0.0025722585
167	0x3a0eb778	0.0005444209
168	0x3a2ba2da	0.0006547399
169	0xba2da094	-0.0006623354
170	0x3ab4b965	0.0013788162
171	0xba70baa5	-0.00091830856
172	0xbaa03cf3	-0.0012225196
173	0xbabc67f2	-0.001437424
174	0xb9e80368	-0.00044253026
175	0xba2da094	-0.0006623354
176	0xbb999124	-0.0046864916
177	0xbb5c83db	-0.0033647928
178	0xbb3c2a85	-0.0028711867
179	0xb90d125d	-0.00013453649
180	0xbacc4de0	-0.0015587173
181	0xba640d04	-0.0008699449
182	0x3a2127c7	0.000614759
183	0xbabb3fcd	-0.0014285982
184	0xbad1b3d1	-0.0015999024
185	0xbb415cfd	-0.0029504888
186	0xb9e25550	-0.00043169642
187	0xba640d04	-0.0008699449
188	0xbb9333f4	-0.0044922773
189	0xbb04348c	-0.0020172922
190	0xbb7c6249	-0.003851073
191	0xbb12d1e6	-0.0022402941
192	0x3a9dea66	0.0012048006
193	0xb9ba0f04	-0.00035487872
194	0x3a5fd4e1	0.00085384963
195	0xb9f3dca3	-0.0004651296
196	0xba884a83	-0.0010398183
197	0xb89c637c	-7.45719e-05
198	0xb9a6b6bc	-0.00031798135
199	0xb9ba0f04	-0.00035487872
200	0xbb87d6bf	-0.004145473
201	0xbb5c7e99	-0.0033644794
202	0xbb27e94d	-0.0025621236
203	0x3a264204	0.00063422346
204	0x00000000	0.0
205	0x00000000	0.0
206	0x00000000	0.0
207	0x00000000	0.0
208	0x00000000	0.0
209	0x00000000	0.0
210	0x00000000	0.0
211	0x00000000	0.0
212	0x00000000	0.0
213	0x00000000	0.0
214	0x00000000	0.0
215	0x00000000	0.0
216	0x3ae09962	0.0017135555
217	0xb9d5563b	-0.00040690773
218	0x3b4db766	0.0031389832
219	0xb9c792ba	-0.00038065558
220	0xb9ecf3de	-0.00045195123
221	0x36dff366	6.674253e-06
222	0xb9d69f1a	-0.000409358
223	0xb9d5563b	-0.00040690773
224	0xbb799765	-0.0038084623
225	0xbb51d3d4	-0.0032017129
226	0xb9f8c9a4	-0.0004745248
227	0x3ac51b61	0.0015038067
228	0xbb8b9a33	-0.0042603253
229	0xbacc7e3a	-0.0015601583
230	0xbac6ea6d	-0.0015176065
231	0xbb3547af	-0.0027661135
232	0xbb907551	-0.0044085165
233	0xbbdac24a	-0.006675993
234	0xba36f976	-0.00069799216
235	0xbacc7e3a	-0.0015601583
236	0xbc2865c4	-0.010278169
237	0xbbcb089b	-0.006196094
238	0xbc0e2385	-0.008675461
239	0xbbc9913f	-0.006151348
240	0x39e0fb2e	0.00042911753
241	0x39144418	0.00014139747
242	0x37083e1c	8.120693e-06
243	0x39b06c4f	0.00033650032
244	0x39b6ac60	0.00034842175
245	0x3ac33f8e	0.001489626
246	0x383ee117	4.550916e-05
247	0x39144418	0.00014139747
248	0x39148ca6	0.00014166776
249	0x3975dc62	0.0002344712
250	0x395cedcd	0.00021069423
251	0x39b658d1	0.00034779918
252	0xba8ce7cf	-0.0010750237
253	0x3a3d74de	0.00072271924
254	0xbbaf5c18	-0.0053515546
255	0x3a4e5927	0.0007871561

exp_avg_sq f4 [64, 12]
0	0x37ac1114	2.051195e-05
1	0x35419bea	7.212499e-07
2	0x37b50100	2.1577347e-05
3	0x36345c74	2.6875905e-06
4	0x36bf0ffe	5.6941053e-06
5	0x3842d6ee	4.6453373e-05
6	0x3455f5a0	1.9926529e-07
7	0x35419bea	7.212499e-07
8	0x37c6406f	2.3633444e-05
9	0x379938ab	1.826541e-05
10	0x37aa344d	2.0289934e-05
11	0x37b8be9b	2.2023267e-05
12	0x377d4284	1.5095462e-05
13	0x3510689a	5.3796396e-07
14	0x33611412	5.240515e-08
15	0x366a713c	3.4934628e-06
16	0x36ab6a49	5.1085703e-06
17	0x372c6339	1.0275101e-05
18	0x3332568f	4.152258e-08
19	0x3510689a	5.3796396e-07
20	0x35b8c432	1.3766169e-06
21	0x35aa2776	1.2677472e-06
22	0x35efffdb	1.7881351e-06
23	0x378301c7	1.5617245e-05
24	0x39f0ec4b	0.0004595242
25	0x36e8b0bf	6.9347147e-06
26	0x39813122	0.00024641404
27	0x383bc655	4.4768985e-05
28	0x38b70e26	8.728755e-05
29	0x3a1ee854	0.0006061841
30	0x36271624	2.4897827e-06
31	0x36e8b0bf	6.9347147e-06
32	0x39978789	0.00028901946
33	0x39896603	0.0002620668
34	0x39a04197	0.00030566446
35	0x3a0786ef	0.0005169948
36	0x39a0c252	0.00030662358
37	0x3760c420	1.3397104e-05
38	0x393888f2	0.00017598624
39	0x38702d10	5.7262427e-05
40	0x38bdc138	9.048212e-05
41	0x3a3b8abe	0.0007154158
42	0x364098b7	2.8699121e-06
43	0x3760c420	1.3397104e-05
44	0x39474dd7	0.00019007116
45	0x391ea6d2	0.000151302
46	0x39558fe6	0.0002036687
47	0x39b000ba	0.00033569877
48	0x39722d91	0.00023095893
49	0x36c169da	5.764171e-06
50	0x399890b0	0.000290995
51	0x379c5f3a	1.8640992e-05
52	0x3831832b	4.232225e-05
53	0x39542909	0.00020233182
54	0x35b0d6a9	1.3175496e-06
55	0x36c169da	5.764171e-06
56	0x3919d4e0	0.00014670519
57	0x390d6840	0.00013485644
58	0x38cd1a44	9.780054e-05
59	0x39777aa0	0.00023601437
60	0x000001f4	7e-43
61	0x000001f4	7e-43
62	0x000001f4	7e-43
63	0x000001f4	7e-43
64	0x000001f4	7e-43
65	0x000001f4	7e-43
66	0x000001f4	7e-43
67	0x000001f4	7e-43
68	0x000001f4	7e-43
69	0x000001f4	7e-43
70	0x000001f4	7e-43
71	0x000001f4	7e-43
72	0x39814133	0.00024653375
73	0x36f263d2	7.2237826e-06
74	0x392ab8fb	0.00016281374
75	0x37f0baa7	2.8697146e-05
76	0x383e3d8d	4.5356854e-05
77	0x39bde398	0.0003621846
78	0x35d0f168	1.5567466e-06
79	0x36f263d2	7.2237826e-06
80	0x3930781c	0.00016829412
81	0x39099d73	0.00013123993
82	0x38f2410c	0.00011551575
83	0x3987cd4a	0.0002590216
84	0x000001f4	7e-43
85	0x000001f4	7e-43
86	0x000001f4	7e-43
87	0x000001f4	7e-43
88	0x000001f4	7e-43
89	0x000001f4	7e-43
90	0x000001f4	7e-43
91	0x000001f4	7e-43
92	0x000001f4	7e-43
93	0x000001f4	7e-43
94	0x000001f4	7e-43
95	0x000001f4	7e-43
96	0x393a8bf9	0.00017790486
97	0x37a6e0f7	1.98935e-05
98	0x3a980aa6	0.0011599853
99	0x38d1b236	9.999091e-05
100	0x397e488c	0.00024250353
101	0x3ad98a25	0.0016596956
102	0x36c3982d	5.8291685e-06
103	0x37a6e0f7	1.98935e-05
104	0x3aa2bc6e	0.0012415776
105	0x3a853e4e	0.0010165663
106	0x3aa32094	0.0012445622
107	0x395b04c4	0.00020887243
108	0x3a12d47c	0.00056011206
109	0x374a85e4	1.2071312e-05
110	0x3a3835a0	0.0007027034
111	0x3852b695	5.0237944e-05
112	0x38e1ddbc	0.00010770137
113	0x3a58a041	0.0008263626
114	0x34acb976	3.2172437e-07
115	0x374a85e4	1.2071312e-05
116	0x38654d46	5.466982e-05
117	0x372626be	9.903391e-06
118	0x3877b09e	5.9053877e-05
119	0x3a13a01a	0.0005631462
120	0x3a1de210	0.00060227606
121	0x37816542	1.542515e-05
122	0x39d669f7	0.0004089621
123	0x388b338e	6.637639e-05
124	0x38f348a3	0.000116006726
125	0x3a6abfa7	0.000895495
126	0x3676b287	3.6760773e-06
127	0x37816542	1.542515e-05
128	0x39d404f3	0.00040439478
129	0x39a9e273	0.0003240291
130	0x399ca990	0.00029880973
131	0x3a22e3b3	0.00062137394
132	0x39347649	0.00017210202
133	0x35d0c5ad	1.5554739e-06
134	0x3985bc60	0.00025508087
135	0x36ce1161	6.1413016e-06
136	0x37dd9031	2.6412397e-05
137	0x391170b4	0.00013870263
138	0x34ceb569	3.8502483e-07
139	0x35d0c5ad	1.5554739e-06
140	0x38bb3e0b	8.928411e-05
141	0x38a91d9c	8.064063e-05
142	0x388c4170	6.687909e-05
143	0x393332c2	0.00017089679
144	0x37f6fa2f	2.9441986e-05
145	0x35d750ae	1.6042229e-06
146	0x382e3340	4.1532563e-05
147	0x36924614	4.3592972e-06
148	0x36f2cc3c	7.235938e-06
149	0x3856c00a	5.1200426e-05
150	0x34ad79ee	3.2312477e-07
151	0x35d750ae	1.6042229e-06
152	0x37727163	1.4450724e-05
153	0x36fb7c67	7.4948653e-06
154	0x374479de	1.1710885e-05
155	0x38062476	3.1982046e-05
156	0x394980c5	0.00019216824
157	0x3636d2d9	2.7242843e-06
158	0x39c5ff72	0.0003776509
159	0x37046a69	7.892589e-06
160	0x38109922	3.447489e-05
161	0x390d6e01	0.00013487788
162	0x35607f45	8.3631704e-07
163	0x3636d2d9	2.7242843e-06
164	0x393c586f	0.00017962021
165	0x392f69e6	0.00016728751
166	0x3924e5fc	0.00015725935
167	0x394a8afe	0.00019316
168	0x394dd57d	0.00019629854
169	0x362191fd	2.4075846e-06
170	0x39a14838	0.0003076212
171	0x36fa4352	7.4584177e-06
172	0x37f87763	2.9619498e-05
173	0x390a346e	0.00013180237
174	0x352b29a4	6.376306e-07
175	0x362191fd	2.4075846e-06
176	0x38ebe1f0	0.00011247757
177	0x38d2ea3b	0.00010057209
178	0x38b49175	8.610162e-05
179	0x394eaf8c	0.00019711087
180	0x38089e53	3.2572378e-05
181	0x366502cb	3.4125285e-06
182	0x389ec18e	7.5700795e-05
183	0x371d3c94	9.372034e-06
184	0x376cb316	1.4108393e-05
185	0x38b3407c	8.547396e-05
186	0x35bd5fe7	1.4109509e-06
187	0x366502cb	3.4125285e-06
188	0x39109bbd	0.00013790927
189	0x38b82fa5	8.782678e-05
190	0x38ef5e06	0.00011413921
191	0x3869f867	5.578287e-05
192	0x393c52a2	0.0001795986
193	0x35e90889	1.7362337e-06
194	0x39b98abc	0.00035389315
195	0x36d0f2fe	6.227171e-06
196	0x3809227e	3.269547e-05
197	0x3917efb1	0.00014489774
198	0x35281d71	6.262772e-07
199	0x35e90889	1.7362337e-06
200	0x39428aca	0.00018552985
201	0x39367fdc	0.00017404504
202	0x391e2932	0.000150834
203	0x393b52ed	0.00017864602
204	0x00000000	0.0
205	0x00000000	0.0
206	0x00000000	0.0
207	0x00000000	0.0
208	0x00000000	0.0
209	0x00000000	0.0
210	0x00000000	0.0
211	0x00000000	0.0
212	0x00000000	0.0
213	0x00000000	0.0
214	0x00000000	0.0
215	0x00000000	0.0
216	0x3a146011	0.0005660067
217	0x36a96cc1	5.049253e-06
218	0x3a479d32	0.00076146715
219	0x377f1674	1.5204412e-05
220	0x38979cff	7.229484e-05
221	0x39a520f3	0.00031495802
222	0x35653dfb	8.539934e-07
223	0x36a96cc1	5.049253e-06
224	0x38af39da	8.355426e-05
225	0x388de3ca	6.765833e-05
226	0x3745eba6	1.1796981e-05
227	0x3a147d58	0.00056644296
228	0x399fbf12	0.00030469202
229	0x371f74e2	9.504352e-06
230	0x3828aac8	4.0213374e-05
231	0x384dc9c7	4.906373e-05
232	0x38b1b426	8.473573e-05
233	0x3a0cf9dd	0.00053778087
234	0x362f606a	2.6133152e-06
235	0x371f74e2	9.504352e-06
236	0x399c81a5	0.0002985123
237	0x3975d10b	0.00023442895
238	0x39768fbd	0.00023513935
239	0x39af2abc	0.0003341044
240	0x37a38431	1.949267e-05
241	0x35b68160	1.359771e-06
242	0x36eac64c	6.9968282e-06
243	0x36d7499d	6.416069e-06
244	0x370d4b65	8.421809e-06
245	0x389757bc	7.216583e-05
246	0x3495467d	2.78047e-07
247	0x35b68160	1.359771e-06
248	0x3704e08f	7.920097e-06
249	0x37847153	1.5788397e-05
250	0x3697a6f5	4.519587e-06
251	0x37a39010	1.9498199e-05
252	0x3b823432	0.0039735073
253	0x381959bd	3.6561618e-05
254	0x3b6bf257	0.00360026
255	0x3969bc0c	0.00022290664

exp_avg f4 [64]
0	0xba97448e	-0.0011540817
1	0x3a21b77d	0.00061690045
2	0xb9c19721	-0.00036924428
3	0x3be54b47	0.006997499
4	0xbbf4b49b	-0.007467819
5	0x00000004	6e-45
6	0xbb50a89c	-0.003183878
7	0x00000004	6e-45
8	0x3c18b6e4	0.009320948
9	0x3ab89d8a	0.0014085036
10	0xbbcbc85e	-0.006218954
11	0x3abefc92	0.0014571121
12	0xbae59ce9	-0.0017518076
13	0xba317d01	-0.0006770641
14	0xba8147b9	-0.0009863294
15	0xbb90f5e5	-0.004423844
16	0xb95278af	-0.00020072119
17	0x00000000	0.0
18	0x3b267845	0.0025401276
19	0xbc1ecbbb	-0.009692128
20	0x3ac599c9	0.0015075739
21	0xbba38e84	-0.0049913544
22	0x3b6ed789	0.0036444387
23	0x3ae7d6b2	0.0017687886
24	0xbc23a143	-0.009987178
25	0xbb1cf2d8	-0.0023948457
26	0xbc4d4000	-0.012527466
27	0x00000004	6e-45
28	0xbc0bd0f5	-0.008533706
29	0x3c729e34	0.014808226
30	0xbc32bf94	-0.010909934
31	0xbc1351d5	-0.008991678
32	0xbc2e848f	-0.010651722
33	0xbb669238	-0.0035182368
34	0xbb1e0510	-0.0024111904
35	0x3b39daef	0.0028359254
36	0xbb69ba5e	-0.0035664062
37	0x00000004	6e-45
38	0xbc46c104	-0.012130979
39	0xbd09ce57	-0.033644047
40	0xbb210dbc	-0.0024574837
41	0x00000000	0.0
42	0x3ac2f4c7	0.0014873975
43	0x00000004	6e-45
44	0xbb929d53	-0.004474321
45	0x382afee1	4.0768533e-05
46	0xbc08acdc	-0.008341994
47	0xbc542f4b	-0.012950729
48	0xbabc6e4f	-0.0014376136
49	0xb91f687c	-0.00015202345
50	0xba111d26	-0.00055356545
51	0xb9885727	-0.00026004875
52	0xbc445ac2	-0.011984529
53	0xbbad95a1	-0.005297378
54	0xba9f72ca	-0.0012164947
55	0xbbb720f5	-0.0055886456
56	0x00000000	0.0
57	0xb8d1afe5	-9.9986595e-05
58	0x3a21445e	0.000615185
59	0xbb9db360	-0.004812643
60	0xbc4e5f7c	-0.012596007
61	0x00000004	6e-45
62	0xbcb31486	-0.021860372
63	0xba059a62	-0.0005096552
