models/checkpoint_780000.pt (torch, 125871 bytes, 33 tensors)

shared.0.weight f4 [64, 12]
000000 2e 2a 72 be fa 97 e2 be 3d fb 09 3e 4a ee 5f 3f
       -0.23648903 -0.44256574 0.13474746 0.87472975
000010 cd 5b 31 be e4 14 a3 3b ca 04 d7 be ac 62 1f bf
       -0.17320175 0.0049768556 -0.4199584 -0.62259936
000020 e6 e0 74 be 27 ae cc bd 47 82 0e be 0d 40 e9 3c
       -0.23913917 -0.099941544 -0.13916884 0.028472925
000030 34 4d bd 3c 1c 3f db 3d 4a 04 44 be 50 47 65 3f
       0.023108102 0.107053965 -0.19142261 0.8956194
000040 36 c1 09 3e 1b 7e b6 bd 47 20 42 3e f8 41 ab 3e
       0.1345261 -0.089107715 0.18957625 0.33448768
000050 26 30 2c 3d 05 8d bd bd 9c 59 6e 3d df 1b 4d 3e
       0.042038105 -0.09255413 0.058190927 0.20030163
000060 3f e1 02 3e 8a 81 ec 3c 89 96 37 3b 7b 62 b9 bd
       0.12781237 0.028870363 0.002801331 -0.09051987
000070 a5 a1 39 bf 81 52 da 3d 0a 19 18 3e 81 07 90 3d
       -0.72512275 0.106602676 0.14853302 0.07032681
000080 e9 93 62 be bc 0c da 3d c7 31 5e 3e ab ab 32 3d
       -0.22126736 0.1064696 0.21698676 0.043620747
000090 da b5 28 be 97 df ef be c3 00 71 3d 81 dd 7c 3d
       -0.16475621 -0.46850273 0.058838617 0.06173468
0000a0 d8 3b af 3e 47 89 a8 3e 73 5d e6 3d c6 1c 10 be
       0.34225345 0.32917234 0.11248293 -0.14073476
0000b0 c5 c0 f4 bd 67 a6 75 3d 77 7a 42 3d 18 4e 67 3e
       -0.1195083 0.059973147 0.047480073 0.22588384
0000c0 ed 2e c2 3d 96 8c 9d be ba da 8d 3d 84 18 36 bf
       0.09481607 -0.3077132 0.069264844 -0.7113116
0000d0 1d e4 98 be 87 77 0f be 5a f6 1b bf 18 20 23 be
       -0.29861537 -0.1401044 -0.6092278 -0.15930212
0000e0 2d ef 0a 3d 49 e7 04 3e 20 81 4a be 17 78 a9 be
       0.033919502 0.12978853 -0.1977582 -0.33099434
0000f0 cd 3c 2d be 73 50 c6 bc cb 96 91 be 7e 09 fb be
       -0.16917725 -0.024208283 -0.28435358 -0.4903068
000100 7e 8c c0 be 63 f7 88 3d 98 d0 1d be f8 77 af bd
       -0.37607187 0.0668781 -0.15411603 -0.08567804
000110 6c d6 d8 3b d4 da a6 bc 7e cb 37 bd ef 43 00 3e
       0.006617358 -0.020368017 -0.0448718 0.12525915
000120 9b ce 2d bd 33 82 fb 3e dc 13 66 bb ed 7a 0b 3f
       -0.042433362 0.49122772 -0.0035107052 0.54484445
000130 c0 41 46 bf 47 99 19 be 57 20 a1 3c 02 19 89 3e
       -0.77444077 -0.14999877 0.019668741 0.26776892
000140 2a 98 85 3d c1 ec 61 3d 3f 25 a6 3d 72 92 4e 3e
       0.065231636 0.055157427 0.08112573 0.20173052
000150 0c 57 91 3d 60 24 aa be a4 42 01 3d e0 43 bf be
       0.07096681 -0.33230877 0.031557694 -0.37356472
000160 83 d3 f4 be 35 f5 25 bd 25 f5 f3 be e2 be 67 be
       -0.4781762 -0.04051705 -0.47647968 -0.2263141
000170 92 62 14 bd 5f 06 90 be c1 12 22 3e 24 7a 39 3d
       -0.036226816 -0.2812986 0.15827467 0.045282498
000180 f5 da 6b be 8f 74 5d be 53 00 ec 3d d2 3b c2 be
       -0.23032744 -0.21626495 0.11523499 -0.37936264
000190 7f 63 68 3e 64 e4 18 3d 66 eb ab bf 35 f6 f2 bd
       0.22694205 0.037327185 -1.3431213 -0.118633665
0001a0 9f a6 d9 3d 3e d8 52 3d c6 e3 38 3c a2 26 6b bf
       0.106274836 0.051475756 0.011284774 -0.91855824
0001b0 1d 06 59 3d 94 0b 49 3e fd 53 fb 3d dc e8 d8 bd
       0.052984346 0.19633323 0.12271879 -0.105912894
0001c0 72 69 1a bf c6 b0 2f 3e 29 3d 9c bf 9f 82 3e 3d
       -0.60317147 0.17157277 -1.2206165 0.04651129
0001d0 15 9a 42 3e 8d b8 85 be 37 df 09 3e b8 53 36 be
       0.1900409 -0.26117364 0.13464056 -0.17805374
0001e0 ef 0c 0c be 45 23 98 3d 7e 4d 12 bd 66 da f7 3e
       -0.13676809 0.07428602 -0.035718434 0.48408812
0001f0 ba 9b 43 bf 95 b5 d0 bd eb 82 03 bd 13 e7 9c bd
       -0.76409495 -0.10190884 -0.032107275 -0.076612614
000200 de c0 9d bd 1e 5d d4 3c 6f e4 a2 b9 4d 91 46 3e
       -0.07702802 0.025923308 -0.00031069244 0.19391365
000210 05 74 bd be a2 2d 2b 3f c9 1c c1 3d e6 76 b8 3f
       -0.37002578 0.66866505 0.094293185 1.4411285
000220 ab b6 18 be c0 1f 4a bd 69 de 97 3e d3 29 0e 3f
       -0.14913432 -0.049346685 0.29661873 0.5553257
000230 cc 6f 84 3d a3 24 13 bd 63 3f ef 3d 40 65 40 3e
       0.06466636 -0.03592361 0.11682012 0.18788624
000240 89 66 20 be c8 82 b0 3e 76 d4 4b bc 4f 27 db bc
       -0.15664114 0.34474778 -0.012440791 -0.026752142
000250 d7 c7 a3 be 19 00 5e 3e 3f cc 82 3e 7b 93 9b 3d
       -0.31988403 0.21679725 0.25546452 0.07596489
000260 c6 5f 2f 3d 7b d0 d0 bd c1 13 1e bd c7 83 02 3e
       0.042815946 -0.101960145 -0.038593058 0.12745582
000270 18 fb e2 be 68 a8 30 3d 49 a2 24 bd 66 17 8f 3e
       -0.44332194 0.043129355 -0.04019383 0.2794754
000280 0c 8b 79 3d 68 18 6f 3c 72 5c 20 3f 28 57 91 3e
       0.06092362 0.014593221 0.6264106 0.28386807
000290 db 0d 9c 3d 61 2c 9b be 4d c5 cf 3d a8 67 c8 3e
       0.0761983 -0.30307296 0.10145054 0.39141583
0002a0 2d 98 e3 bd ce 67 a9 bc 6f dd 0c be 36 9f 9e 3e
       -0.111130096 -0.02067938 -0.13756345 0.30980843
0002b0 92 19 20 bf 56 9c 1e 3e 0f ef d0 3e cb f1 e8 bd
       -0.6253902 0.15489325 0.40807387 -0.11374243
0002c0 a1 36 5a bc c5 ba b3 3c d9 85 1b 3e e3 82 a8 3e
       -0.013318689 0.021939645 0.15187778 0.3291236
0002d0 60 e0 fb 3c 4d 18 f0 be f8 32 f8 3d 20 d3 4c 3d
       0.030746639 -0.4689354 0.121190965 0.050006032
0002e0 a2 df 00 bf 44 de 40 bd 0a 1c ca be c3 ef c4 be
       -0.50341237 -0.04708697 -0.39474517 -0.38464174
0002f0 7c 16 81 3e f4 95 74 be a9 5a 3e 3d d9 87 61 be
       0.25212467 -0.23885328 0.04647318 -0.22024478
000300 b6 ca 86 be 6f 96 48 3e b1 0c 93 bc 68 4a 4d 3f
       -0.2632653 0.19588636 -0.017950388 0.8019166
000310 90 c1 94 bd 5f 17 18 be 66 9d f1 3d ba 29 f4 3e
       -0.072634816 -0.14852665 0.117975995 0.47688085
000320 1d f6 44 be 49 59 e0 bd 07 a3 c1 3c ab 0e a0 3e
       -0.1923451 -0.1095453 0.023637308 0.3126119
000330 5e 0c 99 3c 70 03 82 3c ba de 24 be 6c 18 8e bd
       0.018682655 0.01587078 -0.16100588 -0.06938252
000340 45 a9 1a be 83 5a 15 bd 7b f6 30 3d 3b 36 65 bd
       -0.15103634 -0.03646327 0.043203812 -0.05595992
000350 06 ab 86 bd c7 62 c5 bd 31 c7 96 bd 38 ed 01 bd
       -0.06575589 -0.09637981 -0.073622115 -0.03172037
000360 f8 d7 6a be 4a 38 2b 3f ac 9d 42 3e 66 4a b9 3e
       -0.22933948 0.66882765 0.1900546 0.36189574
000370 30 ef 17 bd 1f 46 69 3d a4 ef eb 3d d2 e2 30 3f
       -0.03709334 0.05695164 0.11520317 0.690961
000380 0b 4a ce bd 9e a5 3a 3d b8 37 80 bf d1 f2 82 be
       -0.10072716 0.0455681 -1.0017004 -0.2557588
000390 ae f1 2d 3e d0 0d 11 bf 3c 1e e3 be bf 52 38 3f
       0.16986725 -0.566617 -0.44359004 0.7200126
0003a0 cf 95 5f 3e 96 5b 0d be af 93 3c bf 5a 24 02 bf
       0.21834491 -0.13804469 -0.7366285 -0.5083672
0003b0 05 a2 09 bd d5 b4 f8 3d cd c2 b4 bd b5 a2 31 be
       -0.03360178 0.12143866 -0.08826218 -0.17347224
0003c0 e3 e1 a0 bd 94 3d 8a bd 33 ab 5b bc 71 43 70 bd
       -0.078555845 -0.06750026 -0.013407516 -0.058658067
0003d0 1d cb e2 be 16 03 18 3e 62 a1 bc be de 66 2e bc
       -0.44295588 0.14844927 -0.36841875 -0.010644643
0003e0 c3 59 e5 bc ac 17 ce 3e 79 ae 0b be 82 97 f2 be
       -0.027996903 0.40252435 -0.13640775 -0.47381216
0003f0 db 9e 88 3e a4 ee c3 bc 3c 5f d8 bc 5c 9f fd bf
       0.26683697 -0.023917504 -0.026412599 -1.9814258

shared.0.bias f4 [64]
000000 14 1b 50 3e a7 e5 7a 3e a0 cf 34 3d eb 24 92 be
       0.2032283 0.24501668 0.04414332 -0.2854379
000010 c6 a8 19 3e ee 00 7c 3d e2 3c ed 3e f7 75 cb 3c
       0.15005788 0.061524324 0.46335512 0.024836523
000020 cc 5e f9 3e bf c7 36 3e af 7f b0 3e e4 24 87 3e
       0.48705137 0.17849635 0.34472415 0.26395333
000030 ad 53 aa 3d 5a de 00 bc 4d d8 fc 3d 73 4b b1 bd
       0.08316741 -0.007865513 0.123459436 -0.08656969
000040 76 75 38 3e 00 00 00 00 3f a6 77 3e 48 ca 8a 3e
       0.18013558 0.0 0.24184512 0.27107453
000050 95 2b fb 3c 43 aa a7 3e c4 ea f1 3c 0f 23 a2 be
       0.03066043 0.32747087 0.02953089 -0.31667373
000060 9c 09 dd 3e c7 37 c6 3e cb d9 ab 3e c4 fd 1b bc
       0.43171394 0.3871443 0.335646 -0.009520952
000070 f3 d0 b1 3d 59 79 90 3c f4 39 d9 3e 0a f3 b9 3e
       0.08682432 0.017635988 0.42427027 0.36318237
000080 4d 8d 98 3e a3 7f ca bc 16 af 82 bd fe da 41 3e
       0.29795304 -0.024719065 -0.06381051 0.18931195
000090 8f 6f dd 3e 36 a1 5b bd 17 32 d8 3e ad 46 51 3e
       0.43249175 -0.05362054 0.42225716 0.20437117
0000a0 65 23 68 3e 00 00 00 00 05 dd 7f 3e bf c5 59 be
       0.22669752 0.0 0.24986656 -0.2126684
0000b0 69 4a 31 3d 2f 13 b2 3e 5f e2 49 3e c4 4a b5 3e
       0.043283854 0.3478026 0.1971526 0.35408604
0000c0 ae 29 c1 3d 7d c3 3f 3e 13 ba 92 bd 74 c8 b2 3d
       0.09431778 0.18726917 -0.07164397 0.0872964
0000d0 07 29 91 3e 01 8c c1 3e ec c2 83 3e b9 a6 95 3e
       0.28351614 0.37802127 0.2573465 0.29228762
0000e0 00 00 00 00 2a 1c 96 3e 19 21 b6 be 93 c9 32 3d
       0.0 0.29318362 -0.35572127 0.043649267
0000f0 13 2a 59 3e ad 1d b7 3d be 9b 1f 3e d6 fd 85 3e
       0.21207456 0.08941207 0.15586755 0.26170224

shared.2.weight f4 [64, 64]
000000 09 5f 43 be fc 96 6b bd 28 6a 27 3f cd 4e 89 bd
       -0.19079222 -0.057517037 0.65396357 -0.06704483
000010 4d 30 bf 3e f3 83 08 be fb 63 36 bd 43 d0 18 3e
       0.37341538 -0.13331585 -0.044528943 0.14923196
000020 5e 12 4c bf f6 d7 1c 3f 20 71 87 3e 85 b4 85 3d
       -0.79715526 0.6126703 0.26453495 0.06528572
000030 c1 87 43 3e 49 aa 58 be d5 12 e8 3d ab 4c 65 3d
       0.19094755 -0.21158709 0.11331717 0.05598132
000040 df 59 94 bd ff 46 86 3d 77 7e c4 3d b1 07 81 3c
       -0.07243704 0.0655651 0.09594434 0.015750738
000050 7d 75 fc 3e 2d c0 de be e2 94 0d 3f ba bd f2 bd
       0.49308386 -0.43505993 0.553053 -0.11852594
000060 dc fc 4b 3d e3 f7 6b 3e 85 42 c9 3d 53 6a 0d 3e
       0.049801692 0.2304378 0.09827141 0.1381009
000070 a9 82 96 3e 75 79 61 bf 41 7b 73 bd 64 a3 a8 3e
       0.2939656 -0.88075954 -0.059443716 0.32937157
000080 22 db 8f 3e 5a ff c4 3e 8f 6b a7 be 98 5d 27 3f
       0.28096873 0.38476068 -0.32699248 0.6537719
000090 f0 cb cd 3b 77 8b 44 3e c6 a8 43 be 1c 79 ae bf
       0.0062804148 0.19193827 -0.1910735 -1.363071
0000a0 b9 be 80 bd df 61 09 be be be 0c 3f fa 83 2f bf
       -0.062863775 -0.13416241 0.5497855 -0.68560755
0000b0 23 95 b4 3d 09 bd 16 3f 9b 32 1b 3d 11 b7 fa 3c
       0.08817508 0.58882195 0.037890058 0.030604871
0000c0 25 9c f7 3e e9 06 c1 bd 88 02 75 bd 91 e8 52 be
       0.48361316 -0.09425146 -0.059816867 -0.2059653
0000d0 63 b7 f5 bd 48 5e 1c bd 60 2d 77 bd 70 d8 c8 3c
       -0.11997869 -0.03817585 -0.060346007 0.024517268
0000e0 85 09 08 3e 01 d7 3c bf 20 36 b3 bd b0 30 8a be
       0.13284881 -0.7376557 -0.08750558 -0.2699027
0000f0 4f 1d f9 3d b8 bb 11 3f f7 1c 8a bc 4f a7 f1 bd
       0.12163793 0.5692706 -0.016859515 -0.1179949
000100 56 6c a4 bd 16 27 51 be 0f 33 16 3c 26 97 0e bf
       -0.08028476 -0.20425066 0.009167447 -0.55699384
000110 9e e4 90 3e b2 c8 50 bc 77 cc f3 bd b6 3c 06 3e
       0.2829942 -0.012743162 -0.11904233 0.13109097
000120 dc 4f c0 be 57 5f 78 3e ae 22 93 bd 6b 33 3a be
       -0.37560928 0.2425512 -0.07184349 -0.18183677
000130 51 2f b1 bc 58 80 9d be 0d 60 c8 3c 72 4c bc 3e
       -0.021629008 -0.3076198 0.024459863 0.36777073
000140 83 23 f5 bd 65 e7 16 3d 4f c1 46 3e 77 ea 2a 3e
       -0.11969664 0.03684177 0.19409679 0.16691004
000150 0c 99 eb 3d 6e 4b 34 bf be ae a0 3e 1b 06 a6 bc
       0.11503801 -0.70427597 0.31383318 -0.020266583
000160 f4 78 67 ba 4c 41 8e 3d 72 b6 6c 3e 76 f2 36 bd
       -0.0008829974 0.06946048 0.23116472 -0.044664823
000170 a0 b1 9c 3c 49 bc bd be 4e a6 9c 3c 10 7f 85 3e
       0.019127667 -0.37057713 0.019122269 0.26073503
000180 65 ec b0 bd 96 bc da 3e ed ec 33 3d 1d fc 9d 3e
       -0.08638839 0.42722005 0.043927122 0.3085641
000190 fb 17 ae be bb fe 22 3f 76 36 15 be 44 13 c5 bf
       -0.3400267 0.6366994 -0.14571556 -1.5396504
0001a0 8d be 96 be f8 a1 e3 bd ec f1 81 3e 60 4d 3f bf
       -0.29442254 -0.111148775 0.25379884 -0.7472744
0001b0 19 17 e7 bd c0 4e 19 3e 35 74 9b bc 51 9c d8 3d
       -0.112837024 0.14971447 -0.01897631 0.1057669
0001c0 e9 eb b0 3d 82 a4 c9 be b4 3d 36 be a6 85 1a bd
       0.08638746 -0.39383322 -0.17796975 -0.037725113
0001d0 0d 2d 0f 3c b1 8f 3d be 81 d5 d3 bd 05 4e 86 be
       0.008738768 -0.18511845 -0.10343457 -0.262314
0001e0 65 0e 2d 3d 79 46 d0 be f5 3e e6 3d 72 51 55 be
       0.042250056 -0.40678766 0.11242477 -0.2083185
0001f0 b3 10 3d 3e 75 8d c2 3e aa dd 0f bf d9 c4 21 be
       0.18463401 0.37998548 -0.5619761 -0.15797748
000200 fe 38 81 be e9 54 71 be 68 d6 5b 3e 70 da 8a be
       -0.25238794 -0.23567547 0.21468508 -0.2711978
000210 4d d0 a9 bd 9e 40 9c be a7 90 3b bd 29 67 bc 3d
       -0.08291683 -0.3051805 -0.045792248 0.09199364
000220 1e 49 db be f8 29 33 3d d1 93 37 be db af 6e bd
       -0.4282922 0.043741196 -0.17927481 -0.058273178
000230 7b ad 1e 3c 1f 99 52 3d 44 3c 80 3d a8 a6 0b 3d
       0.009684916 0.05141556 0.06261495 0.034094483
000240 6a 37 db 3c 96 fb a6 3d 0d 74 27 bd 09 e0 30 bd
       0.026759822 0.08153455 -0.04088216 -0.043182407
000250 8f d2 a6 3e 73 73 81 bf 09 16 22 3e e6 b9 88 be
       0.32582518 -1.0113357 0.15828718 -0.2670433
000260 0c 9f 86 3e 54 cd 7e 3e 49 0c 42 3d 13 74 a1 bd
       0.26293218 0.24883014 0.047374997 -0.078834675
000270 64 bb 46 3e 11 89 91 be e7 68 d9 3d 37 92 12 3f
       0.19407421 -0.28424886 0.10615712 0.57254356
000280 b9 ca 54 3d aa 38 90 3d ee da 48 3d fd 2d 2a 3f
       0.051951144 0.07042058 0.049036913 0.6647642
000290 66 56 3a bc 08 47 18 3e 3c 51 50 3d b7 4e ce bf
       -0.011373138 0.14870846 0.05085872 -1.6117772
0002a0 1d de 3a 3e 41 38 ad bd 93 93 2f 3e 58 03 06 bf
       0.18248792 -0.08457995 0.17146139 -0.5234885
0002b0 7c 41 92 bd 59 9f 38 3d 36 4e 63 be 4a f2 46 3e
       -0.071413964 0.04507384 -0.22197804 0.19428363
0002c0 1b 8e 93 3a 99 29 cb be 64 29 22 bd 1d c0 6a 3d
       0.0011257561 -0.39680174 -0.039590254 0.05731212
0002d0 7b 23 81 3e 0f 8b 8f bd d4 16 55 3e 6b 54 c9 3d
       0.25222382 -0.07008945 0.2080949 0.098305546
0002e0 81 b5 45 3e 3d 4f a2 be 02 80 3e be f2 f7 f9 be
       0.1930752 -0.3170108 -0.18603519 -0.4882198
0002f0 6f c7 2b 3e 3f ba d8 3e e5 f5 1a bf bc 9e f0 3c
       0.16775297 0.42329594 -0.60531455 0.029372565
000300 90 9d df 3d 5a 32 b7 be 8a 98 14 bf 8d 88 c6 be
       0.109187245 -0.35780603 -0.58045256 -0.38776055
000310 8e 81 4f bd 69 65 88 be 7c a9 8a be 06 b5 2a 3e
       -0.050660662 -0.2663987 -0.2708243 0.16670617
000320 7b 94 5c 3e 20 f9 02 3f 5e e4 13 3c 8b 8b bf bc
       0.21541016 0.51161385 0.009026615 -0.023381969
000330 f6 cb 55 be 26 a9 10 3d ec aa c9 be 9f a7 5b 3e
       -0.20878586 0.035317563 -0.39388216 0.21450661
000340 8e 82 40 be d1 92 2c 3e aa 7b 61 3e bd ea 42 bf
       -0.18799803 0.16852881 0.2201983 -0.7613943
000350 b1 16 d6 be 3b 16 1c bf 72 c0 14 3f ab 1e c8 be
       -0.41814187 -0.6097142 0.5810615 -0.39085898
000360 db 2d 9d 3e 05 5e bc 3e 0c ad 00 be f5 fc e8 bd
       0.30699047 0.3679048 -0.12566012 -0.11376373
000370 05 15 05 bf 1e f3 f2 bc 59 52 7e 3d 09 05 4a be
       -0.519852 -0.029656943 0.06209025 -0.19728483
000380 ec ad 0a bf dc 93 a5 bf 25 9b 17 bf 3a e8 8f 3f
       -0.54171634 -1.2935748 -0.59221107 1.1242745
000390 0b bd 60 3d c7 4a a7 3e 5c 8f 9d bd 60 20 c2 bf
       0.054867785 0.32674238 -0.07693359 -1.516613
0003a0 25 04 ab 3d 6a 4e 2a be 3c eb 6b 3e d7 03 3d bf
       0.083504 -0.16631475 0.23038954 -0.73833984
0003b0 c8 09 4c be e3 94 d7 3e c2 b4 e5 bd 88 eb a3 3d
       -0.19925606 0.4210578 -0.112161174 0.080039084
0003c0 4f fa 76 3e 02 8d 1b 3d 88 1a 19 be e0 63 39 bf
       0.24118923 0.037976272 -0.14951527 -0.7241802
0003d0 2e 03 1b bf e7 7e d8 bd 2a b5 41 3e 8a f5 5b bd
       -0.60551727 -0.1057108 0.18916765 -0.05370096
0003e0 2a 19 0a be 5d 92 aa be 86 4e 44 bf 4d 83 eb bc
       -0.13486162 -0.3331479 -0.7668232 -0.028749133
0003f0 c6 f3 0a bf de 70 fa 3e c9 d7 ea be b4 83 37 bf
       -0.5427822 0.48914236 -0.45867756 -0.7168534

shared.2.bias f4 [64]
000000 95 b5 2d 3e 30 e0 99 3e 67 ca cd 3e 44 06 c6 3d
       0.169638 0.30053854 0.40193483 0.09669164
000010 24 42 81 3d 42 53 a7 3b bd 0b 1d bd 15 56 1a 3c
       0.063114434 0.0051063607 -0.038341273 0.009419938
000020 bf 1f 03 bf 44 ee 0c 3f 41 3c aa 3e db dc 44 3e
       -0.51220316 0.55051064 0.33249095 0.19224875
000030 a1 e9 a3 3e 30 50 d2 3e 10 b7 08 3f df c2 d2 bc
       0.32014182 0.41076803 0.5340433 -0.025727687
000040 4e f7 8b 3d 6a 31 c3 bc 9f 25 fe 3e 99 c8 1f 3e
       0.06834279 -0.023827273 0.49638078 0.15603866
000050 fb 78 6b 3e 92 fb 2d 3e a1 00 87 3e 6d c0 0d 3f
       0.22995369 0.16990498 0.26367667 0.55371743
000060 87 a2 0a 3f fd 13 07 3f a1 7e a1 3e a6 54 35 3e
       0.5415425 0.52764875 0.31541923 0.17708072
000070 f0 93 e5 3d c8 8b 4d 3e 7b 3a f8 3e 5b 7b d9 3e
       0.112098575 0.20072854 0.48482117 0.42476925
000080 5d 44 16 3f bc 16 f5 3e ff ba 47 3e 09 8b 04 3f
       0.58698064 0.47868907 0.19504927 0.5177465
000090 69 65 09 3f 05 cb ac 3e 29 61 9a 3e 6e f1 0f 3f
       0.53670365 0.33748642 0.30152252 0.5622777
0000a0 8a af a0 bc 55 89 58 3e 76 4c 07 3f 83 c2 fb 3e
       -0.019614954 0.21146138 0.52851045 0.49171838
0000b0 90 56 30 bd ea e7 5d bc 64 80 d8 3e b1 dd cb 3e
       -0.043051302 -0.013544062 0.42285454 0.39817575
0000c0 b7 56 a4 3e 84 04 91 3e 83 b3 f6 3e c8 2b f3 3e
       0.32097408 0.28323758 0.48183832 0.4749434
0000d0 62 c0 bf 3e c4 50 a1 3e a6 24 b5 3d 90 e3 54 bd
       0.37451464 0.31506932 0.08844881 -0.051974833
0000e0 93 cc 15 3f e2 21 3d be 25 59 d6 3e 2a 38 f3 3e
       0.5851528 -0.18469957 0.41864887 0.47503787
0000f0 d3 4c 70 3e bc 04 14 3f 17 2f 8e 3e 67 6d aa 3e
       0.23466806 0.57819724 0.27770302 0.33286592

actor.0.weight f4 [32, 64]
000000 df 43 a3 bd 5a 69 60 be ee 2d d2 bd 6d 39 d4 bd
       -0.0797193 -0.21915188 -0.10262667 -0.103625156
000010 61 bd 86 3d 57 c2 25 3e 93 21 45 be a5 ab 18 be
       0.0657909 0.16187416 -0.19251089 -0.14909227
000020 2b eb d3 3d 6a a6 00 3e 25 65 5b be 20 71 dd 3d
       0.10347589 0.12563482 -0.21425302 0.108125925
000030 b2 be c3 3d bc a6 19 3c 88 83 e2 3c 6b 94 90 bd
       0.095578566 0.0093781315 0.02765061 -0.070595585
000040 11 a4 86 3d fd cb d4 3d cb e2 e0 bc d0 f3 5a be
       0.06574262 0.1039047 -0.027451893 -0.2138207
000050 5e 80 ec 3c a0 d7 19 be 53 37 ea 3d 01 37 b3 b9
       0.028869804 -0.1502366 0.114363335 -0.00034182522
000060 f1 49 bc bb 7c 86 d1 bd 88 b3 e5 3c 2b 79 cf bd
       -0.005746119 -0.10230729 0.028039709 -0.10130533
000070 57 a0 76 bc 0b 78 98 be b6 dc 72 bd 73 b7 b2 be
       -0.015052876 -0.29779086 -0.059292518 -0.34905586
000080 33 62 42 3d b5 44 e0 bd 8a 69 c2 3d ca 3c fb 3d
       0.04745693 -0.10950605 0.09492786 0.12267454
000090 26 6f 15 be b6 11 18 be 70 e7 85 be d9 f4 cf bd
       -0.14593181 -0.14850506 -0.26153135 -0.10154123
0000a0 36 49 6d bb d0 a2 b6 3d e8 e4 dd bc b5 07 91 be
       -0.0036206967 0.08917773 -0.02708669 -0.28326192
0000b0 5b 9e bb 3c f5 02 44 3d 2f ad 0f 3d de 32 1f bc
       0.022902658 0.047854383 0.03507727 -0.0097167175
0000c0 ca 87 d9 bd 0f 58 e8 bc 24 2e 26 be 47 87 96 bd
       -0.10621603 -0.028362302 -0.16228539 -0.07350021
0000d0 6e 0f 0c be 3b be d6 3d e2 b2 33 bd 89 19 b5 bd
       -0.13677761 0.10485502 -0.043871768 -0.08842761
0000e0 59 ea 53 3e 2b a4 5c be 0f 9d 91 bd 95 0b 94 bd
       0.20694865 -0.21547 -0.07110035 -0.072287716
0000f0 1d 73 59 3d 9a 8c ae bc 11 0f c7 3b a1 8f e6 bc
       0.053088296 -0.021307278 0.006074794 -0.02814466
000100 09 23 2f bd 7a fe 33 3e f0 a1 01 bd 1c f3 60 3c
       -0.04275802 0.17577544 -0.031648576 0.013729837
000110 96 e5 97 3e fc 5f 18 bd b1 32 0e 3a 89 06 9b 3d
       0.29667348 -0.037200913 0.0005424424 0.07569606
000120 a8 16 d0 bd 6e ab 0a bc 21 4c 8c 3d 41 4b df 3d
       -0.10160571 -0.008463724 0.06850458 0.109030254
000130 d3 a4 13 be a0 40 07 be a8 f2 b4 3d 1d 95 e8 3d
       -0.14418344 -0.13208246 0.088353455 0.11356566
000140 e8 e4 db be 94 b4 95 3d f3 fe cc bd 2b b5 42 bd
       -0.4294808 0.07309833 -0.10009565 -0.047536056
000150 0e 25 57 3c ff 3c da bd 71 55 93 3d 1b fa 15 bd
       0.013131393 -0.10656165 0.07194031 -0.036615472
000160 5c d8 a3 bd e9 28 5d 3b ef be be 3c 36 2f 8e 3e
       -0.08000252 0.0033746308 0.023284404 0.27770394
000170 65 ef 05 3e f8 2f 5e 3e 54 de f5 3c 67 65 7e 3b
       0.13079603 0.21697986 0.03001324 0.0038817765
000180 0d 4e 28 3d 31 60 55 bb bf 5a 0b 3d c1 26 c8 bd
       0.04109006 -0.0032558555 0.03402209 -0.09773017
000190 62 b9 20 be 76 4a 55 bc f7 15 6c be f2 0e 66 bd
       -0.15695718 -0.013018241 -0.23055254 -0.056166597
0001a0 d5 48 15 3e 27 4e 40 3e b5 9d 02 3d e4 42 d3 bd
       0.14578564 0.18779813 0.031888682 -0.10315493
0001b0 06 48 85 bd 49 2c 00 3e 16 e7 80 bc 72 28 9e bc
       -0.06507878 0.12516893 -0.01573519 -0.019306395
0001c0 cf f3 f9 3d 7e d1 36 be 75 79 73 bd 61 10 86 be
       0.12204706 -0.17853352 -0.059442002 -0.2618437
0001d0 80 fc 11 be 91 1e de bd 9e 43 1c be 53 ed 82 3c
       -0.14256477 -0.10845674 -0.15260169 0.015982306
0001e0 6b 72 72 bd d6 e9 b3 bd 5a 5d f9 3b 38 9d 51 be
       -0.05919115 -0.08784835 0.0076100053 -0.2047013
0001f0 56 10 82 bb 40 2d b2 bd 4a d0 01 bc 0b 69 d0 3d
       -0.0039692326 -0.08700037 -0.007923195 0.10176285
000200 a1 8e c5 3d 57 74 79 3d 99 6b b9 bc 14 52 2d be
       0.09646345 0.060901966 -0.022634314 -0.16925842
000210 d5 18 f2 be f0 0f 7f 3f 5c ff bb bc 5d 55 03 3e
       -0.4728457 0.99633694 -0.022948913 0.12825532
000220 ca cb a5 be 03 34 52 be cc f5 01 be 60 e8 28 3e
       -0.3238204 -0.20527653 -0.1269142 0.16494894
000230 fd c5 1a be 41 46 8d be 84 3e e2 bd a3 a4 0e bc
       -0.15114589 -0.27592662 -0.1104708 -0.008706245
000240 fc d7 82 be ff ed 3b bd 9b 84 8d 3e f3 90 2c 3e
       -0.25555408 -0.045881268 0.27640232 0.16852169
000250 0a f5 07 bd b4 2a 94 be 80 65 cf bd 5e 15 fb bd
       -0.03319267 -0.2893883 -0.101267815 -0.12259935
000260 f2 4d 99 bb d0 88 80 bd 53 c8 92 3e 5e a2 1e bd
       -0.0046784813 -0.06276095 0.2866846 -0.038729064
000270 91 f2 66 3e b4 23 72 bd f3 9e 4e 3e a7 4a be be
       0.22553469 -0.05911608 0.20177822 -0.3716633
000280 99 11 8d 3e 99 54 21 3e a3 89 46 bd db 40 b9 bd
       0.27552488 0.15754928 -0.048471104 -0.09045573
000290 41 2a 80 3c a1 27 94 bd 89 f9 6b be 06 31 b8 3d
       0.015645148 -0.07234121 -0.23044409 0.089937255
0002a0 f3 0e ec bc 69 8e b8 3c 8f c8 11 be f3 ca 29 3e
       -0.028815722 0.022528844 -0.14236663 0.16581325
0002b0 4f 1a 2b bb 37 16 e1 bc 97 6c bc be 48 f8 25 3e
       -0.002610821 -0.027476413 -0.36801597 0.16207993
0002c0 3e 81 c0 be 85 78 0c 3e 65 87 11 bd c5 f1 0d bd
       -0.37598604 0.1371785 -0.035529513 -0.034654398
0002d0 ae 13 4c 3e 75 d4 c0 3e 7f d8 f7 bd 1d c5 52 bd
       0.19929382 0.37662092 -0.1210184 -0.051457513
0002e0 aa b3 61 3e 09 bc 2b 3e ef 53 f6 3e 8d ff ae 3e
       0.22041193 0.16770948 0.4811091 0.34179345
0002f0 be 3d b8 3e 4c dd 20 be 77 32 d8 3e 33 44 7a be
       0.35984606 -0.15709418 0.42226002 -0.24440078
000300 20 19 c7 bd 30 9e 9a bd 9d 02 5f 3d 23 ed 07 be
       -0.09721589 -0.07549703 0.05444585 -0.13274054
000310 dd 5f 7b 3d 90 1f 00 bd 64 df a5 3d a5 c7 0a 3e
       0.06137072 -0.0312801 0.08099249 0.13552721
000320 92 53 4e 3e cd 1c 2a be 72 8a c9 3d c9 db 70 3c
       0.20149067 -0.16612549 0.098408595 0.014700838
000330 3e 75 03 be 20 02 8c 3d d2 62 01 3d 91 51 41 be
       -0.12837693 0.06836343 0.031588383 -0.18878771
000340 05 1e 53 3d 8a a7 c9 bc 85 98 f3 3c ac 37 2d bc
       0.0515423 -0.024616022 0.029735813 -0.010572355
000350 8d c0 6d 3d 91 59 7d bd 05 a6 c4 3c 70 67 15 3e
       0.05804496 -0.061852995 0.024004946 0.1459024
000360 52 78 f1 bd 9f 36 f1 bd 99 57 a0 3d d3 a1 82 3e
       -0.117905274 -0.11777996 0.07829208 0.25514087
000370 3d 56 4b bc fb 38 ce bd 9c c9 d0 3d 6a 5f 21 3e
       -0.0124106975 -0.10069462 0.10194704 0.15759054
000380 8e d3 92 3c 3b 6c f5 bd 55 ab 64 3d 39 f7 25 3c
       0.017923143 -0.11983534 0.055827457 0.010129743
000390 02 9e 86 bd 90 63 5f be 22 0b be bc 1e ed 58 be
       -0.06573106 -0.21815324 -0.023198668 -0.21184203
0003a0 45 30 11 3e 7f 80 36 be ef da 3b be 17 d4 8a bd
       0.1417857 -0.17822455 -0.18345235 -0.06778734
0003b0 7a 8f 4b 3d a7 6f c8 3d 23 2a 35 3e 9e a8 92 bd
       0.049697377 0.09786921 0.17691855 -0.071610674
0003c0 d9 78 74 be ca 11 7e 3b 80 5e 95 bd 94 52 a9 3d
       -0.23874225 0.0038767927 -0.07293415 0.08267704
0003d0 7c 54 15 3e 66 79 51 be dd a7 aa bd d4 21 4e be
       0.1458301 -0.20456466 -0.08332799 -0.20130092
0003e0 a1 dd b3 bc 84 61 21 3e d4 2f c0 3e 48 b9 8c 3e
       -0.021956267 0.15759856 0.3753649 0.27485108
0003f0 34 d4 c1 bd 01 58 cd bb 83 a5 3d 3c 64 ce 0f be
       -0.09464303 -0.0062665944 0.011575106 -0.14043576

actor.0.bias f4 [32]
000000 10 bf 46 bc 76 6f 55 bc 3a a8 1a 3e 9d 65 95 3c
       -0.012130514 -0.013027063 0.15103236 0.01823693
000010 dc b1 4a bc ba 26 cd 3d 00 54 82 be ec 69 55 be
       -0.012371507 0.10017152 -0.25454712 -0.20841187
000020 1c 8f ab 3d 77 1f 8f 3e ff 93 66 3e 10 93 09 bc
       0.08376905 0.27953693 0.22517394 -0.008396879
000030 64 c7 ed 3d 36 8a 8b 3d c4 ce 20 3b 64 4f 01 bd
       0.11610296 0.06813471 0.0024537304 -0.031569853
000040 8b ac 3d be 97 20 83 bc 8e 53 56 be d1 b4 51 bc
       -0.18522851 -0.016006751 -0.20930311 -0.012799458
000050 a5 9c 68 bd a0 bc 54 bd 52 d4 cd bc cc 9f 8b bc
       -0.056790013 -0.0519377 -0.025125656 -0.01704397
000060 78 ba 5e bb 00 00 00 00 d4 c7 6f be 57 04 19 bc
       -0.0033985656 0.0 -0.23416072 -0.009339414
000070 2e ac 95 bb 8c 9b 52 bb 0e 9a 09 3d 6f 74 9d bc
       -0.0045676446 -0.003213617 0.033594184 -0.019220559

actor.2.weight f4 [2, 32]
000000 8e 4e 35 be 8c a2 7d be 6f ef 8a 3e cf 46 84 3d
       -0.17705747 -0.24769038 0.27135798 0.06458818
000010 79 a7 a2 bc d8 b2 9c 3e 2c 9f 81 bf 7c 23 08 bf
       -0.019855248 0.30605197 -1.01267 -0.53179145
000020 0a b1 cd 3e 73 dc b9 3f b6 a7 3f 3f d6 f6 88 3e
       0.40174133 1.4520401 0.7486528 0.2675082
000030 9b d8 34 3f 73 d9 45 be 3d 43 8b 3b 89 57 13 be
       0.70643014 -0.19321232 0.004249959 -0.14388861
000040 ed 06 c7 bf 4b da a5 bd 9f 85 7a bf 47 fc 1d bd
       -1.5548989 -0.08098277 -0.9786014 -0.03857067
000050 e6 aa ca bb 82 06 f7 3d 9b 9a f8 3c 50 0a 0a be
       -0.0061849235 0.12061788 0.03034716 -0.13480496
000060 28 c1 0e bf 00 2b 6c be b1 ab a8 bf 80 64 06 be
       -0.55763483 -0.23063278 -1.3177396 -0.13124275
000070 b6 05 c2 3d 99 8d 79 3e 33 87 98 3e 98 d7 9b 3b
       0.094737455 0.24370421 0.2979065 0.0047559254
000080 9a 88 26 3e 7c 4d a9 bc 13 f8 9f be 92 2e 8a be
       0.16263047 -0.02066683 -0.31243953 -0.26988655
000090 51 50 80 be 2c 74 dc be c1 38 6b 3f e3 bf f0 3e
       -0.25061277 -0.43057382 0.91883475 0.47021398
0000a0 93 6b 37 bf 09 d8 c1 bf 67 bf 5e bf 90 d3 a0 bd
       -0.7164852 -1.5144054 -0.87010807 -0.07852852
0000b0 4f 33 6e bf b3 4c 0e bf b9 e5 aa be 8b 9d b9 3e
       -0.9304704 -0.55585784 -0.3337839 0.36253008
0000c0 ff 2a ca 3f af a2 0e be 52 50 71 3f 43 d3 55 be
       1.5794371 -0.13929246 0.94263184 -0.20881371
0000d0 1e 37 9f be 9b 65 17 3e 78 51 61 bd d0 2a 2c bd
       -0.3109674 0.14784853 -0.055009335 -0.042033017
0000e0 7b 1e 00 3e 6f af 58 3d 45 4b 96 3f fe 22 8e 3d
       0.12511627 0.05290168 1.174172 0.06940268
0000f0 5a d6 19 be af e1 58 bd 80 0a 3d 3e 2d 66 36 be
       -0.15023175 -0.052949604 0.18461037 -0.17812414

actor.2.bias f4 [2]
000000 e2 bc 75 3e cf bc 75 be
       0.23997834 -0.23997806

critic.0.weight f4 [32, 64]
000000 b0 8c 3b 3e 61 7a 56 be 1d e9 d1 bd 0d fa bf 3c
       0.18315387 -0.20945121 -0.10249541 0.023434663
000010 b3 b8 55 bd a4 93 22 bd 80 0c 33 be 39 d2 a2 bc
       -0.052178096 -0.039691582 -0.17485237 -0.019875633
000020 75 81 41 3d 47 25 59 3e d7 d6 64 3d ba e8 dc 3d
       0.0472426 0.21205626 0.05586895 0.107865766
000030 27 7f af bc 95 a1 43 bc 33 cd 5a 3d 97 94 95 3d
       -0.021422936 -0.01194038 0.05341835 0.07303732
000040 78 f6 32 bb de 4b ca bd 17 3e f4 bc 8d eb 9f bd
       -0.0027307551 -0.09877752 -0.029814763 -0.078085996
000050 10 cf 7c be ea e5 39 3d 4a 3b 0f 3e 0b 96 b0 3d
       -0.24688363 0.04538528 0.1398746 0.086223684
000060 24 51 04 3c 22 77 b0 bd 3e f3 a1 bd 63 05 cb bd
       0.008075986 -0.08616473 -0.07907723 -0.09913137
000070 55 e7 df 3d 7d e0 76 bd 4a e0 99 bd 8c 02 2c bd
       0.10932795 -0.060272682 -0.07513483 -0.041994616
000080 a1 61 88 bc 29 23 2b 3d 97 44 1f bc 33 3d 25 3e
       -0.016648116 0.04178158 -0.009720943 0.16136627
000090 49 b6 c0 be be 39 94 be a8 c2 c2 bc 33 02 95 bd
       -0.37639073 -0.28950304 -0.02377446 -0.0727581
0000a0 6c 89 19 3e b3 6f 3d bc 3c 30 8e bd 4a 5c 76 3e
       0.14993829 -0.011562276 -0.06942794 0.24058643
0000b0 83 61 1f 3e 01 76 07 3d 88 89 61 3e a5 3c c2 bd
       0.15564542 0.03307152 0.2202512 -0.09484223
0000c0 4a bb 1e 3e b7 38 1f be 1b 44 c3 bd 04 7a 32 bd
       0.15501133 -0.15548979 -0.095344745 -0.043573394
0000d0 2c a0 51 bd 7e c6 5e be 43 c2 a1 3d fe 31 90 be
       -0.051178142 -0.21755406 0.078983806 -0.2816314
0000e0 a0 1e e5 3c 29 eb b5 bc 2e d4 8e bd 49 44 c0 bc
       0.027968705 -0.02220686 -0.06974064 -0.02347006
0000f0 09 ac cd 3d be 6d fc bd 94 4b a9 3d 01 1b 8b bc
       0.10042579 -0.12325619 0.082663685 -0.01698065
000100 2f c3 67 3e 8a 40 83 3e aa f8 57 3e b6 cc 70 be
       0.2263305 0.25635177 0.21090952 -0.23515591
000110 65 67 7b 3f 31 91 86 3e 7d 18 d9 3c a3 ce 90 bd
       0.9820464 0.26282647 0.026500935 -0.07070663
000120 f1 38 17 bf d3 fe 68 3e 0e 79 bc be 73 07 6a be
       -0.5907126 0.22753458 -0.36811107 -0.22854404
000130 9b ea 3a be 94 54 8a 3c 86 49 95 3d e2 bc 10 3e
       -0.18253557 0.016886033 0.07289414 0.14134553
000140 5e 48 7f 3e c8 6a 3e bd e4 d1 71 3e 08 87 1e 3f
       0.2492995 -0.046488553 0.23615223 0.6192479
000150 53 c1 dd 3e 52 fa 07 3f 51 e8 11 3f a9 13 2e be
       0.43311557 0.53116333 0.5699511 -0.16999687
000160 9d b6 3a be 16 fb 33 3d 92 4f 4c 3e 95 40 c3 be
       -0.18233724 0.043940626 0.19952229 -0.3813521
000170 aa 43 3c 3f 2c 7a 2c bf b8 b4 3c 3e b0 55 a0 bd
       0.7354075 -0.6737392 0.18428314 -0.078288436
000180 17 c3 fc bc a5 f6 09 3d 6b 0c c1 be 34 c1 5a 3c
       -0.030854745 0.033682484 -0.37704787 0.013351727
000190 20 f9 0c be 11 e8 ba 3e cc e7 b2 bb 18 07 b1 bc
       -0.13766909 0.36505178 -0.0054597612 -0.021609828
0001a0 b0 c0 80 bd 5a 9e 6f 3e 6a 91 c9 3d 25 46 2b be
       -0.06286752 0.2340025 0.09842189 -0.16725977
0001b0 3e 8f c8 3c f7 ba 4c 3e 26 e4 eb 3e df 71 96 bd
       0.024482366 0.19993196 0.460725 -0.07345938
0001c0 de b2 85 3e c5 47 79 be a7 68 55 be 7f 3f 43 3d
       0.26113027 -0.24343784 -0.20840703 0.047667976
0001d0 21 d8 46 3e b8 dd 0b 3f 92 16 96 bd f6 b6 68 bd
       0.19418384 0.5463519 -0.07328524 -0.05681511
0001e0 3b 2e 00 3d f0 bb 46 be 3e c2 0a be 74 2f d4 3d
       0.03129409 -0.1940763 -0.1355066 0.103606135
0001f0 cf b3 a9 bd dd ba fa 3c 7d 50 15 3f 24 b7 43 3f
       -0.08286249 0.030606681 0.5832594 0.76451325
000200 9a 47 02 be 4c 7a c8 3d 60 21 22 be 35 1a 10 be
       -0.12722626 0.09788951 -0.15833044 -0.14072497
000210 90 cc 66 3f 32 f4 6b 3c 25 dc 16 3d 09 12 26 3e
       0.9015589 0.014401482 0.03683104 0.16217817
000220 43 ce f8 be b8 d6 fd 3d 43 11 cd be 7b de 08 bf
       -0.48594865 0.1239447 -0.40052232 -0.5346448
000230 58 80 e7 bd 2a 00 eb bd 17 17 b3 bc 97 61 99 bd
       -0.113037765 -0.11474641 -0.021861596 -0.07489317
000240 8a 81 96 3e 7e 91 ea bd 0d 52 fe 3c 4b 07 09 3f
       0.29395705 -0.11453532 0.031044984 0.53526753
000250 5b 5c 33 3f 65 4d 00 3f 44 32 32 3f 5c 00 57 be
       0.700628 0.50118095 0.6960795 -0.20996231
000260 8c 03 b7 3c 2c a9 ec bb 07 29 1b 3e 03 19 32 bd
       0.022340558 -0.0072223153 0.1515237 -0.043480884
000270 d8 5e 5e 3f 84 5d d6 be 84 21 2d be 54 23 64 be
       0.8686347 -0.41868222 -0.16907316 -0.22279102
000280 b4 20 d0 ba b5 27 d8 3d 85 8f 0f be 24 cd 2c be
       -0.0015878887 0.105544485 -0.14019592 -0.1687513
000290 70 87 a8 38 b2 94 9f 3e b8 bc 2d 3d ce 18 3f 3e
       8.0360915e-05 0.31168133 0.042416304 0.18661806
0002a0 2e ca 0f 3e c3 bc 01 3f b3 28 82 3d 74 5c 42 bd
       0.14041969 0.5067865 0.06355419 -0.04745145
0002b0 a4 e2 a5 3e f9 08 ee bd 0c 53 5a 3e 1b 0f 9a bd
       0.32399476 -0.11622805 0.21320742 -0.075224124
0002c0 5a 13 a9 3e a3 ed 8a be 1d 53 d6 3d a9 83 12 bd
       0.33022577 -0.27134427 0.10465071 -0.035770092
0002d0 47 4e 0a 3f fe e7 0a 3f 06 f0 43 be a3 44 95 3d
       0.5402569 0.5426024 -0.1913453 0.07288482
0002e0 3a 28 6c 3e 7c 32 30 3e e3 c7 b3 bd ba 46 2b be
       0.2306222 0.17206758 -0.0877836 -0.16726199
0002f0 ce 67 6a be 1e 61 67 be c3 35 82 3f b4 d0 eb 3e
       -0.22891161 -0.22595641 1.0172657 0.46057665
000300 10 3d 28 3d 8f 44 09 3c 66 d4 06 3c d8 b9 ec be
       0.04107386 0.008378162 0.008229351 -0.46235538
000310 4b d9 b1 3f 2b 4a f5 3e 71 8e 72 3d eb 46 62 bd
       1.3894438 0.47908148 0.059217874 -0.055243414
000320 37 61 84 bf 72 fd 0f 3c 94 82 00 bf 1c 6e 5f be
       -1.0342168 0.008788453 -0.50199246 -0.21819347
000330 bf 9f 12 bd e3 da 53 bd 19 e5 c4 bd c1 31 17 3c
       -0.035796877 -0.05172242 -0.096140094 0.009228171
000340 3e 9e 61 3e 17 e6 59 3c 8d 91 b5 3d c2 52 47 3f
       0.22033021 0.013299487 0.08865652 0.77860653
000350 c7 29 6c 3f c3 cd 2d 3f 69 ac 0c 3f a9 61 15 bc
       0.9225125 0.6789209 0.5495058 -0.009117522
000360 0f de 3a bc d3 5c 7f be ff 14 7f 3d 99 b7 e4 be
       -0.011405482 -0.24937753 0.062275883 -0.44671324
000370 8a 1d 4c 3f 6d 5c 55 bf 1d 96 bd 3d e1 95 c6 bd
       0.79732573 -0.83344156 0.092571475 -0.09696556
000380 35 c1 04 be ee 2e 1f 3b 5a a4 43 be b2 46 98 bd
       -0.12964328 0.0024289447 -0.19105664 -0.07435359
000390 f9 53 19 3d 25 67 37 3e 48 64 c3 be 36 75 05 be
       0.0374336 0.1791044 -0.38162446 -0.13032994
0003a0 4e ee 44 bd 9b 26 4e 3f f8 ff 01 be 46 3d c3 3e
       -0.048078828 0.8052766 -0.126953 0.38132685
0003b0 0a 49 f6 3c 81 d9 6c 3d 1c 1e 81 3e 7a f5 72 bd
       0.030064125 0.057824615 0.25218284 -0.059316136
0003c0 78 d9 ce 3e d0 36 4c 3d 29 50 ab 3d 0d b5 14 bd
       0.4040029 0.04985696 0.08364899 -0.036305476
0003d0 89 bb 0a 3e b7 82 90 3e d0 2d 7e bc bb e8 07 3e
       0.13548101 0.28224728 -0.015513852 0.13272373
0003e0 54 6c 90 bc 81 2f 84 3e 4e 25 71 bc 62 ed 0e 3d
       -0.01762978 0.25817493 -0.014718367 0.034894355
0003f0 fa 50 bf be db 15 90 3e 7a 1a 51 3f 82 f4 3e 3f
       -0.37366468 0.28141674 0.81681025 0.7459184

critic.0.bias f4 [32]
000000 58 9b 9c bc ff 2b f3 3d 2d 3e ee 3d c8 08 58 3e
       -0.019117042 0.11873626 0.11632953 0.210971
000010 8a a2 17 3f 59 72 16 3f 80 5b bb 3c a5 4d 26 3f
       0.5923239 0.5876823 0.022870779 0.64962226
000020 00 00 00 00 6c 55 bf 3d 06 b2 2e 3f ca 9d 19 3f
       0.0 0.09342465 0.6824039 0.6000639
000030 2c 4a 19 3f db 61 4c bc 29 5d 1e 3f ee e0 60 bc
       0.598788 -0.012474502 0.618609 -0.013725502
000040 9d 0b 1c 3f af 82 2d 3e 12 f9 26 bd ff 66 10 3f
       0.6095522 0.16944383 -0.040764876 0.5640716
000050 96 a7 1d 3f 90 4a 1d 3f 66 f5 17 3f 70 df 14 3f
       0.6158384 0.614419 0.59358823 0.5815344
000060 fe 2a 18 3f 6f a6 23 3f 67 48 19 3f 2b 2f 9e be
       0.594406 0.6392583 0.598761 -0.3089536
000070 83 25 16 3f 5a 29 36 3e f3 bd 19 3f da 8b 27 3f
       0.5865099 0.17789212 0.60055465 0.6544777

critic.2.weight f4 [1, 32]
000000 a5 6b 45 bb 43 b9 4a 3f 6b 72 45 3f 55 5b a7 3f
       -0.0030123976 0.79188937 0.7712771 1.3074747
000010 c8 01 fb be e0 fa ac be 0c ee 63 3d 47 78 a3 be
       -0.49024796 -0.33785152 0.05564694 -0.31927702
000020 1e fc 4e 3e 73 2f 02 3f 59 1e 8e be b9 6e c6 be
       0.20213363 0.5085365 -0.27757528 -0.3875635
000030 b6 9e 08 bf c9 78 88 3c ca 46 c0 be 4f ba f8 3c
       -0.53367174 0.016659157 -0.37554008 0.030362276
000040 92 ec b9 be 2e 2b 6b 3f 8b f7 04 3c ff 53 ea be
       -0.363133 0.9186276 0.0081156595 -0.4576721
000050 8c 93 15 bf 23 70 16 bf d7 2a 12 bf 82 1e f1 be
       -0.58428264 -0.5876486 -0.5709662 -0.47093588
000060 a7 f3 d0 be 8e 36 be be 97 bb d1 be 38 b2 71 3f
       -0.40810892 -0.37150997 -0.40963432 0.94412565
000070 e8 c3 ed be 5b 8d 83 3f 4d 84 d7 be 32 ff 01 bf
       -0.46438527 1.0277513 -0.42093125 -0.5078002

exp_avg f4 [64, 12]
000000 b5 ab 7a ba d2 25 b0 b8 43 71 3b ba 3c d2 83 b9
       -0.00095623295 -8.3993786e-05 -0.0007150361 -0.00025142904
000010 29 68 03 ba eb 08 be ba 90 bc 6f 37 d2 25 b0 b8
       -0.00050127745 -0.0014498507 1.4289413e-05 -8.3993786e-05
000020 04 00 00 80 f1 a5 04 38 56 33 1d b7 b5 13 7b ba
       -6e-45 3.1625797e-05 -9.369882e-06 -0.0009577827
000030 4c 89 b7 3a ab 9d 84 b9 8a 5c 88 ba f3 2f 62 b9
       0.001400271 -0.00025294474 -0.0010403555 -0.00021570902
000040 a5 d3 b7 b8 cf 02 ff b8 38 7d 80 b9 ab 9d 84 b9
       -8.765542e-05 -0.00012159871 -0.00024507358 -0.00025294474
000050 21 4d de ba 07 df f5 ba 34 5b 3a bb c8 d3 5d 3a
       -0.0016960242 -0.0018758484 -0.002843571 0.0008462039
000060 a4 b1 25 bc 5f 77 54 ba d1 47 d4 bb 69 5f 41 bb
       -0.010113154 -0.0008104946 -0.0064782877 -0.0029506332
000070 f4 55 88 bb c4 cf 8a bc 97 69 55 b9 5f 77 54 ba
       -0.004160637 -0.016944773 -0.00020352598 -0.0008104946
000080 6f 53 08 bc 4f 2f c5 bb e2 ff 0a bc 4f a4 44 bc
       -0.008320673 -0.0060176025 -0.008483859 -0.012002065
000090 ad 6a 59 3c a2 8f ef 38 04 e6 a6 3b cc 32 31 3a
       0.013270062 0.00011423162 0.005093338 0.00067595835
0000a0 99 7c e8 3a ca 84 38 3c f1 aa e9 39 a2 8f ef 38
       0.0017737328 0.011262128 0.00044568584 0.00011423162
0000b0 3a bc 97 3c d2 b0 4c 3c 87 2f 82 3c 2a 56 72 3c
       0.01852237 0.012493329 0.015891803 0.014791051
0000c0 04 00 00 00 04 00 00 00 04 00 00 00 04 00 00 00
       6e-45 6e-45 6e-45 6e-45
0000d0 04 00 00 00 04 00 00 00 04 00 00 00 04 00 00 00
       6e-45 6e-45 6e-45 6e-45
0000e0 04 00 00 00 04 00 00 00 04 00 00 00 04 00 00 00
       6e-45 6e-45 6e-45 6e-45
0000f0 04 00 00 00 04 00 00 00 04 00 00 00 04 00 00 00
       6e-45 6e-45 6e-45 6e-45
000100 04 00 00 00 04 00 00 00 04 00 00 00 04 00 00 00
       6e-45 6e-45 6e-45 6e-45
000110 04 00 00 00 04 00 00 00 04 00 00 00 04 00 00 00
       6e-45 6e-45 6e-45 6e-45
000120 0e 97 69 bb cb 77 bb 39 a5 ed 9f 3a 48 71 80 b8
       -0.0035643014 0.00035756672 0.0012201561 -6.124616e-05
000130 7a a6 96 b9 68 db 21 bb 93 f7 2a 39 cb 77 bb 39
       -0.00028734264 -0.0024697427 0.00016304692 0.00035756672
000140 83 4b 0d bb 29 19 3c ba e5 f8 e2 ba 94 61 56 bb
       -0.00215599 -0.000717538 -0.0017316608 -0.003271197
000150 04 00 00 00 04 00 00 00 04 00 00 00 04 00 00 00
       6e-45 6e-45 6e-45 6e-45
000160 04 00 00 00 04 00 00 00 04 00 00 00 04 00 00 00
       6e-45 6e-45 6e-45 6e-45
000170 04 00 00 00 04 00 00 00 04 00 00 00 04 00 00 00
       6e-45 6e-45 6e-45 6e-45
000180 8e a6 ee 3a dc 1e 51 39 e4 53 e4 b9 01 b4 8b 39
       0.0018207596 0.00019943289 -0.00043550052 0.0002664626
000190 27 1b 23 ba 68 65 33 3a 7c 66 08 3a dc 1e 51 39
       -0.00062220026 0.0006843419 0.00052032596 0.00019943289
0001a0 02 37 ef 3b 0a 9f df 3b 4c 81 f1 3b e6 f3 eb 3a
       0.0073002586 0.006824379 0.0073701497 0.0018001765
0001b0 b8 7c ce b9 c5 5c 46 b9 d2 e0 f8 38 97 24 b6 b9
       -0.00039384305 -0.00018917311 0.000118674376 -0.00034741007
0001c0 2c ba 8f b9 9c 75 13 bb c7 9a 0a b8 c5 5c 46 b9
       -0.00027413794 -0.002250052 -3.304591e-05 -0.00018917311
0001d0 e0 37 04 38 ca 52 ae 39 d4 fa 83 ba 70 07 1c ba
       3.152329e-05 0.0003324955 -0.001006926 -0.0005952036
0001e0 6a ce e2 ba d0 e6 ba b8 47 b1 56 ba 72 32 ba b9
       -0.0017303948 -8.912163e-05 -0.00081898685 -0.0003551427
0001f0 9c 49 07 ba 86 96 1b bb 2e 09 f9 b7 d0 e6 ba b8
       -0.000516081 -0.0023740842 -2.9687388e-05 -8.912163e-05
000200 11 3f e7 ba 6b ce 99 ba 36 2f ac ba b1 c8 e3 ba
       -0.0017642697 -0.0011734491 -0.0013136629 -0.0017378536
000210 f5 22 88 b9 b1 bd 67 38 69 08 12 3a 9a 38 1a b9
       -0.00025965986 5.5251356e-05 0.0005570711 -0.0001470767
000220 1b 54 a5 b8 ea 49 c8 ba 88 1a 6c 37 b1 bd 67 38
       -7.883479e-05 -0.0015280817 1.40728735e-05 5.5251356e-05
000230 e6 82 90 ba 87 bc b1 b9 50 02 fd ba be 71 8e b9
       -0.0011025339 -0.00033900535 -0.0019303057 -0.00027169095
000240 c0 8e 6d 3b 6d c3 07 38 4b 43 11 3b 99 43 83 39
       0.0036248416 3.2368513e-05 0.0022165354 0.0002503663
000250 a9 28 81 3a 4d f6 22 3b c8 02 84 b6 6d c3 07 38
       0.0009854037 0.0024866045 -3.9342303e-06 3.2368513e-05
000260 fd e8 cd 3a ef 60 c3 3a 10 db c2 b9 1d cf 67 3b
       0.0015709695 0.0014906208 -0.00037165778 0.0035371252
000270 1f 5d 95 3a e4 4c 3d b8 53 52 12 b9 a3 e0 2c 38
       0.001139555 -4.513272e-05 -0.00013954313 4.1217205e-05
000280 b7 27 62 39 50 09 4a 3a 6f 5c e0 b7 e4 4c 3d b8
       0.00021567834 0.0007707076 -2.6745924e-05 -4.513272e-05
000290 20 7c 9c 37 cd 57 a8 b7 a0 dc b4 38 fd 77 95 3a
       1.865445e-05 -2.0068046e-05 8.6241635e-05 0.0011403557
0002a0 0b fb 60 ba 87 b4 23 39 ca 16 31 ba 7c 12 40 39
       -0.000858233 0.00015612143 -0.000675541 0.00018317433
0002b0 85 d9 26 38 77 25 31 ba 99 32 be 38 87 b4 23 39
       3.9780065e-05 -0.0006757597 9.0693306e-05 0.00015612143
0002c0 35 76 2a bb 2f d4 ab ba 9a 0b 4f bb c4 c5 6a ba
       -0.0026010398 -0.00131095 -0.0031592608 -0.0008955861
0002d0 04 00 00 00 04 00 00 00 04 00 00 00 04 00 00 00
       6e-45 6e-45 6e-45 6e-45
0002e0 04 00 00 00 04 00 00 00 04 00 00 00 04 00 00 00
       6e-45 6e-45 6e-45 6e-45
0002f0 04 00 00 00 04 00 00 00 04 00 00 00 04 00 00 00
       6e-45 6e-45 6e-45 6e-45
000300 ca 9f 6b ba c1 a3 90 b8 33 16 90 ba f0 51 1e b9
       -0.0008988349 -6.8969566e-05 -0.0010992944 -0.00015098578
000310 25 b7 8f b9 2f 32 95 ba 51 fb 02 b9 c1 a3 90 b8
       -0.0002741154 -0.0011382754 -0.00012491389 -6.8969566e-05
000320 aa cb ae ba 38 4f c2 ba 6f 99 86 ba 73 76 cd ba
       -0.0013335843 -0.0014824634 -0.0010269115 -0.0015675559
000330 00 00 00 00 00 00 00 00 00 00 00 00 00 00 00 00
       0.0 0.0 0.0 0.0
000340 00 00 00 00 00 00 00 00 00 00 00 00 00 00 00 00
       0.0 0.0 0.0 0.0
000350 00 00 00 00 00 00 00 00 00 00 00 00 00 00 00 00
       0.0 0.0 0.0 0.0
000360 c7 a2 4d 39 6f 5f c4 39 b9 9d 92 3b 37 f8 6e 39
       0.00019610963 0.00037455137 0.0044743684 0.00022789916
000370 ad 77 55 3a 3e 3e 08 3a 98 1a 46 39 6f 5f c4 39
       0.0008143138 0.0005197263 0.00018892658 0.00037455137
000380 4f c4 a7 3a 3c d1 ff 3a 04 00 00 00 c7 a2 4d 39
       0.0012799593 0.0019517313 6e-45 0.00019610963
000390 a0 81 6a bb 2f b7 6b 37 04 00 00 00 ad 39 e4 b9
       -0.003578283 1.4049742e-05 6e-45 -0.0004353052
0003a0 49 6c 6d ba a2 98 85 bb d0 d4 b3 38 2f b7 6b 37
       -0.0009056968 -0.004077033 8.5750245e-05 1.4049742e-05
0003b0 b1 16 5b b9 03 2b ae ba 82 2b 42 b9 7f 91 50 bb
       -0.00020893921 -0.0013287965 -0.0001851749 -0.0031825004
0003c0 77 69 74 b9 2e ce 8e 39 72 d0 f2 3a 77 b1 e2 38
       -0.00023308942 0.00027237966 0.0018525256 0.00010809575
0003d0 0c 1d 01 b9 10 a6 31 ba f1 b4 68 39 2e ce 8e 39
       -0.0001231322 -0.00067767594 0.0002219265 0.00027237966
0003e0 61 4a b3 b9 56 c2 05 3a 4e df b4 b9 8f 22 27 3a
       -0.00034196957 0.00051025057 -0.0003449865 0.0006375694
0003f0 85 36 06 3d 95 c4 11 3b d9 97 46 bb a3 27 16 3c
       0.032766838 0.0022242416 -0.003030291 0.009164724

exp_avg_sq f4 [64, 12]
000000 38 ea d9 37 e1 e9 81 34 31 6c ac 37 5a bc f0 35
       2.5977482e-05 2.4198292e-07 2.0554378e-05 1.7936211e-06
000010 13 7b 96 36 f0 9b 03 38 a9 ad 16 32 e1 e9 81 34
       4.484676e-06 3.1378062e-05 8.770635e-09 2.4198292e-07
000020 f4 01 00 00 ff 4f f2 34 ba 61 c0 32 fb e3 d9 37
       7e-43 4.5134217e-07 2.2396183e-08 2.5974578e-05
000030 b1 72 34 38 f5 96 8f 35 c3 2a c4 38 61 37 71 36
       4.302216e-05 1.0698265e-06 9.353973e-05 3.5944033e-06
000040 da e5 37 37 64 8d 87 38 75 e8 d7 34 f5 96 8f 35
       1.09611665e-05 6.463638e-05 4.0216005e-07 1.0698265e-06
000050 d6 07 ae 38 47 59 95 38 d5 9b 90 38 b7 57 49 38
       8.298426e-05 7.121503e-05 6.895481e-05 4.8003825e-05
000060 d9 18 5f 3a 79 78 c7 37 19 bb 35 3a 3e c3 a9 38
       0.00085104775 2.3778748e-05 0.0006932482 8.094915e-05
000070 3b 80 0d 39 8b e7 bb 3a 68 8d ef 36 79 78 c7 37
       0.00013494577 0.0014335973 7.139217e-06 2.3778748e-05
000080 d7 ca 1d 3a 6b 6a f7 39 c5 2d 0f 3a 90 25 79 3a
       0.00060193 0.000471908 0.0005461837 0.00095041934
000090 47 28 a3 3a ca 99 92 38 76 f5 85 3a e1 ba 74 39
       0.0012447917 6.990468e-05 0.0010220248 0.00023339271
0000a0 1f ff ae 39 ef 1c 24 3b 37 36 a6 37 ca 99 92 38
       0.00033377946 0.002504166 1.9813988e-05 6.990468e-05
0000b0 ee 10 a4 3a 00 49 69 3a 5d fb 91 3a de c1 be 3a
       0.0012517252 0.00088991225 0.0011137534 0.0014553627
0000c0 f4 01 00 00 f4 01 00 00 f4 01 00 00 f4 01 00 00
       7e-43 7e-43 7e-43 7e-43
0000d0 f4 01 00 00 f4 01 00 00 f4 01 00 00 f4 01 00 00
       7e-43 7e-43 7e-43 7e-43
0000e0 f4 01 00 00 f4 01 00 00 f4 01 00 00 f4 01 00 00
       7e-43 7e-43 7e-43 7e-43
0000f0 f4 01 00 00 f4 01 00 00 f4 01 00 00 f4 01 00 00
       7e-43 7e-43 7e-43 7e-43
000100 f4 01 00 00 f4 01 00 00 f4 01 00 00 f4 01 00 00
       7e-43 7e-43 7e-43 7e-43
000110 f4 01 00 00 f4 01 00 00 f4 01 00 00 f4 01 00 00
       7e-43 7e-43 7e-43 7e-43
000120 2e 1b 21 39 e6 c3 d0 36 41 ed e5 38 97 66 b0 37
       0.00015364282 6.2216886e-06 0.00010963763 2.1028607e-05
000130 22 a7 11 38 9b c6 60 39 df 5f c2 35 e6 c3 d0 36
       3.472635e-05 0.00021436291 1.4482029e-06 6.2216886e-06
000140 88 98 c8 38 a2 13 8e 38 a6 df 8f 38 19 fe 28 39
       9.565154e-05 6.7747445e-05 6.860429e-05 0.00016116387
000150 f4 01 00 00 f4 01 00 00 f4 01 00 00 f4 01 00 00
       7e-43 7e-43 7e-43 7e-43
000160 f4 01 00 00 f4 01 00 00 f4 01 00 00 f4 01 00 00
       7e-43 7e-43 7e-43 7e-43
000170 f4 01 00 00 f4 01 00 00 f4 01 00 00 f4 01 00 00
       7e-43 7e-43 7e-43 7e-43
000180 e6 56 4c 39 0e 11 c0 37 a2 38 bb 3a d6 ba ad 38
       0.00019487328 2.2896125e-05 0.0014283846 8.284084e-05
000190 e6 ab 5c 39 8e 2b bf 3a bf 2f 03 37 0e 11 c0 37
       0.00021044872 0.0014585124 7.819325e-06 2.2896125e-05
0001a0 a8 a4 9e 3a 26 61 83 3a 43 cd a1 3a 50 09 99 39
       0.0012103515 0.0010023459 0.0012344498 0.00029189372
0001b0 9d 4f ba 39 6d 71 85 36 f0 71 02 3a 69 ea 65 37
       0.00035536 3.9769134e-06 0.00049760845 1.37040415e-05
0001c0 89 87 4e 38 9b 37 a7 39 76 7a 95 35 6d 71 85 36
       4.9240454e-05 0.00031894151 1.1137006e-06 3.9769134e-06
0001d0 7b 81 77 39 4f d0 52 39 2a 36 4f 39 65 b7 c3 39
       0.00023603991 0.00020104762 0.00019761236 0.00037329938
0001e0 0e 29 81 38 87 c1 02 36 bc 04 80 38 f8 16 e1 36
       6.1588464e-05 1.9484157e-06 6.1043975e-05 6.7081965e-06
0001f0 1d 2b 45 37 f3 dc b6 38 50 d4 25 35 87 c1 02 36
       1.1752153e-05 8.719591e-05 6.1776245e-07 1.9484157e-06
000200 88 61 84 38 f1 94 38 38 0a e9 31 38 95 82 88 38
       6.312417e-05 4.400773e-05 4.2417123e-05 6.509308e-05
000210 f5 19 f9 38 36 e7 12 36 1e b7 22 39 5a 8b da 36
       0.0001187808 2.1890278e-06 0.0001551774 6.513129e-06
000220 18 bb 9e 37 f2 50 d5 38 50 3b 48 35 36 e7 12 36
       1.892219e-05 0.00010171709 7.4592117e-07 2.1890278e-06
000230 57 5d cf 38 04 fc b1 38 9c 10 85 38 b5 d9 00 39
       9.887915e-05 8.486959e-05 6.345028e-05 0.00012288133
000240 73 58 12 39 3d 09 9f 35 8f 4a 4b 39 14 51 9b 36
       0.00013956595 1.1849112e-06 0.00019387364 4.6287987e-06
000250 13 96 99 37 a0 21 ce 38 1b 18 cd 34 3d 09 9f 35
       1.8308905e-05 9.8291086e-05 3.8201765e-07 1.1849112e-06
000260 b4 c6 c1 38 1d 52 b8 38 59 a0 81 38 5a a3 17 39
       9.2399685e-05 8.7890985e-05 6.1810664e-05 0.00014461335
000270 3e 85 cd 37 f0 a6 a3 34 fa 2c 4b 38 1d 92 cb 35
       2.449995e-05 3.048258e-07 4.844086e-05 1.5167203e-06
000280 98 fd d2 36 72 89 ee 37 2f 4b 01 34 f0 a6 a3 34
       6.28801e-06 2.8435814e-05 1.2041413e-07 3.048258e-07
000290 7a c3 09 38 b8 4f 04 38 34 b0 06 38 28 05 f0 37
       3.2845397e-05 3.1545496e-05 3.211219e-05 2.861263e-05
0002a0 10 0e 31 39 2a b0 d1 36 d5 d2 5c 39 c5 2e a5 37
       0.00016885274 6.2491936e-06 0.00021059376 1.9691312e-05
0002b0 f5 9e 13 38 9c eb 54 39 b7 0b d3 35 2a b0 d1 36
       3.519557e-05 0.00020305667 1.5724135e-06 6.2491936e-06
0002c0 b0 ed 1f 39 d1 97 05 39 08 93 ef 38 a7 94 38 39
       0.00015251967 0.00012740424 0.00011423795 0.00017602985
0002d0 57 76 e1 20 f9 67 e3 1f 1e 9d a0 22 c8 e8 53 20
       3.8194793e-19 9.631025e-20 4.353444e-18 1.7949416e-19
0002e0 5a c9 86 20 8c c3 5e 22 ac 0f 87 1e f9 67 e3 1f
       2.2833726e-19 3.0190132e-18 1.4300163e-20 9.631025e-20
0002f0 38 c5 a4 22 7c 72 8c 21 4f 73 a2 22 1c 2e d4 20
       4.4661103e-18 9.517073e-19 4.4032276e-18 3.594471e-19
000300 cc 1c 25 38 1c bd 84 35 f9 03 4e 38 d5 87 6c 36
       3.9365885e-05 9.889804e-07 4.9117927e-05 3.5245805e-06
000310 2c 6a 07 37 e9 ba 63 38 d8 f1 c7 34 1c bd 84 35
       8.071347e-06 5.429509e-05 3.7242603e-07 9.889804e-07
000320 8d ff 31 38 74 5a ee 37 6a ce 06 38 f5 2e 3a 38
       4.243809e-05 2.8413931e-05 3.2140328e-05 4.4389588e-05
000330 00 00 00 00 00 00 00 00 00 00 00 00 00 00 00 00
       0.0 0.0 0.0 0.0
000340 00 00 00 00 00 00 00 00 00 00 00 00 00 00 00 00
       0.0 0.0 0.0 0.0
000350 00 00 00 00 00 00 00 00 00 00 00 00 00 00 00 00
       0.0 0.0 0.0 0.0
000360 f0 aa f0 39 6d 5b 8c 36 66 a3 0b 3a 55 96 81 37
       0.00045903726 4.1829685e-06 0.00053267775 1.5448002e-05
000370 9c 55 75 38 6d 54 93 39 f7 8c 33 35 6d 5b 8c 36
       5.8492282e-05 0.00028100927 6.688783e-07 4.1829685e-06
000380 c1 7f a8 38 3f ac 9b 38 e0 ba 4b 32 4d ab f0 39
       8.03466e-05 7.423059e-05 1.1858646e-08 0.00045903996
000390 b7 ae 44 39 94 fc b7 36 45 96 d3 2f 6a f7 fd 37
       0.00018757103 5.483229e-06 3.848745e-10 3.0275161e-05
0003a0 f6 03 59 38 d5 e4 c4 39 76 a6 03 36 94 fc b7 36
       5.174052e-05 0.00037554526 1.9617414e-06 5.483229e-06
0003b0 98 4c 8a 39 d6 ee 67 39 87 22 70 39 68 19 6d 39
       0.00026378478 0.0002211885 0.00022901046 0.00022611546
0003c0 e9 50 bb 37 a8 ab a2 36 1e f6 45 39 9b ca 8a 37
       2.2329814e-05 4.8479596e-06 0.0001887907 1.6545227e-05
0003d0 f4 8d f2 37 fc 11 8d 39 e3 33 26 36 a8 ab a2 36
       2.891475e-05 0.00026907015 2.476613e-06 4.8479596e-06
0003e0 93 ba 8b 39 45 84 8a 39 fd 05 8c 39 00 e1 16 38
       0.00026651155 0.0002641996 0.00026707342 3.5972334e-05
0003f0 cf 70 d0 3b 0b 74 7a 38 6e ec a3 3b 62 55 c0 39
       0.006361104 5.971272e-05 0.00500255 0.0003668471
