models/checkpoint_310000.pt (torch, 125871 bytes, 33 tensors)

shared.0.weight f4 [64, 12]
0	0xbe618e96	-0.22027048
1	0x3daca973	0.084307574
2	0x3e41c396	0.18922266
3	0x3f2b1354	0.6682637
4	0xbe246611	-0.1605456
5	0xbe481fe1	-0.19543411
6	0xbdaa279c	-0.08308336
7	0xbdc40b71	-0.09572495
8	0x3c5bfb8d	0.013426674
9	0x3e13ce99	0.1443428
10	0xbca1b967	-0.019741727
11	0x3d88b91b	0.06675931
12	0xbcefca43	-0.02927125
13	0x3d56f5dd	0.052480567
14	0xbde38c5a	-0.11110754
15	0x3ef4f43b	0.47842583
16	0xbcbac5d6	-0.022799414
17	0xbe3e1209	-0.18561567
18	0x3e9f60ac	0.31128442
19	0x3e8f5142	0.27991682
20	0x3cf9e3ee	0.030504193
21	0xb9963a3c	-0.00028653617
22	0xbc987228	-0.018609121
23	0x3d56adfa	0.05241201
24	0x3d8d346f	0.068947665
25	0xbec495a2	-0.3839541
26	0xbda5f4e1	-0.081033476
27	0xbe6a3dff	-0.22875212
28	0xbebd379a	-0.36956483
29	0xbd9b6b77	-0.07588857
30	0xbdf10e9c	-0.11770365
31	0xbeaf5c58	-0.3425014
32	0xbea3d830	-0.32000875
33	0xbc82cf8e	-0.01596811
34	0x3e5b5a6a	0.21421209
35	0x3d23f3e5	0.040027518
36	0xbe892f06	-0.2679369
37	0xbeae4512	-0.3403707
38	0xbe0145b5	-0.12624247
39	0xbbae1a01	-0.0053131585
40	0x3b8f6fd5	0.004377345
41	0x3e4ee530	0.20204616
42	0x3ea478e0	0.3212347
43	0xbc4e8547	-0.012605018
44	0xbe2ed210	-0.1707232
45	0x3c85415e	0.016266521
46	0x3de4e16e	0.1117581
47	0xbd6f92a0	-0.058489442
48	0x3e669512	0.22517803
49	0xbe938590	-0.28812838
50	0x3de24156	0.11047618
51	0xbf16b518	-0.5887008
52	0xbe0d8da3	-0.13823561
53	0x3dcf473d	0.101210095
54	0xbf15ba02	-0.5848695
55	0xbe0f12b4	-0.13971978
56	0x3de6cd4d	0.11269627
57	0x3e50c775	0.20388587
58	0xbde854ef	-0.11344325
59	0xbe3a84fa	-0.18214789
60	0xbe2d3ccd	-0.16917725
61	0xbcc65073	-0.024208283
62	0xbe9196cb	-0.28435358
63	0xbefb097e	-0.4903068
64	0xbec08c7e	-0.37607187
65	0x3d88f763	0.0668781
66	0xbe1dd098	-0.15411603
67	0xbdaf77f8	-0.08567804
68	0x3bd8d66c	0.006617358
69	0xbca6dad4	-0.020368017
70	0xbd37cb7e	-0.0448718
71	0x3e0043ef	0.12525915
72	0xbdcfad81	-0.10140515
73	0x3ef654de	0.48111624
74	0x3d945ad2	0.07243885
75	0x3eb9c58d	0.36283532
76	0xbf05dcaa	-0.5228983
77	0xbe27e70a	-0.16396728
78	0x3d97e854	0.0741736
79	0x3e83ec33	0.25766143
80	0x3dbc7a21	0.09202982
81	0xbc0c308d	-0.008556497
82	0xbdbeefb0	-0.093230605
83	0x3e08e01a	0.13366738
84	0x3d91570c	0.07096681
85	0xbeaa2460	-0.33230877
86	0x3d0142a4	0.031557694
87	0xbebf43e0	-0.37356472
88	0xbef4d383	-0.4781762
89	0xbd25f535	-0.04051705
90	0xbef3f525	-0.47647968
91	0xbe67bee2	-0.2263141
92	0xbd146292	-0.036226816
93	0xbe90065f	-0.2812986
94	0x3e2212c1	0.15827467
95	0x3d397a24	0.045282498
96	0xbeb28321	-0.34865668
97	0xbee83b2e	-0.4535765
98	0x3e0152f5	0.12629302
99	0xbe76c8f9	-0.24100102
100	0x3e78ac14	0.24284393
101	0x3d9d0453	0.076668404
102	0xbf84f551	-1.0387365
103	0xbeb63eac	-0.3559469
104	0x3e360ec8	0.17779076
105	0x3de20336	0.11035769
106	0x3b61e547	0.0034468935
107	0xbf280d82	-0.6564561
108	0x3d51a0a7	0.0511786
109	0x3e8aefdd	0.27136126
110	0x3e04b1d4	0.12958461
111	0xbd9eabd5	-0.07747618
112	0xbeaa3387	-0.33242437
113	0x3d6180c6	0.05505445
114	0xbf7c5b3b	-0.98576707
115	0x3df8e8e8	0.12153798
116	0xbc1abb44	-0.009444062
117	0xbedab1ef	-0.42713878
118	0x3d920c1e	0.071312174
119	0xbe95d317	-0.2926261
120	0xbe090ebe	-0.1338453
121	0x3e429e42	0.19005683
122	0xbc4e92b4	-0.012608219
123	0x3ea660fa	0.32495862
124	0xbf087430	-0.5330229
125	0xbe58c674	-0.21169454
126	0x3cc04019	0.023468064
127	0x3d206736	0.03916093
128	0x3c84f0a7	0.016228033
129	0x3cb8bd37	0.022551162
130	0x3d9ad53e	0.07560204
131	0x3e6dfd14	0.23241073
132	0xbeaf6ff6	-0.34265107
133	0x3efb3175	0.4906117
134	0x3dc3e4e0	0.09565139
135	0x3f58e742	0.8472787
136	0xbe5772da	-0.21039906
137	0xbdf3771a	-0.11887951
138	0x3ed037bd	0.40667525
139	0x3ec129f7	0.3772733
140	0x3dc21153	0.094759606
141	0xbcd8f438	-0.02648364
142	0x3da368ee	0.07978998
143	0x3e2e0327	0.1699339
144	0xbe78bdf8	-0.24291217
145	0x3ee5308c	0.447636
146	0x3c3f0f65	0.011661385
147	0x3e46c397	0.19410549
148	0xbe491017	-0.19635044
149	0x3e4ec993	0.20194082
150	0x3eb40be2	0.35165316
151	0x3e3723b9	0.17884721
152	0x3d9fd2f9	0.07803912
153	0xbe14d956	-0.14536032
154	0xbdd0b7cf	-0.10191309
155	0x3dad0aa1	0.08449293
156	0xbec2329a	-0.3792923
157	0x3e4edb11	0.20200755
158	0xbddda1be	-0.108218655
159	0x3ee8f2da	0.4549778
160	0x3e1b4a5d	0.15165086
161	0x3e182786	0.14858827
162	0x3f4def18	0.80442953
163	0x3ee2af15	0.44274202
164	0x3de08d2f	0.10964429
165	0xbe85dfa2	-0.2614718
166	0x3dbe299a	0.092852786
167	0x3eb5a762	0.35479265
168	0xbdd20748	-0.10255295
169	0x3cab8281	0.020936253
170	0xbe487f2c	-0.19579762
171	0x3ecbbf2e	0.39794296
172	0xbf092085	-0.53565246
173	0x3e1cc8ad	0.15310927
174	0x3e8ae244	0.27125752
175	0xbd93b7a6	-0.072127625
176	0xb9bf64d6	-0.00036505488
177	0xbd6b7ad8	-0.0574902
178	0x3e855252	0.26039368
179	0x3e9e67de	0.3093862
180	0xbd01248b	-0.03152899
181	0xbeb68f27	-0.35656092
182	0x3e51e8ed	0.2049901
183	0x3d08c4cd	0.03339081
184	0xbea396ce	-0.31950992
185	0xbd9d260f	-0.07673275
186	0xbe87ceec	-0.26525056
187	0xbe8b669b	-0.2722672
188	0x3e92f54b	0.2870277
189	0xbca5149d	-0.02015143
190	0x3dfa4cf7	0.12221711
191	0xbe3d0348	-0.18458283
192	0xbe5b2f0d	-0.21404667
193	0x3ed2fdf2	0.4120937
194	0xbce63b91	-0.028104575
195	0x3f05a7fd	0.52209455
196	0xbdbaf894	-0.09129444
197	0xbcaab1b6	-0.020836692
198	0x3ee61170	0.4493518
199	0x3f316e14	0.6930859
200	0xbe055af8	-0.13022983
201	0xbd5189f7	-0.051156964
202	0x3d86e3d1	0.06586421
203	0x3e8878bb	0.2665461
204	0x3c990c5e	0.018682655
205	0x3c820370	0.01587078
206	0xbe24deba	-0.16100588
207	0xbd8e186c	-0.06938252
208	0xbe1aa945	-0.15103634
209	0xbd155a83	-0.03646327
210	0x3d30f67b	0.043203812
211	0xbd65363b	-0.05595992
212	0xbd86ab06	-0.06575589
213	0xbdc562c7	-0.09637981
214	0xbd96c731	-0.073622115
215	0xbd01ed38	-0.03172037
216	0xbe65ffcd	-0.22460862
217	0x3f12bc72	0.57318795
218	0x3e046636	0.12929615
219	0x3ebc06ab	0.36723837
220	0x3cc7b6e8	0.024379209
221	0x3dc141f2	0.09436406
222	0x3e959945	0.29218498
223	0x3f1866fa	0.5953213
224	0xba2e013d	-0.0006637758
225	0x3d9417ec	0.07231125
226	0xbeee2388	-0.46511483
227	0xbe5bef24	-0.21477944
228	0x3e880897	0.26569054
229	0xbec2c7fb	-0.38043198
230	0xbf0c5fcb	-0.5483367
231	0x3efe0ba4	0.49618256
232	0x3e0c058e	0.13673994
233	0xbdaa3626	-0.08311109
234	0xbf0e7100	-0.55641174
235	0xbea4f45b	-0.32217678
236	0x3d437cda	0.04772649
237	0x3e0af6aa	0.13570657
238	0xbe0c32eb	-0.13691299
239	0xbe199f79	-0.1500224
240	0x3e37a97f	0.17935751
241	0xbc643a5d	-0.0139299305
242	0xbe65e3b2	-0.2245014
243	0x3d8baa3a	0.068195775
244	0xbea21275	-0.31654707
245	0x3ebcf341	0.36904338
246	0xbe97abe5	-0.29623333
247	0x3d2fd19a	0.0429245
248	0xbc7ee6d5	-0.015557964
249	0x3eb314e7	0.34976885
250	0xbd463556	-0.04839071
251	0xbea4ced9	-0.32189062
252	0x3e8ade70	0.2712283
253	0xbe99c881	-0.30035785
254	0x3d2c6082	0.042084225
255	0xbfbee831	-1.4914609

shared.0.bias f4 [64]
0	0x3e3e274a	0.18569675
1	0x3e6523e1	0.22376968
2	0x3df43b50	0.119253755
3	0xbe0bbf5b	-0.13647215
4	0x3e9e81f1	0.30958512
5	0x3d7c00ee	0.061524324
6	0x3e64a061	0.22326805
7	0x3ccb75f7	0.024836523
8	0x3e9315fb	0.28727707
9	0x3e3635d4	0.17793971
10	0x3e5a5748	0.21322358
11	0x3e119e8f	0.14220642
12	0x3e264657	0.1623777
13	0x3d9351f4	0.07193366
14	0x3d89fdb5	0.06737844
15	0x3d9aa38b	0.075507246
16	0x3e1a690e	0.15079138
17	0x00000000	0.0
18	0x3e5165ad	0.20448942
19	0x3e6fa61d	0.23403211
20	0x3e3b0fe7	0.18267785
21	0x3e9c67a6	0.30547827
22	0x3cde7142	0.027153615
23	0xbe10d72a	-0.14144579
24	0x3ebc5b41	0.3678837
25	0x3ea2e32d	0.31813946
26	0x3e970a08	0.2949984
27	0xbc1bfdc4	-0.009520952
28	0x3e1bf48f	0.1523001
29	0xbcc4dc98	-0.024030969
30	0x3eac9e48	0.3371451
31	0x3e5d8b07	0.21635066
32	0x3e9b0713	0.30278835
33	0x3c6b55f2	0.014363753
34	0x3d2862ad	0.04110973
35	0x3e20dbcc	0.15708846
36	0x3ead90ff	0.33899686
37	0xbd5ba136	-0.05362054
38	0x3eb8ece4	0.36118233
39	0x3e5a6e77	0.21331201
40	0x3e782748	0.24233735
41	0x00000000	0.0
42	0x3e84ebd3	0.2596117
43	0xbe307d77	-0.17235361
44	0x3e5ff0f7	0.21869265
45	0x3ea2f26e	0.31825584
46	0x3eb3c18a	0.35108596
47	0x3ea132c5	0.31484047
48	0x3e43bb8f	0.19114517
49	0x3df3dd08	0.11907393
50	0x3ca90e53	0.020636713
51	0x3e08ece2	0.13371614
52	0x3e83cfef	0.25744578
53	0x3e609ceb	0.2193486
54	0x3e70f4d5	0.23530896
55	0x3e9e5164	0.3092147
56	0x00000000	0.0
57	0x3e2daa0c	0.16959399
58	0xbe907d1b	-0.28220448
59	0x3def1c46	0.116753146
60	0x3e78142b	0.24226443
61	0x3db71dad	0.08941207
62	0x3e333f5f	0.17504643
63	0x3e3645f3	0.17800121

shared.2.weight f4 [64, 64]
0	0xbb825a17	-0.0039780247
1	0x3d07e094	0.03317316
2	0x3e98e21b	0.29860005
3	0x3e27e277	0.16394983
4	0x3eb5fd44	0.3554479
5	0xbe0883f3	-0.13331585
6	0xbd7a6557	-0.0611318
7	0x3e18d043	0.14923196
8	0xbf06287e	-0.52405536
9	0x3e948b10	0.29012346
10	0x3e410485	0.1884938
11	0x3dcaf68f	0.099103086
12	0xbe03361e	-0.12813613
13	0xbe1e3698	-0.15450513
14	0x3bd1a5da	0.006397945
15	0xbe269170	-0.16266418
16	0x3cb2062f	0.021731464
17	0x3d8646ff	0.0655651
18	0xbdba8d15	-0.091089405
19	0x3e1bc92b	0.15213458
20	0x3bcad4f1	0.0061899354
21	0xbedaa75e	-0.42705816
22	0x3f4bcd38	0.79610014
23	0xbdf7615a	-0.12079115
24	0xbbd99dde	-0.0066411337
25	0x3e0ea71f	0.13930939
26	0x3e18a605	0.14907081
27	0x3e0d6a53	0.1381009
28	0x3eac2959	0.33625296
29	0xbeaf3f72	-0.34228092
30	0x3cf2841e	0.029604014
31	0xbcc83a45	-0.024441848
32	0x3e352b71	0.17692353
33	0x3e4394c2	0.19099715
34	0xbe49b4a0	-0.19697809
35	0x3f44638b	0.7671439
36	0x3d8319e3	0.06401422
37	0x3e448b77	0.19193827
38	0xbe1c275b	-0.15249388
39	0xbf12c804	-0.5733645
40	0x3e108ee0	0.14117002
41	0xbe0961df	-0.13416241
42	0x3ec9844f	0.39358756
43	0xbf21e8d3	-0.63245887
44	0x3e621141	0.22076894
45	0x3e717f7e	0.2358379
46	0x3d959cbc	0.07305285
47	0xbd89d93a	-0.06730886
48	0x3d992534	0.07477799
49	0x3d8fc0e6	0.07019214
50	0x3da14742	0.078749195
51	0xbd1224de	-0.03567969
52	0x3c2d99d2	0.010595756
53	0x3bbadf24	0.00570287
54	0xbd8d3a50	-0.06895888
55	0x3e556028	0.20837462
56	0x3e080985	0.13284881
57	0xbea48dd0	-0.32139444
58	0xbcac26b7	-0.021014554
59	0xbe7c80f7	-0.24658571
60	0x3e1a37a3	0.15060286
61	0x3f11bbb8	0.5692706
62	0xbeeb0019	-0.45898512
63	0xbd85b803	-0.06529238
64	0x3db6e644	0.089306384
65	0xbd1c5d8d	-0.038175154
66	0x3dd85b2e	0.10564266
67	0xbdd6d479	-0.10489745
68	0x3eeafb00	0.45894623
69	0xbc50c8b2	-0.012743162
70	0xbc9e0c1c	-0.019292884
71	0x3e063cb6	0.13109097
72	0xbeafc50f	-0.3433003
73	0x3e7b4465	0.24537809
74	0x3de274bb	0.11057421
75	0x3c31319a	0.010815049
76	0x3e08dbcd	0.13365097
77	0xbd723510	-0.059132636
78	0x3dee10b0	0.11624277
79	0x3eb89563	0.36051473
80	0x3dd3cde9	0.103420086
81	0x3d16e765	0.03684177
82	0x3e8b4085	0.27197662
83	0x3e4db152	0.20087174
84	0x3c12b5af	0.00895445
85	0xbeb67ace	-0.35640568
86	0x3f35e359	0.7105003
87	0xbc4dee14	-0.012568969
88	0x3e19115d	0.1494803
89	0x3dee4464	0.11634138
90	0x3eb6b6b7	0.35686275
91	0xbd36f276	-0.044664823
92	0x3d62a738	0.055335253
93	0xbe7b6072	-0.2454851
94	0x3e20f54e	0.15718576
95	0x3e4e0b38	0.20121467
96	0x3d39918b	0.045304816
97	0x3ef2def0	0.47435713
98	0x3e2b1654	0.16707736
99	0x3f0ce3cf	0.5503511
100	0xbe17e9e5	-0.14835317
101	0x3f22febb	0.6366994
102	0xbb2f2197	-0.0026722902
103	0xbf3d28df	-0.7389049
104	0x3b8c664d	0.004284656
105	0xbde3a1f8	-0.111148775
106	0x3e5c4ead	0.21514387
107	0xbf30759f	-0.68929476
108	0x3e1f78fd	0.15573497
109	0x3d5578e4	0.052117243
110	0x3db2b1bb	0.08725306
111	0x3e4cee16	0.20012698
112	0x3dd0a699	0.10188026
113	0x3d9a77dd	0.07542393
114	0xbb89092f	-0.004182003
115	0x3cdce918	0.026966617
116	0xbd881c9d	-0.066460826
117	0x3b16719b	0.0022955898
118	0x3d8afcaa	0.06786473
119	0xbe1fec2a	-0.15617433
120	0x3d2d0e65	0.042250056
121	0xbd81edf8	-0.06344217
122	0x3da21c11	0.079155095
123	0x3d384b99	0.04499397
124	0x3e6f17db	0.23348944
125	0x3ec28d75	0.37998548
126	0xbecc1817	-0.3986213
127	0xbe4948ac	-0.19656628
128	0xbe3dfb35	-0.18552859
129	0xbe257aaf	-0.16160081
130	0x3ea0d5b6	0.31413049
131	0x3e022ef4	0.12713224
132	0x3d68dd5a	0.056851722
133	0xbe9c409e	-0.3051805
134	0xbd86ffff	-0.06591796
135	0x3dbc6729	0.09199364
136	0xbeb3c014	-0.3510748
137	0x3e283031	0.16424634
138	0xbdb6090d	-0.08888445
139	0xbadbecb9	-0.0016778923
140	0x3e040c59	0.12895335
141	0x3e2edc07	0.17076121
142	0x3d80ea6d	0.06294713
143	0xbc88ccfb	-0.016699305
144	0x3de570bf	0.11203145
145	0x3da6fb96	0.08153455
146	0xbcdb2b52	-0.026754055
147	0xbb217640	-0.0024637133
148	0x3e4943cd	0.1965477
149	0xbf0660bf	-0.5249137
150	0x3ec90b23	0.3926631
151	0xbe05062c	-0.12990636
152	0x3eb970c8	0.36218858
153	0x3e73d548	0.23811829
154	0x3d7ecb2f	0.06220549
155	0xbda17413	-0.078834675
156	0x3e832a63	0.25618276
157	0xbe8ff4f0	-0.2811656
158	0x3de0ecba	0.10982652
159	0x3eb990a6	0.3624317
160	0x3e4f1633	0.20223312
161	0x3e030f3a	0.12798777
162	0x3e0ee612	0.13954952
163	0x3f401484	0.75031304
164	0x3dc175a0	0.09446263
165	0x3e184708	0.14870846
166	0x3da39a68	0.07988435
167	0xbf3eef8e	-0.7458428
168	0x3eb84913	0.3599325
169	0xbdad3841	-0.08457995
170	0x3dd1709a	0.10226555
171	0xbef4d70e	-0.47820324
172	0x3d9e7794	0.077376515
173	0xbd822d5c	-0.06356308
174	0xbe26b426	-0.16279659
175	0x3e34cf1c	0.17657131
176	0xbcf46a3e	-0.029835816
177	0x3b0f5a3f	0.002187386
178	0x3c5e3835	0.0135632055
179	0x3d843a07	0.0645638
180	0x3dfb9772	0.12284745
181	0xba007f46	-0.0004901778
182	0x3e894bbc	0.26815593
183	0x3dd1d3aa	0.1024545
184	0x3e45b581	0.1930752
185	0xbc56bb35	-0.013106157
186	0xbe5d9050	-0.21637082
187	0xbe39460f	-0.18093131
188	0x3e68376f	0.22677396
189	0x3ed8ba3f	0.42329594
190	0xbef277c6	-0.47357005
191	0x3c075324	0.008259568
192	0x3d719874	0.05898328
193	0x3d9ff022	0.078094736
194	0x3ed2c793	0.41167888
195	0x3d2ee9fe	0.04270362
196	0xbd3efc40	-0.046627283
197	0xbe886569	-0.2663987
198	0xbe10f785	-0.14156921
199	0x3e2ab506	0.16670617
200	0xbdbca5f2	-0.09211339
201	0x3ea5a1ac	0.32349908
202	0x3e59ffcc	0.21288985
203	0xbe1b1dde	-0.15148112
204	0xbe6c940c	-0.2310335
205	0xbdb68716	-0.08912484
206	0x3d2483c1	0.040164713
207	0x3da6e193	0.081484936
208	0xbe6027a1	-0.21890117
209	0x3e2c92d1	0.16852881
210	0x3da61ed6	0.0811135
211	0xbdf4875d	-0.11939881
212	0x3e83974d	0.2570137
213	0xbef9b3fc	-0.4877013
214	0x3f6b2263	0.91849345
215	0xbe8365d9	-0.2566364
216	0x3e3287e7	0.17434655
217	0x3e41192b	0.18857257
218	0xbe21680f	-0.15762351
219	0xbde8fcf5	-0.11376373
220	0xbdbb6040	-0.091492176
221	0xbe711a9c	-0.23545307
222	0x3dcbd5ad	0.09952865
223	0xbe376039	-0.179078
224	0x3e195fb2	0.14977911
225	0x3e54b59e	0.20772406
226	0x3dad1d39	0.084528394
227	0x3f42653a	0.7593571
228	0xbd4d74c3	-0.05016018
229	0x3ea74ac7	0.32674238
230	0xbdd65ecb	-0.10467299
231	0xbf2a6a1b	-0.66568154
232	0xbd7929e4	-0.060830966
233	0xbe2a4e6a	-0.16631475
234	0x3e1983b5	0.14991648
235	0xbf205abf	-0.6263847
236	0xbe8374ef	-0.2567515
237	0x3e30b7ac	0.17257565
238	0xbdf43d1c	-0.11925718
239	0xbd4dc60b	-0.050237697
240	0xbd967b2e	-0.073477134
241	0x3d5283e5	0.051395316
242	0xbe14a44e	-0.14515802
243	0x3dbb5ff6	0.091491625
244	0xbe6e205c	-0.23254532
245	0xbcf7deaa	-0.030257542
246	0x3dd75ed8	0.10516137
247	0x3e289d3f	0.16466235
248	0xbe0a192a	-0.13486162
249	0xbddd6f1a	-0.108122066
250	0xbec83700	-0.39104462
251	0x3ca3a660	0.019976795
252	0xbc06274e	-0.008188082
253	0x3efa70de	0.48914236
254	0xbf157764	-0.583853
255	0xbc8a3540	-0.016871095

shared.2.bias f4 [64]
0	0x3e4c147e	0.19929692
1	0x3e9489f6	0.29011506
2	0x3e800e5b	0.25010952
3	0x3de4d322	0.11173083
4	0x3d580e55	0.052748043
5	0xbcaad280	-0.020852327
6	0xbced3e12	-0.028960261
7	0xbc929808	-0.01789476
8	0xbe782559	-0.24232997
9	0x3eadc36f	0.33938166
10	0x3e89dd9b	0.26926884
11	0x3d7f73cb	0.06236629
12	0x3e7fae93	0.24968939
13	0x3e9ad0a3	0.30237302
14	0x3ea6e10c	0.32593572
15	0xbcd2c2df	-0.025727687
16	0xbd054397	-0.03253516
17	0xbcc3316a	-0.023827273
18	0x3eab1d79	0.33420923
19	0x3e1b6397	0.1517471
20	0x3e17e69f	0.14834069
21	0x00000000	0.0
22	0x3e273be0	0.16331434
23	0x3ea41ab4	0.32051623
24	0x3e9fe5f6	0.31230134
25	0x3e977a46	0.29585475
26	0x3eaff241	0.34364513
27	0x3e867c7f	0.26266858
28	0xbd4f207e	-0.050568096
29	0x3e3088ec	0.17239732
30	0x3ea55fb4	0.32299578
31	0x3e980aed	0.29695836
32	0x3eb02f14	0.34410918
33	0x3e9ed635	0.31022802
34	0x3e7a9444	0.24470621
35	0x3e96ce5b	0.29454312
36	0x3e9b03a3	0.30276212
37	0x3ea6748a	0.32510787
38	0x3e766c8d	0.24064846
39	0x3eb6973c	0.35662258
40	0xbc2b1c8e	-0.01044382
41	0xbb79d9d5	-0.0038124223
42	0x3e9c8e32	0.30577236
43	0x3eb4c407	0.35305807
44	0xbd305690	-0.043051302
45	0xbd01cbe6	-0.031688593
46	0x3e96dfbb	0.29467568
47	0x3e846913	0.25861415
48	0x3e9c655b	0.30546078
49	0x3e8f7404	0.280182
50	0x3e9128a2	0.28351313
51	0x3e965661	0.29362777
52	0x3eac5906	0.3366167
53	0x3e64d053	0.22345094
54	0x3e8099fd	0.25117484
55	0xbd078af6	-0.033091508
56	0x3ec9c47e	0.39407724
57	0xbe3d21e2	-0.18469957
58	0x3ea8e0d4	0.3298403
59	0x3ea5c57b	0.32377228
60	0x3e380c36	0.17973408
61	0x3ebec6fe	0.37261194
62	0x3e009c5f	0.12559651
63	0x3e293c7e	0.16526982

actor.0.weight f4 [32, 64]
0	0xbd906905	-0.07051281
1	0xbe53cb3a	-0.20682994
2	0xbdb61d0b	-0.08892258
3	0xbdd399db	-0.1033208
4	0x3d4c53e6	0.0498847
5	0x3e35533c	0.17707533
6	0xbe452193	-0.19251089
7	0xbe125d27	-0.14293347
8	0x3dd3eb2b	0.10347589
9	0x3e0ecb35	0.13944705
10	0xbe553cc8	-0.20823967
11	0x3ddf185c	0.10893318
12	0x3dddcd48	0.1083017
13	0x3cc143d7	0.023591919
14	0x3d2b12a0	0.04176581
15	0xbd90946b	-0.070595585
16	0x3d8ba980	0.06819439
17	0x3dd4cbfd	0.1039047
18	0xbc688ccd	-0.014193726
19	0xbe511ead	-0.20421858
20	0x3cf4c18b	0.029877445
21	0xbe1798e4	-0.14804417
22	0x3dee18c4	0.116258174
23	0x3c671a42	0.014105381
24	0x3be4c184	0.0069810767
25	0xbdb5081f	-0.088394396
26	0x3d1d472b	0.03839795
27	0xbdb4c69c	-0.08826944
28	0xbc48f640	-0.012265742
29	0xbe95a1d1	-0.2922502
30	0xbd3cb50a	-0.04607109
31	0xbeacc3be	-0.3374309
32	0x3d775f89	0.060393844
33	0xbdc53dfd	-0.09630964
34	0x3dd1a11c	0.10235807
35	0x3e090037	0.13378988
36	0xbe05f75e	-0.13082644
37	0xbe11a12e	-0.14221641
38	0xbe845160	-0.25843334
39	0xbdb3a86b	-0.087723576
40	0xbb6d4936	-0.0036206967
41	0x3dcfd1be	0.10147427
42	0xbc5e4a34	-0.013567496
43	0xbe899526	-0.26871604
44	0x3cbb9e5b	0.022902658
45	0x3d4402f5	0.047854383
46	0x3d45ebce	0.048320584
47	0x39ad3852	0.00033039093
48	0xbdc42e59	-0.095791526
49	0xbc886a7b	-0.016652336
50	0xbe1969ce	-0.14981768
51	0xbd74d567	-0.05977383
52	0xbe044873	-0.12918262
53	0x3dee08b0	0.11622751
54	0xbd0711e5	-0.03297605
55	0xbdb51989	-0.08842761
56	0x3e604d3b	0.21904461
57	0xbe5ca42b	-0.21547
58	0xbd80582a	-0.06266816
59	0xbd7798ab	-0.06044833
60	0x3d53492e	0.05158346
61	0xbbfa19c6	-0.007632467
62	0x3c2ed681	0.010671259
63	0xbcc89c83	-0.024488693
64	0xbd2f2309	-0.04275802
65	0x3e33fe7a	0.17577544
66	0xbd01a1f0	-0.031648576
67	0x3c60f31c	0.013729837
68	0x3e97e596	0.29667348
69	0xbd185ffc	-0.037200913
70	0x3a0e32b1	0.0005424424
71	0x3d9b0689	0.07569606
72	0xbdd016a8	-0.10160571
73	0xbc0aab6e	-0.008463724
74	0x3d8c4c21	0.06850458
75	0x3ddf4b41	0.109030254
76	0xbe13a4d3	-0.14418344
77	0xbe0740a0	-0.13208246
78	0x3db4f2a8	0.088353455
79	0x3de8951d	0.11356566
80	0xbedbe4e8	-0.4294808
81	0x3d95b494	0.07309833
82	0xbdccfef3	-0.10009565
83	0xbd42b52b	-0.047536056
84	0x3c57250e	0.013131393
85	0xbdda3cff	-0.10656165
86	0x3d935571	0.07194031
87	0xbd15fa1b	-0.036615472
88	0xbda3d85c	-0.08000252
89	0x3b5d28e9	0.0033746308
90	0x3cbebeef	0.023284404
91	0x3e8e2f36	0.27770394
92	0x3e05ef65	0.13079603
93	0x3e5e2ff8	0.21697986
94	0x3cf5de54	0.03001324
95	0x3b7e6567	0.0038817765
96	0x3d284e0d	0.04109006
97	0xbb556031	-0.0032558555
98	0x3d0b5abf	0.03402209
99	0xbdc826c1	-0.09773017
100	0xbe20b962	-0.15695718
101	0xbc554a76	-0.013018241
102	0xbe6c15f7	-0.23055254
103	0xbd660ef2	-0.056166597
104	0x3e1548d5	0.14578564
105	0x3e404e27	0.18779813
106	0x3d029db5	0.031888682
107	0xbdd342e4	-0.10315493
108	0xbd854806	-0.06507878
109	0x3e002c49	0.12516893
110	0xbc80e716	-0.01573519
111	0xbc9e2872	-0.019306395
112	0x3df9f3cf	0.12204706
113	0xbe36d17e	-0.17853352
114	0xbd737975	-0.059442002
115	0xbe861061	-0.2618437
116	0xbe11fc80	-0.14256477
117	0xbdde1e91	-0.10845674
118	0xbe1c439e	-0.15260169
119	0x3c82ed53	0.015982306
120	0xbd72726b	-0.05919115
121	0xbdb3e9d6	-0.08784835
122	0x3bf95d5a	0.0076100053
123	0xbe519d38	-0.2047013
124	0xbb821056	-0.0039692326
125	0xbdb22d40	-0.08700037
126	0xbc01d04a	-0.007923195
127	0x3dd0690b	0.10176285
128	0x3d79648a	0.060886897
129	0xbcdc1c45	-0.026868949
130	0x3e024d06	0.12724695
131	0xbba6c70f	-0.0050896476
132	0xbdbbdd02	-0.09173013
133	0x3e70f283	0.23530011
134	0xbcbbff5c	-0.022948913
135	0x3d83ec71	0.06441582
136	0xbd0184d0	-0.0316208
137	0xbe7f906a	-0.24957433
138	0xbe6cb745	-0.23116787
139	0x3dbe2cdc	0.092859
140	0xbe3fa23e	-0.18714234
141	0xbe5d495c	-0.21610016
142	0xbdb62bdb	-0.088950835
143	0xbc0ea4a3	-0.008706245
144	0x3d926a3e	0.0714917
145	0xbd3bedff	-0.045881268
146	0x3dab1093	0.08352771
147	0x3e415698	0.18880689
148	0x3d9de9ea	0.07710631
149	0xbc8a10eb	-0.01685377
150	0x3cb0d802	0.021587376
151	0xbb848302	-0.0040439377
152	0xbc704aa3	-0.014666232
153	0xbd28d265	-0.041216273
154	0x3dfd95a9	0.12382061
155	0xbca3ba4d	-0.019986296
156	0x3e06c420	0.13160753
157	0xbe80b4ef	-0.2513804
158	0xbd90b5e5	-0.07065944
159	0xbe558c8d	-0.20854397
160	0x3e1e2c29	0.15446533
161	0x3c6388cf	0.013887598
162	0xbd5ef5d5	-0.054433662
163	0xbe81e435	-0.2536942
164	0x3d3808d9	0.044930313
165	0x3e2187bb	0.15774433
166	0xbe5342a8	-0.20630896
167	0x3d6d8597	0.05798873
168	0xbcec0ef3	-0.028815722
169	0xbe1e313c	-0.15448469
170	0xbdb685dc	-0.089122504
171	0x3e3706fb	0.17873757
172	0xbb2b1a4f	-0.002610821
173	0x3c39b7a9	0.011335292
174	0xbd51a4a1	-0.051182393
175	0x3e31d163	0.17365031
176	0xbdb12229	-0.08649094
177	0x3e03a637	0.12856375
178	0xbd9d553c	-0.07682273
179	0xbe7a75ef	-0.2445905
180	0x3df01ad7	0.11723869
181	0x3c608473	0.013703453
182	0xbe80f5d7	-0.2518756
183	0xbd52c51d	-0.051457513
184	0x3d6cc533	0.05780525
185	0x3e2bbc09	0.16770948
186	0x3da0875d	0.078383185
187	0x3e01e70d	0.12685795
188	0xbdd911fd	-0.10599134
189	0xbca15f9b	-0.019698909
190	0x3f0c8edd	0.5490549
191	0x3e34780d	0.1762392
192	0xbdc71920	-0.09721589
193	0xbd9a9e30	-0.07549703
194	0x3d5f029d	0.05444585
195	0xbe07ed23	-0.13274054
196	0x3d7b5fdd	0.06137072
197	0xbd001f90	-0.0312801
198	0x3da5df64	0.08099249
199	0x3e0ac7a5	0.13552721
200	0x3e4e5392	0.20149067
201	0xbe2a1ccd	-0.16612549
202	0x3dc98a72	0.098408595
203	0x3c70dbc9	0.014700838
204	0xbe03753e	-0.12837693
205	0x3d8c0220	0.06836343
206	0x3d0162d2	0.031588383
207	0xbe415191	-0.18878771
208	0x3d531e05	0.0515423
209	0xbcc9a78a	-0.024616022
210	0x3cf39885	0.029735813
211	0xbc2d37ac	-0.010572355
212	0x3d6dc08d	0.05804496
213	0xbd7d5991	-0.061852995
214	0x3cc4a605	0.024004946
215	0x3e156770	0.1459024
216	0xbdf17852	-0.117905274
217	0xbdf1369f	-0.11777996
218	0x3da05799	0.07829208
219	0x3e82a1d3	0.25514087
220	0xbc4b563d	-0.0124106975
221	0xbdce38fb	-0.10069462
222	0x3dd0c99c	0.10194704
223	0x3e215f6a	0.15759054
224	0x3c92d38e	0.017923143
225	0xbdf56c3b	-0.11983534
226	0x3d64ab55	0.055827457
227	0x3c25f739	0.010129743
228	0xbd869e02	-0.06573106
229	0xbe5f6390	-0.21815324
230	0xbcbe0b22	-0.023198668
231	0xbe58ed1e	-0.21184203
232	0x3e113045	0.1417857
233	0xbe36807f	-0.17822455
234	0xbe3bdaef	-0.18345235
235	0xbd8ad417	-0.06778734
236	0x3d4b8f7a	0.049697377
237	0x3dc86fa7	0.09786921
238	0x3e352a23	0.17691855
239	0xbd92a89e	-0.071610674
240	0xbe7478d9	-0.23874225
241	0x3b7e11ca	0.0038767927
242	0xbd955e80	-0.07293415
243	0x3da95294	0.08267704
244	0x3e15547c	0.1458301
245	0xbe517966	-0.20456466
246	0xbdaaa7dd	-0.08332799
247	0xbe4e21d4	-0.20130092
248	0xbcb3dda1	-0.021956267
249	0x3e216184	0.15759856
250	0x3ec02fd4	0.3753649
251	0x3e8cb948	0.27485108
252	0xbdc1d434	-0.09464303
253	0xbbcd5801	-0.0062665944
254	0x3c3da583	0.011575106
255	0xbe0fce64	-0.14043576

actor.0.bias f4 [32]
0	0x3948136f	0.00019080726
1	0xbc556f76	-0.013027063
2	0x3ceeba15	0.029141465
3	0x3c95659d	0.01823693
4	0xbc079d16	-0.008277198
5	0xbc069cc6	-0.008216089
6	0xbe0c272d	-0.1368682
7	0xbe1613c0	-0.14655972
8	0x3dab8f1c	0.08376905
9	0x3e18414f	0.14868663
10	0x3dee0dd1	0.11623729
11	0xbc099310	-0.008396879
12	0x3e0fda51	0.14048125
13	0xbc11c7b7	-0.008897713
14	0x3b20cec4	0.0024537304
15	0xbd1125f7	-0.035436597
16	0xbdc09364	-0.094031125
17	0xbc1b9cb6	-0.009497812
18	0xbe125c95	-0.1429313
19	0xbc51b4d1	-0.012799458
20	0xbc930e5b	-0.017951181
21	0xbca63dd4	-0.020293154
22	0xbbb58263	-0.005539225
23	0xbb119a6b	-0.0022217284
24	0xbc89cb94	-0.016820706
25	0x00000000	0.0
26	0xbe023817	-0.12716709
27	0xbc190457	-0.009339414
28	0xbb95ac2e	-0.0045676446
29	0xbb529b8c	-0.003213617
30	0x00000000	0.0
31	0xbcc79442	-0.024362687

actor.2.weight f4 [2, 32]
0	0xbe37d035	-0.17950518
1	0xbe7da28c	-0.24769038
2	0x3d9a33d0	0.07529414
3	0x3d8446cf	0.06458818
4	0xbc9f4427	-0.019441677
5	0xbd7b416b	-0.061341684
6	0xbf1af65a	-0.6053215
7	0xbef3d4b7	-0.47623226
8	0x3ecdb10a	0.40174133
9	0x3f3d1d06	0.7387241
10	0x3f048887	0.51770824
11	0x3e88f6d6	0.2675082
12	0x3f195a18	0.599031
13	0xbec28004	-0.37988293
14	0x3b8b433d	0.004249959
15	0xbdc0934e	-0.09403096
16	0xbf67345b	-0.90314263
17	0xbda51240	-0.080601215
18	0xbf64f075	-0.8942941
19	0xbd1dfc47	-0.03857067
20	0xbdcdaceb	-0.10042747
21	0x3dfa61a4	0.12225655
22	0x3c72c402	0.01481724
23	0xbe1363ab	-0.14393489
24	0xbe81e458	-0.25369525
25	0xbe6c2b00	-0.23063278
26	0xbf5250c8	-0.8215451
27	0xbe066480	-0.13124275
28	0x3dc205b6	0.094737455
29	0x3e798d99	0.24370421
30	0x3eb37c12	0.35055596
31	0x39dc0c61	0.00041970893
32	0x3e290a42	0.1650782
33	0xbca94d7c	-0.02066683
34	0xbdee565e	-0.11637567
35	0xbe8a2e92	-0.26988655
36	0xbe808688	-0.2510264
37	0xbd81663e	-0.06318329
38	0x3f02f0ac	0.51148486
39	0x3ed44d40	0.41465187
40	0xbf376b93	-0.7164852
41	0xbf4d13cf	-0.8010835
42	0xbf23a039	-0.63916355
43	0xbda0d390	-0.07852852
44	0xbf52b4d0	-0.8230715
45	0xbebd0575	-0.36918226
46	0xbeaae5b9	-0.3337839
47	0x3ea016be	0.3126735
48	0x3f6d7c81	0.927681
49	0xbe0f06be	-0.13967416
50	0x3f5bbb2d	0.8583248
51	0xbe55d343	-0.20881371
52	0xbe5ded0d	-0.21672459
53	0x3e15b7de	0.14620921
54	0xbd21b4f1	-0.0394792
55	0xbd06c523	-0.032902848
56	0xbe371c7a	-0.17881957
57	0x3d58af6f	0.05290168
58	0x3f2d8f83	0.67797107
59	0x3d8e22fe	0.06940268
60	0xbe19d65a	-0.15023175
61	0xbd58e1af	-0.052949604
62	0x3e072013	0.13195829
63	0xbe31f577	-0.17378794

actor.2.bias f4 [2]
0	0x3de23cb7	0.11046737
1	0xbde23cab	-0.11046728

critic.0.weight f4 [32, 64]
0	0x3e42aeda	0.19012013
1	0xbe567a61	-0.20945121
2	0xbdc8778c	-0.09788427
3	0x3cbffa0d	0.023434663
4	0xbd55b8b3	-0.052178096
5	0xbcfe023e	-0.031006929
6	0xbe330c80	-0.17485237
7	0xbca2d239	-0.019875633
8	0x3d418175	0.0472426
9	0x3e618836	0.22024617
10	0x3d64d6d7	0.05586895
11	0x3ddce8ba	0.107865766
12	0xbcaf7f27	-0.021422936
13	0xbc43a195	-0.01194038
14	0x3d7d81b4	0.061891273
15	0x3d959497	0.07303732
16	0x3b929e76	0.0044744564
17	0xbdca4bde	-0.09877752
18	0xbcb79685	-0.02241064
19	0xbd96bd1d	-0.07360289
20	0xbe7a9e73	-0.24474506
21	0x3d53e33c	0.05173038
22	0x3e0f3b4a	0.1398746
23	0x3dc20058	0.09472722
24	0x3c7eecd5	0.015559395
25	0xbd9f7fbf	-0.077880375
26	0xbda1f33e	-0.07907723
27	0xbdcb0563	-0.09913137
28	0x3dea58fb	0.11442753
29	0xbd5b7419	-0.053577516
30	0xbd8bc637	-0.06824916
31	0xbd114154	-0.035462692
32	0xbc03dde6	-0.00804851
33	0x3d4cdbd4	0.050014332
34	0xbbd6000d	-0.006530768
35	0x3e2c65e3	0.16835742
36	0xbebc6d45	-0.36802116
37	0xbe9439be	-0.28950304
38	0xbcc2c2a8	-0.02377446
39	0xbd842309	-0.06451995
40	0x3e19896c	0.14993829
41	0xbc3d6fb3	-0.011562276
42	0xbd7b1537	-0.06129953
43	0x3e7deecc	0.24798125
44	0x3e1f6183	0.15564542
45	0x3d077601	0.03307152
46	0x3e68019b	0.22656862
47	0xbdbacadc	-0.091207236
48	0x3e1ebb4a	0.15501133
49	0xbe1f38b7	-0.15548979
50	0xbdb8386a	-0.08995135
51	0xbd147735	-0.036246497
52	0xbd34f594	-0.044179514
53	0xbe5c49d9	-0.21512546
54	0x3da1c243	0.078983806
55	0xbe9031fe	-0.2816314
56	0x3d139f4d	0.036040593
57	0xbcb5eb29	-0.02220686
58	0xbd8ed42e	-0.06974064
59	0xbc90cf76	-0.01767705
60	0x3dcdac09	0.10042579
61	0xbdedfbe3	-0.11620309
62	0x3db82c09	0.08992774
63	0xbc14f5a1	-0.009091766
64	0x3e2947af	0.16531251
65	0x3decbbae	0.115592346
66	0x3e217356	0.15766653
67	0xbd3c1eb2	-0.04592771
68	0x3e1b4c87	0.15165912
69	0x3c96b4e6	0.018396806
70	0x3c981d7a	0.018568743
71	0x3c537fff	0.012908935
72	0xbdec9540	-0.11551905
73	0x3e214e93	0.1575263
74	0x3d86a6bc	0.06574771
75	0xbda7997d	-0.081835724
76	0xbe78197e	-0.24228474
77	0xbd137a9d	-0.036005605
78	0x3bd1d32e	0.0064033484
79	0x3e10bce2	0.14134553
80	0x3cd0548c	0.02543094
81	0xbd3e6ac8	-0.046488553
82	0x3e296452	0.16542175
83	0xbd18a51d	-0.03726684
84	0xbd5108cd	-0.051033784
85	0xbe0c30af	-0.13690446
86	0x3ce400a7	0.027832342
87	0xbe80d06a	-0.25159007
88	0xbe40d1d1	-0.18830039
89	0x3ba0fa30	0.004912637
90	0x3da8874e	0.08228932
91	0x3d5a31c9	0.053270135
92	0xbc96d383	-0.018411404
93	0xbd636ee0	-0.05552566
94	0x3e1450c2	0.14483932
95	0xbd0d5ee6	-0.03451433
96	0xbde01038	-0.109405935
97	0xbd18cade	-0.037302844
98	0xbe22926b	-0.15876167
99	0xbcf5ac99	-0.029989528
100	0xbe1caf4e	-0.15301248
101	0x3e223bbb	0.15843098
102	0xbd2e00f0	-0.042481363
103	0xbd846573	-0.064646624
104	0xbd80c0b0	-0.06286752
105	0xbda0bc85	-0.07848457
106	0x3cc57677	0.02410434
107	0xbe896203	-0.2683259
108	0x3cc88f3e	0.024482366
109	0x3e19e5f7	0.15029131
110	0x3e8c2536	0.2737214
111	0xbdb4aee0	-0.08822417
112	0xbbc1ab70	-0.0059103295
113	0xbe369c2b	-0.17833011
114	0xbe89b97a	-0.2689932
115	0xbc7708c6	-0.015077775
116	0xbe859782	-0.26092154
117	0x3e5e3e29	0.217034
118	0xbc9d4285	-0.019196758
119	0xbd68b6f6	-0.05681511
120	0xbd46161c	-0.04836093
121	0xbe46bbf0	-0.1940763
122	0xbe37b450	-0.17939878
123	0x39d94100	0.00041437894
124	0x3d5719ee	0.052514963
125	0x3d80a74f	0.062819116
126	0xbe3b488b	-0.18289392
127	0x3d998254	0.07495561
128	0xbd8c7b40	-0.068594456
129	0xbcb20c29	-0.021734314
130	0xbdb0b012	-0.08627333
131	0xbc1fa881	-0.009744764
132	0x3c0dab22	0.008646758
133	0xbe37302e	-0.17889473
134	0x3cec829b	0.028870871
135	0x3e95e659	0.29277304
136	0x3de83bf4	0.1133956
137	0x3df632cb	0.12021407
138	0xbddf7a1f	-0.109119646
139	0xbc28aa79	-0.01029455
140	0xbdd901c4	-0.1059604
141	0xbdd320f2	-0.10309018
142	0xbc605f3f	-0.013694583
143	0xbd996197	-0.07489317
144	0x3ddf403e	0.10900925
145	0xbdea917e	-0.11453532
146	0xbc736243	-0.01485497
147	0xbe1421db	-0.1446604
148	0x3d843698	0.064557254
149	0xbdc83868	-0.09776384
150	0xbcba86f8	-0.022769436
151	0xbe51e525	-0.20497568
152	0x3d87dc3b	0.066338025
153	0x3d1fa77d	0.03897809
154	0x3e06b909	0.13156523
155	0x3e6b4a9d	0.22977681
156	0x3cff506b	0.031166276
157	0x3a9754b3	0.0011545628
158	0xbe297916	-0.16550097
159	0xbd84bb54	-0.064810425
160	0x3b61fd7b	0.0034483362
161	0x3dcd6d9f	0.10030674
162	0xbdd9055c	-0.10596725
163	0xbdf4fb7c	-0.11962029
164	0x3d84d940	0.0648675
165	0xbbc4a38a	-0.0060009407
166	0x3cd51fcd	0.02601614
167	0x3e5cf8ea	0.21579328
168	0x3e0fca2e	0.14041969
169	0x3d6170fa	0.055039383
170	0x3d729968	0.05922833
171	0xbd7c6994	-0.061624125
172	0x3ea5e2a4	0.32399476
173	0xbdf1c063	-0.11804273
174	0x3ce856dc	0.02836173
175	0xbd79e86d	-0.061012674
176	0xbb63b32c	-0.0034744246
177	0xbe8f001d	-0.27929774
178	0x3df55ca7	0.11980563
179	0xbc188bb4	-0.009310652
180	0xbd81fa6e	-0.06346594
181	0x3e167172	0.14691713
182	0xbdd0a046	-0.1018682
183	0x3d9544a3	0.07288482
184	0x3e633d55	0.22191365
185	0x3e30327c	0.17206758
186	0xbd65fe57	-0.05615076
187	0xbe297987	-0.16550265
188	0xbdc9ad74	-0.09847537
189	0xbdaf2549	-0.085520335
190	0x3e85ba39	0.2611864
191	0xbe121c94	-0.14268714
192	0x3dc865e7	0.09785061
193	0xbe50f69d	-0.20406576
194	0x3d3e71ee	0.04649537
195	0xbe6800fc	-0.22656626
196	0x3e6c13fc	0.23054498
197	0x3e317eb6	0.17333493
198	0x3d4f56bd	0.05061983
199	0x3dc559b2	0.09636249
200	0xbe6d6fa4	-0.23187119
201	0xbd25fa68	-0.04052201
202	0xbe02481e	-0.12722823
203	0x3d6e64fa	0.058201768
204	0xbd41708e	-0.04722648
205	0xbd4a58cf	-0.0494011
206	0xbe1a14c9	-0.15046991
207	0x3c1731c1	0.009228171
208	0x3d72d35e	0.059283607
209	0x3c59e617	0.013299487
210	0xbba9cf95	-0.0051822164
211	0x3c0c7b6f	0.008574351
212	0x3eaa5694	0.3326918
213	0x3d12bbf6	0.035823785
214	0xbdb7f2ef	-0.08981883
215	0xbd9210bb	-0.07132097
216	0x3caf6ee0	0.021415174
217	0xbe6f0190	-0.2334044
218	0xbcf866c3	-0.030322438
219	0x3d0b4ff0	0.03401178
220	0x3af4d312	0.0018678627
221	0xbe529276	-0.20563683
222	0x3d945b84	0.07244018
223	0xbd2ee6e1	-0.042700652
224	0xbe400e91	-0.18755557
225	0xbd77b055	-0.060470898
226	0xbb52fad4	-0.0032192962
227	0xbac54366	-0.0015049994
228	0x3d1c5968	0.038171202
229	0xba822e8d	-0.0009932086
230	0xbe096c9e	-0.1342034
231	0xbe0fb0b0	-0.14032245
232	0xbd44ee4e	-0.048078828
233	0x3e748c90	0.23881745
234	0xbe312608	-0.17299664
235	0x3ea53821	0.32269385
236	0x3cf6490a	0.030064125
237	0x3b82fac5	0.003997179
238	0x3c90e00e	0.017684963
239	0xbd242f4d	-0.040084172
240	0x3dbfac2c	0.09359011
241	0xbadceac4	-0.0016854634
242	0x3da97e52	0.08276047
243	0xbd91e02e	-0.07122837
244	0xbeb76a0b	-0.35823092
245	0xbe216667	-0.1576172
246	0xbdd58115	-0.10425011
247	0x3e07e8bb	0.13272373
248	0xbd7eec97	-0.06223735
249	0x3e842f81	0.25817493
250	0xbd491721	-0.049094323
251	0xbbff5c95	-0.007793019
252	0xbe2d806e	-0.16943523
253	0x3ebac728	0.3648007
254	0x3db8d35f	0.09024691
255	0x3e120bcc	0.14262313

critic.0.bias f4 [32]
0	0xbc2edd9a	-0.010672951
1	0xbc991633	-0.018687343
2	0xbcb456ec	-0.022014104
3	0xbc85c7fd	-0.016330713
4	0x3e987f4e	0.29784626
5	0x3e8f1d43	0.27952012
6	0xbc8f4aee	-0.017491784
7	0x3eb70ccf	0.3575196
8	0x00000000	0.0
9	0xbc445979	-0.011984223
10	0x3ec62034	0.38696444
11	0x3e9ef176	0.31043595
12	0x3e9c28be	0.30499834
13	0xbc03b3e8	-0.008038498
14	0x3ea3c5b3	0.3198677
15	0xbc60e0ee	-0.013725502
16	0x3e9c8e7c	0.30577457
17	0xbce654a9	-0.028116541
18	0xbbda7555	-0.006666819
19	0x3e8cd350	0.2750497
20	0x3eaa4878	0.33258414
21	0x3ea0df66	0.3142044
22	0x3e9830fb	0.2972487
23	0x3e92efb6	0.2869851
24	0x3e964028	0.29345822
25	0x3eb8a35c	0.36062133
26	0x3e9e59ce	0.3092789
27	0x3c551916	0.013006469
28	0x3e9285e1	0.28617766
29	0xbbebf0eb	-0.0072003505
30	0x3ea42d38	0.3206575
31	0x3eb36f46	0.35045832

critic.2.weight f4 [1, 32]
0	0x3ba0a89a	0.0049029114
1	0x3df40cd8	0.11916512
2	0x3ccc0edc	0.02490943
3	0x3e965c71	0.29367402
4	0xbeec47bd	-0.46148482
5	0xbeb2c5c2	-0.34916502
6	0x3c17017b	0.009216662
7	0xbe9900de	-0.29883474
8	0x3e4efc1e	0.20213363
9	0x3e3d2200	0.18470001
10	0xbe8c1717	-0.27361366
11	0xbebb2785	-0.36553589
12	0xbf0372b2	-0.51346886
13	0x3c94a914	0.018147029
14	0xbebc9adc	-0.36836898
15	0x3cf8ba4f	0.030362276
16	0xbeb6f992	-0.35737282
17	0x3da60b41	0.08107615
18	0x3d13009f	0.035889264
19	0xbedd1fa0	-0.4318819
20	0xbf0ea99b	-0.5572755
21	0xbf103eb7	-0.56345695
22	0xbf0d2680	-0.5513687
23	0xbee594e2	-0.4484015
24	0xbed21fb3	-0.4103981
25	0xbeb780b8	-0.35840392
26	0xbec500e2	-0.38477236
27	0x3f6f18c7	0.9339718
28	0xbee1c960	-0.4409895
29	0x3ece5147	0.40296385
30	0xbecd3d20	-0.40085697
31	0xbf00b317	-0.5027327

exp_avg f4 [64, 12]
0	0xb9eca684	-0.00045137492
1	0x389cbfd0	7.4743875e-05
2	0x39a60de2	0.0003167233
3	0x39a847b1	0.0003209687
4	0x3a224283	0.00061897206
5	0x3a6974b9	0.00089056377
6	0x381b0bd5	3.69659e-05
7	0x389cbfd0	7.4743875e-05
8	0xba615b5b	-0.0008596682
9	0xba0c541a	-0.0005353108
10	0xba41994e	-0.000738521
11	0xb99e4524	-0.00030187622
12	0xbb1f87c1	-0.002434239
13	0xb93310e5	-0.00017077064
14	0xba39c736	-0.00070868747
15	0xb997b8da	-0.0002893869
16	0xb9bf8a05	-0.0003653319
17	0xbb04b2c2	-0.002024815
18	0xb8b13dc3	-8.451522e-05
19	0xb93310e5	-0.00017077064
20	0xbac618b5	-0.0015113564
21	0xba7b68f8	-0.00095905317
22	0xbab6af91	-0.0013937821
23	0xbb2ce90c	-0.0026384024
24	0x3b379aa9	0.0028015769
25	0x398a1af8	0.00026341504
26	0x259b4006	2.6931598e-16
27	0x3a4e6f78	0.00078748865
28	0x3abfc7aa	0.0014631648
29	0x3b4f69d8	0.003164878
30	0x395ae367	0.00020874814
31	0x398a1af8	0.00026341504
32	0x00000004	6e-45
33	0x3abac910	0.0014250595
34	0x3b0d19b3	0.002153021
35	0x3b69a6ef	0.0035652479
36	0xb8c1232b	-9.209508e-05
37	0xb82450ff	-3.917608e-05
38	0x00000004	6e-45
39	0xb982ec6d	-0.00024971683
40	0xb9a045cf	-0.0003056959
41	0xba70a1f9	-0.0009179409
42	0xb7179900	-9.035924e-06
43	0xb82450ff	-3.917608e-05
44	0x0f948b95	1.4647692e-29
45	0xb8a406e9	-7.8214165e-05
46	0x379a0a82	1.8363124e-05
47	0xb8f13827	-0.00011502235
48	0xb9b260f2	-0.00034023036
49	0x397982ac	0.0002379517
50	0xb991df73	-0.00027823038
51	0xb8163165	-3.580879e-05
52	0x39097005	0.00013107069
53	0xbb2e40da	-0.0026588948
54	0x3a3a5ecb	0.0007109462
55	0x397982ac	0.0002379517
56	0xbacfea55	-0.0015862683
57	0x39ce33c4	0.0003932995
58	0xbaba3e16	-0.0014209177
59	0x3aa86a6c	0.0012849099
60	0x00000004	6e-45
61	0x00000004	6e-45
62	0x00000004	6e-45
63	0x00000004	6e-45
64	0x00000004	6e-45
65	0x00000004	6e-45
66	0x00000004	6e-45
67	0x00000004	6e-45
68	0x00000004	6e-45
69	0x00000004	6e-45
70	0x00000004	6e-45
71	0x00000004	6e-45
72	0xbac086a1	-0.001468856
73	0x39159746	0.00014266101
74	0xbb100e02	-0.0021981006
75	0x3a58e2d8	0.00082735484
76	0x3a95a607	0.0011417278
77	0xb995fbcb	-0.00028607095
78	0x37b41528	2.1467524e-05
79	0x39159746	0.00014266101
80	0xbb1d62e9	-0.0024015254
81	0xbaf93c59	-0.0019015177
82	0xbb196506	-0.0023406162
83	0xbabed131	-0.0014558194
84	0x00000004	6e-45
85	0x00000004	6e-45
86	0x00000004	6e-45
87	0x00000004	6e-45
88	0x00000004	6e-45
89	0x00000004	6e-45
90	0x00000004	6e-45
91	0x00000004	6e-45
92	0x00000004	6e-45
93	0x00000004	6e-45
94	0x00000004	6e-45
95	0x00000004	6e-45
96	0xb962340f	-0.00021572433
97	0xb9c846a4	-0.00038199604
98	0xbc1c023d	-0.009522018
99	0x38c14415	9.2156384e-05
100	0xbabc35e9	-0.0014359328
101	0xb9a365fb	-0.00031165764
102	0xb89c539b	-7.4542324e-05
103	0xb9c846a4	-0.00038199604
104	0x3c01ec59	0.007929885
105	0x3b75fe56	0.003753563
106	0x3c02e9a8	0.007990278
107	0x39ebaa7c	0.00044949714
108	0xbb0fbf20	-0.0021933988
109	0xba14478f	-0.0005656415
110	0xbaca005d	-0.0015411485
111	0xb9fc0ed9	-0.00048076248
112	0x39692215	0.00022233308
113	0x3a0d6abe	0.0005394629
114	0xb934889a	-0.00017217026
115	0xba14478f	-0.0005656415
116	0xbaae8f2f	-0.0013317819
117	0xba752a4b	-0.00093523104
118	0xbab417bb	-0.0013739982
119	0xbb052de1	-0.0020321535
120	0xbb9194c1	-0.0044427817
121	0xb9fc2bc2	-0.00048097788
122	0xbb8746bf	-0.0041283066
123	0xba7090a7	-0.00091768283
124	0xba7a093a	-0.0009538118
125	0xbbf1d820	-0.0073805004
126	0x396ec475	0.00022770635
127	0xb9fc2bc2	-0.00048097788
128	0xbb457782	-0.0030131047
129	0xbaff6f78	-0.0019488176
130	0xbb4f9caf	-0.0031679084
131	0xbb7dec7f	-0.00387457
132	0xbb5e251b	-0.0033896628
133	0xb8dcdc10	-0.00010531407
134	0xbad822e2	-0.0016489888
135	0xb901bef3	-0.00012373533
136	0xb96faf64	-0.00022858154
137	0xba950112	-0.0011368117
138	0x35c786ad	1.4865851e-06
139	0xb8dcdc10	-0.00010531407
140	0xb9fb59eb	-0.00047941445
141	0xb92031f9	-0.00015277405
142	0xb9eaaed1	-0.00044762206
143	0xbb6198e3	-0.0034423403
144	0xbb3cb1ca	-0.0028792494
145	0xb9154c73	-0.00014238227
146	0xbb2338f3	-0.002490577
147	0xb99eba4b	-0.00030274907
148	0xba1fcf6e	-0.0006096278
149	0xbaa663ab	-0.0012694498
150	0x396d65cf	0.00022640008
151	0xb9154c73	-0.00014238227
152	0x3ab4ea92	0.0013802818
153	0x3acc32cc	0.0015579103
154	0x3a8401d5	0.0010071347
155	0xbb29434b	-0.0025827463
156	0xbb589cbe	-0.003305241
157	0xb98b94ba	-0.00026622956
158	0xbaee5b10	-0.0018185098
159	0xba31a203	-0.0006776156
160	0xba833a53	-0.0010011889
161	0xbb071418	-0.0020611342
162	0x3933f0dd	0.00017160499
163	0xb98b94ba	-0.00026622956
164	0x3ab7dcc9	0.0014027591
165	0x3ad91dbd	0.0016564649
166	0x3ab5e50d	0.0013877467
167	0xbb4a32ae	-0.0030852961
168	0xbb8d0717	-0.0043038237
169	0xb98cb04c	-0.00026834232
170	0xbb96ea01	-0.004605532
171	0xba1a1f0b	-0.00058792596
172	0xbab66fed	-0.0013918855
173	0xbb5a9973	-0.0033355623
174	0x3911a869	0.00013891015
175	0xb98cb04c	-0.00026834232
176	0x39aadd12	0.00032589637
177	0x3a0e8a8d	0.0005437516
178	0x3997c49c	0.0002894745
179	0xbb839200	-0.0040152073
180	0xb9ee3e92	-0.00045441516
181	0x39745484	0.00023301138
182	0x3b10f3b9	0.0022117926
183	0x38ee0c2b	0.00011350991
184	0x399d7a0a	0.000300363
185	0xb9a1a783	-0.0003083312
186	0x395cc449	0.00021053957
187	0x39745484	0.00023301138
188	0xba86a5de	-0.0010272821
189	0xba5021dc	-0.0007939616
190	0xba9cc1ee	-0.0011959651
191	0x388a0805	6.5818465e-05
192	0xbb6b4f2e	-0.003590535
193	0xb9845611	-0.00025241126
194	0xbb01026b	-0.001968528
195	0xb9ff72e5	-0.00048722993
196	0xba43d4ac	-0.000747035
197	0xbb2f8761	-0.0026783573
198	0x38e0f7e1	0.000107273234
199	0xb9845611	-0.00025241126
200	0xb78f22a3	-1.7063057e-05
201	0x3a0fce43	0.00054857525
202	0xb946055d	-0.0001888475
203	0xbb670f79	-0.0035257025
204	0x00000000	0.0
205	0x00000000	0.0
206	0x00000000	0.0
207	0x00000000	0.0
208	0x00000000	0.0
209	0x00000000	0.0
210	0x00000000	0.0
211	0x00000000	0.0
212	0x00000000	0.0
213	0x00000000	0.0
214	0x00000000	0.0
215	0x00000000	0.0
216	0xbbeedde8	-0.007289637
217	0xb9885bbe	-0.00026008295
218	0xbb9da2e1	-0.0048106764
219	0xb9fb9018	-0.0004798181
220	0xbaabbae7	-0.0013101966
221	0xbb4e800a	-0.0031509423
222	0x397514d1	0.00023372775
223	0xb9885bbe	-0.00026008295
224	0x3a61f2a0	0.0008619223
225	0x3aa9272c	0.0012905351
226	0x398c70df	0.00026786976
227	0xbbe141bd	-0.0068742917
228	0xbaa6f1ef	-0.0012736897
229	0xb7ec77fc	-2.8189264e-05
230	0x00000004	6e-45
231	0xb9e77351	-0.0004414567
232	0xba5dbd4f	-0.000845869
233	0xbba85677	-0.0051372605
234	0x393a2a80	0.00017754175
235	0xb7ec77fc	-2.8189264e-05
236	0xbb98053f	-0.0046392973
237	0xbb26bc89	-0.0025441966
238	0xbb933a6b	-0.004493048
239	0xba7204cf	-0.0009232284
240	0x3991aa04	0.00027783227
241	0xb811a62a	-3.4725446e-05
242	0x398043ce	0.0002446458
243	0xb9a898a4	-0.00032157183
244	0xb9a5d5fd	-0.00031630686
245	0xba7e7651	-0.00097069616
246	0x39d556ac	0.00040691101
247	0xb811a62a	-3.4725446e-05
248	0x395187b6	0.0001998235
249	0x3a1977ab	0.0005854319
250	0xb90d124f	-0.00013453628
251	0x3aa2fcb1	0.0012434927
252	0x3cab6521	0.020922245
253	0x3b29e34d	0.0025922835
254	0x3c04e025	0.008110081
255	0x3b9214cf	0.004458047

exp_avg_sq f4 [64, 12]
0	0x38a25700	7.740967e-05
1	0x35d09789	1.554131e-06
2	0x38f414b4	0.00011638683
3	0x36da4f91	6.506169e-06
4	0x3796943e	1.7950424e-05
5	0x392009aa	0.00015262389
6	0x34b481d2	3.362207e-07
7	0x35d09789	1.554131e-06
8	0x3865f5c3	5.4826738e-05
9	0x383b94fa	4.472302e-05
10	0x3823e25d	3.9073046e-05
11	0x38a1c6ad	7.7140845e-05
12	0x38bac1be	8.9052584e-05
13	0x3592d13c	1.0938743e-06
14	0x38bdc68a	9.049203e-05
15	0x36b73ab3	5.4606585e-06
16	0x3782af32	1.557879e-05
17	0x38fc83f5	0.00012040875
18	0x3494e3d9	2.773293e-07
19	0x3592d13c	1.0938743e-06
20	0x387572f9	5.851963e-05
21	0x385a42e4	5.2037547e-05
22	0x382cb5df	4.1177376e-05
23	0x38bb1ed9	8.922601e-05
24	0x398b8cef	0.0002661715
25	0x35442969	7.307595e-07
26	0x36153e52	2.2239005e-06
27	0x3774eb3b	1.4598302e-05
28	0x380f9f36	3.4242134e-05
29	0x391b52f8	0.0001481286
30	0x33e0df61	1.0471445e-07
31	0x35442969	7.307595e-07
32	0x32205993	9.333593e-09
33	0x36e80805	6.9150724e-06
34	0x37cb805f	2.4259263e-05
35	0x398db9b4	0.00027031975
36	0x355a9874	8.1433177e-07
37	0x342c87d8	1.6068168e-07
38	0x31f1b366	7.0344184e-09
39	0x35b2e8d0	1.3329791e-06
40	0x3605a3f6	1.9913982e-06
41	0x37cd0790	2.4441426e-05
42	0x334d4958	4.7796988e-08
43	0x342c87d8	1.6068168e-07
44	0x3661b9ba	3.363572e-06
45	0x3685b5b5	3.9848624e-06
46	0x36b8e73b	5.510546e-06
47	0x35d66881	1.5974657e-06
48	0x39b130ba	0.00033796375
49	0x377e5fc2	1.5161875e-05
50	0x39c10bf0	0.00036820723
51	0x3849d859	4.8123624e-05
52	0x38a65d04	7.932822e-05
53	0x39c65ee8	0.00037836214
54	0x367d8137	3.777515e-06
55	0x377e5fc2	1.5161875e-05
56	0x39a36620	0.00031165872
57	0x39736e56	0.00023215389
58	0x397ba8f5	0.00024000167
59	0x39befa3e	0.0003642607
60	0x1d4c30f8	2.7024491e-21
61	0x198cdef2	1.4565708e-23
62	0x16677a4f	1.8698625e-25
63	0x1b54708a	1.7572592e-22
64	0x1c05f5e2	4.4323805e-22
65	0x1e06f77e	7.145081e-21
66	0x189c9a9a	4.0481163e-24
67	0x198cdef2	1.4565708e-23
68	0x1c84a3de	8.777386e-22
69	0x1c704bb8	7.9507203e-22
70	0x1c3cb5bd	6.2438873e-22
71	0x1d548119	2.8124708e-21
72	0x3926bcfd	0.00015901397
73	0x369dff5c	4.7086924e-06
74	0x38c3f991	9.34481e-05
75	0x37a1a52c	1.926961e-05
76	0x380309d8	3.1242e-05
77	0x39967e51	0.00028704343
78	0x358cd829	1.0493724e-06
79	0x369dff5c	4.7086924e-06
80	0x38e001c6	0.00010681483
81	0x38a75ede	7.980851e-05
82	0x38a84950	8.02452e-05
83	0x392c3c99	0.00016425773
84	0x0fc6871a	1.9576347e-29
85	0x0ba581bf	6.375091e-32
86	0x0f9dfd7e	1.5579037e-29
87	0x0d0d2cd0	4.350292e-31
88	0x0de453ad	1.4071729e-30
89	0x0f11bec7	7.185794e-30
90	0x078ab321	2.0869215e-34
91	0x0ba581bf	6.375091e-32
92	0x0b5d4fed	4.262318e-32
93	0x0a7c8d4f	1.2159936e-32
94	0x0b5a3ca1	4.2030885e-32
95	0x0fc69c0b	1.9584413e-29
96	0x392d9c49	0.00016556786
97	0x3789bb4b	1.6418888e-05
98	0x3a8cc031	0.001073843
99	0x38ab4676	8.16704e-05
100	0x394e8b8f	0.0001969768
101	0x3ac78394	0.0015221708
102	0x36c02c91	5.727234e-06
103	0x3789bb4b	1.6418888e-05
104	0x3a97cdba	0.0011581697
105	0x3a820ba6	0.0009921684
106	0x3a97ea33	0.0011590183
107	0x39465e98	0.0001891799
108	0x399cdbba	0.00029918348
109	0x370db64b	8.446698e-06
110	0x39fa3fb4	0.00047731178
111	0x37f172f2	2.8782964e-05
112	0x388a6e67	6.600917e-05
113	0x3a0aef6c	0.0005299959
114	0x345b362c	2.0415672e-07
115	0x370db64b	8.446698e-06
116	0x37ceece3	2.4667423e-05
117	0x36b2f605	5.333454e-06
118	0x37e5c125	2.7388867e-05
119	0x399c5df1	0.0002982463
120	0x39c9866a	0.00038437854
121	0x374e87fe	1.231022e-05
122	0x39921e39	0.00027869808
123	0x3833f737	4.2907162e-05
124	0x388d542e	6.7390836e-05
125	0x3a102521	0.00054986967
126	0x3653e1e5	3.1572938e-06
127	0x374e87fe	1.231022e-05
128	0x39a96c31	0.000323148
129	0x39804848	0.00024467916
130	0x39873a99	0.00025792865
131	0x39d32a65	0.00040276643
132	0x394eea7b	0.00019733042
133	0x35f6df32	1.8393387e-06
134	0x398e2acb	0.00027116234
135	0x370db9fd	8.447559e-06
136	0x3802581a	3.1076466e-05
137	0x39617f36	0.00021505062
138	0x350284c4	4.8621973e-07
139	0x35f6df32	1.8393387e-06
140	0x3904afbc	0.00012653967
141	0x38f5d67f	0.000117224634
142	0x38af7ea7	8.368241e-05
143	0x394e8cfe	0.00019698215
144	0x393edffc	0.00018203253
145	0x35e981b9	1.7397607e-06
146	0x3995506b	0.0002847941
147	0x36d178a1	6.2427284e-06
148	0x37ec8c16	2.8198625e-05
149	0x38f243e9	0.000115521085
150	0x35262164	6.188841e-07
151	0x35e981b9	1.7397607e-06
152	0x392100dd	0.00015354478
153	0x391ca79a	0.00014939756
154	0x38d7b26a	0.00010285231
155	0x394095bb	0.00018366326
156	0x392614f7	0.00015838804
157	0x35d9ebce	1.6236388e-06
158	0x399d26e1	0.0002997434
159	0x36b6f6b3	5.4527422e-06
160	0x37e63b2d	2.7445692e-05
161	0x38d1fda7	0.00010013143
162	0x35272928	6.227224e-07
163	0x35d9ebce	1.6236388e-06
164	0x3935d51c	0.00017340895
165	0x3932a33c	0.00017036212
166	0x390999a9	0.00013122581
167	0x3927447c	0.00015951874
168	0x38b06e68	8.412899e-05
169	0x359e27a1	1.1783451e-06
170	0x391ca1f8	0.00014937657
171	0x368f4674	4.269934e-06
172	0x375eae33	1.327279e-05
173	0x38b3c7b5	8.5725835e-05
174	0x34e03669	4.176284e-07
175	0x359e27a1	1.1783451e-06
176	0x38dbbfc9	0.000104784565
177	0x38d38035	0.000100851445
178	0x38bc037f	8.96519e-05
179	0x38b2f557	8.5333995e-05
180	0x37b21d4a	2.1232892e-05
181	0x3604550b	1.9719034e-06
182	0x388ae320	6.622658e-05
183	0x36b0638f	5.256799e-06
184	0x371c4527	9.314425e-06
185	0x38782d1b	5.9169815e-05
186	0x353c391b	7.0118557e-07
187	0x3604550b	1.9719034e-06
188	0x38b5fe8d	8.678166e-05
189	0x3864dca5	5.4564927e-05
190	0x38a0c555	7.6661505e-05
191	0x3806cefe	3.2140866e-05
192	0x39237543	0.00015588575
193	0x35d8b987	1.614725e-06
194	0x3995af9d	0.00028550337
195	0x36d2de9f	6.284404e-06
196	0x37e32f3b	2.7082502e-05
197	0x390687bd	0.00012829802
198	0x352e3922	6.490319e-07
199	0x35d8b987	1.614725e-06
200	0x39409e14	0.00018369436
201	0x393aefc6	0.00017827665
202	0x390bfa4b	0.00013349314
203	0x39240bfc	0.00015644723
204	0x00000000	0.0
205	0x00000000	0.0
206	0x00000000	0.0
207	0x00000000	0.0
208	0x00000000	0.0
209	0x00000000	0.0
210	0x00000000	0.0
211	0x00000000	0.0
212	0x00000000	0.0
213	0x00000000	0.0
214	0x00000000	0.0
215	0x00000000	0.0
216	0x39f91faf	0.00047516587
217	0x3692ed33	4.3787527e-06
218	0x3a2e7f48	0.00066565396
219	0x3786bf56	1.6063143e-05
220	0x388fd6f1	6.858807e-05
221	0x39ba0736	0.00035482057
222	0x359d5a49	1.1723688e-06
223	0x3692ed33	4.3787527e-06
224	0x397843c6	0.0002367637
225	0x3969ff65	0.00022315753
226	0x39033286	0.00012511955
227	0x39fa8ac7	0.00047787113
228	0x39cce3be	0.00039079593
229	0x3722c681	9.70217e-06
230	0x33ef0208	1.1129674e-07
231	0x3863bfec	5.429976e-05
232	0x38ca3a82	9.6430085e-05
233	0x3a3a3a2a	0.0007104004
234	0x36175769	2.2551633e-06
235	0x3722c681	9.70217e-06
236	0x398b9eb4	0.0002663039
237	0x3950e0dc	0.00019920192
238	0x396adf60	0.00022399193
239	0x39d71c56	0.00041029108
240	0x39296c95	0.00016157546
241	0x36c4348d	5.847373e-06
242	0x396e67e8	0.00022736157
243	0x37984ff0	1.8157036e-05
244	0x38116f9e	3.4674646e-05
245	0x3931bce3	0.00016950401
246	0x35dc6a26	1.6422171e-06
247	0x36c4348d	5.847373e-06
248	0x394a677b	0.0001930277
249	0x39288a6f	0.00016073299
250	0x39157aad	0.00014255448
251	0x39345506	0.00017197811
252	0x3b828a32	0.0039837593
253	0x38295b17	4.0377574e-05
254	0x3b73f7dc	0.0037226593
255	0x39613580	0.00021477602

exp_avg f4 [64]
0	0x3ab7e90a	0.0014031243
1	0xbb013216	-0.0019713691
2	0x3bb18f09	0.0054186624
3	0xba708f57	-0.0009176633
4	0xba29d7a0	-0.0006478969
5	0x00000004	6e-45
6	0x3a80c736	0.0009824994
7	0x00000004	6e-45
8	0xbb9a5ae7	-0.0047105434
9	0xbaca312b	-0.001542603
10	0xbbd456b1	-0.006480061
11	0xbafe0eec	-0.0019383109
12	0xbb272b95	-0.0025508155
13	0xbb6157d1	-0.0034384618
14	0xbbad664c	-0.0052917358
15	0x3a248b1b	0.0006276832
16	0xbb503142	-0.0031767641
17	0x00000000	0.0
18	0xbbcb5807	-0.006205562
19	0xbb88ce85	-0.0041750097
20	0xbaa6fb96	-0.0012739773
21	0x3cb49cf2	0.022047494
22	0xbb955450	-0.00455717
23	0x3b0fbcc3	0.002193258
24	0xbbc04da7	-0.005868632
25	0xba0b903c	-0.0005323922
26	0xbb74b556	-0.003733953
27	0x00000004	6e-45
28	0x3a49c674	0.00076971133
29	0xbb6a4f83	-0.003575296
30	0xbb4b14d5	-0.0030987759
31	0x3968590f	0.00022158421
32	0xbb08ec9d	-0.0020892986
33	0x3ae904c9	0.0017777915
34	0xbb641d91	-0.0034807662
35	0xbc316e3b	-0.010829504
36	0xbb9a60c8	-0.0047112443
37	0x00000004	6e-45
38	0xbb6c8511	-0.0036090056
39	0x3b451645	0.0030073088
40	0x3a39db51	0.00070898706
41	0x00000000	0.0
42	0x3b897cc4	0.0041957814
43	0x3c34a330	0.011025235
44	0x3b3c962a	0.0028776028
45	0xbae4f8c8	-0.0017469162
46	0xbac79caf	-0.001522919
47	0xbb5ab08a	-0.0033369386
48	0xbb2d2a56	-0.002642294
49	0xbaf7b33b	-0.0018898019
50	0xbb1821c4	-0.0023213485
51	0x3bb40a49	0.00549439
52	0x3bb51c37	0.005527045
53	0xb9b3da31	-0.00034304106
54	0xbbbc6e07	-0.005750421
55	0xbb5f2f63	-0.0034055344
56	0x00000000	0.0
57	0xb88604c5	-6.390506e-05
58	0x3c453bce	0.012038184
59	0x3aa5adb4	0.0012640269
60	0xbbac2719	-0.0052536842
61	0x00000004	6e-45
62	0xbba627c2	-0.0050706575
63	0x3aa890a9	0.0012860495
