models/checkpoint_280000.pt (torch, 125871 bytes, 33 tensors)

shared.0.weight f4 [64, 12]
-0.13260865 -0.03846751 -0.02583717 -0.13092229 -0.0031951126 -0.0632883 -0.116817616 0.108008556
-0.015437106 0.08616973 -0.21501991 -0.032123912 -0.051100984 -0.28207126 -0.12949893 0.33188066
0.18869603 -0.3771958 -0.2714686 -0.21409522 -0.08143523 0.14652199 0.045937803 0.04249336
-0.20640989 0.33881068 -0.13343677 0.8880553 -0.078099184 -0.008791942 0.23038669 0.08820203
-0.11612679 0.03577224 0.06518704 0.07897286 -0.07911116 -0.13591345 -0.06542435 -0.11247284
-0.25387594 -0.06667411 -0.28014314 -0.042427048 -0.15077873 -0.025793392 0.16063389 -0.057156168
-0.049690634 0.37599698 -0.08399082 -0.008225942 -0.29139447 -0.4346234 0.08853316 0.14708109
0.007780293 0.009825291 0.02737156 0.017585577 -0.029386207 0.38374528 -0.11549801 0.9124375
0.032073244 0.026040263 0.35410908 0.15604377 0.022851242 -0.20428982 0.1204905 0.19559887
0.13369922 -0.28147048 0.040838294 0.5533722 -0.115412995 0.044024717 0.13011229 0.08763968
0.12363786 -0.18364772 -0.07921034 -0.35237655 -0.28846294 -0.17154574 -0.3357616 0.24384248
-0.2444623 -0.005934721 -0.028238013 -0.13674115 0.16086029 0.06462234 0.13493632 -0.2724672
0.03087057 0.05207517 0.23063575 -0.3725883 -0.36501727 0.028759578 -0.0039950884 0.0020915214
0.0038947766 -0.08765515 0.030089729 0.20890914 -0.22185217 0.09637805 0.03706639 -0.0035751632
-0.045475286 0.08814197 -0.47468135 -0.10231062 -0.46035013 0.071635306 -0.0968196 -0.1633174
-0.48849317 0.15761213 -0.01581321 -0.082123734 -0.1697841 0.048786394 0.15138665 0.05719807
0.035005074 -0.03528464 -0.008278953 -0.15294346 -0.11132027 0.09322621 -0.049884774 -0.1793326
-0.35773936 0.17312597 -0.033426832 0.2898627 -0.019122947 -0.13707693 -0.030108517 -0.039126765
-0.23993166 -0.3400497 -0.007876644 -0.0013013274 -0.22201346 0.027323391 -0.6503889 -0.48319674
-0.013495058 0.14185442 -0.024808925 -0.4258759 0.16814373 -0.10051708 -0.037961796 -0.6763702
0.2247039 0.27906418 -0.4338671 -0.10772291 -0.01779932 0.18571837 0.0526325 0.051129624
0.18001634 -1.0207213 0.16766638 -0.5837134 0.2574518 -0.22888054 -0.42065626 -0.8120984
0.057153773 0.1551654 -0.05047518 -0.1278928 -0.061153572 0.08225367 -0.07194454 0.4838094
0.11801709 0.01395363 0.2433223 0.35792553 -0.09574607 -0.09047927 0.11145583 0.14456375
0.11646131 0.19557674 0.004990895 0.30152443 -0.44600648 -0.05215922 0.19493341 0.19756763
0.04767541 -0.034014322 0.028884128 0.013325796 0.21672517 0.048168622 -0.40413022 0.14786121
-0.34599903 0.25038645 0.22063112 0.16536473 0.03699747 0.12959233 0.073342286 -0.008068397
-0.17581369 0.21671906 0.03085057 0.16487162 -0.25856894 0.0792122 0.14328216 0.09441673
0.026620068 0.0319683 -0.30600646 -0.120654054 -0.25622958 -0.15031697 0.017387502 -0.0639266
-0.453972 0.10270641 -0.18259087 -0.27892286 -0.058114048 -0.022783482 0.20553404 0.035487764
-0.049008623 -0.02117849 0.04593434 -0.06952185 -0.44861016 -0.091958314 -0.5997481 0.10756333
0.02566912 -0.46350983 0.053882778 -0.030252492 5.777514e-05 0.07281636 0.021858588 -1.0746359
00000000: 90ca 07be 1c90 1dbd 79a8 d3bc 7e10 06be
00000010: 1865 51bb 4c9d 81bd 133e efbd 9733 dd3d
00000020: eaeb 7cbc c179 b03d 2e2e 5cbe 5d94 03bd
00000030: 444f 51bd a56b 90be 5e9b 04be 43ec a93e
00000040: 8839 413e cf1f c1be effd 8abe c73b 5bbe
00000050: 84c7 a6bd dc09 163e 4729 3c3d 840d 2e3d
00000060: 1d5d 53be 9878 ad3e a6a3 08be 9857 633f
00000070: 77f2 9fbd 140c 10bc 7dea 6b3e 44a3 b43d
00000080: e2d3 edbd ea85 123d c880 853d 86bc a13d
00000090: 0805 a2bd e52c 0bbe 34fd 85bd 2958 e6bd
000000a0: 07fc 81be 708c 88bd ec6e 8fbe fcc7 2dbd
000000b0: bd65 1abe aa4c d3bc 367d 243e 961c 6abd
000000c0: 6888 4bbd ad82 c03e 6103 acbd 1ac6 06bc
000000d0: a831 95be f586 debe e050 b53d 6d9c 163e
000000e0: d4f1 fe3b 42fa 203c 523a e03c a10f 903c
000000f0: 58bb f0bc 437a c43e 388a ecbd 8195 693f
00000100: 3c5f 033d 6452 d53c c94d b53e f0c9 1f3e
00000110: 8732 bb3c 5a31 51be b9c3 f63d 124b 483e
00000120: 73e8 083e e61c 90be 0e46 273d cda9 0d3f
00000130: a65d ecbd 4353 343d 283c 053e 6f7c b33d
00000140: d935 fd3d 260e 3cbe 0839 a2bd b36a b4be
00000150: 6ab1 93be b0a9 2fbe f2e8 abbe d8b1 793e
00000160: 5354 7abe 0c78 c2bb 6853 e7bc df05 0cbe
00000170: 8fb8 243e b858 843d bf2c 0a3e d280 8bbe
00000180: 47e4 fc3c c64c 553d c72b 6c3e e5c3 bebe
00000190: 8be3 babe 3599 eb3c 3be9 82bb e811 093b
000001a0: 823f 7f3b 8b84 b3bd bc7e f63c 47ec 553e
000001b0: 372d 63be db61 c53d edd2 173d 494d 6abb
000001c0: 4b44 3abd c783 b43d 6f09 f3be 3b88 d1bd
000001d0: 03b3 ebbe 88b5 923d 5b49 c6bd ad3c 27be
000001e0: c71b fabe 1365 213e b48a 81bc 7d30 a8bd
000001f0: e2db 2dbe 3ed4 473d 1a05 1b3e 8648 6a3d
00000200: 7b61 0f3d a086 10bd 72a4 07bc 369d 1cbe
00000210: e2fb e3bd 62ed be3d fa53 4cbd f7a2 37be
00000220: 9d29 b7be ef47 313e 93ea 08bd e268 943e
00000230: baa7 9cbc e55d 0cbe 23a6 f6bc 6343 20bd
00000240: a5b0 75be ff1a aebe 0a0d 01bc 4d91 aaba
00000250: 7f57 63be 4ed5 df3c e37f 26bf 9065 f7be
00000260: 601a 5dbc 4942 113e 163c cbbc 680c dabe
00000270: df2d 2c3e e6db cdbd d47d 1bbd 9926 2dbf
00000280: c718 663e 80e1 8e3e d423 debe d49d dcbd
00000290: e1cf 91bc f52c 3e3e 2d95 573d 4c6d 513d
000002a0: 3456 383e ffa6 82bf bcb0 2b3e 3e6e 15bf
000002b0: b9d0 833e a95f 6abe 4260 d7be aee5 4fbf
000002c0: 131a 6a3d aee3 1e3e 10bf 4ebd 55f6 02be
000002d0: 2b7c 7abd 9d74 a83d a957 93bd deb5 f73e
000002e0: f2b2 f13d c49d 643c 7b29 793e 0442 b73e
000002f0: 8416 c4bd 324d b9bd f442 e43d 8508 143e
00000300: 4483 ee3d 4545 483e a98a a33b 6961 9a3e
00000310: f65a e4be e8a4 55bd a09c 473e 2b4f 4a3e
00000320: 4a47 433d 9a52 0bbd 689e ec3c 7154 5a3c
00000330: 34ed 5d3e 764c 453d 28ea cebe ee68 173e
00000340: c926 b1be a732 803e 20ed 613e 5f55 293e
00000350: a98a 173d dab3 043e 7b34 963d 4f31 04bc
00000360: 8108 34be 9aeb 5d3e 56ba fc3c 1bd4 283e
00000370: 2663 84be 023a a23d 8fb8 123e 8f5d c13d
00000380: 5412 da3c 31f1 023d e1ac 9cbe 7919 f7bd
00000390: 8630 83be b1ec 19be 3c70 8e3c f3eb 82bd
000003a0: 056f e8be bd57 d23d 1af9 3abe face 8ebe
000003b0: ff08 6ebd 6da4 babc 8477 523e 9e5b 113d
000003c0: 44bd 48bd 837e adbc a625 3c3d 7961 8ebd
000003d0: 3bb0 e5be a454 bcbd 1789 19bf 2a4a dc3d
000003e0: 0c48 d23c 2951 edbe 30b4 5c3d 13d4 f7bc
000003f0: 9653 7238 be20 953d c810 b33c ab8d 89bf

shared.0.bias f4 [64]
-0.016023435 0.24865416 0.2466383 0.2560541 0.28731906 0.2004769 0.06443978 0.0161176
0.26132518 0.3524837 -0.0150467595 0.20437306 0.37039015 -0.14732945 0.14480385 0.34908587
0.3185748 0.3317975 0.2114859 0.22900608 0.12399382 0.28411257 0.24013412 0.12104779
0.23455696 0.18850037 0.087584876 0.083396636 0.118608855 0.3328043 0.093248464 0.07517211
0.20118505 0.24553408 0.31161597 0.32213128 0.069554664 0.3101284 0.121905856 0.28053054
0.2796723 0.0653412 0.1365853 0.059615046 0.1568595 0.3782713 -0.07323581 0.23722865
0.32460114 0.27106214 0.17949077 0.011012598 0.27145487 0.35872465 0.090825595 0.11411434
0.124985896 -0.04111337 0.33351308 -0.11657684 0.27507624 0.16582368 0.24365239 0.1292809
00000000: 9443 83bc 329f 7e3e c08e 7c3e 8619 833e
00000010: 7c1b 933e d149 4d3e 01f9 833d 0f09 843c
00000020: 6acc 853e be78 b43e af86 76bc 2c47 513e
00000030: c7a3 bd3e 88dd 16be 7647 143e 62bb b23e
00000040: 3c1c a33e 5de1 a93e c38f 583e 9280 6a3e
00000050: 79f0 fd3d 3477 913e b8e5 753e e7e7 f73d
00000060: b32f 703e 3e06 413e b35f b33d dbcb aa3d
00000070: 33e9 f23d 5365 aa3e 0df9 be3d d6f3 993d
00000080: 7403 4e3e 496d 7b3e 218c 9f3e 64ee a43e
00000090: ad72 8e3d 26c9 9e3e c7a9 f93d b3a1 8f3e
000000a0: 3531 8f3e 9bd1 853d 04dd 0b3e e82e 743d
000000b0: c79f 203e c7ac c13e a8fc 95bd 11ec 723e
000000c0: 1f32 a63e a8c8 8a3e 6ecc 373e 2f6e 343c
000000d0: 22fc 8a3e c2aa b73e c502 ba3d c7b4 e93d
000000e0: 9bf8 ff3d 7e66 28bd 3ac2 aa3e d7bf eebd
000000f0: cbd6 8c3e afcd 293e 0380 793e 3662 043e

shared.2.weight f4 [64, 64]
-0.07699821 0.36566576 -0.04000019 0.0063682925 -0.47810763 0.15132499 0.23607725 0.2825737
0.028300283 0.14671563 -0.373829 0.09376319 -0.31680858 -0.07818997 0.23885545 0.11272426
0.19297315 0.19183826 -0.013334025 -0.031365953 0.25771952 -0.55873346 0.27799127 -0.02837969
-0.043861676 0.08832621 0.048445698 -0.06500314 -0.2250027 -0.18288122 -0.17453165 -0.06186879
-0.015325458 -0.10808283 0.30582446 0.15946361 -0.0039237593 0.25245535 -0.04939889 -0.25221273
0.2593415 0.3394962 -0.7951435 -0.12507309 0.031766314 0.4266716 0.0005260375 0.3226256
0.2382717 0.33551237 0.049859837 0.1029692 0.10241069 0.35524625 0.66502243 -0.016728176
0.08316648 0.20610595 0.23572852 -0.048785616 0.34220868 0.08942716 0.028566465 0.051495478
0.11704783 0.3394841 0.30043936 0.18392353 -0.47628266 0.12450092 -0.003933386 0.30792153
-0.12352983 0.110966876 -0.038258515 0.11610608 0.018199774 -0.15128148 0.31578544 0.2197806
0.07993579 0.5235406 0.122123346 0.0351077 0.08350881 -0.53147143 0.08335675 0.13823314
0.09915902 0.20167053 -0.12879238 0.035932492 -0.09580483 -0.11473569 -0.08550282 0.13315536
0.14279579 0.032689437 -0.009993678 -0.019094178 -0.06447436 0.32957238 -0.26663318 -0.28050664
0.10553438 0.18366097 -0.33568573 -0.2186234 -0.16980195 0.23516014 -0.103478536 0.23156321
0.008731131 0.16829588 0.032496564 0.13576145 0.04127435 0.43153468 0.6790544 -0.04704261
0.1157717 -0.11366212 -0.04849297 -0.23408791 -0.074749336 -0.038844276 0.21078224 0.103109814
-0.0032366992 0.47345948 0.14119513 -0.041016437 -0.82018507 0.042113338 0.22765706 0.2896034
0.16900504 0.30678493 -0.15835428 0.07342394 -0.18783812 -0.10673129 0.21524784 0.24468207
0.20464897 0.5014212 -0.121587805 -0.045104943 0.3968249 -0.5235252 0.27271426 0.14015462
0.21183394 0.11017872 -0.13069837 0.23181821 0.0638644 -0.06345125 -0.2220729 0.1510767
0.3135753 0.28854606 0.10989706 0.23175026 -0.015982188 0.35123837 -0.026571961 -0.058669325
0.077675544 0.35125688 -0.8248851 -0.382696 0.0013278328 0.45036104 0.14228477 0.34186968
0.058533844 0.08291466 -0.13812007 0.0032380268 0.41560754 0.18133128 0.9570222 0.22199221
-0.038368102 -0.20723923 0.2061301 -0.26146573 0.31279936 -0.17752624 0.253218 -0.051983338
0.04635682 -0.2856963 -0.7773343 -0.20281583 0.16831627 -0.33946475 -0.63549966 -0.32671526
0.1928721 -0.5649324 0.037777945 -0.41705993 0.6034264 0.2808989 0.6910231 -0.4063947
-0.10153278 -0.3523776 -0.4604106 -0.05746266 0.27857888 0.42420232 -0.40307572 -0.14994703
0.24597457 -0.45575157 -0.107701786 -0.81386864 0.8054037 0.4238557 0.6660092 -0.50899714
0.33864734 -0.24217433 -0.53481096 -0.7310375 -0.52313316 -0.8315756 0.5156188 0.80302334
0.37441677 -1.1245681 1.3338783 0.74349374 -0.5646141 -1.1332573 -0.49957094 0.4691494
-0.30989626 0.05095178 0.23242036 -0.15346973 0.06210248 -0.13247873 -0.98510414 -0.41205046
-0.23214297 0.15692817 -0.07088326 0.2226797 -0.07914074 0.667938 -0.09531069 0.48574328
00000000: 3db1 9dbd 8b38 bb3e 3dd7 23bd 1cad d03b
00000010: 86ca f4be f0f4 1a3e 3cbe 713e 80ad 903e
00000020: ffd5 e73c 9f3c 163e 8466 bfbe ea06 c03d
00000030: bc34 a2be 1022 a0bd 8696 743e fadb e63d
00000040: c19a 453e 4071 443e f476 5abc 9679 00bd
00000050: d0f3 833e 2809 0fbf df54 8e3e 867c e8bc
00000060: 4da8 33bd 5fe4 b43d ff6e 463d 5e20 85bd
00000070: 1c67 66be 3745 3bbe 6db8 32be 216a 7dbd
00000080: a117 7bbc 885a ddbd 0695 9c3e 6e4a 233e
00000090: e192 80bb d441 813e 7e56 4abd 0722 81be
000000a0: 69c8 843e 72d2 ad3e 868e 4bbf 2913 00be
000000b0: 651d 023d b374 da3e c7e5 093a 2f2f a53e
000000c0: 7ffd 733e 47c8 ab3e d439 4c3d 84e1 d23d
000000d0: b2bc d13d d6e2 b53e e93e 2a3f 8709 89bc
000000e0: 3053 aa3d 700d 533e d162 713e 6dd3 47bd
000000f0: fa35 af3e 9625 b73d 3804 ea3c ecec 523d
00000100: c6b6 ef3d dcd0 ad3e 30d3 993e 7356 3c3e
00000110: 52db f3be 57fa fe3d a2e3 80bb e4a7 9d3e
00000120: 35fd fcbd 9a42 e33d f6b4 1cbd 06c9 ed3d
00000130: b117 953c 88e9 1abe a1ae a13e 2a0e 613e
00000140: 60b5 a33d c206 063f ce1b fa3d 17cd 0f3d
00000150: ab06 ab3d 830e 08bf f2b6 aa3d fd8c 0d3e
00000160: e213 cb3d b882 4e3e 26e2 03be f32d 133d
00000170: 5335 c4bd 8cfa eabd 1a1c afbd e159 083e
00000180: 0f39 123e 5ce5 053d 86bc 23bc 656b 9cbc
00000190: 220b 84bd b6bd a83e 2584 88be 919e 8fbe
000001a0: 6922 d83d 9f11 3c3e 00df abbe d0de 5fbe
000001b0: 90e0 2dbe d2cd 703e 8eec d3bd e81e 6d3e
000001c0: 050d 0f3c c155 2c3e 1e1b 053d 0d05 0b3e
000001d0: 4b0f 293d 1df2 dc3e 82d6 2d3f c0af 40bd
000001e0: b719 ed3d b0c7 e8bd 91a0 46bd beb4 6fbe
000001f0: 2e16 99bd 2d1b 1fbd 4dd7 573e 3d2b d33d
00000200: cd1e 54bb 4869 f23e 7595 103e da00 28bd
00000210: a6f7 51bf 097f 2c3d ef1e 693e e646 943e
00000220: a80f 2d3e ea12 9d3e a027 22be 4a5f 963d
00000230: a358 40be ef95 dabd ee69 5c3e f08d 7a3e
00000240: 808f 513e 245d 003f 0703 f9bd f6bf 38bd
00000250: a22c cb3e bf05 06bf 34a1 8b3e b184 0f3e
00000260: ffea 583e 61a5 e13d cbd5 05be c161 6d3e
00000270: 57cb 823d bbf2 81bd 1467 63be dab3 1a3e
00000280: f18c a03e 4fbc 933e b611 e13d f14f 6d3e
00000290: 14ed 82bc 84d5 b33e 71ad d9bc 3f4f 70bd
000002a0: 5b14 9f3d f1d7 b33e ab2b 53bf bbf0 c3be
000002b0: ad0a ae3a b995 e63e 19b3 113e 8b09 af3e
000002c0: 2fc1 6f3d 29cf a93d 596f 0dbe 1335 543b
000002d0: 83ca d43e e8ae 393e 68ff 743f ed51 633e
000002e0: df27 1dbd 8536 54be c513 533e d6de 85be
000002f0: 3d27 a03e 70c9 35be caa5 813e 7bec 54bd
00000300: a6e0 3d3d c946 92be 61ff 46bf f4ae 4fbe
00000310: 1a5b 2c3e 53ce adbe 1bb0 22bf 3947 a7be
00000320: 4480 453e 699f 10bf 0cbd 1a3d e188 d5be
00000330: 277a 1a3f fbd1 8f3e e4e6 303f f712 d0be
00000340: 6bf0 cfbd d66a b4be f0ba ebbe f75d 6bbd
00000350: e4a1 8e3e 0c31 d93e f15f cebe b78b 19be
00000360: c2e0 7b3e 4558 e9be c192 dcbd b259 50bf
00000370: f02e 4e3f 9d03 d93e 947f 2a3f a34d 02bf
00000380: 2f63 ad3e 8cfc 77be 5fe9 08bf 4625 3bbf
00000390: 0eec 05bf 23e2 54bf 98ff 033f f092 4d3f
000003a0: 8eb3 bf3e d9f1 8fbf 86bc aa3f 9b55 3e3f
000003b0: 8d8a 10bf 930e 91bf c3c7 ffbe 5a34 f03e
000003c0: b9aa 9ebe d0b2 503d 9aff 6d3e 2b27 1dbe
000003d0: 2c5f 7e3d 81a8 07be c92f 7cbf 47f8 d2be
000003e0: e3b6 6dbe c7b1 203e 3e2b 91bd 2606 643e
000003f0: 8a14 a2bd fcfd 2a3f 4032 c3bd 58b3 f83e

shared.2.bias f4 [64]
0.27600324 0.30080855 0.3246803 -0.038160034 -0.025450774 0.27618843 -0.041210275 0.24075755
-0.027033474 0.31323922 0.0 0.10668559 0.30519336 0.3069591 0.24807441 -0.0051125037
0.25432056 0.072382286 0.2577062 0.2272837 0.30844644 0.12659928 -0.017220583 0.06370972
0.3037172 0.27831537 0.31284246 0.26965463 0.2842674 0.14291531 0.29233494 0.30050597
0.21538171 -0.018580412 0.24795109 0.2496931 0.3260661 -0.009486932 0.2656055 0.28936395
0.054444525 -0.027912725 0.08948052 0.26006567 -0.040680602 0.32507497 -0.0031896345 0.09379015
0.26594377 -0.018403083 0.19334535 0.38472646 0.19953795 -0.035550088 0.2405041 0.24993755
0.1496639 -0.17694947 0.04846441 -0.022028793 -0.26513 0.2829404 0.3706108 0.3687397
00000000: 4c50 8d3e 9403 9a3e 7f3c a63e b24d 1cbd
00000010: 247e d0bc 9268 8d3e 1bcc 28bd 2689 763e
00000020: 4e75 ddbc e460 a03e 0000 0000 fa7d da3d
00000030: 4e42 9c3e be29 9d3e 3807 7e3e ca86 a7bb
00000040: 4e36 823e 2a3d 943d 11f2 833e 0fbd 683e
00000050: b1ec 9d3e 3ea3 013e 2e12 8dbc 3e7a 823d
00000060: d280 9b3e 5a7f 8e3e e32c a03e 2c10 8a3e
00000070: 7f8b 913e 6458 123e edac 953e ebdb 993e
00000080: 068d 5c3e f335 98bc e4e6 7d3e 8caf 7f3e
00000090: 23f2 a63e 146f 1bbc 72fd 873e 8327 943e
000000a0: 3901 5f3d 3aa9 e4bc 9041 b73d 5427 853e
000000b0: b4a0 26bd 3a70 a63e 3009 51bb 0d15 c03d
000000c0: c829 883e 10c2 96bc 53fc 453e defa c43e
000000d0: ad53 4c3e f89c 11bd b546 763e a1ef 7f3e
000000e0: 7e41 193e 3e32 35be 9e82 463d ba75 b4bc
000000f0: 1fbf 87be 90dd 903e b3c0 bd3e 73cb bc3e

actor.0.weight f4 [32, 64]
0.01364039 0.044451285 0.13795267 0.19118 -0.099586904 -0.03783743 -0.02364403 0.21505436
0.06931606 0.24384022 -0.1770274 -0.44403458 -0.005000778 -0.03773532 -0.13145852 0.1553353
-0.116696775 0.5621894 -0.08881366 -0.26340586 -0.14657843 -0.123686135 -0.002004829 0.10602203
0.16582604 -0.029955944 -0.053215526 -0.028140927 0.07519792 0.3523041 -0.17692713 0.24097504
0.22853813 -0.053556483 0.18793076 -0.13120487 0.029783957 0.055059176 -0.047710903 0.042132463
0.060610753 0.21999413 -0.11886845 0.123064235 -0.095468976 -0.11061213 -0.26745987 -0.17498252
0.26245168 -0.06662124 -0.25575978 0.13041678 -0.02416151 -0.015553147 0.09792359 -0.339968
-0.029450815 0.44652978 -0.2095765 0.07311667 0.11280588 0.00023945927 -0.3873038 -0.06273142
0.017733296 0.14133514 0.22656158 -0.24222645 0.099946715 -0.19160624 0.05688822 -0.09995168
-0.067478344 -0.11956758 0.08523175 0.19858634 -0.33192438 -0.25030708 -0.07916294 0.21763968
0.25232026 -0.25138026 0.0871545 0.12760742 -0.13492222 0.31772897 -0.13072412 -0.06774153
0.018128859 -0.3929986 0.19333217 0.10871244 -0.078540646 -0.056180302 0.043586615 -0.19309154
0.010157279 -0.034119666 -0.00018958066 0.14373085 0.021491362 0.096737266 0.08811747 0.17156494
-0.115097806 0.036713496 -0.011649047 0.08458038 0.06627182 0.2838957 -0.23871233 0.1325506
0.09181757 0.16151261 0.12390133 0.12485836 0.40049887 -0.01577532 0.0070226453 0.397304
0.17091864 -1.0574987 0.08364493 -0.07475372 -0.50744903 -0.13590387 0.0761844 0.14081
0.029118419 -0.037946742 -0.19321327 -0.08343505 0.0836667 0.0011737252 0.023139803 0.014501752
-0.044281933 -0.0020283123 0.05044233 -0.07903844 -0.03274028 -0.2192244 0.22831254 -0.017985465
0.1537962 -0.060343552 0.015133922 0.031880934 -0.1785043 -0.02713582 0.123025924 -0.050746795
0.1734981 0.02502454 -0.16928613 0.042550053 0.29289857 -0.2502691 0.012391091 -0.20708156
-0.07760542 -0.14990982 -0.058686905 -0.24819763 0.15976477 0.25204235 -0.13181113 -0.08688188
-0.013067983 0.06868939 0.017401287 -0.23153675 0.25043964 -0.044384103 0.11908322 0.012942506
0.103026435 -0.14616229 -0.04950667 0.0031778433 -0.12073478 -0.008507756 -0.055508383 0.08314509
0.0912178 0.20729178 -0.092628844 0.1450761 0.011922724 -0.09065993 0.09701254 0.08099897
0.24297877 0.19821745 0.06546682 -0.13917615 0.027676739 0.04584653 0.22048278 -0.22334489
0.028007802 0.05666716 -0.035317246 -0.10091528 -0.047545847 -0.1693305 -0.022939565 0.053301837
0.010464566 -0.042166293 0.12031075 0.10769951 -0.072249174 -0.13514556 -0.23058718 -0.1949408
-0.11708709 0.15640779 -0.12881522 0.1426591 0.19487283 0.14981385 -0.061813068 -0.015446431
0.050549217 0.18994026 0.13471614 -0.10248131 0.035715993 -0.1371151 -0.1653846 -0.16248918
-0.09727914 -0.06367851 -0.12403376 -0.001833888 0.08173556 -0.11749748 0.2323887 0.1860485
-0.054951373 0.106880754 -0.21048284 -0.2451338 0.001065014 -0.0112128705 -0.1007861 -0.094185084
-0.25147498 -0.07615187 0.17311999 -0.025975833 -0.0409133 -0.067795984 0.0011541065 -0.14818795
00000000: f17b 5f3c 8d12 363d 7743 0d3e b1c4 433e
00000010: 38f4 cbbd 6cfb 1abd 20b1 c1bc 3637 5c3e
00000020: 94f5 8d3d 40b1 793e ac46 35be 8058 e3be
00000030: 91dd a3bb 5a90 1abd 109d 06be 3810 1f3e
00000040: b8fe eebd a5eb 0f3f f0e3 b5bd 22dd 86be
00000050: a818 16be 284f fdbd 7363 03bb 1422 d93d
00000060: 4dce 293e 2b66 f5bc 86f8 59bd cd87 e6bc
00000070: 5e01 9a3d 3461 b43e 632c 35be 29c2 763e
00000080: e605 6a3e 0b5e 5bbd ec70 403e 925a 06be
00000090: 7cfd f33c bb85 613d 826c 43bd 1793 2c3d
000000a0: fb42 783d 2446 613e 4d71 f3bd 1a09 fc3d
000000b0: 3d85 c3bd 9d88 e2bd 80f0 88be 9e2e 33be
000000c0: 1160 863e b770 88bd f2f2 82be fa8b 053e
000000d0: 5cee c5bc a0d2 7ebc 2a8c c83d 4910 aebe
000000e0: d642 f1bc 8d9f e43e 399b 56be 31be 953d
000000f0: c506 e73d 5c17 7b39 af4c c6be 5579 80bd
00000100: 6b45 913c 29ba 103e c2ff 673e 360a 78be
00000110: ddb0 cc3d 6d34 44be 9f03 693d 77b3 ccbd
00000120: 1632 8abd d9df f4bd fc8d ae3d 385a 4b3e
00000130: fef1 a9be 4028 80be 2e20 a2bd f0dc 5e3e
00000140: 1f30 813e eab4 80be 0f7e b23d 85ab 023e
00000150: 0d29 0abe 5fad a23e 8bdc 05be 12bc 8abd
00000160: f982 943c 1d37 c9be def8 453e a1a4 de3d
00000170: ebd9 a0bd 511d 66bd e187 323d cab9 45be
00000180: b76a 263c 10c1 0bbd 2cca 46b9 2e2e 133e
00000190: a70e b03c 301e c63d ef76 b43d b8ae 2f3e
000001a0: 66b8 ebbd e460 163d a5db 3ebc 7a38 ad3d
000001b0: 85b9 873d c75a 913e 0171 74be 58bb 073e
000001c0: da0a bc3d 9063 253e fbbf fd3d bdb5 ff3d
000001d0: 300e cd3e 3e3b 81bc 381e e63b 6e6b cb3e
000001e0: 4c05 2f3e 1e5c 87bf 084e ab3d 7a18 99bd
000001f0: 2ee8 01bf 622a 0bbe 9106 9c3d 7f30 103e
00000200: c089 ee3c 0b6e 1bbd b3d9 45be ffdf aabd
00000210: 7259 ab3d afd7 993a af8f bd3c c298 6d3c
00000220: f960 35bd 6fed 04bb 9e9c 4e3d e8de a1bd
00000230: ac1a 06bd 5c7c 60be c3ca 693e 4156 93bc
00000240: c07c 1d3e cd2a 77bd 45f4 773c 9595 023d
00000250: d5c9 36be f04b debc 04f5 fb3d dfdb 4fbd
00000260: 7ca9 313e 4400 cd3c 5859 2dbe f748 2e3d
00000270: cdf6 953e 4523 80be 0104 4b3c 300d 54be
00000280: 97ef 9ebd f681 19be ae61 70bd 8527 7ebe
00000290: 6099 233e b20b 813e 7ff9 06be 21ef b1bd
000002a0: 181b 56bc 06ad 8c3d 258d 8e3c f817 6dbe
000002b0: a039 803e 1bcc 35bd e7e1 f33d ce0c 543c
000002c0: 86ff d23d 91ab 15be 82c7 4abd 5d43 503b
000002d0: cc43 f7bd 1d64 0bbc c25c 63bd f947 aa3d
000002e0: 66d0 ba3d 4c44 543e 31b4 bdbd d48e 143e
000002f0: 8757 433c eaab b9bd 83ae c63d cae2 a53d
00000300: 6dcf 783e 84f9 4a3e 7813 863d 3184 0ebe
00000310: 54ba e23c 92c9 3b3d 3dc6 613e 86b4 64be
00000320: 9e70 e53c d31b 683d d1a8 10bd acac cebd
00000330: 6fbf 42bd f964 2dbe c1eb bbbc 0753 5a3d
00000340: 9273 2b3c 90b6 2cbd 7c65 f63d 9091 dc3d
00000350: 60f7 93bd 9963 0abe 0c1f 6cbe 909e 47be
00000360: 5bcb efbd 5d29 203e 23e8 03be 3a15 123e
00000370: be8c 473e cd68 193e b32f 7dbd 0713 7dbc
00000380: b20c 4f3d b37f 423e 07f3 093e b9e1 d1bd
00000390: ef4a 123d e767 0cbe 955a 29be 9063 26be
000003a0: 493a c7bd e169 82bd 6905 febd 125f f0ba
000003b0: f964 a73d 85a2 f0bd 4ef7 6d3e 7f83 3e3e
000003c0: b114 61bd 4ce4 da3d d088 57be 5b04 7bbe
000003d0: f197 8b3a 30b6 37bc f168 cebd 1ce4 c0bd
000003e0: 54c1 80be 83f5 9bbd 5e46 313e 45cb d4bc
000003f0: b494 27bd 9fd8 8abd 6345 973a 95be 17be

actor.0.bias f4 [32]
0.054098886 -0.017707175 -0.024906399 -0.025557803 -0.025553651 -0.013739565 -0.0069952775 -0.0030277683
-0.0022482697 -0.022838933 -0.027096307 0.0071481904 0.06117178 -0.1159235 0.05197764 -0.06061163
-0.0180079 0.057176296 -0.07165895 0.02822893 0.082756855 -0.031111216 -0.05456465 -0.076153606
-0.049626455 -0.0054416424 -0.008362844 -0.09911511 0.08524146 0.0059957313 -0.0146516105 0.07512871
00000000: cb96 5d3d a30e 91bc 8108 ccbc 995e d1bc
00000010: e455 d1bc ea1b 61bc a438 e5bb 866d 46bb
00000020: b557 13bb b718 bbbc 13f9 ddbc 5e3b ea3b
00000030: 438f 7a3d 4d69 edbd 81e6 543d e743 78bd
00000040: 4e85 93bc b131 6a3d edc1 92bd 5b40 e73c
00000050: 6d7c a93d f3dc febc 2f7f 5fbd 6cf6 9bbd
00000060: 1c45 4bbd ce4f b2bb 4f04 09bc ddfc cabd
00000070: 1393 ae3d d777 c43b 4f0d 70bc 15dd 993d

actor.2.weight f4 [2, 32]
0.05594888 -0.7520523 0.013817135 -0.059889637 -0.09157733 0.29028937 -1.2201732 0.1328356
0.17310326 -0.11073919 0.2289908 0.049000934 0.43473062 -0.24668433 0.15917425 -0.94866973
0.33284098 0.13531376 -0.6376708 0.026422538 0.6926778 0.049160596 -1.068742 -0.89045984
-0.30778915 -0.952669 -0.08604876 -0.26094612 0.36804068 -0.10317618 -0.047452156 0.3466772
-0.24743806 0.5842927 0.01581254 -0.028267378 0.2206654 -0.07469476 0.76900715 0.34029463
0.056587074 -0.17137556 0.14263864 0.14655532 -0.22192352 0.2952596 -0.6070626 1.0617685
-0.44494036 -0.41516742 0.61264193 -0.08470365 -0.5126787 -0.08357741 0.5833693 0.6520027
0.54595757 0.7848129 -0.32342547 0.048918378 -0.2505785 0.06897249 -0.26969355 -0.16709007
00000000: a72a 653d 8086 40bf 4461 623c d64e 75bd
00000010: e58c bbbd cfa0 943e a32e 9cbf 0e06 083e
00000020: fb41 313e 3acb e2bd 907c 6a3e 34b5 483d
00000030: 0395 de3e d19a 7cbe 93fe 223e 05dc 72bf
00000040: 226a aa3e b18f 0a3e 653e 23bf 1474 d83c
00000050: 5553 313f 9f5c 493d 8acc 88bf 2df5 63bf
00000060: 8a96 9dbe 1ee2 73bf 553a b0bd bb9a 85be
00000070: d46f bc3e 084e d3bd 315d 42bd ad7f b13e
00000080: 6760 7dbe 3594 153f 4d89 813c fd90 e7bc
00000090: 1cf6 613e 91f9 98bd a7dd 443f 193b ae3e
000000a0: d9c7 673d 137d 2fbe dd0f 123e 9912 163e
000000b0: eb3f 63be 442c 973e 7468 1bbf 08e8 873f
000000c0: 39cf e3be d390 d4be 1ad6 1c3f 1b79 adbd
000000d0: e93e 03bf a22a abbd b157 153f a6e9 263f
000000e0: e0c3 0b3f 80e9 483f 0698 a5be a35e 483d
000000f0: d34b 80be 7341 8d3d 4615 8abe a919 2bbe

actor.2.bias f4 [2]
0.086459 -0.08645903
00000000: 6b11 b13d 6f11 b1bd

critic.0.weight f4 [32, 64]
-0.12386894 0.050261237 0.088183776 -0.21091306 -0.088992074 0.15791465 -0.33537892 -0.06990448
-0.13328068 -0.07260963 -0.04835921 0.05633888 -0.16761412 0.2126292 0.07439479 -0.013134742
-0.104899004 -0.15678646 -0.0943257 -0.094457574 0.113764405 -0.15925136 -0.2606516 -0.017066391
-0.10895263 -0.073331796 -0.27054182 -0.059773125 0.04297232 0.049330257 -0.12148898 0.075344205
0.0015867678 0.11564461 -0.08217938 0.14463404 0.0019560421 -0.052257314 0.06602094 -0.08132347
0.14751048 0.07113294 0.04243756 -0.013684586 0.24696669 -0.13888243 0.020183023 0.05503469
0.18108518 -0.069442034 0.20597224 -0.12906395 -0.15432169 0.07812542 0.034137525 0.0985934
0.090337016 -0.06651159 0.034755528 0.027907636 0.16308264 -0.2013669 -0.07720597 -0.030964546
0.39109126 -0.008741221 0.3122746 -2.5602276 -0.05936653 0.22475654 -0.046049427 0.09557906
-0.119121075 0.30167013 -0.17484897 0.27891868 0.15708432 0.11401385 0.07170838 0.059676763
0.12284734 0.08888181 0.1292856 0.10261798 0.109343834 0.12333446 0.19960093 -1.2659049
0.16058525 0.37350065 0.115675874 -0.02549459 0.16575144 0.10341212 0.26892558 0.11370303
0.29210556 0.048026066 0.011617238 0.121521644 0.050283387 -2.3971786 0.13251342 0.2757527
-0.056852765 -0.21414115 0.15875962 0.3206584 0.20003171 -0.12111748 0.74115354 0.22017002
0.24313124 0.022221532 0.23565301 0.20725897 0.21668933 -0.14616914 -0.03198636 0.062763266
-1.1440444 -0.19394428 0.03709397 0.06477801 -0.94408345 -0.091421254 0.2592002 0.1228552
-0.09666034 0.16987525 -0.039170127 0.029720254 0.14434215 -0.10266911 0.1594742 0.0024007189
-0.056100942 -0.15803659 0.036670387 0.09561579 -0.00033612183 -0.05398682 -0.10877376 0.15696065
-0.028344067 -0.017387243 -0.07997409 -0.27223396 0.012846192 0.011868224 0.09297105 -0.017187348
-0.16192251 0.10312242 -0.03220943 -0.21519239 -0.28014287 0.1795959 0.034030665 -0.29669407
0.1682064 0.043675564 -0.008648754 -0.20746802 0.18156616 -0.11488468 0.1748347 -0.1807585
0.16568127 0.14223179 -0.12163559 0.25643203 0.039631497 -0.10438545 -0.028908279 0.014460059
-0.17032784 -0.020122493 0.030565131 -0.1972775 -0.1669937 0.04644096 0.04407323 -0.023130728
-0.09815987 -0.019806625 -0.10085768 0.048617795 -0.070747696 0.07622724 -0.034354627 -0.11083661
0.116983816 0.27418464 0.01807049 -2.6818871 -0.10921676 0.29610023 -0.08870899 0.051917713
-0.13333456 0.098873295 0.14900339 0.15272032 0.13688771 -0.035850674 0.07541374 0.086542316
0.18884628 0.18828945 0.14436327 0.18588337 0.17078057 0.06900492 0.081666894 -1.6459339
-0.061262827 0.18981412 0.2637232 0.12597965 0.0656499 0.28089452 0.26866412 0.28570572
0.20992492 -0.17009175 -0.017511923 0.21774799 0.22859037 -2.3707786 -0.0031493283 0.21777497
0.06309435 0.20499541 0.3808307 0.18764357 -0.114527754 0.15399556 0.55764407 0.47935927
0.144369 0.08481053 0.09553712 0.36104524 -0.029862607 -0.14398201 0.37932932 0.14976735
-0.8956753 -0.192492 0.1627197 -0.131624 -0.8820931 0.054419696 0.09596317 0.24249488
00000000: 00af fdbd bade 4d3d b299 b43d 98f9 57be
00000010: 7a41 b6bd 61b4 213e c9b6 abbe 142a 8fbd
00000020: bb7a 08be 5cb4 94bd 4f14 46bd 99c3 663d
00000030: 09a3 2bbe 78bb 593e 4c5c 983d 1a33 57bc
00000040: 4ad5 d6bd a18c 20be d52d c1bd f972 c1bd
00000050: 50fd e83d ca12 23be 2074 85be d1ce 8bbc
00000060: 8e22 dfbd fb2e 96bd 7584 8abe aad4 74bd
00000070: be03 303d 860e 4a3d 37cf f8bd 104e 9a3d
00000080: 18fb cf3a 15d7 ec3d aa4d a8bd f21a 143e
00000090: f130 003b c40b 56bd fd35 873d eb8c a6bd
000000a0: fd0c 173e 26ae 913d 02d3 2d3d 5035 60bc
000000b0: d6e4 7c3e 3237 0ebe de56 a53c 0e6c 613d
000000c0: 656e 393e a037 8ebd 63ea 523e 5729 04be
000000d0: 8106 1ebe 3800 a03d cad3 0b3d 56eb c93d
000000e0: 9d02 b93d 3a37 88bd d05b 0e3d 8e9e e43c
000000f0: 23ff 263e 2033 4ebe 2a1e 9ebd 5ca9 fdbc
00000100: 1d3d c83e 5737 0fbc 75e2 9f3e c5da 23c0
00000110: 522a 73bd 9426 663e 539e 3cbd f4be c33d
00000120: c0f5 f3bd 8274 9a3e 9c0b 33be 6ece 8e3e
00000130: b6da 203e 1880 e93d d8db 923d 9f6f 743d
00000140: 6397 fb3d ab07 b63d 7263 043e 6029 d23d
00000150: a9ef df3d c796 fc3d 3064 4c3e 2c09 a2bf
00000160: 7670 243e 7a3b bf3e 79e7 ec3d 08da d0bc
00000170: bfba 293e bcc9 d33d 9db0 893e 22dd e83d
00000180: dc8e 953e fbb6 443d 3a56 3e3c 57e0 f83d
00000190: f4f5 4d3d 606b 19c0 99b1 073e 752f 8d3e
000001a0: 72de 68bd d147 5bbe e291 223e 562d a43e
000001b0: 1dd5 4c3e 710c f8bd 3dbc 3d3f 4074 613e
000001c0: 65f7 783e ee09 b63c 064f 713e b23b 543e
000001d0: cfe3 5d3e 5dad 15be 2104 03bd 078a 803d
000001e0: 0c70 92bf 5499 46be d9ef 173d 55aa 843d
000001f0: 74af 71bf 113b bbbd e3b5 843e 829b fb3d
00000200: dbf5 c5bd c7f3 2d3e db70 20bd e477 f33c
00000210: 6ece 133e 2f44 d2bd 344d 233e 6155 1d3b
00000220: 1aca 65bd 58d4 21be b033 163d 36d2 c33d
00000230: 8239 b0b9 4921 5dbd c7c4 debd 4bba 203e
00000240: d131 e8bc b16f 8ebc 75c9 a3bd 4062 8bbe
00000250: d678 523c f072 423c 9b67 be3d 7bcc 8cbc
00000260: 04cf 25be d931 d33d 09ee 03bd 655b 5cbe
00000270: e36e 8fbe fde7 373e bd63 0b3d 49e8 97be
00000280: 4c3e 2c3e 26e5 323d 81b3 0dbc 7f72 54be
00000290: 7bec 393e a948 ebbd de07 333e c218 39be
000002a0: 5aa8 293e 36a5 113e 151c f9bd 0f4b 833e
000002b0: a354 223d 0ac8 d5bd 0ed1 ecbc e2e9 6c3c
000002c0: 6c6a 2ebe edd7 a4bc ba63 fa3c 1d03 4abe
000002d0: 6600 2bbe e038 3e3d 2286 343d a77c bdbc
000002e0: 0b08 c9bd 8141 a2bc 798e cebd 7423 473d
000002f0: 2be4 90bd 071d 9c3d 70b7 0cbd 4efe e2bd
00000300: 3695 ef3d ee61 8c3e 9008 943c 0aa4 2bc0
00000310: 09ad dfbd 739a 973e 0fad b5bd aba7 543d
00000320: db88 08be 157e ca3d 5894 183e b762 1c3e
00000330: 4b2c 0c3e 28d8 12bd 8572 9a3d 193d b13d
00000340: eb60 413e f3ce 403e f7d3 133e 3658 3e3e
00000350: 1ae1 2e3e 7452 8d3d f940 a73d f6ad d2bf
00000360: bbee 7abd a25e 423e ba06 873e cf00 013e
00000370: 7473 863d 68d1 8f3e 588e 893e 0548 923e
00000380: 8ff6 563e 882c 2ebe 2a75 8fbc 54f9 5e3e
00000390: 9813 6a3e d6ba 17c0 f664 4ebb 6700 5f3e
000003a0: 9c37 813d 51ea 513e 3efc c23e a325 403e
000003b0: 878d eabd 03b1 1d3e c3c1 0e3f 946e f53e
000003c0: 78d5 133e 25b1 ad3d f7a8 c33d ecda b83e
000003d0: 6da2 f4bc 0570 13be 7437 c23e 9d5c 193e
000003e0: fa4a 65bf 9f1c 45be fe9f 263e 71c8 06be
000003f0: dad0 61bf 30e7 5e3d 5788 c43d 9450 783e

critic.0.bias f4 [32]
0.0 0.34855738 -0.010473762 0.28769574 0.36946732 0.33009222 -0.13681819 0.2942006
0.28957844 0.3172177 -0.0072076377 0.26934835 0.3160198 0.26737857 0.316401 -0.002291113
-0.014260042 -0.012153437 0.28370985 -0.008171551 0.33258134 0.2809 -0.009182504 0.31703296
0.09846282 0.2908313 -0.11670825 0.27865428 -0.014494122 0.30911082 -0.0018007885 0.2004976
00000000: 0000 0000 1d76 b23e 249a 2bbc db4c 933e
00000010: d22a bd3e d901 a93e 111a 0cbe 76a1 963e
00000020: a043 943e 5c6a a23e 0c2e ecbb 07e8 893e
00000030: 59cd a13e d8e5 883e 50ff a13e 7f26 16bb
00000040: f4a2 69bc 361f 47bc 6b42 913e f8e1 05bc
00000050: 1a48 aa3e 20d2 8f3e 3772 16bc 2552 a23e
00000060: e0a6 c93d d7e7 943e bc04 efbd c6ab 8e3e
00000070: c178 6dbc c643 9e3e 6f08 ecba 3e4f 4d3e

critic.2.weight f4 [1, 32]
0.044742346 -0.26946414 0.039709803 -0.4759218 -0.25512287 -0.44566342 0.5377009 -0.65444636
-0.41567463 -0.33055347 0.0028114174 -0.4711609 -0.29253358 -0.3717886 -0.46900475 0.030123878
0.19932924 0.015360262 -0.42742747 0.27997947 -0.4676724 -0.3200282 -0.0054583205 -0.4720049
0.7063307 -0.39216098 0.9450833 -0.5465687 0.093975104 -0.4982251 -0.035097845 1.7610613
00000000: c043 373d 34f7 89be bfa6 223d 06ac f3be
00000010: 779f 82be ff2d e4be c4a6 093f cc89 27bf
00000020: 4ed3 d4be 4e3e a9be c23f 383b 003c f1be
00000030: f6c6 95be 135b bebe 6421 f0be 5ac6 f63c
00000040: f71c 4c3e 9ca9 7b3c c6d7 dabe 7859 8f3e
00000050: c272 efbe bcda a3be b6db b2bb a0aa f1be
00000060: 17d2 343f 53c9 c8be fbf0 713f edeb 0bbf
00000070: 0576 c03d 5c17 ffbe c2c2 0fbd 756a e13f

exp_avg f4 [64, 12]
6e-45 6e-45 6e-45 6e-45 6e-45 6e-45 6e-45 6e-45
0.0 6e-45 0.0 6e-45 -0.0025640253 0.0007191711 -0.0033434085 -0.00032621878
-0.0017414332 -0.0026112124 0.00024213005 0.0007191711 0.0056048124 0.0006354337 0.0030421615 -0.0028345913
-0.002399311 -0.00015295396 8.110238e-05 -0.0012163182 -0.0019068433 -0.0041971803 7.251113e-05 -0.00015295396
0.003268106 0.0017356164 0.0033349702 -0.0021654232 -0.00020476995 0.00026314956 -0.00023684705 0.00033998184
0.00035228944 0.00094109325 9.492447e-05 0.00026314956 0.0010453484 0.0010976541 0.0013947559 -0.00021964342
0.0022133852 -0.0032050312 0.0032504937 -0.0041265287 -0.003679565 -0.0052884766 -0.0012272602 -0.0032050312
-0.0071371375 -0.004010107 -0.010369671 0.0039681634 -0.0016755706 -0.00012731478 0.0008534955 -0.000773518
-0.0009524603 -0.003057818 -2.354214e-05 -0.00012731478 0.00085638184 9.178809e-05 0.0016011344 -0.0013677607
0.0034474568 0.0002000823 0.0008645299 0.001036978 0.001576431 0.0065881955 -9.1983005e-05 0.0002000823
-0.0024508282 -0.0011639565 -0.003102482 0.003073181 -0.00037610217 -9.973863e-05 -6e-45 1.1665206e-05
-0.00015998645 -0.0020370663 -0.00012377166 -9.973863e-05 -0.0013168696 -0.0017278341 -0.0013896399 -0.0007208578
-0.003507438 -0.0004860563 -0.0011185772 -0.0019848086 -0.0021766764 -0.0072208457 -0.00015659975 -0.0004860563
0.0006282653 -0.0011526893 0.00066684495 -0.003072565 -0.00592889 -0.00094596326 -0.0042255907 -0.0032196986
-0.003923763 -0.0117071215 -0.00019804102 -0.00094596326 6e-45 -0.00093335664 0.0005651569 -0.005279931
6e-45 6e-45 6e-45 6e-45 6e-45 6e-45 6e-45 6e-45
6e-45 6e-45 6e-45 6e-45 -0.0018604163 -0.00019292197 -0.000801168 -0.0009594346
-0.001067783 -0.0033221429 6.2790765e-05 -0.00019292197 0.0021079492 0.0013859399 0.0017679705 -0.0012070895
0.0014569947 0.00020777989 -0.001520524 0.0011657682 0.0014840919 0.005919019 -7.919946e-05 0.00020777989
-0.0019463137 -0.0015964131 -0.0017808945 0.0011864556 0.0027238817 0.0007186963 0.00074953795 0.002000045
0.0027300229 0.006488438 0.0002122617 0.0007186963 -0.0011873045 -5.981837e-05 1.0228769e-05 0.002830046
-0.0019693724 -0.0001355987 -0.003678571 -0.0010893706 -0.0024766894 -0.003909828 1.6819358e-05 -0.0001355987
-0.0014052758 -0.0008566324 -0.00073828315 -0.002949918 -0.00280209 -0.00022864675 0.0001791747 -0.0012932763
-0.0015896034 -0.0056276866 -1.1524276e-05 -0.00022864675 0.0016971334 0.00025911437 0.0022341798 -0.002409365
-0.0034380138 -0.000307216 -0.0007571365 -0.0017699156 -0.0022459333 -0.007906473 5.377844e-05 -0.000307216
0.0031988276 0.0010441303 0.0029040957 -0.003000144 -0.006440404 -0.000560357 -0.00251718 -0.0029303555
-0.0037123447 -0.013066437 0.00010188524 -0.000560357 0.0054925214 0.0017399493 0.005218953 -0.005816514
-0.0019287842 -0.0004648859 -0.0025957613 -0.0013686487 -0.001614985 -0.005224466 -3.9194336e-05 -0.0004648859
0.00024936532 0.00018240968 -0.00043747417 -0.0017317281 -0.000751548 0.00017645003 0.00049414235 -7.078072e-05
-0.00027030736 -0.0014141161 0.0001240001 0.00017645003 0.0012884736 0.00051355525 0.001606698 -0.00063779904
-0.00019160053 -7.115255e-05 -0.00077896524 -0.0001101008 -0.00018131589 -0.000320465 6e-45 -7.115255e-05
6e-45 6e-45 6e-45 -0.00019160053 -0.0010719198 -0.000526926 0.0020867768 0.001253648
00000000: 0400 0000 0400 0000 0400 0000 0400 0000
00000010: 0400 0000 0400 0000 0400 0000 0400 0000
00000020: 0000 0000 0400 0000 0000 0000 0400 0000
00000030: 3509 28bb c186 3c3a 161d 5bbb 5808 abb9
00000040: cd40 e4ba e020 2bbb 4ae4 7d39 c186 3c3a
00000050: 93a8 b73b 3c93 263a 005f 473b 8dc4 39bb
00000060: c23d 1dbb 4462 20b9 8215 aa38 de6c 9fba
00000070: 0bef f9ba 8088 89bb 1e11 9838 4462 20b9
00000080: b82d 563b 9f7d e33a 848f 5a3b c6e9 0dbb
00000090: 84b7 56b9 56f7 8939 255a 78b9 973f b239
000000a0: 7db3 b839 b3b3 763a 3012 c738 56f7 8939
000000b0: 1204 893a 29df 8f3a 3ed0 b63a 1550 66b9
000000c0: 710e 113b 800b 52bb 3c06 553b d537 87bb
000000d0: db24 71bb f54a adbb 05dc a0ba 800b 52bb
000000e0: a6de e9bb 3767 83bb 8de5 29bc 5e07 823b
000000f0: d29e dbba cd7f 05b9 1dbd 5f3a eac5 4aba
00000100: 87ae 79ba ac65 48bb 5c7c c5b7 cd7f 05b9
00000110: d07e 603a 5b7e c038 28dd d13a 6f46 b3ba
00000120: baee 613b 2fcd 5139 9fa1 623a 35eb 873a
00000130: 3fa0 ce3a cae1 d73b 00e7 c0b8 2fcd 5139
00000140: 139e 20bb e68f 98ba 0353 4bbb 6c67 493b
00000150: 942f c5b9 c52a d1b8 0400 0080 aeb5 4337
00000160: 09c2 27b9 4d80 05bb b4c8 01b9 c52a d1b8
00000170: d09a acba 7e78 e2ba 9424 b6ba f3f7 3cba
00000180: 0cdd 65bb 5fd5 feb9 399d 92ba 9013 02bb
00000190: 92a6 0ebb d89c ecbb ed34 24b9 5fd5 feb9
000001a0: 2cb2 243a d615 97ba 35cf 2e3a 165d 49bb
000001b0: 2247 c2bb 85fa 77ba d376 8abb 9401 53bb
000001c0: e992 80bb 3acf 3fbc 3ba9 4fb9 85fa 77ba
000001d0: 0400 0000 81ac 74ba 0a27 143a 4503 adbb
000001e0: 0400 0000 0400 0000 0400 0000 0400 0000
000001f0: 0400 0000 0400 0000 0400 0000 0400 0000
00000200: 0400 0000 0400 0000 0400 0000 0400 0000
00000210: 36d9 f3ba 194b 4ab9 7905 52ba 9182 7bba
00000220: daf4 8bba 4fb8 59bb 89ae 8338 194b 4ab9
00000230: 8525 0a3b 6da8 b53a 3fbb e73a 3437 9eba
00000240: a1f8 be3a 7ddf 5939 524c c7ba b1cc 983a
00000250: dc85 c23a 55f4 c13b e317 a6b8 7ddf 5939
00000260: 731b ffba bc3e d1ba e76c e9ba d882 9b3a
00000270: 2783 323b e466 3c3a a47c 443a 3013 033b
00000280: 2fea 323b f79c d43b 9192 5e39 e466 3c3a
00000290: 549f 9bba 7ce5 7ab8 3a9c 2b37 4b78 393b
000002a0: 9610 01bb 802f 0eb9 2e14 71bb 36c9 8eba
000002b0: f44f 22bb 041e 80bb 4c17 8d37 802f 0eb9
000002c0: 3b31 b8ba a18f 60ba 5889 41ba 6953 41bb
000002d0: 45a3 37bb e5c0 6fb9 d8e0 3b39 2783 a9ba
000002e0: 3d5a d0ba 7568 b8bb 6358 41b7 e5c0 6fb9
000002f0: 5972 de3a bed9 8739 516b 123b 70e6 1dbb
00000300: 4d50 61bb d511 a1b9 927a 46ba 83fc e7ba
00000310: 8230 13bb 278a 01bc 2990 6138 d511 a1b9
00000320: 6ca3 513b 33db 883a a452 3e3b 109e 44bb
00000330: 060a d3bb ece4 12ba 46f7 24bb 350b 40bb
00000340: cf4a 73bb 9c14 56bc 39ab d538 ece4 12ba
00000350: 9cfa b33b 030f e43a c003 ab3b 7598 bebb
00000360: 42cf fcba eebb f3b9 a61d 2abb 3b64 b3ba
00000370: e8ad d3ba ff31 abbb 9964 24b8 eebb f3b9
00000380: 3fbd 8239 3a45 3f39 ca5c e5b9 27fb e2ba
00000390: 8803 45ba 7205 3939 5589 013a 1c70 94b8
000003a0: 0ab8 8db9 dd59 b9ba 0606 0239 7205 3939
000003b0: 00e2 a83a 1ca0 063a d797 d23a f831 27ba
000003c0: 60e8 48b9 bc37 95b8 7933 4cba ebe5 e6b8
000003d0: 9d1f 3eb9 1604 a8b9 0400 0000 bc37 95b8
000003e0: 0400 0000 0400 0000 0400 0000 60e8 48b9
000003f0: a97f 8cba 6821 0aba 4ec2 083b 7251 a43a

exp_avg_sq f4 [64, 12]
7e-43 7e-43 7e-43 7e-43 7e-43 7e-43 7e-43 7e-43
0.0 7e-43 0.0 7e-43 0.0009003319 1.9844669e-05 0.00038916362 0.000120774996
0.00021662076 0.0010233033 6.614994e-06 1.9844669e-05 0.00072818744 0.0006136345 0.0006189753 0.001002797
0.0005933706 7.0685032e-06 0.00065570156 2.699656e-05 8.003377e-05 0.0004708778 1.7983574e-06 7.0685032e-06
0.00026461438 0.00022846127 0.00019782736 0.00060460164 2.2693259e-05 1.1117478e-06 2.5768097e-05 6.5606023e-06
1.0985992e-05 7.046979e-05 3.122184e-07 1.1117478e-06 4.193394e-05 3.2228294e-05 4.3996963e-05 3.0477471e-05
0.0017391306 8.255735e-05 0.0010558066 0.00033853183 0.00056920183 0.000876893 2.6273443e-05 8.255735e-05
0.002016595 0.0015039506 0.0018504246 0.0020954455 9.308923e-05 1.9367983e-06 0.00011558709 6.328031e-06
1.5917984e-05 9.808154e-05 5.5544785e-07 1.9367983e-06 6.289724e-05 5.2630323e-05 5.1449748e-05 9.7438686e-05
0.00012533918 7.228697e-06 0.00014475136 2.7430731e-05 4.0809406e-05 0.0003064417 1.5833982e-06 7.228697e-06
0.0001150136 6.522498e-05 9.0615045e-05 0.00012999469 1.8066154e-05 6.1821856e-06 2.2612392e-09 2.6930004e-05
3.7360427e-05 0.00025645076 3.2639266e-06 6.1821856e-06 0.0003724753 0.00028634883 0.0003801476 7.74385e-05
0.000151447 1.16763995e-05 0.00016171983 3.4120767e-05 4.6079447e-05 0.00027380037 3.3007018e-06 1.16763995e-05
0.00017223998 0.00011391868 0.00014360705 0.00018173672 0.0005856271 1.6535747e-05 0.0005431858 5.828431e-05
0.00010479291 0.0006482213 1.9917352e-06 1.6535747e-05 7e-43 5.4733093e-05 1.8928557e-05 0.0005893259
3.41152e-15 5.391382e-15 7.0288596e-14 1.1167459e-14 1.4630602e-14 1.2631705e-13 3.2256402e-15 5.391382e-15
1.2532561e-13 8.6384e-14 1.2696407e-13 1.6677169e-14 9.488824e-05 4.150146e-06 8.803262e-05 1.3060119e-05
1.9596542e-05 0.00015428248 7.350813e-07 4.150146e-06 3.9901646e-05 2.563198e-05 3.642607e-05 0.000101318416
3.4255892e-05 2.215248e-06 0.00014684246 1.6465377e-05 4.013509e-05 0.00031689688 6.868222e-07 2.215248e-06
0.00017673218 0.00015388783 0.00017874152 4.071041e-05 0.00026175374 5.280973e-06 0.00016682022 2.350047e-05
4.5633806e-05 0.00037141843 1.2637961e-06 5.280973e-06 0.0001565157 0.00011638017 0.00012340413 0.0002774539
0.0005418133 3.4390575e-06 0.00054684456 2.4522365e-05 0.00010377966 0.00033019783 1.4756884e-06 3.4390575e-06
0.00032009874 0.00028810906 0.0002245317 0.00057269394 0.00015060448 7.1288455e-06 0.00015081429 2.2083219e-05
3.572736e-05 0.00023283577 2.0540763e-06 7.1288455e-06 0.00014456981 0.0001078676 0.00012264226 0.00016690893
0.00032522224 1.5400172e-05 0.0002857025 4.8516056e-05 7.5606884e-05 0.00051310833 4.397119e-06 1.5400172e-05
0.00029936395 0.00022058714 0.00024167619 0.0003592486 0.00083550235 5.166727e-05 0.0007783398 0.00015648927
0.00022138131 0.0014096417 1.5146528e-05 5.166727e-05 0.0009038839 0.0006489885 0.0007282686 0.0009558489
9.650437e-05 4.708682e-06 0.000104518746 1.3504607e-05 2.0057541e-05 0.00014018091 1.3254784e-06 4.708682e-06
5.8203124e-05 4.8273327e-05 3.0302755e-05 9.950386e-05 2.4191408e-05 2.7791039e-06 4.894644e-05 9.272012e-06
1.2739486e-05 9.354443e-05 9.847788e-07 2.7791039e-06 6.5127846e-05 4.391066e-05 6.720115e-05 3.8005237e-05
3.6800611e-06 2.4833002e-07 2.7913009e-05 6.173443e-07 1.4189836e-06 8.570385e-06 1.8764319e-10 2.4833002e-07
5.903404e-08 5.5457043e-09 5.650426e-08 3.6872514e-06 0.0029965648 6.737166e-05 0.0026289541 0.0002739184
00000000: f401 0000 f401 0000 f401 0000 f401 0000
00000010: f401 0000 f401 0000 f401 0000 f401 0000
00000020: 0000 0000 f401 0000 0000 0000 f401 0000
00000030: 4004 6c3a 1a78 a637 a808 cc39 9548 fd38
00000040: b124 6339 5c20 863a 5ef6 dd36 1a78 a637
00000050: d5e3 3e3a 50dc 203a bb42 223a 4970 833a
00000060: 6d8c 1b3a fb2d ed36 63e3 2b3a ac76 e237
00000070: ced7 a738 26e0 f639 175f f135 fb2d ed36
00000080: f1bb 8a39 1b8f 6f39 e16f 4f39 217e 1e3a
00000090: 675d be37 5d37 9535 9128 d837 2523 dc36
000000a0: 7a50 3837 2ec9 9338 f89e a734 5d37 9535
000000b0: 3ae2 2f38 de2c 0738 6189 3838 dfa9 ff37
000000c0: 8af3 e33a a422 ad38 fe62 8a3a f97c b139
000000d0: 7d36 153a 4bdf 653a ca65 dc37 a422 ad38
000000e0: da28 043b 3520 c53a f289 f23a be53 093b
000000f0: e638 c338 f1f9 0136 5967 f238 5f55 d436
00000100: 9c87 8537 20b1 cd38 161a 1535 f1f9 0136
00000110: b3e7 8338 61bf 5c38 bfcb 5738 ff57 cc38
00000120: 7b6d 0339 098e f236 66c8 1739 0c1b e637
00000130: c42a 2b38 e9a9 a039 2685 d435 098e f236
00000140: 7533 f138 65c9 8838 9508 be38 2f4f 0839
00000150: c58c 9737 9270 cf36 2464 1b31 bee7 e137
00000160: 74b3 1c38 3d74 8639 d509 5b36 9270 cf36
00000170: ca48 c339 1721 9639 8c4e c739 7a66 a238
00000180: bfcd 1e39 c1e5 4337 5693 2939 e51c 0f38
00000190: 6e45 4138 dd8c 8f39 a081 5d36 c1e5 4337
000001a0: 519b 3439 a0e7 ee38 3995 1639 9490 3e39
000001b0: c584 193a 3fb6 8a37 9564 0e3a 4d76 7438
000001c0: 44c4 db38 65ed 293a c0a9 0536 3fb6 8a37
000001d0: f401 0000 3691 6538 c4c8 9e37 fe7c 1a3a
000001e0: 70d3 7527 b93e c227 9e46 9e29 d12c 4928
000001f0: dfc7 8328 6938 0e2a 8f6e 6827 b93e c227
00000200: a61a 0d2a fc84 c229 e7f2 0e2a ef36 9628
00000210: bcfe c638 7c41 8b36 279e b838 c91c 5b37
00000220: 4163 a437 e3c6 2139 6752 4535 7c41 8b36
00000230: 115c 2738 4204 d737 32c8 1838 e97a d438
00000240: fcad 0f38 aca9 1436 b9f9 1939 211f 8a37
00000250: ba56 2838 2e25 a639 105e 3835 aca9 1436
00000260: 2f51 3939 f35c 2139 906c 3b39 78c0 2a38
00000270: fe3b 8939 3633 b136 76ec 2e39 e022 c537
00000280: ed66 3f38 f0ba c239 b49f a935 3633 b136
00000290: 5d1e 2439 2111 f438 0b66 0139 3b77 9139
000002a0: 7a08 0e3a 8fca 6636 1e5a 0f3a 61b5 cd37
000002b0: 48a4 d938 671e ad39 4410 c635 8fca 6636
000002c0: edd2 a739 580d 9739 4570 6b39 d720 163a
000002d0: 95eb 1d39 5134 ef36 e723 1e39 5a3f b937
000002e0: f6d9 1538 6025 7439 c3d8 0936 5134 ef36
000002f0: aa97 1739 fa36 e238 8899 0039 4604 2f39
00000300: 9782 aa39 9e2f 8137 57ca 9539 b87d 4b38
00000310: 238f 9e38 1e82 063a f78a 9336 9e2f 8137
00000320: f3f3 9c39 694d 6739 756a 7d39 8859 bc39
00000330: 9d05 5b3a 4fb5 5838 8009 4c3a 4517 2439
00000340: 9822 6839 bac3 b83a d81d 7e37 4fb5 5838
00000350: 9ff2 6c3a e220 2a3a 47e9 3e3a ef91 7a3a
00000360: 6462 ca38 45ff 9d36 1331 db38 d891 6237
00000370: 3e41 a837 87fd 1239 17e7 b135 45ff 9d36
00000380: 211f 7438 1779 4a38 ac32 fe37 baac d038
00000390: a7ee ca37 a480 3a36 d74b 4d38 fd8e 1b37
000003a0: adbb 5537 492d c438 be2c 8435 a480 3a36
000003b0: 3f95 8838 b62c 3838 58ee 8c38 d067 1f38
000003c0: f8f6 7636 3852 8534 bb26 ea37 94b7 2535
000003d0: e873 be35 86c9 0f37 dd50 4e2f 3852 8534
000003e0: 9d8c 7d33 888c be31 17af 7233 7f72 7736
000003f0: 0462 443b e249 8d38 884a 2c3b b59c 8f39

exp_avg f4 [64]
6e-45 -0.0034923695 -0.0050656456 0.0012195167 -0.010976228 -0.0029863804 0.0055529294 -0.0013896399
-0.007291908 -0.013295459 6e-45 -0.0033056834 0.004935334 0.0077725346 -0.007982147 -0.0052813096
-0.0074423803 -0.012274956 -0.0054239766 -0.0011482241 -0.00077896524 0.011190986 -0.0028493789 0.0016927363
-0.007692281 -0.00012452668 0.0008403559 -0.00568864 -0.0018508913 0.004330664 0.0029064293 -0.0020780622
-0.00054317346 -0.0043864828 -0.0045163734 -0.010000989 -0.003867938 -0.0078975065 0.0040294565 0.0058422107
-0.005430171 -0.0052582333 0.014455694 0.0008453441 0.00012388022 -0.022967244 -5.39619e-05 -0.0065377997
-0.005026566 -0.008801544 0.001926996 0.0006432081 -0.009002374 -0.011965586 -0.0062308973 0.00076060044
0.000106652245 0.0012820242 -0.005759806 0.012074167 -0.0055470434 0.000116843854 -0.006851655 0.00084428437
00000000: 0400 0000 3de0 64bb b7fd a5bb 31d8 9f3a
00000010: a3d5 33bc 26b7 43bb 59f5 b53b 9424 b6ba
00000020: f5f0 eebb 32d5 59bc 0400 0000 2aa4 58bb
00000030: 95b8 a13b bfb0 fe3b 8dc7 02bc d60e adbb
00000040: 36df f3bb e61c 49bc 9dbb b1bb 0280 96ba
00000050: 7933 4cba 665a 373c a5bc 3abb cede dd3a
00000060: 880f fcbb 6093 02b9 544b 5c3a c567 babb
00000070: 9b99 f2ba 3ee8 8d3b cb79 3e3b 1930 08bb
00000080: c163 0eba 7cbc 8fbb 16fe 93bb 30db 23bc
00000090: 3b7d 7dbb 8b64 01bc 8809 843b 0470 bf3b
000000a0: 93ef b1bb 424d acbb 93d7 6c3c 159a 5d3a
000000b0: d8e5 0139 cd25 bcbc 2655 62b8 0a3b d6bb
000000c0: e4b5 a4bb 5a34 10bc 4293 fc3a f79c 283a
000000d0: b17e 13bc 4e0b 44bc 8e2c ccbb 0863 473a
000000e0: 7daa df38 9809 a83a c1bc bcbb bad2 453c
000000f0: f9c3 b5bb 110a f538 d983 e0bb f752 5d3a

exp_avg_sq f4 [64]
7e-43 0.002304071 0.0009598076 0.0001333656 0.0059178127 0.00018198362 0.00045825323 0.00038015324
0.00044254184 0.0011835027 1.5386293e-13 0.00023407696 0.00052516145 0.0005430502 0.0011837066 0.0003678261
0.0007911258 0.0022134387 0.00022100807 0.00014322247 3.0736315e-05 0.0076068314 0.00025403788 5.265697e-05
0.0005991313 8.1741375e-05 6.355835e-05 0.00036654467 0.00023288857 0.0012437789 0.00027703834 0.00014859042
0.0003968909 0.00031294624 0.0004711661 0.0016292281 0.0005204575 0.0010001396 0.00053309766 0.0009311399
0.00052219204 0.0015661675 0.006106901 0.0010387588 6.672919e-06 0.00312545 5.47012e-05 0.0004680005
0.00031343443 0.0012809503 0.0004197951 3.2560947e-05 0.0006229564 0.0010876523 0.0038224065 2.6087406e-05
7.4483573e-06 0.0001558837 0.00049604336 0.002249773 0.00053900207 0.0001877165 0.0005332413 8.128588e-05
00000000: f401 0000 e6ff 163b 999b 7b3a 0ed8 0b39
00000010: 36ea c13b dbd2 3e39 b541 f039 4e4f c739
00000020: f604 e839 c31f 9b3a f83b 2d2a 8e72 7539
00000030: fdaa 093a 7b5b 0e3a 9a26 9b3a c9d8 c039
00000040: 8e63 4f3a 570f 113b 67be 6739 fd2d 1639
00000050: deea 0038 ba42 f93b 6330 8539 fedb 5c38
00000060: 050f 1d3a 916c ab38 a14a 8538 cb2c c039
00000070: 8d33 7439 4b06 a33a 753f 9139 f0ce 1b39
00000080: cb15 d039 ef12 a439 d806 f739 d38b d53a
00000090: 506f 083a 1e17 833a 94bf 0b3a be17 743a
000000a0: b7e3 083a dc47 cd3a 661c c83b f626 883a
000000b0: f0e7 df36 5ad4 4c3b f76e 6538 f75d f539
000000c0: 7554 a439 8fe5 a73a f217 dc39 0d92 0838
000000d0: e54d 233a 8e8f 8e3a 5781 7a3b 47d6 da37
000000e0: e7ec f936 b674 2339 e808 023a ed70 133b
000000f0: d14b 0d3a c4d5 4439 38c9 0b3a 0678 aa38
