models/checkpoint_230000.pt (torch, 125871 bytes, 33 tensors)

shared.0.weight f4 [64, 12]
00000000: 90ca 07be 1c90 1dbd 79a8 d3bc 7e10 06be
00000010: 1865 51bb 4c9d 81bd 133e efbd 9733 dd3d
00000020: eaeb 7cbc c179 b03d 2e2e 5cbe 5d94 03bd
00000030: 0695 b7bd caa7 86be a584 32be 1eef 913e
00000040: 860b 213e 89f7 b5be e6fc 76be 3cb5 47be
00000050: 4da6 9abd 5b74 223e 320e 9f3d 6311 843d
00000060: f267 5dbe 3e1b a63e d243 07be 0410 593f
00000070: a7bf e6bd d239 b4bc e6d9 383e dd2c 973d
00000080: 6198 f7bd 3385 b93c d78d 563d f394 a83d
00000090: f2ee 98bd b91f 74be 55c5 27be 0d21 dabd
000000a0: df02 86be 54be f2bc 29fa 85be e764 14be
000000b0: c270 16be 80cb 8abb 8658 013e c9ad 21bd
000000c0: 52f1 19bd a212 933e ebf5 02be ffb9 95bd
000000d0: 5b57 90be 2d80 d9be ec03 5b3d 6bef 6e3d
000000e0: d5ff 26bb a08f 02bd 8217 283d 3bfb 003d
000000f0: fd6b 50bd f547 b53e dfa5 e5bd f2d1 633f
00000100: fc04 02bc e9af 4e3c 5ddc a93e f565 013e
00000110: cc94 373d 9f13 3dbe 7d39 f53d ad1e 423e
00000120: 2154 8c3d f5bd 6dbe ef89 66bc 7769 073f
00000130: 0940 bbbd c37a 0e3d 5477 fa3d 033a 0c3e
00000140: 9770 bf3d 684c 41be b9d6 c9bd 61ae b2be
00000150: 4f2d 99be 3066 76be 0142 abbe 5a61 4f3e
00000160: 6db2 87be 438f f0bc b146 89bd 68c2 52be
00000170: 02c6 063e e021 4c3d 1469 d33d 5efe a7be
00000180: eeea e13c 69ed 1d3d 1fa2 6e3e 6012 b1be
00000190: 7559 b6be 1314 e33c 1a65 f7bb 7e38 3bbc
000001a0: 4ff6 a63c ea33 86bd 98e8 d93c 66b8 6a3e
000001b0: d700 5bbe 5c63 de3d 4764 9a3d e25a f13b
000001c0: 9481 9ebd 7a94 9f3d 23dd f5be c086 b8bd
000001d0: 03b3 ebbe a5d8 703d 1c19 c9bd 0313 20be
000001e0: ab18 c2be 051e 703e babe bdb9 f613 aabc
000001f0: d34e fabd ae56 f63d 0d09 5a3e 334b 093e
00000200: 9132 a03d 7e63 393c 4ad9 043d 7cd7 fabd
00000210: 7ccb 8bbd 6d0f cf3d 4e13 2abb 6475 46be
00000220: 583a b7be be2a 3c3e 686c 92bd 9971 983e
00000230: bb29 ecbc c285 d9bd f470 83bd cbca b1bb
00000240: 9f99 62be ea97 9bbe 7d9d b5bc 85a5 363c
00000250: 70e1 58be 6381 11bc 9c69 13bf 8ce2 e4be
00000260: 5389 9c39 9c21 2f3e c0dc f9bc d4d4 ddbe
00000270: 279e 2b3e d71c c6bc 1c83 75bc c6ae 1dbf
00000280: 61fb 613e e31f 8c3e 24b9 a2be 5a92 00bd
00000290: 5767 d33c fc4c 5d3e 3955 913d 2a90 293d
000002a0: eb98 443e c7b4 79bf bee4 3b3e a712 ffbe
000002b0: 2637 893e adc2 67be 7a29 ffbe 674c 44bf
000002c0: 6887 653d 588b 033e a6e7 e6bc 35a3 d5bd
000002d0: 2136 b7bd aa8e 7c3d b103 a3bd 3037 f43e
000002e0: a85f b23d d13b fbbb 6773 683e 73b6 ac3e
000002f0: 94cd b3bd ffc1 9cbd 538f da3d 64d6 0c3e
00000300: e1fb c83d e826 3f3e 9d4e 183c 49ed 9a3e
00000310: 4b55 e8be b795 8bbd 998b 393e ce30 413e
00000320: 935c 553d 3b3a dabc a856 c13c e6ff 983c
00000330: 81b8 4b3e ccc5 053d 1778 e1be 49c5 1c3e
00000340: 0972 babe 0ea7 713e fd60 553e a273 193e
00000350: 2c40 2a3d 98a0 0c3e 4dbb 863d a402 beba
00000360: d039 10be 7e15 703e ded4 d43d f9c0 133e
00000370: c2b0 86be e2c6 5e3d 8811 233e 7ab1 e53d
00000380: 8c28 973c 9994 db3c d5b1 c8be 73a3 aabd
00000390: e7d5 83be 4c7b ecbd 6a47 4c3c da8a 8ebc
000003a0: 057e d9be 69e8 0c3e a620 17be 7cef 79be
000003b0: 0044 78bd de9a 9e3c fa18 4a3e 7bf1 923d
000003c0: 946b febc 206c d3bd d541 543d abe5 81bd
000003d0: 6c77 c2be 8d94 b0bd e3f7 1dbf aff6 d03c
000003e0: 84a2 f0bb 779e f9be 6518 d4bc a181 41bc
000003f0: ddd7 bd3c bebd c93b 1395 273d 633f 81bf
-0.13260865 -0.03846751 -0.02583717 -0.13092229 -0.0031951126 -0.0632883 -0.116817616 0.108008556
-0.015437106 0.08616973 -0.21501991 -0.032123912 -0.08963971 -0.26299888 -0.17433412 0.28502744
0.15727052 -0.35540417 -0.2411991 -0.19502729 -0.075512506 0.15864699 0.077663794 0.06448629
-0.21621683 0.3244266 -0.13209465 0.8479006 -0.112670235 -0.022000227 0.18051872 0.07381604
-0.12089611 0.022646522 0.052381363 0.08231535 -0.0746745 -0.23840226 -0.1638387 -0.10650835
-0.26174065 -0.029631771 -0.2616742 -0.14491616 -0.14691451 -0.004235685 0.12631425 -0.039472375
-0.037583657 0.28725153 -0.12789123 -0.073108666 -0.28191647 -0.42480603 0.053470537 0.058333796
-0.0025482078 -0.031875253 0.041038044 0.031489592 -0.050884236 0.3540646 -0.11213278 0.88992226
-0.007935759 0.012615182 0.33175936 0.1263655 0.044819638 -0.18464516 0.11973856 0.18957014
0.06851984 -0.23216994 -0.014070972 0.528953 -0.09143073 0.034785043 0.12229791 0.13694005
0.09347647 -0.18876803 -0.09855408 -0.34898666 -0.2991738 -0.24062419 -0.33448794 0.2025198
-0.26503316 -0.029365188 -0.067029364 -0.20581973 0.13161471 0.049836993 0.103227764 -0.32811254
0.027577844 0.03855649 0.23304032 -0.34584332 -0.35615125 0.027719533 -0.007549894 -0.011427043
0.020381121 -0.065528706 0.026600167 0.22921905 -0.21387039 0.10858795 0.07538658 0.0073655704
-0.07739559 0.077919915 -0.48020276 -0.090100765 -0.46035013 0.05880036 -0.09819242 -0.15632252
-0.37909445 0.23448952 -0.00036190992 -0.020761471 -0.12222066 0.120282516 0.21292515 0.13407592
0.07822145 0.011315225 0.032433785 -0.12248132 -0.06825921 0.10110364 -0.0025951448 -0.19380718
-0.357867 0.1837568 -0.07149583 0.29774168 -0.028828492 -0.106212154 -0.064180285 -0.005425786
-0.22128914 -0.3038934 -0.022169823 0.011147861 -0.21179748 -0.008880946 -0.5758302 -0.44704092
0.00029856953 0.17102665 -0.03050077 -0.43326437 0.16759549 -0.024183674 -0.014984872 -0.6159481
0.2206855 0.27368078 -0.31781876 -0.03138957 0.025806112 0.21611398 0.07096333 0.04139725
0.19198959 -0.9754147 0.18348977 -0.49818918 0.26799887 -0.22632857 -0.49836332 -0.7667908
0.056037337 0.12846124 -0.02818663 -0.1043152 -0.08945871 0.061659493 -0.079596885 0.47698355
0.08709651 -0.007667043 0.22700273 0.33732948 -0.08779445 -0.07654189 0.10671868 0.13753659
0.09813667 0.18667185 0.009296087 0.3025916 -0.45377573 -0.06815665 0.18119659 0.18866274
0.05209024 -0.026639095 0.023600891 0.01867671 0.19894601 0.032659337 -0.44036934 0.15309633
-0.36415127 0.23598883 0.2083778 0.14985517 0.041565105 0.13733137 0.065786935 -0.0014496637
-0.14084554 0.23445699 0.10392164 0.14429082 -0.2630673 0.05438889 0.15924656 0.112154916
0.018451951 0.026804255 -0.39198175 -0.08331957 -0.25749132 -0.115469545 0.012468198 -0.017400194
-0.42478958 0.13760532 -0.14758548 -0.24407762 -0.060611725 0.019360956 0.1973609 0.07174965
-0.031057157 -0.103233576 0.051820595 -0.06342634 -0.37981737 -0.08622084 -0.6170637 0.025508253
-0.007343592 -0.48753712 -0.025890538 -0.011810691 0.02317422 0.0061566522 0.040913653 -1.0097469

shared.0.bias f4 [64]
00000000: 9443 83bc f816 6d3e 9fa2 6e3e d00b 623e
00000010: 0aef 953e 4419 3b3e 90fc c13d d09b 7fbc
00000020: cab3 723e 03a9 ad3e 95f2 483d efc4 533e
00000030: c38e ad3e ab2d 31be 61e1 013e 7bba a33e
00000040: cce1 973e b5aa 923e 5a9d 583e 3117 6e3e
00000050: 70fd 153e e16b 953e d133 733e 498f 133e
00000060: 5de4 613e a8e1 3d3e ab25 e63d 9561 be3d
00000070: 3324 e23d 464e 963e 82fd ac3d e742 d63d
00000080: 3f3e 393e 959b 753e 1694 963e 1bee 9e3e
00000090: 5b6c a63d aa6c 963e 98cc ec3d 7f46 883e
000000a0: fdfe 7e3e 3cb8 603d 65cf 1b3e add4 ab3d
000000b0: 2381 4c3e 0194 b53e 51d7 a33c 55cb 713e
000000c0: aa6f 9c3e bceb 8c3e ed59 1e3e ebc0 e13c
000000d0: 5d43 803e 2b35 ab3e a0b2 ab3d af7e e73d
000000e0: bcae 433e bdc0 45bd 4a1c a03e 03e9 f9bd
000000f0: c69b 883e 02c3 3f3e 4811 743e dfbb 223e
-0.016023435 0.23153293 0.23304223 0.22074819 0.29283935 0.18271357 0.094720006 -0.015601113
0.23701397 0.33918008 0.04905947 0.20680593 0.3389798 -0.17302577 0.12683631 0.3197821
0.29664457 0.28645864 0.21153775 0.23251034 0.1464746 0.29183868 0.23750235 0.14410128
0.2205977 0.18543112 0.11237653 0.09295956 0.11042061 0.29356593 0.0844679 0.10461979
0.18090151 0.23985131 0.29409856 0.31041035 0.08126136 0.2937978 0.11562461 0.26616284
0.24901958 0.0548632 0.15215833 0.08390174 0.19971137 0.3546448 0.020000132 0.23612721
0.30553943 0.275236 0.15463991 0.02755781 0.25051394 0.33439 0.083836794 0.1130346
0.19109625 -0.048279513 0.31271583 -0.122026466 0.26681346 0.18726733 0.23834717 0.1589198

shared.2.weight f4 [64, 64]
00000000: 3db1 9dbd df09 b73e a1a7 febc ab53 c1bb
00000010: 2d07 02bf 68b3 133e cd19 9b3e 3017 ae3e
00000020: c602 333c 3531 063e dd27 bbbe b5a8 a33d
00000030: 5cd5 a3be 82de 9fbd d595 3e3e 13c2 d03d
00000040: ff8e 393e 2677 3a3e d475 99bc bef0 9dbc
00000050: 8bc5 7d3e b212 0abf 707e 953e a561 c0bc
00000060: 53b2 46bd 7142 c13d 1633 973d 7c86 50bd
00000070: e9a7 6fbe fa67 27be 0d2b 52be 5e3e 7fbd
00000080: dbc3 d8bc b011 dfbd c53d 993e da93 2b3e
00000090: e597 0ebc 663a 753e 2925 32bd 0fba 81be
000000a0: 38c3 703e 67e6 b13e be80 35bf 2d5f 0cbd
000000b0: 4fa2 603d dbc7 b63e 3e80 093c bd03 9e3e
000000c0: 30fb 6d3e c1cc ae3e 0667 213e a6fa 9c3d
000000d0: 589e cc3d 9c96 a93e a92b 473f 706f 6abc
000000e0: 2332 ee3d 62c6 133e d4c4 733e 8d81 a5bd
000000f0: 23dc aa3e 1357 823d b2d7 cf3c 6dea 823d
00000100: c6b6 ef3d 7907 aa3e 439e a13e e547 2b3e
00000110: 09fe 01bf 7cc5 023e 79ca 733d e33f be3e
00000120: b5aa 00be af8c c93d f603 0dbd 0826 e93d
00000130: d6e6 9abb 7d44 0fbe 8f7a 813e 19fa 5f3e
00000140: e2e4 a23d e6d2 053f 1dd7 fa3d c04b 353d
00000150: 6b55 9e3d fbbf 03bf d65b cd3d 219b 143e
00000160: 2d14 da3d 0d97 5b3e 01fb ccbd c59d 783d
00000170: 12e9 02be 2d16 e6bd 9fce d0bd b1df 0d3e
00000180: 4204 ff3d 2943 243d a2fa 41bc c305 c3bb
00000190: 50ef 82bd 4ec2 a23e 8430 7ebe 17b6 99be
000001a0: fa72 bc3d ed2a 453e 0050 74be 11a2 febd
000001b0: d702 1dbe 95b3 243e b6af c3bd b2d7 713e
000001c0: 6158 123c c2fe 373e f352 f73d 286b 003e
000001d0: 71eb 3e3d fe16 cb3e 2c94 4d3f 186a 1cbd
000001e0: 1350 193e 1265 2fbe 04d5 2fbd 5048 82be
000001f0: ff9d 8ebd 286f 72bd 1a36 613e 5d92 f43d
00000200: cd1e 54bb 9164 ed3e b025 123e 44a7 5bbd
00000210: 66db 59bf 2178 eb3c 45e0 963e b55b b03e
00000220: 6738 193e 1fd6 943e e75f 1bbe 5cc3 703d
00000230: e68a 42be 09f3 e4bd a85b 303e b8dd 693e
00000240: 1f2f 403e 13cf f83e 7ad7 04be 65fd 20bd
00000250: 3f0e c83e fc56 00bf a735 8f3e 8273 0d3e
00000260: 8a7d 523e f4c9 df3d c182 d9bd 5df6 783e
00000270: d79e 633d f6d2 39bd 819c 80be 0feb 133e
00000280: ade7 9a3e 6e1b 903e 71d9 cb3d 3729 6f3e
00000290: f4e7 f0bc a634 ad3e 4c76 9ebc 3ba2 72bd
000002a0: dc11 553d 0e58 b43e ddc2 3abf e280 91be
000002b0: b64f ba3c 1212 c33e f0d7 133e 6b40 a83e
000002c0: 1c1d 3f3d 6174 af3d 74ec f9bc f165 e4bc
000002d0: 8de4 d23e b4b4 1f3e d7ca 883f 1b63 603e
000002e0: 24ae 36bc 61b5 8cbe 943a 4f3e e029 99be
000002f0: a429 9a3e 99d2 4cbe e728 7c3e eb02 19bd
00000300: a6e0 3d3d 08ce 03be c2fc 3abf de79 3fbe
00000310: eac1 253d 276d bdbe b4b4 e6be 6326 acbe
00000320: b031 263e 95e6 08bf 17af 22bc 8233 b9be
00000330: dc95 0c3f bb29 523e 4f5f 293f ce63 d8be
00000340: d47a 09be 1a0d d8be 9bf2 fdbe 6efb 3fbd
00000350: 7a4c 7e3e 3923 cb3e 3790 d6be 7c84 11be
00000360: 446b 723e 56ac c5be fba3 a1bd c2a3 43bf
00000370: 8cc7 4a3f dbad b43e 141a 1c3f 388a 05bf
00000380: 0eea a53e 776d 81be 7a41 f8be 7de3 3ebf
00000390: 841c 0bbf 49c8 46bf e431 ed3e 007d 3d3f
000003a0: c2b7 ba3e 6f41 93bf 095c a73f ae9d 313f
000003b0: f742 07bf d690 87bf 89a9 e9be ac2b dc3e
000003c0: 9d5c 9cbe 203e 60bb 771a 393e ecc7 3cbe
000003d0: 11c6 893d 78fb c9bd c152 5fbf a9dd c6be
000003e0: 4cd2 4bbe c291 5f3e 7b32 bcbd 9049 583e
000003f0: 7d83 d2bd 2424 223f d5d6 01be 5463 e63e
-0.07699821 0.3574972 -0.031085791 -0.0058998666 -0.507922 0.14423907 0.30293122 0.34002066
0.010925954 0.13104708 -0.3655385 0.07991163 -0.31998718 -0.07806112 0.18611844 0.10193267
0.18120955 0.18209514 -0.018732943 -0.019279834 0.24782388 -0.53934777 0.29198027 -0.02348406
-0.048509907 0.09436501 0.07382791 -0.050909504 -0.23403896 -0.16348258 -0.20524235 -0.062315337
-0.026460579 -0.108920455 0.2992994 0.1675562 -0.008703207 0.23948058 -0.04349247 -0.25337264
0.2351197 0.34746096 -0.7089957 -0.034270454 0.05484229 0.35699353 0.008392392 0.30862227
0.23240352 0.3414059 0.15761957 0.07664995 0.09991139 0.33122718 0.77800995 -0.014308795
0.116306566 0.14431146 0.23805553 -0.080813505 0.33371076 0.06364264 0.025371406 0.063923694
0.11704783 0.33208826 0.31566057 0.16726644 -0.5077825 0.12770647 0.059519265 0.37158117
-0.1256512 0.098412864 -0.034427606 0.11384207 -0.004727225 -0.1399097 0.25288817 0.21872748
0.07953812 0.5227493 0.12248061 0.044261694 0.07731136 -0.51464814 0.10027282 0.14512302
0.106483795 0.2144434 -0.10008813 0.060697336 -0.12784222 -0.112346984 -0.1019566 0.13854863
0.12451984 0.04010311 -0.011839541 -0.0059516146 -0.063933015 0.31788868 -0.24823195 -0.30021736
0.092016175 0.19254656 -0.23858643 -0.124332555 -0.15333115 0.1608413 -0.095549986 0.23617437
0.008932204 0.17968276 0.12076368 0.12540877 0.046611253 0.3966598 0.8030422 -0.038187116
0.14971952 -0.17128399 -0.042927757 -0.25445795 -0.06963729 -0.059188038 0.21993294 0.11941979
-0.0032366992 0.4636579 0.14272189 -0.053626314 -0.851004 0.028743805 0.2946798 0.34444967
0.14962922 0.2906961 -0.15173303 0.05878006 -0.18998298 -0.11179168 0.17222464 0.22838485
0.18767975 0.48595485 -0.12972823 -0.039304156 0.3907337 -0.5013273 0.2797062 0.13813594
0.20555702 0.109271914 -0.106206425 0.2431273 0.055571403 -0.045367204 -0.25119403 0.14445136
0.3025488 0.28145927 0.09953583 0.23355566 -0.029407479 0.3382923 -0.019343518 -0.059236746
0.052018985 0.3522343 -0.7295359 -0.28418642 0.022743087 0.38099724 0.14437842 0.32861647
0.04665862 0.085671194 -0.030508257 -0.02788064 0.41189995 0.15596277 1.0686902 0.21912806
-0.011149917 -0.2748213 0.2023719 -0.2991476 0.30109894 -0.20002212 0.24624978 -0.0373563
0.04635682 -0.12871563 -0.7304193 -0.18698832 0.040468134 -0.3699734 -0.4505974 -0.33623037
0.16229892 -0.5347684 -0.00992944 -0.3617211 0.5491617 0.20523731 0.66161054 -0.42263645
-0.13425761 -0.42197496 -0.49599156 -0.04687064 0.24833861 0.3967531 -0.41906902 -0.14210695
0.23673731 -0.38608044 -0.07892605 -0.7642175 0.79210734 0.3528889 0.6097729 -0.5216403
0.32405132 -0.25278828 -0.48487455 -0.7456587 -0.54340386 -0.7764936 0.46327126 0.7401886
0.3646832 -1.1504344 1.3074962 0.69381225 -0.52836555 -1.0591075 -0.45637158 0.4300207
-0.30539408 -0.0034216717 0.18076502 -0.18435639 0.06727231 -0.09862417 -0.8723565 -0.38840988
-0.1990444 0.21832946 -0.09189316 0.21121812 -0.10278986 0.63336396 -0.12679608 0.44997656

shared.2.bias f4 [64]
00000000: 716d 723e 2131 8a3e b71d 903e 2b37 6ebd
00000010: 247e d0bc d472 793e 9414 2fbd 8813 733e
00000020: 4e75 ddbc b43d 8d3e 0000 0000 ea3b ce3d
00000030: 3997 873e f0c7 863e 54ba 653e ca86 a7bb
00000040: e822 643e ffbe ce3c 5fe1 643e 8028 4a3e
00000050: c01d 8e3e 0372 103e ff6a c5bc 309c 1f3d
00000060: c25a 883e 02d7 723e 992b 8f3e c2c7 6d3e
00000070: 671a 7e3e 7bdd 3c3e 3fed 803e eda8 8a3e
00000080: 8ed1 403e f335 98bc d74d 593e 0426 6a3e
00000090: 1342 953e db05 b6bc b267 743e f835 8a3e
000000a0: 6cfd 443d 8690 98bc 38a2 9b3d d1e2 6a3e
000000b0: 7e50 00bd 0c2d 933e 1822 e7bc 70f5 4b3d
000000c0: d3b0 793e 57d4 1bbc def9 5a3e 7032 b03e
000000d0: 8215 683e a335 debc f04c 663e 2509 773e
000000e0: b158 003e 6c8f 0fbe 9e82 463d ba75 b4bc
000000f0: aa0a 66be 4a0d 7a3e d407 ac3e 93b5 ac3e
0.23674561 0.26990607 0.2814767 -0.05815808 -0.025450774 0.2436021 -0.042744234 0.2373792
-0.027033474 0.27586138 0.0 0.100700215 0.2648256 0.26324415 0.2243436 -0.0051125037
0.2227894 0.025237558 0.22351597 0.19742012 0.27757072 0.14105992 -0.024098871 0.03896731
0.26631743 0.23714831 0.2796295 0.23220733 0.24814759 0.18443863 0.25181004 0.27082005
0.18829939 -0.018580412 0.212211 0.22866064 0.29151973 -0.022219589 0.23867682 0.269943
0.048093244 -0.018623602 0.075993 0.22938086 -0.031326763 0.28745306 -0.0282145 0.049794614
0.2438386 -0.009511075 0.2138438 0.3441348 0.22664455 -0.027125185 0.22490287 0.24124582
0.12533833 -0.14019555 0.04846441 -0.022028793 -0.22465006 0.24419132 0.33599722 0.3373228

actor.0.weight f4 [32, 64]
00000000: 89ab 353c 7135 693d dd9b 093e e314 563e
00000010: 38f4 cbbd 42dd 22bd 7dc8 8cbc 8fc3 4c3e
00000020: 94f5 8d3d 6a50 7d3e ac46 35be 0ae3 f1be
00000030: 14b5 983b 20fb 40bd 51a7 08be 3810 1f3e
00000040: 8a14 aebd 0c17 f33e dea0 76bd a50d 7ebe
00000050: f2a8 12be 69f7 b1bd ba3f b43c 3573 0abe
00000060: 3381 2f3e 68ba a0bc 2cfb 5abd 7613 41bc
00000070: 4fd9 923d 193e cc3e f48f 22be b898 6c3e
00000080: 0548 5f3e 0b5e 5bbd bf5f 503e d28b fbbd
00000090: 0aef 193d 8d50 883c e518 52bd 1e45 ab3d
000000a0: 5351 853d 2446 613e d861 f2bd 9fcd 063e
000000b0: 3d85 c3bd 6853 c0bd 080f 5ebe d43e d4bd
000000c0: c0c8 8a3e 3472 88bd 0590 60be 4db8 133e
000000d0: d621 d03c a0d2 7ebc 8921 ca3d 3d9f 87be
000000e0: 2090 c7bc d671 fd3e 399b 56be 31be 953d
000000f0: 49b7 da3d 2d7d ca3a b8cf c6be 6f56 82bd
00000100: c183 ad3c 2e92 143e 931b 6b3e 8d0f 89be
00000110: ddb0 cc3d d3b6 3dbe 8f98 743d 7366 bfbd
00000120: 1632 8abd ef79 edbd fc8d ae3d bae1 543e
00000130: e5cb aabe d16f 71be 0af0 85bd f0dc 5e3e
00000140: 6fc0 763e cd27 85be ca38 b63d 9187 eb3d
00000150: cfac 06be ba6a 943e c12d 2dbe e6ea 3c3e
00000160: 5fcf bd3c a8f9 c8be 87c7 433e 2212 c53d
00000170: 22f0 88bd 8156 f1bd 454a 1d3d 8089 34be
00000180: b18b e43c 10c1 0bbd 27f2 b2b9 4e91 083e
00000190: 1d27 c33c b8b9 193e c35e ac3d 2fb4 113e
000001a0: 4953 bbbd e460 163d 1c1b b93b 00fd af3d
000001b0: 85b9 873d e155 8d3e 3bdb 81be 1fea 273d
000001c0: 67e7 ba3d 9063 253e 8398 f53d 11ed ef3d
000001d0: 0976 b33e 3e3b 81bc 9a0e 553c df27 ae3e
000001e0: b59f 373e 33b7 76bf 084e ab3d 7a18 99bd
000001f0: 3c3f febe 76c1 04be 88ad a23d a237 0f3e
00000200: bf84 ee3c b56f 1bbd 8bda 45be 1fe3 aabd
00000210: 7259 ab3d 0890 993a af8f bd3c 0898 6d3c
00000220: f960 35bd e11a 05bb 9e9c 4e3d e8de a1bd
00000230: 571d 06bd eb7c 60be 38ca 693e 4156 93bc
00000240: 117c 1d3e cd2a 77bd f2f1 773c 8c94 023d
00000250: beca 36be f04b debc 04f5 fb3d a7df 4fbd
00000260: c6a8 313e 9afc cc3c 5b5a 2dbe 4845 2e3d
00000270: 9af6 953e 4523 80be 27f9 4a3c 320d 54be
00000280: abf0 9ebd f681 19be d164 70bd 6228 7ebe
00000290: 7c98 233e cf0a 813e 8cf9 06be 1bf0 b1bd
000002a0: 181b 56bc 06ad 8c3d 3c8d 8e3c 7118 6dbe
000002b0: a039 803e 64ce 35bd 8ae1 f33d 9f06 543c
000002c0: 97fe d23d 91ab 15be 8ec7 4abd 7d11 503b
000002d0: cc43 f7bd 1d64 0bbc 0d5f 63bd 9246 aa3d
000002e0: 06cd ba3d 4c44 543e 31b4 bdbd d48e 143e
000002f0: 8757 433c 20ad b9bd 3bad c63d e8e0 a53d
00000300: f5ed 793e 38f3 4b3e 58cc 883d 3184 0ebe
00000310: 54ba e23c d077 3f3d 3dc6 613e fc97 64be
00000320: 9e70 e53c 10f6 6c3d d1a8 10bd acac cebd
00000330: a740 3dbd 1a1e 2cbe 6342 b6bc 0753 5a3d
00000340: 6afb 373c 90b6 2cbd 599a f73d 856a de3d
00000350: 6d6b 91bd 9963 0abe 0c1f 6cbe 909e 47be
00000360: bb29 edbd 248d 213e 06e3 02be 7111 133e
00000370: 813c 483e cd68 193e f91d 78bd b39c 70bc
00000380: f132 523d b37f 423e 5c41 0b3e 10e8 d0bd
00000390: 9ceb 163d e767 0cbe 5702 29be fafb 25be
000003a0: 493a c7bd e169 82bd 6905 febd bc78 86ba
000003b0: f964 a73d 0bb7 eebd 4ef7 6d3e 0ac4 3e3e
000003c0: 2ff8 5ebd 4ce4 da3d d088 57be 05f3 79be
000003d0: f197 8b3a 30b6 37bc 559f cdbd 3f55 c0bd
000003e0: 54c1 80be 83f5 9bbd 5e46 313e 45cb d4bc
000003f0: b026 23bd 229f 88bd d7ac 063b b00c 17be
0.01108826 0.05693573 0.13438363 0.20906405 -0.099586904 -0.03976179 -0.017185444 0.19996475
0.06931606 0.24737707 -0.1770274 -0.4724353 0.004660258 -0.04711449 -0.13345076 0.1553353
-0.08500011 0.4747852 -0.06021201 -0.24809892 -0.1432226 -0.08689768 0.022003043 -0.1352051
0.1713913 -0.019620135 -0.053462192 -0.011784425 0.071703546 0.39891127 -0.15875226 0.23105133
0.21804817 -0.053556483 0.20349024 -0.12282528 0.03758148 0.016639972 -0.051293273 0.083627924
0.06509652 0.21999413 -0.118350685 0.13164376 -0.095468976 -0.093909085 -0.21685421 -0.10363546
0.27106285 -0.066624075 -0.21929939 0.14425774 0.02540676 -0.015553147 0.098696776 -0.26488677
-0.024360716 0.49500912 -0.2095765 0.07311667 0.1067949 0.0015448682 -0.38830352 -0.06364142
0.02118099 0.14508888 0.22959737 -0.26769677 0.099946715 -0.18526773 0.059715804 -0.093457125
-0.067478344 -0.115955226 0.08523175 0.20789233 -0.33358684 -0.23577811 -0.065399244 0.21763968
0.24096845 -0.26006928 0.088975504 0.115004666 -0.13151859 0.28987676 -0.16911985 0.18448982
0.023170171 -0.39252973 0.19119082 0.09622599 -0.06686427 -0.117840774 0.038400907 -0.17630577
0.027898641 -0.034119666 -0.00034131223 0.1333668 0.023822362 0.15012252 0.08416512 0.14228891
-0.09146745 0.036713496 0.0056489836 0.08593178 0.06627182 0.27604583 -0.25362572 0.04099476
0.09126168 0.16151261 0.1199198 0.11715139 0.3505099 -0.01577532 0.01300397 0.34014794
0.17932017 -0.9637329 0.08364493 -0.07475372 -0.4965762 -0.12964424 0.07943255 0.13986066
0.029116033 -0.03794833 -0.19321649 -0.08344101 0.0836667 0.0011715898 0.023139803 0.014501579
-0.044281933 -0.002031021 0.05044233 -0.07903844 -0.032742824 -0.21922652 0.22831047 -0.017985465
0.15379359 -0.060343552 0.015133368 0.031879947 -0.17850778 -0.02713582 0.123025924 -0.0507504
0.17349538 0.025022794 -0.16928999 0.04254654 0.29289705 -0.2502691 0.012388504 -0.20708159
-0.077607475 -0.14990982 -0.058689896 -0.24820092 0.15976137 0.2520356 -0.13181132 -0.086883746
-0.013067983 0.06868939 0.01740133 -0.23153855 0.25043964 -0.044386283 0.119082525 0.012941032
0.103024654 -0.14616229 -0.049506716 0.0031748705 -0.12073478 -0.008507756 -0.05551057 0.083142415
0.09121136 0.20729178 -0.092628844 0.1450761 0.011922724 -0.09066224 0.0970101 0.08099538
0.2440718 0.19917 0.066796005 -0.13917615 0.027676739 0.04674512 0.22048278 -0.22323602
0.028007802 0.05785185 -0.035317246 -0.10091528 -0.046204235 -0.16808358 -0.022248453 0.053301837
0.011229375 -0.042166293 0.12089986 0.10860161 -0.07100568 -0.13514556 -0.23058718 -0.1949408
-0.11580225 0.15776497 -0.12781915 0.14362122 0.1955433 0.14981385 -0.06057546 -0.0146857975
0.051318113 0.18994026 0.13599151 -0.102005124 0.03684579 -0.1371151 -0.16504799 -0.16209403
-0.09727914 -0.06367851 -0.12403376 -0.001025937 0.08173556 -0.116560064 0.2323887 0.1862947
-0.054435905 0.106880754 -0.21048284 -0.24409111 0.001065014 -0.0112128705 -0.10040156 -0.093912594
-0.25147498 -0.07615187 0.17311999 -0.025975833 -0.039831817 -0.06670977 0.0020549798 -0.14750934

actor.0.bias f4 [32]
00000000: 1aeb 613d 35d1 91bc 0313 ccbc d28b cbbc
00000010: e455 d1bc 4f8d 65bc 8ec2 1cbc a3e8 46bb
00000020: 6924 e4ba b2d5 b8bc 9126 bcbc 5e3b ea3b
00000030: b796 6e3d c2ec b9bd 8e5c e13c cd72 28bd
00000040: 4e85 93bc 742d 5f3d dc71 90bd 6a54 d23c
00000050: bf71 9b3d 2ffe fcbc d4c5 66bd c41d 91bd
00000060: 76c3 48bd f76b 5dbc 6e18 493b 6fa6 bebd
00000070: 2011 a93d 76b7 4ebc 4f0d 70bc eddf 953d
0.05515585 -0.017799953 -0.02491141 -0.024846945 -0.025553651 -0.014010741 -0.00956787 -0.0030351065
-0.0017405871 -0.022562835 -0.022967609 0.0071481904 0.0582492 -0.09078361 0.027509954 -0.041125108
-0.0180079 0.054486707 -0.07052967 0.025675017 0.07590055 -0.030882923 -0.056341007 -0.070857555
-0.04901453 -0.01351451 0.0030684727 -0.093090884 0.082552195 -0.012616983 -0.0146516105 0.07318101

actor.2.weight f4 [2, 32]
00000000: 3347 9d3d 9f59 33bf 3985 693c 8796 75bd
00000010: e58c bbbd 9891 943e 3c2e 8fbf 3406 083e
00000020: 9658 313e e107 e2bd 6b1f 6e3e 34b5 483d
00000030: 2f93 dc3e bcf9 6abe 3294 9abd 8be8 3dbf
00000040: 226a aa3e f2d7 083e 8260 1abf 5076 4a3d
00000050: 5713 1f3f 8cd7 493d ca37 85bf a9fc 63bf
00000060: 391c a0be 0ab0 59bf f3cc 9ebd 1139 89be
00000070: 7b50 b73e 9ad2 b7bc 315d 42bd f645 b23e
00000080: b05c 89be 5467 083f a9ee 7b3c 9501 e7bc
00000090: 1cf6 613e c7bc 98bd 7bdd 2a3f 093b ae3e
000000a0: 616d 673d bbde 2fbe 026d 0e3e 9912 163e
000000b0: ec3b 5fbe 895b 8e3e bfac bebe 59dc 5a3f
000000c0: 39cf e3be f5b4 d3be 35f8 133f 2f97 dcbd
000000d0: 1afe e1be 1668 abbd 3b2e 0e3f 22f1 263f
000000e0: 1f06 0d3f 6cb7 2e3f 38f3 a9be 504e 653d
000000f0: e558 76be cabf 40bc 4615 8abe e4a4 2cbe
0.07679596 -0.70058626 0.014252954 -0.059958007 -0.09157733 0.2901733 -1.1185985 0.13283616
0.17318949 -0.11036659 0.23254173 0.049000934 0.43081042 -0.22946829 -0.07547797 -0.7418296
0.33284098 0.13363627 -0.6030351 0.049429238 0.62138885 0.049277827 -1.040765 -0.89057404
-0.31271532 -0.8503424 -0.07753935 -0.2680135 0.3580359 -0.02243929 -0.047452156 0.34819
-0.26828527 0.53282666 0.015376725 -0.028198997 0.2206654 -0.074578814 0.667442 0.34029415
0.056500796 -0.17174809 0.1390877 0.14655532 -0.21800202 0.2780421 -0.3724117 0.85492474
-0.44494036 -0.41348997 0.5780061 -0.107710235 -0.44139177 -0.08369462 0.5553929 0.6521169
0.55087465 0.6824863 -0.33193374 0.055982888 -0.24057348 -0.011764476 -0.26969355 -0.16859776

actor.2.bias f4 [2]
00000000: 589d a33d 5a9d a3bd
0.07988995 -0.07988997

critic.0.weight f4 [32, 64]
00000000: 00af fdbd bade 4d3d b299 b43d 98f9 57be
00000010: 7a41 b6bd 61b4 213e c9b6 abbe 142a 8fbd
00000020: bb7a 08be 5cb4 94bd 4f14 46bd 99c3 663d
00000030: 09a3 2bbe 78bb 593e 4c5c 983d 1a33 57bc
00000040: 4ad5 d6bd a18c 20be d52d c1bd f972 c1bd
00000050: 50fd e83d ca12 23be 2074 85be d1ce 8bbc
00000060: 8e22 dfbd fb2e 96bd 7584 8abe aad4 74bd
00000070: be03 303d 860e 4a3d 37cf f8bd 104e 9a3d
00000080: 18fb cf3a 15d7 ec3d aa4d a8bd f21a 143e
00000090: f130 003b c40b 56bd fd35 873d eb8c a6bd
000000a0: fd0c 173e 26ae 913d 02d3 2d3d 5035 60bc
000000b0: d6e4 7c3e 3237 0ebe de56 a53c 0e6c 613d
000000c0: 656e 393e a037 8ebd 63ea 523e 5729 04be
000000d0: 8106 1ebe 3800 a03d cad3 0b3d 56eb c93d
000000e0: 9d02 b93d 3a37 88bd d05b 0e3d 8e9e e43c
000000f0: 23ff 263e 2033 4ebe 2a1e 9ebd 5ca9 fdbc
00000100: f117 c63e bd50 e3bb 462f 9e3e bb99 1bc0
00000110: 522a 73bd 5a2f 613e 0245 1fbd e175 eb3d
00000120: c0f5 f3bd 713b 973e 9c0b 33be fc9e 4f3e
00000130: f0e4 1a3e 3120 e33d 9b95 9e3d 9f6f 743d
00000140: 0953 013e e140 9f3d 86b2 123e 5f7e e03d
00000150: 5886 d93d ae98 e83d 288c cf3d b99b 8ebf
00000160: 8760 243e 0731 bb3e 1f9a e53d 7c1b 01bd
00000170: 3bbb 2e3e 980c 833d caf3 893e 79c9 eb3d
00000180: dec4 963e fbb6 443d ce16 2a3c 2dfc ff3d
00000190: f5e4 533d fa87 12c0 5cb5 173e 9aff 8e3e
000001a0: bd56 4abd 9730 62be c283 6a3d d495 a43e
000001b0: c4dc 493e 1edd f9bd d4a3 2e3f 5257 853e
000001c0: 94cd 7c3e 565d 9c3c 7269 663e 8f3b 4a3e
000001d0: e1e1 663e 2b8b 16be eff0 e9bc 3fdd 973d
000001e0: 5017 84bf 6ca3 2ebe d9ef 173d 55aa 843d
000001f0: 2342 75bf e330 bebd a320 833e 0472 ee3d
00000200: dbf5 c5bd c7f3 2d3e db70 20bd e477 f33c
00000210: 6ece 133e 2f44 d2bd 344d 233e 6155 1d3b
00000220: 1aca 65bd 58d4 21be b033 163d 36d2 c33d
00000230: 8239 b0b9 4921 5dbd c7c4 debd 4bba 203e
00000240: d131 e8bc b16f 8ebc 75c9 a3bd 4062 8bbe
00000250: d678 523c f072 423c 9b67 be3d 7bcc 8cbc
00000260: 04cf 25be d931 d33d 09ee 03bd 655b 5cbe
00000270: e36e 8fbe fde7 373e bd63 0b3d 49e8 97be
00000280: 4c3e 2c3e 26e5 323d 81b3 0dbc 7f72 54be
00000290: 7bec 393e a948 ebbd de07 333e c218 39be
000002a0: 5aa8 293e 36a5 113e 151c f9bd 0f4b 833e
000002b0: a354 223d 0ac8 d5bd 0ed1 ecbc e2e9 6c3c
000002c0: 6c6a 2ebe edd7 a4bc ba63 fa3c 1d03 4abe
000002d0: 6600 2bbe e038 3e3d 2286 343d a77c bdbc
000002e0: 0b08 c9bd 8141 a2bc 798e cebd 7423 473d
000002f0: 2be4 90bd 071d 9c3d 70b7 0cbd 4efe e2bd
00000300: 3d50 e13d 8efc 8b3e 25e4 453c 5ee3 23c0
00000310: 09ad dfbd 19c0 933e db6c a6bd 3cda 8c3d
00000320: db88 08be 89d8 b73d 5894 183e 3930 9a3d
00000330: 6062 033e 266b 2bbd 437f a03d 193d b13d
00000340: 3a43 423e aeaf 333e 992e 1f3e 0c97 423e
00000350: 0ce8 283e c38a 6d3d 20e6 8ebc 3dbf bfbf
00000360: da45 83bd ef6f 373e d3e5 833e 1f6e f03d
00000370: cba3 8a3d 78f1 753e a76e 883e 048f 913e
00000380: e59c 563e 882c 2ebe 8aba afbc e60f 603e
00000390: 88dc 683e 0b4f 11c0 2ffa 233c e649 603e
000003a0: 4bd4 8d3d 2afe 493e bafd 8e3e ce2c 3e3e
000003b0: 3012 f3bd a307 1a3e 1aab ff3e 6bfd 043f
000003c0: 32f8 143e e69f a43d f033 aa3d 6e90 b23e
000003d0: f254 b6bc 50df 14be 8baa c23e 7821 233e
000003e0: 7069 48bf 828f 2fbe fe9f 263e 71c8 06be
000003f0: 7b42 66bf d2ae 4d3d fec5 b83d 651c 6f3e
-0.12386894 0.050261237 0.088183776 -0.21091306 -0.088992074 0.15791465 -0.33537892 -0.06990448
-0.13328068 -0.07260963 -0.04835921 0.05633888 -0.16761412 0.2126292 0.07439479 -0.013134742
-0.104899004 -0.15678646 -0.0943257 -0.094457574 0.113764405 -0.15925136 -0.2606516 -0.017066391
-0.10895263 -0.073331796 -0.27054182 -0.059773125 0.04297232 0.049330257 -0.12148898 0.075344205
0.0015867678 0.11564461 -0.08217938 0.14463404 0.0019560421 -0.052257314 0.06602094 -0.08132347
0.14751048 0.07113294 0.04243756 -0.013684586 0.24696669 -0.13888243 0.020183023 0.05503469
0.18108518 -0.069442034 0.20597224 -0.12906395 -0.15432169 0.07812542 0.034137525 0.0985934
0.090337016 -0.06651159 0.034755528 0.027907636 0.16308264 -0.2013669 -0.07720597 -0.030964546
0.3869014 -0.006937115 0.30895442 -2.431258 -0.05936653 0.2199072 -0.03888417 0.11497093
-0.119121075 0.29537538 -0.17484897 0.20275491 0.15126395 0.110901244 0.07743379 0.059676763
0.12629332 0.077760465 0.14325914 0.109616034 0.10621327 0.11357246 0.101341546 -1.1141273
0.16052447 0.36560842 0.11211037 -0.03152035 0.1706361 0.063988864 0.2694381 0.11513037
0.29447073 0.048026066 0.010381414 0.124992706 0.051732022 -2.2895494 0.14815277 0.27929384
-0.049399126 -0.22088848 0.05725456 0.3214556 0.19713122 -0.12200378 0.6821873 0.26043183
0.24687797 0.019087475 0.22501162 0.19749282 0.22547103 -0.14701526 -0.028557269 0.07415246
-1.0319614 -0.17054528 0.03709397 0.06477801 -0.9580404 -0.09286668 0.25610837 0.116428405
-0.09666034 0.16987525 -0.039170127 0.029720254 0.14434215 -0.10266911 0.1594742 0.0024007189
-0.056100942 -0.15803659 0.036670387 0.09561579 -0.00033612183 -0.05398682 -0.10877376 0.15696065
-0.028344067 -0.017387243 -0.07997409 -0.27223396 0.012846192 0.011868224 0.09297105 -0.017187348
-0.16192251 0.10312242 -0.03220943 -0.21519239 -0.28014287 0.1795959 0.034030665 -0.29669407
0.1682064 0.043675564 -0.008648754 -0.20746802 0.18156616 -0.11488468 0.1748347 -0.1807585
0.16568127 0.14223179 -0.12163559 0.25643203 0.039631497 -0.10438545 -0.028908279 0.014460059
-0.17032784 -0.020122493 0.030565131 -0.1972775 -0.1669937 0.04644096 0.04407323 -0.023130728
-0.09815987 -0.019806625 -0.10085768 0.048617795 -0.070747696 0.07622724 -0.034354627 -0.11083661
0.11001632 0.2734112 0.01207832 -2.5607524 -0.10921676 0.28857496 -0.08126231 0.068775624
-0.13333456 0.08976848 0.14900339 0.07528729 0.12830496 -0.04185023 0.07836773 0.086542316
0.18970957 0.17547485 0.1554512 0.19002932 0.16494769 0.05799366 -0.017443717 -1.4980236
-0.064098075 0.17913793 0.2576128 0.11739754 0.06769522 0.24017894 0.2664692 0.28429425
0.20958288 -0.17009175 -0.021451253 0.21881065 0.22740376 -2.2704494 0.010008379 0.2190319
0.06925257 0.19725862 0.27927953 0.18571779 -0.11868703 0.15041976 0.49935228 0.51949185
0.14547804 0.08038311 0.083106875 0.34875816 -0.022257302 -0.14538312 0.3802074 0.15930736
-0.78285885 -0.17144588 0.1627197 -0.131624 -0.8994519 0.05021555 0.09022139 0.23350675

critic.0.bias f4 [32]
00000000: 0000 0000 fd21 9a3e 249a 2bbc 7ea9 733e
00000010: 4bf5 a33e 116e 903e e353 7dbd d8d3 7c3e
00000020: 3cc1 773e 6f05 893e 0c2e ecbb fbeb 683e
00000030: cf8a 893e 0314 643e 3240 893e 7f26 16bb
00000040: f4a2 69bc b10d d0bb af81 733e f8e1 05bc
00000050: 182e 943e b6e9 6f3e 3772 16bc 7a85 8b3e
00000060: d265 9b3d 1a49 783e a99b a1bd 1a73 6e3e
00000070: c178 6dbc 82d7 833e 6f08 ecba 6c65 353e
0.0 0.30104056 -0.010473762 0.23795125 0.3202308 0.28208974 -0.06184758 0.24690187
0.24194807 0.26761958 -0.0072076377 0.2274627 0.26863715 0.22273259 0.2680679 -0.002291113
-0.014260042 -0.0063492884 0.23779939 -0.008171551 0.28941417 0.23428997 -0.009182504 0.27250272
0.0758778 0.24246636 -0.07891018 0.23286095 -0.014494122 0.25750357 -0.0018007885 0.1771447

critic.2.weight f4 [1, 32]
00000000: c043 373d 8cf7 88be bfa6 223d 3c9b f3be
00000010: 5b7f 83be 5721 e3be 8c96 0b3f 07dc 26bf
00000020: 1032 d4be e05e a8be c23f 383b 8e04 f1be
00000030: 09ed 94be 534e bdbe 2c09 efbe 5ac6 f63c
00000040: f71c 4c3e 2770 aa3c 1963 d9be 7859 8f3e
00000050: a97c eebe 5742 a3be b6db b2bb 9259 f0be
00000060: d00e 2b3f 4fd0 c7be 56ac 7b3f 6793 0bbf
00000070: 0576 c03d 1107 00bf c2c2 0fbd ec79 de3f
0.044742346 -0.26751363 0.039709803 -0.47579372 -0.25683102 -0.44361374 0.5452659 -0.65179485
-0.41444445 -0.32884884 0.0028114174 -0.47073787 -0.29087093 -0.3697382 -0.46686685 0.030123878
0.19932924 0.020805432 -0.42458418 0.27997947 -0.46579483 -0.3188655 -0.0054583205 -0.46943337
0.6681948 -0.39026114 0.9830984 -0.54521793 0.093975104 -0.5001078 -0.035097845 1.7380958

exp_avg f4 [64, 12]
00000000: 0400 0000 0400 0000 0400 0000 0400 0000
00000010: 0400 0000 0400 0000 0400 0000 0400 0000
00000020: 0000 0000 0400 0000 0000 0000 0400 0000
00000030: 9d2f 1a3b 97b4 7b3a 159d aaba 45f8 a83a
00000040: 640c ee3a 5363 95b9 6c50 25ba 97b4 7b3a
00000050: 7b35 29bc 7d88 eebb 4428 26bb 3607 853a
00000060: ae41 b63b 55ad 113a 56e7 843b 2e0d e239
00000070: 247b 4bb9 60b0 61b9 8238 dfb9 55ad 113a
00000080: 2a44 15bc 7f89 d2bb 85ab afbb 3d80 893b
00000090: 6db3 2e3a b1c5 3039 0400 0000 9207 9b39
000000a0: 02f4 1a3a 318a 883a 1b64 1e35 b1c5 3039
000000b0: 9880 b038 2c91 0939 c3ae e239 4e1a 173a
000000c0: d0f0 c6bb 3fdd 183a bf93 9e39 b4b1 293a
000000d0: 7712 60bb 19ff 9dbb 1e86 043a 3fdd 183a
000000e0: 20be de3a a64f 723b 8904 e1ba 830a e3bb
000000f0: 7906 253b 613c 1739 16bb ca3a 4d6c a938
00000100: 7d93 ebb8 4e5d 7aba f392 60b9 613c 1739
00000110: 0823 80bb 603c 38bb 1323 3fbb 71e1 f33a
00000120: 8454 203a 89f8 b138 2411 073a 1d51 d438
00000130: 8ede 2db7 1db9 453a 5199 8338 89f8 b138
00000140: 64cb 423a 796f bd38 f109 373a 97a6 2f3a
00000150: 127e f038 d8b1 71b9 0000 0000 37b4 cb38
00000160: 34b5 f239 c10f 4dba f2a4 1fb9 d8b1 71b9
00000170: b888 8f3a 88a6 4c3a b888 8f3a a1fb 0f3a
00000180: c547 fc39 aa04 3f38 c4be 0a3a 2532 91b9
00000190: c3ae 2839 c36d 85ba b6a8 92b9 aa04 3f38
000001a0: 326f acbb 83e0 1fbb 2cba 1ebb 98e5 03ba
000001b0: 5c89 353c e771 183b fac8 d73b 169a 753b
000001c0: 3ce8 8c3b 6ea7 2f3c 8164 123a e771 183b
000001d0: 0400 0000 6b82 2a3b de1b 8a3a 1e2f 393c
000001e0: 1256 3d39 f6c9 30b7 a47c 2fba cd7b 6037
000001f0: a277 9638 04d6 9639 ea4e 0b36 f6c9 30b7
00000200: f3d8 6f3a f398 89b8 91b7 5a3a 77cb 263a
00000210: 1517 1b3b 4a4e 9a39 9619 8d3a 96f6 093a
00000220: 49b3 5a3a 3bd9 383a cd74 ecb8 4a4e 9a39
00000230: 3daa 45bb c5af 53ba 517a 90ba d1be 033b
00000240: a74d 9d3a 3012 deb9 5870 5c3a b0ab f1b8
00000250: 4d3e 9239 6b73 933a 76e1 e3b8 3012 deb9
00000260: ce53 c63a 3c13 a23a 375f b23a 73a6 e03a
00000270: 601a 83bb 7ce3 cfb9 5658 a9bb d706 9338
00000280: fac8 273a 37d0 a939 1a36 9739 7ce3 cfb9
00000290: caf9 cd3b 0212 723b 03ac 383b a184 2ebb
000002a0: 69fe 79b9 18f2 4fb9 c921 7e3a f817 e7b9
000002b0: 3168 2bba b8dd 70bb f64d b4b8 18f2 4fb9
000002c0: 53ac a0ba c5b2 95ba b103 133b 94a7 70ba
000002d0: ef63 4d3b 50d5 9b39 3ada 173b 8f9d 7e39
000002e0: 3c71 6b39 cfac d3b9 f2f9 8cb9 50d5 9b39
000002f0: 3211 bcbb 2bc0 52bb 87a4 57bb f2d6 093b
00000300: 563e 963b 30b2 103a 10de 733b 9da4 013a
00000310: 6a6b 223a d436 063a 47b9 b5b9 30b2 103a
00000320: 9e9d 03bc 3170 8bbb dec8 7dbb 5833 4c3b
00000330: 90e9 bb3b 93e3 1b3a 1d40 723b 4ae2 043a
00000340: a20c 413a 6653 8739 7cff 13ba 93e3 1b3a
00000350: ab32 5bbc 34ca c3bb 11ee c7bb d20b 4c3b
00000360: e506 ee3a fb76 bc39 4eda 053b 1fe2 f139
00000370: ca53 273a 2bab 843a 0995 fdb8 fb76 bc39
00000380: 0776 5ebb 712f a2ba 766c d6ba 6d3d ad3a
00000390: 81b9 da39 99e5 8536 8d7e 543a 8801 85b8
000003a0: 59de d138 8090 a3ba c6b7 72b8 99e5 8536
000003b0: 76b9 4fbb 16b3 43ba 0c41 11bb 8e8d 11ba
000003c0: 2bcd 0f3a 92c2 3db8 03ac c039 454d abb8
000003d0: 19e2 40b9 46ee 0e3a 0400 0080 92c2 3db8
000003e0: 0400 0080 0400 0080 0400 0000 2bcd 0f3a
000003f0: bd0b 22bc 45ce e1ba f28d 78bc f68c b4ba
6e-45 6e-45 6e-45 6e-45 6e-45 6e-45 6e-45 6e-45
0.0 6e-45 0.0 6e-45 0.0023526915 0.00096018 -0.0013016785 0.0012891373
0.0018161652 -0.00028493497 -0.0006306234 0.00096018 -0.010327692 -0.0072794543 -0.002535359 0.0010149244
0.005562029 0.00055571395 0.0040558977 0.000431159 -0.00019405462 -0.00021523377 -0.00042575976 0.00055571395
-0.00911049 -0.006425082 -0.005361023 0.0041961954 0.000666431 0.00016858314 6e-45 0.00029569544
0.0005910994 0.0010417161 5.900526e-07 0.00016858314 8.4162864e-05 0.00013119419 0.00043236287 0.00057641126
-0.0060711876 0.0005831308 0.00030246188 0.0006473318 -0.0034190693 -0.00482167 0.00050553854 0.0005831308
0.0016993918 0.0036973744 -0.0017167489 -0.0069287433 0.002518086 0.00014422975 0.0015467133 8.0787206e-05
-0.00011233145 -0.00095506466 -0.00021417048 0.00014422975 -0.003910426 -0.0028112158 -0.0029165193 0.0018606615
0.00061161094 8.486311e-05 0.00051523955 0.00010124056 -1.0363421e-05 0.00075425376 6.275124e-05 8.486311e-05
0.000743082 9.032986e-05 0.00069823774 0.0006700544 0.00011467574 -0.00023049803 0.0 9.713362e-05
0.00046292844 -0.0007822477 -0.00015224869 -0.00023049803 0.001095078 0.00078067975 0.001095078 0.0005492513
0.00048118658 4.5542292e-05 0.00052927085 -0.00027693916 0.00016086832 -0.0010179806 -0.0002797299 4.5542292e-05
-0.005262279 -0.0024395294 -0.0024219854 -0.00050314656 0.011080112 0.002326125 0.0065852376 0.0037475876
0.0043001454 0.010721071 0.0005584434 0.002326125 6e-45 0.0026017677 0.001053687 0.0113027375
0.00018056508 -1.053744e-05 -0.0006694293 1.3380265e-05 7.174841e-05 0.00028769684 2.0758548e-06 -1.053744e-05
0.00091494544 -6.561158e-05 0.00083433936 0.0006362716 0.002366488 0.000294315 0.0010765071 0.00052628794
0.00083427556 0.0007051413 -0.00011275113 0.000294315 -0.0030161284 -0.0008075203 -0.0011022781 0.002010275
0.0012001292 -0.0004235669 0.00084090745 -0.00011523755 0.00027893708 0.0011249607 -0.00010866199 -0.0004235669
0.0015131177 0.0012365351 0.0013608699 0.001713945 -0.004000947 -0.00039651606 -0.005168001 7.01078e-05
0.0006400492 0.00032389324 0.00028841273 -0.00039651606 0.0062858807 0.0036937003 0.00281787 -0.0026629346
-0.00023841266 -0.00019831245 0.00096943654 -0.00044077612 -0.0006538658 -0.0036753248 -8.59759e-05 -0.00019831245
-0.0012258388 -0.0011421075 0.002243262 -0.00091802445 0.0031340083 0.00029722834 0.0023170845 0.00024282023
0.0002245353 -0.0004037381 -0.00026889105 0.00029722834 -0.0057393545 -0.0032157998 -0.0032904462 0.0021032658
0.0045850677 0.0005519716 0.0037211217 0.0004945489 0.00061958155 0.00051198644 -0.00034661053 0.0005519716
-0.008033184 -0.0042553176 -0.0038724463 0.0031158533 0.00573463 0.0005946692 0.0036964484 0.000506912
0.0007364248 0.00025811343 -0.0005645675 0.0005946692 -0.013378779 -0.005975032 -0.006101378 0.0031134975
0.0018160014 0.00035946802 0.002042431 0.00046135575 0.000638303 0.0010121813 -0.0001209174 0.00035946802
-0.0033944861 -0.0012373758 -0.0016359228 0.0013217159 0.0004171841 3.9904376e-06 0.0008106016 -6.3422194e-05
0.00010007312 -0.0012478977 -5.786845e-05 3.9904376e-06 -0.0031696237 -0.00074653456 -0.0022164015 -0.00055524043
0.00054855895 -4.524232e-05 0.00036749252 -8.168308e-05 -0.00018394775 0.00054523756 -6e-45 -4.524232e-05
-6e-45 -6e-45 6e-45 0.00054855895 -0.009890494 -0.0017227611 -0.015170561 -0.001377492

exp_avg_sq f4 [64, 12]
00000000: f401 0000 f401 0000 f401 0000 f401 0000
00000010: f401 0000 f401 0000 f401 0000 f401 0000
00000020: 0000 0000 f401 0000 0000 0000 f401 0000
00000030: ac81 373a aa6e a437 0513 4d39 566c e538
00000040: d37c 3d39 69f8 553a c9ba d836 aa6e a437
00000050: 6bab 353a 657b 0e3a bc56 1b3a ad5b 4e3a
00000060: 1b54 3f3a ce83 1537 9e13 773a 116a 0038
00000070: 727a d538 0554 133a 2437 2e36 ce83 1537
00000080: 4fa1 d739 5abd bf39 19da a039 5ae4 423a
00000090: a94f d037 4e28 3435 bfa1 5134 fde7 cf36
000000a0: 4267 1f37 282f 5c38 f93d 0c34 4e28 3435
000000b0: 1d57 a237 f2a4 8237 cd43 be37 c7de e937
000000c0: 7ab1 103b 9678 a338 607f 173a e9f9 b439
000000d0: 70c6 193a b6d6 563a 08e6 b537 9678 a338
000000e0: d256 e83a d46f a63a 9e47 c83a 4442 213b
000000f0: d957 0939 bbf3 f735 982a 3339 b3a9 d236
00000100: f1b9 a037 61ca ca38 f20b 0935 bbf3 f735
00000110: 03da a038 1a8e 8838 206c 6338 ebbf 0c39
00000120: 3607 4837 6c2a 9735 d0c5 7a37 6be6 9636
00000130: b7ff d336 3cfd 2838 3e9b 1d34 6c2a 9735
00000140: f2a2 1d37 9e8c 8836 2774 1137 05c3 4237
00000150: 2a91 8c37 ea96 9536 0000 0000 5c53 cf37
00000160: cf48 0f38 de52 7239 07f1 2236 ea96 9536
00000170: bc29 c739 7d47 9639 7049 c739 9847 1b38
00000180: 3762 3139 cb6c 4a37 64c2 2f39 1819 1f38
00000190: 3f46 5838 fd4b 9739 3cdb 4e36 cb6c 4a37
000001a0: 406e 4f39 926b f738 22bb 2f39 b5b4 4c39
000001b0: 91a4 3c3a 14eb 9e37 09b6 313a 5f6a 9138
000001c0: e202 0639 c3a5 433a eb99 0a36 14eb 9e37
000001d0: 8d02 0000 8fea 6f38 91af c737 3ca6 3c3a
000001e0: 4189 fc35 31f3 f634 8f84 4937 e034 e835
000001f0: 4dcf 4c36 85e8 e237 e9b2 2d34 31f3 f634
00000200: 4ff7 b137 7857 7c37 bf34 b437 2477 a136
00000210: c03f 2939 77ce fb36 5e0b 3339 0809 bf37
00000220: 2f8e 1138 e1c7 7139 4bc7 e935 77ce fb36
00000230: d9b5 e738 6915 8c38 b076 a938 ca1b 3439
00000240: 92d5 9b37 6aa8 d835 1b4e eb38 c380 2d37
00000250: a2ef c837 780c 2039 1607 2435 6aa8 d835
00000260: e3ef 1839 a219 0139 a852 1939 06a3 e737
00000270: ac41 9e39 e2d1 d136 f4f6 8339 7c4a c737
00000280: 1f5c 5338 8004 cf39 a984 f535 e2d1 d136
00000290: 6890 5939 e4ab 2539 0f1e 1d39 0c7b a439
000002a0: cc8f 323a 9c90 b636 3e14 213a da75 2738
000002b0: 682c 0b39 c40d f039 9bdf 0236 9c90 b636
000002c0: 973d d739 cdfb ba39 1d98 8f39 2c5c 383a
000002d0: 2650 3739 c14f e036 5daf 4639 9a3a b137
000002e0: e318 1738 5195 5d39 543d f235 c14f e036
000002f0: 9105 1839 e869 d938 13ab f338 1035 4439
00000300: 5419 d939 ac8d 8f37 b8a3 cf39 1ff5 6538
00000310: c9cd b738 7eae 103a ad49 9836 ac8d 8f37
00000320: 46b0 b839 953c 8339 6f78 9139 fcfb e739
00000330: b6b0 813a 9952 6f38 edaf 7a3a 8995 3a39
00000340: 7abb 8339 f380 c83a f86b 8137 9952 6f38
00000350: 5dd1 8a3a 027f 3a3a 33eb 623a 2413 903a
00000360: cc0e 5f39 1317 c936 be90 7539 922f 9c37
00000370: d12d 1338 59c7 4739 9516 a935 1317 c936
00000380: 5745 8e38 8e54 7338 0713 6637 fe84 6039
00000390: a667 ca38 3e4e e336 3549 0639 e959 c137
000003a0: 28bd 0938 54c5 5739 f35d ff35 3e4e e336
000003b0: 42d5 0c39 4f33 bb38 2dcc 0639 dd2c f438
000003c0: 0ad9 6f39 f224 8b36 aabd 6439 9a1a ba37
000003d0: 9907 3238 4e44 9639 94c7 0b2b f224 8b36
000003e0: 6a92 e42b 6968 4c2d 8b57 652a 0ad9 6f39
000003f0: 76df 273b 959c 3938 6d0d 1f3b 601a 4439
7e-43 7e-43 7e-43 7e-43 7e-43 7e-43 7e-43 7e-43
0.0 7e-43 0.0 7e-43 0.00070002186 1.9601855e-05 0.00019557409 0.0001093975
0.00018070945 0.0008162321 6.4590463e-06 1.9601855e-05 0.00069301453 0.00054352573 0.0005925705 0.0007871937
0.00072986045 8.91178e-06 0.00094252254 3.061636e-05 0.00010179439 0.0005620125 2.5960117e-06 8.91178e-06
0.0004112818 0.00036571437 0.00030680074 0.000743454 2.4832627e-05 6.7113876e-07 1.9523485e-07 6.1960877e-06
9.50118e-06 5.2496005e-05 1.3061062e-07 6.7113876e-07 1.935247e-05 1.5574016e-05 2.2681337e-05 2.7879503e-05
0.002207844 7.7949066e-05 0.0005779173 0.00034518473 0.00058660563 0.00081954466 2.1683998e-05 7.7949066e-05
0.001772607 0.0012698122 0.0015280133 0.0024606148 0.00013098064 1.8473869e-06 0.00017086638 6.2782433e-06
1.9160072e-05 9.6698066e-05 5.105386e-07 1.8473869e-06 7.6700024e-05 6.511454e-05 5.4221717e-05 0.00013422935
1.1922608e-05 1.1262723e-06 1.4947218e-05 4.4971725e-06 6.318059e-06 4.0290164e-05 1.4678241e-07 1.1262723e-06
9.395868e-06 4.069486e-06 8.669717e-06 1.1608708e-05 1.6756898e-05 4.4581147e-06 0.0 2.471514e-05
3.4161665e-05 0.00023109789 2.4280178e-06 4.4581147e-06 0.00037987332 0.00028663492 0.00038010953 3.7021557e-05
0.00016916623 1.2065469e-05 0.00016761717 3.7931924e-05 5.1563835e-05 0.0002885758 3.0824003e-06 1.2065469e-05
0.0001978213 0.00011797914 0.00016759013 0.00019522275 0.0007196153 1.8944535e-05 0.00067791395 6.933952e-05
0.0001278031 0.000746336 2.0653194e-06 1.8944535e-05 9.15e-43 5.720049e-05 2.3804403e-05 0.0007196402
1.8815409e-06 4.5998016e-07 1.2011397e-05 1.7300736e-06 3.0519034e-06 2.7049575e-05 1.6176968e-07 4.5998016e-07
2.1215206e-05 1.5040736e-05 2.1482234e-05 4.8120437e-06 0.00016140845 7.5044186e-06 0.00017075005 2.277318e-05
3.4703113e-05 0.00023058012 1.7417855e-06 7.5044186e-06 0.0001104881 6.679708e-05 8.080655e-05 0.0001717649
1.8576891e-05 1.6142269e-06 0.000112202215 1.0341583e-05 2.3953446e-05 0.00015263434 6.110507e-07 1.6142269e-06
0.00014585214 0.00012311948 0.00014622009 2.761326e-05 0.00030185038 6.253119e-06 0.00025170262 2.3757333e-05
5.0392115e-05 0.0003948547 1.8292532e-06 6.253119e-06 0.00020748528 0.0001579966 0.00014983884 0.00031372195
0.00068115885 5.4408574e-06 0.0006144679 3.992566e-05 0.00013272616 0.00045786623 1.9501665e-06 5.4408574e-06
0.00041053884 0.0003566429 0.0002738842 0.00070327776 0.00017482098 6.685005e-06 0.0001894808 2.1127333e-05
3.6024383e-05 0.00021131827 1.8048254e-06 6.685005e-06 0.00014497923 0.00010367093 0.00011619008 0.00018711784
0.00041408336 1.71129e-05 0.00039604097 5.482614e-05 8.7644505e-05 0.00055191654 4.53853e-06 1.71129e-05
0.0003522655 0.00025031404 0.00027746285 0.00044247496 0.0009894583 5.7058965e-05 0.0009562958 0.00017794048
0.00025125948 0.0015297219 1.5428275e-05 5.7058965e-05 0.001059096 0.00071142626 0.0008656263 0.0010992032
0.0002127245 5.992953e-06 0.00023418941 1.86188e-05 3.50902e-05 0.00019052382 1.2598053e-06 5.992953e-06
6.784003e-05 5.8014462e-05 1.3713498e-05 0.00021411848 9.6514166e-05 6.7742358e-06 0.00012806508 2.304926e-05
3.283951e-05 0.00020577508 1.9026323e-06 6.7742358e-06 0.00013430885 8.926412e-05 0.00012855297 0.00011643183
0.0002287367 4.146824e-06 0.0002181443 2.2185315e-05 4.2445583e-05 0.0002866112 4.965969e-13 4.146824e-06
1.6241012e-12 1.1619241e-11 2.0369658e-13 0.0002287367 0.002561537 4.4253266e-05 0.0024269477 0.00018701842

exp_avg f4 [64]
00000000: 0400 0000 ede6 cb3b e888 ad3b 5ff1 ec3a
00000010: ee6a 3ebc 7eaa e43a d6d1 5239 b888 8f3a
00000020: eb16 953a 93e7 903c 4074 1cba 3154 7f3b
00000030: ec1b 8139 4bbc 48bb f048 a0ba 6ffd 603b
00000040: 470d c53b 97e9 013c 1fcf 523b ed86 ab3a
00000050: 48c8 59b9 a29c 8fbc 4bb4 8f3b 952a 05bb
00000060: 4d7b 803a cfe1 7f3a 05d6 cab9 c65c 68ba
00000070: f9a4 843a 1fec 95bb beb2 8fbb c846 033b
00000080: 69d3 a5bb c7e0 8f3b 157f df3b 349d 103c
00000090: 25b7 8c3b a1e5 ec3b 3287 c2bb faa5 63bb
000000a0: 577d df3b 90af 143c 98cc 14bc 3fff a5bb
000000b0: bf24 af39 7d18 8c3c 10cb 9138 acc7 2d3b
000000c0: 995f 4e3b cf46 293c bc50 1e3a c057 02ba
000000d0: ec6a 153c d131 bd3a 8872 49bb 236b a63a
000000e0: 0271 0a3b 1ac8 8ebb 560d 8c3b 8353 2bbc
000000f0: e9ed c13b 02fa 3fba 3ab6 3a3b de38 3339
6e-45 0.006222597 0.0052958615 0.0018077305 -0.011622174 0.001744583 0.0002010533 0.001095078
0.0011374628 0.017688548 -0.00059682503 0.0038960094 0.000246256 -0.003062981 -0.0012228768 0.0034330746
0.0060135457 0.007929227 0.003216691 0.0013086476 -0.00020769343 -0.017530743 0.0043855063 -0.002031957
0.0009802371 0.0009761126 -0.000386879 -0.0008863922 0.0010119966 -0.004575267 -0.0043853214 0.0020031203
-0.0050606024 0.004390809 0.0068205693 0.008826543 0.0042942935 0.0072295223 -0.0059365267 -0.003473638
0.0068203616 0.0090750605 -0.009081982 -0.005065828 0.0003340598 0.01710152 6.951962e-05 0.0026516719
0.0031490086 0.0103318235 0.0006039252 -0.0004972182 0.00911973 0.0014434402 -0.0030738432 0.0012696724
0.0021124487 -0.00435735 0.0042740507 -0.010456922 0.0059182537 -0.0007323326 0.0028489963 0.00017091955

exp_avg_sq f4 [64]
00000000: f401 0000 8923 f13a 903d 9e3a 9dbc e338
00000010: da7a c73b 274d 6339 3311 8a38 7049 c739
00000020: 4ea4 013a 0818 b73a 422a 1d38 0c29 c839
00000030: ad65 9339 771c 1c3a c4e6 c43a 7965 c239
00000040: 2e2e 6f3a f427 253b eabe cc39 a209 b539
00000050: 5347 2f3a 007a c33b a82b f239 b397 1f39
00000060: 201b 5a3a e9c5 ed38 f416 b137 0e49 4939
00000070: 7414 9439 6118 5939 89af c939 5817 9b39
00000080: e40c d639 857a d239 a552 093a ce30 003b
00000090: 666e fa39 464a 563a 9d3d cf39 e742 483a
000000a0: a2fb 023a 373e 0b3b 1ad6 c73b a13d 6a3a
000000b0: ef38 e237 ddd2 073b db1f d338 f570 243a
000000c0: 34e4 e439 5a73 d13a d001 0b39 43f2 af38
000000d0: 5aa8 423a c652 853a 7035 253b 4fa9 9738
000000e0: 4b9b e838 a492 d339 b674 1c3a c1be 1f3b
000000f0: 43fb f839 e716 8a39 5aef 4d3a 8bf0 9a38
7e-43 0.0018397431 0.001207279 0.000108593355 0.006087643 0.00021677148 6.5835564e-05 0.00038010953
0.0004945443 0.0013968954 3.7471073e-05 0.00038177555 0.0002811378 0.00059551693 0.0015022387 0.00037078166
0.0009124008 0.0025200816 0.00039052154 0.00034530187 0.00066863484 0.0059654713 0.00046190363 0.00015219934
0.0008320082 0.00011337904 2.1110733e-05 0.00019196069 0.00028243999 0.00020703815 0.0003846849 0.00029581296
0.00040826865 0.00040145605 0.000523845 0.001956034 0.0004776597 0.000817452 0.00039528022 0.0007639364
0.00049966027 0.00212468 0.006098521 0.0008935575 2.6967811e-05 0.002072505 0.000100671976 0.00062729354
0.00043657573 0.0015979812 0.00013256748 8.389775e-05 0.0007425599 0.0010171763 0.0025208853 7.231777e-05
0.00011091548 0.00040354312 0.0005968319 0.0024375173 0.0004748945 0.00026338475 0.00078557956 7.388097e-05
