models/checkpoint_590000.pt (torch, 125871 bytes, 33 tensors)

shared.0.weight f4 [64, 12]
000000 c7 c8 43 be af eb a6 be 85 a2 09 3e 75 cc 43 3f
       -0.19119559 -0.32601687 0.13440903 0.7648385
000010 f5 42 55 be 60 7c 9e bc db be 00 bf b5 8c 01 bf
       -0.20826323 -0.019346416 -0.5029122 -0.50605327
000020 e6 e0 74 be ce 85 48 be 5b 45 2d be 46 d5 9c 3d
       -0.23913917 -0.19582292 -0.16920988 0.07657866
000030 cb 73 3b bd d2 74 1b bd ed 2d 68 be 99 5e 1d 3f
       -0.045764726 -0.037953205 -0.2267377 0.6147247
000040 75 27 8e bc fc f2 45 be dd 39 7f 3e 33 08 42 3e
       -0.017352799 -0.19330972 0.24924417 0.1894844
000050 2a 74 f2 3d a9 d6 f9 bd b3 65 53 3c a8 c5 b7 3d
       0.11838563 -0.12199146 0.012902665 0.08973247
000060 74 12 c6 3d 01 a1 2d be b0 be 30 bd 8a 4f 22 be
       0.096714884 -0.1695595 -0.043150604 -0.15850654
000070 b3 a1 08 bf 9c b3 a1 3b a8 1d c0 3d 0a 2e 03 be
       -0.53371733 0.004934741 0.093806565 -0.12810531
000080 0f d6 9f be e3 ac ed 3d 1d 07 8a 3e 2f ed 07 3d
       -0.31218 0.11605241 0.26958552 0.03318518
000090 ca 72 33 be a9 27 b5 be 73 51 2e bc ef 9e 82 3d
       -0.17524257 -0.3538182 -0.010639536 0.063779704
0000a0 88 e3 42 3e 80 93 91 3e 62 53 68 3e ad 65 d5 bc
       0.19032109 0.28432846 0.22688058 -0.02604946
0000b0 13 0f 4b be 21 13 02 3d 05 6c d9 3d 96 5c 20 3e
       -0.19829969 0.031756524 0.10616306 0.15660319
0000c0 ed 2e c2 3d 96 8c 9d be ba da 8d 3d 84 18 36 bf
       0.09481607 -0.3077132 0.069264844 -0.7113116
0000d0 1d e4 98 be 87 77 0f be 5a f6 1b bf 18 20 23 be
       -0.29861537 -0.1401044 -0.6092278 -0.15930212
0000e0 2d ef 0a 3d 49 e7 04 3e 20 81 4a be 17 78 a9 be
       0.033919502 0.12978853 -0.1977582 -0.33099434
0000f0 cd 3c 2d be 73 50 c6 bc cb 96 91 be 7e 09 fb be
       -0.16917725 -0.024208283 -0.28435358 -0.4903068
000100 7e 8c c0 be 63 f7 88 3d 98 d0 1d be f8 77 af bd
       -0.37607187 0.0668781 -0.15411603 -0.08567804
000110 6c d6 d8 3b d4 da a6 bc 7e cb 37 bd ef 43 00 3e
       0.006617358 -0.020368017 -0.0448718 0.12525915
000120 8f 29 e9 bd 5d 70 fb 3e fe 23 ab bc 6e 1f b5 3e
       -0.1138488 0.49109164 -0.020891186 0.3537554
000130 c3 67 5b bf b8 1f 6d be 31 23 e0 bc c0 06 89 3e
       -0.857052 -0.23156631 -0.02736053 0.26762962
000140 16 1f 9b 3d d0 0e 17 bc e8 c4 fa 39 51 68 f9 3d
       0.075742885 -0.00921984 0.00047830422 0.121781
000150 0c 57 91 3d 60 24 aa be a4 42 01 3d e0 43 bf be
       0.07096681 -0.33230877 0.031557694 -0.37356472
000160 83 d3 f4 be 35 f5 25 bd 25 f5 f3 be e2 be 67 be
       -0.4781762 -0.04051705 -0.47647968 -0.2263141
000170 92 62 14 bd 5f 06 90 be c1 12 22 3e 24 7a 39 3d
       -0.036226816 -0.2812986 0.15827467 0.045282498
000180 4f 85 a8 be 7a aa a9 be e6 36 71 3d 92 7b b8 be
       -0.32914206 -0.33137876 0.058890246 -0.36031777
000190 78 74 45 3e 6f 55 a9 3d 1e 6f a2 bf 22 5d 6f be
       0.1928271 0.08268248 -1.269016 -0.23375371
0001a0 df af 1a 3e 16 8f b0 3d 85 d6 11 3c c9 55 55 bf
       0.15106152 0.086210415 0.008901243 -0.8333402
0001b0 aa 49 6d 3d 77 9a 4c 3e 2c d1 ac 3d 3e bf 87 bd
       0.05793158 0.19980799 0.08438334 -0.066282734
0001c0 da 51 f4 be a9 85 28 3e 16 3d b1 bf a0 bc 4c 3d
       -0.47718698 0.16457237 -1.3846767 0.049984574
0001d0 ca f8 83 3d 4d 81 02 bf ab 79 64 3d 5d 1a 53 be
       0.06443937 -0.5097855 0.055780094 -0.20615526
0001e0 89 b7 db bd ef dc 50 3e 13 5e 09 3c 13 22 fc 3e
       -0.10728366 0.2039678 0.008384245 0.49244747
0001f0 1b fd 1b bf cf 4f 0e be d5 6c e2 bc 5d 5f 59 3d
       -0.60933083 -0.13897632 -0.027639786 0.05306946
000200 2d 94 54 bd 8f 0f 65 bc cb 52 82 3d da 49 68 3e
       -0.051899124 -0.01398076 0.06363448 0.22684422
000210 74 ae bf be 5e 99 0e 3f a3 43 bb 3d db df 94 3f
       -0.37437785 0.5570277 0.0914376 1.1630815
000220 e2 ef 7f be 61 e4 91 bd 4a 03 9b 3e 1d 2a e3 3e
       -0.24993852 -0.07123638 0.30275947 0.44368067
000230 10 70 b4 3d b5 3c 0a bd 17 1c 0d 3d ce 30 27 3e
       0.08810437 -0.0337493 0.034450617 0.16327211
000240 a2 e7 40 be ae c7 b5 3e 9c eb 90 3b ab 42 d9 3d
       -0.18838361 0.35503906 0.004422618 0.10608419
000250 4b 0b 8d be 82 8c 11 3e 17 cf 80 3e b0 a5 b0 3d
       -0.27547678 0.14213756 0.25157997 0.086253524
000260 b5 32 74 3d c6 d6 64 be 9d 38 c3 bd b6 9a c2 3d
       0.05961867 -0.22347555 -0.095322825 0.09502165
000270 7f 6f cf be 3d aa d3 3d 79 0d 34 bd 1f 5e cf 3e
       -0.40514752 0.10335205 -0.04395816 0.40501496
000280 e1 d2 fb 3d c2 77 97 3d ba 6c 3e 3f 2e 2c b0 3e
       0.12296081 0.07395889 0.74384654 0.34408706
000290 b3 45 0f 3e a2 39 77 be 40 3f f7 3d 14 d5 bf 3e
       0.13991432 -0.24143079 0.12072611 0.37467253
0002a0 82 c0 91 bd fa 67 55 3d 3d e1 1d be 70 6e ec 3e
       -0.07116796 0.052101113 -0.15417953 0.46178007
0002b0 7a 20 07 bf ad ee 68 3e 34 1f ab 3e a8 c8 27 bd
       -0.5278393 0.22747298 0.33422244 -0.040962845
0002c0 b6 ae b6 bd 7c 9b 2c bd 8c 0f 1f 3e d9 d4 a1 3e
       -0.08920042 -0.04214047 0.15533274 0.31607702
0002d0 5e 6c 82 3d 2c 10 eb be 03 bb 3f 3e 04 93 c0 3d
       0.06368326 -0.45910776 0.18723683 0.09403041
0002e0 d7 2e c3 be 84 e8 f0 3c 69 19 a2 be a2 e7 bf be
       -0.38121673 0.029407747 -0.3166001 -0.3748141
0002f0 7c 75 ae 3e e6 1e 9b bd 03 5c 09 3e 25 9d 20 be
       0.34074008 -0.07574253 0.13414006 -0.15684946
000300 9b f7 7c be 76 29 a1 3e 2a a9 df bb 1f db 3a 3f
       -0.24703829 0.31476945 -0.006825586 0.729906
000310 ca 00 46 bd 0f 99 91 bb 7d ee 9e 3e 2f 84 18 3f
       -0.048340596 -0.004443295 0.31041327 0.59576696
000320 24 dc 02 be e4 15 55 bd 5f 12 63 3d af 23 99 3e
       -0.1277929 -0.05202283 0.055437442 0.29910037
000330 5e 0c 99 3c 70 03 82 3c ba de 24 be 6c 18 8e bd
       0.018682655 0.01587078 -0.16100588 -0.06938252
000340 45 a9 1a be 83 5a 15 bd 7b f6 30 3d 3b 36 65 bd
       -0.15103634 -0.03646327 0.043203812 -0.05595992
000350 06 ab 86 bd c7 62 c5 bd 31 c7 96 bd 38 ed 01 bd
       -0.06575589 -0.09637981 -0.073622115 -0.03172037
000360 11 47 84 be 19 02 18 3f c5 58 01 3e 08 36 c1 3e
       -0.2583547 0.593782 0.12631519 0.37736535
000370 ee d6 79 bd 8a 30 90 3d 84 7e 36 3e a1 ac 1d 3f
       -0.06099599 0.07040508 0.178217 0.61591536
000380 cf 41 7d bd f3 52 a0 3d 73 e0 4a bf 88 fc 91 be
       -0.061830338 0.07828321 -0.7924873 -0.2851298
000390 4c ad 3b 3e dc 28 02 bf d7 4a df be 6e 81 29 3f
       0.18327826 -0.50843596 -0.43611786 0.6621312
0003a0 6a 24 55 3e d7 31 0e be 11 1b 33 bf 43 7e e6 be
       0.20814672 -0.138862 -0.69963175 -0.45018205
0003b0 1f e7 ec bc 4a ef e8 3d d0 7c 0a be dd 5e 49 be
       -0.0289188 0.11373766 -0.13524175 -0.19665094
0003c0 fa ed 74 bd ea 76 d1 bd 08 15 d0 3c d4 6a 9e bd
       -0.059797265 -0.10227759 0.025400653 -0.077352196
0003d0 26 d2 02 bf d9 d4 25 3e 0f 31 bc be 6d 0b 3a bd
       -0.5110191 0.16194476 -0.3675618 -0.045421053
0003e0 e7 2b 26 bd 67 ad a8 3e 62 b4 e7 bd 94 44 04 bf
       -0.040569212 0.32944795 -0.11313702 -0.5166714
0003f0 de a5 9a 3e 5f d5 08 be b2 c9 1d bd f7 a9 eb bf
       0.30204672 -0.13362645 -0.03852243 -1.8411244

shared.0.bias f4 [64]
000000 cb a0 41 3e e6 ca 13 3e 65 b9 59 3d 70 f5 82 be
       0.18908994 0.14432868 0.05315532 -0.2557788
000010 c6 a8 19 3e ee 00 7c 3d bb 09 93 3e f7 75 cb 3c
       0.15005788 0.061524324 0.2871836 0.024836523
000020 2e 3c d1 3e 7c bd 4f 3e 2e 68 ab 3e 45 e9 21 3e
       0.40866226 0.20287126 0.3347792 0.15811642
000030 59 f5 13 3e 38 80 f4 3c 73 ed 1a 3e 27 58 a3 3c
       0.14449061 0.029846296 0.15129642 0.019939495
000040 10 3b 32 3e 00 00 00 00 5e cb 46 3e 37 c8 7a 3e
       0.17405343 0.0 0.19413516 0.24490438
000050 f8 29 70 3d d9 57 a1 3e f2 a5 be bc 97 b0 97 be
       0.058633775 0.31512335 -0.023272488 -0.29626915
000060 85 4f cb 3e 27 52 c2 3e 6a fc b3 3e c4 fd 1b bc
       0.39709106 0.37953302 0.35153514 -0.009520952
000070 b8 5f e3 3d f8 6d a2 bd 25 f6 ce 3e 2e dc 91 3e
       0.11102241 -0.07931131 0.40422168 0.28488296
000080 f4 d6 98 3e aa 7c 16 bc 80 f1 09 bd a4 99 30 3e
       0.29851496 -0.009184996 -0.033677578 0.17246109
000090 6e 36 d2 3e 36 a1 5b bd f1 ca dc 3e 7e ad 50 3e
       0.41057152 -0.05362054 0.43123582 0.20378682
0000a0 b1 4a 15 3e 00 00 00 00 d6 df 8e 3e bf c5 59 be
       0.14579274 0.0 0.27905148 -0.2126684
0000b0 b6 00 3f 3e ed 16 b2 3e 5f e2 49 3e 17 0f b2 3e
       0.18652615 0.34783116 0.1971526 0.34777138
0000c0 e1 60 e1 3d e8 27 c5 3d 4f dd f6 bc 92 5f 6c 3d
       0.11004806 0.09626752 -0.030134825 0.05770833
0000d0 29 a0 84 3e 98 50 ab 3e 1a 71 85 3e e6 aa 90 3e
       0.25903443 0.33459926 0.26062852 0.28255385
0000e0 00 00 00 00 42 a4 78 3e 2c aa 9d be 5f 97 c2 3d
       0.0 0.2428141 -0.30793893 0.09501528
0000f0 c7 36 9c 3e ad 1d b7 3d 72 31 4d 3e 5b b1 60 3e
       0.30510542 0.08941207 0.20038393 0.21942656

shared.2.weight f4 [64, 64]
000000 b2 bc 95 be 40 85 34 3d 2c 31 1c 3f a9 76 00 3e
       -0.29245526 0.04407239 0.6101253 0.12545265
000010 4d 30 bf 3e f3 83 08 be b6 ad a2 ba 43 d0 18 3e
       0.37341538 -0.13331585 -0.0012411389 0.14923196
000020 5f b5 4e bf c7 24 03 3f 32 f4 83 3e 53 04 17 3e
       -0.807455 0.5122799 0.25772244 0.14747743
000030 4d 5c 3f 3d 8e 8f cd bd 02 ab 14 3e c4 23 74 3d
       0.046718884 -0.100371465 0.1451836 0.05960442
000040 a4 f7 f2 3b ff 46 86 3d b8 60 7f bc 7a 7c df 3d
       0.007414775 0.0655651 -0.015587024 0.10912414
000050 1e e8 f4 3e 4f 74 d8 be a5 ae 2b 3f dc 36 b2 bd
       0.4783334 -0.42276236 0.6706336 -0.0870187
000060 e1 6e 18 3d 14 ac 10 3e 73 7b 0d 3e 53 6a 0d 3e
       0.037215117 0.14128143 0.13816623 0.1381009
000070 bb 1a 6f 3e 9b 67 5c bf 7a b6 46 3c 9a 32 6e 3e
       0.2335004 -0.8609559 0.012128467 0.2326149
000080 d5 d0 48 3e 36 8a b5 3e 22 00 89 bd 73 35 1e 3f
       0.19610913 0.3545701 -0.066894785 0.6180031
000090 b7 36 ea bb 77 8b 44 3e 46 de 41 be b8 ef 82 bf
       -0.007147636 0.19193827 -0.18932447 -1.0229406
0000a0 ad a5 f2 bd df 61 09 be 6b e6 1a 3f fa 83 2f bf
       -0.118480064 -0.13416241 0.6050784 -0.68560755
0000b0 b3 d3 a9 3d c1 0b e9 3e 9b 32 1b 3d 7a a8 52 bd
       0.082923315 0.4551678 0.037890058 -0.051430203
0000c0 33 b4 78 3e 05 0c e2 3d 4b 32 4e 3d 51 d8 4d 3c
       0.2428749 0.11037449 0.05034093 0.012563781
0000d0 b0 4f 73 bd e0 91 ee bc 66 cd 05 bc 1a b2 b4 3c
       -0.059402168 -0.029122293 -0.008166647 0.022057582
0000e0 85 09 08 3e 40 34 17 bf c5 89 fd bd 52 1c ba be
       0.13284881 -0.590641 -0.12379793 -0.36349732
0000f0 16 ad 71 3e b8 bb 11 3f 04 dc 82 be 31 0c 0f bd
       0.23601183 0.5692706 -0.25558484 -0.034923736
000100 8d fb 5b 3c f4 10 96 bd ea ef 2b 3a cd 22 c7 be
       0.013426674 -0.07327452 0.00065588823 -0.38893738
000110 9e e4 90 3e b2 c8 50 bc f4 39 17 3c b6 3c 06 3e
       0.2829942 -0.012743162 0.009230126 0.13109097
000120 5d 40 c6 be f4 2e 55 3e 01 2f 93 3c bc b7 34 bc
       -0.3872098 0.20818692 0.01796675 -0.011030134
000130 b6 b5 0b 3d 0c 37 f5 bd 10 23 ea 3d 2c 3b b3 3e
       0.03410884 -0.1197339 0.11432469 0.35006082
000140 73 a5 52 3d 65 e7 16 3d 48 0e 8b 3e 3d db 2e 3e
       0.051427316 0.03684177 0.27159333 0.1707582
000150 ec 6c d8 3d a3 d3 44 bf 8a 6f d1 3e 75 9d 92 bd
       0.1056765 -0.7688543 0.4090541 -0.07158939
000160 df f3 04 3e 06 ab 21 3e ca da ae 3e 76 f2 36 bd
       0.12983654 0.15787897 0.34151298 -0.044664823
000170 55 f2 08 3c 2e 0d 63 be d5 46 08 3e f2 49 94 3e
       0.008358558 -0.22172996 0.1330827 0.28962666
000180 45 90 3e bd 64 3b 9e 3e 56 c7 12 3e 8b 7b e2 3e
       -0.046524305 0.30904686 0.14333853 0.4423488
000190 47 ef 5c be bb fe 22 3f d6 30 e9 bc 59 d4 c8 bf
       -0.21575652 0.6366994 -0.02846567 -1.5689803
0001a0 78 ab 10 be f8 a1 e3 bd f5 8f 59 3e 60 4d 3f bf
       -0.1412791 -0.111148775 0.21246321 -0.7472744
0001b0 70 7d 6d 3d 66 0f 14 3e 35 74 9b bc 4b a2 3e 3e
       0.057980955 0.14458999 -0.01897631 0.18616597
0001c0 2e 73 a4 3d 78 93 2f be 71 75 21 bd 87 37 e0 3b
       0.08029781 -0.17146099 -0.03941864 0.006842557
0001d0 4e 11 05 bd a6 59 75 bd bc 3c 2b 3d c3 cf 24 be
       -0.032487206 -0.05989995 0.041805968 -0.1609488
0001e0 65 0e 2d 3d 7a 37 7b be c2 cc 56 3d 50 15 80 be
       0.042250056 -0.24532881 0.052441366 -0.2501626
0001f0 fa de 42 3e 75 8d c2 3e 75 7f 23 bf a3 19 2e be
       0.19030371 0.37998548 -0.6386636 -0.17001967
000200 55 56 80 be 3e 9f 42 be 5b a8 63 3e 79 44 15 be
       -0.25065866 -0.19006059 0.22232191 -0.14576901
000210 4d d0 a9 bd 9e 40 9c be 14 14 71 bc 29 67 bc 3d
       -0.08291683 -0.3051805 -0.01471426 0.09199364
000220 63 87 b9 be b5 67 06 3e c5 12 21 be 44 7f 53 3a
       -0.36236104 0.13125499 -0.15729816 0.0008067975
000230 09 fc 08 3d c2 a4 06 3e 35 8c 9d 3d a8 73 0c 3d
       0.033443484 0.13148788 0.07692758 0.034289986
000240 c7 96 96 3d 96 fb a6 3d 82 fb c7 bc 37 fd 1c bc
       0.07352977 0.08153455 -0.02441192 -0.0095818555
000250 46 c3 90 3e 52 36 6a bf c8 da 1e 3e f2 1f 38 be
       0.28273982 -0.91489136 0.15513146 -0.17980936
000260 38 a6 b4 3e bc d6 90 3e 9d a8 9d 3d 13 74 a1 bd
       0.35283065 0.2828883 0.07698176 -0.078834675
000270 cf 11 5a 3e ea e2 81 be ad 9c f5 3d 85 98 f7 3e
       0.21295856 -0.25368434 0.11992774 0.4835855
000280 80 8c f2 3d c5 d3 80 3d db 15 14 3e c6 79 2b 3f
       0.118432045 0.06290392 0.14461462 0.66982687
000290 bd e2 6e 3d 08 47 18 3e fb 72 a3 3d 84 6f c8 bf
       0.058321703 0.14870846 0.07980915 -1.5659032
0002a0 36 00 5b 3e 41 38 ad bd 2b 11 20 3e 58 03 06 bf
       0.21386799 -0.08457995 0.15631549 -0.5234885
0002b0 af 50 60 bb 72 a1 29 3d 36 4e 63 be 71 12 49 3e
       -0.0034227779 0.041413732 -0.22197804 0.19635941
0002c0 c0 87 24 bd 87 da 69 be 95 9f ca 3b 1b ff 93 3d
       -0.040168524 -0.22837268 0.0061835744 0.07226392
0002d0 0f 2e 3e 3e 94 85 21 bd fd a8 86 3e f2 1a 1e 3e
       0.18572257 -0.03943403 0.26300803 0.15439966
0002e0 81 b5 45 3e 6e b6 3f be 16 76 7c be 20 81 f2 be
       0.1930752 -0.18721935 -0.24654421 -0.4736414
0002f0 71 89 5b 3e 3f ba d8 3e 80 50 25 bf 7a f0 56 3d
       0.21439148 0.42329594 -0.6457596 0.05247543
000300 74 43 78 3d 4e 9b a9 be ef 8d ad be 4e 44 81 be
       0.060611203 -0.331263 -0.3389735 -0.25247425
000310 8e 81 4f bd 69 65 88 be 73 2d ab be 06 b5 2a 3e
       -0.050660662 -0.2663987 -0.33433113 0.16670617
000320 14 e4 f9 3d ef 4e fb 3e 91 a8 1f bd 59 8a f8 bd
       0.122017056 0.4908366 -0.038979117 -0.12135763
000330 1b ff 23 be 94 5c 82 bd 36 6a 3f be 71 13 32 3e
       -0.16015284 -0.06365314 -0.1869286 0.17390229
000340 04 81 79 be d1 92 2c 3e 9e 0b 0f 3e bb d5 b1 be
       -0.24365622 0.16852881 0.13969275 -0.34733376
000350 af 75 99 bd a8 f2 19 bf 53 eb 23 3f 9a 30 91 be
       -0.074931495 -0.6013589 0.6403095 -0.28357393
000360 89 59 84 3e 61 53 85 3e f0 27 1d be f5 fc e8 bd
       0.2584956 0.26040176 -0.15347266 -0.11376373
000370 56 68 c7 be 2d f1 2e be 92 ca 4c 3d ae a3 ad be
       -0.3894679 -0.17084189 0.049997874 -0.3391394
000380 e3 68 b9 bd f3 c5 2c bf a6 ba 76 be be 9d 56 3f
       -0.09053209 -0.67489547 -0.24094638 0.83834445
000390 e1 d2 f9 bb c7 4a a7 3e 27 40 ea bd 61 fd 9e bf
       -0.0076240157 0.32674238 -0.11438017 -1.2421075
0003a0 33 b9 ec bd 6a 4e 2a be 9e be 06 3e d7 03 3d bf
       -0.115587614 -0.16631475 0.13158652 -0.73833984
0003b0 b5 6d 9c be c4 24 a2 3e c2 b4 e5 bd d0 46 22 3c
       -0.3055245 0.31668675 -0.112161174 0.009904578
0003c0 62 2e 15 3e 84 b3 cb bc 28 57 00 be 92 08 24 bf
       0.14568475 -0.024865873 -0.12533247 -0.6407558
0003d0 c2 aa 1a bf 59 65 21 be 38 e8 18 3e f1 75 df bd
       -0.60416806 -0.15761317 0.14932334 -0.109111674
0003e0 2a 19 0a be ee bb 00 bf 63 73 27 bf 3b e5 07 bc
       -0.13486162 -0.5028676 -0.6541044 -0.008294399
0003f0 6a c4 4e be de 70 fa 3e 77 26 02 bf 8c 6a 86 be
       -0.20192114 0.48914236 -0.5083994 -0.26253164

shared.2.bias f4 [64]
000000 ff 16 4c 3e 91 06 c0 3e 1f 8b bb 3e c6 12 9d 3d
       0.19930647 0.3750501 0.36629578 0.076695964
000010 76 a5 e6 3c fc 68 13 bd 12 3e ed bc 5b 11 71 3d
       0.02815507 -0.035988793 -0.028960261 0.058854442
000020 2e c7 c6 be 1f 58 f8 3e 8e 16 c2 3e 47 a5 fe 3d
       -0.38823837 0.4850473 0.37907833 0.12433868
000030 55 f3 ad 3e 9c 37 cd 3e 20 13 ec 3e df c2 d2 bc
       0.3397471 0.4008149 0.4610834 -0.025727687
000040 18 4f 11 bd 6a 31 c3 bc 65 37 e9 3e 92 91 4e 3e
       -0.03547582 -0.023827273 0.45550075 0.20172718
000050 e1 37 30 3e 00 00 00 00 a6 a8 43 3e 94 57 ed 3e
       0.17208816 0.0 0.19107303 0.4635588
000060 94 5a ed 3e 12 be e5 3e 24 1b ce 3e 0a 9b 3b 3e
       0.46358168 0.44871575 0.40255082 0.18320861
000070 b2 07 66 ba a5 b6 63 3e 1a 1d d8 3e 00 b7 c4 3e
       -0.00087749504 0.22237642 0.42209703 0.38420868
000080 dd 46 00 3f aa 1f d8 3e df 96 76 3e 21 53 de 3e
       0.5010813 0.42211658 0.2408099 0.43422797
000090 ec 7e e6 3e 9d 93 b1 3e 27 03 b2 3e 63 61 fd 3e
       0.4501871 0.34682932 0.3476803 0.49488363
0000a0 8a af a0 bc d4 9b 07 3e f3 7d e8 3e 47 2f e7 3e
       -0.019614954 0.13243037 0.45408592 0.45153257
0000b0 90 56 30 bd e6 cb 01 bd ab 78 c7 3e 2a 16 b6 3e
       -0.043051302 -0.031688593 0.3895925 0.35563785
0000c0 1e 9c a6 3e d0 2d b9 3e 93 99 d6 3e 7a 65 d1 3e
       0.32540983 0.36167765 0.41914043 0.40897733
0000d0 2c d4 9a 3e ea 07 98 3e 3b 3c 5b 3e 4c 7c 2e bd
       0.3024 0.29693538 0.21409695 -0.042599007
0000e0 2b db 05 3f e2 21 3d be 15 92 d7 3e 9d cd d9 3e
       0.5228755 -0.18469957 0.4210364 0.42539683
0000f0 01 b5 50 3e 82 83 01 3f a5 b9 56 3e 71 f7 66 3e
       0.20381548 0.5059129 0.20969255 0.22555329

actor.0.weight f4 [32, 64]
000000 f7 cb a7 bd 5a 69 60 be fb 48 d2 bd 6d 39 d4 bd
       -0.081932 -0.21915188 -0.10267826 -0.103625156
000010 a6 18 80 3d 5d 81 26 3e 93 21 45 be a5 ab 18 be
       0.06254701 0.16260286 -0.19251089 -0.14909227
000020 2b eb d3 3d 69 bb 00 3e 0c 81 5c be 20 71 dd 3d
       0.10347589 0.12571491 -0.21533602 0.108125925
000030 45 08 c3 3d 3a 1d 1a 3c f1 69 e5 3c 6b 94 90 bd
       0.09523062 0.009406382 0.028004618 -0.070595585
000040 80 a9 8b 3d fd cb d4 3d 9a d8 e0 bc 72 a8 5c be
       0.06819439 0.1039047 -0.027447034 -0.21548632
000050 95 32 d0 3c e4 98 17 be 14 f9 e4 3d de 3a 55 b9
       0.025414744 -0.14804417 0.111803204 -0.00020335193
000060 2d 68 b5 bb 8b c3 d0 bd f1 e1 e5 3c 35 97 d1 bd
       -0.0055361004 -0.10193547 0.028061839 -0.102339186
000070 53 cb 51 bc 73 fb 97 be 70 bc 71 bd 13 b8 b2 be
       -0.012804824 -0.29684028 -0.0590176 -0.34906062
000080 cf 87 41 3d ec 9b e0 bd ca b7 bc 3d 02 57 fb 3d
       0.047248658 -0.1096724 0.092147425 0.12272455
000090 c5 77 14 be 6c 33 18 be cd ef 85 be fa cc cf bd
       -0.14498813 -0.14863366 -0.26159516 -0.10146518
0000a0 36 49 6d bb ab 97 b5 3d 33 91 db bc 1d a1 90 be
       -0.0036206967 0.08866819 -0.026802635 -0.2824792
0000b0 5b 9e bb 3c f5 02 44 3d 60 aa 0f 3d 05 d7 28 bc
       0.022902658 0.047854383 0.03507459 -0.010305171
0000c0 9c 5f d4 bd c6 f6 e7 bc a9 17 26 be 1e ed 94 bd
       -0.103697985 -0.028315913 -0.16219963 -0.07271789
0000d0 12 d4 09 be 2e 01 d2 3d e2 b2 33 bd 89 19 b5 bd
       -0.13459805 0.10254131 -0.043871768 -0.08842761
0000e0 a9 2a 54 3e 2b a4 5c be b1 d5 93 bd 62 69 94 bd
       0.20719399 -0.21547 -0.07218493 -0.07246663
0000f0 2e 49 53 3d d3 93 a3 bc c7 97 c6 3b d4 ba e6 bc
       0.05158346 -0.019967949 0.0060605737 -0.028165258
000100 09 23 2f bd 7a fe 33 3e f0 a1 01 bd 1c f3 60 3c
       -0.04275802 0.17577544 -0.031648576 0.013729837
000110 96 e5 97 3e fc 5f 18 bd b1 32 0e 3a 89 06 9b 3d
       0.29667348 -0.037200913 0.0005424424 0.07569606
000120 a8 16 d0 bd 6e ab 0a bc 21 4c 8c 3d 41 4b df 3d
       -0.10160571 -0.008463724 0.06850458 0.109030254
000130 d3 a4 13 be a0 40 07 be a8 f2 b4 3d 1d 95 e8 3d
       -0.14418344 -0.13208246 0.088353455 0.11356566
000140 e8 e4 db be 94 b4 95 3d f3 fe cc bd 2b b5 42 bd
       -0.4294808 0.07309833 -0.10009565 -0.047536056
000150 0e 25 57 3c ff 3c da bd 71 55 93 3d 1b fa 15 bd
       0.013131393 -0.10656165 0.07194031 -0.036615472
000160 5c d8 a3 bd e9 28 5d 3b ef be be 3c 36 2f 8e 3e
       -0.08000252 0.0033746308 0.023284404 0.27770394
000170 65 ef 05 3e f8 2f 5e 3e 54 de f5 3c 67 65 7e 3b
       0.13079603 0.21697986 0.03001324 0.0038817765
000180 0d 4e 28 3d 31 60 55 bb bf 5a 0b 3d c1 26 c8 bd
       0.04109006 -0.0032558555 0.03402209 -0.09773017
000190 62 b9 20 be 76 4a 55 bc f7 15 6c be f2 0e 66 bd
       -0.15695718 -0.013018241 -0.23055254 -0.056166597
0001a0 d5 48 15 3e 27 4e 40 3e b5 9d 02 3d e4 42 d3 bd
       0.14578564 0.18779813 0.031888682 -0.10315493
0001b0 06 48 85 bd 49 2c 00 3e 16 e7 80 bc 72 28 9e bc
       -0.06507878 0.12516893 -0.01573519 -0.019306395
0001c0 cf f3 f9 3d 7e d1 36 be 75 79 73 bd 61 10 86 be
       0.12204706 -0.17853352 -0.059442002 -0.2618437
0001d0 80 fc 11 be 91 1e de bd 9e 43 1c be 53 ed 82 3c
       -0.14256477 -0.10845674 -0.15260169 0.015982306
0001e0 6b 72 72 bd d6 e9 b3 bd 5a 5d f9 3b 38 9d 51 be
       -0.05919115 -0.08784835 0.0076100053 -0.2047013
0001f0 56 10 82 bb 40 2d b2 bd 4a d0 01 bc 0b 69 d0 3d
       -0.0039692326 -0.08700037 -0.007923195 0.10176285
000200 a5 c8 47 3e 26 71 b5 3d 09 b0 dd 3d 2b 9d 66 be
       0.19510134 0.08859472 0.10824592 -0.22520892
000210 e9 a6 01 bf 7e 90 54 3f 5c ff bb bc f6 81 90 3d
       -0.5064531 0.8303298 -0.022948913 0.07056038
000220 71 35 bb bd d0 87 4b be b9 37 95 be fe 40 c2 3d
       -0.091410525 -0.19876027 -0.29144076 0.094850525
000230 ba 6f 29 be 0e ac 6e be 11 70 8f bd a3 a4 0e bc
       -0.16546527 -0.23307821 -0.07003797 -0.008706245
000240 9d 16 95 3d ff ed 3b bd c6 b0 56 3e 56 ad bb 3e
       0.07279704 -0.045881268 0.20965871 0.36655682
000250 60 16 c1 3d eb 10 8a bc cf 75 68 3c c5 d5 50 bd
       0.09428096 -0.01685377 0.014188244 -0.050985117
000260 fc 1a 20 bc 58 f0 f9 bc 5a 71 84 3e 68 fc 1d be
       -0.009772059 -0.030510113 0.2586773 -0.15428317
000270 b9 2c 29 3e 6b 48 bb be a9 c4 d2 3d 6a 53 93 be
       0.16520967 -0.36578688 0.10291416 -0.28774577
000280 9e c0 80 3e 41 75 f4 3d 24 27 0a be 08 aa f4 bd
       0.25146955 0.11936427 -0.13491493 -0.119464934
000290 9d 75 88 3d 78 1f 1f 3e 84 9c b2 bd 8b cb b9 3d
       0.06663058 0.15539348 -0.08721259 0.09072026
0002a0 f3 0e ec bc 7c da 7b be 46 ec e8 bd c9 fa 5f 3e
       -0.028815722 -0.24595064 -0.113731906 0.2187301
0002b0 4f 1a 2b bb a9 b7 39 3c a9 9a 95 bd 36 0b 03 3e
       -0.002610821 0.011335292 -0.0730489 0.12797245
0002c0 76 b4 7e bc 37 43 66 3e 24 8d 5f bd 61 bd d4 bd
       -0.015545955 0.22486578 -0.05457796 -0.10387684
0002d0 2a 65 bf 3e 79 da ce 3e 9c eb 18 be 1d c5 52 bd
       0.3738187 0.40401056 -0.14933628 -0.051457513
0002e0 bd dd 1c 3e 09 bc 2b 3e 9c 13 94 3e 89 83 9e 3e
       0.15318961 0.16770948 0.2892121 0.30959728
0002f0 af c3 23 3e d4 84 dc bd 31 64 0e 3f aa 96 f3 bc
       0.15992616 -0.107675225 0.5562163 -0.029734928
000300 20 19 c7 bd 30 9e 9a bd 9d 02 5f 3d 23 ed 07 be
       -0.09721589 -0.07549703 0.05444585 -0.13274054
000310 dd 5f 7b 3d 90 1f 00 bd 64 df a5 3d a5 c7 0a 3e
       0.06137072 -0.0312801 0.08099249 0.13552721
000320 92 53 4e 3e cd 1c 2a be 72 8a c9 3d c9 db 70 3c
       0.20149067 -0.16612549 0.098408595 0.014700838
000330 3e 75 03 be 20 02 8c 3d d2 62 01 3d 91 51 41 be
       -0.12837693 0.06836343 0.031588383 -0.18878771
000340 05 1e 53 3d 8a a7 c9 bc 85 98 f3 3c ac 37 2d bc
       0.0515423 -0.024616022 0.029735813 -0.010572355
000350 8d c0 6d 3d 91 59 7d bd 05 a6 c4 3c 70 67 15 3e
       0.05804496 -0.061852995 0.024004946 0.1459024
000360 52 78 f1 bd 9f 36 f1 bd 99 57 a0 3d d3 a1 82 3e
       -0.117905274 -0.11777996 0.07829208 0.25514087
000370 3d 56 4b bc fb 38 ce bd 9c c9 d0 3d 6a 5f 21 3e
       -0.0124106975 -0.10069462 0.10194704 0.15759054
000380 8e d3 92 3c 3b 6c f5 bd 55 ab 64 3d 39 f7 25 3c
       0.017923143 -0.11983534 0.055827457 0.010129743
000390 02 9e 86 bd 90 63 5f be 22 0b be bc 1e ed 58 be
       -0.06573106 -0.21815324 -0.023198668 -0.21184203
0003a0 45 30 11 3e 7f 80 36 be ef da 3b be 17 d4 8a bd
       0.1417857 -0.17822455 -0.18345235 -0.06778734
0003b0 7a 8f 4b 3d a7 6f c8 3d 23 2a 35 3e 9e a8 92 bd
       0.049697377 0.09786921 0.17691855 -0.071610674
0003c0 d9 78 74 be ca 11 7e 3b 80 5e 95 bd 94 52 a9 3d
       -0.23874225 0.0038767927 -0.07293415 0.08267704
0003d0 7c 54 15 3e 66 79 51 be dd a7 aa bd d4 21 4e be
       0.1458301 -0.20456466 -0.08332799 -0.20130092
0003e0 a1 dd b3 bc 84 61 21 3e d4 2f c0 3e 48 b9 8c 3e
       -0.021956267 0.15759856 0.3753649 0.27485108
0003f0 34 d4 c1 bd 01 58 cd bb 83 a5 3d 3c 64 ce 0f be
       -0.09464303 -0.0062665944 0.011575106 -0.14043576

actor.0.bias f4 [32]
000000 f7 c9 52 bc 76 6f 55 bc 1d 06 e3 3d 9d 65 95 3c
       -0.012865535 -0.013027063 0.110851504 0.01823693
000010 16 9d 07 bc 0d 54 78 3d 36 f6 4f be 76 84 28 be
       -0.008277198 0.060627032 -0.20308766 -0.1645678
000020 1c 8f ab 3d 76 ca 54 3e 91 f5 2c 3e 10 93 09 bc
       0.08376905 0.20780358 0.16890551 -0.008396879
000030 64 c7 ed 3d 3e 4d 9a 3c c4 ce 20 3b b0 2a 60 bd
       0.11610296 0.01883566 0.0024537304 -0.05472821
000040 c8 12 1a be 2f 26 83 bc 05 d2 3b be d1 b4 51 bc
       -0.15046227 -0.016009418 -0.18341835 -0.012799458
000050 a5 9c 68 bd 01 a7 36 bd 96 76 49 bc 6b 9a 11 bb
       -0.056790013 -0.04459286 -0.0122963395 -0.0022217284
000060 d3 84 ad 3d 00 00 00 00 9e f6 34 be 57 04 19 bc
       0.084726 0.0 -0.17672202 -0.009339414
000070 2e ac 95 bb 8c 9b 52 bb 93 10 f8 bb 42 94 c7 bc
       -0.0045676446 -0.003213617 -0.007570335 -0.024362687

actor.2.weight f4 [2, 32]
000000 ec 86 33 be 8c a2 7d be 06 64 7e 3e cf 46 84 3d
       -0.17531937 -0.24769038 0.24842843 0.06458818
000010 27 44 9f bc 1a 64 2c 3d ff ea 75 bf 7c 08 ff be
       -0.019441677 0.04208765 -0.960617 -0.4981116
000020 0a b1 cd 3e eb 3a 9f 3f 32 69 46 3f d6 f6 88 3e
       0.40174133 1.2439855 0.77504265 0.2675082
000030 9b d8 34 3f eb 05 b0 be 3d 43 8b 3b fc 73 d4 bd
       0.70643014 -0.34379515 0.004249959 -0.10373685
000040 74 66 ad bf bd da a5 bd 4b 63 64 bf 47 fc 1d bd
       -1.3546891 -0.08098362 -0.8921401 -0.03857067
000050 e6 aa ca bb 1c 93 e4 3d c7 0e 3f 3c ab 63 13 be
       -0.0061849235 0.111608714 0.011661238 -0.14393489
000060 d1 6e 0a bf 00 2b 6c be 73 ed 8b bf 80 64 06 be
       -0.5407534 -0.23063278 -1.0931839 -0.13124275
000070 b6 05 c2 3d 99 8d 79 3e 46 1f b0 3e 61 0c dc 39
       0.094737455 0.24370421 0.3439886 0.00041970893
000080 f8 c0 24 3e 7c 4d a9 bc 35 3a 94 be 92 2e 8a be
       0.16089237 -0.02066683 -0.28950658 -0.26988655
000090 88 86 80 be 9f 9c 2a be 5a e5 5d 3f 69 81 df 3e
       -0.2510264 -0.16661309 0.8667809 0.4365342
0000a0 93 6b 37 bf 7d 36 a7 bf e3 80 65 bf 90 d3 a0 bd
       -0.7164852 -1.3063504 -0.8964979 -0.07852852
0000b0 4f 33 6e bf 8d 7f cf be b9 e5 aa be f1 0e a5 3e
       -0.9304704 -0.40527 -0.3337839 0.32237962
0000c0 86 8a b0 3f 7f a2 0e be 03 2e 5b 3f 43 d3 55 be
       1.3792274 -0.13929175 0.85617083 -0.20881371
0000d0 1e 37 9f be 43 9f 20 3e aa c7 14 bd 23 c5 06 bd
       -0.3109674 0.15685754 -0.036323227 -0.032902848
0000e0 60 aa dd 3d 6f af 58 3d f5 19 73 3f fe 22 8e 3d
       0.10823512 0.05290168 0.9496148 0.06940268
0000f0 5a d6 19 be af e1 58 bd ae d9 0d 3e 77 f5 31 be
       -0.15023175 -0.052949604 0.1385257 -0.17378794

actor.2.bias f4 [2]
000000 29 fc 3b 3e 1b fc 3b be
       0.1835791 -0.1835789

critic.0.weight f4 [32, 64]
000000 da ae 42 3e 61 7a 56 be 8c 77 c8 bd 0d fa bf 3c
       0.19012013 -0.20945121 -0.09788427 0.023434663
000010 b3 b8 55 bd 3e 02 fe bc 80 0c 33 be 39 d2 a2 bc
       -0.052178096 -0.031006929 -0.17485237 -0.019875633
000020 75 81 41 3d 36 88 61 3e d7 d6 64 3d ba e8 dc 3d
       0.0472426 0.22024617 0.05586895 0.107865766
000030 27 7f af bc 95 a1 43 bc b4 81 7d 3d 97 94 95 3d
       -0.021422936 -0.01194038 0.061891273 0.07303732
000040 76 9e 92 3b de 4b ca bd 85 96 b7 bc 1d bd 96 bd
       0.0044744564 -0.09877752 -0.02241064 -0.07360289
000050 73 9e 7a be 3c e3 53 3d 4a 3b 0f 3e 58 00 c2 3d
       -0.24474506 0.05173038 0.1398746 0.09472722
000060 d5 ec 7e 3c bf 7f 9f bd 3e f3 a1 bd 63 05 cb bd
       0.015559395 -0.077880375 -0.07907723 -0.09913137
000070 fb 58 ea 3d 19 74 5b bd 37 c6 8b bd 54 41 11 bd
       0.11442753 -0.053577516 -0.06824916 -0.035462692
000080 e6 dd 03 bc d4 db 4c 3d 0d 00 d6 bb e3 65 2c 3e
       -0.00804851 0.050014332 -0.006530768 0.16835742
000090 45 6d bc be be 39 94 be a8 c2 c2 bc 09 23 84 bd
       -0.36802116 -0.28950304 -0.02377446 -0.06451995
0000a0 6c 89 19 3e b3 6f 3d bc 37 15 7b bd cc ee 7d 3e
       0.14993829 -0.011562276 -0.06129953 0.24798125
0000b0 83 61 1f 3e 01 76 07 3d 9b 01 68 3e dc ca ba bd
       0.15564542 0.03307152 0.22656862 -0.091207236
0000c0 4a bb 1e 3e b7 38 1f be 6a 38 b8 bd 35 77 14 bd
       0.15501133 -0.15548979 -0.08995135 -0.036246497
0000d0 94 f5 34 bd d9 49 5c be 43 c2 a1 3d fe 31 90 be
       -0.044179514 -0.21512546 0.078983806 -0.2816314
0000e0 4d 9f 13 3d 29 eb b5 bc 2e d4 8e bd 76 cf 90 bc
       0.036040593 -0.02220686 -0.06974064 -0.01767705
0000f0 09 ac cd 3d e3 fb ed bd 09 2c b8 3d a1 f5 14 bc
       0.10042579 -0.11620309 0.08992774 -0.009091766
000100 3c 4d 98 3e b9 65 41 3e 8a e7 42 3e 13 fa 37 be
       0.29746425 0.1888646 0.19033638 -0.1796649
000110 96 a6 ea 3e 9d 89 21 3e 7a 1d 98 3c c6 8f 3d bd
       0.4583022 0.15775152 0.018568743 -0.04627969
000120 95 de 9a be b3 c8 62 3e 16 1b c1 bd c2 1b 37 be
       -0.30247942 0.22146873 -0.09428994 -0.17881683
000130 e9 1a 61 be 98 e9 79 bc 5b b0 8b 3d e2 bc 10 3e
       -0.21982922 -0.015253447 0.068207465 0.14134553
000140 ce 17 e5 3c c8 6a 3e bd f3 20 6e 3e c5 a2 73 3e
       0.027965453 -0.046488553 0.23254757 0.2379256
000150 ce 87 56 3e af 30 0c be b0 a0 96 3e d5 c3 4f be
       0.20950243 -0.13690446 0.2941947 -0.20289548
000160 6a 37 28 be 36 57 e2 3c 72 10 08 3e 44 38 dd bd
       -0.16427389 0.027629476 0.13287523 -0.108017474
000170 82 77 20 3e d2 98 75 be 5d b1 5c 3e b3 6f ed bd
       0.15670589 -0.23984078 0.21552034 -0.115935706
000180 2b df 1c bd dd 37 16 3d e4 e8 a4 be a3 4c 2d 3d
       -0.038298767 0.03667437 -0.3220893 0.042309415
000190 58 1c 08 be 77 aa 02 3d d6 71 1b be bd 9f 99 bc
       -0.13292062 0.03190085 -0.15180144 -0.018752927
0001a0 b0 c0 80 bd 0d 71 50 3e 76 74 9d 3d 77 f1 4a be
       -0.06286752 0.20355625 0.07688229 -0.19818674
0001b0 3e 8f c8 3c f7 e5 19 3e 97 94 a6 3e b3 ce b2 bd
       0.024482366 0.15029131 0.3253524 -0.08730831
0001c0 cd 4d 89 3d 5e f4 c7 bd af 15 54 be 9c 1d 27 3d
       0.067042924 -0.09763406 -0.20711397 0.040799722
0001d0 42 d2 19 be 18 9e c7 3e 58 f6 c2 bd f6 b6 68 bd
       -0.15021613 0.38987803 -0.095196426 -0.05681511
0001e0 bf c9 99 3c f0 bb 46 be c9 01 e3 bd 82 2b 8f 3d
       0.018772958 -0.1940763 -0.11084325 0.0699072
0001f0 9e c1 94 3c a9 92 f7 3c 9c 8f 44 bd 5f 9f d3 3e
       0.01815873 0.0302213 -0.04798852 0.41332528
000200 ec ae df 3c b0 cd c6 bc 57 00 23 be ae 05 8b be
       0.027305089 -0.024268001 -0.15918098 -0.2715277
000210 a6 bd c8 3e 92 b8 26 be 9b 82 ec 3c 9f 01 99 3e
       0.3920719 -0.16281345 0.028870871 0.2988405
000220 d0 1d 29 be f5 c1 d0 3d d2 8c 71 be 7c 0d 22 be
       -0.16515279 0.10193244 -0.23588875 -0.15825456
000230 3e 3a 02 be 65 37 10 be 3e f8 18 bd 97 61 99 bd
       -0.1271753 -0.14083631 -0.037346117 -0.07489317
000240 ef 13 cb 3d 7e 91 ea bd 8e eb 22 bc e9 0e db 3d
       0.099159114 -0.11453532 -0.009943856 0.10696203
000250 de bc db 3e 68 38 c8 bd 9d 39 bf 3e 17 11 82 be
       0.42917532 -0.09776384 0.37348643 -0.25403664
000260 7e 51 a5 bb 4f 2d 07 bd f4 47 20 3e 15 af d3 3d
       -0.005045115 -0.033002194 0.15652448 0.103361286
000270 10 c8 82 3e 90 db 21 be fa 02 34 be 4e 72 3f be
       0.2554326 -0.15806413 -0.1757926 -0.18695948
000280 d6 44 a3 bc 8d 6b a6 3d c1 92 3e be 63 ad 1c be
       -0.019930284 0.081259824 -0.1861067 -0.15300517
000290 e1 cc 85 3b 96 ae 91 bd a1 ab 85 bd b9 c1 35 3e
       0.0040832614 -0.07113378 -0.06526876 0.1774968
0002a0 2e ca 0f 3e c1 1c d8 3e 1b 71 fc 3c b9 70 cd bd
       0.14041969 0.42209437 0.030815652 -0.10031266
0002b0 a4 e2 a5 3e 63 c0 f1 bd 27 3f e2 3c 98 ce 07 be
       0.32399476 -0.11804273 0.027618004 -0.13262403
0002c0 83 60 50 3d ca 56 85 be ad b9 d3 3d 65 a7 36 bd
       0.05087329 -0.26042777 0.10338149 -0.044593234
0002d0 43 83 f6 3d 65 db 9a 3e 0c 5d 1c be a3 44 95 3d
       0.12036755 0.3024551 -0.1526987 0.07288482
0002e0 bc 56 4d 3e 7c 32 30 3e e4 5c 11 bd a6 7a 44 be
       0.20052618 0.17206758 -0.035488978 -0.19187412
0002f0 ec d6 42 be 89 bd 40 be 07 49 c9 3e cf 10 14 bb
       -0.19027299 -0.18822302 0.39313528 -0.0022593027
000300 ac d8 14 3e 64 2d 28 be 54 24 53 3c 35 70 c8 be
       0.14535779 -0.16423565 0.012887079 -0.39148107
000310 fd 90 5d 3f 94 6d 91 3e bd 56 4f 3d fc 5a ab 3d
       0.8654936 0.28403914 0.05061983 0.08366963
000320 e9 4e 34 bf b9 e7 ac bc e5 d6 ad be 35 bc 02 bc
       -0.7043291 -0.021106588 -0.33953014 -0.007979442
000330 8e fa 68 bd 78 dc 60 bd 90 16 fc bd c1 31 17 3c
       -0.056879573 -0.054897755 -0.12308991 0.009228171
000340 95 56 80 3d 17 e6 59 3c 02 30 3b 3d c2 46 bb 3e
       0.06266514 0.013299487 0.04570008 0.3657742
000350 a7 1a 2a 3f f6 bb 12 3d e2 e2 76 3e fd 3e 7e bd
       0.6644692 0.035823785 0.24109986 -0.06207179
000360 c4 ff 49 bd 68 d6 92 be 10 bf 9c 3b a8 ff be be
       -0.049316183 -0.28679204 0.0047835186 -0.37304425
000370 16 c8 44 3e ee 53 0f bf d3 3e b2 3d 33 77 5a bd
       0.19216952 -0.5598744 0.08703389 -0.053336333
000380 d8 09 22 be 2c 4d d2 bc 5f d9 95 be 57 46 8f bd
       -0.15824068 -0.025671564 -0.29267403 -0.06995838
000390 14 50 ac 3c ac 11 16 bd bd bc e4 be 6d ad 21 be
       0.021034278 -0.036637947 -0.44675246 -0.15788813
0003a0 4e ee 44 bd df fb 37 3f 3b 43 2f be cb ba aa 3e
       -0.048078828 0.718687 -0.1711549 0.33345637
0003b0 0a 49 f6 3c c5 fa 82 3b 3d 13 06 3d f6 c7 c2 bd
       0.030064125 0.003997179 0.03273319 -0.09510796
0003c0 dd a1 14 3e 89 13 16 3d 0b 2b af 3d 2d 64 62 bd
       0.14514871 0.036639724 0.08553132 -0.055271316
0003d0 1d b0 84 be eb 15 33 3d c2 61 4a 3c bb e8 07 3e
       -0.25915614 0.043722074 0.012352409 0.13272373
0003e0 e1 1f 66 bd 81 2f 84 3e 78 54 54 bc e3 cd 5c 3a
       -0.056182746 0.25817493 -0.012959592 0.00084230135
0003f0 1e 6e fe be f7 28 9a 3e 3b 11 45 3e 77 80 c8 3e
       -0.49693388 0.3010938 0.19244854 0.3916051

critic.0.bias f4 [32]
000000 9a dd 2e bc 55 24 84 3d a6 24 24 3c ae 36 b9 3d
       -0.010672951 0.06452242 0.010018503 0.090436324
000010 0f 12 f9 3e 75 d5 f4 3e ee 4a 8f bc a1 64 0c 3f
       0.4864659 0.47819105 -0.017491784 0.5484105
000020 00 00 00 00 79 59 44 bc 8f 1e 14 3f 3b 25 fe 3e
       0.0 -0.011984223 0.5785913 0.4963778
000030 f1 b8 fc 3e e8 b3 03 bc 9f 75 03 3f ee e0 60 bc
       0.4935985 -0.008038498 0.5135135 -0.013725502
000040 ed 64 00 3f 56 6d f6 3c 9b b2 b6 bc c0 07 eb 3e
       0.50154 0.030081432 -0.022301963 0.4590435
000050 7f 9d 03 3f 30 35 02 3f ef 49 fb 3e 35 91 f3 3e
       0.51412195 0.5086241 0.49079844 0.47571722
000060 7c b5 fa 3e 59 63 09 3f 37 70 fd 3e 95 0d 5c be
       0.48966587 0.5366722 0.49499676 -0.21489556
000070 48 48 f6 3e 53 88 80 3d de 4e 00 3f b7 af 0b 3f
       0.4810202 0.06276002 0.5012034 0.54564995

critic.2.weight f4 [1, 32]
000000 9a a8 a0 3b 74 b8 d2 3e 16 d7 a0 3e 40 0a 4e 3f
       0.0049029114 0.41156352 0.31414098 0.8048439
000010 2e cc f8 be 64 52 b4 be 7b 01 17 3c 47 d4 a3 be
       -0.48593277 -0.3521911 0.009216662 -0.31997892
000020 1e fc 4e 3e 00 22 3d 3e e2 28 8f be 96 b3 c5 be
       0.20213363 0.18470001 -0.2796088 -0.38613576
000030 f1 58 08 bf 14 a9 94 3c 1a e5 c2 be 4f ba f8 3c
       -0.53260714 0.018147029 -0.38065416 0.030362276
000040 26 36 be be 47 a2 d8 3e 6f 11 92 3c a9 ae e9 be
       -0.37150687 0.42311308 0.017830579 -0.45641068
000050 84 44 14 bf c3 fc 15 bf 89 28 12 bf fd 4c ee be
       -0.57917047 -0.5858881 -0.570931 -0.46543112
000060 96 9b d4 be ed ee bc be 3e e8 d0 be 3e 2e 53 3f
       -0.41524953 -0.36901036 -0.40802187 0.82492435
000070 45 79 ec be 3d e1 34 3f 81 06 d5 be f8 c9 02 bf
       -0.4618627 0.70656186 -0.41606525 -0.5108943

exp_avg f4 [64, 12]
000000 34 06 b5 38 50 4d 92 b9 b5 f4 33 ba ac b4 9a b9
       8.631908e-05 -0.00027904892 -0.00068647723 -0.0002950778
000010 a4 1c 2c 39 ff b5 8f ba 84 81 62 b8 50 4d 92 b9
       0.00016413868 -0.0010964273 -5.400322e-05 -0.00027904892
000020 04 00 00 80 17 ae 6c b9 cb d4 96 b8 e3 f6 38 38
       -6e-45 -0.00022571567 -7.192193e-05 4.409895e-05
000030 31 91 28 3a 07 bf 50 b9 79 6d c0 b9 7d bf 84 b9
       0.00064303266 -0.00019907589 -0.00036702657 -0.00025319672
000040 36 a2 5a b9 d9 ac e8 b9 2d 67 87 b7 07 bf 50 b9
       -0.00020850528 -0.0004437927 -1.6141299e-05 -0.00019907589
000050 2c 72 d7 3a 16 ad e1 3a d8 d0 56 3a d7 2b d6 39
       0.0016437224 0.0017217721 0.00081945723 0.00040849924
000060 3a f5 a2 3b 71 e8 57 39 64 72 e9 b9 e2 b8 ab 3a
       0.004973081 0.00020590589 -0.0004452645 0.0013101364
000070 c3 d3 11 3b 1b de 99 3b eb 86 4a 39 71 e8 57 39
       0.0022251464 0.0046956665 0.00019314482 0.00020590589
000080 f1 f0 cc 3a 97 0d 25 3b f5 d7 42 3b 3b 5a c2 3b
       0.0015635771 0.0025185102 0.0029730771 0.0059311665
000090 98 1b 0f 3c 86 cb 39 ba 74 83 63 3b 23 cc 03 3b
       0.008734606 -0.00070875173 0.0034715803 0.0020110689
0000a0 f3 bc 8d 3b 8b a8 02 3c e4 34 77 ba 86 cb 39 ba
       0.004325503 0.007974754 -0.00094301836 -0.00070875173
0000b0 f3 dc 29 bc d6 27 15 bc 0d 33 46 bc 08 89 d5 3b
       -0.01036762 -0.009103736 -0.012097132 0.0065165795
0000c0 04 00 00 00 04 00 00 00 04 00 00 00 04 00 00 00
       6e-45 6e-45 6e-45 6e-45
0000d0 04 00 00 00 04 00 00 00 04 00 00 00 04 00 00 00
       6e-45 6e-45 6e-45 6e-45
0000e0 04 00 00 00 04 00 00 00 04 00 00 00 04 00 00 00
       6e-45 6e-45 6e-45 6e-45
0000f0 04 00 00 00 04 00 00 00 04 00 00 00 04 00 00 00
       6e-45 6e-45 6e-45 6e-45
000100 04 00 00 00 04 00 00 00 04 00 00 00 04 00 00 00
       6e-45 6e-45 6e-45 6e-45
000110 04 00 00 00 04 00 00 00 04 00 00 00 04 00 00 00
       6e-45 6e-45 6e-45 6e-45
000120 af f6 38 3b 63 e9 6b 3a a8 2e 93 3a 18 e0 08 3b
       0.0028223207 0.0008999316 0.0011229115 0.0020885523
000130 3e 5c 47 3b a1 9f e7 3b 63 2d f4 39 63 e9 6b 3a
       0.003041997 0.00706859 0.00046573122 0.0008999316
000140 8f 3c d0 3b 05 51 ac 3b 75 fc fa 3b 19 c3 8b 3b
       0.0063548754 0.0052586817 0.0076594898 0.004265201
000150 04 00 00 00 04 00 00 00 04 00 00 00 04 00 00 00
       6e-45 6e-45 6e-45 6e-45
000160 04 00 00 00 04 00 00 00 04 00 00 00 04 00 00 00
       6e-45 6e-45 6e-45 6e-45
000170 04 00 00 00 04 00 00 00 04 00 00 00 04 00 00 00
       6e-45 6e-45 6e-45 6e-45
000180 60 fe 05 3b 62 37 a0 ba 21 71 08 bb b6 57 5c ba
       0.0020445809 -0.0012223537 -0.0020819383 -0.0008405404
000190 bd e0 4d 3a 3f 96 db 3b 99 f6 70 b9 62 37 a0 ba
       0.0007853618 0.0067012603 -0.00022980048 -0.0012223537
0001a0 23 9c ea bb 93 94 e3 bb 86 c3 0c bc 00 b5 4a 3b
       -0.007159726 -0.0069452017 -0.008591538 0.0030930638
0001b0 7d 53 b7 bb 81 4e 4e b9 21 32 1d ba b9 af 18 bb
       -0.0055946694 -0.00019674936 -0.00059965445 -0.0023298098
0001c0 1f ad 68 bb eb b5 50 bc 79 d1 e5 b7 81 4e 4e b9
       -0.003550358 -0.012738685 -2.739647e-05 -0.00019674936
0001d0 2e f0 9f ba c9 fb 5a b9 0d e1 bf ba 3d 82 c0 bb
       -0.0012202316 -0.00020883897 -0.0014639214 -0.0058749006
0001e0 bb f5 23 bb 3b 64 73 39 e3 5a e1 39 d1 5c 36 b9
       -0.0025018293 0.00023211625 0.0004298306 -0.0001739145
0001f0 ee 02 06 ba bd 4d d7 ba 45 90 74 39 3b 64 73 39
       -0.0005112131 -0.0016426366 0.00023323398 0.00023211625
000200 37 ac 55 3b c3 13 35 3b cb 97 82 3b 86 89 f7 ba
       0.0032603869 0.0027630187 0.0039853803 -0.001888559
000210 4a fa 83 39 91 0e 72 39 19 3d 92 3a 32 ee 90 b9
       0.00025172747 0.00023084345 0.0011157125 -0.0002764329
000220 63 fb 20 b9 ca 71 48 bb da 47 86 39 91 0e 72 39
       -0.00015352438 -0.0030585402 0.00025612005 0.00023084345
000230 d5 16 96 3b 85 d4 72 3b 2b a8 9d 3b 18 9e 3d 3a
       0.0045803585 0.003705294 0.004811307 0.00072333356
000240 d1 ce 31 3a 62 be ad b9 13 d9 91 b9 d8 b7 51 b8
       0.0006782832 -0.00033138978 -0.00027818288 -5.00007e-05
000250 90 23 6b 39 e3 99 a3 3a 65 c1 08 b9 62 be ad b9
       0.00022424594 0.0012481775 -0.00013042016 -0.00033138978
000260 e4 ea ae ba 4e 86 64 ba ad af 06 bb 73 fd ad b8
       -0.0013345149 -0.0008717523 -0.0020551488 -8.2964914e-05
000270 6b 3d b8 39 18 dc a1 39 4e e3 22 3b c8 2e 00 3a
       0.00035140975 0.00030872296 0.0024854722 0.00048897834
000280 f7 21 5e 3a 30 c1 ac 39 31 2a 70 39 18 dc a1 39
       0.0008473689 0.00032950332 0.00022903901 0.00030872296
000290 f4 bd 74 3b 05 61 72 3b e4 c8 7f 3b fc 61 5c 39
       0.0037344666 0.0036984098 0.0039029652 0.00021017337
0002a0 87 63 69 ba eb 66 2e 3a 2e c3 af 3a 6e 1e 80 3a
       -0.00089030754 0.0006652909 0.0013409609 0.0009774694
0002b0 bd 9a 64 3a 8f e9 56 b9 42 88 8f 39 eb 66 2e 3a
       0.00087205676 -0.00020495638 0.00027376605 0.0006652909
0002c0 25 76 1f 3b dc d7 10 3b 23 46 7a 3b 17 30 13 ba
       0.0024331894 0.0022101318 0.0038188777 -0.0005614771
0002d0 8f 6c 2b 3a 4a 7a f0 39 a2 c3 35 bb e3 4e b0 3a
       0.0006539309 0.0004586748 -0.0027735014 0.0013451244
0002e0 86 57 bf 3a 14 66 26 3b 38 f7 9d 38 4a 7a f0 39
       0.0014598228 0.0025390433 7.5323915e-05 0.0004586748
0002f0 bc 5c 1b 3b 84 38 df 38 3a 9e 57 3b 31 1c 06 3b
       0.0023706397 0.000106439955 0.0032900707 0.002046358
000300 6b 42 b8 ba f9 20 8a 39 e8 85 27 3b bd b4 64 37
       -0.001405788 0.00026345978 0.0025561992 1.363194e-05
000310 f6 08 ab 38 18 25 c9 b9 f0 b9 64 39 f9 20 8a 39
       8.1555845e-05 -0.00038365345 0.00021813042 0.00026345978
000320 6b 82 8d 3b be f9 84 3b c3 ce 8d 3b 24 22 ba ba
       0.0043185255 0.004058092 0.0043276264 -0.0014200849
000330 00 00 00 00 00 00 00 00 00 00 00 00 00 00 00 00
       0.0 0.0 0.0 0.0
000340 00 00 00 00 00 00 00 00 00 00 00 00 00 00 00 00
       0.0 0.0 0.0 0.0
000350 00 00 00 00 00 00 00 00 00 00 00 00 00 00 00 00
       0.0 0.0 0.0 0.0
000360 72 ea 6d bb 45 54 f6 38 12 05 98 b8 5c fa 93 ba
       -0.003630307 0.000117458905 -7.248869e-05 -0.0011289823
000370 6c 20 2a bb 8d 19 fb bb a5 0d b4 b7 45 54 f6 38
       -0.0025959266 -0.007662958 -2.1464026e-05 0.000117458905
000380 75 f1 2f ba 1d b8 1c ba 01 38 2c 39 f5 01 6d bb
       -0.00067117 -0.0005978363 0.00016424061 -0.0036164497
000390 3e 1f af ba 95 62 0a 3a 04 00 00 00 87 82 95 37
       -0.0013360751 0.0005278972 6e-45 1.7822966e-05
0003a0 f9 b3 7f ba e7 f3 96 bb 46 96 76 39 95 62 0a 3a
       -0.0009754296 -0.004606712 0.0002351637 0.0005278972
0003b0 11 96 bb 3b 53 47 76 3b 83 4e 0d 3c 96 b9 4d 38
       0.0057246764 0.0037579134 0.008624676 4.904865e-05
0003c0 12 d6 8d ba 79 32 91 b9 9a 61 5a bb bb 84 f1 b9
       -0.0010821244 -0.0002769416 -0.0033322335 -0.00046065994
0003d0 ac 4e 93 ba b4 a5 e7 ba 69 4f 4b b9 79 32 91 b9
       -0.0011238656 -0.0017673285 -0.00019389171 -0.0002769416
0003e0 f0 8b 01 bb 23 b9 1e bb f0 8b 01 bb 84 13 05 ba
       -0.0019767247 -0.0024219237 -0.0019767247 -0.00050764554
0003f0 8b e0 83 bb cd 7c 61 39 73 41 a1 bb 98 be 4c 3b
       -0.0040245703 0.00021504164 -0.0049211322 0.0031241532

exp_avg_sq f4 [64, 12]
000000 1a bc 50 38 44 5b 6a 35 90 5e 31 38 5b 8b 71 36
       4.9766248e-05 8.73046e-07 4.2288157e-05 3.5992914e-06
000010 33 8a 1b 37 7f 58 4b 38 8c 47 8c 33 44 5b 6a 35
       9.270897e-06 4.848139e-05 6.532272e-08 8.73046e-07
000020 57 89 a1 31 a8 5e 0e 36 e5 e8 83 34 f9 e9 50 38
       4.7013304e-09 2.1214746e-06 2.4570105e-07 4.980897e-05
000030 18 2a 8b 38 35 c6 8f 35 ca 0d 2c 38 d1 96 99 36
       6.635877e-05 1.0712016e-06 4.1020838e-05 4.5773127e-06
000040 a0 23 3c 37 d4 1e 83 38 f1 49 b8 34 35 c6 8f 35
       1.1213968e-05 6.252309e-05 3.432647e-07 1.0712016e-06
000050 56 76 26 38 fc 2d 03 38 9a 71 f9 37 4b 63 92 38
       3.9687693e-05 3.127566e-05 2.9736013e-05 6.980317e-05
000060 22 c9 da 39 6c c6 93 36 21 4c 96 38 40 b3 ed 37
       0.00041730056 4.4040407e-06 7.1667375e-05 2.8336071e-05
000070 25 98 49 38 04 0e e0 39 74 c6 c6 35 6c c6 93 36
       4.806383e-05 0.00042735052 1.4809907e-06 4.4040407e-06
000080 33 1e 09 39 76 80 23 39 8b cf 2a 39 92 e3 ee 39
       0.00013076588 0.00015592747 0.00016289779 0.0004556445
000090 3f 65 c7 39 69 98 b7 37 17 ee 38 39 f4 12 c4 38
       0.00038031672 2.1886271e-05 0.00017636303 9.3495386e-05
0000a0 b7 1a 01 39 e2 3d ab 3a 31 42 d5 36 69 98 b7 37
       0.00012312351 0.0013064707 6.3556004e-06 2.1886271e-05
0000b0 13 7e ba 39 e7 48 9f 39 87 08 d9 39 54 e0 04 3a
       0.00035570617 0.0003038116 0.0004139582 0.0005068828
0000c0 a7 8a 15 23 01 b6 d0 1f c5 31 21 24 4c 45 d0 20
       8.106667e-18 8.8392527e-20 3.4953466e-17 3.5282427e-19
0000d0 af de 02 22 27 52 b6 22 51 a8 ca 1f 01 b6 d0 1f
       1.7736173e-18 4.941818e-18 8.5828784e-20 8.8392527e-20
0000e0 c1 ec 1c 24 dd ea 1c 24 f7 60 06 24 3b e7 b8 22
       3.4027646e-17 3.4026045e-17 2.913875e-17 5.0118125e-18
0000f0 f4 01 00 00 f4 01 00 00 f4 01 00 00 f4 01 00 00
       7e-43 7e-43 7e-43 7e-43
000100 f4 01 00 00 f4 01 00 00 f4 01 00 00 f4 01 00 00
       7e-43 7e-43 7e-43 7e-43
000110 f4 01 00 00 f4 01 00 00 f4 01 00 00 f4 01 00 00
       7e-43 7e-43 7e-43 7e-43
000120 62 4e 5b 39 3b 93 ca 36 dd 08 d7 38 4f dd c3 37
       0.00020914667 6.037209e-06 0.0001025365 2.3348866e-05
000130 c3 3c 0d 38 bf 1b 86 39 22 ce c6 35 3b 93 ca 36
       3.367361e-05 0.00025579144 1.4812142e-06 6.037209e-06
000140 88 b6 01 39 42 28 cb 38 03 3f a7 38 cb b6 66 39
       0.00012370397 9.687293e-05 7.9749174e-05 0.00022002605
000150 f4 01 00 00 f4 01 00 00 f4 01 00 00 f4 01 00 00
       7e-43 7e-43 7e-43 7e-43
000160 f4 01 00 00 f4 01 00 00 f4 01 00 00 f4 01 00 00
       7e-43 7e-43 7e-43 7e-43
000170 f4 01 00 00 f4 01 00 00 f4 01 00 00 f4 01 00 00
       7e-43 7e-43 7e-43 7e-43
000180 cd d8 0d 39 91 b1 b6 37 d0 a1 97 3a e7 17 a5 38
       0.00013527572 2.1778776e-05 0.001156861 7.872265e-05
000190 75 40 3f 39 95 4d 96 3a 9e aa fc 36 91 b1 b6 37
       0.00018239192 0.0011467213 7.5300477e-06 2.1778776e-05
0001a0 77 d5 99 3a 12 83 77 3a 08 1b 9c 3a e9 22 6e 39
       0.0011736591 0.0009441833 0.0011909911 0.00022710454
0001b0 bb b2 30 3a de 5c 02 37 9b 62 2d 3a c6 26 0f 38
       0.00067405 7.770226e-06 0.00066141196 3.4129967e-05
0001c0 a3 24 ba 38 a7 6e 18 3a 59 61 29 34 de 5c 02 37
       8.875995e-05 0.00058148283 1.5774766e-07 7.770226e-06
0001d0 c7 2b 07 38 7e 72 98 36 6b 72 f4 37 03 b4 30 3a
       3.222728e-05 4.5432816e-06 2.9140347e-05 0.0006740691
0001e0 44 20 92 38 fd 4f cd 35 b2 88 7c 38 ad b7 c5 36
       6.9678325e-05 1.529697e-06 6.020879e-05 5.89244e-06
0001f0 85 6d 45 37 fd b4 ae 38 3f 6c e7 34 fd 4f cd 35
       1.17676145e-05 8.330678e-05 4.3105862e-07 1.529697e-06
000200 2e 98 36 38 96 46 15 38 67 48 ef 37 04 10 98 38
       4.353391e-05 3.5590107e-05 2.8524735e-05 7.250908e-05
000210 91 ba 59 39 4e 6d 15 36 c4 a8 65 39 1d 98 3d 37
       0.00020764234 2.2266354e-06 0.00021902012 1.13006945e-05
000220 a8 38 05 38 27 3c 5a 39 bf 32 1a 35 4e 6d 15 36
       3.1762436e-05 0.00020812509 5.7443316e-07 2.2266354e-06
000230 18 ec d8 38 04 b3 c9 38 a3 0c 9a 38 12 f7 5d 39
       0.000103436585 9.617771e-05 7.345646e-05 0.00021168243
000240 53 4f 28 39 c1 5a f9 35 b7 95 42 39 59 c7 db 36
       0.00016051279 1.8578359e-06 0.00018557055 6.5499157e-06
000250 39 e4 a7 37 40 5f c7 38 b4 30 e6 34 c1 5a f9 35
       2.0014226e-05 9.506801e-05 4.2876275e-07 1.8578359e-06
000260 c0 d7 2c 38 e9 d0 02 38 37 6b fe 37 8a aa 2d 39
       4.120893e-05 3.1188978e-05 3.0329085e-05 0.00016562096
000270 f4 d1 69 38 c0 d8 06 35 e2 f0 e8 38 11 54 e5 35
       5.5747063e-05 5.02343e-07 0.0001110749 1.7086296e-06
000280 72 f5 20 37 b7 fb 3a 38 ba 07 59 34 c0 d8 06 35
       9.59389e-06 4.4580283e-05 2.0212511e-07 5.02343e-07
000290 e8 d1 6d 38 49 b0 62 38 6c a5 51 38 aa 0a 70 38
       5.6700694e-05 5.4046777e-05 4.9983544e-05 5.723039e-05
0002a0 28 5f 0f 39 5c 87 68 36 b0 8b 4b 39 ec 35 33 37
       0.00013672991 3.4649483e-06 0.00019411626 1.0681786e-05
0002b0 ad 9b c4 37 3e bc dd 38 b0 8a 86 35 5c 87 68 36
       2.3437513e-05 0.00010573164 1.0024141e-06 3.4649483e-06
0002c0 f5 3a e1 38 a6 44 b9 38 1f 80 ab 38 aa a5 16 39
       0.00010739818 8.834274e-05 8.17778e-05 0.0001436683
0002d0 01 56 98 38 5c 53 00 37 17 90 1c 39 91 7e a8 37
       7.263944e-05 7.648803e-06 0.00014930997 2.0086098e-05
0002e0 2c 17 f1 37 7d f1 3b 39 e4 91 44 36 5c 53 00 37
       2.8740229e-05 0.00017923671 2.9291195e-06 7.648803e-06
0002f0 36 52 88 39 04 a4 1d 39 14 d8 65 39 7a fe f5 38
       0.00026001193 0.00015033787 0.00021919637 0.0001172991
000300 36 04 91 38 bf a0 08 35 1c 7d d2 38 1f f4 12 36
       6.914923e-05 5.0897864e-07 0.00010036884 2.1897793e-06
000310 6c 9e 23 37 e9 44 46 38 f8 b0 3e 34 bf a0 08 35
       9.752443e-06 4.7271056e-05 1.775951e-07 5.0897864e-07
000320 e5 13 45 38 bc ce 39 38 0f 24 0e 38 f7 23 93 38
       4.698699e-05 4.4299974e-05 3.388902e-05 7.016205e-05
000330 00 00 00 00 00 00 00 00 00 00 00 00 00 00 00 00
       0.0 0.0 0.0 0.0
000340 00 00 00 00 00 00 00 00 00 00 00 00 00 00 00 00
       0.0 0.0 0.0 0.0
000350 00 00 00 00 00 00 00 00 00 00 00 00 00 00 00 00
       0.0 0.0 0.0 0.0
000360 44 00 6c 38 97 90 0b 36 be 0b b6 38 99 57 f1 36
       5.6267032e-05 2.0796776e-06 8.6806234e-05 7.1925574e-06
000370 48 77 80 37 be fa e8 38 68 40 b8 34 97 90 0b 36
       1.5314334e-05 0.000111093264 3.4319532e-07 2.0796776e-06
000380 97 37 32 37 3a cd 55 37 d9 2c 3a 35 0a f3 6b 38
       1.062257e-05 1.2743572e-05 6.935566e-07 5.6254714e-05
000390 21 e3 6c 39 3c 5a d4 36 c9 7c b0 18 ce 82 1d 38
       0.00022591326 6.328597e-06 4.5620934e-24 3.755354e-05
0003a0 2d b5 84 38 d5 83 d3 39 b5 6e d4 35 3c 5a d4 36
       6.327997e-05 0.0004034328 1.5827451e-06 6.328597e-06
0003b0 c3 69 66 39 df ab 30 39 b8 fb 5b 39 3e f5 82 39
       0.00021973909 0.00016848695 0.0002097924 0.00024978252
0003c0 9b f6 e9 36 08 30 36 36 90 4c c8 38 88 4c 10 37
       6.9726498e-06 2.7148071e-06 9.551004e-05 8.600888e-06
0003d0 7c 21 56 37 00 68 13 39 25 4d b8 35 08 30 36 36
       1.276319e-05 0.00014057755 1.373152e-06 2.7148071e-06
0003e0 91 3d fb 38 21 d9 03 39 c3 8b fc 38 82 68 ff 36
       0.0001198008 0.0001257402 0.00012042329 7.6117585e-06
0003f0 75 bc f1 3b e4 51 54 38 df 50 a8 3b d5 34 b9 39
       0.007377202 5.0621005e-05 0.0051365937 0.00035325313
