models/checkpoint_10000.pt (torch, 125817 bytes, 33 tensors)

shared.0.weight f4 [64, 12]
-0.123114824 -0.028955735 -0.02583717 -0.12140458 0.00632562 -0.05376943 -0.10731184 0.117520295
-0.015437106 0.09569461 -0.21501991 -0.02263004 -0.06147347 -0.15741313 -0.0207079 0.21549466
0.13885215 -0.13242744 -0.17556798 -0.0894398 -0.24451129 0.045943037 -0.16097887 0.08043988
-0.14110565 0.17339498 -0.12863767 0.45642754 -0.030913398 -0.023651626 -0.0543151 -0.077214666
-0.10164167 0.072451495 -0.0028361292 0.085402474 -0.06590557 -0.16757554 -0.055341873 0.10185825
-0.09705445 0.10811381 -0.0267696 -0.07408667 -0.16883568 0.04235064 0.11047818 0.014937023
0.039083585 0.07848055 -0.036059488 0.056599677 -0.1475381 -0.05414307 -0.05486045 -0.15044208
-0.010942986 0.04160756 0.12942697 0.022244606 0.02025446 0.23208745 -0.08276038 0.51131815
0.0044679507 0.026202956 0.076737925 0.004391829 0.05509814 -0.123120114 0.08341372 0.19954236
0.118737966 -0.16956529 -0.0099435225 0.31110162 -0.028782193 0.077719495 -0.051459532 0.19954425
0.09514506 -0.029296972 -0.033468142 -0.14219092 -0.13287856 -0.045928895 -0.33448794 0.19073151
-0.1638675 -0.064279616 -0.04334648 -0.011123495 0.09608547 -0.070246324 0.090980574 -0.17038365
0.051126037 0.16391537 0.31450573 -0.027399285 -0.21944812 0.032296646 0.19943494 0.11393299
0.04418689 -0.086700335 0.027516298 0.32500282 -0.14229256 -0.040060915 0.09874592 0.13809077
-0.09090609 0.11408879 -0.23482972 -0.23874849 -0.25335613 0.06884901 -0.11951882 -0.11746762
-0.107016616 0.14146355 0.0380774 0.3187441 0.033146035 0.15385836 -0.008931048 0.04104871
0.06750731 -0.0070536784 0.06373609 0.014389827 -0.036237754 0.08302435 0.009912228 0.021225799
-0.15328145 0.2788201 -0.046461537 0.27965865 -0.068254955 -0.1340981 -0.06178717 0.039861582
-0.063107945 0.06436757 0.022722207 0.31307834 -0.18913282 0.008102865 0.001864089 -0.07878007
0.06312497 0.2386811 0.072139524 -0.15731953 0.15354027 0.14722177 0.016596017 -0.1694831
0.18952584 0.27433822 -0.08578709 0.14001599 0.08145554 0.22577126 0.15903957 0.079105765
0.069951825 -0.08999833 0.066206396 0.124337226 0.22545238 -0.11288999 -0.08781875 0.118622094
0.0769505 0.017700002 -0.005543348 -0.09238387 -0.08659128 -0.008713696 -0.13648148 0.23084417
0.10999749 0.0053531677 0.070501156 0.26695356 -0.12470435 -0.090908885 0.051398356 0.11886859
0.114395835 0.11911813 -0.05417211 0.07680439 -0.39797908 -0.06775939 0.060622215 0.121109016
0.018710915 -0.033254962 -0.044501666 0.01980121 0.10923572 -0.07908297 -0.4442973 0.08337898
-0.23907855 0.113390096 0.10710747 0.0381101 -0.00012468429 0.046170168 0.035060603 0.037695073
-0.07251568 0.16506477 0.08850094 0.17374104 -0.12922479 0.11474895 0.11094593 0.042763174
0.042105235 -0.005882405 -0.25272816 -0.040162813 -0.25678968 -0.092041515 0.016441122 0.15513055
-0.26486114 0.24949653 -0.03779289 -0.22064957 -0.015896028 0.024403568 0.2543606 0.11527574
0.030819947 0.0018208898 0.114551835 0.05363461 -0.18818046 -0.06379981 -0.20735846 0.13056302
0.07425226 -0.22443235 -0.025179183 0.032711264 0.053510576 0.024946649 -0.124756604 -0.058589693
00000000: a023 fcbd 9434 edbc 79a8 d3bc f7a2 f8bd
00000010: 2647 cf3b 553d 5cbd 4fc6 dbbd 7bae f03d
00000020: eaeb 7cbc 89fb c33d 2e2e 5cbe a262 b9bc
00000030: 9bcb 7bbd e830 21be 9da3 a9bc a2aa 5c3e
00000040: 422f 0e3e 0f9b 07be 18c8 33be 372c b7bd
00000050: 2b61 7abe c42e 3c3d a5d7 24be aabd a43d
00000060: 007e 10be 748e 313e 98b9 03be dfb0 e93e
00000070: 183e fdbc 0ec1 c1bc 8379 5ebd b922 9ebd
00000080: 8229 d0bd 7361 943d 5ade 39bb 7ee7 ae3d
00000090: 80f9 86bd ec98 2bbe 29ae 62bd 0f9b d03d
000000a0: 7cc4 c6bd c66a dd3d ec4b dbbc c1ba 97bd
000000b0: 43e3 2cbe dd77 2d3d 6242 e23d 6aba 743c
000000c0: 1c16 203d 69ba a03d 1db3 13bd 10d5 673d
000000d0: 3a14 17be 20c5 5dbd 5ab5 60bd 7d0d 1abe
000000e0: 364a 33bc b06c 2a3d 8188 043e 523a b63c
000000f0: aeec a53c 55a8 6d3e 467e a9bd bfe5 023f
00000100: e367 923b 95a7 d63c c628 9d3d 55e9 8f3b
00000110: 96ae 613d 6626 fcbd d0d4 aa3d d554 4c3e
00000120: e42c f33d 86a2 2dbe 28ea 22bc b648 9f3e
00000130: a2c8 ebbc 662b 9f3d 3bc7 52bd 5455 4c3e
00000140: 6adb c23d 3400 f0bc e415 09bd 7f9a 11be
00000150: 5111 08be f01f 3cbd 0142 abbe 1f4f 433e
00000160: e2cc 27be 08a5 83bd 148c 31bd 523f 36bc
00000170: 75c8 c43d 4edd 8fbd 0654 ba3d 0d79 2ebe
00000180: 8969 513d 6ed9 273e e506 a13e 7774 e0bc
00000190: 02b7 60be 7d49 043d ac38 4c3e b355 e93d
000001a0: 50fd 343d f28f b1bd dc69 e13c c566 a63e
000001b0: 24b5 11be ea16 24bd 4d3b ca3d ab67 0d3e
000001c0: f92c babd 62a7 e93d 3477 70be 7c7a 74be
000001d0: e5b7 81be b600 8d3d 48c6 f4bd dd92 f0bd
000001e0: 872b dbbd d2db 103e 0cf7 1b3d 6d32 a33e
000001f0: 23c4 073d 0c8d 1d3e 8853 12bc b122 283d
00000200: 4641 8a3d 8b22 e7bb 1188 823d 4fc3 6b3c
00000210: 0a6e 14bd ac08 aa3d e666 223c bae1 ad3c
00000220: d0f5 1cbe 82c1 8e3e 744e 3ebd 6b2f 8f3e
00000230: 41c9 8bbd 0351 09be 8b14 7dbd e645 233d
00000240: bd3e 81bd 25d3 833d ec23 ba3c ce4b a03e
00000250: 09ac 41be e1c1 043c 7354 f43a 7257 a1bd
00000260: aa47 813d d168 743e e3bd 933d 5f18 21be
00000270: a939 1d3e 4ec1 163e 5ff4 873c fa8c 2dbe
00000280: 1013 423e 0f76 8c3e 24b1 afbd 5a60 0f3e
00000290: 2ad2 a63d 9530 673e 45db 223e 3402 a23d
000002a0: e742 8f3d 0b51 b8bd 3897 873d 84a4 fe3d
000002b0: fddc 663e de32 e7bd 51da b3bd 24f0 f23d
000002c0: 3998 9d3d 98ff 903c f9a4 b5bb c133 bdbd
000002d0: c556 b1bd e4c3 0ebc cdc1 0bbe 6a62 6c3e
000002e0: 5d46 e13d a069 af3b e962 903d 23ae 883e
000002f0: ff64 ffbd 702e babd 1587 523d 6071 f33d
00000300: 5d48 ea3d 35f4 f33d 93e3 5dbd 9f4b 9d3d
00000310: eac3 cbbe 6fc5 8abd 004f 783d 0108 f83d
00000320: a247 993c 5b36 08bd 6147 36bd 2636 a23c
00000330: fab6 df3d 41f6 a1bd f07a e3be 99c2 aa3d
00000340: 02d1 74be 1139 e83d 295b db3d 5619 1c3d
00000350: afbd 02b9 ee1c 3d3d b59b 0f3d 2666 1a3d
00000360: 1a83 94bd bd06 293e fb3f b53d 2ce9 313e
00000370: 8153 04be 7f01 eb3d 9f37 e33d 7028 2f3d
00000380: 8a76 2c3d 31c1 c0bb 9665 81be c381 24bd
00000390: f079 83be 4380 bcbd 88af 863c 8bda 1e3e
000003a0: e19b 87be 057c 7f3e b8cc 1abd f6f1 61be
000003b0: 6338 82bc fee9 c73c 8d3b 823e b015 ec3d
000003c0: 1d7a fc3c ecaa ee3a 279a ea3d f7af 5b3d
000003d0: 61b2 40be 7aa9 82bd c755 54be 50b2 053e
000003e0: 9211 983d 98d1 65be 9344 cebc 3ffc 053d
000003f0: e82d 5b3d ea5c cc3c 6480 ffbd bffb 6fbd

shared.0.bias f4 [64]
-0.0064973263 0.23919268 0.20878953 0.20342413 0.21469808 0.17260693 0.16640182 0.03222281
0.13508917 0.2428195 0.18387195 0.19800158 0.21059479 -0.08813054 0.15325086 0.25779667
0.23649748 0.24997437 0.19507529 0.17218043 0.21240649 0.1789732 0.2158495 0.1611096
0.1815571 0.18618722 0.16566414 0.07233685 0.017133074 0.20497395 0.15383787 0.1333375
0.18235663 0.21683398 0.23199107 0.24938253 0.16034323 0.16288815 0.15373792 0.07130058
0.21429706 0.060949963 0.11735484 0.10305121 0.21849154 0.24690491 0.18125258 0.16729121
0.23294583 0.20644979 0.14340569 0.1509463 0.20871374 0.27457255 0.007040859 0.18560661
0.1896143 0.0042364085 0.22823897 -0.027913319 0.22102183 0.14383797 0.18446925 0.22493188
00000000: 86e7 d4bb edee 743e eccc 553e 6a4e 503e
00000010: d0d9 5b3e dfbf 303e 3d65 2a3e 11fc 033d
00000020: d154 0a3e ada5 783e ee48 3c3e edc0 4a3e
00000030: 29a6 573e c97d b4bd cbed 1c3e edfd 833e
00000040: 652c 723e 48f9 7f3e d1c1 473e 1150 303e
00000050: 1681 593e c044 373e a707 5d3e eaf9 243e
00000060: 1bea 393e dda7 3e3e dca3 293e 5825 943d
00000070: a95a 8c3c b1e4 513e ad87 1d3e a089 083e
00000080: b2bb 3a3e ba09 5e3e 118f 6d3e 225e 7f3e
00000090: 0431 243e 27cc 263e 796d 1d3e 0a06 923d
000000a0: b070 5b3e aba6 793d bc57 f03d 830c d33d
000000b0: 3fbc 5f3e a4d4 7c3e 479a 393e 634e 2b3e
000000c0: 5a89 6e3e 9367 533e f1d8 123e ab91 1a3e
000000d0: 0eb9 553e c694 8c3e 02b7 e63b a90f 3e3e
000000e0: 402a 423e 92d1 8a3b 7ab7 693e 79aa e4bc
000000f0: 8c53 623e 434a 133e 82e5 3c3e 8b54 663e

shared.2.weight f4 [64, 64]
-0.08100685 0.2369431 0.007981372 0.10002255 0.31029984 0.1502218 0.3221053 0.11603916
-0.014094005 0.14804158 -0.27908716 0.10828905 -0.0737986 -0.084599644 -0.04221494 0.11846601
0.18608795 0.111500815 0.010645953 0.04200347 0.21080892 -0.031299766 0.35648802 0.033976085
-0.061702278 0.11747854 0.18248993 -0.010785738 -0.010372252 0.16639823 -0.12085661 -0.016701406
-0.0639849 -0.07636238 0.3068871 0.22312728 0.0005860162 0.16738863 0.044085246 0.04308942
0.26546443 0.37428346 -0.089966014 0.15118074 0.14037159 0.2786235 0.04613878 0.2717491
0.25097305 0.253171 0.17997782 0.12788858 0.091082 0.34516865 0.004851516 0.007964686
0.17734893 0.015129895 0.28769615 -0.030776387 0.31856418 0.12111105 0.032945637 0.12140145
0.11176382 0.2299888 0.36733478 0.25887123 0.27515894 0.14571638 0.10055629 0.15152939
-0.1765007 0.10585288 0.01693351 0.11855993 0.18229885 -0.19239187 -0.031980682 0.24357189
0.08587548 0.46066412 0.13637875 0.06393283 0.02183917 -0.038775947 0.15606003 0.17206907
0.09811654 0.24396572 -0.007845266 0.16485275 0.05669333 0.16474323 -0.015132094 0.18343267
0.018320499 0.0763083 0.012845594 0.033523194 -0.06464967 0.2749652 -0.17820168 -0.06345681
0.10263553 0.21055548 0.298674 0.008862965 -0.08127976 0.07913033 -0.07038575 0.19465128
0.012750027 0.07966801 0.09286654 0.18018487 0.069003776 0.37740463 0.034633793 -0.034976028
0.19656253 -0.30652612 -0.02808411 -0.18899293 -0.07564603 -0.03340118 0.21629547 0.1929771
-0.008752754 0.3103978 0.14095712 0.031825688 -0.05513583 -0.0031937205 0.2816719 0.10369504
0.104175076 0.29011962 -0.09623213 0.07347015 0.041924644 -0.1357975 -0.059303574 0.20980784
0.16698813 0.39502865 -0.12366873 -0.011006187 0.34034652 -0.008815077 0.3032844 0.1681909
0.17992131 0.098337285 -0.027347144 0.254067 0.2821603 0.26654875 -0.17372826 0.15097076
0.24693447 0.27785155 0.079354376 0.24620606 -0.065503016 0.23190911 0.063916534 0.22063254
0.07547789 0.34370497 -0.11919322 -0.10397149 0.07079379 0.2811529 0.14175674 0.28343043
0.026769718 -0.01736216 -0.023426073 -0.012416133 0.38210416 0.13679488 0.25980973 0.2188034
0.01045849 -0.4356198 0.21093892 -0.27794746 0.25474653 -0.15299372 0.23085713 -0.008046231
0.04635682 0.099131554 -0.049829807 -0.13347775 -0.08097979 -0.08998592 0.11552801 0.06633791
0.10838338 -0.116312675 0.023657685 -0.02874916 0.20980546 0.13618733 0.1052354 -0.19599241
-0.06451446 -0.12035253 -0.112606995 0.06099004 0.1193352 0.14261924 -0.11982847 0.12197601
0.084783755 -0.18869792 -0.08080623 -0.18421271 0.045508314 0.03837636 0.17683463 -0.14967623
0.084102556 0.0427619 0.009777169 -0.38143066 -0.007312426 -0.30740905 0.1338881 -0.14524065
0.24415252 -0.3618062 0.20077714 0.21943605 -0.21633466 -0.22896904 -0.041774143 0.17430803
-0.17066519 -0.04438905 0.078314446 -0.1483912 0.22527403 0.09662829 -0.19649911 -0.09523518
0.018354148 0.40213972 0.036817703 0.023391554 -0.037566453 0.30419466 -0.022206804 0.2397194
00000000: ebe6 a5bd 36a1 723e 4dc4 023c 9fd8 cc3d
00000010: 9fdf 9e3e bed3 193e fcea a43e f0a5 ed3d
00000020: 8bea 66bc 3698 173e 83e4 8ebe a6c6 dd3d
00000030: b823 97bd 9442 adbd 93e9 2cbd 4f9e f23d
00000040: d78d 3e3e 8a5a e43d 5d6c 2e3c d50b 2c3d
00000050: 4bde 573e 2f34 00bd 9985 b63e 822a 0b3d
00000060: 87bb 7cbd 9798 f03d a4de 3a3e aab6 30bc
00000070: 61f0 29bc 4c64 2a3e ac83 f7bd 63d1 88bc
00000080: 840a 83bd e163 9cbd 4e20 9d3e 7a7b 643e
00000090: e29e 193a ed67 2b3e bb92 343d 887e 303d
000000a0: f4ea 873e 15a2 bf3e 1a40 b8bd 20cf 1a3e
000000b0: 92bd 0f3e bda7 8e3e 04fc 3c3d b322 8b3e
000000c0: 8a7f 803e a19f 813e 1b4c 383e 39f5 023e
000000d0: 3389 ba3d f2b9 b03e 77f9 9e3b 507e 023c
000000e0: f59a 353e 61e3 773c e94c 933e c31e fcbc
000000f0: d81a a33e 1209 f83d 01f2 063d 53a1 f83d
00000100: 6ee4 e43d 2f82 6b3e 4e13 bc3e c58a 843e
00000110: a2e1 8c3e ad36 153e 75f0 cd3d 852a 1b3e
00000120: 99bc 34be 65c9 d83d 25b8 8a3c 8ccf f23d
00000130: 8dac 3a3e 6002 45be 2dfe 02bd e96a 793e
00000140: 7cdf af3d 2bdc eb3e dfa6 0b3e 37ef 823d
00000150: 0fe8 b23c 87d3 1ebd 33ce 1f3e e032 303e
00000160: 53f1 c83d 26d2 793e 6e89 00bc 29cf 283e
00000170: 4437 683d 73b2 283e 9aec 77bc c6d5 3b3e
00000180: df14 963c 8747 9c3d 5476 523c 9e4f 093d
00000190: 0c67 84bd 3dc8 8c3e 807a 36be a5f5 81bd
000001a0: 9432 d23d db9b 573e cceb 983e f835 113c
000001b0: 0176 a6bd 150f a23d 6726 90bd aa52 473e
000001c0: 7de5 503c fb28 a33d d030 be3d 6282 383e
000001d0: da51 8d3d 2e3b c13e 2adc 0d3d 0643 0fbd
000001e0: b047 493e fef0 9cbe a610 e6bc 5d87 41be
000001f0: 4eec 9abd adcf 08bd 8f7c 5d3e ca9b 453e
00000200: b667 0fbc 76ec 9e3e 1057 103e a75b 023d
00000210: 1cd6 61bd bd4d 51bb 4d37 903e 115e d43d
00000220: be59 d53d 8f8a 943e 5a15 c5bd 8577 963d
00000230: 2db9 2b3d 800e 0bbe 4ee8 72bd ded7 563e
00000240: f0fe 2a3e 3241 ca3e 0846 fdbd 4b53 34bc
00000250: e641 ae3e 1d6d 10bc 1848 9b3e 3c3a 2c3e
00000260: 4b3d 383e 0f65 c93d 1e07 e0bc 1215 823e
00000270: 5177 903e 1479 883e d2e5 31be 1498 1a3e
00000280: 64dc 7c3e 8f42 8e3e 8c84 a23d 711d 7c3e
00000290: 7226 86bd 9579 6d3e ace6 823d 7fed 613e
000002a0: 2794 9a3d 19fa af3e 931b f4bd 01ef d4bd
000002b0: 56fc 903d 46f3 8f3e ae28 113e cb1d 913e
000002c0: 2b4c db3c 173b 8ebc 09e8 bfbc 096d 4bbc
000002d0: 28a3 c33e f513 0c3e c805 853e 000e 603e
000002e0: 165a 2b3c 8f09 dfbe 5f00 583e 214f 8ebe
000002f0: 236e 823e 63aa 1cbe d065 6c3e 57d4 03bc
00000300: a6e0 3d3d 7c05 cb3d 571a 4cbd 64ae 08be
00000310: bbd8 a5bd 8a4a b8bd f399 ec3d 2cdc 873d
00000320: 1bf8 dd3d 5735 eebd c3cd c13c 5c83 ebbc
00000330: 3ed7 563e b174 0b3e a885 d73d 3cb2 48be
00000340: 2820 84bd 637b f6bd 7f9e e6bd b1d0 793d
00000350: 0366 f43d c70a 123e a168 f5bd 8fce f93d
00000360: 1ba3 ad3d 073a 41be bd7d a5bd 42a2 3cbe
00000370: ed66 3a3d 8830 1d3d 2314 353e ba44 19be
00000380: f63d ac3d 1a27 2f3d 6b30 203c e14a c3be
00000390: 139d efbb b864 9dbe f619 093e f7b9 14be
000003a0: 1e03 7a3e aa3e b9be 8698 4d3e d8b3 603e
000003b0: d586 5dbe dc76 6abe 5d1b 2bbd ce7d 323e
000003c0: dbc2 2ebe 4bd1 35bd 5363 a03d ddf3 17be
000003d0: 3cae 663e 0ee5 c53d 1037 49be a90a c3bd
000003e0: 705b 963c 42e5 cd3e 29ce 163d a59f bf3c
000003f0: 48df 19bd 67bf 9b3e 0beb b5bc 0179 753e

shared.2.bias f4 [64]
0.13179898 0.14539711 0.14908011 -0.12699728 -0.003226802 0.12159645 -0.024639597 0.1594024
0.0 0.13976523 0.0 0.13467267 0.15274921 0.1484102 0.12521891 -0.0051125037
0.09710977 0.087893724 0.045936596 0.12899475 0.15548632 0.12515132 -0.005420032 -0.02865365
0.13361786 0.09739064 0.16701852 0.113452576 0.09575907 0.102809384 0.13789962 0.17689887
0.09338119 0.0 0.10725823 0.11758542 0.16457197 -0.05591457 0.10662542 0.18272102
0.0 0.0 0.09563824 0.14347535 -0.011564475 0.1641741 -0.008286748 -0.009198904
0.15079734 0.0 0.12671772 0.21020693 0.16184805 -0.017585617 0.13239577 0.15270805
-0.009506887 -0.0008606681 0.13875253 -0.012514757 -0.017014574 0.1455319 0.20278674 0.21693563
00000000: 50f6 063e fbe2 143e 75a8 183e 930b 02be
00000010: c178 53bb 8f07 f93d fbd8 c9bc 623a 233e
00000020: 0000 0000 9e1e 0f3e 0000 0000 a2e7 093e
00000030: 4a6a 1c3e d8f8 173e 6339 003e ca86 a7bb
00000040: 7de1 c63d a001 b43d 0328 3c3d 3317 043e
00000050: ce37 1f3e ab27 003e 869a b1bb 0fbb eabc
00000060: 1fd3 083e be74 c73d e706 2b3e d359 e83d
00000070: 551d c43d ba8d d23d 8f35 0d3e fa24 353e
00000080: a33e bf3d 0000 0000 34aa db3d a0d0 f03d
00000090: 8e85 283e ad06 65bd 6e5e da3d 381b 3b3e
000000a0: 0000 0000 0000 0000 fbdd c33d 34eb 123e
000000b0: ec78 3dbc 411d 283e 24c5 07bc 00b7 16bc
000000c0: 9e6a 1a3e 0000 0000 4ac2 013e 7c40 573e
000000d0: 7fbb 253e b60f 90bc c292 073e 805f 1c3e
000000e0: c6c2 1bbc 759e 61ba 2515 0e3e b20a 4dbc
000000f0: 2662 8bbc 5006 153e 54a7 4f3e 6024 5e3e

actor.0.weight f4 [32, 64]
-0.04300734 0.08108067 0.09362633 -0.031026442 -0.0821112 -0.022573821 -0.017201189 0.08959742
0.08649468 0.17019616 -0.1770274 -0.2426369 -0.095286995 -0.10368563 -0.1600781 0.1553353
-0.019183233 0.08460791 -0.14221212 -0.008478579 -0.09569126 0.038341984 0.022003043 0.010574465
0.1454475 -0.09863748 -0.093724415 0.19858862 -0.07731205 0.0974155 -0.04369408 0.046013463
0.08800055 -0.053556483 0.20265773 -0.15309557 0.09704755 -0.04806338 -0.060108002 0.2621844
0.003996024 0.21999413 -0.101414815 0.088377275 -0.09516335 0.02794173 -0.055979148 -0.0048743826
0.17303988 -0.066624075 -0.123423316 0.32781008 0.19805835 -0.015553147 0.038614683 0.057418667
-0.047732886 0.13505399 -0.083622396 0.07311667 0.098554544 0.013609109 -0.3518656 -0.002473271
0.080870755 0.16440734 0.22791272 -0.10136891 0.095234856 -0.21335664 0.059742868 -0.076261446
-0.087152086 -0.024177039 0.08523175 0.034099553 -0.25046507 -0.09162009 0.0071297567 0.21763968
0.24600682 -0.10402502 0.29738116 -0.10270039 -0.14204507 0.18596104 -0.16911985 0.0562462
0.06817627 -0.31205973 0.19377068 -0.09499272 0.08969555 -0.06628507 -0.030198991 0.008338229
0.14671747 -0.034119666 0.050873403 0.10428298 0.023745626 0.112744786 -0.015295165 0.0008119973
0.03382214 0.036713496 0.03863409 0.14800802 0.06616897 0.19188897 -0.045831427 0.04322693
0.13125762 0.16151261 0.010084536 -0.06611809 0.12568256 -0.01577532 0.07225929 0.059599306
0.15041718 -0.050644662 -0.042819396 -0.07475372 -0.19079737 -0.10519247 0.026526656 0.0876323
0.049431175 -0.023219638 -0.17653348 -0.07150075 0.0836667 0.019442338 0.023139803 0.030489977
-0.044281933 0.018455353 0.05044233 -0.07401907 -0.016761705 -0.2031525 0.24630223 -0.017985465
0.17136253 -0.056269184 0.028730787 0.04307717 -0.15842694 -0.018553488 0.123025924 -0.041171324
0.19265123 0.04405078 -0.14859791 0.060135413 0.30779475 -0.23828922 0.03044603 -0.19118506
-0.05762545 -0.14990982 -0.03831854 -0.23196511 0.1802694 0.26207444 -0.12548293 -0.073583305
-0.012415845 0.06868939 0.029148668 -0.21514753 0.25043964 -0.025931435 0.11892006 0.012906857
0.119085215 -0.14616229 -0.041528843 0.017478481 -0.11030536 -0.008507756 -0.03682071 0.10049294
0.10242641 0.21849929 -0.08250282 0.1450761 0.018892653 -0.0715502 0.1136695 0.10075367
0.26129913 0.214901 0.08452169 -0.13929902 0.027676739 0.0660824 0.22048278 -0.20506479
0.028007802 0.07809821 -0.035317246 -0.092344195 -0.02650301 -0.148809 -0.0032495386 0.053301837
0.033096977 -0.03659303 0.14129716 0.12847649 -0.05190897 -0.12386651 -0.23058718 -0.18796746
-0.09818815 0.17822005 -0.10701958 0.16332346 0.21431832 0.16245833 -0.042419724 0.0020286904
0.06853881 0.18994026 0.15589763 -0.086516924 0.05519955 -0.13660562 -0.154003 -0.14359841
-0.09727914 -0.06367851 -0.10896964 0.019840455 0.08173556 -0.09771815 0.24002814 0.1862947
-0.03866883 0.106880754 -0.19487225 -0.2269649 0.018246178 -0.0112128705 -0.08269596 -0.0751347
-0.24597296 -0.070732884 0.18670917 -0.025975833 -0.021632642 -0.047064792 0.01859112 -0.13159402
00000000: 7728 30bd 9f0d a63d 29bf bf3d 2a2b febc
00000010: eb29 a8bd bcec b8bc 82e9 8cbc da7e b73d
00000020: 1f24 b13d e747 2e3e ac46 35be cf75 78be
00000030: d425 c3bd 2259 d4bd 83eb 23be 3810 1f3e
00000040: 2826 9dbc e946 ad3d 0ea0 11be bde9 0abc
00000050: c8f9 c3bd 7c0c 1d3d ba3f b43c 8540 2d3c
00000060: 30f0 143e 7202 cabd 96f2 bfbd d15a 4b3e
00000070: c855 9ebd c781 c73d 90f8 32bd 9d78 3c3d
00000080: a239 b43d 0b5e 5bbd 8285 4f3e 16c5 1cbe
00000090: dec0 c63d 1bde 44bd cf33 76bd 093d 863e
000000a0: 14f1 823b 2446 613e 92b2 cfbd 25ff b43d
000000b0: 01e5 c2bd 0ee6 e43c 644a 65bd 49b9 9fbb
000000c0: 5e31 313e 3472 88bd 5dc5 fcbd b9d6 a73e
000000d0: cfcf 4a3e a0d2 7ebc 6e2a 1e3d d62f 6b3d
000000e0: 8f83 43bd 984b 0a3e 3842 abbd 31be 953d
000000f0: f7d6 c93d bef8 5e3c ba27 b4be 9a16 22bb
00000100: 919f a53d 665a 283e f461 693e 819a cfbd
00000110: 7e0a c33d 2a7a 5abe f0b4 743d f62e 9cbd
00000120: cb7c b2bd ed0e c6bc fc8d ae3d f9ab 0b3d
00000130: f53c 80be 50a3 bbbd bca0 e93b f0dc 5e3e
00000140: 36e9 7b3e 120b d5bd 5842 983e 9554 d2bd
00000150: 4374 11be 926c 3e3e c12d 2dbe 6a62 663d
00000160: 00a0 8b3d 4bc6 9fbe d26b 463e 8b8b c2bd
00000170: 4db2 b73d 77c0 87bd e063 f7bc 119d 083c
00000180: 1b3d 163e 10c1 0bbd a160 503d 5192 d53d
00000190: 3086 c23c bde6 e63d 9298 7abc 37dc 543a
000001a0: 1689 0a3d e460 163d c83e 1e3d 6a8f 173e
000001b0: 9983 873d 8b7e 443e bcb9 3bbd b90e 313d
000001c0: 6668 063e 9063 253e 9c39 253c ec68 87bd
000001d0: eeb2 003e 3e3b 81bc aefc 933d 671e 743d
000001e0: f606 1a3e c770 4fbd 6463 2fbd 7a18 99bd
000001f0: 6360 43be 266f d7bd 6e4e d93c 9078 b33d
00000200: 5878 4a3d 1c37 bebc 31c5 34be fc6e 92bd
00000210: 7259 ab3d 8a45 9f3c af8f bd3c 1ec6 f93c
00000220: f960 35bd ae2f 973c 9e9c 4e3d 4f97 97bd
00000230: d84f 89bc 3507 50be a736 7c3e 4156 93bc
00000240: a979 2f3e 847a 66bd d45c eb3c b071 303d
00000250: ac3a 22be 7cfd 97bc 04f5 fb3d 43a3 28bd
00000260: 5d46 453e 976e 343d 0d2a 18be 8d50 763d
00000270: 4697 9d3e 1702 74be f469 f93c 04c6 43be
00000280: aa08 6cbd f681 19be e7f3 1cbd 4388 6dbe
00000290: 8b98 383e 9f2e 863e 997e 00be d8b2 96bd
000002a0: d46b 4bbc 06ad 8c3d 30c9 ee3c a24f 5cbe
000002b0: a039 803e 296e d4bc 5c8c f33d 4877 533c
000002c0: f3e2 f33d 91ab 15be 261a 2abd 082f 8f3c
000002d0: c7e7 e1bd 1d64 0bbc 50d1 16bd 3ecf cd3d
000002e0: f0c4 d13d 47be 5f3e 3df7 a8bd d48e 143e
000002f0: c4c4 9a3c e988 92bd 8ecb e83d f157 ce3d
00000300: 00c9 853e 020f 5c3e b519 ad3d 67a4 0ebe
00000310: 54ba e23c 3656 873d 3dc6 613e 81fc 51be
00000320: 9e70 e53c f4f1 9f3d d1a8 10bd f41e bdbd
00000330: d71c d9bc 6361 18be 36f6 54bb 0753 5a3d
00000340: b290 073d 93e2 15bd 34b0 103e 578f 033e
00000350: 809e 54bd baad fdbd 0c1f 6cbe 8b7a 40be
00000360: de16 c9bd 517f 363e 152d dbbd 443e 273e
00000370: 4376 5b3e 7a5b 263e 4ec0 2dbd c7f3 043b
00000380: 135e 8c3d b37f 423e a1a3 1f3e c92f b1bd
00000390: ec18 623d 58e2 0bbe f6b2 1dbe 760b 13be
000003a0: 493a c7bd e169 82bd 7a2b dfbd 7388 a23c
000003b0: f964 a73d 7420 c8bd f0c9 753e 0ac4 3e3e
000003c0: 3563 1ebd 4ce4 da3d 978c 47be 7d69 68be
000003d0: 0279 953c 30b6 37bc 805c a9bd 39e0 99bd
000003e0: 56e0 7bbe 67dc 90bd b030 3f3e 45cb d4bc
000003f0: f036 b1bc 03c7 40bd 684c 983c 95c0 06be

actor.0.bias f4 [32]
-0.005420485 -0.00250275 -0.0035818191 -0.0050717485 0.00199902 -0.0038665365 0.0043283612 0.006287705
-0.002476291 0.0 -0.0020879153 0.0071481904 -0.0031950383 0.0006399421 -0.0042752493 0.0009601701
0.00063463073 -0.003512278 -0.0028672644 -0.0032009368 -0.00224057 -0.02044408 0.0032594895 0.0030810945
0.0016885302 0.0018643378 0.0 0.0008207866 -0.001434764 -0.0034055647 0.0 -0.0044647194
00000000: 539e b1bb 2d05 24bb f4bc 6abb e930 a6bb
00000010: fe01 033b b865 7dbb edd4 8d3b 1809 ce3b
00000020: 4549 22bb 0000 0000 68d5 08bb 5e3b ea3b
00000030: d963 51bb cac1 273a 6417 8cbb edb3 7b3a
00000040: 595d 263a 3f2e 66bb b7e8 3bbb cfc6 51bb
00000050: 87d6 12bb 587a a7bc 299d 553b 30ec 493b
00000060: ac51 dd3a cc5c f43a 0000 0000 0e2a 573a
00000070: b10e bcba e52f 5fbb 0000 0000 c84c 92bb

actor.2.weight f4 [2, 32]
-0.005332009 -0.26255056 0.024699735 -0.067981474 -0.13624215 0.2817398 -0.2855215 0.12659468
0.17316857 -0.09706125 0.23456244 0.049000934 0.2817707 -0.042818062 -0.13842016 -0.008584223
-0.0021184587 0.011805631 -0.22955815 0.08128887 0.24994783 0.054975428 -0.43521374 -0.3468421
-0.043815505 -0.25801414 -0.08127209 -0.19817697 0.030225996 0.052360293 -0.04689333 0.1247257
-0.18615054 0.094789326 0.004929922 -0.020175422 0.2653306 -0.066146664 -0.1656425 0.34653553
0.05652136 -0.18505311 0.13706699 0.14655532 -0.0689607 0.09139139 -0.30946833 0.12167355
-0.10998001 -0.29166186 0.20452939 -0.1395702 -0.06995673 -0.089391425 -0.050159432 0.10838128
0.28197142 0.090163074 -0.3281997 -0.013854373 0.087239064 -0.08656438 -0.27025217 0.054865688
00000000: 22b8 aebb 076d 86be 1957 ca3c df39 8bbd
00000010: 1083 0bbe 3340 903e e02f 92be 09a2 013e
00000020: 1a53 313e 0cc8 c6bd 2331 703e 34b5 483d
00000030: 4044 903e fe61 2fbd 04be 0dbe d7a4 0cbc
00000040: d7d5 0abb 686c 413c 4b11 6bbe c77a a63d
00000050: 53f2 7f3e ea2d 613d 56d4 debe 4a95 b1be
00000060: e377 33bd 6e1a 84be fb71 a6bd e7ee 4abe
00000070: 829c f73c bf77 563d 3813 40bd 3070 ff3d
00000080: 3f9e 3ebe e820 c23d 2f8b a13b ed46 a5bc
00000090: 6ad9 873e e777 87bd 309e 29be 1b6d b13e
000000a0: f182 673d 907e 3dbe 4a5b 0c3e 9912 163e
000000b0: 443b 8dbd 692b bb3d a272 9ebe fb2f f93d
000000c0: 333d e1bd b454 95be 2770 513e 7eeb 0ebe
000000d0: 7945 8fbd da12 b7bd fa73 4dbd 01f7 dd3d
000000e0: 8f5e 903e 6ba7 b83d cb09 a8be 74fd 62bc
000000f0: 65aa b23d aa48 b1bd 7e5e 8abe d8ba 603d

actor.2.bias f4 [2]
-0.0024826361 0.0024826368
00000000: b9b3 22bb bcb3 223b

critic.0.weight f4 [32, 64]
-0.12386894 0.050261237 0.088183776 -0.21091306 -0.088992074 0.15791465 -0.33537892 -0.06990448
-0.13328068 -0.07260963 -0.04835921 0.05633888 -0.16761412 0.2126292 0.07439479 -0.013134742
-0.104899004 -0.15678646 -0.0943257 -0.094457574 0.113764405 -0.15925136 -0.2606516 -0.017066391
-0.10895263 -0.073331796 -0.27054182 -0.059773125 0.04297232 0.049330257 -0.12148898 0.075344205
0.0015867678 0.11564461 -0.08217938 0.14463404 0.0019560421 -0.052257314 0.06602094 -0.08132347
0.14751048 0.07113294 0.04243756 -0.013684586 0.24696669 -0.13888243 0.020183023 0.05503469
0.18108518 -0.069442034 0.20597224 -0.12906395 -0.15432169 0.07812542 0.034137525 0.0985934
0.090337016 -0.06651159 0.034755528 0.027907636 0.16308264 -0.2013669 -0.07720597 -0.030964546
0.3836943 0.019147875 0.2930012 -0.23699442 -0.05592374 0.2096015 -0.046455808 0.14470427
-0.12277627 0.2807149 -0.17484897 0.10680966 0.14455916 0.12358668 0.08668821 0.059676763
0.12435368 0.15758303 0.11850431 0.14146455 0.107048586 0.11884379 0.092739485 0.023968704
0.16516806 0.35400993 0.10798142 -0.03239745 0.19537015 0.09901513 0.27505502 0.1331375
0.32211027 0.043254305 -0.004584237 0.17170323 0.06530727 -0.011323471 0.20299053 0.29939765
-0.16092466 -0.22965652 -0.0378291 0.33338386 0.19122921 -0.108728416 0.22456507 -0.042695515
0.27532268 0.023514625 0.29896113 0.19610676 0.31926018 -0.14615451 -0.009142232 0.110262334
-0.40001026 -0.054661755 0.09836941 0.06477801 -0.20446455 -0.10539904 0.26420188 0.12083723
-0.09666034 0.16987525 -0.039170127 0.029720254 0.14434215 -0.10266911 0.1594742 0.0024007189
-0.056100942 -0.15803659 0.036670387 0.09561579 -0.00033612183 -0.05398682 -0.10877376 0.15696065
-0.028344067 -0.017387243 -0.07997409 -0.27223396 0.012846192 0.011868224 0.09297105 -0.017187348
-0.16192251 0.10312242 -0.03220943 -0.21519239 -0.28014287 0.1795959 0.034030665 -0.29669407
0.1682064 0.043675564 -0.008648754 -0.20746802 0.18156616 -0.11488468 0.1748347 -0.1807585
0.16568127 0.14223179 -0.12163559 0.25643203 0.039631497 -0.10438545 -0.028908279 0.014460059
-0.17032784 -0.020122493 0.030565131 -0.1972775 -0.1669937 0.04644096 0.04407323 -0.023130728
-0.09815987 -0.019806625 -0.10085768 0.048617795 -0.070747696 0.07622724 -0.034354627 -0.11083661
0.098742925 0.29015604 -0.015321684 -0.33440056 -0.104996495 0.26928252 -0.08932353 0.09077967
-0.13881555 0.06474902 0.14900339 -0.010183438 0.1092696 -0.041445572 0.08134351 0.086542316
0.18211438 0.24601392 0.1266038 0.20942366 0.15635572 0.06638734 -0.02670595 -0.34786424
-0.06978536 0.15691736 0.24781199 0.10896295 0.08361472 0.27282572 0.2605507 0.29265147
0.22909443 -0.17668335 -0.04291752 0.25851157 0.23539673 0.060555547 0.05478888 0.23247072
-0.04575981 0.18588446 0.18966211 0.18978429 -0.1253541 0.15494576 0.041009124 0.21633674
0.16531159 0.086238876 0.15240835 0.33729607 0.06467726 -0.14366819 0.39270788 0.19411966
-0.14423276 -0.07393718 0.22485329 -0.131624 -0.167035 0.028823067 0.08813655 0.23077644
00000000: 00af fdbd bade 4d3d b299 b43d 98f9 57be
00000010: 7a41 b6bd 61b4 213e c9b6 abbe 142a 8fbd
00000020: bb7a 08be 5cb4 94bd 4f14 46bd 99c3 663d
00000030: 09a3 2bbe 78bb 593e 4c5c 983d 1a33 57bc
00000040: 4ad5 d6bd a18c 20be d52d c1bd f972 c1bd
00000050: 50fd e83d ca12 23be 2074 85be d1ce 8bbc
00000060: 8e22 dfbd fb2e 96bd 7584 8abe aad4 74bd
00000070: be03 303d 860e 4a3d 37cf f8bd 104e 9a3d
00000080: 18fb cf3a 15d7 ec3d aa4d a8bd f21a 143e
00000090: f130 003b c40b 56bd fd35 873d eb8c a6bd
000000a0: fd0c 173e 26ae 913d 02d3 2d3d 5035 60bc
000000b0: d6e4 7c3e 3237 0ebe de56 a53c 0e6c 613d
000000c0: 656e 393e a037 8ebd 63ea 523e 5729 04be
000000d0: 8106 1ebe 3800 a03d cad3 0b3d 56eb c93d
000000e0: 9d02 b93d 3a37 88bd d05b 0e3d 8e9e e43c
000000f0: 23ff 263e 2033 4ebe 2a1e 9ebd 5ca9 fdbc
00000100: 9473 c43e 01dc 9c3c 4104 963e aaae 72be
00000110: 4b10 65bd c7a1 563e 7248 3ebd 5b2d 143e
00000120: 2072 fbbd ddb9 8f3e 9c0b 33be 06bf da3d
00000130: 5107 143e 031b fd3d 9789 b13d 9f6f 743d
00000140: 24ad fe3d 725d 213e 63b2 f23d 15dc 103e
00000150: 4a3c db3d 5f64 f33d 33ee bd3d 045a c43c
00000160: d121 293e ca40 b53e 5d25 dd3d 30b3 04bd
00000170: 1d0f 483e 72c8 ca3d 03d4 8c3e 3255 083e
00000180: a3eb a43e 6d2b 313d 5e37 96bb f9d2 2f3e
00000190: d1bf 853d 1486 39bc c0dc 4f3e a64a 993e
000001a0: 6fc9 24be 142b 6bbe b0f2 1abd 4ab1 aa3e
000001b0: 97d1 433e 01ad debd 63f4 653e 7ee1 2ebd
000001c0: 18f7 8c3e bea1 c03c 6f11 993e 36d0 483e
000001d0: 1276 a33e 87a9 15be 4dc9 15bc 38d1 e13d
000001e0: 25ce ccbe 01e5 5fbd e775 c93d 55aa 843d
000001f0: 285f 51be 74db d7bd 7845 873e 8279 f73d
00000200: dbf5 c5bd c7f3 2d3e db70 20bd e477 f33c
00000210: 6ece 133e 2f44 d2bd 344d 233e 6155 1d3b
00000220: 1aca 65bd 58d4 21be b033 163d 36d2 c33d
00000230: 8239 b0b9 4921 5dbd c7c4 debd 4bba 203e
00000240: d131 e8bc b16f 8ebc 75c9 a3bd 4062 8bbe
00000250: d678 523c f072 423c 9b67 be3d 7bcc 8cbc
00000260: 04cf 25be d931 d33d 09ee 03bd 655b 5cbe
00000270: e36e 8fbe fde7 373e bd63 0b3d 49e8 97be
00000280: 4c3e 2c3e 26e5 323d 81b3 0dbc 7f72 54be
00000290: 7bec 393e a948 ebbd de07 333e c218 39be
000002a0: 5aa8 293e 36a5 113e 151c f9bd 0f4b 833e
000002b0: a354 223d 0ac8 d5bd 0ed1 ecbc e2e9 6c3c
000002c0: 6c6a 2ebe edd7 a4bc ba63 fa3c 1d03 4abe
000002d0: 6600 2bbe e038 3e3d 2286 343d a77c bdbc
000002e0: 0b08 c9bd 8141 a2bc 798e cebd 7423 473d
000002f0: 2be4 90bd 071d 9c3d 70b7 0cbd 4efe e2bd
00000300: bb39 ca3d 558f 943e cd07 7bbc 8d36 abbe
00000310: 6708 d7bd 66df 893e 41ef b6bd b1ea b93d
00000320: aa25 0ebe 229b 843d 5894 183e 6fd8 26bc
00000330: bdc8 df3d d5c2 29bd 6d97 a63d 193d b13d
00000340: 317c 3a3e 13eb 7b3e 6da4 013e 2873 563e
00000350: b71b 203e 16f6 873d 70c6 dabc 431b b2be
00000360: a0eb 8ebd f2ae 203e 6dc2 7d3e f827 df3d
00000370: 323e ab3d d0af 8b3e e766 853e 6ad6 953e
00000380: bb97 6a3e 7bec 34be 48ca 2fbd a15b 843e
00000390: d70b 713e 1809 783d 4e6a 603d ce0c 6e3e
000003a0: a36e 3bbd 7f58 3e3e c936 423e d056 423e
000003b0: d35c 00be 1aaa 1e3e 2ff9 273d 6187 5d3e
000003c0: 7147 293e 029e b03d ef10 1c3e 12b2 ac3e
000003d0: 8375 843d c11d 13be 0211 c93e 4ec7 463e
000003e0: c1b1 13be 606c 97bd f13f 663e 71c8 06be
000003f0: 390b 2bbe 5a1e ec3c ef80 b43d a950 6c3e

critic.0.bias f4 [32]
0.0 0.12890688 -0.010473762 0.063254654 0.15763006 0.09510614 -0.01583754 0.06360719
0.067353845 0.086706236 -0.0072076377 0.06417229 0.102578595 0.06725182 0.06520997 -0.002291113
-0.0047597713 0.0 0.0659794 -0.008171551 0.09435283 0.073777944 0.0 0.09482496
-0.010536094 0.069911 -0.010899789 0.06668856 -0.013019399 0.073127456 -0.0018007885 -0.00298888
00000000: 0000 0000 2a00 043e 249a 2bbc a88b 813d
00000010: c669 213e 02c7 c23d bbbd 81bc 7d44 823d
00000020: d0f0 893d 0a93 b13d 0c2e ecbb c36c 833d
00000030: ba14 d23d 52bb 893d ce8c 853d 7f26 16bb
00000040: dbf7 9bbb 0000 0000 3520 873d f8e1 05bc
00000050: 0e3c c13d e418 973d 0000 0000 9733 c23d
00000060: 959f 2cbc 802d 8f3d 0795 32bc 0394 883d
00000070: 514f 55bc d9c3 953d 6f08 ecba 16e1 43bb

critic.2.weight f4 [1, 32]
0.044742346 -0.1576858 0.039709803 -0.367569 -0.14259116 -0.32119885 0.026942814 -0.527885
-0.2994011 -0.2063349 0.0028114174 -0.3672491 -0.18820952 -0.27388686 -0.34245223 0.030123878
0.20683822 0.12990263 -0.31486988 0.27997947 -0.3479439 -0.21717405 -0.012297118 -0.35930866
0.18375567 -0.2931875 0.06663169 -0.44062483 0.100389525 -0.38261724 -0.035097845 0.33482078
00000000: c043 373d 6378 21be bfa6 223d 0132 bcbe
00000010: 6b03 12be 2d74 a4be 2db7 dc3c 7923 07bf
00000020: 1a4b 99be 7549 53be c23f 383b 1308 bcbe
00000030: ffb9 40be e63a 8cbe e655 afbe 5ac6 f63c
00000040: 66cd 533e 3205 053e a036 a1be 7859 8f3e
00000050: b425 b2be e062 5ebe da79 49bc 4ef7 b7be
00000060: 722a 3c3e ac1c 96be 3276 883d 9499 e1be
00000070: 0699 cd3d 68e6 c3be c2c2 0fbd a16d ab3e

exp_avg f4 [64, 12]
6e-45 6e-45 6e-45 6e-45 6e-45 6e-45 6e-45 6e-45
0.0 6e-45 0.0 6e-45 0.002897155 0.00077000365 -0.0012658734 0.0029555885
0.0027315405 0.01108613 0.0003196941 0.00077000365 -0.0034021542 -0.00051792164 0.002085886 0.0031296918
0.003101461 -0.00037753413 -0.0023788367 0.0008200225 0.0013809843 0.010743753 -6.6549146e-05 -0.00037753413
-0.008308854 -0.0004730269 -0.0009096381 -0.0001793716 0.0033477722 6.233566e-05 -3.2412616e-05 0.00092242874
0.0013709223 0.008463107 0.00012347299 6.233566e-05 -0.004936759 0.00036313548 -0.0010471715 0.0010660541
0.0015452242 -0.00025785362 -0.0017401358 0.00036802646 0.0006701147 0.0058009 -5.985059e-05 -0.00025785362
-0.0049925456 -0.0005743431 -0.0007718727 -0.00017877086 0.0012671401 -0.00021751775 -0.001389409 0.00033734323
0.0005814789 0.004829669 -5.1078518e-05 -0.00021751775 -0.0042071952 -0.00045227716 -0.0006409204 -0.00019565833
0.0003082694 -7.130659e-05 -0.00049696624 8.282501e-05 0.0001478108 0.0013313602 -1.2838824e-05 -7.130659e-05
-0.0013477595 -0.00013892012 -0.00023472651 -0.00016229271 -0.00037030733 -5.415484e-05 0.0 -0.00022749543
-0.00027532474 -0.00038951467 -4.8276583e-05 -5.415484e-05 -0.00088965986 -0.00084590976 -0.00088965986 -6.8239715e-05
0.0005864025 -0.00013003522 -0.0008056177 0.00017195947 0.00029003716 0.0024726852 -2.5435107e-05 -0.00013003522
-0.0023401985 -0.00020593383 -0.00037697644 -0.00023990171 0.008602333 0.0013498648 -0.0009212493 0.0053299344
0.005201316 0.018745942 0.00066867104 0.0013498648 -0.00025233842 0.002603275 0.0028025948 0.009036873
0.0003465459 -0.00011870835 -0.000650363 9.72432e-05 0.00017924873 0.0017812157 -2.5464256e-05 -0.00011870835
-0.0019893975 -0.00022231674 -0.00031683702 -0.00034258357 0.0011202596 -0.00015065495 -0.0019505684 0.00036892216
0.00036922988 0.003755464 -4.0666484e-05 -0.00015065495 -0.003472233 -0.00055956753 -0.0007304078 -0.000105275074
0.0017677192 -0.00013998726 -0.0013526336 0.0004609548 0.0007587589 0.0047905245 -3.7903144e-05 -0.00013998726
-0.004391208 -0.0004997689 -0.00077497715 0.0002677741 -0.0022360769 0.00037451286 0.002477818 -0.0005748418
-0.0010043643 -0.008467881 8.775648e-05 0.00037451286 0.0073145824 0.00082000776 0.0011345018 0.00028873218
-0.00014282163 3.4333007e-05 0.00022556791 -2.5882451e-05 -5.3907526e-05 -0.0006390702 8.562255e-06 3.4333007e-05
0.0008650732 0.00015437932 0.00015591753 0.00013480277 0.0021467125 -0.00034489922 -0.0020401285 0.00049467175
0.00092570286 0.0079353405 -7.135095e-05 -0.00034489922 -0.0065309783 -0.00053852313 -0.00072093506 -0.00039231588
0.0021344046 -0.0006070996 -0.005571021 0.0004454373 0.00022962713 0.009836352 -0.00022468137 -0.0006070996
-0.011848453 -0.0034063242 -0.0038187485 -0.0011539377 0.012320056 0.002268332 0.009796082 0.00416878
0.0040305173 0.020104663 0.00087790756 0.002268332 -0.005471852 0.0023719084 0.0011707402 0.009415061
0.00261401 -0.00019644538 -0.0019564345 0.00071418856 0.0011992705 0.006874424 1.7671715e-05 -0.00019644538
-0.0039751614 0.0010086261 0.00094419695 0.00037246398 0.0010961831 -0.00032142727 -0.0018581147 0.00029592548
0.0005259542 0.005723543 -7.202987e-05 -0.00032142727 -0.0057454067 -0.00074452546 -0.0008822004 -0.0007449871
0.0011167683 -0.00047397485 -0.0022703863 0.0009805857 0.0012099915 0.006547008 -0.00010969031 -0.00047397485
-0.0054199058 0.00015783851 -0.001285165 0.00035512375 0.00035888443 -9.382784e-05 -0.0009442959 9.703712e-05
00000000: 0400 0000 0400 0000 0400 0000 0400 0000
00000010: 0400 0000 0400 0000 0400 0000 0400 0000
00000020: 0000 0000 0400 0000 0000 0000 0400 0000
00000030: 32de 3d3b 12da 493a aaeb a5ba 8cb2 413b
00000040: a503 333b 99a2 353c 9e9c a739 12da 493a
00000050: adf6 5ebb 22c5 07ba 5cb3 083b 841b 4d3b
00000060: e241 4b3b c6ef c5b9 42e6 1bbb c7f6 563a
00000070: 2502 b53a 9106 303c 4d90 8bb8 c6ef c5b9
00000080: dc21 08bc 9900 f8b9 c874 6eba b215 3cb9
00000090: 4c66 5b3b 34ba 8238 c8f2 07b8 25cf 713a
000000a0: 85b0 b33a d8a8 0a3c 8778 0139 34ba 8238
000000b0: 89c4 a1bb 3863 be39 3f41 89ba d7ba 8b3a
000000c0: 1f89 ca3a 8730 87b9 4515 e4ba adf3 c039
000000d0: a3aa 2f3a 7a15 be3b 1508 7bb8 8730 87b9
000000e0: 8298 a3bb 838f 16ba 8057 4aba 7074 3bb9
000000f0: 2b16 a63a 7a15 64b9 d41c b6ba 71dd b039
00000100: 636e 183a 3342 9e3b 243d 56b8 7a15 64b9
00000110: 83dc 89bb 9d1f edb9 7103 28ba a229 4db9
00000120: 389f a139 6f8a 95b8 d746 02ba 57b2 ad38
00000130: a9fd 1a39 0981 ae3a 5466 57b7 6f8a 95b8
00000140: 4ea7 b0ba 16ab 11b9 eb20 76b9 1e2d 2ab9
00000150: cf25 c2b9 5124 63b8 0000 0000 d78b 6eb9
00000160: 7659 90b9 c637 ccb9 967c 4ab8 5124 63b8
00000170: 1038 69ba 0bc0 5dba 1038 69ba eb1b 8fb8
00000180: ceb8 193a 105a 08b9 1730 53ba 0550 3439
00000190: 2110 9839 c60c 223b 7a5d d5b7 105a 08b9
000001a0: 045e 19bb f1ef 57b9 eca4 c5b9 208e 7bb9
000001b0: cdf0 0c3c f2ed b03a fe7f 71ba bba6 ae3b
000001c0: cd6f aa3b 1791 993c c149 2f3a f2ed b03a
000001d0: 4a4c 84b9 b59b 2a3b bdab 373b 640f 143c
000001e0: 9ab0 b539 0ff3 f8b8 1f7d 2aba 0cef cb38
000001f0: b7f4 3b39 ae77 e93a 139c d5b7 0ff3 f8b8
00000200: 8d60 02bb b21d 69b9 251d a6b9 ca9c b3b9
00000210: add5 923a 21f9 1db9 37aa ffba e56b c139
00000220: 3295 c139 3b1e 763b 4e91 2ab8 21f9 1db9
00000230: 678e 63bb f1af 12ba d678 3fba 20c7 dcb8
00000240: d0b2 e73a 8bc9 12b9 da4a b1ba 4eac f139
00000250: 73e7 463a d5f9 9c3b 31fa 1eb8 8bc9 12b9
00000260: 1fe4 8fbb ec02 03ba d627 4bba 0864 8c39
00000270: 258b 12bb 445a c439 e362 223b fbb0 16ba
00000280: e0a4 83ba debc 0abc e709 b838 445a c439
00000290: 2aaf ef3b caf5 563a 90b3 943a fa60 9739
000002a0: 64c2 15b9 c900 1038 6d86 6c39 241e d9b7
000002b0: c41a 62b8 4687 27ba 9ba6 0f37 c900 1038
000002c0: 14c6 623a e2e0 2139 cb7d 2339 d859 0d39
000002d0: dcaf 0c3b 97d3 b4b9 adb3 05bb dcac 013a
000002e0: deaa 723a 3b03 023c 40a2 95b8 97d3 b4b9
000002f0: d101 d6bb ad2b 0dba 22fd 3cba bfaf cdb9
00000300: 5ee1 0b3b c425 1fba 1d8d b6bb 9589 e939
00000310: 10c8 7039 a728 213c 7298 6bb9 c425 1fba
00000320: 0420 42bc a33c 5fbb f843 7abb b93f 97ba
00000330: 0fda 493c 4ca8 143b bf7f 203c 439a 883b
00000340: 6e12 843b 89b2 a43c 6123 663a 4ca8 143b
00000350: 394d b3bb 0572 1b3b 8673 993a a141 1a3c
00000360: cf4f 2b3b e8fc 4db9 8637 00bb 6238 3b3a
00000370: d730 9d3a d942 e13b b83d 9437 e8fc 4db9
00000380: 1242 82bb e033 843a fc83 773a 4547 c339
00000390: cdad 8f3a 3d85 a8b9 fc8b f3ba 7226 9b39
000003a0: 30e0 093a 8f8c bb3b be0e 97b8 3d85 a8b9
000003b0: f743 bcbb 422c 43ba 7743 67ba 3d4b 43ba
000003c0: 8760 923a d47f f8b9 c3ca 14bb ff86 803a
000003d0: 9498 9e3a 4988 d63b 8909 e6b8 d47f f8b9
000003e0: 7799 b1bb 7481 2539 fb72 a8ba e72f ba39
000003f0: a728 bc39 70c5 c4b8 a08a 77ba 6880 cb38

exp_avg_sq f4 [64, 12]
2.3914396e-13 5.055676e-13 2.9388074e-12 1.4333713e-12 2.7579076e-12 4.395707e-12 2.0206069e-13 5.055676e-13
0.0 8.852471e-12 0.0 2.3914396e-13 0.0005428327 2.540314e-05 0.0005024756 7.088128e-05
0.00011365671 0.0006858951 3.1019083e-06 2.540314e-05 4.0270086e-05 0.00012840168 3.5524183e-05 0.00054319383
0.0007418903 3.840514e-05 0.00076665287 9.986968e-05 0.00015400443 0.00095557206 6.9916996e-06 3.840514e-05
0.000690428 0.00048389184 0.0005743645 0.0007490765 0.00043322807 2.2715993e-05 0.00045848574 5.8434878e-05
9.122093e-05 0.0005560539 4.1100657e-06 2.2715993e-05 0.00040758977 0.00028650044 0.00034340698 0.0004373059
0.000250916 1.2821944e-05 0.00025854085 3.3283097e-05 5.1557403e-05 0.00031963352 2.3437867e-06 1.2821944e-05
0.00023108139 0.00016230781 0.0001910244 0.00025283938 0.000181415 9.461667e-06 0.00019393941 2.4355126e-05
3.791099e-05 0.0002330881 1.71768e-06 9.461667e-06 0.00016950173 0.00011898414 0.00014175105 0.00018265685
2.2061538e-05 1.1696941e-06 2.3498347e-05 3.0505414e-06 4.720677e-06 2.9301056e-05 2.1281659e-07 1.1696941e-06
2.098897e-05 1.467453e-05 1.7424994e-05 2.2478762e-05 3.5095977e-07 6.225112e-08 0.0 2.5184494e-07
3.0857944e-07 1.7367091e-06 1.4897697e-08 6.225112e-08 3.0564033e-06 1.2848071e-06 3.0553265e-06 2.6550688e-07
5.5272994e-05 2.943748e-06 6.0150363e-05 7.636461e-06 1.1862768e-05 7.2755785e-05 5.312614e-07 2.943748e-06
5.1803705e-05 3.6217916e-05 4.3330223e-05 5.6027788e-05 0.0011095116 5.290123e-05 0.0011166547 0.00015100458
0.00024459386 0.0015228036 6.246988e-06 5.290123e-05 2.384148e-05 0.00021904986 0.000103033555 0.0011112994
4.3575044e-05 2.3499017e-06 4.8552334e-05 6.0438615e-06 9.369652e-06 5.648405e-05 4.2943125e-07 2.3499017e-06
4.3252283e-05 3.005887e-05 3.5899768e-05 4.4085416e-05 0.00011020963 5.738623e-06 0.00011496976 1.4878049e-05
2.2969074e-05 0.00014119958 1.0455948e-06 5.738623e-06 0.00010156066 7.1226226e-05 8.4265055e-05 0.00011103415
0.00017307207 9.481081e-06 0.00018671354 2.4913314e-05 3.7848353e-05 0.00023614416 1.7221439e-06 9.481081e-06
0.00016998783 0.00011957637 0.00014165758 0.00017674253 0.00047681894 2.4694613e-05 0.0005010838 6.3857035e-05
9.904854e-05 0.00061084406 4.4974217e-06 2.4694613e-05 0.00044298483 0.00031074075 0.0003681095 0.00048059755
5.434916e-06 3.0062927e-07 5.8147984e-06 7.97557e-07 1.173024e-06 6.746002e-06 5.711808e-08 3.0062927e-07
6.1155756e-06 4.3593736e-06 5.212288e-06 5.458289e-06 0.0004721982 2.4774974e-05 0.00050497433 6.384618e-05
9.923705e-05 0.00061063125 4.5399725e-06 2.4774974e-05 0.00044768295 0.000314632 0.00037486295 0.00047632944
0.00078703783 4.115397e-05 0.0008289607 0.00010691339 0.00016540416 0.0010128245 7.516727e-06 4.115397e-05
0.00074499164 0.00051473646 0.00062261824 0.00079690386 0.0009531103 4.331924e-05 0.0005301227 0.00013606848
0.00019653872 0.001335429 8.761556e-06 4.331924e-05 0.00086052855 0.0006243769 0.00075100124 0.000968152
0.00030758022 1.6275768e-05 0.0003295592 4.224882e-05 6.519647e-05 0.0004006558 2.9862179e-06 1.6275768e-05
0.00029245726 0.00020215307 0.00023682462 0.00030956927 0.00027858317 1.4524833e-05 0.00029226067 3.7873575e-05
5.848428e-05 0.00035996814 2.6399662e-06 1.4524833e-05 0.00026335992 0.00018575678 0.00021932638 0.0002815162
0.00042360183 2.1408543e-05 0.00044031846 5.522984e-05 8.7755994e-05 0.0005374378 3.6139552e-06 2.1408543e-05
0.000353864 0.00021304867 0.00026342884 0.00042435512 3.6221732e-05 1.913319e-06 3.825528e-05 5.1151765e-06
00000000: 47a0 862a fc4d 0e2b d9cc 4e2c a5ba c92b
00000010: 0c12 422c 02a9 9a2c 0780 632a fc4d 0e2b
00000020: 0000 0000 fcbb 1b2d 0000 0000 47a0 862a
00000030: e34c 0e3a d418 d537 91b8 033a 19a6 9438
00000040: fb5a ee38 a4cd 333a 612a 5036 d418 d537
00000050: ade7 2838 90a3 0639 cdff 1438 1f65 0e3a
00000060: 6a7b 423a 3415 2138 34f9 483a 2071 d138
00000070: 407c 2139 5b7f 7a3a 3e9a ea36 3415 2138
00000080: d7fd 343a ddb2 fd39 f390 163a ac5d 443a
00000090: e322 e339 398e be37 ea60 f039 f917 7538
000000a0: dd4d bf38 25c4 113a 32e9 8936 398e be37
000000b0: c6b1 d539 7035 9639 4e0b b439 3446 e539
000000c0: 608d 8339 d51d 5737 c48c 8739 7499 0b38
000000d0: 573f 5838 7c94 a739 f349 1d36 d51d 5737
000000e0: 704e 7239 2c31 2a39 b94d 4839 878f 8439
000000f0: 383a 3e39 8dbd 1e37 375c 4b39 3c4e cc37
00000100: 9e02 1f38 1c69 7439 098b e635 8dbd 1e37
00000110: 46bc 3139 2087 f938 02a3 1439 9387 3f39
00000120: cb10 b937 62fe 9c35 511e c537 e7b7 4c36
00000130: 4f66 9e36 8acb f537 9482 6434 62fe 9c35
00000140: 7811 b037 a032 7637 e42b 9237 c690 bc37
00000150: 8b6b bc34 eaae 8533 0000 0000 4e35 8734
00000160: d6aa a534 df18 e935 c4f0 7f32 eaae 8533
00000170: 9c1c 4d36 a371 ac35 1c0a 4d36 fd8a 8e34
00000180: edd4 6738 358d 4536 f649 7c38 5a1e 0037
00000190: 3306 4737 7794 9838 019c 0e35 358d 4536
000001a0: ce47 5938 b1e8 1738 79bd 3538 61ff 6a38
000001b0: 086d 913a 43e2 5d38 b75c 923a fc56 1e39
000001c0: d53c 8039 cf98 c73a 389d d136 43e2 5d38
000001d0: 30ff c737 c0b0 6539 b813 d838 05a9 913a
000001e0: 59c4 3638 01b3 1d36 aca4 4b38 60cc ca36
000001f0: 5932 1d37 49e9 6c38 958c e634 01b3 1d36
00000200: c969 3538 ef26 fc37 1593 1638 5be8 3838
00000210: 5820 e738 658e c036 eb1b f138 bc9c 7937
00000220: b6ad c037 f90e 1439 5d56 8c35 658e c036
00000230: f7fc d438 4a5f 9538 75b7 b038 01db e838
00000240: ae7a 3539 ef10 1f37 89c8 4339 effc d037
00000250: 5cbf 1e38 779d 7739 6a24 e735 ef10 1f37
00000260: c33e 3239 13c5 fa38 eb89 1439 f653 3939
00000270: 8efd f939 4727 cf37 2a5b 033a fcea 8538
00000280: 48b8 cf38 0d21 203a 8fe8 9636 4727 cf37
00000290: 6b40 e839 ebea a239 d2fe c039 b6f8 fb39
000002a0: 935d b636 2c66 a134 bd1c c336 b317 5635
000002b0: cc70 9d35 b75b e236 fe51 7533 2c66 a134
000002c0: 6534 cd36 bc46 9236 37e5 ae36 5826 b736
000002d0: 5f91 f739 dad3 cf37 4160 043a 28e5 8538
000002e0: 7c1d d038 c512 203a 1156 9836 dad3 cf37
000002f0: fdb6 ea39 31f5 a439 4189 c439 dbbb f939
00000300: 3751 4e3a bd9c 2c38 9c4e 593a b036 e038
00000310: 5770 2d39 c0c0 843a 3138 fc36 bd9c 2c38
00000320: 8b4b 433a 61ef 063a 3437 233a 50e7 503a
00000330: 26da 793a aeb1 3538 eff7 0a3a 9bad 0e39
00000340: f615 4e39 9009 af3a 99fe 1237 aeb1 3538
00000350: 1895 613a 39ad 233a d7de 443a 95cb 7d3a
00000360: b842 a139 f287 8837 b0c8 ac39 5334 3138
00000370: 17ba 8838 1c0f d239 d566 4836 f287 8837
00000380: f354 9939 0df9 5339 2054 7839 af4d a239
00000390: cd0e 9239 afaf 7337 903a 9939 71da 1e38
000003a0: 044d 7538 1bba bc39 462a 3136 afaf 7337
000003b0: 9213 8a39 b5c7 4239 fafa 6539 7798 9339
000003c0: e016 de39 7f96 b337 8bda e639 97a6 6738
000003d0: a409 b838 d7e2 0c3a 4787 7236 7f96 b337
000003e0: d286 b939 d165 5f39 d21c 8a39 fb7b de39
000003f0: caec 1738 9266 0036 4b74 2038 08a3 ab36

exp_avg f4 [64]
6e-45 0.0074198307 0.0043023694 0.0040544034 0.0020952167 0.001705362 0.00033136163 -0.00088965986
0.00071055104 0.015245306 0.00030549816 0.0012383707 0.0020797926 -0.0030470963 -5.670423e-05 0.002847377
0.0011149052 0.016675802 0.00382688 0.0015102383 0.0026071412 0.00011651582 0.003580268 0.0011912383
0.0018361625 0.0015658824 0.0018143068 -0.0022488749 -0.00017680338 0.0018503679 0.00070105126 -0.0014123376
0.00032965257 0.0033493722 0.003932349 0.0037840705 0.0015846307 0.0047343257 -0.00033195928 0.0029011704
0.0018766155 0.0018041389 -0.00016908972 -0.00038146722 0.002343841 0.013159055 0.0008346531 0.0004900667
0.0025040726 0.00084457896 0.0005129128 0.0015831057 0.0042787604 0.0025811135 -0.003289963 0.00087785226
0.00076127774 -0.008089056 0.0010491532 -0.0026687733 0.0016196166 0.00014129508 0.0003257248 0.0028935203
00000000: 0400 0000 0d22 f33b e4fa 8c3b cdda 843b
00000010: e74f 093b 7486 df3a 9bba ad39 1038 69ba
00000020: 4644 3a3a 73c7 793c 452b a039 d350 a23a
00000030: 214d 083b cbb1 47bb b4d5 6db8 0f9b 3a3b
00000040: 0322 923a b19b 883c 64cc 7a3b 30f3 c53a
00000050: 92dc 2a3b f459 f438 eea2 6a3b 5323 9c3a
00000060: 64ab f03a 4b3e cd3a 09ce ed3a dc61 13bb
00000070: 4c64 39b9 0b88 f23a c1c6 373a 301e b9ba
00000080: 38d5 ac39 2481 5b3b efda 803b 2bfe 773b
00000090: 62b3 cf3a 6722 9b3b d20a aeb9 9021 3e3b
000000a0: c4f8 f53a db78 ec3a ad4d 31b9 aaff c7b9
000000b0: 209b 193b 1499 573c 9fcc 5a3a d277 003a
000000c0: 5e1b 243b bc66 5d3a ff74 063a 3680 cf3a
000000d0: d834 8c3b e627 293b 6b9c 57bb ab1f 663a
000000e0: 7c90 473a f687 04bc bd83 893a 96e6 2ebb
000000f0: 5149 d43a 9c28 1439 0bc6 aa39 37a1 3d3b

exp_avg_sq f4 [64]
2.3720043e-11 0.0011093165 0.0014184783 0.00083965115 0.00047541063 0.00034886133 4.3841643e-05 3.1090196e-06
0.00010987295 0.0024257097 8.627446e-05 0.00021159789 0.0003544437 0.00091098953 1.0791214e-05 0.00091332634
0.0015319999 0.001962449 0.0006021881 0.0005403194 0.0008333074 7.2836374e-05 0.001575539 0.00020754349
0.00030637527 0.0003161854 0.00022043544 0.0013829155 8.700633e-06 0.0004977855 1.9588533e-05 0.00020605684
4.92263e-05 0.0013183805 0.00088503247 0.0031063685 0.00010596362 0.00050928775 1.0449056e-05 9.993315e-05
0.000466226 0.0018360062 3.2292014e-06 2.0989532e-06 0.0006740987 0.0018131009 5.410107e-05 0.00011667996
0.0009757333 0.00030353523 7.022165e-05 0.0001570837 0.0014688164 0.0023795273 0.0002419134 0.0001064157
0.00036659162 0.0028111478 0.0010909252 0.0010959273 0.0011287823 6.4889387e-06 0.0006992468 0.00030143256
00000000: caa4 d02d 7c66 913a 3cec b93a 091c 5c3a
00000010: 8940 f939 60e7 b639 9be2 3738 8da4 5036
00000020: 976b e638 a8f8 1e3b 3fee b438 60e0 5d39
00000030: a1d4 b939 79cf 6e3a e90b 3537 4b6c 6f3a
00000040: 63cd c83a 6e9c 003b 29dc 1d3a 39a4 0d3a
00000050: 5072 5a3a bbbf 9838 5182 ce3a 08a0 5939
00000060: fea0 a039 b0c5 a539 b024 6739 f242 b53a
00000070: eff8 1137 d27d 023a 0e52 a437 f610 5839
00000080: 5678 4e38 82cd ac3a 8601 683a 3794 4b3b
00000090: c938 de38 b981 053a 5b4e 2f37 3493 d138
000000a0: cb6f f439 25a6 f03a 42b5 5836 bedb 0c36
000000b0: ffb5 303a 92a5 ed3a 95ea 6238 14b2 f438
000000c0: 5ac8 7f3a cf23 9f39 f643 9338 d6b6 2439
000000d0: 4d85 c03a d8f1 1b3b 22aa 7d39 7e2b df38
000000e0: 1833 c039 3c3b 383b 60fd 8e3a 38a5 8f3a
000000f0: a6f3 933a 8fbb d936 a94d 373a 9809 9e39
