models/checkpoint_290000.pt (torch, 125871 bytes, 33 tensors)

shared.0.weight f4 [64, 12]
0	0xbe412089	-0.18860067
1	0x3de39598	0.11112517
2	0x3e37eca6	0.17961368
3	0x3f2f19b1	0.68398577
4	0xbde29264	-0.11063078
5	0xbe2b7bf4	-0.16746503
6	0xbdaff2ac	-0.08591208
7	0xbd8d1f45	-0.0689073
8	0xbba3d08f	-0.0049992274
9	0x3df04121	0.11731172
10	0xbbd2c8a7	-0.006432611
11	0x3dde180e	0.10844432
12	0xbd0cad6d	-0.03434508
13	0x3dfd7de8	0.1237753
14	0xbdda03ab	-0.10645231
15	0x3f087986	0.5331043
16	0xbc8f804b	-0.01751723
17	0xbe22d667	-0.159021
18	0x3eb54d7a	0.35410672
19	0x3eb3d1f4	0.3512112
20	0x3d4cf599	0.050038908
21	0xbbbe6a52	-0.005811014
22	0xbb2e2da3	-0.0026577495
23	0x3d495483	0.049152862
24	0x3dd42071	0.1035775
25	0xbeb1c223	-0.34718427
26	0xbdc5e98a	-0.09663685
27	0xbe6bd026	-0.23028621
28	0xbeabb4f8	-0.33536506
29	0xbd1125b0	-0.035436332
30	0xbd81034a	-0.062994555
31	0xbe9c88d9	-0.30573156
32	0xbe961e0d	-0.29319802
33	0x3d49c5d2	0.04926092
34	0x3e3cae8a	0.18425956
35	0x3daf62de	0.08563779
36	0xbe82bab0	-0.25533056
37	0xbe9d4f46	-0.30724543
38	0xbde05373	-0.10953417
39	0x3bf02f4d	0.0073298574
40	0x3d0f3234	0.034959987
41	0x3e5df3ef	0.21675085
42	0x3eb54806	0.35406512
43	0x3ca81780	0.020519018
44	0xbe0fda88	-0.14048207
45	0x3d5e11f0	0.054216325
46	0x3e10afce	0.14129564
47	0xbd8ae44c	-0.067818254
48	0x3e6242c4	0.22095782
49	0xbe98c91c	-0.29840934
50	0x3dfa24e2	0.12214066
51	0xbf1be17b	-0.6089093
52	0xbdf3e6d4	-0.11909261
53	0x3de53212	0.11191191
54	0xbf12e948	-0.5738721
55	0xbe1999e5	-0.15000112
56	0x3dff8d76	0.124781534
57	0x3e7939df	0.24338482
58	0xbdcc2aa3	-0.0996907
59	0xbe2cf8de	-0.1689181
60	0xbe2d3ccd	-0.16917725
61	0xbcc65073	-0.024208283
62	0xbe9196cb	-0.28435358
63	0xbefb097e	-0.4903068
64	0xbec08c7e	-0.37607187
65	0x3d88f763	0.0668781
66	0xbe1dd098	-0.15411603
67	0xbdaf77f8	-0.08567804
68	0x3bd8d66c	0.006617358
69	0xbca6dad4	-0.020368017
70	0xbd37cb7e	-0.0448718
71	0x3e0043ef	0.12525915
72	0xbddb44c2	-0.10706474
73	0x3ef753ab	0.4830602
74	0x3dab991a	0.08378811
75	0x3ebd8d31	0.37021783
76	0xbefe0b79	-0.49618128
77	0xbe2f8968	-0.1714226
78	0x3da0f9af	0.07860123
79	0x3e84eaef	0.2596049
80	0x3d8950e1	0.067048796
81	0xbd0d17d6	-0.03444656
82	0xbdfe72f3	-0.124242686
83	0x3e0fda74	0.14048177
84	0x3d91570c	0.07096681
85	0xbeaa2460	-0.33230877
86	0x3d0142a4	0.031557694
87	0xbebf43e0	-0.37356472
88	0xbef4d383	-0.4781762
89	0xbd25f535	-0.04051705
90	0xbef3f525	-0.47647968
91	0xbe67bee2	-0.2263141
92	0xbd146292	-0.036226816
93	0xbe90065f	-0.2812986
94	0x3e2212c1	0.15827467
95	0x3d397a24	0.045282498
96	0xbea9b265	-0.33143917
97	0xbeea76fc	-0.45793903
98	0x3ded4bfa	0.11586757
99	0xbe81aeda	-0.25328714
100	0x3e767d12	0.24071148
101	0x3d8aa467	0.067696385
102	0xbf811908	-1.0085764
103	0xbeb87a7a	-0.36030942
104	0x3e3ac47e	0.18239018
105	0x3dee1bd3	0.11626401
106	0x3c5ad182	0.013355615
107	0xbf27dbef	-0.6556997
108	0x3d9e0d1e	0.07717346
109	0x3e7a3b55	0.24436696
110	0x3df9d297	0.1219837
111	0xbd8fb627	-0.07017165
112	0xbea56805	-0.32305923
113	0x3d93bb90	0.07213509
114	0xbf770ad7	-0.96500915
115	0x3dc1a06d	0.09454427
116	0xbd951cc9	-0.07280881
117	0xbeeb2f1c	-0.4593438
118	0x3ad27f3b	0.0016059646
119	0xbe87aad6	-0.26497525
120	0xbe201d03	-0.15636067
121	0x3e52662f	0.20546792
122	0x3a74fef2	0.0009345851
123	0x3e9a3926	0.30121726
124	0xbeff8e37	-0.4991319
125	0xbe618058	-0.22021616
126	0x3cce72ef	0.025201289
127	0x3d5f8786	0.054572605
128	0x3d1214cb	0.03566436
129	0x3cdc1c2e	0.026868906
130	0x3dba7f6f	0.09106337
131	0x3e681b05	0.22666557
132	0xbea1a795	-0.31573167
133	0x3f03e2a9	0.5151773
134	0x3dbd5c44	0.09246114
135	0x3f5b203a	0.8559605
136	0xbe422dd2	-0.18962792
137	0xbdc7d428	-0.097572625
138	0x3ecebafd	0.40377036
139	0x3ecdbd96	0.40183705
140	0x3dc69cd8	0.09697884
141	0xbd3701ab	-0.044679325
142	0x3da9da78	0.08293623
143	0x3e4c0915	0.1992534
144	0xbe71def9	-0.23620214
145	0x3edd3060	0.4320097
146	0x3bb9a0f0	0.005664937
147	0x3e2dff29	0.16991867
148	0xbe3a412f	-0.18188928
149	0x3e67754f	0.22603343
150	0x3e9e099d	0.3086671
151	0x3e27232f	0.16322015
152	0x3d28a9c0	0.04117751
153	0xbe31abd7	-0.17350708
154	0xbe059015	-0.13043244
155	0x3dbd5c89	0.09246165
156	0xbeb7a1d4	-0.35865653
157	0x3e5b9e00	0.21446991
158	0xbdc441c8	-0.09582859
159	0x3edbed29	0.42954376
160	0x3e1df818	0.15426672
161	0x3e2feec4	0.17180926
162	0x3f49c08b	0.7880942
163	0x3ee91083	0.4552041
164	0x3de0589b	0.109544
165	0xbe86db60	-0.26339245
166	0x3dc09b23	0.0940459
167	0x3ebb9141	0.36634257
168	0xbe0e405c	-0.13891739
169	0xbca7a0af	-0.020462362
170	0xbe78e469	-0.24305882
171	0x3eb4d85f	0.35321328
172	0xbf0b9116	-0.5451826
173	0x3e18a5d9	0.14907016
174	0x3e6600c2	0.22461227
175	0xbde8807d	-0.11352632
176	0xbc8fb29e	-0.017541226
177	0xbda6f2bb	-0.08151766
178	0x3e840d5b	0.2579144
179	0x3e910deb	0.2833093
180	0xbd68a544	-0.056798235
181	0xbeb4ac87	-0.35287878
182	0x3e6bbba6	0.23020801
183	0x3cb8d135	0.022560695
184	0xbe96957e	-0.29410928
185	0xbd809c38	-0.06279796
186	0xbe86e38f	-0.26345488
187	0xbe8983f8	-0.26858497
188	0x3e95d43d	0.29263487
189	0x3c1a7661	0.009427638
190	0x3e045a54	0.12925082
191	0xbe31032f	-0.1728637
192	0xbe50a0d8	-0.20373857
193	0x3edaee64	0.42760003
194	0xbcc27cdc	-0.023741178
195	0x3f053db3	0.5204727
196	0xbdb7b60e	-0.08970271
197	0xbb53d20b	-0.003232124
198	0x3ee280a7	0.4423878
199	0x3f356649	0.708592
200	0xbe084db8	-0.13310897
201	0xbd754292	-0.05987794
202	0x3d7693be	0.06019949
203	0x3e8d3df0	0.27586317
204	0x3c990c5e	0.018682655
205	0x3c820370	0.01587078
206	0xbe24deba	-0.16100588
207	0xbd8e186c	-0.06938252
208	0xbe1aa945	-0.15103634
209	0xbd155a83	-0.03646327
210	0x3d30f67b	0.043203812
211	0xbd65363b	-0.05595992
212	0xbd86ab06	-0.06575589
213	0xbdc562c7	-0.09637981
214	0xbd96c731	-0.073622115
215	0xbd01ed38	-0.03172037
216	0xbe678f63	-0.22613291
217	0x3f126143	0.5717966
218	0x3e0fec40	0.14054966
219	0x3eaec841	0.34137157
220	0x3ce4af8d	0.02791574
221	0x3dc38992	0.09547724
222	0x3e8f6239	0.28004625
223	0x3f180bcb	0.59392995
224	0x3b8000b1	0.0039063324
225	0x3d7a979d	0.061179746
226	0xbee9108b	-0.45520434
227	0xbe5c8dd6	-0.21538481
228	0x3e8cf756	0.27532452
229	0xbec5797c	-0.38569248
230	0xbf03d039	-0.514896
231	0x3eee7995	0.46577135
232	0x3dedf3fa	0.116188005
233	0xbd8307eb	-0.063979946
234	0xbf0f0d91	-0.55880076
235	0xbea7a5dc	-0.32743728
236	0x3d6cdb05	0.05782606
237	0x3e0bf66f	0.13668226
238	0xbe116a5f	-0.14200734
239	0xbe019a8a	-0.12656608
240	0x3dc46fa7	0.095916085
241	0xbce4f025	-0.027946541
242	0xbe7a3200	-0.24433136
243	0x3bf06ede	0.007337435
244	0xbeba9e16	-0.36448735
245	0x3eb1b0a1	0.3470507
246	0xbe90b828	-0.282655
247	0x3ceccfec	0.028907739
248	0xb9f86ffe	-0.00047385687
249	0x3ebd6fac	0.3699926
250	0xbd09113c	-0.0334637
251	0xbec3a52f	-0.38211963
252	0x3e8dd0c0	0.27698326
253	0xbea838cb	-0.3285583
254	0x3d51d98c	0.05123286
255	0xbfbc869b	-1.4728578

shared.0.bias f4 [64]
0	0x3e635ec1	0.22204114
1	0x3e74ea83	0.23917584
2	0x3e12f82d	0.14352484
3	0xbde616ca	-0.112348154
4	0x3ea2d569	0.31803444
5	0x3d7c00ee	0.061524324
6	0x3e56e0c3	0.20984177
7	0x3ccb75f7	0.024836523
8	0x3e8b5027	0.2720959
9	0x3e3eb41e	0.18623397
10	0x3e46b955	0.19406636
11	0x3e26812c	0.16260213
12	0x3e27a6d2	0.1637223
13	0x3db4a298	0.08820075
14	0x3d52cb3d	0.051463354
15	0x3dc6303b	0.09677168
16	0x3e21edeb	0.15813415
17	0x00000000	0.0
18	0x3e517172	0.20453432
19	0x3e6d97a4	0.23202378
20	0x3e0e2c6c	0.13884133
21	0x3e9677a7	0.29388162
22	0x3d019bca	0.031642713
23	0xbe0b95d1	-0.13631369
24	0x3ec1e681	0.37871173
25	0x3e9b7a15	0.3036658
26	0x3e957472	0.29190403
27	0xbc1bfdc4	-0.009520952
28	0x3e1c2639	0.15248956
29	0xbbfecb06	-0.007775667
30	0x3eacd7fd	0.33758536
31	0x3e6209c5	0.2207404
32	0x3e9a5fc0	0.30151176
33	0x3cb2a3e2	0.021806661
34	0x3cefd63a	0.029276956
35	0x3e14e921	0.14542057
36	0x3ea89f18	0.3293388
37	0xbd5ba136	-0.05362054
38	0x3eb82d1b	0.35971913
39	0x3e4a5b62	0.19761422
40	0x3e7699a1	0.24082042
41	0x00000000	0.0
42	0x3e84eb58	0.25960803
43	0xbe22852f	-0.15871118
44	0x3e6bb654	0.23018771
45	0x3eaa0c04	0.33212292
46	0x3ead3e50	0.33836603
47	0x3e9a3ada	0.30123025
48	0x3e3606ac	0.17775983
49	0x3e0369d6	0.12833342
50	0x3d46484a	0.048408784
51	0x3e05b015	0.13055451
52	0x3e4ec9a2	0.20194104
53	0x3e4d97f2	0.20077494
54	0x3e6ee306	0.2332879
55	0x3e9c2ae3	0.3050147
56	0x00000000	0.0
57	0x3e2bf879	0.16794004
58	0xbe942f54	-0.28942358
59	0x3df810fa	0.12112613
60	0x3e7347b8	0.23757827
61	0x3db71dad	0.08941207
62	0x3e39335f	0.18086003
63	0x3e39cd85	0.18144806

shared.2.weight f4 [64, 64]
0	0x3c19c49c	0.009385254
1	0x3d18fe17	0.037351694
2	0x3e9f5cea	0.31125575
3	0x3e461ba5	0.19346483
4	0x3ebb309f	0.36560532
5	0xbe0883f3	-0.13331585
6	0xbda31a40	-0.07963991
7	0x3e18d043	0.14923196
8	0xbefc5441	-0.4928303
9	0x3e921b02	0.2853623
10	0x3e3cb0e8	0.1842686
11	0x3de4f4e5	0.111795224
12	0xbde41dd3	-0.11138501
13	0xbe063adb	-0.13108389
14	0x3d1b9841	0.037986998
15	0xbe1c0007	-0.15234385
16	0x3d1603a5	0.03662457
17	0x3d8646ff	0.0655651
18	0xbda916ac	-0.082562774
19	0x3e14a400	0.14515686
20	0x3cb2bd8a	0.021818895
21	0xbed6fa31	-0.41987756
22	0x3f64215e	0.89113414
23	0xbdf6973d	-0.12040565
24	0xbc41839b	-0.011811162
25	0x3e0a404e	0.13501093
26	0x3e2395c4	0.159751
27	0x3e0d6a53	0.1381009
28	0x3eac5a95	0.3366286
29	0xbeb985d0	-0.36234903
30	0x3d173c5a	0.03692279
31	0xbcfdefa0	-0.030998051
32	0x3e37ebd3	0.17961054
33	0x3e57fa83	0.21091656
34	0xbe3542ab	-0.17701213
35	0x3f4b36a0	0.79380226
36	0x3daccd16	0.084375545
37	0x3e448b77	0.19193827
38	0xbe15b696	-0.14620432
39	0xbef2539b	-0.4732941
40	0x3e17eb38	0.14835823
41	0xbe0961df	-0.13416241
42	0x3eb75720	0.3580866
43	0xbf1ef8d4	-0.6209843
44	0x3e66b4f8	0.22529972
45	0x3e8ba313	0.27272853
46	0x3d9eede1	0.077602156
47	0xbd481c0f	-0.048854884
48	0x3dca3a84	0.09874442
49	0x3dc80d3b	0.097681485
50	0x3db25204	0.087070495
51	0xbcfca6cc	-0.030841254
52	0xbc193f36	-0.00935345
53	0x3bb64cfa	0.0055633755
54	0xbd7546ca	-0.059881963
55	0x3e5b6f3a	0.21429148
56	0x3e080985	0.13284881
57	0xbea36b1c	-0.31917655
58	0xbbf3b536	-0.0074373735
59	0xbe83ba60	-0.2572813
60	0x3e299254	0.16559726
61	0x3f11bbb8	0.5692706
62	0xbedff287	-0.4373972
63	0xbd93b67c	-0.072125405
64	0x3db92b46	0.09041457
65	0xbd30b452	-0.043140717
66	0x3deea408	0.1165238
67	0xbda62378	-0.08112234
68	0x3ef0aff6	0.47009248
69	0xbc50c8b2	-0.012743162
70	0xbd2e374e	-0.04253321
71	0x3e063cb6	0.13109097
72	0xbe9f45dd	-0.3110799
73	0x3e7a6fbf	0.2445669
74	0x3dc77861	0.09739757
75	0x3c370b91	0.011172191
76	0x3e15e149	0.1463672
77	0xbd39ad60	-0.04533136
78	0x3e138ca3	0.14409117
79	0x3ebdc29a	0.37062532
80	0x3de220ee	0.11041437
81	0x3d16e765	0.03684177
82	0x3e8d8913	0.27643642
83	0x3e44edd5	0.1923135
84	0x3cd0a795	0.025470534
85	0xbeb03d5f	-0.34421822
86	0x3f4d8d47	0.802937
87	0xbc76e594	-0.015069384
88	0x3e11cb8d	0.14237805
89	0x3ddee843	0.10884144
90	0x3eba1d30	0.36350393
91	0xbd36f276	-0.044664823
92	0x3d74a6d1	0.0597294
93	0xbe8b61c2	-0.2722302
94	0x3e23a752	0.15981796
95	0x3e4220cb	0.18957822
96	0x3d4850be	0.048905127
97	0x3effe847	0.499819
98	0x3e389fc3	0.18029694
99	0x3f11ffef	0.5703115
100	0xbe0d1cf4	-0.13780576
101	0x3f22febb	0.6366994
102	0x3a822893	0.0009930305
103	0xbf21f5dc	-0.63265777
104	0x3c2727c2	0.01020235
105	0xbde3a1f8	-0.111148775
106	0x3e3b9695	0.18319161
107	0xbf2a2f62	-0.6647855
108	0x3e22c5d2	0.15895775
109	0x3db1d96d	0.08684049
110	0x3dbc8f90	0.0920707
111	0x3e54605b	0.20739882
112	0x3df85e6b	0.12127384
113	0x3dc17322	0.09445788
114	0xbb937228	-0.0044996925
115	0x3cc75a8d	0.02433517
116	0xbdc9533a	-0.09830327
117	0xbb90f323	-0.0044235154
118	0x3d8e8e56	0.06960742
119	0xbe22c123	-0.15893988
120	0x3d2d0e65	0.042250056
121	0xbd9f04c8	-0.07764584
122	0x3dbb5ba1	0.09148336
123	0x3d218b96	0.03943976
124	0x3e79d918	0.24399221
125	0x3ec28d75	0.37998548
126	0xbebd41fe	-0.3696441
127	0xbe4fe3ea	-0.20301786
128	0xbe3f3641	-0.1867304
129	0xbe2a180c	-0.16610736
130	0x3ea5f8fd	0.32416525
131	0x3e19648c	0.14979762
132	0x3d82953e	0.06376122
133	0xbe9c409e	-0.3051805
134	0xbdb101e1	-0.086429365
135	0x3dbc6729	0.09199364
136	0xbeaa7d19	-0.33298567
137	0x3e2840fc	0.1643104
138	0xbdcef338	-0.10104984
139	0xbb571a3d	-0.0032822036
140	0x3e102367	0.14076005
141	0x3e3afe6c	0.18261117
142	0x3db866d6	0.090039894
143	0xbc953e1b	-0.01821809
144	0x3df27103	0.118379615
145	0x3da6fb96	0.08153455
146	0xbcb0c6d3	-0.021579182
147	0xbc4435fc	-0.0119757615
148	0x3e549723	0.20760779
149	0xbf03e29a	-0.5151764
150	0x3ef88b69	0.48543862
151	0xbe0b3804	-0.13595587
152	0x3eb548b8	0.35407043
153	0x3e6c9c71	0.23106553
154	0x3d86db1e	0.06584762
155	0xbda17413	-0.078834675
156	0x3e85d611	0.26139882
157	0xbe9da501	-0.3078995
158	0x3de44a08	0.11146933
159	0x3eb34da6	0.3502018
160	0x3e52b70c	0.2057764
161	0x3e1b3dee	0.15160343
162	0x3e1a4e94	0.15069038
163	0x3f44d8f7	0.7689356
164	0x3dcd849d	0.100350596
165	0x3e184708	0.14870846
166	0x3da87a96	0.082265064
167	0xbf23ee40	-0.64035416
168	0x3ebca544	0.36844838
169	0xbdad3841	-0.08457995
170	0x3d88802c	0.06665072
171	0xbee47e22	-0.44627482
172	0x3da79b75	0.08183948
173	0xbd0ce95a	-0.03440223
174	0xbe222b43	-0.15836816
175	0x3e35bee1	0.17748596
176	0xbc67db63	-0.014151427
177	0x3ca8cd67	0.020605756
178	0x3c24f213	0.010067481
179	0x3d755d6a	0.05990354
180	0x3db81282	0.08987905
181	0xbbadfd15	-0.0053097107
182	0x3e8930d9	0.2679508
183	0x3dcfabae	0.10140167
184	0x3e45b581	0.1930752
185	0xbce86a15	-0.028370896
186	0xbe503a44	-0.20334727
187	0xbe4a3154	-0.1974538
188	0x3e705918	0.23471487
189	0x3ed8ba3f	0.42329594
190	0xbee9bfa1	-0.45654014
191	0x3aa861b8	0.0012846505
192	0x3df2bc86	0.11852364
193	0x3e12e224	0.14344078
194	0x3eddda57	0.43330643
195	0xbc27359c	-0.010205653
196	0xbceb120c	-0.028695129
197	0xbe886569	-0.2663987
198	0xbdd772e8	-0.105199635
199	0x3e2ab506	0.16670617
200	0xbdbd9efa	-0.09258838
201	0x3ea15ec8	0.31517625
202	0x3e5f4af8	0.21805942
203	0xbdcae00d	-0.099060155
204	0xbe38718b	-0.18012063
205	0xbc8d2636	-0.017230134
206	0x3d9663e8	0.07343274
207	0x3d8e414d	0.06946049
208	0xbe13a14d	-0.14417
209	0x3e2c92d1	0.16852881
210	0x3de9a261	0.114079244
211	0xbd6878be	-0.056755774
212	0x3e877c20	0.26461887
213	0xbee4a664	-0.44658196
214	0x3f72e5f8	0.94882154
215	0xbe3e5a7c	-0.18589205
216	0x3e63f803	0.22262578
217	0x3e487083	0.1957417
218	0xbdd19d44	-0.10235074
219	0xbde8fcf5	-0.11376373
220	0xbcd37baa	-0.025815804
221	0xbe312625	-0.17299707
222	0x3e1c5147	0.1526538
223	0xbe1e0626	-0.15432033
224	0x3e46e00a	0.19421402
225	0x3e2164cb	0.15761106
226	0x3e1b2c60	0.15153646
227	0x3f42e587	0.7613148
228	0xbcd57a12	-0.026059184
229	0x3ea74ac7	0.32674238
230	0xbd47b602	-0.04875756
231	0xbf2eaa52	-0.6822864
232	0x3c047382	0.00808418
233	0xbe2a4e6a	-0.16631475
234	0x3e2e4b55	0.17020924
235	0xbf29a1fa	-0.6626278
236	0xbe3ff457	-0.18745552
237	0x3e2e9397	0.17048489
238	0xbde5cf31	-0.11221159
239	0xbc5d9aac	-0.013525646
240	0xbd6bb9b5	-0.05755015
241	0x3dc6c29e	0.09705089
242	0xbdaf0c15	-0.08547226
243	0x3e24036b	0.16016929
244	0xbe2ef92a	-0.17087236
245	0x3ceedfb2	0.0291594
246	0x3e1fde9e	0.15612265
247	0x3e777233	0.24164657
248	0xbe0a192a	-0.13486162
249	0xbca530dd	-0.020164901
250	0xbea10208	-0.31446862
251	0x3d475739	0.048667166
252	0x3d1418ba	0.036156394
253	0x3efa70de	0.48914236
254	0xbf0b6e02	-0.54464734
255	0x3d4a0fb1	0.04933137

shared.2.bias f4 [64]
0	0x3e4e2c56	0.201341
1	0x3e930070	0.2871127
2	0x3e7b14bf	0.24519633
3	0x3e2a1236	0.1660851
4	0x3d7c540b	0.061603587
5	0xbcc0fbd8	-0.023557588
6	0xbced3e12	-0.028960261
7	0xbc929808	-0.01789476
8	0xbe5aaef6	-0.21355805
9	0x3ea9d0e0	0.3316717
10	0x3e87c5db	0.2651814
11	0x3d7f73cb	0.06236629
12	0x3e7c4e02	0.24639133
13	0x3e98eb1e	0.2986688
14	0x3ea4102f	0.32043597
15	0xbcd2c2df	-0.025727687
16	0xbd054397	-0.03253516
17	0xbcc3316a	-0.023827273
18	0x3ea897e5	0.32928386
19	0x3e147fab	0.14501826
20	0x3e03a79a	0.12856904
21	0x00000000	0.0
22	0x3e1abdef	0.15111516
23	0x3ea10931	0.31452325
24	0x3e9cad56	0.30600995
25	0x3e943f38	0.28954482
26	0x3eae32c8	0.34023118
27	0x3e8ee11a	0.27906114
28	0xbd1c9754	-0.038230255
29	0x3e64974c	0.2232334
30	0x3ea3c287	0.3198435
31	0x3e97317e	0.29529947
32	0x3eac7d7a	0.3368948
33	0x3e9cf84e	0.3065819
34	0x3e774bc6	0.24149999
35	0x3e943d6e	0.28953117
36	0x3e9830e5	0.29724804
37	0x3ea48f1f	0.32140443
38	0x3e724cea	0.23662153
39	0x3eb3e99e	0.35139173
40	0xbc2b1c8e	-0.01044382
41	0x3c108760	0.008821338
42	0x3e98f669	0.29875496
43	0x3eb2c2a4	0.34914124
44	0xbd305690	-0.043051302
45	0xbd01cbe6	-0.031688593
46	0x3e94c166	0.290538
47	0x3e827993	0.2548338
48	0x3e9bcbde	0.30428976
49	0x3e8dcef2	0.2769695
50	0x3e8d3e3f	0.27586553
51	0x3e948f99	0.29015806
52	0x3eab27c5	0.3342878
53	0x3e77c864	0.24197537
54	0x3e7e3c8c	0.24827784
55	0xbd078af6	-0.033091508
56	0x3ec77868	0.3895905
57	0xbe297f19	-0.1655239
58	0x3ea67871	0.32513765
59	0x3ea436fe	0.32073206
60	0x3e0b470b	0.1360132
61	0x3ebc0ef3	0.36730155
62	0x3e1d5e20	0.15367937
63	0x3e3053c7	0.17219459

actor.0.weight f4 [32, 64]
0	0xbd906905	-0.07051281
1	0xbe53cb3a	-0.20682994
2	0xbdb61d0b	-0.08892258
3	0xbdd399db	-0.1033208
4	0x3d4c53e6	0.0498847
5	0x3e35533c	0.17707533
6	0xbe452193	-0.19251089
7	0xbe125d27	-0.14293347
8	0x3dd3eb2b	0.10347589
9	0x3e0ecb35	0.13944705
10	0xbe553cc8	-0.20823967
11	0x3ddf185c	0.10893318
12	0x3dddcd48	0.1083017
13	0x3cc143d7	0.023591919
14	0x3d2b12a0	0.04176581
15	0xbd90946b	-0.070595585
16	0x3d8ba980	0.06819439
17	0x3dd4cbfd	0.1039047
18	0xbc688ccd	-0.014193726
19	0xbe511ead	-0.20421858
20	0x3cf4c18b	0.029877445
21	0xbe1798e4	-0.14804417
22	0x3dee18c4	0.116258174
23	0x3c671a42	0.014105381
24	0x3be4c184	0.0069810767
25	0xbdb5081f	-0.088394396
26	0x3d1d472b	0.03839795
27	0xbdb4c69c	-0.08826944
28	0xbc48f640	-0.012265742
29	0xbe95a1d1	-0.2922502
30	0xbd3cb50a	-0.04607109
31	0xbeacc3be	-0.3374309
32	0x3d775f89	0.060393844
33	0xbdc53dfd	-0.09630964
34	0x3dd1a11c	0.10235807
35	0x3e090037	0.13378988
36	0xbe05f75e	-0.13082644
37	0xbe11a12e	-0.14221641
38	0xbe845160	-0.25843334
39	0xbdb3a86b	-0.087723576
40	0xbb6d4936	-0.0036206967
41	0x3dcfd1be	0.10147427
42	0xbc5e4a34	-0.013567496
43	0xbe899526	-0.26871604
44	0x3cbb9e5b	0.022902658
45	0x3d4402f5	0.047854383
46	0x3d45ebce	0.048320584
47	0x39ad3852	0.00033039093
48	0xbdc42e59	-0.095791526
49	0xbc886a7b	-0.016652336
50	0xbe1969ce	-0.14981768
51	0xbd74d567	-0.05977383
52	0xbe044873	-0.12918262
53	0x3dee08b0	0.11622751
54	0xbd0711e5	-0.03297605
55	0xbdb51989	-0.08842761
56	0x3e604d3b	0.21904461
57	0xbe5ca42b	-0.21547
58	0xbd80582a	-0.06266816
59	0xbd7798ab	-0.06044833
60	0x3d53492e	0.05158346
61	0xbbfa19c6	-0.007632467
62	0x3c2ed681	0.010671259
63	0xbcc89c83	-0.024488693
64	0xbd2f2309	-0.04275802
65	0x3e33fe7a	0.17577544
66	0xbd01a1f0	-0.031648576
67	0x3c60f31c	0.013729837
68	0x3e97e596	0.29667348
69	0xbd185ffc	-0.037200913
70	0x3a0e32b1	0.0005424424
71	0x3d9b0689	0.07569606
72	0xbdd016a8	-0.10160571
73	0xbc0aab6e	-0.008463724
74	0x3d8c4c21	0.06850458
75	0x3ddf4b41	0.109030254
76	0xbe13a4d3	-0.14418344
77	0xbe0740a0	-0.13208246
78	0x3db4f2a8	0.088353455
79	0x3de8951d	0.11356566
80	0xbedbe4e8	-0.4294808
81	0x3d95b494	0.07309833
82	0xbdccfef3	-0.10009565
83	0xbd42b52b	-0.047536056
84	0x3c57250e	0.013131393
85	0xbdda3cff	-0.10656165
86	0x3d935571	0.07194031
87	0xbd15fa1b	-0.036615472
88	0xbda3d85c	-0.08000252
89	0x3b5d28e9	0.0033746308
90	0x3cbebeef	0.023284404
91	0x3e8e2f36	0.27770394
92	0x3e05ef65	0.13079603
93	0x3e5e2ff8	0.21697986
94	0x3cf5de54	0.03001324
95	0x3b7e6567	0.0038817765
96	0x3d284e0d	0.04109006
97	0xbb556031	-0.0032558555
98	0x3d0b5abf	0.03402209
99	0xbdc826c1	-0.09773017
100	0xbe20b962	-0.15695718
101	0xbc554a76	-0.013018241
102	0xbe6c15f7	-0.23055254
103	0xbd660ef2	-0.056166597
104	0x3e1548d5	0.14578564
105	0x3e404e27	0.18779813
106	0x3d029db5	0.031888682
107	0xbdd342e4	-0.10315493
108	0xbd854806	-0.06507878
109	0x3e002c49	0.12516893
110	0xbc80e716	-0.01573519
111	0xbc9e2872	-0.019306395
112	0x3df9f3cf	0.12204706
113	0xbe36d17e	-0.17853352
114	0xbd737975	-0.059442002
115	0xbe861061	-0.2618437
116	0xbe11fc80	-0.14256477
117	0xbdde1e91	-0.10845674
118	0xbe1c439e	-0.15260169
119	0x3c82ed53	0.015982306
120	0xbd72726b	-0.05919115
121	0xbdb3e9d6	-0.08784835
122	0x3bf95d5a	0.0076100053
123	0xbe519d38	-0.2047013
124	0xbb821056	-0.0039692326
125	0xbdb22d40	-0.08700037
126	0xbc01d04a	-0.007923195
127	0x3dd0690b	0.10176285
128	0x3d828b9d	0.06374285
129	0xbd09730b	-0.03355698
130	0x3dfdafb2	0.12387027
131	0xbbdb830a	-0.0066989707
132	0xbd81127c	-0.06302354
133	0x3e6bed6e	0.23039791
134	0xbcbbff5c	-0.022948913
135	0x3d83ec71	0.06441582
136	0xbce2bb29	-0.027677136
137	0xbe82bf16	-0.25536412
138	0xbe6bb32c	-0.23017567
139	0x3dbe2cdc	0.092859
140	0xbe42fe6e	-0.1904237
141	0xbe642107	-0.22278224
142	0xbdca1a2e	-0.09868275
143	0xbc0ea4a3	-0.008706245
144	0x3d926a3e	0.0714917
145	0xbd3bedff	-0.045881268
146	0x3d9cc97f	0.0765562
147	0x3e511644	0.2041865
148	0x3dfb135a	0.122595504
149	0xbc8a10eb	-0.01685377
150	0x3d5842c1	0.052798036
151	0xbc2f1b43	-0.010687652
152	0xbca9392b	-0.020657143
153	0xbd3d55b9	-0.04622433
154	0x3df69cc3	0.12041619
155	0xbbfe0619	-0.0077521917
156	0x3e06c420	0.13160753
157	0xbe803bed	-0.2504572
158	0xbda190e6	-0.07888965
159	0xbe57b6ec	-0.21065873
160	0x3e145380	0.14484978
161	0x3b8a5286	0.0042212633
162	0xbd605eef	-0.054778036
163	0xbe8263ae	-0.25466675
164	0x3d14a452	0.03628952
165	0x3e1ef88c	0.155245
166	0xbe54d12d	-0.20782919
167	0x3d51f81d	0.05126201
168	0xbcec0ef3	-0.028815722
169	0xbe0c664b	-0.13710897
170	0xbdbdf272	-0.092747584
171	0x3e2bbe46	0.16771802
172	0xbb2b1a4f	-0.002610821
173	0x3c39b7a9	0.011335292
174	0xbd602f19	-0.054732416
175	0x3e2d6dff	0.16936491
176	0xbdba8877	-0.0910806
177	0x3e020578	0.12697399
178	0xbda5d348	-0.08096939
179	0xbe81a5a8	-0.25321698
180	0x3df04d23	0.11733463
181	0x3c39b2da	0.011334145
182	0xbe817956	-0.25287884
183	0xbd52c51d	-0.051457513
184	0x3d56f78f	0.052482184
185	0x3e2bbc09	0.16770948
186	0x3d9f70c8	0.07785183
187	0x3df15933	0.117845915
188	0xbdd5527a	-0.10416122
189	0xbcd33084	-0.02577997
190	0x3f0ac356	0.5420431
191	0x3e4fe8dc	0.20303673
192	0xbdc71920	-0.09721589
193	0xbd9a9e30	-0.07549703
194	0x3d5f029d	0.05444585
195	0xbe07ed23	-0.13274054
196	0x3d7b5fdd	0.06137072
197	0xbd001f90	-0.0312801
198	0x3da5df64	0.08099249
199	0x3e0ac7a5	0.13552721
200	0x3e4e5392	0.20149067
201	0xbe2a1ccd	-0.16612549
202	0x3dc98a72	0.098408595
203	0x3c70dbc9	0.014700838
204	0xbe03753e	-0.12837693
205	0x3d8c0220	0.06836343
206	0x3d0162d2	0.031588383
207	0xbe415191	-0.18878771
208	0x3d531e05	0.0515423
209	0xbcc9a78a	-0.024616022
210	0x3cf39885	0.029735813
211	0xbc2d37ac	-0.010572355
212	0x3d6dc08d	0.05804496
213	0xbd7d5991	-0.061852995
214	0x3cc4a605	0.024004946
215	0x3e156770	0.1459024
216	0xbdf17852	-0.117905274
217	0xbdf1369f	-0.11777996
218	0x3da05799	0.07829208
219	0x3e82a1d3	0.25514087
220	0xbc4b563d	-0.0124106975
221	0xbdce38fb	-0.10069462
222	0x3dd0c99c	0.10194704
223	0x3e215f6a	0.15759054
224	0x3c92d38e	0.017923143
225	0xbdf56c3b	-0.11983534
226	0x3d64ab55	0.055827457
227	0x3c25f739	0.010129743
228	0xbd869e02	-0.06573106
229	0xbe5f6390	-0.21815324
230	0xbcbe0b22	-0.023198668
231	0xbe58ed1e	-0.21184203
232	0x3e113045	0.1417857
233	0xbe36807f	-0.17822455
234	0xbe3bdaef	-0.18345235
235	0xbd8ad417	-0.06778734
236	0x3d4b8f7a	0.049697377
237	0x3dc86fa7	0.09786921
238	0x3e352a23	0.17691855
239	0xbd92a89e	-0.071610674
240	0xbe7478d9	-0.23874225
241	0x3b7e11ca	0.0038767927
242	0xbd955e80	-0.07293415
243	0x3da95294	0.08267704
244	0x3e15547c	0.1458301
245	0xbe517966	-0.20456466
246	0xbdaaa7dd	-0.08332799
247	0xbe4e21d4	-0.20130092
248	0xbcb3dda1	-0.021956267
249	0x3e216184	0.15759856
250	0x3ec02fd4	0.3753649
251	0x3e8cb948	0.27485108
252	0xbdc1d434	-0.09464303
253	0xbbcd5801	-0.0062665944
254	0x3c3da583	0.011575106
255	0xbe0fce64	-0.14043576

actor.0.bias f4 [32]
0	0x3948136f	0.00019080726
1	0xbc556f76	-0.013027063
2	0x3ccecb1b	0.025243333
3	0x3c95659d	0.01823693
4	0xbc079d16	-0.008277198
5	0xbbf7e278	-0.007564839
6	0xbe0bfe39	-0.13671197
7	0xbe0fa314	-0.14027053
8	0x3db72fc8	0.089446604
9	0x3e165555	0.14680989
10	0x3dea7228	0.11447555
11	0xbc099310	-0.008396879
12	0x3e0cca8c	0.1374914
13	0xbb8091cb	-0.00392363
14	0x3b20cec4	0.0024537304
15	0xbd398c55	-0.045299847
16	0xbdb86192	-0.09002985
17	0xbc1b9cb6	-0.009497812
18	0xbe1267cb	-0.14297406
19	0xbc51b4d1	-0.012799458
20	0xbc930e5b	-0.017951181
21	0xbc96da98	-0.01841478
22	0xbbb58263	-0.005539225
23	0xbb119a6b	-0.0022217284
24	0xbc8c3a2d	-0.017117584
25	0x00000000	0.0
26	0xbe01503c	-0.12628263
27	0xbc190457	-0.009339414
28	0xbb95ac2e	-0.0045676446
29	0xbb529b8c	-0.003213617
30	0x00000000	0.0
31	0xbcc79442	-0.024362687

actor.2.weight f4 [2, 32]
0	0xbe37d035	-0.17950518
1	0xbe7da28c	-0.24769038
2	0x3d83661d	0.06415961
3	0x3d8446cf	0.06458818
4	0xbc9f4427	-0.019441677
5	0xbd57c090	-0.052673876
6	0xbeed090d	-0.46295968
7	0xbebc4575	-0.36771742
8	0x3ecd672d	0.4011778
9	0x3f2ec24a	0.6826521
10	0x3eef43c4	0.4673139
11	0x3e88f6d6	0.2675082
12	0x3f0faaf4	0.5612023
13	0xbec3da33	-0.3825241
14	0x3b8b433d	0.004249959
15	0xbdb9a6a3	-0.090649866
16	0xbf5c34c5	-0.8601802
17	0xbda51240	-0.080601215
18	0xbf64f068	-0.8942933
19	0xbd1dfc47	-0.03857067
20	0xbdcdaceb	-0.10042747
21	0x3e02bd71	0.12767579
22	0x3c72c402	0.01481724
23	0xbe1363ab	-0.14393489
24	0xbe81c756	-0.25347394
25	0xbe6c2b00	-0.23063278
26	0xbf41d268	-0.7571168
27	0xbe066480	-0.13124275
28	0x3dc205b6	0.094737455
29	0x3e798d99	0.24370421
30	0x3eb37c12	0.35055596
31	0x39dc0c61	0.00041970893
32	0x3e290a42	0.1650782
33	0xbca94d7c	-0.02066683
34	0xbdd78896	-0.105240986
35	0xbe8a2e92	-0.26988655
36	0xbe808688	-0.2510264
37	0xbd9326a3	-0.07185104
38	0x3ebcfe2f	0.36912677
39	0x3e9cbdfd	0.306137
40	0xbf374696	-0.7159208
41	0xbf3eb912	-0.74501145
42	0xbf16b97f	-0.58876795
43	0xbda0d390	-0.07852852
44	0xbf4905ac	-0.7852428
45	0xbebbab45	-0.36654106
46	0xbeaae5b9	-0.3337839
47	0x3e9e5b92	0.30929238
48	0x3f627cea	0.88471854
49	0xbe0f06be	-0.13967416
50	0x3f5bbb20	0.85832405
51	0xbe55d343	-0.20881371
52	0xbe5ded0d	-0.21672459
53	0x3e102b3a	0.1407899
54	0xbd21b4f1	-0.0394792
55	0xbd06c523	-0.032902848
56	0xbe375686	-0.179041
57	0x3d58af6f	0.05290168
58	0x3f1d1121	0.6135426
59	0x3d8e22fe	0.06940268
60	0xbe19d65a	-0.15023175
61	0xbd58e1af	-0.052949604
62	0x3e072013	0.13195829
63	0xbe31f577	-0.17378794

actor.2.bias f4 [2]
0	0x3ddba5b7	0.10724967
1	0xbddba5ab	-0.10724958

critic.0.weight f4 [32, 64]
0	0x3e42aeda	0.19012013
1	0xbe567a61	-0.20945121
2	0xbdc8778c	-0.09788427
3	0x3cbffa0d	0.023434663
4	0xbd55b8b3	-0.052178096
5	0xbcfe023e	-0.031006929
6	0xbe330c80	-0.17485237
7	0xbca2d239	-0.019875633
8	0x3d418175	0.0472426
9	0x3e618836	0.22024617
10	0x3d64d6d7	0.05586895
11	0x3ddce8ba	0.107865766
12	0xbcaf7f27	-0.021422936
13	0xbc43a195	-0.01194038
14	0x3d7d81b4	0.061891273
15	0x3d959497	0.07303732
16	0x3b929e76	0.0044744564
17	0xbdca4bde	-0.09877752
18	0xbcb79685	-0.02241064
19	0xbd96bd1d	-0.07360289
20	0xbe7a9e73	-0.24474506
21	0x3d53e33c	0.05173038
22	0x3e0f3b4a	0.1398746
23	0x3dc20058	0.09472722
24	0x3c7eecd5	0.015559395
25	0xbd9f7fbf	-0.077880375
26	0xbda1f33e	-0.07907723
27	0xbdcb0563	-0.09913137
28	0x3dea58fb	0.11442753
29	0xbd5b7419	-0.053577516
30	0xbd8bc637	-0.06824916
31	0xbd114154	-0.035462692
32	0xbc03dde6	-0.00804851
33	0x3d4cdbd4	0.050014332
34	0xbbd6000d	-0.006530768
35	0x3e2c65e3	0.16835742
36	0xbebc6d45	-0.36802116
37	0xbe9439be	-0.28950304
38	0xbcc2c2a8	-0.02377446
39	0xbd842309	-0.06451995
40	0x3e19896c	0.14993829
41	0xbc3d6fb3	-0.011562276
42	0xbd7b1537	-0.06129953
43	0x3e7deecc	0.24798125
44	0x3e1f6183	0.15564542
45	0x3d077601	0.03307152
46	0x3e68019b	0.22656862
47	0xbdbacadc	-0.091207236
48	0x3e1ebb4a	0.15501133
49	0xbe1f38b7	-0.15548979
50	0xbdb8386a	-0.08995135
51	0xbd147735	-0.036246497
52	0xbd34f594	-0.044179514
53	0xbe5c49d9	-0.21512546
54	0x3da1c243	0.078983806
55	0xbe9031fe	-0.2816314
56	0x3d139f4d	0.036040593
57	0xbcb5eb29	-0.02220686
58	0xbd8ed42e	-0.06974064
59	0xbc90cf76	-0.01767705
60	0x3dcdac09	0.10042579
61	0xbdedfbe3	-0.11620309
62	0x3db82c09	0.08992774
63	0xbc14f5a1	-0.009091766
64	0x3e2947af	0.16531251
65	0x3decbbae	0.115592346
66	0x3e217356	0.15766653
67	0xbd3c1eb2	-0.04592771
68	0x3e1b4c87	0.15165912
69	0x3c96b4e6	0.018396806
70	0x3c981d7a	0.018568743
71	0x3c537fff	0.012908935
72	0xbdec9540	-0.11551905
73	0x3e214e93	0.1575263
74	0x3d86a6bc	0.06574771
75	0xbda7997d	-0.081835724
76	0xbe78197e	-0.24228474
77	0xbd137a9d	-0.036005605
78	0x3bd1d32e	0.0064033484
79	0x3e10bce2	0.14134553
80	0x3cd0548c	0.02543094
81	0xbd3e6ac8	-0.046488553
82	0x3e296452	0.16542175
83	0xbd18a51d	-0.03726684
84	0xbd5108cd	-0.051033784
85	0xbe0c30af	-0.13690446
86	0x3ce400a7	0.027832342
87	0xbe80d06a	-0.25159007
88	0xbe40d1d1	-0.18830039
89	0x3ba0fa30	0.004912637
90	0x3da8874e	0.08228932
91	0x3d5a31c9	0.053270135
92	0xbc96d383	-0.018411404
93	0xbd636ee0	-0.05552566
94	0x3e1450c2	0.14483932
95	0xbd0d5ee6	-0.03451433
96	0xbde01038	-0.109405935
97	0xbd18cade	-0.037302844
98	0xbe22926b	-0.15876167
99	0xbcf5ac99	-0.029989528
100	0xbe1caf4e	-0.15301248
101	0x3e223bbb	0.15843098
102	0xbd2e00f0	-0.042481363
103	0xbd846573	-0.064646624
104	0xbd80c0b0	-0.06286752
105	0xbda0bc85	-0.07848457
106	0x3cc57677	0.02410434
107	0xbe896203	-0.2683259
108	0x3cc88f3e	0.024482366
109	0x3e19e5f7	0.15029131
110	0x3e8c2536	0.2737214
111	0xbdb4aee0	-0.08822417
112	0xbbc1ab70	-0.0059103295
113	0xbe369c2b	-0.17833011
114	0xbe89b97a	-0.2689932
115	0xbc7708c6	-0.015077775
116	0xbe859782	-0.26092154
117	0x3e5e3e29	0.217034
118	0xbc9d4285	-0.019196758
119	0xbd68b6f6	-0.05681511
120	0xbd46161c	-0.04836093
121	0xbe46bbf0	-0.1940763
122	0xbe37b450	-0.17939878
123	0x39d94100	0.00041437894
124	0x3d5719ee	0.052514963
125	0x3d80a74f	0.062819116
126	0xbe3b488b	-0.18289392
127	0x3d998254	0.07495561
128	0xbd8c7b40	-0.068594456
129	0xbcb20c29	-0.021734314
130	0xbdb0b012	-0.08627333
131	0xbc1fa881	-0.009744764
132	0x3c0dab22	0.008646758
133	0xbe37302e	-0.17889473
134	0x3cec829b	0.028870871
135	0x3e95e659	0.29277304
136	0x3de83bf4	0.1133956
137	0x3df632cb	0.12021407
138	0xbddf7a1f	-0.109119646
139	0xbc28aa79	-0.01029455
140	0xbdd901c4	-0.1059604
141	0xbdd320f2	-0.10309018
142	0xbc605f3f	-0.013694583
143	0xbd996197	-0.07489317
144	0x3ddf403e	0.10900925
145	0xbdea917e	-0.11453532
146	0xbc736243	-0.01485497
147	0xbe1421db	-0.1446604
148	0x3d843698	0.064557254
149	0xbdc83868	-0.09776384
150	0xbcba86f8	-0.022769436
151	0xbe51e525	-0.20497568
152	0x3d87dc3b	0.066338025
153	0x3d1fa77d	0.03897809
154	0x3e06b909	0.13156523
155	0x3e6b4a9d	0.22977681
156	0x3cff506b	0.031166276
157	0x3a9754b3	0.0011545628
158	0xbe297916	-0.16550097
159	0xbd84bb54	-0.064810425
160	0x3b61fd7b	0.0034483362
161	0x3dcd6d9f	0.10030674
162	0xbdd9055c	-0.10596725
163	0xbdf4fb7c	-0.11962029
164	0x3d84d940	0.0648675
165	0xbbc4a38a	-0.0060009407
166	0x3cd51fcd	0.02601614
167	0x3e5cf8ea	0.21579328
168	0x3e0fca2e	0.14041969
169	0x3d6170fa	0.055039383
170	0x3d729968	0.05922833
171	0xbd7c6994	-0.061624125
172	0x3ea5e2a4	0.32399476
173	0xbdf1c063	-0.11804273
174	0x3ce856dc	0.02836173
175	0xbd79e86d	-0.061012674
176	0xbb63b32c	-0.0034744246
177	0xbe8f001d	-0.27929774
178	0x3df55ca7	0.11980563
179	0xbc188bb4	-0.009310652
180	0xbd81fa6e	-0.06346594
181	0x3e167172	0.14691713
182	0xbdd0a046	-0.1018682
183	0x3d9544a3	0.07288482
184	0x3e633d55	0.22191365
185	0x3e30327c	0.17206758
186	0xbd65fe57	-0.05615076
187	0xbe297987	-0.16550265
188	0xbdc9ad74	-0.09847537
189	0xbdaf2549	-0.085520335
190	0x3e85ba39	0.2611864
191	0xbe121c94	-0.14268714
192	0x3df7b080	0.120942116
193	0xbe4a2206	-0.19739541
194	0x3d76f25f	0.060289737
195	0xbe53d118	-0.20685232
196	0x3e3adaa8	0.18247473
197	0x3e2a4861	0.16629173
198	0x3d4f56bd	0.05061983
199	0x3dc559b2	0.09636249
200	0xbe59cc9b	-0.21269457
201	0xbd1b2aa3	-0.03788246
202	0xbe13e812	-0.14443997
203	0x3d6e64fa	0.058201768
204	0xbd346996	-0.044046007
205	0xbd30cc80	-0.043163776
206	0xbe13113c	-0.14362043
207	0x3c1731c1	0.009228171
208	0x3d72d35e	0.059283607
209	0x3c59e617	0.013299487
210	0x3b81b17a	0.0039579244
211	0x3c8374a9	0.016046839
212	0x3eae49b0	0.34040594
213	0x3d12bbf6	0.035823785
214	0xbdaad976	-0.08342259
215	0xbd9b33a1	-0.07578207
216	0x3cabb164	0.02095861
217	0xbe741585	-0.23836334
218	0xbcbf0107	-0.02331592
219	0x3d411ba8	0.047145516
220	0x3af4d312	0.0018678627
221	0xbe7947c1	-0.24343778
222	0x3dadbedf	0.084836714
223	0xbd1a5ab8	-0.037684172
224	0xbe39c2dd	-0.1814074
225	0xbd51d870	-0.0512318
226	0xba173830	-0.00057685655
227	0x3c85791f	0.016293107
228	0x3d1810fa	0.037125565
229	0xbaef8586	-0.0018274046
230	0xbdf4061b	-0.11915227
231	0xbe0adbd5	-0.13560422
232	0xbd44ee4e	-0.048078828
233	0x3e797d0c	0.24364108
234	0xbe361968	-0.17783129
235	0x3eaa8f7d	0.33312598
236	0x3cf6490a	0.030064125
237	0x3b82fac5	0.003997179
238	0x3c95d629	0.018290596
239	0xbd35d3fb	-0.044391613
240	0x3ddbb79a	0.107283786
241	0x3ba796e8	0.005114425
242	0x3da5ec37	0.08101695
243	0xbd772452	-0.060337372
244	0xbead588b	-0.33856615
245	0xbe0ed5d9	-0.13948764
246	0xbdc03ac6	-0.0938621
247	0x3e07e8bb	0.13272373
248	0xbd47ec3a	-0.048809268
249	0x3e842f81	0.25817493
250	0xbd1faa0e	-0.038980536
251	0x3bc8d02d	0.006128332
252	0xbe3e3db7	-0.1857823
253	0x3eb6380d	0.35589638
254	0x3de601c0	0.112308025
255	0x3d9b22b7	0.07574981

critic.0.bias f4 [32]
0	0xbc2edd9a	-0.010672951
1	0xbc991633	-0.018687343
2	0xbcb456ec	-0.022014104
3	0xbc30e74c	-0.010797333
4	0x3e9404af	0.28909823
5	0x3e88336c	0.26601732
6	0xbc8f4aee	-0.017491784
7	0x3eafd532	0.34342343
8	0x00000000	0.0
9	0xbc445979	-0.011984223
10	0x3ebf0465	0.3730804
11	0x3e9ac452	0.30227906
12	0x3e97090e	0.29499096
13	0xbc03b3e8	-0.008038498
14	0x3e9cc1b9	0.3061655
15	0xbc60e0ee	-0.013725502
16	0x3e976092	0.29565865
17	0xbc98bc8a	-0.01864459
18	0xbbda7555	-0.006666819
19	0x3e89bbf2	0.26901203
20	0x3ea5cf99	0.32384947
21	0x3e9b5dde	0.30345052
22	0x3e92c276	0.28663987
23	0x3e8d39a4	0.2758304
24	0x3e90b2ee	0.28261513
25	0x3eb840b8	0.35986876
26	0x3e99c95d	0.3003644
27	0x3cd3c44b	0.025850436
28	0x3e8d85ae	0.27641052
29	0xbbebf0eb	-0.0072003505
30	0x3e9e68ad	0.30939236
31	0x3ead2b14	0.33821929

critic.2.weight f4 [1, 32]
0	0x3ba0a89a	0.0049029114
1	0x3df40cd8	0.11916512
2	0x3ccc0edc	0.02490943
3	0x3e8665e3	0.26249608
4	0xbef00ad0	-0.4688325
5	0xbeb73b2f	-0.3578734
6	0x3c17017b	0.009216662
7	0xbe9d24a9	-0.30692032
8	0x3e4efc1e	0.20213363
9	0x3e3d2200	0.18470001
10	0xbe907983	-0.28217706
11	0xbebf4d4f	-0.3736367
12	0xbf0575ed	-0.52133065
13	0x3c94a914	0.018147029
14	0xbec13434	-0.3773514
15	0x3cf8ba4f	0.030362276
16	0xbebb024b	-0.36525187
17	0x3db70078	0.08935636
18	0x3d13009f	0.035889264
19	0xbee0eb22	-0.43929392
20	0xbf10895c	-0.56459594
21	0xbf12652e	-0.5718564
22	0xbf0f2dda	-0.5592934
23	0xbee9bc22	-0.45651346
24	0xbed68662	-0.418994
25	0xbebc1728	-0.36736417
26	0xbec93eed	-0.3930582
27	0x3f709201	0.93972784
28	0xbee5b3b0	-0.44863653
29	0x3ece5147	0.40296385
30	0xbed1a8bd	-0.4094905
31	0xbf032720	-0.51231575

exp_avg f4 [64, 12]
0	0xb8114742	-3.4637058e-05
1	0xb8072eec	-3.2230208e-05
2	0xb9d88a62	-0.00041301834
3	0x37b65d18	2.173944e-05
4	0xb92d5cc9	-0.00016533131
5	0xbb07197a	-0.002061455
6	0xb740adb1	-1.14845325e-05
7	0xb8072eec	-3.2230208e-05
8	0xb9dbd575	-0.00041929973
9	0xb91752ab	-0.00014431278
10	0xba178a52	-0.0005780804
11	0xb8a0d15e	-7.668392e-05
12	0xb9ebe6af	-0.00044994566
13	0xb905e35e	-0.0001276857
14	0xbaf8f441	-0.0018993692
15	0xb9f25ab1	-0.00046225407
16	0xba75fa8e	-0.0009383344
17	0xbb3b22bd	-0.0028554641
18	0xb8d91af4	-0.00010352387
19	0xb905e35e	-0.0001276857
20	0xbb161687	-0.002290161
21	0xbb0366ed	-0.0020050362
22	0xbb1f2860	-0.002428554
23	0xba37f6bf	-0.0007017664
24	0x3c0544b2	0.008134054
25	0x39f7d07e	0.0004726685
26	0xbac57d67	-0.001506728
27	0x3b1efdb3	0.0024260103
28	0x3b5a13ce	0.0033275965
29	0x3b6aacf7	0.0035808661
30	0xb88d9d11	-6.75266e-05
31	0x39f7d07e	0.0004726685
32	0xb8e009f9	-0.0001068301
33	0xba85df8b	-0.0010213716
34	0xbaaa5406	-0.0012995012
35	0x3c0b665c	0.008508291
36	0x396cc28b	0.00022579187
37	0x3943072e	0.00018599324
38	0x3842b33a	4.6420122e-05
39	0x39d786a2	0.00041108305
40	0x3a29282e	0.00064528256
41	0x3b138dda	0.002251497
42	0x38a04d3c	7.6437806e-05
43	0x3943072e	0.00018599324
44	0x3ab69148	0.0013928795
45	0x3a4ecd64	0.0007888882
46	0x3aa9c82c	0.0012953333
47	0x3a2648e9	0.0006343262
48	0x3b8b98c8	0.0042601563
49	0x392ad737	0.00016292637
50	0x3a74603a	0.00093222
51	0x3b106f95	0.0022039164
52	0x3b218b57	0.0024649703
53	0x3af3f795	0.0018613214
54	0x38d368b4	0.000100807665
55	0x392ad737	0.00016292637
56	0x3a9f5d6f	0.0012158583
57	0x3aa3ecbd	0.0012506467
58	0x399c0978	0.00029761693
59	0x3b9ca96c	0.004780939
60	0x00000004	6e-45
61	0x00000004	6e-45
62	0x00000004	6e-45
63	0x00000004	6e-45
64	0x00000004	6e-45
65	0x00000004	6e-45
66	0x00000004	6e-45
67	0x00000004	6e-45
68	0x00000004	6e-45
69	0x00000004	6e-45
70	0x00000004	6e-45
71	0x00000004	6e-45
72	0x3b0d7411	0.0021584074
73	0x3881584b	6.167645e-05
74	0xba5edc51	-0.00085014576
75	0x3a02c165	0.00049879245
76	0x3a586c36	0.0008255871
77	0xb8ea3d35	-0.0001116939
78	0xb82b8b79	-4.089947e-05
79	0x3881584b	6.167645e-05
80	0xbb1b0384	-0.0023653219
81	0xba6fdd9c	-0.0009150149
82	0xbad34714	-0.0016119205
83	0x3ac3cbfd	0.0014938113
84	0x00000004	6e-45
85	0x00000004	6e-45
86	0x00000004	6e-45
87	0x00000004	6e-45
88	0x00000004	6e-45
89	0x00000004	6e-45
90	0x00000004	6e-45
91	0x00000004	6e-45
92	0x00000004	6e-45
93	0x00000004	6e-45
94	0x00000004	6e-45
95	0x00000004	6e-45
96	0x3b8c3ea8	0.00427993
97	0x39caba0a	0.00038667052
98	0x3c0f8f3d	0.008762178
99	0x398ef98e	0.00027270283
100	0x3b4cd68a	0.0031255805
101	0x3c03b656	0.008039078
102	0x39bca24c	0.00035979075
103	0x39caba0a	0.00038667052
104	0x3c3be496	0.011468073
105	0x3c35acb7	0.011088542
106	0x3c3d478f	0.011552705
107	0x3b51ac96	0.0031993738
108	0xbb70bd8f	-0.003673408
109	0xb9cc1440	-0.00038925
110	0xbb68bd8c	-0.003551337
111	0x39f749a8	0.0004716639
112	0xb948976c	-0.00019129895
113	0xbbd1cbf4	-0.006402487
114	0x37f6e84b	2.9433655e-05
115	0xb9cc1440	-0.00038925
116	0xb9182b2a	-0.0001451193
117	0x38c6045b	9.442187e-05
118	0xb9182b2a	-0.0001451193
119	0xbb6a7267	-0.0035773756
120	0xb9e8c8d7	-0.00044400126
121	0xb8ef53c4	-0.00011412011
122	0xbb1477fc	-0.0022654524
123	0x38bf54fb	9.1234186e-05
124	0xba1dabca	-0.0006014673
125	0xbb0887e4	-0.002083295
126	0xb949584a	-0.00019201744
127	0xb8ef53c4	-0.00011412011
128	0xbb99b823	-0.0046911403
129	0xbb68af11	-0.0035504738
130	0xbbbe1990	-0.005801387
131	0xba8c2aab	-0.0010693868
132	0xb944e080	-0.0001877565
133	0xb90aa26b	-0.00013221211
134	0xbb140db2	-0.002259117
135	0xb9bcd3f6	-0.00036016078
136	0xba70344d	-0.0009163067
137	0xbb1f14f5	-0.0024273966
138	0xb8fcda45	-0.00012056952
139	0xb90aa26b	-0.00013221211
140	0xbb2ee293	-0.0026685342
141	0xbb19558e	-0.0023396942
142	0xbb4aba1f	-0.003093369
143	0xb9fefbfb	-0.00048634395
144	0x3ad3716a	0.0016131822
145	0x383d5c8b	4.51473e-05
146	0x3a863481	0.0010239036
147	0x3a1d416f	0.0005998825
148	0x3a851f18	0.0010156361
149	0x3adff1eb	0.0017085647
150	0x3813c0a0	3.5226927e-05
151	0x383d5c8b	4.51473e-05
152	0x3a83ae18	0.0010046391
153	0x3a6ddfe3	0.0009074194
154	0x3a005bb8	0.00048964797
155	0x3ae36b0a	0.0017350626
156	0x398343e5	0.00025036852
157	0xb98d770a	-0.00026982307
158	0xbb9bd0ac	-0.0047551002
159	0xb957cd42	-0.00020580462
160	0xbabb914a	-0.0014310267
161	0xb9ef5a0f	-0.0004565273
162	0xb978aca4	-0.00023715437
163	0xb98d770a	-0.00026982307
164	0xbb875f55	-0.0041312375
165	0xbb97deef	-0.00463473
166	0xbbc05112	-0.0058690393
167	0xb84f1f7d	-4.938197e-05
168	0x3aac6775	0.0013153391
169	0xb90ee704	-0.00013628235
170	0x3a0367d1	0.0005012723
171	0x39c3e91b	0.00037366975
172	0x3a03ba3c	0.00050250045
173	0x39aa7e57	0.00032519057
174	0xb82fbacb	-4.1897216e-05
175	0xb90ee704	-0.00013628235
176	0xb84f5afd	-4.9437385e-05
177	0x38e56ba9	0.00010939624
178	0xba0efeb1	-0.0005454822
179	0x3ac13a02	0.0014742019
180	0xb9c550b9	-0.0003763491
181	0xb8d811de	-0.00010303011
182	0x3a7e8f5f	0.0009710695
183	0xb8e3634d	-0.000108427
184	0x389a3cd7	7.3546245e-05
185	0xbabd78c0	-0.0014455542
186	0x3839d2d0	4.430377e-05
187	0xb8d811de	-0.00010303011
188	0x3a0e15c4	0.00054201134
189	0x3a90c767	0.0011045755
190	0x3a0f87f4	0.00054752757
191	0xb925ebf2	-0.00015823523
192	0x39747654	0.00023313734
193	0xb9955d05	-0.000284888
194	0xbb9fcb81	-0.0048765545
195	0xb9b5418f	-0.00034571855
196	0xbacf6d99	-0.0015825509
197	0xbb158f83	-0.0022821135
198	0xb98aa7ae	-0.00026446342
199	0xb9955d05	-0.000284888
200	0xbba9f215	-0.005186329
201	0xbba83559	-0.0051333127
202	0xbbd47765	-0.0064839595
203	0xb9602b38	-0.00021378405
204	0x00000000	0.0
205	0x00000000	0.0
206	0x00000000	0.0
207	0x00000000	0.0
208	0x00000000	0.0
209	0x00000000	0.0
210	0x00000000	0.0
211	0x00000000	0.0
212	0x00000000	0.0
213	0x00000000	0.0
214	0x00000000	0.0
215	0x00000000	0.0
216	0x3b13b18e	0.002253625
217	0xb751b2ff	-1.24990465e-05
218	0xb9953850	-0.0002846145
219	0x39a82309	0.0003206956
220	0x39838383	0.0002508425
221	0x390f103b	0.00013643589
222	0xb6792fc3	-3.7131692e-06
223	0xb751b2ff	-1.24990465e-05
224	0x38455763	4.7049845e-05
225	0xb8f73e63	-0.00011789498
226	0xbad00706	-0.0015871234
227	0x3af51287	0.0018697538
228	0x3b9e9af9	0.0048402515
229	0xb9449e9e	-0.00018751106
230	0x3a90c3f4	0.0011044727
231	0x3a97f528	0.0011593448
232	0x3a808ad4	0.0009806999
233	0xba4b5ef3	-0.0007757984
234	0xb8db16ee	-0.00010447005
235	0xb9449e9e	-0.00018751106
236	0xbac38205	-0.0014916068
237	0xba36faa5	-0.0006980098
238	0xbb73490b	-0.0037122394
239	0x3ba6e85f	0.0050936188
240	0x3a8841ea	0.001039562
241	0xb90cbe40	-0.00013422314
242	0x3ad6e7a3	0.0016395937
243	0x3a71f5e5	0.00092300616
244	0x3acbb27d	0.0015540865
245	0x3abef8d6	0.0014570008
246	0x382ffb2c	4.1957173e-05
247	0xb90cbe40	-0.00013422314
248	0x3b1e9a35	0.0024200801
249	0x3b003d99	0.0019567965
250	0x3b011191	0.0019694308
251	0x3ada2f07	0.0016646095
252	0x3c480e93	0.012210506
253	0x3abcaa85	0.001439408
254	0x3c46095c	0.012087192
255	0x3b938461	0.004501865

exp_avg_sq f4 [64, 12]
0	0x38c8f6a4	9.5826836e-05
1	0x358d0c9f	1.0508992e-06
2	0x38a8030f	8.011434e-05
3	0x36b3c8e2	5.3580015e-06
4	0x378ff0b3	1.7159013e-05
5	0x3921706d	0.00015396038
6	0x34721dc5	2.2548836e-07
7	0x358d0c9f	1.0508992e-06
8	0x3807a680	3.2341573e-05
9	0x37e63c62	2.7446255e-05
10	0x37c4165c	2.3375433e-05
11	0x38c96509	9.603246e-05
12	0x38beb715	9.094008e-05
13	0x35633cf0	8.4652766e-07
14	0x38ee4611	0.00011361775
15	0x3690b88f	4.31302e-06
16	0x37882ee9	1.6234308e-05
17	0x38ea2350	0.00011164567
18	0x348b3d77	2.593549e-07
19	0x35633cf0	8.4652766e-07
20	0x3885108c	6.345016e-05
21	0x387a1e63	5.9632945e-05
22	0x384a1106	4.8176407e-05
23	0x38c0d7a1	9.1954375e-05
24	0x3a5c2af5	0.0008398735
25	0x37283735	1.0026434e-05
26	0x38c57b3c	9.416646e-05
27	0x38b272ae	8.509062e-05
28	0x3915cd07	0.00014286126
29	0x3a567f1e	0.0008182394
30	0x359fa0f0	1.1893262e-06
31	0x37283735	1.0026434e-05
32	0x386beb9a	5.6247787e-05
33	0x38e38fc1	0.0001085098
34	0x38d50a31	0.0001015853
35	0x3a5fb724	0.0008534065
36	0x35f5c74b	1.8311924e-06
37	0x3513ef83	5.51103e-07
38	0x35506ee9	7.7647434e-07
39	0x362ef239	2.6069013e-06
40	0x367987cb	3.7182933e-06
41	0x380e1c15	3.388159e-05
42	0x34619618	2.1009362e-07
43	0x3513ef83	5.51103e-07
44	0x379f15b2	1.896438e-05
45	0x3779d98b	1.4892207e-05
46	0x37b01267	2.0989404e-05
47	0x36a57eb1	4.932132e-06
48	0x39d0fcdf	0.00039861255
49	0x379e10e4	1.8842933e-05
50	0x39e1471d	0.00042968328
51	0x3869463f	5.561695e-05
52	0x38c32fdf	9.307241e-05
53	0x39f3351e	0.00046388147
54	0x3693806a	4.3958908e-06
55	0x379e10e4	1.8842933e-05
56	0x39c1b725	0.00036948282
57	0x3996e977	0.00028784174
58	0x399f0881	0.0003033318
59	0x39dfea7a	0.00042708573
60	0x27190b4d	2.1239142e-15
61	0x23532b67	1.1447524e-17
62	0x202d7f03	1.4695695e-19
63	0x251f39f1	1.3810683e-16
64	0x25c8cf7f	3.4835074e-16
65	0x27ca51a3	5.6154773e-15
66	0x226ac0cf	3.1814986e-18
67	0x23532b67	1.1447524e-17
68	0x2646d4cf	6.898346e-16
69	0x26341ad9	6.248643e-16
70	0x260d70d3	4.9072107e-16
71	0x271f4655	2.210381e-15
72	0x39107dc4	0.00013779762
73	0x3683aa88	3.9239567e-06
74	0x38d3b181	0.00010094327
75	0x377b8939	1.49927155e-05
76	0x37ccea24	2.4427725e-05
77	0x394998c8	0.00019225769
78	0x355ced8d	8.230207e-07
79	0x3683aa88	3.9239567e-06
80	0x389a895f	7.3688796e-05
81	0x38597be6	5.185222e-05
82	0x383b0872	4.459214e-05
83	0x39169622	0.00014361044
84	0x1994cc91	1.5385465e-23
85	0x1578195f	5.0103215e-26
86	0x196cd4cf	1.224389e-23
87	0x16d3a017	3.418992e-25
88	0x17ab2257	1.1059285e-24
89	0x18da79f3	5.6474816e-24
90	0x114fea31	1.6401587e-28
91	0x1578195f	5.0103215e-26
92	0x1525e05e	3.349848e-26
93	0x143d4a85	9.556758e-27
94	0x1523924e	3.3033002e-26
95	0x1994dc4b	1.5391817e-23
96	0x3935d11b	0.00017339403
97	0x377b9ff3	1.4998007e-05
98	0x3a838ba8	0.0010036128
99	0x389abd08	7.378502e-05
100	0x394bbe05	0.00019430376
101	0x3aa3c9af	0.001249602
102	0x36b7bd1c	5.47584e-06
103	0x377b9ff3	1.4998007e-05
104	0x3a992e89	0.0011686842
105	0x3a83670b	0.0010025216
106	0x3a9a3fd2	0.0011768288
107	0x396b4dd1	0.00022440335
108	0x39f9a631	0.00047616803
109	0x371f174e	9.482565e-06
110	0x3a05fae4	0.0005110933
111	0x382947a8	4.0359475e-05
112	0x38bb2f76	8.925695e-05
113	0x3a2d57c2	0.0006612503
114	0x3422cee6	1.5162695e-07
115	0x371f174e	9.482565e-06
116	0x36d243d0	6.266382e-06
117	0x3683dd72	3.929884e-06
118	0x36d2bae4	6.2802446e-06
119	0x39f94ce2	0.00047550263
120	0x39b57a8d	0.00034614318
121	0x372c019a	1.0252372e-05
122	0x398b17d4	0.000265299
123	0x381f7a3b	3.802239e-05
124	0x38813bfb	6.1623716e-05
125	0x39f58e9d	0.00046836297
126	0x3633ccb5	2.6792234e-06
127	0x372c019a	1.0252372e-05
128	0x39984c5b	0.00029048588
129	0x39713f61	0.00023007162
130	0x397304f7	0.00023176135
131	0x39bb3486	0.00035706552
132	0x3952d703	0.00020107259
133	0x35bb2ed9	1.394622e-06
134	0x39821a46	0.00024815107
135	0x36e0e2f1	6.7021397e-06
136	0x37fc056e	3.004327e-05
137	0x394f34c3	0.00019760714
138	0x34ee7243	4.441409e-07
139	0x35bb2ed9	1.394622e-06
140	0x38f6c8b1	0.00011767576
141	0x38eab6b4	0.000111920206
142	0x38a70dfb	7.9657846e-05
143	0x39516c60	0.00019972166
144	0x39267483	0.00015874398
145	0x35eac8b6	1.7492773e-06
146	0x396017aa	0.0002137112
147	0x36b5bb77	5.416044e-06
148	0x37b3c279	2.1429021e-05
149	0x38e8019c	0.00011062922
150	0x35054c19	4.96571e-07
151	0x35eac8b6	1.7492773e-06
152	0x38b16a3d	8.459806e-05
153	0x38a326ca	7.779671e-05
154	0x3851e88b	5.0046056e-05
155	0x392c6e01	0.00016444178
156	0x3932c06b	0.00017047084
157	0x36103b90	2.1492342e-06
158	0x39c4da44	0.00037546654
159	0x36e63bf9	6.861516e-06
160	0x3811f233	3.479626e-05
161	0x39035fe9	0.00012528863
162	0x358796f7	1.010222e-06
163	0x36103b90	2.1492342e-06
164	0x398c3322	0.00026740978
165	0x39898e28	0.0002623659
166	0x39675dcb	0.00022064817
167	0x3940bc14	0.00018380611
168	0x3845b1cd	4.713405e-05
169	0x35a0f097	1.199095e-06
170	0x38648209	5.448054e-05
171	0x36b2d199	5.3292138e-06
172	0x373f42a7	1.1400006e-05
173	0x38a801b8	8.0111844e-05
174	0x34d50c04	3.9683084e-07
175	0x35a0f097	1.199095e-06
176	0x38b02aee	8.40033e-05
177	0x389cf327	7.48395e-05
178	0x389853db	7.263544e-05
179	0x38641fc7	5.438903e-05
180	0x37d76e2e	2.5681304e-05
181	0x35eb47aa	1.7529721e-06
182	0x3890956e	6.8942885e-05
183	0x3699ac01	4.579779e-06
184	0x371bc25b	9.283972e-06
185	0x385b03e5	5.2217296e-05
186	0x351d82bb	5.8677296e-07
187	0x35eb47aa	1.7529721e-06
188	0x38954f78	7.119676e-05
189	0x3853c3ae	5.048856e-05
190	0x387fef34	6.1019513e-05
191	0x380c845a	3.3501863e-05
192	0x39335ca0	0.00017105276
193	0x3604ee3f	1.980821e-06
194	0x39c23ffc	0.00037050236
195	0x36fb32c2	7.486292e-06
196	0x38153d6b	3.558157e-05
197	0x392537bc	0.00015756389
198	0x3583d518	9.822279e-07
199	0x3604ee3f	1.980821e-06
200	0x398e161f	0.00027100832
201	0x398acb6d	0.00026472975
202	0x396a16ee	0.00022324521
203	0x3941ddc8	0.00018488534
204	0x00000000	0.0
205	0x00000000	0.0
206	0x00000000	0.0
207	0x00000000	0.0
208	0x00000000	0.0
209	0x00000000	0.0
210	0x00000000	0.0
211	0x00000000	0.0
212	0x00000000	0.0
213	0x00000000	0.0
214	0x00000000	0.0
215	0x00000000	0.0
216	0x39d4d08b	0.00040591168
217	0x36767bf3	3.6729004e-06
218	0x3a0ab783	0.00052916276
219	0x37533b2a	1.2590355e-05
220	0x3865b2bf	5.4764325e-05
221	0x399fdbf0	0.0003049071
222	0x358c2249	1.0440791e-06
223	0x36767bf3	3.6729004e-06
224	0x394344c0	0.0001862226
225	0x39364832	0.00017383767
226	0x38bd9565	9.040049e-05
227	0x39d7696e	0.00041086547
228	0x39b13ffb	0.0003380774
229	0x3719d667	9.16943e-06
230	0x37bb73dd	2.234609e-05
231	0x384c1f03	4.8666272e-05
232	0x38aaedac	8.1505015e-05
233	0x3a0fc533	0.0005484402
234	0x361500e6	2.2203253e-06
235	0x3719d667	9.16943e-06
236	0x3987daf8	0.0002591235
237	0x395adce2	0.00020872385
238	0x39553c45	0.00020335715
239	0x39bbb754	0.0003580401
240	0x38aae6fe	8.149257e-05
241	0x3699ff9e	4.589513e-06
242	0x390f6037	0.00013673386
243	0x37744e2a	1.4561732e-05
244	0x37ded4ce	2.6563557e-05
245	0x390ba402	0.0001331717
246	0x35c3fb99	1.4601857e-06
247	0x3699ff9e	4.589513e-06
248	0x393397bc	0.00017127296
249	0x392230fa	0.00015467769
250	0x3918abdb	0.00014559871
251	0x38bd2f96	9.021086e-05
252	0x3b709a57	0.0036713087
253	0x381c0274	3.7195583e-05
254	0x3b60d3e8	0.0034305993
255	0x3951d214	0.00020010053

exp_avg f4 [64]
0	0xbac4bf8f	-0.0015010702
1	0xbb7c4cfd	-0.0038498037
2	0x3be0dfd0	0.006862618
3	0x3b1b77a4	0.0023722434
4	0x3bcea80c	0.006306654
5	0x00000004	6e-45
6	0x3969fb8f	0.00022314324
7	0x00000004	6e-45
8	0x3c36ee4c	0.011165213
9	0xbbb1a851	-0.005421676
10	0xbb642541	-0.0034812244
11	0xbb77dd77	-0.0037821212
12	0x3b255583	0.002522797
13	0xbb772da0	-0.0037716404
14	0x3a94fd15	0.0011366928
15	0xb8842b90	-6.302365e-05
16	0xbbad3b2a	-0.005286594
17	0x00000000	0.0
18	0x393eb627	0.00018187669
19	0x3b05ef1d	0.0020436712
20	0x3b7859ca	0.0037895315
21	0x3ce8956f	0.028391568
22	0xbbe714b1	-0.007052027
23	0x3b472fb3	0.0030393421
24	0xbbccd0a0	-0.006250456
25	0xbb8535fc	-0.0040652733
26	0xba9c18ad	-0.001190921
27	0x00000004	6e-45
28	0x3ab4db81	0.0013798327
29	0xbc1b6d50	-0.009486511
30	0xb969ef9d	-0.00022309874
31	0xba227113	-0.0006196659
32	0x3b8ee0f1	0.004360311
33	0xba53ef22	-0.0008084645
34	0xbac17743	-0.0014760274
35	0xb9160535	-0.00014307055
36	0xbb321dc5	-0.0027178389
37	0x00000004	6e-45
38	0xba9214b0	-0.0011145081
39	0x3bce214f	0.006290592
40	0x3ad416d0	0.0016181115
41	0x00000000	0.0
42	0x3bfc6df6	0.007703538
43	0x39ec4a78	0.0004506891
44	0xba002f1e	-0.00048898335
45	0xbb84a1c3	-0.004047604
46	0x3ba38a18	0.0049908273
47	0xbbdd1129	-0.0067464304
48	0x3a563ac0	0.00081722066
49	0xbb6d21e2	-0.0036183526
50	0xba4bac7b	-0.0007769537
51	0x3a805fd3	0.0009794183
52	0x3b1573a6	0.0022804528
53	0x3a2ae61d	0.0006519275
54	0xbb9e47b6	-0.004830326
55	0xba555b92	-0.000813895
56	0x00000000	0.0
57	0x38e3b1e5	0.00010857339
58	0xbc1e328c	-0.009655606
59	0x3be7d2fa	0.007074711
60	0xbaf5c505	-0.0018750733
61	0x00000004	6e-45
62	0x3c35f449	0.011105605
63	0x3ab804dc	0.0014039534
