models/checkpoint_330000.pt (torch, 125871 bytes, 33 tensors)

shared.0.weight f4 [64, 12]
00000000: 8401 30be d866 fa3d 8cc4 373e a7c7 3f3f
00000010: 0231 09be d22f 12be 7318 8ebd d89b 6cbd
00000020: cd12 c53c 4b8a 193e 091d 0cbd 9d11 df3d
00000030: 5c36 4abd 541a c63c 4f6e e5bd 5564 003f
00000040: 7ebb 93bc 5488 4fbe 8e1a 903e 4fd4 803e
00000050: 7525 3f3c 5690 0fbb 3759 9bbc 52ce 003d
00000060: 67ad 933d 392e d1be 42d8 ffbd a64f 4dbe
00000070: 316a afbe 07d7 99bd 7856 47bd eff4 bbbe
00000080: 1db7 8fbe 85f5 5c3d 1cd3 733e 2fdf 173d
00000090: 7253 63be 5499 95be c531 51be ed1e 353d
000000a0: d09c 563d 9246 753e e9a9 933e e6bb 113d
000000b0: a3ca 33be b3f6 1ebc 8db6 3b3e 0146 20bb
000000c0: 7e78 593e b208 8dbe 18b0 f33d 94ef 19bf
000000d0: dad3 27be e317 ca3d 8883 14bf b018 02be
000000e0: c08b a63d dc64 3e3e fe2c e4bd 3b11 44be
000000f0: cd3c 2dbe 7350 c6bc cb96 91be 7e09 fbbe
00000100: 7e8c c0be 63f7 883d 98d0 1dbe f877 afbd
00000110: 6cd6 d83b d4da a6bc 7ecb 37bd ef43 003e
00000120: 6e5e d0bd 30bb f93e d27f 593d 761d c33e
00000130: c207 06bf 9c4a 35be c7a9 803d 8e52 873e
00000140: 4df5 aa3d e687 c9bb da58 f5bd 2eec 0c3e
00000150: 0c57 913d 6024 aabe a442 013d e043 bfbe
00000160: 83d3 f4be 35f5 25bd 25f5 f3be e2be 67be
00000170: 9262 14bd 5f06 90be c112 223e 247a 393d
00000180: 7fbd a1be 5ed7 d6be 262c f93d ccfe 7ebe
00000190: 7ae2 903e d5c1 ca3d 8034 88bf dcda a4be
000001a0: d4d8 383e 9f65 f93d 91bc 513c 2ae9 25bf
000001b0: 5927 853d 868a 693e ff4d 0a3e 8fa1 a6bd
000001c0: 0379 b1be 29d6 8b3d f9d1 8ebf d13d a03d
000001d0: 6d6a 2cbd 87bc 04bf da6e de3c b1f4 82be
000001e0: 8535 fbbd 254a 543e 16ce acbb e731 bd3e
000001f0: 9513 08bf 0210 47be d59e 2d3d 0d17 673d
00000200: 13a5 87bc 9c71 693c c5dd 5d3d 7c40 7b3e
00000210: df0b a5be 78c5 033f 92eb c03d 8bb4 673f
00000220: 7740 57be 5850 d7bd a6c2 ca3e 4b83 cd3e
00000230: a2fb d33d 809e c6bc 5969 873d 9afd 453e
00000240: 3d67 71be cf0c de3e 72f5 863c 6050 413e
00000250: 0939 55be 2963 433e 1da3 bc3e 6fdc 283e
00000260: 0bed d13d ca4a 07be 944d bdbd 5342 c83d
00000270: 53b5 cbbe 6d32 403e 0ca2 e6bd d91e ef3e
00000280: 7ff6 0f3e 193f 193e 7d1a 4c3f 9c5a db3e
00000290: c3e3 e03d cb3f 8cbe 1f72 d53d d660 b23e
000002a0: f9ae a6bd da34 a73c 9ee4 37be 9229 d83e
000002b0: a6a0 08bf 0954 2d3e 60e4 923e 19cb 94bd
000002c0: c18c ef3c da05 2dbd 1cf6 823e 6b75 ac3e
000002d0: eb1c 9cbd e084 c1be d3e6 293e 5831 9c3c
000002e0: 0239 bcbe b580 c5bd 6c9c 98be 545c 96be
000002f0: 52a7 903e 69d1 60bd 71f2 043e 23a8 51be
00000300: d5aa 6cbe 0e25 c93e 16c6 0abd ded1 093f
00000310: fa40 d2bd 864f f4bc 8f8e dd3e e481 2c3f
00000320: 4117 04be 18e1 6bbd b282 9f3d 432e 863e
00000330: 5e0c 993c 7003 823c bade 24be 6c18 8ebd
00000340: 45a9 1abe 835a 15bd 7bf6 303d 3b36 65bd
00000350: 06ab 86bd c762 c5bd 31c7 96bd 38ed 01bd
00000360: b027 55be 5fef 113f ecac 173e 9eca c03e
00000370: afe0 e63c 2000 dc3d 89b5 863e e799 173f
00000380: 686c c4bb ad96 773d 7690 00bf c7cb 4cbe
00000390: 323a 963e 018f c3be 78a9 ddbe 4c67 073f
000003a0: 5988 1a3e 8957 80bd 6fa3 08bf 61bb a5be
000003b0: 7678 6c3d a037 233e 772a 26be 02bc 01be
000003c0: 907f 083e 7f64 5bbd b9fe 90be 687f fc3c
000003d0: 7ad8 c2be 6f59 a43e 4953 8dbe 42bb 573b
000003e0: 3647 7bbd 884b a53e 1fa9 b6bd d62d bdbe
000003f0: 083e 8e3e 9b91 8ebe 561c 093d 137a c3bf
-0.17188078 0.12226647 0.1794607 0.7491402 -0.13397601 -0.14276055 -0.06938257 -0.05776581
0.024056816 0.14994161 -0.034207378 0.10892031 -0.049368247 0.024182476 -0.1120268 0.50153095
-0.01803374 -0.20266849 0.2814526 0.2516198 0.011666645 -0.00219061 -0.01896344 0.031446762
0.07210808 -0.40855578 -0.1249242 -0.20049915 -0.34260705 -0.07511716 -0.048666447 -0.36710307
-0.28069392 0.053945083 0.23811 0.03707808 -0.221998 -0.29218543 -0.20429142 0.044218946
0.05239564 0.23952702 0.2884057 0.035579585 -0.17557769 -0.009702372 0.18331356 -0.0024455788
0.2123737 -0.27545696 0.118988216 -0.6013119 -0.16389409 0.09867837 -0.580132 -0.1270473
0.08132124 0.18593162 -0.11141394 -0.19147198 -0.16917725 -0.024208283 -0.28435358 -0.4903068
-0.37607187 0.0668781 -0.15411603 -0.08567804 0.006617358 -0.020368017 -0.0448718 0.12525915
-0.10174261 0.48775625 0.053100415 0.38108414 -0.5235559 -0.17704242 0.062823825 0.26430172
0.08347569 -0.0061502336 -0.11979838 0.1376197 0.07096681 -0.33230877 0.031557694 -0.37356472
-0.4781762 -0.04051705 -0.47647968 -0.2263141 -0.036226816 -0.2812986 0.15827467 0.045282498
-0.31589887 -0.41961187 0.12166624 -0.24901885 0.28297788 0.09900252 -1.0641022 -0.32198226
0.18051463 0.12177586 0.012801305 -0.64808905 0.065016456 0.22806749 0.13506316 -0.081362836
-0.34662637 0.06827957 -1.1157829 0.078242905 -0.042093683 -0.5185017 0.027152468 -0.2557731
-0.122660674 0.20731409 -0.005273591 0.36952135 -0.5315488 -0.194397 0.042387802 0.056418467
-0.016558206 0.014248278 0.054166574 0.24536318 -0.3223562 0.5147319 0.094199315 0.9050986
-0.21020685 -0.10513371 0.3960163 0.4013923 0.103507295 -0.0242455 0.0661189 0.19335023
-0.23574539 0.43369147 0.01647446 0.18878317 -0.20822538 0.19080795 0.36843196 0.16490339
0.102502905 -0.13212124 -0.092433125 0.09778275 -0.39786777 0.18769236 -0.11261377 0.46703222
0.14058875 0.14965476 0.7972792 0.42842567 0.10980942 -0.2739242 0.104221575 0.34839505
-0.08138842 0.020410944 -0.17958304 0.42219216 -0.5337013 0.16926588 0.2868986 -0.072653
0.029241921 -0.04224191 0.25578392 0.33683333 -0.07622703 -0.37796688 0.16591959 0.019066498
-0.36762244 -0.096436895 -0.2980684 -0.29367316 0.28252655 -0.05488721 0.12983109 -0.20474295
-0.23112042 0.39286083 -0.033880316 0.53835857 -0.102662995 -0.029823076 0.43272826 0.673857
-0.12899496 -0.057587713 0.077886 0.2620717 0.018682655 0.01587078 -0.16100588 -0.06938252
-0.15103634 -0.03646327 0.043203812 -0.05595992 -0.06575589 -0.09637981 -0.073622115 -0.03172037
-0.20815921 0.57005876 0.14812058 0.37654585 0.02818331 0.10742211 0.26310375 0.5921921
-0.0059943683 0.06044643 -0.5022043 -0.1999961 0.29341274 -0.3819504 -0.43293357 0.52891994
0.15091075 -0.06266696 -0.5337438 -0.3236952 0.057732068 0.15939188 -0.16227137 -0.12669376
0.13329911 -0.053562637 -0.28319338 0.03082247 -0.38055784 0.32099482 -0.27602604 0.003291801
-0.06134721 0.32284188 -0.08918976 -0.36949033 0.277817 -0.27845463 0.03347429 -1.5271629

shared.0.bias f4 [64]
00000000: 65a3 6a3e 4c64 633e 9d0e fb3d 512c e1bd
00000010: 2099 9a3e ee00 7c3d f782 773e f775 cb3c
00000020: 08e7 9d3e 9404 433e 42cb 843e d123 233e
00000030: a613 343e 7884 8e3d 5363 b13d a96a 403d
00000040: 4be5 1e3e 0000 0000 4dbd 643e 4363 863e
00000050: 5d41 063e 6ddd a03e f288 d63c 77bc 21be
00000060: 1b3c bf3e e929 ac3e cc77 9d3e c4fd 1bbc
00000070: 38b3 0b3e 59ed 07bd 327d b03e d9c0 603e
00000080: b345 9b3e b655 123c ed06 213d 5b85 253e
00000090: c358 ab3e 36a1 5bbd 920a bd3e 903e 6b3e
000000a0: 6fc5 7b3e 0000 0000 78b9 813e 0be9 34be
000000b0: 827b 763e 342b b13e 23be b23e 04e2 a03e
000000c0: 20ce 263e 9561 0a3e 3167 c43c ba4a 093e
000000d0: 398d 873e a558 753e c98a 753e c199 a63e
000000e0: 0000 0000 c5ae 663e 4ad2 96be 7b0d 0d3e
000000f0: 8cc2 823e ad1d b73d 268f 333e 96b4 433e
0.22913893 0.22206229 0.12258647 -0.10994781 0.3019495 0.061524324 0.24171053 0.024836523
0.30840325 0.19044715 0.25936323 0.15931632 0.1758562 0.0695886 0.08661523 0.04697672
0.15517156 0.0 0.22337838 0.26247606 0.13110872 0.31418934 0.026188347 -0.1579455
0.37350544 0.33625725 0.3075546 -0.009520952 0.13642585 -0.033185337 0.34470516 0.21948566
0.30326614 0.008931568 0.039313246 0.16164152 0.33466157 -0.05362054 0.36922127 0.22973084
0.24587034 0.0 0.25336814 -0.17667024 0.24070552 0.34603274 0.34910688 0.31422436
0.16289568 0.13513787 0.023974987 0.13407412 0.26474932 0.23959596 0.23978724 0.3253918
0.0 0.22527607 -0.29457313 0.13774674 0.25539052 0.08941207 0.17535076 0.19111857

shared.2.weight f4 [64, 64]
00000000: 1e8f 7dbd fcd0 29bc 44b6 853e e06e 8f3d
00000010: 054c 9f3e f383 08be 2845 a8bd 43d0 183e
00000020: 82ae 0fbf a4d5 9b3e 146b 303e adff 593d
00000030: 8a83 32be aa6d 58be 99f6 34bd 9d90 32be
00000040: ad95 48bc ff46 863d b79a d4bd 70a6 ee3d
00000050: 296b eabc 18ee fabe 93b9 3e3f 5b6c 1cbe
00000060: 5c6b 4dbd abf8 b83d fe88 bf3d 536a 0d3e
00000070: f02a a23e 5e24 c7be bd10 31bc 9599 43bd
00000080: a9ac 0a3e e955 3a3e 42f3 80be 4858 363f
00000090: 5116 d43c 778b 443e 80d5 47be 523a 19bf
000000a0: e688 f53d df61 09be 11f7 b03e 8a71 30bf
000000b0: ff9b 423e a208 563e f626 b53c cc3e eabd
000000c0: ab83 2d3d 20bc d03c fb71 c23c 8052 e2bc
000000d0: 4fae d9bc 3d18 40bd c828 ecbd 6ee5 373e
000000e0: 8509 083e 0d68 cdbe 3fe8 90bd eca8 a6be
000000f0: b3ce f23d b8bb 113f 04f8 02bf b9cc bebd
00000100: d33d ba3d 23e6 29bd 129c 783d b5c3 42be
00000110: ddaa e43e b2c8 50bc eb15 0ebc b63c 063e
00000120: 7fe5 afbe 9110 8b3e 8a1f 0f3e 0f2f 843c
00000130: 2068 0f3e 2c40 73bd 828c f83d a478 c73e
00000140: dfb5 d53d 65e7 163d c219 8f3e 09e8 553e
00000150: 5d38 743c 883b d5be 3300 2b3f 8f7c 75bc
00000160: 8b74 1f3e 404b c23d 21d9 b73e 76f2 36bd
00000170: e126 513d 1fb3 90be d200 273e 9158 593e
00000180: 7014 543d 3679 f83e 6128 223e bc00 003f
00000190: 9379 12be bbfe 223f aa50 d9b8 a8ef 49bf
000001a0: 5610 21bc f8a1 e3bd aac6 373e f3c2 3ebf
000001b0: 2d3b 1a3e 990a 953d 7164 9d3d 9c8a 493e
000001c0: 763e dd3d 7e2e a83d 6bb9 c7bb c5ee 663d
000001d0: 11b9 63bd 334a 273c b876 923d 1eb0 2ebe
000001e0: 650e 2d3d b778 c8bd 174a 4b3d f36f ecbc
000001f0: 9c5a 723e 758d c23e cd8d d9be a2e8 48be
00000200: ec55 3cbe 90b9 29be 446f 8a3e 9306 3a3d
00000210: bf03 3d3d 9e40 9cbe fb8a 5abd 2967 bc3d
00000220: c8f3 b6be 3a9b 443e 8a7c 6cbd 99a4 133b
00000230: 6c5e 0a3e dfbf 2d3e a113 8c3d 1f50 b23b
00000240: f630 e73d 96fb a63d 85c9 96bc ff37 f03b
00000250: 6fd2 4e3e 9279 15bf b5f0 b43e dbaa 07be
00000260: 3e95 bc3e 9b1a 5e3e 75ec 833d 1374 a1bd
00000270: ece1 813e 3a41 a3be e2bb f03d e9c9 bf3e
00000280: 402f 573e bc74 093e 4a39 063e 17fa 323f
00000290: 5a5c c63d 0847 183e a13e aa3d 7d76 49bf
000002a0: f857 b23e 4138 adbd d1e6 863d 42c1 05bf
000002b0: 6452 983d 797c 35bd a64e 2ebe ca16 2f3e
000002c0: 9e3e d5bc 06d3 103c 1035 373c 391e c03d
000002d0: 5ab1 083e 2373 033c 226b 8a3e 9dbe b73d
000002e0: 81b5 453e 0e3d 3dbd eb63 77be 7b19 86be
000002f0: 2fe7 6c3e 3fba d83e e550 00bf cc0b 0d3c
00000300: 7f03 c63d 9df5 dc3d d7d7 a03e 1d59 793c
00000310: 216f 14bd 6965 88be d705 3bbe 06b5 2a3e
00000320: a475 cbbb 4b35 ad3e da9d 223e 93af 06be
00000330: 20ae 81be 62d8 c9bd d237 b4bb ac8f f33d
00000340: 78a8 67be d192 2c3e 4535 d93d f25a 03be
00000350: f8a1 5f3e c1d9 e2be c729 733f 6057 a8be
00000360: 5e7b 3c3e e912 633e 8dd7 34be f5fc e8bd
00000370: f2da 04be 1196 2cbe 7e1c cd3d b06f 71be
00000380: 866b e63d 6ff5 cd3d 60c9 a73d ff58 513f
00000390: 6a1b 82bc c74a a73e 98c4 ebbd d95d 26bf
000003a0: 8bda 6fbd 6a4e 2abe 7b0f 4a3e 55e5 2bbf
000003b0: b5ae 8dbe 2eca 563e b488 f7bd 5cf9 203c
000003c0: 48b4 8dbd 81fb ff3c 35b5 1abe 7762 483d
000003d0: 4da5 44be 2175 71bd f4b2 d43d c1b1 6f3e
000003e0: 2a19 0abe 4910 0bbd 6f61 fdbe ba23 cb3d
000003f0: 4cc4 bcbc de70 fa3e e940 03bf 0587 49bd
-0.061904065 -0.010364767 0.2611562 0.070035696 0.31112686 -0.13331585 -0.082163155 0.14923196
-0.5612565 0.30436432 0.17228347 0.053222347 -0.1743299 -0.21135584 -0.044180486 -0.17437978
-0.012242717 0.0655651 -0.10381072 0.11652839 -0.028615551 -0.49009776 0.74501914 -0.1527571
-0.050151214 0.09031805 0.09352301 0.1381009 0.31673384 -0.38894933 -0.010807213 -0.04775389
0.13542427 0.18196835 -0.2518559 0.71228456 0.025889548 0.19193827 -0.19515038 -0.59854615
0.11989002 -0.13416241 0.34563497 -0.68923247 0.1900482 0.2090173 0.022113305 -0.11437759
0.042361896 0.02548033 0.02373599 -0.02762723 -0.026572375 -0.046898115 -0.11531216 0.17958614
0.13284881 -0.40118447 -0.070755474 -0.32550752 0.11855831 0.5692706 -0.5115969 -0.093163915
0.09093823 -0.04147924 0.060695715 -0.19019969 0.44661608 -0.012743162 -0.008672218 0.13109097
-0.3435478 0.27161077 0.13976875 0.01613572 0.14004564 -0.05938737 0.12136175 0.3895923
0.1043508 0.03684177 0.2794934 0.20889296 0.014906016 -0.4164698 0.6679718 -0.01498331
0.15571801 0.09487009 0.35907844 -0.044664823 0.05106247 -0.2826166 0.16308907 0.21225192
0.051777303 0.48529977 0.15835716 0.5000112 -0.1430419 0.6366994 -0.00010362391 -0.7888131
-0.009830555 -0.111148775 0.17946878 -0.7451622 0.15061636 0.07277412 0.07685173 0.19681782
0.10802929 0.08211993 -0.0060951016 0.056380052 -0.055596415 0.010210562 0.0715155 -0.17059371
0.042250056 -0.097886495 0.049631204 -0.028861975 0.23667377 0.37998548 -0.42490998 -0.19619992
-0.18392152 -0.16574693 0.27038014 0.045416426 0.04614615 -0.3051805 -0.0533552 0.09199364
-0.35732865 0.19199839 -0.057735957 0.0022528528 0.13512582 0.16967724 0.068396814 0.00544168
0.112886354 0.08153455 -0.018406639 0.007330894 0.20197462 -0.58388627 0.35339895 -0.1324877
0.36832613 0.21689837 0.06441585 -0.078834675 0.25367677 -0.318857 0.11754586 0.37458733
0.21014118 0.13423437 0.13107792 0.69912857 0.096855834 0.14870846 0.08312727 -0.78696424
0.3483274 -0.08457995 0.065869935 -0.52248013 0.0743759 -0.04430816 -0.1702219 0.17098537
-0.026030835 0.008839374 0.011182085 0.093807645 0.13348904 0.008023056 0.2703486 0.089719035
0.1930752 -0.046200804 -0.2415921 -0.26191315 0.23135065 0.42329594 -0.50123435 0.00860877
0.096686356 0.107890345 0.31414673 0.015219 -0.036238793 -0.2663987 -0.18263946 0.16670617
-0.006209092 0.33829722 0.15880528 -0.13152914 -0.2532816 -0.09855725 -0.0054998184 0.118926376
-0.2262286 0.16852881 0.106058635 -0.12827662 0.2183913 -0.44306758 0.9498562 -0.32879162
0.18406436 0.22175182 -0.17660351 -0.11376373 -0.12974146 -0.16854121 0.100152 -0.23577762
0.11250977 0.10056578 0.08192706 0.8177642 -0.015882213 0.32674238 -0.11512107 -0.6498695
-0.05855803 -0.16631475 0.19732468 -0.6714681 -0.27672353 0.20975563 -0.12086621 0.009825077
-0.069191515 0.031247856 -0.15108187 0.04892203 -0.19203682 -0.058949593 0.10385695 0.23407651
-0.13486162 -0.033951078 -0.49488398 0.09918924 -0.02304282 0.48914236 -0.5127092 -0.04920103

shared.2.bias f4 [64]
00000000: 7c84 213e 5c75 993e 3e46 853e 3c3d f73d
00000010: fcd3 5a3d 17b0 aebc 123e edbc 0898 92bc
00000020: e473 87be 747d b43e e973 8f3e cb73 7f3d
00000030: 8e2d 843e 40c1 9f3e d7e3 ac3e dfc2 d2bc
00000040: 9743 05bd 6a31 c3bc 35dc b03e 19a8 133e
00000050: 18aa 113e 0000 0000 18b7 173e f30b aa3e
00000060: ed51 a63e 1401 9e3e e861 b43e 3e1d 543e
00000070: fe20 76bd 2935 283e 12ec a93e 3b02 9c3e
00000080: ebea b63e ede8 a33e 9852 813e dd76 9c3e
00000090: b328 a13e 0bc8 aa3e bf11 803e 09e7 bc3e
000000a0: 8e1c 2bbc 368f 09bd cf33 a33e 1a76 b93e
000000b0: 9056 30bd e6cb 01bd 91bc 9b3e 1e01 893e
000000c0: 598c 9f3e 3fcd 933e 5b79 973e c283 9b3e
000000d0: 053b b03e eb0f 363e 37d3 833e f68a 07bd
000000e0: 6d5e cf3e e221 3dbe 6058 ad3e e535 aa3e
000000f0: ac5c 163e 417b c43e 0e40 f13d b1cc 553e
0.15773195 0.2997235 0.26030153 0.120722264 0.05342482 -0.0213242 -0.028960261 -0.01789476
-0.26455605 0.35251963 0.2801812 0.06236629 0.25816005 0.31202126 0.33767578 -0.025727687
-0.03253516 -0.023827273 0.34543005 0.14419593 0.14225042 0.0 0.14815938 0.33212242
0.3248438 0.30860198 0.35230947 0.2071428 -0.060090058 0.16426529 0.3318792 0.30470452
0.35726103 0.32013646 0.25258327 0.30559435 0.31476364 0.33355746 0.2501354 0.36895016
-0.01044382 -0.033583842 0.31875464 0.36222917 -0.043051302 -0.031688593 0.30417302 0.26758665
0.31161764 0.28867528 0.29584774 0.3037396 0.34420028 0.1777951 0.25747082 -0.033091508
0.4050173 -0.18469957 0.33856487 0.33244243 0.14683789 0.38375285 0.117797956 0.20878865

actor.0.weight f4 [32, 64]
00000000: 0569 90bd 3acb 53be 0b1d b6bd db99 d3bd
00000010: e653 4c3d 3c53 353e 9321 45be 275d 12be
00000020: 2beb d33d 35cb 0e3e c83c 55be 5c18 df3d
00000030: 48cd dd3d d743 c13c a012 2b3d 6b94 90bd
00000040: 80a9 8b3d fdcb d43d cd8c 68bc ad1e 51be
00000050: 8bc1 f43c e498 17be c418 ee3d 421a 673c
00000060: 84c1 e43b 1f08 b5bd 2b47 1d3d 9cc6 b4bd
00000070: 40f6 48bc d1a1 95be 0ab5 3cbd bec3 acbe
00000080: 895f 773d fd3d c5bd 1ca1 d13d 3700 093e
00000090: 5ef7 05be 2ea1 11be 6051 84be 6ba8 b3bd
000000a0: 3649 6dbb bed1 cf3d 344a 5ebc 2695 89be
000000b0: 5b9e bb3c f502 443d ceeb 453d 5238 ad39
000000c0: 592e c4bd 7b6a 88bc ce69 19be 67d5 74bd
000000d0: 7348 04be b008 ee3d e511 07bd 8919 b5bd
000000e0: 3b4d 603e 2ba4 5cbe 2a58 80bd ab98 77bd
000000f0: 2e49 533d c619 fabb 81d6 2e3c 839c c8bc
00000100: 0923 2fbd 7afe 333e f0a1 01bd 1cf3 603c
00000110: 96e5 973e fc5f 18bd b132 0e3a 8906 9b3d
00000120: a816 d0bd 6eab 0abc 214c 8c3d 414b df3d
00000130: d3a4 13be a040 07be a8f2 b43d 1d95 e83d
00000140: e8e4 dbbe 94b4 953d f3fe ccbd 2bb5 42bd
00000150: 0e25 573c ff3c dabd 7155 933d 1bfa 15bd
00000160: 5cd8 a3bd e928 5d3b efbe be3c 362f 8e3e
00000170: 65ef 053e f82f 5e3e 54de f53c 6765 7e3b
00000180: 0d4e 283d 3160 55bb bf5a 0b3d c126 c8bd
00000190: 62b9 20be 764a 55bc f715 6cbe f20e 66bd
000001a0: d548 153e 274e 403e b59d 023d e442 d3bd
000001b0: 0648 85bd 492c 003e 16e7 80bc 7228 9ebc
000001c0: cff3 f93d 7ed1 36be 7579 73bd 6110 86be
000001d0: 80fc 11be 911e debd 9e43 1cbe 53ed 823c
000001e0: 6b72 72bd d6e9 b3bd 5a5d f93b 389d 51be
000001f0: 5610 82bb 402d b2bd 4ad0 01bc 0b69 d03d
00000200: dd8a b93d 2094 a73c 92bd 1f3e e961 3abd
00000210: a842 35be 8e1b b63e 5cff bbbc 71ec 833d
00000220: 4631 863c 5715 5dbe 4c04 66be dc2c be3d
00000230: 71c8 2dbe 89f7 3fbe 4dbf 6cbd a3a4 0ebc
00000240: 3e6a 923d ffed 3bbd 00a1 003e 7f70 663e
00000250: 802e f63d eb10 8abc 7c9f 563d 1857 ba3c
00000260: 137f 6a3c cf7c 31bc 8dd9 1d3e 73f8 85bc
00000270: 20c4 063e efb4 80be 0074 b4bc dd6d 56be
00000280: 502d 483e 543a 873d 4350 b9bc 8f53 62be
00000290: 9a37 9e3d 1284 373e b7cd 32be e3a1 b03d
000002a0: f30e ecbc d71e 74be 2ac4 94bd 65d4 653e
000002b0: 4f1a 2bbb a9b7 393c 8b57 04bd e972 443e
000002c0: a5ca 4bbd e9d1 1d3e 1f9e 6bbd ee26 45be
000002d0: 0daf 293e ccab e13d 0cb4 6bbe 1dc5 52bd
000002e0: 944e ba3d 09bc 2b3e a1bc f13d f762 373e
000002f0: a670 27bd 5a9b 30bc c582 133f 4737 803e
00000300: 2019 c7bd 309e 9abd 9d02 5f3d 23ed 07be
00000310: dd5f 7b3d 901f 00bd 64df a53d a5c7 0a3e
00000320: 9253 4e3e cd1c 2abe 728a c93d c9db 703c
00000330: 3e75 03be 2002 8c3d d262 013d 9151 41be
00000340: 051e 533d 8aa7 c9bc 8598 f33c ac37 2dbc
00000350: 8dc0 6d3d 9159 7dbd 05a6 c43c 7067 153e
00000360: 5278 f1bd 9f36 f1bd 9957 a03d d3a1 823e
00000370: 3d56 4bbc fb38 cebd 9cc9 d03d 6a5f 213e
00000380: 8ed3 923c 3b6c f5bd 55ab 643d 39f7 253c
00000390: 029e 86bd 9063 5fbe 220b bebc 1eed 58be
000003a0: 4530 113e 7f80 36be efda 3bbe 17d4 8abd
000003b0: 7a8f 4b3d a76f c83d 232a 353e 9ea8 92bd
000003c0: d978 74be ca11 7e3b 805e 95bd 9452 a93d
000003d0: 7c54 153e 6679 51be dda7 aabd d421 4ebe
000003e0: a1dd b3bc 8461 213e d42f c03e 48b9 8c3e
000003f0: 34d4 c1bd 0158 cdbb 83a5 3d3c 64ce 0fbe
-0.07051281 -0.20682994 -0.08892258 -0.1033208 0.0498847 0.17707533 -0.19251089 -0.14293347
0.10347589 0.13944705 -0.20823967 0.10893318 0.1083017 0.023591919 0.04176581 -0.070595585
0.06819439 0.1039047 -0.014193726 -0.20421858 0.029877445 -0.14804417 0.116258174 0.014105381
0.0069810767 -0.088394396 0.03839795 -0.08826944 -0.012265742 -0.2922502 -0.04607109 -0.3374309
0.060393844 -0.09630964 0.10235807 0.13378988 -0.13082644 -0.14221641 -0.25843334 -0.087723576
-0.0036206967 0.10147427 -0.013567496 -0.26871604 0.022902658 0.047854383 0.048320584 0.00033039093
-0.095791526 -0.016652336 -0.14981768 -0.05977383 -0.12918262 0.11622751 -0.03297605 -0.08842761
0.21904461 -0.21547 -0.06266816 -0.06044833 0.05158346 -0.007632467 0.010671259 -0.024488693
-0.04275802 0.17577544 -0.031648576 0.013729837 0.29667348 -0.037200913 0.0005424424 0.07569606
-0.10160571 -0.008463724 0.06850458 0.109030254 -0.14418344 -0.13208246 0.088353455 0.11356566
-0.4294808 0.07309833 -0.10009565 -0.047536056 0.013131393 -0.10656165 0.07194031 -0.036615472
-0.08000252 0.0033746308 0.023284404 0.27770394 0.13079603 0.21697986 0.03001324 0.0038817765
0.04109006 -0.0032558555 0.03402209 -0.09773017 -0.15695718 -0.013018241 -0.23055254 -0.056166597
0.14578564 0.18779813 0.031888682 -0.10315493 -0.06507878 0.12516893 -0.01573519 -0.019306395
0.12204706 -0.17853352 -0.059442002 -0.2618437 -0.14256477 -0.10845674 -0.15260169 0.015982306
-0.05919115 -0.08784835 0.0076100053 -0.2047013 -0.0039692326 -0.08700037 -0.007923195 0.10176285
0.09059689 0.020456374 0.15599659 -0.04550353 -0.17701209 0.35567898 -0.022948913 0.06441582
0.016380917 -0.21590172 -0.22462577 0.092859 -0.16970994 -0.18746771 -0.057799626 -0.008706245
0.0714917 -0.045881268 0.12561417 0.22503851 0.12020588 -0.01685377 0.05239819 0.022746608
0.014312523 -0.010832979 0.1541502 -0.016353821 0.13160753 -0.2513804 -0.02202797 -0.20940347
0.19548535 0.06602922 -0.02262128 -0.22102188 0.07725449 0.17921475 -0.17461286 0.086246274
-0.028815722 -0.2383989 -0.07263978 0.22444303 -0.002610821 0.011335292 -0.03231005 0.1918446
-0.049753804 0.15412106 -0.057523843 -0.19253132 0.16570683 0.11019096 -0.23017901 -0.051457513
0.09097019 0.16770948 0.11803556 0.17908846 -0.040878914 -0.010779226 0.57621413 0.25042173
-0.09721589 -0.07549703 0.05444585 -0.13274054 0.06137072 -0.0312801 0.08099249 0.13552721
0.20149067 -0.16612549 0.098408595 0.014700838 -0.12837693 0.06836343 0.031588383 -0.18878771
0.0515423 -0.024616022 0.029735813 -0.010572355 0.05804496 -0.061852995 0.024004946 0.1459024
-0.117905274 -0.11777996 0.07829208 0.25514087 -0.0124106975 -0.10069462 0.10194704 0.15759054
0.017923143 -0.11983534 0.055827457 0.010129743 -0.06573106 -0.21815324 -0.023198668 -0.21184203
0.1417857 -0.17822455 -0.18345235 -0.06778734 0.049697377 0.09786921 0.17691855 -0.071610674
-0.23874225 0.0038767927 -0.07293415 0.08267704 0.1458301 -0.20456466 -0.08332799 -0.20130092
-0.021956267 0.15759856 0.3753649 0.27485108 -0.09464303 -0.0062665944 0.011575106 -0.14043576

actor.0.bias f4 [32]
00000000: 6f13 4839 766f 55bc c6de 8f3d 9d65 953c
00000010: 169d 07bc 3b25 023c 8041 14be c884 3ebe
00000020: 1c8f ab3d c3ba 1d3e 1af3 f33d 1093 09bc
00000030: 792e 173e b7c7 11bc c4ce 203b 1470 34bd
00000040: e401 d8bd b69c 1bbc d882 15be d1b4 51bc
00000050: 5b0e 93bc 4730 acbc 6382 b5bb 6b9a 11bb
00000060: d5f9 89bc 0000 0000 2ba0 0ebe 5704 19bc
00000070: 2eac 95bb 8c9b 52bb 9310 f8bb 4294 c7bc
0.00019080726 -0.013027063 0.070249125 0.01823693 -0.008277198 0.007943447 -0.14478111 -0.1860534
0.08376905 0.15403275 0.11911602 -0.008396879 0.14763822 -0.008897713 0.0024537304 -0.0440522
-0.105472356 -0.009497812 -0.14600694 -0.012799458 -0.017951181 -0.021019114 -0.005539225 -0.0022217284
-0.016842762 0.0 -0.13928287 -0.009339414 -0.0045676446 -0.003213617 -0.007570335 -0.024362687

actor.2.weight f4 [2, 32]
00000000: 35d0 37be 8ca2 7dbe 771c 093e cf46 843d
00000010: 2744 9fbc 5d3d 24bd 1ac6 1cbf f8f2 e4be
00000020: 0ab1 cd3e dddf 473f 3298 053f d6f6 883e
00000030: d516 203f 0480 c2be 3d43 8b3b ad58 b9bd
00000040: 05f1 6abf 4012 a5bd 92e6 64bf 47fc 1dbd
00000050: ebac cdbd 8068 fb3d 02c4 723c ab63 13be
00000060: d6e3 81be 002b 6cbe 257b 54bf 8064 06be
00000070: b605 c23d 998d 793e 461f b03e 610c dc39
00000080: 420a 293e 7c4d a9bc ab2d 33be 922e 8abe
00000090: 8886 80be 3ce8 acbd 76c0 043f 826b c53e
000000a0: 936b 37bf a6d6 57bf e2af 24bf 90d3 a0bd
000000b0: 8d71 59bf 7505 bdbe b9e5 aabe 0248 9e3e
000000c0: 2b39 713f be06 0fbe 4ab1 5b3f 43d3 55be
000000d0: 0ded 5dbe 7a34 153e f1b4 21bd 23c5 06bd
000000e0: 791d 37be 6faf 583d e0b9 2f3f fe22 8e3d
000000f0: 5ad6 19be afe1 58bd aed9 0d3e 77f5 31be
-0.17950518 -0.24769038 0.13389765 0.06458818 -0.019441677 -0.040097583 -0.6123978 -0.4471662
0.40174133 0.78075963 0.52185357 0.2675082 0.6253484 -0.37988293 0.004249959 -0.09050117
-0.91774017 -0.080601215 -0.8941432 -0.03857067 -0.10042747 0.12275791 0.01481724 -0.14393489
-0.25369138 -0.23063278 -0.83000404 -0.13124275 0.094737455 0.24370421 0.3439886 0.00041970893
0.1650782 -0.02066683 -0.1749789 -0.26988655 -0.2510264 -0.08442733 0.5185617 0.38558584
-0.7164852 -0.843119 -0.64330876 -0.07852852 -0.8493889 -0.36918226 -0.3337839 0.30914313
0.94227856 -0.13967416 0.85817397 -0.20881371 -0.21672459 0.145708 -0.0394792 -0.032902848
-0.17882337 0.05290168 0.68643 0.06940268 -0.15023175 -0.052949604 0.1385257 -0.17378794

actor.2.bias f4 [2]
00000000: b39f f83d ad9f f8bd
0.12139835 -0.12139831

critic.0.weight f4 [32, 64]
00000000: daae 423e 617a 56be 8c77 c8bd 0dfa bf3c
00000010: b3b8 55bd 3e02 febc 800c 33be 39d2 a2bc
00000020: 7581 413d 3688 613e d7d6 643d bae8 dc3d
00000030: 277f afbc 95a1 43bc b481 7d3d 9794 953d
00000040: 769e 923b de4b cabd 8596 b7bc 1dbd 96bd
00000050: 739e 7abe 3ce3 533d 4a3b 0f3e 5800 c23d
00000060: d5ec 7e3c bf7f 9fbd 3ef3 a1bd 6305 cbbd
00000070: fb58 ea3d 1974 5bbd 37c6 8bbd 5441 11bd
00000080: e6dd 03bc d4db 4c3d 0d00 d6bb e365 2c3e
00000090: 456d bcbe be39 94be a8c2 c2bc 0923 84bd
000000a0: 6c89 193e b36f 3dbc 3715 7bbd ccee 7d3e
000000b0: 8361 1f3e 0176 073d 9b01 683e dcca babd
000000c0: 4abb 1e3e b738 1fbe 6a38 b8bd 3577 14bd
000000d0: 94f5 34bd d949 5cbe 43c2 a13d fe31 90be
000000e0: 4d9f 133d 29eb b5bc 2ed4 8ebd 76cf 90bc
000000f0: 09ac cd3d e3fb edbd 092c b83d a1f5 14bc
00000100: af47 293e aebb ec3d 5673 213e b21e 3cbd
00000110: 874c 1b3e e6b4 963c 7a1d 983c ff7f 533c
00000120: 4095 ecbd 934e 213e bca6 863d 7d99 a7bd
00000130: 7e19 78be 9d7a 13bd 2ed3 d13b e2bc 103e
00000140: 8c54 d03c c86a 3ebd 5264 293e 1da5 18bd
00000150: cd08 51bd af30 0cbe a700 e43c 6ad0 80be
00000160: d1d1 40be 30fa a03b 4e87 a83d c931 5a3d
00000170: 83d3 96bc e06e 63bd c250 143e e65e 0dbd
00000180: 3810 e0bd deca 18bd 6b92 22be 99ac f5bc
00000190: 4eaf 1cbe bb3b 223e f000 2ebd 7365 84bd
000001a0: b0c0 80bd 85bc a0bd 7776 c53c 0362 89be
000001b0: 3e8f c83c f7e5 193e 3625 8c3e e0ae b4bd
000001c0: 70ab c1bb 2b9c 36be 7ab9 89be c608 77bc
000001d0: 8297 85be 293e 5e3e 8542 9dbc f6b6 68bd
000001e0: 1c16 46bd f0bb 46be 50b4 37be 0041 d939
000001f0: ee19 573d 4fa7 803d 8b48 3bbe 5482 993d
00000200: 407b 8cbd 290c b2bc 12b0 b0bd 81a8 1fbc
00000210: 22ab 0d3c 2e30 37be 9b82 ec3c 59e6 953e
00000220: f43b e83d cb32 f63d 1f7a dfbd 79aa 28bc
00000230: c401 d9bd f220 d3bd 3f5f 60bc 9761 99bd
00000240: 3e40 df3d 7e91 eabd 4362 73bc db21 14be
00000250: 9836 843d 6838 c8bd f886 babc 25e5 51be
00000260: 3bdc 873d 7da7 1f3d 09b9 063e 9d4a 6b3e
00000270: 6b50 ff3c b354 973a 1679 29be 54bb 84bd
00000280: 7bfd 613b 9f6d cd3d 5c05 d9bd 7cfb f4bd
00000290: 40d9 843d 8aa3 c4bb cd1f d53c eaf8 5c3e
000002a0: 2eca 0f3e fa70 613d 6899 723d 9469 7cbd
000002b0: a4e2 a53e 63c0 f1bd dc56 e83c 6de8 79bd
000002c0: 2cb3 63bb 1d00 8fbe a75c f53d b48b 18bc
000002d0: 6efa 81bd 7271 163e 46a0 d0bd a344 953d
000002e0: 553d 633e 7c32 303e 57fe 65bd 8779 29be
000002f0: 74ad c9bd 4925 afbd 39ba 853e 941c 12be
00000300: da86 093e 3b23 2dbe eef2 6a3d aff7 59be
00000310: d4dc a53e 6d36 663e bd56 4f3d b259 c53d
00000320: 167c 55be 08df a8bc 7d04 2cbe fa64 6e3d
00000330: a104 98bc c256 75bc 1cfa f5bd c131 173c
00000340: 5ed3 723d 17e6 593c 00a7 bf3c 77a2 fe3d
00000350: bef5 bf3e f6bb 123d 5714 50bd 3493 3fbd
00000360: 9730 a73c dd2a 66be 4095 ba3b d54b fe3c
00000370: 4a06 e0bb 57b2 57be b1d8 dd3d 553b cabc
00000380: 24e4 22be 4490 dbbc 7d6a dc3c 7212 eabc
00000390: 6b4d 783d 769f c73c 3192 13be 6881 fbbd
000003a0: 4eee 44bd e4e0 a33e 13bd 16be ede1 b23e
000003b0: 0a49 f63c c5fa 823b c4cc 4c3d ee0f c2bc
000003c0: d713 033e 8aa0 ef3c 9296 c63d e5c5 04bd
000003d0: ff76 a4be 26be b5bd a532 9ebd bbe8 073e
000003e0: 7de8 15bd 812f 843e 995b a9bc 36b3 d03c
000003f0: bb44 5ebe 99b3 c23e baec 143e 5464 293e
0.19012013 -0.20945121 -0.09788427 0.023434663 -0.052178096 -0.031006929 -0.17485237 -0.019875633
0.0472426 0.22024617 0.05586895 0.107865766 -0.021422936 -0.01194038 0.061891273 0.07303732
0.0044744564 -0.09877752 -0.02241064 -0.07360289 -0.24474506 0.05173038 0.1398746 0.09472722
0.015559395 -0.077880375 -0.07907723 -0.09913137 0.11442753 -0.053577516 -0.06824916 -0.035462692
-0.00804851 0.050014332 -0.006530768 0.16835742 -0.36802116 -0.28950304 -0.02377446 -0.06451995
0.14993829 -0.011562276 -0.06129953 0.24798125 0.15564542 0.03307152 0.22656862 -0.091207236
0.15501133 -0.15548979 -0.08995135 -0.036246497 -0.044179514 -0.21512546 0.078983806 -0.2816314
0.036040593 -0.02220686 -0.06974064 -0.01767705 0.10042579 -0.11620309 0.08992774 -0.009091766
0.16531251 0.115592346 0.15766653 -0.04592771 0.15165912 0.018396806 0.018568743 0.012908935
-0.11551905 0.1575263 0.06574771 -0.081835724 -0.24228474 -0.036005605 0.0064033484 0.14134553
0.02543094 -0.046488553 0.16542175 -0.03726684 -0.051033784 -0.13690446 0.027832342 -0.25159007
-0.18830039 0.004912637 0.08228932 0.053270135 -0.018411404 -0.05552566 0.14483932 -0.03451433
-0.109405935 -0.037302844 -0.15876167 -0.029989528 -0.15301248 0.15843098 -0.042481363 -0.064646624
-0.06286752 -0.07848457 0.02410434 -0.2683259 0.024482366 0.15029131 0.2737214 -0.08822417
-0.0059103295 -0.17833011 -0.2689932 -0.015077775 -0.26092154 0.217034 -0.019196758 -0.05681511
-0.04836093 -0.1940763 -0.17939878 0.00041437894 0.052514963 0.062819116 -0.18289392 0.07495561
-0.068594456 -0.021734314 -0.08627333 -0.009744764 0.008646758 -0.17889473 0.028870871 0.29277304
0.1133956 0.12021407 -0.109119646 -0.01029455 -0.1059604 -0.10309018 -0.013694583 -0.07489317
0.10900925 -0.11453532 -0.01485497 -0.1446604 0.064557254 -0.09776384 -0.022769436 -0.20497568
0.066338025 0.03897809 0.13156523 0.22977681 0.031166276 0.0011545628 -0.16550097 -0.064810425
0.0034483362 0.10030674 -0.10596725 -0.11962029 0.0648675 -0.0060009407 0.02601614 0.21579328
0.14041969 0.055039383 0.05922833 -0.061624125 0.32399476 -0.11804273 0.02836173 -0.061012674
-0.0034744246 -0.27929774 0.11980563 -0.009310652 -0.06346594 0.14691713 -0.1018682 0.07288482
0.22191365 0.17206758 -0.05615076 -0.16550265 -0.09847537 -0.085520335 0.2611864 -0.14268714
0.13430348 -0.1690797 0.057360582 -0.2128589 0.3239504 0.224817 0.05061983 0.09636249
-0.20848116 -0.020614162 -0.16798587 0.058201768 -0.018556895 -0.014974298 -0.12010595 0.009228171
0.059283607 0.013299487 0.023395061 0.124333315 0.37492174 0.035823785 -0.050800648 -0.046771243
0.020408912 -0.22477289 0.0056940615 0.031042019 -0.006836687 -0.21064125 0.10832346 -0.024686495
-0.15907341 -0.02680219 0.026906246 -0.028573249 0.060620707 0.02436803 -0.14411236 -0.12280542
-0.048078828 0.32007515 -0.14720564 0.34937993 0.030064125 0.003997179 0.049999967 -0.023689236
0.12800537 0.029251356 0.09696688 -0.03241529 -0.32122037 -0.088741586 -0.077245034 0.13272373
-0.03659867 0.25817493 -0.02067356 0.02547608 -0.21705906 0.38027647 0.14543429 0.16542178

critic.0.bias f4 [32]
00000000: 9add 2ebc 3316 99bc ec56 b4bc 30de 9f3c
00000010: c1bd a03e 26c6 973e ee4a 8fbc d5b9 bf3e
00000020: 0000 0000 7959 44bc ed73 ce3e f047 a73e
00000030: 6ab7 a43e e8b3 03bc 1598 ac3e eee0 60bc
00000040: f20b a53e a954 e6bc 5575 dabb c2cb 943e
00000050: e1e8 b23e 8e23 a93e 1a60 a03e b846 9b3e
00000060: 5479 9e3e 34ad c03e 7345 a63e 4edd a7bb
00000070: 2806 9b3e ebf0 ebbb fc14 ac3e f924 bc3e
-0.010672951 -0.018687343 -0.022014104 0.019515127 0.3139477 0.29643363 -0.017491784 0.37446466
0.0 -0.011984223 0.4032282 0.3267207 0.32171184 -0.008038498 0.3370978 -0.013725502
0.32235676 -0.028116541 -0.006666819 0.29061705 0.34943298 0.3303494 0.3132332 0.30327392
0.3095194 0.37632143 0.3247486 -0.005122817 0.30278134 -0.0072003505 0.3360976 0.36746958

critic.2.weight f4 [1, 32]
00000000: 9aa8 a03b d80c f43d dc0e cc3c 1215 a03e
00000010: d36a f1be 5214 b7be 7b01 173c efbe 9dbe
00000020: 1efc 4e3e 0022 3d3e 4b64 91be f114 c0be
00000030: b1e7 05bf 14a9 943c b185 c1be 4fba f83c
00000040: ee13 bcbe 410b a63d 9f00 133d c786 e2be
00000050: e551 11bf d2dc 12bf 527e 0fbf 2c8a eabe
00000060: e1f8 d6be cc51 bcbe e53b cabe 3a3e 6f3f
00000070: 22be e6be 4751 ce3e 6ec6 d1be 7f4e 03bf
0.0049029114 0.11916512 0.02490943 0.31266075 -0.47151813 -0.3575769 0.009216662 -0.30809733
0.20213363 0.18470001 -0.2839683 -0.37515977 -0.5230666 0.018147029 -0.3779731 0.030362276
-0.36733955 0.08107615 0.035889264 -0.44243452 -0.56765586 -0.57368195 -0.56052125 -0.45808542
-0.41986755 -0.36781156 -0.3949882 0.93454325 -0.45066935 0.40296385 -0.40971702 -0.5129165

exp_avg f4 [64, 12]
00000000: 9d75 1bba 6c93 b6b7 0b7e 72b7 d183 2339
00000010: 3535 5539 3878 843a 3170 58b8 6c93 b6b7
00000020: fe02 ceba 85b2 6bba 0648 3fba 9f3d 3bba
00000030: ff46 33bb 163a ddb8 a9c4 54bb 3b4f fab8
00000040: e919 cdb9 2f5f 82ba 92e0 8bb8 163a ddb8
00000050: 8fc3 02bb 3134 81ba 3e94 01b9 2b20 3bbb
00000060: a442 11bb 450a 84b9 0400 0000 03b5 76ba
00000070: 4432 d5ba 6cc9 afba c4ea b1b8 450a 84b9
00000080: a1c2 97b9 39ce 52ba 54bb c6ba 96bd 07bb
00000090: 24a2 03ba d731 b8b9 4e44 6190 30a6 cdba
000000a0: 2d86 d8ba 590c 4ebb fe4c ddb8 d731 b8b9
000000b0: cec9 01bb 6d0f 3dbb 48ea 66ba 3af9 2cba
000000c0: e596 0cb9 b51f 53ba e284 06bb 03d6 8bb9
000000d0: c50b 76ba 105b 31ba 5bb8 e637 b51f 53ba
000000e0: 0bdc 8a3a fec4 3d3b 9200 8438 74cb d0b9
000000f0: 0400 0000 0400 0000 0400 0000 0400 0000
00000100: 0400 0000 0400 0000 0400 0000 0400 0000
00000110: 0400 0000 0400 0000 0400 0000 0400 0000
00000120: 838b 15bb 15a5 24b9 9a45 58bb 4b3b 6c39
00000130: de15 e3b9 c473 68ba eb4b e8b8 15a5 24b9
00000140: ea43 9dbb e155 09bb 0e6d 5abb 1673 08bb
00000150: 0400 0000 0400 0000 0400 0000 0400 0000
00000160: 0400 0000 0400 0000 0400 0000 0400 0000
00000170: 0400 0000 0400 0000 0400 0000 0400 0000
00000180: 34ef 88bb 6de9 9139 65ce 2d3a 8270 bcba
00000190: afc8 21bb fea3 aabb 8ae7 48b8 6de9 9139
000001a0: fae3 203b b7ba 03bb 6960 4d3b 39e1 6ebb
000001b0: f40d a2bb 5544 e0b9 6ffe 8fbb 2684 ff38
000001c0: 0f65 7cba 1db8 3a3a cf2f 2db9 5544 e0b9
000001d0: 275e b5ba 46b5 23ba 275e b5ba a22f a5bb
000001e0: eb04 4fbb 1d90 18ba a07e 1cbc 5561 6b3a
000001f0: cd56 19ba fd7d 2aba 7068 6ab8 1d90 18ba
00000200: 3bdb a2bb d750 67b9 138a 1dbb d7dc 6ebb
00000210: 333b 6ebb 59e0 45b9 c39b 86bb 822d 41b9
00000220: 2bff 53ba eb6c bcb9 b611 39b9 59e0 45b9
00000230: d94d 87bb afad 5abb 5463 c3ba 9df5 76bb
00000240: f016 d7bb 4c3e 15ba 9899 12bc 6dec 4cba
00000250: 21c9 27bb f8ba 71bb 9110 56b9 4c3e 15ba
00000260: 37f9 8fbb c8bd 81bb 4c30 00bb fb5d d7bb
00000270: 09b3 49bb 72c3 d7b9 2f65 a1bb 5a5a 44ba
00000280: 4e60 faba c7cc 11bb 872e f0b8 72c3 d7b9
00000290: d1ef 01bb e52b 06bb 02e0 03bb 6455 4dbb
000002a0: d71c bebb d0b1 cdb9 7984 edbb e8d0 02ba
000002b0: a54e 04bb 9f38 06bb 336e 46b9 d0b1 cdb9
000002c0: e6bf 9dbb 2019 86bb 0fc9 f1ba ebb3 c0bb
000002d0: 9537 563a 7dfd 9838 6753 ccb9 cccc af39
000002e0: 671d 9a39 3589 283a a5ae 4539 7dfd 9838
000002f0: 7b98 a43a 9e6d fe3a 206b ab3a cde8 713a
00000300: 8df5 8ebb 2cde dab9 c0d7 dbbb 76e7 08ba
00000310: 5a8b cfba b83f 0cbb e9e6 57b9 2cde dab9
00000320: 6d15 9cbb 7650 76bb 74d9 0bbb 045e 92bb
00000330: 0000 0000 0000 0000 0000 0000 0000 0000
00000340: 0000 0000 0000 0000 0000 0000 0000 0000
00000350: 0000 0000 0000 0000 0000 0000 0000 0000
00000360: d628 0cbc 78a8 01ba 9ba3 17bc 8337 52ba
00000370: 0039 29bb 5387 51bb 50ab 76b9 78a8 01ba
00000380: 7b86 d0bb a916 afbb 25a3 f7ba a59a 08bc
00000390: 1194 e7bb dbc9 af38 01c7 07bc cdb0 613a
000003a0: 4736 bcba 5b74 23ba be24 bf38 dbc9 af38
000003b0: cc74 35bb f5c9 93b9 f518 323a 1e1c e2bb
000003c0: 69ca f43a 54b1 7439 df35 0239 1f85 903a
000003d0: 733d 453a 70a4 223b fbaa 1439 54b1 7439
000003e0: 25c8 6b3a fac4 ec3a 1282 573a b893 f83a
000003f0: c564 453c ebb2 6d3a 8f3e 863c e99d fc39
-0.00059303065 -2.176474e-05 -1.4453671e-05 0.00015593997 0.00020333084 0.0010106629 -5.16029e-05 -2.176474e-05
-0.0015717444 -0.000899114 -0.0007296804 -0.0007142666 -0.002735555 -0.000105489205 -0.0032465851 -0.00011935687
-0.00039119952 -0.000994658 -6.669866e-05 -0.000105489205 -0.0019952988 -0.0009857473 -0.00012357623 -0.002855311
-0.0022164965 -0.00025184653 6e-45 -0.0009411128 -0.0016265591 -0.0013411469 -8.483746e-05 -0.00025184653
-0.00028945974 -0.0008041594 -0.0015162029 -0.0020712367 -0.0005021414 -0.00035132348 -4.4426046e-29 -0.0015689787
-0.001651948 -0.0031440465 -0.00010552442 -0.00035132348 -0.0019804123 -0.0028848306 -0.00088087143 -0.0006598417
-0.00013407653 -0.0008053736 -0.0020525982 -0.00026671597 -0.0009385909 -0.00067655835 2.7503984e-05 -0.0008053736
0.0010594142 0.0028956528 6.294357e-05 -0.00039824436 6e-45 6e-45 6e-45 6e-45
6e-45 6e-45 6e-45 6e-45 6e-45 6e-45 6e-45 6e-45
-0.0022818751 -0.00015701757 -0.003300047 0.00022528802 -0.00043313106 -0.0008867348 -0.00011076763 -0.00015701757
-0.0047993558 -0.0020955729 -0.0033329162 -0.002082055 6e-45 6e-45 6e-45 6e-45
6e-45 6e-45 6e-45 6e-45 6e-45 6e-45 6e-45 6e-45
-0.004178906 0.0002783047 0.00066301815 -0.0014376792 -0.0024686267 -0.0052075377 -4.7899353e-05 0.0002783047
0.0024549947 -0.0020100304 0.0031337983 -0.003645016 -0.004945511 -0.0004277552 -0.0043943445 0.00012183962
-0.0009628096 0.0007122772 -0.00016516376 -0.0004277552 -0.0013837264 -0.00062449684 -0.0013837264 -0.0050410787
-0.0031588625 -0.00058198144 -0.009551674 0.0008979042 -0.0005849421 -0.0006503759 -5.5887213e-05 -0.00058198144
-0.004969982 -0.00022059992 -0.0024038597 -0.0036447549 -0.0036351203 -0.0001887096 -0.0041079237 -0.00018422867
-0.0008087034 -0.00035939305 -0.00017649573 -0.0001887096 -0.004129153 -0.0033367684 -0.0014906921 -0.0037683018
-0.0065640137 -0.0005693182 -0.008947752 -0.00078172126 -0.002560206 -0.0036885124 -0.00020414802 -0.0005693182
-0.0043937224 -0.0039593913 -0.0019560037 -0.0065724826 -0.003077688 -0.00041153614 -0.004925392 -0.000749027
-0.0019102187 -0.00222473 -0.00011452758 -0.00041153614 -0.001982678 -0.002047294 -0.0020122533 -0.0031331414
-0.005801778 -0.00039233128 -0.007248458 -0.0004990236 -0.0020188477 -0.0020480526 -0.00018923804 -0.00039233128
-0.004814136 -0.0040923506 -0.0018446761 -0.005880823 0.00081717345 7.295141e-05 -0.00038972052 0.00033531187
0.00029395075 0.0006429137 0.00018852444 7.295141e-05 0.001255765 0.001941133 0.001307819 0.00092281104
-0.004362768 -0.0004174573 -0.006709069 -0.00052224786 -0.0015834377 -0.0021400284 -0.00020590019 -0.0004174573
-0.0047632963 -0.003758458 -0.002133933 -0.004466774 0.0 0.0 0.0 0.0
0.0 0.0 0.0 0.0 0.0 0.0 0.0 0.0
-0.008554658 -0.0004946063 -0.009255315 -0.0008019136 -0.0025821328 -0.0031971529 -0.00023524207 -0.0004946063
-0.0063636876 -0.0053432775 -0.0018893225 -0.008337651 -0.0070672114 8.382249e-05 -0.008287192 0.0008609414
-0.0014359438 -0.0006235295 9.1144335e-05 8.382249e-05 -0.0027688025 -0.00028188495 0.000679388 -0.0069003245
0.0018676046 0.00023335713 0.00012417835 0.0011026001 0.000752411 0.002481725 0.00014178075 0.00023335713
0.00089943624 0.0018064075 0.0008220981 0.0018964922 0.012047951 0.00090674934 0.016387252 0.00048182838

exp_avg_sq f4 [64, 12]
00000000: fcef 8938 6747 4e35 4fc2 9838 104e 7236
00000010: 3294 5837 d524 f638 5049 2f34 6747 4e35
00000020: c068 d737 df9a a637 e3be a837 7b89 8938
00000030: 785d 5738 2bb1 3835 6468 6038 d0cf 6836
00000040: 841b 2337 d594 8a38 a734 5234 2bb1 3835
00000050: 5d4d 2438 999b 0d38 5c90 ec37 6765 5538
00000060: c91d 8539 f08e 5d35 a4e7 c434 074d 7337
00000070: 240d fb37 545d 2a39 f0c4 1d34 f08e 5d35
00000080: 33f4 0636 305e 2b37 0bc6 ea37 a807 8739
00000090: c919 a338 c589 d136 bc02 0236 98a4 0338
000000a0: e418 3938 89b0 d839 a4b7 df35 c589 d136
000000b0: 6778 2939 8741 fb38 383d 3639 1e59 d238
000000c0: a466 bf39 c450 7037 528b be39 5e58 4e38
000000d0: fb79 b338 e9b7 d239 3a7e 5f36 c450 7037
000000e0: 3f9f 9839 702a 7339 e532 6939 7562 cb39
000000f0: 4237 8813 2bf3 bb0f 126b 9a0c dbb7 8d11
00000100: e8ba 3212 8b12 3414 d3f0 d00e 2bf3 bb0f
00000110: d8f7 b012 184d a012 c4c6 7b12 f2c2 8d13
00000120: 884b 6839 918b 0437 e0f4 0e39 2e40 0038
00000130: f3d3 3838 b141 d939 3741 f135 918b 0437
00000140: 6b38 2139 8918 d338 b928 ec38 d3f4 7339
00000150: 0f70 0406 aed1 dc01 63ca d205 fd5a 3c03
00000160: 0b51 1804 0b74 4205 35e4 0200 aed1 dc01
00000170: 14a3 9301 2e7a a800 eb95 9101 047e 0406
00000180: a04c 5c39 b7b7 a737 a9c7 913a ce17 b338
00000190: 13c3 5639 37bb c73a 4d4f d436 b7b7 a737
000001a0: 2cc4 953a 861d 733a 9f79 963a 06a3 8539
000001b0: 1eee 163a cd21 7437 15b7 393a 8776 7e38
000001c0: e8d8 0539 952b 7b3a 089d bc34 cd21 7437
000001d0: 3e20 4a38 abb0 2637 ce3b 4938 2f73 163a
000001e0: 8cb9 293a 72cf c237 262d ee39 f95d b938
000001f0: c717 1139 042a 9f3a f291 bc36 72cf c237
00000200: 29ca 0d3a a980 cb39 4ce2 e039 7f6a 2f3a
00000210: 4a6f 2639 d6f9 b035 1fa1 8439 5ddc b536
00000220: 3803 d837 8e96 2d39 28b4 d134 d6f9 b035
00000230: 50f5 c738 86ad b938 a67d 9238 0fdd 2439
00000240: 66e3 2c39 5aec 1636 b761 8c39 d2ef f936
00000250: f37e ef37 2338 f138 83fc 3d35 5aec 1636
00000260: 6a03 0f39 2704 0739 430c d438 241e 3039
00000270: c89c 1039 d27f e435 1cea 8d39 c4bd c036
00000280: bc10 e837 d821 d838 c6aa 1935 d27f e435
00000290: cb34 1239 f1a9 0c39 a046 0139 3c2a 1339
000002a0: 3037 3939 4ff3 0b36 6736 9639 1cca e836
000002b0: 26c9 dd37 66e1 1139 f8ab 2b35 4ff3 0b36
000002c0: 1854 0b39 5469 0339 47e7 d038 2e8b 3b39
000002d0: 6fb6 6b37 8e8f 1336 51b6 5338 cfcd d936
000002e0: e626 2f37 ee5b 7c38 b083 5f35 8e8f 1336
000002f0: c02f d938 a15b 8938 1733 cf38 5a95 f937
00000300: d102 0f39 4158 d835 d88f 8e39 3082 c336
00000310: 94f7 e037 d4ad 0539 45d9 2135 4158 d835
00000320: 4c8c 2139 c3f7 1939 4236 0139 5215 1139
00000330: 0000 0000 0000 0000 0000 0000 0000 0000
00000340: 0000 0000 0000 0000 0000 0000 0000 0000
00000350: 0000 0000 0000 0000 0000 0000 0000 0000
00000360: 2db0 cc39 44ce 9036 9d4e 0d3a 1c89 6637
00000370: f712 5f38 46c1 9139 2edb 7c35 44ce 9036
00000380: 1c3d c938 589f b538 5ba4 c137 4f06 cd39
00000390: e42e c939 d1af 2637 0c73 8d38 01a5 5e38
000003a0: be3f bc38 e5af 213a 8c3d 2b36 d1af 2637
000003b0: 9f6a af39 c526 8a39 3557 7d39 2944 d139
000003c0: 1cee a638 41b3 9336 5638 b538 2b0d 9137
000003d0: 9407 e437 5037 0839 218a a135 41b3 9336
000003e0: 5690 fc38 12e8 e738 341e d238 8c92 b938
000003f0: c3c8 673b 044d 1a38 a94a 6e3b 89ba 5539
6.57737e-05 7.6844884e-07 7.2841176e-05 3.6106248e-06 1.2909108e-05 0.000117370546 1.6324816e-07 7.6844884e-07
2.5678775e-05 1.986086e-05 2.011605e-05 6.558277e-05 5.1347044e-05 6.8803155e-07 5.3502983e-05 3.4691657e-06
9.721964e-06 6.608075e-05 1.9576929e-07 6.8803155e-07 3.9172697e-05 3.376193e-05 2.8200615e-05 5.0877596e-05
0.00025389928 8.2536917e-07 3.6676386e-07 1.4501863e-05 2.992765e-05 0.00016247231 1.469341e-07 8.2536917e-07
2.0109699e-06 1.0214324e-05 2.7987195e-05 0.0002575491 7.7772485e-05 6.244724e-06 1.9373101e-06 3.1386124e-05
4.413062e-05 0.0004133026 1.6668241e-06 6.244724e-06 0.0001616195 0.00011980818 0.00017379678 0.0001003018
0.00036506832 1.43239195e-05 0.00036343426 4.9196526e-05 8.558106e-05 0.00040191345 3.3303063e-06 1.43239195e-05
0.00029110347 0.00023190095 0.00022239571 0.00038792533 3.4385715e-27 1.8533289e-29 2.3791898e-31 2.2359187e-28
5.6397276e-28 9.0913346e-27 5.1507864e-30 1.8533289e-29 1.116826e-27 1.0116425e-27 7.9446632e-28 3.5785635e-27
0.00022153382 7.900308e-06 0.00013633398 3.057735e-05 4.406641e-05 0.0004143841 1.7974879e-06 7.900308e-06
0.00015375174 0.00010065834 0.00011260942 0.0002326549 2.4908768e-35 8.111611e-38 1.982265e-35 5.5352684e-37
1.7904727e-36 9.14315e-36 2.65536e-40 8.111611e-38 5.423328e-38 1.5472193e-38 5.347971e-38 2.4919022e-35
0.0002100938 1.99935e-05 0.0011122125 8.539819e-05 0.00020481301 0.001523829 6.327324e-06 1.99935e-05
0.0011426262 0.00092741137 0.0011480338 0.000254892 0.0005757528 1.4551403e-05 0.0007084471 6.0668706e-05
0.00012764672 0.00095813844 3.5131984e-07 1.4551403e-05 4.819058e-05 9.935505e-06 4.7977832e-05 0.00057392096
0.0006474487 2.3223201e-05 0.00045428536 8.838991e-05 0.00013837135 0.0012143259 5.619827e-06 2.3223201e-05
0.00054088474 0.00038815037 0.00042893214 0.00066915894 0.00015872452 1.3185734e-06 0.00025297047 5.419874e-06
2.5750705e-05 0.00016554652 3.9060365e-07 1.3185734e-06 9.5347525e-05 8.853809e-05 6.985226e-05 0.0001572261
0.00016487911 2.2489317e-06 0.00026775684 7.448697e-06 2.8550136e-05 0.00011502232 7.077544e-07 2.2489317e-06
0.00013638815 0.0001287615 0.00010111232 0.00016795896 0.00013791316 1.7024524e-06 0.0002706804 5.7441375e-06
2.7664348e-05 0.000103059865 5.724545e-07 1.7024524e-06 0.00013943312 0.00013414749 0.00012328709 0.00014034746
0.00017663534 2.0854238e-06 0.00028650762 6.9376674e-06 2.643892e-05 0.00013912245 6.395271e-07 2.0854238e-06
0.000132874 0.00012532371 9.961292e-05 0.00017885558 1.4049568e-05 2.1988267e-06 5.0476116e-05 6.4910632e-06
1.043987e-05 6.0167098e-05 8.3265604e-07 2.1988267e-06 0.000103562605 6.549736e-05 9.8800454e-05 2.975266e-05
0.00013638592 1.6118939e-06 0.00027191523 5.8266087e-06 2.6818168e-05 0.00012748624 6.029334e-07 1.6118939e-06
0.00015406421 0.00014683515 0.00012322611 0.0001383622 0.0 0.0 0.0 0.0
0.0 0.0 0.0 0.0 0.0 0.0 0.0 0.0
0.00039041173 4.315547e-06 0.00053904374 1.3740992e-05 5.3185006e-05 0.00027800555 9.4196264e-07 4.315547e-06
9.5958094e-05 8.660433e-05 2.3083927e-05 0.00039105347 0.00038372644 9.9353065e-06 6.744833e-05 5.3082596e-05
8.9764115e-05 0.0006167873 2.551681e-06 9.9353065e-06 0.0003345804 0.00026350297 0.00024160447 0.0003991437
7.959848e-05 4.4018093e-06 8.641246e-05 1.7291479e-05 2.7183247e-05 0.00012990576 1.2035636e-06 4.4018093e-06
0.00012043181 0.00011058165 0.00010019206 8.848784e-05 0.0035367466 3.6788188e-05 0.003636042 0.00020382753

exp_avg f4 [64]
00000000: 6bc5 47b9 8982 3cbb 9c27 97bb 607a 2bbb
00000010: e953 20bb 0400 0000 8cd6 38bb 0400 0000
00000020: a7d2 c5ba d4f1 9cbb f04c b8bb c831 7ebb
00000030: 5912 11bc 2a71 bfbb ebe3 eabb fbf0 ac3a
00000040: 2c48 d6bb 0000 0000 0fd7 20bc 5d00 e9bb
00000050: 81b8 4a3b 6164 5d3c 2a16 94bc 4026 53bb
00000060: c376 363b afb7 323a 58d1 d1bb 0400 0000
00000070: 1fe5 7639 c874 853b 1ed9 82bb 70cf 86bb
00000080: 0add 903a 77be 9b3b ede1 07bc e45c 63bc
00000090: 15e7 d3bb 0400 0000 fba4 84bb e5b3 c63c
000000a0: 491d 2cbb 0000 0000 98ba 583a eb93 993b
000000b0: 7af5 81bb 7ee3 78b9 043f ca3a 2137 54bb
000000c0: e65e f2ba 4c8b a3bb 33e6 83bb 11ea 6dbb
000000d0: ea74 3f3b 9f3c 5abb 8632 28bc 116c 9d3b
000000e0: 0000 0000 7fc5 0b3b c9e5 a2bb b633 b13b
000000f0: 9000 f1bb 0400 0000 b326 123c 301a 813a
-0.00019051663 -0.0028764328 -0.004612876 -0.002616547 -0.0024464077 6e-45 -0.0028204052 6e-45
-0.0015092687 -0.0047895703 -0.005624406 -0.0038786996 -0.008854472 -0.0058423476 -0.007168283 0.0013194376
-0.0065393653 0.0 -0.009816899 -0.007110639 0.0030932727 0.013512702 -0.018076975 -0.0032218844
0.0027841784 0.0006817532 -0.0064031295 6e-45 0.00023545742 0.0040727593 -0.0039931675 -0.004114084
0.0011052203 0.00475293 -0.008293611 -0.013877127 -0.006466756 6e-45 -0.0040479875 0.024255702
-0.0026262573 0.0 0.0008267551 0.0046868226 -0.0039660307 -0.0002373587 0.0015430157 -0.0032381492
-0.0018491417 -0.0049909707 -0.0040252446 -0.0036302845 0.0029213973 -0.0033300293 -0.010265952 0.0048041423
0.0 0.0021327434 -0.00497124 0.0054077758 -0.0073548034 6e-45 0.008920359 0.0009849723

exp_avg_sq f4 [64]
00000000: b12e 2739 d2be f738 d679 e139 765c f239
00000010: ac25 663a fdf7 4b14 feda 013a 0f7d 2906
00000020: 6f63 163b c94c c23a 7419 c53a 633e a139
00000030: 6837 a539 0832 a139 4a49 aa39 9685 e438
00000040: 8b9f a139 0000 0000 85c0 203a 07ca 7d3a
00000050: ac59 9639 63b7 fd3b 8514 273b b353 f739
00000060: 1f7d ca3a 4a91 613a f876 683a f401 0000
00000070: dacb a739 7baa 8a3a a286 233a 79a2 093b
00000080: 3690 4b3a f4a6 c739 fd55 5839 f0cb 193b
00000090: 3e4b 1a3a 3ac1 1a1b ccab 5a3a 4db5 f73b
000000a0: dbb5 093a 0000 0000 66ea 3b3a 4f43 0b3b
000000b0: 087a bc39 48b0 443a edc5 233a fb2e b33a
000000c0: b90e 1b39 6a76 1539 6495 0039 dd97 693a
000000d0: d0c5 3b3a 03c8 ba39 c12e 233a 9fb4 853a
000000e0: 0000 0000 e84a e839 ca96 123b d26d 533a
000000f0: bd45 873a 87f3 9411 6fed 163b 1f7a 1739
0.00015943755 0.00011813421 0.0004300612 0.00046226726 0.0008779417 1.0297788e-26 0.0004953592 3.1877246e-35
0.002294745 0.0014823909 0.0015037493 0.00030754795 0.00031512533 0.0003074559 0.0003247953 0.000108967695
0.00030827182 0.0 0.0006132203 0.00096812885 0.0002867704 0.0077428087 0.0025494408 0.00047173872
0.0015448666 0.00086047186 0.00088678254 7e-43 0.00032004603 0.0010579372 0.00062380184 0.0021001382
0.00077653246 0.00038080628 0.00020631398 0.0023467503 0.0005885846 1.2801016e-22 0.000834164 0.0075594545
0.0005253234 0.0 0.0007168412 0.0021249836 0.00035949075 0.00075030746 0.000624745 0.0013670617
0.00014787437 0.0001425386 0.00012262684 0.0008910874 0.000716296 0.00035625705 0.00062249234 0.0010200924
0.0 0.00044306298 0.002236771 0.0008065376 0.0010320466 2.3500368e-28 0.0023029705 0.00014445976
