models/checkpoint_170000.pt (torch, 125871 bytes, 33 tensors)

shared.0.weight f4 [64, 12]
-0.1987543 0.17192617 0.19557032 0.57990944 -0.067417756 -0.17796244 -0.01855021 -0.008106145
-0.02409752 0.068776205 0.0061170687 0.09154624 -0.024347356 0.16470179 -0.16504501 0.5425899
-0.0109434845 -0.12932484 0.38260576 0.3921363 0.055327702 -0.0129073635 -0.006597339 0.03274401
0.022948513 -0.23656437 0.008104171 -0.37625742 -0.36341637 -0.005900088 -0.123688206 -0.19511011
-0.19755568 -0.03290846 0.15494642 0.048740096 -0.11007809 -0.21409667 -0.040905703 0.021642748
-0.003861409 0.24351573 0.28871867 0.11366808 -0.16829756 0.04647971 0.12450333 0.10842336
0.252997 -0.31268588 0.12629971 -0.58804256 -0.16857685 0.106730714 -0.54348195 -0.16427583
0.12767869 0.23065239 -0.12313423 -0.14279221 -0.2135226 -0.03911892 -0.15064752 -0.35800278
-0.24404174 0.0993577 -0.21440062 -0.10058816 -0.03651682 -0.061973788 -0.087671965 0.08835115
-0.13151337 0.3647502 0.04433076 0.3832949 -0.38259557 -0.15961494 0.11073505 0.14129663
0.09544174 -0.020919746 -0.15233868 0.1106851 0.18060173 -0.21267794 0.08967845 -0.27957675
-0.38731706 0.07540593 -0.39329123 -0.106680185 0.06631407 -0.2129209 0.19055091 0.1720933
-0.32427415 -0.37682006 0.12796648 -0.20066991 0.28823128 0.11578019 -0.8723909 -0.27919015
0.16502605 0.12926938 -0.032409616 -0.6307705 0.1006174 0.2618801 0.15127 -0.009892115
-0.2613732 0.065292545 -0.73983455 0.11205884 -0.097756304 -0.28316048 -0.09456469 -0.25027734
-0.17974012 0.23600318 -0.0024579412 0.3228229 -0.39062876 -0.18173838 0.087543085 0.08510578
0.07289311 0.04490616 0.12810418 0.17143382 -0.33047995 0.46937346 0.11186254 0.7105302
-0.19238605 -0.13259992 0.38882 0.3560304 0.08010305 -0.070960015 0.11210713 0.14785118
-0.23238946 0.4108132 -0.02117886 0.2071607 -0.18921544 0.24798132 0.38674986 0.14201967
0.050606616 -0.09920049 -0.029775707 0.10713407 -0.32469904 0.22337405 -0.0877595 0.3444235
0.10339333 0.16773714 0.70072466 0.46410593 0.10990513 -0.24652673 0.10071387 0.3776446
-0.10136 0.06016024 -0.16062647 0.3559607 -0.50887704 0.17233838 0.27825254 -0.032903492
0.05427303 -0.027288914 0.27387038 0.26472032 -0.04599599 -0.31337893 0.2159942 -0.06706985
-0.32653812 -0.104794905 -0.20937249 -0.2290837 0.27277502 0.004698751 0.13440983 -0.12189232
-0.16326807 0.38924062 -0.012397429 0.46394265 -0.120874986 0.010905999 0.40906346 0.67023146
-0.119225316 -0.034140147 0.06383707 0.2839119 0.018682655 0.01587078 -0.16100588 -0.06938252
-0.15103634 -0.03646327 0.043203812 -0.05595992 -0.06575589 -0.09637981 -0.073622115 -0.03172037
-0.19560698 0.4909647 0.18424433 0.25823754 0.051504456 0.08710838 0.2491374 0.5130988
0.043962188 0.12749925 -0.42827907 -0.18368654 0.27396294 -0.35403666 -0.48055404 0.38926804
0.08635335 -0.09081692 -0.44878516 -0.29578146 0.04510133 0.122304425 -0.20220797 -0.145135
0.15137108 -0.058771566 -0.24394746 -0.031225478 -0.36147848 0.2949175 -0.22676234 -0.0019172287
0.0010920345 0.33511534 -0.060901944 -0.29061037 0.24853411 -0.5794781 0.052120622 -1.1753441
00000000: 3f86 4bbe 6a0d 303e 9643 483e f274 143f
00000010: 5212 8abd c93b 36be 9cf6 97bc a3cf 04bc
00000020: 2a68 c5bc 8ada 8c3d b171 c83b 987c bb3d
00000030: 1b74 c7bc 96a7 283e 8f01 29be 2ce7 0a3f
00000040: 4d4c 33bc bb6d 04be e7e4 c33e 17c6 c83e
00000050: 4d9f 623d 6879 53bc 7e2e d8bb 951e 063d
00000060: 85fe bb3c ee3d 72be 5bc7 043c d0a4 c0be
00000070: b611 babe 8755 c1bb 3e50 fdbd f2ca 47be
00000080: 094c 4abe 05cb 06bd 46aa 1e3e b2a3 473d
00000090: 9f70 e1bd 283c 5bbe bd8c 27bd 224c b13c
000000a0: b10f 7dbb 305c 793e efd2 933e cfca e83d
000000b0: 3256 2cbe 8261 3e3d 9afb fe3d 110d de3d
000000c0: d388 813e 5d18 a0be b654 013e f589 16bf
000000d0: 699f 2cbe a295 da3d a221 0bbf ec37 28be
000000e0: 34be 023e 2430 6c3e cd2d fcbd 1f38 12be
000000f0: aba5 5abe 293b 20bd 5843 1abe 244c b7be
00000100: 14e6 79be 0d7c cb3d d68b 5bbe 2a01 cebd
00000110: a992 15bd 3ad8 7dbd 5c8d b3bd 73f1 b43d
00000120: 71ab 06be 8ac0 ba3e 2c94 353d 3b3f c43e
00000130: 91e3 c3be 1972 23be 0fc9 e23d 10b0 103e
00000140: f576 c33d e35f abbc acfe 1bbe dfae e23d
00000150: a9ef 383e 3fc8 59be 56a9 b73d af24 8fbe
00000160: 6c4e c6be 6d6e 9a3d 785d c9be 247b dabd
00000170: accf 873d f007 5abe c71f 433e 3a39 303e
00000180: 4307 a6be 8fee c0be a509 033e 6a7c 4dbe
00000190: 0d93 933e 2a1e ed3d 0355 5fbf 03f2 8ebe
000001a0: 97fc 283e 315f 043e f2bf 04bd 2d7a 21bf
000001b0: 7f10 ce3d 2615 863e 86e6 1a3e 8a12 22bc
000001c0: b5d2 85be 19b8 853d cc65 3dbf 1b7f e53d
000001d0: 7534 c8bd 69fa 90be 22ab c1bd 5a24 80be
000001e0: cb0d 38be d1aa 713e 6915 21bb 0b49 a53e
000001f0: 7e00 c8be a019 3abe ca49 b33d f04b ae3d
00000200: fc48 953d 86ef 373d be2d 033e 598c 2f3e
00000210: ab34 a9be b851 f03e 3018 e53d 4fe5 353f
00000220: d900 45be 46c8 07be 6a13 c73e 9e49 b63e
00000230: 110d a43d 7c53 91bd 6c98 e53d 4d66 173e
00000240: 81f7 6dbe 1c56 d23e 4a7f adbc ef21 543e
00000250: b1c1 41be d1ee 7d3e 1404 c63e 9b6d 113e
00000260: e248 4f3d a029 cbbd 2fec f3bc 1b69 db3d
00000270: f43e a6be 2bbc 643e 41bb b3bd 4758 b03e
00000280: e2bf d33d 49c3 2b3e b162 333f 4b9f ed3e
00000290: f115 e13d 8171 7cbe 1343 ce3d a25a c13e
000002a0: d595 cfbd 956a 763d 447b 24be 7b40 b63e
000002b0: c445 02bf 7979 303e 1e77 8e3e d0c5 06bd
000002c0: 664d 5e3d 008d dfbc bd38 8c3e 6c89 873e
000002d0: 4b66 3cbd 3473 a0be 952d 5d3e eb5b 89bd
000002e0: 0130 a7be b69e d6bd be65 56be eb94 6abe
000002f0: 2ba9 8b3e fbf7 993b bba2 093e aea2 f9bd
00000300: bf2f 27be 8c4a c73e 961e 4bbc e489 ed3e
00000310: 4e8d f7bd 13af 323c c470 d13e 4a94 2b3f
00000320: 672c f4bd 8ad6 0bbd 02bd 823d e75c 913e
00000330: 5e0c 993c 7003 823c bade 24be 6c18 8ebd
00000340: 45a9 1abe 835a 15bd 7bf6 303d 3b36 65bd
00000350: 06ab 86bd c762 c5bd 31c7 96bd 38ed 01bd
00000360: 324d 48be ba5f fb3e 8caa 3c3e b637 843e
00000370: 56f6 523d e165 b23d e01d 7f3e 715a 033f
00000380: b211 343d 2a8f 023e 6547 dbbe 5318 3cbe
00000390: df44 8c3e 4b44 b5be 2e0b f6be 244e c73e
000003a0: 06da b03d 39fe b9bd 2bc7 e5be ab70 97be
000003b0: 2cbc 383d be7a fa3d 9b0f 4fbe 459e 14be
000003c0: 0501 1b3e 74ba 70bd 5dcd 79be 93cc ffbc
000003d0: b513 b9be 6dff 963e 6334 68be 854b fbba
000003e0: 9922 8f3a 3d94 ab3e 5174 79bd e2ca 94be
000003f0: ba7f 7e3e ad58 14bf 6f7c 553d ad71 96bf

shared.0.bias f4 [64]
0.20021184 0.23772842 0.10820765 0.044420876 0.2898305 0.087817594 0.11719895 0.13402922
0.22059688 0.16579942 0.157804 0.11224958 0.16850002 0.12672889 0.09068029 0.09254075
0.17093213 0.0 0.19586544 0.18751207 0.1537418 0.29065746 0.05433551 -0.0772436
0.30999553 0.25112507 0.258876 -0.009520952 0.16297606 0.06498075 0.29708812 0.15714046
0.27157223 0.039499957 0.07606335 0.12738667 0.2892525 0.010204473 0.32468447 0.20950903
0.22857736 0.0 0.18832938 -0.10756172 0.19116825 0.28823116 0.2925528 0.22549225
0.20716974 0.1563355 0.084091574 0.09628318 0.27604964 0.16064973 0.24094705 0.25586712
0.0 0.19372945 -0.24303265 0.16394413 0.18199994 0.08244916 0.17617 0.17481278
00000000: 5504 4d3e 146f 733e f99b dd3d aaf2 353d
00000010: aa64 943e b6d9 b33d 0106 f03d f53e 093e
00000020: 26e4 613e 53c7 293e 5f97 213e 1ce3 e53d
00000030: 458b 2c3e 38c5 013e 96b6 b93d 0186 bd3d
00000040: d508 2f3e 0000 0000 f390 483e 2a03 403e
00000050: 7e6e 1d3e 0ed1 943e e98e 5e3d e431 9ebd
00000060: bcb7 9e3e 7793 803e 658b 843e c4fd 1bbc
00000070: 32e3 263e a114 853d ef1b 983e 6ee9 203e
00000080: 840b 8b3e b5ca 213d 1ac7 9b3d a771 023e
00000090: e718 943e a930 273c 0b3d a63e 8989 563e
000000a0: 2f10 6a3e 0000 0000 6bd9 403e 5249 dcbd
000000b0: 9cc1 433e 0993 933e 7bc9 953e 71e7 663e
000000c0: 4e24 543e 6a16 203e 3438 ac3d 1e30 c53d
000000d0: 6156 8d3e 5d81 243e d3ba 763e 0401 833e
000000e0: 0000 0000 0361 463e 8ddd 78be f8e0 273e
000000f0: 315e 3a3e 1bdb a83d e965 343e 1f02 333e

shared.2.weight f4 [64, 64]
0.061050605 0.08579386 0.07297351 0.24443556 0.32223633 0.01748707 -0.029120617 0.14058317
-0.49457464 0.26016143 0.24901432 0.15462226 -0.09926934 -0.10384495 0.09416358 -0.10756337
0.07828792 0.0655651 -0.0876666 0.16919056 0.011681783 -0.3005307 0.9893546 -0.1436639
-0.0106310705 0.12872532 0.18044242 0.1381009 0.3244778 -0.22202514 0.063204415 0.0025453283
0.1939818 0.15727761 -0.17340364 0.81397635 0.12224285 0.17457795 -0.13274686 -0.03632245
0.18546075 -0.13416241 0.21590237 -0.5592865 0.25286263 0.32415113 0.052460726 -0.032085344
0.12974115 0.17085892 0.10374281 0.01950149 0.06500441 0.042337235 -0.015333129 0.2511131
0.13284881 -0.11273859 0.10296677 -0.09702545 0.2092996 0.34482056 -0.195719 -0.029123746
0.11592893 -0.010002572 -0.14448638 -0.051464528 0.41362613 0.13809958 0.002771874 0.11256217
-0.32322973 0.20600684 0.14161023 0.028012348 0.14273381 -0.042997047 0.1857766 0.39756542
0.13308394 0.03684177 0.2618002 0.20852941 0.012841601 -0.2389905 0.87909627 -0.055124547
0.13439295 0.08253751 0.3616922 -0.044664823 0.04050948 -0.13660586 0.17002164 0.21250357
0.059987403 0.43796155 0.16986132 0.57061446 -0.12623812 0.643082 -0.002895533 -0.19606443
0.03445649 -0.111148775 0.025109569 -0.62676644 0.16812097 0.11345745 0.057368338 0.19165531
0.12522554 0.14323322 -0.007503488 0.051291678 -0.041099735 0.017872458 0.09415392 -0.13444875
0.042250056 0.11523764 0.19095096 0.19497445 0.27772635 0.15416801 -0.13909836 -0.1668355
-0.18148416 -0.15361334 0.08183478 0.16475184 0.0070482367 -0.15114541 -0.066936165 0.08684011
-0.34165698 0.13368878 -0.07672022 -0.0063545373 0.12878512 0.17130364 0.12021478 0.0051810713
0.12785082 0.08153455 -0.047995362 -0.004850699 0.19331495 -0.38151744 0.53769755 -0.1774415
0.33793482 0.20445621 0.060226183 -0.078834675 0.24431701 -0.1848911 0.10953339 0.35113105
0.20961158 0.121095866 0.12971357 0.75593686 0.10109669 0.10373623 0.07188957 -0.19995812
0.38402665 -0.08457995 -0.07716303 -0.3528672 0.0897332 -0.009863061 -0.2034657 0.15594476
-0.013120026 0.05213412 -0.0065541407 0.08047103 0.13977829 0.008687943 0.27947822 0.11225857
0.1930752 0.15693946 -0.10214242 -0.028701484 0.2579158 0.1950306 -0.20656337 0.032413885
0.18249255 0.23301263 0.197571 -0.011363163 -0.050417963 -0.11315675 0.019572232 0.15525143
-0.14174692 0.2911613 0.31424555 -0.02898078 -0.13718006 0.041935526 0.17192203 0.09563912
-0.04970487 0.16852881 0.13831244 -0.014865878 0.27881652 -0.3258606 0.99346495 -0.16637962
0.24846676 0.174351 -0.048991688 -0.11376373 -0.0027810782 0.021389568 0.21256098 -0.050743185
0.23802795 0.034217153 0.19419707 0.7605693 0.01598958 0.2687867 0.0039052733 -0.23868462
0.07669503 -0.16631475 -0.06619619 -0.6830573 -0.12540914 0.17854676 -0.12529412 -0.046017025
-0.01833653 0.20456538 -0.025862386 0.14107062 -0.10197366 0.115384765 0.23698248 0.2764738
-0.13486162 0.17169641 -0.17624466 0.14635862 0.1278851 0.27487504 -0.3481528 0.096235074
00000000: 3310 7a3d b1b4 af3d 2373 953d 514d 7a3e
00000010: 29fc a43e 0b41 8f3c 5c8e eebc 09f5 0f3e
00000020: e338 fdbe e133 853e 9cfd 7e3e 4c55 1e3e
00000030: b94d cbbd a9ac d4bd d6d8 c03d 2f4a dcbd
00000040: 6b55 a03d ff46 863d 8c8a b3bd 4a40 2d3e
00000050: f364 3f3c 29df 99be 5846 7d3f a11c 13be
00000060: f12d 2ebc 92d0 033e e6c5 383e 536a 0d3e
00000070: f421 a63e 8f5a 63be 5171 813d 86cf 263b
00000080: 2aa3 463e 620d 213e b990 31be c160 503f
00000090: 765a fa3d 90c4 323e cbee 07be d9c6 14bd
000000a0: 6ce9 3d3e df61 09be 8315 5d3e 662d 0fbf
000000b0: 3677 813e 23f7 a53e 0fe1 563d ec6b 03bd
000000c0: ddda 043e a4f5 2e3e 1c77 d43d 97c1 9f3c
000000d0: 0821 853d cf69 2d3d ce37 7bbc e591 803e
000000e0: 8509 083e 7de3 e6bd 3ee0 d23d 47b5 c6bd
000000f0: a252 563e 528c b03e 906a 48be ec94 eebc
00000100: 266c ed3d d4e1 23bc 3df4 13be 78cc 52bd
00000110: cec6 d33e fa69 0d3e 54a8 353b ff86 e63d
00000120: 5e7e a5be 75f3 523e 4602 113e 277a e53c
00000130: d028 123e ac1d 30bd 393c 3e3e b28d cb3e
00000140: 2847 083e 65e7 163d ad0a 863e bc88 553e
00000150: 9465 523c edb9 74be 740c 613f 47ca 61bd
00000160: 4e9e 093e 6d09 a93d b82f b93e 76f2 36bd
00000170: 45ed 253d 68e2 0bbe 271a 2e3e 899a 593e
00000180: 5ab5 753d 7f3c e03e 20f0 2d3e ca13 123f
00000190: 9144 01be 06a1 243f fcc2 3dbb 1dc5 48be
000001a0: 4022 0d3d f8a1 e3bd 95b2 cd3c c473 20bf
000001b0: e727 2c3e 615c e83d 10fb 6a3d 4a41 443e
000001c0: 203b 003e bbab 123e d2df f5bb 3917 523d
000001d0: 3258 28bd 4369 923c c5d3 c03d efac 09be
000001e0: 650e 2d3d b601 ec3d a688 433e 62a7 473e
000001f0: 2632 8e3e 38de 1d3e cd6f 0ebe edd6 2abe
00000200: fcd6 39be d14c 1dbe fe98 a73d b5b4 283e
00000210: e5f4 e63b ddc5 1abe d415 89bd 3ad9 b13d
00000220: aaed aebe b6e5 083e 7e1f 9dbd b939 d0bb
00000230: 3fe0 033e 396a 2f3e 2b33 f63d fac5 a93b
00000240: 53eb 023e 96fb a63d c996 44bd 9df2 9ebb
00000250: 5bf4 453e 4156 c3be 8ca6 093f 39b3 35be
00000260: cb05 ad3e f85c 513e bbaf 763d 1374 a1bd
00000270: 3d2e 7a3e 1854 3dbe 0b53 e03d 73c7 b33e
00000280: 6ba4 563e 1c01 f83d a2d3 043e 1485 413f
00000290: c80b cf3d a973 d43d d73a 933d d2c1 4cbe
000002a0: 249f c43e 4138 adbd a707 9ebd 02ab b4be
000002b0: 0ac6 b73d ad98 21bc 5059 50be fcaf 1f3e
000002c0: 61f5 56bc 968a 553d 1ec4 d6bb ffcd a43d
000002d0: 0a22 0f3e e057 0e3c c517 8f3e d2e7 e53d
000002e0: 81b5 453e bdb4 203e 0c30 d1bd 601f ebbc
000002f0: 8a0d 843e 1ab6 473e 5985 53be 6cc4 043d
00000300: 54df 3a3e dd9a 6e3e 0d50 4a3e 8f2c 3abc
00000310: 1183 4ebd babe e7bd f255 a03c 3bfa 1e3e
00000320: 1b26 11be 1813 953e cbe4 a03e 1a69 edbc
00000330: ee78 0cbe 96c4 2b3d 540c 303e 71de c33d
00000340: 5597 4bbd d192 2c3e c7a1 0d3e 0390 73bc
00000350: 0ac1 8e3e 33d7 a6be b853 7e3f 6b5f 2abe
00000360: 126e 7e3e 1289 323e 82ab 48bd f5fc e8bd
00000370: c042 36bb 2d39 af3c 96a9 593e 16d8 4fbd
00000380: 99bd 733e 4927 0c3d 99db 463e abb4 423f
00000390: 94fc 823c 699e 893e 9def 7f3b be69 74be
000003a0: 4912 9d3d 6a4e 2abe de91 87bd d8dc 2ebf
000003b0: 416b 00be f6d4 363e 1a4d 00be 597c 3cbd
000003c0: 7e36 96bc 9679 513e 5bdd d3bc d174 103e
000003d0: 91d7 d0bd d94e ec3d 89ab 723e f98d 8d3e
000003e0: 2a19 0abe 2fd1 2f3e 7b79 34be 09df 153e
000003f0: 50f4 023e 6cbc 8c3e 1541 b2be e516 c53d

shared.2.bias f4 [64]
0.14203557 0.20835254 0.15953106 0.1366542 0.10257581 0.072876215 -0.019870201 -0.0074493233
-0.13289808 0.22980443 0.18116407 0.15761332 0.16898291 0.21389014 0.22607437 -0.025727687
-0.023226244 -0.020074155 0.23476125 0.11635123 0.094217636 0.0 0.13116768 0.22205389
0.2079282 0.19748898 0.26074433 0.24936175 0.026504977 0.2569911 0.23401445 0.21280059
0.23470953 0.22210765 0.16633336 0.19986914 0.20058839 0.23993018 0.15952407 0.25866356
-0.01044382 0.05958278 0.1998828 0.25716794 0.018458802 -0.023900408 0.20605738 0.17763352
0.23423396 0.1977909 0.17579296 0.20332588 0.26704112 0.2643717 0.17476918 -0.023720246
0.29559946 -0.07916765 0.2409323 0.24021602 0.13150132 0.26926202 0.075018026 0.22183609
00000000: c671 113e 5e5a 553e 1c5c 233e 14ef 0b3e
00000010: 4413 d23d 2040 953d d5c6 a2bc 7419 f4bb
00000020: 6f16 08be da51 6b3e 1383 393e 6365 213e
00000030: db09 2d3e 0406 5b3e 0a80 673e dfc2 d2bc
00000040: f744 bebc 8e72 a4bc 4165 703e 8e49 ee3d
00000050: 2df5 c03d 0000 0000 d250 063e 1862 633e
00000060: 21eb 543e 8d3a 4a3e 4880 853e b058 7f3e
00000070: f720 d93c 5694 833e 7ca1 6f3e 66e8 593e
00000080: b257 703e 3070 633e 4b53 2a3e 7faa 4c3e
00000090: 0b67 4d3e 42b0 753e 475a 233e 8d6f 843e
000000a0: 8e1c 2bbc 130d 743d 14ae 4c3e 84ab 833e
000000b0: ea36 973c caca c3bc b500 533e 90e5 353e
000000c0: 07db 6f3e b389 4a3e 1203 343e a934 503e
000000d0: 9db9 883e ba5b 873e b1f6 323e f650 c2bc
000000e0: d058 973e a622 a2bd f5b6 763e 30fb 753e
000000f0: 48a8 063e b6dc 893e 0da3 993d 0029 633e

actor.0.weight f4 [32, 64]
-0.07051281 -0.20682994 -0.08892258 -0.1033208 0.0498847 0.17707533 -0.19251089 -0.14293347
0.10347589 0.13944705 -0.20823967 0.10893318 0.1083017 0.023591919 0.04176581 -0.070595585
0.06819439 0.1039047 -0.014193726 -0.20421858 0.029877445 -0.14804417 0.116258174 0.014105381
0.0069810767 -0.088394396 0.03839795 -0.08826944 -0.012265742 -0.2922502 -0.04607109 -0.3374309
0.060393844 -0.09630964 0.10235807 0.13378988 -0.13082644 -0.14221641 -0.25843334 -0.087723576
-0.0036206967 0.10147427 -0.013567496 -0.26871604 0.022902658 0.047854383 0.048320584 0.00033039093
-0.095791526 -0.016652336 -0.14981768 -0.05977383 -0.12918262 0.11622751 -0.03297605 -0.08842761
0.21904461 -0.21547 -0.06266816 -0.06044833 0.05158346 -0.007632467 0.010671259 -0.024488693
-0.04275802 0.17577544 -0.031648576 0.013729837 0.29667348 -0.037200913 0.0005424424 0.07569606
-0.10160571 -0.008463724 0.06850458 0.109030254 -0.14418344 -0.13208246 0.088353455 0.11356566
-0.4294808 0.07309833 -0.10009565 -0.047536056 0.013131393 -0.10656165 0.07194031 -0.036615472
-0.08000252 0.0033746308 0.023284404 0.27770394 0.13079603 0.21697986 0.03001324 0.0038817765
0.04109006 -0.0032558555 0.03402209 -0.09773017 -0.15695718 -0.013018241 -0.23055254 -0.056166597
0.14578564 0.18779813 0.031888682 -0.10315493 -0.06507878 0.12516893 -0.01573519 -0.019306395
0.12204706 -0.17853352 -0.059442002 -0.2618437 -0.14256477 -0.10845674 -0.15260169 0.015982306
-0.05919115 -0.08784835 0.0076100053 -0.2047013 -0.0039692326 -0.08700037 -0.007923195 0.10176285
0.088139765 -0.02975903 0.1492777 0.031118114 -0.038554657 0.3489567 -0.022948913 0.0647646
-0.020589301 -0.23632991 -0.17489482 0.087360516 -0.17584246 -0.20943896 -0.06743832 -0.008706245
0.0714917 -0.04588373 0.06896095 0.25542575 0.1023653 -0.01685377 0.0029841599 0.01322885
0.004927047 -0.034884002 0.1082976 -6.5162414e-05 0.09989744 -0.1936579 -0.08400739 -0.16308683
0.1405202 0.0029744187 -0.059888296 -0.22381648 0.055728167 0.17442772 -0.2043545 0.056386348
-0.028815722 0.026412714 -0.0631126 0.16864206 -0.057766065 0.011335292 -0.04473605 0.1877906
-0.07607089 0.1328034 -0.064395495 -0.25283 0.10112637 0.011422014 -0.23975322 -0.052806582
0.056570146 0.09799797 0.079449266 0.12426472 -0.09598858 0.0044565797 0.39792013 0.23664619
-0.09905992 -0.07529674 0.049598034 -0.103761144 0.10355994 0.03701582 0.08099249 0.13552721
0.14082566 -0.17045209 0.1095311 0.029647607 -0.121611275 0.070329174 0.050323572 -0.18878771
0.0515423 -0.024616022 0.014248616 -0.06405893 0.046982903 -0.061852995 0.07345096 0.16099209
-0.10027357 -0.10362924 0.07078793 0.25852445 -0.070614845 -0.04201346 0.09650383 0.19287235
0.00852297 -0.12186867 0.038723666 0.0040146196 -0.06350869 -0.20645972 -0.026363676 -0.21505673
0.1417857 -0.14372092 -0.17180482 -0.061346773 0.049697377 0.09786921 0.18260606 -0.058193885
-0.2372443 0.0069480278 -0.0739973 0.075012684 0.12957802 -0.18557106 -0.09040948 -0.20130092
-0.02561971 0.057364006 0.36835492 0.2657173 -0.04671713 0.014911459 -0.070595026 -0.07766426
00000000: 0569 90bd 3acb 53be 0b1d b6bd db99 d3bd
00000010: e653 4c3d 3c53 353e 9321 45be 275d 12be
00000020: 2beb d33d 35cb 0e3e c83c 55be 5c18 df3d
00000030: 48cd dd3d d743 c13c a012 2b3d 6b94 90bd
00000040: 80a9 8b3d fdcb d43d cd8c 68bc ad1e 51be
00000050: 8bc1 f43c e498 17be c418 ee3d 421a 673c
00000060: 84c1 e43b 1f08 b5bd 2b47 1d3d 9cc6 b4bd
00000070: 40f6 48bc d1a1 95be 0ab5 3cbd bec3 acbe
00000080: 895f 773d fd3d c5bd 1ca1 d13d 3700 093e
00000090: 5ef7 05be 2ea1 11be 6051 84be 6ba8 b3bd
000000a0: 3649 6dbb bed1 cf3d 344a 5ebc 2695 89be
000000b0: 5b9e bb3c f502 443d ceeb 453d 5238 ad39
000000c0: 592e c4bd 7b6a 88bc ce69 19be 67d5 74bd
000000d0: 7348 04be b008 ee3d e511 07bd 8919 b5bd
000000e0: 3b4d 603e 2ba4 5cbe 2a58 80bd ab98 77bd
000000f0: 2e49 533d c619 fabb 81d6 2e3c 839c c8bc
00000100: 0923 2fbd 7afe 333e f0a1 01bd 1cf3 603c
00000110: 96e5 973e fc5f 18bd b132 0e3a 8906 9b3d
00000120: a816 d0bd 6eab 0abc 214c 8c3d 414b df3d
00000130: d3a4 13be a040 07be a8f2 b43d 1d95 e83d
00000140: e8e4 dbbe 94b4 953d f3fe ccbd 2bb5 42bd
00000150: 0e25 573c ff3c dabd 7155 933d 1bfa 15bd
00000160: 5cd8 a3bd e928 5d3b efbe be3c 362f 8e3e
00000170: 65ef 053e f82f 5e3e 54de f53c 6765 7e3b
00000180: 0d4e 283d 3160 55bb bf5a 0b3d c126 c8bd
00000190: 62b9 20be 764a 55bc f715 6cbe f20e 66bd
000001a0: d548 153e 274e 403e b59d 023d e442 d3bd
000001b0: 0648 85bd 492c 003e 16e7 80bc 7228 9ebc
000001c0: cff3 f93d 7ed1 36be 7579 73bd 6110 86be
000001d0: 80fc 11be 911e debd 9e43 1cbe 53ed 823c
000001e0: 6b72 72bd d6e9 b3bd 5a5d f93b 389d 51be
000001f0: 5610 82bb 402d b2bd 4ad0 01bc 0b69 d03d
00000200: 9f82 b43d 36c9 f3bc 41dc 183e 6aeb fe3c
00000210: 7deb 1dbd 74aa b23e 5cff bbbc 4da3 843d
00000220: e5aa a8bc 7800 72be a117 33be 12ea b23d
00000230: 0c10 34be 2b77 56be 1a1d 8abd a3a4 0ebc
00000240: 3e6a 923d 94f0 3bbd 663b 8d3d 2ac7 823e
00000250: e6a4 d13d eb10 8abc e591 433b d2bd 583c
00000260: 1173 a13b 87e2 0ebd 22cb dd3d cea7 88b8
00000270: 0797 cc3d 424e 46be 110c acbd 3c00 27be
00000280: 87e4 0f3e 77ee 423b 6e4d 75bd 2630 65be
00000290: 3843 643d 2e9d 323e 4e42 51be 5ff5 663d
000002a0: f30e ecbc 7a5f d83c 2e41 81bd 81b0 2c3e
000002b0: 1c9c 6cbd a9b7 393c 263d 37bd 2e4c 403e
000002c0: 0ecb 9bbd 9dfd 073e c9e1 83bd ef72 81be
000002d0: 581b cf3d 6623 3b3c de81 75be b74b 58bd
000002e0: 19b6 673d 29b3 c83d 4cb6 a23d 807e fe3d
000002f0: a995 c4bd 8008 923b 30bc cb3e 6153 723e
00000300: eddf cabd 2d35 9abd 4f27 4b3d b980 d4bd
00000310: 3c17 d43d e79d 173d 64df a53d a5c7 0a3e
00000320: 9a34 103e fe8a 2ebe d751 e03d 8adf f23c
00000330: 550f f9bd be08 903d 1720 4e3d 9151 41be
00000340: 051e 533d 8aa7 c9bc 0773 693c 5431 83bd
00000350: 2571 403d 9159 7dbd 756d 963d 1cdb 243e
00000360: 3b5c cdbd 913b d4bd 43f9 903d 515d 843e
00000370: 849e 90bd 4e16 2cbd cda3 c53d 5480 453e
00000380: eda3 0b3c 4896 f9bd b59c 1e3d 128d 833b
00000390: d810 82bd 2d6a 53be a3f8 d7bc d537 5cbe
000003a0: 4530 113e 942b 13be 9aed 2fbe c146 7bbd
000003b0: 7a8f 4b3d a76f c83d 15fd 3a3e b65c 6ebd
000003c0: 2bf0 72be 48ac e33b e58b 97bd 40a0 993d
000003d0: 1ab0 043e 5706 3ebe 9b28 b9bd d421 4ebe
000003e0: 6de0 d1bc 85f6 6a3d 0499 bc3e 190c 883e
000003f0: 765a 3fbd 314f 743c 2094 90bd 710e 9fbd

actor.0.bias f4 [32]
0.00019080726 -0.013027063 0.001315205 -0.0009015495 -0.008277198 -0.002780208 -0.08993243 -0.09657199
0.08766807 0.0934021 0.079988785 -0.008396879 0.094785385 -0.0038598229 0.0024537304 -0.038549833
-0.05144434 -0.005905831 -0.08837616 -0.012799458 -0.014081403 -0.012716694 -0.0047797114 -0.0022217284
-0.020438856 0.0 -0.09920526 -0.009339414 -0.0025473759 -0.003213617 0.0 -0.024362687
00000000: 6f13 4839 766f 55bc f562 ac3a f655 6cba
00000010: 169d 07bc 2634 36bb 7e2e b8bd 89c7 c5bd
00000020: 518b b33d 9a49 bf3d 29d1 a33d 1093 09bc
00000030: d71e c23d 15f5 7cbb c4ce 203b 6ee6 1dbd
00000040: 4db7 52bd b485 c1bb 8ffe b4bd d1b4 51bc
00000050: afb5 66bc ae59 50bc 209f 9cbb 6b9a 11bb
00000060: 636f a7bc 0000 0000 212c cbbd 5704 19bc
00000070: e0f1 26bb 8c9b 52bb 0000 0000 4294 c7bc

actor.2.weight f4 [2, 32]
-0.17950518 -0.24769038 0.16715321 0.13799362 -0.019441677 -0.07043289 -0.34989348 -0.26812643
0.25645828 0.5361221 0.4194875 0.2675082 0.4815141 -0.3825357 0.004249959 -0.09691119
-0.7867625 -0.075678624 -0.8765115 -0.03857067 -0.102893874 0.122823276 0.014924456 -0.14393489
-0.2554139 -0.23063278 -0.648136 -0.13124275 0.10456084 0.24370421 0.35055596 0.00041970893
0.1650782 -0.02066683 -0.20823394 -0.34328958 -0.2510264 -0.05409208 0.25606143 0.20654762
-0.57119143 -0.5984819 -0.54094493 -0.07852852 -0.70555156 -0.36652946 -0.3337839 0.3155543
0.81130075 -0.14459643 0.84054226 -0.20881371 -0.21425916 0.14564238 -0.039586358 -0.032902848
-0.17710139 0.05290168 0.5045642 0.06940268 -0.16005525 -0.052949604 0.13195829 -0.17378794
00000000: 35d0 37be 8ca2 7dbe 362a 2b3e 334e 0d3e
00000010: 2744 9fbc 1e3f 90bd 3d25 b3be de47 89be
00000020: 804e 833e 4c3f 093f 11c7 d63e d6f6 883e
00000030: 0489 f63e b8db c3be 3d43 8b3b 6079 c6bd
00000040: 4469 49bf 65fd 9abd 0f63 60bf 47fc 1dbd
00000050: 06ba d2bd c58a fb3d b585 743c ab63 13be
00000060: 9cc5 82be 002b 6cbe 3eec 25bf 8064 06be
00000070: fe23 d63d 998d 793e 127c b33e 610c dc39
00000080: 420a 293e 7c4d a9bc 473b 55be a7c3 afbe
00000090: 8886 80be a88f 5dbd 7c1a 833e 3881 533e
000000a0: 9a39 12bf 1c36 19bf 5e7b 0abf 90d3 a0bd
000000b0: 079f 34bf c0a9 bbbe b9e5 aabe 5590 a13e
000000c0: 68b1 4f3f 1611 14be c72d 573f 43d3 55be
000000d0: c166 5bbe 4723 153e 4e25 22bd 23c5 06bd
000000e0: 115a 35be 6faf 583d 1f2b 013f fe22 8e3d
000000f0: 86e5 23be afe1 58bd 1320 073e 77f5 31be

actor.2.bias f4 [2]
0.07263578 -0.07263576
00000000: 11c2 943d 0fc2 94bd

critic.0.weight f4 [32, 64]
0.19012013 -0.20945121 -0.09788427 0.023434663 -0.052178096 -0.031006929 -0.17485237 -0.019875633
0.0472426 0.22024617 0.05586895 0.107865766 -0.021422936 -0.01194038 0.061891273 0.07303732
0.0044744564 -0.09877752 -0.02241064 -0.07360289 -0.24474506 0.05173038 0.1398746 0.09472722
0.015559395 -0.077880375 -0.07907723 -0.09913137 0.11442753 -0.053577516 -0.06824916 -0.035462692
-0.00804851 0.050014332 -0.006530768 0.16835742 -0.36802116 -0.28950304 -0.02377446 -0.06451995
0.14993829 -0.011562276 -0.06129953 0.24798125 0.15564542 0.03307152 0.22656862 -0.091207236
0.15501133 -0.15548979 -0.08995135 -0.036246497 -0.044179514 -0.21512546 0.078983806 -0.2816314
0.036040593 -0.02220686 -0.06974064 -0.01767705 0.10042579 -0.11620309 0.08992774 -0.009091766
0.16531251 0.115592346 0.15766653 -0.04592771 0.15165912 0.018396806 0.018568743 0.012908935
-0.11551905 0.1575263 0.06574771 -0.081835724 -0.24228474 -0.036005605 0.0064033484 0.14134553
0.02543094 -0.046488553 0.16542175 -0.03726684 -0.051033784 -0.13690446 0.027832342 -0.25159007
-0.18830039 0.004912637 0.08228932 0.053270135 -0.018411404 -0.05552566 0.14483932 -0.03451433
-0.109405935 -0.037302844 -0.15876167 -0.029989528 -0.15301248 0.15843098 -0.042481363 -0.064646624
-0.06286752 -0.07848457 0.02410434 -0.2683259 0.024482366 0.15029131 0.2737214 -0.08822417
-0.0059103295 -0.17833011 -0.2689932 -0.015077775 -0.26092154 0.217034 -0.019196758 -0.05681511
-0.04836093 -0.1940763 -0.17939878 0.00041437894 0.052514963 0.062819116 -0.18289392 0.07495561
-0.068594456 -0.021734314 -0.08627333 -0.009744764 0.008646758 -0.17889473 0.028870871 0.29277304
0.1133956 0.12021407 -0.109119646 -0.01029455 -0.1059604 -0.10309018 -0.013694583 -0.07489317
0.10900925 -0.11453532 -0.01485497 -0.1446604 0.064557254 -0.09776384 -0.022769436 -0.20497568
0.066338025 0.03897809 0.13156523 0.22977681 0.031166276 0.0011545628 -0.16550097 -0.064810425
0.0034483362 0.10030674 -0.10596725 -0.11962029 0.0648675 -0.0060009407 0.02601614 0.21579328
0.14041969 0.055039383 0.05922833 -0.061624125 0.32399476 -0.11804273 0.02836173 -0.061012674
-0.0034744246 -0.27929774 0.11980563 -0.009310652 -0.06346594 0.14691713 -0.1018682 0.07288482
0.22191365 0.17206758 -0.05615076 -0.16550265 -0.09847537 -0.085520335 0.2611864 -0.14268714
0.14754163 -0.20613183 0.09481523 -0.15732558 0.084292985 0.10520118 0.05061983 0.09636249
-0.12469008 -0.027440343 -0.09310558 0.05791006 -0.037840046 -0.03809595 -0.1404482 0.009228171
0.059283607 0.013299487 0.013694485 -0.06784231 0.23542935 0.035823785 -0.18418573 -0.07947338
0.049104806 -0.21100256 -0.02450145 0.058956552 -0.03678169 -0.25661597 0.081048116 -0.016626516
-0.1745811 -0.051216938 0.0050871056 0.061052013 0.048802756 0.0046683596 -0.06629662 -0.12209302
-0.048078828 0.17801234 -0.17697228 0.33174714 0.030064125 0.003997179 0.022262458 -0.038322836
0.10629578 0.0058159325 0.10325982 -0.06017877 -0.32298994 -0.1673527 -0.06326444 0.13272373
-0.026688296 0.13696942 -0.022350535 0.015490344 -0.08124486 0.37069374 0.011716155 0.074259
00000000: daae 423e 617a 56be 8c77 c8bd 0dfa bf3c
00000010: b3b8 55bd 3e02 febc 800c 33be 39d2 a2bc
00000020: 7581 413d 3688 613e d7d6 643d bae8 dc3d
00000030: 277f afbc 95a1 43bc b481 7d3d 9794 953d
00000040: 769e 923b de4b cabd 8596 b7bc 1dbd 96bd
00000050: 739e 7abe 3ce3 533d 4a3b 0f3e 5800 c23d
00000060: d5ec 7e3c bf7f 9fbd 3ef3 a1bd 6305 cbbd
00000070: fb58 ea3d 1974 5bbd 37c6 8bbd 5441 11bd
00000080: e6dd 03bc d4db 4c3d 0d00 d6bb e365 2c3e
00000090: 456d bcbe be39 94be a8c2 c2bc 0923 84bd
000000a0: 6c89 193e b36f 3dbc 3715 7bbd ccee 7d3e
000000b0: 8361 1f3e 0176 073d 9b01 683e dcca babd
000000c0: 4abb 1e3e b738 1fbe 6a38 b8bd 3577 14bd
000000d0: 94f5 34bd d949 5cbe 43c2 a13d fe31 90be
000000e0: 4d9f 133d 29eb b5bc 2ed4 8ebd 76cf 90bc
000000f0: 09ac cd3d e3fb edbd 092c b83d a1f5 14bc
00000100: af47 293e aebb ec3d 5673 213e b21e 3cbd
00000110: 874c 1b3e e6b4 963c 7a1d 983c ff7f 533c
00000120: 4095 ecbd 934e 213e bca6 863d 7d99 a7bd
00000130: 7e19 78be 9d7a 13bd 2ed3 d13b e2bc 103e
00000140: 8c54 d03c c86a 3ebd 5264 293e 1da5 18bd
00000150: cd08 51bd af30 0cbe a700 e43c 6ad0 80be
00000160: d1d1 40be 30fa a03b 4e87 a83d c931 5a3d
00000170: 83d3 96bc e06e 63bd c250 143e e65e 0dbd
00000180: 3810 e0bd deca 18bd 6b92 22be 99ac f5bc
00000190: 4eaf 1cbe bb3b 223e f000 2ebd 7365 84bd
000001a0: b0c0 80bd 85bc a0bd 7776 c53c 0362 89be
000001b0: 3e8f c83c f7e5 193e 3625 8c3e e0ae b4bd
000001c0: 70ab c1bb 2b9c 36be 7ab9 89be c608 77bc
000001d0: 8297 85be 293e 5e3e 8542 9dbc f6b6 68bd
000001e0: 1c16 46bd f0bb 46be 50b4 37be 0041 d939
000001f0: ee19 573d 4fa7 803d 8b48 3bbe 5482 993d
00000200: 407b 8cbd 290c b2bc 12b0 b0bd 81a8 1fbc
00000210: 22ab 0d3c 2e30 37be 9b82 ec3c 59e6 953e
00000220: f43b e83d cb32 f63d 1f7a dfbd 79aa 28bc
00000230: c401 d9bd f220 d3bd 3f5f 60bc 9761 99bd
00000240: 3e40 df3d 7e91 eabd 4362 73bc db21 14be
00000250: 9836 843d 6838 c8bd f886 babc 25e5 51be
00000260: 3bdc 873d 7da7 1f3d 09b9 063e 9d4a 6b3e
00000270: 6b50 ff3c b354 973a 1679 29be 54bb 84bd
00000280: 7bfd 613b 9f6d cd3d 5c05 d9bd 7cfb f4bd
00000290: 40d9 843d 8aa3 c4bb cd1f d53c eaf8 5c3e
000002a0: 2eca 0f3e fa70 613d 6899 723d 9469 7cbd
000002b0: a4e2 a53e 63c0 f1bd dc56 e83c 6de8 79bd
000002c0: 2cb3 63bb 1d00 8fbe a75c f53d b48b 18bc
000002d0: 6efa 81bd 7271 163e 46a0 d0bd a344 953d
000002e0: 553d 633e 7c32 303e 57fe 65bd 8779 29be
000002f0: 74ad c9bd 4925 afbd 39ba 853e 941c 12be
00000300: 2715 173e 3914 53be 7d2e c23d f519 21be
00000310: cda1 ac3d b773 d73d bd56 4f3d b259 c53d
00000320: 835d ffbd 92ca e0bc 23ae bebd 1933 6d3d
00000330: 2afe 1abd 800a 1cbd a7d1 0fbe c131 173c
00000340: 5ed3 723d 17e6 593c d55e 603c e9f0 8abd
00000350: 6414 713e f6bb 123d 2f9b 3cbe f1c2 a2bd
00000360: 1f22 493d 0e11 58be 44b7 c8bc 6d7c 713d
00000370: 66a8 16bd 2b63 83be 8efc a53d 5534 88bc
00000380: 63c5 32be dac8 51bd bcb1 a63b ad11 7a3d
00000390: 66e5 473d 0af9 983b 86c6 87bd e80b fabd
000003a0: 4eee 44bd de48 363e 3938 35be c3da a93e
000003b0: 0a49 f63c c5fa 823b c25f b63c 68f8 1cbd
000003c0: 9ab1 d93d 9493 be3b e279 d33d 047e 76bd
000003d0: f05e a5be 825e 2bbe c990 81bd bbe8 073e
000003e0: 6aa1 dabc b641 0c3e 7818 b7bc 36cb 7d3c
000003f0: b563 a6bd 92cb bd3e 1ef5 3f3c 1a15 983d

critic.0.bias f4 [32]
-0.010672951 -0.018687343 -0.022014104 -0.02598072 0.16950162 0.14365457 -0.017491784 0.22138856
0.0 -0.0024780456 0.25080281 0.18166907 0.17014307 -0.008038498 0.17855552 -0.013725502
0.17075796 -0.01864459 0.0 0.14350533 0.2019945 0.17883083 0.162449 0.1471275
0.15977344 0.22893523 0.17734025 0.14632666 0.15101673 -0.0072003505 0.185361 0.21384883
00000000: 9add 2ebc 3316 99bc ec56 b4bc 85d5 d4bc
00000010: d591 2d3e 2f1a 133e ee4a 8fbc afb3 623e
00000020: 0000 0000 b566 22bb 3a69 803e 7507 3a3e
00000030: fc39 2e3e e8b3 03bc 42d7 363e eee0 60bc
00000040: 2ddb 2e3e 8abc 98bc 0000 0000 10f3 123e
00000050: a5d7 4e3e 6e1f 373e 0859 263e 97a8 163e
00000060: a69b 233e ff6d 6a3e af98 353e a8d6 153e
00000070: 21a4 1a3e ebf0 ebbb 46cf 3d3e 30fb 5a3e

critic.2.weight f4 [1, 32]
0.0049029114 0.11916512 0.02490943 0.14923775 -0.4635547 -0.3576492 0.009216662 -0.30441445
0.20213363 0.1930517 -0.28063032 -0.36996588 -0.5171426 0.018147029 -0.37856692 0.030362276
-0.36211166 0.08935636 0.04199398 -0.43101627 -0.56089723 -0.5670005 -0.55901045 -0.45358527
-0.41883865 -0.36088064 -0.3895361 0.93892443 -0.4428077 0.40296385 -0.40808022 -0.5128029
00000000: 9aa8 a03b d80c f43d dc0e cc3c c8d1 183e
00000010: 0b57 edbe cc1d b7be 7b01 173c 36dc 9bbe
00000020: 1efc 4e3e 58af 453e c7ae 8fbe 2b6c bdbe
00000030: 7563 04bf 14a9 943c 86d3 c1be 4fba f83c
00000040: b366 b9be 7800 b73d e101 2c3d 2aae dcbe
00000050: f696 0fbf f226 11bf 4f1b 0fbf 543c e8be
00000060: 0572 d6be 59c5 b8be 4771 c7be 5a5d 703f
00000070: b1b7 e2be 4751 ce3e e4ef d0be 0d47 03bf

exp_avg f4 [64, 12]
-0.000759703 7.223122e-05 0.0034494533 -0.0005749471 -0.0010188018 0.000262479 5.518335e-05 7.223122e-05
-0.0023843367 -0.0008531323 -0.0027627733 -4.2356405e-05 0.0012518002 0.0001778198 0.0037056585 -5.5364875e-05
-0.00032674952 0.002212747 0.00011790879 0.0001778198 -0.00026924844 0.00075658155 -0.0016648147 0.001858313
-0.0012484422 -8.173942e-05 -0.0015157016 -0.00021599207 -0.00044197557 -0.0010513442 -1.6641287e-07 -8.173942e-05
6e-45 -1.6384415e-06 -3.3282574e-06 -0.0012822831 0.00045605394 -1.2406767e-05 0.00044138182 3.350041e-05
0.00048342932 0.00056466076 -4.772328e-05 -1.2406767e-05 0.00062437286 3.7192185e-05 0.00042102192 0.00027168196
-0.005424144 -0.00027351792 -0.0021303422 -0.0012043368 -0.0022899036 -0.0048006084 2.2748385e-05 -0.00027351792
-0.0017612275 -0.00050148624 -0.00060376484 -0.00631104 -5.1278963e-05 1.4466155e-05 6e-45 -9.171403e-06
-5.401452e-05 -0.00024431682 -5.581463e-12 1.4466155e-05 6e-45 -5.5814634e-11 6e-45 -5.1278963e-05
0.0017048026 0.00019286599 0.0014356298 0.00024028044 0.00024244621 0.0014244441 0.00010476352 0.00019286599
-0.0011227987 0.0006625213 -0.0014624408 0.0009795767 -0.0055645527 -0.00017394018 -0.0010908239 -0.0012254372
-0.0024225279 -0.004769784 -5.248272e-05 -0.00017394018 -0.0021121798 -0.0012118885 -0.0013552028 -0.0060028173
0.00011244322 -0.0005353571 -0.0035165541 -0.0008686509 -0.0004043097 -0.0018506104 0.000250037 -0.0005353571
0.008251011 0.0061622183 0.008944057 -0.002785167 -0.0008751345 0.00066735013 0.008163237 8.274825e-05
-0.0013467696 0.0030703435 0.0004486024 0.00066735013 0.0003452526 0.0030712602 0.0006500237 -0.0010978691
0.0016643406 0.00074303587 0.004438658 0.00044882923 0.00093142525 0.0038523676 0.00028546524 0.00074303587
-0.0025703902 0.00082929846 -0.0042436654 0.0018903891 0.0026927486 0.0002621432 0.004492448 0.0001171097
0.00013662642 0.0029551643 0.00013855912 0.0002621432 0.00029557172 0.0013045552 -0.0018483917 0.0033753153
0.0022817508 0.00021038926 0.003558091 0.00017413429 0.00041484283 0.003009577 9.887658e-05 0.00021038926
0.001287613 0.0016109055 -0.00044144908 0.002150875 0.0020774868 0.000114190254 0.002990745 9.787982e-05
0.00044284092 0.002963428 3.907074e-05 0.000114190254 0.0009622406 0.00096993876 -0.0008219659 0.0022645567
0.00022599802 0.00034320104 0.0059422506 -0.00036681828 -0.0007917626 0.0024903866 0.00020940177 0.00034320104
-0.0005922039 0.0015144369 -0.0027190733 0.0003330441 -0.0013711709 -0.00044419567 -0.0013144803 -0.0009078119
-0.0011846188 -0.0029734701 -0.00025088975 -0.00044419567 -0.0027044977 -0.0020902664 -0.002650629 -0.0016128755
0.001166118 0.00017544236 0.0034429515 -9.782515e-05 -0.00033311654 0.0025628938 0.00013094577 0.00017544236
0.0003441513 0.001331873 -0.0015847005 0.0014145912 0.0 0.0 0.0 0.0
0.0 0.0 0.0 0.0 0.0 0.0 0.0 0.0
0.003831854 0.00029192117 0.0074597877 -3.112127e-05 0.00021130366 0.0052125035 0.00017457815 0.00029192117
0.00032506595 0.0016395666 -0.0026247893 0.004164155 -0.009091751 -0.000580195 6e-45 -0.0027666963
-0.004916064 -0.007409235 -3.8334747e-06 -0.000580195 -0.004999793 -0.0037669875 -0.0040924964 -0.0080337925
-0.0032916337 7.764978e-05 0.00092814385 -0.00058446213 -0.0010661877 -0.0025649744 5.6908582e-05 7.764978e-05
-0.0024027626 -0.0011969537 -0.0011195055 -0.0037108737 0.006471193 0.00050458004 -0.010679724 0.003930005
00000000: ce26 47ba d77a 9738 3910 623b 0cb8 16ba
00000010: 5189 85ba 569d 8939 ac74 6738 d77a 9738
00000020: 8842 1cbb bda4 5fba a50f 35bb d8a7 31b8
00000030: 7213 a43a 2475 3a39 a2da 723b 9537 68b8
00000040: 944f abb9 bc03 113b cd45 f738 2475 3a39
00000050: ea29 8db9 5455 463a e935 daba a392 f33a
00000060: c5a2 a3ba 846b abb8 82aa c6ba ee7b 62b9
00000070: f5b8 e7b9 42cd 89ba 39af 32b4 846b abb8
00000080: 0400 0000 6ce8 dbb5 075b 5fb6 4812 a8ba
00000090: 861a ef39 a926 50b7 4469 e739 cb82 0c38
000000a0: c974 fd39 be05 143a 7b2a 48b8 a926 50b7
000000b0: f4ac 233a cefe 1b38 9bbc dc39 8970 8e39
000000c0: 05bd b1bb f466 8fb9 369d 0bbb d6da 9dba
000000d0: 3512 16bb 6c4e 9dbb c9d3 be37 f466 8fb9
000000e0: fdd8 e6ba 2c76 03ba f945 1eba d7cc cebb
000000f0: 5e14 57b8 aab3 7237 0400 0000 e0de 19b7
00000100: a68d 62b8 a617 80b9 5961 c4ac aab3 7237
00000110: 0400 0000 b179 75ae 0400 0000 5e14 57b8
00000120: af73 df3a 123c 4a39 be2b bc3a caf3 7b39
00000130: 2939 7e39 6ab4 ba3a 7db4 db38 123c 4a39
00000140: df2a 93ba 0dad 2d3a 5faf bfba 2465 803a
00000150: da56 b6bb b663 36b9 faf9 8eba d99e a0ba
00000160: 46c3 1ebb d94b 9cbb e420 5cb8 b663 36b9
00000170: 7f6c 0abb 3bd8 9eba 0fa1 b1ba 48b3 c4bb
00000180: 7ecf eb38 3557 0cba fd75 66bb 2db6 63ba
00000190: 88f9 d3b9 2e90 f2ba 6617 8339 3557 0cba
000001a0: 402f 073c 6fec c93b 188a 123c 5987 36bb
000001b0: 4869 65ba 1cf1 2e3a 19bf 053c 2189 ad38
000001c0: 1786 b0ba d137 493b 6532 eb39 1cf1 2e3a
000001d0: 0503 b539 3247 493b 5a66 2a3a 60e6 8fba
000001e0: 0126 da3a 4bc8 423a 2972 913b d750 eb39
000001f0: e42a 743a 0178 7c3b 7faa 9539 4bc8 423a
00000200: fe73 28bb 4765 593a 720e 8bbb efc6 f73a
00000210: d378 303b 4470 8939 6335 933b cb98 f538
00000220: 6043 0f39 6eab 413b 2e4a 1139 4470 8939
00000230: f7f6 9a39 9cfd aa3a bc45 f2ba 6534 5d3b
00000240: 6d89 153b f09b 5c39 dc2e 693b d197 3639
00000250: 437f d939 533c 453b f65b cf38 f09b 5c39
00000260: 1fc5 a83a 0525 d33a 4b72 e7b9 b2f5 0c3b
00000270: 7226 083b 6d79 ef38 6000 443b d444 cd38
00000280: 1a2d e839 1236 423b e3df 2338 6d79 ef38
00000290: e03e 7c3a 7d43 7e3a 3379 57ba f568 143b
000002a0: e2f9 6c39 aaef b339 36b7 c23b 8451 c0b9
000002b0: 4a8e 4fba c135 233b dc92 5b39 aaef b339
000002c0: 223e 1bba 1280 c63a 7b32 32bb 6c9c ae39
000002d0: dcb8 b3ba efe2 e8b9 a44a acba 3afa 6dba
000002e0: 3645 9bba 8dde 42bb da89 83b9 efe2 e8b9
000002f0: f13d 31bb dafc 08bb 2db6 2dbb 1f67 d3ba
00000300: 6dd8 983a f3f6 3739 24a3 613b 7a27 cdb8
00000310: 25a6 aeb9 39f6 273b 7d4e 0939 f3f6 3739
00000320: 356f b439 3e92 ae3a bab5 cfba ce69 b93a
00000330: 0000 0000 0000 0000 0000 0000 0000 0000
00000340: 0000 0000 0000 0000 0000 0000 0000 0000
00000350: 0000 0000 0000 0000 0000 0000 0000 0000
00000360: d81f 7b3b ff0c 9939 3c71 f43b 3688 02b8
00000370: 6591 5d39 a6cd aa3b f70e 3739 ff0c 9939
00000380: 9d6d aa39 bae6 d63a a804 2cbb 7773 883b
00000390: 91f5 14bc 3a18 18ba 0400 0000 7651 35bb
000003a0: ef16 a1bb 2bc9 f2bb 4ca1 80b6 3a18 18ba
000003b0: 4ed5 a3bb 90df 76bb 591a 86bb 2ba0 03bc
000003c0: 73b8 57bb e9d7 a238 ae4e 733a 9736 19ba
000003d0: 53bf 8bba 2119 28bb 20b1 6e38 e9d7 a238
000003e0: ab77 1dbb 1ae3 9cba 5fbc 92ba 2132 73bb
000003f0: 4d0c d43b cb45 043a 02fa 2ebc 45c7 803b

exp_avg_sq f4 [64, 12]
0.0001713163 2.9611926e-06 0.00017310648 1.2884345e-05 3.4373774e-05 0.00028756468 7.173256e-07 2.9611926e-06
0.00014914983 0.000126869 0.000116290495 0.00017321992 0.0001668702 1.8207454e-06 0.00024645496 7.1863515e-06
2.989697e-05 0.00018805476 4.9490944e-07 1.8207454e-06 0.000133432 0.00012134296 9.895514e-05 0.00016542392
8.959722e-05 4.044262e-07 9.501214e-05 2.4160233e-06 1.0969051e-05 7.166461e-05 1.7110354e-08 4.044262e-07
1.29317e-06 2.368212e-06 2.0870461e-06 8.9841174e-05 2.8655433e-05 1.0440634e-06 2.2013628e-05 4.1718476e-06
7.646343e-06 5.290627e-05 1.9079869e-07 1.0440634e-06 2.4396604e-05 1.6783528e-05 2.232156e-05 3.05307e-05
0.00022488488 6.8792456e-06 0.00027243968 2.3351435e-05 5.139034e-05 0.00021713259 1.3690277e-06 6.8792456e-06
0.00017369057 0.00014270852 0.00013029824 0.00023172185 5.7975335e-06 2.2726784e-08 7.9836745e-12 5.271412e-07
1.6218847e-06 1.9239156e-05 4.1770626e-10 2.2726784e-08 2.1781594e-09 4.012608e-08 1.3256063e-08 5.79783e-06
0.000120357436 2.6778607e-06 0.0001495452 9.451528e-06 2.080027e-05 0.00015658709 5.3808594e-07 2.6778607e-06
9.426795e-05 7.155731e-05 6.720181e-05 0.00012878608 0.00014455765 5.086255e-06 0.00013367413 1.6770826e-05
3.172743e-05 0.00014219838 9.4575176e-07 5.086255e-06 9.370372e-05 6.545303e-05 7.040324e-05 0.00015191881
0.00029315476 2.7931053e-05 0.0015121299 0.0001182214 0.00028253242 0.0019622117 7.205308e-06 2.7931053e-05
0.0015267071 0.0012724194 0.0015441098 0.00031306216 0.00059574924 1.8139372e-05 0.00074993545 5.9540784e-05
0.00012419591 0.0009211703 1.1168676e-06 1.8139372e-05 3.4932793e-05 3.4965655e-05 3.0226063e-05 0.0005922951
0.00042890757 1.5730591e-05 0.00045589052 5.042615e-05 8.8566354e-05 0.00059004273 3.092401e-06 1.5730591e-05
0.00038337085 0.00028871154 0.00029457876 0.0004505078 0.00019141006 2.0785938e-06 0.00031334723 7.74094e-06
3.226576e-05 0.00018474125 5.7419834e-07 2.0785938e-06 0.0001556563 0.0001422708 0.0001112434 0.00019116834
0.00012117063 1.0985508e-06 0.00016286534 4.0022505e-06 1.8592367e-05 8.9686975e-05 3.208185e-07 1.0985508e-06
8.083088e-05 7.8115394e-05 5.4355616e-05 0.00012108173 0.00012357852 1.0657955e-06 0.00023347743 3.8133603e-06
2.2700799e-05 9.4697294e-05 4.460263e-07 1.0657955e-06 0.00014234823 0.00013829597 0.0001131997 0.00012188722
0.00021531597 5.1451857e-06 0.0002893565 1.6447912e-05 4.0160437e-05 0.00023142724 1.1206243e-06 5.1451857e-06
0.00018795807 0.00016323298 0.00014022503 0.00021720135 2.0754262e-05 1.7724504e-06 5.0522456e-05 5.2930704e-06
9.431758e-06 5.5169836e-05 5.686311e-07 1.7724504e-06 8.691892e-05 5.5055145e-05 7.974683e-05 3.030776e-05
0.00016334988 1.7642607e-06 0.00031039957 5.8745163e-06 3.064612e-05 0.0001383741 6.1018125e-07 1.7642607e-06
0.00018234862 0.00017447746 0.00014571649 0.00015951527 0.0 0.0 0.0 0.0
0.0 0.0 0.0 0.0 0.0 0.0 0.0 0.0
0.0004756428 4.8159463e-06 0.00069750164 1.6663382e-05 7.516589e-05 0.00043650987 1.0887476e-06 4.8159463e-06
0.00023302124 0.00021683829 0.00011767531 0.00047634784 0.0004280947 9.316484e-06 1.15893414e-07 5.3193646e-05
9.728793e-05 0.000699036 1.8872992e-06 9.316484e-06 0.00029411135 0.0002461807 0.0002200357 0.0004348808
8.6255954e-05 3.677324e-06 9.273676e-05 1.3097125e-05 2.4382747e-05 0.00011492653 8.6060857e-07 3.677324e-06
0.00010580069 8.871569e-05 8.310098e-05 9.170891e-05 0.0026747063 2.3477947e-05 0.002865774 0.00013514177
00000000: 5ea3 3339 e7b8 4636 eb83 3539 d729 5837
00000010: 8f2c 1038 47c4 9639 3d8e 4035 e7b8 4636
00000020: 1a65 1c39 2308 0539 fce0 f338 5ea2 3539
00000030: e1f9 2e39 5660 f435 a036 8139 4a22 f136
00000040: 41cb fa37 9130 4539 ebd9 0435 5660 f435
00000050: e1e9 0b39 8179 fe38 2386 cf38 a575 2d39
00000060: 24e6 bb38 ea1f d934 4141 c738 f722 2236
00000070: b707 3837 a54a 9638 11fa 9232 ea1f d934
00000080: fc90 ad35 93ed 1e36 2e0f 0c36 1d69 bc38
00000090: 1361 f037 bf21 8c35 e8a9 b837 e6fb 8b36
000000a0: cb48 0037 ade7 5d38 58de 4c34 bf21 8c35
000000b0: 4fa7 cc37 5aca 8c37 2f3f bb37 170e 0038
000000c0: 13cf 6b39 45d4 e636 3cd6 8e39 d3e2 c337
000000d0: f58b 5738 16ae 6339 6fbf b735 45d4 e636
000000e0: b520 3639 07a4 1539 aba0 0839 5cfa 7239
000000f0: 6f88 c236 ba38 c332 4673 0c2d de80 0d35
00000100: 89af d935 c663 a137 eea2 e52f ba38 c332
00000110: 96ae 1531 1757 2c33 c8bc 6332 fb8a c236
00000120: 6868 fc38 4cb5 3336 3ccf 1c39 0192 1e37
00000130: 3d7c ae37 8731 2439 fc70 1035 4cb5 3336
00000140: b8b1 c538 0a11 9638 b2ee 8c38 c00a 0739
00000150: 6694 1739 99aa aa36 e02a 0c39 13af 8c37
00000160: 1213 0538 161b 1539 91df 7d35 99aa aa36
00000170: cd82 c438 d443 8938 74a5 9338 654c 1f39
00000180: 91b2 9939 7b4d ea37 a932 c63a a1ed f738
00000190: dc20 9439 7398 003b 20c5 f136 7b4d ea37
000001a0: ca1b c83a 4fc7 a63a ba63 ca3a 7e22 a439
000001b0: 0e2c 1c3a 012a 9837 5197 443a 6ebb 7938
000001c0: 963a 0239 b17a 713a 47e7 9535 012a 9837
000001d0: cd84 1238 16a8 1238 fa8d fd37 4044 1b3a
000001e0: 00df e039 30f5 8337 9704 ef39 ab80 5338
000001f0: b3bc b938 19ad 1a3a 0b87 4f36 30f5 8337
00000200: 2aff c839 355e 9739 b171 9a39 2232 ec39
00000210: 3fb5 4839 f87d 0b36 c148 a439 16df 0137
00000220: 1955 0738 1ab7 4139 9c22 1a35 f87d 0b36
00000230: ab37 2339 872e 1539 584b e938 5c74 4839
00000240: fd1c fe38 eb71 9335 d5c6 2a39 124b 8636
00000250: cef6 9b37 5416 bc38 f53c ac34 eb71 9335
00000260: c083 a938 e2d1 a338 e6fb 6338 42ed fd38
00000270: db94 0139 740c 8f35 9fd1 7439 08e9 7f36
00000280: 986d be37 3998 c638 6375 ef34 740c 8f35
00000290: 5043 1539 8b03 1139 a065 ed38 b49d ff38
000002a0: 71c6 6139 cfa4 ac36 c6b4 9739 9ff9 8937
000002b0: f171 2838 47ab 7239 5c68 9635 cfa4 ac36
000002c0: 9c16 4539 8529 2b39 5f09 1339 8bc0 6339
000002d0: 7019 ae37 efe4 ed35 13e8 5338 219b b136
000002e0: 183d 1e37 2966 6738 08a4 1835 efe4 ed35
000002f0: 3d48 b638 03eb 6638 c13d a738 6b3d fe37
00000300: e648 2b39 89cb ec35 20bd a239 b61d c536
00000310: 058a 0038 8418 1139 56cb 2335 89cb ec35
00000320: d634 3f39 f0f3 3639 79cb 1839 8e43 2739
00000330: 0000 0000 0000 0000 0000 0000 0000 0000
00000340: 0000 0000 0000 0000 0000 0000 0000 0000
00000350: 0000 0000 0000 0000 0000 0000 0000 0000
00000360: b25f f939 aa98 a136 8bd8 363a 57c8 8b37
00000370: 61a2 9d38 5ddb e439 1521 9235 aa98 a136
00000380: 2a57 7439 165f 6339 73c8 f638 53be f939
00000390: e671 e039 fe4d 1c37 14e1 f833 3e1c 5f38
000003a0: 0f07 cc38 833f 373a 1b4f fd35 fe4d 1c37
000003b0: f532 9a39 d011 8139 62b9 6639 b700 e439
000003c0: 50e4 b438 f2c7 7636 ab7b c238 b9bb 5b37
000003d0: 8d89 cc37 b604 f138 9204 6735 f2c7 7636
000003e0: 50e1 dd38 e00c ba38 8046 ae38 d953 c038
000003f0: 204a 2f3b 82f2 c437 b6cf 3b3b d8b4 0d39

exp_avg f4 [64]
-0.0016604653 0.0006089375 -0.0018008564 0.0012961278 -0.006824806 -0.0002125025 0.0008309656 -0.006988862
-0.0035822447 -0.00022039124 0.0028927685 0.0017874931 0.0024712696 0.0023768072 -0.00024119858 -0.0036071592
0.000618532 0.0 0.0032987045 -0.012962515 -0.0030966674 0.013045925 -0.011672538 0.0039806184
-0.013626908 -0.00054080895 -0.004827809 6e-45 -0.004640176 0.002075927 -0.0055754194 -0.005529135
-0.012393442 -0.007910815 0.00041019358 -0.0056495387 3.8976545e-05 -0.0015613377 -0.006029828 -0.0022618594
-0.0054744305 0.0 -0.0055844868 -0.004428035 -0.0037052736 0.0020651543 -0.0067008184 -0.013736211
-0.0012702284 0.0006672096 0.001913988 -0.0072817393 -0.017173776 -0.0040728603 0.0013319965 -0.018185578
0.0 -0.014434702 0.0029675027 -0.0016621016 -0.0069780177 -1.0535925e-05 0.0055917143 -0.0050097187
00000000: f8a3 d9ba 1ba1 1f3a b70a ecba d5e2 a93a
00000010: 9fa2 dfbb 35d3 5eb9 28d5 593a d302 e5bb
00000020: 18c4 6abb d318 67b9 9a94 3d3b 514a ea3a
00000030: 06f5 213b 35c4 1b3b 40ea 7cb9 1766 6cbb
00000040: fb24 223a 0000 0000 142f 583b ba60 54bc
00000050: 75f1 4abb 93be 553c 2c3e 3fbc d96f 823b
00000060: 6543 5fbc 13c5 0dba 9932 9ebb 0400 0000
00000070: 9e0c 98bb 470c 083b 02b2 b6bb bf2d b5bb
00000080: dd0d 4bbc 5d9c 01bc 400f d739 c41f b9bb
00000090: bf7a 2338 cda5 ccba dd95 c5bb b43b 14bb
000000a0: da62 b3bb 0000 0000 12fe b6bb 0d19 91bb
000000b0: 2dd4 72bb 8a57 073b 8a92 dbbb d80d 61bc
000000c0: cb7d a6ba aee7 2e3a c8de fa3a a89b eebb
000000d0: 05b0 8cbc a175 85bb 6396 ae3a ecf9 94bc
000000e0: 0000 0000 877f 6cbc 6f7a 423b e0da d9ba
000000f0: dba7 e4bb 74c3 30b7 b33a b73b 9128 a4bb

exp_avg_sq f4 [64]
0.0003996909 0.0003357709 0.0001484574 7.982923e-05 0.0005174122 2.3752378e-05 0.00025292722 0.0003163254
0.0030902629 0.0013904233 0.0009856959 0.00037052008 0.00020760782 0.00025406168 0.00043123687 0.00010100586
0.00033652445 0.0 0.00083450036 0.0010160756 0.00024151393 0.005629426 0.004152037 0.0012143893
0.0016074597 0.0007677234 0.0006766095 1.1319262e-31 0.00017846553 0.00014981041 0.00056801655 0.0018538017
0.0008461612 0.0003140223 0.00010781132 0.0032421816 0.0008700474 0.0001626125 0.0006172609 0.0007985152
0.0010101993 0.0 0.00037497786 0.005317973 0.00039329182 0.0012042229 0.00042418778 0.001531043
0.00014330573 0.00017233808 0.00013716986 0.0012813272 0.0016061615 0.00015911683 0.0006593037 0.0012530562
0.0 0.0018920529 0.00095382426 0.00025139502 0.0014156892 7.7528985e-06 0.0015385727 0.00035662492
00000000: 9b8d d139 680a b039 3bab 1b39 fe69 a738
00000010: f2a2 073a d83f c737 519b 8439 7ad8 a539
00000020: 0286 4a3b dd3e b63a 7732 813a 5d42 c239
00000030: 4db1 5939 9533 8539 a217 e239 1cd3 d338
00000040: 8c6f b039 0000 0000 5fc2 5a3a d72d 853a
00000050: e73e 7d39 0c77 b83b d00d 883b 252c 9f3a
00000060: 66b1 d23a 0c41 493a 7f5e 313a b3ee 120c
00000070: 7a22 3b39 6d16 1d39 f2e6 143a 43fb f23a
00000080: ebd0 5d3a 5ca3 a439 c318 e238 c87a 543b
00000090: e513 643a f682 2a39 aecf 213a 7353 513a
000000a0: aa68 843a 0000 0000 ad98 c439 6442 ae3b
000000b0: bc32 ce39 04d7 9d3a 8565 de39 47ad c83a
000000c0: 5744 1639 a7b5 3439 41d5 0f39 35f2 a73a
000000d0: d685 d23a 99d8 2639 1fd5 2c3a 973d a43a
000000e0: 0000 0000 c3fe f73a 100a 7a3a abcd 8339
000000f0: a68e b93a 7212 0237 efa9 c93a 63f9 ba39
