models/checkpoint_210000.pt (torch, 125871 bytes, 33 tensors)

shared.0.weight f4 [64, 12]
0	0xbe07ca90	-0.13260865
1	0xbd1d901c	-0.03846751
2	0xbcd3a879	-0.02583717
3	0xbe06107e	-0.13092229
4	0xbb516518	-0.0031951126
5	0xbd819d4c	-0.0632883
6	0xbdef3e13	-0.116817616
7	0x3ddd3397	0.108008556
8	0xbc7cebea	-0.015437106
9	0x3db079c1	0.08616973
10	0xbe5c2e2e	-0.21501991
11	0xbd03945d	-0.032123912
12	0xbdb20fdc	-0.08694431
13	0xbe7606b5	-0.24025996
14	0xbe69933a	-0.22810069
15	0x3e82a2e1	0.25514892
16	0x3e134c1b	0.143845
17	0xbeaa8112	-0.33301598
18	0xbe6f2d4d	-0.23357125
19	0xbe306c29	-0.1722876
20	0xbd9e459a	-0.07728119
21	0x3e2085d3	0.1567605
22	0x3db3043d	0.08741043
23	0x3d5b73d5	0.053577263
24	0xbe53f8ba	-0.2070035
25	0x3ea4eaf7	0.32210514
26	0xbe0970a7	-0.1342188
27	0x3f525347	0.8215832
28	0xbdb43a4a	-0.0880018
29	0xbd2f94b1	-0.042866413
30	0x3e46b5ed	0.19405337
31	0x3d926c34	0.07149544
32	0xbdec704f	-0.11544859
33	0x3d1fde03	0.039030086
34	0x3d676109	0.056489024
35	0x3db4b5f8	0.0882377
36	0xbdd41003	-0.103546165
37	0xbe3e285e	-0.18570086
38	0xbe19b9f7	-0.15012346
39	0xbde07ec1	-0.109616764
40	0xbe84b575	-0.2591969
41	0xbb1236d6	-0.0022310517
42	0xbe4b46cd	-0.19851227
43	0xbdbcdb24	-0.09221485
44	0xbe26a09f	-0.1627221
45	0x3c831abd	0.01600396
46	0x3e14a2af	0.14515184
47	0xbd4ed33b	-0.050494414
48	0xbd4c0387	-0.04980805
49	0x3e8f640f	0.28006026
50	0xbdc2546c	-0.094887584
51	0xbd0c2ced	-0.034222532
52	0xbe6dc61d	-0.23220105
53	0xbed1d527	-0.40982935
54	0x3d5430fb	0.051804524
55	0x3d517b45	0.05114295
56	0xbc27fc84	-0.0102530755
57	0xbccc4d13	-0.024939096
58	0x3d049fba	0.03237889
59	0x3d191983	0.037377845
60	0xbcff9422	-0.031198565
61	0x3eb0d923	0.34540662
62	0xbdf79abc	-0.1209006
63	0x3f5c4bac	0.86052966
64	0xbb99f43d	-0.004698305
65	0xbbd81a20	-0.006594911
66	0x3eace2c5	0.3376676
67	0x3df110e4	0.117708
68	0x3d1e9b36	0.03872224
69	0xbe2da286	-0.16956529
70	0x3dd1c339	0.10242314
71	0x3e5879e7	0.21140252
72	0x3d0e6395	0.034762938
73	0xbe78596d	-0.24252863
74	0xbc5ae67d	-0.013360617
75	0x3f025055	0.50903827
76	0xbde07d17	-0.10961359
77	0x3cd7cb8a	0.026342172
78	0x3d464b7a	0.048411824
79	0x3e019e7f	0.12658118
80	0x3db8dd43	0.09026577
81	0xbe7eff8e	-0.24902174
82	0xbd9f6614	-0.07783142
83	0xbeab43bc	-0.33450115
84	0xbe4d01de	-0.20020244
85	0xbe6cb833	-0.23117141
86	0xbeab4201	-0.33448794
87	0x3e592bb0	0.21208072
88	0xbe85b945	-0.26117912
89	0xbcf192f4	-0.029489018
90	0xbda82090	-0.08209336
91	0xbe49145d	-0.19636674
92	0x3e1469de	0.1449351
93	0x3d37b682	0.044851787
94	0x3ded2a30	0.11580312
95	0xbeaae285	-0.33375946
96	0x3d34c82c	0.04413621
97	0x3d2da166	0.04239025
98	0x3e6dfce8	0.23241007
99	0xbeadfb3b	-0.33980736
100	0xbead3370	-0.33828306
101	0x3d15ae8b	0.03654341
102	0x3a7f7a2a	0.0009745682
103	0xbbf8d100	-0.007593274
104	0x3c334765	0.010942315
105	0xbd9b60cc	-0.07586822
106	0x3cfab59e	0.03060418
107	0x3e80a456	0.25125378
108	0xbe5bba00	-0.21457672
109	0x3e0368a8	0.12832892
110	0x3db6d1cf	0.089267366
111	0x3a9c52b0	0.0011926498
112	0xbd8e5e83	-0.069516204
113	0x3d9b879c	0.07594225
114	0xbeebe378	-0.46071982
115	0xbd9018cf	-0.07035982
116	0xbeebb303	-0.46035013
117	0x3da33c9c	0.07970545
118	0xbd3d7559	-0.04625449
119	0xbe1b53d3	-0.15168695
120	0xbec54721	-0.3853083
121	0x3e61b446	0.22041425
122	0xba0be6b5	-0.0005336807
123	0xbcd1fea3	-0.025634116
124	0xbe1b2c25	-0.15153559
125	0x3df0d330	0.11759031
126	0x3e2dc836	0.16970906
127	0x3df5c2ef	0.12000071
128	0x3d80012d	0.06250224
129	0xbbfd4f7b	-0.007730422
130	0x3c8ac117	0.016937776
131	0xbe01585c	-0.12631363
132	0xbda0ba7e	-0.078480706
133	0x3dafa96e	0.08577238
134	0xbd1f259e	-0.038854234
135	0xbe5aa88c	-0.21353358
136	0xbeae9d3e	-0.3410434
137	0x3e2ab0e0	0.16669035
138	0xbd91bc27	-0.07115965
139	0x3e909822	0.28241068
140	0xbd89bb07	-0.06725126
141	0xbdd4b052	-0.10385193
142	0xbd8199e2	-0.06328179
143	0xbba932cd	-0.0051635266
144	0xbe84ab4c	-0.2591194
145	0xbea34726	-0.3189022
146	0x3cd27c9b	0.025694182
147	0x3cf01080	0.029304743
148	0xbe600e55	-0.21880467
149	0xbbe4e1af	-0.0069849114
150	0xbf0bb39a	-0.54570925
151	0xbeec91c8	-0.46204972
152	0x3c962477	0.018327935
153	0x3e5495c3	0.20760255
154	0xbc726e05	-0.0147967385
155	0xbedc5643	-0.43034562
156	0x3e1f43b7	0.15553175
157	0x3bb3e4fc	0.0054899435
158	0xbc8cfabc	-0.017209403
159	0xbf1613bf	-0.5862388
160	0x3e40f6d6	0.1884416
161	0x3e94f997	0.29096672
162	0xbe9b852f	-0.3037505
163	0xbae0e7bc	-0.0017158906
164	0x3d25f9be	0.040521376
165	0x3e5e58ab	0.21713512
166	0x3d8e8d76	0.06960575
167	0x3d13b9ff	0.03606605
168	0x3e48a2e4	0.19593388
169	0xbf701e60	-0.9379635
170	0x3e3a1c5a	0.18174878
171	0xbef54b21	-0.4790888
172	0x3e712469	0.23549046
173	0xbe8478d6	-0.2587344
174	0xbefedec4	-0.49779332
175	0xbf3ab600	-0.7293396
176	0x3d7fdaf1	0.06246466
177	0x3e02e454	0.12782413
178	0xbc1b8dd3	-0.009494263
179	0xbde810eb	-0.11331352
180	0xbd9d0b01	-0.076681145
181	0x3d6fa80a	0.058509864
182	0xbdc6b9a7	-0.09703379
183	0x3ee84a74	0.45369303
184	0x3db59fca	0.08868368
185	0xbccfe5bd	-0.025378102
186	0x3e6b2aa8	0.22965491
187	0x3eab19a9	0.33418015
188	0xbdcc7be2	-0.09984566
189	0xbd972928	-0.07380897
190	0x3dcc72be	0.09982823
191	0x3e19b912	0.15012005
192	0x3dd95d57	0.10613506
193	0x3e3f1fda	0.18664494
194	0xbbab4d5b	-0.0052277273
195	0x3e90c93b	0.28278527
196	0xbee355ac	-0.444013
197	0xbdb0ba81	-0.08629323
198	0x3e3c80a7	0.18408452
199	0x3e4129c0	0.18863583
200	0x3d257952	0.040398903
201	0xbcf0ff66	-0.029418658
202	0x3cc52d63	0.024069494
203	0x3ccdf941	0.025143268
204	0x3e585d11	0.21129252
205	0x3cfa8e7d	0.030585522
206	0xbee550e8	-0.4478829
207	0x3e11fd82	0.14256862
208	0xbeb6feb2	-0.35741192
209	0x3e64b93b	0.22336285
210	0x3e577136	0.2103928
211	0x3e1753da	0.1477808
212	0x3d062c26	0.032756947
213	0x3e0bc85a	0.13650647
214	0x3d8d19ed	0.068897106
215	0x3c148872	0.009065734
216	0xbe190db0	-0.14946628
217	0x3e642f22	0.22283605
218	0x3dcb4324	0.099249154
219	0x3de8b0a3	0.11361816
220	0xbe8aaf47	-0.2708685
221	0x3d053655	0.03252252
222	0x3e158ada	0.14603749
223	0x3dcde54a	0.10053499
224	0x39dc9809	0.00042074945
225	0x3c1e78d8	0.009672366
226	0xbec3c3ab	-0.3823522
227	0xbdc3a6a0	-0.095532656
228	0xbe58cdf6	-0.21172318
229	0xbdba0486	-0.09082894
230	0x3cc9d175	0.02463601
231	0x3b985868	0.0046492107
232	0xbec42bb1	-0.38314584
233	0x3e1a8702	0.15090564
234	0xbdf86d42	-0.12130214
235	0xbe60b3f2	-0.21943644
236	0xbd4822e6	-0.048861407
237	0x3cdc9311	0.026925595
238	0x3e544236	0.20728382
239	0x3deb22f3	0.114812754
240	0xbc2adb18	-0.010428213
241	0xbda0ac0b	-0.078453146
242	0x3d81ed3e	0.063440785
243	0xbceaddf0	-0.028670281
244	0xbe9bdc31	-0.3044143
245	0xbd7394ce	-0.059468083
246	0xbf18939a	-0.5960022
247	0x3d4dfbc8	0.050288945
248	0xbbf0a480	-0.0073438287
249	0xbeed934b	-0.46401438
250	0xbcd41865	-0.025890538
251	0x3c107a29	0.008818188
252	0x3ce26020	0.027633727
253	0xbd633ff2	-0.055480905
254	0x3d4d1b3f	0.050074812
255	0xbf7a2d70	-0.9772558

shared.0.bias f4 [64]
0	0xbc834394	-0.016023435
1	0x3e70eb31	0.23527218
2	0x3e6b2c1a	0.22966042
3	0x3e74b09a	0.23895493
4	0x3e9f2e81	0.31090167
5	0x3e2e6494	0.17030555
6	0x3dc13d44	0.094355136
7	0xbb46489e	-0.0030255686
8	0x3e6fdf7d	0.23425098
9	0x3ea96033	0.33081207
10	0x3cf0d0dd	0.029396469
11	0x3e4750cf	0.1946442
12	0x3ea7d8d3	0.3278261
13	0xbe358521	-0.17726566
14	0x3dc4d29f	0.09610485
15	0x3e9b9b1e	0.30391783
16	0x3e911ffa	0.2834471
17	0x3e8f5832	0.27996975
18	0x3e430089	0.19043173
19	0x3e806511	0.25077108
20	0x3e35dba8	0.17759573
21	0x3e8f76c6	0.28020304
22	0x3e6a3e0b	0.2287523
23	0x3e27295b	0.1632437
24	0x3e68e109	0.22742094
25	0x3e3a0ab6	0.18168148
26	0x3e06751e	0.13130614
27	0x3e020754	0.12698108
28	0x3e0019d9	0.1250986
29	0x3e9a444c	0.3013023
30	0x3d839fd1	0.06426967
31	0x3de1b547	0.11020904
32	0x3e49639f	0.19666909
33	0x3e69f06c	0.2284562
34	0x3e95d256	0.29262036
35	0x3e9c7f3f	0.3056583
36	0x3daeea69	0.08540804
37	0x3e8600e7	0.26172563
38	0x3e00d575	0.12581427
39	0x3e782727	0.24233685
40	0x3e7ce5cc	0.24697036
41	0x3d4610d8	0.048355907
42	0x3e133641	0.14376165
43	0x3db900bc	0.09033343
44	0x3e371672	0.17879656
45	0x3eb1cfe6	0.34728926
46	0x3c4a3f61	0.012344212
47	0x3e6b71bc	0.22992605
48	0x3e95a461	0.29226974
49	0x3e87a2d9	0.2649143
50	0x3e32aa96	0.17447886
51	0x3d2e2fbf	0.042526003
52	0x3e71e993	0.23624258
53	0x3ea6aad1	0.32552198
54	0x3d95837b	0.073004685
55	0x3de700b4	0.11279431
56	0x3e522b1c	0.20524257
57	0xbd2ed0f1	-0.04267973
58	0x3e9b9ab6	0.30391473
59	0xbe053440	-0.13008213
60	0x3e733b7a	0.23753157
61	0x3e4c0508	0.19923794
62	0x3e6d67a9	0.23184074
63	0x3e1c7d2f	0.15282129

shared.2.weight f4 [64, 64]
0	0xbd9db13d	-0.07699821
1	0x3ea693f6	0.3253476
2	0xbd06e72e	-0.032935314
3	0x3d4a34d3	0.049366783
4	0xbefeb14c	-0.49744642
5	0x3e104c3f	0.14091586
6	0x3e9d30b7	0.3070123
7	0x3eadfdec	0.3398279
8	0x3c19efee	0.009395583
9	0x3e06ae29	0.13152374
10	0xbead9c9c	-0.33908546
11	0x3d900d3f	0.070337765
12	0xbea76822	-0.32696635
13	0xbdb1dfa8	-0.08685237
14	0x3e3ae67f	0.1825199
15	0x3dd06db4	0.10177174
16	0x3e347b8a	0.17625251
17	0x3e37c438	0.17945945
18	0xbd14094f	-0.03614169
19	0xbcd2aa32	-0.025715921
20	0x3e59bead	0.21264143
21	0xbf02b124	-0.51051545
22	0x3e959ad3	0.29219684
23	0xbc900883	-0.017582184
24	0xbd16e86e	-0.036842756
25	0x3dcc7f3f	0.09985208
26	0x3d5e8103	0.054322254
27	0xbd7fc5c8	-0.06244448
28	0xbe671ab7	-0.22568785
29	0xbddc2336	-0.107489035
30	0xbe4560eb	-0.19275253
31	0xbd7c6538	-0.061619967
32	0xbcd049f4	-0.025425889
33	0xbdd9978d	-0.10624609
34	0x3e935df9	0.28782633
35	0x3e247d5d	0.16063447
36	0xbcc53c7d	-0.024076695
37	0x3e6b89a0	0.23001719
38	0xbd26f883	-0.040764343
39	0xbe83f023	-0.25769147
40	0x3e76c1b1	0.24097325
41	0x3eb13564	0.34611046
42	0xbf3b36be	-0.73130405
43	0xbccb956a	-0.02485152
44	0x3d4e047b	0.05029724
45	0x3eae1b03	0.34004983
46	0x3b828ba3	0.003983931
47	0x3e9ba513	0.3039938
48	0x3e704667	0.23464356
49	0x3eaea6d7	0.34111664
50	0x3e22d877	0.15902887
51	0x3daa3553	0.08310952
52	0x3dc2ef32	0.09518279
53	0x3ea894d0	0.32926035
54	0x3f485d12	0.78267014
55	0xbc5ecf1a	-0.013599182
56	0x3dea73cd	0.114478685
57	0x3e0f3ad7	0.1398729
58	0x3e6a669f	0.2289071
59	0xbdd68175	-0.10473911
60	0x3eaa24f8	0.3323133
61	0x3d9fc230	0.0780071
62	0x3cab080a	0.020877857
63	0x3d7c4a37	0.061594214
64	0x3defb6c6	0.11704783
65	0x3e987db8	0.29783416
66	0x3ea10fc5	0.31457344
67	0x3e63c72d	0.22243948
68	0xbf005c95	-0.5014127
69	0x3e000267	0.12500916
70	0x3d86e58c	0.06586751
71	0x3ebd67db	0.36993298
72	0xbe075f92	-0.13220051
73	0x3dcacd90	0.09902489
74	0xbc308dbd	-0.010775981
75	0x3dd8a6fa	0.10578723
76	0xbc8033e3	-0.015649742
77	0xbe1fcc91	-0.1560538
78	0x3e69bdd2	0.22826317
79	0x3e5f96a7	0.21834813
80	0x3d945f4d	0.0724474
81	0x3f052476	0.5200876
82	0x3dd38559	0.103281684
83	0x3d10a4a5	0.035313267
84	0x3d26bf40	0.040709734
85	0xbeffab3b	-0.49935326
86	0x3dcbc1bb	0.099490605
87	0x3e18952f	0.14900659
88	0x3df5a028	0.11993438
89	0x3e61de54	0.22057468
90	0xbdedc7ae	-0.116103515
91	0x3d5dee6d	0.05418246
92	0xbe019c76	-0.12657341
93	0xbd634ca9	-0.05549303
94	0xbdbaa5d7	-0.09113663
95	0x3e0d63f8	0.13807666
96	0x3df34633	0.11878624
97	0x3d2bc41f	0.041935083
98	0xbcacdea3	-0.021102255
99	0xbc6b89cf	-0.014376118
100	0xbda32ade	-0.07967161
101	0x3e9e97cc	0.30975187
102	0xbe7e4ce3	-0.24834017
103	0xbe9c9f38	-0.30590224
104	0x3dbb83a6	0.09155969
105	0x3e41e4e2	0.18934968
106	0xbe8f4ddc	-0.2798909
107	0xbe1235ad	-0.14278288
108	0xbe20bc85	-0.15696914
109	0x3e13ed52	0.14446
110	0xbdcc86c5	-0.09986643
111	0x3e6a4bec	0.22880524
112	0x3c2170db	0.009853567
113	0x3e31ea07	0.1737443
114	0x3de69859	0.11259527
115	0x3e073b51	0.13206221
116	0x3d3c5e98	0.04598865
117	0x3eca15e6	0.39469832
118	0x3f4ef4c4	0.8084223
119	0xbd1db5ee	-0.03850358
120	0x3e148a2d	0.14505835
121	0xbe3429a9	-0.17594017
122	0xbd61c35f	-0.05511796
123	0xbe8d72b5	-0.27626577
124	0xbd9877ed	-0.07444749
125	0xbd651fea	-0.05593864
126	0x3e5d8af5	0.21635039
127	0x3ded8e5b	0.11599418
128	0xbb541ecd	-0.0032366992
129	0x3edbc188	0.4292109
130	0x3e0da320	0.13831758
131	0xb93c799e	-0.00017974383
132	0xbf57d26d	-0.8430546
133	0x3cbd4596	0.02310447
134	0x3e988544	0.29789174
135	0x3eaf88ba	0.34284002
136	0x3e154f53	0.14581041
137	0x3e944068	0.28955388
138	0xbe0391cb	-0.12848584
139	0x3d422c86	0.047405742
140	0xbe4c6205	-0.19959266
141	0xbdf954d3	-0.12174382
142	0x3e2c52cf	0.16828464
143	0x3e675810	0.22592187
144	0x3e381152	0.17975357
145	0x3ef66df9	0.48130777
146	0xbe196ced	-0.14982958
147	0xbd48afa2	-0.04899562
148	0x3eb59aa0	0.35469532
149	0xbef2d023	-0.4742442
150	0x3e8db4f7	0.27677128
151	0x3e107623	0.14107566
152	0x3e5d5b63	0.21616893
153	0x3de5f987	0.11229234
154	0xbe00c77f	-0.12576102
155	0x3e6d7753	0.2319005
156	0x3d7e7ec5	0.062132616
157	0x3c1871b8	0.009304456
158	0xbe73495a	-0.2375845
159	0x3e123c4d	0.14280815
160	0x3e9a58c0	0.30145836
161	0x3e90150f	0.28141066
162	0x3db0594b	0.08610781
163	0x3e64a1ba	0.22327319
164	0xbd43d692	-0.047812052
165	0x3ea7b06d	0.3275179
166	0xbc82ff86	-0.015990984
167	0xbd85f887	-0.065415435
168	0x3d6551be	0.05598616
169	0x3eb2505e	0.3482694
170	0xbf40f76b	-0.7537753
171	0xbe8d9d6d	-0.2765917
172	0x3c82355e	0.015894588
173	0x3eb987ef	0.36236522
174	0x3e0cb72b	0.13741748
175	0x3ea54e80	0.32286453
176	0x3d3d281b	0.046180826
177	0x3da9c7cb	0.082900606
178	0xbcfd8444	-0.030946858
179	0xbcc552ef	-0.024087397
180	0x3ed008d2	0.4063173
181	0x3e1b043b	0.15138333
182	0x3f8934d5	1.0719248
183	0x3e5f70a0	0.21820307
184	0xbc822d75	-0.015890816
185	0xbe8fa6cf	-0.28056952
186	0x3e427524	0.18989998
187	0xbea5fcf4	-0.3241955
188	0x3e9855b7	0.29752895
189	0xbe3f5a4f	-0.18686794
190	0x3e74fcc9	0.23924555
191	0xbd24163c	-0.040060267
192	0x3d3de0a6	0.04635682
193	0xbe4ef70d	-0.2021143
194	0xbf324ace	-0.6964539
195	0xbe5488a8	-0.20755255
196	0x3cfe4927	0.031040741
197	0xbebd47ae	-0.3696875
198	0xbede8e90	-0.43468142
199	0xbea37de3	-0.3193198
200	0x3e2488d4	0.16067821
201	0xbef4e27f	-0.47829053
202	0x3c77b1e2	0.015118094
203	0xbe99d194	-0.30042708
204	0x3f0a015e	0.53908336
205	0x3e425422	0.18977407
206	0x3f1b41d7	0.6064734
207	0xbed89921	-0.42304328
208	0xbe0eaa9f	-0.13932274
209	0xbed0e2ca	-0.40798026
210	0xbeecf6f1	-0.4628215
211	0xbc839751	-0.016063364
212	0x3e8d008d	0.27539483
213	0x3ec68068	0.3876984
214	0xbedeb7bc	-0.43499553
215	0xbdf59bc3	-0.119926
216	0x3e82534f	0.25454184
217	0xbec5f9c6	-0.38667125
218	0xbd471664	-0.048605338
219	0xbf3a7aaa	-0.7284342
220	0x3f467029	0.7751489
221	0x3ebe8291	0.3720899
222	0x3f17c4fd	0.59284955
223	0xbf13e1a9	-0.57766205
224	0x3ea0bd43	0.31394395
225	0xbe81893e	-0.2530002
226	0xbecb9df7	-0.39768955
227	0xbf3e816a	-0.7441622
228	0xbf06790c	-0.5252845
229	0xbf49cfd6	-0.7883276
230	0x3ef29c93	0.47385082
231	0x3f3b7c0d	0.7323616
232	0x3eb25ffa	0.3483885
233	0xbf903ac8	-1.1267939
234	0x3fa62f76	1.2983234
235	0x3f293d3a	0.6610905
236	0xbf09f520	-0.53889656
237	0xbf78be20	-0.9716511
238	0xbeddccfa	-0.43320447
239	0x3eda2fc5	0.4261457
240	0xbe9b043b	-0.30276665
241	0xbd2d6ec6	-0.04234197
242	0x3e2fc337	0.17164312
243	0xbe3c4f2b	-0.18389575
244	0x3df3d59f	0.11905979
245	0xbd88ded6	-0.066831276
246	0xbf5e4a9a	-0.8683258
247	0xbea129b0	-0.31477118
248	0xbe7d1bbe	-0.24717614
249	0x3e4c7499	0.19966353
250	0xbdcdac37	-0.10042613
251	0x3e58503f	0.21124361
252	0xbdf2088b	-0.11818036
253	0x3f1e5654	0.61850476
254	0xbdcb5831	-0.099289306
255	0x3edfc3ea	0.43704158

shared.2.bias f4 [64]
0	0x3e664c53	0.22490053
1	0x3e82cddb	0.2554768
2	0x3e88d5a3	0.26725492
3	0xbd8001d3	-0.06250348
4	0xbcd07e24	-0.025450774
5	0x3e6b6c86	0.22990617
6	0xbd2f1494	-0.042744234
7	0x3e68f861	0.22750999
8	0xbcdd754e	-0.027033474
9	0x3e8613bd	0.26186934
10	0x00000000	0.0
11	0x3e0aa321	0.13538791
12	0x3e817cfd	0.2529067
13	0x3e8087de	0.25103658
14	0x3e585fc6	0.21130285
15	0xbba786ca	-0.0051125037
16	0x3e545bcd	0.20738144
17	0x3d854410	0.065071225
18	0x3e55fded	0.20897646
19	0x3e40bd73	0.18822269
20	0x3e866318	0.26247478
21	0x3e0680bb	0.13135044
22	0xbcc56aff	-0.024098871
23	0x3d797461	0.060902003
24	0x3e81681e	0.25274748
25	0x3e6421cb	0.22278516
26	0x3e880ae2	0.26570803
27	0x3e61ba5a	0.22043744
28	0x3e707cb9	0.23485078
29	0x3e2ad18d	0.166815
30	0x3e75ed37	0.24016272
31	0x3e851bae	0.2599768
32	0x3e35e534	0.17763215
33	0xbc9835f3	-0.018580412
34	0x3e4d60b8	0.20056427
35	0x3e5c9462	0.21540979
36	0x3e8e01fc	0.2773589
37	0xbcf796ab	-0.030223211
38	0x3e69b888	0.228243
39	0x3e847338	0.25869155
40	0xb8f2da6a	-0.00011580142
41	0xbc989086	-0.018623602
42	0x3d41f1f5	0.04734989
43	0x3e608662	0.21926263
44	0xbd00507e	-0.031326763
45	0x3e8c6a33	0.27424774
46	0xbbcd7976	-0.006270583
47	0x3d12a10e	0.035798125
48	0x3e6ed896	0.23324808
49	0xbc1bd457	-0.009511075
50	0x3e52489f	0.20535515
51	0x3ea90fda	0.33019906
52	0x3e616664	0.22011715
53	0xbcde35a3	-0.027125185
54	0x3e58dc40	0.21177769
55	0x3e67ec97	0.22648846
56	0x3dde0cf7	0.108423166
57	0xbe0183a3	-0.12647872
58	0x3d46829e	0.04846441
59	0xbcb475ba	-0.022028793
60	0xbe5f953c	-0.21834272
61	0x3e6e0d09	0.2324716
62	0x3ea49bcd	0.32150117
63	0x3ea55405	0.32290664

actor.0.weight f4 [32, 64]
0	0x3c225b11	0.009909407
1	0x3d63443e	0.055485003
2	0x3e062a57	0.13102089
3	0x3e6b0037	0.229493
4	0xbdcbf438	-0.099586904
5	0xbd238ac4	-0.03992726
6	0xbc8cc87d	-0.017185444
7	0x3e489228	0.19587004
8	0x3d8df594	0.06931606
9	0x3e7930d1	0.24335028
10	0xbe3546ac	-0.1770274
11	0xbeeac25a	-0.45851403
12	0x3ba2fe76	0.0049741818
13	0xbd516f50	-0.051131546
14	0xbe08e070	-0.13366866
15	0x3e1f1038	0.1553353
16	0xbdabfa6c	-0.083973736
17	0x3ee98307	0.45607778
18	0xbd8f0033	-0.0698246
19	0xbe754fc3	-0.23956208
20	0xbe13e5ec	-0.14443177
21	0xbd8c8fb0	-0.06863344
22	0x3cb43fba	0.022003043
23	0xbe4234c7	-0.18965445
24	0x3e3367d5	0.17520078
25	0xbcacc868	-0.021091655
26	0xbd611d32	-0.054959483
27	0xbb8afdf9	-0.0042417017
28	0x3d902696	0.0703861
29	0x3ec6d9e1	0.38838103
30	0xbe1d6568	-0.15370715
31	0x3e6139c2	0.21994689
32	0x3e57c3e5	0.21070822
33	0xbd5b5e0b	-0.053556483
34	0x3e523234	0.20526963
35	0xbde9f781	-0.11424161
36	0x3d162e36	0.036665164
37	0x3d422c14	0.047405317
38	0xbd41982e	-0.04726427
39	0x3dc09209	0.09402854
40	0x3d42df67	0.047576334
41	0x3e614624	0.21999413
42	0xbe22e675	-0.15908225
43	0x3e06562d	0.13118811
44	0xbdc3853d	-0.095468976
45	0xbdb01d1e	-0.08599304
46	0xbda5465b	-0.0807006
47	0xbd0c7a9f	-0.034296628
48	0x3e8a6f68	0.2703812
49	0xbd887234	-0.066624075
50	0xbe55af75	-0.20867713
51	0x3e19ddcd	0.15026017
52	0x3d287dd5	0.041135628
53	0xbc7ed2a0	-0.015553147
54	0x3dd06053	0.101746224
55	0xbe73e62f	-0.23818277
56	0xbd3badf0	-0.045820177
57	0x3f088e9b	0.533426
58	0xbe569b39	-0.2095765
59	0x3d95be31	0.07311667
60	0x3df49375	0.11942188
61	0x3b5bd1b1	0.0033541734
62	0xbec4fb78	-0.38473105
63	0xbd6949d5	-0.056955177
64	0x3c9c5f31	0.01908836
65	0x3e1d616d	0.15369196
66	0x3e6b1e40	0.22960758
67	0xbe930e90	-0.28722048
68	0x3dccb0dd	0.099946715
69	0xbe422a70	-0.18961501
70	0x3d74988f	0.059715804
71	0xbdd50231	-0.104008086
72	0xbd8a3216	-0.067478344
73	0xbded87a3	-0.11598136
74	0x3dae8dfc	0.08523175
75	0x3e3ec31a	0.18629113
76	0xbeaafbdb	-0.33395275
77	0xbe68c252	-0.22730377
78	0xbd81e4fd	-0.06342504
79	0x3e5edcf0	0.21763968
80	0x3e7900de	0.24316737
81	0xbe7e9ca8	-0.24864447
82	0x3dd87bea	0.1057051
83	0x3de5ff8c	0.11230382
84	0xbe06b0a3	-0.13153319
85	0x3e802cac	0.25034082
86	0xbe2d2dc1	-0.16911985
87	0x3e74d0d6	0.2390779
88	0x3c9e160c	0.019297622
89	0xbec977a1	-0.39349082
90	0x3e3c75d0	0.18404317
91	0x3db38b41	0.08766795
92	0xbd94f26b	-0.072728
93	0xbe0dfa20	-0.13864946
94	0x3d1a6598	0.037694544
95	0xbe298a7d	-0.16556735
96	0x3cfaf161	0.030632677
97	0xbd0bc110	-0.034119666
98	0x393deb37	0.00018112069
99	0x3ded0481	0.11573125
100	0x3cc592ba	0.024117816
101	0x3dfad1e0	0.12247062
102	0x3d93f30a	0.072240904
103	0x3e01d7d7	0.12679993
104	0xbdab54a7	-0.083657555
105	0x3d1660e4	0.036713496
106	0x3d43f540	0.04784131
107	0x3da4ef78	0.080534875
108	0x3d87b985	0.06627182
109	0x3e89aacf	0.2688813
110	0xbec4180f	-0.38299605
111	0xbd96d144	-0.07364133
112	0x3daafa62	0.08348538
113	0x3e256390	0.16151261
114	0x3dd2f9e6	0.103015706
115	0x3de36158	0.11102551
116	0x3ea26359	0.3171642
117	0xbc813b3e	-0.01577532
118	0x3bf5363d	0.0074832723
119	0x3e9da84e	0.3079247
120	0x3e3f6671	0.18691422
121	0xbf6fd6f7	-0.93687385
122	0x3dab4e08	0.08364493
123	0xbd99187a	-0.07475372
124	0xbef9e0ca	-0.48804313
125	0xbe042e91	-0.12908389
126	0x3d9a7c91	0.075432904
127	0x3e051910	0.12997842
128	0x3cee84bf	0.029116033
129	0xbd1b6fb5	-0.03794833
130	0xbe45da8b	-0.19321649
131	0xbdaae31f	-0.08344101
132	0x3dab5972	0.0836667
133	0x3a999008	0.0011715898
134	0x3cbd8faf	0.023139803
135	0x3c6d9808	0.014501579
136	0xbd3560f9	-0.044281933
137	0xbb051ae1	-0.002031021
138	0x3d4e9c9e	0.05044233
139	0xbda1dee8	-0.07903844
140	0xbd061d57	-0.032742824
141	0xbe607ceb	-0.21922652
142	0x3e69ca38	0.22831047
143	0xbc935641	-0.017985465
144	0x3e1d7c11	0.15379359
145	0xbd772acd	-0.060343552
146	0x3c77f1f2	0.015133368
147	0x3d02948c	0.031879947
148	0xbe36cabe	-0.17850778
149	0xbcde4bf0	-0.02713582
150	0x3dfbf504	0.123025924
151	0xbd4fdfa7	-0.0507504
152	0x3e31a8c6	0.17349538
153	0x3cccfc9a	0.025022794
154	0xbe2d5a5b	-0.16928999
155	0x3d2e4548	0.04254654
156	0x3e95f69a	0.29289705
157	0xbe802345	-0.2502691
158	0x3c4af927	0.012388504
159	0xbe540d32	-0.20708159
160	0xbd9ef0ab	-0.077607475
161	0xbe1981f6	-0.14990982
162	0xbd7064d1	-0.058689896
163	0xbe7e2862	-0.24820092
164	0x3e23987c	0.15976137
165	0x3e810acf	0.2520356
166	0xbe06f98c	-0.13181132
167	0xbdb1f01b	-0.086883746
168	0xbc561b18	-0.013067983
169	0x3d8cad06	0.06868939
170	0x3c8e8d3c	0.01740133
171	0xbe6d1871	-0.23153855
172	0x3e8039a0	0.25043964
173	0xbd35ce64	-0.044386283
174	0x3df3e18a	0.119082525
175	0x3c54069f	0.012941032
176	0x3dd2fe97	0.103024654
177	0xbe15ab91	-0.14616229
178	0xbd4ac78e	-0.049506716
179	0x3b50117d	0.0031748705
180	0xbdf743cc	-0.12073478
181	0xbc0b641d	-0.008507756
182	0xbd635f0d	-0.05551057
183	0x3daa4692	0.083142415
184	0x3dbacd06	0.09121136
185	0x3e54444c	0.20729178
186	0xbdbdb431	-0.092628844
187	0x3e148ed4	0.1450761
188	0x3c435787	0.011922724
189	0xbdb9ad20	-0.09066224
190	0x3dc6ad3b	0.0970101
191	0x3da5e0e8	0.08099538
192	0x3e79edf5	0.2440718
193	0x3e4bf338	0.19917
194	0x3d88cc58	0.066796005
195	0xbe0e8431	-0.13917615
196	0x3ce2ba54	0.027676739
197	0x3d3f77d0	0.04674512
198	0x3e61c63d	0.22048278
199	0xbe6497fc	-0.22323602
200	0x3ce5709e	0.028007802
201	0x3d6cf610	0.05785185
202	0xbd10a8d1	-0.035317246
203	0xbdceacac	-0.10091528
204	0xbd3d40a7	-0.046204235
205	0xbe2c1e1a	-0.16808358
206	0xbcb64263	-0.022248453
207	0x3d5a5307	0.053301837
208	0x3c37fb6a	0.011229375
209	0xbd2cb690	-0.042166293
210	0x3df79a59	0.12089986
211	0x3dde6a85	0.10860161
212	0xbd916b6d	-0.07100568
213	0xbe0a6399	-0.13514556
214	0xbe6c1f0c	-0.23058718
215	0xbe479e90	-0.1949408
216	0xbded29bb	-0.11580225
217	0x3e218d24	0.15776497
218	0xbe02e306	-0.12781915
219	0x3e131171	0.14362122
220	0x3e483c81	0.1955433
221	0x3e1968cd	0.14981385
222	0xbd781df9	-0.06057546
223	0xbc709cb3	-0.0146857975
224	0x3d5232f1	0.051318113
225	0x3e427fb3	0.18994026
226	0x3e0b415c	0.13599151
227	0xbdd0e810	-0.102005124
228	0x3d16eb9c	0.03684579
229	0xbe0c67e7	-0.1371151
230	0xbe290257	-0.16504799
231	0xbe25fbfa	-0.16209403
232	0xbdc73a49	-0.09727914
233	0xbd8269e1	-0.06367851
234	0xbdfe0569	-0.12403376
235	0xba8678bc	-0.001025937
236	0x3da764f9	0.08173556
237	0xbdeeb70b	-0.116560064
238	0x3e6df74e	0.2323887
239	0x3e3ec40a	0.1862947
240	0xbd5ef82f	-0.054435905
241	0x3ddae44c	0.106880754
242	0xbe5788d0	-0.21048284
243	0xbe79f305	-0.24409111
244	0x3a8b97f1	0.001065014
245	0xbc37b630	-0.0112128705
246	0xbdcd9f55	-0.10040156
247	0xbdc0553f	-0.093912594
248	0xbe80c154	-0.25147498
249	0xbd9bf583	-0.07615187
250	0x3e31465e	0.17311999
251	0xbcd4cb45	-0.025975833
252	0xbd2326b0	-0.039831817
253	0xbd889f22	-0.06670977
254	0x3b06acd7	0.0020549798
255	0xbe170cb0	-0.14750934

actor.0.bias f4 [32]
0	0x3d641481	0.055683617
1	0xbcc83470	-0.024439067
2	0xbccc1303	-0.02491141
3	0xbccb8bd2	-0.024846945
4	0xbcd155e4	-0.025553651
5	0xbbebfb19	-0.007201564
6	0xbc0c17a1	-0.008550555
7	0xbb46e8a3	-0.0030351065
8	0xbae42469	-0.0017405871
9	0xbcb8d5b2	-0.022562835
10	0xbcbc2691	-0.022967609
11	0x3bea3b5e	0.0071481904
12	0x3d6b46eb	0.05744068
13	0xbdaf742f	-0.08567082
14	0x3d0a8542	0.03381849
15	0xbd0b6439	-0.034031127
16	0xbc93854e	-0.0180079
17	0x3d5cf75a	0.05394683
18	0xbd83b03e	-0.064301
19	0x3ceaabfb	0.02864646
20	0x3da05163	0.07828023
21	0xbcfcb171	-0.03084633
22	0xbd5bd955	-0.05367406
23	0xbd7d2ce2	-0.06181038
24	0xbd46cb29	-0.048533592
25	0xbc69a274	-0.014259923
26	0x3c10d667	0.00884018
27	0xbdb4226e	-0.087956294
28	0x3da7ce89	0.0819369
29	0x3b8df3f9	0.0043320623
30	0xbc700d4f	-0.0146516105
31	0x3d9518a8	0.072800934

actor.2.weight f4 [2, 32]
0	0x3da75dda	0.08172198
1	0xbf2da296	-0.6782621
2	0x3c698539	0.014252954
3	0xbd759687	-0.059958007
4	0xbdbb8ce5	-0.09157733
5	0x3e9541ac	0.29151666
6	0xbf8a4c53	-1.0804542
7	0x3e080634	0.13283616
8	0x3e315896	0.17318949
9	0xbde207e1	-0.11036659
10	0x3e6e1f6b	0.23254173
11	0x3d48b534	0.049000934
12	0x3edaaedc	0.42711532
13	0xbe6ea541	-0.23305227
14	0xbda92c69	-0.08260424
15	0xbf3d2320	-0.7388172
16	0x3eaa6a22	0.33284098
17	0x3dff85ac	0.12476668
18	0xbf1948be	-0.5987662
19	0x3db55793	0.08854594
20	0x3f1ae350	0.605031
21	0x3d49e63d	0.049291838
22	0xbf8628e5	-1.048123
23	0xbf63dbac	-0.8900707
24	0xbea39280	-0.31947708
25	0xbf48a895	-0.78382236
26	0xbd93c913	-0.07216086
27	0xbe8e46be	-0.27788347
28	0x3eb32108	0.34986138
29	0x3c6aebad	0.014338416
30	0xbd425d31	-0.047452156
31	0x3eaf6275	0.34254804
32	0xbe8be21e	-0.2732095
33	0x3f02b048	0.51050234
34	0x3c7beea9	0.015376725
35	0xbce70195	-0.028198997
36	0x3e61f61c	0.2206654
37	0xbd9b7d57	-0.07592266
38	0x3f21197d	0.6292952
39	0x3eae3b09	0.34029415
40	0x3d676d61	0.056500796
41	0xbe2fdebb	-0.17174809
42	0x3e0e6d02	0.1390877
43	0x3e161299	0.14655532
44	0xbe5b72e7	-0.2143055
45	0x3e90315a	0.28162652
46	0xbebb06bf	-0.36528584
47	0x3f5a16ed	0.8519123
48	0xbee3cf39	-0.44494036
49	0xbecf2a64	-0.4046203
50	0x3f12e070	0.57373714
51	0xbe1659ca	-0.1468269
52	0xbed99dfd	-0.42503348
53	0xbdab6f6a	-0.0837086
54	0x3f100fce	0.56274116
55	0x3f26d025	0.65161353
56	0x3f0ec137	0.5576357
57	0x3f1daff5	0.61596614
58	0xbeacb427	-0.33731195
59	0x3d86de4f	0.06585371
60	0xbe6df9ba	-0.23239794
61	0xbd46d426	-0.048542164
62	0xbe8a1546	-0.26969355
63	0xbe26de38	-0.16295707

actor.2.bias f4 [2]
0	0x3d9e8073	0.077393435
1	0xbd9e807b	-0.077393495

critic.0.weight f4 [32, 64]
0	0xbdfdaf00	-0.12386894
1	0x3d4ddeba	0.050261237
2	0x3db499b2	0.088183776
3	0xbe57f998	-0.21091306
4	0xbdb6417a	-0.088992074
5	0x3e21b461	0.15791465
6	0xbeabb6c9	-0.33537892
7	0xbd8f2a14	-0.06990448
8	0xbe087abb	-0.13328068
9	0xbd94b45c	-0.07260963
10	0xbd46144f	-0.04835921
11	0x3d66c399	0.05633888
12	0xbe2ba309	-0.16761412
13	0x3e59bb78	0.2126292
14	0x3d985c4c	0.07439479
15	0xbc57331a	-0.013134742
16	0xbdd6d54a	-0.104899004
17	0xbe208ca1	-0.15678646
18	0xbdc12dd5	-0.0943257
19	0xbdc172f9	-0.094457574
20	0x3de8fd50	0.113764405
21	0xbe2312ca	-0.15925136
22	0xbe857420	-0.2606516
23	0xbc8bced1	-0.017066391
24	0xbddf228e	-0.10895263
25	0xbd962efb	-0.073331796
26	0xbe8a8475	-0.27054182
27	0xbd74d4aa	-0.059773125
28	0x3d3003be	0.04297232
29	0x3d4a0e86	0.049330257
30	0xbdf8cf37	-0.12148898
31	0x3d9a4e10	0.075344205
32	0x3acffb18	0.0015867678
33	0x3decd715	0.11564461
34	0xbda84daa	-0.08217938
35	0x3e141af2	0.14463404
36	0x3b0030f1	0.0019560421
37	0xbd560bc4	-0.052257314
38	0x3d8735fd	0.06602094
39	0xbda68ceb	-0.08132347
40	0x3e170cfd	0.14751048
41	0x3d91ae26	0.07113294
42	0x3d2dd302	0.04243756
43	0xbc603550	-0.013684586
44	0x3e7ce4d6	0.24696669
45	0xbe0e3732	-0.13888243
46	0x3ca556de	0.020183023
47	0x3d616c0e	0.05503469
48	0x3e396e65	0.18108518
49	0xbd8e37a0	-0.069442034
50	0x3e52ea63	0.20597224
51	0xbe042957	-0.12906395
52	0xbe1e0681	-0.15432169
53	0x3da00038	0.07812542
54	0x3d0bd3ca	0.034137525
55	0x3dc9eb56	0.0985934
56	0x3db9029d	0.090337016
57	0xbd88373a	-0.06651159
58	0x3d0e5bd0	0.034755528
59	0x3ce49e8e	0.027907636
60	0x3e26ff23	0.16308264
61	0xbe4e3320	-0.2013669
62	0xbd9e1e2a	-0.07720597
63	0xbcfda95c	-0.030964546
64	0x3ec3ba12	0.38227898
65	0xbbdbc3e5	-0.006706702
66	0x3e9c1155	0.30481973
67	0xc018ff96	-2.3905997
68	0xbd732a52	-0.05936653
69	0x3e5f9e82	0.2183781
70	0xbd1f4502	-0.03888417
71	0x3dfb1928	0.122606575
72	0xbdf3f5c0	-0.119121075
73	0x3e952d30	0.29136038
74	0xbe330b9c	-0.17484897
75	0x3e3210f3	0.17389278
76	0x3e185f73	0.14880161
77	0x3ddc6f66	0.10763435
78	0x3d9e762d	0.07737384
79	0x3d746f9f	0.059676763
80	0x3e01fafe	0.12693402
81	0x3d811f93	0.063048504
82	0x3e1ac9ec	0.1511609
83	0x3dd95a52	0.1061293
84	0x3dcc5fdc	0.09979221
85	0x3e0a3889	0.13498129
86	0x3dcf8c28	0.101341546
87	0xbf903414	-1.1265893
88	0x3e21d6ad	0.15804549
89	0x3eb87387	0.3602564
90	0x3dd9ffa3	0.10644462
91	0xbd04b670	-0.03240055
92	0x3e303cef	0.17210744
93	0x3d965c8e	0.07341872
94	0x3e884e0f	0.26622054
95	0x3dec5b13	0.115408085
96	0x3e95f683	0.29289636
97	0x3d44b6fb	0.048026066
98	0x3bce2ad3	0.006291726
99	0x3e0085e9	0.12551083
100	0x3d46e9cf	0.04856282
101	0xc00f9e02	-2.244019
102	0x3e1e570d	0.15462895
103	0x3e8fbd15	0.28073946
104	0xbdf6e0c9	-0.12054593
105	0xbe623097	-0.22088848
106	0xbd4d2f35	-0.05009385
107	0x3ea29d5d	0.31760684
108	0x3e49dcc4	0.19713122
109	0xbe001956	-0.12509665
110	0x3f2bcc8f	0.67109007
111	0x3e913d29	0.28366974
112	0x3e7be0e9	0.24597515
113	0x3c9c5d56	0.019087475
114	0x3e717836	0.23581013
115	0x3e47a9f9	0.19498433
116	0x3e70038e	0.23438856
117	0xbe168b2b	-0.14701526
118	0xbcdf5497	-0.027262015
119	0x3d9df91d	0.0771353
120	0xbf829f85	-1.0204931
121	0xbe1d8460	-0.15382528
122	0x3d17efd9	0.03709397
123	0x3d84aa55	0.06477801
124	0xbf79fee5	-0.97654563
125	0xbdc99209	-0.09842307
126	0x3e81e293	0.25368175
127	0x3de88ff6	0.11355583
128	0xbdc5f5db	-0.09666034
129	0x3e2df3c7	0.16987525
130	0xbd2070db	-0.039170127
131	0x3cf377e4	0.029720254
132	0x3e13ce6e	0.14434215
133	0xbdd2442f	-0.10266911
134	0x3e234d34	0.1594742
135	0x3b1d5561	0.0024007189
136	0xbd65ca1a	-0.056100942
137	0xbe21d458	-0.15803659
138	0x3d1633b0	0.036670387
139	0x3dc3d236	0.09561579
140	0xb9b03982	-0.00033612183
141	0xbd5d2149	-0.05398682
142	0xbddec4c7	-0.10877376
143	0x3e20ba4b	0.15696065
144	0xbce831d1	-0.028344067
145	0xbc8e6fb1	-0.017387243
146	0xbda3c975	-0.07997409
147	0xbe8b6240	-0.27223396
148	0x3c5278d6	0.012846192
149	0x3c4272f0	0.011868224
150	0x3dbe679b	0.09297105
151	0xbc8ccc7b	-0.017187348
152	0xbe25cf04	-0.16192251
153	0x3dd331d9	0.10312242
154	0xbd03ee09	-0.03220943
155	0xbe5c5b65	-0.21519239
156	0xbe8f6ee3	-0.28014287
157	0x3e37e7fd	0.1795959
158	0x3d0b63bd	0.034030665
159	0xbe97e849	-0.29669407
160	0x3e2c3e4c	0.1682064
161	0x3d32e526	0.043675564
162	0xbc0db381	-0.008648754
163	0xbe54727f	-0.20746802
164	0x3e39ec7b	0.18156616
165	0xbdeb48a9	-0.11488468
166	0x3e3307de	0.1748347
167	0xbe3918c2	-0.1807585
168	0x3e29a85a	0.16568127
169	0x3e11a536	0.14223179
170	0xbdf91c15	-0.12163559
171	0x3e834b0f	0.25643203
172	0x3d2254a3	0.039631497
173	0xbdd5c80a	-0.10438545
174	0xbcecd10e	-0.028908279
175	0x3c6ce9e2	0.014460059
176	0xbe2e6a6c	-0.17032784
177	0xbca4d7ed	-0.020122493
178	0x3cfa63ba	0.030565131
179	0xbe4a031d	-0.1972775
180	0xbe2b0066	-0.1669937
181	0x3d3e38e0	0.04644096
182	0x3d348622	0.04407323
183	0xbcbd7ca7	-0.023130728
184	0xbdc9080b	-0.09815987
185	0xbca24181	-0.019806625
186	0xbdce8e79	-0.10085768
187	0x3d472374	0.048617795
188	0xbd90e42b	-0.070747696
189	0x3d9c1d07	0.07622724
190	0xbd0cb770	-0.034354627
191	0xbde2fe4e	-0.11083661
192	0x3dd66952	0.10469307
193	0x3e8bb86a	0.27289134
194	0x3beb2c3c	0.007176904
195	0xc020ec8d	-2.514438
196	0xbddfad09	-0.10921676
197	0x3e929c95	0.28635088
198	0xbda66cdb	-0.08126231
199	0x3d9b6f86	0.07589631
200	0xbe0888db	-0.13333456
201	0x3dae20bd	0.08502338
202	0x3e189458	0.14900339
203	0x3d3e1e67	0.046415713
204	0x3dfffe98	0.12499732
205	0xbd3c767a	-0.046011426
206	0x3d9efd09	0.077631064
207	0x3db13d19	0.086542316
208	0x3e424075	0.18969901
209	0x3e241c46	0.1602641
210	0x3e2693b1	0.16267277
211	0x3e3df7f4	0.18551618
212	0x3e219258	0.15778482
213	0x3da23b35	0.07921449
214	0xbc8ee620	-0.017443717
215	0xbfc11699	-1.5085021
216	0xbd8a038d	-0.067389585
217	0x3e312cfc	0.17302316
218	0x3e80aefe	0.25133508
219	0x3ded24d6	0.115792915
220	0x3d8c2ded	0.06844697
221	0x3e7f6e02	0.24944308
222	0x3e865be1	0.26241973
223	0x3e914a05	0.28376785
224	0x3e545763	0.2073646
225	0xbe2e2c88	-0.17009175
226	0xbcd6b636	-0.026209932
227	0x3e6005db	0.21877234
228	0x3e64f020	0.22357225
229	0xc00e0949	-2.2193167
230	0x3c80be2a	0.015715677
231	0x3e610a1f	0.21976517
232	0xbb35c166	-0.0027733683
233	0x3e49fe2a	0.19725862
234	0x3e32648a	0.17421165
235	0x3e398351	0.181165
236	0xbdf31230	-0.11868703
237	0x3e1612de	0.14655635
238	0x3ef9c33f	0.48781773
239	0x3f0afa30	0.54288006
240	0x3e1375ef	0.14400457
241	0x3da49fe6	0.08038311
242	0x3dbefdf2	0.0932578
243	0x3eb0e54e	0.34549946
244	0xbc69c752	-0.014268713
245	0xbe14df50	-0.14538312
246	0x3ec303b5	0.38088766
247	0x3e25b65c	0.16182846
248	0xbf4521f2	-0.7700492
249	0xbe1f5722	-0.15560582
250	0x3e269ffe	0.1627197
251	0xbe06c871	-0.131624
252	0xbf6b4e29	-0.9191614
253	0x3d33b72f	0.04387587
254	0x3db246c9	0.087049074
255	0x3e6b8586	0.23000154

critic.0.bias f4 [32]
0	0x00000000	0.0
1	0x3e9108a0	0.28326893
2	0xbc2b9a24	-0.010473762
3	0x3e610b87	0.21977054
4	0x3e9a727b	0.30165467
5	0x3e8706bf	0.26372334
6	0xbd691a43	-0.05690981
7	0x3e6a0891	0.2285483
8	0x3e65154a	0.22371402
9	0x3e7f6c51	0.24943663
10	0xbbec2e0c	-0.0072076377
11	0x3e5956bf	0.21224497
12	0x3e8092bb	0.25111946
13	0x3e52f66c	0.20601815
14	0x3e7f2a70	0.24918532
15	0xbb16267f	-0.002291113
16	0xbb9bf7db	-0.0047597713
17	0x3b2783c3	0.0025560714
18	0x3e618169	0.22022022
19	0xbc05e1f8	-0.008171551
20	0x3e8ba56a	0.27274638
21	0x3e5d5e1c	0.21617931
22	0xbc167237	-0.009182504
23	0x3e827c87	0.25485632
24	0x3db5f64d	0.08884869
25	0x3e652e49	0.22380938
26	0xbd912a11	-0.07088102
27	0x3e5d2738	0.21596992
28	0xbc6d78c1	-0.014494122
29	0x3e73de9b	0.23815386
30	0xbaec086f	-0.0018007885
31	0x3e113329	0.14179672

critic.2.weight f4 [1, 32]
0	0x3d3743c0	0.044742346
1	0xbe89f4b6	-0.26944512
2	0x3d22a6bf	0.039709803
3	0xbef5039a	-0.4785431
4	0xbe84cc4c	-0.25937116
5	0xbee3a873	-0.44464454
6	0x3f01c760	0.5069485
7	0xbf26ff65	-0.6523345
8	0xbed4f829	-0.4159558
9	0xbea950aa	-0.33069354
10	0x3b383fc2	0.0028114174
11	0xbef1c650	-0.47221613
12	0xbe959bb8	-0.29220366
13	0xbebda4b3	-0.37039718
14	0xbeefabac	-0.46810663
15	0x3cf6c65a	0.030123878
16	0x3e53cd66	0.20683822
17	0x3d77308d	0.060349036
18	0xbed9cfe1	-0.42541412
19	0x3e8f5978	0.27997947
20	0xbeef0b2b	-0.46688208
21	0xbea3e58f	-0.32011077
22	0xbbb2dbb6	-0.0054583205
23	0xbef064e1	-0.46951964
24	0x3f10d07a	0.5656811
25	0xbec8506f	-0.39123866
26	0x3f70d877	0.940803
27	0xbf0c03f7	-0.5469355
28	0x3dc07605	0.093975104
29	0xbf00fbad	-0.50384027
30	0xbd0fc2c2	-0.035097845
31	0x3fd09461	1.6295282

exp_avg f4 [64, 12]
0	0x00000004	6e-45
1	0x00000004	6e-45
2	0x00000004	6e-45
3	0x00000004	6e-45
4	0x00000004	6e-45
5	0x00000004	6e-45
6	0x00000004	6e-45
7	0x00000004	6e-45
8	0x00000000	0.0
9	0x00000004	6e-45
10	0x00000000	0.0
11	0x00000004	6e-45
12	0x3b0ca31b	0.0021459523
13	0xba710241	-0.0009193756
14	0x39d09cf6	0.00039789797
15	0xbad40f28	-0.0016178833
16	0xbad311c6	-0.0016103319
17	0xbaef76b8	-0.0018269634
18	0xb9ed6cfd	-0.00045285365
19	0xba710241	-0.0009193756
20	0xbb911c79	-0.004428443
21	0xbb501fba	-0.0031757192
22	0xbbcda99c	-0.0062763225
23	0xb9237b51	-0.0001559083
24	0xbb783681	-0.0037874284
25	0xba409bbb	-0.00073474244
26	0xbbf71acf	-0.0075410376
27	0xba918e37	-0.0011105005
28	0xbb27a628	-0.0025581215
29	0xbb8dab1c	-0.0043233763
30	0xb9a8fd3b	-0.00032232128
31	0xba409bbb	-0.00073474244
32	0xbada1de7	-0.0016640992
33	0xbaeb73a7	-0.0017963544
34	0xbb8fa166	-0.004383254
35	0xbbad8c1d	-0.005296244
36	0x3abc7197	0.0014377114
37	0x388538f2	6.352541e-05
38	0x2494bde7	6.4506476e-17
39	0xb7a5d207	-1.9767334e-05
40	0x3927f67f	0.00016018188
41	0x3a91715a	0.0011096403
42	0xb8f66e9a	-0.00011750795
43	0x388538f2	6.352541e-05
44	0xba0aeee3	-0.0005299879
45	0xbabbaa19	-0.0014317661
46	0xbaa6f3bd	-0.0012737435
47	0x39f9efd1	0.00047671658
48	0x3c0a488d	0.008440149
49	0x3b61e5d2	0.003446926
50	0x3bdf3b13	0.006812462
51	0x3c055f74	0.008140434
52	0x3c387267	0.011257744
53	0x3bf35edd	0.00742708
54	0x39907e44	0.00027559896
55	0x3b61e5d2	0.003446926
56	0x3b8f7ed9	0.004379135
57	0x3ac3284c	0.0014889329
58	0x3bb1c745	0.005425366
59	0x3c46d26c	0.012135129
60	0xbb3264ed	-0.00272208
61	0xb9d03101	-0.00039709362
62	0xbb4defcb	-0.0031423445
63	0xba473864	-0.00075996504
64	0xbac2559c	-0.0014826539
65	0xbb081dd7	-0.002076974
66	0xb919e227	-0.00014675465
67	0xb9d03101	-0.00039709362
68	0xba591316	-0.0008280737
69	0xba7d104a	-0.00096536113
70	0xbadada48	-0.0016697133
71	0xbb62e43b	-0.00346209
72	0x38d7a339	0.000102824015
73	0x38430931	4.6500183e-05
74	0xb8fa8b98	-0.0001194693
75	0x38f70e5c	0.000117805524
76	0x389f29c8	7.589493e-05
77	0xb9171d87	-0.00014411482
78	0x36679e0a	3.4513673e-06
79	0x38430931	4.6500183e-05
80	0xb8f56433	-0.00011701174
81	0x38644318	5.4421922e-05
82	0xb907372c	-0.00012895156
83	0x38fe2013	0.00012117638
84	0xba1eb2f2	-0.00060538866
85	0xb8869a98	-6.418413e-05
86	0x00000000	0.0
87	0xba045a4c	-0.00050488557
88	0xb9e5e4f5	-0.0004384887
89	0xbb39e519	-0.0028365313
90	0x38bd2e7d	9.0208814e-05
91	0xb8869a98	-6.418413e-05
92	0xbb133d9b	-0.002246714
93	0xbadbc0c3	-0.0016765821
94	0xbb133d9b	-0.002246714
95	0xba6cde23	-0.00090357865
96	0x3a3900a8	0.0007057288
97	0xba1b7eed	-0.0005931694
98	0x382cbbf1	4.118303e-05
99	0xba9b77c0	-0.001186125
100	0xba9aa64d	-0.0011798829
101	0xba4f148c	-0.0007899485
102	0xb9a59e1d	-0.00031589056
103	0xba1b7eed	-0.0005931694
104	0xbb2a292e	-0.0025964486
105	0xbb13ad96	-0.0022533885
106	0xbb8f901c	-0.004381193
107	0xba9eabd6	-0.0012105654
108	0xbbe8e3b5	-0.007107223
109	0xba76b20a	-0.0009410685
110	0xbba6bf92	-0.005088755
111	0xbafcc877	-0.0019285817
112	0xbb4f52e8	-0.003163511
113	0xbb73f8d5	-0.0037227173
114	0xb9a55800	-0.00031536818
115	0xba76b20a	-0.0009410685
116	0x00000004	6e-45
117	0xba996abb	-0.0011704782
118	0xba93213e	-0.0011225117
119	0xbbf73428	-0.0075440593
120	0x38fd4b47	0.000120780016
121	0x38ae6b2b	8.316928e-05
122	0xba28ccb4	-0.00064391945
123	0x3920a8b3	0.00015321634
124	0x39250024	0.00015735679
125	0x3a22c382	0.00062089425
126	0x3885a16a	6.372e-05
127	0x38ae6b2b	8.316928e-05
128	0x3995d2bf	0.00028576513
129	0x39e2d7c8	0.0004326685
130	0x39a83eb0	0.00032090163
131	0x39549f75	0.00020277298
132	0xba5dd01f	-0.00084614934
133	0xb940cd65	-0.00018387062
134	0xbac4ce8b	-0.0015015168
135	0xb9b12f5f	-0.00033795365
136	0xba24e2b2	-0.0006289884
137	0xbabafd62	-0.0014266188
138	0xb88d31d9	-6.732689e-05
139	0xb940cd65	-0.00018387062
140	0xb9a68950	-0.00031764293
141	0xb9c4b199	-0.00037516354
142	0xba78eed6	-0.00094960385
143	0xba8d6f90	-0.0010790695
144	0x3a28aa31	0.0006434052
145	0x3993df48	0.00028204382
146	0xba4c9101	-0.00078035897
147	0x3a460d65	0.00075550965
148	0x3a82172e	0.0009925121
149	0x3b2eab5f	0.0026652438
150	0x3969ec83	0.00022308719
151	0x3993df48	0.00028204382
152	0x3aa016c4	0.0012213816
153	0x3b06b2a6	0.002055326
154	0x3aaf5a05	0.0013378268
155	0x3ab29252	0.0013623929
156	0xbb4a81fa	-0.0030900226
157	0x399b6d7c	0.00029645476
158	0x3b14277c	0.0022606542
159	0xb8cb0a53	-9.681717e-05
160	0x37a87492	2.0081443e-05
161	0xba23670b	-0.0006233311
162	0x399bd6e3	0.00029724007
163	0x399b6d7c	0.00029645476
164	0x3aed98dd	0.0018127222
165	0x3adb9849	0.0016753759
166	0x3b8efeff	0.004363894
167	0xbad90cda	-0.0016559616
168	0x3b5dda18	0.0033851918
169	0x378b142e	1.6579488e-05
170	0x3b3089ab	0.0026937525
171	0x37c98928	2.4024936e-05
172	0xb853e40b	-5.05187e-05
173	0x3b320fdf	0.0027170104
174	0xb9174069	-0.00014424477
175	0x378b142e	1.6579488e-05
176	0xbb0775f0	-0.0020669661
177	0xbae4da02	-0.0017459991
178	0xba7dd537	-0.00096829556
179	0x3b25a22d	0.0025273666
180	0xba5adfe8	-0.00083494047
181	0xba1d247b	-0.0005994511
182	0xbb05401f	-0.0020332409
183	0xba8b4477	-0.0010625263
184	0xbad24f18	-0.00160453
185	0xbac4f1d2	-0.0015025681
186	0xb9a69fe9	-0.0003178113
187	0xba1d247b	-0.0005994511
188	0xbaedd946	-0.0018146418
189	0xbb0757d1	-0.0020651708
190	0xbb811dfb	-0.0039403415
191	0xbb1e0dbf	-0.002411708
192	0xb8033a51	-3.1287145e-05
193	0xba4df74e	-0.00078569807
194	0xbb0c5a5e	-0.0021416168
195	0xbaafc04f	-0.0013408753
196	0xbaf926df	-0.0019008777
197	0xbac9c6dd	-0.0015394349
198	0xb9e49372	-0.00043597404
199	0xba4df74e	-0.00078569807
200	0xbb23ed46	-0.0025013252
201	0xbb35b8ab	-0.002772848
202	0xbbb697b2	-0.0055722827
203	0xbb10bc8f	-0.0022085046
204	0x3af959b2	0.0019023924
205	0xbab8a45d	-0.001408707
206	0xbae8bf34	-0.0017757178
207	0xbb2aa1c6	-0.0026036366
208	0xbb36acf9	-0.0027874096
209	0xbb53895b	-0.0032277915
210	0xba68cd78	-0.0008880715
211	0xbab8a45d	-0.001408707
212	0xbbb63871	-0.0055609276
213	0xbbc728d5	-0.0060778656
214	0xbc3956fc	-0.011312243
215	0xbb2a094a	-0.0025945478
216	0xbb4b85dc	-0.0031055128
217	0xb92de1db	-0.00016582703
218	0xbb404a8c	-0.0029341308
219	0xb9d7d0d7	-0.00041163593
220	0xba931465	-0.0011221288
221	0xbb073587	-0.002063127
222	0x380f96ce	3.4234305e-05
223	0xb92de1db	-0.00016582703
224	0x3a1cc13b	0.00059797213
225	0x3897cf8a	7.238898e-05
226	0x9fca76eb	-8.574706e-20
227	0xbb4b85dc	-0.0031055128
228	0x3a2401ce	0.00062563724
229	0xb9f08839	-0.0004587786
230	0xba81f8b2	-0.0009916036
231	0xba68d863	-0.0008882342
232	0xba88bbe9	-0.0010431978
233	0xbaa87d26	-0.001285468
234	0xb982bc8a	-0.00024936005
235	0xb9f08839	-0.0004587786
236	0xbae3aa94	-0.0017369562
237	0xbaf3ce46	-0.0018600903
238	0xbb7dd5d7	-0.0038732195
239	0xba790db6	-0.0009500639
240	0x3b4d5154	0.0031328993
241	0x39e0c810	0.00042873668
242	0x3b4be8e3	0.0031114153
243	0x3a6dfc7f	0.00090784574
244	0x3a9870bd	0.0011630278
245	0x3bdfd098	0.0068302862
246	0xb3473f7d	-4.639104e-08
247	0x39e0c810	0.00042873668
248	0xb3a426ef	-7.643927e-08
249	0xb4418212	-1.8021845e-07
250	0x00000004	6e-45
251	0x3b4d5154	0.0031328993
252	0xbc038870	-0.008028135
253	0xb990d7bb	-0.00027626552
254	0x3b860ba3	0.0040907427
255	0xba7ddad9	-0.0009683795

exp_avg_sq f4 [64, 12]
0	0x000001f4	7e-43
1	0x000001f4	7e-43
2	0x000001f4	7e-43
3	0x000001f4	7e-43
4	0x000001f4	7e-43
5	0x000001f4	7e-43
6	0x000001f4	7e-43
7	0x000001f4	7e-43
8	0x00000000	0.0
9	0x000001f4	7e-43
10	0x00000000	0.0
11	0x000001f4	7e-43
12	0x3a2bb8ea	0.00065506867
13	0x378053d6	1.5297828e-05
14	0x38c583f2	9.418269e-05
15	0x38c30d89	9.300846e-05
16	0x39257d83	0.00015782383
17	0x3a528955	0.00080313283
18	0x36a135ce	4.8044376e-06
19	0x378053d6	1.5297828e-05
20	0x3a02aa45	0.00049844786
21	0x39db9753	0.0004188368
22	0x39e57e7a	0.00043772516
23	0x3a3a089a	0.00070966186
24	0x3a1eb1ac	0.0006053697
25	0x3707bffa	8.091325e-06
26	0x3a419c00	0.00073856115
27	0x38043594	3.152115e-05
28	0x38c6dd85	9.482637e-05
29	0x3a1b1b86	0.0005916882
30	0x36169931	2.244091e-06
31	0x3707bffa	8.091325e-06
32	0x39b6b66e	0.00034849666
33	0x39a40ef2	0.00031291653
34	0x399754fd	0.00028864286
35	0x3a21f8b0	0.000617872
36	0x383ac5ca	4.453006e-05
37	0x3606eb80	2.0104635e-06
38	0x34c897cc	3.736335e-07
39	0x3776ca53	1.470985e-05
40	0x37b60a79	2.1700967e-05
41	0x3902e93d	0.00012484654
42	0x34f3d73b	4.5418878e-07
43	0x3606eb80	2.0104635e-06
44	0x3874edd4	5.8395628e-05
45	0x383f83cc	4.5660694e-05
46	0x38837806	6.268923e-05
47	0x385af674	5.2204778e-05
48	0x3b3f2849	0.00291683
49	0x38e63f6e	0.00010979069
50	0x3b002817	0.0019555145
51	0x39e264cf	0.00043181187
52	0x3a5373c6	0.0008066263
53	0x3abcacbe	0.0014394743
54	0x37ee1fc5	2.8386605e-05
55	0x38e63f6e	0.00010979069
56	0x3b2425f2	0.0025047031
57	0x3af15382	0.0018411728
58	0x3b0f0a65	0.0021826264
59	0x3b51feee	0.003204282
60	0x39125f24	0.00013959088
61	0x35e66dad	1.7168255e-06
62	0x393ab025	0.00017803961
63	0x36dc3694	6.5628647e-06
64	0x37b79d6f	2.188861e-05
65	0x3903eb9f	0.00012580909
66	0x34fb3c57	4.6796296e-07
67	0x35e66dad	1.7168255e-06
68	0x38ace50e	8.244264e-05
69	0x389e37bb	7.544408e-05
70	0x3872c5a9	5.788138e-05
71	0x39157772	0.00014254244
72	0x364769cb	2.971489e-06
73	0x34ccb55c	3.8129917e-07
74	0x367e682d	3.7909588e-06
75	0x35c4ffb9	1.4677563e-06
76	0x36048aec	1.9750396e-06
77	0x3738276b	1.0976432e-05
78	0x330be13e	3.2568316e-08
79	0x34ccb55c	3.8129917e-07
80	0x3602ce26	1.9491504e-06
81	0x35505154	7.7604386e-07
82	0x3600002b	1.9073584e-06
83	0x36475127	2.9700548e-06
84	0x37a337dc	1.9457126e-05
85	0x36a9a3c1	5.055656e-06
86	0x00000000	0.0
87	0x37d5780c	2.544748e-05
88	0x380c1241	3.33956e-05
89	0x39729fe6	0.00023138485
90	0x363cf502	2.8156796e-06
91	0x36a9a3c1	5.055656e-06
92	0x39c03806	0.00036662834
93	0x39929b3f	0.00027962957
94	0x39c05d66	0.0003669068
95	0x3837b7f3	4.3801916e-05
96	0x38edd4a3	0.00011340647
97	0x371af1e7	9.235438e-06
98	0x38fbe194	0.0001201063
99	0x37effea8	2.8609604e-05
100	0x38224e93	3.8696988e-05
101	0x3957c56e	0.00020577546
102	0x361237b4	2.1788119e-06
103	0x371af1e7	9.235438e-06
104	0x390050eb	0.00012237176
105	0x38a6d328	7.954828e-05
106	0x38eac43f	0.00011194543
107	0x3908fdb8	0.00013064488
108	0x3a1a0bc9	0.000587639
109	0x379dac44	1.8796076e-05
110	0x3a18431c	0.000580834
111	0x3887b3c0	6.470783e-05
112	0x38f7e51e	0.00011820554
113	0x3a3cef2b	0.00072072697
114	0x360b5160	2.075998e-06
115	0x379dac44	1.8796076e-05
116	0x0312e181	4.316441e-37
117	0x3878e11b	5.9337453e-05
118	0x379060bc	1.7211183e-05
119	0x3a1ac710	0.00059042964
120	0x359c6630	1.1652646e-06
121	0x3433c44e	1.674209e-07
122	0x370fcb4e	8.5708e-06
123	0x357540b9	9.1363796e-07
124	0x3609ad1b	2.0515351e-06
125	0x37b092e6	2.104924e-05
126	0x337fd732	5.9567533e-08
127	0x3433c44e	1.674209e-07
128	0x3742ebeb	1.161823e-05
129	0x3712b914	8.74537e-06
130	0x3744a40c	1.17207055e-05
131	0x3614bdac	2.2164122e-06
132	0x383c5baf	4.490808e-05
133	0x3637492d	2.731172e-06
134	0x384d6844	4.8972914e-05
135	0x370a0127	8.225709e-06
136	0x3747c314	1.19067445e-05
137	0x38a308c6	7.77408e-05
138	0x34c75710	3.7129985e-07
139	0x3637492d	2.731172e-06
140	0x3788b7cd	1.6298052e-05
141	0x37420524	1.1564498e-05
142	0x376d6053	1.4148728e-05
143	0x384921fa	4.7953778e-05
144	0x37ae3263	2.076588e-05
145	0x3612b92f	2.1863486e-06
146	0x391a50c7	0.00014716676
147	0x375d86ee	1.3204042e-05
148	0x38008cd4	3.0648735e-05
149	0x395ac60d	0.0002086388
150	0x35624232	8.428789e-07
151	0x3612b92f	2.1863486e-06
152	0x3932d5db	0.0001705507
153	0x3919e5fc	0.00014676893
154	0x3936b142	0.00017422906
155	0x38144e22	3.5358717e-05
156	0x39b85009	0.00035154846
157	0x36f1cffe	7.206573e-06
158	0x398f3414	0.00027313887
159	0x37ebaaac	2.8093658e-05
160	0x387664ca	5.8744838e-05
161	0x39fa1697	0.00047700547
162	0x35fc3675	1.8791312e-06
163	0x36f1cffe	7.206573e-06
164	0x3967ec93	0.00022118007
165	0x3937fe45	0.00017546963
166	0x3927974f	0.00015982728
167	0x39bccc74	0.00036010484
168	0x39d3fd70	0.00040433882
169	0x3658ee3f	3.2325186e-06
170	0x39de5c0f	0.0004241173
171	0x37a8ec80	2.013729e-05
172	0x38a6fadc	7.962223e-05
173	0x395b9a32	0.0002094291
174	0x35993d50	1.1417233e-06
175	0x3658ee3f	3.2325186e-06
176	0x3984d230	0.00025333604
177	0x396cc618	0.0002258051
178	0x39326caa	0.00017015883
179	0x39e0e050	0.00042891735
180	0x395c97de	0.0002103741
181	0x36d71cfe	6.4108744e-06
182	0x396cfe0f	0.00022601358
183	0x37b8184c	2.1945823e-05
184	0x383459cf	4.2998985e-05
185	0x3993f540	0.0002822075
186	0x35df9ddd	1.6660739e-06
187	0x36d71cfe	6.4108744e-06
188	0x391f3313	0.00015182448
189	0x390161d3	0.00012338841
190	0x38fcfb88	0.00012063148
191	0x39662cdf	0.00021951225
192	0x39b62811	0.00034743597
193	0x37470d07	1.18643575e-05
194	0x39af79fe	0.00033469492
195	0x382a20b8	4.056163e-05
196	0x3899a935	7.327126e-05
197	0x3a01dcfb	0.0004953888
198	0x364dbec9	3.0658432e-06
199	0x37470d07	1.18643575e-05
200	0x39886002	0.00026011473
201	0x395a18ee	0.00020799387
202	0x3959abb6	0.000207587
203	0x39be691b	0.00036317934
204	0x3a67013f	0.00088121364
205	0x3853e206	5.051682e-05
206	0x3a55e2dd	0.00081591104
207	0x3927db5a	0.00016008076
208	0x396fafa4	0.00022858247
209	0x3abfb0b4	0.0014624805
210	0x375aad6c	1.30341905e-05
211	0x3853e206	5.051682e-05
212	0x3a5c1cbc	0.0008396616
213	0x3a24a107	0.00062800985
214	0x3a3b6f68	0.0007150085
215	0x3a7bc52b	0.00096042705
216	0x38c3aa01	9.32999e-05
217	0x36366112	2.7176616e-06
218	0x3900ffd6	0.00012302338
219	0x3700bade	7.672903e-06
220	0x37835cc9	1.5659623e-05
221	0x38b8ece1	8.817926e-05
222	0x34fe9d52	4.7425652e-07
223	0x36366112	2.7176616e-06
224	0x37b2a362	2.1295335e-05
225	0x37d49d43	2.53456e-05
226	0x34a974c7	3.156367e-07
227	0x38c3aed3	9.330888e-05
228	0x38994ae1	7.309556e-05
229	0x36bc6970	5.615111e-06
230	0x38a33027	7.781415e-05
231	0x37931e8a	1.7537986e-05
232	0x37c6f94b	2.3719525e-05
233	0x390e389f	0.00013563268
234	0x35c31802	1.4535619e-06
235	0x36bc6970	5.615111e-06
236	0x38ad9935	8.27782e-05
237	0x387a94c0	5.974318e-05
238	0x389a7b3b	7.366246e-05
239	0x38ad53f8	8.264923e-05
240	0x39943077	0.0002826487
241	0x36e52d7c	6.830027e-06
242	0x393c69e3	0.00017968523
243	0x381f9e4b	3.8055976e-05
244	0x3890bf80	6.902125e-05
245	0x39dd20c5	0.0004217682
246	0x326d1f14	1.3802282e-08
247	0x36e52d7c	6.830027e-06
248	0x354d49e9	7.6476005e-07
249	0x348b4412	2.5940295e-07
250	0x33cdfb11	9.591725e-08
251	0x3994317f	0.00028265637
252	0x3b162403	0.0022909648
253	0x37dfc583	2.6675645e-05
254	0x3b0a2f34	0.0021085264
255	0x39102a0a	0.00013748571
