models/checkpoint_880000.pt (torch, 125871 bytes, 33 tensors)

shared.0.weight f4 [64, 12]
0	0xbe881f89	-0.2658656
1	0xbec87f02	-0.391594
2	0x3e23555b	0.1595053
3	0x3f5f0836	0.87121904
4	0xbdc681e8	-0.096927464
5	0xbd08bc2b	-0.033382576
6	0xbf0f5f2f	-0.56004614
7	0xbf1255ec	-0.57162356
8	0xbd85b0bf	-0.06527852
9	0xbe8282ec	-0.2549051
10	0xbe5641a9	-0.20923485
11	0xbad08933	-0.0015910029
12	0xbcb7fd89	-0.022459762
13	0x3e512df3	0.20427684
14	0xbe3eaa27	-0.18619595
15	0x3f752854	0.9576466
16	0x3e2e98cd	0.17050476
17	0xbdcafbd9	-0.099113174
18	0x3e453291	0.19257571
19	0x3edd0950	0.43171167
20	0x3c84fde5	0.016234348
21	0xbe217924	-0.15768868
22	0x3dc60b9b	0.09670182
23	0x3e2e4950	0.17020154
24	0x3dfb3aea	0.12267096
25	0x3d85c199	0.065310664
26	0x3d7bc0d9	0.06146321
27	0xbddf1355	-0.10892359
28	0xbf50d8ca	-0.81580794
29	0x3df64851	0.12025512
30	0x3e596b93	0.21232443
31	0x3ddaa88c	0.10676679
32	0xbdf75168	-0.12076074
33	0x3e1fb555	0.15596516
34	0x3e6ffd7b	0.23436539
35	0x3d13f978	0.036126584
36	0xbe853402	-0.2601624
37	0xbf13c08a	-0.57715666
38	0xbcf3f58d	-0.029780174
39	0xbd2caaa2	-0.042154916
40	0x3e53dc8b	0.20689599
41	0x3e7399d0	0.23789144
42	0x3d536ded	0.051618505
43	0xbe7f5f62	-0.2493873
44	0xbe0f29c2	-0.13980773
45	0x3d338c1b	0.043834787
46	0x3cfb0ed8	0.030646726
47	0x3e1533a0	0.14570475
48	0x3dc22eed	0.09481607
49	0xbe9d8c96	-0.3077132
50	0x3d8ddaba	0.069264844
51	0xbf361884	-0.7113116
52	0xbe98e41d	-0.29861537
53	0xbe0f7787	-0.1401044
54	0xbf1bf65a	-0.6092278
55	0xbe232018	-0.15930212
56	0x3d0aef2d	0.033919502
57	0x3e04e749	0.12978853
58	0xbe4a8120	-0.1977582
59	0xbea97817	-0.33099434
60	0xbe2d3ccd	-0.16917725
61	0xbcc65073	-0.024208283
62	0xbe9196cb	-0.28435358
63	0xbefb097e	-0.4903068
64	0xbec08c7e	-0.37607187
65	0x3d88f763	0.0668781
66	0xbe1dd098	-0.15411603
67	0xbdaf77f8	-0.08567804
68	0x3bd8d66c	0.006617358
69	0xbca6dad4	-0.020368017
70	0xbd37cb7e	-0.0448718
71	0x3e0043ef	0.12525915
72	0xbd43f9e7	-0.047845747
73	0x3f023495	0.50861484
74	0x3d1803ce	0.037113003
75	0x3f05e985	0.5230945
76	0xbf34b28c	-0.7058494
77	0xbde7965d	-0.113079764
78	0x3b74bb79	0.0037343188
79	0x3e92001b	0.28515705
80	0x3e063e1e	0.13109633
81	0x3dcf8224	0.10132244
82	0x3dd47b87	0.103751235
83	0x3e560371	0.2089975
84	0x3d91570c	0.07096681
85	0xbeaa2460	-0.33230877
86	0x3d0142a4	0.031557694
87	0xbebf43e0	-0.37356472
88	0xbef4d383	-0.4781762
89	0xbd25f535	-0.04051705
90	0xbef3f525	-0.47647968
91	0xbe67bee2	-0.2263141
92	0xbd146292	-0.036226816
93	0xbe90065f	-0.2812986
94	0x3e2212c1	0.15827467
95	0x3d397a24	0.045282498
96	0xbe8ba755	-0.27276102
97	0xbe7ec70f	-0.24880622
98	0x3e0a5c61	0.13511802
99	0xbee40abf	-0.4453945
100	0x3e5012f6	0.20319733
101	0xbca10d64	-0.019659705
102	0xbfb1dabe	-1.389488
103	0xbe1acd21	-0.15117313
104	0x3dd251fa	0.10269542
105	0x3d54eaea	0.051981844
106	0x3d024f00	0.03181362
107	0xbf6ffcd3	-0.93745154
108	0x3d2e5da5	0.042569775
109	0x3e5e9718	0.21737325
110	0x3dedb4b9	0.11606736
111	0xbe089ecd	-0.13341828
112	0xbf26159c	-0.64876723
113	0x3e311d5e	0.17296359
114	0xbf92b451	-1.1461278
115	0x3d8a58b2	0.067551985
116	0x3e5933ce	0.21211168
117	0xbe59ed39	-0.212819
118	0x3e3b87e8	0.18313563
119	0xbe39a9cb	-0.18131177
120	0xbdec9bd8	-0.11553162
121	0x3caec0f2	0.021332238
122	0xbe8c0065	-0.2734405
123	0x3edb1e19	0.427964
124	0xbf4ece1d	-0.80783254
125	0xbdd83ef1	-0.1055888
126	0xbdf75cc9	-0.12078244
127	0xbe04acf1	-0.12956597
128	0xbd3dde34	-0.046354488
129	0x3d7665fa	0.060155846
130	0xbcc7829d	-0.024354273
131	0x3e30d31d	0.17268033
132	0xbec01e10	-0.37522936
133	0x3f3bdd7b	0.7338483
134	0x3e02930c	0.12751406
135	0x3fc07b90	1.5037708
136	0xbd986dc2	-0.0744281
137	0xbd39b887	-0.045341995
138	0x3eb2a013	0.34887752
139	0x3f1ed9ad	0.62050897
140	0x3deb5093	0.11489978
141	0xbb8540ea	-0.0040665762
142	0x3e5a7454	0.21333438
143	0x3e537096	0.20648417
144	0xbe0d9f69	-0.13830341
145	0x3e74d7be	0.23910424
146	0xbcddd625	-0.027079651
147	0xbe07625d	-0.13221116
148	0xbed22658	-0.4104488
149	0x3e2b7b49	0.16746248
150	0x3e7ed9a5	0.24887712
151	0xbcf3222d	-0.029679382
152	0x3c4d1ecf	0.012519552
153	0xbdddf6a8	-0.108380616
154	0xbc549584	-0.0129751
155	0x3e0be205	0.13660438
156	0xbf0302bc	-0.5117605
157	0x3d642c7e	0.055706494
158	0xbd05a78c	-0.03263049
159	0x3ebf838b	0.37405047
160	0x3dbd3b55	0.09239832
161	0xbc608804	-0.013704304
162	0x3f2e5252	0.6809436
163	0x3e97c7a9	0.29644516
164	0x3dbf7cb9	0.09349961
165	0xbe6026e5	-0.21889837
166	0x3e188aa7	0.14896642
167	0x3ea96e53	0.33091983
168	0xbe232a20	-0.15934038
169	0x3ad2d067	0.0016083837
170	0xbdf8e4f6	-0.12153046
171	0x3e8e3f2a	0.27782565
172	0xbf2f8b83	-0.68572253
173	0x3e09c666	0.13454589
174	0x3ec7101b	0.38879475
175	0xbdbb4c2a	-0.091453865
176	0x3ce29c34	0.027662374
177	0x3d253de8	0.04034224
178	0x3e2cbd2b	0.16869037
179	0x3e8740a3	0.264165
180	0x3cfbe060	0.030746639
181	0xbef0184d	-0.4689354
182	0x3df832f8	0.121190965
183	0x3d4cd320	0.050006032
184	0xbf00dfa2	-0.50341237
185	0xbd40de44	-0.04708697
186	0xbeca1c0a	-0.39474517
187	0xbec4efc3	-0.38464174
188	0x3e81167c	0.25212467
189	0xbe7495f4	-0.23885328
190	0x3d3e5aa9	0.04647318
191	0xbe6187d9	-0.22024478
192	0xbe8fa9c5	-0.2805921
193	0x3e8b2e75	0.2718388
194	0xbc231775	-0.009954323
195	0x3f61eaae	0.8824872
196	0xbc839348	-0.01606144
197	0xbe3e960d	-0.18611927
198	0x3dd8c1da	0.10583849
199	0x3f0d8713	0.5528423
200	0xbe366c8d	-0.17814846
201	0xbdc8abe1	-0.09798408
202	0x3dd504e6	0.10401325
203	0x3ea11d79	0.31467798
204	0x3c990c5e	0.018682655
205	0x3c820370	0.01587078
206	0xbe24deba	-0.16100588
207	0xbd8e186c	-0.06938252
208	0xbe1aa945	-0.15103634
209	0xbd155a83	-0.03646327
210	0x3d30f67b	0.043203812
211	0xbd65363b	-0.05595992
212	0xbd86ab06	-0.06575589
213	0xbdc562c7	-0.09637981
214	0xbd96c731	-0.073622115
215	0xbd01ed38	-0.03172037
216	0xbe7682f9	-0.240734
217	0x3f4a47c1	0.7901574
218	0x3e3f2c7a	0.1866931
219	0x3ed29fc0	0.41137505
220	0xbcfc4abf	-0.03079736
221	0x3ce4c5fb	0.027926436
222	0x3dbc3f17	0.09191721
223	0x3f4ff249	0.8122907
224	0xbd9ad521	-0.07560182
225	0xbbd247e6	-0.0064172624
226	0xbf926fea	-1.1440403
227	0xbe88c713	-0.26714382
228	0x3e0dfdb7	0.13866316
229	0xbf01727c	-0.50565314
230	0xbee31e3c	-0.44359004
231	0x3f40761d	0.75180227
232	0x3e651d75	0.22374518
233	0xbe345e57	-0.17614113
234	0xbf4a8369	-0.79106766
235	0xbee5118d	-0.44739953
236	0xbd8cf850	-0.06883299
237	0x3e17ebd3	0.14836054
238	0xbdd95e93	-0.10613742
239	0xbe4d7f75	-0.20068152
240	0xbdbddf3b	-0.092710935
241	0x3cbd3327	0.02309568
242	0x3cb43924	0.021999903
243	0x3c1a311c	0.009411123
244	0xbec97c53	-0.39352664
245	0x3e22c12e	0.15894005
246	0xbed3049b	-0.4121445
247	0x3da3bd7f	0.07995128
248	0xbdf6c7eb	-0.1204985
249	0x3eb50f1a	0.35363084
250	0xbe6eda73	-0.2332552
251	0xbf080a33	-0.5314056
252	0x3e7d1b1f	0.24717377
253	0x3d87d4b1	0.066323645
254	0x3c44195a	0.011968935
255	0xc006d619	-2.1068175

shared.0.bias f4 [64]
0	0x3e6808dd	0.22659631
1	0x3e772bf7	0.24137865
2	0x3d255b30	0.040370166
3	0xbebf6a0b	-0.37385592
4	0x3e19a8c6	0.15005788
5	0x3d7c00ee	0.061524324
6	0x3f049502	0.5178987
7	0x3ccb75f7	0.024836523
8	0x3efc3030	0.49255514
9	0x3e0819ab	0.13291042
10	0x3eaab9d9	0.33344916
11	0x3ea2633b	0.31716332
12	0x3c3808d1	0.011232571
13	0xbd7161f4	-0.058931306
14	0x3dceef42	0.101042286
15	0xbdb14b73	-0.08656969
16	0x3e572a64	0.21012264
17	0x00000000	0.0
18	0x3e772386	0.24134645
19	0x3e77846a	0.24171606
20	0x3d90568b	0.07047757
21	0x3e95ba3a	0.29243642
22	0x3d4f2a20	0.050577283
23	0xbec6444c	-0.3872398
24	0x3edd166f	0.43181178
25	0x3ed1a381	0.40945056
26	0x3ea5725a	0.32313806
27	0xbc1bfdc4	-0.009520952
28	0x3ddadb7a	0.10686393
29	0x3d5afa7c	0.053461537
30	0x3ed74ff0	0.42053175
31	0x3eba9040	0.3643818
32	0x3e6632a9	0.22480263
33	0xbd0300ea	-0.031983294
34	0xbd34e41e	-0.044162862
35	0x3e27a810	0.16372705
36	0x3ee45575	0.4459645
37	0xbd5ba136	-0.05362054
38	0x3ed23727	0.41057703
39	0x3e72896e	0.23685238
40	0x3e6357f3	0.22201519
41	0x00000000	0.0
42	0x3e7c3014	0.24627715
43	0xbe59c5bf	-0.2126684
44	0x3d314a69	0.043283854
45	0x3eaae397	0.33376762
46	0x3e49e25f	0.1971526
47	0x3ebe6fad	0.37194577
48	0x3db99659	0.0906188
49	0x3e6c238e	0.23060438
50	0xbddec604	-0.10877612
51	0x3de927a3	0.11384513
52	0x3e8ce2fe	0.2751693
53	0x3ebd81d6	0.3701312
54	0x3e7c277b	0.24624436
55	0x3e4c28c7	0.1993743
56	0x00000000	0.0
57	0x3e984873	0.29742774
58	0xbeb62119	-0.35572127
59	0x3d4be640	0.04978013
60	0x3e8072a8	0.25087476
61	0x3db71dad	0.08941207
62	0x3e0cd992	0.13754871
63	0x3e81b8e1	0.25336364

shared.2.weight f4 [64, 64]
0	0xbe528789	-0.20559515
1	0xbd814c7f	-0.063134186
2	0x3f666e75	0.90012294
3	0xbc1c28d1	-0.009531216
4	0x3ebf304d	0.37341538
5	0xbe0883f3	-0.13331585
6	0xbbe2c136	-0.006920005
7	0x3e18d043	0.14923196
8	0xbf5db0da	-0.8659798
9	0x3f2b6cff	0.6696319
10	0x3e88763b	0.26652703
11	0x3d84f6c3	0.064923786
12	0x3e6df0e7	0.23236428
13	0xbe79d799	-0.2439865
14	0x3dd9a7f4	0.10627738
15	0x3d654cab	0.05598132
16	0xbe1220e8	-0.14270365
17	0x3d8646ff	0.0655651
18	0x3df84726	0.121229455
19	0x3d1da8af	0.038490947
20	0x3f17a24a	0.5923201
21	0xbea1cdf2	-0.31602436
22	0x3f2f2cb0	0.6842756
23	0xbe5c3c58	-0.21507394
24	0x3c76c176	0.015060773
25	0x3e4216ad	0.18953963
26	0x3dfed4a9	0.124429055
27	0x3e0d6a53	0.1381009
28	0x3e7f0aa8	0.24906409
29	0xbf66a69d	-0.9009798
30	0xbd017aac	-0.03161113
31	0x3ed789fd	0.42097464
32	0x3e8775df	0.26457116
33	0x3f1d615c	0.61476684
34	0xbe04799d	-0.12937017
35	0x3f2d8661	0.6778317
36	0xbcc51dee	-0.024062123
37	0x3e448b77	0.19193827
38	0xbe328b6d	-0.17435999
39	0xbfb45d52	-1.4090979
40	0xbd902dd4	-0.07039991
41	0xbe0961df	-0.13416241
42	0x3f262114	0.64894223
43	0xbf2f83fa	-0.68560755
44	0x3db49523	0.08817508
45	0x3f198b39	0.5997806
46	0x3d1b329b	0.037890058
47	0x3c90400f	0.01760867
48	0x3f0b7e00	0.54489136
49	0x3d18cea9	0.03730646
50	0xbdab97b0	-0.083785415
51	0xbe1b2f92	-0.15154865
52	0xbe192137	-0.14954077
53	0xbd86a5f0	-0.06574619
54	0xbdb00286	-0.08594231
55	0xbcf5f9a2	-0.03002626
56	0x3e080985	0.13284881
57	0xbf3f7f5a	-0.748037
58	0xbdb33620	-0.08750558
59	0xbdda16ad	-0.10648856
60	0x3ddd6f1e	0.108122095
61	0x3f11bbb8	0.5692706
62	0x3d21f42e	0.03953951
63	0xbe4966c8	-0.19668114
64	0xbcf77bee	-0.030210461
65	0xbe201912	-0.15634564
66	0x3e50b92e	0.2038314
67	0xbebd6b80	-0.36996078
68	0x3e90e49e	0.2829942
69	0xbc50c8b2	-0.012743162
70	0xbd177b62	-0.0369829
71	0x3e063cb6	0.13109097
72	0xbebb680b	-0.36602816
73	0x3e98c779	0.29839686
74	0x3de6c114	0.112672955
75	0xbe13e3a5	-0.14442308
76	0x3e787187	0.24262057
77	0xbe7d3272	-0.24726275
78	0x3dcd6fb4	0.10031071
79	0x3ebc4c72	0.36777073
80	0xbde8a101	-0.11358834
81	0x3d16e765	0.03684177
82	0x3e536365	0.20643385
83	0x3e169067	0.14703523
84	0x3e84c224	0.25929368
85	0xbf15d46b	-0.5852725
86	0x3ea45fba	0.32104284
87	0xbc05c96f	-0.008165701
88	0x3c8cf588	0.017206922
89	0x3dae4b0b	0.08510407
90	0x3e949db7	0.29026577
91	0xbd36f276	-0.044664823
92	0x3d75d812	0.060020514
93	0xbeb8d598	-0.3610046
94	0x3d706a82	0.058695324
95	0x3ec900fb	0.3925856
96	0x3ce7334a	0.028222699
97	0x3ee2bd44	0.44285023
98	0xbb76e1f6	-0.0037671304
99	0x3e784e69	0.24248661
100	0xbe954480	-0.29153824
101	0x3f22febb	0.6366994
102	0xbd98db6f	-0.07463729
103	0xbfd45a26	-1.6590011
104	0xbea86f51	-0.32897428
105	0xbde3a1f8	-0.111148775
106	0x3e49efef	0.19720434
107	0xbf3f4d60	-0.7472744
108	0xbde71719	-0.112837024
109	0x3e8d7e2b	0.2763532
110	0xbc9b7435	-0.01897631
111	0x3deb9428	0.11502868
112	0x3e98e85d	0.2986478
113	0xbdcb4593	-0.099253796
114	0xbe3b99c6	-0.18320379
115	0xbe498a0d	-0.19681568
116	0xbca773c8	-0.020440951
117	0xbdcffd0b	-0.10155686
118	0xbd5be029	-0.053680573
119	0xbe8aedc8	-0.27134538
120	0x3d2d0e65	0.042250056
121	0xbea7f15b	-0.32801327
122	0x3de63ef5	0.11242477
123	0xbe520b08	-0.2051202
124	0x3e3861c8	0.1800605
125	0x3ec28d75	0.37998548
126	0xbee7570a	-0.45183593
127	0xbe24da38	-0.16098869
128	0xbe885a4c	-0.2663139
129	0xbea43d08	-0.32077813
130	0x3e696885	0.22793777
131	0xbe95747a	-0.29190427
132	0xbda9d04d	-0.08291683
133	0xbe9c409e	-0.3051805
134	0xbdd7f5be	-0.105449185
135	0x3dbc6729	0.09199364
136	0xbef51230	-0.47865438
137	0x3cfd5861	0.030925931
138	0xbe5ad96a	-0.21372
139	0xbe115d5a	-0.14195767
140	0x3cf7dddb	0.030257156
141	0xbd9227fc	-0.07136533
142	0xbd4138de	-0.047173373
143	0x3d0ba6a8	0.034094483
144	0xbda67d67	-0.08129387
145	0x3da6fb96	0.08153455
146	0xbdab99c3	-0.08378937
147	0xbe255009	-0.16143812
148	0x3eaef827	0.341737
149	0xbf8499ed	-1.0359474
150	0x3d464d72	0.0484137
151	0xbe80de75	-0.2516972
152	0x3e4a48a9	0.1975428
153	0x3e63a7ec	0.22232026
154	0xbc64c3e9	-0.013962724
155	0xbda17413	-0.078834675
156	0x3e55e5b2	0.20888403
157	0xbeb164c0	-0.3464718
158	0x3d100eff	0.03517055
159	0x3f0f91cc	0.56081843
160	0x3cfff9f6	0.03124712
161	0x3cfe397e	0.031033274
162	0xbd8cdc94	-0.068780094
163	0x3f1dc4e8	0.6162858
164	0xbd63e666	-0.055639647
165	0x3e184708	0.14870846
166	0x3adc0d13	0.0016788564
167	0xbfcbeefa	-1.5932305
168	0x3e470035	0.19433673
169	0xbdad3841	-0.08457995
170	0x3e3f6629	0.18691315
171	0xbf060358	-0.5234885
172	0xbd92417c	-0.071413964
173	0x3d9f7380	0.07785702
174	0xbe634e36	-0.22197804
175	0x3e64aafa	0.22330847
176	0xbd29a6e5	-0.04141893
177	0xbebc7b51	-0.36812833
178	0xbe6ab7b8	-0.22921646
179	0xbcfaeec8	-0.030631438
180	0x3e3406d7	0.17580734
181	0xbdec058c	-0.115244955
182	0x3dd7d77c	0.10539147
183	0x3d4dfa6c	0.05028765
184	0x3e45b581	0.1930752
185	0xbeeeed48	-0.46665406
186	0xbe3e8002	-0.18603519
187	0xbf041a08	-0.5160222
188	0x3e12344f	0.14277767
189	0x3ed8ba3f	0.42329594
190	0xbf0e4f8f	-0.55590147
191	0xbda44cca	-0.08022459
192	0x3dda4eaf	0.10659539
193	0xbeaea6f7	-0.3411176
194	0xbf21b1aa	-0.6316172
195	0xbf0634be	-0.5242423
196	0xbd4f818e	-0.050660662
197	0xbe886569	-0.2663987
198	0xbe6a392f	-0.22873376
199	0x3e2ab506	0.16670617
200	0x3e32f1ce	0.17475054
201	0x3f065fcf	0.5248994
202	0x3e2fe604	0.17177588
203	0xbc127beb	-0.008940677
204	0xbe546836	-0.20742878
205	0x3d7718fe	0.06032657
206	0xbedf088f	-0.43561217
207	0x3e5ba79f	0.21450661
208	0xbe13c20d	-0.14429493
209	0x3e2c92d1	0.16852881
210	0x3e801376	0.25014848
211	0xbf7b7406	-0.9822391
212	0xbf1a9467	-0.60382694
213	0xbf26b637	-0.6512179
214	0x3f1a6eb8	0.60325193
215	0xbf0f5a55	-0.5599721
216	0x3ea6bd7a	0.32566434
217	0x3ed3c094	0.41357863
218	0xbdf4fc5a	-0.11962195
219	0xbde8fcf5	-0.11376373
220	0xbefce4b6	-0.49393243
221	0xbd02d71f	-0.031943437
222	0x3dc3b1e9	0.09555418
223	0xbd4bd278	-0.049761266
224	0xbf36eadf	-0.71452135
225	0xbfae0b2d	-1.359716
226	0xbf41ca10	-0.7569895
227	0x3f95bfd8	1.1699171
228	0x3d9cd3ca	0.07657583
229	0x3ea74ac7	0.32674238
230	0xbd6c6be2	-0.057720073
231	0xbfd5bfd6	-1.6699169
232	0x3e117e6d	0.14208384
233	0xbe2a4e6a	-0.16631475
234	0x3e7afc73	0.24510364
235	0xbf3d03d7	-0.73833984
236	0xbe4c09c8	-0.19925606
237	0x3edbb433	0.4291092
238	0xbde5b4c2	-0.112161174
239	0x3dad5e04	0.08465198
240	0x3e9e188b	0.308781
241	0x3e15334d	0.14570351
242	0xbe517321	-0.20454074
243	0xbf38e798	-0.72228384
244	0xbf20986e	-0.6273259
245	0xbd38f2d7	-0.045153465
246	0x3e5f4c2e	0.21806404
247	0xbd412290	-0.047152102
248	0xbe0a192a	-0.13486162
249	0xbeaab547	-0.3334143
250	0xbf444e86	-0.7668232
251	0xbcf2b49a	-0.029627133
252	0xbf561100	-0.8361969
253	0x3efa70de	0.48914236
254	0xbeec6893	-0.46173534
255	0xbf71fa05	-0.94522125

shared.2.bias f4 [64]
0	0x3e32b8c8	0.17453301
1	0x3eb3603f	0.35034367
2	0x3ebde625	0.3708965
3	0x3dc5f04d	0.09664974
4	0x3d9874ad	0.07444129
5	0x3d89d78d	0.06730566
6	0xbd1a4d01	-0.037671093
7	0x3c1a5615	0.009419938
8	0xbf117cbc	-0.56830955
9	0x3f1527d1	0.5826388
10	0x3ece3d62	0.40281206
11	0x3e75c758	0.24001825
12	0x3eab8a3f	0.3350391
13	0x3ec810b6	0.3907525
14	0x3f10edfc	0.56613135
15	0xbcd2c2df	-0.025727687
16	0x3cd5f7cf	0.02611914
17	0xbcc3316a	-0.023827273
18	0x3f01f7bd	0.50768644
19	0x3e51ea5f	0.20499562
20	0x3e86ba69	0.26314095
21	0x3e62f887	0.22165118
22	0x3eaef5f1	0.34172013
23	0x3f19c0a5	0.6005958
24	0x3f16936f	0.58818716
25	0x3f13979c	0.5765321
26	0x3ea17ea1	0.31541923
27	0x3e7fba4f	0.24973415
28	0x3e28481a	0.16433755
29	0x3e7d902d	0.2476203
30	0x3f0239bf	0.50869364
31	0x3eb56d26	0.35434836
32	0x3f215ce1	0.63032347
33	0x3f001e57	0.50046295
34	0x3e7fbbd0	0.24973989
35	0x3f12e5be	0.5738181
36	0x3f157ef0	0.58396816
37	0x3eaccb05	0.33748642
38	0x3ece1302	0.40248877
39	0x3f1873ad	0.5955151
40	0xbceea694	-0.029132165
41	0x3e9ad575	0.3024098
42	0x3f1189b9	0.56850773
43	0x3efefb2f	0.49801013
44	0xbd305690	-0.043051302
45	0xbd348233	-0.04406948
46	0x3ed8e049	0.42358616
47	0x3ec067f7	0.3757932
48	0x3ee11661	0.43962386
49	0x3e7a2f4e	0.24432108
50	0x3f0459d6	0.5169958
51	0x3f01b9ae	0.5067395
52	0x3ea011db	0.31263623
53	0x3ed1d894	0.40985548
54	0x3db524a6	0.08844881
55	0xbc079ada	-0.008276666
56	0x3f1d0010	0.6132822
57	0xbe3d80e7	-0.18506204
58	0x3ede6863	0.43439016
59	0x3edf4148	0.43604493
60	0x3e7f6f1f	0.24944733
61	0x3f1e47eb	0.6182849
62	0x3e9329cb	0.28742823
63	0x3ec4f0c5	0.38464943

actor.0.weight f4 [32, 64]
0	0xbda343df	-0.0797193
1	0xbe606a16	-0.21915469
2	0xbdd22dee	-0.10262667
3	0xbdd4396d	-0.103625156
4	0x3d78d853	0.060753178
5	0x3e1f17bd	0.15536399
6	0xbe452167	-0.19251023
7	0xbe18aba5	-0.14909227
8	0x3dd3eb2b	0.10347589
9	0x3df5e424	0.12006405
10	0xbe5b6525	-0.21425302
11	0x3ddd7120	0.108125925
12	0x3dc3beb2	0.095578566
13	0x3c19a6bc	0.0093781315
14	0x3cbbe859	0.02293794
15	0xbd90946b	-0.070595585
16	0x3d82f4c0	0.063943386
17	0x3dd4cbfd	0.1039047
18	0xbd03c138	-0.03216669
19	0xbe5af52b	-0.21382587
20	0x3cec7256	0.028863113
21	0xbe1f2970	-0.15543151
22	0x3dea32d7	0.11435478
23	0xbbcb40a0	-0.0062027723
24	0xbc32b948	-0.010908432
25	0xbddc033a	-0.10742803
26	0x3ce5b388	0.028039709
27	0xbdd4d1c9	-0.10391576
28	0xbcaa236c	-0.020768844
29	0xbe98780b	-0.29779086
30	0xbd82530f	-0.063634984
31	0xbeb2b773	-0.34905586
32	0x3d2861d5	0.041108925
33	0xbdeb66c7	-0.114942126
34	0x3dc2698a	0.09492786
35	0x3df285d4	0.11841932
36	0xbe1b5d0f	-0.15172218
37	0xbe1811b6	-0.14850506
38	0xbe85e770	-0.26153135
39	0xbddb21f7	-0.10699838
40	0xbb6d4936	-0.0036206967
41	0x3dab91f6	0.08377449
42	0xbd02bd61	-0.031918887
43	0xbe911ff2	-0.28344685
44	0x3cbb9e5b	0.022902658
45	0x3d4402f5	0.047854383
46	0x3d0fac00	0.03507614
47	0xbc1f32de	-0.0097167175
48	0xbdde6eb9	-0.108609624
49	0xbce8580f	-0.028362302
50	0xbe280edc	-0.16411918
51	0xbd9ed520	-0.07755494
52	0xbe0c0f6e	-0.13677761
53	0x3dcc0386	0.099616095
54	0xbd33b2e2	-0.043871768
55	0xbdb51989	-0.08842761
56	0x3e504199	0.20337524
57	0xbe5ca42b	-0.21547
58	0xbd919d0f	-0.07110035
59	0xbd940b95	-0.072287716
60	0x3d4e793f	0.050408598
61	0xbcbb0a40	-0.022832036
62	0x3bc674bd	0.0060563968
63	0xbcf6b585	-0.030115852
64	0xbd2f2309	-0.04275802
65	0x3e33fe7a	0.17577544
66	0xbd01a1f0	-0.031648576
67	0x3c60f31c	0.013729837
68	0x3e97e596	0.29667348
69	0xbd185ffc	-0.037200913
70	0x3a0e32b1	0.0005424424
71	0x3d9b0689	0.07569606
72	0xbdd016a8	-0.10160571
73	0xbc0aab6e	-0.008463724
74	0x3d8c4c21	0.06850458
75	0x3ddf4b41	0.109030254
76	0xbe13a4d3	-0.14418344
77	0xbe0740a0	-0.13208246
78	0x3db4f2a8	0.088353455
79	0x3de8951d	0.11356566
80	0xbedbe4e8	-0.4294808
81	0x3d95b494	0.07309833
82	0xbdccfef3	-0.10009565
83	0xbd42b52b	-0.047536056
84	0x3c57250e	0.013131393
85	0xbdda3cff	-0.10656165
86	0x3d935571	0.07194031
87	0xbd15fa1b	-0.036615472
88	0xbda3d85c	-0.08000252
89	0x3b5d28e9	0.0033746308
90	0x3cbebeef	0.023284404
91	0x3e8e2f36	0.27770394
92	0x3e05ef65	0.13079603
93	0x3e5e2ff8	0.21697986
94	0x3cf5de54	0.03001324
95	0x3b7e6567	0.0038817765
96	0x3d284e0d	0.04109006
97	0xbb556031	-0.0032558555
98	0x3d0b5abf	0.03402209
99	0xbdc826c1	-0.09773017
100	0xbe20b962	-0.15695718
101	0xbc554a76	-0.013018241
102	0xbe6c15f7	-0.23055254
103	0xbd660ef2	-0.056166597
104	0x3e1548d5	0.14578564
105	0x3e404e27	0.18779813
106	0x3d029db5	0.031888682
107	0xbdd342e4	-0.10315493
108	0xbd854806	-0.06507878
109	0x3e002c49	0.12516893
110	0xbc80e716	-0.01573519
111	0xbc9e2872	-0.019306395
112	0x3df9f3cf	0.12204706
113	0xbe36d17e	-0.17853352
114	0xbd737975	-0.059442002
115	0xbe861061	-0.2618437
116	0xbe11fc80	-0.14256477
117	0xbdde1e91	-0.10845674
118	0xbe1c439e	-0.15260169
119	0x3c82ed53	0.015982306
120	0xbd72726b	-0.05919115
121	0xbdb3e9d6	-0.08784835
122	0x3bf95d5a	0.0076100053
123	0xbe519d38	-0.2047013
124	0xbb821056	-0.0039692326
125	0xbdb22d40	-0.08700037
126	0xbc01d04a	-0.007923195
127	0x3dd0690b	0.10176285
128	0xbcbe0d39	-0.023199664
129	0xbd5fce82	-0.0546403
130	0xbe482381	-0.19544794
131	0xbe8115ca	-0.25211936
132	0xbef964bd	-0.4870967
133	0x3f7ec6e0	0.9952221
134	0xbcbcebe5	-0.023061702
135	0x3e03555d	0.12825532
136	0xbebcf744	-0.369074
137	0xbe8d2926	-0.27570456
138	0xbe0291b1	-0.1275089
139	0x3dbcd5b1	0.09220446
140	0xbe6f9cf2	-0.23399714
141	0xbe9532ba	-0.29140264
142	0xbe3b7cf0	-0.18309379
143	0xbc0ea4a3	-0.008706245
144	0xbedd1597	-0.43180534
145	0xbd3bedff	-0.045881268
146	0x3e65f78d	0.22457714
147	0x3e958f4c	0.2921089
148	0xbb089f82	-0.0020847027
149	0xbe0d310c	-0.13788241
150	0xbd815dfb	-0.063167535
151	0xbe5571e8	-0.20844233
152	0xbd9b9d7e	-0.075983986
153	0xbe109fc3	-0.14123444
154	0x3e92c853	0.2866846
155	0xbdc6dcbb	-0.0971007
156	0x3e66d553	0.22542314
157	0xbe3958a7	-0.18100224
158	0x3e0c2441	0.13685705
159	0xbf054968	-0.52065134
160	0x3e59e9cd	0.21280594
161	0x3db6b7bd	0.08921764
162	0xbe0be0e8	-0.13660014
163	0xbe24a293	-0.16077642
164	0xbd73b625	-0.05949988
165	0xbd9427a1	-0.07234121
166	0xbeae1b74	-0.3400532
167	0x3c9e3795	0.019313613
168	0xbcec0ef3	-0.028815722
169	0x3df3166c	0.11869511
170	0xbe5590f1	-0.20856072
171	0x3d64602d	0.055755783
172	0xbb2b1a4f	-0.002610821
173	0xbbf851ee	-0.007578126
174	0xbebc1f87	-0.36742803
175	0x3d943bec	0.07237992
176	0xbea45a22	-0.32100016
177	0x3df08ab4	0.117452055
178	0xbdc6469f	-0.09681439
179	0xbdc68a0f	-0.09694301
180	0x3d8f634e	0.07001363
181	0x3e924ecd	0.28575745
182	0xbdf7d87f	-0.1210184
183	0xbd8d496b	-0.06898769
184	0x3e1f5c98	0.15562665
185	0x3e2bbc09	0.16770948
186	0x3e973ba2	0.29537684
187	0x3e8cc1d1	0.2749162
188	0x3e4678c0	0.19382
189	0xbe7266ec	-0.23672074
190	0x3eda62bf	0.42653462
191	0xbe49fa3b	-0.19724362
192	0xbdc71920	-0.09721589
193	0xbd9a9e30	-0.07549703
194	0x3d5f029d	0.05444585
195	0xbe07ed23	-0.13274054
196	0x3d7b5fdd	0.06137072
197	0xbd001f90	-0.0312801
198	0x3da5df64	0.08099249
199	0x3e0ac7a5	0.13552721
200	0x3e4e5392	0.20149067
201	0xbe2a1ccd	-0.16612549
202	0x3dc98a72	0.098408595
203	0x3c70dbc9	0.014700838
204	0xbe03753e	-0.12837693
205	0x3d8c0220	0.06836343
206	0x3d0162d2	0.031588383
207	0xbe415191	-0.18878771
208	0x3d531e05	0.0515423
209	0xbcc9a78a	-0.024616022
210	0x3cf39885	0.029735813
211	0xbc2d37ac	-0.010572355
212	0x3d6dc08d	0.05804496
213	0xbd7d5991	-0.061852995
214	0x3cc4a605	0.024004946
215	0x3e156770	0.1459024
216	0xbdf17852	-0.117905274
217	0xbdf1369f	-0.11777996
218	0x3da05799	0.07829208
219	0x3e82a1d3	0.25514087
220	0xbc4b563d	-0.0124106975
221	0xbdce38fb	-0.10069462
222	0x3dd0c99c	0.10194704
223	0x3e215f6a	0.15759054
224	0x3c92d38e	0.017923143
225	0xbdf56c3b	-0.11983534
226	0x3d64ab55	0.055827457
227	0x3c25f739	0.010129743
228	0xbd869e02	-0.06573106
229	0xbe5f6390	-0.21815324
230	0xbcbe0b22	-0.023198668
231	0xbe58ed1e	-0.21184203
232	0x3e113045	0.1417857
233	0xbe36807f	-0.17822455
234	0xbe3bdaef	-0.18345235
235	0xbd8ad417	-0.06778734
236	0x3d4b8f7a	0.049697377
237	0x3dc86fa7	0.09786921
238	0x3e352a23	0.17691855
239	0xbd92a89e	-0.071610674
240	0xbe7478d9	-0.23874225
241	0x3b7e11ca	0.0038767927
242	0xbd955e80	-0.07293415
243	0x3da95294	0.08267704
244	0x3e15547c	0.1458301
245	0xbe517966	-0.20456466
246	0xbdaaa7dd	-0.08332799
247	0xbe4e21d4	-0.20130092
248	0xbcb3dda1	-0.021956267
249	0x3e216184	0.15759856
250	0x3ec02fd4	0.3753649
251	0x3e8cb948	0.27485108
252	0xbdc1d434	-0.09464303
253	0xbbcd5801	-0.0062665944
254	0x3c3da583	0.011575106
255	0xbe0fce64	-0.14043576

actor.0.bias f4 [32]
0	0xbc9a28f7	-0.018818362
1	0xbc556f76	-0.013027063
2	0x3dd60a82	0.10451223
3	0x3c95659d	0.01823693
4	0xbc6d2d7a	-0.0144761745
5	0x3dec0853	0.11525025
6	0xbe926b27	-0.28597376
7	0xbe8421c3	-0.25807008
8	0x3dab8f1c	0.08376905
9	0x3ea1c177	0.31592914
10	0x3e813d29	0.25241974
11	0xbc099310	-0.008396879
12	0x3dedc764	0.11610296
13	0x3e036a50	0.12833524
14	0x3bf22c49	0.007390533
15	0xbd3885c1	-0.045049433
16	0xbe973be6	-0.29537886
17	0xbc832097	-0.016006751
18	0xbe7b92f8	-0.24567783
19	0xbc51b4d1	-0.012799458
20	0xbd689ca5	-0.056790013
21	0xbd5a8702	-0.05335141
22	0xbd0c9873	-0.034325074
23	0xbc8b9fcc	-0.01704397
24	0xbc09e0c3	-0.008415404
25	0x00000000	0.0
26	0xbe891ab7	-0.26778194
27	0xbc190457	-0.009339414
28	0xbb95ac2e	-0.0045676446
29	0xbb529b8c	-0.003213617
30	0x3dc6f2b3	0.0971426
31	0xbc93b0e2	-0.01802868

actor.2.weight f4 [2, 32]
0	0xbe33a473	-0.17543201
1	0xbe7da28c	-0.24769038
2	0x3e8d5f43	0.2761174
3	0x3d8446cf	0.06458818
4	0xbca51f2c	-0.020156465
5	0x3ebd3ac4	0.36958897
6	0xbf88c853	-1.0686134
7	0xbf19b85c	-0.60046935
8	0x3ecdb10a	0.40174133
9	0x3fd37deb	1.6522802
10	0x3f4a24db	0.78962487
11	0x3e88f6d6	0.2675082
12	0x3f34d89b	0.70643014
13	0xbc5d4557	-0.013505301
14	0x3b966ae2	0.004590378
15	0xbe3ec7ef	-0.18630956
16	0xbfc09793	-1.5046257
17	0xbda5da4b	-0.08098277
18	0xbf779393	-0.96709555
19	0xbd1dfc47	-0.03857067
20	0xbbcaaae6	-0.0061849235
21	0x3dff5720	0.1246779
22	0x3cd81e66	0.026381683
23	0xbe0a0a50	-0.13480496
24	0xbf0e91af	-0.55691046
25	0xbe6c2b00	-0.23063278
26	0xbfb154eb	-1.385404
27	0xbe066480	-0.13124275
28	0x3dc205b6	0.094737455
29	0x3e798d99	0.24370421
30	0x3ee64e1e	0.44981474
31	0x3c437bcf	0.011931374
32	0x3e24de7f	0.161005
33	0xbca94d7c	-0.02066683
34	0xbea267e9	-0.31719902
35	0xbe8a2e92	-0.26988655
36	0xbe8028d4	-0.2503115
37	0xbefcfc1d	-0.49411097
38	0x3f798a7b	0.9747693
39	0x3f09f4c3	0.538891
40	0xbf376b93	-0.7164852
41	0xbfdb7981	-1.7146455
42	0xbf693c89	-0.91107994
43	0xbda0d390	-0.07852852
44	0xbf6e334f	-0.9304704
45	0xbf3c4dbe	-0.73556125
46	0xbeab1253	-0.33412418
47	0x3ecf5560	0.40494823
48	0x3fc3bba3	1.5291637
49	0xbe0ea2af	-0.13929246
50	0x3f6e5e46	0.931126
51	0xbe55d343	-0.20881371
52	0xbe9f371e	-0.3109674
53	0x3e133d4f	0.14378856
54	0xbd511368	-0.051043898
55	0xbd2c2ad0	-0.042033017
56	0x3dfec173	0.12439241
57	0x3d58af6f	0.05290168
58	0x3f9ef480	1.2418365
59	0x3d8e22fe	0.06940268
60	0xbe19d65a	-0.15023175
61	0xbd58e1af	-0.052949604
62	0x3d05ee28	0.032697827
63	0xbe3dbf2e	-0.1852996

actor.2.bias f4 [2]
0	0x3e8b7812	0.27240044
1	0xbe8b7806	-0.27240008

critic.0.weight f4 [32, 64]
0	0x3e3b8cb0	0.18315387
1	0xbe567a61	-0.20945121
2	0xbdd1e91d	-0.10249541
3	0x3cbffa0d	0.023434663
4	0xbd55b8b3	-0.052178096
5	0xbd2293a4	-0.039691582
6	0xbe330c80	-0.17485237
7	0xbca2d239	-0.019875633
8	0x3d418175	0.0472426
9	0x3e592547	0.21205626
10	0x3d64d6d7	0.05586895
11	0x3ddce8ba	0.107865766
12	0xbcaf7f27	-0.021422936
13	0xbc43a195	-0.01194038
14	0x3d5acd33	0.05341835
15	0x3d959497	0.07303732
16	0xbb32f678	-0.0027307551
17	0xbdca4bde	-0.09877752
18	0xbcf43e17	-0.029814763
19	0xbd9feb8d	-0.078085996
20	0xbe7ccf10	-0.24688363
21	0x3d39e5ea	0.04538528
22	0x3e0f3b4a	0.1398746
23	0x3db0960b	0.086223684
24	0x3c045124	0.008075986
25	0xbdb07722	-0.08616473
26	0xbda1f33e	-0.07907723
27	0xbdcb0563	-0.09913137
28	0x3ddfe755	0.10932795
29	0xbd76e07d	-0.060272682
30	0xbd99e04a	-0.07513483
31	0xbd2c028c	-0.041994616
32	0xbc8861a1	-0.016648116
33	0x3d2b2329	0.04178158
34	0xbc1f4497	-0.009720943
35	0x3e253d33	0.16136627
36	0xbec0b649	-0.37639073
37	0xbe9439be	-0.28950304
38	0xbcc2c2a8	-0.02377446
39	0xbd950233	-0.0727581
40	0x3e19896c	0.14993829
41	0xbc3d6fb3	-0.011562276
42	0xbd8e303c	-0.06942794
43	0x3e765c4a	0.24058643
44	0x3e1f6183	0.15564542
45	0x3d077601	0.03307152
46	0x3e618988	0.2202512
47	0xbdc23ca5	-0.09484223
48	0x3e1ebb4a	0.15501133
49	0xbe1f38b7	-0.15548979
50	0xbdc3441b	-0.095344745
51	0xbd327a04	-0.043573394
52	0xbd51a02c	-0.051178142
53	0xbe5ec67e	-0.21755406
54	0x3da1c243	0.078983806
55	0xbe9031fe	-0.2816314
56	0x3ce51ea0	0.027968705
57	0xbcb5eb29	-0.02220686
58	0xbd8ed42e	-0.06974064
59	0xbcc04449	-0.02347006
60	0x3dcdac09	0.10042579
61	0xbdfc6dbe	-0.12325619
62	0x3da94b94	0.082663685
63	0xbc8b1b01	-0.01698065
64	0x3df5a5d9	0.119945236
65	0x3e4bd341	0.19904806
66	0x3d3caee6	0.046065234
67	0xbe59a83f	-0.21255587
68	0x3f8cb55c	1.0992846
69	0x3e7e60f1	0.24841668
70	0x3dfe4111	0.12414754
71	0xbd90cea3	-0.07070663
72	0xbf3e3e21	-0.7431355
73	0x3e399482	0.18123057
74	0xbeb861c7	-0.36012098
75	0xbed77589	-0.4208186
76	0xbe8a23a2	-0.2698031
77	0x3c4f88dd	0.012666908
78	0x3cccb643	0.024989253
79	0x3e10bce2	0.14134553
80	0x3ea0b2df	0.31386468
81	0xbd3e6ac8	-0.046488553
82	0x3e5d76e4	0.21627384
83	0x3ee5899c	0.4483155
84	0x3ea28a9e	0.31746382
85	0x3f08dcba	0.534618
86	0x3ee6975b	0.4503735
87	0xbe602da7	-0.21892415
88	0xbe4c991a	-0.19980279
89	0x3b882a52	0.0041554356
90	0x3e4c4f92	0.19952229
91	0xbf0f53ed	-0.55987436
92	0x3f37c781	0.71788794
93	0xbf38476e	-0.71983993
94	0x3e15b8b0	0.14621234
95	0xbe07c758	-0.13259637
96	0xbd708497	-0.058720198
97	0x3c9c6e72	0.019095633
98	0xbeedbc92	-0.4643293
99	0xbd1d935d	-0.038470615
100	0xbe419370	-0.18903899
101	0x3ebae811	0.36505178
102	0x3d5f899a	0.054574586
103	0xbd48e360	-0.049044967
104	0xbd80c0b0	-0.06286752
105	0x3e45094e	0.1924183
106	0x3d6efeb4	0.058348373
107	0xbe61553e	-0.22005174
108	0x3cc88f3e	0.024482366
109	0x3e4e7531	0.20161892
110	0x3ebfb331	0.374414
111	0xbdf6e195	-0.12054745
112	0x3edd4936	0.43219918
113	0xbe81afbe	-0.25329393
114	0xbe86f915	-0.2636191
115	0x3ccb45db	0.024813583
116	0x3e96ce50	0.2945428
117	0x3f024932	0.5089294
118	0xbd961692	-0.07328524
119	0xbdbef9e3	-0.09325006
120	0xbbf3afbe	-0.0074367216
121	0xbe48f1f0	-0.19623542
122	0xbea3a886	-0.3196451
123	0x3c572539	0.013131433
124	0xbe73a75f	-0.23794316
125	0xbbe90d47	-0.0071121785
126	0x3f1064fe	0.564041
127	0x3f5d5366	0.8645538
128	0xbea5a239	-0.3235033
129	0x3d762adf	0.06009948
130	0xbe86c547	-0.26322386
131	0xbc90162f	-0.017588703
132	0x3f80e984	1.0071263
133	0x3d63cf00	0.055617332
134	0x3dec32d7	0.115331344
135	0x3e261209	0.16217817
136	0xbf2f102b	-0.68384045
137	0x3dc9bd9b	0.098506175
138	0xbf198126	-0.5996269
139	0xbf5eee46	-0.87082326
140	0xbe8264bd	-0.25467482
141	0xbe9acdd2	-0.30235153
142	0xbd58d197	-0.052934255
143	0xbd996197	-0.07489317
144	0x3e922995	0.2854735
145	0xbdea917e	-0.11453532
146	0x3d030fbd	0.03199743
147	0x3eb48d8b	0.3526424
148	0x3f17e2f5	0.59330684
149	0x3edf0ca1	0.43564323
150	0x3f12e24b	0.57376546
151	0xbe7466b6	-0.23867306
152	0x3c254076	0.0100861695
153	0xbd0ef146	-0.034898065
154	0x3e1b2907	0.1515237
155	0xbe6f6747	-0.23379241
156	0x3f622b77	0.8834757
157	0xbf1682b0	-0.58793163
158	0xbe4e9ce8	-0.20177042
159	0xbe8a899c	-0.27058113
160	0xbcd72cd2	-0.02626649
161	0x3da9ad99	0.08285064
162	0xbec6efe9	-0.38854912
163	0xbe44a759	-0.19204463
164	0xbd025017	-0.03181466
165	0x3e9f94b2	0.31168133
166	0x3e1bfebd	0.15233894
167	0x3e274733	0.16335754
168	0x3e0fca2e	0.14041969
169	0x3eee0db1	0.4649482
170	0x3d2d5b35	0.04232331
171	0xbdbda221	-0.09259439
172	0x3ea5e2a4	0.32399476
173	0xbdb1d011	-0.08682264
174	0x3e90ac68	0.28256536
175	0xbdb2e00b	-0.08734139
176	0x3ee58947	0.44831297
177	0xbe56bcae	-0.20970413
178	0x3d928bfd	0.07155607
179	0xbd4517a9	-0.048118267
180	0x3f271b38	0.6527591
181	0x3ef3a1f0	0.47584486
182	0xbe43f006	-0.1913453
183	0x3de50197	0.11181944
184	0x3e6076bc	0.21920294
185	0x3e2df16b	0.16986625
186	0xbe3d55dd	-0.18489785
187	0xbe7e4fa6	-0.24835071
188	0xbec0d524	-0.37662613
189	0xbe826d01	-0.25473788
190	0x3f7e258f	0.9927606
191	0x3f222471	0.63336855
192	0x3b9e7d63	0.0048367246
193	0xbd22cd33	-0.039746474
194	0xbd2a4de4	-0.04157819
195	0xbed3ded9	-0.41380957
196	0x3fbfaca2	1.4974558
197	0x3ee98986	0.45612735
198	0x3e24cf0b	0.16094606
199	0xbd6246eb	-0.055243414
200	0xbf9da2b2	-1.2315276
201	0xbcd5601a	-0.026046801
202	0xbf177733	-0.5916626
203	0xbed88b23	-0.42293653
204	0xbd50e352	-0.05099804
205	0xbd8ef9da	-0.06981249
206	0xbdf5731c	-0.11984846
207	0x3c1731c1	0.009228171
208	0x3e9355e9	0.28776482
209	0x3c59e617	0.013299487
210	0x3d7da3ec	0.061923906
211	0x3f180e72	0.5939704
212	0x3f4defc3	0.8044397
213	0x3f217c36	0.63080156
214	0x3ed9b9d3	0.42524585
215	0xbd07ac57	-0.03312334
216	0xbc8dc36a	-0.017305095
217	0xbe88d0dc	-0.26721847
218	0x3d7f14ff	0.062275883
219	0xbf1d7408	-0.61505175
220	0x3f3c74b0	0.7361555
221	0xbf5e15b4	-0.86751866
222	0x3d4b65c3	0.049657594
223	0xbcd8687c	-0.02641701
224	0xbe1ebe05	-0.15502174
225	0xbcc2bf6b	-0.023772916
226	0xbec085bb	-0.37602028
227	0xbdf9ce8b	-0.12197598
228	0x3ac50626	0.001503174
229	0x3e376725	0.1791044
230	0xbe981402	-0.29702765
231	0xbe1d8718	-0.15383565
232	0xbd44ee4e	-0.048078828
233	0x3f51e517	0.8199019
234	0xbe202769	-0.15640034
235	0x3ec4a2a7	0.38405344
236	0x3cf6490a	0.030064125
237	0x3cc6d87e	0.024273153
238	0x3e94b914	0.29047453
239	0xbcce31aa	-0.025170166
240	0x3ef10c4a	0.47079688
241	0x3dfad378	0.12247366
242	0x3d7e1115	0.06202801
243	0xbd7a4248	-0.061098367
244	0x3e61a302	0.22034839
245	0x3e4619f0	0.19345832
246	0xbc7e2dd0	-0.015513852
247	0x3e0504c8	0.12990105
248	0xbd2535d5	-0.04033454
249	0x3e8357c2	0.2565289
250	0xbe11eeca	-0.14251247
251	0xbc4998ed	-0.012304527
252	0xbf07bfee	-0.53027236
253	0x3e9041e9	0.28175285
254	0x3f4b8752	0.7950336
255	0x3f65d6e9	0.8978105

critic.0.bias f4 [32]
0	0xbc9c9b58	-0.019117042
1	0x3db02c9e	0.0860226
2	0x3de1a167	0.11017113
3	0x3e2eec5f	0.17082356
4	0x3f2475d2	0.6424228
5	0x3f251f2f	0.6450071
6	0x3cd095bf	0.02546203
7	0x3f341c78	0.7035594
8	0x00000000	0.0
9	0x3dc8ceec	0.09805092
10	0x3f3c0dcf	0.7345857
11	0x3f2694dd	0.650709
12	0x3f26c1af	0.6513929
13	0xbc4c61db	-0.012474502
14	0x3f2ca71b	0.6744248
15	0xbc60e0ee	-0.013725502
16	0x3f2a9a7e	0.66641986
17	0x3e282885	0.16421707
18	0xbd26f912	-0.040764876
19	0x3f1db6e5	0.616072
20	0x3f2a60b3	0.665538
21	0x3f2b2364	0.66850877
22	0x3f25a34e	0.6470231
23	0x3f21db7e	0.63225543
24	0x3f26c7a6	0.6514839
25	0x3f307498	0.6892791
26	0x3f26224f	0.648961
27	0xbec9be04	-0.39402783
28	0x3f22fb42	0.6366464
29	0x3e3c9673	0.18416767
30	0x3f258d6d	0.64668924
31	0x3f35640c	0.70855784

critic.2.weight f4 [1, 32]
0	0xbb456ba5	-0.0030123976
1	0x3f463ecf	0.7743959
2	0x3f413266	0.75467527
3	0x3f9dae66	1.2318847
4	0xbefa7a3e	-0.48921388
5	0xbea6e0a3	-0.3259326
6	0x3e3c03ad	0.18360777
7	0xbea1e8f3	-0.3162304
8	0x3e4efc1e	0.20213363
9	0x3f15f470	0.5857611
10	0xbe8b6016	-0.27221745
11	0xbec65c19	-0.3874214
12	0xbf0804ba	-0.5313221
13	0x3c8878c9	0.016659157
14	0xbebb6f5c	-0.36608398
15	0x3cf8ba4f	0.030362276
16	0xbeb571f8	-0.35438514
17	0x3f674283	0.90335864
18	0x3c04f78b	0.0081156595
19	0xbee741e1	-0.4516745
20	0xbf15070a	-0.58213866
21	0xbf15443f	-0.5830726
22	0xbf11b7f7	-0.56921333
23	0xbeee141c	-0.46499717
24	0xbeccbfb4	-0.39990008
25	0xbebce285	-0.3689157
26	0xbed10506	-0.40824145
27	0x3f599350	0.84990406
28	0xbeed7840	-0.46380806
29	0x3f842e19	1.0326568
30	0xbed6efd1	-0.4197984
31	0xbf01082b	-0.5040309

exp_avg f4 [64, 12]
0	0xba4af6d8	-0.0007742471
1	0xb94cb79a	-0.00019523353
2	0x397678fb	0.00023505457
3	0xb9b84781	-0.0003514849
4	0xb9d9059d	-0.00041393648
5	0xbabdfa87	-0.0014494219
6	0xb6b7e19f	-5.4800907e-06
7	0xb94cb79a	-0.00019523353
8	0x80000004	-6e-45
9	0xb81b51af	-3.7030954e-05
10	0x33a5cb7c	7.720425e-08
11	0xba4af54a	-0.00077422394
12	0xba8b58d7	-0.0010631335
13	0xb9794972	-0.00023773851
14	0xba5c8c78	-0.00084132655
15	0xb9cbf178	-0.00038899085
16	0xba51c9c7	-0.00080027845
17	0xba2d479e	-0.0006610098
18	0xb8e5bfc2	-0.000109552886
19	0xb9794972	-0.00023773851
20	0xbad469d3	-0.0016205854
21	0xbabf872c	-0.0014612428
22	0xbac14c10	-0.00147474
23	0xbb06f64c	-0.0020593582
24	0x3bb4c34c	0.0055164453
25	0xba2716a7	-0.000637392
26	0x39ad7654	0.00033085293
27	0x3acdc21f	0.0015698111
28	0x3b6490a9	0.0034876263
29	0x3c757530	0.014981553
30	0xba1ad2a4	-0.00059060217
31	0xba2716a7	-0.000637392
32	0xbbbc90ca	-0.005754565
33	0xbbf15f88	-0.0073661245
34	0xbb434a80	-0.0029799044
35	0x3ab5670a	0.0013839912
36	0x00000004	6e-45
37	0x00000004	6e-45
38	0x80000004	-6e-45
39	0x00000004	6e-45
40	0x00000004	6e-45
41	0x00000004	6e-45
42	0x00000004	6e-45
43	0x00000004	6e-45
44	0x00000004	6e-45
45	0x00000004	6e-45
46	0x00000004	6e-45
47	0x00000004	6e-45
48	0x00000004	6e-45
49	0x00000004	6e-45
50	0x00000004	6e-45
51	0x00000004	6e-45
52	0x00000004	6e-45
53	0x00000004	6e-45
54	0x00000004	6e-45
55	0x00000004	6e-45
56	0x00000004	6e-45
57	0x00000004	6e-45
58	0x00000004	6e-45
59	0x00000004	6e-45
60	0x00000004	6e-45
61	0x00000004	6e-45
62	0x00000004	6e-45
63	0x00000004	6e-45
64	0x00000004	6e-45
65	0x00000004	6e-45
66	0x00000004	6e-45
67	0x00000004	6e-45
68	0x00000004	6e-45
69	0x00000004	6e-45
70	0x00000004	6e-45
71	0x00000004	6e-45
72	0xbabbb5c4	-0.0014321138
73	0xb9f45f79	-0.0004661044
74	0xba9a164c	-0.0011755913
75	0xba259791	-0.00063168356
76	0xba2cf428	-0.00065976614
77	0xbaf3b5a3	-0.0018593561
78	0x38753a44	5.8466816e-05
79	0xb9f45f79	-0.0004661044
80	0x3b060296	0.0020448319
81	0x3adb8186	0.0016746975
82	0x39fd2a60	0.00048287492
83	0xba0bb805	-0.000532985
84	0x00000004	6e-45
85	0x00000004	6e-45
86	0x00000004	6e-45
87	0x00000004	6e-45
88	0x00000004	6e-45
89	0x00000004	6e-45
90	0x00000004	6e-45
91	0x00000004	6e-45
92	0x00000004	6e-45
93	0x00000004	6e-45
94	0x00000004	6e-45
95	0x00000004	6e-45
96	0xbb9a807f	-0.004715025
97	0x394c4c14	0.00019483297
98	0xbb80e465	-0.0039334767
99	0xba020fbe	-0.0004961452
100	0xba50e836	-0.00079691724
101	0xbbf0da80	-0.007350266
102	0x3a05c380	0.0005102679
103	0x394c4c14	0.00019483297
104	0x3c106fd6	0.008815726
105	0x3c07bdaf	0.00828497
106	0x3bed54d7	0.0072427797
107	0x3b00bfb4	0.0019645514
108	0xb9c709aa	-0.00037963438
109	0xb99a3d07	-0.00029418638
110	0xbb17b4a2	-0.0023148437
111	0x39329ae0	0.00017033098
112	0x3a2d0898	0.0006600707
113	0x3b8011f2	0.0039083892
114	0xb94ca565	-0.0001951657
115	0xb99a3d07	-0.00029418638
116	0xba51f032	-0.0008008509
117	0xba85cd27	-0.0010208235
118	0x3a1f9d2d	0.00060887897
119	0xbb175ca9	-0.0023096001
120	0xba8fdcd9	-0.0010975852
121	0xb8a1a759	-7.708249e-05
122	0xb0bb9510	-1.3648407e-09
123	0xb8857963	-6.364544e-05
124	0xb8e3fb28	-0.00010870985
125	0x3a164cd4	0.0005733494
126	0x38dc3258	0.00010499795
127	0xb8a1a759	-7.708249e-05
128	0x3a650adc	0.0008737275
129	0x3a5a204a	0.00083208515
130	0x3ab01671	0.0013434422
131	0xba050339	-0.00050740276
132	0xbaa9a0fe	-0.0012941656
133	0xba0ad259	-0.00052956265
134	0xbb0d55f1	-0.0021566118
135	0xba230813	-0.00062191597
136	0xba2c3329	-0.0006568903
137	0xba717e83	-0.0009212272
138	0xb8be35b5	-9.06991e-05
139	0xba0ad259	-0.00052956265
140	0xb95d9ea4	-0.000211353
141	0xb7f77ac6	-2.9501865e-05
142	0xba1538b4	-0.00056923483
143	0xbadf9b03	-0.0017059747
144	0xba93ac34	-0.001126653
145	0xb93cdb70	-0.00018010824
146	0xbb229d6d	-0.0024813071
147	0x38569087	5.1156178e-05
148	0x3929a999	0.00016180276
149	0x3a3808ce	0.0007020355
150	0xb914efe7	-0.0001420375
151	0xb93cdb70	-0.00018010824
152	0xb967e195	-0.00022113913
153	0xb96d261c	-0.00022616278
154	0x3a206ab0	0.00061194133
155	0xbaa599f0	-0.0012634378
156	0xba219b21	-0.00061647786
157	0x394afe17	0.00019358877
158	0x39bdca92	0.00036199816
159	0x395613ed	0.00020416053
160	0x39807427	0.00024500603
161	0x3a38bb91	0.00070469925
162	0x38a959ba	8.075261e-05
163	0x394afe17	0.00019358877
164	0xb9039e24	-0.00012552046
165	0xb8a30bc9	-7.774641e-05
166	0xb85fecdc	-5.3387936e-05
167	0xba112dad	-0.0005538117
168	0xba992af3	-0.0011685773
169	0x39137e45	0.00014066052
170	0xba5ceb45	-0.0008427392
171	0xb9050cfa	-0.00012688703
172	0xb9de8a54	-0.00042446202
173	0xba9a3877	-0.0011766095
174	0xb7912d10	-1.730633e-05
175	0x39137e45	0.00014066052
176	0x39123343	0.00013942741
177	0x38b6b167	8.71148e-05
178	0x399b94bd	0.00029674722
179	0xbad1300f	-0.0015959757
180	0x00000004	6e-45
181	0x00000004	6e-45
182	0x00000004	6e-45
183	0x00000004	6e-45
184	0x00000004	6e-45
185	0x00000004	6e-45
186	0x00000004	6e-45
187	0x00000004	6e-45
188	0x00000004	6e-45
189	0x00000004	6e-45
190	0x00000004	6e-45
191	0x00000004	6e-45
192	0xbabc81e3	-0.0014381971
193	0xb9f95e5c	-0.00047563284
194	0xbacaa7c8	-0.001546138
195	0xba313692	-0.0006760146
196	0xba7cb2dd	-0.000963969
197	0xbacb6b2a	-0.0015519608
198	0xb92526d1	-0.00015750086
199	0xb9f95e5c	-0.00047563284
200	0xbb25335e	-0.002520762
201	0xbb196b62	-0.0023409952
202	0xbafc6342	-0.0019255655
203	0xbb133145	-0.0022459787
204	0x00000000	0.0
205	0x00000000	0.0
206	0x00000000	0.0
207	0x00000000	0.0
208	0x00000000	0.0
209	0x00000000	0.0
210	0x00000000	0.0
211	0x00000000	0.0
212	0x00000000	0.0
213	0x00000000	0.0
214	0x00000000	0.0
215	0x00000000	0.0
216	0xbb9514a3	-0.004549579
217	0xba3dcad8	-0.0007240004
218	0xbb0b8bf3	-0.0021293133
219	0xba2dd13c	-0.00066306046
220	0xb9f8de0f	-0.00047467693
221	0xba90e0a8	-0.0011053281
222	0xb8b64100	-8.6905435e-05
223	0xba3dcad8	-0.0007240004
224	0xba3c4b26	-0.0007182829
225	0xba6908bf	-0.0008889548
226	0x00000004	6e-45
227	0xbb9514a3	-0.004549579
228	0xba230a0b	-0.0006219453
229	0xb9ac529a	-0.0003286794
230	0x00000004	6e-45
231	0xb98b872b	-0.00026612854
232	0x394c3133	0.00019473284
233	0x3b21fe67	0.0024718286
234	0x3898dc91	7.2890085e-05
235	0xb9ac529a	-0.0003286794
236	0x39ce664c	0.000393676
237	0x3a4f77e7	0.000791429
238	0x3b0926e8	0.002092773
239	0xbabcb3f5	-0.0014396893
240	0x37d03f7c	2.4825094e-05
241	0xba2f0a02	-0.00066772115
242	0x3a1421c5	0.0005650784
243	0xba11c1e2	-0.0005560202
244	0xb999204c	-0.00029206497
245	0x38c6c658	9.47832e-05
246	0xb95a992a	-0.00020847158
247	0xba2f0a02	-0.00066772115
248	0xba37ac9e	-0.0007006618
249	0xba8032ef	-0.0009780804
250	0xba3871d3	-0.0007036004
251	0x392e4463	0.00016619409
252	0x3bc1420c	0.005897766
253	0x380c8de0	3.3510732e-05
254	0x3bd0a95c	0.0063678455
255	0xbb680184	-0.0035401294

exp_avg_sq f4 [64, 12]
0	0x3798341e	1.8144081e-05
1	0x345e6487	2.0711933e-07
2	0x373e92df	1.1359079e-05
3	0x35f77aec	1.8438709e-06
4	0x3668b959	3.467858e-06
5	0x38074b69	3.225674e-05
6	0x31a72aa2	4.8651865e-09
7	0x345e6487	2.0711933e-07
8	0x307ce08d	9.199617e-10
9	0x349334fe	2.741944e-07
10	0x3074b70b	8.90268e-10
11	0x379834cd	1.81444e-05
12	0x380cee21	3.3600376e-05
13	0x35969639	1.1219591e-06
14	0x38e360f7	0.000108422646
15	0x36688f6f	3.4654183e-06
16	0x373c130e	1.121011e-05
17	0x389e8466	7.558688e-05
18	0x34b765f0	3.4160576e-07
19	0x35969639	1.1219591e-06
20	0x38854793	6.355266e-05
21	0x386b8ca0	5.6159333e-05
22	0x38614dae	5.3716525e-05
23	0x38180a34	3.6249126e-05
24	0x3a55f57b	0.00081618846
25	0x378fd47f	1.714588e-05
26	0x3a7d3d0c	0.0009660281
27	0x3885c281	6.3781634e-05
28	0x38fb2e72	0.00011977264
29	0x3abb946d	0.0014311202
30	0x3692c6a1	4.3742625e-06
31	0x378fd47f	1.714588e-05
32	0x3a213e7a	0.00061509723
33	0x3a0b8d52	0.00053234876
34	0x3a10f523	0.0005529692
35	0x3a6a7c87	0.00089449476
36	0x261c3ec7	5.420845e-16
37	0x25b00bcf	3.0539135e-16
38	0x25bdb36e	3.290786e-16
39	0x2722deed	2.2602865e-15
40	0x27722f2b	3.3609816e-15
41	0x28dd5aef	2.4575365e-14
42	0x24f5d868	1.0661842e-16
43	0x25b00bcf	3.0539135e-16
44	0x2770e1b9	3.3429055e-15
45	0x28235a71	9.067929e-15
46	0x28d7d5c2	2.3962498e-14
47	0x285b29fa	1.2166044e-14
48	0x000001f4	7e-43
49	0x000001f4	7e-43
50	0x000001f4	7e-43
51	0x000001f4	7e-43
52	0x000001f4	7e-43
53	0x000001f4	7e-43
54	0x000001f4	7e-43
55	0x000001f4	7e-43
56	0x000001f4	7e-43
57	0x000001f4	7e-43
58	0x000001f4	7e-43
59	0x000001f4	7e-43
60	0x000001f4	7e-43
61	0x000001f4	7e-43
62	0x000001f4	7e-43
63	0x000001f4	7e-43
64	0x000001f4	7e-43
65	0x000001f4	7e-43
66	0x000001f4	7e-43
67	0x000001f4	7e-43
68	0x000001f4	7e-43
69	0x000001f4	7e-43
70	0x000001f4	7e-43
71	0x000001f4	7e-43
72	0x3906ef47	0.00012868374
73	0x36d22144	6.2623603e-06
74	0x38b2545a	8.503413e-05
75	0x37c1d810	2.3108005e-05
76	0x380b67f5	3.3237e-05
77	0x39559873	0.00020370055
78	0x35c5a754	1.4726343e-06
79	0x36d22144	6.2623603e-06
80	0x38b260ad	8.505709e-05
81	0x38648cb3	5.4490472e-05
82	0x3888b37a	6.5184155e-05
83	0x3912638e	0.00013960732
84	0x000001f4	7e-43
85	0x000001f4	7e-43
86	0x000001f4	7e-43
87	0x000001f4	7e-43
88	0x000001f4	7e-43
89	0x000001f4	7e-43
90	0x000001f4	7e-43
91	0x000001f4	7e-43
92	0x000001f4	7e-43
93	0x000001f4	7e-43
94	0x000001f4	7e-43
95	0x000001f4	7e-43
96	0x394e8fa8	0.00019699207
97	0x37899682	1.6401758e-05
98	0x3ac1579d	0.0014750842
99	0x389407a2	7.058612e-05
100	0x395adee7	0.00020873138
101	0x3abf6c98	0.0014604507
102	0x369a9933	4.6073924e-06
103	0x37899682	1.6401758e-05
104	0x3a7e77d0	0.00097071845
105	0x3a608ec9	0.00085661985
106	0x3a800cb1	0.0009769407
107	0x3992a4fd	0.00027970216
108	0x39a16abf	0.00030787845
109	0x363afae7	2.7862204e-06
110	0x39d1ba9a	0.00040002615
111	0x3748e12b	1.1973355e-05
112	0x38218c98	3.851633e-05
113	0x39b6dc4e	0.00034877885
114	0x3525ffd6	6.183958e-07
115	0x363afae7	2.7862204e-06
116	0x390c0545	0.00013353403
117	0x38e71709	0.00011019229
118	0x38e1e062	0.000107706306
119	0x39a95daa	0.00032303977
120	0x38ca482f	9.645556e-05
121	0x36562d6e	3.1914929e-06
122	0x35d066b2	1.5527096e-06
123	0x3795b207	1.7845085e-05
124	0x37ca28d5	2.409929e-05
125	0x392b6914	0.00016346975
126	0x3548fcc2	7.4873617e-07
127	0x36562d6e	3.1914929e-06
128	0x388f954f	6.846582e-05
129	0x384183af	4.6137426e-05
130	0x384a6f91	4.8264457e-05
131	0x38da6967	0.00010414683
132	0x38d5fb85	0.000102034806
133	0x360fc49c	2.1423102e-06
134	0x38f1b45f	0.00011525372
135	0x37024dc3	7.766709e-06
136	0x3796b086	1.7963594e-05
137	0x38ea315a	0.00011167182
138	0x352670e9	6.2004125e-07
139	0x360fc49c	2.1423102e-06
140	0x38667aa6	5.49505e-05
141	0x382cbe53	4.118525e-05
142	0x382748f8	3.988386e-05
143	0x38dd2dbd	0.000105466206
144	0x38bb14a1	8.920697e-05
145	0x358b5b4d	1.0382879e-06
146	0x39061992	0.00012788762
147	0x36705a08	3.5815192e-06
148	0x3735f100	1.0844553e-05
149	0x38f94465	0.00011885985
150	0x33cef97f	9.6380056e-08
151	0x358b5b4d	1.0382879e-06
152	0x372fe4bd	1.048407e-05
153	0x36bc8571	5.6183712e-06
154	0x372d2cff	1.032208e-05
155	0x38c11b35	9.208025e-05
156	0x3817fc03	3.623591e-05
157	0x36654ba4	3.4167688e-06
158	0x38284daf	4.012667e-05
159	0x376ae24b	1.4000175e-05
160	0x37a0d23f	1.917139e-05
161	0x38f707ca	0.000117793286
162	0x354247ea	7.237528e-07
163	0x36654ba4	3.4167688e-06
164	0x386828a3	5.5350956e-05
165	0x382d2289	4.1278578e-05
166	0x384e2d28	4.9156282e-05
167	0x3830c356	4.214359e-05
168	0x38f00221	0.00011444488
169	0x3614aa90	2.2153e-06
170	0x38f640b7	0.00011742248
171	0x37266951	9.918892e-06
172	0x37ab180f	2.0395992e-05
173	0x39273ecd	0.00015949756
174	0x350443b9	4.927238e-07
175	0x3614aa90	2.2153e-06
176	0x388879b0	6.5076514e-05
177	0x387c2f91	6.012578e-05
178	0x3841c746	4.6200374e-05
179	0x38f8ced1	0.00011864084
180	0x000001f4	7e-43
181	0x000001f4	7e-43
182	0x000001f4	7e-43
183	0x000001f4	7e-43
184	0x000001f4	7e-43
185	0x000001f4	7e-43
186	0x000001f4	7e-43
187	0x000001f4	7e-43
188	0x000001f4	7e-43
189	0x000001f4	7e-43
190	0x000001f4	7e-43
191	0x000001f4	7e-43
192	0x38b430a1	8.592127e-05
193	0x36050c5d	1.982574e-06
194	0x3908d0a5	0.00013047697
195	0x37100163	8.583392e-06
196	0x37a437dd	1.9576337e-05
197	0x392526b2	0.00015750041
198	0x353538e6	6.751055e-07
199	0x36050c5d	1.982574e-06
200	0x38f36050	0.000116050825
201	0x38d28674	0.00010038624
202	0x38b0819b	8.416475e-05
203	0x38b7acad	8.7582834e-05
204	0x00000000	0.0
205	0x00000000	0.0
206	0x00000000	0.0
207	0x00000000	0.0
208	0x00000000	0.0
209	0x00000000	0.0
210	0x00000000	0.0
211	0x00000000	0.0
212	0x00000000	0.0
213	0x00000000	0.0
214	0x00000000	0.0
215	0x00000000	0.0
216	0x3a070e37	0.00051519595
217	0x36ce9952	6.1571272e-06
218	0x3a2df12b	0.0006635363
219	0x37d430f5	2.5295167e-05
220	0x38a636e3	7.92572e-05
221	0x3a05f9d2	0.00051107735
222	0x35688050	8.6613454e-07
223	0x36ce9952	6.1571272e-06
224	0x38364007	4.345181e-05
225	0x3837a3db	4.3783202e-05
226	0x1a7dd305	5.2489634e-23
227	0x3a070e37	0.00051519595
228	0x3935d1f9	0.00017339726
229	0x366a571d	3.4919424e-06
230	0x017c24b7	4.6311432e-38
231	0x37becf03	2.2746162e-05
232	0x38369256	4.3528467e-05
233	0x39b6fe49	0.00034903202
234	0x35987b90	1.1360844e-06
235	0x366a571d	3.4919424e-06
236	0x392d9624	0.00016554497
237	0x390ee38d	0.00013626945
238	0x3911ffea	0.00013923613
239	0x39473cd7	0.00019000784
240	0x36d4cd78	6.342012e-06
241	0x36635b7c	3.3878887e-06
242	0x38dd95b4	0.000105659856
243	0x3721237c	9.60461e-06
244	0x3778e37f	1.483492e-05
245	0x393e4fb2	0.00018149501
246	0x35038e13	4.900805e-07
247	0x36635b7c	3.3878887e-06
248	0x371a4d3d	9.197099e-06
249	0x37a7d3de	2.000661e-05
250	0x371d153c	9.362873e-06
251	0x36d04d64	6.2078925e-06
252	0x3bd4961c	0.006487621
253	0x388b9fd1	6.6578046e-05
254	0x3bb056ed	0.005381456
255	0x39b6bf2b	0.00034856176

exp_avg f4 [64]
0	0xbac0ecd0	-0.0014719013
1	0xbae53caa	-0.0017489393
2	0x3c6039e5	0.013685678
3	0x00000004	6e-45
4	0x00000004	6e-45
5	0x00000004	6e-45
6	0xbb503dfb	-0.0031775224
7	0x00000004	6e-45
8	0xbc3ed0e2	-0.011646481
9	0x3acf4ea8	0.0015816288
10	0xb9e72a19	-0.0004409112
11	0xbb3d6a20	-0.0028902367
12	0x3888c18b	6.5210355e-05
13	0x39ff519c	0.00048698194
14	0xbafb16fe	-0.0019156632
15	0x00000004	6e-45
16	0xbb3dd6f9	-0.0028967245
17	0x00000000	0.0
18	0xbaca0ecd	-0.0015415788
19	0x3ac60295	0.0015106971
20	0x3a6b15df	0.00089677976
21	0xbcca4402	-0.024690632
22	0xbc0f8e2f	-0.008761927
23	0x3b198585	0.002342553
24	0xbb6d85d8	-0.0036243107
25	0xbad78d0e	-0.0016445236
26	0xbbd8f7bb	-0.0066213286
27	0x00000004	6e-45
28	0x3ae20768	0.0017244639
29	0xbb1d3f64	-0.0023994083
30	0xbbd47e0b	-0.006484752
31	0xbc9e49ef	-0.019322364
32	0x3ae51011	0.0017476102
33	0x3937257a	0.00017466201
34	0x3accd26b	0.0015626674
35	0x3b29cea8	0.002591053
36	0xbb3f36e4	-0.0029177004
37	0x00000004	6e-45
38	0xbbbb24c2	-0.005711169
39	0xbbb10f39	-0.005403426
40	0x3a6074ef	0.00085623463
41	0x00000000	0.0
42	0x3b04034d	0.002014357
43	0x00000004	6e-45
44	0x00000004	6e-45
45	0x39d58b43	0.00040730284
46	0x00000004	6e-45
47	0xbac7a85d	-0.0015232671
48	0x3b83ba5e	0.0040200194
49	0x3c4b51d8	0.01240965
50	0xba6bc290	-0.00089935306
51	0x3be9b076	0.0071316315
52	0xbc86f8dc	-0.016476087
53	0xbac98dc3	-0.0015377331
54	0xbb5d8f16	-0.003380721
55	0x3a1eb3d3	0.00060540176
56	0x00000000	0.0
57	0xbac2294b	-0.0014813332
58	0x00000004	6e-45
59	0x3b85c771	0.004082613
60	0xbae234b5	-0.001725814
61	0x00000004	6e-45
62	0xbc39bf48	-0.011337109
63	0x3a23fc0b	0.0006255514
