models/checkpoint_1000000.pt (torch, 125925 bytes, 33 tensors)

shared.0.weight f4 [64, 12]
0	0xbe72c293	-0.23707037
1	0xbea70ba5	-0.32626072
2	0x3dd26021	0.102722414
3	0x3f7b4479	0.98151356
4	0x3de6be5f	0.11266779
5	0x3ca3c05f	0.01998919
6	0xbedea31c	-0.43483818
7	0xbf019c5f	-0.5062923
8	0xbd96aaab	-0.07356771
9	0xbe60e20c	-0.2196123
10	0xbdd47ab9	-0.1037497
11	0x3d01d306	0.03169539
12	0x3d445da3	0.04794086
13	0x3e8c96b1	0.27458718
14	0xbe521530	-0.20515895
15	0x3f879347	1.059182
16	0x3e867a69	0.26265267
17	0xbdad61d7	-0.08465927
18	0x3e584545	0.21120174
19	0x3f00849a	0.50202334
20	0xb9fb6504	-0.00047949713
21	0xbe3d00d1	-0.18457343
22	0x3cf9f913	0.030514276
23	0x3e81b097	0.2533004
24	0x3e4442da	0.19166127
25	0x3d78b643	0.060720693
26	0x3c9aeb42	0.018911008
27	0xbe0c268a	-0.13686576
28	0xbf61a53e	-0.88142765
29	0x3e060b25	0.13090189
30	0x3e84d869	0.25946358
31	0x3dd141f5	0.102176584
32	0xbdc39611	-0.09550107
33	0x3e1e5296	0.15461192
34	0x3e617c86	0.22020158
35	0x3d1c933f	0.038226362
36	0xbe853402	-0.2601624
37	0xbf13c08a	-0.57715666
38	0xbcf3f58d	-0.029780174
39	0xbd2caaa2	-0.042154916
40	0x3e53dc8b	0.20689599
41	0x3e7399d0	0.23789144
42	0x3d536ded	0.051618505
43	0xbe7f5f62	-0.2493873
44	0xbe0f29c2	-0.13980773
45	0x3d338c1b	0.043834787
46	0x3cfb0ed8	0.030646726
47	0x3e1533a0	0.14570475
48	0x3dc22eed	0.09481607
49	0xbe9d8c96	-0.3077132
50	0x3d8ddaba	0.069264844
51	0xbf361884	-0.7113116
52	0xbe98e41d	-0.29861537
53	0xbe0f7787	-0.1401044
54	0xbf1bf65a	-0.6092278
55	0xbe232018	-0.15930212
56	0x3d0aef2d	0.033919502
57	0x3e04e749	0.12978853
58	0xbe4a8120	-0.1977582
59	0xbea97817	-0.33099434
60	0xbe2d3ccd	-0.16917725
61	0xbcc65073	-0.024208283
62	0xbe9196cb	-0.28435358
63	0xbefb097e	-0.4903068
64	0xbec08c7e	-0.37607187
65	0x3d88f763	0.0668781
66	0xbe1dd098	-0.15411603
67	0xbdaf77f8	-0.08567804
68	0x3bd8d66c	0.006617358
69	0xbca6dad4	-0.020368017
70	0xbd37cb7e	-0.0448718
71	0x3e0043ef	0.12525915
72	0x3c237d6a	0.0099786315
73	0x3f0cfa03	0.5506899
74	0x3d3b9015	0.045791704
75	0x3f10c1ba	0.56545603
76	0xbf31e4d0	-0.69489765
77	0xbcce4978	-0.025181517
78	0x3b21097d	0.0024572306
79	0x3ea78a6a	0.3272279
80	0x3e083239	0.13300408
81	0x3d9c218e	0.076235875
82	0x3da8cc93	0.082421444
83	0x3e7e86c3	0.24856095
84	0x3d91570c	0.07096681
85	0xbeaa2460	-0.33230877
86	0x3d0142a4	0.031557694
87	0xbebf43e0	-0.37356472
88	0xbef4d383	-0.4781762
89	0xbd25f535	-0.04051705
90	0xbef3f525	-0.47647968
91	0xbe67bee2	-0.2263141
92	0xbd146292	-0.036226816
93	0xbe90065f	-0.2812986
94	0x3e2212c1	0.15827467
95	0x3d397a24	0.045282498
96	0xbe568cad	-0.20952101
97	0xbeadba4e	-0.33931202
98	0x3ddefb81	0.10887814
99	0xbf083c74	-0.53217244
100	0x3e5f08a7	0.21780644
101	0x3d1fefd2	0.03904707
102	0xbfcb68c9	-1.5891353
103	0xbe777a07	-0.24167643
104	0x3da810dd	0.082063414
105	0xbcb75bd0	-0.022382647
106	0x3c3fdc8b	0.011710296
107	0xbf759773	-0.9593422
108	0x3e01a682	0.12661174
109	0x3e544f1f	0.20733307
110	0x3d4e69b0	0.05039376
111	0xbdb00e32	-0.085964575
112	0xbf2c5857	-0.67322296
113	0x3e53dcd4	0.20689708
114	0xbf902388	-1.1260843
115	0x3d6b91f2	0.05751223
116	0x3e533af5	0.20627959
117	0xbe44a7a8	-0.19204581
118	0x3e229381	0.15876581
119	0xbe02906a	-0.12750402
120	0x3bc0aeed	0.005880228
121	0x3d5573ac	0.052112266
122	0xbde51c98	-0.111870944
123	0x3ed28c8e	0.4112286
124	0xbf5e4c8d	-0.8683556
125	0xbd9c72e5	-0.07639102
126	0xbe275c11	-0.16343714
127	0xbdca5075	-0.09878627
128	0xbd20b670	-0.039236486
129	0x3d591f10	0.05300814
130	0xbe774cb1	-0.24150349
131	0x3e30c29b	0.17261736
132	0xbe8ec875	-0.27887312
133	0x3f479012	0.7795421
134	0x3e25816a	0.16162649
135	0x3fcd14aa	1.6021931
136	0x3d35ec9e	0.04441511
137	0x3d82a60c	0.06379327
138	0x3eb4cfaa	0.35314685
139	0x3f2a8c44	0.6662028
140	0x3e0951a1	0.13410045
141	0xba98eb88	-0.0011666873
142	0x3e61c32d	0.2204711
143	0x3e91a14e	0.28443378
144	0xbdece1df	-0.11566519
145	0x3e1807c9	0.1484672
146	0x3d08eeeb	0.033430975
147	0xbe8f933c	-0.28042018
148	0xbf131c15	-0.57464725
149	0x3e28e84e	0.16494867
150	0x3e976cc8	0.2957518
151	0xbdf6693b	-0.1203179
152	0x3c6a20df	0.014290064
153	0xbcbc50c8	-0.022987738
154	0xbd5261a3	-0.051362645
155	0x3d660f37	0.056166854
156	0xbee3e6e0	-0.4451208
157	0x3cb3235d	0.021867448
158	0x3cab6d69	0.020926194
159	0x3eda51cc	0.4264053
160	0x3e556617	0.20839725
161	0x3d0949a5	0.0335175
162	0x3f34e568	0.70662546
163	0x3e8674dc	0.26261032
164	0x3dbe1170	0.0928067
165	0xbe5ef0b1	-0.21771504
166	0x3e0644d6	0.13112196
167	0x3eebcb3a	0.46053487
168	0xbe1b8826	-0.15188655
169	0xbdd6a39a	-0.10480423
170	0xbe0927ce	-0.1339409
171	0x3e371758	0.17879999
172	0xbf51d9e9	-0.8197313
173	0x3d9b5eb7	0.07586425
174	0x3e8382bd	0.25685683
175	0xbe4a9d66	-0.19786605
176	0xbcb9a211	-0.022660287
177	0x3ca252cf	0.019814877
178	0x3dbe9db9	0.09307427
179	0x3e5bfe15	0.21483643
180	0x3cfbe060	0.030746639
181	0xbef0184d	-0.4689354
182	0x3df832f8	0.121190965
183	0x3d4cd320	0.050006032
184	0xbf00dfa2	-0.50341237
185	0xbd40de44	-0.04708697
186	0xbeca1c0a	-0.39474517
187	0xbec4efc3	-0.38464174
188	0x3e81167c	0.25212467
189	0xbe7495f4	-0.23885328
190	0x3d3e5aa9	0.04647318
191	0xbe6187d9	-0.22024478
192	0xbe53a0c6	-0.20666799
193	0x3e9dff24	0.3085872
194	0xbc2ecba8	-0.010668673
195	0x3f7adc6d	0.97992593
196	0x3d0dbf3b	0.0346062
197	0xbe2f3609	-0.17110457
198	0x3e105661	0.14095451
199	0x3f16ef54	0.58958936
200	0xbe260d14	-0.16215926
201	0xbdc8c7ea	-0.098037556
202	0x3d8de5f2	0.06928624
203	0x3ed8b54f	0.42325827
204	0x3c990c5e	0.018682655
205	0x3c820370	0.01587078
206	0xbe24deba	-0.16100588
207	0xbd8e186c	-0.06938252
208	0xbe1aa945	-0.15103634
209	0xbd155a83	-0.03646327
210	0x3d30f67b	0.043203812
211	0xbd65363b	-0.05595992
212	0xbd86ab06	-0.06575589
213	0xbdc562c7	-0.09637981
214	0xbd96c731	-0.073622115
215	0xbd01ed38	-0.03172037
216	0xbe81e352	-0.25368744
217	0x3f59bcfc	0.8505399
218	0x3e3ea1de	0.18616435
219	0x3ec482b0	0.38380957
220	0xbd573652	-0.05254204
221	0x3be28052	0.0069122696
222	0x3d2927a7	0.04129758
223	0x3f5f6784	0.8726733
224	0xbd8622cd	-0.065496065
225	0xbd72eeba	-0.0593097
226	0xbf91835f	-1.1368216
227	0xbe8f2f88	-0.2796595
228	0x3dcf30bf	0.101167195
229	0xbedfc092	-0.43701607
230	0xbee31e3c	-0.44359004
231	0x3f43de83	0.765114
232	0x3e7b5ecb	0.2454788
233	0xbe8aaedd	-0.27086535
234	0xbf459ee9	-0.771956
235	0xbec1ecc6	-0.37875956
236	0x3d0d4815	0.03449257
237	0x3e3b6fae	0.18304321
238	0xbd8c11c7	-0.06839328
239	0xbe83e1d7	-0.2575824
240	0xbdbef7a2	-0.09324576
241	0xbd457fec	-0.0482177
242	0x3d616c3e	0.05503487
243	0xbd8128ba	-0.06306596
244	0xbee54eed	-0.44786778
245	0x3de1432f	0.109991424
246	0xbedb0909	-0.4278033
247	0x3c0d850b	0.008637677
248	0xbdbf4116	-0.09338586
249	0x3ed03802	0.4066773
250	0xbe62782f	-0.22116159
251	0xbf07829b	-0.52933663
252	0x3e7c855e	0.2466025
253	0x3dd75dee	0.105159625
254	0xbb9823b1	-0.0046429266
255	0xc0071b57	-2.1110437

shared.0.bias f4 [64]
0	0x3eaf15d5	0.34196344
1	0x3e90dc32	0.28292996
2	0x3bea0551	0.007141747
3	0xbebf6a0b	-0.37385592
4	0x3e19a8c6	0.15005788
5	0x3d7c00ee	0.061524324
6	0x3f1ce377	0.61284584
7	0x3ccb75f7	0.024836523
8	0x3f057833	0.52136534
9	0x3df59b3e	0.11992501
10	0x3eb0145f	0.34390542
11	0x3ee3128a	0.44350082
12	0xbd57b761	-0.052665118
13	0xbcacd9b5	-0.021099905
14	0x3c8cfdc0	0.017210841
15	0xbdb14b73	-0.08656969
16	0x3e8912b1	0.26772073
17	0x00000000	0.0
18	0x3e770ced	0.24126025
19	0x3e6c853c	0.230977
20	0x3d3eb647	0.046560552
21	0x3ea5bd5f	0.3237104
22	0x3d763551	0.06010944
23	0xbecc101b	-0.39856037
24	0x3eea0734	0.4570862
25	0x3eddd021	0.43322852
26	0x3e8c8515	0.27445284
27	0xbc1bfdc4	-0.009520952
28	0x3d91ebb3	0.07125034
29	0x3e2c83d9	0.16847171
30	0x3eceb002	0.40368658
31	0x3ec4267b	0.38310608
32	0x3e6d52ff	0.23176192
33	0xbd1263d6	-0.035739742
34	0xbdb1b1a4	-0.086764604
35	0x3e2e37e6	0.17013511
36	0x3ef7e803	0.48419198
37	0xbd5ba136	-0.05362054
38	0x3ebba6f0	0.366508
39	0x3e7051c7	0.23468696
40	0x3e41576f	0.1888101
41	0x00000000	0.0
42	0x3e8b4d60	0.2720747
43	0xbe59c5bf	-0.2126684
44	0x3d314a69	0.043283854
45	0x3eaa9a8b	0.33321032
46	0x3e49e25f	0.1971526
47	0x3eb06daa	0.34458667
48	0x3db4c3c0	0.08826399
49	0x3e862991	0.26203588
50	0xbe28b368	-0.16474688
51	0x3da7d484	0.08194831
52	0x3e9b10b8	0.30286193
53	0x3ed3548c	0.41275442
54	0x3e6b6a2f	0.22989725
55	0x3e53c916	0.20682177
56	0x00000000	0.0
57	0x3e91b0ea	0.28455287
58	0xbeb62119	-0.35572127
59	0x3d75d5ae	0.060018234
60	0x3e86565a	0.26237756
61	0x3db71dad	0.08941207
62	0x3ded5990	0.11589348
63	0x3e82e3d2	0.25564438

shared.2.weight f4 [64, 64]
0	0xbe354bf6	-0.17704758
1	0xbb1716fe	-0.0023054476
2	0x3f7ca5e1	0.9869061
3	0xbc1c28d1	-0.009531216
4	0x3ebf304d	0.37341538
5	0xbe0883f3	-0.13331585
6	0x3d0401ed	0.0322284
7	0x3e18d043	0.14923196
8	0xbf64942f	-0.8928861
9	0x3f321987	0.695702
10	0x3eb93d47	0.36179563
11	0x3d73453a	0.05939219
12	0x3edc3d52	0.43015534
13	0xbec9c996	-0.3941161
14	0x3e4830b3	0.19549827
15	0x3d654cab	0.05598132
16	0xbe380add	-0.17972894
17	0x3d8646ff	0.0655651
18	0x3e4fa16d	0.20276423
19	0x3db622d5	0.088933624
20	0x3f24a0ad	0.6430767
21	0xbe86b7c5	-0.2631208
22	0x3f21898c	0.63100505
23	0xbe12d4f9	-0.14339055
24	0x3d5cf016	0.0539399
25	0x3e66d0cf	0.22540592
26	0x3e2db671	0.16964127
27	0x3e0d6a53	0.1381009
28	0x3e7233cc	0.23652571
29	0xbf604951	-0.8761187
30	0xbd1e0a59	-0.038584087
31	0x3ee46d76	0.44614762
32	0x3efc63dd	0.4929494
33	0x3f13ea3a	0.57779276
34	0xbe8bf44e	-0.27334827
35	0x3f268fb9	0.65063053
36	0xbd82c393	-0.06384959
37	0x3e448b77	0.19193827
38	0xbdcc91b0	-0.09988725
39	0xbfc284cf	-1.519678
40	0xbe054dd2	-0.13017967
41	0xbe0961df	-0.13416241
42	0x3efb80bc	0.49121654
43	0xbf2f83fa	-0.68560755
44	0x3db49523	0.08817508
45	0x3f2606ce	0.64854133
46	0x3d1b329b	0.037890058
47	0xbd5de9c6	-0.05417802
48	0x3f5b969d	0.8577669
49	0xbe1eff79	-0.15527143
50	0xbd65f925	-0.056145806
51	0xbded7357	-0.11594265
52	0xbeac17e9	-0.33611992
53	0xbbcfe490	-0.0063443854
54	0xbe1b2f5b	-0.15154783
55	0xbdc79c4d	-0.09746609
56	0x3e080985	0.13284881
57	0xbf5ed7c1	-0.87047964
58	0xbdb33620	-0.08750558
59	0xbe4877e1	-0.1957698
60	0x3e4e7dd4	0.20165187
61	0x3f11bbb8	0.5692706
62	0xbcedb927	-0.029018952
63	0xbe17c961	-0.14822914
64	0xbc3aa6d9	-0.011392319
65	0xbd7e80b7	-0.06213447
66	0x3ea62fd7	0.32458374
67	0xbebd6b80	-0.36996078
68	0x3e90e49e	0.2829942
69	0xbc50c8b2	-0.012743162
70	0x3db01562	0.085978284
71	0x3e063cb6	0.13109097
72	0xbec575ef	-0.3856654
73	0x3eb8a674	0.36064494
74	0x3e90308e	0.28162044
75	0xbd87bf46	-0.066282794
76	0x3eb7aafe	0.35872644
77	0xbe7aa89c	-0.24478382
78	0x3e5b03a5	0.21388109
79	0x3ebc4c72	0.36777073
80	0xbd5b9d94	-0.053617075
81	0x3d16e765	0.03684177
82	0x3e55fc73	0.20897083
83	0x3e5a4d53	0.2131856
84	0x3ebbb598	0.36661983
85	0xbed53618	-0.41642833
86	0x3e5b594d	0.21420784
87	0xbe0f3225	-0.13983972
88	0x3d8fef95	0.070281185
89	0x3e12649d	0.14296193
90	0x3eb7d113	0.35901698
91	0xbd36f276	-0.044664823
92	0x3d5da084	0.054108158
93	0xbe8b38e0	-0.2719183
94	0x3e197c56	0.14988837
95	0x3f0fbbdb	0.5614602
96	0x3e48e8c7	0.19620048
97	0x3ec9d4ba	0.3942011
98	0xbcd457ca	-0.025920767
99	0x3e7650e2	0.24054292
100	0xbe584fd2	-0.21124199
101	0x3f22febb	0.6366994
102	0xbc345792	-0.0110072065
103	0xbfbf7d3d	-1.4960095
104	0xbe98f95a	-0.2987774
105	0xbde3a1f8	-0.111148775
106	0x3d6531bc	0.055955634
107	0xbf3f4d60	-0.7472744
108	0xbde71719	-0.112837024
109	0x3e9d4ee6	0.30724257
110	0xbc9b7435	-0.01897631
111	0x3dc7eed0	0.09762347
112	0x3f06973f	0.52574533
113	0xbe3d9583	-0.18514065
114	0xbdbd4dd8	-0.09243363
115	0xbcfdc72b	-0.03097876
116	0x3d8da98e	0.069171056
117	0xbc2aa55a	-0.010415399
118	0x3ba42d62	0.005010293
119	0xbe5c51bc	-0.21515554
120	0x3d2d0e65	0.042250056
121	0xbe98e4f2	-0.2986217
122	0x3de63ef5	0.11242477
123	0xbe95700d	-0.2918705
124	0x3eb1a31d	0.34694758
125	0x3ec28d75	0.37998548
126	0xbece293b	-0.4026583
127	0xbd4168db	-0.04721914
128	0xbe913543	-0.28360948
129	0xbe856732	-0.26055294
130	0x3eefc123	0.4682704
131	0xbe95747a	-0.29190427
132	0xbda9d04d	-0.08291683
133	0xbe9c409e	-0.3051805
134	0xbcfe2672	-0.031024192
135	0x3dbc6729	0.09199364
136	0xbed2bb89	-0.41158703
137	0x3dbf499d	0.093402125
138	0xbd86fdfa	-0.06591411
139	0xbdde22dc	-0.10846493
140	0x3c16193d	0.009161291
141	0xbdb12d29	-0.08651192
142	0xbb5bfd39	-0.003356768
143	0x3d0ba6a8	0.034094483
144	0xbd0189bc	-0.031625494
145	0x3da6fb96	0.08153455
146	0xbe511c6d	-0.20421
147	0xbddb4369	-0.10706217
148	0x3ec4d131	0.3844085
149	0xbf6d3177	-0.926536
150	0x3cf73f7c	0.030181639
151	0xbe74ed76	-0.23918709
152	0x3e5f5da9	0.21813072
153	0x3e6a5b13	0.22886305
154	0x3e303d22	0.1721082
155	0xbda17413	-0.078834675
156	0x3e9d7814	0.30755675
157	0xbeaf6af6	-0.34261292
158	0x3e3b45d0	0.1828835
159	0x3f243346	0.6414074
160	0xbcf4a6ab	-0.02986463
161	0x3deac172	0.11462678
162	0x3d1259ad	0.035730053
163	0x3f1a453a	0.6026188
164	0xbb3a0225	-0.0028382626
165	0x3e184708	0.14870846
166	0x3e007c5c	0.1254744
167	0xbfb11a42	-1.3836138
168	0x3e779b53	0.24180345
169	0xbdad3841	-0.08457995
170	0x3eb66311	0.35622457
171	0xbf060358	-0.5234885
172	0xbd92417c	-0.071413964
173	0xbb80a740	-0.0039261878
174	0xbe634e36	-0.22197804
175	0x3e3963d3	0.18104486
176	0x3c10e745	0.008844201
177	0xbe7767e0	-0.24160719
178	0xbe6df49b	-0.23237841
179	0x3de841fa	0.11340709
180	0x3e236fda	0.15960637
181	0xbc91243f	-0.017717479
182	0x3e31dda6	0.17369708
183	0x3d4921b4	0.049104407
184	0x3e45b581	0.1930752
185	0xbee221f1	-0.4416652
186	0xbe3e8002	-0.18603519
187	0xbeb31036	-0.34973305
188	0x3e240155	0.16016133
189	0x3ed8ba3f	0.42329594
190	0xbeb8fc0b	-0.36129794
191	0x3d4a6452	0.04941208
192	0x3db67571	0.08909119
193	0xbea8d5ca	-0.32975608
194	0xbf0ae0b7	-0.5424914
195	0xbf0634be	-0.5242423
196	0xbd4f818e	-0.050660662
197	0xbe886569	-0.2663987
198	0xbe6ccfbf	-0.23126124
199	0x3e2ab506	0.16670617
200	0x3e41a8c7	0.1891204
201	0x3efd64d8	0.49491
202	0xbd98f5cb	-0.07468756
203	0xbb01efdd	-0.0019826808
204	0xbe93ea0d	-0.28889504
205	0x3e180902	0.14847186
206	0xbf0b9c62	-0.54535496
207	0x3e5ba79f	0.21450661
208	0xbe1a49b7	-0.15067182
209	0x3e2c92d1	0.16852881
210	0x3e76f0fe	0.24115369
211	0xbf94450e	-1.1583574
212	0xbf3eed9c	-0.74581313
213	0xbf409fd0	-0.75243855
214	0x3f121e95	0.57077914
215	0xbef78ca3	-0.48349485
216	0x3e914b18	0.28377604
217	0x3ecfa946	0.40558833
218	0xbe1a49df	-0.15067242
219	0xbde8fcf5	-0.11376373
220	0xbf1cee34	-0.6130097
221	0xbcd71ff6	-0.026260357
222	0x3dc8f4b2	0.09812297
223	0x3ced90de	0.028999742
224	0xbf622c52	-0.8834888
225	0xbf9cc462	-1.2247431
226	0xbf5b9a31	-0.8578215
227	0x3f9745d7	1.1818188
228	0x3d659c16	0.05605706
229	0x3ea74ac7	0.32674238
230	0xbdb46af3	-0.088094614
231	0xbfef4d05	-1.869538
232	0x3dc01d0e	0.09380542
233	0xbe2a4e6a	-0.16631475
234	0x3e97cff9	0.29650858
235	0xbf3d03d7	-0.73833984
236	0xbe4c09c8	-0.19925606
237	0x3ebbf8ab	0.36713156
238	0xbde5b4c2	-0.112161174
239	0x3d881d31	0.06646193
240	0x3e9fc016	0.31201237
241	0x3e0d67ba	0.138091
242	0xbe294310	-0.16529489
243	0xbf2a48cb	-0.66517323
244	0xbf2228be	-0.6334342
245	0xbdf1382d	-0.11778293
246	0x3ea10d55	0.31455484
247	0xbd9b1c24	-0.07573727
248	0xbe0a192a	-0.13486162
249	0xbecf0ea7	-0.40440866
250	0xbf444e86	-0.7668232
251	0xbdbf97e2	-0.09355141
252	0xbf7d90cb	-0.9904906
253	0x3efa70de	0.48914236
254	0xbf067e5f	-0.52536577
255	0xbf941b29	-1.1570789

shared.2.bias f4 [64]
0	0x3e4f900e	0.20269796
1	0x3eeb8667	0.46000978
2	0x3eddd4dd	0.43326464
3	0x3d7f4270	0.06231922
4	0x3e2f24d0	0.17103887
5	0x3d9da526	0.07697515
6	0xbd1a4d01	-0.037671093
7	0x3c1a5615	0.009419938
8	0xbf1b649c	-0.6070039
9	0x3f1fc7f8	0.62414503
10	0x3eb1d0b7	0.3472955
11	0x3e83f4a0	0.25772572
12	0x3ecc97c4	0.39959538
13	0x3eec07aa	0.46099597
14	0x3f1ba13f	0.60792917
15	0xbcd2c2df	-0.025727687
16	0x3de942fc	0.113897294
17	0xbcc3316a	-0.023827273
18	0x3f00dbac	0.5033519
19	0x3e12b7da	0.14327946
20	0x3e9cdb3f	0.30636021
21	0x3e74406c	0.238527
22	0x3eaf9006	0.3428957
23	0x3f25e32e	0.64799774
24	0x3f214b2d	0.63005334
25	0x3f1f04e1	0.6211682
26	0x3ea17ea1	0.31541923
27	0x3e8db3c3	0.2767621
28	0x3e4a55a2	0.19759229
29	0x3e77bef2	0.24193934
30	0x3f0b0fb4	0.54320836
31	0x3e968e6b	0.2940553
32	0x3f2e3c16	0.68060434
33	0x3f08b7ac	0.5340526
34	0x3e6f90c8	0.23395073
35	0x3f1e4615	0.61825687
36	0x3f21d89c	0.63221145
37	0x3eaccb05	0.33748642
38	0x3eb99be9	0.36251763
39	0x3f22fded	0.6366871
40	0xbceea694	-0.029132165
41	0x3e6faf5e	0.23406741
42	0x3f1cef22	0.6130239
43	0x3ef9f4c3	0.4881955
44	0xbd305690	-0.043051302
45	0xbdd92b0b	-0.10603913
46	0x3f0716d1	0.5276919
47	0x3ec61ba4	0.38692963
48	0x3eb66d86	0.35630435
49	0x3e7a2f4e	0.24432108
50	0x3f0fde9b	0.56199044
51	0x3f0b47e9	0.544066
52	0x3e9c8f56	0.30578107
53	0x3ebe7a02	0.3720246
54	0x3db524a6	0.08844881
55	0xbd069d97	-0.032865133
56	0x3f265533	0.64973754
57	0xbe53bced	-0.20677538
58	0x3ee8b03c	0.45446956
59	0x3effa0fd	0.49927512
60	0x3e80a191	0.25123265
61	0x3f285ccd	0.657666
62	0x3e96209d	0.29321757
63	0x3eefbaeb	0.46822295

actor.0.weight f4 [32, 64]
0	0xbda343df	-0.0797193
1	0xbe6074b2	-0.21919516
2	0xbdd414f3	-0.10355558
3	0xbdd4396d	-0.103625156
4	0x3d78d853	0.060753178
5	0x3e1661bb	0.14685719
6	0xbe452167	-0.19251023
7	0xbe18aba5	-0.14909227
8	0x3dd3eb2b	0.10347589
9	0x3deb4425	0.11487607
10	0xbe5bdadf	-0.21470211
11	0x3ddd7120	0.108125925
12	0x3dc3beb2	0.095578566
13	0x3bf4665a	0.0074584903
14	0x3c89b9b3	0.016812181
15	0xbd90946b	-0.070595585
16	0x3d82f4c0	0.063943386
17	0x3dd4cbfd	0.1039047
18	0xbd047ee3	-0.03234757
19	0xbe5c9c41	-0.21543981
20	0x3cbfd836	0.023418527
21	0xbe2093d1	-0.15681387
22	0x3ddec20b	0.108768545
23	0xbc72d997	-0.014822385
24	0xbc78a2bf	-0.01517552
25	0xbde8a06f	-0.11358725
26	0x3ce5b388	0.028039709
27	0xbdd4d1c9	-0.10391576
28	0xbcbd50fe	-0.02310991
29	0xbe98780b	-0.29779086
30	0xbd865b8d	-0.06560431
31	0xbeb2b773	-0.34905586
32	0x3d0ad959	0.033898685
33	0xbdf1c29d	-0.11804698
34	0x3dc2698a	0.09492786
35	0x3de5a55c	0.112131804
36	0xbe238110	-0.15967202
37	0xbe1811b6	-0.14850506
38	0xbe85e770	-0.26153135
39	0xbde732c0	-0.11288977
40	0xbb6d4936	-0.0036206967
41	0x3dab91f6	0.08377449
42	0xbd16d57d	-0.036824692
43	0xbe9120c8	-0.28345323
44	0x3cbb9e5b	0.022902658
45	0x3d4402f5	0.047854383
46	0x3d0a9590	0.03383404
47	0xbc42a021	-0.011878998
48	0xbddf923a	-0.109165624
49	0xbce8580f	-0.028362302
50	0xbe280edc	-0.16411918
51	0xbda677f5	-0.08128349
52	0xbe0c0f6e	-0.13677761
53	0x3dcc0386	0.099616095
54	0xbd33b2e2	-0.043871768
55	0xbdb51989	-0.08842761
56	0x3e4c1f49	0.1993381
57	0xbe5ca42b	-0.21547
58	0xbd92fc82	-0.07177068
59	0xbd9639b0	-0.07335222
60	0x3d4e793f	0.050408598
61	0xbcd9aed9	-0.026572632
62	0x39a45659	0.00031344852
63	0xbd094566	-0.03351345
64	0xbd2f2309	-0.04275802
65	0x3e33fe7a	0.17577544
66	0xbd01a1f0	-0.031648576
67	0x3c60f31c	0.013729837
68	0x3e97e596	0.29667348
69	0xbd185ffc	-0.037200913
70	0x3a0e32b1	0.0005424424
71	0x3d9b0689	0.07569606
72	0xbdd016a8	-0.10160571
73	0xbc0aab6e	-0.008463724
74	0x3d8c4c21	0.06850458
75	0x3ddf4b41	0.109030254
76	0xbe13a4d3	-0.14418344
77	0xbe0740a0	-0.13208246
78	0x3db4f2a8	0.088353455
79	0x3de8951d	0.11356566
80	0xbedbe4e8	-0.4294808
81	0x3d95b494	0.07309833
82	0xbdccfef3	-0.10009565
83	0xbd42b52b	-0.047536056
84	0x3c57250e	0.013131393
85	0xbdda3cff	-0.10656165
86	0x3d935571	0.07194031
87	0xbd15fa1b	-0.036615472
88	0xbda3d85c	-0.08000252
89	0x3b5d28e9	0.0033746308
90	0x3cbebeef	0.023284404
91	0x3e8e2f36	0.27770394
92	0x3e05ef65	0.13079603
93	0x3e5e2ff8	0.21697986
94	0x3cf5de54	0.03001324
95	0x3b7e6567	0.0038817765
96	0x3d284e0d	0.04109006
97	0xbb556031	-0.0032558555
98	0x3d0b5abf	0.03402209
99	0xbdc826c1	-0.09773017
100	0xbe20b962	-0.15695718
101	0xbc554a76	-0.013018241
102	0xbe6c15f7	-0.23055254
103	0xbd660ef2	-0.056166597
104	0x3e1548d5	0.14578564
105	0x3e404e27	0.18779813
106	0x3d029db5	0.031888682
107	0xbdd342e4	-0.10315493
108	0xbd854806	-0.06507878
109	0x3e002c49	0.12516893
110	0xbc80e716	-0.01573519
111	0xbc9e2872	-0.019306395
112	0x3df9f3cf	0.12204706
113	0xbe36d17e	-0.17853352
114	0xbd737975	-0.059442002
115	0xbe861061	-0.2618437
116	0xbe11fc80	-0.14256477
117	0xbdde1e91	-0.10845674
118	0xbe1c439e	-0.15260169
119	0x3c82ed53	0.015982306
120	0xbd72726b	-0.05919115
121	0xbdb3e9d6	-0.08784835
122	0x3bf95d5a	0.0076100053
123	0xbe519d38	-0.2047013
124	0xbb821056	-0.0039692326
125	0xbdb22d40	-0.08700037
126	0xbc01d04a	-0.007923195
127	0x3dd0690b	0.10176285
128	0x3de5c056	0.11218326
129	0x3d9604eb	0.07325157
130	0xbe362f01	-0.17791368
131	0xbe8ced46	-0.27524775
132	0xbef3510e	-0.47522777
133	0x3f8f99e0	1.1218834
134	0xbcbcebe5	-0.023061702
135	0x3e03555d	0.12825532
136	0xbeb18c74	-0.3467747
137	0xbe39f19b	-0.18158571
138	0x3c61dd29	0.013785639
139	0x3e48acc7	0.1959716
140	0xbc99a526	-0.018755507
141	0xbded38d6	-0.11583106
142	0xbdc741c6	-0.09729342
143	0xbc0ea4a3	-0.008706245
144	0xbeb0d622	-0.3453837
145	0xbd3bedff	-0.045881268
146	0x3eac66b5	0.3367211
147	0x3eb0871d	0.34478083
148	0x3d95d2da	0.07315607
149	0xbde9d57d	-0.11417673
150	0xbcc6d628	-0.02427204
151	0xbe166de4	-0.14690357
152	0xbc8cb20f	-0.017174749
153	0xbda85a4f	-0.0822035
154	0x3e92c853	0.2866846
155	0x3d6e2866	0.058143996
156	0x3ec32c17	0.38119575
157	0xbe3cc82e	-0.18435737
158	0x3e682316	0.22669634
159	0xbee009ca	-0.43757468
160	0x3ea12e39	0.31480578
161	0x3e3b6fb7	0.18304335
162	0xbdfc7471	-0.12326897
163	0xbd8fe4ce	-0.07026063
164	0x3cdc1aa4	0.026868172
165	0xbd9427a1	-0.07234121
166	0xbe93b9a6	-0.28852576
167	0x3dc9cb8b	0.09853276
168	0xbcec0ef3	-0.028815722
169	0x3e50c016	0.20385775
170	0xbde2aef7	-0.11068528
171	0x3d2f557b	0.04280613
172	0xbb2b1a4f	-0.002610821
173	0x3cfc5c12	0.030805621
174	0xbe91b05c	-0.28454864
175	0xbcd69575	-0.026194314
176	0xbeafc713	-0.3433157
177	0x3df08ab4	0.117452055
178	0xbd0f101a	-0.034927465
179	0xbbb2a677	-0.005451973
180	0x3d8f634e	0.07001363
181	0x3e7ab109	0.24481596
182	0xbdf7d87f	-0.1210184
183	0xbd42238a	-0.047397174
184	0x3e7a5199	0.2444519
185	0x3e2bbc09	0.16770948
186	0x3e956c29	0.29184082
187	0x3eaf970e	0.34294933
188	0x3e9fe40c	0.31228673
189	0xbe3bffe1	-0.18359329
190	0x3ee5667c	0.44804752
191	0xbda6eb4c	-0.08150348
192	0xbdc57239	-0.09640927
193	0xbda3152f	-0.07963025
194	0x3d4c87a5	0.04993405
195	0xbe0c766d	-0.13717051
196	0x3d7c3770	0.061576307
197	0xbd03d7d3	-0.032188248
198	0x3da5df64	0.08099249
199	0x3e0ac7a5	0.13552721
200	0x3e4e5392	0.20149067
201	0xbe2c4783	-0.16824155
202	0x3dc98a72	0.098408595
203	0x3c5ad37b	0.013356085
204	0xbe03753e	-0.12837693
205	0x3d826d02	0.06368448
206	0x3ceec5a4	0.029146977
207	0xbe415191	-0.18878771
208	0x3d3b8422	0.04578031
209	0xbcc9a78a	-0.024616022
210	0x3cc70ab8	0.024297103
211	0xbc166d2d	-0.009181303
212	0x3d7f587d	0.06234025
213	0xbd7d5972	-0.06185288
214	0x3cce15ea	0.025156934
215	0x3e142534	0.14467317
216	0xbdf5c743	-0.12000897
217	0xbdf50662	-0.11964108
218	0x3da05799	0.07829208
219	0x3e80fe63	0.25194082
220	0xbc45641d	-0.012047795
221	0xbdd922b6	-0.10602324
222	0x3dcb0d85	0.09914688
223	0x3e215f6a	0.15759054
224	0x3c8d0537	0.0172144
225	0xbdfd45b7	-0.12366813
226	0x3d64ab55	0.055827457
227	0x3c17e811	0.009271638
228	0xbd87d350	-0.066321015
229	0xbe5f6390	-0.21815324
230	0xbcbe0b22	-0.023198668
231	0xbe5ac3e7	-0.21363793
232	0x3e113045	0.1417857
233	0xbe36807f	-0.17822455
234	0xbe3f1c0b	-0.18663041
235	0xbd8df3e6	-0.069312856
236	0x3d4b8f7a	0.049697377
237	0x3dc86fa7	0.09786921
238	0x3e352a23	0.17691855
239	0xbd9c75f4	-0.07639685
240	0xbe7478d9	-0.23874225
241	0x3b7e11ca	0.0038767927
242	0xbda04ec3	-0.078275226
243	0x3da2004b	0.07910212
244	0x3e15547c	0.1458301
245	0xbe517966	-0.20456466
246	0xbdaaa7dd	-0.08332799
247	0xbe4e21d4	-0.20130092
248	0xbcd047fd	-0.025424952
249	0x3e216184	0.15759856
250	0x3ebe7b90	0.37203646
251	0x3e8b69c5	0.27229133
252	0xbdc063b1	-0.093940146
253	0xbc27098e	-0.010195149
254	0x3c3da583	0.011575106
255	0xbe0fce64	-0.14043576

actor.0.bias f4 [32]
0	0xbcd58866	-0.026066016
1	0xbc556f76	-0.013027063
2	0x3e52db82	0.20591548
3	0x3c8af4ed	0.016962493
4	0xbc96d84f	-0.01841369
5	0x3d7649f9	0.06012914
6	0xbe9c525d	-0.30531588
7	0xbe8f72b6	-0.28017205
8	0x3dab8f1c	0.08376905
9	0x3eb5ec2b	0.35531744
10	0x3e9c0562	0.30472857
11	0xbc099310	-0.008396879
12	0x3dedc764	0.11610296
13	0x3e2ac062	0.1667495
14	0x3bf22c49	0.007390533
15	0x3d07ed79	0.033185456
16	0xbe95c68b	-0.2925304
17	0xbc832097	-0.016006751
18	0xbe828137	-0.25489208
19	0xbc51b4d1	-0.012799458
20	0xbd689ca5	-0.056790013
21	0xbd5a8702	-0.05335141
22	0xbd0c9873	-0.034325074
23	0xbc8b9fcc	-0.01704397
24	0xbd0ab688	-0.03386548
25	0x00000000	0.0
26	0xbea16fad	-0.31530514
27	0xbc190457	-0.009339414
28	0xbb95ac2e	-0.0045676446
29	0xbb529b8c	-0.003213617
30	0x3e0ad4b5	0.13557704
31	0xbcbbbcd8	-0.022917196

actor.2.weight f4 [2, 32]
0	0xbe334c8e	-0.17509672
1	0xbe7da28c	-0.24769038
2	0x3ebb5831	0.36590722
3	0x3d836b66	0.06416969
4	0xbca58d10	-0.020208865
5	0x3e9ef1a0	0.3104372
6	0xbf980024	-1.1875043
7	0xbf4edabc	-0.8080251
8	0x3ecdb10a	0.40174133
9	0x3ff943ea	1.9473851
10	0x3f583821	0.84460646
11	0x3e88f6d6	0.2675082
12	0x3f34d89b	0.70643014
13	0xbc7e0d49	-0.015506097
14	0x3b966ae2	0.004590378
15	0xbe891721	-0.26775458
16	0xbfc1217e	-1.5088346
17	0xbda5da4b	-0.08098277
18	0xbf76069c	-0.96103835
19	0xbd1dfc47	-0.03857067
20	0xbbcaaae6	-0.0061849235
21	0x3dff5720	0.1246779
22	0x3cd81e66	0.026381683
23	0xbe0a0a50	-0.13480496
24	0xbf0b5a22	-0.54434407
25	0xbe6c2b00	-0.23063278
26	0xbfb5cde2	-1.4203455
27	0xbe066480	-0.13124275
28	0x3dc205b6	0.094737455
29	0x3e798d99	0.24370421
30	0x3ed44976	0.41462296
31	0x3c40c2df	0.011765211
32	0x3e24869a	0.16066971
33	0xbca94d7c	-0.02066683
34	0xbed060d7	-0.40698883
35	0xbe89f7ba	-0.26946813
36	0xbe8021fc	-0.25025928
37	0xbedeb2e9	-0.43495873
38	0x3f8bfd0f	1.0936602
39	0x3f3f1723	0.7464468
40	0xbf376b93	-0.7164852
41	0xc0009fc5	-2.0097516
42	0xbf774fd2	-0.9660617
43	0xbda0d390	-0.07852852
44	0xbf6e334f	-0.9304704
45	0xbf3bcac6	-0.7335628
46	0xbeab1253	-0.33412418
47	0x3ef908a0	0.48639393
48	0x3fc4458e	1.5333726
49	0xbe0ea2af	-0.13929246
50	0x3f6cd14f	0.9250688
51	0xbe55d343	-0.20881371
52	0xbe9f371e	-0.3109674
53	0x3e133d4f	0.14378856
54	0xbd511368	-0.051043898
55	0xbd2c2ad0	-0.042033017
56	0x3de504d9	0.11182565
57	0x3d58af6f	0.05290168
58	0x3fa36d75	1.2767779
59	0x3d8e22fe	0.06940268
60	0xbe19d65a	-0.15023175
61	0xbd58e1af	-0.052949604
62	0x3d8b0982	0.06788923
63	0xbe3d93a1	-0.18513347

actor.2.bias f4 [2]
0	0x3ea2c9c0	0.31794548
1	0xbea2c9ae	-0.31794494

critic.0.weight f4 [32, 64]
0	0x3e492372	0.19642428
1	0xbe546891	-0.20743014
2	0xbde52f2b	-0.11190637
3	0x3ceb4b76	0.028722506
4	0xbd55b8b3	-0.052178096
5	0xbd0041ee	-0.031312875
6	0xbe330c80	-0.17485237
7	0xbca2d239	-0.019875633
8	0x3d31928e	0.043352656
9	0x3e550a55	0.20804723
10	0x3d34b51a	0.044118024
11	0x3dbbf326	0.09177236
12	0xbd4e7d98	-0.050412744
13	0xbc29c248	-0.010361262
14	0x3d4f8dc6	0.050672315
15	0x3d959497	0.07303732
16	0xbc9ec730	-0.01938209
17	0xbdca4bde	-0.09877752
18	0xbd35e9f5	-0.044412572
19	0xbdc89e3a	-0.09795804
20	0xbe90f7b5	-0.28313985
21	0x3d3a43da	0.045474865
22	0x3e0ab16c	0.13544244
23	0x3dab44a2	0.083627
24	0xba46cdb8	-0.0007583755
25	0xbdbb63a6	-0.09149866
26	0xbda1f33e	-0.07907723
27	0xbda555c9	-0.08073003
28	0x3dbef373	0.09323778
29	0xbd59d250	-0.053179085
30	0xbdaf9f3d	-0.08575294
31	0xbd57f999	-0.05272827
32	0xbcb2542f	-0.021768657
33	0x3cec77ec	0.028865777
34	0x3cb9f818	0.022701308
35	0x3e203779	0.15646161
36	0xbec2bc16	-0.38034123
37	0xbe9439be	-0.28950304
38	0xbcc199e2	-0.023632947
39	0xbda1a351	-0.07892478
40	0x3e19896c	0.14993829
41	0xbc81cfa2	-0.015846077
42	0xbd9840e1	-0.0743425
43	0x3e76d01e	0.24102828
44	0x3e1f6183	0.15564542
45	0x3d077601	0.03307152
46	0x3e7defb2	0.24798468
47	0xbde1f724	-0.110334665
48	0x3e26d410	0.16291833
49	0xbe1f38b7	-0.15548979
50	0xbde26777	-0.110548906
51	0xbd3c9c85	-0.046047706
52	0xbd51a02c	-0.051178142
53	0xbe80157b	-0.25016388
54	0x3da1c243	0.078983806
55	0xbea0d0be	-0.31409258
56	0x3cc6aae9	0.024251418
57	0xbcb5eb29	-0.02220686
58	0xbd9ac286	-0.07556634
59	0xbd1e158e	-0.038594775
60	0x3e03b573	0.12862186
61	0xbe00cdf4	-0.12578565
62	0x3dcf9bfd	0.10137174
63	0xbc7488a5	-0.014925157
64	0xbe27b483	-0.16377454
65	0x3cbae365	0.022813508
66	0x3cf96b78	0.030446753
67	0xbe9d17a0	-0.30682087
68	0x3fbfe8be	1.4992902
69	0x3ec2ed53	0.3807169
70	0x3dfe4111	0.12414754
71	0xbd90cea3	-0.07070663
72	0xbf1c3e7b	-0.6103284
73	0x3e78ef6f	0.24310087
74	0xbed26ce0	-0.4109869
75	0xbf15d962	-0.58534825
76	0xbf0a01b6	-0.5390886
77	0xbe73cfd0	-0.23809743
78	0x3db2b09d	0.087250926
79	0x3e10bce2	0.14134553
80	0x3ec2df08	0.38060784
81	0xbd3e6ac8	-0.046488553
82	0x3e69c4c8	0.22828972
83	0x3ef3466f	0.47514674
84	0x3e81964f	0.2530999
85	0x3f374d13	0.7160198
86	0x3ed4d414	0.41568053
87	0xbe0775e6	-0.13228568
88	0xbe01d61b	-0.12679331
89	0x3d9b1d91	0.07573999
90	0x3e4c4f92	0.19952229
91	0xbf34a9e0	-0.7057171
92	0x3f3c1de5	0.73483115
93	0xbf871fa8	-1.0556536
94	0x3e2e12c5	0.16999348
95	0xbddcdc40	-0.10784197
96	0x3c7f3305	0.015576129
97	0x3d7da15c	0.061921462
98	0xbee1b8ba	-0.44086248
99	0x3d081052	0.03321869
100	0xbddf6e54	-0.10909715
101	0x3ebae811	0.36505178
102	0xbb9e81b1	-0.0048372378
103	0x3ce50889	0.027958171
104	0xbd80c0b0	-0.06286752
105	0x3e8c2663	0.27373037
106	0x3df84494	0.12122455
107	0xbe883d87	-0.26609442
108	0x3cc88f3e	0.024482366
109	0x3d98863a	0.07447477
110	0x3f07021c	0.52737594
111	0xbea9e2f0	-0.33180952
112	0x3ec6a3fb	0.38796982
113	0xbe81afbe	-0.25329393
114	0xbe7c0a01	-0.24613191
115	0x3da7b08e	0.08187972
116	0x3e9a45d4	0.301314
117	0x3ee65173	0.44984016
118	0xbd961692	-0.07328524
119	0xbe1b5406	-0.15168771
120	0x3d5705fe	0.05249595
121	0xbe519fad	-0.20471068
122	0xbf0449a0	-0.5167484
123	0xbe8355ea	-0.25651485
124	0xbf107784	-0.56432366
125	0x3d951850	0.07280028
126	0x3f2d7e61	0.67770964
127	0x3f932ffa	1.1499016
128	0xbf33f8e5	-0.7030166
129	0xbe40ff31	-0.18847348
130	0xbe64a7a6	-0.22329578
131	0xbe83991c	-0.2570275
132	0x3fb639c9	1.4236385
133	0x3e1be358	0.15223444
134	0x3dec32d7	0.115331344
135	0x3e261209	0.16217817
136	0xbf358c0a	-0.7091681
137	0x3e20185d	0.15634294
138	0xbf12278b	-0.5709159
139	0xbf75bde4	-0.95992875
140	0xbecdce15	-0.4019629
141	0xbf084356	-0.53227746
142	0x3c726741	0.014795125
143	0xbd996197	-0.07489317
144	0x3ea1444c	0.3149742
145	0xbdea917e	-0.11453532
146	0x3dad4c89	0.084618635
147	0x3ec5c470	0.38626432
148	0x3f0c875e	0.54894054
149	0x3f25d1bc	0.64773154
150	0x3f0f2a0f	0.5592355
151	0xbe264808	-0.16238415
152	0x3d6b003f	0.05737328
153	0x3c95841b	0.01825147
154	0x3e1b2907	0.1515237
155	0xbeb841a8	-0.35987592
156	0x3f6d05d4	0.9258702
157	0xbf6cbfb2	-0.92480004
158	0xbe3dde8e	-0.18541929
159	0xbe23c3f4	-0.15992719
160	0x3d032d75	0.032025773
161	0x3ddd29e0	0.10799003
162	0xbebef4cb	-0.37296137
163	0xbe08ad74	-0.13347417
164	0x3cfe9cac	0.031080566
165	0x3e9f94b2	0.31168133
166	0x3e4dab99	0.2008499
167	0x3e672424	0.2257238
168	0x3e0fca2e	0.14041969
169	0x3f1d5d2e	0.61470306
170	0x3dd4e2f8	0.10394853
171	0xbd95c059	-0.07312078
172	0x3ea5e2a4	0.32399476
173	0xbdea7bf1	-0.11449421
174	0x3edcc9a7	0.431226
175	0xbe47b72d	-0.1950347
176	0x3ed373d2	0.412993
177	0xbe56bcae	-0.20970413
178	0x3e05a5df	0.13051556
179	0xbbb0f800	-0.0054006577
180	0x3f2a6e90	0.66574955
181	0x3edbbe10	0.42918444
182	0xbe43f006	-0.1913453
183	0x3d840afd	0.06447408
184	0x3e8ef9d6	0.27924985
185	0x3e2542db	0.16138785
186	0xbeee9de4	-0.46604836
187	0xbef10764	-0.4707595
188	0xbf3039e8	-0.6883836
189	0xbe3f2f0c	-0.1867029
190	0x3f8e88d4	1.1135507
191	0x3f67096c	0.9024875
192	0xbedbbe41	-0.4291859
193	0xbeb5d96f	-0.3551745
194	0xbc02cc59	-0.007983291
195	0xbf0305c8	-0.51180696
196	0x3ff16b09	1.886079
197	0x3f002416	0.5005506
198	0x3e24cf0b	0.16094606
199	0xbd6246eb	-0.055243414
200	0xbf90e780	-1.1320648
201	0x3d3f949d	0.046772588
202	0xbef47f84	-0.47753537
203	0xbedd1875	-0.43182722
204	0xbe834f71	-0.25646546
205	0xbeab500e	-0.33459514
206	0xbd418bce	-0.04725247
207	0x3c1731c1	0.009228171
208	0x3ee08e08	0.4385836
209	0x3c59e617	0.013299487
210	0x3e4fe52f	0.2030227
211	0x3f1873b8	0.5955157
212	0x3f3873ce	0.72051704
213	0x3f5bd20b	0.85867375
214	0x3ecacc3c	0.39608943
215	0x3d30ed99	0.04319534
216	0x3da4c1df	0.080447905
217	0xbe34d4c1	-0.17659284
218	0x3d7f14ff	0.062275883
219	0xbf3ff17d	-0.74977857
220	0x3f3b0335	0.7305177
221	0xbfa119c5	-1.2585989
222	0x3db6e179	0.08929724
223	0xbd4cbbc1	-0.049983744
224	0xbdaa3a61	-0.08311916
225	0x3d74241f	0.05960476
226	0xbeacc5cb	-0.33744654
227	0xbd6f09b4	-0.058358863
228	0x3d8c1c8c	0.068413824
229	0x3e376725	0.1791044
230	0xbea6575f	-0.32488534
231	0xbd93b02f	-0.07211339
232	0xbd44ee4e	-0.048078828
233	0x3f652b23	0.89518946
234	0xbdb7b952	-0.08970894
235	0x3ec2f50b	0.38077578
236	0x3cf6490a	0.030064125
237	0xbdfc5a01	-0.123218544
238	0x3ec66c50	0.3875451
239	0xbe03c905	-0.12869652
240	0x3ed961c2	0.42457396
241	0x3dfad378	0.12247366
242	0x3e3f8c49	0.18705858
243	0xbad48a24	-0.0016215486
244	0x3e6c4b07	0.23075496
245	0x3e1d74e0	0.15376616
246	0xbc7e2dd0	-0.015513852
247	0x3dd14ba4	0.102195054
248	0x3d2354fd	0.039875973
249	0x3e7e57b8	0.2483815
250	0xbe9da00b	-0.30786166
251	0xbe935224	-0.28773606
252	0xbf5aefdc	-0.85522246
253	0x3ebe944c	0.37222517
254	0x3f60dcdd	0.8783701
255	0x3f8ff104	1.1245427

critic.0.bias f4 [32]
0	0xbcdde193	-0.027085101
1	0x3e4c578e	0.19955274
2	0x3e590ec0	0.21197033
3	0x3e850c4e	0.2598595
4	0x3f331fce	0.69970405
5	0x3f35e553	0.71053046
6	0x3d9fd804	0.078048736
7	0x3f43e4f9	0.7652126
8	0x00000000	0.0
9	0x3e0ae682	0.13564494
10	0x3f4b63cb	0.79449147
11	0x3f34f8ed	0.7069233
12	0x3f3678b5	0.71277934
13	0xbcac6962	-0.021046344
14	0x3f3cf33c	0.73808646
15	0xbc60e0ee	-0.013725502
16	0x3f3befb2	0.7341262
17	0x3e91a1ac	0.28443658
18	0xbd26f912	-0.040764876
19	0x3f2d9bb5	0.67815715
20	0x3f390540	0.72273636
21	0x3f3aef6e	0.7302159
22	0x3f34e44d	0.7066086
23	0x3f31975b	0.69371575
24	0x3f37828c	0.71683574
25	0x3f3ec999	0.74526364
26	0x3f34ab9c	0.70574355
27	0xbe8c1c48	-0.27365327
28	0x3f31d27c	0.694618
29	0x3e8d71e2	0.27625948
30	0x3f33fd11	0.70308024
31	0x3f44c25b	0.7685906

critic.2.weight f4 [1, 32]
0	0xbd3ce1d7	-0.046113815
1	0x3f84c60c	1.0372939
2	0x3f7f1c46	0.99652517
3	0x3fb92939	1.4465705
4	0xbef97b0b	-0.48726687
5	0xbe9e0f27	-0.30870935
6	0x3f0a3627	0.5398888
7	0xbe9e2c05	-0.3089296
8	0x3e4efc1e	0.20213363
9	0x3f210746	0.62901723
10	0xbe867b9f	-0.2626619
11	0xbec50050	-0.384768
12	0xbf06db08	-0.52677965
13	0x3c068330	0.0082099885
14	0xbeb19eb5	-0.34691396
15	0x3cf8ba4f	0.030362276
16	0xbead1a3f	-0.33809087
17	0x3f9babfc	1.216186
18	0x3c04f78b	0.0081156595
19	0xbee483fb	-0.44631943
20	0xbf14ec09	-0.5817266
21	0xbf132f11	-0.5749369
22	0xbf10f387	-0.56621593
23	0xbee9da78	-0.4567449
24	0xbec52946	-0.38508052
25	0xbeba10fa	-0.36341077
26	0xbece32b9	-0.40273073
27	0x3f584e93	0.84494895
28	0xbeed079e	-0.46294874
29	0x3fa25ac0	1.2683945
30	0xbed3acab	-0.41342673
31	0xbefdb03e	-0.49548525

exp_avg f4 [64, 12]
0	0x399fe09e	0.00030494196
1	0xb8c7c450	-9.5256255e-05
2	0xb9f660b9	-0.0004699284
3	0xb9608ebc	-0.00021415477
4	0xba145dfd	-0.00056597573
5	0xb996096d	-0.00028617252
6	0xb8c96d62	-9.604801e-05
7	0xb8c7c450	-9.5256255e-05
8	0xba9c4866	-0.0011923432
9	0xba81056c	-0.0009843535
10	0xba9b0655	-0.0011827449
11	0x399d0618	0.00029949914
12	0xbaacedec	-0.0013193465
13	0xb93bf4bb	-0.00017924879
14	0xba57bde1	-0.0008229893
15	0xb9ad30c9	-0.0003303348
16	0xba9dfae5	-0.0012052922
17	0xba25a1e1	-0.00063183723
18	0xb8886159	-6.503118e-05
19	0xb93bf4bb	-0.00017924879
20	0xba8e483f	-0.0010855271
21	0xba65c02e	-0.0008764294
22	0xba936fd3	-0.0011248536
23	0xbaa9f2c4	-0.0012966027
24	0x3ba38629	0.0049903584
25	0xb9120fbd	-0.00013929508
26	0xb99b9e28	-0.0002968174
27	0x39db5424	0.00041833625
28	0x3a904bc7	0.0011008912
29	0x3c25496d	0.010088307
30	0x3971e402	0.0002306849
31	0xb9120fbd	-0.00013929508
32	0xbadb31bc	-0.0016723196
33	0x3a08c8ea	0.0005217927
34	0xbb0deb46	-0.0021655126
35	0x3b8e5432	0.004343533
36	0x00000004	6e-45
37	0x00000004	6e-45
38	0x80000004	-6e-45
39	0x00000004	6e-45
40	0x00000004	6e-45
41	0x00000004	6e-45
42	0x00000004	6e-45
43	0x00000004	6e-45
44	0x00000004	6e-45
45	0x00000004	6e-45
46	0x00000004	6e-45
47	0x00000004	6e-45
48	0x00000004	6e-45
49	0x00000004	6e-45
50	0x00000004	6e-45
51	0x00000004	6e-45
52	0x00000004	6e-45
53	0x00000004	6e-45
54	0x00000004	6e-45
55	0x00000004	6e-45
56	0x00000004	6e-45
57	0x00000004	6e-45
58	0x00000004	6e-45
59	0x00000004	6e-45
60	0x00000004	6e-45
61	0x00000004	6e-45
62	0x00000004	6e-45
63	0x00000004	6e-45
64	0x00000004	6e-45
65	0x00000004	6e-45
66	0x00000004	6e-45
67	0x00000004	6e-45
68	0x00000004	6e-45
69	0x00000004	6e-45
70	0x00000004	6e-45
71	0x00000004	6e-45
72	0xbaf87b67	-0.0018957675
73	0x39a96c9d	0.00032315115
74	0x3a7d8de7	0.0009672329
75	0x3a046025	0.0005049727
76	0xb9036d95	-0.00012533956
77	0x39c7bf41	0.00038098733
78	0x39f8e59b	0.00047473315
79	0x39a96c9d	0.00032315115
80	0xba9ce802	-0.0011970999
81	0x3abde6af	0.0014488305
82	0xb92a7803	-0.00016257171
83	0xbb155f8e	-0.002279255
84	0x00000004	6e-45
85	0x00000004	6e-45
86	0x00000004	6e-45
87	0x00000004	6e-45
88	0x00000004	6e-45
89	0x00000004	6e-45
90	0x00000004	6e-45
91	0x00000004	6e-45
92	0x00000004	6e-45
93	0x00000004	6e-45
94	0x00000004	6e-45
95	0x00000004	6e-45
96	0x3c0d86af	0.008638068
97	0x3ac79b5e	0.0015228798
98	0x3c19d47d	0.00938904
99	0x3b839ff2	0.0040168697
100	0x3c030357	0.007996402
101	0x3c8adae3	0.016950076
102	0x39e9da37	0.00044603806
103	0x3ac79b5e	0.0015228798
104	0x3be93ace	0.007117606
105	0x3bd549ec	0.0065090563
106	0x3be5a64d	0.00700835
107	0x3c215890	0.009847775
108	0x3b3a7aeb	0.0028454612
109	0x38da2a19	0.00010402891
110	0x3b230497	0.0024874562
111	0x3a0a4b8b	0.0005275539
112	0x3aa25e52	0.0012387729
113	0x3bcfd39d	0.006342365
114	0x3966d08f	0.00022012203
115	0x38da2a19	0.00010402891
116	0x3ad31c3d	0.0016106438
117	0x3b27cca0	0.0025604144
118	0x3ab3a553	0.0013705887
119	0x3b2e04af	0.0026553085
120	0xbb0fd50d	-0.0021947057
121	0xb91923f3	-0.00014604609
122	0x3a30ab49	0.00067393907
123	0xba001e03	-0.00048872846
124	0xba559538	-0.00081475405
125	0xb91ef261	-0.00015158347
126	0x390a7f34	0.00013208092
127	0xb91923f3	-0.00014604609
128	0xbac91609	-0.001534165
129	0x394c5958	0.00019488239
130	0xbaaeb91e	-0.0013330316
131	0xbb2ce5a4	-0.0026381994
132	0xba6ff6c8	-0.00091539
133	0x39ae5d2d	0.00033257288
134	0x3ad07b38	0.0015905863
135	0x39d6a0c4	0.0004093704
136	0x384e039e	4.9117596e-05
137	0x3a82114e	0.000992337
138	0x39b61ec0	0.00034736656
139	0x39ae5d2d	0.00033257288
140	0x3a620753	0.0008622307
141	0x3b0276df	0.0019907278
142	0x3a9c9a71	0.0011947883
143	0xba3cda25	-0.0007204137
144	0x00000004	6e-45
145	0x00000004	6e-45
146	0x00000004	6e-45
147	0x00000004	6e-45
148	0x00000004	6e-45
149	0x00000004	6e-45
150	0x00000004	6e-45
151	0x00000004	6e-45
152	0x00000004	6e-45
153	0x00000004	6e-45
154	0x00000004	6e-45
155	0x00000004	6e-45
156	0xb79a9547	-1.8427743e-05
157	0x389bf7e0	7.437146e-05
158	0x3a9cc8fd	0.0011961755
159	0xb80e0cd4	-3.3867385e-05
160	0x393f6da6	0.00018256027
161	0xbac5854a	-0.001506963
162	0xb90ef2a2	-0.00013632563
163	0x389bf7e0	7.437146e-05
164	0x3a67cfba	0.00088429044
165	0x35fadd1a	1.86908e-06
166	0x3a671e1d	0.0008816438
167	0xb9ebcda8	-0.0004497592
168	0x397a9bf5	0.00023899956
169	0x37be19f5	2.2661852e-05
170	0xb88edf8d	-6.812727e-05
171	0x37a91cc8	2.0159772e-05
172	0xb69485a1	-4.4263e-06
173	0xb9156ad7	-0.00014249548
174	0x38360996	4.340111e-05
175	0x37be19f5	2.2661852e-05
176	0xb9c575ae	-0.00037662446
177	0x37e45542	2.721942e-05
178	0xb9ba6678	-0.0003555303
179	0xb92febc3	-0.00016777129
180	0x00000004	6e-45
181	0x00000004	6e-45
182	0x00000004	6e-45
183	0x00000004	6e-45
184	0x00000004	6e-45
185	0x00000004	6e-45
186	0x00000004	6e-45
187	0x00000004	6e-45
188	0x00000004	6e-45
189	0x00000004	6e-45
190	0x00000004	6e-45
191	0x00000004	6e-45
192	0xb9a329d6	-0.00031120953
193	0xb8ea5a2b	-0.000111747846
194	0x3a070ae2	0.0005151463
195	0xb979da8c	-0.00023827906
196	0xba4947cb	-0.00076782395
197	0x3a3d0b12	0.00072114274
198	0x38850edd	6.344703e-05
199	0xb8ea5a2b	-0.000111747846
200	0x3a94009d	0.0011291687
201	0x3aa8d094	0.0012879544
202	0x3a85e8aa	0.0010216434
203	0xb9aa1879	-0.0003244316
204	0x00000000	0.0
205	0x00000000	0.0
206	0x00000000	0.0
207	0x00000000	0.0
208	0x00000000	0.0
209	0x00000000	0.0
210	0x00000000	0.0
211	0x00000000	0.0
212	0x00000000	0.0
213	0x00000000	0.0
214	0x00000000	0.0
215	0x00000000	0.0
216	0x3b86e9dc	0.0041172337
217	0x39890b64	0.00026139163
218	0x3ba8c398	0.0051502697
219	0x3a15f9ec	0.000572114
220	0x3a763caa	0.0009393195
221	0x3ba23622	0.004950301
222	0x39bb32f9	0.00035705397
223	0x39890b64	0.00026139163
224	0x3a634a12	0.00086704
225	0x3b3b0f84	0.0028543184
226	0x00000004	6e-45
227	0x3b86e9dc	0.0041172337
228	0xbb95d4dd	-0.0045724944
229	0xb9a198d1	-0.0003082217
230	0x00000004	6e-45
231	0xba29c521	-0.0006476213
232	0xbabcf11a	-0.0014415116
233	0x39424f8e	0.00018530918
234	0x39784579	0.00023677004
235	0xb9a198d1	-0.0003082217
236	0x3afbb4e7	0.0019203693
237	0x3b21f648	0.0024713445
238	0x3b3841cc	0.002811539
239	0xbb901a67	-0.0043976787
240	0x3a3005f4	0.0006714754
241	0x3a01a9c8	0.0004946259
242	0x3b40f3b7	0.002944214
243	0x3a60a910	0.0008570114
244	0x3a91d914	0.0011127316
245	0x3b31a913	0.0027108833
246	0x39a9d083	0.00032389545
247	0x3a01a9c8	0.0004946259
248	0xb8f4574b	-0.00011651086
249	0x3aa9f609	0.0012967001
250	0xb8f4574b	-0.00011651086
251	0x3a578543	0.00082214567
252	0x3c107de7	0.00881908
253	0x3a0d2fe1	0.00053858577
254	0xbba8d851	-0.00515274
255	0x3b4e5b34	0.0031487467

exp_avg_sq f4 [64, 12]
0	0x378c9366	1.6757938e-05
1	0x3497946c	2.8233933e-07
2	0x38211ec3	3.841404e-05
3	0x359da2fc	1.1744846e-06
4	0x36a0a4e1	4.787566e-06
5	0x3810fe26	3.456897e-05
6	0x33e2acb2	1.0555358e-07
7	0x3497946c	2.8233933e-07
8	0x37c5376e	2.3510042e-05
9	0x37a61522	1.9798583e-05
10	0x37b16d82	2.1151038e-05
11	0x3798dadc	1.8221726e-05
12	0x37b11802	2.1111224e-05
13	0x3541e212	7.222708e-07
14	0x38bc2025	8.970526e-05
15	0x3618be81	2.2760653e-06
16	0x37102275	8.5910915e-06
17	0x3871e143	5.766867e-05
18	0x34642220	2.124657e-07
19	0x3541e212	7.222708e-07
20	0x38459ec2	4.7116315e-05
21	0x382f3eaf	4.178163e-05
22	0x3830ccb3	4.215231e-05
23	0x37c6163e	2.3613797e-05
24	0x3a392d5d	0.00070639496
25	0x375f9542	1.3326588e-05
26	0x3a4e59ed	0.00078716764
27	0x38414522	4.607917e-05
28	0x38c38f73	9.325044e-05
29	0x3a955001	0.0011391641
30	0x367ff2da	3.813932e-06
31	0x375f9542	1.3326588e-05
32	0x3a180857	0.00057995826
33	0x39fcc882	0.00048214576
34	0x39ea0c7c	0.0004464126
35	0x3a461edd	0.00075576996
36	0x000001f4	7e-43
37	0x000001f4	7e-43
38	0x000001f4	7e-43
39	0x000001f4	7e-43
40	0x000001f4	7e-43
41	0x000001f4	7e-43
42	0x000001f4	7e-43
43	0x000001f4	7e-43
44	0x000001f4	7e-43
45	0x000001f4	7e-43
46	0x000001f4	7e-43
47	0x000001f4	7e-43
48	0x000001f4	7e-43
49	0x000001f4	7e-43
50	0x000001f4	7e-43
51	0x000001f4	7e-43
52	0x000001f4	7e-43
53	0x000001f4	7e-43
54	0x000001f4	7e-43
55	0x000001f4	7e-43
56	0x000001f4	7e-43
57	0x000001f4	7e-43
58	0x000001f4	7e-43
59	0x000001f4	7e-43
60	0x000001f4	7e-43
61	0x000001f4	7e-43
62	0x000001f4	7e-43
63	0x000001f4	7e-43
64	0x000001f4	7e-43
65	0x000001f4	7e-43
66	0x000001f4	7e-43
67	0x000001f4	7e-43
68	0x000001f4	7e-43
69	0x000001f4	7e-43
70	0x000001f4	7e-43
71	0x000001f4	7e-43
72	0x394b5c09	0.00019393874
73	0x372c4e48	1.0270225e-05
74	0x393cd680	0.00018008985
75	0x3806bb25	3.212238e-05
76	0x3853f608	5.0535455e-05
77	0x399b4d5a	0.00029621535
78	0x3639f72a	2.7711017e-06
79	0x372c4e48	1.0270225e-05
80	0x393cf080	0.0001801867
81	0x38f43612	0.00011644898
82	0x391d338c	0.0001499189
83	0x3960cade	0.00021437879
84	0x000001f4	7e-43
85	0x000001f4	7e-43
86	0x000001f4	7e-43
87	0x000001f4	7e-43
88	0x000001f4	7e-43
89	0x000001f4	7e-43
90	0x000001f4	7e-43
91	0x000001f4	7e-43
92	0x000001f4	7e-43
93	0x000001f4	7e-43
94	0x000001f4	7e-43
95	0x000001f4	7e-43
96	0x398389ea	0.0002508902
97	0x37a81aef	2.0039703e-05
98	0x3ae0cf03	0.0017151538
99	0x38cb1af4	9.684815e-05
100	0x398e4348	0.0002713448
101	0x3b12252a	0.0022299984
102	0x36a5f220	4.9455703e-06
103	0x37a81aef	2.0039703e-05
104	0x3a86cbb1	0.0010284093
105	0x3a63435e	0.0008669401
106	0x3a89688f	0.0010483431
107	0x39905c81	0.0002753474
108	0x39c43f95	0.00037431406
109	0x36bc7d97	5.617457e-06
110	0x39c11bd1	0.00036832553
111	0x37b8d60b	2.203418e-05
112	0x385a1708	5.19967e-05
113	0x39f5bc9b	0.00046870564
114	0x35cf7a34	1.5458268e-06
115	0x36bc7d97	5.617457e-06
116	0x396984e4	0.00022270117
117	0x393211a6	0.00016981977
118	0x392e5f64	0.00016629469
119	0x39cf2b59	0.00039514413
120	0x39388548	0.00017597259
121	0x36be823a	5.6776016e-06
122	0x390d3ef6	0.00013470263
123	0x37b3bcec	2.1426436e-05
124	0x380d98aa	3.37592e-05
125	0x396a2062	0.00022328043
126	0x3591b729	1.0856648e-06
127	0x36be823a	5.6776016e-06
128	0x38a9ee46	8.10293e-05
129	0x3885e8ce	6.3852975e-05
130	0x3816ad12	3.592397e-05
131	0x39437349	0.00018639596
132	0x3884abe1	6.3262654e-05
133	0x364801f2	2.9803455e-06
134	0x3892f1c1	7.006853e-05
135	0x3713ac5b	8.802012e-06
136	0x3774e62b	1.45971235e-05
137	0x38b7f6ee	8.772114e-05
138	0x356dada8	8.8542083e-07
139	0x364801f2	2.9803455e-06
140	0x3879a821	5.952281e-05
141	0x3823090c	3.8870654e-05
142	0x3851b205	4.9995277e-05
143	0x38941a95	7.062141e-05
144	0x2db79de0	2.0874802e-11
145	0x2ba0391b	1.1384534e-12
146	0x2ecefa66	9.412275e-11
147	0x2c42ec74	2.7700316e-12
148	0x2cace8ab	4.9143654e-12
149	0x2ee548a8	1.0426621e-10
150	0x2abf0a3c	3.3935517e-13
151	0x2ba0391b	1.1384534e-12
152	0x2e40d251	4.3842544e-11
153	0x2e02231d	2.9589765e-11
154	0x2e25020b	3.751847e-11
155	0x2e0004d1	2.910811e-11
156	0x38a1ecfb	7.721219e-05
157	0x36048092	1.974437e-06
158	0x38db2a1f	0.000104505794
159	0x36fb87e5	7.496203e-06
160	0x378ae96c	1.6559577e-05
161	0x38f2df7f	0.000115810886
162	0x35186e3c	5.6784825e-07
163	0x36048092	1.974437e-06
164	0x38b9b2ed	8.854815e-05
165	0x389ed205	7.573146e-05
166	0x3892bfc5	6.9975424e-05
167	0x38a7ff06	8.010682e-05
168	0x37af7b67	2.091909e-05
169	0x35abda81	1.2804086e-06
170	0x36a97d7b	5.0512003e-06
171	0x36c8d13e	5.9848235e-06
172	0x36ef0277	7.123042e-06
173	0x38a23e0e	7.7363205e-05
174	0x35369cb9	6.8028345e-07
175	0x35abda81	1.2804086e-06
176	0x38a9ebaf	8.1024475e-05
177	0x38785e60	5.92157e-05
178	0x38b1b257	8.473236e-05
179	0x3835a556	4.3307744e-05
180	0x000001f4	7e-43
181	0x000001f4	7e-43
182	0x000001f4	7e-43
183	0x000001f4	7e-43
184	0x000001f4	7e-43
185	0x000001f4	7e-43
186	0x000001f4	7e-43
187	0x000001f4	7e-43
188	0x000001f4	7e-43
189	0x000001f4	7e-43
190	0x000001f4	7e-43
191	0x000001f4	7e-43
192	0x3804f286	3.169712e-05
193	0x35151941	5.5543575e-07
194	0x38c3400b	9.3102535e-05
195	0x361b1bfa	2.3113084e-06
196	0x372cf281	1.0308461e-05
197	0x38901be0	6.871647e-05
198	0x3483767c	2.448686e-07
199	0x35151941	5.5543575e-07
200	0x389357ea	7.0258815e-05
201	0x388e4379	6.7836554e-05
202	0x38639d58	5.4267555e-05
203	0x380535de	3.175984e-05
204	0x00000000	0.0
205	0x00000000	0.0
206	0x00000000	0.0
207	0x00000000	0.0
208	0x00000000	0.0
209	0x00000000	0.0
210	0x00000000	0.0
211	0x00000000	0.0
212	0x00000000	0.0
213	0x00000000	0.0
214	0x00000000	0.0
215	0x00000000	0.0
216	0x39bc541c	0.0003592082
217	0x36a7a08b	4.9956775e-06
218	0x39fe4481	0.00048497695
219	0x37a0888e	1.9137075e-05
220	0x387f352a	6.084625e-05
221	0x39ce4213	0.0003934061
222	0x352be573	6.4036357e-07
223	0x36a7a08b	4.9956775e-06
224	0x37dcf594	2.63404e-05
225	0x37c88d2e	2.39076e-05
226	0x21ffcf11	1.7334282e-18
227	0x39bc541c	0.0003592082
228	0x39707312	0.0002293105
229	0x3647526e	2.9701291e-06
230	0x000001f4	7e-43
231	0x37c85e6b	2.3885825e-05
232	0x385b2f0f	5.2257496e-05
233	0x39eed9df	0.00045557224
234	0x3549ee06	7.5224705e-07
235	0x3647526e	2.9701291e-06
236	0x38d666f1	0.000102234895
237	0x38b39803	8.5636995e-05
238	0x38ac55a8	8.217554e-05
239	0x39799e74	0.00023805519
240	0x37588554	1.2905646e-05
241	0x3699d537	4.584577e-06
242	0x3946236f	0.00018895952
243	0x375b8ce6	1.3086223e-05
244	0x37acd75f	2.0604288e-05
245	0x398c3845	0.00026744805
246	0x35a27c6b	1.2106151e-06
247	0x3699d537	4.584577e-06
248	0x38985410	7.263583e-05
249	0x38c9386c	9.594936e-05
250	0x38986883	7.2673916e-05
251	0x3751deb0	1.2509219e-05
252	0x3ba2090d	0.0049449266
253	0x3888c7a4	6.522171e-05
254	0x3b8711c6	0.004121992
255	0x39a198eb	0.00030822246

exp_avg f4 [64]
0	0xba4fff6f	-0.0007934486
1	0xbb097d3b	-0.0020979184
2	0x3be2c65c	0.006920619
3	0x00000004	6e-45
4	0x00000004	6e-45
5	0x00000004	6e-45
6	0xbab7eb68	-0.0014031949
7	0x00000004	6e-45
8	0x3cc66f51	0.024223002
9	0x3b934718	0.004494559
10	0xbb38fded	-0.0028227523
11	0xb8d1af10	-9.9985045e-05
12	0x00000004	6e-45
13	0x3a10f132	0.0005529105
14	0xb982db89	-0.000249591
15	0x00000004	6e-45
16	0xba14de54	-0.00056788814
17	0x00000000	0.0
18	0x3b943022	0.0045223394
19	0xbbb05fee	-0.0053825295
20	0x3b9bdd26	0.0047565876
21	0x3c162261	0.00916347
22	0xbb8449c7	-0.0040371153
23	0xba1062bc	-0.00055078766
24	0x3bb6490e	0.005562908
25	0x3a9bac75	0.0011876958
26	0xbb2e2b70	-0.0026576184
27	0x00000004	6e-45
28	0xbb9bcba3	-0.0047545
29	0xbb17e285	-0.0023175788
30	0xbb35a476	-0.0027716435
31	0xbbb49148	-0.005510483
32	0x3b4ec071	0.003154781
33	0xba448e97	-0.0007498054
34	0xbb32fbb3	-0.002731067
35	0x3b0339da	0.0020023496
36	0xbaa11b0d	-0.0012291387
37	0x00000004	6e-45
38	0xbb0a53dc	-0.0021107113
39	0x3c89f9df	0.01684278
40	0x392faab5	0.00016752894
41	0x00000000	0.0
42	0xbc18c0f6	-0.009323349
43	0x00000004	6e-45
44	0x00000004	6e-45
45	0xbba37f7d	-0.004989563
46	0x00000004	6e-45
47	0x390f5453	0.00013668956
48	0x3c19e5d9	0.009393179
49	0xb9fd8345	-0.00048353724
50	0x3a627bd4	0.00086396676
51	0x3b59b1a1	0.0033217447
52	0xbcbd5ea0	-0.02311641
53	0xb91ba388	-0.00014842872
54	0x3a8a83df	0.0010567865
55	0xbb4eec88	-0.003157409
56	0x00000000	0.0
57	0x3c101372	0.008793699
58	0x00000004	6e-45
59	0x3b12f183	0.0022421784
60	0xbbc68d8c	-0.006059354
61	0x00000004	6e-45
62	0xbbe7a4ad	-0.0070691914
63	0xb9b37bc8	-0.00034233765
