models/checkpoint_470000.pt (torch, 125871 bytes, 33 tensors)

shared.0.weight f4 [64, 12]
0	0xbe1232eb	-0.14277236
1	0xbde9e3fb	-0.11420437
2	0x3df28ecd	0.11843643
3	0x3f47c6d6	0.78037775
4	0xbe2cf2c6	-0.16889486
5	0xbe06e47e	-0.131731
6	0xbe9b3321	-0.30312446
7	0xbe96a628	-0.29423642
8	0xbda1752a	-0.078836754
9	0xbbb928d1	-0.0056506176
10	0xbe49c3eb	-0.19703643
11	0x3deab254	0.11459795
12	0x3bfa25cb	0.0076339
13	0xbc8c633c	-0.017137162
14	0xbe3a82e1	-0.18213989
15	0x3f0029b8	0.5006366
16	0xbc339e3d	-0.01096302
17	0xbe801420	-0.25015354
18	0x3e8df319	0.2772453
19	0x3e575901	0.21030046
20	0x3e0e88ea	0.13919416
21	0xbdcfdefb	-0.10149952
22	0x3d27a196	0.040925585
23	0x3dc95114	0.098299176
24	0x3d9fd029	0.07803375
25	0xbe64ebfc	-0.22355646
26	0xbd9dc159	-0.07702894
27	0xbe0863c0	-0.13319302
28	0xbeedbd4b	-0.46433482
29	0xbc9a13cc	-0.018808268
30	0x3e05a4b5	0.13051112
31	0xbe3a78bc	-0.18210119
32	0xbe7fd951	-0.24985243
33	0x3de69746	0.11259322
34	0x3e9181c1	0.28419307
35	0x3cc5f874	0.024166323
36	0xbe2693fb	-0.16267388
37	0xbeb644f9	-0.35599497
38	0xbd9c6e4b	-0.07638224
39	0x3da76de9	0.081752606
40	0x3e12118c	0.14264506
41	0x3e8c948d	0.27457085
42	0x3e9898c7	0.2980406
43	0xbce73cb1	-0.028227182
44	0xbe674d24	-0.2258802
45	0x3c87d056	0.016578835
46	0x3e00a010	0.12561059
47	0x3e0cffd3	0.13769464
48	0x3df2301d	0.11825583
49	0xbe46f540	-0.19429493
50	0x3e09de49	0.13463701
51	0xbf24066a	-0.6407229
52	0xbe8ae10b	-0.2712482
53	0xbc7dba6e	-0.015486343
54	0xbf16bf4b	-0.5888564
55	0xbd3bef66	-0.045882605
56	0x3d09ba19	0.033624742
57	0x3deae95a	0.114702895
58	0xbe1af314	-0.1513179
59	0xbe92f39f	-0.28701493
60	0xbe2d3ccd	-0.16917725
61	0xbcc65073	-0.024208283
62	0xbe9196cb	-0.28435358
63	0xbefb097e	-0.4903068
64	0xbec08c7e	-0.37607187
65	0x3d88f763	0.0668781
66	0xbe1dd098	-0.15411603
67	0xbdaf77f8	-0.08567804
68	0x3bd8d66c	0.006617358
69	0xbca6dad4	-0.020368017
70	0xbd37cb7e	-0.0448718
71	0x3e0043ef	0.12525915
72	0xbd1c40f4	-0.03814788
73	0x3f031d2d	0.51216394
74	0x3d87e49a	0.06635399
75	0x3ecf26ea	0.40459377
76	0xbf253fe4	-0.64550614
77	0xbe36da84	-0.17856795
78	0x3ac0b12b	0.0014701238
79	0x3e93d0e3	0.28870305
80	0x3d8018bc	0.06254718
81	0xbc516e3a	-0.012782628
82	0xbce33ca4	-0.027738877
83	0x3e580347	0.21095
84	0x3d91570c	0.07096681
85	0xbeaa2460	-0.33230877
86	0x3d0142a4	0.031557694
87	0xbebf43e0	-0.37356472
88	0xbef4d383	-0.4781762
89	0xbd25f535	-0.04051705
90	0xbef3f525	-0.47647968
91	0xbe67bee2	-0.2263141
92	0xbd146292	-0.036226816
93	0xbe90065f	-0.2812986
94	0x3e2212c1	0.15827467
95	0x3d397a24	0.045282498
96	0xbea6ffdc	-0.3261708
97	0xbedf848a	-0.43655807
98	0x3d772f2f	0.060347732
99	0xbeace854	-0.33771002
100	0x3e60c874	0.21951467
101	0x3dbf8c9a	0.093529895
102	0xbfa79e92	-1.3095267
103	0xbead886c	-0.33893144
104	0x3df4f532	0.1196083
105	0x3d2d2761	0.042273883
106	0xbc929129	-0.017891483
107	0xbf459eea	-0.7719561
108	0x3d05fb2e	0.032710247
109	0x3e7daefc	0.24773782
110	0x3d9b6aca	0.07588728
111	0xbd9995dc	-0.074992865
112	0xbee4a720	-0.44658756
113	0x3de50a36	0.11183588
114	0xbfa42c0d	-1.2825943
115	0x3dc886fb	0.097913705
116	0x3d086e55	0.033308346
117	0xbf090a58	-0.5353141
118	0x3d1ed300	0.038775444
119	0xbe824c13	-0.25448665
120	0xbddc3dbe	-0.10753964
121	0x3e588b44	0.21146876
122	0x3cf4e792	0.029895578
123	0x3edc8718	0.43071818
124	0xbf12180e	-0.57067955
125	0xbe39cf2c	-0.18145436
126	0x3cdad908	0.026714817
127	0x3d78190b	0.060570758
128	0xbca4e0ef	-0.020126788
129	0x3d044310	0.03229052
130	0x3d8a8dd8	0.06765336
131	0x3e800659	0.25004843
132	0xbeb618eb	-0.35565886
133	0x3f05c8d9	0.52259594
134	0x3db66721	0.08906389
135	0x3f853cba	1.0409157
136	0xbe888dbe	-0.2667064
137	0xbde884ff	-0.11353492
138	0x3ec084da	0.37601358
139	0x3ed1897a	0.409252
140	0x3dbe0df9	0.09280009
141	0xbcd3eee3	-0.025870746
142	0x3cf8957c	0.030344717
143	0x3e2fd210	0.17169976
144	0xbe582af3	-0.21110134
145	0x3ecea7ca	0.40362388
146	0x3cc4bb1b	0.024015
147	0x3e1a87fe	0.1509094
148	0xbe72b0f9	-0.23700322
149	0x3de120a5	0.109925546
150	0x3ea46891	0.32111028
151	0x3e0a1346	0.13483915
152	0x3dc8bef0	0.098020434
153	0xbe1b9c82	-0.15196422
154	0xbdbbdb55	-0.09172694
155	0x3db0a23d	0.086246945
156	0xbed676af	-0.41887423
157	0x3e2430c5	0.16034229
158	0xbd91f989	-0.07127673
159	0x3ef0aef8	0.4700849
160	0x3e28b4ae	0.16475174
161	0x3dc5bd43	0.096552394
162	0x3f571145	0.84010726
163	0x3ecd59b2	0.40107495
164	0x3e208f2a	0.15679613
165	0xbe4b479b	-0.19851534
166	0x3dfb75aa	0.12278302
167	0x3eac8111	0.3369222
168	0xbdbb03eb	-0.09131607
169	0x3d487887	0.04894307
170	0xbe1dcc7c	-0.15410036
171	0x3eeebc74	0.46628153
172	0xbf093b0d	-0.5360573
173	0x3e22a2c4	0.15882403
174	0x3eb03feb	0.34423766
175	0xbd34b855	-0.044121105
176	0xbd2b2b39	-0.041789267
177	0xbbe851e1	-0.007089839
178	0x3e49c21d	0.19702955
179	0x3ea1cc18	0.31601024
180	0x3d5ee050	0.05441314
181	0xbee2953b	-0.4425448
182	0x3e6a79f3	0.22898082
183	0x3d00684d	0.03134947
184	0xbecc6ace	-0.39925236
185	0xbba476f8	-0.005019065
186	0xbe9c5988	-0.30537057
187	0xbeb76caf	-0.35825107
188	0x3e99d758	0.30047107
189	0xbd8be653	-0.0683104
190	0x3db3817e	0.08764933
191	0xbe13b347	-0.14423858
192	0xbe62cf17	-0.22149311
193	0x3ecb0f3c	0.3966006
194	0xbcb090e1	-0.021553459
195	0x3f2b74a9	0.66974884
196	0xbd4c4a96	-0.04987582
197	0xbd267a3e	-0.040643923
198	0x3eeabc2e	0.45846695
199	0x3f2d7735	0.6776002
200	0xbdc79486	-0.097451255
201	0xbcc20db3	-0.023688173
202	0x3d957b09	0.07298858
203	0x3e96f9cf	0.29487464
204	0x3c990c5e	0.018682655
205	0x3c820370	0.01587078
206	0xbe24deba	-0.16100588
207	0xbd8e186c	-0.06938252
208	0xbe1aa945	-0.15103634
209	0xbd155a83	-0.03646327
210	0x3d30f67b	0.043203812
211	0xbd65363b	-0.05595992
212	0xbd86ab06	-0.06575589
213	0xbdc562c7	-0.09637981
214	0xbd96c731	-0.073622115
215	0xbd01ed38	-0.03172037
216	0xbe803da0	-0.25047016
217	0x3f12fc15	0.57415897
218	0x3e027ba8	0.12742484
219	0x3eca6710	0.39531755
220	0xbd1c4acc	-0.03815727
221	0x3d9776c5	0.073957
222	0x3ea03eae	0.3129782
223	0x3f18a69d	0.5962923
224	0x3b5e84cf	0.0033953672
225	0x3e3c66ef	0.18398641
226	0xbf2031fc	-0.6257627
227	0xbe8a0fbe	-0.26965135
228	0x3e80cb38	0.25155044
229	0xbee76811	-0.45196584
230	0xbeca963a	-0.3956774
231	0x3f1d75ef	0.6150808
232	0x3e3d5694	0.18490058
233	0xbdcaf730	-0.099104285
234	0xbf191691	-0.5980006
235	0xbec99471	-0.39371064
236	0x3cd1d566	0.025614452
237	0x3e20a0b6	0.15686306
238	0xbdf0b474	-0.11753169
239	0xbe27fac7	-0.16404258
240	0x3d2a114a	0.041520394
241	0xbdf1db9b	-0.118094645
242	0xbd3e52b5	-0.046465594
243	0xbdc9e1dd	-0.09857533
244	0xbf09c4f1	-0.53816134
245	0x3e3e47cb	0.18582074
246	0xbe936734	-0.28789675
247	0xbd7ad563	-0.061238658
248	0xbda4671f	-0.08027481
249	0x3e9f0b05	0.31063095
250	0xbe2ecacf	-0.17069553
251	0xbedb58be	-0.42841142
252	0x3e906459	0.2820156
253	0xbe1bbd64	-0.15208966
254	0xbca791bf	-0.02045524
255	0xbfdcbc63	-1.7244991

shared.0.bias f4 [64]
0	0x3e50ddf0	0.20397162
1	0x3e3a31bc	0.18183035
2	0x3db1d04d	0.08682308
3	0xbe35963c	-0.17733091
4	0x3e4c3267	0.19941102
5	0x3d7c00ee	0.061524324
6	0x3ea160d0	0.31519175
7	0x3ccb75f7	0.024836523
8	0x3ec0fabd	0.37691298
9	0x3e3991d2	0.18122032
10	0x3e99cde8	0.30039907
11	0x3e1e35d8	0.15450227
12	0x3e2b0b82	0.16703609
13	0x3d880b9d	0.0664284
14	0x3dd64748	0.104628146
15	0x3d65d0d4	0.056107357
16	0x3e29ab86	0.16569337
17	0x00000000	0.0
18	0x3e4af5b5	0.19820292
19	0x3e892b7d	0.2679099
20	0x3cdc41ca	0.02688684
21	0x3e9dcd88	0.3082087
22	0xbb64df1a	-0.0034923018
23	0xbe827c35	-0.25485387
24	0x3ece0d1c	0.40244377
25	0x3ea80f67	0.3282425
26	0x3eaf8aee	0.34285682
27	0xbc1bfdc4	-0.009520952
28	0x3e005647	0.12532912
29	0xbd4940b9	-0.04913399
30	0x3ec45b19	0.38350752
31	0x3e892457	0.26785538
32	0x3e9e3491	0.3089948
33	0x3bf97e1c	0.0076139104
34	0xbcd31600	-0.025767326
35	0x3e2c8900	0.16849136
36	0x3ebe6946	0.37189692
37	0xbd5ba136	-0.05362054
38	0x3ed1edb2	0.4100166
39	0x3e5aa056	0.21350226
40	0x3e6a1e92	0.22863224
41	0x00000000	0.0
42	0x3e998ce5	0.29990306
43	0xbe59c5bf	-0.2126684
44	0x3e55b0a9	0.20868172
45	0x3eb2319d	0.34803477
46	0x3ea39956	0.31952924
47	0x3eae7ba3	0.34078702
48	0x3e0ae739	0.13564767
49	0x3daf3330	0.08554685
50	0x3c3674a4	0.011136208
51	0x3dc4078c	0.09571752
52	0x3e894d20	0.26816654
53	0x3e9aa8e2	0.30206972
54	0x3e74ccb2	0.2390621
55	0x3e97db67	0.29659578
56	0x00000000	0.0
57	0x3e4f6921	0.20254947
58	0xbe91bd21	-0.28464606
59	0x3d8fca22	0.07020976
60	0x3e9272aa	0.28603107
61	0x3db71dad	0.08941207
62	0x3e43b526	0.19112071
63	0x3e4ead7d	0.20183368

shared.2.weight f4 [64, 64]
0	0xbe1946f6	-0.14968476
1	0x3cf51dc1	0.029921414
2	0x3edadf50	0.427485
3	0x3d52f459	0.05150256
4	0x3eab0af4	0.33406794
5	0xbe0883f3	-0.13331585
6	0xbcfa0a00	-0.030522346
7	0x3e18d043	0.14923196
8	0xbf515e67	-0.8178467
9	0x3ee689b1	0.45026925
10	0x3e5144cf	0.20436405
11	0x3d1ede31	0.038786117
12	0x3a95a654	0.0011417367
13	0xbe31c645	-0.1736079
14	0x3cc52ab9	0.024068223
15	0xbdf211be	-0.1181979
16	0xbd867caa	-0.065667465
17	0x3d8646ff	0.0655651
18	0xbd909a74	-0.070607096
19	0x3df5d9f2	0.120044604
20	0x3e4e1e41	0.20128728
21	0xbeda113e	-0.4259128
22	0x3f363658	0.7117667
23	0xbe42e9d4	-0.19034511
24	0xbb55b068	-0.0032606367
25	0x3e1c246f	0.15248273
26	0x3db32215	0.08746735
27	0x3e0d6a53	0.1381009
28	0x3e8d064d	0.2754387
29	0xbf49a266	-0.78763425
30	0xbcb158b0	-0.021648735
31	0x3d31bf44	0.043395296
32	0x3e423818	0.1896671
33	0x3eb2640a	0.3484195
34	0xbe4a774d	-0.19772072
35	0x3f23bf87	0.6396412
36	0xbd3f9125	-0.04676928
37	0x3e448b77	0.19193827
38	0xbe5e25d5	-0.2169412
39	0xbf44d1ad	-0.7688244
40	0x3c17271c	0.009225633
41	0xbe0961df	-0.13416241
42	0x3f270e4b	0.65256184
43	0xbf2f83fa	-0.68560755
44	0x3e0dadf8	0.13835895
45	0x3ec23d4f	0.379374
46	0x3da56112	0.08075155
47	0xbd67baab	-0.056574505
48	0x3dfba4f4	0.12287322
49	0x3d9cd6c2	0.07658149
50	0xbc885ce3	-0.016645854
51	0x3d84ca99	0.06483955
52	0xbd034545	-0.032048482
53	0xbd712095	-0.058868963
54	0xbddd50fc	-0.10806462
55	0x3d4d7ff1	0.050170843
56	0x3e080985	0.13284881
57	0xbf009250	-0.50223255
58	0xbdda376f	-0.10655104
59	0xbe6af0db	-0.22943442
60	0x3e13998b	0.1441404
61	0x3f11bbb8	0.5692706
62	0xbeb2ec49	-0.34945896
63	0xbd2f6e72	-0.04282994
64	0x3d92533d	0.07144783
65	0xbd82cfd4	-0.06387296
66	0xbd6537ce	-0.055961423
67	0xbeac5681	-0.33659747
68	0x3eab09c5	0.3340589
69	0xbc50c8b2	-0.012743162
70	0x3cac96eb	0.021068057
71	0x3e063cb6	0.13109097
72	0xbed5f05e	-0.41784948
73	0x3e87995f	0.264842
74	0x3dbfe97d	0.09370706
75	0x3c1b741b	0.009488131
76	0x3dc5fad8	0.09666985
77	0xbdbc0454	-0.09180513
78	0x3dfb1fdb	0.12261935
79	0x3ecba9a7	0.39777872
80	0x3d8a097f	0.067400925
81	0x3d16e765	0.03684177
82	0x3e8b98bc	0.27264965
83	0x3e453d05	0.19261558
84	0x3d9c8392	0.076422825
85	0xbf244b73	-0.64177626
86	0x3f13e8cd	0.577771
87	0xbd2d4f39	-0.04231188
88	0x3e20db60	0.15708685
89	0x3ddcc746	0.10780196
90	0x3eb623bc	0.35574138
91	0xbd36f276	-0.044664823
92	0x3ca92ef9	0.020652281
93	0xbe7df5de	-0.24800822
94	0x3e217656	0.15767798
95	0x3e8de559	0.2771404
96	0x3c53031d	0.01287916
97	0x3ec6bf78	0.38817954
98	0x3e16d30e	0.14728948
99	0x3ec8f3b6	0.39248437
100	0xbe391e07	-0.18077861
101	0x3f22febb	0.6366994
102	0xbc3d79d0	-0.011564687
103	0xbf9e050b	-1.2345289
104	0xbd8ec2c2	-0.06970741
105	0xbde3a1f8	-0.111148775
106	0x3e8bfe1e	0.27342314
107	0xbf3f4d60	-0.7472744
108	0x3df2e66e	0.11860357
109	0x3db35a52	0.087574616
110	0x3d37f24e	0.044908814
111	0x3e48b889	0.19601645
112	0x3db2deee	0.08733927
113	0xbd74809a	-0.059692957
114	0xbb8801cf	-0.004150606
115	0x3c8f30b1	0.017479273
116	0xbcf6ad1d	-0.030111844
117	0xbd2851c0	-0.041093588
118	0x3d72f23a	0.059313037
119	0xbe1c1a8c	-0.15244502
120	0x3d2d0e65	0.042250056
121	0xbe397f7a	-0.18115035
122	0xba83dc7a	-0.0010060214
123	0xbd71c816	-0.059028707
124	0x3e654913	0.22391157
125	0x3ec28d75	0.37998548
126	0xbf0dcd5c	-0.5539148
127	0xbe23a373	-0.1598032
128	0xbe46e7d9	-0.1942438
129	0xbe436c7e	-0.19084355
130	0x3e1f1f94	0.1553939
131	0xbdd7196e	-0.10502897
132	0xbd29f651	-0.04149467
133	0xbe9c409e	-0.3051805
134	0xbc363b54	-0.011122543
135	0x3dbc6729	0.09199364
136	0xbed5de47	-0.41771147
137	0x3e3c6f3b	0.18401806
138	0xbdb94483	-0.09046271
139	0x3b54b33e	0.003245547
140	0x3db71112	0.08938803
141	0x3e1133d1	0.14179923
142	0x3d9a5cfe	0.07537268
143	0x3d62f31c	0.05540763
144	0x3d9b7f19	0.07592601
145	0x3da6fb96	0.08153455
146	0xbcf2bfc3	-0.029632455
147	0x3a80e87a	0.0009834908
148	0x3e7fb67d	0.24971958
149	0xbf4c8240	-0.79886246
150	0x3e93dad1	0.2887788
151	0xbe29d0be	-0.16583535
152	0x3ebd988b	0.37030444
153	0x3e6c7a3d	0.23093505
154	0x3d92cb7a	0.07167716
155	0xbda17413	-0.078834675
156	0x3e664823	0.22488455
157	0xbe91dab4	-0.2848717
158	0x3e01877e	0.12649342
159	0x3ee8cd53	0.4546915
160	0x3e30bc1a	0.17259255
161	0x3dc3634a	0.09540422
162	0x3e05a642	0.13051704
163	0x3f1b2d47	0.6061596
164	0x3d94ac46	0.07259421
165	0x3e184708	0.14870846
166	0x3da446d2	0.080213204
167	0xbf9ca13e	-1.2236707
168	0x3e94fa3c	0.29097164
169	0xbdad3841	-0.08457995
170	0x3e3f0f5d	0.18658204
171	0xbf060358	-0.5234885
172	0x3d3d00b6	0.046143256
173	0xbcb180af	-0.021667806
174	0xbe3519d8	-0.1768564
175	0x3e3b6301	0.18299486
176	0xbd25d855	-0.040489513
177	0xbe00a2f0	-0.12562156
178	0x3cbd53b6	0.023111206
179	0x3d93e25c	0.07220909
180	0x3e2e3b7e	0.17014882
181	0xbd0c7937	-0.034295287
182	0x3e86c837	0.26324627
183	0x3e0aed1c	0.13567013
184	0x3e45b581	0.1930752
185	0xbdfdcc1b	-0.12392446
186	0xbe977221	-0.2957926
187	0xbe93ef37	-0.28893444
188	0x3e6c1fa7	0.2305895
189	0x3ed8ba3f	0.42329594
190	0xbf19844b	-0.5996749
191	0x3d5e2cd3	0.054241966
192	0x3dcaf90d	0.09910784
193	0xbe652588	-0.22377598
194	0xbdd028d7	-0.101640396
195	0xbe8364dc	-0.25662887
196	0xbcf77a42	-0.030209664
197	0xbe886569	-0.2663987
198	0xbe5c34b0	-0.21504474
199	0x3e2ab506	0.16670617
200	0x3db253f1	0.08707417
201	0x3edef6f4	0.43547785
202	0x3d172d81	0.03690863
203	0xbdf7c23f	-0.120975964
204	0xbe334134	-0.17505342
205	0xbdc6669a	-0.096875384
206	0xbe61a62b	-0.22036044
207	0x3e0a5c9d	0.13511892
208	0xbe6ba133	-0.23010711
209	0x3e2c92d1	0.16852881
210	0x3e2d1f99	0.16906585
211	0xbeb0d5d1	-0.3453813
212	0x3c92eaf1	0.017934294
213	0xbef9a66d	-0.48759785
214	0x3f533aa5	0.8251136
215	0xbeae3f65	-0.3403274
216	0x3e7986d1	0.24367835
217	0x3e91b398	0.28457332
218	0xbe36bd8e	-0.17845747
219	0xbde8fcf5	-0.11376373
220	0xbe8cb498	-0.27481532
221	0xbdf40ff3	-0.119171046
222	0x3d9ec9a3	0.07753303
223	0xbe946061	-0.2897978
224	0xbd36f8ac	-0.044670746
225	0xbed76a0f	-0.42073104
226	0xbe561c77	-0.20909296
227	0x3f600cff	0.8751983
228	0x39ebd076	0.00044978008
229	0x3ea74ac7	0.32674238
230	0xbddc03b3	-0.10742893
231	0xbf84be5e	-1.0370595
232	0xbd346fda	-0.044051982
233	0xbe2a4e6a	-0.16631475
234	0x3e90b159	0.28260306
235	0xbf3d03d7	-0.73833984
236	0xbe8c300a	-0.273804
237	0x3e91a02c	0.28442514
238	0xbdeb73da	-0.11496706
239	0x3c3bed0c	0.011470091
240	0x3d2ac18a	0.04168848
241	0x3afaa3bd	0.0019122284
242	0xbe4a8db7	-0.19780622
243	0xbe811f6c	-0.25219285
244	0xbf012adb	-0.5045602
245	0xbe075523	-0.13216071
246	0x3dfb448f	0.12268936
247	0x3ddc4ae2	0.1075647
248	0xbe0a192a	-0.13486162
249	0xbe36785d	-0.17819352
250	0xbf292808	-0.6607671
251	0x3e183ddb	0.14867346
252	0xbe37be3d	-0.17943664
253	0x3efa70de	0.48914236
254	0xbee068b5	-0.43829885
255	0xbe9652b3	-0.2935997

shared.2.bias f4 [64]
0	0x3e1ca16f	0.15295957
1	0x3eb2455b	0.3481854
2	0x3ea3e892	0.32013375
3	0x3dcb05a6	0.09913187
4	0xbb6c381a	-0.0036044181
5	0xbd32aeac	-0.04362361
6	0xbced3e12	-0.028960261
7	0x3d238757	0.039923992
8	0xbeb9fbe0	-0.36324978
9	0x3edbfcf5	0.42966428
10	0x3eac81b3	0.33692703
11	0x3e223c7e	0.15843388
12	0x3e9dbc3b	0.3080767
13	0x3eba970e	0.3644337
14	0x3ed0f1e8	0.4080956
15	0xbcd2c2df	-0.025727687
16	0xbd2b4935	-0.041817863
17	0xbcc3316a	-0.023827273
18	0x3ed293a7	0.41128275
19	0x3e114c0f	0.1418917
20	0x3e222c7e	0.15837285
21	0x00000000	0.0
22	0x3e2f0555	0.17091878
23	0x3ececdc4	0.40391362
24	0x3ece6aa9	0.4031575
25	0x3ec62fb0	0.38708258
26	0x3ec92bec	0.39291322
27	0x3e5f4a9b	0.21805803
28	0xbd8e93f9	-0.06961817
29	0x3e4639a8	0.19357932
30	0x3ec439ce	0.3832535
31	0x3eb350a4	0.3502246
32	0x3ee0cf31	0.43908074
33	0x3ec25107	0.37952444
34	0x3e8d26d0	0.27568674
35	0x3ec0bf61	0.3764601
36	0x3ec791e3	0.3897849
37	0x3ebf70f5	0.37390867
38	0x3e9a47c1	0.3013287
39	0x3ee22500	0.44168854
40	0xbca0af8a	-0.019614954
41	0xbab18d74	-0.0013546185
42	0x3ecad29a	0.396138
43	0x3ed3c683	0.4136239
44	0xbd305690	-0.043051302
45	0xbd01cbe6	-0.031688593
46	0x3eb6f6bd	0.3573512
47	0x3ea2a266	0.31764525
48	0x3eaf0127	0.34180567
49	0x3eaab383	0.33340082
50	0x3ebc96b3	0.36833724
51	0x3eba42cb	0.36379084
52	0x3eb3af24	0.3509456
53	0x3e59fa09	0.21286787
54	0x3e5f3552	0.21797684
55	0xbd2e7c4c	-0.042599007
56	0x3ef2a183	0.4738885
57	0xbe3d21e2	-0.18469957
58	0x3ec7b0cb	0.3900207
59	0x3ec489f7	0.3838651
60	0x3e5aaf40	0.21355915
61	0x3ee7a410	0.45242357
62	0x3e350bb0	0.1768024
63	0x3e68d460	0.22737265

actor.0.weight f4 [32, 64]
0	0xbd906905	-0.07051281
1	0xbe53cb3a	-0.20682994
2	0xbdb61d0b	-0.08892258
3	0xbdd399db	-0.1033208
4	0x3d4c53e6	0.0498847
5	0x3e35533c	0.17707533
6	0xbe452193	-0.19251089
7	0xbe125d27	-0.14293347
8	0x3dd3eb2b	0.10347589
9	0x3e0ecb35	0.13944705
10	0xbe553cc8	-0.20823967
11	0x3ddf185c	0.10893318
12	0x3dddcd48	0.1083017
13	0x3cc143d7	0.023591919
14	0x3d2b12a0	0.04176581
15	0xbd90946b	-0.070595585
16	0x3d8ba980	0.06819439
17	0x3dd4cbfd	0.1039047
18	0xbc688ccd	-0.014193726
19	0xbe511ead	-0.20421858
20	0x3cf4c18b	0.029877445
21	0xbe1798e4	-0.14804417
22	0x3dee18c4	0.116258174
23	0x3c671a42	0.014105381
24	0x3be4c184	0.0069810767
25	0xbdb5081f	-0.088394396
26	0x3d1d472b	0.03839795
27	0xbdb4c69c	-0.08826944
28	0xbc48f640	-0.012265742
29	0xbe95a1d1	-0.2922502
30	0xbd3cb50a	-0.04607109
31	0xbeacc3be	-0.3374309
32	0x3d775f89	0.060393844
33	0xbdc53dfd	-0.09630964
34	0x3dd1a11c	0.10235807
35	0x3e090037	0.13378988
36	0xbe05f75e	-0.13082644
37	0xbe11a12e	-0.14221641
38	0xbe845160	-0.25843334
39	0xbdb3a86b	-0.087723576
40	0xbb6d4936	-0.0036206967
41	0x3dcfd1be	0.10147427
42	0xbc5e4a34	-0.013567496
43	0xbe899526	-0.26871604
44	0x3cbb9e5b	0.022902658
45	0x3d4402f5	0.047854383
46	0x3d45ebce	0.048320584
47	0x39ad3852	0.00033039093
48	0xbdc42e59	-0.095791526
49	0xbc886a7b	-0.016652336
50	0xbe1969ce	-0.14981768
51	0xbd74d567	-0.05977383
52	0xbe044873	-0.12918262
53	0x3dee08b0	0.11622751
54	0xbd0711e5	-0.03297605
55	0xbdb51989	-0.08842761
56	0x3e604d3b	0.21904461
57	0xbe5ca42b	-0.21547
58	0xbd80582a	-0.06266816
59	0xbd7798ab	-0.06044833
60	0x3d53492e	0.05158346
61	0xbbfa19c6	-0.007632467
62	0x3c2ed681	0.010671259
63	0xbcc89c83	-0.024488693
64	0xbd2f2309	-0.04275802
65	0x3e33fe7a	0.17577544
66	0xbd01a1f0	-0.031648576
67	0x3c60f31c	0.013729837
68	0x3e97e596	0.29667348
69	0xbd185ffc	-0.037200913
70	0x3a0e32b1	0.0005424424
71	0x3d9b0689	0.07569606
72	0xbdd016a8	-0.10160571
73	0xbc0aab6e	-0.008463724
74	0x3d8c4c21	0.06850458
75	0x3ddf4b41	0.109030254
76	0xbe13a4d3	-0.14418344
77	0xbe0740a0	-0.13208246
78	0x3db4f2a8	0.088353455
79	0x3de8951d	0.11356566
80	0xbedbe4e8	-0.4294808
81	0x3d95b494	0.07309833
82	0xbdccfef3	-0.10009565
83	0xbd42b52b	-0.047536056
84	0x3c57250e	0.013131393
85	0xbdda3cff	-0.10656165
86	0x3d935571	0.07194031
87	0xbd15fa1b	-0.036615472
88	0xbda3d85c	-0.08000252
89	0x3b5d28e9	0.0033746308
90	0x3cbebeef	0.023284404
91	0x3e8e2f36	0.27770394
92	0x3e05ef65	0.13079603
93	0x3e5e2ff8	0.21697986
94	0x3cf5de54	0.03001324
95	0x3b7e6567	0.0038817765
96	0x3d284e0d	0.04109006
97	0xbb556031	-0.0032558555
98	0x3d0b5abf	0.03402209
99	0xbdc826c1	-0.09773017
100	0xbe20b962	-0.15695718
101	0xbc554a76	-0.013018241
102	0xbe6c15f7	-0.23055254
103	0xbd660ef2	-0.056166597
104	0x3e1548d5	0.14578564
105	0x3e404e27	0.18779813
106	0x3d029db5	0.031888682
107	0xbdd342e4	-0.10315493
108	0xbd854806	-0.06507878
109	0x3e002c49	0.12516893
110	0xbc80e716	-0.01573519
111	0xbc9e2872	-0.019306395
112	0x3df9f3cf	0.12204706
113	0xbe36d17e	-0.17853352
114	0xbd737975	-0.059442002
115	0xbe861061	-0.2618437
116	0xbe11fc80	-0.14256477
117	0xbdde1e91	-0.10845674
118	0xbe1c439e	-0.15260169
119	0x3c82ed53	0.015982306
120	0xbd72726b	-0.05919115
121	0xbdb3e9d6	-0.08784835
122	0x3bf95d5a	0.0076100053
123	0xbe519d38	-0.2047013
124	0xbb821056	-0.0039692326
125	0xbdb22d40	-0.08700037
126	0xbc01d04a	-0.007923195
127	0x3dd0690b	0.10176285
128	0x3e8c6fdd	0.27429095
129	0x3d703e85	0.058653373
130	0x3e03b73e	0.1286287
131	0xbb905e94	-0.004405806
132	0xbef0ec07	-0.47055075
133	0x3f33216a	0.6997286
134	0xbcbbff5c	-0.022948913
135	0x3d6007e3	0.05469502
136	0xbc5a42ae	-0.013321562
137	0xbe55172e	-0.20809624
138	0xbe920ae7	-0.28523943
139	0x3d804630	0.06263387
140	0xbe3890fe	-0.1802406
141	0xbe4e2413	-0.20130949
142	0xbd8333a5	-0.06406335
143	0xbc0ea4a3	-0.008706245
144	0x3d926a3e	0.0714917
145	0xbd3bedff	-0.045881268
146	0x3e283b9b	0.16428988
147	0x3ea846b8	0.32866454
148	0x3d88beaf	0.06676995
149	0xbc8a10eb	-0.01685377
150	0xbd2a4e35	-0.04157849
151	0xbc982834	-0.018573858
152	0xbc2955af	-0.01033537
153	0xbd2c519e	-0.042070024
154	0x3e33c88c	0.17556971
155	0x3c177eda	0.009246552
156	0x3e06c420	0.13160753
157	0xbe2cfb35	-0.16892703
158	0x3d2ec897	0.042671766
159	0xbe8568f5	-0.26056638
160	0x3e5e9d47	0.21739684
161	0x3db36cb3	0.08760967
162	0x3cd90607	0.026492132
163	0xbe3990fd	-0.18121715
164	0x3d8d83d3	0.06909909
165	0x3e3f48c6	0.18680105
166	0xbe0030cb	-0.12518613
167	0x3d97979e	0.074019656
168	0xbcec0ef3	-0.028815722
169	0xbea3e4c2	-0.32010466
170	0xbdda7e6d	-0.10668645
171	0x3e695e6c	0.22789925
172	0xbb2b1a4f	-0.002610821
173	0x3c39b7a9	0.011335292
174	0xbd1ddc84	-0.03854038
175	0x3df2fb2f	0.11864316
176	0xbc6d7905	-0.014494185
177	0x3e354b47	0.17704497
178	0xbda22a67	-0.07918244
179	0xbe19cafc	-0.15018839
180	0x3ea0fa73	0.31441078
181	0x3ea1a5b0	0.31571722
182	0xbe653d76	-0.22386727
183	0xbd52c51d	-0.051457513
184	0x3ddd0083	0.10791113
185	0x3e2bbc09	0.16770948
186	0x3e47460d	0.19460316
187	0x3e881fe1	0.26586822
188	0x3e93098d	0.28718224
189	0xbdb196cc	-0.0867134
190	0x3f220d79	0.6330181
191	0x3ccd4246	0.025056016
192	0xbdc71920	-0.09721589
193	0xbd9a9e30	-0.07549703
194	0x3d5f029d	0.05444585
195	0xbe07ed23	-0.13274054
196	0x3d7b5fdd	0.06137072
197	0xbd001f90	-0.0312801
198	0x3da5df64	0.08099249
199	0x3e0ac7a5	0.13552721
200	0x3e4e5392	0.20149067
201	0xbe2a1ccd	-0.16612549
202	0x3dc98a72	0.098408595
203	0x3c70dbc9	0.014700838
204	0xbe03753e	-0.12837693
205	0x3d8c0220	0.06836343
206	0x3d0162d2	0.031588383
207	0xbe415191	-0.18878771
208	0x3d531e05	0.0515423
209	0xbcc9a78a	-0.024616022
210	0x3cf39885	0.029735813
211	0xbc2d37ac	-0.010572355
212	0x3d6dc08d	0.05804496
213	0xbd7d5991	-0.061852995
214	0x3cc4a605	0.024004946
215	0x3e156770	0.1459024
216	0xbdf17852	-0.117905274
217	0xbdf1369f	-0.11777996
218	0x3da05799	0.07829208
219	0x3e82a1d3	0.25514087
220	0xbc4b563d	-0.0124106975
221	0xbdce38fb	-0.10069462
222	0x3dd0c99c	0.10194704
223	0x3e215f6a	0.15759054
224	0x3c92d38e	0.017923143
225	0xbdf56c3b	-0.11983534
226	0x3d64ab55	0.055827457
227	0x3c25f739	0.010129743
228	0xbd869e02	-0.06573106
229	0xbe5f6390	-0.21815324
230	0xbcbe0b22	-0.023198668
231	0xbe58ed1e	-0.21184203
232	0x3e113045	0.1417857
233	0xbe36807f	-0.17822455
234	0xbe3bdaef	-0.18345235
235	0xbd8ad417	-0.06778734
236	0x3d4b8f7a	0.049697377
237	0x3dc86fa7	0.09786921
238	0x3e352a23	0.17691855
239	0xbd92a89e	-0.071610674
240	0xbe7478d9	-0.23874225
241	0x3b7e11ca	0.0038767927
242	0xbd955e80	-0.07293415
243	0x3da95294	0.08267704
244	0x3e15547c	0.1458301
245	0xbe517966	-0.20456466
246	0xbdaaa7dd	-0.08332799
247	0xbe4e21d4	-0.20130092
248	0xbcb3dda1	-0.021956267
249	0x3e216184	0.15759856
250	0x3ec02fd4	0.3753649
251	0x3e8cb948	0.27485108
252	0xbdc1d434	-0.09464303
253	0xbbcd5801	-0.0062665944
254	0x3c3da583	0.011575106
255	0xbe0fce64	-0.14043576

actor.0.bias f4 [32]
0	0x3948136f	0.00019080726
1	0xbc556f76	-0.013027063
2	0x3db748fd	0.08949468
3	0x3c95659d	0.01823693
4	0xbc079d16	-0.008277198
5	0xbcbbdcee	-0.022932496
6	0xbe352a56	-0.17691931
7	0xbe3f1a3f	-0.18662356
8	0x3dab8f1c	0.08376905
9	0x3e3ec0fb	0.18628304
10	0x3e092fdf	0.13397168
11	0xbc099310	-0.008396879
12	0x3df0d65d	0.117596366
13	0xbc83be70	-0.016082019
14	0x3b20cec4	0.0024537304
15	0xbd2e9cd1	-0.04263002
16	0xbe106957	-0.14102684
17	0xbc8131dc	-0.015770845
18	0xbe31a4c7	-0.17348014
19	0xbc51b4d1	-0.012799458
20	0xbd4a993b	-0.04946254
21	0xbcf56231	-0.029954048
22	0xbc497696	-0.0122963395
23	0xbb119a6b	-0.0022217284
24	0x3cd0952b	0.025461754
25	0x00000000	0.0
26	0xbe2beb1b	-0.16788904
27	0xbc190457	-0.009339414
28	0xbb95ac2e	-0.0045676446
29	0xbb529b8c	-0.003213617
30	0xbbf81093	-0.007570335
31	0xbcc79442	-0.024362687

actor.2.weight f4 [2, 32]
0	0xbe37d035	-0.17950518
1	0xbe7da28c	-0.24769038
2	0x3e6f4136	0.2336472
3	0x3d8446cf	0.06458818
4	0xbc9f4427	-0.019441677
5	0xbd47610f	-0.048676547
6	0xbf59f158	-0.85133886
7	0xbef3e745	-0.47637382
8	0x3ecdb10a	0.40174133
9	0x3f83f647	1.0309533
10	0x3f333130	0.6999693
11	0x3e88f6d6	0.2675082
12	0x3f326148	0.6967969
13	0xbec48fc1	-0.38390926
14	0x3b8b433d	0.004249959
15	0xbdcf30cc	-0.10116729
16	0xbf99a821	-1.2004434
17	0xbda5c644	-0.08094457
18	0xbf65469c	-0.89560866
19	0xbd1dfc47	-0.03857067
20	0xbbb6430b	-0.0055621914
21	0x3dd42fdc	0.10360691
22	0x3c3f0ec7	0.011661238
23	0xbe1363ab	-0.14393489
24	0xbec573da	-0.3856495
25	0xbe6c2b00	-0.23063278
26	0xbf80050a	-1.0001538
27	0xbe066480	-0.13124275
28	0x3dc205b6	0.094737455
29	0x3e798d99	0.24370421
30	0x3eb01f46	0.3439886
31	0x39dc0c61	0.00041970893
32	0x3e290a42	0.1650782
33	0xbca94d7c	-0.02066683
34	0xbe8ca907	-0.27472708
35	0xbe8a2e92	-0.26988655
36	0xbe808688	-0.2510264
37	0xbd9b56c4	-0.075849086
38	0x3f41ebb2	0.7575027
39	0x3ed45fcf	0.41479346
40	0xbf376b93	-0.7164852
41	0xbf8bf1d6	-1.0933177
42	0xbf5248e0	-0.8214245
43	0xbda0d390	-0.07852852
44	0xbf6bbbfb	-0.9208371
45	0xbebaf5b8	-0.36515594
46	0xbeaae5b9	-0.3337839
47	0x3ea3be12	0.3198095
48	0x3f9ccc37	1.2249821
49	0xbe0eacb9	-0.13933076
50	0x3f5c1154	0.8596394
51	0xbe55d343	-0.20881371
52	0xbe9f88b9	-0.31159
53	0x3e28d0dc	0.16485924
54	0xbd14c7aa	-0.036323227
55	0xbd06c523	-0.032902848
56	0xbd3ff83b	-0.04686759
57	0x3d58af6f	0.05290168
58	0x3f5b48cd	0.8565796
59	0x3d8e22fe	0.06940268
60	0xbe19d65a	-0.15023175
61	0xbd58e1af	-0.052949604
62	0x3e0dd9ae	0.1385257
63	0xbe31f577	-0.17378794

actor.2.bias f4 [2]
0	0x3e1bab53	0.15202074
1	0xbe1bab49	-0.15202059

critic.0.weight f4 [32, 64]
0	0x3e42aeda	0.19012013
1	0xbe567a61	-0.20945121
2	0xbdc8778c	-0.09788427
3	0x3cbffa0d	0.023434663
4	0xbd55b8b3	-0.052178096
5	0xbcfe023e	-0.031006929
6	0xbe330c80	-0.17485237
7	0xbca2d239	-0.019875633
8	0x3d418175	0.0472426
9	0x3e618836	0.22024617
10	0x3d64d6d7	0.05586895
11	0x3ddce8ba	0.107865766
12	0xbcaf7f27	-0.021422936
13	0xbc43a195	-0.01194038
14	0x3d7d81b4	0.061891273
15	0x3d959497	0.07303732
16	0x3b929e76	0.0044744564
17	0xbdca4bde	-0.09877752
18	0xbcb79685	-0.02241064
19	0xbd96bd1d	-0.07360289
20	0xbe7a9e73	-0.24474506
21	0x3d53e33c	0.05173038
22	0x3e0f3b4a	0.1398746
23	0x3dc20058	0.09472722
24	0x3c7eecd5	0.015559395
25	0xbd9f7fbf	-0.077880375
26	0xbda1f33e	-0.07907723
27	0xbdcb0563	-0.09913137
28	0x3dea58fb	0.11442753
29	0xbd5b7419	-0.053577516
30	0xbd8bc637	-0.06824916
31	0xbd114154	-0.035462692
32	0xbc03dde6	-0.00804851
33	0x3d4cdbd4	0.050014332
34	0xbbd6000d	-0.006530768
35	0x3e2c65e3	0.16835742
36	0xbebc6d45	-0.36802116
37	0xbe9439be	-0.28950304
38	0xbcc2c2a8	-0.02377446
39	0xbd842309	-0.06451995
40	0x3e19896c	0.14993829
41	0xbc3d6fb3	-0.011562276
42	0xbd7b1537	-0.06129953
43	0x3e7deecc	0.24798125
44	0x3e1f6183	0.15564542
45	0x3d077601	0.03307152
46	0x3e68019b	0.22656862
47	0xbdbacadc	-0.091207236
48	0x3e1ebb4a	0.15501133
49	0xbe1f38b7	-0.15548979
50	0xbdb8386a	-0.08995135
51	0xbd147735	-0.036246497
52	0xbd34f594	-0.044179514
53	0xbe5c49d9	-0.21512546
54	0x3da1c243	0.078983806
55	0xbe9031fe	-0.2816314
56	0x3d139f4d	0.036040593
57	0xbcb5eb29	-0.02220686
58	0xbd8ed42e	-0.06974064
59	0xbc90cf76	-0.01767705
60	0x3dcdac09	0.10042579
61	0xbdedfbe3	-0.11620309
62	0x3db82c09	0.08992774
63	0xbc14f5a1	-0.009091766
64	0x3e3d0d9e	0.18462226
65	0x3e041975	0.12900336
66	0x3e282ad8	0.16422594
67	0xbd983134	-0.0743126
68	0x3e27fa2d	0.16404028
69	0x3d0e3693	0.034720015
70	0x3c981d7a	0.018568743
71	0x3ca9a366	0.020707797
72	0xbdf0634f	-0.117376916
73	0x3e30f114	0.17279464
74	0x3d7730f6	0.060349427
75	0xbdcaf785	-0.09910492
76	0xbe6aeea3	-0.22942595
77	0xbcd5f334	-0.026116945
78	0x3c8ff1e6	0.0175714
79	0x3e10bce2	0.14134553
80	0x3cd0548c	0.02543094
81	0xbd3e6ac8	-0.046488553
82	0x3e387432	0.18013075
83	0x3bd056aa	0.0063579874
84	0xbb84dc27	-0.0040545645
85	0xbe0c30af	-0.13690446
86	0x3d97f86f	0.07420432
87	0xbe78b385	-0.24287231
88	0xbe305c5e	-0.17222735
89	0x3c6d9fa9	0.014503398
90	0x3dbe3c55	0.09288851
91	0x3d8a2e05	0.06747059
92	0xbc96d383	-0.018411404
93	0xbdf0d51e	-0.11759399
94	0x3e1d88ad	0.15384169
95	0xbd21beb6	-0.039488517
96	0xbdc49743	-0.095991634
97	0xbcbaf81d	-0.022823388
98	0xbe15f4a0	-0.14644098
99	0xbc83d02a	-0.016090471
100	0xbe0e4d1b	-0.13896601
101	0x3e217810	0.15768456
102	0xbd33236a	-0.043734945
103	0xbd4de086	-0.05026295
104	0xbd80c0b0	-0.06286752
105	0xbd40e72b	-0.04709546
106	0x3d1d7063	0.03843726
107	0xbe838137	-0.2568452
108	0x3cc88f3e	0.024482366
109	0x3e19e5f7	0.15029131
110	0x3e914840	0.28375435
111	0xbd967ece	-0.07348405
112	0x3bb96697	0.0056579816
113	0xbe2adf64	-0.1668678
114	0xbe81346a	-0.252353
115	0xbb774c07	-0.0037734525
116	0xbe7eff39	-0.24902047
117	0x3e78f222	0.24311116
118	0xbc8eebd0	-0.017446429
119	0xbd68b6f6	-0.05681511
120	0xbd0d1c43	-0.03445078
121	0xbe46bbf0	-0.1940763
122	0xbe2bbe35	-0.16771777
123	0x3c3a5042	0.011371674
124	0x3d903f46	0.070433185
125	0x3d957a40	0.07298708
126	0xbe2b843d	-0.16749664
127	0x3d9336aa	0.07188161
128	0x3d219387	0.039447334
129	0x3a5a75be	0.0008333585
130	0xbdf3709d	-0.11886714
131	0xbddfeee5	-0.109342374
132	0x3dc6de18	0.0971033
133	0xbe218635	-0.15773852
134	0x3cec829b	0.028870871
135	0x3eb47000	0.352417
136	0x3ca6158c	0.020273946
137	0x3e0af234	0.13568956
138	0xbe3272db	-0.17426626
139	0xbd690145	-0.056885976
140	0xbdb42017	-0.08795183
141	0xbdbf81ee	-0.09350954
142	0x382c4f94	4.108211e-05
143	0xbd996197	-0.07489317
144	0x3ddf403e	0.10900925
145	0xbdea917e	-0.11453532
146	0x3c444207	0.011978633
147	0xbd096fbb	-0.03355382
148	0x3e55fb10	0.20896554
149	0xbdc83868	-0.09776384
150	0x3e01c5bd	0.12673087
151	0xbe571d40	-0.21007252
152	0x3d423686	0.04741528
153	0x3c518293	0.012787479
154	0x3e1c6a31	0.15274884
155	0x3e93704f	0.28796622
156	0x3cff506b	0.031166276
157	0xbdd0f2c3	-0.10202553
158	0xbe2077f4	-0.15670758
159	0xbdd816d3	-0.105512284
160	0x3c501e56	0.012702545
161	0x3de2c662	0.11072995
162	0xbdc65218	-0.09683627
163	0xbe11ca41	-0.1423731
164	0x3d724804	0.05915071
165	0xbcc00b6d	-0.023442948
166	0xbd25f064	-0.040512457
167	0x3e671fce	0.22570726
168	0x3e0fca2e	0.14041969
169	0x3e1c9432	0.15290907
170	0x3d89cc92	0.06728472
171	0xbd71f45d	-0.059070934
172	0x3ea5e2a4	0.32399476
173	0xbdf1c063	-0.11804273
174	0x3d207526	0.03917422
175	0xbda27e61	-0.07934261
176	0x3d0a8543	0.033818495
177	0xbe860543	-0.2617589
178	0x3e03e114	0.12878829
179	0xbbf6a153	-0.0075265556
180	0xbd439655	-0.04775079
181	0x3e6203d3	0.22071771
182	0xbdd988d9	-0.10621805
183	0x3d9544a3	0.07288482
184	0x3e62518f	0.22101425
185	0x3e30327c	0.17206758
186	0xbd28c189	-0.041200195
187	0xbe243171	-0.16034485
188	0xbd4e03dd	-0.050296653
189	0xbdd59138	-0.10428089
190	0x3e942e46	0.28941554
191	0xbe1fa6e1	-0.15591003
192	0x3e157351	0.14594771
193	0xbe5a0943	-0.21292596
194	0xbda11718	-0.07865733
195	0xbe638fd3	-0.22222833
196	0x3f033c1a	0.5126358
197	0x3ea1bf1e	0.31591123
198	0x3d4f56bd	0.05061983
199	0x3d8f228d	0.06989012
200	0xbef59b91	-0.4797025
201	0xbdad14dc	-0.08451244
202	0xbeb2bba4	-0.34908783
203	0x3d341300	0.043963432
204	0xbdcdf73e	-0.10056923
205	0xbda579c1	-0.08079863
206	0xbe347a53	-0.17624788
207	0x3c1731c1	0.009228171
208	0x3d72d35e	0.059283607
209	0x3c59e617	0.013299487
210	0xbc2d18b3	-0.010564971
211	0x3e9dcf8a	0.30822402
212	0x3f2410d5	0.64088184
213	0x3d12bbf6	0.035823785
214	0x3e5fe853	0.21865968
215	0xbe09f3c5	-0.13471897
216	0xbdd8bb9f	-0.10582661
217	0xbeb74410	-0.35794115
218	0xbcdf057c	-0.027224295
219	0xbe197e7f	-0.1498966
220	0xbc85416a	-0.016266543
221	0xbeec7b04	-0.46187603
222	0x3d84227a	0.064518884
223	0xbe0978b3	-0.1342495
224	0xbe5e09aa	-0.21683374
225	0xbda59b33	-0.080862425
226	0xbca6edf4	-0.020377137
227	0xbe07b92e	-0.13254234
228	0xbd246fed	-0.040145803
229	0xbd9ef710	-0.07761967
230	0xbe9c310d	-0.30506173
231	0xbe53829b	-0.20655291
232	0xbd44ee4e	-0.048078828
233	0x3efb1f68	0.490474
234	0xbe723478	-0.23652828
235	0x3e8f959e	0.28043836
236	0x3cf6490a	0.030064125
237	0x3b82fac5	0.003997179
238	0xbcbe3364	-0.023217864
239	0xbe23f9ba	-0.16013232
240	0x3dcacc7e	0.09902285
241	0xbc83f791	-0.01610926
242	0x3bc76aef	0.0060857455
243	0xbdc8d25f	-0.0980575
244	0xbea7fd81	-0.32810596
245	0xbc5fff21	-0.013671667
246	0xbe12a4a6	-0.14320621
247	0x3e07e8bb	0.13272373
248	0xbdd59062	-0.104279295
249	0x3e842f81	0.25817493
250	0xbd82a258	-0.06378621
251	0xbce9ca44	-0.02853883
252	0xbea54a35	-0.32283178
253	0x3e7720ce	0.24133608
254	0x3e1f27f8	0.1554259
255	0x3e7f928c	0.24958247

critic.0.bias f4 [32]
0	0xbc2edd9a	-0.010672951
1	0xbb4aae22	-0.0030926545
2	0x3c598132	0.0132754315
3	0x3cbec498	0.023287103
4	0x3ed1e0ae	0.4099173
5	0x3ecc2e5c	0.3987912
6	0xbc8f4aee	-0.017491784
7	0x3ef27ea0	0.47362232
8	0x00000000	0.0
9	0xbc445979	-0.011984223
10	0x3f01270c	0.50450206
11	0x3ed9149d	0.4239854
12	0x3ed6ba2b	0.4193891
13	0xbc03b3e8	-0.008038498
14	0x3edffbe1	0.43746856
15	0xbc60e0ee	-0.013725502
16	0x3ed7f835	0.42181554
17	0xbc8f6bdc	-0.017507486
18	0xbcb6b29b	-0.022301963
19	0x3ec6077b	0.38677582
20	0x3ee2be31	0.4428573
21	0x3ede37cc	0.43401945
22	0x3ed56718	0.41680217
23	0x3eccc3ea	0.3999322
24	0x3ed327ee	0.412414
25	0x3ef0681d	0.46954432
26	0x3ed7572f	0.42058703
27	0xbdf238c7	-0.11827236
28	0x3ecee95f	0.40412423
29	0x3d50bdaa	0.050962128
30	0x3eddba20	0.43306065
31	0x3eef8c8d	0.4678692

critic.2.weight f4 [1, 32]
0	0x3ba0a89a	0.0049029114
1	0x3e1045e1	0.14089157
2	0x3d54d7d8	0.051963657
3	0x3f2391b2	0.6389419
4	0xbef842d1	-0.48488477
5	0xbeb99c68	-0.3625214
6	0x3c17017b	0.009216662
7	0xbea3ff94	-0.32030928
8	0x3e4efc1e	0.20213363
9	0x3e3d2200	0.18470001
10	0xbe933f5d	-0.2875928
11	0xbec5a6d2	-0.38603836
12	0xbf08647f	-0.53278345
13	0x3c94a914	0.018147029
14	0xbec5730c	-0.38564336
15	0x3cf8ba4f	0.030362276
16	0xbec12ffa	-0.37731916
17	0x3e2e7b32	0.17039183
18	0x3c92116f	0.017830579
19	0xbee97655	-0.45598093
20	0xbf1417e6	-0.57848966
21	0xbf160b6e	-0.5861119
22	0xbf126265	-0.5718139
23	0xbeef5f47	-0.46752378
24	0xbed8f050	-0.42370844
25	0xbebf1318	-0.37319255
26	0xbed15531	-0.40885308
27	0x3f652a36	0.89517534
28	0xbeecba57	-0.46235916
29	0x3f0f02c6	0.55863607
30	0xbed5f673	-0.41789588
31	0xbf046f7b	-0.51732606

exp_avg f4 [64, 12]
0	0xb9c46e4d	-0.00037466214
1	0x382ecbde	4.16747e-05
2	0xba296fee	-0.0006463517
3	0x3941f67b	0.00018497735
4	0x391e21cb	0.00015080643
5	0x38f3594b	0.00011603775
6	0xb79ed6b0	-1.893504e-05
7	0x382ecbde	4.16747e-05
8	0xb9835162	-0.00025046902
9	0xb92d145e	-0.00016506153
10	0xb90b4ef5	-0.00013285487
11	0xb9f3af3b	-0.0004647913
12	0xb9fdd21e	-0.0004841247
13	0x37302fef	1.0501578e-05
14	0x3ad1f420	0.001601819
15	0xb9ad5a10	-0.00033064233
16	0xb9ef163d	-0.000456022
17	0x394caa4a	0.00019518394
18	0x3964742f	0.00021787056
19	0x37302fef	1.0501578e-05
20	0x3b221c1a	0.0024735988
21	0x3b08e33f	0.0020887402
22	0x3b0720d2	0.0020618928
23	0x3886bc03	6.424638e-05
24	0xba926cde	-0.0011171361
25	0xb9fb7b27	-0.00047966206
26	0xb9c3f884	-0.00037378457
27	0xba0e5d87	-0.0005430807
28	0xba52c17e	-0.0008039697
29	0xbb24b38d	-0.0025131435
30	0xb9b84b79	-0.00035151446
31	0xb9fb7b27	-0.00047966206
32	0xbb02ceec	-0.001995976
33	0xbb21daac	-0.002469699
34	0xbb133de3	-0.0022467307
35	0xbb12b884	-0.0022387812
36	0x3b505ab7	0.0031792352
37	0x3a1ec17a	0.0006056052
38	0x39e20008	0.00043106102
39	0x3a8aa8d8	0.0010578884
40	0x3ab19ab6	0.0013550136
41	0x3b86da4c	0.0041153785
42	0x39c64803	0.00037819156
43	0x3a1ec17a	0.0006056052
44	0x3ba19498	0.004931044
45	0x3b0bae77	0.0021313706
46	0x3bac9199	0.00526638
47	0x3be7f9d6	0.0070793433
48	0x39b7c027	0.00035047645
49	0xb6601fb6	-3.339706e-06
50	0xb88fc57b	-6.855555e-05
51	0xb7a3f0b6	-1.9543204e-05
52	0xb7e35eb2	-2.7104605e-05
53	0x3a0c663a	0.0005355809
54	0x3659c304	3.2449034e-06
55	0xb6601fb6	-3.339706e-06
56	0xb7115f16	-8.664812e-06
57	0xb7fb5afe	-2.9963903e-05
58	0xb96ee7cd	-0.00022783801
59	0x39ae228d	0.0003321361
60	0x00000004	6e-45
61	0x00000004	6e-45
62	0x00000004	6e-45
63	0x00000004	6e-45
64	0x00000004	6e-45
65	0x00000004	6e-45
66	0x00000004	6e-45
67	0x00000004	6e-45
68	0x00000004	6e-45
69	0x00000004	6e-45
70	0x00000004	6e-45
71	0x00000004	6e-45
72	0xbae46ea7	-0.0017427996
73	0xb958fc60	-0.00020693382
74	0xbb27bfc2	-0.0025596474
75	0x37c506b6	2.3487355e-05
76	0xb9f6aa7e	-0.00047047803
77	0xbb193bda	-0.0023381622
78	0xb9ade9d9	-0.0003317136
79	0xb958fc60	-0.00020693382
80	0xbb16d8c7	-0.0023017393
81	0xbb05000c	-0.0020294217
82	0xbaf86443	-0.0018950779
83	0xbb416bae	-0.0029513645
84	0x00000004	6e-45
85	0x00000004	6e-45
86	0x00000004	6e-45
87	0x00000004	6e-45
88	0x00000004	6e-45
89	0x00000004	6e-45
90	0x00000004	6e-45
91	0x00000004	6e-45
92	0x00000004	6e-45
93	0x00000004	6e-45
94	0x00000004	6e-45
95	0x00000004	6e-45
96	0xbadeb767	-0.0016991914
97	0xba300ec7	-0.0006716069
98	0xbaaadab8	-0.0013035154
99	0xbb1982a6	-0.002342382
100	0xbb321e90	-0.0027178861
101	0xbc0e39f4	-0.008680809
102	0xb651fa95	-3.1289285e-06
103	0xba300ec7	-0.0006716069
104	0xbb33faf6	-0.0027462817
105	0xbb5e9542	-0.0033963476
106	0xbb2fbec7	-0.0026816593
107	0xb9f6b7bb	-0.00047057666
108	0xbbfdaf4d	-0.0077418447
109	0xb9f0363f	-0.00045816784
110	0xbb8d4fb2	-0.004312479
111	0xba857389	-0.0010181527
112	0xbb20c4ab	-0.0024531286
113	0xbbca4e1c	-0.006173862
114	0x38b99ab7	8.850305e-05
115	0xb9f0363f	-0.00045816784
116	0x3ac7202e	0.0015192085
117	0x39c18c45	0.00036916338
118	0x3ac7202e	0.0015192085
119	0xbbf6fdf6	-0.0075375987
120	0xbb94a692	-0.0045364583
121	0xba0a5e3c	-0.0005278324
122	0xbb9b00cb	-0.004730319
123	0xba10e163	-0.00055267493
124	0xbad7fe84	-0.001647905
125	0xbba9c87a	-0.0051813694
126	0xb9f3a476	-0.00046471105
127	0xba0a5e3c	-0.0005278324
128	0xbb265546	-0.0025380417
129	0xbb1cc746	-0.0023922487
130	0xbb1629a2	-0.0022912999
131	0xbbcfb964	-0.006339239
132	0xbaa9d477	-0.0012956996
133	0xb8a2e401	-7.767231e-05
134	0xba4dfc15	-0.00078576925
135	0xb8a5fd81	-7.915032e-05
136	0xb99b7664	-0.00029652112
137	0xba40753e	-0.0007341689
138	0xb8033953	-3.128622e-05
139	0xb8a2e401	-7.767231e-05
140	0x39f90f56	0.00047504407
141	0x39c9569c	0.00038402237
142	0x39f2f752	0.00046342105
143	0xbaccae92	-0.0015615991
144	0xba7cef5d	-0.0009648705
145	0xb89d52ab	-7.5017415e-05
146	0xba5ca30f	-0.00084166316
147	0xb8f297c6	-0.00011567729
148	0xb99c701b	-0.00029838164
149	0xba8da412	-0.0010806343
150	0xb7f3ab1f	-2.9047542e-05
151	0xb89d52ab	-7.5017415e-05
152	0xb9152811	-0.00014224673
153	0xb91a43a9	-0.0001471179
154	0xb81cba2f	-3.7366695e-05
155	0xba8e7726	-0.0010869249
156	0xba980bc9	-0.0011600192
157	0xb8c5bea4	-9.4292016e-05
158	0xba84fa98	-0.0010145484
159	0xb8dec148	-0.00010621786
160	0xb9b5036e	-0.00034525566
161	0xba925253	-0.001116345
162	0xb89d4b0a	-7.5003205e-05
163	0xb8c5bea4	-9.4292016e-05
164	0xb8aabc1c	-8.14127e-05
165	0xb910f6ae	-0.00013824806
166	0xb8e1f9cd	-0.00010775365
167	0xbac922cc	-0.0015345453
168	0xbab0a3ed	-0.0013476588
169	0xb93f1df2	-0.00018226335
170	0xbb03027d	-0.0019990497
171	0x3839c01b	4.428635e-05
172	0xb981e74c	-0.00024777127
173	0xbaf3c7f8	-0.0018599024
174	0xb999541c	-0.000292451
175	0xb93f1df2	-0.00018226335
176	0xbb00bbcf	-0.0019643193
177	0xbae25196	-0.0017266746
178	0xbad2cfe5	-0.0016083686
179	0xbb1d47bb	-0.0023999054
180	0xbae267eb	-0.0017273402
181	0xbaa846b5	-0.0012838455
182	0xbba7dbc5	-0.005122634
183	0xbae0e61d	-0.0017158423
184	0xbb0d26e7	-0.002153808
185	0xbb92ea86	-0.004483524
186	0xba8f8154	-0.0010948577
187	0xbaa846b5	-0.0012838455
188	0xbba4eed8	-0.005033355
189	0xbb9ee997	-0.0048496234
190	0xbb982c17	-0.004643928
191	0xbb95660d	-0.0045592845
192	0xba4da913	-0.00078453234
193	0xb864f344	-5.4585995e-05
194	0xba22f07e	-0.00062156457
195	0xb8d5a3dd	-0.000101871534
196	0xb97d7781	-0.00024172479
197	0xba1d3c69	-0.00059980765
198	0xb7ddf687	-2.6460051e-05
199	0xb864f344	-5.4585995e-05
200	0x388d0e8f	6.726116e-05
201	0xb8a3bf76	-7.808108e-05
202	0xb8b14048	-8.451991e-05
203	0xba6d3ed0	-0.00090501923
204	0x00000000	0.0
205	0x00000000	0.0
206	0x00000000	0.0
207	0x00000000	0.0
208	0x00000000	0.0
209	0x00000000	0.0
210	0x00000000	0.0
211	0x00000000	0.0
212	0x00000000	0.0
213	0x00000000	0.0
214	0x00000000	0.0
215	0x00000000	0.0
216	0x38fc9c9f	0.00012045469
217	0x38daf8ea	0.00010441414
218	0xb99f6314	-0.00030400662
219	0x395d211b	0.00021088535
220	0x39e46a2f	0.00043566662
221	0x3a3002c5	0.000671428
222	0xb8a5b762	-7.901971e-05
223	0x38daf8ea	0.00010441414
224	0xb9dc40dd	-0.00042009997
225	0xba41e3a3	-0.0007396286
226	0xb983a166	-0.00025106518
227	0x37aec3e1	2.083363e-05
228	0xbb8b0ffa	-0.004243848
229	0xb8ccff52	-9.775035e-05
230	0xbaf0d7b4	-0.0018374831
231	0x396cab5d	0.00022570552
232	0xba675d84	-0.00088258856
233	0xbb6d2f1a	-0.0036191405
234	0xb9acb24c	-0.00032939238
235	0xb8ccff52	-9.775035e-05
236	0xbb857ec2	-0.0040739486
237	0xbb4bf907	-0.0031123774
238	0xbb1ff5f3	-0.0024408072
239	0xbbc0f806	-0.0058889417
240	0x38a1a57c	7.707902e-05
241	0xb921cbd6	-0.00015430091
242	0xb99df9fc	-0.00030131626
243	0xb86f48fb	-5.705001e-05
244	0x37e069bb	2.6752115e-05
245	0x3a573169	0.0008208962
246	0xb8aa89ae	-8.1318765e-05
247	0xb921cbd6	-0.00015430091
248	0x371ddd6a	9.409481e-06
249	0xba24d7ef	-0.000628828
250	0x371ddd21	9.409415e-06
251	0x386e6fdf	5.684781e-05
252	0x3ca12da8	0.01967509
253	0x3b2e2980	0.002657503
254	0x3c67d3de	0.014149634
255	0x3b8d85eb	0.004318943

exp_avg_sq f4 [64, 12]
0	0x37651bf1	1.3655969e-05
1	0x34a623f4	3.094607e-07
2	0x378db450	1.6892474e-05
3	0x359f5d89	1.1873645e-06
4	0x364bc7bd	3.036562e-06
5	0x37c2866e	2.31892e-05
6	0x338d8b2a	6.591138e-08
7	0x34a623f4	3.094607e-07
8	0x36c0266f	5.72652e-06
9	0x36a53202	4.923205e-06
10	0x3689a556	4.102166e-06
11	0x3771e9bc	1.441914e-05
12	0x3880f9fa	6.1500774e-05
13	0x35d0b68c	1.5550336e-06
14	0x3887879b	6.46256e-05
15	0x36c18f8e	5.76856e-06
16	0x3749b698	1.2023047e-05
17	0x38732ce8	5.7977537e-05
18	0x34ec7544	4.4043747e-07
19	0x35d0b68c	1.5550336e-06
20	0x38402caf	4.5817982e-05
21	0x38195881	3.656047e-05
22	0x380cdea8	3.3585966e-05
23	0x388937e0	6.5430766e-05
24	0x3896ba13	7.1872164e-05
25	0x359681e4	1.1213674e-06
26	0x36dc30dc	6.562199e-06
27	0x36ff2cef	7.604823e-06
28	0x37432cd6	1.1633345e-05
29	0x38b37e04	8.5588574e-05
30	0x350598df	4.976882e-07
31	0x359681e4	1.1213674e-06
32	0x38749773	5.831518e-05
33	0x387ba915	6.0000533e-05
34	0x389ecd53	7.572272e-05
35	0x38b8c35a	8.810191e-05
36	0x39e80e78	0.00044261268
37	0x37ceb540	2.4641515e-05
38	0x39506a37	0.00019875994
39	0x38c78649	9.514072e-05
40	0x390aa2a4	0.00013221294
41	0x3a856aca	0.001017892
42	0x36d34430	6.296228e-06
43	0x37ceb540	2.4641515e-05
44	0x39bbf1a9	0.0003584747
45	0x398f3dd9	0.00027321166
46	0x39cc35f5	0.00038950113
47	0x3a085a22	0.0005201419
48	0x38fe7b1e	0.00012134596
49	0x35c855ad	1.4926096e-06
50	0x393afced	0.00017832564
51	0x36983845	4.5365036e-06
52	0x3791ab03	1.736498e-05
53	0x38bf1033	9.110607e-05
54	0x34b84003	3.4319245e-07
55	0x35c855ad	1.4926096e-06
56	0x388d7ad2	6.746281e-05
57	0x3884e871	6.337546e-05
58	0x38268939	3.9705283e-05
59	0x38fe8bf5	0.00012137733
60	0x000001f4	7e-43
61	0x000001f4	7e-43
62	0x000001f4	7e-43
63	0x000001f4	7e-43
64	0x000001f4	7e-43
65	0x000001f4	7e-43
66	0x000001f4	7e-43
67	0x000001f4	7e-43
68	0x000001f4	7e-43
69	0x000001f4	7e-43
70	0x000001f4	7e-43
71	0x000001f4	7e-43
72	0x39001097	0.00012213211
73	0x368eadc1	4.2521574e-06
74	0x38fe92dc	0.000121390185
75	0x376620fa	1.3716746e-05
76	0x37c9a41b	2.4037485e-05
77	0x3911a5a8	0.0001388999
78	0x359daa11	1.1746907e-06
79	0x368eadc1	4.2521574e-06
80	0x38beec57	9.103928e-05
81	0x3890c796	6.903631e-05
82	0x3895110d	7.1080496e-05
83	0x39080bce	0.00012974368
84	0x000001f4	7e-43
85	0x000001f4	7e-43
86	0x000001f4	7e-43
87	0x000001f4	7e-43
88	0x000001f4	7e-43
89	0x000001f4	7e-43
90	0x000001f4	7e-43
91	0x000001f4	7e-43
92	0x000001f4	7e-43
93	0x000001f4	7e-43
94	0x000001f4	7e-43
95	0x000001f4	7e-43
96	0x39288138	0.00016069866
97	0x37b0e22f	2.108616e-05
98	0x3aa779ee	0.0012777427
99	0x38b7eab0	8.769834e-05
100	0x3962049e	0.0002155476
101	0x3ac7e2e3	0.0015250113
102	0x36b7ba44	5.475509e-06
103	0x37b0e22f	2.108616e-05
104	0x3a8db015	0.0010809923
105	0x3a6535cb	0.00087436725
106	0x3a8edd78	0.0010899743
107	0x3958ed99	0.00020687877
108	0x39efa1e2	0.00045706244
109	0x371ca6b8	9.337142e-06
110	0x3a198d02	0.00058574986
111	0x3819fbe8	3.671265e-05
112	0x38a8a0f2	8.040843e-05
113	0x3a12d8be	0.0005601755
114	0x340379ad	1.2244591e-07
115	0x371ca6b8	9.337142e-06
116	0x37c5ff7b	2.3603197e-05
117	0x3660d53d	3.3502722e-06
118	0x37c1274d	2.3025694e-05
119	0x39f03bd4	0.00045820943
120	0x39762b7a	0.00023476584
121	0x3706ce22	8.035016e-06
122	0x398547db	0.00025421273
123	0x37d43d0d	2.5300798e-05
124	0x383e1d85	4.5327022e-05
125	0x39981c7f	0.0002901293
126	0x3615d25a	2.232517e-06
127	0x3706ce22	8.035016e-06
128	0x39472d18	0.00018994918
129	0x3912a137	0.00013983702
130	0x391cb659	0.00014945249
131	0x3983183b	0.0002500432
132	0x3923e686	0.00015630768
133	0x3590d76b	1.0791531e-06
134	0x39784e5d	0.00023680316
135	0x367fd079	3.8119308e-06
136	0x37ab4c78	2.0420397e-05
137	0x38c5b776	9.427864e-05
138	0x34a1d188	3.014104e-07
139	0x3590d76b	1.0791531e-06
140	0x389ae186	7.385299e-05
141	0x3894ceee	7.0957336e-05
142	0x384e0da2	4.9126924e-05
143	0x3924a77a	0.00015702649
144	0x3972fbfb	0.00023172788
145	0x358a2ce8	1.0294871e-06
146	0x39a8f628	0.00032226858
147	0x367e70b3	3.791455e-06
148	0x37dca7d4	2.6304195e-05
149	0x38c5a16a	9.423758e-05
150	0x345da38e	2.064173e-07
151	0x358a2ce8	1.0294871e-06
152	0x38822b04	6.206895e-05
153	0x387f1d6f	6.082415e-05
154	0x380a27f4	3.2938973e-05
155	0x39738661	0.00023224346
156	0x392aa675	0.00016274473
157	0x35a35ee9	1.2172069e-06
158	0x3988e2ed	0.00026109014
159	0x3689fe2e	4.1125086e-06
160	0x37bae661	2.2280206e-05
161	0x38c3f407	9.343778e-05
162	0x34c10d09	3.5958536e-07
163	0x35a35ee9	1.2172069e-06
164	0x38bd9540	9.040022e-05
165	0x38b561af	8.6489476e-05
166	0x388c9fb2	6.705466e-05
167	0x392b32d3	0.00016326764
168	0x3953c8f8	0.00020197395
169	0x36842aae	3.938875e-06
170	0x398a4372	0.00026371662
171	0x3756dd7d	1.2806963e-05
172	0x3801e630	3.0970376e-05
173	0x39236c52	0.00015585244
174	0x3592a191	1.092487e-06
175	0x36842aae	3.938875e-06
176	0x38f8772c	0.00011847759
177	0x38d2beb1	0.000100490994
178	0x38bbcdba	8.9551744e-05
179	0x395a4049	0.00020814048
180	0x38a413aa	7.823792e-05
181	0x3704d7ba	7.918041e-06
182	0x3971f292	0.00023073916
183	0x37ba7934	2.2229367e-05
184	0x3815030b	3.5527202e-05
185	0x397971ce	0.00023788886
186	0x36471ee8	2.96713e-06
187	0x3704d7ba	7.918041e-06
188	0x39b29fe2	0.00034069928
189	0x395a89c1	0.00020841417
190	0x399e830a	0.0003023374
191	0x390b8b71	0.00013308019
192	0x3907c91d	0.00012949524
193	0x3544a28d	7.325223e-07
194	0x3956c382	0.00020481463
195	0x3639bd71	2.7677418e-06
196	0x378f7e77	1.7105818e-05
197	0x38994062	7.307601e-05
198	0x346d890f	2.2122207e-07
199	0x3544a28d	7.325223e-07
200	0x389597cc	7.133148e-05
201	0x3892c550	6.998575e-05
202	0x384e5867	4.919656e-05
203	0x39076188	0.00012910936
204	0x00000000	0.0
205	0x00000000	0.0
206	0x00000000	0.0
207	0x00000000	0.0
208	0x00000000	0.0
209	0x00000000	0.0
210	0x00000000	0.0
211	0x00000000	0.0
212	0x00000000	0.0
213	0x00000000	0.0
214	0x00000000	0.0
215	0x00000000	0.0
216	0x393236b4	0.00016995781
217	0x3637c92c	2.7386222e-06
218	0x39857a8d	0.00025459044
219	0x370a86ab	8.256796e-06
220	0x37e55980	2.7340604e-05
221	0x39247e75	0.00015687368
222	0x3538c7b0	6.8835925e-07
223	0x3637c92c	2.7386222e-06
224	0x38be8b82	9.085891e-05
225	0x38b93c80	8.8327564e-05
226	0x36e348d5	6.773606e-06
227	0x3932a23a	0.00017035837
228	0x39a1c217	0.0003085292
229	0x3716401f	8.955626e-06
230	0x3818dd8c	3.6445956e-05
231	0x38417907	4.61275e-05
232	0x389a8f4c	7.369983e-05
233	0x3a062b49	0.00051181443
234	0x36202a4b	2.3866476e-06
235	0x3716401f	8.955626e-06
236	0x398a27e9	0.00026351147
237	0x39504b90	0.00019864575
238	0x394136b7	0.00018426297
239	0x39aefb16	0.0003337494
240	0x376cd397	1.4115961e-05
241	0x35d68638	1.5983305e-06
242	0x3804080b	3.1478743e-05
243	0x36cec244	6.161894e-06
244	0x370ef069	8.519834e-06
245	0x38d9a102	0.000103773564
246	0x350a91fb	5.1621436e-07
247	0x35d68638	1.5983305e-06
248	0x381dd20a	3.762733e-05
249	0x383c2c46	4.4863926e-05
250	0x38019a09	3.0899453e-05
251	0x37705676	1.43252455e-05
252	0x3bba4173	0.0056840717
253	0x3879d1ca	5.9561607e-05
254	0x3baae542	0.005215318
255	0x39a716a5	0.00031869594

exp_avg f4 [64]
0	0x395a5168	0.00020820426
1	0x3a08db3e	0.0005220658
2	0xbb9d1a14	-0.0047943685
3	0x3c2e65a3	0.010644349
4	0xb9327885	-0.000170203
5	0x00000004	6e-45
6	0xbb8eb1c4	-0.0043546874
7	0x00000004	6e-45
8	0xbbbd5efe	-0.005779146
9	0xbc2d518d	-0.010578525
10	0xbc1b4e32	-0.009479092
11	0xbaa52a4b	-0.0012601105
12	0xbaaa892e	-0.0013010853
13	0xbae0459d	-0.001711059
14	0xbb4fb9f6	-0.0031696535
15	0xbc0dc627	-0.0086532
16	0xba57a876	-0.0008226702
17	0x00000000	0.0
18	0xb995d520	-0.00028578285
19	0xbc088039	-0.008331352
20	0x3a147b6b	0.00056641427
21	0x3d163797	0.03667411
22	0xbc1e37d9	-0.00965687
23	0x3b981311	0.004640945
24	0xbc15c9b1	-0.009142325
25	0xbb7bebf2	-0.0038440195
26	0xbc6c6a32	-0.014429616
27	0x00000004	6e-45
28	0xbbe805b1	-0.0070807566
29	0x3bce431e	0.006294622
30	0xbc3bfb93	-0.011473554
31	0xbc86252d	-0.016375149
32	0xbbc10a55	-0.0058911243
33	0x3791f934	1.7401391e-05
34	0xbb88897d	-0.0041667805
35	0xbc8d5f08	-0.017257228
36	0xbbf861cd	-0.007580018
37	0x00000004	6e-45
38	0xbc317644	-0.010831419
39	0x3b33e0f3	0.0027447313
40	0xbbec9f19	-0.0072211144
41	0x00000000	0.0
42	0xbae602f8	-0.0017548492
43	0x00000004	6e-45
44	0xbbe07ea5	-0.0068510347
45	0xbc37bc3c	-0.011214312
46	0xbc074523	-0.00825623
47	0xbc792c18	-0.015208267
48	0xbb92d0a3	-0.004480438
49	0x3baca75d	0.0052689747
50	0xbb1109c0	-0.0022131056
51	0xbb91a720	-0.0044449717
52	0xbbc0aa9d	-0.0058797137
53	0x390fbcdb	0.00013707897
54	0xbbc04671	-0.0058677723
55	0xbb54cd76	-0.0032471097
56	0x00000000	0.0
57	0x3c0f49b4	0.0087456
58	0x3ca342b7	0.019929273
59	0x3b21f8fb	0.0024715054
60	0xbc5c57d9	-0.013448679
61	0x00000004	6e-45
62	0x3ca98b5f	0.02069634
63	0xbaadb25c	-0.0013252008
