models/checkpoint_100000.pt (torch, 125871 bytes, 33 tensors)

shared.0.weight f4 [64, 12]
00000000: 90ca 07be 1c90 1dbd 79a8 d3bc 7e10 06be
00000010: 1865 51bb 4c9d 81bd 133e efbd 9733 dd3d
00000020: eaeb 7cbc c179 b03d 2e2e 5cbe 5d94 03bd
00000030: 4a35 d2bd bcea 2fbe 4d0a 24be 2e32 673e
00000040: 6bd9 353e 66d0 4ebe c32b 5dbe bca0 d4bd
00000050: ce59 1ebe d469 0e3e b1c8 7a3d baa4 8d3d
00000060: 4b44 2bbe 251c a33e 78c9 0fbe 9ddf 2e3f
00000070: 2a67 0abd d6f0 38bd afbd 423e b830 8b3d
00000080: 88cf abbd 20a9 573d af59 f43c f754 e43d
00000090: b5d0 8fbd 8561 41be a26e a1bd f584 4dbc
000000a0: 98c7 20be 0a55 9f3d 30a6 e8bd 654c c3bd
000000b0: f469 2abe 2536 2d3d a5aa 013e c796 e23b
000000c0: e5f2 32bd c301 213e 9528 35be 03fd 843d
000000d0: 6fcd 77be 4bac b3be c6cc f03c bbd0 92bd
000000e0: d122 d7bc bbaf c5bc 1387 633d 0f3c 30bb
000000f0: 6901 88bc ba1c c13e 2bf1 e4bd 0938 403f
00000100: c696 7d3a e1fd 91bb a7a6 a63e 2310 193e
00000110: 7ef0 223d a9c0 37be 9e9b c43d 4988 633e
00000120: 5a15 983d 933f 1ebe e19f 4a3c d89f ea3e
00000130: 1101 e6bc a9f2 813d 4c18 bb3d 27b8 5b3e
00000140: da47 d73d b8cc 1abe 8dae 01be aa1d 7abe
00000150: 6b1c 1fbe f5df 1ebe 0142 abbe 3715 543e
00000160: 5404 81be b3ac cdbb 1f0a 0abd cf77 f6bd
00000170: d845 0e3e edc1 073d 93b1 e93d be01 b4be
00000180: 973c 3a3d 66cf 9b3c b7f9 8c3e fa56 88be
00000190: defa a5be 1982 7d3d a6dd 483d c8a6 fdbc
000001a0: e879 5a3a e2b5 cfbd 090b 4b3c be0b 923e
000001b0: b07d 40be fd8d 873d c0a1 e93d 9d25 3a3d
000001c0: 7c68 a0bd b3a2 b53d 5c4d c4be 0dae 07be
000001d0: f9d1 e6be 0333 ba3d 9745 ccbd 9ee4 1abe
000001e0: b85e 4cbe cbf9 a93e 81b0 463c 9c48 863e
000001f0: d0c8 6b3a 8337 883e 145b 2c3e c620 6d3e
00000200: d474 063d f3fc 97bd 3ff8 f83c b7cc bbbb
00000210: cd7e c9bd 489d bb3d 38de dbbc bbf0 88bd
00000220: c4f6 4bbe 811d 8a3e 0707 7abc 5b95 933e
00000230: e000 5cbd 40af f7bd 5098 13bd b5a3 0bbb
00000240: 6164 08be 4fd3 03be 014d 0e3d cd36 f73d
00000250: 808f 7abe b3f4 433c 5610 52be 6f34 8bbe
00000260: 49c6 8f3d cab2 883e 87df 963c 6f6f a5be
00000270: 3fcd 013e 6ec1 263d 7f00 983c 797d c6be
00000280: ea48 263e 7838 9b3e 6f90 81be ab3d 093d
00000290: d4a1 7f3d fd3d 723e d948 ef3d f8a6 6c3c
000002a0: 434f f23d cc18 41bf 0a03 4a3e 3a45 d0be
000002b0: 9312 5e3e 76e0 7cbe 8c21 f8be 6cb0 0bbf
000002c0: a68a 6c3d fff4 d43d c9d3 30bd 2490 26be
000002d0: 59fa a1bd c41a 913d 78be e1bd 6611 c33e
000002e0: ef92 dd3d ee49 ebbc 9dd5 7a3e 206b b13e
000002f0: 041b cebd 3d26 b9bd debf af3d 67a1 223e
00000300: 2768 dc3d 549a 423e b022 ecbc fb09 5d3e
00000310: cfc8 cebe 945b c3bd 8403 5d3e 3aa4 443e
00000320: bf66 4f3d fa50 04bd 7a24 443c c325 2d3d
00000330: ce2c 3d3e db0a f8b9 0c6c f0be 7711 023e
00000340: 5b7f a3be 0d12 733e 740e 5c3e e90a ef3d
00000350: dedb 63b9 99c8 a73d 921b cd3c c7a0 f03b
00000360: caad 02be cbd7 673e da67 973d 4b56 573e
00000370: 9fa3 14be b800 e03d 784f 633e a635 d53d
00000380: def2 c23c b66d 2abd 5181 70be b8bc 3fbd
00000390: 7b84 62be ca3e 00be 61a9 d43b 3727 7a3d
000003a0: a73c a1be 1aaf 623e f963 aabd 1ef8 81be
000003b0: d896 cbbc 2389 c33c 4a9f 703e 84a2 043e
000003c0: 7fae caba fbb3 93bd 0e34 de3d ee47 55bd
000003d0: 738e 77be 591f 58bd 1233 cfbe 5eea 673d
000003e0: 6243 f43d 6c3a 9ebe 36d0 523d f26e e83b
000003f0: cc60 a73d a1c9 97be a8d6 7c3d 43b0 26bf
-0.13260865 -0.03846751 -0.02583717 -0.13092229 -0.0031951126 -0.0632883 -0.116817616 0.108008556
-0.015437106 0.08616973 -0.21501991 -0.032123912 -0.1026407 -0.17179388 -0.16019554 0.22577736
0.1775872 -0.20196685 -0.21598725 -0.1038222 -0.15463945 0.13907558 0.06122655 0.06916185
-0.1672527 0.3185741 -0.14041698 0.68309957 -0.03378979 -0.045151554 0.19017671 0.06796402
-0.08389193 0.052651525 0.02982792 0.11149018 -0.070222296 -0.18884857 -0.0788243 -0.012543906
-0.15701139 0.07779892 -0.11359823 -0.095360555 -0.1664198 0.042287964 0.12662752 0.0069149467
-0.043688674 0.15723328 -0.17691262 0.06493571 -0.2419946 -0.35092387 0.029394519 -0.071687184
-0.026261719 -0.024131646 0.05554874 -0.0026891266 -0.016602235 0.3771723 -0.11178812 0.750855
0.0009673651 -0.0044553136 0.3254902 0.14947562 0.039780132 -0.17944588 0.09599994 0.22219957
0.074259475 -0.15453939 0.01236722 0.45825076 -0.02807668 0.06345112 0.09135494 0.21456967
0.105117515 -0.15117157 -0.12664242 -0.24425378 -0.15538184 -0.1551512 -0.33448794 0.20711218
-0.25198615 -0.006276691 -0.03370106 -0.120345704 0.13893831 0.033143926 0.11410823 -0.3515758
0.04546794 0.019019794 0.27534267 -0.26628858 -0.3241796 0.06189165 0.049039505 -0.030963317
0.00083342055 -0.10142113 0.012392768 0.28524584 -0.18797946 0.06618879 0.114078045 0.045446027
-0.07832429 0.08868923 -0.3834027 -0.13249989 -0.4508207 0.09091761 -0.09974211 -0.15126273
-0.19958007 0.3319839 0.012127043 0.26227272 0.0008994462 0.26604852 0.16831619 0.23157033
0.03282626 -0.07421293 0.03039181 -0.005731191 -0.098386385 0.091608584 -0.02683936 -0.06686541
-0.19918352 0.26975635 -0.0152604645 0.28824887 -0.053711772 -0.12093973 -0.03603393 -0.0021307294
-0.13319542 -0.12873577 0.034741405 0.12070999 -0.24468803 0.011960196 -0.20514044 -0.2718844
0.07020242 0.26698905 0.018417133 -0.3231158 0.12675951 0.040711813 0.018554924 -0.38767603
0.16238752 0.3031652 -0.25305507 0.033506077 0.06241019 0.23656459 0.116838165 0.014444105
0.11831524 -0.7542846 0.19727722 -0.40677816 0.21686773 -0.24695 -0.48463094 -0.54566073
0.057749413 0.10398292 -0.043170724 -0.16265923 -0.07909078 0.07085183 -0.11022657 0.3809921
0.10819041 -0.028721776 0.2449555 0.34652042 -0.100637466 -0.090404965 0.08581518 0.15881883
0.10762053 0.19004184 -0.028825134 0.21585838 -0.4038758 -0.095389515 0.21583372 0.19203272
0.050635096 -0.032303788 0.011971587 0.04227234 0.18474123 -0.00047310334 -0.46957433 0.12701975
-0.31933102 0.23737355 0.21489888 0.11672003 -0.00021730314 0.08192558 0.02503756 0.007343385
-0.12761608 0.22640912 0.07392855 0.21029012 -0.14515541 0.10937637 0.22198284 0.10410623
0.023797449 -0.041608535 -0.2348683 -0.046810836 -0.2212085 -0.12523952 0.006489918 0.061072554
-0.31491587 0.22137108 -0.083198495 -0.2538461 -0.024852201 0.023869103 0.23498264 0.1295262
-0.0015463381 -0.07212063 0.108497724 -0.05207055 -0.24175434 -0.05276427 -0.4046865 0.056619994
0.11926915 -0.30903947 0.051468097 0.007093304 0.081727594 -0.29646018 0.06172815 -0.65112704

shared.0.bias f4 [64]
00000000: 9443 83bc e50d 863e c249 533e e5c3 713e
00000010: c35c 5d3e 1626 0c3e f8a6 0f3e fb2d a0bb
00000020: 28d7 2d3e 705c 893e 0a17 f63d 01da 4e3e
00000030: 38c4 803e ed6a 15be ccb9 cf3d ebaa 843e
00000040: 6b55 7b3e 00d0 6e3e 07ca 3c3e b997 5b3e
00000050: 8130 543e 343f 653e 68c9 5b3e 2050 063e
00000060: df5e 493e 4fa4 2f3e e7f7 1b3e 8e8c 063e
00000070: 8f58 dd3d 6afa 5f3e a017 063e 3e86 c93d
00000080: afa8 3d3e 56ed 573e 2895 853e d3b8 8a3e
00000090: 84f4 bb3d 1274 6a3e 24b8 323e c4f2 163e
000000a0: 62cb 7b3e e771 eb3c a010 0b3e 271a 0d3e
000000b0: 9ff4 4f3e 112b 863e df53 0e3e 0729 4f3e
000000c0: 9868 803e d890 803e fd4c 403e 31a1 b33d
000000d0: 660a 573e 2328 8d3e 688b 9b3d 0539 df3d
000000e0: b009 383e 9b63 c0bc e5ce 823e 30d0 cdbc
000000f0: d397 703e 8a37 7d3e 1d4e 5a3e 07dd 503e
-0.016023435 0.26182476 0.20633605 0.23609884 0.21617417 0.13686404 0.14028537 -0.004888294
0.16976607 0.26828337 0.12016113 0.2020035 0.25149703 -0.1459157 0.1014286 0.2591165
0.24544303 0.23321533 0.18436442 0.21444596 0.20721628 0.22387391 0.21463549 0.13116503
0.19665097 0.17152523 0.15231286 0.13139555 0.10807907 0.21872869 0.1309495 0.09840058
0.18521379 0.2108663 0.2609036 0.27094135 0.09177497 0.2289584 0.17453057 0.14741045
0.24589303 0.028740836 0.1358056 0.13779508 0.2030816 0.26204732 0.13899182 0.20230494
0.250798 0.25110507 0.18779369 0.08770979 0.2100006 0.27569684 0.07594949 0.108995475
0.17972445 -0.023484996 0.25548473 -0.025123686 0.23495416 0.24728218 0.2131886 0.20396815

shared.2.weight f4 [64, 64]
00000000: 3db1 9dbd 8869 883e cc45 e0bc 9c97 723d
00000010: c2d1 1bbe d268 073e 6890 913e 6674 a33e
00000020: 2eec aabc 8def f83d dfc2 9bbe 67da 623d
00000030: 6cc9 41be e53c adbd c79c 6d3d 9596 c63d
00000040: e35e 283e 5f5c 343e a5e1 6fbd c426 60bc
00000050: 1d2f 3f3e f2ea 26be e318 a23e 4fd5 d63b
00000060: d419 2dbd 15fa da3d 217a 143e 66d2 90bd
00000070: 4bf8 12be ad9d a53d b707 77be d784 51bd
00000080: ff31 95bd bf51 dcbd e5e8 903e f6d9 2d3e
00000090: 5e75 ebbc 9b9e 743e 8575 8abc 89a7 42be
000000a0: 612e 633e 1f0b c83e d997 1cbf 99da b93d
000000b0: fe20 8e3d 34d2 763e 2994 393c c6f6 8c3e
000000c0: 41e5 6a3e 8e10 783e 4b0c 213e e46e d73d
000000d0: 8fa0 a03d b94f 9e3e 6fd6 6b3f 66e8 0dbd
000000e0: f041 0a3e adeb 893d 6c73 6b3e 9fb1 2ebe
000000f0: 8ee4 9b3e e376 c33d 847b 4c3c 832f df3d
00000100: c6b6 ef3d e11d 813e b8fe a73e eaa5 6a3e
00000110: f4b1 37be 8327 023e e30f 743d 5058 b53e
00000120: ad36 22be 245a ad3d ca75 4c3c 3253 9a3d
00000130: 2913 dd3d c452 23be e3ae 073e d036 633e
00000140: eb6e 8d3d 91f1 053f e690 a33d 19f9 1d3d
00000150: c286 783c e362 03be de23 023e 42e2 2b3e
00000160: 3141 f73d 887f 6e3e fdcd a6bc 7112 a73d
00000170: 497d 51bd 3766 ea3d 428f 00be 3f58 203e
00000180: 08c8 8c3d 7739 3d3d c993 69bc 2051 25bb
00000190: de1d adbd 6512 ad3e 8037 5fbe bda7 85be
000001a0: 9f3e a53d 3703 6e3e 3c89 13be 5528 a03b
000001b0: ad5f 0cbe bfff 333d 461e b9bd 6c6d 593e
000001c0: c027 b93b 0de5 b33d 2ef5 e23d 484b 243e
000001d0: 9f5e 3f3d db74 bc3e c82b 763f 78e7 79bd
000001e0: 1a73 2d3e ad4e 7bbe 7802 59bd ded0 a8be
000001f0: 6dfe b4bd 0fe8 ccbc 29de 543e e576 3c3e
00000200: cd1e 54bb 7769 b63e ebf9 ff3d 680f de3a
00000210: e1ea 00bf d4f3 75bb e69f 853e 221b a33e
00000220: 3edc d33d 83b9 8b3e 6e34 d6bd 4730 ee3c
00000230: 83fb 7fbd 9404 01be 1b35 303d e24b 513e
00000240: 24ff 1c3e 2363 f03e 5770 39be 632c 52bd
00000250: dbf7 a13e c717 0bbe 766b 903e 3764 1d3e
00000260: b4d6 503e 96b4 d23d 7462 47bd 74e4 553e
00000270: 3955 183e 66df 453e 12bc 93be dc19 0a3e
00000280: aa64 7c3e 7fa3 853e e9bd 8d3d 4596 593e
00000290: bf31 9bbd c660 a63e aedf b43b 626c 3639
000002a0: e2c2 063d ac99 be3e f87e 23bf c767 27be
000002b0: 18a8 9c3c 90b6 813e 2220 013e 164c 943e
000002c0: 86bc bb3c 3269 afbc 5b8d 16bd 2e7a babc
000002d0: 5351 c23e 133a f03d 015f 983f 6c52 403e
000002e0: 5b78 60bc 005f babe 3617 313e 3646 cfbe
000002f0: 03dc 803e f962 32be a96d 603e 69ec efbb
00000300: a6e0 3d3d ca16 7bbd 9c3b fabe a9e0 27bd
00000310: 97c1 483c 1dba c0be 66eb a3be 1137 debd
00000320: 44c3 153e 34bb a8be 8a21 50be 5599 0bbe
00000330: 2db6 d43e ca45 373e 9ef6 f63e 8f44 dabe
00000340: d55f f1bd 4221 50be a90f 79be 43c8 a93d
00000350: b3c9 873e ee02 c63e 4ad8 c1be 999e ab3d
00000360: 78b9 523e aba4 bfbe 7f19 23bd 9c28 f1be
00000370: 8b0f 193f ee26 293e 1dbd ff3e 0a61 d9be
00000380: e828 913e cdc9 81be fca3 56be bf86 2fbf
00000390: 68b7 dabe cdd0 31bf bb7e cd3e f414 063f
000003a0: 2439 c53e 806a 82bf dca3 943f 9811 163f
000003b0: 9af1 e5be 8e33 28bf a02b a0be c334 c03e
000003c0: 85cf 97be 7652 1c3d 5ad1 423e 6d5a 81be
000003d0: 5ef3 233e f557 ff3c a593 2abf cc38 6fbe
000003e0: 93d0 36be 4a74 833e f57c 89bd 3aac 9a3d
000003f0: ce90 28be 5077 1a3f 689d 90bd 31e9 b43e
-0.07699821 0.26643014 -0.027377032 0.059226617 -0.15216735 0.1322358 0.28430486 0.31924742
-0.020864572 0.12155066 -0.30422112 0.055384066 -0.18924493 -0.0845888 0.058010843 0.0969669
0.16442446 0.17613362 -0.0585648 -0.013681117 0.18670316 -0.16300562 0.31659612 0.00655619
-0.04226096 0.106922306 0.14499713 -0.0707138 -0.14352529 0.08086715 -0.24124037 -0.051152077
-0.072849266 -0.10757779 0.28302684 0.16977677 -0.028742488 0.23888628 -0.01690174 -0.19009222
0.22185661 0.39070985 -0.611692 0.09074897 0.069398865 0.24103624 0.011326828 0.27532023
0.22939016 0.24225065 0.15727346 0.105191976 0.07843124 0.309202 0.92124075 -0.03464546
0.13501716 0.06734405 0.22993249 -0.17059945 0.3044781 0.0954416 0.01248062 0.10897734
0.11704783 0.25218108 0.32811522 0.22914854 -0.17938977 0.12710385 0.059585463 0.3541894
-0.1584117 0.084644586 0.012479255 0.075353995 0.1079467 -0.15949541 0.13250308 0.22188878
0.069059215 0.52321726 0.079866216 0.038567636 0.0151688475 -0.12830691 0.12708995 0.1678553
0.12072981 0.23290837 -0.020361895 0.08157814 -0.05114487 0.11445277 -0.12554649 0.15658663
0.068740904 0.04619738 -0.014256426 -0.0025225356 -0.08452962 0.33803096 -0.21798515 -0.26104537
0.08068585 0.23243414 -0.1440782 0.0048876205 -0.13708372 0.04394507 -0.09038977 0.21233147
0.0056504905 0.08783922 0.110819206 0.16044343 0.046721097 0.36807904 0.96160555 -0.06101176
0.16938439 -0.24541731 -0.05298087 -0.32971853 -0.0883759 -0.025012998 0.20787872 0.1840473
-0.0032366992 0.35627338 0.1249884 0.0016941847 -0.50358397 -0.0037529366 0.26098555 0.31856638
0.10344742 0.27289972 -0.10459219 0.029075755 -0.06249572 -0.12599403 0.043019395 0.20439103
0.15331703 0.46950635 -0.1810926 -0.05131186 0.3163441 -0.13583289 0.28206986 0.1537026
0.20394403 0.1028835 -0.048677877 0.20887929 0.1487626 0.19323501 -0.28854424 0.13486427
0.24647775 0.261013 0.06920988 0.2124873 -0.07577848 0.32495707 0.0055198288 0.00017397248
0.0329007 0.37226617 -0.63865614 -0.16348182 0.019123122 0.25334597 0.12609914 0.289643
0.022917043 -0.021412466 -0.0367559 -0.022763338 0.3795267 0.11729827 1.1903993 0.18781441
-0.01370057 -0.36400604 0.1729401 -0.40483254 0.25167856 -0.17420568 0.21916832 -0.0073218835
0.04635682 -0.06130103 -0.48873603 -0.040985737 0.012253187 -0.37641993 -0.32015532 -0.10850347
0.14625269 -0.32955325 -0.20325294 -0.1363271 0.4154524 0.17897716 0.4823503 -0.4263043
-0.11785857 -0.20325187 -0.2432238 0.0829015 0.26521072 0.3867411 -0.37860328 0.083798595
0.20578563 -0.3743032 -0.039819237 -0.47101295 0.5978934 0.16518757 0.4994897 -0.42456847
0.28351521 -0.25349274 -0.20960993 -0.6856498 -0.42718053 -0.6945923 0.4013575 0.5237572
0.38520157 -1.0188751 1.1612506 0.58620596 -0.4491089 -0.65703666 -0.31283283 0.37540254
-0.29650512 0.03816458 0.19025174 -0.25264302 0.16010806 0.03116987 -0.6663154 -0.2336151
-0.17853002 0.2567466 -0.06713287 0.07552381 -0.16461489 0.60338306 -0.07061273 0.3533416

shared.2.bias f4 [64]
00000000: a180 193e 708f 3d3e 3859 383e 4ad4 79bd
00000010: 9e13 babc de35 233e 2b16 08bd e8bf 443e
00000020: 31fb 1abc 04ba 3a3e 0000 0000 56b9 323e
00000030: d88f 2f3e cb4f 2a3e 6385 203e ca86 a7bb
00000040: 6966 0c3e 9b22 263d b354 033e 33bd 0a3e
00000050: a7a6 4c3e 5cdd 293e e2fc 71bc caaa 613d
00000060: ed5e 303e ca53 0c3e 8454 493e 40e1 103e
00000070: b6a3 203e 4a71 153e f5d2 233e 7f08 4b3e
00000080: 3c66 f43d 0000 0000 83a3 013e 28e0 233e
00000090: 0207 503e 146f c5bc faa0 1e3e 5cdc 573e
000000a0: 99d8 39bb 0000 0000 6df1 073e 90a6 223e
000000b0: 3801 b4bc 73a5 483e fe68 27bd 00b7 16bc
000000c0: 41f7 3a3e 0000 0000 36d3 1a3e 992a 7d3e
000000d0: f81e 4a3e 156d 93bc 213c 2f3e 4b46 4b3e
000000e0: e187 7a3d efdf 89bd 6070 243e b20a 4dbc
000000f0: 1182 e8bd 6660 253e 0bd3 7c3e c265 843e
0.14990474 0.18511748 0.18002784 -0.06099347 -0.022714432 0.15938517 -0.033224266 0.19213831
-0.009459303 0.18235022 0.0 0.17453513 0.17144716 0.16632001 0.15675883 -0.0051125037
0.13710941 0.040560346 0.12825279 0.13548736 0.19985448 0.16588348 -0.014769765 0.055094518
0.17223711 0.13703838 0.19661146 0.14148426 0.15687451 0.14593998 0.15998442 0.1982746
0.11933562 0.0 0.12660031 0.16003478 0.20315173 -0.024100818 0.15491095 0.21080154
-0.0028357862 0.0 0.1327569 0.15883851 -0.021973237 0.19594364 -0.040871613 -0.009198904
0.18258382 0.0 0.15119633 0.24723281 0.19738376 -0.01799635 0.17112781 0.19851033
0.06116474 -0.06732165 0.16058493 -0.012514757 -0.11352933 0.16150054 0.24689882 0.25858885

actor.0.weight f4 [32, 64]
00000000: 7a4f 80bc 4ed6 1d3d e471 ba3d 8f63 2e3c
00000010: 483f b5bd 80d1 3fbd 7dc8 8cbc e13d 123e
00000020: 1229 b13d 899e 603e ac46 35be e193 9fbe
00000030: 0ccd 09bd ac11 7ebd ee59 22be 3810 1f3e
00000040: df10 3ebd 3967 8f3e 9508 cabd 341c 66be
00000050: 163c 0abe 6ee4 a43d ba3f b43c 28f6 69be
00000060: b453 343e 5e2b 2fbd 27d1 a3bd 5336 143d
00000070: e170 253d ed8e 703e 60f0 f6bd 5567 0f3e
00000080: 8010 263e 0b5e 5bbd aad7 543e 5174 ccbd
00000090: b730 db3c f931 01be 19d7 afbd d067 393e
000000a0: 14f1 823b 2446 613e 819e c8bd 30bf 063e
000000b0: 920a c3bd 33a5 44bd 76c0 873d 49b9 9fbb
000000c0: f9b5 7c3e 3472 88bd 8d13 4fbe 8382 333e
000000d0: 0ab4 d83d a0d2 7ebc f314 923d 8229 c5bd
000000e0: 019c d53d 686d 153f 422b 0abe 31be 953d
000000f0: 99d9 5c3e 6208 f8bb b2ad c9be 4839 a8bc
00000100: 0bc1 e83c b497 383e 9369 6a3e c37a f7bd
00000110: e245 d63d 8652 4ebe 8f98 743d 866e 06be
00000120: 1185 b2bd 1186 c8bd fc8d ae3d dd4f 9c3d
00000130: 35ff 9fbe e6c6 34be 390d dabc f0dc 5e3e
00000140: 6e9d 793e bb66 7bbe af15 3a3e 840a be3d
00000150: b849 06be 18e8 e53d c12d 2dbe 1a18 983e
00000160: bbd9 923c 5e2d c3be 97ef 363e c088 323d
00000170: bbcd 3abd 14d7 28be 1afb b33c 75da d5bd
00000180: 0da8 793d 10c1 0bbd 87ae b83c 3e3a 543d
00000190: 4e1c 3a3d cce2 733e 3522 923c be9b 663d
000001a0: 1689 0a3d e460 163d 3e94 bd3b 2dfe af3d
000001b0: 85b9 873d 8628 723e d83d 98be b90e 313d
000001c0: aa86 783d 9063 253e 9f05 863d 0d0d 963d
000001d0: c543 593e 3e3b 81bc a78c aa3c b4a3 3f3e
000001e0: d366 8c3c 13aa 1abf 5a7a 87bc 7a18 99bd
000001f0: cbf8 bfbe 90c6 e0bd 6f97 723d ac6a aa3d
00000200: e419 373d b834 d6bc fe6c 37be 6737 9bbd
00000210: 7259 ab3d f68c 7a3c af8f bd3c 32bf d53c
00000220: f960 35bd fc93 673c 9e9c 4e3d 95ba a2bd
00000230: 1311 a0bc 6187 53be 2ffd 763e 4156 93bc
00000240: bbde 2a3e ba36 6fbd 47a8 d43c ddc5 263d
00000250: 72f9 26be 8f3a c7bc 04f5 fb3d 5259 39bd
00000260: 0795 403e 3b1d 253d 7a32 1dbe b2c3 653d
00000270: 1ffc 9b3e be7f 78be 2445 dc3c 4210 48be
00000280: 9401 80bd f681 19be bb35 32bd 8575 71be
00000290: b973 333e 9cde 833e 4ab7 00be d1b4 9fbd
000002a0: d46b 4bbc 06ad 8c3d e163 bf3c f7a2 60be
000002b0: a039 803e 80e6 f7bc 5c8c f33d 4877 533c
000002c0: 6cf6 eb3d 91ab 15be 641c 37bd 5ff6 703c
000002d0: ea21 e9bd 1d64 0bbc 789f 2bbd 350d c33d
000002e0: 5806 cb3d 3a74 5f3e 196b b3bd d48e 143e
000002f0: c4c4 9a3c 1b2f 9cbd ef56 e13d b2d8 c43d
00000300: 8ab1 803e b259 533e 0a4c 993d 3184 0ebe
00000310: 54ba e23c 2303 5e3d 3dc6 613e 7559 5fbe
00000320: 9e70 e53c 553e 863d d1a8 10bd 41be cdbd
00000330: aaf2 1dbd b15a 24be 2893 7fbc 0753 5a3d
00000340: 927b 8c3c 70dc 22bd 40cb 003e d040 ed3d
00000350: dc47 81bd 09f3 09be 0c1f 6cbe 909e 47be
00000360: dd3c ddbd c2b5 293e bd64 f6bd 0a07 1a3e
00000370: a350 4d3e c351 1e3e e4da 57bd e08e 00bc
00000380: 5057 703d b37f 423e 1647 133e f6b6 c5bd
00000390: 3829 353d e767 0cbe 9fc3 24be f5ee 20be
000003a0: 493a c7bd e169 82bd 5260 fbbd 6211 a13b
000003b0: f964 a73d add4 e0bd 5b95 6e3e 0ac4 3e3e
000003c0: 6ee9 46bd 4ce4 da3d 284c 54be 51de 72be
000003d0: 4445 c03b 30b6 37bc b051 c0bd af33 b6bd
000003e0: 54c1 80be 98ba 92bd ff4d 333e 45cb d4bc
000003f0: 2657 16bd 2cc8 72bd 4701 143c f7a8 10be
-0.015662897 0.038534455 0.09103754 0.010643854 -0.088499606 -0.046830654 -0.017185444 0.14281417
0.08650412 0.21935476 -0.1770274 -0.3116751 -0.033642814 -0.062028572 -0.15854618 0.1553353
-0.04640281 0.2800844 -0.09864918 -0.22471696 -0.13499483 0.08051382 0.022003043 -0.22847807
0.17610055 -0.042765968 -0.07998877 0.03618462 0.040390853 0.23492022 -0.12057567 0.14004262
0.16217232 -0.053556483 0.20785394 -0.09983123 0.026756627 -0.1261672 -0.085859485 0.18106008
0.003996024 0.21999413 -0.09795857 0.1315887 -0.095235005 -0.04800911 0.06628506 -0.0048743826
0.24678792 -0.066624075 -0.20222302 0.17530255 0.10581215 -0.015553147 0.07132902 -0.096270576
0.10430146 0.58370066 -0.13493064 0.07311667 0.21567382 -0.0075693587 -0.39390332 -0.020535126
0.028412363 0.1802662 0.22891836 -0.12083962 0.10462548 -0.20148668 0.059715804 -0.13128099
-0.08716787 -0.09791196 0.08523175 0.0763242 -0.31249395 -0.17653999 -0.026617633 0.21763968
0.24376461 -0.24550907 0.18172334 0.092793494 -0.13114059 0.11225909 -0.16911985 0.29705888
0.017926088 -0.3812055 0.17864834 0.043587446 -0.045606356 -0.16488296 0.02197032 -0.10442058
0.06095128 -0.034119666 0.022544159 0.051813357 0.04543715 0.23816985 0.017838577 0.05630087
0.03382214 0.036713496 0.005785494 0.08593402 0.06627182 0.23648271 -0.29734683 0.04322693
0.0606753 0.16151261 0.06544041 0.07326708 0.21217258 -0.01577532 0.020819021 0.18714792
0.017138874 -0.6041576 -0.016537834 -0.07475372 -0.374945 -0.10975373 0.05922645 0.08321127
0.044702426 -0.026148185 -0.17912671 -0.075789265 0.0836667 0.015292397 0.023139803 0.026092146
-0.044281933 0.014134403 0.05044233 -0.07945744 -0.019539392 -0.20657112 0.2412002 -0.017985465
0.16686527 -0.0584018 0.025959147 0.04071604 -0.16306093 -0.024319915 0.123025924 -0.045251198
0.1880685 0.04031108 -0.15351287 0.056094833 0.3046579 -0.2426748 0.026888438 -0.19537452
-0.06250301 -0.14990982 -0.043508273 -0.23579986 0.17524613 0.25755775 -0.12569919 -0.0779816
-0.012415845 0.06868939 0.023363056 -0.21937166 0.25043964 -0.030261278 0.11892006 0.012906857
0.115216106 -0.14616229 -0.04470481 0.014707177 -0.11383422 -0.008507756 -0.041900128 0.095240034
0.09913319 0.2182168 -0.08760662 0.1450761 0.018892653 -0.07626172 0.110029094 0.09611644
0.25135452 0.20639685 0.074852064 -0.13917615 0.027676739 0.05420221 0.22048278 -0.21811469
0.028007802 0.06554858 -0.035317246 -0.10046054 -0.0385615 -0.16050221 -0.01559905 0.053301837
0.017148767 -0.039761007 0.12577534 0.11584628 -0.06312534 -0.13471617 -0.23058718 -0.1949408
-0.108026244 0.16573241 -0.12030933 0.15041748 0.20050292 0.15460877 -0.052698985 -0.007846564
0.058677018 0.18994026 0.14382586 -0.09654038 0.044228762 -0.1371151 -0.16090249 -0.15716155
-0.09727914 -0.06367851 -0.12274231 0.0049154023 0.08173556 -0.10978065 0.23299162 0.1862947
-0.04856246 0.106880754 -0.20732176 -0.2371762 0.005867632 -0.0112128705 -0.09390581 -0.088965766
-0.25147498 -0.07164496 0.17510222 -0.025975833 -0.036704205 -0.05927293 0.009033508 -0.14126955

actor.0.bias f4 [32]
00000000: d5b7 073c e769 9dbc f85a 0dbc d432 91bc
00000010: e455 d1bc 1880 4dbc ded9 643c fd2d 41bb
00000020: 4549 22bb 3dca 05bc 836b c0bb 5e3b ea3b
00000030: 0ee9 173c f9a2 36bd 6235 5dbb d63e 043b
00000040: 0466 993c 72b7 f13b 42ce a5bc 9553 fcbb
00000050: 54ec d33c 372a 13bd 8363 66bc 951e adbc
00000060: aadf 73bc e6c8 5fbc 0000 0000 9420 16bd
00000070: d859 f53c e6bc 6bbc ef2e 22bc c583 c23c
0.008283575 -0.019215537 -0.008627646 -0.017724432 -0.025553651 -0.012542747 0.013967959 -0.0029476874
-0.002476291 -0.008165893 -0.0058721914 0.0071481904 0.009271873 -0.044589017 -0.0033753742 0.0020179055
0.018725403 0.0073766047 -0.020239953 -0.0077003934 0.025869526 -0.03592893 -0.014061811 -0.021132747
-0.014884869 -0.013658738 0.0 -0.036652163 0.029950067 -0.014388299 -0.009898885 0.023744473

actor.2.weight f4 [2, 32]
00000000: 79a5 b13d 1515 d1be f5e2 c83c f463 7abd
00000010: e58c bbbd b40d 8f3e c37b 33bf 64fc 073e
00000020: 1a53 313e dc3f d4bd 4ed7 6e3e 34b5 483d
00000030: b82a c83e 6597 32be e344 b1bd 5f03 a5be
00000040: 0d4e 973e a05b c93d 669c 01bf db6a a53d
00000050: e9d5 043f 1d82 4a3d 7756 68bf c989 27bf
00000060: 94aa 95be 7734 fabe fb71 a6bd 9729 8fbe
00000070: 0507 683e 9c3c 3d3d 4e44 41bd 7bbc 8c3e
00000080: a173 8ebe ff60 763e c55b a73b a066 ddbc
00000090: 1cf6 613e d6ad 82bd b8f0 7f3e ed3f ae3e
000000a0: f182 673d a7c2 36be 1fb5 0d3e 9912 163e
000000b0: 026a 36be 8f54 643e 5e00 b9be 91ea de3e
000000c0: 25b3 d0be 2da0 c1be 2468 f63e 8663 0ebe
000000d0: 4f84 adbe 12bd abbd cd2a d83e 7afb d43e
000000e0: 3dcd 073f a443 a43e cb09 a8be b268 8a3d
000000f0: 997c dfbd 17ab a4bd 5c38 8abe b324 c3bd
0.086741395 -0.40836397 0.024522284 -0.06113048 -0.09157733 0.27940142 -0.7011072 0.13279873
0.17316857 -0.10363743 0.2332432 0.049000934 0.39095092 -0.17440565 -0.08655717 -0.32229134
0.29551736 0.09831929 -0.5062927 0.08077022 0.518889 0.049440492 -0.90756935 -0.6544462
-0.29231703 -0.48868152 -0.08127209 -0.27961418 0.22658928 0.04620038 -0.04718428 0.2748755
-0.27822593 0.24060439 0.0051073753 -0.027026474 0.2206654 -0.06380813 0.2499417 0.34033147
0.05652136 -0.17847691 0.13838623 0.14655532 -0.17813876 0.22297882 -0.36133093 0.43538335
-0.40761676 -0.37817517 0.48126328 -0.13905153 -0.33890006 -0.08385672 0.42220154 0.4159811
0.53047544 0.32082856 -0.3281997 0.0675825 -0.10912437 -0.08040445 -0.26996124 -0.09528484

actor.2.bias f4 [2]
00000000: 7238 a53c 7038 a5bc
0.020168517 -0.020168513

critic.0.weight f4 [32, 64]
00000000: 00af fdbd bade 4d3d b299 b43d 98f9 57be
00000010: 7a41 b6bd 61b4 213e c9b6 abbe 142a 8fbd
00000020: bb7a 08be 5cb4 94bd 4f14 46bd 99c3 663d
00000030: 09a3 2bbe 78bb 593e 4c5c 983d 1a33 57bc
00000040: 4ad5 d6bd a18c 20be d52d c1bd f972 c1bd
00000050: 50fd e83d ca12 23be 2074 85be d1ce 8bbc
00000060: 8e22 dfbd fb2e 96bd 7584 8abe aad4 74bd
00000070: be03 303d 860e 4a3d 37cf f8bd 104e 9a3d
00000080: 18fb cf3a 15d7 ec3d aa4d a8bd f21a 143e
00000090: f130 003b c40b 56bd fd35 873d eb8c a6bd
000000a0: fd0c 173e 26ae 913d 02d3 2d3d 5035 60bc
000000b0: d6e4 7c3e 3237 0ebe de56 a53c 0e6c 613d
000000c0: 656e 393e a037 8ebd 63ea 523e 5729 04be
000000d0: 8106 1ebe 3800 a03d cad3 0b3d 56eb c93d
000000e0: 9d02 b93d 3a37 88bd d05b 0e3d 8e9e e43c
000000f0: 23ff 263e 2033 4ebe 2a1e 9ebd 5ca9 fdbc
00000100: 73d0 bf3e d875 943b 0c30 993e ac69 efbf
00000110: 238a 74bd f100 573e fd12 3cbd f8e3 123e
00000120: 0b0a fabd 77f4 913e 9c0b 33be be6c ef3d
00000130: dc2e 0e3e bb59 e23d fc93 a43d 9f6f 743d
00000140: 4444 0b3e f246 ec3d 4add 463e 24c1 e83d
00000150: a21f b83d 1624 e33d ec1b bf3d d8e1 5bbf
00000160: ba03 243e 8e40 b43e 7017 d13d 2b56 c7bc
00000170: 3b36 413e 5e94 cb3d 38cb 853e 228e ef3d
00000180: 69e2 973e 6d2b 313d cd5b 213b a901 123e
00000190: 5a36 553d a3ec c9bf 5c12 353e 060d 963e
000001a0: 60a4 2abe 142b 6bbe e4a0 2bbd 8c3b a33e
000001b0: 1c6a 443e 884c fabd 0e6c fb3e 7ee1 2ebd
000001c0: 0677 823e bea1 c03c 9450 8e3e 1e2a 343e
000001d0: b411 8d3e 1c72 15be b32f 99bc 8836 ca3d
000001e0: ea2b 65bf 001d 5bbe a6dd 993d 55aa 843d
000001f0: d9cb 7bbf d6e0 eabd 073a 833e 0460 dd3d
00000200: dbf5 c5bd c7f3 2d3e db70 20bd e477 f33c
00000210: 6ece 133e 2f44 d2bd 344d 233e 6155 1d3b
00000220: 1aca 65bd 58d4 21be b033 163d 36d2 c33d
00000230: 8239 b0b9 4921 5dbd c7c4 debd 4bba 203e
00000240: d131 e8bc b16f 8ebc 75c9 a3bd 4062 8bbe
00000250: d678 523c f072 423c 9b67 be3d 7bcc 8cbc
00000260: 04cf 25be d931 d33d 09ee 03bd 655b 5cbe
00000270: e36e 8fbe fde7 373e bd63 0b3d 49e8 97be
00000280: 4c3e 2c3e 26e5 323d 81b3 0dbc 7f72 54be
00000290: 7bec 393e a948 ebbd de07 333e c218 39be
000002a0: 5aa8 293e 36a5 113e 151c f9bd 0f4b 833e
000002b0: a354 223d 0ac8 d5bd 0ed1 ecbc e2e9 6c3c
000002c0: 6c6a 2ebe edd7 a4bc ba63 fa3c 1d03 4abe
000002d0: 6600 2bbe e038 3e3d 2286 343d a77c bdbc
000002e0: 0b08 c9bd 8141 a2bc 798e cebd 7423 473d
000002f0: 2be4 90bd 071d 9c3d 70b7 0cbd 4efe e2bd
00000300: d446 ba3d a6bc 8e3e 3a22 a8bb c9df febf
00000310: ffdf e0bd e02e 8b3e d4c0 b6bd 0f4d ba3d
00000320: 62d9 0cbe 3781 933d 5894 183e 3c9c 78bb
00000330: 4ff6 dd3d 25cd 4dbd 8955 993d 193d b13d
00000340: e1d0 463e 71a9 533e 4ab3 4d3e bff2 3e3e
00000350: 9b49 113e 1fa6 673d fba7 d5bc ee49 a0bf
00000360: 1b70 93bd 4a2f 223e 522a 783e c9ff f13d
00000370: e5c7 a13d d588 8b3e b269 803e 5fca 8e3e
00000380: e0b3 513e 7bec 34be 79b2 0fbd 05fd 6b3e
00000390: d632 633e e8bc c4bf c20f 053d 7965 683e
000003a0: 9cee 52bd 7f58 3e3e b74b 3c3e db0d 353e
000003b0: 0a42 00be 68c1 123e 3505 9d3e 6187 5d3e
000003c0: e243 163e 029e b03d 261c 063e 4e32 a43e
000003d0: 5532 b83c ba15 13be 1283 c43e 7e76 393e
000003e0: 82b9 24bf fe0b 67be bf6f 4e3e 71c8 06be
000003f0: 3c23 6fbf f09c b13c 94ce aa3d f183 603e
-0.12386894 0.050261237 0.088183776 -0.21091306 -0.088992074 0.15791465 -0.33537892 -0.06990448
-0.13328068 -0.07260963 -0.04835921 0.05633888 -0.16761412 0.2126292 0.07439479 -0.013134742
-0.104899004 -0.15678646 -0.0943257 -0.094457574 0.113764405 -0.15925136 -0.2606516 -0.017066391
-0.10895263 -0.073331796 -0.27054182 -0.059773125 0.04297232 0.049330257 -0.12148898 0.075344205
0.0015867678 0.11564461 -0.08217938 0.14463404 0.0019560421 -0.052257314 0.06602094 -0.08132347
0.14751048 0.07113294 0.04243756 -0.013684586 0.24696669 -0.13888243 0.020183023 0.05503469
0.18108518 -0.069442034 0.20597224 -0.12906395 -0.15432169 0.07812542 0.034137525 0.0985934
0.090337016 -0.06651159 0.034755528 0.027907636 0.16308264 -0.2013669 -0.07720597 -0.030964546
0.37463722 0.0045306496 0.2991947 -1.8704123 -0.05970205 0.20996453 -0.045916546 0.14344776
-0.12208947 0.28506824 -0.17484897 0.11690663 0.13885063 0.11052271 0.08036038 0.059676763
0.1360026 0.11536969 0.19420353 0.11364964 0.089904085 0.11090867 0.093314976 -0.85891485
0.16017047 0.352055 0.102095485 -0.02433308 0.18868344 0.09940408 0.26131606 0.116970316
0.29664925 0.043254305 0.0024621368 0.14258446 0.052053787 -1.5775341 0.17682785 0.2930681
-0.16664267 -0.22965652 -0.041901484 0.31881368 0.19181103 -0.122216284 0.49105877 -0.042695515
0.25481433 0.023514625 0.2779585 0.17594191 0.2755257 -0.1459431 -0.018699503 0.09873682
-0.8952013 -0.21397781 0.07512979 0.06477801 -0.9835792 -0.11468665 0.2563021 0.10809329
-0.09666034 0.16987525 -0.039170127 0.029720254 0.14434215 -0.10266911 0.1594742 0.0024007189
-0.056100942 -0.15803659 0.036670387 0.09561579 -0.00033612183 -0.05398682 -0.10877376 0.15696065
-0.028344067 -0.017387243 -0.07997409 -0.27223396 0.012846192 0.011868224 0.09297105 -0.017187348
-0.16192251 0.10312242 -0.03220943 -0.21519239 -0.28014287 0.1795959 0.034030665 -0.29669407
0.1682064 0.043675564 -0.008648754 -0.20746802 0.18156616 -0.11488468 0.1748347 -0.1807585
0.16568127 0.14223179 -0.12163559 0.25643203 0.039631497 -0.10438545 -0.028908279 0.014460059
-0.17032784 -0.020122493 0.030565131 -0.1972775 -0.1669937 0.04644096 0.04407323 -0.023130728
-0.09815987 -0.019806625 -0.10085768 0.048617795 -0.070747696 0.07622724 -0.034354627 -0.11083661
0.09095541 0.27878302 -0.0051310332 -1.9912044 -0.10980224 0.271842 -0.08923498 0.09096729
-0.137548 0.0720238 0.14900339 -0.003793492 0.10837995 -0.05024447 0.07487018 0.086542316
0.19415618 0.20670106 0.20087925 0.18647288 0.14188235 0.05655491 -0.026081076 -1.2522562
-0.07199117 0.15838352 0.24234894 0.11816365 0.07899455 0.27252832 0.2508064 0.27888772
0.20478773 -0.17668335 -0.035082314 0.23045738 0.22187361 -1.537015 0.03248573 0.22694959
-0.051497087 0.18588446 0.18388258 0.17681067 -0.12525192 0.14331591 0.30668035 0.21633674
0.14674333 0.086238876 0.13096675 0.3206963 0.022484938 -0.14363757 0.3838125 0.18111607
-0.6434556 -0.22563168 0.20159815 -0.131624 -0.9341314 0.021681279 0.08340183 0.21925332

critic.0.bias f4 [32]
00000000: 0000 0000 17b9 3a3e 249a 2bbc f403 ea3d
00000010: be80 4b3e a42c 253e ee86 583d 559a 003e
00000020: 0bfd f93d 73f2 143e 0c2e ecbb 40bb e43d
00000030: 9593 1a3e 2344 e13d be49 123e 7f26 16bb
00000040: dbf7 9bbb 0000 0000 d2ee f63d f8e1 05bc
00000050: 367a 313e ff80 eb3d 3772 16bc 8c53 1c3e
00000060: 914c ab3c cae8 f43d ff04 1a3d 49d9 f33d
00000070: c178 6dbc d780 053e 6f08 ecba 81e6 0e3e
0.0 0.18234669 -0.010473762 0.11426535 0.1987333 0.1613031 0.052863054 0.12558873
0.12206467 0.14545612 -0.0072076377 0.111685276 0.1509536 0.10999324 0.14285943 -0.002291113
-0.0047597713 0.0 0.1205727 -0.008171551 0.17331776 0.114992134 -0.009182504 0.15266246
0.020910533 0.119584635 0.03760242 0.11906678 -0.014494122 0.1303743 -0.0018007885 0.13955118

critic.2.weight f4 [1, 32]
00000000: c043 373d 17f4 82be bfa6 223d 12e3 eebe
00000010: 68a2 7dbe 4931 dbbe 3a0c 083f 48ee 22bf
00000020: a541 cebe 7031 a1be c23f 383b ac21 ebbe
00000030: 24a9 8ebe 8e21 b6be 4387 e8be 5ac6 f63c
00000040: 66cd 533e 3205 053e 6a7a d2be 7859 8f3e
00000050: eac2 e7be e4bc 9bbe b6db b2bb 295e e9be
00000060: 7e71 ab3e 404a c1be 9bc9 753f 0ba3 08bf
00000070: 0576 c03d 0ac7 fdbe c2c2 0fbd c9c1 b33f
0.044742346 -0.2557685 0.039709803 -0.46657616 -0.24768984 -0.4281104 0.53143656 -0.6364484
-0.40284458 -0.3148303 0.0028114174 -0.45924127 -0.2786342 -0.35572475 -0.45415697 0.030123878
0.20683822 0.12990263 -0.4110902 0.27997947 -0.45265895 -0.3041755 -0.0054583205 -0.4557965
0.33485025 -0.3775196 0.9601075 -0.53373784 0.093975104 -0.49565917 -0.035097845 1.4043514

exp_avg f4 [64, 12]
00000000: 0400 0000 0400 0000 0400 0000 0400 0000
00000010: 0400 0000 0400 0000 0400 0000 0400 0000
00000020: 0000 0000 0400 0000 0000 0000 0400 0000
00000030: 5e2f 5c3b 0888 fd39 ff59 603b edda 343a
00000040: 6788 2b3b 5fb7 cd3b e943 ea39 0888 fd39
00000050: 486c ca3b 61e0 903b f736 e23b c68a 863b
00000060: 87ef 063c f910 513a 57c9 d43b 36c0 b63a
00000070: 98ba 753b f1e8 013c 8f77 063a f910 513a
00000080: 58d5 973b ab0b 0f3b 2ca6 953b 6b99 083c
00000090: ed38 b039 8da5 d939 aa08 873a 78b9 4439
000000a0: 67fe 1a3a 8b5d 603b c89f e139 8da5 d939
000000b0: e0af 853b 07be 4a3b 8de1 873b adfc 4b3a
000000c0: a9a3 fb3a 1143 4eba 0400 0000 7111 313a
000000d0: a19c 143a 94cc ad3a a7c0 9bb9 1143 4eba
000000e0: 8aff 5039 549c ceb9 7e49 c5b9 fb92 a03a
000000f0: 929b 8b3b 4bf3 9c39 c59f 713b 1793 173a
00000100: 8674 023b ebfe 643b 3a9a 1539 4bf3 9c39
00000110: e5f5 873a e34c 6038 17de a13a 05af 893b
00000120: 59cb 263b f9c7 4338 ba90 2c3b 7b5a 7339
00000130: 2919 593a 6a4d 2739 9c67 12b9 f9c7 4338
00000140: f44c a0ba 78ec a3ba faa5 c0ba 3085 1c3b
00000150: 7195 963a dbcb 9838 0000 0000 8cdc a639
00000160: 9eb3 4839 2709 713a abec 7d35 dbcb 9838
00000170: 03e1 0e3a 7603 09ba 03e1 0e3a 8377 96b9
00000180: 3bea fb39 c248 9039 5d45 9d3a 337e 6538
00000190: e43c 033a fb7d 2f3b ad2e 9f39 c248 9039
000001a0: d44a 343b ff9c 103b db76 fd3a ffc2 473a
000001b0: 883d 5a39 5982 62b7 6f7d 863b 3a24 64ba
000001c0: 9aa7 b93a 190d 46b9 384e 1a39 5982 62b7
000001d0: 0400 0000 7219 bb3a 1824 2c3a 18c7 2fb9
000001e0: f703 4639 b8f7 27b8 c988 bb39 9854 80b9
000001f0: bc10 18ba b8f6 7cba f81d ebb8 b8f7 27b8
00000200: 8c17 f4ba 1a27 b3ba 1743 fbba 3aa2 93b9
00000210: 9109 473a e4c8 4f39 6557 4a3a e4ae 0a39
00000220: 38a9 9b39 b3a5 a53a f9b9 0e39 e4c8 4f39
00000230: fefd 8a3a 4a31 413a bb3a 2c3a ea1f 5c3a
00000240: fdd9 0dba abc1 88b8 5785 b939 df8d c2b8
00000250: c8c8 9038 8bb1 80ba 01af 1b37 abc1 88b8
00000260: 7fcb eb39 58d7 543a 1fe0 cf39 aba5 abb9
00000270: 7cd5 b2bb c922 19ba f31a 71bb 2e5c abba
00000280: dcbd 48bb e5b3 dbbb cc7f 07ba c922 19ba
00000290: 2578 b4bb 308a 60bb 0483 aabb 03bc c2bb
000002a0: 5a25 0639 72d4 1e39 a426 d03a 8cb3 f939
000002b0: 18a4 c63a e9c7 c43a 23f2 d538 72d4 1e39
000002c0: a2ca f33a eae9 fd3a d78a ec3a 10d7 353a
000002d0: 8f7e 973b 6ca4 023a d5e6 8d3b 831c 4d3a
000002e0: 8aa2 2b3b 25f8 af3b 8940 c639 6ca4 023a
000002f0: ecda 5d3b 25b4 f03a 8b4f 653b 43d7 9f3b
00000300: b89d a93b 9ba9 243a 054a b03b bcee 773a
00000310: a5e1 523b 0497 d93b 15b8 053a 9ba9 243a
00000320: 0f7c 993b 7214 3b3b 9816 9c3b 3956 b73b
00000330: 2024 643b f91e 7a3a 68cc d4b9 f0ce 3a3a
00000340: 20fc 023b ec27 f93b af4b 753a f91e 7a3a
00000350: 8ba8 fa3b 357e 943b 48e3 e93b 19ce 4c3b
00000360: f3ed 933a 85a8 3339 a3ac ef3a 2146 f738
00000370: a309 463a 8691 a63a 3da5 de38 85a8 3339
00000380: 886c 2c3a b49d bf39 b4e8 423a 7fc1 9f3a
00000390: 7f72 c83a 75f2 173a b1b3 ea3a 3985 083a
000003a0: 5c66 9d3a 6fa8 873b be17 003a 75f2 173a
000003b0: 239d 943b 1416 4b3b d1bf 723b 4558 033b
000003c0: 8379 793a febc 7639 aae4 073b a0d9 ad38
000003d0: c255 aa3a 20f1 5f3b 424e 9c39 febc 7639
000003e0: 3550 b53b 97e3 433b e78f 913b 7ead ee3a
000003f0: 043d 34bb 782a 5a38 e89a adbb 189c 6539
6e-45 6e-45 6e-45 6e-45 6e-45 6e-45 6e-45 6e-45
0.0 6e-45 0.0 6e-45 0.003359757 0.00048357272 0.003423333 0.00068990776
0.0026173831 0.006277963 0.00044682555 0.00048357272 0.006177459 0.0044212793 0.006903525 0.0041058986
0.008235819 0.00079752464 0.006493728 0.0013942781 0.0037495252 0.007929073 0.000512951 0.00079752464
0.004633587 0.0021827023 0.0045669284 0.008337359 0.0003361175 0.0004151281 0.0010302265 0.00018761109
0.00059125427 0.0034235443 0.0004303439 0.0004151281 0.004079804 0.003093602 0.004146761 0.0007781487
0.0019198555 -0.000786827 6e-45 0.0006754613 0.00056690915 0.0013259822 -0.0002970744 -0.000786827
0.00019931622 -0.00039407855 -0.00037629524 0.0012250835 0.004260489 0.00029935906 0.0036868912 0.0005782111
0.001990588 0.0034941982 0.00014267201 0.00029935906 0.0010372965 5.3477368e-05 0.0012349513 0.004201772
0.0025450794 4.6677862e-05 0.002633138 0.00023207992 0.0008281642 0.000159552 -0.00013962243 4.6677862e-05
-0.0012229965 -0.0012506386 -0.0014697902 0.0023883097 0.0011488629 7.285896e-05 0.0 0.00031826308
0.00019140399 0.0009194784 9.459424e-07 7.285896e-05 0.00054503995 -0.0005226651 0.00054503995 -0.00028699273
0.00048048966 0.0002752003 0.0011998821 5.4715387e-05 0.0005006327 0.002677797 0.0003036162 0.0002752003
0.0027510421 0.0022066233 0.001933779 0.0007620304 0.00020813022 -1.3500999e-05 0.0041043083 -0.0008702908
0.0014164329 -0.0001888763 0.00014715723 -1.3500999e-05 6e-45 0.0014274551 0.00065666577 -0.00016763469
0.00018884228 -4.004661e-05 0.00035769332 -0.0002447709 -0.00058008335 -0.0009649801 -0.00011211255 -4.004661e-05
-0.001862274 -0.0013668269 -0.0019169775 -0.00028158893 0.0007592673 0.00019815896 0.0007718711 0.00013225857
0.00029689982 0.0012637883 0.00013611456 0.00019815896 0.001060426 0.00073697104 0.0006570031 0.00083970896
-0.0005411206 -6.521059e-05 0.00035385296 -9.2770664e-05 6.9038535e-05 -0.0009818537 9.279466e-06 -6.521059e-05
0.0004497431 0.0008119247 0.000396491 -0.00032739094 -0.005457578 -0.000584167 -0.0036789745 -0.0013073736
-0.0030630743 -0.0067047947 -0.00051688845 -0.000584167 -0.0055074864 -0.0034262054 -0.0052036066 -0.005942823
0.0001279315 0.00015147196 0.0015880656 0.00047626754 0.0015155105 0.0015013191 0.00010201733 0.00015147196
0.0018599818 0.001937208 0.0018046749 0.0006936649 0.0046232413 0.0004983607 0.004330496 0.0007824378
0.002618941 0.0053701573 0.00037813585 0.0004983607 0.0033852411 0.0018364234 0.0034990038 0.004877956
0.0051762722 0.00062813767 0.0053799176 0.00094578764 0.0032177952 0.006640317 0.0005100978 0.00062813767
0.0046839784 0.0028546122 0.0047634356 0.0055949953 0.0034811571 0.00095413584 -0.00040588086 0.0007126173
0.0019986704 0.007603636 0.0009357286 0.00095413584 0.0076494864 0.0045316466 0.0071376897 0.0031250773
0.0011286124 0.00017133549 0.0018285703 0.0001179094 0.00075545366 0.0012708164 0.00010616563 0.00017133549
0.0006577452 0.00036547857 0.0007435188 0.0012188404 0.0015292912 0.0005796322 0.0017906335 0.000520784
0.0012008655 0.004139952 0.00048863504 0.0005796322 0.0045353337 0.0030988501 0.00370406 0.0020041626
0.0009516703 0.00023530793 0.002073566 8.289819e-05 0.0012995529 0.0034170821 0.00029812945 0.00023530793
0.005533243 0.0029890293 0.0044422033 0.0018209664 -0.0027502188 5.2014802e-05 -0.0052980073 0.00021897291

exp_avg_sq f4 [64, 12]
00000000: 168a af05 c389 af06 6f59 1400 1c7b 4507
00000010: fd89 af07 accd 7307 147b 4506 c389 af06
00000020: 0000 0000 1148 9a08 0000 0000 168a af05
00000030: 999f 063a 5169 8b37 3b61 8839 1456 8e38
00000040: 03d5 f238 cf2a 373a 3696 5e36 5169 8b37
00000050: 2f16 ad39 6593 8a39 e4b3 9039 8f13 0d3a
00000060: 1fb1 503a 75d8 3e37 2959 633a 10d8 3238
00000070: d8b1 fc38 8e17 543a c2b0 4436 75d8 3e37
00000080: f5d2 003a 7a6f e239 80b1 ca39 ad07 523a
00000090: 7599 3439 44cb 5137 266b 1839 7779 2638
000000a0: 78ee 6638 58db 9539 0cb1 1c36 44cb 5137
000000b0: 8852 2239 ac64 df38 474b 1c39 8c25 4a39
000000c0: 0ea4 173a a17d 8f37 f9b2 4336 9043 d838
000000d0: a247 4039 1b92 8439 74f0 7e36 a17d 8f37
000000e0: 4fc2 fc39 6084 c139 8193 f539 9448 2d3a
000000f0: b231 8a39 6db4 4336 f0d2 9d39 bfd1 5037
00000100: 6344 2c38 f376 9139 bdd7 6035 6db4 4336
00000110: baa4 2c39 c448 1b39 dd65 0b39 08f6 8a39
00000120: 58b0 2539 842d be35 527d 3f39 427f a936
00000130: 0821 ac37 9c68 e038 ad90 a334 842d be35
00000140: c912 4a38 4d76 2d38 c6f6 0438 ad66 2239
00000150: 2a5d 0838 177a b436 0000 0000 d4b6 d737
00000160: 9d30 1338 a5cd 6e39 846a 2336 177a b436
00000170: ac7e bb39 cc87 7e39 ca9b bb39 3d4c 0d38
00000180: a38a af38 297d e436 0461 b538 52a3 a437
00000190: c720 ea37 4e38 1439 39e4 a535 297d e436
000001a0: 07c6 a138 001d 3e38 1020 8a38 bf66 c738
000001b0: ae4a 383a b159 b937 d62b 2a3a cf5d 9e38
000001c0: c1ac 0d39 e2b0 623a 6bdb 2836 b159 b937
000001d0: 1917 8131 7722 a138 3a7f ad37 7f39 383a
000001e0: 1c01 4938 b0a1 4835 f38f 5d38 39e5 4a36
000001f0: 66b5 0d37 33e6 5338 77cf 3834 b0a1 4835
00000200: 99d8 f837 4ee0 d437 edc7 cf37 c41e 4d38
00000210: b66b 0338 3b07 c835 424f 0538 1d52 9536
00000220: 7719 ef36 16e4 1b38 bf22 9934 3b07 c835
00000230: 0fd3 b137 9a43 5c37 849f 9637 98e8 0b38
00000240: 2a28 0f38 3070 3a35 8a4d b238 55f9 6f36
00000250: 14ce 3a37 9cc6 9938 cfd4 be34 3070 3a35
00000260: 48f6 b938 7cbe ad38 ddf7 9638 88d2 0e38
00000270: 5ed6 9639 d82f df36 797c 7d39 275c c737
00000280: 06e6 4e38 7508 cc39 7016 bb35 d82f df36
00000290: 18be 3439 6e26 1239 ff4e 0b39 0b0a 9a39
000002a0: 20b3 3e39 8814 1836 df14 8039 9bea 2c37
000002b0: c11b 2238 aab4 ee38 af32 3935 8814 1836
000002c0: 148a 1239 8976 fe38 0e34 e338 affd 4a39
000002d0: 3007 b839 fd83 0437 aed6 b239 2d99 f237
000002e0: b337 8738 d3ee ef39 ff04 ff35 fd83 0437
000002f0: be83 8639 60f0 5e39 0ffe 5b39 e714 bc39
00000300: 681b cd39 e349 3437 d66b c739 bdef 1e38
00000310: 9e00 a338 b703 133a ff67 2436 e349 3437
00000320: 2e45 9839 e17b 7539 8ec4 7b39 635b d439
00000330: 8301 6a3a 9b07 3a38 ba4b 1c3a 7a99 1839
00000340: 1502 6139 1e46 b63a d0ea 2037 9b07 3a38
00000350: 4690 563a b0c2 173a 859f 353a c386 783a
00000360: 8a75 6e38 03d6 de35 521d 8438 da53 aa36
00000370: fe51 2d37 948b 6438 8337 d234 03d6 de35
00000380: b798 2638 f01d 0238 bdae 0038 131e 7738
00000390: bbc8 1539 3581 2637 2db0 0639 d01b fb37
000003a0: 33d8 3238 69e5 6f39 4280 0636 3581 2637
000003b0: af7f 1939 eac8 c738 861b 0339 3558 2639
000003c0: b7ad 5339 4154 2737 57a7 5039 84c4 0b38
000003d0: 56fc 6038 bad4 a639 2244 9a35 4154 2737
000003e0: d0bb 0539 e25f 3038 c45e e238 ed59 6439
000003f0: 9ec9 f539 33f7 5c36 0487 f939 b97e 9f37
1.6507646e-35 6.6030106e-35 1.868793e-39 1.4856811e-34 2.6412176e-34 1.834173e-34 3.7142005e-35 6.6030106e-35
0.0 9.285481e-34 0.0 1.6507646e-35 0.0005135476 1.6619133e-05 0.00026012384 6.787121e-05
0.00011579136 0.0006987275 3.3168012e-06 1.6619133e-05 0.0003301366 0.0002643123 0.0002759985 0.00053816376
0.00079609634 1.137528e-05 0.00086726487 4.263973e-05 0.000120494224 0.0008090668 2.9309163e-06 1.137528e-05
0.00049142475 0.00043189136 0.0003866069 0.0008012008 0.00017223305 1.2504697e-05 0.00014535766 3.9690607e-05
5.5058365e-05 0.00028582918 2.3348866e-06 1.2504697e-05 0.00015480269 0.0001065222 0.00014905362 0.00019278208
0.0005784639 1.7105429e-05 2.916144e-06 0.00010312267 0.00018337232 0.0002528586 3.7988912e-06 1.7105429e-05
0.00048209957 0.00036910456 0.0004683994 0.0006610241 0.00026358437 2.9162286e-06 0.00030102534 1.2446601e-05
4.1071686e-05 0.0002774518 8.3760443e-07 2.9162286e-06 0.00016464564 0.00014809059 0.0001329402 0.0002650472
0.0001580132 1.416935e-06 0.00018261865 5.0514072e-06 2.051938e-05 0.00010700637 3.046638e-07 1.416935e-06
4.8178048e-05 4.135659e-05 3.1701078e-05 0.00015487774 3.2511693e-05 5.378631e-06 0.0 2.5715133e-05
3.5092806e-05 0.00022774057 2.4350893e-06 5.378631e-06 0.00035761797 0.00024273916 0.0003578349 3.3688022e-05
8.3704734e-05 6.8095e-06 8.648823e-05 1.9626375e-05 2.7910237e-05 0.00014135355 1.235988e-06 6.8095e-06
7.713964e-05 4.532654e-05 6.586325e-05 9.5081974e-05 0.0007030171 2.2095484e-05 0.00064915174 7.5515e-05
0.00013511164 0.00086475734 2.516167e-06 2.2095484e-05 3.75702e-09 7.683498e-05 2.0682452e-05 0.00070276106
4.7923168e-05 7.474109e-07 5.282457e-05 3.023377e-06 8.44649e-06 5.052071e-05 1.721181e-07 7.474109e-07
2.9664765e-05 2.537682e-05 2.476942e-05 4.890446e-05 3.1333147e-05 1.4903266e-06 3.1783486e-05 4.4501053e-06
7.1257195e-06 3.71673e-05 2.8523752e-07 1.4903266e-06 2.1198326e-05 1.3128762e-05 1.7955674e-05 3.3356802e-05
3.4131263e-05 6.9453654e-07 8.502144e-05 3.5758906e-06 1.1134445e-05 7.3326024e-05 3.5545096e-07 6.9453654e-07
8.867361e-05 8.284763e-05 7.1987255e-05 3.405151e-05 0.00028769945 6.6514876e-06 0.0002417433 2.376556e-05
4.9328453e-05 0.00038916213 1.3939116e-06 6.6514876e-06 0.00017236953 0.00013937961 0.00013285501 0.00029380652
0.00018186541 2.2661716e-06 0.00024429613 1.0306622e-05 3.8649658e-05 0.00011382376 6.8991625e-07 2.2661716e-06
0.00013975083 0.00012133743 0.000108338994 0.00019358726 0.0003510057 7.898544e-06 0.00034110754 2.8919976e-05
6.4476764e-05 0.0004576357 1.9000435e-06 7.898544e-06 0.00025656627 0.00021261116 0.00020980112 0.00035873728
0.00039121066 1.0746039e-05 0.00038036582 3.789341e-05 7.772561e-05 0.00056081585 2.4498438e-06 1.0746039e-05
0.00029043242 0.00023411169 0.00024010448 0.0004050388 0.0008926617 4.435294e-05 0.0005962212 0.00014553024
0.00021458448 0.0013906395 9.591415e-06 4.435294e-05 0.00081849506 0.00057892036 0.00069283723 0.000948053
5.685309e-05 1.6602575e-06 6.299712e-05 5.0761564e-06 1.0330694e-05 5.448943e-05 3.9155938e-07 1.6602575e-06
3.971971e-05 3.1022297e-05 3.0680316e-05 5.8917398e-05 0.00014284525 9.924454e-06 0.00012844866 2.9934483e-05
4.263986e-05 0.00022878278 2.0042212e-06 9.924454e-06 0.00014638783 9.5264826e-05 0.00012503387 0.00015863853
0.00020187242 9.973593e-06 0.00019898765 3.3323202e-05 5.3640768e-05 0.0003182048 1.1493723e-06 9.973593e-06
0.00012753834 4.2050968e-05 0.00010794171 0.00021777274 0.00046880258 3.2926444e-06 0.00047593575 1.9013287e-05

exp_avg f4 [64]
00000000: 0400 0000 27b2 103c e436 463c 0ad1 273b
00000010: 5f59 823b 587b c93b 9df4 143b fbe0 0e3a
00000020: d7d8 ec3a 44c5 e13a 05e6 aeba dc32 8e3a
00000030: 5458 4cba baa9 1ebc cc40 6c3b 92e6 023c
00000040: 4180 1f3c e78d c03b 9fa6 063b 4026 833b
00000050: 26a4 483b 783f 98bb cd17 303c e051 0f3b
00000060: 7998 03bb fd51 7e3b 97fe 493b 609f 163b
00000070: 7cf6 6fba db14 ad3a 90af 7cbb 0a58 973b
00000080: 76cb 383b cd48 263c e469 ab3b 4ba5 873c
00000090: 1a49 c83b da04 4e3c 281a a8bb f767 4bbc
000000a0: e763 bfba e7d0 a13c 1f2a 19bd 5858 5ebb
000000b0: 871a 683b 8511 d03b f8a1 223b dd39 42bb
000000c0: 312e bf3b d5a6 aa3b fd71 81ba 416e 733b
000000d0: 9673 643b abc8 113c ef69 123d b9cd 41ba
000000e0: 3874 c43b 1fb7 59bc 0d43 113c 918d aabc
000000f0: 3d67 f83b 9ecc 0ebb 63a0 9e3b 9578 aa3b
6e-45 0.008831537 0.012098048 0.0025606775 0.003977939 0.006148737 0.0022728809 0.0005450395
0.0018069994 0.0017224927 -0.0013343698 0.0010848898 -0.00077951443 -0.009684021 0.0036049364 0.007989543
0.009735168 0.005876291 0.0020546091 0.0040023625 0.0030615418 -0.004646238 0.010747862 0.002186887
-0.0020079894 0.0038806193 0.0030821913 0.0022983178 -0.00091538555 0.0013205068 -0.0038556792 0.0046186494
0.0028197444 0.010149193 0.005231129 0.01655831 0.00611223 0.012574399 -0.005130071 -0.012414924
-0.0014601917 0.019752933 -0.037393685 -0.0033927169 0.0035416202 0.0063497447 0.002481578 -0.002963654
0.005834364 0.005207876 -0.000987589 0.0037144574 0.0034858934 0.008897941 0.035745557 -0.0007393021
0.0059952997 -0.013288288 0.008866084 -0.020819457 0.0075806663 -0.0021789442 0.004840897 0.005202363

exp_avg_sq f4 [64]
00000000: 5b23 0909 e1ff 943a 949d b33a 7c43 003a
00000010: 1a19 f13a eea9 fc39 2a85 7c39 23a0 bb39
00000020: 21a5 8139 5cb5 bc3a 83a3 ce38 cb45 8e38
00000030: 9c8a 0f39 5a6c 103a 78ef dc39 d3a7 3a3a
00000040: ee74 5b3a 65c4 093b 6b55 de38 a851 c939
00000050: 0c14 0c3a 4376 653a 1d9b 803a 9af6 2339
00000060: c482 0d3a 40b5 7239 00aa 8938 6f44 213a
00000070: d6d3 a239 ca7e 0f39 a5a2 4b3a 9c71 0639
00000080: 34a3 9039 d656 503a 2ff6 ab39 c35d 133b
00000090: aaed d639 3954 f03a 905c 0e3a 00f1 6c3a
000000a0: 6fef 7d39 858e 443b 1108 e03b 3791 343a
000000b0: b778 8239 b3ed 423a 82b5 5539 ca2c 9839
000000c0: 23ac de39 94df 8139 b4bb 6b39 652a a838
000000d0: 1625 5c3a 48ea 783a 4810 b83b 49eb 5d38
000000e0: d48c c139 8b4a 8a3a 2919 4a3a 9b6e 9c3b
000000f0: 206d 2d3a 6a61 e539 5f9b fb39 0d6a 9a39
1.65074e-33 0.0011367762 0.0013703578 0.00048928685 0.0018394322 0.00048191793 0.000240822 0.0003578673
0.00024727828 0.0014397311 9.853302e-05 6.7840876e-05 0.00013689179 0.00055093097 0.00042140088 0.00071203447
0.0008371611 0.0021021601 0.00010601695 0.00038398546 0.00053435634 0.0008753279 0.0009811852 0.00015636758
0.0005398209 0.0002314644 6.564334e-05 0.000615186 0.00031056878 0.00013684775 0.00077680714 0.00012821559
0.00027587416 0.000794751 0.00032799083 0.0022486306 0.00040994334 0.0018335647 0.0005430663 0.00090385973
0.00024217156 0.0029992175 0.006836899 0.0006888094 0.00024885472 0.00074359326 0.0002038088 0.0002902507
0.00042471391 0.00024771376 0.00022481271 8.018761e-05 0.000839786 0.000949536 0.0056171753 5.2909632e-05
0.00036916754 0.001055078 0.00077094376 0.0047739274 0.0006615687 0.00043750863 0.0004799021 0.00029452183
