models/checkpoint_260000.pt (torch, 125871 bytes, 33 tensors)

shared.0.weight f4 [64, 12]
00000000: 819d 51be fa6d 113e d890 383e 9a42 293f
00000010: d371 cdbd 4d20 41be f675 7fbd 8db2 1bbd
00000020: d623 f7bc 2920 aa3d 5037 41bd 8eec af3d
00000030: 5d77 29bd 7a28 253e ea36 e0bd bb07 0d3f
00000040: 863f 64bc 4e73 1cbe 7e98 c53e bb06 c73e
00000050: aa11 713d f4ec fbbb 4696 abba c50e 0a3d
00000060: 12bb 123d d896 c4be 78fd e3bd 2789 a7be
00000070: 0bd5 d0be 902f acbd 93a8 c2bd 8e5d afbe
00000080: b24a 82be b9ff c63c 6dbf 1e3e 3139 c03c
00000090: 5eb5 32be c397 93be 28aa 66bd 9e6d dd3c
000000a0: bd33 1d3d b25a 813e 764b bd3e a9c8 213d
000000b0: 62c6 14be ad50 9f3d 666e 233e 0d1f b53c
000000c0: 4374 7e3e 6a50 9bbe 0ab1 013e 08fc 18bf
000000d0: c78f c4bd 43c2 ed3d c21e 11bf fba7 1ebe
000000e0: f088 013e 5e37 7a3e c1a7 ebbd 9f36 1fbe
000000f0: cd3c 2dbe 7350 c6bc cb96 91be 7e09 fbbe
00000100: 7d8c c0be 7af7 883d 98d0 1dbe f877 afbd
00000110: 6cd6 d83b d4da a6bc 7ecb 37bd ef43 003e
00000120: a651 ebbd 1f5a f73e ae93 373d 475e c83e
00000130: 348b f1be 49c4 37be 917b 023e 5bf1 843e
00000140: 02a9 063e 1178 fe3b 3010 05be 2044 ea3d
00000150: 0c57 913d 6024 aabe a442 013d e043 bfbe
00000160: 83d3 f4be 35f5 25bd 25f5 f3be e2be 67be
00000170: 9262 14bd 5f06 90be c112 223e 247a 393d
00000180: f4a1 a8be 54a7 f4be d56b 063e c12d 90be
00000190: 10b0 7c3e 739f bf3d ddcd 7dbf c8aa c2be
000001a0: 8726 273e ce1b e03d 36e8 2fbc fb96 1dbf
000001b0: 66cc 6a3d 5042 9c3e a331 033e 3d2d 04bd
000001c0: 0e6d a8be dc1d 843d 91e7 59bf 4f19 1f3e
000001d0: 4036 99bd 99a5 b9be d838 f73a b45c 95be
000001e0: 044f 1dbe 061b 7c3e 7a0c b53c f7f7 ac3e
000001f0: 1ad3 e1be 3cfa 4abe bc91 963d 752d c33d
00000200: ea91 813d 0c64 583d 1016 ce3d 3ed4 553e
00000210: 2c6d a3be 2d08 083f 1a2c c73d ae88 543f
00000220: 1fbb 49be a7b2 c5bd 4e16 d53e 6008 d63e
00000230: f227 cb3d 374f 59bd 30fe c23d 5f14 3d3e
00000240: 2087 73be 8ba0 d13e 1491 8c3b a472 1f3e
00000250: ae41 5cbe 0504 683e dfb7 8e3e d302 103e
00000260: 76e5 703c 81c0 4abe c302 efbd 8e4c c33d
00000270: 8129 babe 76bd 4f3e cf00 b8bd ba18 d23e
00000280: f101 dc3d 4452 303e 5c8c 433f 5420 e33e
00000290: da4f be3d d7b0 88be 6cf0 f63d 1cbf b63e
000002a0: 9e39 11be 603d 223d 4cc7 2fbe 4fd9 bd3e
000002b0: 6c28 0abf 84f1 2b3e af06 833e 1bf3 5abd
000002c0: b706 b83a 0b28 a3bd a364 903e 85ce 833e
000002d0: 2316 ddbc 243d afbe 90da 7c3e 60a0 aa3b
000002e0: 1b35 87be df8e c0bd 7332 6dbe 9214 84be
000002f0: 38d9 893e 0559 7bba 39b2 db3d 9fe8 20be
00000300: b196 5bbe dde6 d73e e936 e7bc 365c 013f
00000310: 9157 07be e25f 63bc 595a e23e 6ce2 333f
00000320: e3c0 11be 9eb4 85bd 59ea a03d 1d42 803e
00000330: 5e0c 993c 7003 823c bade 24be 6c18 8ebd
00000340: 45a9 1abe 835a 15bd 7bf6 303d 3b36 65bd
00000350: 06ab 86bd c762 c5bd 31c7 96bd 38ed 01bd
00000360: a901 62be 1531 0e3f 45b9 133e 4108 aa3e
00000370: 0d82 413c e439 e63d 07b4 803e 9ddb 133f
00000380: fb2d 34bc 3894 193d 9d02 e3be 438d 5fbe
00000390: d893 8a3e 6944 cabe 9f1e 06bf 128b ea3e
000003a0: 9523 0d3e d616 85bd fb3e 13bf c970 acbe
000003b0: c112 7b3d 0492 f73d c699 31be 216c 02be
000003c0: ca6d a13d 9e07 58bd f6c7 91be cbfa 983b
000003d0: e58d b7be 4ee0 a43e e62a 96be 17c4 863b
000003e0: 684e d2bc 658d ac3e 3dea 7dbd 5d36 ccbe
000003f0: 5a92 853e da6c bdbe 288a 983d f441 b6bf
-0.20470239 0.14202109 0.18024004 0.6611725 -0.10031476 -0.18859978 -0.062368356 -0.038012076
-0.030168455 0.08306915 -0.04717189 0.08590041 -0.0413736 0.16128722 -0.10947974 0.5508992
-0.013931161 -0.1527836 0.38592905 0.38872322 0.058854736 -0.007688159 -0.001309105 0.03370549
0.035822935 -0.38396335 -0.1113233 -0.32721826 -0.4078754 -0.08407509 -0.09504809 -0.34251064
-0.25447613 0.02429186 0.1550271 0.023464771 -0.17451999 -0.28826723 -0.056314617 0.027029809
0.03837942 0.25264508 0.36971635 0.039498005 -0.14528802 0.077790596 0.15960082 0.022109533
0.24849038 -0.3033479 0.12665191 -0.5975957 -0.09597736 0.11609318 -0.5668756 -0.15493767
0.12649894 0.24435183 -0.11506606 -0.1554818 -0.16917725 -0.024208283 -0.28435358 -0.4903068
-0.37607184 0.066878274 -0.15411603 -0.08567804 0.006617358 -0.020368017 -0.0448718 0.12525915
-0.114901826 0.48310944 0.044818573 0.39134428 -0.47176516 -0.1794597 0.1274245 0.2596539
0.13150409 0.007765778 -0.12994456 0.11438775 0.07096681 -0.33230877 0.031557694 -0.37356472
-0.4781762 -0.04051705 -0.47647968 -0.2263141 -0.036226816 -0.2812986 0.15827467 0.045282498
-0.3293606 -0.4778391 0.13127072 -0.28159907 0.24676538 0.093565844 -0.9914225 -0.3802092
0.16323291 0.10942803 -0.010736516 -0.615585 0.057323836 0.30519342 0.12811904 -0.032269705
-0.32895702 0.06451008 -0.8511897 0.15536998 -0.074810505 -0.36259153 0.0018861545 -0.2917229
-0.15362173 0.24619684 0.022100676 0.33782932 -0.4410637 -0.1982202 0.073520154 0.095301546
0.06326659 0.052829787 0.10062802 0.20881745 -0.3191923 0.53137475 0.097252086 0.83021057
-0.19700287 -0.09653216 0.4161858 0.41803265 0.09919728 -0.05305406 0.09521139 0.18464802
-0.23782015 0.40942797 0.0042897556 0.15571076 -0.2150943 0.22657783 0.27874658 0.14063577
0.014703145 -0.19799997 -0.11670449 0.09536086 -0.3635979 0.20287117 -0.08984529 0.4103449
0.10742558 0.17218882 0.76386046 0.44360602 0.09292574 -0.26697418 0.120575756 0.3569268
-0.14182135 0.039609313 -0.1716587 0.37079856 -0.5396793 0.1679135 0.25591037 -0.0534545
0.0014040087 -0.07966622 0.2820178 0.257435 -0.026988095 -0.34226334 0.2469275 0.0052071065
-0.26407704 -0.094022505 -0.23163776 -0.25796944 0.26923537 -0.0009588155 0.10727353 -0.15713738
-0.21444203 0.42168322 -0.028224425 0.5053133 -0.13216998 -0.013877841 0.44209555 0.7026737
-0.14233737 -0.065285906 0.07857198 0.2505044 0.018682655 0.01587078 -0.16100588 -0.06938252
-0.15103634 -0.03646327 0.043203812 -0.05595992 -0.06575589 -0.09637981 -0.073622115 -0.03172037
-0.22070946 0.55543643 0.14426143 0.33209422 0.011810792 0.112415105 0.2513735 0.5775698
-0.010997291 0.037494868 -0.4433793 -0.21831231 0.2706592 -0.39505318 -0.52390474 0.45809227
0.13783105 -0.06498496 -0.57517976 -0.33679798 0.061297182 0.12088397 -0.17343816 -0.1273656
0.07882269 -0.05274164 -0.2847287 0.0046685687 -0.35850444 0.3220238 -0.29329604 0.004112731
-0.025672153 0.33701625 -0.061990965 -0.39885226 0.2608822 -0.3699711 0.07448226 -1.4238877

shared.0.bias f4 [64]
00000000: cfe5 4f3e 4cbb 763e 6226 923d 8806 80bd
00000010: 7884 9f3e 1c01 7c3d 3af2 3d3e f775 cb3c
00000020: 30c8 823e 6982 2b3e 3e20 4a3e 651e 223e
00000030: bad7 153e 6ba5 b23d a85b 8c3d 1421 c23d
00000040: 2dd8 133e 0000 0000 7592 4a3e 6b26 663e
00000050: 8a88 ea3d 8ea2 973e a3fc 1b3d 9344 f0bd
00000060: 18b3 b83e 2670 9c3e a568 8d3e c4fd 1bbc
00000070: 3e4d 173e 7f6f 7fbc d78a a63e 73b4 3c3e
00000080: 91fc 953e 7e0b 9e3c 954c 243d bbbc 113e
00000090: 4b70 9e3e c403 5e3a aabd b03e 492f 6f3e
000000a0: 128d 813e 0000 0000 f7a7 6c3e 5451 13be
000000b0: 4bf7 6e3e e158 a43e b255 a63e 2b9a 913e
000000c0: 9fbd 3e3e e95b b33d 56f4 5a3d dede ee3d
000000d0: b659 8b3e b991 663e c8f5 743e 831c 9b3e
000000e0: 0000 0000 c6cf 4e3e 97b1 84be 2838 fb3d
000000f0: ae99 643e ad1d b73d d772 4e3e 8195 3a3e
0.20302509 0.24094886 0.07136227 -0.06251246 0.31155753 0.061524495 0.18549433 0.024836523
0.25543356 0.16748966 0.19738862 0.15831907 0.14633074 0.08722957 0.068534195 0.094789654
0.14437933 0.0 0.19782431 0.22475593 0.11451824 0.29616207 0.03808273 -0.117318295
0.36074138 0.30554312 0.276189 -0.009520952 0.1477556 -0.015590548 0.325278 0.18428211
0.29294255 0.01929259 0.040112097 0.14232151 0.30945048 0.0008469189 0.34519702 0.23357882
0.2530294 0.0 0.23110949 -0.14386493 0.23336522 0.3209906 0.32487255 0.28437933
0.18627022 0.08757765 0.053455673 0.11663602 0.27216882 0.22516526 0.23921883 0.3029519
0.0 0.20196447 -0.2591674 0.1226657 0.22324249 0.08941207 0.20160995 0.18221094

shared.2.weight f4 [64, 64]
00000000: 923f 8b3c 05de 663d 7459 6e3e 09d1 5a3e
00000010: 9fae b43e f383 08be fe2d cdbd 43d0 183e
00000020: 8fe4 ffbe d530 943e e506 313e e7cf f23d
00000030: 7ba9 01be 9883 fabd 6df2 f53c 3be1 0fbe
00000040: e29f 463d ff46 863d 7232 a2bd b6a4 2c3e
00000050: c494 b33c b70d d7be 8637 723f aec0 e7bd
00000060: dee8 fabb 6f06 0a3e aae3 213e 536a 0d3e
00000070: d679 ab3e 25a3 a0be 4bfc 193d 5f86 30bd
00000080: 4d96 423e 843b 423e c7a7 32be 703f 4c3f
00000090: 4aaf ba3d 305c 383e f7b9 15be 3e0a d5be
000000a0: 611b 213e df61 09be 9ff4 9e3e 5980 fabe
000000b0: aa06 6d3e d639 893e c43e 863d 9aa5 0abd
000000c0: 4736 b83d 9909 c53d 6940 cc3d 24fb 1dbb
000000d0: 2d6a 8f3b 3163 e5bb 51b4 5bbd d4c3 6b3e
000000e0: 8509 083e abe0 4bbe ed77 ff3c b860 72be
000000f0: 2e6e 293e b8bb 113f 385f fdbe 3776 68bd
00000100: e52e b53d 86a9 01bd e5ec f03c a5a1 86bd
00000110: ca3c e93e b6c8 50bc 8c5d 8cbd b63c 063e
00000120: 378f a2be f177 7b3e 3157 a13d 874e 163c
00000130: cdda ff3d 4586 37bd 5009 083e d776 c33e
00000140: 82d2 e93d 65e7 163d a7ff 8b3e 1836 573e
00000150: e71f dd3c 1db3 b0be cce3 593f bcaa 5cbc
00000160: 93d8 0f3e a11f cf3d ffa2 b53e 76f2 36bd
00000170: 4512 5d3d a8f1 65be bdec 1c3e ddb8 303e
00000180: 048d 683d 9dd0 f53e 38ea 363e 34c9 113f
00000190: 6bd1 0dbe d04d 223f 1b7e b2bb b53a 13bf
000001a0: 2d00 623c f8a1 e3bd eaf8 0c3e 8615 0abf
000001b0: 2b86 213e 2093 983d 0d27 a23d 00e9 593e
000001c0: 9d94 d53d c0e7 ae3d 9168 873a b9ba 2d3d
000001d0: 8b85 bfbd 37ce c8bc 4afd 8c3d 923e 1bbe
000001e0: 650e 2d3d 5b77 1c3d 112f 043e aea6 853d
000001f0: 4009 753e 758d c23e 0db0 d8be 19b5 45be
00000200: 906c 45be a2aa 22be 05ec 733e c684 253e
00000210: f145 3a3d 9e40 9cbe e710 f2bd 2967 bc3d
00000220: 7f9e a8be f835 2a3e 4483 fbbd fc65 00bc
00000230: f00a f23d a553 383e 808d 9a3d 28e3 b1bb
00000240: bedf f33d 96fb a63d 169e d2bc bf1b 3b3b
00000250: 82a0 553e e760 03bf 904f 083f e5b1 0bbe
00000260: 737f b33e 1078 643e 618a 603d 1374 a1bd
00000270: bff3 803e f3e9 84be 1d9a ce3d 6ba2 a83e
00000280: 6a30 583e bda4 0f3e cfdc 153e 041b 443f
00000290: d0cc cd3d 101a 033e 93a6 943d 1bf3 12bf
000002a0: 8741 bb3e 4138 adbd 1698 833c fd37 a1be
000002b0: de6c 9e3d d1d4 34bd 7f75 38be b07b 3e3e
000002c0: 6a6d efbc fd00 fe3b c665 4d3c ba4f 9c3d
000002d0: dd72 c13d 2a0b ebbc 4624 883e 4e58 d63d
000002e0: 81b5 453e 1b52 b03d b44c 31be 3f33 2cbe
000002f0: 2624 693e 3fba d83e 1006 01bf 8a24 183c
00000300: aa0c 113e 6a04 423e b913 b43e 5455 acbc
00000310: 583f 03bd 6965 88be f3b1 9ebd 06b5 2a3e
00000320: 1df3 ffbd 66d6 a33e b886 6c3e 782f 8cbd
00000330: 9880 32be 2814 793c 7a91 be3d c89b 8e3d
00000340: c6c7 cdbd d192 2c3e 0154 073e e68d a6bc
00000350: 7bd3 8e3e b8f8 e4be 14a8 7c3f 794b 1dbe
00000360: 4ad1 783e 052a 483e 3238 a7bd f5fc e8bd
00000370: 76ca d9bb 18ff c0bd baaa 313e 01fd fbbd
00000380: cd4a 653e 82d3 c33d 476f 363e 1a32 443f
00000390: eb19 48bc d15a 9c3e 5ae5 cbbc d04e 1cbf
000003a0: 3e7e 083d 6a4e 2abe aa69 693d 7886 1bbf
000003b0: 5a88 25be e1f3 173e b7ba f6bd 9b78 87bc
000003c0: 64e3 7fbd ca73 fa3d 6880 36bd 6ab1 193e
000003d0: 8994 23be d2eb 353d 6c10 413e 4add 803e
000003e0: 2a19 0abe b0a2 b13d 558e 85be cc10 eb3c
000003f0: 22bb 803d de70 fa3e 2673 22bf 2088 883d
0.016998086 0.056364078 0.23276311 0.21368803 0.35289475 -0.13331585 -0.10018538 0.14923196
-0.49979064 0.28943506 0.17287786 0.118560605 -0.12662308 -0.12232131 0.030022824 -0.14050762
0.04849232 0.0655651 -0.07919778 0.16859707 0.021921523 -0.4200265 0.9461597 -0.113160476
-0.0076571545 0.13479017 0.15809503 0.1381009 0.3349139 -0.3137447 0.03759412 -0.043096896
0.19002648 0.18968016 -0.17446814 0.797843 0.09115465 0.18003917 -0.14621721 -0.41609377
0.157331 -0.13416241 0.31046006 -0.48926046 0.23147073 0.26801938 0.0655494 -0.033849336
0.089947276 0.09620971 0.09973223 -0.002410599 0.004376671 -0.00700035 -0.05363876 0.23023921
0.13284881 -0.19909923 0.031185115 -0.23669708 0.16545936 0.5692706 -0.4948671 -0.056753363
0.08846835 -0.03165581 0.029409835 -0.065738 0.4555419 -0.012743166 -0.0685378 0.13109097
-0.3174989 0.24557473 0.078779586 0.009173996 0.12492905 -0.044805784 0.13284802 0.38176605
0.11417104 0.03684177 0.27343485 0.21016729 0.026992751 -0.34511653 0.85113215 -0.013468441
0.1404746 0.101134546 0.3547592 -0.044664823 0.0539725 -0.22455466 0.15324683 0.1725802
0.056775108 0.48010722 0.17862785 0.56947637 -0.13849418 0.6339998 -0.005447162 -0.57511455
0.013793987 -0.111148775 0.13766828 -0.5393909 0.15773837 0.07449937 0.079176046 0.21280289
0.10428736 0.085402966 0.0010330846 0.0424144 -0.09351643 -0.024512393 0.068842486 -0.15160587
0.042250056 0.038199764 0.1290858 0.06525932 0.2392931 0.37998548 -0.42321816 -0.19307365
-0.19279695 -0.15885404 0.23820503 0.1616393 0.045476858 -0.3051805 -0.1181963 0.09199364
-0.32933423 0.1662215 -0.12280896 -0.007836815 0.118184924 0.18000658 0.0754652 -0.0054286905
0.1190791 0.08153455 -0.025710147 0.0028550474 0.2086201 -0.51319736 0.532464 -0.1364208
0.35058174 0.22311425 0.05481947 -0.078834675 0.25185964 -0.2595974 0.100879885 0.32936415
0.21112218 0.14027686 0.14635013 0.7660372 0.100488305 0.12802911 0.07258334 -0.574022
0.3657343 -0.08457995 0.016063731 -0.31488028 0.077356085 -0.04414827 -0.18013571 0.1860187
-0.029226977 0.0077515827 0.012536472 0.07632394 0.094457366 -0.028691847 0.26590174 0.104660615
0.1930752 0.086094104 -0.17314416 -0.16816424 0.22767696 0.42329594 -0.50399876 0.009286055
0.14164987 0.18946996 0.35171297 -0.021036781 -0.03204283 -0.2663987 -0.07748785 0.16670617
-0.12497542 0.3199951 0.23098266 -0.068449914 -0.17431867 0.0152025595 0.09305091 0.06963307
-0.100478694 0.16852881 0.13215639 -0.020331334 0.27895722 -0.44721007 0.98693967 -0.15360822
0.24298587 0.19547279 -0.08165015 -0.11376373 -0.0066464497 -0.09423655 0.17350283 -0.12304116
0.22391815 0.09561826 0.17815886 0.7663895 -0.012213211 0.30538037 -0.024889637 -0.6105776
0.03332352 -0.16631475 0.056985535 -0.6075206 -0.16165295 0.14839126 -0.12047332 -0.016537001
-0.062472716 0.12229116 -0.04455605 0.15009084 -0.1597463 0.04441435 0.1885392 0.2516883
-0.13486162 0.08673608 -0.26085153 0.028694533 0.06285693 0.48914236 -0.6345695 0.06666589

shared.2.bias f4 [64]
00000000: 78dd 3f3e 7668 883e b51c 633e 6c74 2f3e
00000010: 1486 923d fa78 f6bc 123e edbc 0898 92bc
00000020: 5708 57be 0ac7 9b3e ae54 783e d4f0 903d
00000030: 1fe9 673e ef2f 8d3e 4b61 973e dfc2 d2bc
00000040: 9743 05bd 6a31 c3bc 67b7 9b3e 9838 143e
00000050: b1ff f93d 0000 0000 a193 073e 1f58 943e
00000060: 98ed 8e3e 9662 873e f4a9 a33e 108d 8e3e
00000070: 24b8 c6bc eba0 883e 44b2 983e 666e 8c3e
00000080: b17e 9e3e b8c7 913e 083f 633e 3164 873e
00000090: 90fe 8a3e d92c 9a3e fc05 5d3e 1909 a73e
000000a0: 8e1c 2bbc 9053 533d 406c 8b3e fdad a63e
000000b0: 9056 30bd e6cb 01bd 3151 893e 1b42 703e
000000c0: f057 923e e402 833e 2d26 7f3e 11aa 883e
000000d0: 6a87 a23e 86d5 873e 2485 6a3e f68a 07bd
000000e0: c9c7 ba3e dabd 0dbe b915 9b3e 427b 993e
000000f0: 3507 273e 9de4 ae3e 12c5 093e e3c8 6d3e
0.18736827 0.26642197 0.2217892 0.17134255 0.071544796 -0.030086983 -0.028960261 -0.01789476
-0.20999275 0.30425292 0.24251053 0.07077184 0.22647522 0.27575633 0.29566416 -0.025727687
-0.03253516 -0.023827273 0.30413362 0.14474714 0.122069724 0.0 0.1323991 0.2897348
0.27915645 0.26442403 0.319656 0.27841997 -0.024257727 0.2668527 0.29823506 0.27427977
0.30956033 0.28472686 0.22192013 0.26443627 0.2714734 0.3011234 0.21584314 0.32624128
-0.01044382 0.051593363 0.27231026 0.32554618 -0.043051302 -0.031688593 0.26819757 0.23462717
0.28582716 0.25588143 0.24916907 0.2669225 0.31743938 0.26530093 0.22902352 -0.033091508
0.3648055 -0.13841954 0.3029001 0.2997685 0.16311343 0.34158793 0.13454083 0.23221163

actor.0.weight f4 [32, 64]
00000000: 0569 90bd 3acb 53be 0b1d b6bd db99 d3bd
00000010: e653 4c3d 3c53 353e 9321 45be 275d 12be
00000020: 2beb d33d 35cb 0e3e c83c 55be 5c18 df3d
00000030: 48cd dd3d d743 c13c a012 2b3d 6b94 90bd
00000040: 80a9 8b3d fdcb d43d cd8c 68bc ad1e 51be
00000050: 8bc1 f43c e498 17be c418 ee3d 421a 673c
00000060: 84c1 e43b 1f08 b5bd 2b47 1d3d 9cc6 b4bd
00000070: 40f6 48bc d1a1 95be 0ab5 3cbd bec3 acbe
00000080: 895f 773d fd3d c5bd 1ca1 d13d 3700 093e
00000090: 5ef7 05be 2ea1 11be 6051 84be 6ba8 b3bd
000000a0: 3649 6dbb bed1 cf3d 344a 5ebc 2695 89be
000000b0: 5b9e bb3c f502 443d ceeb 453d 5238 ad39
000000c0: 592e c4bd 7b6a 88bc ce69 19be 67d5 74bd
000000d0: 7348 04be b008 ee3d e511 07bd 8919 b5bd
000000e0: 3b4d 603e 2ba4 5cbe 2a58 80bd ab98 77bd
000000f0: 2e49 533d c619 fabb 81d6 2e3c 839c c8bc
00000100: 0923 2fbd 7afe 333e f0a1 01bd 1cf3 603c
00000110: 96e5 973e fc5f 18bd b132 0e3a 8906 9b3d
00000120: a816 d0bd 6eab 0abc 214c 8c3d 414b df3d
00000130: d3a4 13be a040 07be a8f2 b43d 1d95 e83d
00000140: e8e4 dbbe 94b4 953d f3fe ccbd 2bb5 42bd
00000150: 0e25 573c ff3c dabd 7155 933d 1bfa 15bd
00000160: 5cd8 a3bd e928 5d3b efbe be3c 362f 8e3e
00000170: 65ef 053e f82f 5e3e 54de f53c 6765 7e3b
00000180: 0d4e 283d 3160 55bb bf5a 0b3d c126 c8bd
00000190: 62b9 20be 764a 55bc f715 6cbe f20e 66bd
000001a0: d548 153e 274e 403e b59d 023d e442 d3bd
000001b0: 0648 85bd 492c 003e 16e7 80bc 7228 9ebc
000001c0: cff3 f93d 7ed1 36be 7579 73bd 6110 86be
000001d0: 80fc 11be 911e debd 9e43 1cbe 53ed 823c
000001e0: 6b72 72bd d6e9 b3bd 5a5d f93b 389d 51be
000001f0: 5610 82bb 402d b2bd 4ad0 01bc 0b69 d03d
00000200: fabf 9b3d 0739 ebbc 2baa 0c3e d464 48bb
00000210: 35f1 a0bd 2ea6 653e 5cff bbbc 71ec 833d
00000220: d210 86bc fa46 7dbe b6ed 4cbe 2537 be3d
00000230: 475b 3bbe 967d 5bbe b979 bcbd a3a4 0ebc
00000240: 3e6a 923d ffed 3bbd 6978 ab3d 819d 423e
00000250: ca20 f23d eb10 8abc 1571 583d fd9b 84bb
00000260: 536b 1dbc a242 09bd e8b7 003e 0d63 ccb9
00000270: b6c9 033e 650d 72be ad38 96bd 42a9 4bbe
00000280: 9587 1a3e 312a 103c 3e72 38bd c426 71be
00000290: 29ee 383d b4b7 293e 9bb0 41be 6340 6a3d
000002a0: f30e ecbc d40b 11be 0130 acbd 0384 313e
000002b0: 4f1a 2bbb a9b7 393c 222f 41bd 2b4d 353e
000002c0: 4396 b0bd 28a9 093e fa6d 8fbd eb2c 7dbe
000002d0: f329 003e 65fc 6e3c d619 78be 1dc5 52bd
000002e0: a184 783d 660c 213e 79be b33d bf26 013e
000002f0: 2baa d0bd af44 8abc ddfb 073f c7f0 593e
00000300: a150 c5bd 64f0 98bd 230b 643d a5b4 06be
00000310: dd5f 7b3d 901f 00bd 64df a53d a5c7 0a3e
00000320: fdb8 4f3e 9ebe 28be 4e9d cc3d c9db 703c
00000330: 5622 02be f44a 8e3d 4de0 053d 9151 41be
00000340: 051e 533d 8aa7 c9bc 226a fd3c ac37 2dbc
00000350: 8dc0 6d3d 9159 7dbd 05a6 c43c 3e87 163e
00000360: be34 efbd 1ad4 eebd 6ee7 a23d d12b 833e
00000370: 3d56 4bbc cb30 cdbd 22c6 d23d 778e 223e
00000380: 8285 9b3c 4897 f3bd f40c 6a3d 830f 413c
00000390: 3ce9 83bd 9b36 5ebe 40e4 b3bc 2899 57be
000003a0: 4530 113e 1f7f 36be 90a1 3abe 8551 89bd
000003b0: 7a8f 4b3d a76f c83d 1f5d 363e c55d 90bd
000003c0: 0175 73be 8c17 a33b 25b6 92bd e844 ab3d
000003d0: 8258 163e 0cda 50be db75 a8bd d421 4ebe
000003e0: 139b aabc 8461 213e 48de c03e 1040 8d3e
000003f0: 3785 c1bd 844c a4bb 83a5 3d3c 70c3 0fbe
-0.07051281 -0.20682994 -0.08892258 -0.1033208 0.0498847 0.17707533 -0.19251089 -0.14293347
0.10347589 0.13944705 -0.20823967 0.10893318 0.1083017 0.023591919 0.04176581 -0.070595585
0.06819439 0.1039047 -0.014193726 -0.20421858 0.029877445 -0.14804417 0.116258174 0.014105381
0.0069810767 -0.088394396 0.03839795 -0.08826944 -0.012265742 -0.2922502 -0.04607109 -0.3374309
0.060393844 -0.09630964 0.10235807 0.13378988 -0.13082644 -0.14221641 -0.25843334 -0.087723576
-0.0036206967 0.10147427 -0.013567496 -0.26871604 0.022902658 0.047854383 0.048320584 0.00033039093
-0.095791526 -0.016652336 -0.14981768 -0.05977383 -0.12918262 0.11622751 -0.03297605 -0.08842761
0.21904461 -0.21547 -0.06266816 -0.06044833 0.05158346 -0.007632467 0.010671259 -0.024488693
-0.04275802 0.17577544 -0.031648576 0.013729837 0.29667348 -0.037200913 0.0005424424 0.07569606
-0.10160571 -0.008463724 0.06850458 0.109030254 -0.14418344 -0.13208246 0.088353455 0.11356566
-0.4294808 0.07309833 -0.10009565 -0.047536056 0.013131393 -0.10656165 0.07194031 -0.036615472
-0.08000252 0.0033746308 0.023284404 0.27770394 0.13079603 0.21697986 0.03001324 0.0038817765
0.04109006 -0.0032558555 0.03402209 -0.09773017 -0.15695718 -0.013018241 -0.23055254 -0.056166597
0.14578564 0.18779813 0.031888682 -0.10315493 -0.06507878 0.12516893 -0.01573519 -0.019306395
0.12204706 -0.17853352 -0.059442002 -0.2618437 -0.14256477 -0.10845674 -0.15260169 0.015982306
-0.05919115 -0.08784835 0.0076100053 -0.2047013 -0.0039692326 -0.08700037 -0.007923195 0.10176285
0.07604976 -0.028713716 0.13736789 -0.0030577676 -0.078585066 0.22426674 -0.022948913 0.06441582
-0.016365442 -0.24734107 -0.20012555 0.09287862 -0.18296538 -0.21434626 -0.09202904 -0.008706245
0.0714917 -0.045881268 0.08372576 0.19005395 0.1182266 -0.01685377 0.05284222 -0.0040469156
-0.009608108 -0.03351081 0.12570155 -0.0003898371 0.12869915 -0.23637922 -0.07335029 -0.19888785
0.15090783 0.008799122 -0.045030825 -0.23549944 0.045149002 0.16573983 -0.18915026 0.05719031
-0.028815722 -0.14164668 -0.084075935 0.17335515 -0.002610821 0.011335292 -0.04716409 0.17705218
-0.0862241 0.13443434 -0.07003398 -0.24724166 0.12516002 0.014586543 -0.24228606 -0.051457513
0.06067336 0.15727386 0.08776564 0.12612437 -0.10188707 -0.016878454 0.5311869 0.21283256
-0.09634519 -0.07467726 0.055674683 -0.13154848 0.06137072 -0.0312801 0.08099249 0.13552721
0.20285411 -0.16478965 0.09990941 0.014700838 -0.1270841 0.0694789 0.032684613 -0.18878771
0.0515423 -0.024616022 0.030934397 -0.010572355 0.05804496 -0.061852995 0.024004946 0.14700028
-0.11679982 -0.11661549 0.07954298 0.25619367 -0.0124106975 -0.10019072 0.10291697 0.15874659
0.01898456 -0.11894089 0.05714126 0.011783483 -0.0644097 -0.21700518 -0.021959424 -0.21054518
0.1417857 -0.1782193 -0.18225694 -0.06705002 0.049697377 0.09786921 0.1780896 -0.07049135
-0.23775102 0.0049771722 -0.071636476 0.08362752 0.146822 -0.20395678 -0.08225604 -0.20130092
-0.020825898 0.15759856 0.37669587 0.27587938 -0.09449237 -0.005014004 0.011575106 -0.14039397

actor.0.bias f4 [32]
00000000: 6f13 4839 766f 55bc 500b ec3c 5ef4 9e3c
00000010: 169d 07bc 476b d1bb d163 f8bd 1808 05be
00000020: 43fa e83d 4e71 083e c3cb e43d 1093 09bc
00000030: 5f86 033e 15f5 7cbb c4ce 203b 0f3c 33bd
00000040: 4cbe a6bd b69c 1bbc 62ef 0fbe d1b4 51bc
00000050: 7e0d 87bc 98da 96bc d4a8 9dbb 6b9a 11bb
00000060: 35c9 76bc 0000 0000 ceb3 f2bd 5704 19bc
00000070: 2eac 95bb 8c9b 52bb 0000 0000 4294 c7bc
0.00019080726 -0.013027063 0.028813988 0.019403633 -0.008277198 -0.0063909623 -0.121284135 -0.12991369
0.11375859 0.13324472 0.11171677 -0.008396879 0.12844227 -0.0038598229 0.0024537304 -0.04375845
-0.08141765 -0.009497812 -0.14056161 -0.012799458 -0.016485926 -0.01841478 -0.0048113856 -0.0022217284
-0.01506262 0.0 -0.11850701 -0.009339414 -0.0045676446 -0.003213617 0.0 -0.024362687

actor.2.weight f4 [2, 32]
00000000: 35d0 37be 8ca2 7dbe cefd 583d f5d5 853d
00000010: 2744 9fbc 5461 84bd 50aa e5be 1ceb aebe
00000020: 7af2 d23e 7efe 2c3f 53a3 f33e d6f6 883e
00000030: dd76 0d3f b8db c3be 3d43 8b3b 1a6e c3bd
00000040: 1136 5bbf 4012 a5bd ad0d 65bf 47fc 1dbd
00000050: 31d3 cfbd 71bd 023e 9450 743c ab63 13be
00000060: c4a4 82be 002b 6cbe b68d 3bbf 8064 06be
00000070: b605 c23d 998d 793e 127c b33e 610c dc39
00000080: 420a 293e 7c4d a9bc 3ea1 c0bd 5892 8abe
00000090: 8886 80be 3c4b 75bd 729f b53e a263 8f3e
000000a0: 1b0c 3abf 46f5 3cbf 28e9 18bf 90d3 a0bd
000000b0: 94d1 46bf c0a9 bbbe b9e5 aabe 8ecd a03e
000000c0: 357e 613f be06 0fbe 65d8 5b3f 43d3 55be
000000d0: 07da 5cbe 3a2b 103e 0e18 22bd 23c5 06bd
000000e0: c49b 35be 6faf 583d 6ccc 163f fe22 8e3d
000000f0: 5ad6 19be afe1 58bd 1320 073e 77f5 31be
-0.17950518 -0.24769038 0.052976422 0.0653495 -0.019441677 -0.06463876 -0.448565 -0.3416375
0.4120062 0.67575824 0.47585544 0.2675082 0.55259496 -0.3825357 0.004249959 -0.095424846
-0.85629374 -0.080601215 -0.8947399 -0.03857067 -0.101477034 0.12767579 0.014911789 -0.14393489
-0.2551633 -0.23063278 -0.7326311 -0.13124275 0.094737455 0.24370421 0.35055596 0.00041970893
0.1650782 -0.02066683 -0.094057545 -0.27064776 -0.2510264 -0.059886202 0.3547321 0.280057
-0.7267472 -0.7381176 -0.5973077 -0.07852852 -0.7766354 -0.36652946 -0.3337839 0.31406826
0.880832 -0.13967416 0.85877067 -0.20881371 -0.21567546 0.1407899 -0.03957372 -0.032902848
-0.17735201 0.05290168 0.58905673 0.06940268 -0.15023175 -0.052949604 0.13195829 -0.17378794

actor.2.bias f4 [2]
00000000: 30d7 cb3d 28d7 cbbd
0.09953153 -0.09953147

critic.0.weight f4 [32, 64]
00000000: daae 423e 617a 56be 8c77 c8bd 0dfa bf3c
00000010: b3b8 55bd 3e02 febc 800c 33be 39d2 a2bc
00000020: 7581 413d 3688 613e d7d6 643d bae8 dc3d
00000030: 277f afbc 95a1 43bc b481 7d3d 9794 953d
00000040: 769e 923b de4b cabd 8596 b7bc 1dbd 96bd
00000050: 739e 7abe 3ce3 533d 4a3b 0f3e 5800 c23d
00000060: d5ec 7e3c bf7f 9fbd 3ef3 a1bd 6305 cbbd
00000070: fb58 ea3d 1974 5bbd 37c6 8bbd 5441 11bd
00000080: e6dd 03bc d4db 4c3d 0d00 d6bb e365 2c3e
00000090: 456d bcbe be39 94be a8c2 c2bc 0923 84bd
000000a0: 6c89 193e b36f 3dbc 3715 7bbd ccee 7d3e
000000b0: 8361 1f3e 0176 073d 9b01 683e dcca babd
000000c0: 4abb 1e3e b738 1fbe 6a38 b8bd 3577 14bd
000000d0: 94f5 34bd d949 5cbe 43c2 a13d fe31 90be
000000e0: 4d9f 133d 29eb b5bc 2ed4 8ebd 76cf 90bc
000000f0: 09ac cd3d e3fb edbd 092c b83d a1f5 14bc
00000100: af47 293e aebb ec3d 5673 213e b21e 3cbd
00000110: 874c 1b3e e6b4 963c 7a1d 983c ff7f 533c
00000120: 4095 ecbd 934e 213e bca6 863d 7d99 a7bd
00000130: 7e19 78be 9d7a 13bd 2ed3 d13b e2bc 103e
00000140: 8c54 d03c c86a 3ebd 5264 293e 1da5 18bd
00000150: cd08 51bd af30 0cbe a700 e43c 6ad0 80be
00000160: d1d1 40be 30fa a03b 4e87 a83d c931 5a3d
00000170: 83d3 96bc e06e 63bd c250 143e e65e 0dbd
00000180: 3810 e0bd deca 18bd 6b92 22be 99ac f5bc
00000190: 4eaf 1cbe bb3b 223e f000 2ebd 7365 84bd
000001a0: b0c0 80bd 85bc a0bd 7776 c53c 0362 89be
000001b0: 3e8f c83c f7e5 193e 3625 8c3e e0ae b4bd
000001c0: 70ab c1bb 2b9c 36be 7ab9 89be c608 77bc
000001d0: 8297 85be 293e 5e3e 8542 9dbc f6b6 68bd
000001e0: 1c16 46bd f0bb 46be 50b4 37be 0041 d939
000001f0: ee19 573d 4fa7 803d 8b48 3bbe 5482 993d
00000200: 407b 8cbd 290c b2bc 12b0 b0bd 81a8 1fbc
00000210: 22ab 0d3c 2e30 37be 9b82 ec3c 59e6 953e
00000220: f43b e83d cb32 f63d 1f7a dfbd 79aa 28bc
00000230: c401 d9bd f220 d3bd 3f5f 60bc 9761 99bd
00000240: 3e40 df3d 7e91 eabd 4362 73bc db21 14be
00000250: 9836 843d 6838 c8bd f886 babc 25e5 51be
00000260: 3bdc 873d 7da7 1f3d 09b9 063e 9d4a 6b3e
00000270: 6b50 ff3c b354 973a 1679 29be 54bb 84bd
00000280: 7bfd 613b 9f6d cd3d 5c05 d9bd 7cfb f4bd
00000290: 40d9 843d 8aa3 c4bb cd1f d53c eaf8 5c3e
000002a0: 2eca 0f3e fa70 613d 6899 723d 9469 7cbd
000002b0: a4e2 a53e 63c0 f1bd dc56 e83c 6de8 79bd
000002c0: 2cb3 63bb 1d00 8fbe a75c f53d b48b 18bc
000002d0: 6efa 81bd 7271 163e 46a0 d0bd a344 953d
000002e0: 553d 633e 7c32 303e 57fe 65bd 8779 29be
000002f0: 74ad c9bd 4925 afbd 39ba 853e 941c 12be
00000300: 2715 173e 3914 53be 7d2e c23d f519 21be
00000310: cda1 ac3d b773 d73d bd56 4f3d b259 c53d
00000320: 835d ffbd 92ca e0bc 23ae bebd 1933 6d3d
00000330: 2afe 1abd 800a 1cbd a7d1 0fbe c131 173c
00000340: 5ed3 723d 17e6 593c d55e 603c e9f0 8abd
00000350: 6414 713e f6bb 123d 2f9b 3cbe f1c2 a2bd
00000360: 1f22 493d 0e11 58be 44b7 c8bc 6d7c 713d
00000370: 66a8 16bd 2b63 83be 8efc a53d 5534 88bc
00000380: 63c5 32be dac8 51bd bcb1 a63b ad11 7a3d
00000390: 66e5 473d 0af9 983b 86c6 87bd e80b fabd
000003a0: 4eee 44bd de48 363e 3938 35be c3da a93e
000003b0: 0a49 f63c c5fa 823b c25f b63c 68f8 1cbd
000003c0: 9ab1 d93d 9493 be3b e279 d33d 047e 76bd
000003d0: f05e a5be 825e 2bbe c990 81bd bbe8 073e
000003e0: 6aa1 dabc b641 0c3e 7818 b7bc 36cb 7d3c
000003f0: b563 a6bd 92cb bd3e 1ef5 3f3c 1a15 983d
0.19012013 -0.20945121 -0.09788427 0.023434663 -0.052178096 -0.031006929 -0.17485237 -0.019875633
0.0472426 0.22024617 0.05586895 0.107865766 -0.021422936 -0.01194038 0.061891273 0.07303732
0.0044744564 -0.09877752 -0.02241064 -0.07360289 -0.24474506 0.05173038 0.1398746 0.09472722
0.015559395 -0.077880375 -0.07907723 -0.09913137 0.11442753 -0.053577516 -0.06824916 -0.035462692
-0.00804851 0.050014332 -0.006530768 0.16835742 -0.36802116 -0.28950304 -0.02377446 -0.06451995
0.14993829 -0.011562276 -0.06129953 0.24798125 0.15564542 0.03307152 0.22656862 -0.091207236
0.15501133 -0.15548979 -0.08995135 -0.036246497 -0.044179514 -0.21512546 0.078983806 -0.2816314
0.036040593 -0.02220686 -0.06974064 -0.01767705 0.10042579 -0.11620309 0.08992774 -0.009091766
0.16531251 0.115592346 0.15766653 -0.04592771 0.15165912 0.018396806 0.018568743 0.012908935
-0.11551905 0.1575263 0.06574771 -0.081835724 -0.24228474 -0.036005605 0.0064033484 0.14134553
0.02543094 -0.046488553 0.16542175 -0.03726684 -0.051033784 -0.13690446 0.027832342 -0.25159007
-0.18830039 0.004912637 0.08228932 0.053270135 -0.018411404 -0.05552566 0.14483932 -0.03451433
-0.109405935 -0.037302844 -0.15876167 -0.029989528 -0.15301248 0.15843098 -0.042481363 -0.064646624
-0.06286752 -0.07848457 0.02410434 -0.2683259 0.024482366 0.15029131 0.2737214 -0.08822417
-0.0059103295 -0.17833011 -0.2689932 -0.015077775 -0.26092154 0.217034 -0.019196758 -0.05681511
-0.04836093 -0.1940763 -0.17939878 0.00041437894 0.052514963 0.062819116 -0.18289392 0.07495561
-0.068594456 -0.021734314 -0.08627333 -0.009744764 0.008646758 -0.17889473 0.028870871 0.29277304
0.1133956 0.12021407 -0.109119646 -0.01029455 -0.1059604 -0.10309018 -0.013694583 -0.07489317
0.10900925 -0.11453532 -0.01485497 -0.1446604 0.064557254 -0.09776384 -0.022769436 -0.20497568
0.066338025 0.03897809 0.13156523 0.22977681 0.031166276 0.0011545628 -0.16550097 -0.064810425
0.0034483362 0.10030674 -0.10596725 -0.11962029 0.0648675 -0.0060009407 0.02601614 0.21579328
0.14041969 0.055039383 0.05922833 -0.061624125 0.32399476 -0.11804273 0.02836173 -0.061012674
-0.0034744246 -0.27929774 0.11980563 -0.009310652 -0.06346594 0.14691713 -0.1018682 0.07288482
0.22191365 0.17206758 -0.05615076 -0.16550265 -0.09847537 -0.085520335 0.2611864 -0.14268714
0.14754163 -0.20613183 0.09481523 -0.15732558 0.084292985 0.10520118 0.05061983 0.09636249
-0.12469008 -0.027440343 -0.09310558 0.05791006 -0.037840046 -0.03809595 -0.1404482 0.009228171
0.059283607 0.013299487 0.013694485 -0.06784231 0.23542935 0.035823785 -0.18418573 -0.07947338
0.049104806 -0.21100256 -0.02450145 0.058956552 -0.03678169 -0.25661597 0.081048116 -0.016626516
-0.1745811 -0.051216938 0.0050871056 0.061052013 0.048802756 0.0046683596 -0.06629662 -0.12209302
-0.048078828 0.17801234 -0.17697228 0.33174714 0.030064125 0.003997179 0.022262458 -0.038322836
0.10629578 0.0058159325 0.10325982 -0.06017877 -0.32298994 -0.1673527 -0.06326444 0.13272373
-0.026688296 0.13696942 -0.022350535 0.015490344 -0.08124486 0.37069374 0.011716155 0.074259

critic.0.bias f4 [32]
00000000: 9add 2ebc 3316 99bc ec56 b4bc 85d5 d4bc
00000010: 8bb0 833e 9ece 6e3e ee4a 8fbc 71f0 9e3e
00000020: 0000 0000 7959 44bc 34fa ad3e 7390 8a3e
00000030: 5c4e 863e e8b3 03bc a156 8b3e eee0 60bc
00000040: 887d 863e 8abc 98bc 5575 dabb 7d6c 703e
00000050: d2b2 953e d1a0 8a3e fa20 823e c020 793e
00000060: 3e30 803e 0c31 a73e fdc3 883e c5d5 773d
00000070: 678e 793e ebf0 ebbb 94e3 8d3e 68d5 9b3e
-0.010672951 -0.018687343 -0.022014104 -0.02598072 0.2572063 0.23321006 -0.017491784 0.31042817
0.0 -0.011984223 0.33979952 0.2706333 0.26231658 -0.008038498 0.2721453 -0.013725502
0.26267648 -0.01864459 -0.006666819 0.23478885 0.29237992 0.27075818 0.25415784 0.243289
0.25036806 0.32654607 0.26712027 0.0605066 0.24370728 -0.0072003505 0.2771269 0.30436254

critic.2.weight f4 [1, 32]
00000000: 9aa8 a03b d80c f43d dc0e cc3c c8d1 183e
00000010: 1f25 efbe bd57 b7be 7b01 173c 1dbe 9cbe
00000020: 1efc 4e3e 0022 3d3e 3cd0 90be a0a5 bebe
00000030: 2b50 05bf 14a9 943c 8ec0 c1be 4fba f83c
00000040: 8ddd babe 7800 b73d 9f00 133d 785b dfbe
00000050: 4f26 10bf 1f28 12bf c322 0fbf aeee e8be
00000060: 5427 d6be e19f babe 397d c8be d97e 733f
00000070: 54e2 e4be 4751 ce3e b134 d1be f92a 03bf
0.0049029114 0.11916512 0.02490943 0.14923775 -0.4670801 -0.35809126 0.009216662 -0.30613795
0.20213363 0.18470001 -0.2828387 -0.37235737 -0.5207545 0.018147029 -0.3784222 0.030362276
-0.36497155 0.08935636 0.035889264 -0.43624473 -0.56308454 -0.5709247 -0.5591242 -0.45494598
-0.4182688 -0.36450103 -0.39158037 0.9511543 -0.44703925 0.40296385 -0.40860513 -0.51237446

exp_avg f4 [64, 12]
00000000: 75d9 8dba 364f 9738 347f e2ba 7c90 ef39
00000010: d52b 2239 4789 a434 2a21 04b5 364f 9738
00000020: 7602 8eb9 d207 f8b9 6b3c 18ba 246a 63ba
00000030: 7219 0abb ee0a 1fb9 79b6 27bb 5a0b a035
00000040: b7ba 21ba 07a2 19bb 8479 b3b8 ee0a 1fb9
00000050: 424b 35ba 767b 1eba 2d3c 04bb 98f4 00bb
00000060: 0400 0080 0400 0080 0400 0000 0400 0080
00000070: 0400 0080 0400 0080 0400 0080 0400 0080
00000080: 0400 0080 0400 0080 0400 0080 0400 0080
00000090: 62af 8d3a 838b e238 a430 3b3a a10c 4039
000000a0: c1ce 0a39 d39d 493a a1c6 bd38 838b e238
000000b0: bdb3 41b7 254e 45ba 2b04 7f38 55e4 bd3a
000000c0: ae34 8f3b 46fe 0b3b 7405 7d3b 1d52 b43b
000000d0: 311c 823b ac53 5d3c 244d 6f3a 46fe 0b3b
000000e0: 05b4 f73b b3a9 ae3b 68d0 163c 846f b13b
000000f0: 76c6 a032 0400 0000 0400 0000 76c6 a032
00000100: 76c6 2033 18f8 4834 0400 0000 0400 0000
00000110: 0400 0000 0400 0000 0400 0000 76c6 a032
00000120: 0e19 c0ba d62b 1eba 08a4 68bb 0e99 8fba
00000130: 3f48 5cba 1933 6abb 638e a3b9 d62b 1eba
00000140: 8291 0cbb 4299 c2ba 1adb 57bb 5e8c 00bb
00000150: 0400 0000 0400 0000 0400 0000 0400 0000
00000160: 0400 0000 0400 0000 0400 0000 0400 0000
00000170: 0400 0000 0400 0000 0400 0000 0400 0000
00000180: 9bd4 b23a 27b4 4cb9 3c7f 583b d54c 6bbb
00000190: 2595 18bb 7143 29bc f362 de38 27b4 4cb9
000001a0: 4a73 dc3b 18ad d73b 29cc ce3b 6d05 193a
000001b0: 9136 dc3a 2751 0b3a 0022 1dba 64c4 643b
000001c0: 2504 1c3b 6b84 f23b 3e07 ae38 2751 0b3a
000001d0: 83be a439 a54d 273a f2f0 9c39 a295 c63a
000001e0: 76be 343a a424 0a3a 6f59 29bb e12a c13a
000001f0: 88cc 663a 0bcd 8c3a 6c90 5e39 a424 0a3a
00000200: 1b3b 233b 373e de3a 1c2e 293a 5547 a53a
00000210: bd85 d3ba 7838 18b9 772e 09bb c03b 94b8
00000220: b16f e0b9 b54d 0ebb 8cfa 9ab8 7838 18b9
00000230: cc18 e3b9 0670 d2b9 a53e 02bb d4a2 aaba
00000240: e0f6 503a e518 9739 c16f ba39 1268 3d3a
00000250: 8bfb 1c3a bad3 eb3a cb7b 1339 e518 9739
00000260: f4b1 993a eff3 4d3a 944d ae3a 0e42 8b3a
00000270: df43 c13a bf5b ce39 e9ff 5439 623e 823a
00000280: ab3a ed38 9e46 a23a 6cb3 2b39 bf5b ce39
00000290: bde8 263a bfa4 7a37 7338 d3ba 4f47 213b
000002a0: dc94 75ba 4ea3 b739 b627 fdba 4cc6 753a
000002b0: 7734 1539 4e74 b539 a239 a738 4ea3 b739
000002c0: dc92 11ba a95d 93ba 288d 91b9 12b8 eeb8
000002d0: 6ba9 2b3b 6a3c b43a c773 8f3b dfa5 033b
000002e0: fa82 ed3a e71b c33b 11c4 073a 6a3c b43a
000002f0: 5e85 593b 84a3 2c3b d73f 8c3b b54a 483b
00000300: 1dc0 943a 3f9c 9839 14e9 e1b9 43ba 863a
00000310: c080 1939 488a 863a 6689 0a39 3f9c 9839
00000320: f597 be3a e282 803a 7de3 9aba ee43 a83a
00000330: 0000 0000 0000 0000 0000 0000 0000 0000
00000340: 0000 0000 0000 0000 0000 0000 0000 0000
00000350: 0000 0000 0000 0000 0000 0000 0000 0000
00000360: ce61 f639 2381 063a 459d 473a db81 bd3a
00000370: d75d ff39 4fc6 663a 71c3 8939 2381 063a
00000380: ce57 2e3b 1f6f 113b 22f5 183a abae 423a
00000390: 7639 343b d201 e33a 03d3 593a 7af6 a93b
000003a0: 8d21 713b f063 243c 590b 463a d201 e33a
000003b0: 34a6 ed3b af29 bc3b 6f11 a53b f063 8c3b
000003c0: 1109 a93b 4714 6a3a 51c6 bd3a 06aa 463b
000003d0: 4b42 443b 20f1 fd3b ab55 f439 4714 6a3a
000003e0: 3d03 6c3b 5127 793b a5ce 2c3b 854f af3b
000003f0: bf47 293c 525d f7b8 9e09 ed3b 5b3d 073b
-0.0010822254 7.214995e-05 -0.0017280341 0.00045693282 0.00015465853 3.0647263e-07 -4.922209e-07 7.214995e-05
-0.00027086184 -0.00047308073 -0.0005807343 -0.0008675179 -0.0021072295 -0.00015167493 -0.002559094 1.1924233e-06
-0.0006169485 -0.0023442523 -8.558019e-05 -0.00015167493 -0.00069158163 -0.0006045619 -0.002017747 -0.001967704
-6e-45 -6e-45 6e-45 -6e-45 -6e-45 -6e-45 -6e-45 -6e-45
-6e-45 -6e-45 -6e-45 -6e-45 0.0010809714 0.00010802506 0.0007140732 0.00018315252
0.00013237727 0.0007691059 9.04922e-05 0.00010802506 -1.1545545e-05 -0.0007526598 6.080062e-05 0.0014487604
0.0043702936 0.0021361276 0.0038607987 0.0055029527 0.003970646 0.013508718 0.00091286213 0.0021361276
0.007559302 0.0053302883 0.009204961 0.005414905 1.8716701e-08 6e-45 6e-45 1.8716701e-08
3.7433402e-08 1.8716707e-07 6e-45 6e-45 6e-45 6e-45 6e-45 1.8716701e-08
-0.0014655904 -0.0006033754 -0.003549816 -0.0010955648 -0.00084030995 -0.0035736023 -0.0003119587 -0.0006033754
-0.0021449034 -0.00148467 -0.0032936991 -0.0019614915 6e-45 6e-45 6e-45 6e-45
6e-45 6e-45 6e-45 6e-45 6e-45 6e-45 6e-45 6e-45
0.0013643684 -0.00019522068 0.0033034822 -0.003590395 -0.0023282256 -0.010331021 0.00010604216 -0.00019522068
0.0067276107 0.0065819137 0.006310959 0.00058372953 0.001680093 0.0005314522 -0.0005994141 0.0034907097
0.0023806181 0.0074010394 8.2983155e-05 0.0005314522 0.0003142246 0.00063821144 0.00029934157 0.0015150795
0.0006894836 0.0005269742 -0.002584066 0.001473751 0.0008804281 0.001074226 0.00021225371 0.0005269742
0.0024907056 0.0016955797 0.0006453709 0.001260976 -0.001613788 -0.00014516886 -0.0020932236 -7.068319e-05
-0.00042807826 -0.0021713797 -7.38996e-05 -0.00014516886 -0.0004331529 -0.00040137785 -0.0019873765 -0.0013018497
0.00079713576 0.00028819512 0.00035559948 0.00072252855 0.00059884106 0.0017992177 0.00014065129 0.00028819512
0.0011726008 0.00078564783 0.0013298267 0.0010624544 0.0014744959 0.00039359738 0.0002031323 0.0009936804
0.000113119684 0.0012380665 0.0001637467 0.00039359738 0.0006367078 1.4939519e-05 -0.0016114846 0.0024609154
-0.000936819 0.0003502615 -0.0019314203 0.0009375557 0.00014229292 0.00034609664 7.9739155e-05 0.0003502615
-0.0005553195 -0.0011243123 -0.00027761725 -0.0001138301 0.002619351 0.0013750915 0.0043778154 0.002008788
0.0018120699 0.005954254 0.00051790575 0.0013750915 0.0033191065 0.002634258 0.0042800712 0.0030562107
0.0011348758 0.00029108112 -0.00043089 0.0010278899 0.0001463918 0.00102646 0.0001321189 0.00029108112
0.0014541136 0.0009804631 -0.0011817064 0.0012837627 0.0 0.0 0.0 0.0
0.0 0.0 0.0 0.0 0.0 0.0 0.0 0.0
0.00046993647 0.0005130937 0.00076146825 0.0014458256 0.00048707306 0.0008803354 0.00026276291 0.0005130937
0.0026602629 0.0022191477 0.00058348675 0.000742654 0.002750007 0.0017319268 0.0008309336 0.005186853
0.003679368 0.010033593 0.00075547915 0.0017319268 0.007252479 0.0057422738 0.0050374786 0.0042843744
0.0051585515 0.0008929413 0.0014478659 0.0030313744 0.002994674 0.0077496916 0.00046603134 0.0008929413
0.0036012672 0.003801782 0.0026368287 0.0053500556 0.010332047 -0.0001179526 0.0072338125 0.0020635936

exp_avg_sq f4 [64, 12]
00000000: 7aa8 a738 f474 9735 5c7c d938 ac27 b336
00000010: f96a 8b37 9eea 1439 b586 a034 f474 9735
00000020: ea39 8038 47d7 6438 19ed 3638 56e3 a838
00000030: d762 fc38 a67b a535 1084 2239 780c d536
00000040: 68d9 bc37 db54 2939 bc25 bb34 a67b a535
00000050: 0c8d b938 f0a3 ac38 4a4b 8238 9445 fc38
00000060: 0d83 8034 809f d530 3844 e62d 2625 4132
00000070: 3c0c 9e32 1e50 e133 740c d42f 809f d530
00000080: a3a5 4d2d c687 2533 0d73 2534 7446 9c34
00000090: 36aa db37 bbee b535 51fd e537 8749 b236
000000a0: 4d7b 1737 1a5f 9238 21d7 a334 bbee b535
000000b0: 7da7 0938 d459 d337 e0df 0538 3158 fa37
000000c0: 30bc c339 12e2 8a37 5dce c839 c1bd 5c38
000000d0: 74c8 bd38 a940 d839 9bb9 6336 12e2 8a37
000000e0: cc60 ae39 6cba 7e39 847e 8939 971d d239
000000f0: dabf 2536 72b3 6432 9ce6 3b2f 0f72 2c34
00000100: 4e7b d934 8a1d db36 2f3e 7e31 72b3 6432
00000110: f456 5735 a70e 4335 e62e 1935 8e7f 2c36
00000120: b1a4 b338 98b5 5436 252f b338 8b99 2837
00000130: 14fe 8837 4297 e538 225d 2a35 98b5 5436
00000140: 6197 8c38 0e4f 5338 a8c6 3238 7019 c438
00000150: 3027 a128 1059 8624 1e3f 8028 b631 e525
00000160: 6d57 b926 369d ec27 f32c 6120 1059 8624
00000170: bfa5 3324 9a01 4d23 9926 3124 f137 a128
00000180: 7f27 5739 9bf5 9637 93f7 913a d6a0 a838
00000190: 2e4c 5539 507d c33a 8b8c bc36 9bf5 9637
000001a0: b865 963a f83c 7b3a 83e5 963a 2e2a 7239
000001b0: 8cfe f839 ebe3 6c37 c5a7 303a e09c 4d38
000001c0: cf64 d638 3788 4f3a a011 0035 ebe3 6c37
000001d0: 53d3 d337 9c6d 4537 a07e e337 8075 f739
000001e0: dd12 9d39 592c 1237 2e26 9739 6282 f637
000001f0: 1f0f 5f38 b7b4 d839 1574 0036 592c 1237
00000200: 5b26 8539 b4c9 5139 c1e6 3f39 2904 a239
00000210: 92ae 6739 3936 dc35 09ae 9639 541e 0537
00000220: 0756 1038 5e26 6939 349e 0935 3936 dc35
00000230: c4f3 1539 7573 0e39 243f b138 4f01 6739
00000240: 5bee 0a39 a46e 7835 a894 2939 134d 5b36
00000250: a820 8937 8464 9a38 d115 1034 a46e 7835
00000260: c56c 9537 c5a2 7937 f4ca 9536 89a5 0b39
00000270: 3995 2839 b050 f035 9fde 9a39 41b8 d536
00000280: 0cdf fe37 aa9d fe38 d189 3335 b050 f035
00000290: c08c 4539 547a 3c39 8da0 1439 b555 2b39
000002a0: 4e6f a038 e6c7 c935 a641 e038 850a c236
000002b0: ed22 7937 3292 dd38 f4e3 0035 e6c7 c935
000002c0: 8272 db38 f99d c838 0b36 ae38 b519 a338
000002d0: faf7 fb37 50f5 2936 8596 a138 2de2 db36
000002e0: 0804 3a37 553b 8638 ad10 4c35 50f5 2936
000002f0: dff2 ba38 b953 6b38 6177 a338 80b6 2e38
00000300: d851 4039 67ca 0636 dd81 aa39 be15 0937
00000310: 15b4 1438 e159 3b39 bdd7 4535 67ca 0636
00000320: 6d03 5639 5413 4d39 083e 2239 a4d5 4139
00000330: 0000 0000 0000 0000 0000 0000 0000 0000
00000340: 0000 0000 0000 0000 0000 0000 0000 0000
00000350: 0000 0000 0000 0000 0000 0000 0000 0000
00000360: 993f e239 0be8 7c36 a824 0d3a fd7f 6f37
00000370: 4abb 7c38 2770 b139 af07 7235 0be8 7c36
00000380: 7ca1 3539 a51e 2039 4fa8 6338 f7b9 e339
00000390: 245c d739 3abe 3337 b070 8d37 5231 7c38
000003a0: 5eed d338 de56 393a 3233 2236 3abe 3337
000003b0: 6492 b039 996f 8739 f492 8039 0bc6 de39
000003c0: 2322 ad38 e9bd 8836 fe41 7f38 441c 8f37
000003d0: 4d44 e237 2cdf 1539 5308 9735 e9bd 8836
000003e0: 72b9 0f39 36c5 fb38 9665 e038 77c6 bf38
000003f0: 0b76 673b 3789 0838 ea97 783b 684b 3b39
7.994562e-05 1.1284415e-06 0.0001037053 5.339234e-06 1.6619904e-05 0.00014201782 2.9900335e-07 1.1284415e-06
6.114303e-05 5.455993e-05 4.3612996e-05 8.053209e-05 0.00012034707 1.2329444e-06 0.00015498721 6.349346e-06
2.2512584e-05 0.00016148707 3.485892e-07 1.2329444e-06 8.8477595e-05 8.232135e-05 6.212907e-05 0.00012029256
2.393721e-07 1.5543122e-09 2.6178268e-11 1.1242525e-08 1.8399184e-08 1.0491952e-07 3.8571424e-10 1.5543122e-09
1.168968e-11 3.854054e-08 1.5408678e-07 2.9108526e-07 2.6186095e-05 1.3555031e-06 2.7416887e-05 5.313373e-06
9.02901e-06 6.9795366e-05 3.0517643e-07 1.3555031e-06 3.281933e-05 2.519499e-05 3.191817e-05 2.984339e-05
0.0003733351 1.6556154e-05 0.00038300725 5.262881e-05 9.0495596e-05 0.00041246906 3.3933673e-06 1.6556154e-05
0.00033259986 0.00024292775 0.00026224938 0.00040076367 2.4698588e-06 1.3312148e-08 1.708948e-10 1.6060243e-07
4.0509116e-07 6.5301474e-06 3.6997212e-09 1.3312148e-08 8.0220275e-07 7.266448e-07 5.706519e-07 2.5704244e-06
8.566061e-05 3.1696163e-06 8.5441665e-05 1.004933e-05 1.6330778e-05 0.00010947745 6.346546e-07 3.1696163e-06
6.703917e-05 5.0379946e-05 4.262352e-05 9.3507464e-05 1.7891586e-14 5.8264114e-17 1.4238227e-14 3.9758853e-16
1.286065e-15 6.5673607e-15 1.9073114e-19 5.8264114e-17 3.895483e-17 1.1113411e-17 3.841345e-17 1.7898851e-14
0.00020518711 1.7995762e-05 0.0011136405 8.040822e-05 0.00020341642 0.0014914665 5.619198e-06 1.7995762e-05
0.0011474406 0.0009583975 0.0011512492 0.00023094632 0.00047491898 1.4119762e-05 0.0006738867 4.902191e-05
0.00010223092 0.0007916721 4.7709364e-07 1.4119762e-05 2.5251566e-05 1.1767635e-05 2.7119473e-05 0.00047199056
0.00029959428 8.712604e-06 0.0002882941 2.93862e-05 5.3181426e-05 0.00041333374 1.9141055e-06 8.712604e-06
0.00025396314 0.00020006933 0.00018301142 0.00030902147 0.00022094909 1.6407058e-06 0.00028739896 7.934479e-06
3.4412395e-05 0.00022234904 5.1266693e-07 1.6407058e-06 0.00014300557 0.00013585186 8.4517786e-05 0.00022030364
0.000132495 9.25482e-07 0.00016172475 3.2678406e-06 1.634688e-05 7.362015e-05 1.3418982e-07 9.25482e-07
1.7812834e-05 1.4879454e-05 4.464173e-06 0.0001331774 0.00016077318 1.7904877e-06 0.00029539035 6.3693446e-06
3.0383024e-05 0.00012141031 6.6883246e-07 1.7904877e-06 0.00018839817 0.00017974648 0.0001417419 0.00016339759
7.650127e-05 1.5033845e-06 0.0001069338 5.782875e-06 1.4849688e-05 0.00010565332 4.801543e-07 1.5033845e-06
0.000104640625 9.566168e-05 8.307033e-05 7.777234e-05 3.0037005e-05 2.5325753e-06 7.705115e-05 6.553039e-06
1.10874025e-05 6.4006694e-05 7.602019e-07 2.5325753e-06 8.9144094e-05 5.610634e-05 7.794682e-05 4.16548e-05
0.00018341036 2.008537e-06 0.00032521682 8.170899e-06 3.5453664e-05 0.00017867192 7.370216e-07 2.008537e-06
0.00020409907 0.00019557524 0.00015472632 0.00018485502 0.0 0.0 0.0 0.0
0.0 0.0 0.0 0.0 0.0 0.0 0.0 0.0
0.00043153463 3.7685993e-06 0.00053841854 1.427531e-05 6.025591e-05 0.0003384363 9.0163206e-07 3.7685993e-06
0.00017321663 0.00015270205 5.4277767e-05 0.0004343537 0.00041076646 1.0713522e-05 1.6860984e-05 6.0127415e-05
0.00010105477 0.0007070134 2.416968e-06 1.0713522e-05 0.00033678405 0.00025832353 0.0002452355 0.00042490693
8.255641e-05 4.0752243e-06 6.0858198e-05 1.706009e-05 2.6973104e-05 0.00014292885 1.1252799e-06 4.0752243e-06
0.00013706626 0.00012005346 0.00010700074 9.144557e-05 0.0035318162 3.2552718e-05 0.0037932345 0.00017861801

exp_avg f4 [64]
00000000: d711 40b9 bf73 35bb 0400 0080 dd23 6a3a
00000010: 6830 743c 18f8 4834 670a 88bb 0400 0000
00000020: bd61 d3bb 77a3 213c f382 be3a f097 11bb
00000030: 6a6f 143b ce88 ce3a bb3f 8fb8 c517 ee3b
00000040: 018c b83a 0000 0000 6301 1d3b 4192 253c
00000050: 6da2 2a3c 750a c63c 6235 c1bb 9ca4 62bb
00000060: 47d1 163c 0ed6 b43a 3db7 0a3c 0400 0000
00000070: 5b9d 943b 67e6 94bb cca2 df3b 2494 d3ba
00000080: 4efc 4d3c 5eb3 81bb 57b0 343b 87e7 503a
00000090: 8e26 df3b 8edd 6dba 6846 eb3b a185 3ebc
000000a0: 8749 813b 0000 0000 03d6 0cb9 f8df fe3b
000000b0: 145a dc3b 899c 163c e0d7 ff3b 2413 233c
000000c0: fbc9 b03b f925 d839 10b2 adb9 825a adbb
000000d0: 8a6b 793b c4c3 94b9 df58 7b3b 25e9 90bb
000000e0: 0000 0000 7707 47bb 4e82 bb3a 3750 1c3b
000000f0: f143 2d3c 0400 0000 453c 933c b140 a43a
-0.00018317193 -0.0027687398 -6e-45 0.00089317356 0.014904119 1.8716707e-07 -0.0041516307 6e-45
-0.0064508603 0.009865633 0.0014534876 -0.0022215806 0.0022649416 0.0015757324 -6.830642e-05 0.007266017
0.001407981 0.0 0.0023957125 0.01010567 0.010414702 0.024174908 -0.0058962563 -0.0034582978
0.009205169 0.0013796703 0.008466539 6e-45 0.00453536 -0.0045440677 0.006824827 -0.0016142172
0.012572361 -0.00395815 0.0027570927 0.00079690706 0.006810016 -0.0009073847 0.007180024 -0.011628539
0.0039455327 0.0 -0.00013431166 0.007778164 0.0067246053 0.009192594 0.0078077167 0.009953294
0.0053951717 0.00041227022 -0.00033129798 -0.0052903304 0.0038058483 -0.00028374617 0.0038352532 -0.0044223242
0.0 -0.003036944 0.0014305802 0.0023851523 0.0105752805 6e-45 0.017973075 0.0012531487

exp_avg_sq f4 [64]
00000000: 2f4e 5539 3396 8a39 6a58 e734 9481 ca38
00000010: 458e 733a 5b31 f836 5e58 4d39 843c ce28
00000020: c4d5 173b 0c60 a23a 45e8 253a a7e0 d439
00000030: 51ba 4239 125f b239 0173 3d39 9651 0039
00000040: 0809 d239 0000 0000 8589 343a 1e02 8d3a
00000050: fa58 9739 8869 f73b a63a 3c3b 3431 3c3a
00000060: 3d17 d83a e166 8f3a 8584 613a f401 0000
00000070: 8770 aa39 a398 8539 235f 0b3a 895e c03a
00000080: d13c 843a e625 6c39 0cbb 5439 6d9d 483b
00000090: 670d 473a 5d6b 9839 1221 3b3a e9c7 833b
000000a0: c473 623a 0000 0000 e7c6 153a 19b0 333b
000000b0: f6df d539 0272 713a 96b1 173a e734 f93a
000000c0: 062c 0e39 3c45 8f38 cec4 db38 73b4 793a
000000d0: 9452 343a e6b5 8839 d412 293a 4465 b83a
000000e0: 0000 0000 144d 783a 1db1 0f3b ca72 ee39
000000f0: 84e9 8f3a 3b3f 3534 ee08 6e3b ebac 4c39
0.00020342389 0.00026433318 4.3091433e-07 9.6562464e-05 0.0009290914 7.3967217e-06 0.00019583243 2.2896839e-14
0.0023168186 0.0012388243 0.00063288613 0.0004060317 0.0001857069 0.0003402164 0.00018067287 0.00012237424
0.0004006105 0.0 0.0006886947 0.0010758077 0.00028867257 0.007550422 0.002872148 0.00071789627
0.0016486418 0.0010940694 0.0008602816 7e-43 0.00032508766 0.0002548146 0.00053166057 0.0014676611
0.0010088925 0.00022520832 0.00020287576 0.0030611411 0.00075932447 0.0002907169 0.0007138412 0.004021634
0.0008638466 0.0 0.00057135377 0.0027418195 0.0004079339 0.0009210409 0.0005786655 0.0019012959
0.00013558575 6.831667e-05 0.000104793915 0.0009525485 0.000687876 0.00026075466 0.0006449644 0.0014068265
0.0 0.0009471935 0.0021925636 0.00045480422 0.0010979627 1.6879942e-07 0.003632124 0.00019519373
