models/checkpoint_30000.pt (torch, 125817 bytes, 33 tensors)

shared.0.weight f4 [64, 12]
00000000: da0f 1dbe 64cb 553e 4182 523e 0450 cb3e
00000010: 2ebf a8bd 470b 05be 0441 ae3b 138c eb3c
00000020: 5737 cf3c 2531 b43d ef32 c93c 2e9b ef3d
00000030: bd4c 3f3c 4a96 ac3d 4f62 43be 81be bf3e
00000040: 6a76 40bc b459 a2bd 3f00 713e 4f98 9f3e
00000050: 61c3 723d 8f7d fd3b cbd1 8bbc 748e 463b
00000060: 1c6d 643d 7a84 50be 59d6 00bd 197e a8bd
00000070: 91e7 33be f70b 863d 5088 26bd 3212 26be
00000080: 056f 35be 847f 6bbd 80a9 be3d c600 f13d
00000090: e39c 49bd 8ef8 a0be dd7f 67bd e263 483e
000000a0: 0d90 193c ef1f 2a3e c6f3 153e 940b 5b3c
000000b0: 4700 bdbd 9fd1 833d 123c 2d3e 0386 ca3d
000000c0: a80e 5a3e ce58 a2be 925b db3d 43af adbe
000000d0: ffd2 4ebe d58a 613d fd6a a7be 96ba 2cbe
000000e0: 980e ef3d b345 163e dee0 e3bd 7993 e5bd
000000f0: 8bb0 d7bd f219 e5bd 05ca 7bbd b46f ad3c
00000100: 72c7 66bb b727 1b3e 8d33 40be ea7e 31be
00000110: 511d eabc 1273 1dbd fede 55bd b66b 653e
00000120: 7874 94bd e7f9 8c3e a5e0 763d 8fb1 573e
00000130: 230c 4bbe 9711 babd 101c 293e cd88 543d
00000140: 0d6c 283e d977 a23d c570 9cbd 6b36 0d3e
00000150: 760e 1e3e cc8a 35be 9155 bf3d bb77 04be
00000160: 7927 a2be 0a23 e6bb 9925 87be ef00 92bd
00000170: b1e2 a53d ac1e 56be f7d3 313e 848a 203e
00000180: 5e94 e3bd 4835 0ebe 31d4 303d 88a5 8239
00000190: ae6a 893e 6342 8c3d cc5a 0abf e8f1 28bd
000001a0: 393f 523e bee7 1f3e a0a3 fd3b 72c9 8bbe
000001b0: 8e03 a63d 697e 423e 131e d13d 5e1b 643d
000001c0: 3e01 5bbe 5366 503d 58bb 86be c14e 243d
000001d0: e113 0abe 6a08 7b3d 4998 a5bd 2330 8ebe
000001e0: 82f2 ddbd 1527 533e be81 d5bc 694b 993e
000001f0: 9713 8ebe 10de 97bd bc9c 893d ac88 623d
00000200: 2f2a 9f3d 25ab 843d b4d8 f03d 86d5 353e
00000210: 251a 5dbe 5a39 8f3e b810 1a3e 4b42 c83e
00000220: 9b96 fbbd 8782 b4bd f946 633e 8062 2a3e
00000230: 729f 043e 1351 b63b 4d52 0a3e e1e3 3a3e
00000240: 81bb 04be 0eb0 8d3e 5e67 d6bc ddc7 8e3e
00000250: 2c6f 1fbe 46e7 8f3e 2da4 e53d 0013 023c
00000260: e54f 323c e453 9ebd 7571 c8bd 3bca 9f3d
00000270: 3ae5 8fbe 993e a2bc f6ee 5abd 5d03 133e
00000280: 6c49 5c3d 5ea8 043e 1716 9c3e d73a 623e
00000290: bc57 dd3d 78a4 63be 6b7f 793d a296 8b3e
000002a0: 4ee6 babd 03aa f43c 9fb8 09be 62c4 9f3e
000002b0: 2543 d2be ffdf d43d 40f2 f93d 356d 81bd
000002c0: 7112 573d 4a4c 34bc 5aba 8b3e 6ff8 273e
000002d0: 1b15 74bc df7a 83bd e42f 093e 72bf 333d
000002e0: b8cc 91be dcd4 c839 0025 473d baa6 a43c
000002f0: f574 833e 6d4c cbbc ebfd 253e 28d8 283c
00000300: af9e 03be 04a5 193e c48e 953c a114 7f3e
00000310: f8a1 0cbe 803a eb3b 195b a63d 43b0 dc3e
00000320: 1044 0abe 4f47 04bc 62be be3c 874f 403e
00000330: 5e0c 993c 7003 823c bade 24be 6c18 8ebd
00000340: 45a9 1abe 835a 15bd 7bf6 303d 3b36 65bd
00000350: 06ab 86bd c762 c5bd 31c7 96bd 38ed 01bd
00000360: 8bcd 2fbe da8a 2c3e f572 013e 2499 2e3e
00000370: 50fd e13c b8ca d43d 0d0a 913d ed34 433e
00000380: 90d0 39bc f89f 873d 92a6 acbe ddfe 1fbe
00000390: 0834 733e ba7e aabe b727 01bf 273a a23e
000003a0: daca c83d 4951 9cbd d34a a9be d2aa 8cbe
000003b0: 57f7 aa3d 34a2 e33d 15c7 1abe 6137 d3bd
000003c0: f8c0 463e 0757 18be 0f12 8cbe 533d a83c
000003d0: 1cc4 a9be 514f 933e 5d71 87bd 9e3d bcbd
000003e0: 63e0 18bc a580 8a3e 06ed c1bc ac91 03be
000003f0: 4061 833e ad13 0abf a33d 163d 1527 fcbe
-0.15338078 0.20878369 0.205575 0.39709485 -0.0823959 -0.12992583 0.005317809 0.028753316
0.025294943 0.08798436 0.02456042 0.1169952 0.011676011 0.08427103 -0.1908047 0.3745003
-0.011746982 -0.07927266 0.2353525 0.3117089 0.05926836 0.007735915 -0.01706781 0.003029731
0.055768117 -0.20363036 -0.031454418 -0.08227176 -0.17568804 0.06545251 -0.04065734 -0.16217878
-0.17718132 -0.057494655 0.09309673 0.11767726 -0.049221884 -0.31439632 -0.056518424 0.19569352
0.009372723 0.16613744 0.14643773 0.01336946 -0.092285685 0.064364664 0.16917446 0.09888842
0.21294653 -0.31708378 0.10710825 -0.33922777 -0.20197676 0.05506404 -0.32698813 -0.16868052
0.116727054 0.14675026 -0.111268744 -0.11209769 -0.1053172 -0.11186589 -0.061471958 0.021171428
-0.0035214094 0.15151869 -0.18769665 -0.1733357 -0.028578432 -0.038439818 -0.052214615 0.2240437
-0.07248777 0.2753441 0.06027283 0.21063827 -0.19828849 -0.09085386 0.16514611 0.051888276
0.16447468 0.079330154 -0.076386966 0.1379029 0.15435204 -0.17728728 0.09342492 -0.12936299
-0.3167074 -0.00702322 -0.26395872 -0.07129084 0.080998786 -0.20910138 0.17366014 0.1567784
-0.11112283 -0.13887513 0.04317111 0.00024918863 0.26839203 0.068486 -0.54044795 -0.041246325
0.2053193 0.15615746 0.007740453 -0.27302128 0.08106147 0.18993534 0.10210814 0.055690162
-0.21387193 0.050878834 -0.26314807 0.040114168 -0.13484146 0.06128732 -0.08085687 -0.277711
-0.1083727 0.20620377 -0.026062842 0.29940346 -0.2774932 -0.07415402 0.06719348 0.05530612
0.07771718 0.06477956 0.11760083 0.17757234 -0.21592005 0.27973443 0.1504544 0.39113078
-0.12284585 -0.088139586 0.22195043 0.16639137 0.12951449 0.005563864 0.13507958 0.18250991
-0.12962152 0.27673382 -0.026172336 0.2788686 -0.15569752 0.28106135 0.11212955 0.0079391
0.010883306 -0.077308446 -0.09787265 0.07802244 -0.28104573 -0.01980524 -0.053450547 0.14356752
0.053780958 0.12954852 0.30485603 0.22092758 0.1080775 -0.22230709 0.06091253 0.2726336
-0.091259584 0.029866224 -0.13449334 0.31204516 -0.41066852 0.10394286 0.12204409 -0.06319658
0.05250782 -0.011004517 0.27290612 0.16403364 -0.01489761 -0.0641992 0.13397175 0.04388375
-0.284765 0.00038305565 0.04861927 0.020099033 0.2567517 -0.024816716 0.16210143 0.010305442
-0.12853502 0.15004355 0.018256553 0.24910213 -0.13733661 0.0071786046 0.08122844 0.43103227
-0.13502526 -0.008073642 0.023284141 0.18780337 0.018682655 0.01587078 -0.16100588 -0.06938252
-0.15103634 -0.03646327 0.043203812 -0.05595992 -0.06575589 -0.09637981 -0.073622115 -0.03172037
-0.17168252 0.16849843 0.12641509 0.17050606 0.02758661 0.10390228 0.07081995 0.19063158
-0.011341229 0.066223085 -0.33720833 -0.15624566 0.23750317 -0.3329981 -0.50451225 0.31684992
0.09804316 -0.076326914 -0.330649 -0.27474076 0.083479576 0.11114922 -0.15115006 -0.10313297
0.19409549 -0.14876948 -0.27357528 0.020537054 -0.33157432 0.2877145 -0.06613419 -0.0919144
-0.009330842 0.27051273 -0.023672592 -0.12848538 0.25660133 -0.5393627 0.036679875 -0.49248567

shared.0.bias f4 [64]
00000000: 63df 413e 2bf8 853e e9e3 383e cd17 d33d
00000010: 5fcc 1e3e 25eb 573e 757f 163e 640b 253e
00000020: 2043 923d 2cbc e13d 911e 363e 7cf6 1e3e
00000030: 67ce 4c3e 630b 2f3e f8d0 bb3d 0edc 1c3e
00000040: 1f64 453e 0000 0000 a94d 063e 8d3c 293e
00000050: 08b3 813d 814a 5b3e b369 df3d 3bee 593c
00000060: 203e 6f3e 3817 673e aed4 533e 0000 0000
00000070: 800b 2e3e c963 263e bdfd 7c3e 8056 453e
00000080: d2a6 5d3e 0039 983d ca20 433e 188c 1c3e
00000090: eccf 783e cd8e 3c3e e9ac 863e 01a6 443e
000000a0: 5f20 4d3e 0000 0000 35aa 5c3e 4c66 29bd
000000b0: e9a8 3d3e 91eb 803e 68c3 143e d190 3f3e
000000c0: 35da 263e 1709 493e 40e5 fc3d ed50 d83d
000000d0: d82e 823e bb01 3f3e a083 6d3e 03a6 793e
000000e0: 0000 0000 fbcc 4e3e cf57 b3bd dd84 173e
000000f0: 9f7f 323e 6150 2e3e 45da 263e ccf3 f13d
0.18932872 0.261659 0.18055691 0.10307274 0.15507649 0.21085794 0.14697058 0.16117626
0.07141709 0.11022219 0.17785098 0.15523714 0.20000611 0.17094187 0.09170717 0.15318319
0.19276474 0.0 0.13115562 0.16527005 0.063329756 0.2141514 0.109088324 0.0133014275
0.23363543 0.22567451 0.206866 0.0 0.16996574 0.16249003 0.24706168 0.19271278
0.21645668 0.07432747 0.19055477 0.15287817 0.24298066 0.18413849 0.26303795 0.1920395
0.2003188 0.0 0.21549304 -0.041357324 0.18521465 0.25179723 0.14527667 0.18707587
0.16294177 0.19632374 0.123484135 0.1056231 0.25426364 0.18653004 0.23194742 0.24379735
0.0 0.20195381 -0.087569825 0.14796777 0.17431496 0.1702285 0.162942 0.11814079

shared.2.weight f4 [64, 64]
00000000: fcef 083e 5805 2f3e 0979 c03d 7abc 843e
00000010: e547 823e 91fd b53c 8f98 883d 86da fd3d
00000020: 36e5 98be d0d2 8b3e e7e9 a23e ebc1 6a3e
00000030: ce95 39bd 1396 31bd 917b e63d 9163 03be
00000040: d358 093e ff46 863d d3ef dcbc 84c5 443e
00000050: 6cc7 8cbc 663d d83c 0f75 e53e ca8f f6bd
00000060: 2638 a73c dbbb 2c3e d0aa 693e 09db 153e
00000070: 2931 943e ea31 21be e963 c63d 6829 0a3d
00000080: 7876 623e a6a4 003e d324 0ebe d433 ea3e
00000090: 3808 443e 8ccb 2c3d 2898 a6bd 9da7 373e
000000a0: 1934 1a3e df61 09be 8ca6 6a3e b800 f9be
000000b0: 9571 833e 05e4 b13e b37b e83c f607 a6bd
000000c0: 92f2 2f3e 104a 653e 8bae 173e 1ba7 2ebc
000000d0: 7bed 2b3e ba66 033e 7de4 7a3d 9c76 b73e
000000e0: 8509 083e dbe6 81bd f7ae 8d3d b873 86bd
000000f0: 3a9a 853e 937f 313e 3e13 cb3d 9955 913c
00000100: 3631 063e 5065 7b3d 6b99 1cbe a918 66bd
00000110: 31ac 743e 6834 d13d 64ef 553d f654 0f3d
00000120: 52c2 41be 146c 513e 12b9 313e 0e3d 813d
00000130: 7f6c 2d3e 548b 1dbc a9a7 403e 6280 993e
00000140: 1a72 2c3e 65e7 163d dd73 9a3e 0c5f 723e
00000150: e551 2bbd 18cc 8fbc 8a4c a73e 1cb4 58bd
00000160: ceba 223e 602d c03d fac7 be3e b853 15bd
00000170: c144 d3bc f14d aebd 1130 323e f720 733e
00000180: 732f b13d 2d37 ab3e 2d52 4b3e b7b2 5a3e
00000190: 430e cfbd 851b bd3e deb9 753c 70fa 0dbd
000001a0: e7bf 29bd f8a1 e3bd d92e 99bd 0744 20bf
000001b0: 5763 0c3e 81f9 f53d b3a3 9abd 164e e23d
000001c0: 8bbc d83d c632 273e e9f2 573c 9bdc 973c
000001d0: 1d0a 3b3d 65ee 973d 3145 193e 4aff e8bc
000001e0: 650e 2d3d b750 173e 7073 983d f4dd f43d
000001f0: bde4 a93e ccc9 7ebd 264f ab3c 2d84 f0bd
00000200: 0a90 febd 360f b8bd ca28 023e 82ce 243e
00000210: 9a06 68bc f66b 09be 5095 633c c03c df3d
00000220: 9247 2bbe 8d98 0f3e 8d15 ccbc 0e68 063d
00000230: 6346 243e 86b2 4d3e 505e ee3d 3dbe 71bc
00000240: 085a 283e 96fb a63d 0440 0a3b a84a 873c
00000250: 8fad 2e3e cee3 08bc 6abd dabc 3639 27be
00000260: 4b76 b63e 6caa 653e 6639 cf3d fdd9 8fbd
00000270: 6bc6 6d3e e507 13be 703f 163e 4b87 c03e
00000280: f820 6c3e bbc6 073e fee2 143e 1277 c73e
00000290: 0673 0e3e 14c5 a23c ac27 fc3d 3781 4b3d
000002a0: 1262 bd3e 4138 adbd 59a7 b4bc 6341 65be
000002b0: 3c9b d93d a371 603b 5760 3dbe 243a 9c3d
000002c0: ebcc a73c 75ac bf3d 3bf5 de3c f29c 473d
000002d0: 2f7e 6b3e fc14 ad3d 94c0 a83e 87b1 5f3e
000002e0: 81b5 453e 2884 3e3e 2fd2 e7bd 6bb6 f23c
000002f0: c5d7 9a3e 93e0 363d 4cba 083e 425e a23d
00000300: b13e 733e 2c5a 9e3e 468e 763e c8f7 4cbc
00000310: 4a34 bdbd 5246 d5bd d2df d43d 903d 313e
00000320: 4b19 bc3b 7edc 973e ac06 c03e 1123 893c
00000330: ecd1 c7bd baa6 a33d 939c 3d3e 33dc 863d
00000340: 71fb 8cba d192 2c3e 0744 423e 2bf9 6c3c
00000350: 2071 873e b272 233c 333f de3e 7352 14be
00000360: de01 8a3e 1bb8 383e 2856 0dbb 9937 d8bd
00000370: 7ee1 9fbc ebf1 9f3d 634a 823e c9d6 84bb
00000380: 7f65 893e dc62 953c f517 663e 1e62 cb3e
00000390: b5b8 613d d39b 073e 164d 733d 1448 d7bb
000003a0: fd67 753d 6a4e 2abe 011c 41bd 5372 16bf
000003b0: 10e0 debd bf8c 3e3e e33d 04be 108b 14be
000003c0: cedd 6b3c 026e 823e 343b bf3c 93f4 d43d
000003d0: c288 81bc 5501 4a3e f4e8 993e 6f88 c23e
000003e0: 2a19 0abe ffe3 483e 0373 4abe b053 393e
000003f0: 3ce7 3f3e 15d7 f83d 2e97 4cbd 1c3d 163e
0.13372797 0.17091882 0.093980856 0.25925046 0.25445476 0.022215636 0.06669723 0.12395196
-0.29862374 0.27309275 0.31819078 0.22925536 -0.04530888 -0.043356013 0.11254037 -0.1283095
0.1341279 0.0655651 -0.026969826 0.19215971 -0.017184936 0.026396465 0.4481587 -0.12039144
0.020412516 0.16868536 0.22819066 0.14634337 0.28943756 -0.15741697 0.09687025 0.033730894
0.22115505 0.12562808 -0.13881235 0.45742667 0.1914376 0.042186305 -0.0813449 0.17935033
0.15058936 -0.13416241 0.22915095 -0.4863336 0.25672594 0.34744278 0.028379297 -0.08106987
0.17182377 0.22391534 0.14812677 -0.010659958 0.1678981 0.12832156 0.06125306 0.3583268
0.13284881 -0.0634286 0.069181375 -0.0656504 0.26094228 0.17333822 0.099157795 0.017741011
0.1310471 0.061375916 -0.152929 -0.05617586 0.23893811 0.10215074 0.052230254 0.034993134
-0.18921784 0.20451385 0.17355755 0.063104734 0.16935919 -0.009615738 0.18813957 0.2998076
0.16840401 0.03684177 0.30166522 0.2366907 -0.041826148 -0.017553374 0.32675582 -0.05290614
0.15891573 0.093836546 0.37261945 -0.036456794 -0.02578962 -0.0851096 0.17401148 0.23743044
0.08651628 0.33440533 0.19855566 0.21357237 -0.10110142 0.36935058 0.0149979275 -0.034662664
-0.041442778 -0.111148775 -0.074796386 -0.626038 0.1370977 0.1201048 -0.075507544 0.1105005
0.10582837 0.16327962 0.013180473 0.01853781 0.04566394 0.07418517 0.149678 -0.028442044
0.042250056 0.14776884 0.07443893 0.11956397 0.33182326 -0.062204167 0.020911764 -0.117439605
-0.12429817 -0.08987276 0.12710872 0.16094401 -0.01416173 -0.1342009 0.013890579 0.10900259
-0.1672652 0.14023037 -0.02491262 0.032814078 0.16042475 0.20087633 0.116390824 -0.014754829
0.16440594 0.08153455 0.0021095285 0.016515091 0.17058395 -0.008355094 -0.026701648 -0.16330418
0.35637125 0.22428292 0.1011837 -0.07024 0.23220222 -0.1435848 0.14672637 0.3760322
0.23059452 0.13259403 0.14539716 0.3895803 0.13911065 0.019869365 0.12312254 0.049683776
0.36988884 -0.08457995 -0.022052454 -0.22388224 0.10625312 0.003424742 -0.18493782 0.07628277
0.020483455 0.093590654 0.027216544 0.04873366 0.22997354 0.08451268 0.32959425 0.21845065
0.1930752 0.18605101 -0.11319386 0.029628 0.30242744 0.044647764 0.13352317 0.079281345
0.23754384 0.3092817 0.2407771 -0.0125102475 -0.09238489 -0.10413803 0.10394253 0.1730864
0.00574032 0.2966041 0.3750509 0.016740354 -0.09756836 0.07990785 0.1851676 0.065849684
-0.0010756088 0.16852881 0.18971263 0.014463703 0.26453495 0.009976076 0.43407592 -0.14484577
0.2695455 0.1803898 -0.0021566246 -0.105574794 -0.019516703 0.07809814 0.25447378 -0.0040539247
0.26835248 0.018235616 0.22470076 0.39723295 0.05510779 0.13243036 0.059399687 -0.0065698717
0.059913624 -0.16631475 -0.047145847 -0.58768195 -0.1088258 0.18608378 -0.12914233 -0.14506173
0.014396144 0.25474554 0.02334366 0.10398211 -0.015812282 0.1972707 0.30060542 0.37994716
-0.13486162 0.19618224 -0.19770436 0.1809833 0.18740553 0.12150399 -0.049948864 0.14671749

shared.2.bias f4 [64]
00000000: e801 a33d 288d c73d e45b c73d b045 983d
00000010: cfc4 893c 7512 aa3c d5c6 a2bc 0000 0000
00000020: 50a3 f5bc f826 083e 5059 e43d 34e3 bf3d
00000030: 5714 a83d 258c 0d3e edbf f33d a4d2 1bbc
00000040: 08fb 60bc 8e72 a4bc 5f16 183e 8b5b 8d3d
00000050: 85f3 bb3d 0000 0000 641d c83d 5e05 063e
00000060: 9f26 1b3e c056 173e 8a1f 143e d424 0b3e
00000070: 7d18 a1bc 9329 163e f33e cf3d b196 053e
00000080: a3fc 063e b271 da3d 0b58 bc3d 4b9e 093e
00000090: 268c e63d 6e69 1e3e 1052 ed3d a2e7 323e
000000a0: 8e1c 2bbc 6b34 f13c 1d61 f83d 0f77 133e
000000b0: 0000 0000 caca c3bc 6116 023e 552d b23d
000000c0: f68d e13d 70bc d93d 3d59 ad3d 01ca d13d
000000d0: 58ec 1f3e 432a f33d f2e1 e63d dd62 69bc
000000e0: 9250 463e 967c 543c 055f 283e 91b1 0c3e
000000f0: f5e0 6e3d 9cfb 373e 0892 553d 724a 163e
0.07959348 0.0974372 0.097343236 0.07435167 0.016817478 0.020760754 -0.019870201 0.0
-0.0299851 0.13296115 0.111498475 0.093695074 0.082070045 0.13822992 0.11901841 -0.00951067
-0.0137317255 -0.020074155 0.14852284 0.06902226 0.09177307 0.0 0.09771231 0.13087985
0.15151452 0.14779186 0.14465156 0.13588268 -0.019664997 0.14664297 0.101194285 0.13045765
0.13182311 0.10666217 0.0919648 0.1343929 0.112572 0.15469906 0.11587918 0.17471173
-0.01044382 0.02944394 0.12127898 0.14400886 0.0 -0.023900408 0.1270385 0.08700053
0.11013405 0.10631645 0.084642865 0.10243607 0.15617502 0.11873295 0.112735644 -0.014244762
0.19366673 0.012969157 0.16442497 0.13739611 0.058320004 0.17967075 0.05214122 0.14676836

actor.0.weight f4 [32, 64]
00000000: 0569 90bd 3acb 53be 0b1d b6bd db99 d3bd
00000010: e653 4c3d 3c53 353e 9321 45be 275d 12be
00000020: 2beb d33d 35cb 0e3e c83c 55be 5c18 df3d
00000030: 48cd dd3d d743 c13c a012 2b3d 6b94 90bd
00000040: 80a9 8b3d fdcb d43d cd8c 68bc ad1e 51be
00000050: 8bc1 f43c e498 17be c418 ee3d 421a 673c
00000060: 84c1 e43b 1f08 b5bd 2b47 1d3d 9cc6 b4bd
00000070: 40f6 48bc d1a1 95be 0ab5 3cbd bec3 acbe
00000080: 895f 773d fd3d c5bd 1ca1 d13d 3700 093e
00000090: 5ef7 05be 2ea1 11be 6051 84be 6ba8 b3bd
000000a0: 3649 6dbb bed1 cf3d 344a 5ebc 2695 89be
000000b0: 5b9e bb3c f502 443d ceeb 453d 5238 ad39
000000c0: 592e c4bd 7b6a 88bc ce69 19be 67d5 74bd
000000d0: 7348 04be b008 ee3d e511 07bd 8919 b5bd
000000e0: 3b4d 603e 2ba4 5cbe 2a58 80bd ab98 77bd
000000f0: 2e49 533d c619 fabb 81d6 2e3c 839c c8bc
00000100: 77c8 febc 352d 413e e473 9abc c19e d93c
00000110: c7b3 9c3e ea89 c4bc b132 0e3a 8906 9b3d
00000120: a816 d0bd 8752 923b d29f a93d 866e f93d
00000130: d780 07be 0152 f4bd 482d cf3d 1d95 e83d
00000140: e8e4 dbbe 94b4 953d abbf afbd 1a2a 16bd
00000150: 989e af3c ff3c dabd 5111 a23d 7cd8 b8bc
00000160: 152f 87bd c5b3 813c 17bf 143d a8ef 943e
00000170: 1c9a 0d3e 181f 6c3e 4b4f 2e3d a3c0 903c
00000180: a06b 653d cf22 2c3c 72db 423d 512d acbd
00000190: 94ba 13be f9c6 e139 618b 5fbe 8571 2ebd
000001a0: d548 153e 06da 533e e5b1 343d 1870 b4bd
000001b0: 0648 85bd 492c 003e 7c0c f9ba 37c2 b4bb
000001c0: 3b1f 0a3e dd0c 2abe a9bf 39bd 77b0 7ebe
000001d0: 9d4b 04be b517 c3bd 4d9b 0fbe 53ed 823c
000001e0: ec5b 2dbd 7055 9abd ddca a93c 3551 43be
000001f0: c433 f73b 3176 96bd 35c1 b1bb 440e eb3d
00000200: 7b69 a63d 16f2 41bd 1a63 2d3e 0ef8 793d
00000210: be10 a7bc a8ca 9a3e 5cff bbbc 4da3 843d
00000220: ec1c a43b 9bfc 68be a4ca 0bbe a4c2 be3d
00000230: 8af1 35be 2dc6 57be 86f7 8fbd a3a4 0ebc
00000240: 3e6a 923d 94f0 3bbd 630c 7e3d bdf8 803e
00000250: b190 c63b eb10 8abc 4818 d3bc 34ba 763c
00000260: 472b 453c 3c5a 85bc 876e c43d 7d73 86bc
00000270: 4e4d dd3d 332c 4fbe b23b ddbd 6aa1 1dbe
00000280: c50f 0a3e f74d 8bbc c386 87bd 7d65 49be
00000290: 64f2 8f3d 03bd 323e 801a 47be 9763 603d
000002a0: f30e ecbc 5b7d 70bb c430 52bd ecf7 193e
000002b0: 82b6 8cbd a9b7 393c 17cd 3fbd a9ff 433e
000002c0: 0605 b9bd 9630 033e c60e 3dbd c8e1 89be
000002d0: 2600 b23d d8da c0bc d84b 72be b74b 58bd
000002e0: 6558 473d 24e1 803d ab9d 983d 52b9 dc3d
000002f0: b0f2 bdbd 0ac3 593c 4527 8f3e c2bb 683e
00000300: eddf cabd 2d35 9abd 4f27 4b3d b980 d4bd
00000310: 3c17 d43d e79d 173d 64df a53d a5c7 0a3e
00000320: 9a34 103e fe8a 2ebe d751 e03d 8adf f23c
00000330: 550f f9bd be08 903d 1720 4e3d 9151 41be
00000340: 051e 533d 8aa7 c9bc 0773 693c 5431 83bd
00000350: 2571 403d 9159 7dbd 756d 963d 1cdb 243e
00000360: 3b5c cdbd 913b d4bd 43f9 903d 515d 843e
00000370: 849e 90bd 4e16 2cbd cda3 c53d 5480 453e
00000380: eda3 0b3c 4896 f9bd b59c 1e3d 128d 833b
00000390: d810 82bd 2d6a 53be a3f8 d7bc d537 5cbe
000003a0: 4530 113e 942b 13be 9aed 2fbe c146 7bbd
000003b0: 7a8f 4b3d a76f c83d 15fd 3a3e b65c 6ebd
000003c0: 2bf0 72be 48ac e33b e58b 97bd 40a0 993d
000003d0: 1ab0 043e 5706 3ebe 9b28 b9bd d421 4ebe
000003e0: 6de0 d1bc 85f6 6a3d 0499 bc3e 190c 883e
000003f0: 765a 3fbd 314f 743c 2094 90bd 710e 9fbd
-0.07051281 -0.20682994 -0.08892258 -0.1033208 0.0498847 0.17707533 -0.19251089 -0.14293347
0.10347589 0.13944705 -0.20823967 0.10893318 0.1083017 0.023591919 0.04176581 -0.070595585
0.06819439 0.1039047 -0.014193726 -0.20421858 0.029877445 -0.14804417 0.116258174 0.014105381
0.0069810767 -0.088394396 0.03839795 -0.08826944 -0.012265742 -0.2922502 -0.04607109 -0.3374309
0.060393844 -0.09630964 0.10235807 0.13378988 -0.13082644 -0.14221641 -0.25843334 -0.087723576
-0.0036206967 0.10147427 -0.013567496 -0.26871604 0.022902658 0.047854383 0.048320584 0.00033039093
-0.095791526 -0.016652336 -0.14981768 -0.05977383 -0.12918262 0.11622751 -0.03297605 -0.08842761
0.21904461 -0.21547 -0.06266816 -0.06044833 0.05158346 -0.007632467 0.010671259 -0.024488693
-0.031101448 0.18864901 -0.01885409 0.026564958 0.3060591 -0.023991544 0.0005424424 0.07569606
-0.10160571 0.0044654044 0.082824364 0.12179284 -0.13232742 -0.119297035 0.101160586 0.11356566
-0.4294808 0.07309833 -0.0858148 -0.036661245 0.021437928 -0.10656165 0.07913459 -0.022564165
-0.06600777 0.015832791 0.03631505 0.29089093 0.1382832 0.23058736 0.04255609 0.017669981
0.056010842 0.010506346 0.04757256 -0.08407081 -0.14426643 0.0004306359 -0.21830513 -0.04258873
0.14578564 0.20688638 0.044114966 -0.08810443 -0.06507878 0.12516893 -0.0019000913 -0.0055163163
0.13488476 -0.1660647 -0.045348797 -0.24872003 -0.12919469 -0.09526006 -0.14024086 0.015982306
-0.04232399 -0.07535827 0.020726616 -0.19073947 0.0075440127 -0.07346762 -0.0054246434 0.1147733
0.081255876 -0.04735001 0.16932335 0.06102758 -0.020393725 0.3023274 -0.022948913 0.0647646
0.0050083306 -0.22752611 -0.1365152 0.093144685 -0.17767921 -0.21071692 -0.07029633 -0.008706245
0.0714917 -0.04588373 0.06202353 0.25189772 0.006059729 -0.01685377 -0.025768414 0.015059043
0.012034244 -0.016278379 0.09591394 -0.016412491 0.1080576 -0.20231704 -0.108024016 -0.15393606
0.13482578 -0.01700495 -0.06617501 -0.19667621 0.07028654 0.17454915 -0.19443703 0.054782476
-0.028815722 -0.0036695811 -0.051316038 0.15035981 -0.06870748 0.011335292 -0.04682645 0.19140495
-0.09034161 0.12811503 -0.046156667 -0.2693007 0.086914346 -0.023541853 -0.23661745 -0.052806582
0.048668284 0.06292942 0.07451948 0.107775345 -0.092748046 0.01329113 0.27959648 0.22727874
-0.09905992 -0.07529674 0.049598034 -0.103761144 0.10355994 0.03701582 0.08099249 0.13552721
0.14082566 -0.17045209 0.1095311 0.029647607 -0.121611275 0.070329174 0.050323572 -0.18878771
0.0515423 -0.024616022 0.014248616 -0.06405893 0.046982903 -0.061852995 0.07345096 0.16099209
-0.10027357 -0.10362924 0.07078793 0.25852445 -0.070614845 -0.04201346 0.09650383 0.19287235
0.00852297 -0.12186867 0.038723666 0.0040146196 -0.06350869 -0.20645972 -0.026363676 -0.21505673
0.1417857 -0.14372092 -0.17180482 -0.061346773 0.049697377 0.09786921 0.18260606 -0.058193885
-0.2372443 0.0069480278 -0.0739973 0.075012684 0.12957802 -0.18557106 -0.09040948 -0.20130092
-0.02561971 0.057364006 0.36835492 0.2657173 -0.04671713 0.014911459 -0.070595026 -0.07766426

actor.0.bias f4 [32]
00000000: 6f13 4839 98d9 6739 61fa 0ebc f655 6cba
00000010: 176f 8fba 2634 36bb db0b 29bc 22cb 42bc
00000020: 8cc0 f03c 81bc c03c a710 1d3c 1093 09bc
00000030: 7d7d 873c 15f5 7cbb e713 aebb 4b02 bbbc
00000040: 1adc b6bb 7410 a03a fbdc febb 2ddc 7abb
00000050: e2ee 8fba 3ff0 4f3b 209f 9cbb 6b9a 11bb
00000060: 0c7d 253c 0000 0000 5863 5cbc 5704 19bc
00000070: e0f1 26bb 8c9b 52bb 0000 0000 88cb 70bc
0.00019080726 0.00022110937 -0.008726687 -0.0009015495 -0.0010943142 -0.002780208 -0.010317768 -0.011889251
0.029388689 0.023527386 0.00958649 -0.008396879 0.01653933 -0.0038598229 -0.005312431 -0.022828242
-0.0055804374 0.0012211935 -0.007777808 -0.0038278208 -0.0010981227 0.0031728891 -0.0047797114 -0.0022217284
0.010100614 0.0 -0.01345142 -0.009339414 -0.0025473759 -0.003213617 0.0 -0.014696963

actor.2.weight f4 [2, 32]
00000000: 35d0 37be 2c91 84be b9d7 233e 334e 0d3e
00000010: a74d 90bc 1e3f 90bd 812f 34be 6471 20be
00000020: 2896 7a3c d862 6e3e f7fe ed3d d6f6 883e
00000030: abb4 043e b8db c3be 1197 5f3d a8ab d23d
00000040: 4f8f 58be d7a8 98bd 7c61 c4be b87e 15bd
00000050: a329 d1bd 21a4 013e b585 743c ab63 13be
00000060: ffa1 7fbe 002b 6cbe 49b8 a0be 8064 06be
00000070: fe23 d63d 998d 793e 127c b33e ec50 183c
00000080: 420a 293e 389c 1abc cbe8 4dbe a7c3 afbe
00000090: ee75 81be a88f 5dbd 4d36 a83d d2c4 c23d
000000a0: 28f9 a8be 9b1f 97be 185e 73be 90d3 a0bd
000000b0: 470e b5be c0a9 bbbe 9aab c4be c01c ed3d
000000c0: 6aaf 713e 5e3b 15be f3f6 b13e 98f2 57be
000000d0: e82e 5cbe 7244 113e 4e25 22bd 23c5 06bd
000000e0: e342 3bbe 6faf 583d bf6b 2e3e fe22 8e3d
000000f0: 86e5 23be afe1 58bd 1320 073e 7a0c 3bbe
-0.17950518 -0.25892007 0.1600026 0.13799362 -0.017615153 -0.07043289 -0.17596246 -0.15668255
0.015294589 0.23279893 0.11620896 0.2675082 0.12959544 -0.3825357 0.054587428 0.10286647
-0.21148418 -0.07454079 -0.38355625 -0.0364978 -0.1021302 0.12660266 0.014924456 -0.14393489
-0.2496414 -0.23063278 -0.31390598 -0.13124275 0.10456084 0.24370421 0.35055596 0.009296637
0.1650782 -0.0094366595 -0.20108335 -0.34328958 -0.25285286 -0.05409208 0.08213482 0.09510197
-0.3300259 -0.295163 -0.23766363 -0.07852852 -0.35362455 -0.36652946 -0.38412172 0.11577749
0.23602071 -0.14573428 0.3475872 -0.21088636 -0.21502268 0.14186266 -0.039586358 -0.032902848
-0.18287234 0.05290168 0.1703329 0.06940268 -0.16005525 -0.052949604 0.13195829 -0.18266478

actor.2.bias f4 [2]
00000000: 0aba c53b 12ba c5bb
0.0060341405 -0.006034144

critic.0.weight f4 [32, 64]
00000000: daae 423e 617a 56be 8c77 c8bd 0dfa bf3c
00000010: b3b8 55bd 3e02 febc 800c 33be 39d2 a2bc
00000020: 7581 413d 3688 613e d7d6 643d bae8 dc3d
00000030: 277f afbc 95a1 43bc b481 7d3d 9794 953d
00000040: 769e 923b de4b cabd 8596 b7bc 1dbd 96bd
00000050: 739e 7abe 3ce3 533d 4a3b 0f3e 5800 c23d
00000060: d5ec 7e3c bf7f 9fbd 3ef3 a1bd 6305 cbbd
00000070: fb58 ea3d 1974 5bbd 37c6 8bbd 5441 11bd
00000080: e6dd 03bc d4db 4c3d 0d00 d6bb e365 2c3e
00000090: 456d bcbe be39 94be a8c2 c2bc 0923 84bd
000000a0: 6c89 193e b36f 3dbc 3715 7bbd ccee 7d3e
000000b0: 8361 1f3e 0176 073d 9b01 683e dcca babd
000000c0: 4abb 1e3e b738 1fbe 6a38 b8bd 3577 14bd
000000d0: 94f5 34bd d949 5cbe 43c2 a13d fe31 90be
000000e0: 4d9f 133d 29eb b5bc 2ed4 8ebd 76cf 90bc
000000f0: 09ac cd3d e3fb edbd 092c b83d a1f5 14bc
00000100: b0d5 2f3e bc8d f93d 60ce 293e cb42 13bd
00000110: 59b4 1f3e 973d c43c 7a1d 983c ff7f 533c
00000120: 4095 ecbd 5309 2b3e 55cd 9a3d e427 95bd
00000130: 72b6 6fbe 5e02 e5bc e78f 5d3c e2bc 103e
00000140: 8c54 d03c c86a 3ebd ee1d 313e eb43 09bd
00000150: da25 53bd af30 0cbe a405 e23c 24c0 78be
00000160: 088c 35be c87e 403c 6ebc b63d b13d 733d
00000170: 7b7c 7dbc 10a8 44bd f6c0 1a3e 0dcb d0bc
00000180: 72f2 cebd 17a5 f9bc b918 1abe 1ecf 4bbc
00000190: 2146 0bbe a2fb 2b3e 28a6 0ebd 94ad 66bd
000001a0: b0c0 80bd 9dec 94bd 9c4c f93c 23bc 85be
000001b0: 3e8f c83c f7e5 193e 76fc 8f3e 4ab4 a4bd
000001c0: 322a c93a 895e 2fbe aa83 83be 36e7 15bc
000001d0: 431a 82be 2e6b 653e 9d7b 2abc f6b6 68bd
000001e0: 2972 21bd 2307 42be 8099 30be e1ba e93b
000001f0: 3716 783d 7beb 973d ea49 3bbe 9d09 a83d
00000200: e653 71bd af43 49bc 2a2b 9dbd 7d3f 92b9
00000210: 22ab 0d3c 2154 2cbe 9b82 ec3c 59e6 953e
00000220: d0ad fa3d d905 053e 95df cbbd d5b4 20ba
00000230: 1908 c5bd 7354 bfbd 616f 82bb 9761 99bd
00000240: 3e40 df3d 7e91 eabd 6ce8 a8bb db21 14be
00000250: 9836 843d 6838 c8bd f886 babc 591b 48be
00000260: 31aa 9b3d a0d8 473d 8bc4 103e 1657 753e
00000270: 6b50 ff3c dd22 2d3c 558c 1fbe 7ac9 60bd
00000280: 3d1f 543c 4d0b e13d 34fb c4bd 49b4 e1bd
00000290: d438 983d d7b1 763b 61bc 113d 4fde 663e
000002a0: 2eca 0f3e e2fe 833d bb29 8d3d 5144 55bd
000002b0: a4e2 a53e 63c0 f1bd ea61 1c3d f737 52bd
000002c0: 0aa6 cc3b b810 8abe 9f83 043e ec26 bc39
000002d0: f6c4 5cbd ea67 203e 11d3 bcbd a344 953d
000002e0: 9b3b 6d3e 8517 3a3e 0e4d 3ebd 7bb4 1fbe
000002f0: 8eeb b5bd cd0b 9bbd 39ba 853e 782c 08be
00000300: 5cd2 203e dc55 49be e99c d53d 3e68 17be
00000310: 2d20 c03d 91f3 ea3d bd56 4f3d b259 c53d
00000320: 835d ffbd c6e7 92bc 154f abbd 0a12 8a3d
00000330: 4911 e8bc 022b eabc 6513 06be c131 173c
00000340: 5ed3 723d 17e6 593c 9223 be3c 00eb 6ebd
00000350: 65cf 7a3e f6bb 123d 2f9b 3cbe 1949 8fbd
00000360: 9d0e 703d 7954 4ebe 5478 75bc b43a 8c3d
00000370: 2b67 dfbc 0408 7dbe 6c7b b93d 395a e9bb
00000380: 5607 29be 80cc 2abd 9a3d 6f3c a573 903d
00000390: 9cb3 6e3d 9b2a 683c 6ba6 68bd 808e e6bd
000003a0: 4eee 44bd 5003 403e 857c 2bbe 87ba ae3e
000003b0: 0a49 f63c c5fa 823b 8721 023d ecfd ebbc
000003c0: 6c30 ed3d 3323 7b3c 84ed e63d c182 4fbd
000003d0: ee7f a0be a49e 21be 4431 5cbd bbe8 073e
000003e0: f5b1 8cbc e9fb 153e ec67 52bc f4d6 cc3c
000003f0: f003 93bd 5ba9 c23e 1ef5 3f3c 4992 ab3d
0.19012013 -0.20945121 -0.09788427 0.023434663 -0.052178096 -0.031006929 -0.17485237 -0.019875633
0.0472426 0.22024617 0.05586895 0.107865766 -0.021422936 -0.01194038 0.061891273 0.07303732
0.0044744564 -0.09877752 -0.02241064 -0.07360289 -0.24474506 0.05173038 0.1398746 0.09472722
0.015559395 -0.077880375 -0.07907723 -0.09913137 0.11442753 -0.053577516 -0.06824916 -0.035462692
-0.00804851 0.050014332 -0.006530768 0.16835742 -0.36802116 -0.28950304 -0.02377446 -0.06451995
0.14993829 -0.011562276 -0.06129953 0.24798125 0.15564542 0.03307152 0.22656862 -0.091207236
0.15501133 -0.15548979 -0.08995135 -0.036246497 -0.044179514 -0.21512546 0.078983806 -0.2816314
0.036040593 -0.02220686 -0.06974064 -0.01767705 0.10042579 -0.11620309 0.08992774 -0.009091766
0.17171359 0.12185237 0.16582632 -0.03595237 0.15596141 0.02395515 0.018568743 0.012908935
-0.11551905 0.16702776 0.07558695 -0.07282999 -0.23409441 -0.02795523 0.0135230785 0.14134553
0.02543094 -0.046488553 0.17296574 -0.033512037 -0.05154977 -0.13690446 0.02759058 -0.24292046
-0.17729199 0.011748977 0.08922659 0.059385005 -0.015471573 -0.04801184 0.15112671 -0.025487447
-0.101048365 -0.030474229 -0.15048493 -0.012439517 -0.13600971 0.16795209 -0.034826428 -0.05631788
-0.06286752 -0.07271693 0.030432038 -0.261201 0.024482366 0.15029131 0.281223 -0.080422
0.0015347658 -0.17125906 -0.2568639 -0.009149363 -0.2541066 0.22404167 -0.010405448 -0.05681511
-0.039415512 -0.18948035 -0.17246056 0.0071328734 0.06056806 0.07417961 -0.18289915 0.082049586
-0.058917902 -0.012284203 -0.076742485 -0.00027894592 0.008646758 -0.16828968 0.028870871 0.29277304
0.12240183 0.12990512 -0.09954754 -0.00061304617 -0.09620685 -0.09342279 -0.0039805626 -0.07489317
0.10900925 -0.11453532 -0.00515466 -0.1446604 0.064557254 -0.09776384 -0.022769436 -0.19541682
0.07600821 0.048790574 0.14137475 0.23959002 0.031166276 0.010567394 -0.15580876 -0.054879643
0.012946901 0.109884836 -0.09618226 -0.11020715 0.07432714 0.0037642622 0.035580043 0.22545741
0.14041969 0.064450994 0.06892725 -0.052067105 0.32399476 -0.11804273 0.038179316 -0.051322903
0.0062453793 -0.2696588 0.12940834 0.00035887153 -0.053898774 0.1566464 -0.09219945 0.07288482
0.23167269 0.18173034 -0.046460204 -0.15596192 -0.08882819 -0.0757061 0.2611864 -0.13298213
0.15705246 -0.19661659 0.10430319 -0.14785859 0.09381137 0.11472238 0.05061983 0.09636249
-0.12469008 -0.017932784 -0.08364693 0.06741722 -0.028328555 -0.02858496 -0.13093336 0.009228171
0.059283607 0.013299487 0.02321032 -0.058329582 0.24493177 0.035823785 -0.18418573 -0.06996364
0.058607686 -0.20149411 -0.014982302 0.06847134 -0.027270874 -0.24710089 0.09056744 -0.007121351
-0.16506705 -0.041698933 0.014602089 0.070533074 0.058276758 0.014170314 -0.056799334 -0.112576485
-0.048078828 0.18751264 -0.16746719 0.34126684 0.030064125 0.003997179 0.031770255 -0.028807603
0.11581501 0.015328216 0.11275771 -0.050661806 -0.31347603 -0.15783173 -0.05375792 0.13272373
-0.0171747 0.14646877 -0.01284216 0.025004841 -0.071784854 0.38019833 0.011716155 0.08377511

critic.0.bias f4 [32]
00000000: 9add 2ebc ef12 43bc 4365 4abc 5cdf 86bc
00000010: 423f 503d ec17 4c3d 95ff 04bc ebae e43d
00000020: 0000 0000 b566 22bb 4389 133e 15a1 713d
00000030: 5630 743d e8b3 03bc 5133 723d eee0 60bc
00000040: ddb0 763d 964f 16bc 0000 0000 1b55 653d
00000050: 28a2 a33d 2ab8 9d3d 742c 403d 75c7 553d
00000060: fdcc 4e3d da51 f83d 1b44 843d a916 1b3d
00000070: b242 4c3d ebf0 ebbb c796 7c3d 5195 a23d
-0.010672951 -0.01190637 -0.012353244 -0.016463928 0.050841577 0.0498275 -0.008117576 0.111661755
0.0 -0.0024780456 0.1440783 0.05899151 0.05961641 -0.008038498 0.05913097 -0.013725502
0.060227264 -0.009174248 0.0 0.055989366 0.07989913 0.07701142 0.046917394 0.05219217
0.05048846 0.12124987 0.064583026 0.037863407 0.049868293 -0.0072003505 0.06166723 0.07938636

critic.2.weight f4 [1, 32]
00000000: 9aa8 a03b 47e4 063e 9538 153d ed87 223e
00000010: e497 c1be 342c 8dbe c8c2 973c be7c 5fbe
00000020: 1efc 4e3e 58af 453e df59 53be f63c 94be
00000030: 8a58 dfbe 14a9 943c 1438 95be 4fba f83c
00000040: 9e56 91be 7aac c83d e101 2c3d dda3 b6be
00000050: 2492 f9be 414b f5be cea4 f8be 8c13 bfbe
00000060: 1a2e b0be 63ff 8bbe ed7f 9ebe ec22 993e
00000070: 2052 b8be 4751 ce3e 0ade a2be 6550 dabe
0.0049029114 0.13173018 0.036430914 0.15872164 -0.37811196 -0.27572787 0.018525496 -0.21824929
0.20213363 0.1930517 -0.20639752 -0.2895276 -0.43622237 0.018147029 -0.29144347 0.030362276
-0.28386396 0.09798522 0.04199398 -0.35671893 -0.4874431 -0.47908977 -0.48563236 -0.373196
-0.34410173 -0.27343282 -0.30956975 0.29909456 -0.36000156 0.40296385 -0.31810027 -0.4263946

exp_avg f4 [64, 12]
00000000: 5909 d73a 3be4 343a 1685 0e3a d6b0 bd3a
00000010: 63bc 863a 84fa 1a3a 1605 5939 3be4 343a
00000020: 004d 62b9 a2d9 dab8 019a 11bb fb0a fa3a
00000030: fdcb fe3a 5e5a 6c3a 401f 3b38 a9c2 003b
00000040: 05fd a73a dced 5339 1bdb 9439 5e5a 6c3a
00000050: 502b 2cba 08ab 7ab9 3596 5cbb 9eaf 1d3b
00000060: 8d9b 013b 342a 983a 9d62 2d3b 609f 123b
00000070: 77ad f13a 6cc8 f43a 9ee7 b239 342a 983a
00000080: 38d6 a93a 558d 353a cbd8 dbba fa5e d63a
00000090: 67dc be39 e094 c239 4806 173a cc09 323a
000000a0: 43b6 013a e530 f039 f4c3 eb38 e094 c239
000000b0: 6157 e938 bcf1 b037 2a68 1eba d5c1 0f3a
000000c0: 05f1 77b9 96a9 1c39 3aa8 aa3a 443f 2039
000000d0: d4eb 1539 a609 3a3a 8a00 c037 96a9 1c39
000000e0: 0ada 103a 9a57 ea37 5f64 60b9 3336 00ba
000000f0: 5bd7 033a 4420 0b3a 1fc8 533a 3e5b 813a
00000100: 786e 383a 10c8 533a 5f87 2539 4420 0b3a
00000110: 8db0 ab39 186f 2439 fb48 64ba 82de 493a
00000120: 5373 a03a 2a43 193a a1be bd39 4e3a a13a
00000130: 9c74 5e3a 163b ac39 cf97 3a39 2a43 193a
00000140: 4dbb 87b9 4f56 31b9 00ae fbba ef43 bb3a
00000150: 379c b53a 9fc2 553a 6422 9b39 3bb6 ef3a
00000160: 8228 b33a c6bf 253b dbcd 0139 9fc2 553a
00000170: 20bb 783a 129c aab9 6f52 eeba a145 e13a
00000180: ddb4 f2ba 5bfd 81ba 65dd 973b 04fd 21bb
00000190: 7795 7dba f1e9 8138 b2dd 89b9 5bfd 81ba
000001a0: bbc2 863a 318a a13a 37a9 923b b158 44bb
000001b0: 2bc6 5d3b ad8f af3a 03ae 5d3b 6cf8 1d3b
000001c0: 3e5a 2e3b 4c73 9e3b 664b a039 ad8f af3a
000001d0: 97f4 c7ba 2e69 15b9 862d c5ba 613b 7a3b
000001e0: 51d1 4c3b 752b e43a c1cc 993a c3c6 6a3b
000001f0: 24c1 213b 6643 8c3a 2c54 0e3a 752b e43a
00000200: 61a6 bdb9 f973 c1b8 8b96 a7bb 144b 803b
00000210: 37ed 473a 8a9b 8f39 36c4 0fba ad26 353a
00000220: 3101 c939 bc54 14ba 4ba1 c638 8a9b 8f39
00000230: 966b 37ba fda1 7eb9 97b9 e4ba 3247 843a
00000240: 05ad 843a 50af 253a a73d b039 3587 a93a
00000250: 980f 753a cece ab36 8ddf 5939 50af 253a
00000260: a6b9 b8b9 6ff9 edb8 6296 fdba c4e3 b83a
00000270: 4afd 763a f20e 2b3a ee9e 9f38 01ea af3a
00000280: 9958 553a c04c 58b9 9d4c 5039 f20e 2b3a
00000290: 4bca 2aba 3c7a c3b9 83c1 17bb 1fb8 b33a
000002a0: af1a 90ba a460 0f3a fb12 1dbb a8b2 b13a
000002b0: df52 af39 921a fab9 d37a 2839 a460 0f3a
000002c0: 9fa4 d5b9 367b 75ba 3713 3fbb 6b97 19ba
000002d0: 4ccb b43a 5fe9 493a c774 bd3a cfed c13a
000002e0: 850b 953a a039 b33a 1c24 7439 5fe9 493a
000002f0: 333c 023a 6932 a939 fc5f b9ba 8354 d33a
00000300: 17ed 8c3a c47a 443a 6d22 cbb9 605a d23a
00000310: 98b4 673a 4b33 2aba 001b 7239 c47a 443a
00000320: d427 8cba 9ef9 17ba 36c3 4cbb 0dcf d13a
00000330: 0000 0000 0000 0000 0000 0000 0000 0000
00000340: 0000 0000 0000 0000 0000 0000 0000 0000
00000350: 0000 0000 0000 0000 0000 0000 0000 0000
00000360: 4bd7 be3a f82c 5b3a 4496 703a 1201 c73a
00000370: a5c0 9b3a b46b 1c3b 4960 8f39 f82c 5b3a
00000380: 848b 0f39 8c32 8e3a b8fa 16ba eae9 d93a
00000390: b545 853b c42c 583a 3d07 0000 9bb9 4b3b
000003a0: f7c7 133b eb4e 503b 6987 c039 c42c 583a
000003b0: 5c4c b13b 6d6e 873a a227 42bb 8200 923b
000003c0: 963f 8b3a 7cf9 9039 d503 b139 4faf 6a3a
000003d0: 29fd 593a 6ee8 0c3a 996f f338 7cf9 9039
000003e0: be6d 8e3a fa12 21b8 204a 80ba 7470 6a3a
000003f0: 7a04 a3b9 d6dd 2f39 dc66 d63a 9c54 0539
0.0016405984 0.0006900464 0.00054367015 0.0014472257 0.0010279532 0.00059119635 0.00020696627 0.0006900464
-0.00021581724 -0.00010435587 -0.0022217038 0.0019076759 0.0019439455 0.00090161513 4.4613378e-05 0.0019647276
0.0012816495 0.00020211138 0.00028392006 0.00090161513 -0.00065677334 -0.00023905572 -0.0033658866 0.0024060975
0.0019776553 0.0011609257 0.0026456483 0.0022372827 0.0018438537 0.0018675453 0.00034123374 0.0011609257
0.0012957519 0.0006925662 -0.0016772983 0.001635521 0.00036403837 0.00037113484 0.0005761129 0.0006791621
0.00049481186 0.00045812796 0.00011242172 0.00037113484 0.000111265814 2.1093401e-05 -0.00060427433 0.00054839003
-0.00023645542 0.00014940495 0.0013020106 0.00015282357 0.000142976 0.00070967746 2.2888435e-05 0.00014940495
0.00055256544 2.7935766e-05 -0.00021399696 -0.0004890889 0.0005029344 0.0005307237 0.00080788316 0.0009869111
0.0007035504 0.0008078823 0.00015786056 0.0005307237 0.00032747202 0.00015681644 -0.00087083847 0.0007700698
0.00122414 0.0005846495 0.0003619092 0.0012300701 0.0008486004 0.0003285042 0.00017794895 0.0005846495
-0.00025888756 -0.00016912188 -0.0019201636 0.0014287214 0.001385576 0.0008154306 0.00029589527 0.0018288562
0.0013668688 0.0025291308 0.00012379086 0.0008154306 0.0009488333 -0.00032541208 -0.0018182526 0.0017186889
-0.0018517036 -0.0009917425 0.0046345466 -0.002471746 -0.0009673456 6.194774e-05 -0.00026295852 -0.0009917425
0.0010281423 0.001232451 0.0044757384 -0.002996009 0.003384004 0.0013394259 0.0033825643 0.002410437
0.0026604082 0.004835522 0.00030573754 0.0013394259 -0.0015255389 -0.0001424893 -0.0015043474 0.0038182365
0.0031252692 0.0017407971 0.0011733995 0.0035824038 0.0024681771 0.0010701239 0.00054294127 0.0017407971
-0.0003617285 -9.224559e-05 -0.0051143817 0.0039152 0.00076265953 0.0002739097 -0.0005484255 0.0006910365
0.00038338595 -0.00056583784 9.471419e-05 0.0002739097 -0.00069969276 -0.00024283673 -0.001745033 0.0010092019
0.0010122365 0.0006320374 0.0003361527 0.0012933972 0.0009348332 5.1202724e-06 0.00020778012 0.0006320374
-0.00035233534 -0.00011347501 -0.0019347186 0.0014105965 0.0009421898 0.00065253593 7.611314e-05 0.0013421179
0.0008138507 -0.00020627957 0.00019864966 0.00065253593 -0.00065151294 -0.0003728437 -0.0023156113 0.0013711489
-0.001099428 0.00054694177 -0.0023967612 0.0013557272 0.00033440345 -0.00047703512 0.00016067484 0.00054694177
-0.00040749178 -0.0009364368 -0.002915574 -0.000585905 0.0013793497 0.00077023165 0.0014454358 0.0014795604
0.0011371231 0.001367379 0.00023283105 0.00077023165 0.0004968077 0.0003227175 -0.0014142985 0.0016123209
0.0010751811 0.00074951 -0.00038744826 0.0016048662 0.0008838861 -0.00064926286 0.00023088977 0.00074951
-0.0010693022 -0.0005797389 -0.0031244284 0.001600714 0.0 0.0 0.0 0.0
0.0 0.0 0.0 0.0 0.0 0.0 0.0 0.0
0.0014560012 0.0008360888 0.0009177665 0.0015182814 0.0011882974 0.0023867907 0.00027346823 0.0008360888
0.00013689516 0.0010848804 -0.0005759406 0.0016625498 0.0040671476 0.00082464167 2.597e-42 0.0031085971
0.0022549608 0.003178532 0.00036721982 0.00082464167 0.005410714 0.0010332592 -0.0029625674 0.004455627
0.0010623808 0.000276517 0.00033762926 0.00089525146 0.0008315617 0.0005375211 0.000116079296 0.000276517
0.0010866446 -3.8403065e-05 -0.0009787716 0.00089431484 -0.00031093118 0.00016771941 0.0016357559 0.00012715388

exp_avg_sq f4 [64, 12]
00000000: 87e5 3339 62f3 c436 907b 2639 712e a037
00000010: 502f 0e38 be15 7f39 c00c a035 62f3 c436
00000020: 883f 1739 6785 e438 5295 fb38 882c 3739
00000030: d462 d839 da02 4337 aaa5 e939 816b 1b38
00000040: b8ed 9b38 0c08 083a 46e7 2536 da02 4337
00000050: 633a b339 bd92 8e39 2150 8939 2f8f d839
00000060: 3ebc 0639 5221 0837 7ef1 d538 f698 d837
00000070: 703f 1938 54a4 5a39 e3ce a435 5221 0837
00000080: bac7 c338 279d 8f38 8754 b838 efde 1139
00000090: 728e 4b37 29d2 4535 a1f7 4c37 da6e 1336
000000a0: 08b1 5936 8fa0 8e37 2c73 1234 29d2 4535
000000b0: d314 4737 53a0 1237 065a 2637 2016 5637
000000c0: f944 8638 0ab4 8a35 b797 a438 1fdb 6836
000000d0: 6462 2c37 053b 8638 18da 9a34 0ab4 8a35
000000e0: 2257 6038 f5a9 3d38 b417 0c38 ba37 8438
000000f0: f564 bd37 1e53 d435 9a6c b237 83e8 9736
00000100: b3d6 d336 da95 0b38 c11f 8e34 1e53 d435
00000110: 2b21 9737 4d9a 5437 d662 8237 7e1e ca37
00000120: e7ac 1739 75ca b036 2300 1139 5d1c 8c37
00000130: 45ed f037 b080 5639 96f6 8d35 75ca b036
00000140: 0177 0539 3cb5 c138 edb1 e038 2937 1b39
00000150: eafa fe38 e593 0137 dc62 d438 fb09 c737
00000160: 4624 0d38 c447 4e39 6f59 b335 e593 0137
00000170: a594 ec38 40e0 9638 977f da38 21e4 0939
00000180: 7c6e e739 bef3 9637 a785 333a 3fe7 7538
00000190: 47e6 ff38 8251 553a 4955 9836 bef3 9637
000001a0: 0c2c 3d3a 8652 133a ddff 0b3a 142a e939
000001b0: e204 8739 b8d5 7037 2d05 d439 c230 2038
000001c0: 7a55 8938 ea8b f739 8ff5 d735 b8d5 7037
000001d0: fc94 2238 4370 8738 5f1c 3438 a940 8339
000001e0: 499c 653a 95c1 0b38 9af4 733a 0930 d238
000001f0: 617c 3739 8ae2 973a 7fee db36 95c1 0b38
00000200: 576a 483a 139a 173a 3530 223a d41b 693a
00000210: 61ad 1439 6fc6 2936 6350 2639 26ac 0d37
00000220: f6d4 b437 b782 1e39 a9bf 2235 6fc6 2936
00000230: 7bf9 d838 04c0 b538 316f 9238 4bc6 1239
00000240: 5107 0139 ec53 8236 0ed0 1e39 e0f2 3837
00000250: e1d1 b837 702e 0839 6f56 5c35 ec53 8236
00000260: 14dd e838 88c4 b838 a389 a838 fa78 0039
00000270: 60bb 1539 7829 9536 970b 3939 c44d 5b37
00000280: d601 dd37 b1f1 2639 0340 8735 7829 9536
00000290: ea83 1639 d31e f238 f7e8 e438 298f 1539
000002a0: a1a7 8a39 fdae 1137 b666 7639 3961 dd37
000002b0: e9bf 3d38 358c a839 17b0 e935 fdae 1137
000002c0: 4d0c 6339 cf0e 3039 0d62 2f39 c66b 8b39
000002d0: fab8 9138 0d9a 9736 fda5 7c38 7025 6037
000002e0: 1483 9f37 2075 f738 a465 5935 0d9a 9736
000002f0: 42d7 8c38 76be 3a38 11ba 8238 5b5c 9b38
00000300: edfc ac39 122e 1437 c8fc d039 00d9 df37
00000310: 8efb 6e38 311d bf39 3dad 0936 122e 1437
00000320: fef6 a139 b61f 8339 5ee0 7139 77c5 ab39
00000330: 0000 0000 0000 0000 0000 0000 0000 0000
00000340: 0000 0000 0000 0000 0000 0000 0000 0000
00000350: 0000 0000 0000 0000 0000 0000 0000 0000
00000360: 563a 3739 df3e cf36 69ed 4a39 3b20 9f37
00000370: 0437 1038 371b 8139 fa54 8b35 df3e cf36
00000380: 6a8f a138 3379 8838 c4aa d437 2337 3739
00000390: d0b3 7f3a df1b ea37 cdf7 2837 5b32 0d39
000003a0: 022c 6239 1c1b b83a c5f2 b536 df1b ea37
000003b0: e014 3d3a 42e8 133a 180d 1e3a 71a4 803a
000003c0: a949 6638 8c35 5b36 fefc e837 f5c4 3537
000003d0: 8990 7f37 8f16 c638 b69f 2a35 8c35 5b36
000003e0: f91e 5338 69cd 1338 c410 4038 f5a5 7638
000003f0: b81d 9739 5977 4a36 18ae a739 6524 4c37
0.00017156276 5.8695887e-06 0.00015877024 1.9095112e-05 3.38995e-05 0.00024326795 1.192464e-06 5.8695887e-06
0.0001442415 0.00010896735 0.00011996426 0.00017468829 0.00041272363 1.162357e-05 0.00044564652 3.7055e-05
7.4352545e-05 0.00051891874 2.4721535e-06 1.162357e-05 0.00034185042 0.0002719368 0.00026190377 0.0004130541
0.00012849362 8.11399e-06 0.00010201613 2.5820435e-05 3.6537123e-05 0.00020851317 1.2279164e-06 8.11399e-06
9.3355266e-05 6.848043e-05 8.789548e-05 0.00013911327 1.21329085e-05 7.369404e-07 1.2217003e-05 2.196923e-06
3.2438566e-06 1.7002485e-05 1.3639209e-07 7.369404e-07 1.1866173e-05 8.7396065e-06 9.915331e-06 1.2760545e-05
6.402465e-05 1.03342e-06 7.8483885e-05 3.469824e-06 1.0274907e-05 6.400611e-05 2.884342e-07 1.03342e-06
5.348691e-05 4.5219396e-05 3.3400676e-05 6.3046304e-05 2.2577568e-05 1.5819421e-06 2.1269825e-05 4.5272186e-06
6.3132843e-06 3.3279743e-05 2.6472665e-07 1.5819421e-06 1.8016048e-05 1.2672111e-05 1.5543232e-05 2.4094476e-05
0.00014464893 5.268778e-06 0.00013828329 1.6702508e-05 2.8720717e-05 0.0002045657 1.0577085e-06 5.268778e-06
0.00012728201 9.236715e-05 0.000107142936 0.000148025 0.000121584 7.723434e-06 0.00010127362 2.3727296e-05
3.3650802e-05 0.00019672426 1.3362568e-06 7.723434e-06 0.00011281044 7.194327e-05 0.000104188155 0.00013150323
0.0004414207 1.7994895e-05 0.0006848224 5.8627917e-05 0.0001220224 0.0008137451 4.5398815e-06 1.7994895e-05
0.00072163413 0.0005619902 0.0005340556 0.00044472574 0.00025752845 1.4354875e-05 0.00040439647 3.8192382e-05
6.54859e-05 0.00047215755 1.6090215e-06 1.4354875e-05 3.8762562e-05 6.458212e-05 4.2941767e-05 0.00025034443
0.0008758945 3.332047e-05 0.0009306163 0.000100225276 0.00017498575 0.00115879 6.554473e-06 3.332047e-05
0.00076452404 0.0005783152 0.0006186993 0.00088923913 0.00014178969 2.5298466e-06 0.0001586094 8.444336e-06
2.155684e-05 0.0001511675 6.0628605e-07 2.5298466e-06 0.00010346152 8.666518e-05 6.9825335e-05 0.00013997515
0.00012305124 3.8840717e-06 0.0001514556 1.1023803e-05 2.2032242e-05 0.0001298727 8.2082164e-07 3.8840717e-06
0.00011103801 8.8104105e-05 8.036501e-05 0.00012252099 0.0001427955 4.4453736e-06 0.00017647292 1.3071523e-05
2.6346108e-05 0.0001592103 1.0076914e-06 4.4453736e-06 0.00014354257 0.00011545201 0.0001091528 0.00014263079
0.00026446304 8.683416e-06 0.00023498651 2.6390526e-05 4.523984e-05 0.0003214792 1.7411102e-06 8.683416e-06
0.0002165299 0.00016790185 0.00016725827 0.00026592443 6.948593e-05 4.5180846e-06 6.023607e-05 1.3360157e-05
1.9015315e-05 0.00011799694 8.0986706e-07 4.5180846e-06 6.715815e-05 4.4523236e-05 6.2335406e-05 7.4081785e-05
0.0003299484 8.832214e-06 0.00039861188 2.668472e-05 5.69779e-05 0.00036452108 2.0515429e-06 8.832214e-06
0.00030892337 0.00025009894 0.00023067134 0.00032762784 0.0 0.0 0.0 0.0
0.0 0.0 0.0 0.0 0.0 0.0 0.0 0.0
0.00017473972 6.1764e-06 0.00019352663 1.8969286e-05 3.4383513e-05 0.00024625074 1.0381038e-06 6.1764e-06
7.703791e-05 6.5075605e-05 2.5351888e-05 0.0001747278 0.0009754272 2.7907952e-05 1.0071276e-05 0.00013465567
0.00021569434 0.0014046165 5.4224824e-06 2.7907952e-05 0.00072128884 0.0005642214 0.0006029173 0.0009814632
5.4904875e-05 3.2664711e-06 2.7774364e-05 1.0834298e-05 1.5232837e-05 9.4455776e-05 6.3562345e-07 3.2664711e-06
5.0335166e-05 3.5238834e-05 4.579198e-05 5.880553e-05 0.00028823107 3.0169815e-06 0.00031982432 1.2167821e-05

exp_avg f4 [64]
00000000: 5eed 0b3b 37f0 223b add6 6f3b 7e02 623a
00000010: a462 fb37 524c a73a a487 d73a 8fa9 2f3b
00000020: 31bc aaba b40a 053c 6e2c 993b 7c84 303a
00000030: 688d cd3a 8d6f b13a cf8e 21ba bb1c 1a3b
00000040: 960e b73a 0000 0000 afea 5a3b 4d2a 9c3b
00000050: 15d8 9a3a 3d19 2e3a fa72 3b3c 12b9 55bb
00000060: d8fc 1b3c a297 6bba 24c7 bb3b 0000 0000
00000070: f36e 983a 525a 67b9 d760 943b 4009 6b3b
00000080: 69f9 9e3b e63a 9b3a a6e5 813a dad6 873c
00000090: db94 4f3b 7109 02bb b71d fd3b 8c96 053b
000000a0: 6aee 893b 0000 0000 ec46 183b 713e 0a3c
000000b0: 1ef0 0b3b bb54 8d3b 3e70 2439 9723 bfba
000000c0: e1e3 693a e02d 233b 18dd bb3a 97ff 2bbb
000000d0: 0fe0 093c 4e04 203b 3216 603b 0559 f33b
000000e0: 0000 0000 6910 a53b b666 92bb 8ce7 383b
000000f0: 4fb3 263c 0a9a 273b ed25 033b 02ce bd3a
0.0021351199 0.0024862417 0.0036596463 0.0008621587 2.9967465e-05 0.0012763834 0.0016443622 0.0026803946
-0.0013026056 0.008120228 0.004674486 0.0006733609 0.0015682401 0.0013537273 -0.0006162943 0.002351566
0.0013966139 0.0 0.0033404042 0.004765785 0.0011813665 0.0006641334 0.011440987 -0.0032611531
0.009520732 -0.00089871336 0.0057305265 0.0 0.0011629745 -0.00022063524 0.004528146 0.0035863668
0.0048515094 0.0011843115 0.000991036 0.016581941 0.0031674418 -0.0019842053 0.0077244896 0.0020383922
0.0042093294 0.0 0.0023235632 0.008437739 0.0021352838 0.004313079 0.00015682072 -0.001458275
0.0008922201 0.002489917 0.0014332859 -0.0026244873 0.008415236 0.0024416628 0.0034192917 0.0074263834
0.0 0.0050373566 -0.0044678105 0.0028214185 0.010174586 0.0025573992 0.002001162 0.0014480951

exp_avg_sq f4 [64]
00000000: cc64 b939 7ab7 4e3a 7aa9 be39 7895 0738
00000010: 60b1 f738 03f6 8038 4b69 9b39 19b6 af39
00000020: 1245 a83a 75e3 443a 52db ea3a 1fba 7a39
00000030: abaa 6f39 52ef 8f39 1560 003a 7e50 4339
00000040: 6a03 1f3a 0000 0000 cd0c c339 fcb9 0d3b
00000050: 8f4f 1f39 6ba1 fa39 7d3e 443b 271a 173a
00000060: 49e8 df3a b9ff 643a 2796 c83a 0000 0000
00000070: 8a2e 8338 5419 5338 81e8 9e3a 331c 903a
00000080: c41c ff3a ad3b 7f38 d37a a439 68e0 9a3a
00000090: 7c20 873a 6ee2 0739 ad1f ae3a e1ce fc38
000000a0: 0d02 7c3a 0000 0000 fc92 2c39 852e 043c
000000b0: 5e2d 1c3a d4b5 d43a fc06 ad38 ba3c c439
000000c0: 5b0b c039 cc12 053a 83e1 7039 4f5a 183a
000000d0: 71de 753b 61a6 293a 37a4 b93a 6f33 b33a
000000e0: 0000 0000 731e dc3a 7aca d83a c8bb 5b39
000000f0: b817 433b f073 4439 4c77 aa38 abb2 133a
0.0003536105 0.00078856165 0.00036365894 3.232571e-05 0.000118109165 6.149339e-05 0.00029642353 0.00033514274
0.0012837967 0.00075107004 0.0017918146 0.00023911193 0.00022856395 0.00027453393 0.000489713 0.00018626635
0.00060658774 0.0 0.00037202836 0.0021625748 0.0001519306 0.00047803982 0.0029944472 0.000576409
0.0017082776 0.00087356154 0.0015303538 0.0 6.255235e-05 5.032991e-05 0.0012123735 0.0010994732
0.0019463529 6.0852315e-05 0.0003137203 0.0011816146 0.0010309364 0.00012958955 0.0013284587 0.000120548306
0.00096133427 0.0 0.00016457954 0.008067732 0.0005957688 0.0016228505 8.250584e-05 0.00037429278
0.00036629554 0.00050763483 0.00022972193 0.0005811797 0.0037516619 0.0006471631 0.001416332 0.0013671945
0.0 0.0016793743 0.0016539835 0.00020955421 0.0029768776 0.00018735207 8.1284525e-05 0.00056342286
