models/checkpoint_830000.pt (torch, 125871 bytes, 33 tensors)

shared.0.weight f4 [64, 12]
0	0xbe660849	-0.22464098
1	0xbefb3519	-0.49063948
2	0x3e005c52	0.12535217
3	0x3f5a9dbe	0.85396945
4	0xbdee7acc	-0.116445154
5	0xbcb11106	-0.021614563
6	0xbf07a9b6	-0.52993333
7	0xbf2bb0f9	-0.67066914
8	0xbdcd6bb5	-0.10030309
9	0xbe40e0ce	-0.18835756
10	0xbe0c8063	-0.1372085
11	0x3d1dc73b	0.03852008
12	0x3c97f834	0.01855097
13	0x3e4b10d3	0.19830637
14	0xbe3a104e	-0.18170282
15	0x3f733998	0.95009756
16	0x3e357978	0.17722118
17	0xbdc29e46	-0.095028445
18	0x3e61343c	0.21992582
19	0x3ed9fac5	0.42574134
20	0x3d15bc3c	0.036556467
21	0xbdd7c780	-0.105360985
22	0x3dbf7185	0.09347824
23	0x3e57c44c	0.21070975
24	0x3d967f58	0.07348508
25	0xbc066605	-0.008203034
26	0x3c732d68	0.014842369
27	0xbe163770	-0.14669585
28	0xbf552e36	-0.8327364
29	0x3dbc03da	0.09180422
30	0x3e1629a0	0.14664316
31	0x3d083447	0.03325298
32	0xbe56be95	-0.20971139
33	0x3dad1a60	0.08452296
34	0x3e325ec5	0.17418964
35	0xbc1bd18a	-0.009510407
36	0xbe577240	-0.21039677
37	0xbf1277f7	-0.572143
38	0xbbdd453a	-0.006752637
39	0xbc9c86a6	-0.019107174
40	0x3e7725bc	0.24135488
41	0x3e8cfb28	0.27535367
42	0x3d906ae8	0.07051641
43	0xbe7a3d66	-0.24437484
44	0xbdbf312b	-0.0933555
45	0x3d9b91f1	0.075961955
46	0x3d401dcf	0.046903428
47	0x3e42febf	0.1904249
48	0x3dc22eed	0.09481607
49	0xbe9d8c96	-0.3077132
50	0x3d8ddaba	0.069264844
51	0xbf361884	-0.7113116
52	0xbe98e41d	-0.29861537
53	0xbe0f7787	-0.1401044
54	0xbf1bf65a	-0.6092278
55	0xbe232018	-0.15930212
56	0x3d0aef2d	0.033919502
57	0x3e04e749	0.12978853
58	0xbe4a8120	-0.1977582
59	0xbea97817	-0.33099434
60	0xbe2d3ccd	-0.16917725
61	0xbcc65073	-0.024208283
62	0xbe9196cb	-0.28435358
63	0xbefb097e	-0.4903068
64	0xbec08c7e	-0.37607187
65	0x3d88f763	0.0668781
66	0xbe1dd098	-0.15411603
67	0xbdaf77f8	-0.08567804
68	0x3bd8d66c	0.006617358
69	0xbca6dad4	-0.020368017
70	0xbd37cb7e	-0.0448718
71	0x3e0043ef	0.12525915
72	0xbcea1825	-0.028575966
73	0x3f0060d4	0.5014775
74	0x3acf38b9	0.0015809751
75	0x3f0e4a22	0.5558187
76	0xbf385320	-0.7200184
77	0xbdfdf289	-0.123997755
78	0x3c653f12	0.013992088
79	0x3e8e5881	0.27801898
80	0x3da214cc	0.07914123
81	0x3dae8283	0.08520987
82	0x3da7acbd	0.08187244
83	0x3e66809c	0.22509998
84	0x3d91570c	0.07096681
85	0xbeaa2460	-0.33230877
86	0x3d0142a4	0.031557694
87	0xbebf43e0	-0.37356472
88	0xbef4d383	-0.4781762
89	0xbd25f535	-0.04051705
90	0xbef3f525	-0.47647968
91	0xbe67bee2	-0.2263141
92	0xbd146292	-0.036226816
93	0xbe90065f	-0.2812986
94	0x3e2212c1	0.15827467
95	0x3d397a24	0.045282498
96	0xbe7888f3	-0.24270992
97	0xbe903173	-0.28162727
98	0x3de3cf1d	0.11123488
99	0xbedcce85	-0.43126312
100	0x3e5aa062	0.21350244
101	0x3b26b74b	0.002543884
102	0xbfae7d37	-1.3631963
103	0xbe3c6962	-0.18399575
104	0x3d94e0a7	0.072694115
105	0x3cf9947f	0.030466316
106	0xbc2a89da	-0.010408843
107	0xbf71e82d	-0.944949
108	0x3cadaac2	0.021199588
109	0x3e3f4725	0.18679483
110	0x3df882d7	0.12134331
111	0xbe2038b3	-0.15646629
112	0xbf26c688	-0.65146685
113	0x3e120533	0.14259796
114	0xbf9c8c5a	-1.2230332
115	0x3d17700c	0.03697209
116	0x3e3c2217	0.18372379
117	0xbe9246ee	-0.2856974
118	0x3e21ea8d	0.1581213
119	0xbe465640	-0.1936884
120	0xbe2bee41	-0.16790105
121	0x3cd68788	0.026187673
122	0xbdf7120e	-0.120639905
123	0x3ed9cfe0	0.4254141
124	0xbf561060	-0.83618736
125	0xbe2d0219	-0.16895331
126	0xbcaa7b16	-0.020810645
127	0xbdff6892	-0.12471117
128	0xbdc04888	-0.09388834
129	0x3d62fd02	0.05541707
130	0xbcb79096	-0.022407811
131	0x3e1e53e5	0.1546169
132	0xbeba487b	-0.36383423
133	0x3f374bfb	0.7160031
134	0x3dd68391	0.10474313
135	0x3fbfe65b	1.4992174
136	0xbd9fa4ed	-0.07795129
137	0xbcf726ed	-0.030169928
138	0x3e9da20d	0.30787697
139	0x3f1a482d	0.6026638
140	0x3d948bc7	0.07253223
141	0xbd168fa9	-0.0367581
142	0x3e293d7e	0.16527364
143	0x3e53b28d	0.2067358
144	0xbe42e696	-0.19033274
145	0x3ea0a279	0.31373957
146	0xbbd3fc9c	-0.0064693224
147	0xbdc2e9db	-0.09517261
148	0xbece9b50	-0.4035287
149	0x3e350bdb	0.17680304
150	0x3e892d11	0.26792195
151	0x3d38226e	0.04495471
152	0xbc9317fa	-0.017955769
153	0xbe108aed	-0.14115496
154	0xbcbbb7d8	-0.022914812
155	0x3dba102e	0.09085117
156	0xbeda6076	-0.4265172
157	0x3c301fc4	0.010749761
158	0xbd9b718c	-0.07590017
159	0x3eb28436	0.34866494
160	0x3def3845	0.116806544
161	0xb90e28f4	-0.00013557432
162	0x3f179d7f	0.59224695
163	0x3e80c2f3	0.25148734
164	0x3d86080a	0.06544502
165	0xbe8b7338	-0.27236342
166	0x3e07a53d	0.13246627
167	0x3ed06582	0.40702444
168	0xbe52318f	-0.20526718
169	0xbcc694a6	-0.024240803
170	0xbe23f0ce	-0.16009828
171	0x3e84c423	0.2593089
172	0xbf364341	-0.7119637
173	0x3db3ec3a	0.08785291
174	0x3ec5547a	0.38541013
175	0xbdf03cc7	-0.11730342
176	0xbd421f29	-0.047392998
177	0xbca2ffbb	-0.019897332
178	0x3ded9d6c	0.116022915
179	0x3e6ef777	0.23336588
180	0x3cfbe060	0.030746639
181	0xbef0184d	-0.4689354
182	0x3df832f8	0.121190965
183	0x3d4cd320	0.050006032
184	0xbf00dfa2	-0.50341237
185	0xbd40de44	-0.04708697
186	0xbeca1c0a	-0.39474517
187	0xbec4efc3	-0.38464174
188	0x3e81167c	0.25212467
189	0xbe7495f4	-0.23885328
190	0x3d3e5aa9	0.04647318
191	0xbe6187d9	-0.22024478
192	0xbe8fad61	-0.28061965
193	0x3e6dc404	0.23219305
194	0xbd1ce43d	-0.038303602
195	0x3f558c84	0.83417535
196	0xbced6717	-0.028979821
197	0xbe4a7042	-0.19769385
198	0x3de7ede1	0.11324669
199	0x3f03609d	0.51319295
200	0xbe307758	-0.17233026
201	0xbdc522ff	-0.096258156
202	0x3d6f223a	0.05838225
203	0x3ea93911	0.3305135
204	0x3c990c5e	0.018682655
205	0x3c820370	0.01587078
206	0xbe24deba	-0.16100588
207	0xbd8e186c	-0.06938252
208	0xbe1aa945	-0.15103634
209	0xbd155a83	-0.03646327
210	0x3d30f67b	0.043203812
211	0xbd65363b	-0.05595992
212	0xbd86ab06	-0.06575589
213	0xbdc562c7	-0.09637981
214	0xbd96c731	-0.073622115
215	0xbd01ed38	-0.03172037
216	0xbe6e7a87	-0.23288928
217	0x3f377739	0.71666294
218	0x3e399f64	0.18127209
219	0x3ec81536	0.39078683
220	0xbce888e9	-0.028385596
221	0x3d34b91b	0.044121843
222	0x3e09ca1b	0.13456003
223	0x3f3d21c1	0.7387963
224	0xbddfb792	-0.10923685
225	0x3d3b65c1	0.045751337
226	0xbf926fea	-1.1440403
227	0xbe84c2e9	-0.25929955
228	0x3e263b16	0.16233477
229	0xbf029611	-0.51010233
230	0xbee31e3c	-0.44359004
231	0x3f3d5038	0.7395053
232	0x3e6738f1	0.22580315
233	0xbe3cef11	-0.18450572
234	0xbf3646f3	-0.7120201
235	0xbee758d9	-0.45184973
236	0xbcb7a2f2	-0.022416566
237	0x3e1951c8	0.14972603
238	0xbde74c2d	-0.11293826
239	0xbe4c5de9	-0.19957699
240	0xbcd296dc	-0.025706701
241	0xbd0bf991	-0.034173552
242	0xbd996a62	-0.07490994
243	0xbb720d42	-0.0036934172
244	0xbed478db	-0.41498455
245	0x3e0fadd9	0.14031161
246	0xbec008f6	-0.37506837
247	0x3cb9cf6c	0.022681914
248	0xbc7b8935	-0.015352537
249	0x3ed597fe	0.41717523
250	0xbe158270	-0.14600539
251	0xbeece4e9	-0.46268395
252	0x3e7f6343	0.24940209
253	0x3c0ee4a2	0.0087215025
254	0xbca1858f	-0.019717006
255	0xc0029d8c	-2.040866

shared.0.bias f4 [64]
0	0x3e4a3a30	0.1974876
1	0x3e7eea83	0.24894147
2	0x3bf46da8	0.007459361
3	0xbead2d25	-0.33823505
4	0x3e19a8c6	0.15005788
5	0x3d7c00ee	0.061524324
6	0x3efbf281	0.49208453
7	0x3ccb75f7	0.024836523
8	0x3f007495	0.5017789
9	0x3de9f7c6	0.11424212
10	0x3e8e9663	0.2784911
11	0x3e958dcd	0.29209748
12	0x3cd6cd7e	0.026221033
13	0xbc91e63a	-0.017809976
14	0x3d80a7a9	0.06281979
15	0xbdb14b73	-0.08656969
16	0x3e342a9d	0.1759438
17	0x00000000	0.0
18	0x3e7826e7	0.2423359
19	0x3e6fc7a7	0.23416005
20	0x3d6ace53	0.057325672
21	0x3ea4c503	0.32181558
22	0x3d0f0020	0.03491223
23	0xbec2ac60	-0.38022137
24	0x3ed26749	0.41094425
25	0x3ecb31cc	0.3968643
26	0x3ea5e520	0.3240137
27	0xbc1bfdc4	-0.009520952
28	0x3d6400f1	0.05566496
29	0x3d713e24	0.058897153
30	0x3ed623bb	0.41824135
31	0x3eb8dd47	0.3610632
32	0x3e77c555	0.2419637
33	0xbb7c5ad7	-0.0038506293
34	0xbd65969f	-0.056051847
35	0x3e234ebd	0.15948005
36	0x3edb3f60	0.4282179
37	0xbd5ba136	-0.05362054
38	0x3ed13127	0.40857813
39	0x3e5b5f6c	0.2142312
40	0x3e74cca6	0.23906192
41	0x00000000	0.0
42	0x3e8f1d48	0.27952027
43	0xbe59c5bf	-0.2126684
44	0x3d314a69	0.043283854
45	0x3eac6b20	0.3367548
46	0x3e49e25f	0.1971526
47	0x3eb0c842	0.34527785
48	0x3dd43edf	0.10363554
49	0x3e667844	0.22506815
50	0xbda636ec	-0.08115944
51	0x3db4b6c4	0.08823922
52	0x3e8d95a0	0.27653217
53	0x3eb76790	0.358212
54	0x3e693f1e	0.22777984
55	0x3e8fd18c	0.2808956
56	0x00000000	0.0
57	0x3e86b787	0.26311895
58	0xbeb62119	-0.35572127
59	0x3d80de8c	0.062924474
60	0x3e54136c	0.20710534
61	0x3db71dad	0.08941207
62	0x3e371948	0.17880738
63	0x3e7ae61c	0.24501842

shared.2.weight f4 [64, 64]
0	0xbe35d73f	-0.17757891
1	0xbdb58247	-0.08862739
2	0x3f58b15c	0.8464563
3	0xbc897083	-0.016777283
4	0x3ebf304d	0.37341538
5	0xbe0883f3	-0.13331585
6	0xbd47addd	-0.048749793
7	0x3e18d043	0.14923196
8	0xbf425f24	-0.75926423
9	0x3f27c3fe	0.65533435
10	0x3e81ae24	0.2532817
11	0x3d261a04	0.040552154
12	0x3e48af01	0.19598009
13	0xbeb1bcc0	-0.34714317
14	0x3dccfd7c	0.10009286
15	0x3d654cab	0.05598132
16	0xbe1705d4	-0.14748317
17	0x3d8646ff	0.0655651
18	0x3d9faf08	0.077970564
19	0xbc7a6c26	-0.015284574
20	0x3f0d8d8f	0.55294126
21	0xbecaf91b	-0.39643177
22	0x3f2b5f44	0.6694224
23	0xbe2cbe8a	-0.1686956
24	0x3d1900f0	0.03735441
25	0x3e58797a	0.2114009
26	0x3dbe1af1	0.092824824
27	0x3e0d6a53	0.1381009
28	0x3e78dd34	0.24303132
29	0xbf6aada4	-0.91671205
30	0xbd6be827	-0.057594445
31	0x3ec258b9	0.37958315
32	0x3e791e33	0.24327926
33	0x3f01050a	0.50398314
34	0xbe9338b8	-0.2875421
35	0x3f365d52	0.71236145
36	0xbcbcb9b7	-0.023037774
37	0x3e448b77	0.19193827
38	0xbe4dc436	-0.2009438
39	0xbfc36e34	-1.5268006
40	0xbccaabb9	-0.024740087
41	0xbe0961df	-0.13416241
42	0x3f1da276	0.6157602
43	0xbf2f83fa	-0.68560755
44	0x3db49523	0.08817508
45	0x3f16b63c	0.5887182
46	0x3d1b329b	0.037890058
47	0x3cdb71a9	0.026787596
48	0x3f022818	0.5084243
49	0xbc9af8c1	-0.018917443
50	0xbd486aed	-0.048930097
51	0xbe3b2e39	-0.18279351
52	0xbde6d750	-0.11271536
53	0xbd972220	-0.07379556
54	0xbdba5711	-0.09098638
55	0x3bca54d6	0.006174664
56	0x3e080985	0.13284881
57	0xbf340403	-0.7031862
58	0xbdb33620	-0.08750558
59	0xbe253cb7	-0.16136442
60	0x3dc3cc87	0.09560495
61	0x3f11bbb8	0.5692706
62	0x3d92406e	0.07141195
63	0xbe221d8a	-0.15831581
64	0xbd05e563	-0.032689463
65	0xbe17fb1a	-0.14841881
66	0x3e1bdb89	0.15220465
67	0xbee7255f	-0.451457
68	0x3e90e49e	0.2829942
69	0xbc50c8b2	-0.012743162
70	0xbd1f2eb0	-0.038862884
71	0x3e063cb6	0.13109097
72	0xbeda759f	-0.42667863
73	0x3e9716b1	0.295095
74	0x3db4937a	0.088171914
75	0xbe1802ca	-0.14844814
76	0x3de7cd69	0.11318476
77	0xbe8bf370	-0.27334166
78	0x3de25a54	0.11052385
79	0x3ebc4c72	0.36777073
80	0xbddeaeee	-0.10873209
81	0x3d16e765	0.03684177
82	0x3e37dd49	0.17955507
83	0x3e493791	0.19650103
84	0x3e2de631	0.16982342
85	0xbf20f0d1	-0.62867457
86	0x3eb11c72	0.34592015
87	0x3d1367ed	0.035987783
88	0x3ccfc494	0.02536229
89	0x3d2f90d5	0.042862732
90	0x3e9ea3e2	0.30984408
91	0xbd36f276	-0.044664823
92	0x3dd5d44f	0.10440885
93	0xbeb86a4b	-0.36018595
94	0x3da5c1d7	0.08093613
95	0x3eb9c661	0.36284164
96	0xbd06c54e	-0.03290301
97	0x3eeec50f	0.4663472
98	0xbba92eed	-0.0051630647
99	0x3e9d0645	0.30668846
100	0xbe9c9db6	-0.30589074
101	0x3f22febb	0.6366994
102	0xbd72db14	-0.05929096
103	0xbfbf6728	-1.4953356
104	0xbe90106f	-0.28137538
105	0xbde3a1f8	-0.111148775
106	0x3e8b7f21	0.2724543
107	0xbf3f4d60	-0.7472744
108	0xbde71719	-0.112837024
109	0x3e59b037	0.21258627
110	0xbc9b7435	-0.01897631
111	0x3d9c88aa	0.07643254
112	0x3e849d9b	0.25901493
113	0xbdeb3d9b	-0.1148636
114	0xbdfb3630	-0.12266195
115	0xbdc138fc	-0.09434697
116	0x3aee3fc3	0.0018176961
117	0xbdbb9571	-0.09159363
118	0xbd87ca49	-0.0663038
119	0xbe75a7bf	-0.23989771
120	0x3d2d0e65	0.042250056
121	0xbe95b0d6	-0.29236478
122	0x3de63ef5	0.11242477
123	0xbde69cee	-0.11260401
124	0x3e386da1	0.1801057
125	0x3ec28d75	0.37998548
126	0xbee12429	-0.439729
127	0xbdece40d	-0.11566935
128	0xbe8ae73c	-0.27129543
129	0xbe7c0474	-0.24611074
130	0x3e3aa003	0.18225102
131	0xbe8d15e3	-0.2755576
132	0xbda9d04d	-0.08291683
133	0xbe9c409e	-0.3051805
134	0xbd7ec98b	-0.062203925
135	0x3dbc6729	0.09199364
136	0xbef9ac06	-0.48764056
137	0x3cea32cb	0.028588673
138	0xbe46c4fd	-0.19411083
139	0xbd8b2cb2	-0.06795634
140	0x3bc8a1aa	0.0061227875
141	0xba80eae6	-0.000983563
142	0xbc82de2f	-0.015975086
143	0x3d0ba6a8	0.034094483
144	0x3c80393b	0.01565229
145	0x3da6fb96	0.08153455
146	0xbd17409c	-0.03692685
147	0xbd70bc49	-0.058773313
148	0x3e8b49e3	0.2720481
149	0xbf8e5aa6	-1.1121414
150	0x3e331bb3	0.17491035
151	0xbe6e67e9	-0.23281826
152	0x3e655af1	0.22397973
153	0x3e68c716	0.22732195
154	0x3c22ea46	0.00994355
155	0xbda17413	-0.078834675
156	0x3e3e2071	0.18567063
157	0xbe8e0009	-0.27734402
158	0x3d95bbe8	0.07311231
159	0x3f12d2d1	0.5735293
160	0xbc962d6f	-0.018332211
161	0x3ddffdf9	0.10937113
162	0x3bf7fb33	0.007567787
163	0x3f1c9f5e	0.61180675
164	0xbcfc9dd5	-0.030836979
165	0x3e184708	0.14870846
166	0x3cb2108b	0.021736404
167	0xbfc2fd7c	-1.5233607
168	0x3dfc7b61	0.1232822
169	0xbdad3841	-0.08457995
170	0x3e2a1425	0.16609247
171	0xbf060358	-0.5234885
172	0xbd92417c	-0.071413964
173	0x3c963360	0.018335044
174	0xbe634e36	-0.22197804
175	0x3e3e3f04	0.18578726
176	0xbd8891ac	-0.0666841
177	0xbec215a4	-0.37907135
178	0xbdb0fcec	-0.08641991
179	0x3cd7523c	0.02628433
180	0x3e8a74bb	0.27042183
181	0xbdbf6af4	-0.093465716
182	0x3e3a1f9f	0.18176125
183	0x3dd37c86	0.10326485
184	0x3e45b581	0.1930752
185	0xbe9b284e	-0.30304188
186	0xbe3e8002	-0.18603519
187	0xbeeaca39	-0.4585741
188	0x3e343c3e	0.17601106
189	0x3ed8ba3f	0.42329594
190	0xbf2413dc	-0.64092803
191	0x3b979ebc	0.004627077
192	0x3df84b81	0.12123776
193	0xbeb5d748	-0.3551581
194	0xbf36935a	-0.7131859
195	0xbf0c220a	-0.5473944
196	0xbd4f818e	-0.050660662
197	0xbe886569	-0.2663987
198	0xbe87ffc7	-0.2656233
199	0x3e2ab506	0.16670617
200	0x3e48a14e	0.19592783
201	0x3ef2e784	0.47442257
202	0x3ce22e1e	0.027609881
203	0xbce1b669	-0.0275528
204	0xbe7c40c8	-0.24634087
205	0x3d30c78d	0.043159056
206	0xbeffb178	-0.49940085
207	0x3e5ba79f	0.21450661
208	0xbe25eca8	-0.16203558
209	0x3e2c92d1	0.16852881
210	0x3e64d84c	0.22348136
211	0xbf5b9698	-0.8577666
212	0xbefdff2a	-0.49608737
213	0xbf1d3c98	-0.61420584
214	0x3f1a091c	0.6017015
215	0xbf05a767	-0.5220856
216	0x3e9ce606	0.30644244
217	0x3ece66c1	0.4031277
218	0xbe0d362f	-0.137902
219	0xbde8fcf5	-0.11376373
220	0xbf038441	-0.5137368
221	0xbd11e888	-0.03562215
222	0x3d841f20	0.06451249
223	0xbe3761b6	-0.17908368
224	0xbf22384e	-0.63367164
225	0xbfaec5ec	-1.3654151
226	0xbf2f2200	-0.68411255
227	0x3f947a6b	1.1599859
228	0x3d63e138	0.055634707
229	0x3ea74ac7	0.32674238
230	0xbda54fc8	-0.08071858
231	0xbfcc1e2a	-1.5946705
232	0x3de74e28	0.11294204
233	0xbe2a4e6a	-0.16631475
234	0x3e862abc	0.2620448
235	0xbf3d03d7	-0.73833984
236	0xbe4c09c8	-0.19925606
237	0x3edd782c	0.43255746
238	0xbde5b4c2	-0.112161174
239	0x3de4ffbb	0.11181589
240	0x3e4b8b9a	0.19877473
241	0xba49f1d2	-0.00077035755
242	0xbe3a88cd	-0.18216248
243	0xbf3963e0	-0.7241802
244	0xbf14bdb1	-0.58101946
245	0xbda48372	-0.08032884
246	0x3e3b7d26	0.18309459
247	0xbcc8722f	-0.02446851
248	0xbe0a192a	-0.13486162
249	0xbeaf93bf	-0.3429241
250	0xbf444e86	-0.7668232
251	0xbc8e5404	-0.017374046
252	0xbf47ce40	-0.7804909
253	0x3efa70de	0.48914236
254	0xbef13ca0	-0.47116566
255	0xbf4fa13b	-0.81105393

shared.2.bias f4 [64]
0	0x3e203c26	0.15647945
1	0x3eb64ea8	0.35606885
2	0x3ec82cd4	0.390967
3	0x3db52798	0.088454425
4	0x3d7c6870	0.061623037
5	0x3cc3ac26	0.023885798
6	0xbd1d0bbd	-0.038341273
7	0x3c1a5615	0.009419938
8	0xbf0af515	-0.54280216
9	0x3f0fa41f	0.56109804
10	0x3e8e797c	0.2782706
11	0x3e5bebe2	0.21476701
12	0x3ea8ea36	0.3299119
13	0x3eab332f	0.33437487
14	0x3f0bb58d	0.545739
15	0xbcd2c2df	-0.025727687
16	0x3d8a368d	0.06748686
17	0xbcc3316a	-0.023827273
18	0x3efced8e	0.4939999
19	0x3e14796d	0.14499445
20	0x3e894d06	0.26816577
21	0x3e3c9c97	0.1841911
22	0x3e9107c6	0.28326243
23	0x3f1382cb	0.5762145
24	0x3f106e55	0.56418353
25	0x3f0d34f7	0.5515894
26	0x3ea17ea1	0.31541923
27	0x3e7c5ebc	0.24645513
28	0x3dd43dd2	0.10363354
29	0x3e383889	0.17990316
30	0x3efa4455	0.48880258
31	0x3ed30ff6	0.41223115
32	0x3f1b0313	0.60551566
33	0x3ef72c8d	0.48276177
34	0x3e830c1b	0.25595173
35	0x3f0c42ab	0.5478923
36	0x3f0f01dc	0.5586221
37	0x3eaccb05	0.33748642
38	0x3ead05db	0.3379353
39	0x3f132d61	0.5749112
40	0xbca0af8a	-0.019614954
41	0x3e8394f4	0.2569958
42	0x3f0bb7b0	0.5457716
43	0x3efa13c2	0.488432
44	0xbd305690	-0.043051302
45	0xbd0d9756	-0.034568153
46	0x3ed1a5fd	0.40946952
47	0x3eca4dd1	0.39512494
48	0x3ebad320	0.364892
49	0x3e7a2f4e	0.24432108
50	0x3efdd6db	0.49577984
51	0x3ef97024	0.4871837
52	0x3ecae09d	0.3962449
53	0x3eb59019	0.354615
54	0x3db524a6	0.08844881
55	0xbd7bc932	-0.06147117
56	0x3f185006	0.59497106
57	0xbe3d80e7	-0.18506204
58	0x3edc592e	0.4303679
59	0x3edb51b0	0.4283576
60	0x3e6d62c2	0.23182204
61	0x3f184f04	0.5949557
62	0x3ea2ffd1	0.31835797
63	0x3eac1f35	0.3361756

actor.0.weight f4 [32, 64]
0	0xbda343df	-0.0797193
1	0xbe60695a	-0.21915188
2	0xbdd22dee	-0.10262667
3	0xbdd4396d	-0.103625156
4	0x3d78d853	0.060753178
5	0x3e1f1d24	0.1553846
6	0xbe452193	-0.19251089
7	0xbe18aba5	-0.14909227
8	0x3dd3eb2b	0.10347589
9	0x3df5e8d5	0.120073
10	0xbe5b6525	-0.21425302
11	0x3ddd7120	0.108125925
12	0x3dc3beb2	0.095578566
13	0x3c19a6bc	0.0093781315
14	0x3cbc0176	0.022949915
15	0xbd90946b	-0.070595585
16	0x3d82f6e3	0.06394746
17	0x3dd4cbfd	0.1039047
18	0xbd03bfb7	-0.032165255
19	0xbe5af3d0	-0.2138207
20	0x3cec805e	0.028869804
21	0xbe1f2a44	-0.15543467
22	0x3dea3753	0.114363335
23	0xbbcab8f2	-0.006186598
24	0xbc32a060	-0.010902494
25	0xbddbfe2e	-0.1074184
26	0x3ce5b388	0.028039709
27	0xbdd4d1c9	-0.10391576
28	0xbcaa1a8d	-0.020764614
29	0xbe98780b	-0.29779086
30	0xbd824fee	-0.06362902
31	0xbeb2b773	-0.34905586
32	0x3d28703d	0.041122664
33	0xbdeb6312	-0.114935055
34	0x3dc2698a	0.09492786
35	0x3df28a06	0.11842732
36	0xbe1b5975	-0.15170844
37	0xbe1811b6	-0.14850506
38	0xbe85e770	-0.26153135
39	0xbddb1bfe	-0.106986985
40	0xbb6d4936	-0.0036206967
41	0x3dab91f6	0.08377449
42	0xbd02b285	-0.03190853
43	0xbe911f18	-0.28344035
44	0x3cbb9e5b	0.022902658
45	0x3d4402f5	0.047854383
46	0x3d0fad2f	0.03507727
47	0xbc1f32de	-0.0097167175
48	0xbdde6eb9	-0.108609624
49	0xbce8580f	-0.028362302
50	0xbe280edc	-0.16411918
51	0xbd9ed1cb	-0.077548586
52	0xbe0c0f6e	-0.13677761
53	0x3dcc0425	0.09961728
54	0xbd33b2e2	-0.043871768
55	0xbdb51989	-0.08842761
56	0x3e5043d3	0.20338373
57	0xbe5ca42b	-0.21547
58	0xbd919d0f	-0.07110035
59	0xbd940b95	-0.072287716
60	0x3d4e793f	0.050408598
61	0xbcbaf89d	-0.022823626
62	0x3bc70f11	0.006074794
63	0xbcf69f1f	-0.030105172
64	0xbd2f2309	-0.04275802
65	0x3e33fe7a	0.17577544
66	0xbd01a1f0	-0.031648576
67	0x3c60f31c	0.013729837
68	0x3e97e596	0.29667348
69	0xbd185ffc	-0.037200913
70	0x3a0e32b1	0.0005424424
71	0x3d9b0689	0.07569606
72	0xbdd016a8	-0.10160571
73	0xbc0aab6e	-0.008463724
74	0x3d8c4c21	0.06850458
75	0x3ddf4b41	0.109030254
76	0xbe13a4d3	-0.14418344
77	0xbe0740a0	-0.13208246
78	0x3db4f2a8	0.088353455
79	0x3de8951d	0.11356566
80	0xbedbe4e8	-0.4294808
81	0x3d95b494	0.07309833
82	0xbdccfef3	-0.10009565
83	0xbd42b52b	-0.047536056
84	0x3c57250e	0.013131393
85	0xbdda3cff	-0.10656165
86	0x3d935571	0.07194031
87	0xbd15fa1b	-0.036615472
88	0xbda3d85c	-0.08000252
89	0x3b5d28e9	0.0033746308
90	0x3cbebeef	0.023284404
91	0x3e8e2f36	0.27770394
92	0x3e05ef65	0.13079603
93	0x3e5e2ff8	0.21697986
94	0x3cf5de54	0.03001324
95	0x3b7e6567	0.0038817765
96	0x3d284e0d	0.04109006
97	0xbb556031	-0.0032558555
98	0x3d0b5abf	0.03402209
99	0xbdc826c1	-0.09773017
100	0xbe20b962	-0.15695718
101	0xbc554a76	-0.013018241
102	0xbe6c15f7	-0.23055254
103	0xbd660ef2	-0.056166597
104	0x3e1548d5	0.14578564
105	0x3e404e27	0.18779813
106	0x3d029db5	0.031888682
107	0xbdd342e4	-0.10315493
108	0xbd854806	-0.06507878
109	0x3e002c49	0.12516893
110	0xbc80e716	-0.01573519
111	0xbc9e2872	-0.019306395
112	0x3df9f3cf	0.12204706
113	0xbe36d17e	-0.17853352
114	0xbd737975	-0.059442002
115	0xbe861061	-0.2618437
116	0xbe11fc80	-0.14256477
117	0xbdde1e91	-0.10845674
118	0xbe1c439e	-0.15260169
119	0x3c82ed53	0.015982306
120	0xbd72726b	-0.05919115
121	0xbdb3e9d6	-0.08784835
122	0x3bf95d5a	0.0076100053
123	0xbe519d38	-0.2047013
124	0xbb821056	-0.0039692326
125	0xbdb22d40	-0.08700037
126	0xbc01d04a	-0.007923195
127	0x3dd0690b	0.10176285
128	0x3cc48750	0.023990303
129	0xbcd290fc	-0.0257039
130	0xbe01cd62	-0.12676004
131	0xbe1a2729	-0.15054001
132	0xbef964bd	-0.4870967
133	0x3f8634c0	1.0484848
134	0xbcbbff5c	-0.022948913
135	0x3e03555d	0.12825532
136	0xbebb62e2	-0.3659888
137	0xbe75a6b3	-0.23989372
138	0xbe1e151b	-0.15437739
139	0x3e062391	0.13099505
140	0xbe48a94f	-0.19595836
141	0xbe94ca5d	-0.2906064
142	0xbe1903bd	-0.14942832
143	0xbc0ea4a3	-0.008706245
144	0xbea06593	-0.31327495
145	0xbd3bedff	-0.045881268
146	0x3e8618dc	0.2619084
147	0x3e43ab60	0.19108343
148	0xbcf7d5a6	-0.030253243
149	0xbddcfd0b	-0.107904516
150	0xbdcb6327	-0.09931021
151	0xbe328c12	-0.17436245
152	0xbd170d9d	-0.036878217
153	0xbdd440d4	-0.103639275
154	0x3e92c853	0.2866846
155	0xbcf4b155	-0.029869715
156	0x3e829e4d	0.255114
157	0xbe037e53	-0.12841158
158	0x3e33b01e	0.17547652
159	0xbeeba3e2	-0.4602347
160	0x3e7eaed0	0.24871373
161	0x3e03d53d	0.12874313
162	0xbe2ba961	-0.16763832
163	0xbe0464ac	-0.12929028
164	0xbcd9d365	-0.026590059
165	0xbd9427a1	-0.07234121
166	0xbe9117b6	-0.28338403
167	0x3d5f771d	0.054556955
168	0xbcec0ef3	-0.028815722
169	0x3db90007	0.09033208
170	0xbe356b63	-0.17716746
171	0x3dcaaba7	0.09896021
172	0xbb2b1a4f	-0.002610821
173	0xbbf851ee	-0.007578126
174	0xbec9866f	-0.39360377
175	0x3dfa9872	0.12236108
176	0xbea63f0f	-0.32469985
177	0x3df08ab4	0.117452055
178	0xbd90a756	-0.07063167
179	0xbd827898	-0.06370658
180	0x3dc3a211	0.09552396
181	0x3eb9fae1	0.36324218
182	0xbdf7d87f	-0.1210184
183	0xbd52c51d	-0.051457513
184	0x3e451809	0.1924745
185	0x3e2bbc09	0.16770948
186	0x3ea219e1	0.3166037
187	0x3e9f202f	0.31079242
188	0x3e9a98cc	0.301947
189	0xbe504d0b	-0.2034189
190	0x3ed68ec6	0.41905802
191	0xbe9283af	-0.28616092
192	0xbdc71920	-0.09721589
193	0xbd9a9e30	-0.07549703
194	0x3d5f029d	0.05444585
195	0xbe07ed23	-0.13274054
196	0x3d7b5fdd	0.06137072
197	0xbd001f90	-0.0312801
198	0x3da5df64	0.08099249
199	0x3e0ac7a5	0.13552721
200	0x3e4e5392	0.20149067
201	0xbe2a1ccd	-0.16612549
202	0x3dc98a72	0.098408595
203	0x3c70dbc9	0.014700838
204	0xbe03753e	-0.12837693
205	0x3d8c0220	0.06836343
206	0x3d0162d2	0.031588383
207	0xbe415191	-0.18878771
208	0x3d531e05	0.0515423
209	0xbcc9a78a	-0.024616022
210	0x3cf39885	0.029735813
211	0xbc2d37ac	-0.010572355
212	0x3d6dc08d	0.05804496
213	0xbd7d5991	-0.061852995
214	0x3cc4a605	0.024004946
215	0x3e156770	0.1459024
216	0xbdf17852	-0.117905274
217	0xbdf1369f	-0.11777996
218	0x3da05799	0.07829208
219	0x3e82a1d3	0.25514087
220	0xbc4b563d	-0.0124106975
221	0xbdce38fb	-0.10069462
222	0x3dd0c99c	0.10194704
223	0x3e215f6a	0.15759054
224	0x3c92d38e	0.017923143
225	0xbdf56c3b	-0.11983534
226	0x3d64ab55	0.055827457
227	0x3c25f739	0.010129743
228	0xbd869e02	-0.06573106
229	0xbe5f6390	-0.21815324
230	0xbcbe0b22	-0.023198668
231	0xbe58ed1e	-0.21184203
232	0x3e113045	0.1417857
233	0xbe36807f	-0.17822455
234	0xbe3bdaef	-0.18345235
235	0xbd8ad417	-0.06778734
236	0x3d4b8f7a	0.049697377
237	0x3dc86fa7	0.09786921
238	0x3e352a23	0.17691855
239	0xbd92a89e	-0.071610674
240	0xbe7478d9	-0.23874225
241	0x3b7e11ca	0.0038767927
242	0xbd955e80	-0.07293415
243	0x3da95294	0.08267704
244	0x3e15547c	0.1458301
245	0xbe517966	-0.20456466
246	0xbdaaa7dd	-0.08332799
247	0xbe4e21d4	-0.20130092
248	0xbcb3dda1	-0.021956267
249	0x3e216184	0.15759856
250	0x3ec02fd4	0.3753649
251	0x3e8cb948	0.27485108
252	0xbdc1d434	-0.09464303
253	0xbbcd5801	-0.0062665944
254	0x3c3da583	0.011575106
255	0xbe0fce64	-0.14043576

actor.0.bias f4 [32]
0	0xbc9a171d	-0.01880985
1	0xbc556f76	-0.013027063
2	0x3e1373c2	0.14399627
3	0x3c95659d	0.01823693
4	0xbc6d2d7a	-0.0144761745
5	0x3df6cb47	0.12050491
6	0xbe8550ed	-0.26038304
7	0xbe6d827d	-0.23194309
8	0x3dab8f1c	0.08376905
9	0x3e971012	0.29504448
10	0x3e7be362	0.24598458
11	0xbc099310	-0.008396879
12	0x3dedc764	0.11610296
13	0x3d9d6f48	0.07687241
14	0x3bf22c49	0.007390533
15	0xbcb664de	-0.022264894
16	0xbe87a36c	-0.26491868
17	0xbc832097	-0.016006751
18	0xbe617b0e	-0.22019598
19	0xbc51b4d1	-0.012799458
20	0xbd689ca5	-0.056790013
21	0xbd5a8702	-0.05335141
22	0xbd0c9873	-0.034325074
23	0xbc8b9fcc	-0.01704397
24	0xbb595aae	-0.0033165622
25	0x00000000	0.0
26	0xbe82290a	-0.25421935
27	0xbc190457	-0.009339414
28	0xbb95ac2e	-0.0045676446
29	0xbb529b8c	-0.003213617
30	0x3d295c59	0.041347835
31	0xbc93b0e2	-0.01802868

actor.2.weight f4 [2, 32]
0	0xbe33a3dd	-0.17542978
1	0xbe7da28c	-0.24769038
2	0x3e9b8af3	0.30379447
3	0x3d8446cf	0.06458818
4	0xbca51f2c	-0.020156465
5	0x3e955917	0.29169533
6	0xbf8be0e5	-1.0928007
7	0xbf0b9990	-0.5453119
8	0x3ecdb10a	0.40174133
9	0x3fc34620	1.5255775
10	0x3f478c9e	0.7794894
11	0x3e88f6d6	0.2675082
12	0x3f34d89b	0.70643014
13	0xbe120a3b	-0.14261715
14	0x3b966ae2	0.004590378
15	0xbe4a9b04	-0.19785696
16	0xbfc1ddbe	-1.5145795
17	0xbda5da4b	-0.08098277
18	0xbf79eca7	-0.9762673
19	0xbd1dfc47	-0.03857067
20	0xbbcaaae6	-0.0061849235
21	0x3dff5720	0.1246779
22	0x3cd81e66	0.026381683
23	0xbe0a0a50	-0.13480496
24	0xbf0ec26e	-0.55765426
25	0xbe6c2b00	-0.23063278
26	0xbfac2263	-1.3447994
27	0xbe066480	-0.13124275
28	0x3dc205b6	0.094737455
29	0x3e798d99	0.24370421
30	0x3e8fc8eb	0.28082976
31	0x3c437bcf	0.011931374
32	0x3e24dde9	0.16100277
33	0xbca94d7c	-0.02066683
34	0xbeb09394	-0.34487593
35	0xbe8a2e92	-0.26988655
36	0xbe8028d4	-0.2503115
37	0xbed51a6b	-0.41621718
38	0x3f7fbbe6	0.99896085
39	0x3ef7abd0	0.4837327
40	0xbf376b93	-0.7164852
41	0xbfcb41b6	-1.5879428
42	0xbf66a44d	-0.90094453
43	0xbda0d390	-0.07852852
44	0xbf6e334f	-0.9304704
45	0xbf1b407f	-0.6064529
46	0xbeab1253	-0.33412418
47	0x3ed53eff	0.41649625
48	0x3fc501cf	1.5391177
49	0xbe0ea2af	-0.13929246
50	0x3f70b75a	0.9402977
51	0xbe55d343	-0.20881371
52	0xbe9f371e	-0.3109674
53	0x3e133d4f	0.14378856
54	0xbd511368	-0.051043898
55	0xbd2c2ad0	-0.042033017
56	0x3e0023a5	0.12513597
57	0x3d58af6f	0.05290168
58	0x3f99c1f8	1.201232
59	0x3d8e22fe	0.06940268
60	0xbe19d65a	-0.15023175
61	0xbd58e1af	-0.052949604
62	0x3e4e8616	0.20168337
63	0xbe3dbf2e	-0.1852996

actor.2.bias f4 [2]
0	0x3e84f3fb	0.25967392
1	0xbe84f3f1	-0.25967363

critic.0.weight f4 [32, 64]
0	0x3e3b8cb0	0.18315387
1	0xbe567a61	-0.20945121
2	0xbdd1e91d	-0.10249541
3	0x3cbffa0d	0.023434663
4	0xbd55b8b3	-0.052178096
5	0xbd2293a4	-0.039691582
6	0xbe330c80	-0.17485237
7	0xbca2d239	-0.019875633
8	0x3d418175	0.0472426
9	0x3e592547	0.21205626
10	0x3d64d6d7	0.05586895
11	0x3ddce8ba	0.107865766
12	0xbcaf7f27	-0.021422936
13	0xbc43a195	-0.01194038
14	0x3d5acd33	0.05341835
15	0x3d959497	0.07303732
16	0xbb32f678	-0.0027307551
17	0xbdca4bde	-0.09877752
18	0xbcf43e17	-0.029814763
19	0xbd9feb8d	-0.078085996
20	0xbe7ccf10	-0.24688363
21	0x3d39e5ea	0.04538528
22	0x3e0f3b4a	0.1398746
23	0x3db0960b	0.086223684
24	0x3c045124	0.008075986
25	0xbdb07722	-0.08616473
26	0xbda1f33e	-0.07907723
27	0xbdcb0563	-0.09913137
28	0x3ddfe755	0.10932795
29	0xbd76e07d	-0.060272682
30	0xbd99e04a	-0.07513483
31	0xbd2c028c	-0.041994616
32	0xbc8861a1	-0.016648116
33	0x3d2b2329	0.04178158
34	0xbc1f4497	-0.009720943
35	0x3e253d33	0.16136627
36	0xbec0b649	-0.37639073
37	0xbe9439be	-0.28950304
38	0xbcc2c2a8	-0.02377446
39	0xbd950233	-0.0727581
40	0x3e19896c	0.14993829
41	0xbc3d6fb3	-0.011562276
42	0xbd8e303c	-0.06942794
43	0x3e765c4a	0.24058643
44	0x3e1f6183	0.15564542
45	0x3d077601	0.03307152
46	0x3e618988	0.2202512
47	0xbdc23ca5	-0.09484223
48	0x3e1ebb4a	0.15501133
49	0xbe1f38b7	-0.15548979
50	0xbdc3441b	-0.095344745
51	0xbd327a04	-0.043573394
52	0xbd51a02c	-0.051178142
53	0xbe5ec67e	-0.21755406
54	0x3da1c243	0.078983806
55	0xbe9031fe	-0.2816314
56	0x3ce51ea0	0.027968705
57	0xbcb5eb29	-0.02220686
58	0xbd8ed42e	-0.06974064
59	0xbcc04449	-0.02347006
60	0x3dcdac09	0.10042579
61	0xbdfc6dbe	-0.12325619
62	0x3da94b94	0.082663685
63	0xbc8b1b01	-0.01698065
64	0x3dc6958c	0.096964926
65	0x3e29d3d7	0.16584717
66	0x3e0b541a	0.13606301
67	0xbe7c0f76	-0.24615273
68	0x3f8aea6d	1.0852791
69	0x3e7b5b78	0.24546611
70	0x3cd9187d	0.026500935
71	0xbd90cea3	-0.07070663
72	0xbf2bf57a	-0.6717144
73	0x3e382d9a	0.17986146
74	0xbedb0d51	-0.42783597
75	0xbeb473a2	-0.3524447
76	0xbe68a929	-0.2272078
77	0x3c237484	0.00997651
78	0x3ca6cee9	0.020362334
79	0x3e10bce2	0.14134553
80	0x3e8e4fa8	0.27795148
81	0xbd3e6ac8	-0.046488553
82	0x3e526a45	0.20548351
83	0x3ee8ffad	0.45507565
84	0x3e88f572	0.2674976
85	0x3f0c7663	0.54868144
86	0x3ece9b33	0.40352783
87	0xbe6cec16	-0.23136935
88	0xbe549944	-0.20761591
89	0x3aae052b	0.0013276687
90	0x3e4c4f92	0.19952229
91	0xbeea1adf	-0.45723626
92	0x3f318f55	0.6935933
93	0xbf370955	-0.71498615
94	0x3e125048	0.14288437
95	0xbdffff3a	-0.124998525
96	0xbd8abe67	-0.067745976
97	0x3c068f8e	0.008212937
98	0xbeee0eaa	-0.46495563
99	0xbd398b1f	-0.04529869
100	0xbe4a7668	-0.19771731
101	0x3ebae811	0.36505178
102	0x3da69ea0	0.08135724
103	0xbd77153a	-0.060322978
104	0xbd80c0b0	-0.06286752
105	0x3e847b38	0.25875258
106	0x3d400bd2	0.046886273
107	0xbe63bec6	-0.22240743
108	0x3cc88f3e	0.024482366
109	0x3e4e7531	0.20161892
110	0x3ec8e18e	0.39234585
111	0xbdde9ce7	-0.108697705
112	0x3ed5e875	0.41778913
113	0xbe81afbe	-0.25329393
114	0xbe830fe8	-0.25598073
115	0x3c0f293c	0.008737858
116	0x3e9da2ff	0.3078842
117	0x3f06ef9a	0.5270935
118	0xbd961692	-0.07328524
119	0xbd4f8b81	-0.05067015
120	0xbc875b72	-0.016523097
121	0xbe48f1f0	-0.19623542
122	0xbea694c1	-0.32535365
123	0x3db47d4b	0.0881296
124	0xbe305d76	-0.17223153
125	0xbc9f3ca2	-0.019438092
126	0x3f05526a	0.5207888
127	0x3f52212e	0.8208188
128	0xbe589b4e	-0.21152994
129	0x3df7e81e	0.1210482
130	0xbe3a5cb8	-0.18199432
131	0xbd02d043	-0.031936895
132	0x3f7ebcaf	0.9950666
133	0x3d981782	0.07426359
134	0x3d16dc25	0.03683104
135	0x3e261209	0.16217817
136	0xbf1fea89	-0.6246725
137	0x3df73bfa	0.120719865
138	0xbed000cf	-0.40625617
139	0xbf2e478f	-0.6807794
140	0xbdfdf1e7	-0.12399655
141	0xbe15bf5c	-0.14623779
142	0xbcddb16b	-0.027062139
143	0xbd996197	-0.07489317
144	0x3ec1c952	0.37848908
145	0xbdea917e	-0.11453532
146	0x3d25e7a0	0.040504098
147	0x3ec1186a	0.3771394
148	0x3f0c15a4	0.5472052
149	0x3eff420e	0.49855083
150	0x3f09b404	0.5379031
151	0xbe658ea6	-0.22417697
152	0x3cdbc819	0.026828812
153	0xbc273a5a	-0.010206783
154	0x3e1b2907	0.1515237
155	0xbd69f230	-0.057115734
156	0x3f55f0ce	0.83570564
157	0xbeddfb9d	-0.43356028
158	0xbe341a0e	-0.17588064
159	0xbe50b87a	-0.20382872
160	0xbb807c47	-0.003921065
161	0x3de68fd7	0.11257904
162	0xbe8e1ead	-0.2775778
163	0xbe3f9492	-0.18709019
164	0xbc7576d2	-0.014981942
165	0x3e9f94b2	0.31168133
166	0x3e4b00fe	0.19824597
167	0x3e3c0f9e	0.18365332
168	0x3e0fca2e	0.14041969
169	0x3f09e57c	0.5386579
170	0x3d64ada2	0.05582965
171	0xbd64a931	-0.055825416
172	0x3ea5e2a4	0.32399476
173	0xbdb1d011	-0.08682264
174	0x3e6d3990	0.2316649
175	0xbd8e5c8b	-0.06951245
176	0x3edf9ba7	0.4367344
177	0xbe56bcae	-0.20970413
178	0x3dd3b49f	0.10337185
179	0xbd16f1c9	-0.036851678
180	0x3f28e24b	0.65970296
181	0x3f014a46	0.5050396
182	0xbe43f006	-0.1913453
183	0x3da1d49b	0.079018794
184	0x3e6e18ea	0.23251691
185	0x3e2df16b	0.16986625
186	0xbe4982a2	-0.19678739
187	0xbe24f3b8	-0.16108596
188	0xbe84d2e3	-0.25942144
189	0xbe71a570	-0.23598266
190	0x3f7349a9	0.9503427
191	0x3f0a1b03	0.53947467
192	0x3dae5081	0.08511449
193	0xbd0f6f90	-0.035018504
194	0x3a1a4301	0.0005884618
195	0xbedffb7d	-0.43746558
196	0x3fbdf7b4	1.4841218
197	0x3ef1b76a	0.47210246
198	0x3d728e71	0.059217874
199	0xbd6246eb	-0.055243414
200	0xbf8fe125	-1.1240584
201	0xbcc1c5e1	-0.023653926
202	0xbefa79ea	-0.48921138
203	0xbe959830	-0.29217672
204	0x3cb49d21	0.022047581
205	0xbcea9035	-0.028633216
206	0xbe0168f3	-0.12637691
207	0x3c1731c1	0.009228171
208	0x3e8434a1	0.25821403
209	0x3c59e617	0.013299487
210	0x3d8521e5	0.065006055
211	0x3f1e0fcf	0.6174287
212	0x3f425aea	0.75919974
213	0x3f2afc7f	0.6679153
214	0x3ec5edd2	0.38658005
215	0xbd3ce017	-0.046112146
216	0xbce2e8da	-0.027698923
217	0xbe8b0d74	-0.271587
218	0x3d7f14ff	0.062275883
219	0xbef543a6	-0.47903174
220	0x3f3dc4f9	0.7412868
221	0xbf439405	-0.76397735
222	0x3d607985	0.05480339
223	0xbdc7243f	-0.0972371
224	0xbe1baf2b	-0.1520354
225	0xbc5504a0	-0.013001591
226	0xbeae2fc3	-0.34020814
227	0xbdfc4da5	-0.12319497
228	0xbb5ca91f	-0.003367014
229	0x3e376725	0.1791044
230	0xbe979db3	-0.29612502
231	0xbe1e8246	-0.15479383
232	0xbd44ee4e	-0.048078828
233	0x3f5aff3a	0.85545695
234	0xbe26d18d	-0.16290875
235	0x3eb8070d	0.3594288
236	0x3cf6490a	0.030064125
237	0x3cc6d87e	0.024273153
238	0x3e76fb45	0.24119289
239	0xbd9c2ed3	-0.076261185
240	0x3f008f46	0.5021862
241	0x3dfad378	0.12247366
242	0x3d618cb5	0.05506583
243	0xbd8c4133	-0.06848373
244	0x3e83c1b8	0.25733733
245	0x3e7e4edb	0.24834768
246	0xbc7e2dd0	-0.015513852
247	0x3e07e8bb	0.13272373
248	0xbd472c19	-0.04862604
249	0x3e8357c2	0.2565289
250	0xbdeffa49	-0.1171766
251	0x3d6fdfaf	0.05856293
252	0xbee252df	-0.4420385
253	0x3e82458e	0.2544369
254	0x3f412f63	0.7546293
255	0x3f4d9252	0.8030139

critic.0.bias f4 [32]
0	0xbc9c9b58	-0.019117042
1	0x3d9fd192	0.07803644
2	0x3dfe5be2	0.12419869
3	0x3e37eb32	0.17960814
4	0x3f1d1f2e	0.613757
5	0x3f1cf280	0.61307526
6	0xbc8e13ea	-0.01734348
7	0x3f2c8e0b	0.6740424
8	0x00000000	0.0
9	0x3d8c80b5	0.068604864
10	0x3f34fdcd	0.7069977
11	0x3f1f47f2	0.62219155
12	0x3f1f5934	0.6224549
13	0xbc4c61db	-0.012474502
14	0x3f24e3f2	0.64410317
15	0xbc60e0ee	-0.013725502
16	0x3f22953b	0.6350896
17	0x3e01531f	0.12629364
18	0xbd26f912	-0.040764876
19	0x3f165970	0.5873022
20	0x3f233af2	0.6376182
21	0x3f23865a	0.6387688
22	0x3f1e2730	0.61778545
23	0x3f1a97a7	0.60387653
24	0x3f1edd0c	0.6205604
25	0x3f295427	0.6614403
26	0x3f1ecea6	0.6203407
27	0xbebe9f57	-0.37230942
28	0x3f1bb6a6	0.60825574
29	0x3e325b9f	0.17417763
30	0x3f1f2fc7	0.6218228
31	0x3f2dd3e9	0.67901474

critic.2.weight f4 [1, 32]
0	0xbb456ba5	-0.0030123976
1	0x3f3cdd7a	0.73775446
2	0x3f340519	0.7032028
3	0x3f9bd8db	1.2175554
4	0xbef9f2dc	-0.488181
5	0xbea8f558	-0.32999682
6	0x3d4c1829	0.04982773
7	0xbea1a4d4	-0.31571066
8	0x3e4efc1e	0.20213363
9	0x3eebe2a6	0.46071357
10	0xbe8c8c26	-0.27450675
11	0xbec548af	-0.38532016
12	0xbf07d511	-0.5305949
13	0x3c8878c9	0.016659157
14	0xbebd0c43	-0.36923417
15	0x3cf8ba4f	0.030362276
16	0xbeb6e2b6	-0.35719842
17	0x3f5e9cf6	0.86958253
18	0x3c04f78b	0.0081156595
19	0xbee81d11	-0.45334676
20	0xbf14c25d	-0.58109075
21	0xbf152e88	-0.58274126
22	0xbf116903	-0.5680086
23	0xbeef034b	-0.466822
24	0xbece078f	-0.40240142
25	0xbebc3b64	-0.3676406
26	0xbed03a0a	-0.4066928
27	0x3f515212	0.81765854
28	0xbeec7940	-0.46186256
29	0x3f7a0d12	0.97676194
30	0xbed5dd93	-0.4177061
31	0xbf00efe6	-0.50366056

exp_avg f4 [64, 12]
0	0x3931f20b	0.00016970203
1	0xb7a00650	-1.9076426e-05
2	0x38911db1	6.919669e-05
3	0x36ef2567	7.1271093e-06
4	0x37eefa38	2.8488328e-05
5	0xb7f386f2	-2.9030696e-05
6	0xb4a9f990	-3.1660284e-07
7	0xb7a00650	-1.9076426e-05
8	0xb2a01c79	-1.86394e-08
9	0xb4ed5c63	-4.421191e-07
10	0xb7f341d3	-2.899851e-05
11	0x392ae115	0.00016296313
12	0xb9984875	-0.00029045684
13	0x3720c331	9.58219e-06
14	0x3887bdbf	6.4726446e-05
15	0x391fe8a8	0.00015250093
16	0x39833e02	0.00025032467
17	0x391918e2	0.00014600487
18	0x384ab486	4.832868e-05
19	0x3720c331	9.58219e-06
20	0x3ab4b4e2	0.0013786817
21	0x3a9cb4d9	0.0011955752
22	0x3acaa5c4	0.0015460779
23	0x39712fbc	0.00023001333
24	0x393a3301	0.00017757343
25	0x3670a2ee	3.5857624e-06
26	0x388b8014	6.651893e-05
27	0x388cefe2	6.720402e-05
28	0x38b3a4f3	8.566109e-05
29	0x396dc20a	0.00022674366
30	0xb52998a2	-6.3179516e-07
31	0x3670a2ee	3.5857624e-06
32	0x39aea205	0.0003330858
33	0x39492fc7	0.00019186652
34	0x39f04d0f	0.0004583378
35	0x39f16134	0.00046039524
36	0x3a43796e	0.0007456754
37	0x36567e96	3.1962168e-06
38	0xb93c0e8d	-0.00017934498
39	0x3a4e6e10	0.0007874677
40	0x3a751dec	0.0009350467
41	0x3b355773	0.0027670532
42	0xb6f90b97	-7.4221275e-06
43	0x36567e96	3.1962168e-06
44	0xb8b12da8	-8.448522e-05
45	0xb882190d	-6.203549e-05
46	0xb87f6274	-6.088843e-05
47	0x3a2f56c4	0.00066886493
48	0x00000004	6e-45
49	0x00000004	6e-45
50	0x00000004	6e-45
51	0x00000004	6e-45
52	0x00000004	6e-45
53	0x00000004	6e-45
54	0x00000004	6e-45
55	0x00000004	6e-45
56	0x00000004	6e-45
57	0x00000004	6e-45
58	0x00000004	6e-45
59	0x00000004	6e-45
60	0x00000004	6e-45
61	0x00000004	6e-45
62	0x00000004	6e-45
63	0x00000004	6e-45
64	0x00000004	6e-45
65	0x00000004	6e-45
66	0x00000004	6e-45
67	0x00000004	6e-45
68	0x00000004	6e-45
69	0x00000004	6e-45
70	0x00000004	6e-45
71	0x00000004	6e-45
72	0xbad96c23	-0.0016588013
73	0xb925dcde	-0.00015817906
74	0xba9e7089	-0.0012087981
75	0xb940c53c	-0.00018384022
76	0x396ad2ff	0.00022394581
77	0xbb73c666	-0.0037197112
78	0x3891f68e	6.960063e-05
79	0xb925dcde	-0.00015817906
80	0x3b072dda	0.0020626695
81	0x3a03c3c2	0.00050264236
82	0x3a949a9e	0.0011337583
83	0xbaa7d1cb	-0.0012803612
84	0x00000004	6e-45
85	0x00000004	6e-45
86	0x00000004	6e-45
87	0x00000004	6e-45
88	0x00000004	6e-45
89	0x00000004	6e-45
90	0x00000004	6e-45
91	0x00000004	6e-45
92	0x00000004	6e-45
93	0x00000004	6e-45
94	0x00000004	6e-45
95	0x00000004	6e-45
96	0xbb32e849	-0.0027299097
97	0xb9eea6af	-0.00045519086
98	0xbbd328a7	-0.006444055
99	0xba2a423b	-0.00064948545
100	0xbb0a8990	-0.0021139123
101	0xbbace2a1	-0.0052760397
102	0xb905820a	-0.00012732312
103	0xb9eea6af	-0.00045519086
104	0xbbb3191a	-0.005465639
105	0xbb92a7c4	-0.0044755656
106	0xbbb3e0eb	-0.005489459
107	0xbb6c8501	-0.0036090019
108	0x3aa3f0b6	0.001250765
109	0x39705947	0.00022921442
110	0x3b6bf570	0.0036004446
111	0x3a0eefb5	0.0005452589
112	0x3aa88ef2	0.0012859984
113	0x3b04ff22	0.0020293673
114	0x39240c25	0.00015644783
115	0x39705947	0.00022921442
116	0x3b5a6ba3	0.0033328317
117	0x3b5b9cc4	0.0033510188
118	0x3b5db30b	0.0033828642
119	0x3af041dc	0.0018330174
120	0xba0e6caa	-0.00054330623
121	0xb805ee02	-3.1931333e-05
122	0xb6576190	-3.2094285e-06
123	0x36a03197	4.7741446e-06
124	0x37cc4691	2.4351555e-05
125	0xb9fc4479	-0.00048116202
126	0xb6f7dd65	-7.3869473e-06
127	0xb805ee02	-3.1931333e-05
128	0xb9dacb3b	-0.0004173162
129	0xb96f2379	-0.00022806031
130	0x3882df36	6.240459e-05
131	0xb9ca730a	-0.00038614153
132	0xb92d409f	-0.00016522639
133	0x37d657af	2.5551619e-05
134	0xb958439f	-0.00020624556
135	0x39735501	0.00023205952
136	0x3a0f3398	0.0005462705
137	0xb9851179	-0.00025380755
138	0x38940602	7.058309e-05
139	0x37d657af	2.5551619e-05
140	0x3b1064e7	0.0022032799
141	0x3aa7bfbf	0.0012798234
142	0x3aedbd6e	0.001813812
143	0x39c6f84d	0.000379505
144	0x397a7b13	0.00023887707
145	0x38880fc2	6.4879205e-05
146	0xb844dc1a	-4.6935027e-05
147	0x38e94215	0.000111226145
148	0x37dc8d06	2.6291713e-05
149	0x397241c8	0.00023103424
150	0x367eca48	3.7966693e-06
151	0x38880fc2	6.4879205e-05
152	0xb8dca721	-0.00010521548
153	0xb54c0d78	-7.601552e-07
154	0xb90146cf	-0.00012328777
155	0x39317329	0.00016922936
156	0x3b5c650e	0.003362957
157	0x39bbf01e	0.0003584632
158	0x3b8ebfd4	0.004356364
159	0x3a7086a4	0.00091753365
160	0x3aadb139	0.0013251669
161	0x3ba92d77	0.0051628905
162	0x3927abb2	0.00015990323
163	0x39bbf01e	0.0003584632
164	0x3b570e77	0.0032815018
165	0x3b7e859b	0.003883696
166	0x3b4f080b	0.0031590487
167	0x3b84c83f	0.0040521915
168	0xbb1ba8f7	-0.0023751834
169	0xb93e7efc	-0.00018167117
170	0xb9b9ff3c	-0.00035476114
171	0xba0eb41a	-0.00054437073
172	0xba2ccf7e	-0.0006592198
173	0xbb228b4d	-0.0024802268
174	0xb7e9e21e	-2.7881058e-05
175	0xb93e7efc	-0.00018167117
176	0xba1c4751	-0.00059615547
177	0xb9b804d4	-0.00035098812
178	0xb9a103d3	-0.00030711162
179	0xbb09da82	-0.0021034782
180	0x00000004	6e-45
181	0x00000004	6e-45
182	0x00000004	6e-45
183	0x00000004	6e-45
184	0x00000004	6e-45
185	0x00000004	6e-45
186	0x00000004	6e-45
187	0x00000004	6e-45
188	0x00000004	6e-45
189	0x00000004	6e-45
190	0x00000004	6e-45
191	0x00000004	6e-45
192	0xbb3e1f23	-0.0029010258
193	0xb7e8f90e	-2.777253e-05
194	0xba274340	-0.00063805655
195	0xb801cf16	-3.094886e-05
196	0xb8b4a4c3	-8.613758e-05
197	0xb9cc0d82	-0.00038919976
198	0x3919710f	0.00014633335
199	0xb7e8f90e	-2.777253e-05
200	0x3b234a78	0.0024916213
201	0x3b0f1ac3	0.002183602
202	0x3b0bf969	0.0021358377
203	0xbb0ae2b2	-0.002119225
204	0x00000000	0.0
205	0x00000000	0.0
206	0x00000000	0.0
207	0x00000000	0.0
208	0x00000000	0.0
209	0x00000000	0.0
210	0x00000000	0.0
211	0x00000000	0.0
212	0x00000000	0.0
213	0x00000000	0.0
214	0x00000000	0.0
215	0x00000000	0.0
216	0xba51123c	-0.00079754344
217	0xb92c80b1	-0.0001645114
218	0xba8b561e	-0.0010630523
219	0xba08be62	-0.00052163575
220	0xb8ffd15b	-0.00012198343
221	0xbb01c37f	-0.0019800363
222	0xb8aa35d5	-8.116259e-05
223	0xb92c80b1	-0.0001645114
224	0x3a8129da	0.0009854392
225	0xba935d2f	-0.0011242981
226	0x06a7fe8d	6.3192447e-35
227	0xba51123c	-0.00079754344
228	0xbb4d1fcc	-0.003129947
229	0xb8ed758f	-0.00011322938
230	0x00000004	6e-45
231	0xb9f56733	-0.0004680693
232	0xb8b3ec0c	-8.579352e-05
233	0xbb43084d	-0.0029759586
234	0xb86d22fe	-5.6537792e-05
235	0xb8ed758f	-0.00011322938
236	0xb8dc6caf	-0.000105106614
237	0xba1f3fb2	-0.000607486
238	0x39d7d19d	0.0004116417
239	0xbb3f6b85	-0.0029208374
240	0xba3eb1f5	-0.00072744425
241	0xb99decc5	-0.0003012178
242	0x3a9c6411	0.0011931678
243	0xba7b2045	-0.00095796987
244	0xba45627a	-0.0007529628
245	0xbb5e6833	-0.003393662
246	0xb8196f90	-3.6581943e-05
247	0xb99decc5	-0.0003012178
248	0x3a9722aa	0.0011530716
249	0x38cd1051	9.778201e-05
250	0x3a884ebf	0.0010399445
251	0xba51cfc9	-0.00080036797
252	0x3c93f4d4	0.01806108
253	0xb50b9c12	-5.200865e-07
254	0xbc1357eb	-0.008993129
255	0x3b256e8d	0.0025242895

exp_avg_sq f4 [64, 12]
0	0x36fd5a13	7.5504736e-06
1	0x3387d7b8	6.3256664e-08
2	0x3733a7a3	1.0708262e-05
3	0x34d04dea	3.879971e-07
4	0x35c62ccb	1.4765186e-06
5	0x371c6cdb	9.3236695e-06
6	0x31061a64	1.9514568e-09
7	0x3387d7b8	6.3256664e-08
8	0x323ea99d	1.1098021e-08
9	0x33c3c4fb	9.1162256e-08
10	0x327a3d7f	1.4565898e-08
11	0x36fd2718	7.5445387e-06
12	0x386da363	5.665737e-05
13	0x356b8405	8.7736436e-07
14	0x390d45db	0.00013472831
15	0x363261a6	2.6580906e-06
16	0x374561d9	1.1764897e-05
17	0x389f8536	7.606523e-05
18	0x34b09e81	3.289788e-07
19	0x356b8405	8.7736436e-07
20	0x38869368	6.4170745e-05
21	0x387b0cf1	5.9855116e-05
22	0x383ead6f	4.5461053e-05
23	0x38784dd5	5.9200294e-05
24	0x389697f3	7.18086e-05
25	0x36195a4c	2.2851336e-06
26	0x391f74ce	0.00015206935
27	0x36de8003	6.631018e-06
28	0x373220c4	1.0617256e-05
29	0x39403fe6	0.00018334351
30	0x354762f3	7.4277267e-07
31	0x36195a4c	2.2851336e-06
32	0x38bb7cb2	8.940081e-05
33	0x38bb560b	8.9328816e-05
34	0x38c59df4	9.423113e-05
35	0x38bb6b0a	8.9367924e-05
36	0x378ea63a	1.7005124e-05
37	0x35451a1b	7.342621e-07
38	0x36c3ed3a	5.8390697e-06
39	0x36ee9f65	7.1115087e-06
40	0x37298ad9	1.0105513e-05
41	0x38c41b5a	9.351103e-05
42	0x34d73a31	4.008921e-07
43	0x35451a1b	7.342621e-07
44	0x3849b9d3	4.8095197e-05
45	0x38441ab4	4.675491e-05
46	0x38713686	5.7509656e-05
47	0x382ccc97	4.1198535e-05
48	0x000001f4	7e-43
49	0x000001f4	7e-43
50	0x000001f4	7e-43
51	0x000001f4	7e-43
52	0x000001f4	7e-43
53	0x000001f4	7e-43
54	0x000001f4	7e-43
55	0x000001f4	7e-43
56	0x000001f4	7e-43
57	0x000001f4	7e-43
58	0x000001f4	7e-43
59	0x000001f4	7e-43
60	0x000001f4	7e-43
61	0x000001f4	7e-43
62	0x000001f4	7e-43
63	0x000001f4	7e-43
64	0x000001f4	7e-43
65	0x000001f4	7e-43
66	0x000001f4	7e-43
67	0x000001f4	7e-43
68	0x000001f4	7e-43
69	0x000001f4	7e-43
70	0x000001f4	7e-43
71	0x000001f4	7e-43
72	0x390906d7	0.00013067886
73	0x36f99816	7.4384834e-06
74	0x38ef92ba	0.00011423738
75	0x37c6efbb	2.3715073e-05
76	0x380c8274	3.3500095e-05
77	0x39611ade	0.00021467681
78	0x36088835	2.0344862e-06
79	0x36f99816	7.4384834e-06
80	0x390a5605	0.0001319275
81	0x38b7823b	8.750377e-05
82	0x38e84ecc	0.00011077299
83	0x391ae337	0.00014771229
84	0x000001f4	7e-43
85	0x000001f4	7e-43
86	0x000001f4	7e-43
87	0x000001f4	7e-43
88	0x000001f4	7e-43
89	0x000001f4	7e-43
90	0x000001f4	7e-43
91	0x000001f4	7e-43
92	0x000001f4	7e-43
93	0x000001f4	7e-43
94	0x000001f4	7e-43
95	0x000001f4	7e-43
96	0x3971edd4	0.00023072149
97	0x3793d24a	1.7621689e-05
98	0x3adbeb8f	0.0016778576
99	0x38ad96c0	8.277362e-05
100	0x3979c084	0.00023818208
101	0x3ad2eaf7	0.0016091753
102	0x369858d3	4.5402935e-06
103	0x3793d24a	1.7621689e-05
104	0x3a6b0898	0.0008965819
105	0x3a4e942d	0.0007880356
106	0x3a6d1299	0.0009043604
107	0x3991adc8	0.00027786032
108	0x3923c614	0.00015618681
109	0x35dbeb29	1.6385212e-06
110	0x39a99fdf	0.00032353305
111	0x36d4975f	6.3357143e-06
112	0x37ced588	2.4656547e-05
113	0x39525634	0.00020059274
114	0x34cbbd81	3.794958e-07
115	0x35dbeb29	1.6385212e-06
116	0x38df3634	0.00010643565
117	0x38c85f1a	9.554457e-05
118	0x38dbf0f8	0.00010487618
119	0x3928d901	0.00016102569
120	0x37a52bc5	1.9689915e-05
121	0x34a059f9	2.9867786e-07
122	0x36ac8dcd	5.1425072e-06
123	0x360d4243	2.1049207e-06
124	0x3676ce09	3.6776785e-06
125	0x37d2e096	2.5138532e-05
126	0x33904332	6.717745e-08
127	0x34a059f9	2.9867786e-07
128	0x36d9f3b0	6.495473e-06
129	0x36ca0ca8	6.0215425e-06
130	0x36c54d6c	5.8800706e-06
131	0x37b46666	2.1505355e-05
132	0x38f6575a	0.000117464646
133	0x365cef51	3.2921855e-06
134	0x392b117b	0.00016314343
135	0x3722c3dd	9.701555e-06
136	0x37b2bce3	2.130721e-05
137	0x3907c1af	0.00012946756
138	0x358864d5	1.0162136e-06
139	0x365cef51	3.2921855e-06
140	0x38d51639	0.00010160771
141	0x38a76b2b	7.983142e-05
142	0x389a5610	7.3593226e-05
143	0x390442ba	0.00012613359
144	0x379c2af7	1.8616656e-05
145	0x34801ac4	2.3861332e-07
146	0x38588d83	5.1630206e-05
147	0x356c0952	8.7930414e-07
148	0x36710323	3.5913624e-06
149	0x38502ded	4.9633836e-05
150	0x3239326f	1.07798845e-08
151	0x34801ac4	2.3861332e-07
152	0x35111d19	5.405905e-07
153	0x34c3f756	3.650154e-07
154	0x351297a2	5.4609893e-07
155	0x379d83bc	1.8777202e-05
156	0x392e92ee	0.00016648669
157	0x362c3041	2.5658085e-06
158	0x39be6722	0.00036316464
159	0x3739b804	1.1069704e-05
160	0x382242d3	3.8686045e-05
161	0x3951467c	0.0001995805
162	0x357c3f5a	9.3969504e-07
163	0x362c3041	2.5658085e-06
164	0x394dbda1	0.00019620966
165	0x3942d7f2	0.00018581728
166	0x39424ffd	0.0001853108
167	0x3941c1f3	0.00018478166
168	0x3812fb2f	3.5043046e-05
169	0x35d61657	1.5950744e-06
170	0x37816f51	1.5429834e-05
171	0x36d74fa9	6.416773e-06
172	0x370d7412	8.43128e-06
173	0x38a30580	7.77347e-05
174	0x351106ad	5.4026424e-07
175	0x35d61657	1.5950744e-06
176	0x383330d2	4.2722393e-05
177	0x37e9d281	2.7873788e-05
178	0x38296b7f	4.0392853e-05
179	0x382e26f8	4.1521125e-05
180	0x09ae0951	4.1897737e-33
181	0x08af897e	1.0564754e-33
182	0x0b77f56d	4.7755107e-32
183	0x092392d3	1.9689448e-33
184	0x09501609	2.504745e-33
185	0x0b2bf431	3.311711e-32
186	0x0750828f	1.5686549e-34
187	0x08af897e	1.0564754e-33
188	0x0b7e6016	4.8990908e-32
189	0x0a58d344	1.0439756e-32
190	0x0b7acb6b	4.8301283e-32
191	0x09a3c8aa	3.9429526e-33
192	0x3989067b	0.00026135505
193	0x3633b12f	2.6776213e-06
194	0x3a35b0ef	0.0006930967
195	0x371f44d4	9.493164e-06
196	0x38823554	6.208816e-05
197	0x39b785aa	0.00035004067
198	0x357a281e	9.3190636e-07
199	0x3633b12f	2.6776213e-06
200	0x3932e3a5	0.00017060207
201	0x39298d5a	0.00016169754
202	0x3903d864	0.00012573745
203	0x398fbba4	0.0002741489
204	0x00000000	0.0
205	0x00000000	0.0
206	0x00000000	0.0
207	0x00000000	0.0
208	0x00000000	0.0
209	0x00000000	0.0
210	0x00000000	0.0
211	0x00000000	0.0
212	0x00000000	0.0
213	0x00000000	0.0
214	0x00000000	0.0
215	0x00000000	0.0
216	0x39dfbbb0	0.00042673713
217	0x36c2a05b	5.8003184e-06
218	0x3a0315fb	0.0005000529
219	0x37b8fd2c	2.2052402e-05
220	0x38847b3f	6.317207e-05
221	0x39b87570	0.00035182713
222	0x3596371b	1.1191909e-06
223	0x36c2a05b	5.8003184e-06
224	0x38c94025	9.596375e-05
225	0x38b8f23b	8.818923e-05
226	0x31a469c8	4.785054e-09
227	0x39dfbbae	0.00042673707
228	0x395dc65e	0.000211501
229	0x368fd87c	4.286934e-06
230	0x18a3532c	4.2218495e-24
231	0x37e0bc69	2.6790616e-05
232	0x384a59f8	4.8244343e-05
233	0x39b80fe5	0.00035107057
234	0x3594b93a	1.1080767e-06
235	0x368fd87c	4.286934e-06
236	0x3900e086	0.00012290673
237	0x38cd00ea	9.775332e-05
238	0x38df6800	0.0001065284
239	0x396f2ed9	0.00022810268
240	0x3793c8d4	1.7617283e-05
241	0x363a2a67	2.7740841e-06
242	0x38c09f3d	9.184934e-05
243	0x3746f83d	1.1859517e-05
244	0x37a6618f	1.9834171e-05
245	0x394e0042	0.00019645787
246	0x35bc16fb	1.401378e-06
247	0x363a2a67	2.7740841e-06
248	0x392b4d1c	0.00016336556
249	0x392f2b28	0.00016705377
250	0x3927dcec	0.00016008661
251	0x37c80a7a	2.3846736e-05
252	0x3bdc3790	0.0067204908
253	0x388b870e	6.6531924e-05
254	0x3bbb965b	0.005724711
255	0x39bc7f36	0.00035952934

exp_avg f4 [64]
0	0x391d68fc	0.00015011796
1	0x3a6c9ebb	0.0009026338
2	0x39b98fe8	0.00035393168
3	0x3b22ae62	0.0024823179
4	0x00000004	6e-45
5	0x00000004	6e-45
6	0xbb0f150d	-0.0021832616
7	0x00000004	6e-45
8	0xbbec873d	-0.00721827
9	0x3b9274a9	0.0044694734
10	0xba2c1045	-0.00065637036
11	0x3a4ed03f	0.00078893075
12	0x39aa22ac	0.0003245076
13	0x3bee1ede	0.0072668632
14	0xbb4f69a9	-0.0031648672
15	0x00000004	6e-45
16	0xba449713	-0.00074993185
17	0x00000000	0.0
18	0xbae2558b	-0.0017267925
19	0xbb7937fb	-0.0038027752
20	0xbb57b5fd	-0.003291487
21	0x3c4797b0	0.012182161
22	0x3c252636	0.010079911
23	0xba2b635b	-0.00065379374
24	0xbb7714a1	-0.0037701505
25	0xbb89dd81	-0.0042073135
26	0xbb84b958	-0.004050415
27	0x00000004	6e-45
28	0xba5d959f	-0.0008452776
29	0x3b1dd48f	0.0024082994
30	0xbb9e50c5	-0.004831406
31	0xbc62513c	-0.013813313
32	0xba5a3ad5	-0.00083248067
33	0xbb60dc67	-0.0034311058
34	0x3b9c9ca9	0.0047794175
35	0xbc068775	-0.008211006
36	0x39f86029	0.0004737389
37	0x00000004	6e-45
38	0xbba0c0a6	-0.004905778
39	0x3c9060f7	0.017624361
40	0x3b3b8489	0.0028612933
41	0x00000000	0.0
42	0xbb807eda	-0.003921372
43	0x00000004	6e-45
44	0x00000004	6e-45
45	0xbb176f74	-0.0023107203
46	0x00000004	6e-45
47	0x3b8a19d6	0.0042145057
48	0xbb75f58c	-0.003753039
49	0x3bd50e06	0.006501916
50	0x3a30affd	0.00067400915
51	0xbab04162	-0.001344722
52	0xbc1a9f78	-0.009437434
53	0xbb7518a6	-0.0037398725
54	0xb97c555d	-0.00024064393
55	0x3b31efbd	0.0027150952
56	0x00000000	0.0
57	0xbc3c1e6a	-0.011481861
58	0x00000004	6e-45
59	0xba854714	-0.0010168278
60	0xbc43612c	-0.011925023
61	0x00000004	6e-45
62	0x3bf2a0d5	0.0074044266
63	0xbb07e54f	-0.0020736044
