models/checkpoint_90000.pt (torch, 125817 bytes, 33 tensors)

shared.0.weight f4 [64, 12]
00000000: c6c5 4cbe e428 403e d31a 563e 921a 063f
00000010: db61 9bbd 4d11 3dbe 791b 333d 5ed8 f93b
00000020: 2848 893c 5a1b ba3d fe4c 213d c333 b93d
00000030: ec45 21bc eeb1 1f3e 45ab 2fbe 6165 0b3f
00000040: 988a 793c 4309 d2bd 915a c13e dd4b c43e
00000050: 0942 863d 6865 00bc c9a7 983c 0b8e c23c
00000060: 4d6c 693d 55d3 1dbe 2245 a53b c83f 68be
00000070: 218a 61be 1193 623d 7584 d3bd 33c2 e6bd
00000080: 89d9 7cbe 29c2 7fbd 74b8 643d 4f5e b33d
00000090: b50f acbd 1b24 4bbe 9535 babd 83b4 003c
000000a0: d527 00be 2ff6 533e 4d68 323e bf7d 043e
000000b0: 5f2b 1fbe 2328 413c f146 e03d 9644 bc3d
000000c0: 7869 883e 9a8f acbe a72e fb3d aeec 10bf
000000d0: ba6b 3dbe 90b5 be3d 8c2a 05bf d027 41be
000000e0: 700d 143e e0f9 653e ac9d 25be 9e8f fcbd
000000f0: 1bf6 b9bd 74ac e6bd 6f4f 87bd 783f 6fbe
00000100: 5f7d c2bd dab4 0a3e e938 6dbe 3a48 32be
00000110: f1ea cd3c d33c adbb 5828 04bd 601c 6f3e
00000120: a1f9 17be 79ac 973e e535 883d 8c8a af3e
00000130: 4be5 70be 1218 03be 16d1 643e ab10 953d
00000140: db86 163e 018c 613d bd72 70bd 6967 b73d
00000150: 576e 3e3e 6b70 61be 2dfe ca3d 6b47 57be
00000160: 850f 9cbe 8576 c93b 130e aabe 5ccb e9bd
00000170: 4328 813d 47df 22be ba56 063e 85d0 2a3e
00000180: a1d7 9dbe faa5 9cbe 181b 0d3e 00cd 14be
00000190: a4b9 623e 5c1d e13d 2c19 3ebf cc52 55be
000001a0: bea6 203e c7b1 023e 1aeb 82bd 5843 0dbf
000001b0: 1b42 863d a435 873e 3d0d fc3d 46c6 2f3d
000001c0: f2e2 7ebe 1a8c 8a3d 14a2 09bf 8e00 ea3d
000001d0: f702 32be f057 0ebe 5012 17be ca05 94be
000001e0: 02c4 03be 9383 6f3e 86c6 7abc 9071 b93e
000001f0: 5a44 8bbe bf3b d9bd a1d5 fe3d 50fc a93d
00000200: 9a24 b03d 9211 713d 20a1 123e 456f 4a3e
00000210: 9643 94be 6115 c63e cb41 063e 69cb 233f
00000220: 6dff 0dbe 6d60 f0bd d696 c63e 460d 8c3e
00000230: f082 d23d 5a06 4ebd 5431 193e ee18 253e
00000240: 214d 40be 4247 ca3e 8269 01bd e21e 7f3e
00000250: a18d 44be 5c56 923e aa20 8d3e 904f 013e
00000260: 8999 903c 890a f7bd d8de a7bc 06cb be3d
00000270: 37b7 91be bb0d 323e 8d0a b4bd 0b47 903e
00000280: a6a0 813d c33b 163e 024e 0d3f 2048 d43e
00000290: 0b29 ad3d d302 89be 0370 c93d 23e3 b83e
000002a0: 8c13 a1bd 76a8 4d3d 6f1a 2abe 7f02 b63e
000002b0: 9596 ecbe 02ea 133e 12b0 763e 2687 2fbd
000002c0: 2627 413d 22fa e2bc 66de 923e 7225 743e
000002d0: 4bb8 c6bc d61c 8abe c8fd 633e 3caf a0bd
000002e0: 9b1d aabe 452b b3bd cc11 08be a1e7 3dbe
000002f0: c9e4 8f3e 0111 5d3d f8a3 ee3d bad2 4dbd
00000300: 3eaa 09be 38d1 a83e 3e76 ecbb 30c2 d73e
00000310: f5b3 f1bd 55c6 2a3c 63cb 9d3e 9c57 1c3f
00000320: 2cc5 0fbe ffe5 3ebd e430 8a3d b9b4 843e
00000330: 5e0c 993c 7003 823c bade 24be 6c18 8ebd
00000340: 45a9 1abe 835a 15bd 7bf6 303d 3b36 65bd
00000350: 06ab 86bd c762 c5bd 31c7 96bd 38ed 01bd
00000360: f4c5 41be bece b23e 11d0 113e 929c 583e
00000370: 881a c13b a2b3 a53d ea53 273e c423 be3e
00000380: 08ee 153c 6b36 cf3d 87a6 e2be b97d 3ebe
00000390: 5599 843e d7f2 acbe b727 01bf 2427 b43e
000003a0: 90de b03d 710b e2bd 9e4c dcbe 431f 8fbe
000003b0: cdfe 943c 0164 773d 3155 6fbe b8e7 11be
000003c0: 7aed 033e 153e 96bc ac9f 71be ac6b 10bd
000003d0: fd1c b0be 1b68 a23e 5e9e febd 9bc1 1d3d
000003e0: f080 943c 8535 b33e 9cff e9bc 2e0e 88be
000003f0: ca9e 783e 2f1e 3dbf 843c 183d 8c65 66bf
-0.1999732 0.18765599 0.2090867 0.52384293 -0.07587024 -0.18463631 0.04372737 0.00762467
0.01675804 0.09087248 0.039380066 0.09043076 -0.009843331 0.15595219 -0.17155178 0.54451567
0.015230797 -0.10255673 0.3776441 0.3833913 0.06555564 -0.007836677 0.018634694 0.023749372
0.05698805 -0.15412648 0.0050436417 -0.2268058 -0.22025348 0.055316035 -0.103279985 -0.11267509
-0.24692358 -0.062441025 0.05583997 0.08758222 -0.084014334 -0.19837992 -0.09092251 0.007855537
-0.12515195 0.2069938 0.174226 0.12938593 -0.15543889 0.0117893545 0.10951031 0.09192769
0.26642966 -0.3370331 0.122647576 -0.56611145 -0.18498126 0.09311974 -0.52018046 -0.18862844
0.14458251 0.22458601 -0.16173428 -0.1233208 -0.09080144 -0.112633616 -0.06606948 -0.23364055
-0.09496569 0.13545552 -0.23166241 -0.17410365 0.025136443 -0.005286792 -0.032265037 0.23350668
-0.1484132 0.29623774 0.066509046 0.3428539 -0.23524968 -0.12802151 0.22345385 0.0727857
0.14699881 0.05506516 -0.058703173 0.08955271 0.18596779 -0.2201554 0.099117614 -0.21023338
-0.3048059 0.006148162 -0.33213863 -0.11415741 0.063065074 -0.15905486 0.13119021 0.16681106
-0.30828574 -0.3059538 0.13779867 -0.14531326 0.22141129 0.10991928 -0.7425716 -0.20832366
0.15688607 0.12763129 -0.06392498 -0.55180883 0.06555577 0.26408112 0.123072125 0.042913698
-0.2489126 0.067650035 -0.53762937 0.11425887 -0.17383943 -0.13900733 -0.1475308 -0.28910667
-0.1286774 0.23390035 -0.015306121 0.36219454 -0.27200586 -0.10607099 0.1244309 0.08300078
0.08600731 0.058854647 0.14319277 0.19769008 -0.28957814 0.38688186 0.13111036 0.63982254
-0.13866968 -0.11737142 0.38786954 0.27353877 0.102788806 -0.050299026 0.14960223 0.16122791
-0.18779422 0.3950749 -0.03159476 0.24914125 -0.19194652 0.28581512 0.27563983 0.12628007
0.017651336 -0.12062556 -0.020492002 0.093160674 -0.28460094 0.1738805 -0.08791075 0.281792
0.063294694 0.14671235 0.55197155 0.41461277 0.08455094 -0.26759967 0.09835818 0.36110792
-0.078650564 0.050209485 -0.16611646 0.3554878 -0.46208635 0.14444736 0.24090603 -0.042853497
0.047156475 -0.027707163 0.28685302 0.23842409 -0.0242578 -0.26975125 0.22264779 -0.07845923
-0.33225712 -0.087484874 -0.13288039 -0.1854539 0.28104237 0.053971294 0.11652368 -0.050249793
-0.13443848 0.3297212 -0.007216244 0.4214034 -0.11801902 0.010423263 0.30819234 0.6107118
-0.14040059 -0.04660606 0.067476064 0.2591913 0.018682655 0.01587078 -0.16100588 -0.06938252
-0.15103634 -0.03646327 0.043203812 -0.05595992 -0.06575589 -0.09637981 -0.073622115 -0.03172037
-0.1892317 0.34923357 0.14239527 0.21153477 0.0058930553 0.08090903 0.16340604 0.37136662
0.009150989 0.10117801 -0.44267675 -0.18602647 0.25898233 -0.33779022 -0.50451225 0.35186112
0.086362004 -0.110373385 -0.43027204 -0.27953538 0.018187905 0.060398106 -0.23372342 -0.1424855
0.12883559 -0.01834015 -0.23596066 -0.035258934 -0.34397116 0.3172005 -0.1243255 0.038514715
0.018127888 0.3500177 -0.028564267 -0.26573318 0.24279323 -0.7387418 0.037167087 -0.899987

shared.0.bias f4 [64]
00000000: e625 2e3e 9e4c 753e 90c2 5a3e cb13 803d
00000010: 68e1 863e f8d9 613e f28d de3d 0dd6 5e3e
00000020: ce68 193e 3025 043e 4635 3a3e fb36 d23d
00000030: fc0c 323e 3a02 093e fad0 9c3d b238 e63d
00000040: 4e23 2c3e 0000 0000 5708 0d3e 1800 1a3e
00000050: 6a47 0c3e 272d 823e b76e a03d b5f6 043a
00000060: f124 883e 61cd 513e 35af 713e 0000 0000
00000070: 7d31 443e 0029 c13d b568 8b3e f390 1c3e
00000080: 4413 813e ed98 553d 8b25 0b3e 1559 0e3e
00000090: 6eb5 733e 47a1 e93d cd9a 993e ca64 5e3e
000000a0: af32 463e 0000 0000 ea7f 853e cc0f a3bd
000000b0: d01a 483e 8463 843e a905 873e 0f01 5f3e
000000c0: b87d 4b3e 2df3 383e b77a dd3d 85cf b53d
000000d0: 3888 7a3e 74f6 363e e6c4 6d3e 03a5 833e
000000e0: 0000 0000 bd16 543e eee9 e9bd d940 4c3e
000000f0: 1109 243e 6f3f 2a3e 8e5b 223e 37aa 0c3e
0.17006645 0.23955008 0.21363282 0.06253775 0.26343846 0.22055805 0.10866918 0.21761341
0.14981386 0.12904811 0.18184385 0.10264393 0.17387766 0.13379756 0.076570466 0.112412825
0.16810343 0.0 0.13772713 0.15039098 0.13699117 0.25425074 0.07833617 0.00050721626
0.26590684 0.20488502 0.23601992 0.0 0.19159503 0.09431648 0.27228323 0.15289669
0.2521001 0.052147795 0.1358854 0.1390117 0.23799679 0.11407714 0.30000916 0.21718135
0.19355272 0.0 0.26074153 -0.079619974 0.19541478 0.25857174 0.26371506 0.21777748
0.19872177 0.18061514 0.108144216 0.08877472 0.24466026 0.17867452 0.23219642 0.2571183
0.0 0.20711799 -0.11421572 0.19946612 0.16019084 0.1662576 0.15855238 0.13736807

shared.2.weight f4 [64, 64]
00000000: b3fa d53d a9d1 043e 8265 b33d b43b 553e
00000010: 738e 8e3e 93e7 2d3d 7776 ce3c 8394 e13d
00000020: 6ab5 d3be ea47 9f3e cf51 923e 56e5 473e
00000030: 5c21 b7bd 6a23 a6bd afb0 c43d 0303 e8bd
00000040: 01a9 cc3d ff46 863d 1e77 45bd c4be 3c3e
00000050: 94b3 ccbb f224 0fbe 5532 303f 0d22 07be
00000060: 63c1 303c 5ed1 243e 4e76 3e3e 09db 153e
00000070: 93db 9c3e 019c 48be b7a2 993d b8e5 63bb
00000080: a830 3e3e 56ee 023e d02a 28be 8349 493f
00000090: 0405 293e a257 023e 8407 fabd 098f 273e
000000a0: 0050 313e df61 09be 638f 493e 9a4e ffbe
000000b0: 6e52 7c3e 1dc0 a83e baea 403d 4790 ebbc
000000c0: c2a9 103e e99b 3e3e f73c f23d e8aa 95bd
000000d0: 0947 0e3e e7bd a03d 1476 5b3c 50b9 b23e
000000e0: 8509 083e e60b b5bc c37b cf3d 22cc 73bd
000000f0: b43b 6a3e 34cd 3b3e 8586 b13d 6f8f 903b
00000100: f7d3 143e 94f8 023d dc8e 12be a389 c5bd
00000110: abf2 b13e 7fe2 193e 6aed 543d 0f11 7d3d
00000120: f208 81be 883c 803e eda9 303e 77f7 763d
00000130: 6ee0 113e 2193 01bd c30d 3e3e fe27 c33e
00000140: f404 153e 65e7 163d cb30 983e 48ec 663e
00000150: d159 50bb 9020 e6bd b9e5 143f e34e 6bbd
00000160: 58c5 1e3e 263b da3d 938b b43e b853 15bd
00000170: aed2 de3b 7fbf e0bd ef1c 323e 8178 523e
00000180: 757f 5f3d 6e95 c13e 35de 363e 22cf 0b3f
00000190: 2eec bdbd a728 133f 53f6 cabb 5425 f8bb
000001a0: ba62 a63b f8a1 e3bd f69a febc 319c 1dbf
000001b0: df54 123e 3ef8 e73d f228 fd3c 5dc6 393e
000001c0: bc75 f73d 040d 173e 8c8f 9a3a b1fe 3fbd
000001d0: fd05 f93c 953a 2a3d e749 ef3d 7a0f 0fbd
000001e0: 650e 2d3d 8deb 4b3e ada0 293e 497d 573e
000001f0: d35e 9a3e f12e 6abc 3473 d93d d1fa 0abe
00000200: 28b8 1dbe 43b8 00be 3578 df3d e0f9 ee3d
00000210: e83b 9dbc 4c09 f7bd da25 f5bc b953 993d
00000220: cfb7 8cbe 963d 3c3e c864 66bd 4454 e03b
00000230: 4c1c fa3d 1062 313e 21ad da3d fc28 18bc
00000240: 8845 093e 96fb a63d 23da 74bc ffbf d33b
00000250: c12f 363e 4c2b 4abe 9ce3 5c3e f551 2fbe
00000260: 9eab b43e c435 6c3e 236e 743d fdd9 8fbd
00000270: 0dd3 703e b054 35be 8302 f33d fe2a ab3e
00000280: 454b 4c3e cef6 ea3d 6c8d 013e b2fb 383f
00000290: b13f fd3d 4837 8d3d f578 a23d 1b5e 4b3c
000002a0: b831 c33e 4138 adbd ee4e 9dbd fe9e 7dbe
000002b0: b6c5 b53d 33fa 42bc 1dd3 46be 9f63 0f3e
000002c0: 087d 3bbc e3d3 633d 4614 88bb 4708 a0bc
000002d0: 688b 533e 3c01 133d e26d 943e 5e2b 543e
000002e0: 81b5 453e 1ce2 703e 1bd0 c3bd e10f 8e3c
000002f0: 1fa0 8a3e 0cf4 0e3d 973e bf3d f93a 763d
00000300: f2ea 5c3e fbea 8b3e fcae 623e 4dd7 62bd
00000310: 1538 a1bd cda1 b0bd bad1 893d 6daf 103e
00000320: b884 a6bd d745 af3e f278 b13e 6215 a3bb
00000330: 1a2c 0abe f8a2 573d 9896 303e a65a af3d
00000340: b5d5 0bbd d192 2c3e 90ff 353e 45cf 053b
00000350: a183 8d3e 4267 20be 18b6 2c3f fbbe 1fbe
00000360: a3f4 893e 61db 483e 8697 32bd 9937 d8bd
00000370: a182 85bc cb83 333d 2cf8 683e 4c67 5bbd
00000380: 0ef6 723e 7c31 3f3c 7a22 503e 3516 3b3f
00000390: a923 433d 3edf 5f3e 0e61 843c af63 06bd
000003a0: 3c76 933d 6a4e 2abe ce9b a8bd 11d9 1abf
000003b0: 8035 03be 2061 343e f8a2 f1bd f36b 8bbd
000003c0: e882 22bc 2d63 5e3e 2629 34bc 6ca9 0e3d
000003d0: 89da 07bd 6bc2 173e 3139 853e a334 bf3e
000003e0: 2a19 0abe a07a 7e3e db38 2fbe ea49 423e
000003f0: 5bc2 1a3e 5c51 ef3d efa7 81bd 9907 ff3d
0.10448208 0.12970604 0.087595955 0.20823556 0.27843055 0.042457175 0.025202973 0.110146545
-0.41349345 0.31109554 0.2857804 0.19521078 -0.0894191 -0.081122234 0.09604012 -0.113286994
0.099931724 0.0655651 -0.048209302 0.18432146 -0.0062469933 -0.13978937 0.688268 -0.13196583
0.0107882945 0.16095492 0.18599817 0.14634337 0.30636272 -0.19590761 0.075017385 -0.0034774374
0.18573248 0.1278623 -0.16422582 0.78627795 0.1650582 0.12728742 -0.12208465 0.16363157
0.17315674 -0.13416241 0.19683604 -0.49864656 0.2464082 0.3295907 0.047098853 -0.02875532
0.14127257 0.18614163 0.11828034 -0.073079884 0.13894285 0.07848721 0.013394851 0.34907007
0.13284881 -0.0221004 0.101310275 -0.059520848 0.22874337 0.18339998 0.08668236 0.00441163
0.14533983 0.031975344 -0.14312309 -0.09645393 0.34755453 0.15027808 0.05198423 0.061783846
-0.25202137 0.25046182 0.17252322 0.060294595 0.1424577 -0.031634454 0.18559937 0.3811645
0.1455267 0.03684177 0.29724726 0.22551072 -0.0031791816 -0.112366796 0.5816303 -0.05744828
0.15504968 0.10655813 0.35262737 -0.036456794 0.0068000173 -0.10974025 0.1739385 0.20553781
0.054564912 0.37809318 0.17858203 0.54612935 -0.09273563 0.57483906 -0.006193915 -0.0075728092
0.005077687 -0.111148775 -0.03107975 -0.61566454 0.14290188 0.11326645 0.030903313 0.18142076
0.12083003 0.14751059 0.0011792048 -0.046873752 0.030398363 0.041559774 0.11684018 -0.03492687
0.042250056 0.19914074 0.16565199 0.21043886 0.3015047 -0.014293418 0.106176764 -0.13572241
-0.15402281 -0.1257029 0.109115995 0.116687536 -0.019193605 -0.1206232 -0.029925276 0.07486672
-0.27483985 0.18382868 -0.056248456 0.0068459827 0.122124285 0.17322564 0.10677553 -0.009287115
0.1340543 0.08153455 -0.014944586 0.0064620967 0.17791654 -0.19743079 0.21571201 -0.17121108
0.35287184 0.23067385 0.059675347 -0.07024 0.2351801 -0.17708087 0.118657134 0.33431238
0.19950588 0.114728555 0.12651604 0.72259057 0.12365664 0.0689531 0.07933227 0.012412573
0.3812387 -0.08457995 -0.0768107 -0.24767682 0.08875601 -0.011900472 -0.19416471 0.14002846
-0.011443384 0.055621993 -0.0041528074 -0.019535197 0.20658648 0.03588985 0.28990084 0.20719668
0.1930752 0.23523754 -0.09561177 0.017341556 0.27075288 0.03490071 0.0933811 0.060114834
0.21574 0.27327713 0.22137064 -0.055381108 -0.07872025 -0.08624611 0.06729455 0.1412942
-0.08130783 0.3423297 0.34662586 -0.0049769143 -0.13493386 0.052645653 0.17244947 0.08562212
-0.034139354 0.16852881 0.1777327 0.0020417732 0.27639487 -0.1566439 0.67465353 -0.15600197
0.26944456 0.19614936 -0.043601535 -0.105574794 -0.01629764 0.04382686 0.2275092 -0.05356531
0.23726675 0.011669513 0.20325652 0.7308076 0.04764143 0.21862504 0.01615956 -0.03280991
0.07200286 -0.16631475 -0.082328424 -0.6048747 -0.12813377 0.17615175 -0.11798662 -0.06807699
-0.009918906 0.2171752 -0.010996139 0.034829542 -0.033167396 0.14820258 0.26020196 0.37344846
-0.13486162 0.24851465 -0.17111532 0.18973508 0.15113203 0.1168544 -0.06330859 0.12452621

shared.2.bias f4 [64]
00000000: 8b06 da3d 0716 233e 51d3 f53d 64a9 d13d
00000010: 7300 bb3d 3553 ed3d d5c6 a2bc 0000 0000
00000020: 5ad6 93bd 3ac2 353e 680a 0d3e 5006 0a3e
00000030: 5873 ff3d 9d6d 2f3e bcbf 313e dfc2 d2bc
00000040: 08fb 60bc 8e72 a4bc 5a76 403e 7293 dc3d
00000050: 6179 d43d 0000 0000 ce5b fe3d bf15 323e
00000060: df13 2a3e 946d 213e 196e 563e 297b 553e
00000070: e152 e93c 6cca 633e 297a 353e 880e 2d3e
00000080: ff10 3a3e 1527 2d3e a9f7 033e 738e 233e
00000090: 0bf7 1b3e 8529 4a3e ab5d 013e 304b 593e
000000a0: 8e1c 2bbc a9bb 9d3d ace1 1b3e 5512 523e
000000b0: 0000 0000 caca c3bc 1201 273e ad18 083e
000000c0: 856c 3e3e 4337 1f3e 8500 013e 789e 203e
000000d0: 0286 613e 6e97 653e 5cc4 0e3e f650 c2bc
000000e0: 13f3 7b3e aead 11bd 775f 4c3e 4dbc 453e
000000f0: 6735 bc3d 0cb7 603e f9f1 c23d d0df 433e
0.10645779 0.15926372 0.12003196 0.10237387 0.09130945 0.11588136 -0.019870201 0.0
-0.07218619 0.17749873 0.13773501 0.1347897 0.12473172 0.17131658 0.17358297 -0.025727687
-0.0137317255 -0.020074155 0.18795148 0.107703105 0.10374714 0.0 0.12419854 0.17391108
0.16609143 0.15764457 0.20940436 0.20847763 0.028481903 0.22245187 0.17722382 0.16900074
0.18170546 0.1690944 0.12887444 0.15972309 0.15230958 0.19742401 0.12633388 0.21220088
-0.01044382 0.07701809 0.15222806 0.20514806 0.0 -0.023900408 0.16309002 0.13290663
0.18596084 0.15548424 0.12597854 0.15685451 0.22023776 0.22421047 0.13942093 -0.023720246
0.24604444 -0.035566024 0.19958292 0.19310112 0.09189873 0.21944827 0.09518809 0.19128346

actor.0.weight f4 [32, 64]
00000000: 0569 90bd 3acb 53be 0b1d b6bd db99 d3bd
00000010: e653 4c3d 3c53 353e 9321 45be 275d 12be
00000020: 2beb d33d 35cb 0e3e c83c 55be 5c18 df3d
00000030: 48cd dd3d d743 c13c a012 2b3d 6b94 90bd
00000040: 80a9 8b3d fdcb d43d cd8c 68bc ad1e 51be
00000050: 8bc1 f43c e498 17be c418 ee3d 421a 673c
00000060: 84c1 e43b 1f08 b5bd 2b47 1d3d 9cc6 b4bd
00000070: 40f6 48bc d1a1 95be 0ab5 3cbd bec3 acbe
00000080: 895f 773d fd3d c5bd 1ca1 d13d 3700 093e
00000090: 5ef7 05be 2ea1 11be 6051 84be 6ba8 b3bd
000000a0: 3649 6dbb bed1 cf3d 344a 5ebc 2695 89be
000000b0: 5b9e bb3c f502 443d ceeb 453d 5238 ad39
000000c0: 592e c4bd 7b6a 88bc ce69 19be 67d5 74bd
000000d0: 7348 04be b008 ee3d e511 07bd 8919 b5bd
000000e0: 3b4d 603e 2ba4 5cbe 2a58 80bd ab98 77bd
000000f0: 2e49 533d c619 fabb 81d6 2e3c 839c c8bc
00000100: 9701 29bd fd73 363e c457 01bd 40b7 723c
00000110: a50b 993e eac7 09bd b132 0e3a 8906 9b3d
00000120: a816 d0bd 1ddf e8bb 256b 8c3d 8468 e23d
00000130: e0cc 11be 8d5d 05be 4308 ba3d 1d95 e83d
00000140: e8e4 dbbe 94b4 953d 7cdc c8bd ec0e 38bd
00000150: fe92 6e3c ff3c dabd 133b 963d 12b2 0dbd
00000160: 7f2c a2bd cfbb 833b 8da2 d23c 6a39 8f3e
00000170: c5a5 073e 8473 603e 217d 063d cbd7 b13b
00000180: 5f70 313d 92ff 2aba 0a4b 133d a3dc c7bd
00000190: 046a 1fbe 51d4 3cbc e3b7 6bbe 486b 5dbd
000001a0: d548 153e 9a79 423e f4ce 0a3d 03ff cdbd
000001b0: 0648 85bd 492c 003e 2fdc 5abc c5b1 8ebc
000001c0: 26fb fe3d 02b9 34be bf4d 6fbd 2be8 84be
000001d0: eea8 0fbe e5f9 d7bd 0a8d 1abe 53ed 823c
000001e0: f533 6bbd ab04 b4bd 6fe8 133c 4714 4fbe
000001f0: a157 5ebb f002 afbd 0137 bdbb 925f d43d
00000200: 9bad 813d 12c0 82bd 9060 1e3e d662 3c3d
00000210: 1c34 32bd 2b8a 953e 5cff bbbc 4da3 843d
00000220: ec1c a43b 3d96 78be 3c91 16be 0680 9d3d
00000230: c61e 47be a94c 69be f2de b3bd a3a4 0ebc
00000240: 3e6a 923d 94f0 3bbd f42d 423d b84e 683e
00000250: f459 73bc eb10 8abc a242 49bd b60f 32ba
00000260: 04f2 26bb 9379 03bd 7c44 a53d 966f febc
00000270: a4a1 b63d 7acd 5bbe 3f98 fdbd e0ec 2dbe
00000280: 6a1c f93d 8017 ffbc 766b a6bd a620 58be
00000290: 35b9 633d d7fa 233e 2995 58be 4af3 233d
000002a0: f30e ecbc 9154 54bc 7000 8fbd 9bd2 0c3e
000002b0: 82b6 8cbd a9b7 393c b38d 81bd 662f 343e
000002c0: 6665 d5bd 4d84 e53d ea91 73bd c32d 91be
000002d0: eb42 933d 2466 14bd b5df 81be b74b 58bd
000002e0: 855f 193d 67fe 3d3d dd54 703d 4b5d be3d
000002f0: 5d35 debd 4e57 b7ba 4aec 893e 7faf 583e
00000300: eddf cabd 2d35 9abd 4f27 4b3d b980 d4bd
00000310: 3c17 d43d e79d 173d 64df a53d a5c7 0a3e
00000320: 9a34 103e fe8a 2ebe d751 e03d 8adf f23c
00000330: 550f f9bd be08 903d 1720 4e3d 9151 41be
00000340: 051e 533d 8aa7 c9bc 0773 693c 5431 83bd
00000350: 2571 403d 9159 7dbd 756d 963d 1cdb 243e
00000360: 3b5c cdbd 913b d4bd 43f9 903d 515d 843e
00000370: 849e 90bd 4e16 2cbd cda3 c53d 5480 453e
00000380: eda3 0b3c 4896 f9bd b59c 1e3d 128d 833b
00000390: d810 82bd 2d6a 53be a3f8 d7bc d537 5cbe
000003a0: 4530 113e 942b 13be 9aed 2fbe c146 7bbd
000003b0: 7a8f 4b3d a76f c83d 15fd 3a3e b65c 6ebd
000003c0: 2bf0 72be 48ac e33b e58b 97bd 40a0 993d
000003d0: 1ab0 043e 5706 3ebe 9b28 b9bd d421 4ebe
000003e0: 6de0 d1bc 85f6 6a3d 0499 bc3e 190c 883e
000003f0: 765a 3fbd 314f 743c 2094 90bd 710e 9fbd
-0.07051281 -0.20682994 -0.08892258 -0.1033208 0.0498847 0.17707533 -0.19251089 -0.14293347
0.10347589 0.13944705 -0.20823967 0.10893318 0.1083017 0.023591919 0.04176581 -0.070595585
0.06819439 0.1039047 -0.014193726 -0.20421858 0.029877445 -0.14804417 0.116258174 0.014105381
0.0069810767 -0.088394396 0.03839795 -0.08826944 -0.012265742 -0.2922502 -0.04607109 -0.3374309
0.060393844 -0.09630964 0.10235807 0.13378988 -0.13082644 -0.14221641 -0.25843334 -0.087723576
-0.0036206967 0.10147427 -0.013567496 -0.26871604 0.022902658 0.047854383 0.048320584 0.00033039093
-0.095791526 -0.016652336 -0.14981768 -0.05977383 -0.12918262 0.11622751 -0.03297605 -0.08842761
0.21904461 -0.21547 -0.06266816 -0.06044833 0.05158346 -0.007632467 0.010671259 -0.024488693
-0.04126128 0.17817684 -0.03157784 0.014814198 0.29891697 -0.03363792 0.0005424424 0.07569606
-0.10160571 -0.0071066753 0.06856374 0.11055091 -0.1423831 -0.13023968 0.09083607 0.11356566
-0.4294808 0.07309833 -0.09807679 -0.044936106 0.014561413 -0.10656165 0.07335486 -0.03459365
-0.07918643 0.0040201913 0.025712276 0.2797349 0.1324683 0.21919066 0.032834176 0.005427336
0.043320056 -0.00065230683 0.035960235 -0.0975888 -0.15567786 -0.01152523 -0.23019366 -0.05405739
0.14578564 0.189917 0.033888772 -0.10058405 -0.06507878 0.12516893 -0.01335816 -0.017418751
0.124502465 -0.176487 -0.058423754 -0.2595838 -0.14029285 -0.105457105 -0.15092865 0.015982306
-0.057422597 -0.08789953 0.009027584 -0.20222579 -0.0033926743 -0.08545482 -0.0057743792 0.10369791
0.06331941 -0.06384291 0.15466523 0.045992695 -0.043506727 0.29206976 -0.022948913 0.0647646
0.0050083306 -0.24276061 -0.1470384 0.07690434 -0.19445333 -0.2278315 -0.08782758 -0.008706245
0.0714917 -0.04588373 0.047407106 0.22686279 -0.014852989 -0.01685377 -0.04913581 -0.0006792502
-0.0025473842 -0.032098364 0.08069703 -0.031059068 0.08917549 -0.21465102 -0.12382554 -0.16984892
0.12163623 -0.031139135 -0.08125965 -0.21106204 0.05559655 0.16013657 -0.2115065 0.04002694
-0.028815722 -0.012959615 -0.06982505 0.13752215 -0.06870748 0.011335292 -0.06325855 0.17596206
-0.10419731 0.11206875 -0.059465326 -0.28355226 0.07190498 -0.03623022 -0.25365987 -0.052806582
0.03744461 0.046385195 0.058674682 0.09295138 -0.10850022 -0.0013987811 0.26938087 0.21160696
-0.09905992 -0.07529674 0.049598034 -0.103761144 0.10355994 0.03701582 0.08099249 0.13552721
0.14082566 -0.17045209 0.1095311 0.029647607 -0.121611275 0.070329174 0.050323572 -0.18878771
0.0515423 -0.024616022 0.014248616 -0.06405893 0.046982903 -0.061852995 0.07345096 0.16099209
-0.10027357 -0.10362924 0.07078793 0.25852445 -0.070614845 -0.04201346 0.09650383 0.19287235
0.00852297 -0.12186867 0.038723666 0.0040146196 -0.06350869 -0.20645972 -0.026363676 -0.21505673
0.1417857 -0.14372092 -0.17180482 -0.061346773 0.049697377 0.09786921 0.18260606 -0.058193885
-0.2372443 0.0069480278 -0.0739973 0.075012684 0.12957802 -0.18557106 -0.09040948 -0.20130092
-0.02561971 0.057364006 0.36835492 0.2657173 -0.04671713 0.014911459 -0.070595026 -0.07766426

actor.0.bias f4 [32]
00000000: 6f13 4839 105e 34bc 33fc d1bc f655 6cba
00000010: 169d 07bc 2634 36bb 8182 73bd 0833 80bd
00000020: 0c3b 823d c545 873d 1cb2 613d 1093 09bc
00000030: 41cd 873d 15f5 7cbb 8a4f 343c 2017 18bd
00000040: 5cfa 25bd b485 c1bb f474 52bd 8875 bbbb
00000050: 8d6b 5bbc ae59 50bc 209f 9cbb 6b9a 11bb
00000060: 0859 a7bc 0000 0000 e97a 69bd 5704 19bc
00000070: e0f1 26bb 8c9b 52bb 0000 0000 4294 c7bc
0.00019080726 -0.011008754 -0.025632953 -0.0009015495 -0.008277198 -0.002780208 -0.05945063 -0.062597334
0.063589185 0.06605104 0.0551015 -0.008396879 0.06630946 -0.0038598229 0.011005292 -0.03713143
-0.040521964 -0.005905831 -0.051381066 -0.005720798 -0.013392341 -0.012716694 -0.0047797114 -0.0022217284
-0.020428196 0.0 -0.057001982 -0.009339414 -0.0025473759 -0.003213617 0.0 -0.024362687

actor.2.weight f4 [2, 32]
00000000: 35d0 37be 814c 7dbe d775 183e 334e 0d3e
00000010: 2744 9fbc 1e3f 90bd 6907 adbe 467f 80be
00000020: 02a7 3a3e 542a 023f bac7 be3e d6f6 883e
00000030: c87f f03e b8db c3be 9cdf d93b 6239 a8bc
00000040: 9c29 2dbf 65fd 9abd c4f9 38bf 7b5a 12bd
00000050: 6d00 d3bd c58a fb3d b585 743c ab63 13be
00000060: 98c5 82be 002b 6cbe 2452 13bf 8064 06be
00000070: fe23 d63d 998d 793e 127c b33e 610c dc39
00000080: 420a 293e 0dfe abbc e986 42be a7c3 afbe
00000090: 8886 80be a88f 5dbd c5f9 793e 71ef 413e
000000a0: e477 febe 3921 12bf faf6 fcbe 90d3 a0bd
000000b0: 399a 31bf c0a9 bbbe 0820 acbe 8beb 743e
000000c0: c171 333f 1611 14be 7dc4 2f3f a6bb 58be
000000d0: 8943 5bbe 4723 153e 4e25 22bd 23c5 06bd
000000e0: 205a 35be 6faf 583d 5521 dd3e fe22 8e3d
000000f0: 86e5 23be afe1 58bd 1320 073e 77f5 31be
-0.17950518 -0.24736215 0.14888702 0.13799362 -0.019441677 -0.07043289 -0.33794716 -0.25097102
0.18227771 0.5084584 0.37261754 0.2675082 0.4697249 -0.3825357 0.006648971 -0.020535175
-0.67641616 -0.075678624 -0.7225611 -0.03573082 -0.103028156 0.122823276 0.014924456 -0.14393489
-0.25541377 -0.23063278 -0.5754721 -0.13124275 0.10456084 0.24370421 0.35055596 0.00041970893
0.1650782 -0.020995164 -0.18996777 -0.34328958 -0.2510264 -0.05409208 0.24411686 0.18938996
-0.49700844 -0.57081944 -0.49407178 -0.07852852 -0.6937595 -0.36652946 -0.33618188 0.23917978
0.7009545 -0.14459643 0.6865919 -0.21165332 -0.21412481 0.14564238 -0.039586358 -0.032902848
-0.17710161 0.05290168 0.43189493 0.06940268 -0.16005525 -0.052949604 0.13195829 -0.17378794

actor.2.bias f4 [2]
00000000: c8b9 423d ccb9 42bd
0.047540456 -0.04754047

critic.0.weight f4 [32, 64]
00000000: daae 423e 617a 56be 8c77 c8bd 0dfa bf3c
00000010: b3b8 55bd 3e02 febc 800c 33be 39d2 a2bc
00000020: 7581 413d 3688 613e d7d6 643d bae8 dc3d
00000030: 277f afbc 95a1 43bc b481 7d3d 9794 953d
00000040: 769e 923b de4b cabd 8596 b7bc 1dbd 96bd
00000050: 739e 7abe 3ce3 533d 4a3b 0f3e 5800 c23d
00000060: d5ec 7e3c bf7f 9fbd 3ef3 a1bd 6305 cbbd
00000070: fb58 ea3d 1974 5bbd 37c6 8bbd 5441 11bd
00000080: e6dd 03bc d4db 4c3d 0d00 d6bb e365 2c3e
00000090: 456d bcbe be39 94be a8c2 c2bc 0923 84bd
000000a0: 6c89 193e b36f 3dbc 3715 7bbd ccee 7d3e
000000b0: 8361 1f3e 0176 073d 9b01 683e dcca babd
000000c0: 4abb 1e3e b738 1fbe 6a38 b8bd 3577 14bd
000000d0: 94f5 34bd d949 5cbe 43c2 a13d fe31 90be
000000e0: 4d9f 133d 29eb b5bc 2ed4 8ebd 76cf 90bc
000000f0: 09ac cd3d e3fb edbd 092c b83d a1f5 14bc
00000100: af47 293e aebb ec3d 5673 213e b21e 3cbd
00000110: 874c 1b3e e6b4 963c 7a1d 983c ff7f 533c
00000120: 4095 ecbd 934e 213e bca6 863d 7d99 a7bd
00000130: 7e19 78be 9d7a 13bd 2ed3 d13b e2bc 103e
00000140: 8c54 d03c c86a 3ebd 5264 293e 1da5 18bd
00000150: cd08 51bd af30 0cbe a700 e43c 6ad0 80be
00000160: d1d1 40be 30fa a03b 4e87 a83d c931 5a3d
00000170: 83d3 96bc e06e 63bd c250 143e e65e 0dbd
00000180: 3810 e0bd deca 18bd 6b92 22be 99ac f5bc
00000190: 4eaf 1cbe bb3b 223e f000 2ebd 7365 84bd
000001a0: b0c0 80bd 85bc a0bd 7776 c53c 0362 89be
000001b0: 3e8f c83c f7e5 193e 3625 8c3e e0ae b4bd
000001c0: 70ab c1bb 2b9c 36be 7ab9 89be c608 77bc
000001d0: 8297 85be 293e 5e3e 8542 9dbc f6b6 68bd
000001e0: 1c16 46bd f0bb 46be 50b4 37be 0041 d939
000001f0: ee19 573d 4fa7 803d 8b48 3bbe 5482 993d
00000200: 407b 8cbd 290c b2bc 12b0 b0bd 81a8 1fbc
00000210: 22ab 0d3c 2e30 37be 9b82 ec3c 59e6 953e
00000220: f43b e83d cb32 f63d 1f7a dfbd 79aa 28bc
00000230: c401 d9bd f220 d3bd 3f5f 60bc 9761 99bd
00000240: 3e40 df3d 7e91 eabd 4362 73bc db21 14be
00000250: 9836 843d 6838 c8bd f886 babc 25e5 51be
00000260: 3bdc 873d 7da7 1f3d 09b9 063e 9d4a 6b3e
00000270: 6b50 ff3c b354 973a 1679 29be 54bb 84bd
00000280: 7bfd 613b 9f6d cd3d 5c05 d9bd 7cfb f4bd
00000290: 40d9 843d 8aa3 c4bb cd1f d53c eaf8 5c3e
000002a0: 2eca 0f3e fa70 613d 6899 723d 9469 7cbd
000002b0: a4e2 a53e 63c0 f1bd dc56 e83c 6de8 79bd
000002c0: 2cb3 63bb 1d00 8fbe a75c f53d b48b 18bc
000002d0: 6efa 81bd 7271 163e 46a0 d0bd a344 953d
000002e0: 553d 633e 7c32 303e 57fe 65bd 8779 29be
000002f0: 74ad c9bd 4925 afbd 39ba 853e 941c 12be
00000300: 5cd2 203e dc55 49be e99c d53d 3e68 17be
00000310: 2d20 c03d 91f3 ea3d bd56 4f3d b259 c53d
00000320: 835d ffbd c6e7 92bc 154f abbd 0a12 8a3d
00000330: 4911 e8bc 022b eabc 6513 06be c131 173c
00000340: 5ed3 723d 17e6 593c 9223 be3c 00eb 6ebd
00000350: 65cf 7a3e f6bb 123d 2f9b 3cbe 1949 8fbd
00000360: 9d0e 703d 7954 4ebe 5478 75bc b43a 8c3d
00000370: 2b67 dfbc 0408 7dbe 6c7b b93d 395a e9bb
00000380: 5607 29be 80cc 2abd 9a3d 6f3c a573 903d
00000390: 9cb3 6e3d 9b2a 683c 6ba6 68bd 808e e6bd
000003a0: 4eee 44bd 5003 403e 857c 2bbe 87ba ae3e
000003b0: 0a49 f63c c5fa 823b 8721 023d ecfd ebbc
000003c0: 6c30 ed3d 3323 7b3c 84ed e63d c182 4fbd
000003d0: ee7f a0be a49e 21be 4431 5cbd bbe8 073e
000003e0: f5b1 8cbc e9fb 153e ec67 52bc f4d6 cc3c
000003f0: f003 93bd 5ba9 c23e 1ef5 3f3c 4992 ab3d
0.19012013 -0.20945121 -0.09788427 0.023434663 -0.052178096 -0.031006929 -0.17485237 -0.019875633
0.0472426 0.22024617 0.05586895 0.107865766 -0.021422936 -0.01194038 0.061891273 0.07303732
0.0044744564 -0.09877752 -0.02241064 -0.07360289 -0.24474506 0.05173038 0.1398746 0.09472722
0.015559395 -0.077880375 -0.07907723 -0.09913137 0.11442753 -0.053577516 -0.06824916 -0.035462692
-0.00804851 0.050014332 -0.006530768 0.16835742 -0.36802116 -0.28950304 -0.02377446 -0.06451995
0.14993829 -0.011562276 -0.06129953 0.24798125 0.15564542 0.03307152 0.22656862 -0.091207236
0.15501133 -0.15548979 -0.08995135 -0.036246497 -0.044179514 -0.21512546 0.078983806 -0.2816314
0.036040593 -0.02220686 -0.06974064 -0.01767705 0.10042579 -0.11620309 0.08992774 -0.009091766
0.16531251 0.115592346 0.15766653 -0.04592771 0.15165912 0.018396806 0.018568743 0.012908935
-0.11551905 0.1575263 0.06574771 -0.081835724 -0.24228474 -0.036005605 0.0064033484 0.14134553
0.02543094 -0.046488553 0.16542175 -0.03726684 -0.051033784 -0.13690446 0.027832342 -0.25159007
-0.18830039 0.004912637 0.08228932 0.053270135 -0.018411404 -0.05552566 0.14483932 -0.03451433
-0.109405935 -0.037302844 -0.15876167 -0.029989528 -0.15301248 0.15843098 -0.042481363 -0.064646624
-0.06286752 -0.07848457 0.02410434 -0.2683259 0.024482366 0.15029131 0.2737214 -0.08822417
-0.0059103295 -0.17833011 -0.2689932 -0.015077775 -0.26092154 0.217034 -0.019196758 -0.05681511
-0.04836093 -0.1940763 -0.17939878 0.00041437894 0.052514963 0.062819116 -0.18289392 0.07495561
-0.068594456 -0.021734314 -0.08627333 -0.009744764 0.008646758 -0.17889473 0.028870871 0.29277304
0.1133956 0.12021407 -0.109119646 -0.01029455 -0.1059604 -0.10309018 -0.013694583 -0.07489317
0.10900925 -0.11453532 -0.01485497 -0.1446604 0.064557254 -0.09776384 -0.022769436 -0.20497568
0.066338025 0.03897809 0.13156523 0.22977681 0.031166276 0.0011545628 -0.16550097 -0.064810425
0.0034483362 0.10030674 -0.10596725 -0.11962029 0.0648675 -0.0060009407 0.02601614 0.21579328
0.14041969 0.055039383 0.05922833 -0.061624125 0.32399476 -0.11804273 0.02836173 -0.061012674
-0.0034744246 -0.27929774 0.11980563 -0.009310652 -0.06346594 0.14691713 -0.1018682 0.07288482
0.22191365 0.17206758 -0.05615076 -0.16550265 -0.09847537 -0.085520335 0.2611864 -0.14268714
0.15705246 -0.19661659 0.10430319 -0.14785859 0.09381137 0.11472238 0.05061983 0.09636249
-0.12469008 -0.017932784 -0.08364693 0.06741722 -0.028328555 -0.02858496 -0.13093336 0.009228171
0.059283607 0.013299487 0.02321032 -0.058329582 0.24493177 0.035823785 -0.18418573 -0.06996364
0.058607686 -0.20149411 -0.014982302 0.06847134 -0.027270874 -0.24710089 0.09056744 -0.007121351
-0.16506705 -0.041698933 0.014602089 0.070533074 0.058276758 0.014170314 -0.056799334 -0.112576485
-0.048078828 0.18751264 -0.16746719 0.34126684 0.030064125 0.003997179 0.031770255 -0.028807603
0.11581501 0.015328216 0.11275771 -0.050661806 -0.31347603 -0.15783173 -0.05375792 0.13272373
-0.0171747 0.14646877 -0.01284216 0.025004841 -0.071784854 0.38019833 0.011716155 0.08377511

critic.0.bias f4 [32]
00000000: 9add 2ebc 3316 99bc ec56 b4bc 5cdf 86bc
00000010: c25d d53d 55f6 a33d 95ff 04bc b02e 233e
00000020: 0000 0000 b566 22bb d1c7 433e a52b ea3d
00000030: 784a d53d e8b3 03bc 066e ec3d eee0 60bc
00000040: 184f df3d 964f 16bc 0000 0000 b97d ac3d
00000050: f0eb 063e 8c94 f23d 813f c73d 7aca b33d
00000060: 9a1f c53d e90f 2c3e ae65 f03d 144b 2d3e
00000070: be79 b63d ebf0 ebbb eb50 f73d 8289 183e
-0.010672951 -0.018687343 -0.022014104 -0.016463928 0.104182735 0.080059685 -0.008117576 0.15935779
0.0 -0.0024780456 0.19119193 0.11434106 0.104145944 -0.008038498 0.11544423 -0.013725502
0.10903758 -0.009174248 0.0 0.08422417 0.1317594 0.11844739 0.09728909 0.08778854
0.09625168 0.16802944 0.11738144 0.16923171 0.08909939 -0.0072003505 0.12075981 0.14896205

critic.2.weight f4 [1, 32]
00000000: 9aa8 a03b d80c f43d dc0e cc3c ed87 223e
00000010: b7f9 e6be be65 b0be c8c2 973c ee94 95be
00000020: 1efc 4e3e 58af 453e 0790 8abe 1fb1 b7be
00000030: d2a9 01bf 14a9 943c a073 bcbe 4fba f83c
00000040: b991 b3be 7aac c83d e101 2c3d e571 d5be
00000050: f63f 0dbf 26c2 0dbf fa7b 0cbf be10 e1be
00000060: 83e5 d1be d634 b2be 0bba c1be 4a19 5d3f
00000070: 5b87 dbbe 4751 ce3e 0d3a cabe 98a4 00bf
0.0049029114 0.11916512 0.02490943 0.15872164 -0.45112392 -0.34452623 0.018525496 -0.29215187
0.20213363 0.1930517 -0.2706301 -0.3587732 -0.5064975 0.018147029 -0.36806965 0.030362276
-0.35072115 0.09798522 0.04199398 -0.41688457 -0.5517572 -0.5537437 -0.54876673 -0.43958086
-0.40995416 -0.34805936 -0.37837252 0.86366713 -0.42876706 0.40296385 -0.39497414 -0.5025115

exp_avg f4 [64, 12]
00000000: 7c72 c43a 86b8 8437 083f 74bb 3389 323a
00000010: 3aa9 19ba 43e6 013b 7da4 1db9 86b8 8437
00000020: 7357 57bb f335 84bb b16a a9ba 1427 503b
00000030: 0f13 1cba 4f3d d637 6b27 35bb 8d3a 9939
00000040: 68ba 1eba c700 a6b8 5ce7 37b9 4f3d d637
00000050: 959a 71bb 11dc 87bb 27d9 f9ba 1285 683a
00000060: 75c8 09bb b19e 38ba bb44 edba 3ab5 b9ba
00000070: db02 faba 21e0 deba ba9c 19b9 b19e 38ba
00000080: 6225 2bb9 fc34 c7b9 a365 9ab9 f6e0 11bb
00000090: 08fe adb9 e088 93b9 0a27 de3a 7147 8eba
000000a0: 6706 34ba 7653 23bb feae fcb5 e088 93b9
000000b0: e5cf f13a b34b cf3a 3832 cd38 955a b7ba
000000c0: 1d31 31b8 a951 aa38 fd87 c83a 584e e538
000000d0: 02e7 a239 c187 263b 3100 9b39 a951 aa38
000000e0: b1e8 8f3b 3866 973b 6708 873b 8e52 2cb9
000000f0: 5782 22ba fc78 bdb9 aca8 003a 186e 6cba
00000100: 748d 84ba 84d0 e7b8 9754 0638 fc78 bdb9
00000110: f634 933a 8f6c a63a ee72 093a 2f5e 71ba
00000120: 6163 c339 7f90 cc38 b18a 2dbb e7cd fb39
00000130: eb90 6838 4d43 093b eb4e bfb7 7f90 cc38
00000140: 0533 1fbb fb2a 1dbb 021c 5fba 1ea2 f63a
00000150: 705b 16bb dcc6 cab9 a993 6aba 582a 7cba
00000160: 9013 b9ba ed27 d0ba f259 5637 dcc6 cab9
00000170: 511d a53a abd0 8f3a 9a60 7d3a 5a6d 1abb
00000180: 2cfb 763b 1ea4 9c3a aad0 1c3c 9ce6 173b
00000190: b1e6 963b d675 163c f832 2439 1ea4 9c3a
000001a0: 029b 053c 8d99 c33b 029b 053c f438 e239
000001b0: 5910 883a 8df4 87b9 93eb c5ba 83db afb9
000001c0: 4f0c f9ba 6baf 063b cb22 05b7 8df4 87b9
000001d0: fd27 5329 4b27 93ba f064 4e28 5910 883a
000001e0: 7134 aab9 8bbd dcb7 b3ef 8abb 0f3c 313a
000001f0: df02 50ba 4f8a 4b3b 77bc c9b8 8bbd dcb7
00000200: 3b8b 89bb 29f4 85bb 78f1 9eba 3922 033b
00000210: d63f 203b 13c2 dd38 8b82 0dbb 2438 463a
00000220: f110 5a39 b5d1 133b 3c77 3bb9 13c2 dd38
00000230: e22d 62bb d642 81bb 1143 03bb 86f7 6f3b
00000240: 6ff2 b03a 79b2 86b8 c994 353a c75c 13b9
00000250: 51db edb8 c888 bc3a b8e0 88b8 79b2 86b8
00000260: ee24 87ba a174 66ba 9b76 86ba 518f c03a
00000270: bee5 f4b7 8508 86b9 4d7e e3b9 b6de 3aba
00000280: 2ae3 8aba d307 a9ba 4ad7 26b9 8508 86b9
00000290: 78a5 11bb 3fba 22bb a050 0ebb fc98 013a
000002a0: 5dca c83a d7e5 a138 3c90 d43a 501d 3538
000002b0: 9c2b f8b8 0b58 6e3a 4e66 eab8 d7e5 a138
000002c0: 8b88 3cbb 9a58 3dbb b941 f4ba a596 293b
000002d0: 56bb 0abb 29e6 06ba 634b 3dbb 25f7 47ba
000002e0: f4fb 83ba 5b5e c7ba 56cf 4db8 29e6 06ba
000002f0: 6f7f a8b8 9bac cbb9 d43e 963a 2302 a7ba
00000300: cffa 493a 9363 c8b8 34f1 b1ba f7b4 bbb8
00000310: 4180 24ba 53f3 0a3a 9137 26b9 9363 c8b8
00000320: 9238 51bb de18 56bb 2172 1bbb 8b98 eb3a
00000330: 0000 0000 0000 0000 0000 0000 0000 0000
00000340: 0000 0000 0000 0000 0000 0000 0000 0000
00000350: 0000 0000 0000 0000 0000 0000 0000 0000
00000360: 6503 b23a ae21 b6b6 dded 58ba e806 8b39
00000370: d365 48b9 aab5 5c3b 6e2e 2db8 ae21 b6b6
00000380: bf70 1fbb 695e 1fbb c82e 5436 aea3 003b
00000390: 8661 5cbb a16f 32b9 0400 0000 f56b 71b9
000003a0: 005f eeba 2969 34bb bc31 a7b8 a16f 32b9
000003b0: edb1 67bb 2e6e 57bb be17 38ba d72d 06bb
000003c0: b761 5e38 5234 aab8 7052 1a3b 5b16 25b9
000003d0: ae09 3fb8 b8c1 c93a 2b07 6539 5234 aab8
000003e0: 1b6d 113b 78fc 1f3b 0da5 153b 0e9a 8639
000003f0: be79 ef3b 2962 8b3a 18b2 a93b 6675 0d3b
0.0014987732 1.5821552e-05 -0.0037269015 0.00068106054 -0.00058617035 0.0019821085 -0.00015033963 1.5821552e-05
-0.003285852 -0.0040347516 -0.0012925473 0.0031761574 -0.00059537677 2.5539337e-05 -0.0027641903 0.00029226058
-0.00060549984 -7.9156416e-05 -0.00017538428 2.5539337e-05 -0.003686582 -0.004146107 -0.0019061909 0.00088699267
-0.0021024023 -0.000704269 -0.0018102148 -0.001416839 -0.0019074337 -0.0017004051 -0.00014649602 -0.000704269
-0.00016321757 -0.00037995714 -0.00029448894 -0.0022259331 -0.000331864 -0.00028140005 0.001694889 -0.0010855031
-0.0006867409 -0.0024921573 -1.8826393e-06 -0.00028140005 0.0018448798 0.0015815407 9.784516e-05 -0.0013988788
-4.224583e-05 8.121442e-05 0.0015299317 0.000109341636 0.00031071162 0.0025410505 0.00029564046 8.121442e-05
0.0043917526 0.0046203397 0.0041208747 -0.00016433952 -0.0006199232 -0.0003613903 0.00049079466 -0.0009019091
-0.0010112957 -0.000110537774 3.202687e-05 -0.0003613903 0.0011230994 0.0012697148 0.0005243261 -0.0009207455
0.0003726734 9.7543925e-05 -0.0026480372 0.0004802786 5.5448076e-05 0.0020944655 -2.2805723e-05 9.7543925e-05
-0.0024291885 -0.0023981917 -0.00085109484 0.0018816625 -0.0022942685 -0.00038676604 -0.00089483947 -0.0009619347
-0.001412021 -0.001588104 1.2776336e-05 -0.00038676604 0.0012597238 0.0010972222 0.0009665579 -0.0023563714
0.0037686331 0.0011950766 0.009571234 0.0023178225 0.0046051373 0.009183368 0.00015659246 0.0011950766
0.0081546325 0.0059692324 0.0081546325 0.00043148512 0.0010380849 -0.0002593141 -0.0015100114 -0.0003354215
-0.0019000861 0.0020551335 -7.935519e-06 -0.0002593141 4.6886096e-14 -0.001122692 1.14571845e-14 0.0010380849
-0.00032464 -2.6314307e-05 -0.00424 0.00067609636 -0.0007934998 0.003105778 -9.619531e-05 -2.6314307e-05
-0.004197506 -0.004087944 -0.0012126407 0.0020009412 0.0024452112 0.0001057425 -0.0021592702 0.0007561466
0.00020796411 0.0022555415 -0.00017878128 0.0001057425 -0.0034512212 -0.003944735 -0.0020028988 0.0036616041
0.0013499985 -6.422861e-05 0.0006926773 -0.00014053575 -0.000113418915 0.0014384026 -6.5268425e-05 -6.422861e-05
-0.0010310689 -0.0008791183 -0.0010258736 0.0014691149 -2.9194049e-05 -0.0002556482 -0.00043390915 -0.00071285234
-0.0010596265 -0.0012896009 -0.00015911195 -0.0002556482 -0.0022223871 -0.002483025 -0.0021715537 0.0004943756
0.0015319098 7.719889e-05 0.0016217302 4.3181062e-05 -0.000118336844 0.0009092099 -0.00011177045 7.719889e-05
-0.002876791 -0.0028891922 -0.001863531 0.0025877145 -0.002116879 -0.0005145991 -0.0028884045 -0.0007628075
-0.0010069595 -0.0015210615 -4.9068905e-05 -0.0005145991 -8.0346006e-05 -0.00038847778 0.0011462816 -0.0012741726
0.0007704915 -9.55529e-05 -0.0013575912 -8.950562e-05 -0.0006275215 0.00053005404 -0.00015851694 -9.55529e-05
-0.0031924588 -0.003266863 -0.002371915 0.0017974538 0.0 0.0 0.0 0.0
0.0 0.0 0.0 0.0 0.0 0.0 0.0 0.0
0.0013581334 -5.4279435e-06 -0.00082751905 0.00026517292 -0.00019111419 0.0033677616 -4.1289655e-05 -5.4279435e-06
-0.0024328677 -0.0024317747 3.1617692e-06 0.001962881 -0.0033627464 -0.00017016988 6e-45 -0.00023023768
-0.0018186271 -0.00275285 -7.972444e-05 -0.00017016988 -0.0035353855 -0.0032872069 -0.0007022581 -0.00204741
5.301993e-05 -8.115977e-05 0.0023547672 -0.00015743954 -4.5546964e-05 0.0015392816 0.00021841812 -8.115977e-05
0.0022190276 0.0024411958 0.0022833974 0.0002567325 0.007308214 0.0010634112 0.005178701 0.0021584867

exp_avg_sq f4 [64, 12]
00000000: 25db 7339 cf3c 9c36 85ae 9b39 ec98 a837
00000010: 3f2d 4d38 b1b0 d539 998a 9935 cf3c 9c36
00000020: af1f 5939 8f57 2e39 3919 1539 3693 7439
00000030: 403d 9f39 ef12 7036 7bbe f039 c09e 7d37
00000040: e104 6238 b3e0 be39 e732 8a35 ef12 7036
00000050: 28b1 7939 57ae 5d39 850c 2d39 0ddb 9d39
00000060: c558 1039 15cc 8a36 b91a 2039 d994 8437
00000070: a124 0b38 6d91 1b39 acef cc34 15cc 8a36
00000080: 7626 3036 76a2 6837 4894 c936 2699 1039
00000090: 4a7e 8d38 0e61 cc35 8a82 1c38 53ad f936
000000a0: f9ff 5c37 1c55 0739 1679 9934 0e61 cc35
000000b0: 2d9d 2338 4f87 0538 f30c 1438 1bfd 8e38
000000c0: 1f1d 6e39 e0f7 9f36 e77a ad39 e66b 9237
000000d0: be1f 4938 ec0f 6c39 1e77 9e35 e0f7 9f36
000000e0: 19a0 5a39 1e62 4239 9a33 2539 4f9d 6f39
000000f0: 4e30 5838 1914 4b36 9105 2638 dace 2f37
00000100: 9ca0 8737 bcf5 a238 e3b6 0635 1914 4b36
00000110: 54a5 1738 4055 dc37 99a0 ff37 05c0 6138
00000120: 727b f038 aa6e 2a36 0840 2739 4179 1e37
00000130: a78e ac37 9a49 2839 5b5d 2435 aa6e 2a36
00000140: 378e eb38 7d21 b438 fab7 a638 17b7 f438
00000150: 34e7 d238 c6ad 8736 8f31 d738 ce94 6037
00000160: f88b d037 c18b d238 1fc0 3835 c6ad 8736
00000170: 1282 8938 1bed 3338 d540 6038 f5cf dc38
00000180: c094 9139 6800 8f37 43d8 b13a 34a9 a238
00000190: cc18 6139 e818 d03a 57f4 af36 6800 8f37
000001a0: 9bba 9e3a b950 883a 1b96 9e3a c79c 8039
000001b0: 9b36 0e3a f05e af37 2602 6a3a ca5f 9038
000001c0: faf1 0d39 c688 873a ab59 e235 f05e af37
000001d0: 3089 2035 29a9 6c38 b81b 4135 fb1f 0e3a
000001e0: 71fa 1d3a 2148 8037 8b7e 3e3a 5fb7 6538
000001f0: 7c2b f838 401d 573a f325 5a36 2148 8037
00000200: f429 f539 f490 be39 eef9 b139 4bc2 1f3a
00000210: 5313 6639 c71d 1836 9252 b339 e69d 2237
00000220: 29fa 1b38 ad8c 7739 5e39 3835 c71d 1836
00000230: 8bd7 3039 8087 1f39 2d93 e938 bb01 6439
00000240: 89a9 d838 d1f0 8d35 07a7 2739 5696 7736
00000250: 424b 8c37 8542 9438 08e1 b734 d1f0 8d35
00000260: 1996 b738 3f25 ac38 143f 7838 e4ed d738
00000270: 749e 1139 7f43 a235 50f0 9539 5f88 8f36
00000280: f361 d937 6028 e138 feca 1f35 7f43 a235
00000290: 9fb9 3c39 f1e7 3539 2c6d 1739 524d 0f39
000002a0: 8814 7239 7088 9236 7251 b739 49a2 7537
000002b0: 537a 2538 9477 8039 60cb 9435 7088 9236
000002c0: 23f9 6239 bdab 4539 68ed 2639 208a 7439
000002d0: 8e76 0f38 92a3 3036 493a 9c38 6845 e536
000002e0: 5bb9 3f37 fb04 9938 43a5 3535 92a3 3036
000002f0: 906f b238 470f 4e38 6e8b 9d38 2e10 2e38
00000300: 0e1e 7439 9e67 1436 fc3a f339 0751 0437
00000310: 0f1d 3338 cb8f 5039 33ca 7e35 9e67 1436
00000320: 4e80 9039 1edc 8839 21a9 6439 9950 7039
00000330: 0000 0000 0000 0000 0000 0000 0000 0000
00000340: 0000 0000 0000 0000 0000 0000 0000 0000
00000350: 0000 0000 0000 0000 0000 0000 0000 0000
00000360: 7887 ec39 0407 e036 cc8e 1c3a e1de cb37
00000370: a6cf 9b38 c27d 003a 7605 b335 0407 e036
00000380: 6d05 3339 c3e9 1b39 594a 4038 515b ed39
00000390: c1f4 203a 666b 3e37 a61c 2018 b038 9638
000003a0: f8ca 0539 1219 823a 2b0f f935 666b 3e37
000003b0: bcb0 8d39 795e 8139 84e9 1239 7bd3 1b3a
000003c0: 924d 9e38 e5e1 a236 f45a c338 d42f 8b37
000003d0: e38e de37 88d0 1039 fc7a 9135 e5e1 a236
000003e0: 90ac 0139 2099 d038 1803 e638 0ddd ab38
000003f0: 7209 c83a 744b 3937 27f5 0e3b 77e7 8838
0.00023255924 4.6562413e-06 0.0002969393 2.009837e-05 4.8917947e-05 0.0004075817 1.1439726e-06 4.6562413e-06
0.00020706536 0.00016626551 0.00014219143 0.00023324494 0.00030372478 3.5773808e-06 0.00045918286 1.5116937e-05
5.3887143e-05 0.00036407038 1.0296616e-06 3.5773808e-06 0.00023812486 0.00021141149 0.0001650323 0.0003010858
0.0001376598 4.1364788e-06 0.00015268744 1.5804939e-05 3.3174296e-05 0.00014836127 3.8172345e-07 4.1364788e-06
2.624843e-06 1.38661035e-05 6.007529e-06 0.00013789962 6.746927e-05 1.5227431e-06 3.7314872e-05 7.440956e-06
1.317262e-05 0.00012906309 2.8586572e-07 1.5227431e-06 3.900861e-05 3.1835687e-05 3.529801e-05 6.818232e-05
0.00022708297 4.7674257e-06 0.000330887 1.74548e-05 4.7951697e-05 0.00022512645 1.1806585e-06 4.7674257e-06
0.00020849741 0.00018537833 0.0001575485 0.00022851418 5.15434e-05 3.0261056e-06 3.958267e-05 1.0478974e-05
1.6168044e-05 7.7705336e-05 5.0185025e-07 3.0261056e-06 3.615518e-05 2.6265741e-05 3.0473153e-05 5.3823012e-05
0.00011467085 2.539639e-06 0.00015950215 9.4457655e-06 2.0570425e-05 0.00016049147 6.123061e-07 2.539639e-06
0.00011232163 8.5893065e-05 7.949765e-05 0.0001166893 0.00010056645 4.0435434e-06 0.0001026123 1.3386087e-05
2.486071e-05 0.000100396115 6.8824914e-07 4.0435434e-06 6.5568966e-05 4.2897747e-05 5.346614e-05 0.000105291525
0.00027767383 1.7047118e-05 0.0013568479 7.7562785e-05 0.0002146691 0.0015876563 5.2438513e-06 1.7047118e-05
0.0012110056 0.0010400034 0.0012099178 0.0002453087 0.0005425007 2.0905834e-05 0.0008926712 6.884297e-05
0.00013536951 0.0010340444 1.6864409e-06 2.0905834e-05 5.980428e-07 5.6424327e-05 7.193844e-07 0.00054216356
0.00060263934 1.5292377e-05 0.0007266781 5.4768632e-05 0.00011833661 0.0008205958 3.250662e-06 1.5292377e-05
0.000467613 0.00036347623 0.00033946283 0.00060943206 0.00021941708 2.2667098e-06 0.0003420306 9.692716e-06
3.718786e-05 0.00023608161 6.862882e-07 2.2667098e-06 0.00016864964 0.000152139 0.000111377194 0.00021744419
0.00010331261 1.0575405e-06 0.00015988584 3.6893375e-06 1.6724345e-05 7.06958e-05 3.4250138e-07 1.0575405e-06
8.754078e-05 8.208537e-05 5.9186554e-05 0.000102963095 0.00013887306 1.2089585e-06 0.0002859854 4.277608e-06
2.5914027e-05 0.000107363565 5.952751e-07 1.2089585e-06 0.00017998226 0.0001734791 0.00014441152 0.00013666347
0.00023086567 4.3670225e-06 0.00034965161 1.4640923e-05 3.945299e-05 0.00024503155 1.1086049e-06 4.3670225e-06
0.0002164585 0.00018851362 0.00015919434 0.00023321109 3.420427e-05 2.6321254e-06 7.449516e-05 6.832812e-06
1.1427644e-05 7.296536e-05 6.766824e-07 2.6321254e-06 8.5084816e-05 4.9128455e-05 7.512314e-05 4.14999e-05
0.0002328085 2.2114032e-06 0.0004639252 7.886679e-06 4.270399e-05 0.00019889993 9.491661e-07 2.2114032e-06
0.00027561415 0.00026103941 0.0002180678 0.00022918209 0.0 0.0 0.0 0.0
0.0 0.0 0.0 0.0 0.0 0.0 0.0 0.0
0.0004511436 6.676537e-06 0.0005972206 2.4303272e-05 7.4296535e-05 0.0004901552 1.3338129e-06 6.676537e-06
0.00017072792 0.00014869035 4.584561e-05 0.000452722 0.0006139987 1.1349888e-05 2.069398e-24 7.163116e-05
0.0001275948 0.0009925684 1.855636e-06 1.1349888e-05 0.00027025293 0.00024675185 0.00014010636 0.0005944294
7.548476e-05 4.854274e-06 9.315266e-05 1.6592363e-05 2.6531e-05 0.00013810594 1.0839135e-06 4.854274e-06
0.00012366683 9.946735e-05 0.00010967831 8.195089e-05 0.0015261604 1.1044427e-05 0.0021813603 6.528099e-05

exp_avg f4 [64]
00000000: a5fd 34bb d2e0 6fbb c245 8dbb 5513 1aba
00000010: 9187 233b 3e9a c9ba 56fe 94b9 8aae 71bb
00000020: 7979 623c 30dc 9cbb 7541 80bb e9e9 2eb9
00000030: 4bca 123a 3cb0 45bb ed2e 26ba 7d60 6bbb
00000040: 0b03 0dbb 0000 0000 0642 3c38 efa0 adbb
00000050: 4b2e 5a3a 0f55 893c 053f b7bc f12c 163b
00000060: be1a c9bb c678 97bb fd56 1bbc 0000 0000
00000070: e6fe 82bb 817f 15ba 685f bebb 5d33 a53a
00000080: 5099 33bb 2750 29bb f75d 13bb 3f5b dbbc
00000090: fc4b d9ba e018 b5ba b62d d0bb a40b 26ba
000000a0: a6f1 8abb 0000 0000 3298 c03a d3ec 073c
000000b0: 5218 05bb af20 0bbc eeeb 0f3b c06a 613b
000000c0: dd6d cfba ae0b 0dbb 12d8 89bb fc97 83bb
000000d0: f88b f0bb 5de5 9eba ddaa 49bb 935b 26bc
000000e0: 0000 0000 0b0c 91bb df8e 803b 54f4 08ba
000000f0: 2334 27bb d82b 00ba c7a1 66ba 9043 4eba
-0.0027617004 -0.003660251 -0.0043112943 -0.00058775145 0.002495263 -0.0015381051 -0.00028418255 -0.0036877715
0.013822907 -0.0047869906 -0.003914053 -0.00016681071 0.0005599602 -0.0030164858 -0.000633939 -0.0035915666
-0.0021516706 0.0 4.4884182e-05 -0.005298726 0.0008322938 0.016764192 -0.022368917 0.002291497
-0.006137221 -0.0046225516 -0.009481189 0.0 -0.0039976714 -0.00057028985 -0.005809713 0.0012603808
-0.0027404614 -0.0025835128 -0.0022486427 -0.026776908 -0.0016578431 -0.0013816617 -0.0063531054 -0.0006334132
-0.0042402325 0.0 0.0014693795 0.008296209 -0.0020308685 -0.008491679 0.0021960693 0.0034395903
-0.0015825588 -0.0021521854 -0.004206666 -0.0040159207 -0.0073409043 -0.0012122799 -0.0030772008 -0.010153669
0.0 -0.0044264845 0.0039232816 -0.0005224396 -0.0025513254 -0.0004889346 -0.00087979104 -0.0007868344

exp_avg_sq f4 [64]
00000000: 1890 183a ca3f 233a 3e8a ab39 ae87 2439
00000010: d4c5 053a e8a9 1d39 7c50 8539 3428 7539
00000020: 1f6b 253b 6c03 ce3a 9b39 a63a 7bea e539
00000030: f86e 4439 b3d9 9b39 bce4 f139 8823 fd38
00000040: 01d3 ff39 0000 0000 f064 5e3a 14c4 b53a
00000050: 0a74 8739 699c 553b bb0c 443b e8d2 653a
00000060: c7c8 003b 2736 003a f02c 553a 0000 0000
00000070: 122c f838 5ee5 3f39 4370 2c3a 665b 933a
00000080: 3fc7 7e3a 6463 1b39 d0d6 de38 d266 183b
00000090: d53c 873a 83f4 bf39 6c73 3d3a 2411 0539
000000a0: 8cff 693a 0000 0000 96fa f439 bb1c ba3b
000000b0: ef55 e139 8e1d 9c3a c2ae c539 fd20 a93a
000000c0: 083d 3239 8424 5839 999d 6739 305d 093a
000000d0: 972d 113b 1519 003a bfff 663a 3d6c a93a
000000e0: 0000 0000 8500 833b 355d 953a f075 eb39
000000f0: d38e cc3a 94fe 8839 658e 7a39 ac1d 2c3a
0.00058198115 0.0006227462 0.0003271866 0.00015690803 0.0005103026 0.00015035982 0.00025427702 0.00023379998
0.002524085 0.0015717573 0.0012681963 0.00043852985 0.00018733356 0.00029726102 0.00046137522 0.00012070598
0.000487946 0.0 0.0008483669 0.001386764 0.00025835662 0.0032594448 0.0029914815 0.0008767084
0.0019650923 0.0004890882 0.00081320014 0.0 0.0001183377 0.00018300625 0.00065780076 0.0011242449
0.0009719021 0.00014818978 0.00010625797 0.0023254645 0.0010317812 0.00036612534 0.0007226977 0.00012690254
0.0008926324 0.0 0.00046726008 0.0056796945 0.0004297937 0.0011910663 0.00037704973 0.0012903508
0.00016998139 0.00020612968 0.00022088586 0.0005240021 0.0022152418 0.000488655 0.0008811913 0.0012925934
0.0 0.0039978647 0.0011395576 0.00044910563 0.001560653 0.00026129617 0.00023894904 0.0006565701
