models/checkpoint_720000.pt (torch, 125871 bytes, 33 tensors)

shared.0.weight f4 [64, 12]
00000000: 7564 35be 688e f7be ca39 0d3e 3a94 523f
00000010: 2ebf 29be 8c9b 56bb ffc0 04bf 01de 29bf
00000020: e6e0 74be 8146 53be 245b 59be 4c5d b43d
00000030: af8f eb3b d423 aa3c 643c 2dbe 3acc 453f
00000040: bf3c 923d 87b8 1ebe 63e3 d73d 1729 7e3e
00000050: 1f16 503d 1c91 02be 3d23 b93d e574 2a3e
00000060: d681 c83d 9508 a0bc d9c8 c6bb 335f f2bd
00000070: 2c04 2abf 42c5 9d3d 6783 e83d 2894 b33c
00000080: 26e3 a5be f82b 963d b844 513e 8282 bf3c
00000090: f396 2cbe 12e1 f5be cd96 2dbd 7f4e 8e3d
000000a0: ebe4 933e 8815 9e3e a95a b43d 531f 1cbe
000000b0: 1b5b 04be a1d4 1e3d 46ea 8a3d 3d7e 483e
000000c0: ed2e c23d 968c 9dbe bada 8d3d 8418 36bf
000000d0: 1de4 98be 8777 0fbe 5af6 1bbf 1820 23be
000000e0: 2def 0a3d 49e7 043e 2081 4abe 1778 a9be
000000f0: cd3c 2dbe 7350 c6bc cb96 91be 7e09 fbbe
00000100: 7e8c c0be 63f7 883d 98d0 1dbe f877 afbd
00000110: 6cd6 d83b d4da a6bc 7ecb 37bd ef43 003e
00000120: f49d 3cbd 543f f73e 90c0 393d 9ffa fc3e
00000130: 3502 40bf c42e 14be 00da 023d d5d5 843e
00000140: 8a5e b63d 9821 8c3d 79ef fc3d bce5 513e
00000150: 0c57 913d 6024 aabe a442 013d e043 bfbe
00000160: 83d3 f4be 35f5 25bd 25f5 f3be e2be 67be
00000170: 9262 14bd 5f06 90be c112 223e 247a 393d
00000180: 551c 8bbe 4e9b 85be 8455 d83d 9286 c9be
00000190: bec3 533e c912 513d 4274 a3bf 583d 27be
000001a0: 62e9 fa3d 466d 853d 728e 733c a314 62bf
000001b0: e258 2f3c ebda 1d3e 350e 853d 6212 1abe
000001c0: b472 17bf 66fc a33d 9541 aebf d7f3 8d3b
000001d0: 9635 d83b 2542 ecbe ed0c 29bd ab4f 73be
000001e0: 47f6 0cbe 6ba9 903d 85f6 7dbb 422d f23e
000001f0: 3e59 33bf f1ab f9bd e64f b2bd e360 a4bd
00000200: 740b d2bd 3b23 b13b 8436 a33d f615 5d3e
00000210: 713a cbbe 678c 193f bbcd cc3d ccf9 a63f
00000220: 7e29 47be 8ecc cfbd d96c 7e3e be10 f93e
00000230: 52a4 c33c 68d2 9dbd 7b21 cc3d d83d 1a3e
00000240: 749f 39be 7e79 ba3e 3429 fcbc 6d10 383d
00000250: 23ec 88be 6451 423e 0cc7 273e 9f6d c33d
00000260: 1be0 88bc 2da2 71be 2a8d e1bd 2def c23d
00000270: 0789 d8be 67ba f53d f990 e3bb dbf8 b43e
00000280: 2a91 d73d e792 1d3d b48f 2a3f fdb0 b83e
00000290: 63ec df3d a1c0 86be ef21 de3d 1899 c03e
000002a0: 0619 e0bd 4baa 283d 0204 39be be61 c83e
000002b0: 8898 0fbf ab1a 363e 5886 d23e 5186 54bd
000002c0: cbd9 00bd fe34 d23b 37c7 1c3e 60d7 973e
000002d0: c88c 8d3d 8ad4 dabe 9520 1d3e 232e b23d
000002e0: 7c93 f3be f66d eb3b 1a94 c2be 00ac afbe
000002f0: 02d7 893e a86f 7bbe d765 783d 1bee 3fbe
00000300: 45e1 86be c350 7b3e 7ad4 8c3c 3ccd 463f
00000310: a31f f6bc 1fa2 b3bd 1a9d 133e 09c3 063f
00000320: aa9a 1cbe 9503 89bd fc05 d73d b01c 943e
00000330: 5e0c 993c 7003 823c bade 24be 6c18 8ebd
00000340: 45a9 1abe 835a 15bd 7bf6 303d 3b36 65bd
00000350: 06ab 86bd c762 c5bd 31c7 96bd 38ed 01bd
00000360: cad7 83be a2f6 283f bccb 283e 54b3 b13e
00000370: 5b63 b2bc 0663 3b3d ce4c 113e 2aa1 2e3f
00000380: 9d79 29be 2f12 c23c 51d1 76bf 6504 91be
00000390: 2b20 3e3e 23e9 0cbf 95ee dabe b6fc 2d3f
000003a0: ec15 473e 5f40 27be e412 30bf 2aff fbbe
000003b0: ee26 70bd 0849 0d3e df8c 06be ce14 3cbe
000003c0: 7bdd efbc c836 f2bd 50c4 9dbd 379b aabd
000003d0: 931f f6be 271e 133e 1e43 cabe c68b 7bbd
000003e0: 73f8 54bd de1d c33e 8a12 3cbe 3935 d2be
000003f0: 6902 8a3e 287d 2ebd 3e28 67bc 6f2a f5bf
-0.17714103 -0.48350835 0.13791576 0.82257426 -0.16576836 -0.0032746522 -0.5185699 -0.66354376
-0.23913917 -0.20632364 -0.21226174 0.088068575 0.0071887593 0.020769037 -0.16917568 0.7726475
0.07140493 -0.15500079 0.105414174 0.24820362 0.050802346 -0.12750667 0.09039924 0.16646154
0.09790389 -0.019535342 -0.0060664234 -0.11834564 -0.66412616 0.077036396 0.11353188 0.021921232
-0.32399863 0.07332605 0.2043637 0.02337766 -0.16854458 -0.48023278 -0.042380143 0.06948566
0.28885588 0.30875802 0.088063546 -0.15246324 -0.12925379 0.038776997 0.06782965 0.19579406
0.09481607 -0.3077132 0.069264844 -0.7113116 -0.29861537 -0.1401044 -0.6092278 -0.15930212
0.033919502 0.12978853 -0.1977582 -0.33099434 -0.16917725 -0.024208283 -0.28435358 -0.4903068
-0.37607187 0.0668781 -0.15411603 -0.08567804 0.006617358 -0.020368017 -0.0448718 0.12525915
-0.046049073 0.48290503 0.045349658 0.4940996 -0.7500337 -0.14470965 0.031946182 0.2594439
0.08904751 0.06842345 0.12350363 0.20497793 0.07096681 -0.33230877 0.031557694 -0.37356472
-0.4781762 -0.04051705 -0.47647968 -0.2263141 -0.036226816 -0.2812986 0.15827467 0.045282498
-0.27170053 -0.2609505 0.10563186 -0.39360482 0.20680138 0.051043306 -1.2769854 -0.16331995
0.122515455 0.06514983 0.014865505 -0.8831274 0.010702344 0.15415542 0.064968504 -0.15046075
-0.591594 0.080071256 -1.3613764 0.0043320465 0.006598185 -0.46144214 -0.041272093 -0.2376086
-0.13765822 0.07063564 -0.0038751673 0.47300154 -0.7005805 -0.12190998 -0.08706646 -0.08026292
-0.10256091 0.005405811 0.079693824 0.21590409 -0.39693025 0.5997986 0.100001775 1.3044982
-0.19449422 -0.101464376 0.2484621 0.48645586 0.023882065 -0.077061474 0.099673234 0.15062654
-0.18127233 0.36420816 -0.030781366 0.04493754 -0.26742658 0.1897636 0.16384524 0.09542393
-0.016708424 -0.23597021 -0.11013253 0.095182754 -0.42292044 0.11998444 -0.0069447723 0.35346112
0.10525735 0.038470175 0.66625524 0.3607253 0.10933759 -0.2631884 0.10846316 0.376168
-0.10942273 0.04117803 -0.18067935 0.3913707 -0.5609212 0.1778361 0.4111812 -0.051885907
-0.031457704 0.0064150086 0.1531037 0.29656506 0.069116175 -0.4274028 0.1534446 0.08700206
-0.4757346 0.007184739 -0.38003618 -0.34310913 0.2692185 -0.24554312 0.060643997 -0.18743174
-0.26343742 0.24542527 0.01719116 0.7765691 -0.030044382 -0.087711565 0.14415398 0.5264135
-0.15293375 -0.06690136 0.10499188 0.28928137 0.018682655 0.01587078 -0.16100588 -0.06938252
-0.15103634 -0.03646327 0.043203812 -0.05595992 -0.06575589 -0.09637981 -0.073622115 -0.03172037
-0.2575057 0.6600133 0.16483968 0.3470713 -0.021775892 0.045748733 0.14189455 0.68214667
-0.16550298 0.023690311 -0.9641314 -0.28323665 0.18566959 -0.5504324 -0.4276015 0.6796373
0.19441956 -0.1633315 -0.68778825 -0.49218112 -0.058630876 0.1379739 -0.13139676 -0.18367311
-0.029280415 -0.11826855 -0.07703459 -0.08330386 -0.48070964 0.14366971 -0.3950433 -0.061412595
-0.051994752 0.38108724 -0.18366447 -0.4105623 0.26954964 -0.042599827 -0.014108716 -1.9153575

shared.0.bias f4 [64]
00000000: fca3 463e b33b 543e e9f1 163d 6fce 83be
00000010: c6a8 193e ee00 7c3d 4bcc e03e f775 cb3c
00000020: bc6f e23e 980d 013e 2246 b83e 6ac0 483e
00000030: b6ec b53d 1979 d83c c93b 073e a508 50bd
00000040: 9118 4e3e 0000 0000 a4ff 563e 0bd8 813e
00000050: eddc bf3c a54d a53e 6f8c 3a3c b4c7 b0be
00000060: 56f9 dc3e ee8b c73e 81ff b23e c4fd 1bbc
00000070: b9f5 b13d 91a0 92bd 0fca d43e 996f a73e
00000080: 0b85 8d3e 4db0 53bb 8ee2 80bd 2bac 083e
00000090: c2fa ce3e 36a1 5bbd faf9 dd3e 5e44 783e
000000a0: df4a 2b3e 0000 0000 d659 813e bfc5 59be
000000b0: ed0e 0f3e 79e4 b23e 5fe2 493e 6619 c13e
000000c0: ac52 b23d 5037 1c3e f244 f3bc ce6c ab3d
000000d0: db9c 913e 548f ab3e ce8f 803e f558 7c3e
000000e0: 0000 0000 39e2 843e 4ebc 83be 9ef0 613d
000000f0: 670e 833e ad1d b73d 384f 3b3e daef 783e
0.19398493 0.20725898 0.036851797 -0.25743434 0.15005788 0.061524324 0.43905863 0.024836523
0.44225872 0.12602842 0.35991007 0.1960465 0.0888304 0.026424931 0.132064 -0.050789494
0.20126559 0.0 0.20995957 0.2536014 0.023420775 0.322858 0.011386021 -0.3452736
0.43158978 0.38973945 0.3496056 -0.009520952 0.08689446 -0.07159532 0.41560408 0.3270233
0.27640566 -0.0032301128 -0.06293212 0.13346927 0.40425688 -0.05362054 0.4335478 0.2424483
0.1672778 0.0 0.25263852 -0.2126684 0.13970537 0.34939936 0.1971526 0.3771469
0.08707175 0.15255475 -0.029695962 0.08370362 0.28439984 0.33507788 0.25109714 0.2464331
0.0 0.25953844 -0.25729603 0.05516111 0.25596926 0.08941207 0.18291938 0.24310246

shared.2.weight f4 [64, 64]
00000000: a1ae 89be 2a7a b0bd 275c 293f cb5a a9bc
00000010: 4d30 bf3e f383 08be e28b 4cbd 43d0 183e
00000020: e027 44bf f719 153f 2e83 6a3e 30d3 8a3d
00000030: 02f6 ff3d 7a99 50be 0868 ba3d 7dfd 993d
00000040: 53f9 cebd ff46 863d 0cb6 033d d733 513c
00000050: d325 f03e 60f0 edbe 013a 113f 6fe8 29be
00000060: cc03 5dbc 0d66 683e dbd4 b43d 536a 0d3e
00000070: e1cc 613e d593 73bf e92e 7fbd 86fc 9e3e
00000080: 5aad 723e 2f19 af3e 1c2a 33be d597 233f
00000090: 73eb 1abc 778b 443e 0687 66be 1918 a0bf
000000a0: d6ec 5cbd df61 09be e1fe 063f fa83 2fbf
000000b0: 5db9 e13d 6a06 163f 9b32 1b3d 42cd 3a3c
000000c0: aa0d ba3e 932f c9bd d35a acbd ba46 2ebe
000000d0: 756a 0bbe 4fbd 87bd 7c0b acbd b2c9 65bd
000000e0: 8509 083e 8004 3bbf 05c9 37be 755d c6be
000000f0: ddc9 153e b8bb 113f 3faf 34be 3aa1 fdbd
00000100: 7d9b 9fbd 1be2 15be 8840 99bb b63c fabe
00000110: 9ee4 903e b2c8 50bc d5ca bbbd b63c 063e
00000120: 3b31 06bf 966a 2e3e efd8 8bbd b9e3 41be
00000130: b99e 37bc 01de 98be 9e37 373d a2e5 933e
00000140: 26e2 c7bd 65e7 163d f3e6 2b3e 7dd4 433e
00000150: 1bd0 bc3d e420 3abf 5a18 a53e 3281 00be
00000160: c96b 7fbc f0a3 873d 2169 6f3e 76f2 36bd
00000170: 26ac 4b3b 736a bdbe 1e0d 4a3d 9c24 723e
00000180: 9467 d0bd 1a65 c13e 9cf0 a03a ae59 a93e
00000190: b1eb c1be bbfe 223f 70bf 00be 390a d2bf
000001a0: 767b 78be f8a1 e3bd 8947 873e 604d 3fbf
000001b0: a1c2 04bd 5c3b 0d3e 3574 9bbc c10b c13d
000001c0: 036a 823c edd5 cfbe f4b1 2dbe c28f d0bb
000001d0: 57bd d1bc 509f 3abe 670e debd 65f1 54be
000001e0: 650e 2d3d c249 c7be 6957 923d 8a37 7ebe
000001f0: e5f8 033e 758d c23e 8410 11bf f082 f9bd
00000200: 1839 84be 1d17 6cbe c89c 503e ed26 26be
00000210: 4dd0 a9bd 9e40 9cbe ddca 2fbd 2967 bc3d
00000220: b23a bbbe abf5 963d eb6c 43be 731a 14bd
00000230: abf3 fa3c c416 ab3d 38a6 793d 9299 ce3c
00000240: 2c79 233d 96fb a63d 1ad4 19bc afd0 09bd
00000250: 06c9 913e 486c 73bf 0580 2d3e e72d 2dbe
00000260: 8518 993e a215 903e 4afa 4d3d 1374 a1bd
00000270: 54fe 4e3e f8c2 8bbe 5f97 cd3d 9277 083f
00000280: 886f a23d 436b 903d 64d9 823d f928 253f
00000290: d2a9 403c 0847 183e 5e8f 693d 23b8 cbbf
000002a0: ab59 4e3e 4138 adbd 9edb 173e 5803 06bf
000002b0: a6ba 19bd 6fad 9e3d 364e 63be 5ec5 4e3e
000002c0: 57a5 84bd ae4b d6be 08b7 1bbd d674 a83d
000002d0: 12d9 4f3e 59a2 97bd ee9b 693e 190d eb3d
000002e0: 81b5 453e eea6 95be 8edb 69be a678 0cbf
000002f0: 170f 2a3e 3fba d83e 973a 2cbf b512 e93c
00000300: 8ddb be3d f914 b3be 9d51 1bbf 3fb8 aabe
00000310: 8e81 4fbd 6965 88be adc6 8abe 06b5 2a3e
00000320: 05c7 053e 1839 ee3e a54f 183c cfeb 0ebd
00000330: 28a1 3fbe bd57 f2bc 825f 9ebe 64f1 7a3e
00000340: ff21 43be d192 2c3e ef2d 663e de9a 22bf
00000350: 7830 8ebe fb04 0cbf 1675 0c3f f564 acbe
00000360: 1de2 973e 2f26 ad3e 52c0 fdbd f5fc e8bd
00000370: 21a9 e0be a501 18bd 8fe4 a83d 6872 73be
00000380: c73c cfbe c049 a8bf f5ef 07bf 85bf 843f
00000390: 78f2 383d c74a a73e 62bb 8dbd 147d b6bf
000003a0: 6bf5 1e3c 6a4e 2abe 1321 823e d703 3dbf
000003b0: bd3c 66be d50e bd3e c2b4 e5bd 313d 1e3d
000003c0: 8610 573e 77e9 6d3d 2db1 08be e063 39bf
000003d0: eb75 1ebf 7d15 fabd 229d 363e a1d8 92bd
000003e0: 2a19 0abe d3eb c1be 7ca5 27bf 3a5d 223d
000003f0: b925 e4be de70 fa3e 8640 c5be 60df 16bf
-0.26891044 -0.08617051 0.6615624 -0.020673176 0.37341538 -0.13331585 -0.04993809 0.14923196
-0.76623344 0.58242744 0.22901604 0.06778562 0.12498094 -0.20371047 0.09101874 0.07519052
-0.101061486 0.0655651 0.032156035 0.012768707 0.46903858 -0.46472454 0.5672913 -0.16592573
-0.013489675 0.2269518 0.088296615 0.1381009 0.22050811 -0.9514745 -0.062300596 0.31052035
0.23698941 0.341989 -0.17496532 0.6390355 -0.0094555495 0.19193827 -0.22512445 -1.2507354
-0.0539368 -0.13416241 0.52732664 -0.68560755 0.11021683 0.5860354 0.037890058 0.011401476
0.3633855 -0.09823527 -0.08415761 -0.17019168 -0.13614829 -0.066279046 -0.08400628 -0.056100555
0.13284881 -0.7305374 -0.17947777 -0.38743177 0.14627786 0.5692706 -0.17644976 -0.12384267
-0.07793329 -0.14637034 -0.004676882 -0.48874444 0.2829942 -0.012743162 -0.091695465 0.13109097
-0.5241887 0.17032847 -0.06828486 -0.18934526 -0.011207276 -0.29856876 0.044730775 0.28886133
-0.09759931 0.03684177 0.16787319 0.19124027 0.092193805 -0.7270644 0.3224514 -0.12549284
-0.015589663 0.066230655 0.23379947 -0.044664823 0.003107795 -0.36995277 0.049328916 0.23646778
-0.10176006 0.37772447 0.0012278738 0.33076233 -0.3787513 0.6366994 -0.12573028 -1.640937
-0.24265847 -0.111148775 0.26421764 -0.7472744 -0.032412175 0.13792175 -0.01897631 0.0942607
0.015919691 -0.405929 -0.16962415 -0.0063647935 -0.02560298 -0.18224835 -0.10842591 -0.2079521
0.042250056 -0.3892346 0.071455784 -0.24825874 0.12887914 0.37998548 -0.56665826 -0.121831775
-0.2582481 -0.23055692 0.20372307 -0.16225787 -0.08291683 -0.3051805 -0.042918075 0.09199364
-0.36568218 0.07371076 -0.19084518 -0.036158036 0.030633768 0.083539516 0.060949534 0.025219712
0.03991048 0.08153455 -0.009388948 -0.03364628 0.2847368 -0.950871 0.16943367 -0.16912042
0.2990152 0.28141505 0.050287522 -0.078834675 0.20214206 -0.27297187 0.10038637 0.5330745
0.07931429 0.070517085 0.0638912 0.64515644 0.011759238 0.14870846 0.05702149 -1.5915569
0.20151393 -0.08457995 0.14829871 -0.5234885 -0.037531517 0.077479236 -0.22197804 0.20192477
-0.064768486 -0.41854614 -0.03801635 0.0822541 0.2029765 -0.07404012 0.22813389 0.114771076
0.1930752 -0.2922892 -0.2283766 -0.54871595 0.16607319 0.42329594 -0.672769 0.028451303
0.0931922 -0.34976938 -0.60671407 -0.33343694 -0.050660662 -0.2663987 -0.27104703 0.16670617
0.13064201 0.46527934 0.0092963325 -0.034892853 -0.1871382 -0.029582852 -0.30932242 0.24506146
-0.19055937 0.16852881 0.2247846 -0.6351756 -0.27771354 -0.546951 0.5486616 -0.33670774
0.29664698 0.33818194 -0.12390198 -0.11376373 -0.43879035 -0.037110943 0.08246719 -0.23774111
-0.40476057 -1.3147507 -0.5310052 1.0370947 0.04515311 0.32674238 -0.06920506 -1.4256921
0.009702067 -0.16631475 0.2541586 -0.73833984 -0.22484107 0.36925378 -0.112161174 0.038632575
0.21002397 0.058083978 -0.13348837 -0.7241802 -0.6189868 -0.1221113 0.17833379 -0.07170225
-0.13486162 -0.37875232 -0.65486884 0.03963969 -0.4456003 0.48914236 -0.3852579 -0.58934593

shared.2.bias f4 [64]
00000000: b7c3 213e 515d a13e cd3d c73e 818f db3d
00000010: 417a 90bb b7f2 59bb bd0b 1dbd a43a 9b3c
00000020: 30b2 f0be 1a47 073f cfef b33e 0abb 3a3e
00000030: 965f b43e 0725 d23e 34ee 023f dfc2 d2bc
00000040: 9a43 91bb 6a31 c3bc 1c8e f53e b432 413e
00000050: 23e6 543e 41b1 663d 1424 753e 6465 073f
00000060: f169 053f 9af9 013f 42af b23e f4aa 693e
00000070: 0d73 bbbb 9434 563e 5ea6 ea3e 710e d23e
00000080: e0c6 0f3f 48be ea3e fe5b 813e 8bb0 fd3e
00000090: a41b 033f e7c9 c23e 1720 993e dfd9 0a3f
000000a0: 8aaf a0bc 1dd9 3e3e c0b6 013f 218e f23e
000000b0: 9056 30bd e6cb 01bd ef94 b23e a759 c73e
000000c0: ca73 943e ac7d 9b3e 4990 ec3e 6812 e83e
000000d0: e0a5 b93e 6557 bc3e 66a2 c83d 4c7c 2ebd
000000e0: 0eb9 103f e221 3dbe d5cd c83e 995b eb3e
000000f0: 2f8f 463e 8ec0 0d3f c090 873e f71c 513e
0.15797316 0.31516507 0.38914338 0.107207306 -0.004409105 -0.0033256242 -0.038341273 0.01894886
-0.47010946 0.5284287 0.35143897 0.18235412 0.35229176 0.41043875 0.5114472 -0.025727687
-0.0044331076 -0.023827273 0.47959983 0.18866998 0.20790915 0.056321386 0.23939544 0.52889085
0.5211478 0.50771487 0.34899336 0.2281912 -0.005720502 0.20918494 0.45830053 0.41026643
0.56162834 0.45848298 0.25265497 0.49548754 0.5121405 0.38044664 0.29907295 0.54238695
-0.019614954 0.1863751 0.5066948 0.4737406 -0.043051302 -0.031688593 0.34879252 0.38935587
0.2899459 0.30369318 0.4620383 0.45326543 0.36259365 0.36785427 0.097966 -0.042599007
0.5653237 -0.18469957 0.39219537 0.4596832 0.19390558 0.5537194 0.26477623 0.20421205

actor.0.weight f4 [32, 64]
00000000: f7cb a7bd 5a69 60be 664a d2bd 6d39 d4bd
00000010: c2f8 7e3d 0725 263e 9321 45be a5ab 18be
00000020: 2beb d33d 395e 003e 0c81 5cbe 2071 dd3d
00000030: 06dc c23d bca6 193c 4625 e33c 6b94 90bd
00000040: 80a9 8b3d fdcb d43d 7848 e3bc ebcc 5cbe
00000050: f0ed cd3c e498 17be 5774 e43d 83d6 06ba
00000060: 22f0 bfbb ab38 d1bd 88b3 e53c 50c0 d1bd
00000070: 53cb 51bc 3a01 98be 5aba 72bd 13b8 b2be
00000080: 8899 3f3d a470 e1bd 6889 bc3d 26eb fa3d
00000090: cbb9 14be 6c33 18be cdef 85be f37a d0bd
000000a0: 3649 6dbb a95e b53d c996 ddbc 01ad 90be
000000b0: 5b9e bb3c f502 443d 60aa 0f3d 0438 2abc
000000c0: d472 d4bd 0f58 e8bc 8747 26be 084f 95bd
000000d0: 0d0a 0abe a824 d13d e2b2 33bd 8919 b5bd
000000e0: 8cea 533e 2ba4 5cbe b1d5 93bd eaa8 94bd
000000f0: 8cac 523d d828 a4bc c797 c63b d4ba e6bc
00000100: 0923 2fbd 7afe 333e f0a1 01bd 1cf3 603c
00000110: 96e5 973e fc5f 18bd b132 0e3a 8906 9b3d
00000120: a816 d0bd 6eab 0abc 214c 8c3d 414b df3d
00000130: d3a4 13be a040 07be a8f2 b43d 1d95 e83d
00000140: e8e4 dbbe 94b4 953d f3fe ccbd 2bb5 42bd
00000150: 0e25 573c ff3c dabd 7155 933d 1bfa 15bd
00000160: 5cd8 a3bd e928 5d3b efbe be3c 362f 8e3e
00000170: 65ef 053e f82f 5e3e 54de f53c 6765 7e3b
00000180: 0d4e 283d 3160 55bb bf5a 0b3d c126 c8bd
00000190: 62b9 20be 764a 55bc f715 6cbe f20e 66bd
000001a0: d548 153e 274e 403e b59d 023d e442 d3bd
000001b0: 0648 85bd 492c 003e 16e7 80bc 7228 9ebc
000001c0: cff3 f93d 7ed1 36be 7579 73bd 6110 86be
000001d0: 80fc 11be 911e debd 9e43 1cbe 53ed 823c
000001e0: 6b72 72bd d6e9 b3bd 5a5d f93b 389d 51be
000001f0: 5610 82bb 402d b2bd 4ad0 01bc 0b69 d03d
00000200: e3ee 9a3d c4c3 ac3d 3aac e23c 5a13 edbd
00000210: 71c4 d5be 5e36 803f 5cff bbbc f055 033e
00000220: 1020 56be c307 4bbe 87ac 2ebe f0c2 643e
00000230: 26ed b6bd 12c0 7fbe 0bad c3bd a3a4 0ebc
00000240: b0e2 4bbe ffed 3bbd 55dd 853e ab9f 2d3e
00000250: 213d 8b3c 3b6a eabe 2be8 47bd a0ce c7bd
00000260: 8cec cc3b 1898 3cbd a61b a43e 6095 86bc
00000270: a874 803e e349 09be 9183 443e f7d9 9cbe
00000280: 3947 8c3e 7fac 153e fdc0 66bd 2aa8 a9bd
00000290: 227a 103d 6995 883c e0ed 74be 60f8 d23d
000002a0: f30e ecbc bebd 51bd c431 08be 47d8 353e
000002b0: 4f1a 2bbb a9b7 393c dd56 2dbe b416 2f3e
000002c0: b60b a6be 0a16 a73e c11f c6bc 2fb0 3dbd
000002d0: ce0f 683e 3114 bc3e 7fd8 f7bd 1dc5 52bd
000002e0: 6c6a 5e3e 09bc 2b3e 8060 ff3e b3e0 b13e
000002f0: 6eaf aa3e 3b9e 00be 7512 f03e bf0f c6bd
00000300: 2019 c7bd 309e 9abd 9d02 5f3d 23ed 07be
00000310: dd5f 7b3d 901f 00bd 64df a53d a5c7 0a3e
00000320: 9253 4e3e cd1c 2abe 728a c93d c9db 703c
00000330: 3e75 03be 2002 8c3d d262 013d 9151 41be
00000340: 051e 533d 8aa7 c9bc 8598 f33c ac37 2dbc
00000350: 8dc0 6d3d 9159 7dbd 05a6 c43c 7067 153e
00000360: 5278 f1bd 9f36 f1bd 9957 a03d d3a1 823e
00000370: 3d56 4bbc fb38 cebd 9cc9 d03d 6a5f 213e
00000380: 8ed3 923c 3b6c f5bd 55ab 643d 39f7 253c
00000390: 029e 86bd 9063 5fbe 220b bebc 1eed 58be
000003a0: 4530 113e 7f80 36be efda 3bbe 17d4 8abd
000003b0: 7a8f 4b3d a76f c83d 232a 353e 9ea8 92bd
000003c0: d978 74be ca11 7e3b 805e 95bd 9452 a93d
000003d0: 7c54 153e 6679 51be dda7 aabd d421 4ebe
000003e0: a1dd b3bc 8461 213e d42f c03e 48b9 8c3e
000003f0: 34d4 c1bd 0158 cdbb 83a5 3d3c 64ce 0fbe
-0.081932 -0.21915188 -0.102680966 -0.103625156 0.062248953 0.16225062 -0.19251089 -0.14909227
0.10347589 0.12535943 -0.21533602 0.108125925 0.095146224 0.0093781315 0.027727734 -0.070595585
0.06819439 0.1039047 -0.027744517 -0.21562545 0.025137872 -0.14804417 0.111550026 -0.0005143659
-0.0058574835 -0.10215887 0.028039709 -0.10241759 -0.012804824 -0.29688436 -0.05925975 -0.34906062
0.04677728 -0.110078126 0.09205896 0.12251882 -0.14524 -0.14863366 -0.26159516 -0.10179701
-0.0036206967 0.088559456 -0.027049439 -0.28256992 0.022902658 0.047854383 0.03507459 -0.010389332
-0.10373464 -0.028362302 -0.16238223 -0.07290465 -0.13480397 0.1021207 -0.043871768 -0.08842761
0.20694941 -0.21547 -0.07218493 -0.0725878 0.051434085 -0.020039007 0.0060605737 -0.028165258
-0.04275802 0.17577544 -0.031648576 0.013729837 0.29667348 -0.037200913 0.0005424424 0.07569606
-0.10160571 -0.008463724 0.06850458 0.109030254 -0.14418344 -0.13208246 0.088353455 0.11356566
-0.4294808 0.07309833 -0.10009565 -0.047536056 0.013131393 -0.10656165 0.07194031 -0.036615472
-0.08000252 0.0033746308 0.023284404 0.27770394 0.13079603 0.21697986 0.03001324 0.0038817765
0.04109006 -0.0032558555 0.03402209 -0.09773017 -0.15695718 -0.013018241 -0.23055254 -0.056166597
0.14578564 0.18779813 0.031888682 -0.10315493 -0.06507878 0.12516893 -0.01573519 -0.019306395
0.12204706 -0.17853352 -0.059442002 -0.2618437 -0.14256477 -0.10845674 -0.15260169 0.015982306
-0.05919115 -0.08784835 0.0076100053 -0.2047013 -0.0039692326 -0.08700037 -0.007923195 0.10176285
0.07565095 0.08435777 0.027670015 -0.11575957 -0.41751435 1.0016592 -0.022948913 0.12825751
-0.20910668 -0.1982718 -0.17058001 0.22339988 -0.08931951 -0.24975613 -0.0955449 -0.008706245
-0.19910693 -0.045881268 0.26145425 0.1695544 0.016996922 -0.45784172 -0.048805397 -0.097562075
0.0062537845 -0.046043485 0.32052344 -0.01642865 0.25089002 -0.13407092 0.19190814 -0.30635044
0.2739809 0.14616583 -0.05633639 -0.08284028 0.035272725 0.016672807 -0.23918867 0.1030128
-0.028815722 -0.051206343 -0.13300234 0.17758285 -0.002610821 0.011335292 -0.16927667 0.17098504
-0.3243081 0.32634002 -0.024185063 -0.0463106 0.22662279 0.36734155 -0.1210184 -0.051457513
0.21720284 0.16770948 0.4987831 0.34741744 0.33336967 -0.1256036 0.46889082 -0.09670972
-0.09721589 -0.07549703 0.05444585 -0.13274054 0.06137072 -0.0312801 0.08099249 0.13552721
0.20149067 -0.16612549 0.098408595 0.014700838 -0.12837693 0.06836343 0.031588383 -0.18878771
0.0515423 -0.024616022 0.029735813 -0.010572355 0.05804496 -0.061852995 0.024004946 0.1459024
-0.117905274 -0.11777996 0.07829208 0.25514087 -0.0124106975 -0.10069462 0.10194704 0.15759054
0.017923143 -0.11983534 0.055827457 0.010129743 -0.06573106 -0.21815324 -0.023198668 -0.21184203
0.1417857 -0.17822455 -0.18345235 -0.06778734 0.049697377 0.09786921 0.17691855 -0.071610674
-0.23874225 0.0038767927 -0.07293415 0.08267704 0.1458301 -0.20456466 -0.08332799 -0.20130092
-0.021956267 0.15759856 0.3753649 0.27485108 -0.09464303 -0.0062665944 0.011575106 -0.14043576

actor.0.bias f4 [32]
00000000: ddb7 5abc 766f 55bc 875a 0a3e 9d65 953c
00000010: 169d 07bc 6878 a73d 7aea 71be 20f1 43be
00000020: 1c8f ab3d ecfa 813e 4e7f 583e 1093 09bc
00000030: 64c7 ed3d 5ff1 4c3d c4ce 203b 1d5d 11bd
00000040: c01c 37be 2f26 83bc 9896 2bbe d1b4 51bc
00000050: a59c 68bd 68c7 37bd 2378 9bbc daee 96bc
00000060: 2a1a 3d3c 0000 0000 afe7 59be 5704 19bc
00000070: 2eac 95bb 8c9b 52bb 9310 f8bb c86d ffbc
-0.0133495005 -0.013027063 0.13511096 0.01823693 -0.008277198 0.081772625 -0.23624602 -0.1913495
0.08376905 0.2538675 0.21142313 -0.008396879 0.11610296 0.050034877 0.0024537304 -0.03548919
-0.17882061 -0.016009418 -0.16756666 -0.012799458 -0.056790013 -0.044867903 -0.018978184 -0.01842444
0.0115418825 0.0 -0.21279787 -0.009339414 -0.0045676446 -0.003213617 -0.007570335 -0.031180277

actor.2.weight f4 [2, 32]
00000000: 3284 33be 8ca2 7dbe 80a9 863e cf46 843d
00000010: 2744 9fbc 9882 613e e769 75bf 2a88 07bf
00000020: 0ab1 cd3e 68ec ae3f 52b8 453f d6f6 883e
00000030: 9bd8 343f ecec 89be 3d43 8b3b ff52 0abe
00000040: b8c8 c8bf bdda a5bd 48fa 77bf 47fc 1dbd
00000050: e6aa cabb b029 df3d 3fa3 dc3a 18b1 08be
00000060: dafd 0dbf 002b 6cbe 7ba7 a0bf 8064 06be
00000070: b605 c23d 998d 793e 461f b03e a93d 1ebb
00000080: 3ebe 243e 7c4d a9bc 0db2 9bbe 922e 8abe
00000090: 8886 80be a882 b0be 4564 5d3f bd89 ef3e
000000a0: 936b 37bf fde7 b6bf 04d0 64bf 90d3 a0bd
000000b0: 4f33 6ebf 8d98 f5be b9e5 aabe 401b b53e
000000c0: c9ec cb3f 7fa2 0ebe 01c5 6e3f 43d3 55be
000000d0: 1e37 9fbe fa53 233e 71d2 d7bc a28f 31bd
000000e0: b822 fa3d 6faf 583d 0e47 8e3f fe22 8e3d
000000f0: 5ad6 19be afe1 58bd aed9 0d3e 7f0e 2fbe
-0.17530897 -0.24769038 0.26301193 0.06458818 -0.019441677 0.22022474 -0.9586472 -0.52942145
0.40174133 1.3665895 0.77234375 0.2675082 0.70643014 -0.2693857 0.004249959 -0.13508223
-1.5686255 -0.08098362 -0.96866274 -0.03857067 -0.0061849235 0.10896623 0.0016833319 -0.13348806
-0.5546547 -0.23063278 -1.2551111 -0.13124275 0.094737455 0.24370421 0.3439886 -0.002414564
0.16088197 -0.02066683 -0.3040928 -0.26988655 -0.2510264 -0.34474683 0.86481124 0.46784773
-0.7164852 -1.4289547 -0.89379907 -0.07852852 -0.9304704 -0.4796795 -0.3337839 0.35372353
1.5931636 -0.13929175 0.93269354 -0.20881371 -0.3109674 0.15950003 -0.026345463 -0.04334987
0.12213653 0.05290168 1.1115434 0.06940268 -0.15023175 -0.052949604 0.1385257 -0.17095374

actor.2.bias f4 [2]
00000000: bf08 603e af08 60be
0.21878336 -0.21878313

critic.0.weight f4 [32, 64]
00000000: daae 423e 617a 56be 8c77 c8bd 0dfa bf3c
00000010: b3b8 55bd 3e02 febc 800c 33be 39d2 a2bc
00000020: 7581 413d 3688 613e d7d6 643d bae8 dc3d
00000030: 277f afbc 95a1 43bc b481 7d3d 9794 953d
00000040: 769e 923b de4b cabd 8596 b7bc 1dbd 96bd
00000050: 739e 7abe 3ce3 533d 4a3b 0f3e 5800 c23d
00000060: d5ec 7e3c bf7f 9fbd 3ef3 a1bd 6305 cbbd
00000070: fb58 ea3d 1974 5bbd 37c6 8bbd 5441 11bd
00000080: e6dd 03bc d4db 4c3d 0d00 d6bb e365 2c3e
00000090: 456d bcbe be39 94be a8c2 c2bc 0923 84bd
000000a0: 6c89 193e b36f 3dbc 3715 7bbd ccee 7d3e
000000b0: 8361 1f3e 0176 073d 9b01 683e dcca babd
000000c0: 4abb 1e3e b738 1fbe 6a38 b8bd 3577 14bd
000000d0: 94f5 34bd d949 5cbe 43c2 a13d fe31 90be
000000e0: 4d9f 133d 29eb b5bc 2ed4 8ebd 76cf 90bc
000000f0: 09ac cd3d e3fb edbd 092c b83d a1f5 14bc
00000100: aed9 693e 0ad3 853e 22e1 0f3e 8c89 94be
00000110: 5b55 343f 145a 4b3e 7d18 d93c a3ce 90bd
00000120: f438 f9be 60db 1b3e 2425 9dbe 394e b5be
00000130: 61bb 84be 6989 81bd 12b7 69bb e2bc 103e
00000140: 2244 063e c86a 3ebd 9d81 263e 385c d53e
00000150: eb0f 823e cbf8 9c3e 0961 bb3e 43c6 80be
00000160: e14c 75be b655 fdbc 512f 703d 68c8 96be
00000170: 1a74 bf3e d6c9 1abf 9ffd 013e 4405 28be
00000180: cc04 cfbd 4fba eebc ee7d e6be c3d1 45bd
00000190: 264c 5abe 536d b33e ae46 09be 569c b2bd
000001a0: b0c0 80bd 6f3b 3d3e c820 b13c 8146 79be
000001b0: 3e8f c83c f7e5 193e 2c82 923e 03f0 0cbe
000001c0: 4cce 273e e15d 34be 9e18 8ebe 2a62 c7bc
000001d0: 731e ce3d 0d3d e43e 24c2 a8bd f6b6 68bd
000001e0: c30c 33bd f0bb 46be 7a4c 41be 6eae 973c
000001f0: b739 dfbd 50de 0fbd 14b2 9e3e 083e 0a3f
00000200: 6395 613b 7f28 eb3d 6d5b 0cbe be6e 2dbe
00000210: 4eda 293f 6882 2abd 25dc 163d 0912 263e
00000220: d397 d1be 7139 f13d 148d 99be cfe7 e9be
00000230: 0e45 97bd b9bf f8bd 66c7 f1bc 9761 99bd
00000240: fd27 623e 7e91 eabd 1578 be3c 22ae a03e
00000250: c1a1 053f 6d8c 923e d229 fd3e 1926 65be
00000260: 1078 653c a20a 78bc 5864 ba3d 4af8 d83d
00000270: 9413 053f b242 8abe 3e75 2bbe da58 5ebe
00000280: 798c b0bb 7caf d23d 08b8 1abe 2e77 26be
00000290: 0d9d 82ba 99ac 6c3e c8f1 233c 2769 3e3e
000002a0: 2eca 0f3e cc94 f93e 40c3 663d d884 87bd
000002b0: a4e2 a53e 63c0 f1bd 2a85 e43d fd4a aebd
000002c0: 2501 803e 6256 4bbe d2d0 de3d 020d 22bd
000002d0: 191f ec3e 0b03 eb3e 4947 4dbe a344 953d
000002e0: e0e5 653e 7c32 303e 7c88 34bd 58dc 2dbe
000002f0: eda6 28be 02d2 61be e1de 433f 7565 363e
00000300: 7f44 323e 018a b83b 526a 693d 6217 0bbf
00000310: 66b4 8d3f 9d09 d93e 718e 723d eb46 62bd
00000320: b54e 6bbf ead1 89b9 3c6e b1be 7ae9 12be
00000330: 9e7f 163c 85e7 00bc bbb6 c7bd c131 173c
00000340: 8f43 253e 17e6 593c 96b3 a63d e47b 143f
00000350: 43b2 3f3f a838 e13e 894e b43e 9073 98bc
00000360: 978c 33bc b7d5 80be 43a9 09bd 8699 b9be
00000370: 42c9 e43e 7630 33bf fcc2 c13d ed1b 26bd
00000380: c1cb 06be f153 91ba 95aa 8bbe 50a1 94bd
00000390: ab11 0f3d 0699 323e ad72 b0be 5933 05be
000003a0: 4eee 44bd 8157 433f 27f4 0abe 5d64 c43e
000003b0: 0a49 f63c c5fa 823b a391 063e 4055 5bbd
000003c0: db1a ae3e cb03 9a3d fbdc c43d 9ed1 1abd
000003d0: de4e 2d3d 796c 333e 4541 cbbc bbe8 073e
000003e0: d999 acbc 812f 843e c67a 16bd e5c3 453d
000003f0: 6e3e d2be 38a6 9f3e 40a1 123f de54 003f
0.19012013 -0.20945121 -0.09788427 0.023434663 -0.052178096 -0.031006929 -0.17485237 -0.019875633
0.0472426 0.22024617 0.05586895 0.107865766 -0.021422936 -0.01194038 0.061891273 0.07303732
0.0044744564 -0.09877752 -0.02241064 -0.07360289 -0.24474506 0.05173038 0.1398746 0.09472722
0.015559395 -0.077880375 -0.07907723 -0.09913137 0.11442753 -0.053577516 -0.06824916 -0.035462692
-0.00804851 0.050014332 -0.006530768 0.16835742 -0.36802116 -0.28950304 -0.02377446 -0.06451995
0.14993829 -0.011562276 -0.06129953 0.24798125 0.15564542 0.03307152 0.22656862 -0.091207236
0.15501133 -0.15548979 -0.08995135 -0.036246497 -0.044179514 -0.21512546 0.078983806 -0.2816314
0.036040593 -0.02220686 -0.06974064 -0.01767705 0.10042579 -0.11620309 0.08992774 -0.009091766
0.22836944 0.26137573 0.14050725 -0.2901119 0.7044274 0.19858581 0.026500935 -0.07070663
-0.48676264 0.15220404 -0.306924 -0.35411242 -0.2592421 -0.06325037 -0.0035662097 0.14134553
0.13111928 -0.046488553 0.16260381 0.4167192 0.2540277 0.30658564 0.3659747 -0.25151262
-0.23955108 -0.03092466 0.058638874 -0.29449773 0.37393266 -0.6046423 0.12694405 -0.16408259
-0.10108337 -0.029141573 -0.45017952 -0.048295747 -0.21318111 0.35044345 -0.13405868 -0.08721225
-0.06286752 0.18479703 0.021622077 -0.24343301 0.024482366 0.15029131 0.28614938 -0.13763432
0.1638729 -0.17613937 -0.27753156 -0.0243388 0.100644015 0.44577828 -0.082401544 -0.05681511
-0.043713342 -0.1940763 -0.1887683 0.018515792 -0.1089968 -0.035124123 0.30995238 0.540009
0.0034421317 0.114823334 -0.13706751 -0.16936776 0.6634873 -0.04162827 0.03683104 0.16217817
-0.40936145 0.11778534 -0.29990447 -0.45684668 -0.07386218 -0.12145943 -0.029514026 -0.07489317
0.22085567 -0.11453532 0.023250619 0.31382853 0.5219994 0.2862276 0.4944597 -0.22377814
0.014005676 -0.015139254 0.0910117 0.105942324 0.51983 -0.2700401 -0.16743943 -0.21713582
-0.0053878394 0.10287377 -0.15109265 -0.16256401 -0.0009965018 0.23112716 0.010006376 0.185948
0.14041969 0.48746336 0.05633855 -0.06617135 0.32399476 -0.11804273 0.111582115 -0.08510397
0.25000873 -0.19857171 0.10879673 -0.039563186 0.46117476 0.4590076 -0.20046724 0.07288482
0.22450972 0.17206758 -0.044075474 -0.16978586 -0.16469927 -0.22052768 0.7651196 0.1781214
0.17408942 0.0056316857 0.05698616 -0.54332554 1.1070678 0.42390147 0.059217874 -0.055243414
-0.9191697 -0.00026287074 -0.34654415 -0.14346877 0.0091857 -0.007867699 -0.0975165 0.009228171
0.16139053 0.013299487 0.08139722 0.5800154 0.7488138 0.43988538 0.35216168 -0.018609792
-0.010958812 -0.2516305 -0.033608686 -0.36249942 0.44684798 -0.6999582 0.094610184 -0.040553976
-0.13163663 -0.0011087639 -0.2727858 -0.072573304 0.03492896 0.17441186 -0.3446249 -0.13007869
-0.048078828 0.76305395 -0.13569699 0.3835782 0.030064125 0.003997179 0.13141493 -0.053548098
0.34004864 0.07520255 0.09612461 -0.037797563 0.04231154 0.17521848 -0.024811396 0.13272373
-0.021069454 0.25817493 -0.03673818 0.048282523 -0.41063255 0.31181502 0.572773 0.501295

critic.0.bias f4 [32]
00000000: 9add 2ebc 6e97 873c 2349 993d 753a 1b3e
00000010: 6d4f 0f3f 8cd9 0d3f ee4a 8fbc ea57 1e3f
00000020: 0000 0000 14ed 44bc a96f 263f 5972 113f
00000030: 2839 113f e8b3 03bc 13fb 153f eee0 60bc
00000040: 23c1 133f fb77 de3d f291 04bd df20 083f
00000050: 3ad1 153f 54d2 143f 6cd3 0f3f 9087 0c3f
00000060: 33ab 0f3f 426e 1b3f 3d1e 113f 9f59 96be
00000070: 83d8 0d3f 3334 fb3d bcf9 113f 89ef 1e3f
-0.010672951 0.0165517 0.07484653 0.15159018 0.5598057 0.55410075 -0.017491784 0.61852896
0.0 -0.012019414 0.6501413 0.56815106 0.5672784 -0.008038498 0.58586234 -0.013725502
0.5771658 0.10862728 -0.032365747 0.5317516 0.5852238 0.58133435 0.5618198 0.5489435
0.56120604 0.60715115 0.56686765 -0.2936525 0.55408496 0.122658156 0.5702169 0.6208425

critic.2.weight f4 [1, 32]
00000000: 9aa8 a03b 990b 083f 1c4e 113f 33b4 863f
00000010: f1c6 f5be b8d0 aabe 7b01 173c 8992 9fbe
00000020: 1efc 4e3e 5921 773e d102 8abe 7b9b c2be
00000030: d198 06bf 14a9 943c 1030 bdbe 4fba f83c
00000040: 287f b7be 82d1 2b3f 4b60 fcba 2635 e6be
00000050: 475b 13bf a708 14bf db48 10bf 6ec6 ebbe
00000060: 3b65 cebe 6842 b9be 2661 cdbe 36fc 563f
00000070: 0288 e9be df18 5b3f 1f9d d2be e915 00bf
0.0049029114 0.53142697 0.5675981 1.0523742 -0.48003343 -0.33362365 0.009216662 -0.31166485
0.20213363 0.24133815 -0.26955274 -0.38009247 -0.5257693 0.018147029 -0.3695073 0.030362276
-0.358392 0.6711656 -0.0019254772 -0.44962424 -0.57561153 -0.578257 -0.5636117 -0.46049827
-0.40311608 -0.36183476 -0.4011318 0.83978593 -0.45611578 0.85584825 -0.411355 -0.5003343

exp_avg f4 [64, 12]
00000000: 2b54 7aba a2cc 0eb8 04de 5db9 cb13 8cb9
00000010: 5869 edb9 28f8 aaba f37a 0337 a2cc 0eb8
00000020: 0400 0080 09b9 7138 cff0 11ab 2b54 7aba
00000030: b74d 333b 524b da37 5e95 2d3b 3d24 fe39
00000040: 1dd0 963a 9040 893b c380 fe38 524b da37
00000050: 9085 fc3a 63e1 e33a 1aa2 993a bf2d 413b
00000060: 0b78 153b 2fba d138 5e3f a23a acad 1739
00000070: 05b1 fc39 080d f33a d755 94b8 2fba d138
00000080: 527b 98a6 fe00 3fba c47b 27b9 f86b 073b
00000090: ea28 2739 c723 1e3b bb66 633b 1781 1e3b
000000a0: 87a3 303b 02c2 ae3b ea74 b53a c723 1e3b
000000b0: 4630 963b 83e5 003c 987a a73b 06b2 b53a
000000c0: 0400 0000 0400 0000 0400 0000 0400 0000
000000d0: 0400 0000 0400 0000 0400 0000 0400 0000
000000e0: 0400 0000 0400 0000 0400 0000 0400 0000
000000f0: 0400 0000 0400 0000 0400 0000 0400 0000
00000100: 0400 0000 0400 0000 0400 0000 0400 0000
00000110: 0400 0000 0400 0000 0400 0000 0400 0000
00000120: dd15 183b 177a a539 8f07 773b e4af d439
00000130: 5316 313a 8bca 0c3a b624 cf38 177a a539
00000140: 36c3 0c3b 07b5 0239 713a 573a fa52 053b
00000150: 0400 0000 0400 0000 0400 0000 0400 0000
00000160: 0400 0000 0400 0000 0400 0000 0400 0000
00000170: 0400 0000 0400 0000 0400 0000 0400 0000
00000180: 3310 7cba 523a 18ba 896f 36bc 16a2 c5ba
00000190: 3639 68bb ec3f 2abc 5a42 65ba 523a 18ba
000001a0: b135 2cbc fa6a 08bc 871c 29bc 6dc3 2ebb
000001b0: e89a 4839 a821 dab7 676b 9a39 9991 c439
000001c0: a196 113a dab7 2c3b 0400 0080 a821 dab7
000001d0: 0400 0000 0400 0080 0400 0000 e89a 4839
000001e0: 0432 a639 834c 3039 f05c 9f3a 7eef 2839
000001f0: 07bd 0539 482c 22b8 32e2 a938 834c 3039
00000200: 1b74 023a b7b4 0c3a fbe9 1a39 cfe9 263a
00000210: 441c 873b 991c c139 0a78 d03b 0ea9 653a
00000220: 7535 e73a fc24 a13b d6fb 5739 991c c139
00000230: aba6 7e3b 0ab0 0f3b 4b03 043b e560 813b
00000240: eb5f d33a 659f 1538 1f80 513a 65c5 ca39
00000250: f62e 3b3a 3336 1d3b 435b 4438 659f 1538
00000260: 1a37 e1b9 e8e7 9439 31e6 77b6 ebd0 dc3a
00000270: edfe 4d3b fdb3 3639 bce8 473b 28cf 2e3a
00000280: 51ce c23a 0cdf 8b3b ac6b 8d38 fdb3 3639
00000290: 350f 6e3a 12ff 5f3a f2a9 433a c59f 543b
000002a0: f175 0e3b 2406 1e3a b621 b03b 0c67 073a
000002b0: 2bb9 863a 7acf d9b9 6178 4039 2406 1e3a
000002c0: d712 233b bbdb e53a efcb b83a 7d42 ed3a
000002d0: 82c7 d838 bf89 df37 b84b 003a db67 5638
000002e0: ca8e c438 53ea 8739 0101 b437 bf89 df37
000002f0: b84b 003a 0640 b939 b84b 003a b30f 9738
00000300: 0c98 403b 554e 8639 4609 883b 6df1 c239
00000310: 081d 813a e8ad 203b 403b 0639 554e 8639
00000320: a94a 123b 7e2c 9d3a 6ae7 253a b9ef 333b
00000330: 0000 0000 0000 0000 0000 0000 0000 0000
00000340: 0000 0000 0000 0000 0000 0000 0000 0000
00000350: 0000 0000 0000 0000 0000 0000 0000 0000
00000360: d5a3 f93a 9f24 ef38 2f8d 3e3b d8a1 ac39
00000370: 75aa 1c3a 4a66 b53a 8cbf 05b8 9f24 ef38
00000380: 072d c539 3e54 20b9 0400 0080 d5a3 f93a
00000390: 9ca7 543b d4a8 4cba 0400 0080 e2a1 00ba
000003a0: 9665 a039 aa32 cd3a ef98 9bb9 d4a8 4cba
000003b0: 85de 02bb e1d9 49bb c366 41bb 0fa6 0b3b
000003c0: 9c41 84b8 6cab c7b8 2852 70b7 7752 3538
000003d0: 9c1d ce38 8eec 8b3a 866a 7cb8 6cab c7b8
000003e0: 4115 2db8 6214 c8b9 4115 2db8 c66c 0139
000003f0: de81 e4bc 3f07 84ba 751e cbbc cfc9 f1bb
-0.0009549285 -3.4046017e-05 -0.0002115891 -0.00026717628 -0.0004528265 -0.0013043927 7.836835e-06 -3.4046017e-05
-6e-45 5.7631205e-05 -5.184854e-13 -0.0009549285 0.0027359554 2.6022699e-05 0.0026486735 0.00048473655
0.0011506114 0.0041886047 0.000121356476 2.6022699e-05 0.0019265879 0.0017385896 0.0011721284 0.002947673
0.0022807147 0.00010000576 0.0012378504 0.0001446518 0.00048197075 0.0018543312 -7.073179e-05 0.00010000576
-1.0580545e-15 -0.00072862196 -0.00015972467 0.002066372 0.00015941603 0.0024130212 0.0034698683 0.002418583
0.0026952939 0.005333186 0.0013844047 0.0024130212 0.0045833914 0.00786722 0.00511105 0.0013862259
6e-45 6e-45 6e-45 6e-45 6e-45 6e-45 6e-45 6e-45
6e-45 6e-45 6e-45 6e-45 6e-45 6e-45 6e-45 6e-45
6e-45 6e-45 6e-45 6e-45 6e-45 6e-45 6e-45 6e-45
0.002320639 0.00031562216 0.0037693714 0.0004056684 0.0006755341 0.00053707574 9.877367e-05 0.00031562216
0.002147866 0.00012465204 0.00082103076 0.0020343647 6e-45 6e-45 6e-45 6e-45
6e-45 6e-45 6e-45 6e-45 6e-45 6e-45 6e-45 6e-45
-0.0009615451 -0.000580703 -0.0111349905 -0.0015078213 -0.003543449 -0.010391217 -0.0008745544 -0.000580703
-0.010510848 -0.008326286 -0.010321743 -0.0026666776 0.00019131193 -2.6003298e-05 0.0002945319 0.00037492512
0.00055537565 0.0026354701 -6e-45 -2.6003298e-05 6e-45 -6e-45 6e-45 0.00019131193
0.00031699252 0.00016813171 0.0012158435 0.00016110946 0.00012754287 -3.866505e-05 8.10068e-05 0.00016813171
0.00049764075 0.0005367505 0.00014773749 0.00063672377 0.0041232426 0.00036833136 0.006361966 0.0008760848
0.0017639833 0.004917739 0.00020597814 0.00036833136 0.0038856666 0.0021924996 0.0020143564 0.0039483183
0.0016126608 3.5672816e-05 0.0007991809 0.00038675513 0.00071404816 0.0023988604 4.6815036e-05 3.5672816e-05
-0.00042956398 0.00028401543 -3.6939857e-06 0.001684693 0.0031432465 0.00017423923 0.003050371 0.0006668442
0.0014862512 0.0042685326 6.7434594e-05 0.00017423923 0.00090812455 0.00085447833 0.00074639835 0.0032443863
0.002173778 0.00060281367 0.0053751124 0.00051651965 0.0010278573 -0.00041544047 0.00018355392 0.00060281367
0.0024883056 0.0017536798 0.0014098863 0.001810148 0.00010336844 2.6647815e-05 0.00048940955 5.11183e-05
9.372605e-05 0.00025923792 2.145814e-05 2.6647815e-05 0.00048940955 0.0003533365 0.00048940955 7.203165e-05
0.0029387502 0.00025616834 0.004151496 0.0003718244 0.0009850571 0.0024517719 0.00012801308 0.00025616834
0.0022322333 0.0011991409 0.0006328734 0.0027456118 0.0 0.0 0.0 0.0
0.0 0.0 0.0 0.0 0.0 0.0 0.0 0.0
0.0019046018 0.00011403229 0.0029075851 0.0003292698 0.0005976328 0.0013839689 -3.1888063e-05 0.00011403229
0.00037608316 -0.00015290172 -6e-45 0.0019046018 0.0032448536 -0.000780714 -6e-45 -0.0004906935
0.00030593266 0.0015655358 -0.00029677848 -0.000780714 -0.0019969058 -0.0030800032 -0.0029510714 0.0021308695
-6.306471e-05 -9.520989e-05 -1.4324243e-05 4.3230564e-05 9.8283606e-05 0.0010675357 -6.018069e-05 -9.520989e-05
-4.126621e-05 -0.0003816216 -4.126621e-05 0.0001234292 -0.027893957 -0.001007296 -0.024794796 -0.007378794

exp_avg_sq f4 [64, 12]
00000000: 1454 8137 5113 3534 06ce a837 fdae 8d35
00000010: 71da 6036 d2cb be37 8d31 7c31 5113 3534
00000020: f401 0000 bc23 5434 2612 8030 b955 8137
00000030: 9c87 b438 7536 8c35 b96f ec38 1346 9736
00000040: ca66 6d37 de6d be38 93e9 cd34 7536 8c35
00000050: e3c3 8d38 1289 8538 a41e 3338 bb8d b838
00000060: 7663 033a f318 2537 b2b3 9039 36f4 2c38
00000070: 1f63 8f38 f303 3d3a 222b cd35 f318 2537
00000080: ddca 3638 9c10 9338 bf30 7238 ca6f 063a
00000090: 4a61 4b3a 2721 1c38 0bb5 b939 6c4c 2239
000000a0: f72e 6339 c074 eb3a 4bf8 2a37 2721 1c38
000000b0: 6863 353a d848 153a 01df 303a 16a1 753a
000000c0: f401 0000 f401 0000 f401 0000 f401 0000
000000d0: f401 0000 f401 0000 f401 0000 f401 0000
000000e0: f401 0000 f401 0000 f401 0000 f401 0000
000000f0: f401 0000 f401 0000 f401 0000 f401 0000
00000100: f401 0000 f401 0000 f401 0000 f401 0000
00000110: f401 0000 f401 0000 f401 0000 f401 0000
00000120: f40d 7939 aebe ef36 af85 c638 4aee 0138
00000130: 5392 4238 3f7d b339 79ca df35 aebe ef36
00000140: 93c4 e638 9bde b438 a0ae 7638 bee9 7b39
00000150: f401 0000 f401 0000 f401 0000 f401 0000
00000160: f401 0000 f401 0000 f401 0000 f401 0000
00000170: f401 0000 f401 0000 f401 0000 f401 0000
00000180: 0766 2539 c7d1 8437 c3c6 9c3a 8aa4 8b38
00000190: dbe4 4239 c228 b53a 6774 af36 c7d1 8437
000001a0: 54c1 793a b8e1 583a 0e7d 7a3a 150a 6239
000001b0: e055 d937 e19b 4e35 a750 9f38 6e78 5a36
000001c0: 4740 ec36 7e08 d438 b981 8627 e19b 4e35
000001d0: cbc1 c32a cd2e b929 cbc1 c32a e055 d937
000001e0: 844c 4e38 c68f a835 84ac 3638 54e7 a136
000001f0: ab70 1337 ddc8 7838 1c4a d634 c68f a835
00000200: a82c 2638 f804 0638 582e ba37 d6eb 5838
00000210: cc7a 6039 d888 2c36 8fa1 7539 8658 5037
00000220: 0354 0f38 e09b 8439 431e 5c35 d888 2c36
00000230: 2466 1139 f2cd 0239 eaa1 a838 ef8d 6239
00000240: e723 b238 8b3d 3235 bd4b d938 9657 2836
00000250: 7084 1d37 f989 6738 7f59 9c33 8b3d 3235
00000260: 9033 7b36 6ce7 0036 2ebf 5c36 bf2a b438
00000270: 98f3 ec38 d06b 3535 bccc 4e39 4e0b 4a36
00000280: 4da8 9a37 6f01 ae38 18bc 8f34 d06b 3535
00000290: dc94 b038 30e7 ad38 6cca 9938 9580 ec38
000002a0: 9d86 2439 10a6 aa36 9f3b 3c39 413d 8b37
000002b0: 0991 0238 cd00 2f39 450d bf35 10a6 aa36
000002c0: b9d6 ef38 b48d bf38 0d2f b438 4113 2d39
000002d0: fa98 0437 39fc 7135 bd1c 3838 f01c 0336
000002e0: 0957 6a36 89ab f737 3abd 6e34 39fc 7135
000002f0: d9b0 2f38 89a0 a337 09f3 1a38 5b7b 6837
00000300: c54e 9838 c822 6735 5b0a f738 c2fd 4d36
00000310: 200b 3b37 0c23 8b38 a0e1 e934 c822 6735
00000320: 31df ca38 85b3 ba38 8c65 7438 e8b5 9938
00000330: 0000 0000 0000 0000 0000 0000 0000 0000
00000340: 0000 0000 0000 0000 0000 0000 0000 0000
00000350: 0000 0000 0000 0000 0000 0000 0000 0000
00000360: 3fd3 9d39 d70f 7536 977c e339 e68b 6737
00000370: 3754 4a38 d384 8039 42d1 e434 d70f 7536
00000380: 1f5d 2637 3cd7 4f37 598a bd2f 38d3 9d39
00000390: 1e6d 4939 156a b636 f3cf 7c33 248c 0338
000003a0: ad86 6338 5e1f d139 be4b ed35 156a b636
000003b0: c594 7539 809a 4e39 162e 6639 9096 6839
000003c0: 3e9f 0737 7429 b835 18ab 1038 5084 c036
000003d0: b1e3 0e37 ed80 da38 4427 3035 7429 b835
000003e0: 981c 8e38 92e3 9c38 6f51 8a38 84c0 2937
000003f0: 05f8 c63b 6944 7a38 97ce b43b 5a01 b439
1.541715e-05 1.6863966e-07 2.0123098e-05 1.0556247e-06 3.350575e-06 2.2744676e-05 3.6698993e-09 1.6863966e-07
7e-43 1.9757039e-07 9.318384e-10 1.5417916e-05 8.608328e-05 1.0446662e-06 0.00011274167 4.5083084e-06
1.4150233e-05 9.0803704e-05 3.8354173e-07 1.0446662e-06 6.759891e-05 6.3674655e-05 4.2705462e-05 8.800203e-05
0.0005012074 9.840575e-06 0.00027599704 4.1235435e-05 6.837234e-05 0.00072103663 1.5286244e-06 9.840575e-06
4.3581113e-05 7.0126e-05 5.7742694e-05 0.0005128352 0.00077583326 3.7224174e-05 0.00035420837 0.00015477993
0.00021665903 0.0017963871 1.01906e-05 3.7224174e-05 0.0006919415 0.00056947535 0.00067470974 0.0009370012
7e-43 7e-43 7e-43 7e-43 7e-43 7e-43 7e-43 7e-43
7e-43 7e-43 7e-43 7e-43 7e-43 7e-43 7e-43 7e-43
7e-43 7e-43 7e-43 7e-43 7e-43 7e-43 7e-43 7e-43
0.00023751688 7.144953e-06 9.466276e-05 3.097792e-05 4.638948e-05 0.00034234856 1.6673722e-06 7.144953e-06
0.000110038694 8.624532e-05 5.8813603e-05 0.00024024301 7e-43 7e-43 7e-43 7e-43
7e-43 7e-43 7e-43 7e-43 7e-43 7e-43 7e-43 7e-43
0.00015773634 1.5833311e-05 0.0011961091 6.658684e-05 0.00018586537 0.0013821351 5.2289574e-06 1.5833311e-05
0.00095274043 0.0008273381 0.0009555378 0.00021556795 2.5908404e-05 7.6967814e-07 7.5967335e-05 3.255463e-06
7.040831e-06 0.000101105295 3.7333117e-15 7.6967814e-07 3.477343e-13 8.223769e-14 3.477343e-13 2.5908404e-05
4.9185488e-05 1.2558819e-06 4.355285e-05 4.825104e-06 8.788115e-06 5.9314876e-05 3.9914528e-07 1.2558819e-06
3.9619074e-05 3.1952717e-05 2.2194508e-05 5.1718052e-05 0.0002140805 2.570965e-06 0.00023425206 1.2418377e-05
3.41721e-05 0.00025293138 8.2000423e-07 2.570965e-06 0.00013866328 0.00012474487 8.041023e-05 0.00021605914
8.494389e-05 6.6399724e-07 0.00010361474 2.5084933e-06 9.388765e-06 5.520319e-05 7.280595e-08 6.6399724e-07
3.7431928e-06 1.9208192e-06 3.2893836e-06 8.591031e-05 0.0001129873 6.758464e-07 0.0001972196 3.0106926e-06
1.8436602e-05 8.2972336e-05 2.6772682e-07 6.758464e-07 8.420061e-05 8.292345e-05 7.3333125e-05 0.00011277307
0.00015690406 5.085727e-06 0.00017951288 1.6598615e-05 3.112949e-05 0.00016689599 1.4234471e-06 5.085727e-06
0.00011436403 9.133984e-05 8.591833e-05 0.00016505738 7.903431e-06 9.014653e-07 4.3895783e-05 1.9537365e-06
3.4919378e-06 2.9524572e-05 2.2234317e-07 9.014653e-07 4.1887954e-05 1.950587e-05 3.6942805e-05 1.38569985e-05
7.262597e-05 8.610482e-07 0.00011779807 3.0695087e-06 1.1148659e-05 6.6345645e-05 4.3563796e-07 8.610482e-07
9.673683e-05 8.902609e-05 5.8268706e-05 7.329491e-05 0.0 0.0 0.0 0.0
0.0 0.0 0.0 0.0 0.0 0.0 0.0 0.0
0.00030102764 3.6517065e-06 0.0004338964 1.3801246e-05 4.8238984e-05 0.00024513024 4.2620564e-07 3.6517065e-06
9.9160525e-06 1.2388275e-05 3.4477202e-10 0.00030102744 0.00019209503 5.4363722e-06 5.886245e-08 3.136335e-05
5.4246444e-05 0.00039886957 1.767992e-06 5.4363722e-06 0.00023420442 0.00019703247 0.00021951678 0.00022181333
8.0837035e-06 1.3721133e-06 3.449162e-05 5.737449e-06 8.516873e-06 0.00010419064 6.562225e-07 1.3721133e-06
6.776414e-05 7.481048e-05 6.595521e-05 1.01180085e-05 0.0060720467 5.9668357e-05 0.0055177915 0.00034333282

exp_avg f4 [64]
00000000: ae36 c1ba fadf aa3b 5910 263b 26cc 403b
00000010: 0400 0000 0400 0000 6c8c 423b 0400 0000
00000020: 592c 62bc 0594 313b 3c10 573a ec44 f63b
00000030: aedb 573b 59ab b13b 1c83 083b b84b 003a
00000040: 3147 783b 0000 0000 e4ce 3c3b e5ab bd3a
00000050: 1210 6a3a e018 5fbd 393f b33c b7de 393a
00000060: b44e 2e3c 4ce1 aa3b 2c26 323c 0400 0000
00000070: d68a 0d3b 8976 39bb 5b71 af3b ebc8 c93b
00000080: 39db 0238 9dd7 03bc e346 b33b 7a03 fdba
00000090: 3da0 bc3a 0400 0000 062a 0e3c 6ea9 533d
000000a0: 3ee1 843a 0000 0000 8676 f0b8 0400 0000
000000b0: e98c 163b a31f cc3a 0400 0000 2f6b 373c
000000c0: aa72 713b e401 87bc cb9e 413b f01b 573c
000000d0: a993 a63c ebe2 933a 8637 153c 4c68 803b
000000e0: 0000 0000 6a18 27bc 1307 2bbc b884 fabb
000000f0: 131e d3b9 0400 0000 d5b9 0abd fddc e93a
-0.0014741027 0.0052146884 0.0025339334 0.0029418557 6e-45 6e-45 0.0029685749 6e-45
-0.013804519 0.0027096283 0.0008204018 0.0075155403 0.0032937336 0.0054220376 0.00208301 0.00048940955
0.003788423 0.0 0.002880984 0.0014470784 0.0008928786 -0.054467082 0.021880733 0.0007090377
0.0106388815 0.0052148458 0.010873359 6e-45 0.0021597645 -0.0028299412 0.005354089 0.0061579845
3.1198582e-05 -0.008047012 0.005471097 -0.0019303404 0.0014391016 6e-45 0.008677011 0.051675253
0.0010137928 0.0 -0.000114661685 6e-45 0.0022972173 0.0015573393 6e-45 0.011194988
0.0036842027 -0.016480394 0.002954411 0.013129219 0.020334082 0.0011282837 0.009107476 0.003918683
0.0 -0.010198692 -0.010438698 -0.007645216 -0.00040267463 6e-45 -0.03386863 0.0017842349

exp_avg_sq f4 [64]
00000000: 445c 3038 988c 3d39 f7a0 893a 50e2 163b
00000010: f401 0000 f401 0000 1933 ef39 f401 0000
00000020: a159 1a3b b09c 0c39 6e2d d238 82b1 dc39
00000030: bcb1 0539 c72f 6b39 62c3 af39 bcbf 5638
00000040: 5ec4 1739 0000 0000 8ed6 173a ba3a 2e3a
00000050: 6988 0739 ebd1 663c fac1 e83a f721 0b39
00000060: 0011 853a 983e 543a c337 b83a f401 0000
00000070: a304 7a39 0a06 fe39 3789 383a 035b 873b
00000080: b6a7 7639 43ba 033a 842a 6739 ccad 003b
00000090: de01 0239 f401 0000 750a 603a fa6a 173c
000000a0: f220 2838 0000 0000 c60f f73a f401 0000
000000b0: 61e5 4e38 29fd b23a f401 0000 ea23 bf3a
000000c0: a34c 8639 ce8c 813a a158 4239 bb53 743a
000000d0: d666 023b ca34 0739 a984 013a 2455 0239
000000e0: 0000 0000 bdd0 b23a 2618 593a d78f a23a
000000f0: 60c7 f339 f401 0000 fc6b 813b 7b96 9239
4.20476e-05 0.0001807682 0.0010500242 0.0023023076 7e-43 7e-43 0.00045623703 7e-43
0.0023551958 0.00013409811 0.00010022042 0.00042093924 0.0001275008 0.00022429145 0.00033524173 5.1200142e-05
0.00014473635 0.0 0.0005792164 0.0006646324 0.0001292542 0.014088134 0.0017758005 0.00013268726
0.0010152161 0.00080964854 0.0014054704 7e-43 0.00023843585 0.00048451155 0.00070394896 0.0041307225
0.00023522865 0.00050250086 0.00022045715 0.001963484 0.00012398462 7e-43 0.000854648 0.009241814
4.0085004e-05 0.0 0.0018849305 7e-43 4.9327853e-05 0.001365577 7e-43 0.0014582847
0.0002561557 0.0009883882 0.00018534299 0.0009320338 0.001989772 0.00012894269 0.00049407274 0.00012429483
0.0 0.0013642531 0.00082814915 0.0012402487 0.00046497118 7e-43 0.0039496403 0.00027959407
