models/checkpoint_220000.pt (torch, 125871 bytes, 33 tensors)

shared.0.weight f4 [64, 12]
-0.21402684 0.14825007 0.16539145 0.6154092 -0.110822126 -0.1817924 -0.078161165 -0.03178308
-0.036734995 0.07155416 -0.021073928 0.07943791 -0.06630285 0.15200038 -0.16048723 0.50107
-0.06523311 -0.16860369 0.34281248 0.3794347 0.053371467 -0.024075381 -0.006273631 0.006177317
0.08854016 -0.3226085 -0.008505745 -0.30100182 -0.37011737 -0.031130878 -0.07791046 -0.2811558
-0.23761594 0.03212222 0.16148041 0.073282026 -0.14944974 -0.2765178 -0.082115486 0.07702532
0.045055658 0.2516672 0.34019992 0.05124646 -0.15663548 0.050901838 0.13744034 0.047147598
0.25194412 -0.30549946 0.14094721 -0.594833 -0.12162653 0.11187817 -0.53593516 -0.1570921
0.14018007 0.24440882 -0.11593444 -0.15512505 -0.14440085 -0.06534448 -0.24226257 -0.4090506
-0.25609306 0.123397745 -0.14977275 -0.1268141 0.05109127 -0.010298071 0.004089404 0.15295172
-0.10342585 0.45413065 0.052986994 0.37773553 -0.42604673 -0.13754109 0.07871013 0.23067638
0.117805354 -0.028065134 -0.15962513 0.13132705 0.1271798 -0.30514506 0.074107006 -0.33188176
-0.42256886 -0.019071313 -0.48912397 -0.19914939 -0.04166155 -0.29369855 0.1491314 0.10276976
-0.32197884 -0.43861464 0.12678191 -0.21590759 0.2778951 0.102518 -0.9237091 -0.34098473
0.17281984 0.12937975 -0.0170227 -0.6163184 0.07911368 0.2782722 0.14169608 -0.04204692
-0.32327136 0.08625829 -0.80494463 0.12845078 -0.08716741 -0.31451908 -0.009627825 -0.27184176
-0.15058157 0.2446084 0.028032478 0.31154633 -0.44659057 -0.19020762 0.067952335 0.09371197
0.07204406 0.039074335 0.104888886 0.21044217 -0.3205039 0.507638 0.086595125 0.7674804
-0.22859377 -0.10120451 0.35890788 0.394297 0.09259166 -0.0701428 0.08872457 0.17817426
-0.26119754 0.3850371 -0.036812585 0.16502157 -0.23538913 0.21782428 0.34100574 0.116244495
-0.004389119 -0.18284355 -0.0702376 0.07644098 -0.36267278 0.19430041 -0.10615721 0.3817319
0.072989665 0.15559927 0.7262636 0.43503463 0.086757995 -0.28522685 0.08907323 0.35211128
-0.10806176 0.052438747 -0.16355768 0.35242698 -0.55296963 0.16079581 0.2403256 -0.04062486
0.01762903 -0.08733535 0.25893435 0.2756832 -0.036197785 -0.30228248 0.24076733 -0.0022017783
-0.27937365 -0.077064015 -0.20927039 -0.2179894 0.28770238 0.0136654135 0.14628282 -0.15474704
-0.18992826 0.40921336 -0.02512582 0.46552634 -0.16171643 -0.011040545 0.41787428 0.69020134
-0.13239188 -0.066794485 0.052689288 0.26592097 0.018682655 0.01587078 -0.16100588 -0.06938252
-0.15103634 -0.03646327 0.043203812 -0.05595992 -0.06575589 -0.09637981 -0.073622115 -0.03172037
-0.24245037 0.5002424 0.113200665 0.2675865 -0.050951 0.08316802 0.19393699 0.52237576
-0.0019755806 0.033426374 -0.48496452 -0.23811156 0.26856396 -0.37509996 -0.5247816 0.41305724
0.07631267 -0.09208375 -0.5590785 -0.31684476 0.059101615 0.122189365 -0.19730334 -0.1412219
0.13016805 -0.0013247406 -0.22929873 0.034242995 -0.3495204 0.31201422 -0.2388681 0.055529386
0.010246797 0.36561102 -0.043078274 -0.34005523 0.26652613 -0.43655294 0.073891826 -1.3102664
00000000: da29 5bbe dece 173e 605c 293e 758b 1d3f
00000010: b6f6 e2bd c927 3abe f612 a0bd fa2e 02bd
00000020: 6f77 16bd fd8a 923d 3ba3 acbc 58b0 a23d
00000030: cac9 87bd fda5 1b3e c456 24be 2046 003f
00000040: f098 85bd 72a6 2cbe 1e85 af3e 4445 c23e
00000050: 0a9c 5a3d bc39 c5bc 0893 cdbb 176b ca3b
00000060: 8b54 b53d f12c a5be ae5b 0bbc e91c 9abe
00000070: 0680 bdbe 2f06 ffbc 858f 9fbd a7f3 8fbe
00000080: 9851 73be 9792 033d 1f5b 253e e314 963d
00000090: 5a09 19be be93 8dbe 2a2c a8bd 73bf 9d3d
000000a0: 488c 383d 86da 803e af2e ae3e cfe7 513d
000000b0: 0d65 20be 727e 503d 29bd 0c3e d71d 413d
000000c0: d2fe 803e 6d6a 9cbe 7754 103e fa46 18bf
000000d0: 5517 f9bd 6220 e53d 0c33 09bf c0dc 20be
000000e0: 5d8b 0f3e 4e46 7a3e 096f edbd 1ad9 1ebe
000000f0: d1dd 13be 54d3 85bd ae13 78be 156f d1be
00000100: a11e 83be f5b7 fc3d 075e 19be 8edb 01be
00000110: 1445 513d 3eb9 28bc 6800 863b 609f 1c3e
00000120: efd0 d3bd d083 e83e e408 593d 8d66 c13e
00000130: cc22 dabe 92d7 0cbe c732 a13d 6e36 6c3e
00000140: ef43 f13d dae8 e5bc c574 23be 997a 063e
00000150: 6c3b 023e f93b 9cbe 6ac5 973d 68ec a9be
00000160: f25a d8be 713b 9cbc 756e fabe d1ed 4bbe
00000170: 4da5 2abd a85f 96be e7b5 183e f478 d23d
00000180: 69da a4be 1992 e0be 1ed3 013e e116 5dbe
00000190: 4448 8e3e f5f4 d13d 3378 6cbf 8d95 aebe
000001a0: aff7 303e 207c 043e 3073 8bbc 0bc7 1dbf
000001b0: 5a06 a23d b279 8e3e c718 113e 6439 2cbd
000001c0: d383 a5be 30a8 b03d da10 4ebf 9a88 033e
000001d0: d484 b2bd a508 a1be 06be 1dbc d82e 8bbe
000001e0: 0e32 1abe a07a 7a3e 5ea4 e53c 0083 9f3e
000001f0: 85a7 e4be c9c5 42be 982a 8b3d 10ec bf3d
00000200: d68b 933d 690c 203d fccf d63d 277e 573e
00000210: 1619 a4be 90f4 013f c958 b13d 9879 443f
00000220: 7c14 6abe 4f44 cfbd c6c2 b73e 4ce1 c93e
00000230: b2a0 bd3d 07a7 8fbd 3ab5 b53d 5073 363e
00000240: afbb 85be 9523 c53e cbc8 16bd 6afb 283e
00000250: d909 71be 540d 5f3e 4e98 ae3e 9811 ee3d
00000260: 99d2 8fbb 573b 3bbe bbd8 8fbd 178d 9c3d
00000270: 3fb0 b9be b0f6 463e f468 d9bd 5d72 c33e
00000280: 9b7b 953d 6a55 1f3e 69ec 393f dcbc de3e
00000290: 2dae b13d 4109 92be 076c b63d ee47 b43e
000002a0: 7c4f ddbd 03ca 563d aa7b 27be 4f71 b43e
000002b0: 6b8f 0dbf a8a7 243e ea17 763e 4166 26bd
000002c0: c16a 903c e0dc b2bd 0b93 843e 5926 8d3e
000002d0: 2144 14bd c5c4 9abe b68b 763e b64b 10bb
000002e0: 100a 8fbe bdd3 9dbd fa4a 56be 9d38 5fbe
000002f0: ba4d 933e e6e4 5f3c 2acb 153e 0276 1ebe
00000300: 8e7c 42be 6a84 d13e aad4 cdbc 7859 ee3e
00000310: fe98 25be 67e3 34bc 9ef3 d53e 09b1 303f
00000320: bd91 07be 8ccb 88bd b9d0 573d cb26 883e
00000330: 5e0c 993c 7003 823c bade 24be 6c18 8ebd
00000340: 45a9 1abe 835a 15bd 7bf6 303d 3b36 65bd
00000350: 06ab 86bd c762 c5bd 31c7 96bd 38ed 01bd
00000360: e944 78be e30f 003f c0d5 e73d 1901 893e
00000370: ffb1 50bd ff53 aa3d 6b97 463e 6bba 053f
00000380: be78 01bb 18ea 083d 454d f8be 84d3 73be
00000390: 3781 893e 1a0d c0be 1658 06bf 3d7c d33e
000003a0: d149 9c3d 6896 bcbd c51f 0fbf 7a39 a2be
000003b0: 8914 723d 6b3e fa3d e309 4abe 799c 10be
000003c0: c64a 053e eba2 adba 49cd 6abe 6242 0c3d
000003d0: 56f4 b2be 54c0 9f3e d799 74be c872 633d
000003e0: 2fe2 273c 5e31 bb3e d872 30bd b81b aebe
000003f0: 1d76 883e de83 dfbe 9954 973d cfb6 a7bf

shared.0.bias f4 [64]
0.19748583 0.20341091 0.11878597 -0.020501154 0.31908742 0.119959444 0.17580946 0.08035804
0.25052637 0.1717291 0.18710996 0.1369066 0.14084901 0.08100932 0.08180079 0.11427621
0.14453545 0.0 0.15145727 0.20112492 0.15411326 0.31474897 0.058215678 -0.082254395
0.34382913 0.26953748 0.2552819 -0.009520952 0.16090094 0.029889235 0.3088833 0.1871712
0.29299304 0.022837432 0.051355682 0.14416152 0.2863064 0.014326244 0.32966653 0.23100594
0.23311041 0.0 0.22836304 -0.12225823 0.22862321 0.30430853 0.33150542 0.27515504
0.21295589 0.12118547 0.042209577 0.0911062 0.26073217 0.22185028 0.22143194 0.25681898
0.0 0.22031489 -0.23896056 0.10813753 0.18450332 0.14235504 0.19724792 0.172537
00000000: ba39 4a3e f34a 503e 0f46 f33d 09f2 a7bc
00000010: 6d5f a33e 4cad f53d 6507 343e c292 a43d
00000020: fe44 803e c1d9 2f3e c199 3f3e 3e31 0c3e
00000030: b93a 103e 37e8 a53d 2c87 a73d a509 ea3d
00000040: 1a01 143e 0000 0000 9d17 1b3e b1f3 4d3e
00000050: decf 1d3e c726 a13e 9073 6e3d fe74 a8bd
00000060: 5f0a b03e d100 8a3e 4fb4 823e c4fd 1bbc
00000070: 37c3 243e 45da f43c f425 9e3e cfa9 3f3e
00000080: 2f03 963e 9115 bb3c 565a 523d 149f 133e
00000090: c196 923e 9fb8 6a3c 0dca a83e d28c 6c3e
000000a0: 7fb4 6e3e 0000 0000 00d8 693e 8662 fabd
000000b0: 341c 6a3e 54ce 9b3e 14bb a93e 1fe1 8c3e
000000c0: 1c11 5a3e 1630 f83d f3e3 2c3d e395 ba3d
000000d0: b07e 853e b82c 633e 0ebf 623e c77d 833e
000000e0: 0000 0000 3a9a 613e 14b2 74be 3677 dd3d
000000f0: 70ee 3c3e 85c5 113e 5cfb 493e 8aad 303e

shared.2.weight f4 [64, 64]
0.038692977 0.0759236 0.19747582 0.21222627 0.34467864 -0.04688513 -0.048043203 0.16780572
-0.4849586 0.2841762 0.23347545 0.13808101 -0.115756735 -0.11726424 0.0687354 -0.10848036
0.06338781 0.0655651 -0.08824363 0.1699044 0.021321012 -0.3458735 0.9941319 -0.14524409
-0.0066602454 0.13346359 0.1646133 0.1381009 0.32548764 -0.20757386 0.049302246 0.0040837014
0.19217615 0.17109759 -0.17457992 0.85268956 0.115538575 0.19013508 -0.13895133 -0.22324824
0.17097631 -0.13416241 0.26495907 -0.46194324 0.2337924 0.3085698 0.075696565 -0.02818056
0.118879355 0.1445603 0.0937765 -0.010817259 0.045010317 0.025996268 -0.027573628 0.24043603
0.13284881 -0.15831129 0.018616231 -0.20777409 0.18273053 0.4854055 -0.3217562 -0.048706338
0.100476675 -0.016940493 -0.0075063626 -0.07538539 0.44277248 0.074278 -0.017992515 0.14934283
-0.3077482 0.2346651 0.13139246 0.018748917 0.13269743 -0.048274737 0.16673253 0.40493095
0.12436389 0.03684177 0.26199603 0.21030158 0.02446233 -0.2724946 0.8917861 -0.048788235
0.13951036 0.093670465 0.35502544 -0.044664823 0.046399355 -0.11987224 0.16074121 0.21656777
0.058948617 0.46322876 0.17336096 0.61296165 -0.12472507 0.6526483 -0.0025933837 -0.38397866
0.023536576 -0.111148775 0.08811241 -0.5193508 0.15620068 0.10490383 0.085405074 0.20421842
0.12348241 0.12408928 -0.011252577 0.026979469 -0.058125727 0.0059096916 0.08839738 -0.14421044
0.042250056 0.07391778 0.11286007 0.09256365 0.25504628 0.29870448 -0.25193134 -0.18474706
-0.19106162 -0.15323474 0.20024002 0.14411277 0.028644027 -0.2156872 -0.07436188 0.10946613
-0.33224508 0.1585025 -0.07790891 -0.0073617543 0.12385581 0.1714884 0.10577104 0.0075442404
0.12467476 0.08153455 -0.0428677 -0.0009583513 0.20186342 -0.43658566 0.55831164 -0.17340906
0.34551793 0.21486942 0.051767845 -0.078834675 0.24614026 -0.16215852 0.10311768 0.3643239
0.21049474 0.13054553 0.1371193 0.80124545 0.10444497 0.12562351 0.07173465 -0.37949902
0.37309378 -0.08457995 -0.03334863 -0.27124932 0.07465304 -0.020419685 -0.17866261 0.1693629
-0.014530121 0.041221973 -0.006847846 0.058192432 0.12610996 -0.0018325334 0.27841547 0.10489177
0.1930752 0.119616136 -0.18749663 -0.14481944 0.23879 0.34199977 -0.33432972 0.01614392
0.16132548 0.22039263 0.31315184 -0.032006893 -0.038171798 -0.1805654 -0.005867219 0.17525691
-0.13114388 0.30882493 0.2969351 -0.045224804 -0.15628608 0.02909131 0.14065179 0.08869916
-0.06766802 0.16852881 0.1311037 -0.0152445035 0.27692375 -0.37155753 1.0146867 -0.16956499
0.24733137 0.18656616 -0.06861567 -0.11376373 -0.0043673175 0.032105498 0.19383514 -0.05673892
0.23079656 0.052797977 0.18921581 0.8063804 0.0073427157 0.28545856 -0.008317527 -0.42423823
0.056504786 -0.16631475 -0.0083704 -0.59766954 -0.14824222 0.16423485 -0.11182823 -0.034833115
-0.034580953 0.1744047 -0.0389331 0.12832072 -0.11939369 0.090113856 0.2217469 0.26736054
-0.13486162 0.13494457 -0.26004496 0.040157735 0.097027615 0.40671426 -0.47079507 0.07930127
00000000: 877c 1e3d d57d 9b3d 1a37 4a3e d851 593e
00000010: b879 b03e 9f0a 40bd f3c8 44bd 43d5 2b3e
00000020: 7e4c f8be 8b7f 913e 3014 6f3e 1c65 0d3e
00000030: de11 edbd 3c28 f0bd 25c5 8c3d f32a debd
00000040: 78d1 813d ff46 863d 14b9 b4bd 6bfb 2d3e
00000050: 67a9 ae3c 5516 b1be 6e7f 7e3f deba 14be
00000060: 303e dabb aeaa 083e 6490 283e 536a 0d3e
00000070: 51a6 a63e 3e8e 54be 27f1 493d 92d0 853b
00000080: d3c9 443e 3534 2f3e 14c5 32be dd49 5a3f
00000090: 7d9f ec3d c5b2 423e 4249 0ebe 309b 64be
000000a0: 6a14 2f3e df61 09be b7a8 873e d383 ecbe
000000b0: 4667 6f3e dcfc 9d3e cd06 9b3d ebda e6bc
000000c0: 0577 f33d 9e07 143e e50d c03d df3a 31bc
000000d0: bd5c 383d 20f6 d43c 17e2 e1bc dd34 763e
000000e0: 8509 083e 5b1c 22be 1181 983c bbc2 54be
000000f0: b61d 3b3e 1287 f83e 3bbd a4be 4c80 47bd
00000100: b7c6 cd3d cac6 8abc eff7 f5bb a863 9abd
00000110: 13b3 e23e 101f 983d 0a65 93bc 54ed 183e
00000120: 2c91 9dbe 0c4c 703e bf8b 063e 5497 993c
00000130: d6e1 073e bbbb 45bd efbb 2a3e 1c53 cf3e
00000140: 7fb2 fe3d 65e7 163d 5824 863e 4c59 573e
00000150: 3965 c83c 6a84 8bbe 184c 643f 2cd6 47bd
00000160: cedb 0e3e 4dd6 bf3d e5c5 b53e 76f2 36bd
00000170: 400d 3e3d 947f f5bd 5899 243e f1c3 5d3e
00000180: 1b74 713d 522c ed3e 8985 313e 0eeb 1c3f
00000190: dc6f ffbd f613 273f c2f5 29bb da98 c4be
000001a0: c7cf c03c f8a1 e3bd 4774 b43d 2df4 04bf
000001b0: 12f3 1f3e d2d7 d63d dbe8 ae3d a21e 513e
000001c0: 59e4 fc3d 8522 fe3d bb5c 38bc 0c04 dd3c
000001d0: 3e15 6ebd 16a6 c13b b009 b53d e7ab 13be
000001e0: 650e 2d3d 3462 973d 2e23 e73d 0392 bd3d
000001f0: 6d95 823e cbef 983e 25fd 80be 552e 3dbe
00000200: a8a5 43be 91e9 1cbe b80b 4d3e 4c92 133e
00000210: e1a6 ea3c 1bdd 5cbe 0b4b 98bd c72f e03d
00000220: 071c aabe 7b4e 223e b58e 9fbd df3a f1bb
00000230: 1da8 fd3d a89a 2f3e 7d9e d83d ad35 f73b
00000240: 7b55 ff3d 96fb a63d 0b96 2fbd de39 7bba
00000250: 49b5 4e3e 2888 dfbe 83ed 0e3f 2592 31be
00000260: bae7 b03e bb06 5c3e 850a 543d 1374 a1bd
00000270: 310c 7c3e e20c 26be 5d2f d33d aa88 ba3e
00000280: ef8b 573e baad 053e 0069 0c3e 6c1e 4d3f
00000290: 3fe7 d53d 73a3 003e 9ee9 923d b24d c2be
000002a0: 2606 bf3e 4138 adbd 9398 08bd 31e1 8abe
000002b0: b1e3 983d 2f47 a7bc 55f3 36be 786d 2d3e
000002c0: bf0f 6ebc 5fd8 283d e563 e0bb 305b 6e3d
000002d0: f822 013e 9e31 f0ba 798c 8e3e 7fd1 d63d
000002e0: 81b5 453e 4ef9 f43d 1eff 3fbe 8c4b 14be
000002f0: 5e85 743e 981a af3e 442d abbe 4140 843c
00000300: 8232 253e 9bae 613e 7055 a03e a919 03bd
00000310: 085a 1cbd 23e6 38be cd41 c0bb 8c76 333e
00000320: 954a 06be 4d1e 9e3e e107 983e a53d 39bd
00000330: 7509 20be e650 ee3c 0607 103e e8a7 b53d
00000340: 8895 8abd d192 2c3e 0c40 063e 15c4 79bc
00000350: f3c8 8d3e ca3c bebe 41e1 813f 72a2 2dbe
00000360: 6f44 7d3e 330b 3f3e 5f86 8cbd f5fc e8bd
00000370: b71b 8fbb 0e81 033d b87c 463e 1267 68bd
00000380: ef55 6c3e b142 583d cac1 413e f26e 4e3f
00000390: 2a9b f03b a027 923e 3d46 08bc c135 d9be
000003a0: 9071 673d 6a4e 2abe 0124 09bc df00 19bf
000003b0: cfcc 17be 2e2d 283e 3306 e5bd 2bad 0ebd
000003c0: c2a4 0dbd 2597 323e 5078 1fbd 8266 033e
000003d0: ae84 f4bd 9d8d b83d 9f11 633e 7be3 883e
000003e0: 2a19 0abe e92e 0a3e 9d24 85be 707c 243d
000003f0: 6ab6 c63d da3c d03e 0d0c f1be b468 a23d

shared.2.bias f4 [64]
0.16908294 0.2425267 0.19284311 0.15914282 0.09358071 0.029072847 -0.028960261 -0.01789476
-0.18097939 0.27057064 0.21485473 0.15999769 0.20105892 0.24749586 0.2642221 -0.025727687
-0.023226244 -0.023827273 0.27263445 0.17597552 0.11246695 0.0 0.14174673 0.25833505
0.24547543 0.23242977 0.29361582 0.2710366 -0.0028181714 0.2706713 0.27054673 0.24614002
0.27581844 0.25752556 0.19625634 0.2346365 0.23854679 0.27320337 0.18984652 0.29519638
-0.01044382 0.046785105 0.23877107 0.29513377 -0.043051302 -0.031688593 0.23961903 0.20894258
0.2647833 0.22974133 0.21578828 0.2389866 0.29844692 0.27176654 0.2055645 -0.029920626
0.3335257 -0.09583456 0.2753537 0.27418315 0.1583749 0.30811808 0.10380713 0.2333675
00000000: 1424 2d3e eb58 783e aa78 453e 56f6 223e
00000010: 3ea7 bf3d 2e2a ee3c 123e edbc 0898 92bc
00000020: a952 39be 3c88 8a3e e102 5c3e 6fd6 233e
00000030: 64e2 4d3e 8e6f 7d3e 1e48 873e dfc2 d2bc
00000040: f744 bebc 6a31 c3bc be96 8b3e ed32 343e
00000050: 1355 e63d 0000 0000 0e26 113e 7e44 843e
00000060: e95d 7b3e 1202 6e3e d054 963e 4fc5 8a3e
00000070: 12b1 38bb 6e95 8a3e 1a85 8a3e 210c 7c3e
00000080: 1338 8d3e 64da 833e 6cf7 483e 8d44 703e
00000090: 9c45 743e 50e1 8b3e 2067 423e fb23 973e
000000a0: 8e1c 2bbc bda1 3f3d 6780 743e c61b 973e
000000b0: 9056 30bd e6cb 01bd b15e 753e 0bf5 553e
000000c0: ad91 873e 5041 6b3e 9af7 5c3e e7b8 743e
000000d0: 09ce 983e fc24 8b3e 807f 523e 1a1c f5bc
000000e0: e1c3 aa3e e944 c4bd 29fb 8c3e bc61 8c3e
000000f0: 082d 223e a7c1 9d3e d598 d43d e4f7 6e3e

actor.0.weight f4 [32, 64]
-0.07051281 -0.20682994 -0.08892258 -0.1033208 0.0498847 0.17707533 -0.19251089 -0.14293347
0.10347589 0.13944705 -0.20823967 0.10893318 0.1083017 0.023591919 0.04176581 -0.070595585
0.06819439 0.1039047 -0.014193726 -0.20421858 0.029877445 -0.14804417 0.116258174 0.014105381
0.0069810767 -0.088394396 0.03839795 -0.08826944 -0.012265742 -0.2922502 -0.04607109 -0.3374309
0.060393844 -0.09630964 0.10235807 0.13378988 -0.13082644 -0.14221641 -0.25843334 -0.087723576
-0.0036206967 0.10147427 -0.013567496 -0.26871604 0.022902658 0.047854383 0.048320584 0.00033039093
-0.095791526 -0.016652336 -0.14981768 -0.05977383 -0.12918262 0.11622751 -0.03297605 -0.08842761
0.21904461 -0.21547 -0.06266816 -0.06044833 0.05158346 -0.007632467 0.010671259 -0.024488693
-0.04275802 0.17577544 -0.031648576 0.013729837 0.29667348 -0.037200913 0.0005424424 0.07569606
-0.10160571 -0.008463724 0.06850458 0.109030254 -0.14418344 -0.13208246 0.088353455 0.11356566
-0.4294808 0.07309833 -0.10009565 -0.047536056 0.013131393 -0.10656165 0.07194031 -0.036615472
-0.08000252 0.0033746308 0.023284404 0.27770394 0.13079603 0.21697986 0.03001324 0.0038817765
0.04109006 -0.0032558555 0.03402209 -0.09773017 -0.15695718 -0.013018241 -0.23055254 -0.056166597
0.14578564 0.18779813 0.031888682 -0.10315493 -0.06507878 0.12516893 -0.01573519 -0.019306395
0.12204706 -0.17853352 -0.059442002 -0.2618437 -0.14256477 -0.10845674 -0.15260169 0.015982306
-0.05919115 -0.08784835 0.0076100053 -0.2047013 -0.0039692326 -0.08700037 -0.007923195 0.10176285
0.09967005 -0.00588076 0.15788971 0.014551443 -0.056862354 0.2587289 -0.022948913 0.06441582
0.01257216 -0.22464584 -0.17306049 0.09296388 -0.16823427 -0.19827163 -0.06855959 -0.008706245
0.0714917 -0.045881268 0.096667886 0.20698881 0.07152591 -0.01685377 0.053899482 0.020048128
0.011986012 -0.013502382 0.1364519 0.021045536 0.08198177 -0.19587566 -0.057578195 -0.17560506
0.16444074 0.02423588 -0.03258302 -0.20729455 0.06398471 0.18515846 -0.17403153 0.072784655
-0.028815722 -0.094252884 -0.059494536 0.19214508 -0.002610821 0.011335292 -0.026786143 0.19827157
-0.06761112 0.15408456 -0.053417094 -0.23201647 0.14005053 0.032236207 -0.22305696 -0.051457513
0.075838745 0.1645015 0.10820895 0.1438218 -0.07467615 0.0016508322 0.53473395 0.23863107
-0.09692925 -0.07298971 0.03729898 -0.11637482 0.095782705 0.05164541 0.08099249 0.13552721
0.12945898 -0.17571707 0.09520723 0.042639803 -0.11880831 0.07275025 0.052533884 -0.18878771
0.0515423 -0.024616022 0.018286899 -0.04935204 0.059471488 -0.061852995 0.08191985 0.16069053
-0.10974332 -0.11045827 0.0796623 0.2654225 -0.0630509 -0.03839088 0.10278639 0.19565803
0.008789725 -0.11852663 0.041943546 -0.013209925 -0.06723391 -0.20052335 -0.035164353 -0.21493474
0.1417857 -0.13842043 -0.17388305 -0.056718174 0.049697377 0.09786921 0.18601914 -0.05589629
-0.23432462 0.011222635 -0.08002864 0.080642566 0.13664518 -0.17476986 -0.0907349 -0.20130092
-0.026809491 0.08090974 0.36729327 0.2683644 -0.053431667 0.013554139 -0.035214882 -0.068977766
00000000: 0569 90bd 3acb 53be 0b1d b6bd db99 d3bd
00000010: e653 4c3d 3c53 353e 9321 45be 275d 12be
00000020: 2beb d33d 35cb 0e3e c83c 55be 5c18 df3d
00000030: 48cd dd3d d743 c13c a012 2b3d 6b94 90bd
00000040: 80a9 8b3d fdcb d43d cd8c 68bc ad1e 51be
00000050: 8bc1 f43c e498 17be c418 ee3d 421a 673c
00000060: 84c1 e43b 1f08 b5bd 2b47 1d3d 9cc6 b4bd
00000070: 40f6 48bc d1a1 95be 0ab5 3cbd bec3 acbe
00000080: 895f 773d fd3d c5bd 1ca1 d13d 3700 093e
00000090: 5ef7 05be 2ea1 11be 6051 84be 6ba8 b3bd
000000a0: 3649 6dbb bed1 cf3d 344a 5ebc 2695 89be
000000b0: 5b9e bb3c f502 443d ceeb 453d 5238 ad39
000000c0: 592e c4bd 7b6a 88bc ce69 19be 67d5 74bd
000000d0: 7348 04be b008 ee3d e511 07bd 8919 b5bd
000000e0: 3b4d 603e 2ba4 5cbe 2a58 80bd ab98 77bd
000000f0: 2e49 533d c619 fabb 81d6 2e3c 839c c8bc
00000100: 0923 2fbd 7afe 333e f0a1 01bd 1cf3 603c
00000110: 96e5 973e fc5f 18bd b132 0e3a 8906 9b3d
00000120: a816 d0bd 6eab 0abc 214c 8c3d 414b df3d
00000130: d3a4 13be a040 07be a8f2 b43d 1d95 e83d
00000140: e8e4 dbbe 94b4 953d f3fe ccbd 2bb5 42bd
00000150: 0e25 573c ff3c dabd 7155 933d 1bfa 15bd
00000160: 5cd8 a3bd e928 5d3b efbe be3c 362f 8e3e
00000170: 65ef 053e f82f 5e3e 54de f53c 6765 7e3b
00000180: 0d4e 283d 3160 55bb bf5a 0b3d c126 c8bd
00000190: 62b9 20be 764a 55bc f715 6cbe f20e 66bd
000001a0: d548 153e 274e 403e b59d 023d e442 d3bd
000001b0: 0648 85bd 492c 003e 16e7 80bc 7228 9ebc
000001c0: cff3 f93d 7ed1 36be 7579 73bd 6110 86be
000001d0: 80fc 11be 911e debd 9e43 1cbe 53ed 823c
000001e0: 6b72 72bd d6e9 b3bd 5a5d f93b 389d 51be
000001f0: 5610 82bb 402d b2bd 4ad0 01bc 0b69 d03d
00000200: d01f cc3d 64b3 c0bb d7ad 213e 2d69 6e3c
00000210: 80e8 68bd 1d78 843e 5cff bbbc 71ec 833d
00000220: 76fb 4d3c 8f09 66be c536 31be d963 be3d
00000230: 9b45 2cbe b807 4bbe f868 8cbd a3a4 0ebc
00000240: 3e6a 923d ffed 3bbd d0f9 c53d e0f4 533e
00000250: 2d7c 923d eb10 8abc b4c5 5c3d f93b a43c
00000260: fa60 443c 1839 5dbc 0cba 0b3e b067 ac3c
00000270: 0fe6 a73d a193 48be 1dd7 6bbd d0d1 33be
00000280: 2763 283e 538a c63c c675 05bd 0645 54be
00000290: 6a0a 833d 2e9a 3d3e 5235 32be 1f10 953d
000002a0: f30e ecbc a807 c1bd 8bb0 73bd aec1 443e
000002b0: 4f1a 2bbb a9b7 393c 9d6e dbbc b407 4b3e
000002c0: b377 8abd 58c8 1d3e e2cb 5abd ba95 6dbe
000002d0: 6869 0f3e 1d0a 043d 0b69 64be 1dc5 52bd
000002e0: 5851 9b3d 1573 283e a79c dd3d 0646 133e
000002f0: cfef 98bd bd60 d83a 53e4 083f b45b 743e
00000300: d882 c6bd a17b 95bd d1c6 183d ec55 eebd
00000310: b929 c43d 238a 533d 64df a53d a5c7 0a3e
00000320: e590 043e 2def 33be 02fc c23d 13a7 2e3d
00000330: c551 f3bd 15fe 943d c52d 573d 9151 41be
00000340: 051e 533d 8aa7 c9bc 68ce 953c 5d25 4abd
00000350: 6098 733d 9159 7dbd 98c5 a73d 0f8c 243e
00000360: 1bc1 e0bd f237 e2bd fd25 a33d 75e5 873e
00000370: d520 81bd c13f 1dbd ac81 d23d 945a 483e
00000380: c702 103c 17be f2bd ffcc 2b3d 716e 58bc
00000390: efb1 89bd fe55 4dbe 7f08 10bd da17 5cbe
000003a0: 4530 113e 16be 0dbe 660e 32be 5151 68bd
000003b0: 7a8f 4b3d a76f c83d cd7b 3e3e 82f3 64bd
000003c0: cbf2 6fbe 25df 373c 0ee6 a3bd ee27 a53d
000003d0: b7ec 0b3e dff6 32be 38d3 b9bd d421 4ebe
000003e0: 949f dbbc 01b4 a53d dd0d bc3e 0f67 893e
000003f0: 2adb 5abd 2e12 5e3c 7b3d 10bd 3744 8dbd

actor.0.bias f4 [32]
0.00019080726 -0.013027063 0.036657207 0.0059004417 -0.008277198 -0.002780208 -0.112002544 -0.120123304
0.1021686 0.11183695 0.09970586 -0.008396879 0.11415955 -0.0038598229 0.0024537304 -0.05358488
-0.07190386 -0.009497812 -0.12591994 -0.012799458 -0.015351444 -0.012716694 -0.0047797114 -0.0022217284
-0.020669809 0.0 -0.10485835 -0.009339414 -0.0045676446 -0.003213617 0.0 -0.024362687
00000000: 6f13 4839 766f 55bc de25 163d 7e58 c13b
00000010: 169d 07bc 2634 36bb 9761 e5bd 3503 f6bd
00000020: c53d d13d c50a e53d 9632 cc3d 1093 09bc
00000030: 7bcc e93d 15f5 7cbb c4ce 203b d27b 5bbd
00000040: 5542 93bd b69c 1bbc 28f1 00be d1b4 51bc
00000050: 9f84 7bbc ae59 50bc 209f 9cbb 6b9a 11bb
00000060: bb53 a9bc 0000 0000 f9bf d6bd 5704 19bc
00000070: 2eac 95bb 8c9b 52bb 0000 0000 4294 c7bc

actor.2.weight f4 [2, 32]
-0.17950518 -0.24769038 0.060598817 0.13356596 -0.019441677 -0.07043289 -0.37075883 -0.2698039
0.30698994 0.5303092 0.4382602 0.2675082 0.48825648 -0.3825357 0.004249959 -0.08680496
-0.7817853 -0.080601215 -0.90953714 -0.03857067 -0.10153961 0.122823276 0.014924456 -0.14393489
-0.24976812 -0.23063278 -0.6580489 -0.13124275 0.094737455 0.24370421 0.35055596 0.00041970893
0.1650782 -0.02066683 -0.10168026 -0.3388618 -0.2510264 -0.05409208 0.27692586 0.20822322
-0.6217261 -0.59266853 -0.5597143 -0.07852852 -0.7122954 -0.36652946 -0.3337839 0.30544832
0.80632365 -0.13967416 0.8735679 -0.20881371 -0.21561314 0.14564238 -0.039586358 -0.032902848
-0.18274744 0.05290168 0.51447463 0.06940268 -0.15023175 -0.052949604 0.13195829 -0.17378794
00000000: 35d0 37be 8ca2 7dbe 7736 783d 84c5 083e
00000010: 2744 9fbc 1e3f 90bd 1ad4 bdbe bd23 8abe
00000020: c92d 9d3e 58c2 073f a463 e03e d6f6 883e
00000030: c1fc f93e b8db c3be 3d43 8b3b cdc6 b1bd
00000040: 1523 48bf 4012 a5bd 6dd7 68bf 47fc 1dbd
00000050: 00f4 cfbd c58a fb3d b585 743c ab63 13be
00000060: 37c3 7fbe 002b 6cbe e575 28bf 8064 06be
00000070: b605 c23d 998d 793e 127c b33e 610c dc39
00000080: 420a 293e 7c4d a9bc bd3d d0bd 4b7f adbe
00000090: 8886 80be a88f 5dbd 3ac9 8d3e 7838 553e
000000a0: 7129 1fbf 20b9 17bf 7049 0fbf 90d3 a0bd
000000b0: fe58 36bf c0a9 bbbe b9e5 aabe b963 9c3e
000000c0: 3a6b 4e3f be06 0fbe 25a2 5f3f 43d3 55be
000000d0: b1c9 5cbe 4723 153e 4e25 22bd 23c5 06bd
000000e0: 2522 3bbe 6faf 583d 9cb4 033f fe22 8e3d
000000f0: 5ad6 19be afe1 58bd 1320 073e 77f5 31be

actor.2.bias f4 [2]
0.09116553 -0.091165446
00000000: feb4 ba3d f3b4 babd

critic.0.weight f4 [32, 64]
0.19012013 -0.20945121 -0.09788427 0.023434663 -0.052178096 -0.031006929 -0.17485237 -0.019875633
0.0472426 0.22024617 0.05586895 0.107865766 -0.021422936 -0.01194038 0.061891273 0.07303732
0.0044744564 -0.09877752 -0.02241064 -0.07360289 -0.24474506 0.05173038 0.1398746 0.09472722
0.015559395 -0.077880375 -0.07907723 -0.09913137 0.11442753 -0.053577516 -0.06824916 -0.035462692
-0.00804851 0.050014332 -0.006530768 0.16835742 -0.36802116 -0.28950304 -0.02377446 -0.06451995
0.14993829 -0.011562276 -0.06129953 0.24798125 0.15564542 0.03307152 0.22656862 -0.091207236
0.15501133 -0.15548979 -0.08995135 -0.036246497 -0.044179514 -0.21512546 0.078983806 -0.2816314
0.036040593 -0.02220686 -0.06974064 -0.01767705 0.10042579 -0.11620309 0.08992774 -0.009091766
0.16531251 0.115592346 0.15766653 -0.04592771 0.15165912 0.018396806 0.018568743 0.012908935
-0.11551905 0.1575263 0.06574771 -0.081835724 -0.24228474 -0.036005605 0.0064033484 0.14134553
0.02543094 -0.046488553 0.16542175 -0.03726684 -0.051033784 -0.13690446 0.027832342 -0.25159007
-0.18830039 0.004912637 0.08228932 0.053270135 -0.018411404 -0.05552566 0.14483932 -0.03451433
-0.109405935 -0.037302844 -0.15876167 -0.029989528 -0.15301248 0.15843098 -0.042481363 -0.064646624
-0.06286752 -0.07848457 0.02410434 -0.2683259 0.024482366 0.15029131 0.2737214 -0.08822417
-0.0059103295 -0.17833011 -0.2689932 -0.015077775 -0.26092154 0.217034 -0.019196758 -0.05681511
-0.04836093 -0.1940763 -0.17939878 0.00041437894 0.052514963 0.062819116 -0.18289392 0.07495561
-0.068594456 -0.021734314 -0.08627333 -0.009744764 0.008646758 -0.17889473 0.028870871 0.29277304
0.1133956 0.12021407 -0.109119646 -0.01029455 -0.1059604 -0.10309018 -0.013694583 -0.07489317
0.10900925 -0.11453532 -0.01485497 -0.1446604 0.064557254 -0.09776384 -0.022769436 -0.20497568
0.066338025 0.03897809 0.13156523 0.22977681 0.031166276 0.0011545628 -0.16550097 -0.064810425
0.0034483362 0.10030674 -0.10596725 -0.11962029 0.0648675 -0.0060009407 0.02601614 0.21579328
0.14041969 0.055039383 0.05922833 -0.061624125 0.32399476 -0.11804273 0.02836173 -0.061012674
-0.0034744246 -0.27929774 0.11980563 -0.009310652 -0.06346594 0.14691713 -0.1018682 0.07288482
0.22191365 0.17206758 -0.05615076 -0.16550265 -0.09847537 -0.085520335 0.2611864 -0.14268714
0.14754163 -0.20613183 0.09481523 -0.15732558 0.084292985 0.10520118 0.05061983 0.09636249
-0.12469008 -0.027440343 -0.09310558 0.05791006 -0.037840046 -0.03809595 -0.1404482 0.009228171
0.059283607 0.013299487 0.013694485 -0.06784231 0.23542935 0.035823785 -0.18418573 -0.07947338
0.049104806 -0.21100256 -0.02450145 0.058956552 -0.03678169 -0.25661597 0.081048116 -0.016626516
-0.1745811 -0.051216938 0.0050871056 0.061052013 0.048802756 0.0046683596 -0.06629662 -0.12209302
-0.048078828 0.17801234 -0.17697228 0.33174714 0.030064125 0.003997179 0.022262458 -0.038322836
0.10629578 0.0058159325 0.10325982 -0.06017877 -0.32298994 -0.1673527 -0.06326444 0.13272373
-0.026688296 0.13696942 -0.022350535 0.015490344 -0.08124486 0.37069374 0.011716155 0.074259
00000000: daae 423e 617a 56be 8c77 c8bd 0dfa bf3c
00000010: b3b8 55bd 3e02 febc 800c 33be 39d2 a2bc
00000020: 7581 413d 3688 613e d7d6 643d bae8 dc3d
00000030: 277f afbc 95a1 43bc b481 7d3d 9794 953d
00000040: 769e 923b de4b cabd 8596 b7bc 1dbd 96bd
00000050: 739e 7abe 3ce3 533d 4a3b 0f3e 5800 c23d
00000060: d5ec 7e3c bf7f 9fbd 3ef3 a1bd 6305 cbbd
00000070: fb58 ea3d 1974 5bbd 37c6 8bbd 5441 11bd
00000080: e6dd 03bc d4db 4c3d 0d00 d6bb e365 2c3e
00000090: 456d bcbe be39 94be a8c2 c2bc 0923 84bd
000000a0: 6c89 193e b36f 3dbc 3715 7bbd ccee 7d3e
000000b0: 8361 1f3e 0176 073d 9b01 683e dcca babd
000000c0: 4abb 1e3e b738 1fbe 6a38 b8bd 3577 14bd
000000d0: 94f5 34bd d949 5cbe 43c2 a13d fe31 90be
000000e0: 4d9f 133d 29eb b5bc 2ed4 8ebd 76cf 90bc
000000f0: 09ac cd3d e3fb edbd 092c b83d a1f5 14bc
00000100: af47 293e aebb ec3d 5673 213e b21e 3cbd
00000110: 874c 1b3e e6b4 963c 7a1d 983c ff7f 533c
00000120: 4095 ecbd 934e 213e bca6 863d 7d99 a7bd
00000130: 7e19 78be 9d7a 13bd 2ed3 d13b e2bc 103e
00000140: 8c54 d03c c86a 3ebd 5264 293e 1da5 18bd
00000150: cd08 51bd af30 0cbe a700 e43c 6ad0 80be
00000160: d1d1 40be 30fa a03b 4e87 a83d c931 5a3d
00000170: 83d3 96bc e06e 63bd c250 143e e65e 0dbd
00000180: 3810 e0bd deca 18bd 6b92 22be 99ac f5bc
00000190: 4eaf 1cbe bb3b 223e f000 2ebd 7365 84bd
000001a0: b0c0 80bd 85bc a0bd 7776 c53c 0362 89be
000001b0: 3e8f c83c f7e5 193e 3625 8c3e e0ae b4bd
000001c0: 70ab c1bb 2b9c 36be 7ab9 89be c608 77bc
000001d0: 8297 85be 293e 5e3e 8542 9dbc f6b6 68bd
000001e0: 1c16 46bd f0bb 46be 50b4 37be 0041 d939
000001f0: ee19 573d 4fa7 803d 8b48 3bbe 5482 993d
00000200: 407b 8cbd 290c b2bc 12b0 b0bd 81a8 1fbc
00000210: 22ab 0d3c 2e30 37be 9b82 ec3c 59e6 953e
00000220: f43b e83d cb32 f63d 1f7a dfbd 79aa 28bc
00000230: c401 d9bd f220 d3bd 3f5f 60bc 9761 99bd
00000240: 3e40 df3d 7e91 eabd 4362 73bc db21 14be
00000250: 9836 843d 6838 c8bd f886 babc 25e5 51be
00000260: 3bdc 873d 7da7 1f3d 09b9 063e 9d4a 6b3e
00000270: 6b50 ff3c b354 973a 1679 29be 54bb 84bd
00000280: 7bfd 613b 9f6d cd3d 5c05 d9bd 7cfb f4bd
00000290: 40d9 843d 8aa3 c4bb cd1f d53c eaf8 5c3e
000002a0: 2eca 0f3e fa70 613d 6899 723d 9469 7cbd
000002b0: a4e2 a53e 63c0 f1bd dc56 e83c 6de8 79bd
000002c0: 2cb3 63bb 1d00 8fbe a75c f53d b48b 18bc
000002d0: 6efa 81bd 7271 163e 46a0 d0bd a344 953d
000002e0: 553d 633e 7c32 303e 57fe 65bd 8779 29be
000002f0: 74ad c9bd 4925 afbd 39ba 853e 941c 12be
00000300: 2715 173e 3914 53be 7d2e c23d f519 21be
00000310: cda1 ac3d b773 d73d bd56 4f3d b259 c53d
00000320: 835d ffbd 92ca e0bc 23ae bebd 1933 6d3d
00000330: 2afe 1abd 800a 1cbd a7d1 0fbe c131 173c
00000340: 5ed3 723d 17e6 593c d55e 603c e9f0 8abd
00000350: 6414 713e f6bb 123d 2f9b 3cbe f1c2 a2bd
00000360: 1f22 493d 0e11 58be 44b7 c8bc 6d7c 713d
00000370: 66a8 16bd 2b63 83be 8efc a53d 5534 88bc
00000380: 63c5 32be dac8 51bd bcb1 a63b ad11 7a3d
00000390: 66e5 473d 0af9 983b 86c6 87bd e80b fabd
000003a0: 4eee 44bd de48 363e 3938 35be c3da a93e
000003b0: 0a49 f63c c5fa 823b c25f b63c 68f8 1cbd
000003c0: 9ab1 d93d 9493 be3b e279 d33d 047e 76bd
000003d0: f05e a5be 825e 2bbe c990 81bd bbe8 073e
000003e0: 6aa1 dabc b641 0c3e 7818 b7bc 36cb 7d3c
000003f0: b563 a6bd 92cb bd3e 1ef5 3f3c 1a15 983d

critic.0.bias f4 [32]
-0.010672951 -0.018687343 -0.022014104 -0.02598072 0.21708018 0.1917627 -0.017491784 0.27081543
0.0 -0.0024780456 0.29849082 0.2291365 0.22024246 -0.008038498 0.23058963 -0.013725502
0.22221182 -0.01864459 -0.006666819 0.19392698 0.249525 0.22840172 0.21162848 0.20002022
0.20755951 0.28018802 0.22683057 0.105378255 0.20085269 -0.0072003505 0.23556828 0.26171255
00000000: 9add 2ebc 3316 99bc ec56 b4bc 85d5 d4bc
00000010: 444a 5e3e 715d 443e ee4a 8fbc 52a8 8a3e
00000020: 0000 0000 b566 22bb cad3 983e c2a2 6a3e
00000030: 3d87 613e e8b3 03bc b01f 6c3e eee0 60bc
00000040: 7f8b 633e 8abc 98bc 5575 dabb cb94 463e
00000050: 7b83 7f3e 24e2 693e 23b5 583e 1ad2 4c3e
00000060: 7b8a 543e ce74 8f3e 4646 683e 8ed0 d73d
00000070: 54ac 4d3e ebf0 ebbb d038 713e 30ff 853e

critic.2.weight f4 [1, 32]
0.0049029114 0.11916512 0.02490943 0.14923775 -0.4628874 -0.3550668 0.009216662 -0.30260503
0.20213363 0.1930517 -0.2791846 -0.36954683 -0.51612806 0.018147029 -0.37565628 0.030362276
-0.36079025 0.08935636 0.035889264 -0.43181506 -0.56053 -0.566637 -0.5564298 -0.4521604
-0.41685313 -0.36187735 -0.3876876 0.953602 -0.4433284 0.40296385 -0.405862 -0.5105944
00000000: 9aa8 a03b d80c f43d dc0e cc3c c8d1 183e
00000010: 94ff ecbe 51cb b5be 7b01 173c 0cef 9abe
00000020: 1efc 4e3e 58af 453e 49f1 8ebe 3e35 bdbe
00000030: f820 04bf 14a9 943c 0556 c0be 4fba f83c
00000040: 80b9 b8be 7800 b73d 9f00 133d dd16 ddbe
00000050: e57e 0fbf 1f0f 11bf 2f72 0ebf 9181 e7be
00000060: c66d d5be fd47 b9be fd7e c6be 431f 743f
00000070: f1fb e2be 4751 ce3e 25cd cfbe 51b6 02bf

exp_avg f4 [64, 12]
0.0014687777 -0.00016683621 -0.00092590833 0.00034654714 0.0005461347 0.0019060634 7.6023125e-06 -0.00016683621
-8.364748e-05 0.0005023049 0.0012172218 3.9665847e-05 0.00010713482 -3.6066947e-05 0.00040289317 0.00018582017
0.00024565874 0.0011364178 6.9146794e-05 -3.6066947e-05 0.00092271634 0.0015293886 0.0015341945 -0.0005957908
0.0006094463 7.4925694e-05 -0.00039131008 -0.00031178928 1.1047802e-05 -0.00056717097 -1.8308265e-05 7.4925694e-05
0.00017098968 -0.00012459214 -0.00020708845 0.0009986279 0.00047821508 7.9350844e-05 0.0002508042 0.00016657647
0.00026712538 0.00035159863 3.8145237e-05 7.9350844e-05 -0.0010980184 -0.0003380368 -0.0011851643 0.0009093441
-0.003985034 -0.0013026566 -0.003153783 -0.001608898 -0.0022306442 -0.00350369 -0.00076563744 -0.0013026566
-0.003535203 -0.0046058316 -0.0028757865 -0.004338959 0.0019380634 0.00022014606 6e-45 0.0002458539
0.00020872657 0.0003856964 -3.5980047e-05 0.00022014606 0.0007558918 9.865493e-05 -0.00016715536 0.0023313477
-0.0007493544 -3.66555e-05 0.0011879038 -0.0004680651 -0.0005480979 -0.001337186 -5.031016e-05 -3.66555e-05
0.00057921646 2.263676e-05 0.00040736608 -0.0008307015 -0.0002269332 -1.2498351e-05 -0.0012027499 -0.00028251662
-0.000328882 -0.0016365099 -3.6175963e-06 -1.2498351e-05 -0.00010197004 -4.111719e-05 -0.00010197004 -0.000285009
-0.0055299136 -8.2476094e-05 0.0032242895 -0.001487102 -0.0022128052 -0.008346621 0.00034587143 -8.2476094e-05
0.0002951394 -7.8048986e-05 0.0014105842 -0.0008041253 0.0020788617 -0.00039161232 0.003624649 0.0011523345
0.0016291351 0.0062807743 0.00022672347 -0.00039161232 0.0022660457 0.0013711959 0.0022812632 0.0023627102
-0.0013089814 -0.0010348615 -0.002168568 -0.00083743496 -0.0010591772 -0.0017815625 -0.0005172752 -0.0010348615
0.00013186388 -0.0010374015 0.00012425485 -0.0032289866 0.00019301326 -2.9325614e-05 0.00054748094 0.00020722415
0.00020501913 0.0004701874 0.00010105685 -2.9325614e-05 0.0013466809 0.0014133801 0.0012809674 -0.00071778824
0.00086083135 -0.00013116054 0.0012202028 -6.9017406e-05 -0.000118993514 0.00026683242 -0.0001081439 -0.00013116054
-0.00020635044 -0.0002129123 -0.0005633929 0.000840214 0.0004646216 -0.00020430847 -5.9967995e-05 -4.5620134e-05
-0.00020185187 0.0001827829 -9.307739e-05 -0.00020430847 -0.00045410616 -0.00072103913 -0.0011492627 0.00031566664
0.0010664943 -0.00053212757 0.0016369843 -0.00034340966 -0.00024854648 5.4656284e-05 -0.00023419125 -0.00053212757
-0.00034963802 -0.0005399925 -0.0011651547 5.485328e-05 -0.0010564215 -0.00034596233 -0.00221826 -0.0006470537
-0.0010982003 -0.001914867 -0.00032566133 -0.00034596233 -0.0022676722 -0.0022493023 -0.0013952035 -0.0025890823
0.00041536952 -0.00028561655 0.00041489463 -0.00013676197 -0.0002165327 0.00018660413 -0.00011182727 -0.00028561655
0.0006607555 0.00014244027 -0.00039367366 -1.8729457e-05 0.0 0.0 0.0 0.0
0.0 0.0 0.0 0.0 0.0 0.0 0.0 0.0
0.0015298887 -2.6627915e-05 0.0006306527 0.0005294085 0.00023261082 0.0021507028 3.2051525e-05 -2.6627915e-05
4.370301e-05 0.00069284305 8.272627e-05 0.0014076276 -0.0022434613 -0.0011802985 6e-45 -0.0008831857
-0.0007556302 -0.0017239914 -0.0003924555 -0.0011802985 -0.0015400379 -0.000931918 -0.00057708664 -0.0043545254
-0.0019506452 -0.00047778053 0.0007985255 -0.0002894852 -0.00072881073 -0.00044425915 -0.00035162416 -0.00047778053
-0.002288162 -0.0025310172 -0.0013388165 -0.0026155973 0.00014178174 -1.0071554e-05 -6.8141955e-05 -0.00074947695
00000000: 0084 c03a c1f0 2eb9 a8b8 72ba c5b0 b539
00000010: 7b2a 0f3a e0d4 f93a 5e17 ff36 c1f0 2eb9
00000020: e66b afb8 1cad 033a 308b 9f3a e15e 2638
00000030: 92ad e038 9746 17b8 683b d339 b9d8 4239
00000040: c2cb 8039 dbf3 943a e702 9138 9746 17b8
00000050: 72e2 713a c475 c83a 0617 c93a d82e 1cba
00000060: 40c3 1f3a 6d21 9d38 c028 cdb9 a677 a3b9
00000070: f359 3937 33ae 14ba b394 99b7 6d21 9d38
00000080: b14b 3339 f3a4 02b9 e225 59b9 64e4 823a
00000090: f1b8 fa39 2969 a638 5f7e 8339 08ab 2e39
000000a0: f60c 8c39 c556 b839 23fe 1f38 2969 a638
000000b0: 62eb 8fba 883a b1b9 8457 9bba 0d61 6e3a
000000c0: e394 82bb e7bd aaba b3af 4ebb a9e1 d2ba
000000d0: 0030 12bb 2a9e 65bb 0fb5 48ba e7bd aaba
000000e0: ddae 67bb 84ec 96bb b177 3cbb d42d 8ebb
000000f0: 9e06 fe3a 02d7 6639 0400 0000 f4e5 8039
00000100: 9ddd 5a39 4b37 ca39 48e9 16b8 02d7 6639
00000110: 0a27 463a f6e4 ce38 6d46 2fb9 86c9 183b
00000120: 5370 44ba 8bbe 19b8 70b3 9b3a a266 f5b9
00000130: 3aae 0fba 8444 afba 1f04 53b8 8bbe 19b8
00000140: 8fd6 173a 12e4 bd37 c093 d539 6fc3 59ba
00000150: ebf4 6db9 02b0 51b7 97a5 9dba bd1e 94b9
00000160: cb6d acb9 2980 d6ba d5c5 72b6 02b0 51b7
00000170: c0d8 d5b8 3f75 2cb8 c0d8 d5b8 436d 95b9
00000180: 4734 b5bb 04f7 acb8 9a4e 533b ddea c2ba
00000190: b604 11bb 44c0 08bc 1456 b539 04f7 acb8
000001a0: f1bc 9a39 3bae a3b8 5ae3 b83a efcb 52ba
000001b0: 833d 083b 5151 cdb9 858b 6d3b ee09 973a
000001c0: b488 d53a f4ce cd3b 9ebc 6d39 5151 cdb9
000001d0: f081 143b b3b9 b33a 3f81 153b b3d7 1a3b
000001e0: 2192 abba 31a4 87ba 891e 0ebb 4f87 5bba
000001f0: 17d4 8aba 5183 e9ba c099 07ba 31a4 87ba
00000200: f144 0a39 6bf9 87ba 684a 0239 689d 53bb
00000210: 9a63 4a39 4700 f6b7 d384 0f3a 4f4a 5939
00000220: 67fa 5639 7c83 f639 7cee d338 4700 f6b7
00000230: 1d83 b03a 2b41 b93a 22e6 a73a f429 3cba
00000240: 6aa9 613a 2488 09b9 36ef 9f3a 70bd 90b8
00000250: 288c f9b8 a4e5 8b39 50cb e2b8 2488 09b9
00000260: c65f 58b9 3641 5fb9 a8b0 13ba cf41 5c3a
00000270: 7598 f339 a33b 56b9 2586 7bb8 3f58 3fb8
00000280: 33a8 53b9 69a9 3f39 8b32 c3b8 a33b 56b9
00000290: 1915 eeb9 1e04 3dba dba2 96ba 0f80 a539
000002a0: 9cc9 8b3a 7a7e 0bba 1490 d63a aa0b b4b9
000002b0: 584f 82b9 bd3e 6538 3c91 75b9 7a7e 0bba
000002c0: 9f4f b7b9 498e 0dba 1bb8 98ba 4312 6638
000002d0: a077 8aba 4762 b5b9 3a60 11bb 0a9f 29ba
000002e0: 7df1 8fba 46fc faba 86bd aab9 4762 b5b9
000002f0: 3a9d 14bb 0869 13bb 43df b6ba 98ad 29bb
00000300: f4c5 d939 cebe 95b9 3786 d939 c367 0fb9
00000310: 0e0d 63b9 2aab 4339 cf84 eab8 cebe 95b9
00000320: 8d36 2d3a 055c 1539 fc65 ceb9 341d 9db7
00000330: 0000 0000 0000 0000 0000 0000 0000 0000
00000340: 0000 0000 0000 0000 0000 0000 0000 0000
00000350: 0000 0000 0000 0000 0000 0000 0000 0000
00000360: 8c86 c83a 035f dfb7 6352 253a 01c8 0a3a
00000370: fee8 7339 cef2 0c3b 106f 0638 035f dfb7
00000380: c04d 3738 e99f 353a 547d ad38 2580 b83a
00000390: 0907 13bb 3fb4 9aba 0400 0000 9785 67ba
000003a0: 7c15 46ba 8df7 e1ba 7cc2 cdb9 3fb4 9aba
000003b0: 19db c9ba f54b 74ba a147 17ba 68b0 8ebb
000003c0: cbac ffba 9e7e fab9 2454 513a 0cc6 97b9
000003d0: a90d 3fba 74eb e8b9 325a b8b9 9e7e fab9
000003e0: fdf4 15bb 6cdf 25bb 3a7b afba 716a 2bbb
000003f0: 3fab 1439 fff8 28b7 6fe7 8eb8 8c78 44ba

exp_avg_sq f4 [64, 12]
0.00013211758 1.6631332e-06 0.000121419725 8.707475e-06 2.4293488e-05 0.00021921471 4.93486e-07 1.6631332e-06
9.342197e-05 7.85203e-05 5.931508e-05 0.00013135883 0.00011556177 1.2874941e-06 0.00012965764 6.314111e-06
2.0496951e-05 0.00014162359 4.385996e-07 1.2874941e-06 9.741295e-05 8.942617e-05 6.8242865e-05 0.000115045616
0.00020751538 1.3153667e-06 6.919609e-05 1.2984168e-05 2.916621e-05 0.00013447981 1.6025011e-07 1.3153667e-06
8.325349e-06 1.7293189e-05 2.2557415e-05 0.0002106913 1.8102744e-05 7.7245755e-07 1.0676276e-05 3.1808313e-06
5.2135297e-06 4.17293e-05 1.4679257e-07 7.7245755e-07 1.1591112e-05 9.441119e-06 1.16710125e-05 1.947551e-05
0.00030422898 1.2987284e-05 0.00033965637 4.2162155e-05 7.751492e-05 0.00037109075 2.736634e-06 1.2987284e-05
0.00027832834 0.000207575 0.00022325026 0.00032702702 7.312388e-05 4.2299519e-07 2.676663e-10 4.8921383e-06
1.222987e-05 0.00012810827 1.4465796e-07 4.2299519e-07 3.444345e-05 2.9636738e-05 2.2333352e-05 7.441211e-05
8.328698e-05 1.7695736e-06 9.28885e-05 6.665349e-06 1.4907468e-05 0.00010064021 3.6614531e-07 1.7695736e-06
4.4451765e-05 3.838369e-05 2.8681778e-05 8.597549e-05 0.000105037114 8.930717e-07 6.434701e-05 5.448626e-06
1.377954e-05 6.566115e-05 2.1242764e-08 8.930717e-07 5.058641e-06 1.3021834e-06 4.622926e-06 0.000105390325
0.000297363 2.0903284e-05 0.0013014831 9.729672e-05 0.00024977617 0.0017732474 6.643645e-06 2.0903284e-05
0.0013670678 0.0011644729 0.0013812407 0.00030506027 0.0005503965 1.3569617e-05 0.00077562855 4.957395e-05
0.00011552683 0.00083669764 6.11247e-07 1.3569617e-05 1.9960064e-05 1.7998675e-05 2.126659e-05 0.00055005884
0.00036321473 1.0722751e-05 0.00039204897 3.481386e-05 6.5814595e-05 0.00045833702 2.3063023e-06 1.0722751e-05
0.00027966336 0.00023179475 0.00020522099 0.00037266288 0.00024106074 2.0841735e-06 0.00032195312 9.084773e-06
3.772531e-05 0.00023600012 7.5407183e-07 2.0841735e-06 0.00017143179 0.0001603415 0.00010445454 0.00023898817
0.00010285466 9.932933e-07 0.00014661063 3.2168457e-06 1.3855659e-05 8.246904e-05 1.960656e-07 9.932933e-07
3.134901e-05 3.0330082e-05 2.0517711e-05 0.0001040674 0.00014353359 1.4136245e-06 0.00027654154 4.8323773e-06
2.619378e-05 0.000106697735 6.453791e-07 1.4136245e-06 0.00016756162 0.00016257145 0.00014014651 0.00014571154
0.00022475267 3.8032254e-06 0.0003136284 1.3060781e-05 3.554501e-05 0.00021250633 1.006808e-06 3.8032254e-06
0.00018106369 0.00016192907 0.0001381062 0.00022814046 4.1275816e-05 3.386607e-06 9.989019e-05 9.065341e-06
1.6190528e-05 9.2892275e-05 9.687504e-07 3.386607e-06 0.00011484044 7.155263e-05 0.00010035467 5.4090695e-05
0.00017479701 1.8556838e-06 0.0003231107 6.756987e-06 3.2232827e-05 0.00014658336 7.989745e-07 1.8556838e-06
0.00020350804 0.0001971448 0.00016182601 0.00017706568 0.0 0.0 0.0 0.0
0.0 0.0 0.0 0.0 0.0 0.0 0.0 0.0
0.00035311896 3.3154324e-06 0.0004913141 1.1216219e-05 5.1631752e-05 0.00030017542 8.452003e-07 3.3154324e-06
0.00011753924 0.00011012862 1.2015213e-05 0.0003527526 0.0003910589 8.520724e-06 6.0335126e-10 5.1009534e-05
9.0881666e-05 0.00066119217 1.7911632e-06 8.520724e-06 0.00024532282 0.00020461375 0.00018451357 0.0004075748
0.000103304905 5.90753e-06 0.00012397105 2.0022015e-05 3.3003933e-05 0.00016525142 1.4697631e-06 5.90753e-06
0.00015227824 0.00012391749 0.00012368218 0.00011493417 0.0031375692 2.6445558e-05 0.0033537545 0.00014994621
00000000: 0b89 0a39 d238 df35 b8a2 fe38 5216 1237
00000010: dec9 cb37 00dd 6539 1a78 0435 d238 df35
00000020: 8aeb c338 44ab a438 15c9 7838 5ebd 0939
00000030: c159 f238 f6cd ac35 b5f4 0739 cddd d336
00000040: def0 ab37 cb80 1439 ac78 eb34 f6cd ac35
00000050: 2e4a cc38 4f8a bb38 9c1d 8f38 a544 f138
00000060: 7c98 5939 a88b b035 5e1d 9138 94d6 5937
00000070: f6a9 f437 2603 0d39 3711 2c34 a88b b035
00000080: 1aad 0b37 d710 9137 ae39 bd37 04ed 5c39
00000090: 59db 9737 e15a 4f35 421e 3337 4476 5536
000000a0: e1ef ae36 7f06 2f38 099e 1d34 e15a 4f35
000000b0: 7277 4237 4c65 1e37 9ece 4337 575f a337
000000c0: ec80 9f39 f6e3 5937 e813 b239 45d7 3038
000000d0: 818f a238 f58e c239 04a7 3736 f6e3 5937
000000e0: 99ec 9139 7da8 5939 4918 6a39 d374 ab39
000000f0: 165a 9938 0418 e334 af26 932f 2627 a436
00000100: e42e 4d37 cd54 0639 4753 1b34 0418 e334
00000110: 5f77 1038 699c f837 8258 bb37 b30d 9c38
00000120: 5baa ae38 1682 ed35 22cd c238 e9a6 df36
00000130: 161b 7a37 cd0e d338 a192 c434 1682 ed35
00000140: b871 3a38 2cfe 2038 a699 f037 bd4d b438
00000150: 5f47 dc38 6bbb 6f35 0af2 8638 57d3 b636
00000160: ac2e 6737 90b3 8938 5579 b632 6bbb 6f35
00000170: 65bd a936 aec6 ae35 a21e 9b36 0005 dd38
00000180: 63e7 9b39 7659 af37 8796 aa3a c70b cc38
00000190: 64f4 8239 4f6c e83a 7aec de36 7659 af37
000001a0: 2f2f b33a 3aa1 983a bf0a b53a 7ff0 9f39
000001b0: 7c48 103a 10a9 6337 8d53 4b3a a0ed 4f38
000001c0: ff46 f238 d455 5b3a 9314 2435 10a9 6337
000001d0: e96f a737 dcfb 9637 a765 b237 d331 103a
000001e0: db6d be39 dde5 3337 ec8b cd39 1905 1238
000001f0: f105 8a38 f44c f039 f9c5 1a36 dde5 3337
00000200: c89f 9239 ee0d 7339 9730 5739 f761 c339
00000210: 40c5 7c39 d4dd 0b36 d1cb a839 ce6a 1837
00000220: 3e3b 1e38 cd76 7739 6c6b 4a35 d4dd 0b36
00000230: 5fc2 3339 5821 2839 9b0e db38 e698 7a39
00000240: adb3 d738 4c51 8535 7ebb 1939 fde0 5736
00000250: 9a75 6837 3bf3 ac38 1a86 5234 4c51 8535
00000260: be7c 0338 5b6d fe37 731d ac37 c33e da38
00000270: 8181 1639 c5bb bd35 c7fc 9039 ce25 a236
00000280: b7ba db37 e9c2 df38 1d3e 2d35 c5bb bd35
00000290: 7bb3 2f39 f177 2a39 4bf4 1239 25ca 1839
000002a0: 96ab 6b39 ea3a 7f36 7e6e a439 a11f 5b37
000002b0: 2a16 1538 3cd4 5e39 a921 8735 ea3a 7f36
000002c0: eadb 3d39 81cb 2939 9ad0 1039 fd38 6f39
000002d0: 921f 2d38 7745 6336 237c d138 5817 1837
000002e0: e5d0 8737 29cf c238 0306 8235 7745 6336
000002f0: 7ed6 f038 870e 9638 8175 d238 71df 6238
00000300: b749 3739 cf10 f935 2f67 a939 14ba e236
00000310: bc31 0738 2cb4 1939 1c79 5635 cf10 f935
00000320: c664 5539 a7b8 4e39 d7af 2939 b5aa 3939
00000330: 0000 0000 0000 0000 0000 0000 0000 0000
00000340: 0000 0000 0000 0000 0000 0000 0000 0000
00000350: 0000 0000 0000 0000 0000 0000 0000 0000
00000360: d322 b939 b27e 5e36 88cb 003a 4b2d 3c37
00000370: 2c8f 5838 dd60 9d39 b9e1 6235 b27e 5e36
00000380: 667f f638 daf4 e638 f294 4937 a7f1 b839
00000390: 0907 cd39 3bf4 0e37 12d9 2530 12f3 5538
000003a0: b997 be38 db53 2d3a e667 f035 3bf4 0e37
000003b0: ac9e 8039 968d 5639 fc79 4139 c3af d539
000003c0: 66a5 d838 4c39 c636 3afe 0139 f3f4 a737
000003d0: b46d 0a38 5747 2d39 ad44 c535 4c39 c636
000003e0: e1ac 1f39 d9ef 0139 afb0 0139 d008 f138
000003f0: ad9f 4d3b 67d7 dd37 aaca 5b3b e13a 1d39

exp_avg f4 [64]
0.0036468445 0.0029254234 -6.241454e-05 -0.00011295469 -0.0074557504 -0.0012817244 -0.00037801111 -0.00095764
-0.013118392 0.009441982 -0.0006519629 0.002344418 0.0006014209 0.0006154461 0.0016144118 -0.0034503522
0.0012861096 0.0 0.003528032 0.00050603645 -0.0024521435 -0.012813789 -0.022782251 0.0014585583
0.005514692 0.0029905548 -0.002729206 6e-45 -0.0022092354 0.0033785307 -0.0030816433 0.0006212846
-0.003755354 -0.0015994629 -0.0018302797 -0.006827164 0.0014840116 -0.0013521552 -0.0031006073 -0.019373134
-0.0027697452 0.0 -0.0044323234 -0.015991546 -0.0028800962 0.002952579 -0.006243227 -0.0012059183
-0.0020256252 0.00038462214 0.0021277585 0.011115706 0.0045135124 -0.00087157346 0.0014217116 0.012882425
0.0 0.002634419 0.0040539405 0.0011565158 -0.0019720648 0.003024511 -0.016800629 -0.00015994982
00000000: e6ff 6e3b 76b8 3f3b 8de4 82b8 16e2 ecb8
00000010: 5e4f f4bb 89ff a7ba cb2f c6b9 220a 7bba
00000020: 86ee 56bc 8bb2 1a3c 7de8 2aba cfa4 193b
00000030: aca8 1d3a e355 213a ac9a d33a 4e1f 62bb
00000040: ad92 a83a 0000 0000 8e36 673b 88a7 043a
00000050: 24b4 20bb edf0 51bc d8a1 babc 182d bf3a
00000060: 97b4 b43b 2ffd 433b 7bdc 32bb 0400 0000
00000070: d2c8 10bb 576a 5d3b 65f5 49bb b4dd 223a
00000080: 631c 76bb 12a5 d1ba ffe5 efba 67b6 dfbb
00000090: 2b83 c23a cd3a b1ba 8f33 4bbb 68b4 9ebc
000000a0: 9d84 35bb 0000 0000 063d 91bb b400 83bc
000000b0: ffbf 3cbb 0e80 413b fc93 ccbb e70f 9eba
000000c0: 5ac0 04bb 1ca7 c939 dd71 0b3b a61e 363c
000000d0: 16e6 933b 4e7a 64ba ba58 ba3a cf10 533c
000000e0: 0000 0000 37a6 2c3b ebd6 843b 3b96 973a
000000f0: c23d 01bb e036 463b 79a1 89bc 34b8 27b9

exp_avg_sq f4 [64]
0.0003043539 0.00024807634 0.00035988074 5.3008953e-05 0.0007559166 0.00016061802 0.00016644044 0.00016779249
0.00285243 0.0013680218 0.0007438066 0.00044288082 0.00016889117 0.00030197893 0.00042420297 0.00017072132
0.00036913488 0.0 0.000581033 0.00096787774 0.00032348323 0.006530293 0.0032855547 0.00092985516
0.0015712954 0.000816425 0.00082013576 7e-43 0.00025003377 0.00010105715 0.0004813421 0.0016500781
0.0008459572 0.00018036824 0.000191446 0.0029860162 0.0006804721 0.00023465189 0.0006554464 0.00087610097
0.0009822458 0.0 0.0004548799 0.0035598571 0.0003250314 0.0009879157 0.0005172835 0.0017156611
0.00017066838 0.00026866907 0.00010888339 0.0013528327 0.001089305 0.00026388813 0.00067240954 0.0011189489
0.0 0.0020225705 0.002034479 0.0001222791 0.0010512226 0.0028053108 0.0022492432 0.00019354132
00000000: b091 9f39 3e10 8239 60ae bc39 ee55 5e38
00000010: b428 463a 926b 2839 8486 2e39 74f1 2f39
00000020: d6ef 3a3b 324f b33a 04fc 423a 7532 e839
00000030: 6118 3139 ed52 9e39 8f67 de39 a803 3339
00000040: 7288 c139 0000 0000 7750 183a 2db9 7d3a
00000050: 2f99 a939 11fc d53b 7652 573b 86c1 733a
00000060: edf3 cd3a 5b05 563a 61fe 563a f401 0000
00000070: f716 8339 a5ee d338 a55c fc39 6f47 d83a
00000080: 3ac3 5d3a 3b21 3d39 e5be 4839 0ab1 433b
00000090: b661 323a e30c 7639 43d2 2b3a 24aa 653a
000000a0: b3be 803a 0000 0000 f27c ee39 7e4c 693b
000000b0: fa68 aa39 f37c 813a 4f9a 073a 09e0 e03a
000000c0: 72f5 3239 27dc 8c39 5358 e438 8851 b13a
000000d0: 03c7 8e3a 775a 8a39 a444 303a b2a9 923a
000000e0: 0000 0000 1a8d 043b e554 053b 0c38 0039
000000f0: 2dc9 893a 4ed9 373b 0a68 133b 5af1 4a39
