models/checkpoint_140000.pt (torch, 125871 bytes, 33 tensors)

shared.0.weight f4 [64, 12]
00000000: 90ca 07be 1c90 1dbd 79a8 d3bc 7e10 06be
00000010: 1865 51bb 4c9d 81bd 133e efbd 9733 dd3d
00000020: eaeb 7cbc c179 b03d 2e2e 5cbe 5d94 03bd
00000030: 7180 cfbd e137 49be 2f46 11be 7809 6b3e
00000040: de05 3f3e 0534 80be a3c5 8cbe 829d 03be
00000050: e5a8 09be c5fe 013e fcf6 813d a496 9f3d
00000060: d476 3abe 8c71 ac3e 1a72 04be 56f7 403f
00000070: 721c c4bc 31c9 3bbd 464a 433e f285 b03d
00000080: 8903 b2bd 852d 493d a35f f93c 8e25 d63d
00000090: 6791 a4bd 6eeb 1cbe 6bbc 19bd 654a 4dbd
000000a0: d917 4dbe 5a6b 093d 3e5e 35be 58c0 74bd
000000b0: d31a 2cbe 5d90 e93c a924 023e 9e8f 69ba
000000c0: e57f 51bd 9330 883e 2461 5cbe 0788 7a3c
000000d0: cdd9 5fbe 4226 d1be 69a4 8a3d 94dd 173d
000000e0: d987 84bc 88ea 03bc 4ba4 fd3c 8dd8 a63c
000000f0: b4ae c7bc 1d0c c13e 5667 d7bd ef01 523f
00000100: 6228 df3c 56b6 153a 1413 ab3e 8bee 183e
00000110: 193e 813d 2145 2abe 4161 e73d 52ce 5b3e
00000120: dc6d 893d 7712 20be 008b 0c3c 6ec2 023f
00000130: c6f9 0abd 67e8 973d ea27 213e 43e5 593e
00000140: 2d2a e63d 53b9 25be 665a c6bd 87fb 91be
00000150: 757c eebd 771a 1bbe 0142 abbe 10ff 823e
00000160: fc70 6fbe 3994 df3b f658 18bd 39ed eebd
00000170: eaa7 253e a0af 743d ad52 073e 4935 a1be
00000180: 201d 183d 2776 c33c fdda 8b3e 9d5c a1be
00000190: 0dbd b3be 55bd 163d ffba 83bb 8100 d6bc
000001a0: 265f db3c 8f7d b0bd c33b 773c e6f1 8d3e
000001b0: 9d5c 7bbe 0ac2 af3d e5c4 c73d b859 4cbb
000001c0: d756 c3bd eb65 6f3d d1d2 e5be 2e28 e7bd
000001d0: 03b3 ebbe b3d7 773d 23a6 e5bd 3c18 4cbe
000001e0: 2319 81be 8f43 8c3e 8930 19bd a144 ee3d
000001f0: 575c c6bd 2a8f 483e c9af b83d f9b3 313e
00000200: 8a3c d939 b41b febd 2ad1 cbbc 4db0 6bbd
00000210: b4d8 3cbe 93a4 993d 15e3 d4bd 005b 3abe
00000220: a247 99be 264d 3b3e c28f abbd ce16 8b3e
00000230: 8007 f7bb 0863 16be aa23 2b3a 6c23 a9bd
00000240: 523b 15be 8d92 7bbe 1206 9d3c 4c1c d13d
00000250: 4c17 58be d8f9 0b3d c38b acbe ed13 c7be
00000260: 7bbf 723c de87 673e fafd cbbc e7dc b3be
00000270: a32e 0c3e 4d6b 873c ad8b 75bb 2efa f2be
00000280: 96e2 003e 1ae3 9c3e 36f7 78be 84c7 183c
00000290: 3bef 943d 6d13 7e3e 57f9 d93d ac61 8b3c
000002a0: 9865 323e cacd 58bf 2d70 4f3e 35e8 d5be
000002b0: 3206 853e 4345 8cbe 1c60 16bf 6a65 23bf
000002c0: fd3d a43c fa0f 903d 5eeb 3ebd e9f2 ecbd
000002d0: 096e adbd 3e50 873d c6e8 bbbd d3a0 d83e
000002e0: b296 003e 74c3 00bd a54c 633e 94f8 ae3e
000002f0: 4fb9 babd 6dd5 adbd ecb3 c53d ff26 1c3e
00000300: 62e6 cb3d 475f 3e3e 714c 03bb 8df9 803e
00000310: e100 c8be 6573 d0bd 88b1 363e 2d69 403e
00000320: a1d7 513d 167b 1bbd b3e3 9d3c b422 0d3d
00000330: 2fbb 343e 8a99 4a3c 2d5c e7be b1bf 063e
00000340: 5c8d aebe df91 583e 6035 473e 5bab 043e
00000350: 5a59 f03c 2636 e93d 3878 573d 2d29 2dbb
00000360: 1101 28be 77a3 533e 68c8 973d 35aa 283e
00000370: e7e7 45be 4c1f 803d 948e 423e 1ecd ac3d
00000380: 46cd 523d 49cf 8cbc bbc4 79be 417e c9bd
00000390: c631 70be 8dc3 f2bd b1a2 903c ddcc e83c
000003a0: 8805 b4be e6fe 383e 2458 0dbe 4c13 7dbe
000003b0: 6f81 0ebd a044 6d3c a3d9 5e3e 1b18 f33d
000003c0: ed41 aebd dd1e 1ebe 97ae 3c3d 5369 dabd
000003d0: 7691 aabe 67d4 f7bd 87c2 02bf 6e50 d2bc
000003e0: 88e7 2f3d 2108 cfbe ae5b b33c 3808 8cbd
000003f0: 7518 6c3d 9dea 4ebe fd08 373d 4696 50bf
-0.13260865 -0.03846751 -0.02583717 -0.13092229 -0.0031951126 -0.0632883 -0.116817616 0.108008556
-0.015437106 0.08616973 -0.21501991 -0.032123912 -0.1013192 -0.19650222 -0.14186929 0.22952831
0.18654582 -0.25039688 -0.27494535 -0.12853053 -0.13443334 0.12694843 0.06345937 0.07792404
-0.18209392 0.3368038 -0.12934151 0.75377405 -0.023939345 -0.045846168 0.19071302 0.08619298
-0.086920805 0.049115676 0.030441111 0.10456382 -0.08035546 -0.15324184 -0.037533205 -0.050119776
-0.20028628 0.033549644 -0.17711732 -0.059753746 -0.16807108 0.02851122 0.12709297 -0.0008909645
-0.05114736 0.2659956 -0.21521431 0.0152912205 -0.21860428 -0.408495 0.0676964 0.037076548
-0.016178058 -0.008051522 0.03096213 0.020366931 -0.024375297 0.37704554 -0.10517757 0.820342
0.027240936 0.0005711069 0.33412993 0.14934747 0.06310672 -0.16627933 0.112978466 0.21465424
0.06710407 -0.15632044 0.008578062 0.51077926 -0.03392961 0.07417374 0.15737882 0.21278863
0.11238513 -0.16183977 -0.09685211 -0.28512213 -0.11644832 -0.15146814 -0.33448794 0.25585222
-0.23382944 0.0068230894 -0.037194215 -0.116663404 0.16177335 0.0597378 0.13215132 -0.31485966
0.03713715 0.02386005 0.27315512 -0.3151597 -0.35105172 0.036801655 -0.0040200944 -0.026123287
0.026778769 -0.086176984 0.015089932 0.27723616 -0.24547048 0.08581932 0.097543515 -0.0031181406
-0.09538048 0.058446806 -0.44887403 -0.112869605 -0.46035013 0.06050844 -0.11213329 -0.1993112
-0.2521449 0.27395293 -0.037399802 0.11634184 -0.09685581 0.19585863 0.09017903 0.1735381
0.0004143457 -0.12407628 -0.02488001 -0.05754118 -0.1844204 0.07502093 -0.10394875 -0.18198776
-0.29937464 0.18291149 -0.08377029 0.27165836 -0.007538736 -0.14686215 0.00065284467 -0.08258709
-0.1457341 -0.24567623 0.019167934 0.10210475 -0.21102637 0.034173816 -0.3370038 -0.3888239
0.01481616 0.22610423 -0.024901379 -0.35129473 0.13689665 0.016530657 -0.0037467286 -0.47456497
0.12586436 0.30642015 -0.24313053 0.009324912 0.07272192 0.24812098 0.10643261 0.017014347
0.17421567 -0.8468901 0.20257635 -0.41778722 0.2598129 -0.27396592 -0.587404 -0.6382662
0.02004909 0.07034297 -0.046611182 -0.11569769 -0.08468253 0.06607102 -0.091752574 0.423102
0.12557486 -0.0314364 0.22197206 0.34174025 -0.09117376 -0.08487973 0.09653458 0.15249251
0.099560514 0.18591033 -0.0020034576 0.25190392 -0.3906317 -0.1017826 0.1784116 0.18790121
0.05123103 -0.03795918 0.019273615 0.034456924 0.1764953 0.012365708 -0.45187512 0.13159062
-0.34092224 0.21149395 0.19453955 0.12955992 0.029339481 0.11387281 0.052604884 -0.0026422248
-0.16406657 0.20667826 0.07411271 0.16471179 -0.19326745 0.062559694 0.18999702 0.084375605
0.051465295 -0.017188685 -0.24391453 -0.09838534 -0.23456487 -0.118537046 0.017655702 0.028417999
-0.3516047 0.18065986 -0.13803154 -0.24714392 -0.034791406 0.0144816935 0.2176271 0.11869832
-0.08508668 -0.15441461 0.04606494 -0.1066462 -0.33314103 -0.121010594 -0.51078075 -0.025673117
0.042945415 -0.4043589 0.021894302 -0.06837505 0.05764051 -0.20206685 0.044686306 -0.814793

shared.0.bias f4 [64]
00000000: 9443 83bc 3eba 853e 495e 603e d23d 833e
00000010: ee28 853e e55a 1c3e a2fc 0b3e db1b 583c
00000020: b18d 463e 03de 873e 8510 9a3d bab9 1d3e
00000030: d909 9f3e 2cfd 2cbe b443 c53d 536a 8d3e
00000040: 29ad 843e a417 793e 3c01 333e c944 673e
00000050: 705f df3d 9aec 743e 266d 643e 62dd 0f3e
00000060: 0f18 5f3e 5570 343e f16f 183e 4ca0 e63d
00000070: aed3 e03d 1dd9 803e acd9 c13d 7513 9e3d
00000080: 72d6 503e 29d0 5b3e 355f 8a3e 2ed3 913e
00000090: f75f cd3d 9ccb 863e be89 333e 001c 403e
000000a0: 9ab2 7d3e d280 373d 3e76 123e dd59 f03d
000000b0: 7ab9 583e 4563 943e d467 f13d b6f4 513e
000000c0: 2795 873e e1f3 7d3e 7805 4f3e 3a14 8e3d
000000d0: b1ca 6a3e 3650 9d3e bc5f b13d 82c7 d93d
000000e0: cd9d 423e 949f 08bd bca4 8c3e b50b 61bd
000000f0: 36d5 773e 4d06 713e 1337 613e 4266 323e
-0.016023435 0.26118654 0.21910967 0.25633103 0.2600779 0.15269049 0.1367059 0.013190235
0.19389988 0.2653657 0.07522682 0.1540288 0.310622 -0.16893452 0.09632054 0.2762018
0.2591336 0.24325424 0.1748094 0.22584833 0.10906875 0.23918381 0.22307262 0.14049295
0.21786521 0.17620976 0.14886452 0.11261043 0.10977875 0.25165644 0.09465346 0.07718555
0.20394304 0.21466126 0.27025762 0.2848143 0.100280695 0.26327217 0.17533013 0.18760681
0.24775162 0.044800587 0.14302918 0.1173589 0.21164504 0.28981987 0.11787382 0.20503506
0.26480982 0.24800064 0.2021693 0.06937452 0.22928883 0.3072526 0.08660838 0.10633756
0.19005509 -0.03335531 0.27469432 -0.054942805 0.24202427 0.2353756 0.21993665 0.17421821

shared.2.weight f4 [64, 64]
00000000: 3db1 9dbd 98d6 8d3e c92e 0dbd 8a50 7d3d
00000010: 99e2 bfbe c595 033e 447f 943e 02c0 983e
00000020: 9f5e 0abc d32f 0b3e bea2 9abe 65c7 523d
00000030: f54e 7fbe c11d dcbd 648f 0e3e 0e5e c13d
00000040: 5845 1f3e 78d0 223e 635f 83bd e87e b9bc
00000050: 169a 363e 9aa6 a8be 81cf 9a3e 7646 5ebc
00000060: c7d8 9ebc 9e93 cb3d 93d9 103e a85f 28bd
00000070: 538b 41be 0391 283d 39dc 5ebe 8b02 98bd
00000080: bcb3 8bbd ef32 dfbd 9901 8f3e 711f 2b3e
00000090: 5311 cfbc a550 743e 237a 26bd c77d 54be
000000a0: 6077 6a3e 11d1 c23e 82d3 26bf 4a06 1b3d
000000b0: e77a 7f3d 4e31 923e 10f2 123b d14f 933e
000000c0: 5303 6d3e 2f86 933e 25f6 293e 9dfa e53d
000000d0: 7f4a ba3d 3202 a03e ff1c 793f 4a01 23bd
000000e0: c898 f33d 7168 b83d 0798 693e f813 1fbe
000000f0: 6269 a83e 2dbe a73d dfd2 6a3c 9b44 f63d
00000100: c6b6 ef3d 6db6 833e d5ea a13e f79d 6d3e
00000110: 900f cbbe 42e4 f53d 6318 713d a03f a83e
00000120: e6b8 0dbe 93f3 d13d 061c 863c 78fd 9a3d
00000130: 81c1 573d 8dcd 32be 240e 6b3e 5e63 5e3e
00000140: f114 793d decc 003f bdd6 9a3d 3af5 083d
00000150: 95e6 063c 7603 91be 1dde e53d 569c 183e
00000160: 12d9 123e a4a2 633e 8949 b1bc 8b4d d33d
00000170: 0236 c6bd 8094 b13d b4f9 c5bd f8b2 063e
00000180: d643 a93d 055a 2d3d be81 b0bc 1500 82bb
00000190: 1893 a7bd e9f1 a83e 1eb1 72be 2a09 88be
000001a0: 51c4 bb3d 4bc4 683e b9a7 2dbe 9789 0cbd
000001b0: 5f36 14be e07d b93d 04b3 cebd 033c 6a3e
000001c0: c128 053c 2ad6 083e 5591 043e 6275 2a3e
000001d0: cf4f 5b3d 9b3c c03e 8a6c 813f 26ca 86bd
000001e0: e44b 1d3e baad 65be 5ebe 51bd ec39 a3be
000001f0: 54e2 83bd 793c febc 2b2f 593e b86d 463e
00000200: cd1e 54bb 513b bf3e a814 013e 18b2 2c3c
00000210: 6c9b 38bf 213e 103a 972e 8c3e d8e7 993e
00000220: 7b6e f93d 2caa 953e 44f1 c2bd 4121 f93c
00000230: 823c f4bd 11d9 12be d052 fb3d 94c4 563e
00000240: 9b2c 1b3e d932 ea3e 8356 39be cb16 55bd
00000250: 3455 a03e 4716 98be 6f95 8d3e 01bb 0f3e
00000260: 1ed5 6b3e 7d21 d33d 9d48 37bd ff78 783e
00000270: 3dd7 d43d 3967 223e 7f87 87be 0a4c f53d
00000280: 4631 833e 297f 893e fdab 923d cb25 603e
00000290: 2350 80bd cf7e a93e 5bb5 87bc 522b 5abc
000002a0: 9470 333d 3ca0 bd3e c4a8 2cbf 33be 5abe
000002b0: 1087 a13c 9772 9b3e bf65 003e 83d5 9b3e
000002c0: 9636 0c3d e1ef e63c 8045 bfbc 761b 03bc
000002d0: fb7f ca3e ba9f 043e 15f0 9f3f dc6b 403e
000002e0: cbf5 b3bc 8cef abbe 4f34 383e 5a20 c4be
000002f0: c63a 913e 4b1e 3cbe 1e12 693e 417b 2a3c
00000300: a6e0 3d3d 9afd 92bd c254 0fbf 63e5 e2bd
00000310: a853 04bd e041 c5be 9f09 e0be 1c2d 84be
00000320: d1e7 163e d2f1 cebe df58 5dbe 7e16 0cbe
00000330: c458 ef3e 4f4f 313e 4a5d 0c3f 4eb5 dbbe
00000340: 9d73 0abe 86ce 9cbe f6d8 a6be d55f 343d
00000350: 05d8 7b3e 41ae c43e 93b4 d0be 3f7c e83b
00000360: ceaf 6e3e 8cd7 bdbe 6a35 70bd 43b7 07bf
00000370: 9c13 2c3f 1c6e 743e b00d 103f 5f3f f9be
00000380: e4fa 973e 1631 81be fbc9 a9be 5527 38bf
00000390: 45ea f2be 1627 3ebf befd de3e 0918 183f
000003a0: 122f c13e fd8a 8bbf b283 9e3f 0952 1d3f
000003b0: e8e2 06bf f842 4cbf 44f2 c1be 7211 c73e
000003c0: 5574 95be 435e 6c3c bcec 333e 4655 61be
000003d0: d642 133e b939 1dbc 2096 36bf aa9a 99be
000003e0: 45d9 5dbe 23ff 3a3e 6f40 babd 6a20 f03d
000003f0: 67ca 14be 4dcb 1c3f 1c4e b0bd a951 cf3e
-0.07699821 0.27702785 -0.034468446 0.061844386 -0.37477568 0.12850101 0.29003346 0.2983399
-0.008445411 0.13592462 -0.30202287 0.05145969 -0.24932463 -0.107478626 0.13921887 0.09441768
0.15553796 0.15899837 -0.06414678 -0.022643521 0.17832217 -0.32939607 0.30236438 -0.013566604
-0.019390477 0.09940265 0.14145498 -0.04110685 -0.18900804 0.04115392 -0.21763696 -0.0742236
-0.06821391 -0.10898387 0.27930906 0.16711213 -0.025276816 0.23858888 -0.040643822 -0.20751105
0.228971 0.3805013 -0.65166485 0.037847795 0.06237307 0.28553241 0.0022422113 0.28771833
0.231458 0.2881331 0.16597803 0.11229441 0.0909624 0.31251675 0.9730987 -0.03979615
0.11894375 0.090042956 0.228119 -0.15534961 0.328929 0.0819057 0.014332502 0.12024804
0.11704783 0.25725117 0.31624475 0.2320479 -0.3966031 0.12006427 0.058861148 0.32861042
-0.13840064 0.10251536 0.016370784 0.075678766 0.052674774 -0.17461224 0.22954613 0.21717593
0.060810987 0.503126 0.07560489 0.03343699 0.008233686 -0.28322953 0.11224005 0.14903387
0.14340618 0.22230011 -0.02164151 0.103175245 -0.0967827 0.08670902 -0.09666768 0.13154209
0.08264892 0.042322177 -0.02154624 -0.003967295 -0.08182353 0.32997063 -0.23700377 -0.26569492
0.09168304 0.2273113 -0.16958512 -0.034310903 -0.14473866 0.09057212 -0.10092738 0.22874455
0.008127392 0.13362947 0.12946065 0.1664634 0.05354291 0.37546238 1.0111248 -0.065815255
0.15360981 -0.22429553 -0.05120694 -0.31880128 -0.06439653 -0.031034695 0.212094 0.19377792
-0.0032366992 0.37349942 0.12605536 0.010540508 -0.72112155 0.0005502422 0.27379295 0.30059695
0.121792756 0.29231393 -0.09518674 0.030411365 -0.119256034 -0.14340617 0.122716546 0.20973426
0.15153734 0.4574192 -0.18099408 -0.05202369 0.31315005 -0.29704496 0.2765307 0.1403618
0.23030517 0.10309122 -0.044746984 0.24264906 0.10392616 0.15859689 -0.26470563 0.11977394
0.2562353 0.26854828 0.071617104 0.21889417 -0.06265285 0.3310456 -0.01656597 -0.013315992
0.043808535 0.37036312 -0.67445016 -0.21361618 0.019717723 0.30360863 0.12538813 0.30436334
0.034231745 0.028190555 -0.02334857 -0.008002153 0.39550766 0.12951556 1.2495142 0.18791145
-0.02196779 -0.33581197 0.17988704 -0.38305932 0.28365153 -0.18370931 0.22760817 0.010405363
0.04635682 -0.07177277 -0.55988705 -0.11078908 -0.032306343 -0.3852682 -0.4375734 -0.25815666
0.14736868 -0.4041887 -0.21615933 -0.13680455 0.4674741 0.1731541 0.5482985 -0.42911762
-0.13520665 -0.30626315 -0.32587403 0.044036705 0.24594124 0.38414195 -0.40762767 0.0070948894
0.23309252 -0.37078512 -0.05864469 -0.5301401 0.6721742 0.23870128 0.56270885 -0.4868116
0.29683602 -0.25232762 -0.3316191 -0.71935016 -0.47444358 -0.7427839 0.43552965 0.59411675
0.37731224 -1.0901791 1.238394 0.614533 -0.5268998 -0.79789686 -0.37880147 0.38880497
-0.29190317 0.014426771 0.17570776 -0.22005185 0.14380965 -0.009596282 -0.7132282 -0.30000812
-0.21664913 0.1826139 -0.09094321 0.117249325 -0.14530335 0.6124771 -0.08608648 0.4049199

shared.2.bias f4 [64]
00000000: b631 313e 7a57 583e e804 573e 88ea 8abd
00000010: 9e13 babc 6edf 3f3e 9414 2fbd 5762 523e
00000020: 9ce6 02bc b94d 563e 0000 0000 d83f 403e
00000030: a628 4c3e 0b03 463e 9ec0 343e ca86 a7bb
00000040: 3097 243e 5eeb 493d 50cb 203e e031 1d3e
00000050: 2323 643e 0654 2b3e ff6a c5bc e94f 163d
00000060: d837 4c3e d161 293e adcc 613e bd1c 2c3e
00000070: 291c 3c3e 78a8 243e a017 3f3e a107 603e
00000080: d3c9 113e 000c 1bbc fb8b 1b3e fbda 3a3e
00000090: bd4d 6a3e 7d22 0bbd bb42 383e d008 683e
000000a0: 99d8 39bb edaa 1bbc 412a 123e 5f57 363e
000000b0: 3801 b4bc a502 633e 19d8 0bbd f642 b4bc
000000c0: b385 4e3e 57d4 1bbc 27b3 2e3e 8dab 8c3e
000000d0: 30d5 593e 156d 93bc 1076 423e af45 5a3e
000000e0: 343d 8c3d 4439 ccbd 4e38 263e b20a 4dbc
000000f0: 5df3 1cbe ac8d 3e3e bfc8 8b3e 90eb 8f3e
0.1730412 0.2112712 0.20997965 -0.067830145 -0.022714432 0.18737575 -0.042744234 0.20545326
-0.007989552 0.20928086 0.0 0.18774354 0.19937381 0.19337098 0.17651603 -0.0051125037
0.16073298 0.04929673 0.15702558 0.15351057 0.22279029 0.16731271 -0.024098871 0.036697302
0.19943178 0.1654122 0.22050734 0.16807838 0.18370117 0.1607989 0.18661356 0.2187791
0.14237146 -0.00946331 0.15190117 0.18247597 0.22881217 -0.033968437 0.17994206 0.22659612
-0.0028357862 -0.009501201 0.14273931 0.17806767 -0.021973237 0.22168978 -0.034141634 -0.022004586
0.2016819 -0.009511075 0.17060529 0.27474633 0.21272731 -0.01799635 0.1899035 0.21315645
0.06847611 -0.0997186 0.16232416 -0.012514757 -0.1532721 0.18608731 0.27301595 0.28109407

actor.0.weight f4 [32, 64]
00000000: 37f5 93bb eeaa 673d 94f1 e73d 427f d93d
00000010: 483f b5bd 2599 0cbd 7dc8 8cbc 07bf 373e
00000020: dfee 8d3d f145 743e ac46 35be 8586 aabe
00000030: b10b fcbb 3a6e 6cbd cf6a 13be 3810 1f3e
00000040: e881 7dbd d655 b93e af09 95bd c0eb 70be
00000050: 8e91 0cbe 382f 323d ba3f b43c 7273 2ebe
00000060: 705c 393e 82cb c7bc 50a2 6cbd 8a81 b13c
00000070: 986d 7f3d 3419 a03e ec7b 0cbe d6b0 333e
00000080: 317c 453e 0b5e 5bbd 558b 573e 7c28 c9bd
00000090: cf3f cd3c c014 20bb 62f2 7ebd f990 0f3e
000000a0: 14f1 823b 2446 613e b746 debd d9d5 043e
000000b0: 920a c3bd 52b9 7fbd f164 8ebd 81db ba3a
000000c0: 2cab 853e 3472 88bd 8eef 51be 7951 233e
000000d0: 4ce9 a23d a0d2 7ebc b629 b73d 623e 0ebe
000000e0: 9554 9b3d c6c9 093f 65f3 1dbe 31be 953d
000000f0: d170 293e e624 433b 4ca6 c4be 3da4 1fbd
00000100: 5783 f93c 0b79 383e b0b2 773e 21b6 27be
00000110: e245 d63d 315a 41be 8f98 743d 8287 eebd
00000120: 9420 8abd 1a3f d2bd fc8d ae3d 2d11 043e
00000130: 9a79 9ebe a228 3fbe c31e f6bc f0dc 5e3e
00000140: 4785 873e 9c84 77be 7388 193e 510d f73d
00000150: 12e7 f8bd b791 1a3e c12d 2dbe 7a52 763e
00000160: b193 db3c e9c2 c0be 8451 423e ea2a 9e3d
00000170: 5acf 47bd 3fc2 17be 8259 493d e241 e7bd
00000180: 9986 5c3d 10c1 0bbd f17c ff3c 65ea a43d
00000190: f853 4d3d 6e03 2d3e 43ca 4f3d a7ef d53d
000001a0: 1689 0a3d e460 163d d215 fe3c 737b d63d
000001b0: 85b9 873d e299 853e 68a3 44be a732 ef3c
000001c0: cb97 a03d 9063 253e e01f c33d bcd6 ea3d
000001d0: 0a68 8a3e 3e3b 81bc 485e d13c 6118 763e
000001e0: 2ccc b03d f25d 38bf 78a0 bf3c 7a18 99bd
000001f0: 04dc cabe 36a7 ddbd 3b33 a43d 638a e73d
00000200: f070 483d 1cb5 b1bc 4edb 32be 6737 9bbd
00000210: 7259 ab3d eab2 a03c af8f bd3c 1097 e83c
00000220: f960 35bd 4798 993c 9e9c 4e3d c3c7 a1bd
00000230: 4859 75bc f9a0 4ebe 2980 7b3e 4156 93bc
00000240: 13b8 2e3e ba36 6fbd cf4c e93c 4355 383d
00000250: 681a 22be 1bc5 babc 04f5 fb3d 5259 39bd
00000260: cce2 453e b8db 383d 851a 19be b503 763d
00000270: 62a8 9d3e ae56 77be 843f 023d 26cd 43be
00000280: 9153 6dbd f681 19be 5175 1dbd 10f3 6ebe
00000290: 8430 383e 9cde 833e df0d febd 7f58 99bd
000002a0: d46b 4bbc 06ad 8c3d 3d18 cf3c 0933 5dbe
000002b0: a039 803e fe82 d6bc 5c8c f33d 4877 533c
000002c0: 23ee f23d 91ab 15be aca1 30bd b66c 9a3c
000002d0: 992e e4bd 1d64 0bbc 76ab 1abd 9e7a c93d
000002e0: 3087 cb3d a136 623e 0a38 afbd d48e 143e
000002f0: cfd7 b83c 9d49 92bd 52fc e93d 74d4 cc3d
00000300: 1574 803e e2b8 523e 3e12 983d 3184 0ebe
00000310: 54ba e23c fcf8 5b3d 3dc6 613e afbc 5fbe
00000320: 9e70 e53c 1925 853d d1a8 10bd f492 cebd
00000330: 7329 20bd 6df8 24be 68ee 84bc 0753 5a3d
00000340: 44be 883c 70dc 22bd 1485 003e 51fb eb3d
00000350: 5c65 82bd 9b48 0abe 0c1f 6cbe 909e 47be
00000360: 5b7a debd 6528 293e 20ba f7bd f278 193e
00000370: 4414 4d3e 4f0c 1e3e ef58 5abd 7605 08bc
00000380: 39e9 6d3d b37f 423e 2096 123e a34a c6bd
00000390: 6fbe 323d e767 0cbe efff 24be a349 21be
000003a0: 493a c7bd e169 82bd e5f8 fbbd ae5e 933b
000003b0: f964 a73d e6b8 e1bd d91f 6e3e 0ac4 3e3e
000003c0: 3a27 48bd 4ce4 da3d 1f9a 54be 806f 73be
000003d0: cf8b b43b 30b6 37bc a659 c1bd 6714 b7bd
000003e0: 54c1 80be 03ed 92bd 9ddc 323e 45cb d4bc
000003f0: 1198 15bd 172f 75bd b22d 0b3c 321c 11be
-0.004515316 0.056559496 0.11325374 0.106199756 -0.088499606 -0.034325738 -0.017185444 0.17943965
0.06930327 0.23854806 -0.1770274 -0.33305755 -0.0076918234 -0.057722308 -0.14396213 0.1553353
-0.061891466 0.361983 -0.072772376 -0.23527431 -0.137274 0.043502063 0.022003043 -0.17036226
0.18101668 -0.024389032 -0.05777198 0.021668214 0.062360376 0.31269228 -0.13719147 0.17547926
0.19285657 -0.053556483 0.21049245 -0.09822175 0.02505484 -0.002442643 -0.062242873 0.14020146
0.003996024 0.21999413 -0.108533315 0.12972201 -0.095235005 -0.062432595 -0.06952847 0.0014256091
0.26107156 -0.066624075 -0.20501539 0.15949048 0.07954654 -0.015553147 0.089435026 -0.13890985
0.07584492 0.53823507 -0.15424879 0.07311667 0.16546942 0.0029776632 -0.38408124 -0.03897499
0.030458136 0.18014924 0.24189258 -0.1637807 0.10462548 -0.18882062 0.059715804 -0.1164694
-0.06744495 -0.10265942 0.08523175 0.12897177 -0.3095215 -0.18667844 -0.030043965 0.21763968
0.2646887 -0.2417168 0.14993457 0.12063087 -0.12153448 0.15094648 -0.16911985 0.240549
0.026803823 -0.37648705 0.18976408 0.07723029 -0.04878173 -0.14820193 0.049157627 -0.11291863
0.0538393 -0.034119666 0.031187506 0.0805252 0.050128907 0.1689584 0.05073 0.10446101
0.03382214 0.036713496 0.031016264 0.10472765 0.06627182 0.26093966 -0.1920296 0.029198958
0.07841452 0.16151261 0.09527564 0.114667386 0.270325 -0.01577532 0.025557652 0.24032737
0.08632693 -0.7201835 0.023391947 -0.07475372 -0.39620984 -0.108229086 0.08017584 0.11305692
0.04893583 -0.021692805 -0.1746647 -0.075789265 0.0836667 0.019616563 0.023139803 0.028392345
-0.044281933 0.01874937 0.05044233 -0.0789943 -0.0149749 -0.20178594 0.24560608 -0.017985465
0.17062406 -0.0584018 0.028479008 0.045003187 -0.15830386 -0.022799065 0.123025924 -0.045251198
0.19324797 0.045131415 -0.14951523 0.06006213 0.30792528 -0.2415416 0.031798854 -0.19121227
-0.057941023 -0.14990982 -0.03844196 -0.23334908 0.17987257 0.25755775 -0.124049895 -0.074875824
-0.012415845 0.06868939 0.025280112 -0.216015 0.25043964 -0.026185509 0.11892006 0.012906857
0.11861827 -0.14616229 -0.043122932 0.018850666 -0.111417 -0.008507756 -0.037761174 0.098378405
0.09937894 0.22091152 -0.085556105 0.1450761 0.022563843 -0.07142947 0.114250794 0.1000146
0.25088564 0.2057834 0.074253544 -0.13917615 0.027676739 0.053704247 0.22048278 -0.21849321
0.028007802 0.065012164 -0.035317246 -0.10086623 -0.03910203 -0.16110392 -0.016226962 0.053301837
0.016692288 -0.039761007 0.12550765 0.11522544 -0.06366989 -0.1350426 -0.23058718 -0.1949408
-0.10863181 0.16519316 -0.120960474 0.14987543 0.20027262 0.15434383 -0.05330747 -0.008302083
0.058083747 0.18994026 0.1431508 -0.096822046 0.043638643 -0.1371151 -0.16113256 -0.15750746
-0.09727914 -0.06367851 -0.12303332 0.0044973707 0.08173556 -0.11021595 0.23254336 0.1862947
-0.048865534 0.106880754 -0.20761918 -0.23773003 0.0055098305 -0.0112128705 -0.09440927 -0.08939438
-0.25147498 -0.07174113 0.1746697 -0.025975833 -0.036521975 -0.05985936 0.008494781 -0.14170912

actor.0.bias f4 [32]
00000000: b7f8 083d 3853 f1bb 62f0 95bb 54ea 95bc
00000010: e455 d1bc 1880 4dbc 4bfa e939 fd2d 41bb
00000020: 4549 22bb 3dca 05bc 8b84 15bc 5e3b ea3b
00000030: 1465 fe3c d586 60bd 488f 7b3c 297b c9bc
00000040: 2811 7abb 1780 e93c d9ae 3bbd 9553 fcbb
00000050: 4d2f 433d 1d96 f0bc 5707 2dbd c4ea 05bd
00000060: afc6 20bd 380a 02bd 0000 0000 14e2 87bd
00000070: d1eb 663d 3090 98bc ef2e 22bc 455d 423d
0.033440318 -0.007364657 -0.004575775 -0.018300213 -0.025553651 -0.012542747 0.00044627706 -0.0029476874
-0.002476291 -0.008165893 -0.009125839 0.0071481904 0.031054057 -0.054816086 0.015353985 -0.02459486
-0.0038157199 0.02850346 -0.045821045 -0.0077003934 0.04765253 -0.029368455 -0.042243328 -0.032694593
-0.03925198 -0.031748027 0.0 -0.06634918 0.056377236 -0.018623441 -0.009898885 0.04745223

actor.2.weight f4 [2, 32]
00000000: 2a1c 9f3d 388a 03bf b324 d93c ccc6 78bd
00000010: e58c bbbd b40d 8f3e 68f5 6abf 64fc 073e
00000020: 1a53 313e dc3f d4bd fed0 6e3e 34b5 483d
00000030: 821f d43e 583c 7dbe 344a eebd 0c25 0dbf
00000040: fb47 b13e ec65 f53d 4a9a 0ebf db6a a53d
00000050: ce81 0e3f 75af 5c3d d3b3 74bf a4e7 48bf
00000060: 218e 96be 4a16 19bf fb71 a6bd 2e1d 96be
00000070: 33b0 9c3e 6e4f 2a3d 4e44 41bd 8397 aa3e
00000080: 75d1 89be fa2f b13e bea9 4c3b f2a0 e0bc
00000090: 1cf6 613e d6ad 82bd 15eb ee3e ed3f ae3e
000000a0: f182 673d a7c2 36be 6fbb 0d3e 9912 163e
000000b0: e253 4ebe d87c 973e 2ebf a9be d818 2a3f
000000c0: 12ad eabe bba2 ccbe f831 083f 8663 0ebe
000000d0: 81db c0be c0d3 b4bd 1ae5 f03e 1ddc 0b3f
000000e0: 133f 083f 443b dc3e cb09 a8be 6937 a63d
000000f0: 8c17 41be 8134 9bbd 5c38 8abe 4a48 1dbe
0.07769044 -0.5138278 0.026506757 -0.060736462 -0.09157733 0.27940142 -0.9178071 0.13279873
0.17316857 -0.10363743 0.23321912 0.049000934 0.4143029 -0.2473005 -0.11635247 -0.55134654
0.3462523 0.11982331 -0.55704176 0.08077022 0.55666816 0.053878266 -0.9558689 -0.78478456
-0.2940531 -0.59799635 -0.08127209 -0.29319137 0.3060318 0.041579656 -0.04718428 0.3331872
-0.26917616 0.34606916 0.0031229104 -0.027420495 0.2206654 -0.06380813 0.46663728 0.34033147
0.05652136 -0.17847691 0.13841031 0.14655532 -0.20149186 0.29587436 -0.3315367 0.6644416
-0.45835167 -0.39967903 0.53201246 -0.13905153 -0.37667468 -0.088294506 0.4704979 0.5463274
0.53221244 0.43013966 -0.3281997 0.081160374 -0.18856639 -0.07578374 -0.26996124 -0.15359607

actor.2.bias f4 [2]
00000000: 4492 393d 4392 39bd
0.045305505 -0.0453055

critic.0.weight f4 [32, 64]
00000000: 00af fdbd bade 4d3d b299 b43d 98f9 57be
00000010: 7a41 b6bd 61b4 213e c9b6 abbe 142a 8fbd
00000020: bb7a 08be 5cb4 94bd 4f14 46bd 99c3 663d
00000030: 09a3 2bbe 78bb 593e 4c5c 983d 1a33 57bc
00000040: 4ad5 d6bd a18c 20be d52d c1bd f972 c1bd
00000050: 50fd e83d ca12 23be 2074 85be d1ce 8bbc
00000060: 8e22 dfbd fb2e 96bd 7584 8abe aad4 74bd
00000070: be03 303d 860e 4a3d 37cf f8bd 104e 9a3d
00000080: 18fb cf3a 15d7 ec3d aa4d a8bd f21a 143e
00000090: f130 003b c40b 56bd fd35 873d eb8c a6bd
000000a0: fd0c 173e 26ae 913d 02d3 2d3d 5035 60bc
000000b0: d6e4 7c3e 3237 0ebe de56 a53c 0e6c 613d
000000c0: 656e 393e a037 8ebd 63ea 523e 5729 04be
000000d0: 8106 1ebe 3800 a03d cad3 0b3d 56eb c93d
000000e0: 9d02 b93d 3a37 88bd d05b 0e3d 8e9e e43c
000000f0: 23ff 263e 2033 4ebe 2a1e 9ebd 5ca9 fdbc
00000100: e5a2 c13e 03a6 20bb c061 9a3e 0fbb 05c0
00000110: 238a 74bd 6854 5c3e 0245 1fbd dcea 173e
00000120: a87a 06be f9d6 933e 9c0b 33be f6e4 db3d
00000130: d713 123e 9dce df3d 36fe ab3d 9f6f 743d
00000140: 7d36 093e b446 db3d a493 2a3e aa0c ef3d
00000150: 1beb c33d 6413 e53d 288c cf3d 0d7f 7ebf
00000160: 2169 273e 0c12 b53e a6ca d53d f1a7 c0bc
00000170: bf64 413e b0c2 ca3d 1c9e 873e 4b72 f13d
00000180: 3cb1 973e de39 423d a3ed 403b ebd3 173e
00000190: ca0e 583d 7d68 e9bf d21e 393e 78d3 953e
000001a0: 60a4 2abe 0b6f 67be c056 1ebd 9c07 a43e
000001b0: 1c6a 443e 1550 f2bd f52e 093f eef2 d2bc
000001c0: 0a34 833e 565d 9c3c c075 8e3e 1c88 3d3e
000001d0: 5ed5 873e 1c72 15be f109 87bc da17 c83d
000001e0: 2c38 78bf d251 41be 6d3b 9b3d 55aa 843d
000001f0: 5145 7ebf 697b dabd 34fc 833e aae5 ef3d
00000200: dbf5 c5bd c7f3 2d3e db70 20bd e477 f33c
00000210: 6ece 133e 2f44 d2bd 344d 233e 6155 1d3b
00000220: 1aca 65bd 58d4 21be b033 163d 36d2 c33d
00000230: 8239 b0b9 4921 5dbd c7c4 debd 4bba 203e
00000240: d131 e8bc b16f 8ebc 75c9 a3bd 4062 8bbe
00000250: d678 523c f072 423c 9b67 be3d 7bcc 8cbc
00000260: 04cf 25be d931 d33d 09ee 03bd 655b 5cbe
00000270: e36e 8fbe fde7 373e bd63 0b3d 49e8 97be
00000280: 4c3e 2c3e 26e5 323d 81b3 0dbc 7f72 54be
00000290: 7bec 393e a948 ebbd de07 333e c218 39be
000002a0: 5aa8 293e 36a5 113e 151c f9bd 0f4b 833e
000002b0: a354 223d 0ac8 d5bd 0ed1 ecbc e2e9 6c3c
000002c0: 6c6a 2ebe edd7 a4bc ba63 fa3c 1d03 4abe
000002d0: 6600 2bbe e038 3e3d 2286 343d a77c bdbc
000002e0: 0b08 c9bd 8141 a2bc 798e cebd 7423 473d
000002f0: 2be4 90bd 071d 9c3d 70b7 0cbd 4efe e2bd
00000300: 78b4 c43d e60b 8c3e cfba 3dba f4f3 0dc0
00000310: ffdf e0bd 7bbe 8e3e db6c a6bd 039a c73d
00000320: e154 17be 2dfb 9e3d 5894 183e 92db 79bc
00000330: 0131 ea3d 0682 49bd 42a7 a33d 193d b13d
00000340: 73c5 453e 801e 4d3e 82a2 323e 8149 443e
00000350: 03e5 183e 0442 693d 20e6 8ebc 6ae2 b1bf
00000360: 808e 88bd 77cf 253e 8f7a 7b3e 7cda f63d
00000370: b756 a53d dc94 8b3e 0e58 833e ea4e 903e
00000380: 5215 533e 1836 2fbe 6015 09bd 0f16 733e
00000390: c014 653e b006 e5bf 89ff 1b3d 7aa5 693e
000003a0: 9cee 52bd 6677 433e 815b 3f3e 611a 383e
000003b0: 0a42 00be 0081 183e 3610 b43e e530 6f3e
000003c0: 826f 193e e69f a43d 1ba1 073e 16cc a93e
000003d0: 8c03 5d3c ba15 13be 2e5b c63e 4488 383e
000003e0: be7c 38bf 83ef 49be cd6b 4f3e 71c8 06be
000003f0: d6ec 70bf 601e 003d 5699 b13d 0609 6b3e
-0.12386894 0.050261237 0.088183776 -0.21091306 -0.088992074 0.15791465 -0.33537892 -0.06990448
-0.13328068 -0.07260963 -0.04835921 0.05633888 -0.16761412 0.2126292 0.07439479 -0.013134742
-0.104899004 -0.15678646 -0.0943257 -0.094457574 0.113764405 -0.15925136 -0.2606516 -0.017066391
-0.10895263 -0.073331796 -0.27054182 -0.059773125 0.04297232 0.049330257 -0.12148898 0.075344205
0.0015867678 0.11564461 -0.08217938 0.14463404 0.0019560421 -0.052257314 0.06602094 -0.08132347
0.14751048 0.07113294 0.04243756 -0.013684586 0.24696669 -0.13888243 0.020183023 0.05503469
0.18108518 -0.069442034 0.20597224 -0.12906395 -0.15432169 0.07812542 0.034137525 0.0985934
0.090337016 -0.06651159 0.034755528 0.027907636 0.16308264 -0.2013669 -0.07720597 -0.030964546
0.3781959 -0.0024513013 0.30152702 -2.0895422 -0.05970205 0.21516573 -0.03888417 0.14835685
-0.13132727 0.2887495 -0.17484897 0.1073703 0.14265381 0.1092808 0.08398096 0.059676763
0.13399692 0.10706845 0.16657883 0.11672337 0.09566327 0.11185339 0.101341546 -0.99412614
0.16348697 0.3536533 0.10439043 -0.02351758 0.18886088 0.09900415 0.26487815 0.11789378
0.29627407 0.047418468 0.0029438518 0.14826934 0.05274848 -1.8235012 0.18078163 0.292629
-0.16664267 -0.22600953 -0.03865695 0.32037055 0.19181103 -0.11831681 0.53587276 -0.025750604
0.2562564 0.019087475 0.2782421 0.18508953 0.26529974 -0.1459431 -0.016484233 0.09770174
-0.9696071 -0.18878868 0.07579694 0.06477801 -0.9932452 -0.1066807 0.25778353 0.11713727
-0.09666034 0.16987525 -0.039170127 0.029720254 0.14434215 -0.10266911 0.1594742 0.0024007189
-0.056100942 -0.15803659 0.036670387 0.09561579 -0.00033612183 -0.05398682 -0.10877376 0.15696065
-0.028344067 -0.017387243 -0.07997409 -0.27223396 0.012846192 0.011868224 0.09297105 -0.017187348
-0.16192251 0.10312242 -0.03220943 -0.21519239 -0.28014287 0.1795959 0.034030665 -0.29669407
0.1682064 0.043675564 -0.008648754 -0.20746802 0.18156616 -0.11488468 0.1748347 -0.1807585
0.16568127 0.14223179 -0.12163559 0.25643203 0.039631497 -0.10438545 -0.028908279 0.014460059
-0.17032784 -0.020122493 0.030565131 -0.1972775 -0.1669937 0.04644096 0.04407323 -0.023130728
-0.09815987 -0.019806625 -0.10085768 0.048617795 -0.070747696 0.07622724 -0.034354627 -0.11083661
0.09604734 0.27352828 -0.00072376145 -2.2180147 -0.10980224 0.278797 -0.08126231 0.09746172
-0.14778472 0.07762752 0.14900339 -0.015250104 0.11435128 -0.049196266 0.07990886 0.086542316
0.19313602 0.20031166 0.17444804 0.19168665 0.14931111 0.056947723 -0.017443717 -1.3897221
-0.06667805 0.16192423 0.24558471 0.12053391 0.0807318 0.27262008 0.25653118 0.28185207
0.20613602 -0.17110479 -0.03346765 0.23738883 0.22371197 -1.7892666 0.038085494 0.2281703
-0.051497087 0.19088516 0.1868725 0.17978813 -0.12525192 0.1489296 0.35168618 0.23358496
0.14983943 0.08038311 0.1324505 0.33163518 0.013489615 -0.14363757 0.3874144 0.18020731
-0.7206534 -0.19720273 0.20255966 -0.131624 -0.9411138 0.031278968 0.08671825 0.22952661

critic.0.bias f4 [32]
00000000: 0000 0000 397e 5f3e 249a 2bbc 6b5f 1a3e
00000010: 03b4 6e3e 7312 4b3e 9354 bd3c 8f7a 253e
00000020: 928d 203e 984e 393e 0c2e ecbb c6d9 143e
00000030: dc81 3f3e b157 133e 590f 383e 7f26 16bb
00000040: dbf7 9bbb 4654 ed3c e243 1e3e f8e1 05bc
00000050: 45ed 553e 0b56 1a3e 3772 16bc 4147 413e
00000060: fa42 933d 4924 203e 82b2 123c 8a63 1c3e
00000070: c178 6dbc 9439 2b3e 6f08 ecba 8599 1c3e
0.0 0.21825494 -0.010473762 0.15075462 0.23310857 0.19831257 0.023111617 0.16160034
0.15679005 0.18096387 -0.0072076377 0.14536199 0.18701881 0.1438892 0.17974605 -0.002291113
-0.0047597713 0.028970849 0.15455583 -0.008171551 0.20891292 0.15071885 -0.009182504 0.18874837
0.07190509 0.15638842 0.008953692 0.15272346 -0.014494122 0.16721183 -0.0018007885 0.15292938

critic.2.weight f4 [1, 32]
00000000: c043 373d 444a 8abe bfa6 223d 2b60 f6be
00000010: e5a2 85be 7068 e2be 1169 153f 0f9f 26bf
00000020: 5b14 d5be 3b0a a9be c23f 383b 2799 f1be
00000030: e2df 95be 9122 bdbe fc8d efbe 5ac6 f63c
00000040: 66cd 533e 6922 0e3e 2961 d9be 7859 8f3e
00000050: 83a7 eebe 744d a3be b6db b2bb b801 f0be
00000060: f696 013f 9037 c8be 86d2 813f 28f7 0bbf
00000070: 0576 c03d b87c 02bf c2c2 0fbd 4aff cd3f
0.044742346 -0.27009785 0.039709803 -0.48120245 -0.2610084 -0.44220304 0.58363444 -0.65086454
-0.41617092 -0.33015618 0.0028114174 -0.47187158 -0.29272372 -0.36940435 -0.46788013 0.030123878
0.20683822 0.13880314 -0.4245694 0.27997947 -0.46612176 -0.3189503 -0.0054583205 -0.4687631
0.50620973 -0.3910489 1.0142372 -0.54674006 0.093975104 -0.50971556 -0.035097845 1.6093533

exp_avg f4 [64, 12]
00000000: 0400 0000 0400 0000 0400 0000 0400 0000
00000010: 0400 0000 0400 0000 0400 0000 0400 0000
00000020: 0000 0000 0400 0000 0000 0000 0400 0000
00000030: dfb4 82bb 63c2 053a c0f9 923b 27f1 a639
00000040: 1afe a23a bdf5 eaba fea1 9839 63c2 053a
00000050: db06 a2b9 d7e9 15ba 3d2f de3a 9e1c 2dbb
00000060: 09a3 89bb 8a4b 5038 7a17 e03a 482f c1b9
00000070: 027a 2b38 1f42 613a 4b85 5c39 8a4b 5038
00000080: 252c d3b9 e405 25b8 325d ed39 0fa0 0bbb
00000090: ff7d d2ba e10d c939 205b 633b 8f21 6e3a
000000a0: 471a 133b fa04 5b3a 16ce d739 e10d c939
000000b0: ce2a 0b3b b9fa 0d3b 64b5 0e3b 0675 23b9
000000c0: 5723 a53a 833a ccb9 0400 0000 4957 0237
000000d0: 89f4 8cbb 1eb6 d639 dbe8 d838 833a ccb9
000000e0: df50 673b c12d f23a 2e5a e33a bd63 9eb8
000000f0: a5dc 90ba 9c18 c138 7895 213a 1a5b f137
00000100: f55b dd38 9efd a93a 43eb bd38 9c18 c138
00000110: 64a6 ef36 0975 cc38 a732 1db8 176e 57b9
00000120: 6b19 4e3a 8bb6 deb8 ddca d7ba e1ca 25b9
00000130: 0710 03ba dd81 623a 2c9e 30b9 8bb6 deb8
00000140: 29ba 99ba 5752 b0ba 453e bbba b362 8d3a
00000150: cb18 e4ba 1666 84b9 0000 0000 959b b0b9
00000160: fa1b 77b9 542a 5039 6adf 1439 1666 84b9
00000170: 15b2 cdba 38c2 a33a 8499 a4ba 3a5f 01ba
00000180: 0722 52ba bbff 8a39 fa18 513b 3509 083a
00000190: 8f4c d73a ecd4 50b9 90a1 c239 bbff 8a39
000001a0: 690f e03a 58b7 d63a fe40 e83a 1769 3a39
000001b0: c5d3 c9ba 2854 ac38 c9d2 9e3b 5df0 9437
000001c0: 2ab5 8e3a 302c 2dbb c61d 10b7 2854 ac38
000001d0: 0400 0000 51a8 1639 e38c 6b39 13d6 cbba
000001e0: 5d2e 1e39 9a9e d038 c6f5 84b8 45d4 c639
000001f0: c9de 183a 43c6 873a 6488 8138 9a9e d038
00000200: cc1b 9139 8222 5d39 3f28 8139 6869 8539
00000210: f34c 0bba 568c 8db8 3e0d 75b9 6ffa 68b8
00000220: dc2e 3f36 0c51 25ba 0c90 a3b7 568c 8db8
00000230: 4565 d5b9 0850 16b8 33d9 f0b9 11e7 2dba
00000240: 851a 113b 6f3d 8937 bb90 deba 6aa4 dc39
00000250: 6102 d839 a898 d93a 05fc f2b8 6f3d 8937
00000260: 568c 72b8 52d1 c7b9 c909 4cb9 b3da 973a
00000270: e83a 723b 2094 6739 afa1 5abb 719c 5c3a
00000280: 2434 e639 1bd1 503a 0a6e 8cb9 2094 6739
00000290: a123 4db9 d895 24ba 2bb1 efba 3e76 fb3a
000002a0: 8347 8bbb bd64 67b7 ad4b 6e3b 8e54 39b9
000002b0: fe3f ca3a dc79 15b9 d193 9ab8 bd64 67b7
000002c0: 6ef2 b4ba 9a12 f8b9 c954 eb3a 8cf5 81bb
000002d0: 256a d0ba ad46 9f39 e036 483b 5a93 a539
000002e0: c6a4 823a aafd f13a 965c 9839 ad46 9f39
000002f0: 0650 1d3a 28f3 653a 4969 a83a d5e8 01b9
00000300: 19ad d8ba 93f6 f239 a929 963b f70f 203a
00000310: 91ce dc3a ecc1 2f3b 16f0 d439 93f6 f239
00000320: e8ce 8a3a b655 b13a df33 0f3b b4b8 3439
00000330: d3fb 29bb 9428 ff39 17a7 a13b 336b 823a
00000340: 85b4 243b 0c3a 0a3b ed3c 643a 9428 ff39
00000350: ff9f 993a 7c19 623b 660c 363b a4cc 133a
00000360: f5f5 7f38 ecc5 6439 f0f3 893a c3b9 c339
00000370: 28d6 183a 8d48 893a ae86 3e39 ecc5 6439
00000380: 2d98 7d3a eef6 6d3a 4ede 423a 69a9 6a39
00000390: 8bc5 00bb 7305 0339 2e18 1d3b fdf8 ab39
000003a0: 8d4d a93a 450b ec39 a301 9139 7305 0339
000003b0: cc21 273a 3299 793a 7988 dc3a 552f 67ba
000003c0: 68c0 19a1 68c0 99a0 8030 c0a2 68c0 19a1
000003d0: 68c0 99a1 5320 00a2 0400 0000 68c0 99a0
000003e0: 0400 0000 0400 0000 0400 0000 68c0 19a1
000003f0: 2f9f b33b db6a 0939 fd31 49bb 0cbf 0f3b
6e-45 6e-45 6e-45 6e-45 6e-45 6e-45 6e-45 6e-45
0.0 6e-45 0.0 6e-45 -0.0039888467 0.0005102513 0.004485339 0.0003184166
0.0012435347 -0.0017926019 0.00029112393 0.0005102513 -0.00030904156 -0.0005718744 0.0016951334 -0.0026414762
-0.0042003435 4.9661416e-05 0.001709684 -0.00036847056 4.0883206e-05 0.00085929217 0.0002103049 4.9661416e-05
-0.00040277946 -3.934455e-05 0.00045273599 -0.002130512 -0.0016059278 0.00038348048 0.0034691766 0.000908398
0.0022446082 0.00083549286 0.00041161542 0.00038348048 0.002123523 0.0021664335 0.0021775598 -0.00015588486
0.0012599033 -0.00038953507 6e-45 7.7689265e-06 -0.004301612 0.0004095295 0.00010343055 -0.00038953507
0.0035296006 0.001847677 0.0017345601 -7.552605e-05 -0.0011052085 9.207541e-05 0.0006163935 2.8771861e-05
0.000105552295 0.001296926 9.056043e-05 9.207541e-05 7.1421255e-06 9.7492775e-05 -3.747889e-05 -0.0002054501
0.0007862064 -0.00010619786 -0.0016463656 -0.00015811205 -0.00049996417 0.0008640567 -0.00016843592 -0.00010619786
-0.0011728454 -0.0013452274 -0.0014285526 0.0010786861 -0.0017402408 -0.00025253062 0.0 -0.00033685254
-0.00023566178 0.00019852194 0.00014197608 -0.00025253062 -0.0015693331 0.0012493795 -0.0012557958 -0.00049351493
-0.0008015935 0.00026511945 0.0031905756 0.000518936 0.0016426014 -0.00019915745 0.00037122937 0.00026511945
0.0017094436 0.0016381545 0.0017719564 0.00017777491 -0.0015398195 8.2172744e-05 0.004846905 1.7754903e-05
0.0010887731 -0.0026424043 -8.590001e-06 8.2172744e-05 6e-45 0.00014367817 0.00022463831 -0.001555147
0.00015085326 9.947755e-05 -6.340029e-05 0.00037923656 0.00058315374 0.0010358769 6.176604e-05 9.947755e-05
0.00027677265 0.00021089058 0.00024634783 0.0002544627 -0.00053138955 -6.7495435e-05 -0.00023369954 -5.5546345e-05
2.8488494e-06 -0.00063063274 -1.9498191e-05 -6.7495435e-05 -0.00040701978 -3.583732e-05 -0.00045938193 -0.0006633858
0.002214105 1.636028e-05 -0.0016980389 0.00042084168 0.00041200503 0.0016601281 -0.000115864015 1.636028e-05
-5.7827994e-05 -0.00038112194 -0.00019458601 0.0011585563 0.003696138 0.00022085058 -0.003336053 0.00084156456
0.00043907866 0.00079657295 -0.00026784866 0.00022085058 -0.00019563596 -0.0006278432 -0.0018287053 0.0019185019
-0.004250468 -1.3792128e-05 0.0036361024 -0.00017674474 0.0015430448 -0.00014255143 -7.370825e-05 -1.3792128e-05
-0.001380516 -0.00047316105 0.0017954345 -0.003966039 -0.0015900774 0.000303795 0.0030550286 0.00031581038
0.0009967319 0.0018462439 0.0002906068 0.000303795 0.0006000999 0.000877189 0.001284876 -0.00012389135
-0.0016531079 0.0004634155 0.004582603 0.00061058946 0.001684623 0.0026818467 0.0004061467 0.0004634155
0.0010590227 0.0013529572 0.0021850986 0.00017234945 -0.0025937452 0.00048667623 0.0049332487 0.0009950161
0.0025132012 0.0021091728 0.00087065884 0.00048667623 0.0011720656 0.0034500053 0.0027778386 0.0005638099
6.1025803e-05 0.00021817506 0.001052497 0.00037331702 0.00058302516 0.0010473892 0.00018169984 0.00021817506
0.000967386 0.0009077628 0.00074336387 0.00022379089 -0.0019648995 0.00012495164 0.002397071 0.00032801172
0.0012916789 0.00045021824 0.00027657775 0.00012495164 0.00063755806 0.0009521424 0.001682534 -0.00088190037
-5.2093064e-19 -2.6046532e-19 -5.2093056e-18 -5.2093064e-19 -1.0418613e-18 -1.7364347e-18 6e-45 -2.6046532e-19
6e-45 6e-45 6e-45 -5.2093064e-19 0.0054816226 0.00013105145 -0.0030699961 0.0021933941

exp_avg_sq f4 [64, 12]
00000000: f401 0000 f401 0000 f401 0000 f401 0000
00000010: f401 0000 f401 0000 f401 0000 f401 0000
00000020: 0000 0000 f401 0000 0000 0000 f401 0000
00000030: 4121 263a 45fc 9937 9d08 9239 57d0 b138
00000040: df07 1d39 889e 7b3a 8a57 8736 45fc 9937
00000050: f63f e039 59d6 bc39 3b33 b339 4ac5 303a
00000060: b2b6 483a 1a7d 2337 53cf 623a 8615 2238
00000070: b173 f238 265c 433a b9dc 1c36 1a7d 2337
00000080: 80c3 d439 a1a8 c039 7e53 9939 18f5 4a3a
00000090: 3b73 2839 ad59 4837 7d2c 2a39 7123 2738
000000a0: 0a25 7438 cae8 a839 dc42 2836 ad59 4837
000000b0: 7522 2739 561c f238 636f 2b39 ba4b 4039
000000c0: 0d9d be3a 2560 3a38 bc88 6e36 ce98 8139
000000d0: 9f81 f339 f9a2 2d3a bc61 4537 2560 3a38
000000e0: 49fd ad3a d51e 7f3a ffb9 9f3a 2903 d13a
000000f0: e96c 5f39 c5fc 1036 20c9 8b39 cf17 0d37
00000100: aa4c 0738 c8da 5339 0027 0135 c5fc 1036
00000110: 7a82 c838 8192 ba38 5763 9338 5f4c 6039
00000120: 760a 5039 c8d0 d335 dcb9 8b39 7d64 b836
00000130: 945c da37 0e2a 0639 cd73 9034 c8d0 d335
00000140: ae81 3d38 aef0 2b38 a759 1d38 f447 4f39
00000150: d000 2138 13c3 e836 0000 0000 1e6f 0638
00000160: 4532 3438 694e 9339 2622 5536 13c3 e836
00000170: c5bf d239 bece 9139 f2ac d739 40e2 b138
00000180: 9ee0 d938 c7a1 0a37 62ab ea38 ca90 d437
00000190: a575 1b38 839b 4739 9d57 e335 c7a1 0a37
000001a0: 767e dc38 1f80 8738 1e80 c338 4ac7 f638
000001b0: 374a c739 890a 9d37 aa00 103a 1df2 8238
000001c0: 8537 f238 2833 453a a492 0936 890a 9d37
000001d0: 7a6d 7325 415c 7a38 c70f 9937 d7e2 c839
000001e0: 7833 0537 115e f534 8653 2637 d882 f435
000001f0: 4bea 5836 7748 df37 e795 b533 115e f534
00000200: 3791 cf36 847e 8436 b62b d436 309c 1037
00000210: 02e3 a636 73a4 d134 a6a6 7f36 e250 c735
00000220: 7764 2236 76d4 9a37 9dbd 7d33 73a4 d134
00000230: c5ca 9c36 b005 2036 fcfd a836 7455 bf36
00000240: 8cd1 3838 e692 1036 8cdf 1339 11b0 2d37
00000250: 2217 de37 ff6c 5139 ea44 1d35 e692 1036
00000260: 1a96 e738 0c08 cd38 ca0e d138 1614 5738
00000270: 322a ba39 5a14 0537 d3b6 8939 cdaa 0738
00000280: 5436 8738 32ec 083a b867 fa35 5a14 0537
00000290: d384 7039 b22e 4339 f0bf 2e39 46fe c039
000002a0: 974b 8039 c26e d535 211d 9c39 5d2a 2a37
000002b0: 2bd9 4e38 5346 e238 c491 ef34 c26e d535
000002c0: 5cd1 f738 26c3 e138 ae86 9e38 c9c2 8239
000002d0: 9e9b 9139 6b64 ef36 3504 9539 0edf d137
000002e0: 9370 6638 4279 c539 3933 d635 6b64 ef36
000002f0: 6fa1 3039 0d70 1239 9424 0c39 6d45 9639
00000300: c5c8 b439 f1db 3137 771c ae39 a0ad 1938
00000310: 595c 9a38 4c14 043a 1e94 1d36 f1db 3137
00000320: 6c76 6d39 0ff3 4039 8e59 3f39 6b89 bc39
00000330: 061d 4a3a 2219 3b38 0c07 273a 81d3 1839
00000340: e277 6739 b07f b23a 86c8 2e37 2219 3b38
00000350: 0d7c 433a 10b9 113a 950e 293a da93 5b3a
00000360: 540e 6138 3b03 be35 66f5 9438 7e7e 8f36
00000370: 636e 2237 2f44 4138 f10d ae34 3b03 be35
00000380: de9a f237 750c d537 f052 b037 1552 6538
00000390: e219 c638 4598 ee36 0795 c438 1dcc bb37
000003a0: 876f 0838 1c35 3639 7a4a d435 4598 ee36
000003b0: 3300 d338 d965 9438 ac29 bf38 b332 de38
000003c0: 44b4 b334 ede6 d232 8181 1836 bf4d 9c33
000003d0: 5a76 5034 e725 7535 82fd f82f ede6 d232
000003e0: dee9 ee33 d011 9532 2dd6 e133 e515 ba34
000003f0: b3ae 993a 0706 4f37 3c4c 8e3a 572f 8e38
7e-43 7e-43 7e-43 7e-43 7e-43 7e-43 7e-43 7e-43
0.0 7e-43 0.0 7e-43 0.00063373527 1.8356493e-05 0.00027853707 8.478824e-05
0.00014975619 0.0009598513 4.0335044e-06 1.8356493e-05 0.00042772264 0.00036017856 0.0003417971 0.00067432655
0.0007656618 9.744685e-06 0.00086521095 3.8643855e-05 0.000115610084 0.0007452391 2.337429e-06 9.744685e-06
0.0004058145 0.00036746732 0.0002924464 0.00077422103 0.00016064655 1.1941808e-05 0.00016229037 3.984891e-05
5.820863e-05 0.00032216898 2.5072868e-06 1.1941808e-05 0.00015939197 0.00011544737 0.00016349326 0.00018338757
0.0014542654 4.4435397e-05 3.5544354e-06 0.00024718646 0.00046445147 0.0006623711 1.1764871e-05 4.4435397e-05
0.0013274337 0.00097320724 0.0012186168 0.0015946376 0.0002130751 2.1604803e-06 0.00026661996 8.409798e-06
3.2257907e-05 0.0002020403 4.8113e-07 2.1604803e-06 9.561046e-05 8.8964596e-05 7.02801e-05 0.00021390755
0.00019840323 1.5781488e-06 0.00026650622 5.4953257e-06 2.6030735e-05 0.00012794902 2.6906346e-07 1.5781488e-06
4.5181885e-05 4.0993727e-05 3.7515212e-05 0.00019767863 3.8386148e-05 6.9368484e-06 0.0 3.2051576e-05
4.296216e-05 0.00028096445 3.175935e-06 6.9368484e-06 0.000401972 0.0002781059 0.0004113685 8.48216e-05
0.000103892045 8.263108e-06 0.00011189912 2.5339792e-05 3.7064445e-05 0.00019036052 1.6938317e-06 8.263108e-06
0.00010513973 6.461166e-05 9.322188e-05 0.000117673146 0.00038011532 1.8720764e-05 0.0005493263 6.24398e-05
0.000115498005 0.00075225765 2.0499947e-06 1.8720764e-05 2.1113982e-16 5.9690563e-05 1.8246368e-05 0.00038315982
7.939401e-06 4.5703248e-07 9.913818e-06 1.8217497e-06 3.2322885e-06 2.6617416e-05 8.4557364e-08 4.5703248e-07
6.185986e-06 3.948635e-06 6.323181e-06 8.619434e-06 4.9736127e-06 3.9048936e-07 3.8094963e-06 1.4850195e-06
2.419836e-06 1.8457165e-05 5.9078605e-08 3.9048936e-07 4.672768e-06 2.3845168e-06 5.036358e-06 5.7021916e-06
4.4064174e-05 2.1543178e-06 0.0001410229 1.0352597e-05 2.6475234e-05 0.00019972397 5.858734e-07 2.1543178e-06
0.00011042897 9.7766606e-05 9.968651e-05 5.12787e-05 0.00035508123 7.932156e-06 0.0002626689 3.234558e-05
6.447421e-05 0.0005223184 1.8656638e-06 7.932156e-06 0.00022937664 0.00018614045 0.00016665435 0.00036810542
0.0002447038 1.5901971e-06 0.0002977634 1.0142653e-05 4.931648e-05 0.00010789619 4.4623278e-07 1.5901971e-06
0.00011816874 0.00010765185 7.559113e-05 0.00024940658 0.000277725 7.1344452e-06 0.0002842263 2.501861e-05
5.4941116e-05 0.00037665112 1.595915e-06 7.1344452e-06 0.00016844807 0.00013965387 0.00013365067 0.00028661956
0.0003448186 1.0601231e-05 0.00033209074 3.6639743e-05 7.360493e-05 0.0005038425 2.3481039e-06 1.0601231e-05
0.00022646197 0.00018401093 0.00018248541 0.0003596054 0.00077100133 4.460768e-05 0.00063715945 0.00014574641
0.00022074537 0.0013618376 1.0417896e-05 4.460768e-05 0.00074571447 0.00055588875 0.0006449011 0.00083762186
5.3657524e-05 1.4157043e-06 7.102899e-05 4.2764577e-06 9.681654e-06 4.6078287e-05 3.242017e-07 1.4157043e-06
2.8920764e-05 2.539738e-05 2.1019456e-05 5.46743e-05 9.446197e-05 7.1106792e-06 9.373767e-05 2.2387185e-05
3.2528795e-05 0.00017376657 1.5816906e-06 7.1106792e-06 0.00010061301 7.0761605e-05 9.115352e-05 0.000105952284
3.347251e-07 2.455223e-08 2.2725146e-06 7.278458e-08 1.9414566e-07 9.132477e-07 4.5291065e-10 2.455223e-08
1.1125279e-07 1.7353983e-08 1.0516337e-07 3.466113e-07 0.0011725038 1.2339565e-05 0.001085646 6.7799054e-05

exp_avg f4 [64]
00000000: 0400 0000 9e14 69bb a88d 91bb b95c 813a
00000010: 1b00 49bb 923c a3ba eb23 a2b7 8499 a4ba
00000020: f051 3b3a 6e86 13bb ce95 c03a f4f1 22ba
00000030: a813 483b a663 af3b ffce 593a b1d2 3aba
00000040: d98b 6539 85e3 3cba 6357 7b3a d754 49b9
00000050: 8030 c0a2 9602 423c 316c d3ba 9690 5aba
00000060: 34ef 90bb f2bc 2fb9 5464 50ba 77be 2cbb
00000070: c010 6fba 4cda f93a c57e a53b 88e1 7abb
00000080: 0c1b 983a 05ea 0dbb 9582 b2ba 33ed 83bb
00000090: def3 aebb f449 1bbc d661 213b 8c2b 17ba
000000a0: 7a18 003a 60b6 273c 08ca 4a3a 20f6 0fba
000000b0: bdfd 15ba 1edf 7cbb dcaf 24bb f429 1e3a
000000c0: 7697 363a ffee 95bb 1f59 163b 5e42 b6ba
000000d0: d7cb 40bb c806 983a 333c 8c3a 9424 873a
000000e0: 228f 9cba b695 1fbb 30fa 9dba 0540 6e3a
000000f0: 66dc a3ba e0cf 8c3a 3b9a bcb9 5222 64ba
6e-45 -0.0035565267 -0.0044419356 0.0009869552 -0.003067023 -0.0012453964 -1.932863e-05 -0.0012557958
0.00071456935 -0.0022510546 0.0014693083 -0.00062158634 0.0030529294 0.005352455 0.0008308738 -0.00071267324
0.00021891239 -0.0007205534 0.0009587912 -0.00019200459 -5.2093056e-18 0.011841437 -0.0016130266 -0.0008337585
-0.0044230465 -0.00016759688 -0.00079495204 -0.0026358643 -0.00091196224 0.001906225 0.0050505125 -0.00382814
0.001160474 -0.002165438 -0.0013619239 -0.004026079 -0.00533913 -0.009478081 0.0024624965 -0.0005766682
0.000488646 0.010236353 0.00077357935 -0.00054916926 -0.0005721709 -0.0038585137 -0.0025129234 0.0006033473
0.00069653185 -0.0045756097 0.0022941304 -0.0013905277 -0.0029418373 0.0011598701 0.0010699093 0.0010310584
-0.0011944512 -0.002435071 -0.0012052711 0.0009088519 -0.0012501597 0.0010743104 -0.00035973065 -0.0008702624

exp_avg_sq f4 [64]
00000000: f401 0000 0cd8 ca3a 29b7 af3a 0ae6 0c3a
00000010: c992 8e3b a888 c739 ef8a 9f39 f2ac d739
00000020: cd64 ae39 f4ec a03a 4ea8 1438 8204 d737
00000030: 2e0d a939 5088 423a fda5 083a b9d9 1d3a
00000040: 3578 4e3a 078f 0a3b 1abc d038 b20f 9939
00000050: dd1e 4b36 d5cc 293b d20b 623a 0b6c ef38
00000060: 91de 703a fc00 3a39 24e2 9c38 deb1 ef39
00000070: 0752 8339 c49d 1639 1880 1f3a d556 6939
00000080: be7c b039 f571 4d3a ead7 f639 bbab 1a3b
00000090: 5b97 fd39 9831 db3a fe15 263a 618f 713a
000000a0: cec5 aa39 dcb5 243b cb8b e93b ed60 363a
000000b0: d367 7239 4341 863a f187 6d39 d26f c739
000000c0: f62c ff39 641f 543a 0e69 8139 2086 b638
000000d0: bcd9 7e3a 594a 8f3a 47dd ad3b a3f4 4338
000000e0: 9b64 9639 6946 483a 3947 503a 8c38 8f3b
000000f0: dc08 623a 5fce a539 3539 0b3a 95be 3c39
7e-43 0.0015475764 0.0013406026 0.00053748547 0.0043509942 0.00038058055 0.00030430357 0.0004113685
0.0003326297 0.0012277649 3.5442696e-05 2.5632096e-05 0.00032244012 0.0007420825 0.00052127225 0.0006021518
0.00078761886 0.002114238 9.9532495e-05 0.00029194128 3.0267322e-06 0.0025909443 0.0008622977 0.00011416533
0.00091884384 0.00017738709 7.480782e-05 0.00045718154 0.00025047382 0.00014363887 0.0006084456 0.00022252959
0.00033662276 0.00078371103 0.00047081645 0.0023600894 0.0004836869 0.0016723154 0.00063356746 0.00092147855
0.00032572303 0.002513281 0.0071272603 0.0006957192 0.00023117596 0.0010242838 0.00022652723 0.0003803955
0.0004867089 0.0008091836 0.0002468307 8.703419e-05 0.0009721776 0.0010932192 0.0053059193 4.671946e-05
0.00028685186 0.00076398865 0.00079451833 0.0043707546 0.0008622536 0.0003162501 0.0005310954 0.00018000074
