models/checkpoint_630000.pt (torch, 125871 bytes, 33 tensors)

shared.0.weight f4 [64, 12]
000000 e7 06 2b be 01 d3 d9 be 6d 81 0a 3e e2 18 47 3f
       -0.16701852 -0.42543796 0.13525935 0.77772343
000010 0f 7d 6d be 9f 14 38 ba f3 61 19 bf 5e 00 1b bf
       -0.23192237 -0.0007022116 -0.59915084 -0.60547435
000020 e6 e0 74 be 7f 2b 80 be 4f c8 81 be b2 94 c9 3d
       -0.23913917 -0.25033185 -0.25348136 0.098428145
000030 d4 02 f6 bc cf 8b c0 bd 35 68 5d be 13 02 21 3f
       -0.030030645 -0.094016664 -0.21621783 0.6289379
000040 6c 32 77 bd 68 4b 4a be b1 5f 18 3e 54 9f 08 3e
       -0.06035082 -0.19755328 0.14880253 0.13342029
000050 b5 53 f9 3d 7a 09 04 be b9 b3 55 3d 32 55 f2 3d
       0.12174169 -0.1289424 0.05217335 0.11832656
000060 9a 25 e3 3d e2 b0 d9 bd 64 32 de bb 9c 11 d9 bd
       0.11091156 -0.10629441 -0.0067809094 -0.10599062
000070 5c 54 04 bf 1f 43 c8 3d 2b 8d 46 3e 30 ca 84 bd
       -0.5169122 0.09778427 0.19389789 -0.06483877
000080 f2 e3 97 be f3 59 1d 3e 65 ab 87 3e f6 53 58 3d
       -0.29666096 0.15366344 0.2649795 0.052814446
000090 cb 7d 3e be e5 de bb be c4 f1 3b bd 2c 70 5e 3d
       -0.18602674 -0.36693493 -0.045884863 0.054306194
0000a0 8d 43 82 3e 05 b6 9c 3e 98 ed 55 3e 00 6c 20 bd
       0.25442162 0.3060762 0.20891416 -0.039165497
0000b0 b5 ce 4a be 52 78 27 3d 60 db ac 3d 50 87 27 3e
       -0.19805415 0.04088623 0.0844028 0.16360211
0000c0 ed 2e c2 3d 96 8c 9d be ba da 8d 3d 84 18 36 bf
       0.09481607 -0.3077132 0.069264844 -0.7113116
0000d0 1d e4 98 be 87 77 0f be 5a f6 1b bf 18 20 23 be
       -0.29861537 -0.1401044 -0.6092278 -0.15930212
0000e0 2d ef 0a 3d 49 e7 04 3e 20 81 4a be 17 78 a9 be
       0.033919502 0.12978853 -0.1977582 -0.33099434
0000f0 cd 3c 2d be 73 50 c6 bc cb 96 91 be 7e 09 fb be
       -0.16917725 -0.024208283 -0.28435358 -0.4903068
000100 7e 8c c0 be 63 f7 88 3d 98 d0 1d be f8 77 af bd
       -0.37607187 0.0668781 -0.15411603 -0.08567804
000110 6c d6 d8 3b d4 da a6 bc 7e cb 37 bd ef 43 00 3e
       0.006617358 -0.020368017 -0.0448718 0.12525915
000120 c8 9c 68 bd 81 f4 e8 3e 20 22 12 3a e5 ce d8 3e
       -0.056790143 0.45499042 0.0005574543 0.42345348
000130 e1 c6 53 bf 07 3a 31 be 47 0b 45 bd 15 16 6d 3e
       -0.8272534 -0.17307292 -0.048106458 0.23152955
000140 c0 78 b7 3d 7d 40 7d 3c dd 64 4c 3d 70 10 3f 3e
       0.08958578 0.01545727 0.04990088 0.18658614
000150 0c 57 91 3d 60 24 aa be a4 42 01 3d e0 43 bf be
       0.07096681 -0.33230877 0.031557694 -0.37356472
000160 83 d3 f4 be 35 f5 25 bd 25 f5 f3 be e2 be 67 be
       -0.4781762 -0.04051705 -0.47647968 -0.2263141
000170 92 62 14 bd 5f 06 90 be c1 12 22 3e 24 7a 39 3d
       -0.036226816 -0.2812986 0.15827467 0.045282498
000180 e6 14 93 be 47 b2 a9 be f0 1b 77 3d 39 e8 bb be
       -0.28726882 -0.33143827 0.060329378 -0.3670061
000190 b9 09 5d 3e 0f 4c cf 3d c1 22 a7 bf bb 6b 6f be
       0.2158574 0.10121929 -1.3057481 -0.2338094
0001a0 3e b6 e8 3d ec 77 71 3d 61 50 15 bc f8 1b 54 bf
       0.11362885 0.058952257 -0.009113402 -0.82855177
0001b0 35 e4 70 3d 17 07 30 3e c1 27 06 3d 72 99 8d bd
       0.058811385 0.17190205 0.032752756 -0.06914033
0001c0 47 97 06 bf 07 93 29 3e e3 4c ab bf dd de b4 3c
       -0.5257458 0.16559993 -1.3382839 0.022078926
0001d0 a3 a1 de 3d 3c 30 e8 be b1 4b 9a 3d 3d 94 41 be
       0.108706735 -0.453493 0.07533968 -0.18904205
0001e0 71 50 ef bd 79 92 cf 3d d7 57 d9 bc 39 2f 00 3f
       -0.11685265 0.10135359 -0.026531143 0.50072056
0001f0 31 b8 29 bf 7e 6c f9 bd 4b 18 92 bd c7 ef 4a bd
       -0.6629668 -0.12178896 -0.0713354 -0.049545076
000200 7c 1b 41 bd 90 1d 89 3c 4c 9c ce 3d 74 d1 71 3e
       -0.04714535 0.01673773 0.10088405 0.23615056
000210 58 f7 c9 be 6f 7d 04 3f 4a b9 c5 3d f4 fe 95 3f
       -0.3944652 0.51753896 0.09654482 1.171843
000220 cf e7 95 be 38 49 f8 bd 2b ca 80 3e 21 f2 ce 3e
       -0.29278418 -0.1212334 0.25154242 0.40419105
000230 e3 ca cc 3d 71 8f c4 bc 43 ec a7 3d 1c 19 13 3e
       0.09999635 -0.02399418 0.0819936 0.14365047
000240 eb 97 3d be 58 0b a0 3e 8b 35 09 be 52 31 d0 3d
       -0.18514983 0.31258655 -0.13399331 0.10165657
000250 3c 6e 88 be ff 90 00 3e c0 db 71 3e d7 67 33 3d
       -0.26646602 0.12555312 0.23618984 0.0438002
000260 89 49 9d 3d 3f 05 45 be c1 85 d4 bd 14 34 cb 3d
       0.07680041 -0.19240282 -0.10377074 0.099220425
000270 0a 49 da be c0 89 11 3e f1 8e ed bc 07 39 c3 3e
       -0.4263385 0.14212704 -0.028998824 0.38129446
000280 8e 79 0e 3e 4a 64 33 3d 02 b5 40 3f bb 06 c4 3e
       0.13913557 0.043796815 0.75276196 0.38286385
000290 a9 b1 19 3e 3a 69 5f be 03 2d 0e 3e 94 5c bc 3e
       0.15009178 -0.21817484 0.13884358 0.36789382
0002a0 30 98 cd bd fe 15 a9 3d 45 d0 2f be cb f9 ea 3e
       -0.10038793 0.08256148 -0.17169292 0.45893702
0002b0 f1 aa fc be 41 7f 5f 3e bf b8 d7 3e d5 12 2c bc
       -0.49349168 0.21825887 0.42133138 -0.010502537
0002c0 3b 0a 1c bd 58 e6 eb 3c 2f d7 33 3e aa 87 9a 3e
       -0.038095694 0.02879636 0.17562555 0.30181628
0002d0 6b 78 bb 3d 91 09 e3 be 7a a8 31 3e df 91 e3 3d
       0.09153827 -0.44343236 0.17349425 0.11111807
0002e0 70 1f c3 be 18 8f 91 3d 4f b1 ae be 07 e1 b7 be
       -0.38109922 0.07107371 -0.3411965 -0.3591387
0002f0 af d3 9c 3e 7c f6 17 be 9c 23 c8 3d 29 36 1f be
       0.30630252 -0.1484012 0.09772417 -0.15548004
000300 74 31 89 be 04 9e 7d 3e b0 f9 05 bd d3 19 32 3f
       -0.26795542 0.2476731 -0.032708824 0.69570655
000310 ff a3 ca bd a3 e2 c2 bd f6 1d 43 3e d0 56 07 3f
       -0.09894561 -0.09515884 0.19054398 0.5286684
000320 ba 8d 31 be 80 26 00 be f6 53 b5 3c ca ad 8c 3e
       -0.1733922 -0.12514687 0.022134762 0.2747634
000330 5e 0c 99 3c 70 03 82 3c ba de 24 be 6c 18 8e bd
       0.018682655 0.01587078 -0.16100588 -0.06938252
000340 45 a9 1a be 83 5a 15 bd 7b f6 30 3d 3b 36 65 bd
       -0.15103634 -0.03646327 0.043203812 -0.05595992
000350 06 ab 86 bd c7 62 c5 bd 31 c7 96 bd 38 ed 01 bd
       -0.06575589 -0.09637981 -0.073622115 -0.03172037
000360 37 5d 81 be 56 0f 18 3f 7d 1c 25 3e 58 db b0 3e
       -0.2526643 0.593984 0.16124149 0.34542346
000370 25 83 58 bd 81 f1 41 3d a2 a4 20 3e de b9 1d 3f
       -0.052859444 0.047349457 0.15687802 0.61611736
000380 1d 81 03 bd fd 63 c8 3d 32 d7 63 bf 9e 79 8e be
       -0.032105554 0.09784696 -0.89000237 -0.27827162
000390 8a 66 5d 3e d0 7f 03 bf d7 4a df be d7 ae 2d 3f
       0.21621147 -0.513669 -0.43611786 0.6784491
0003a0 84 e2 40 3e 5a ea 0d be 04 df 29 bf 26 2c e9 be
       0.18836409 -0.1385893 -0.6635592 -0.45541495
0003b0 a1 0d 83 bc 56 ab 07 3e c1 b6 1f be c7 3b 3e be
       -0.01599771 0.13248953 -0.15597059 -0.18577491
0003c0 fd 48 d0 bc ab dd 46 bc 3c 99 25 bd b7 0c 65 3b
       -0.025425429 -0.012137811 -0.04042934 0.0034950206
0003d0 9f ab e2 be e0 bf 62 3e da 4e ae be 0e 2b 37 3d
       -0.44271562 0.22143507 -0.34044534 0.044718795
0003e0 7e 96 48 bd 28 20 af 3e 8b 6c 16 be 7f 3f d4 be
       -0.048971646 0.3420422 -0.14689843 -0.41454694
0003f0 3a eb 88 3e e0 cd c8 bd b0 24 86 bd 36 5d ee bf
       0.26741964 -0.098048925 -0.06549966 -1.8622196

shared.0.bias f4 [64]
000000 3d f7 49 3e d9 ac 1e 3e 3b e4 a6 3d 08 64 83 be
       0.1972322 0.15495624 0.08149 -0.25662255
000010 c6 a8 19 3e ee 00 7c 3d 02 58 be 3e f7 75 cb 3c
       0.15005788 0.061524324 0.3717652 0.024836523
000020 67 c4 de 3e 25 48 50 3e e9 d3 b3 3e 98 8f 19 3e
       0.43509218 0.20340021 0.35122612 0.14996183
000030 0a 9c fc 3d 5d 6f f6 3c c9 56 11 3e af 09 cf 3c
       0.123344496 0.030082399 0.14193262 0.025273172
000040 99 ad 03 3e 00 00 00 00 b9 de 53 3e 62 f0 81 3e
       0.12859191 0.0 0.2069043 0.2537871
000050 8a 56 c9 3d e7 6e a4 3e e6 fd c2 bb 5b b4 97 be
       0.09830959 0.32115862 -0.005950677 -0.29629788
000060 00 88 ca 3e 08 36 c7 3e b4 37 af 3e c4 fd 1b bc
       0.39556885 0.3890841 0.34222186 -0.009520952
000070 c9 32 ae 3d d6 bf 89 bd e2 76 c9 3e 02 22 95 3e
       0.0850578 -0.06726043 0.39348513 0.29127508
000080 b9 e3 8b 3e 56 e8 ab bc e0 8b 7b bd 13 3a 2d 3e
       0.27322176 -0.02098481 -0.061412692 0.16916685
000090 b8 c2 cb 3e 36 a1 5b bd d5 4d d7 3e f8 d6 66 3e
       0.39796996 -0.05362054 0.4205157 0.22542942
0000a0 8e 89 47 3e 00 00 00 00 37 b4 86 3e bf c5 59 be
       0.19486067 0.0 0.26309368 -0.2126684
0000b0 80 65 47 3e 54 95 b0 3e 5f e2 49 3e 29 84 b8 3e
       0.19472313 0.34488928 0.1971526 0.3603833
0000c0 84 17 92 3d 20 09 cd 3d ae 21 88 bd b2 56 db 3d
       0.071333915 0.10011506 -0.06647049 0.10709895
0000d0 fb 0a 8e 3e 94 0c 95 3e 00 02 71 3e a4 dc 87 3e
       0.27742752 0.2911116 0.23535919 0.26535523
0000e0 00 00 00 00 d5 13 78 3e 07 13 88 be 10 12 87 3d
       0.0 0.24226315 -0.26577017 0.06595242
0000f0 78 d2 94 3e ad 1d b7 3d 4a 45 3a 3e 92 3d 62 3e
       0.29066825 0.08941207 0.18190494 0.220938

shared.2.weight f4 [64, 64]
000000 b0 a9 a0 be 42 36 eb 3c cc 51 19 3f 93 26 71 3d
       -0.3137946 0.028712396 0.5989044 0.058874678
000010 4d 30 bf 3e f3 83 08 be 66 36 bd bc 43 d0 18 3e
       0.37341538 -0.13331585 -0.023097228 0.14923196
000020 d5 e8 55 bf 8a 4f fd 3e d4 35 71 3e 46 6a 01 3e
       -0.835584 0.49474746 0.2355569 0.12638196
000030 41 f5 9a 3d 2e 76 e1 bd d2 8e 13 3e 73 da 8a 3d
       0.0756631 -0.11008869 0.1440995 0.06779947
000040 71 fd 7c bc ff 46 86 3d b7 9e 3b bd 7b 4a ea 3d
       -0.0154412845 0.0655651 -0.04580566 0.11439987
000050 0d df ea 3e 63 84 d7 be 28 6f 23 3f d1 00 de bd
       0.458733 -0.4209319 0.63841486 -0.108399995
000060 14 29 cc 3c 90 b7 0b 3e 4b 21 01 3e 53 6a 0d 3e
       0.024921931 0.13644242 0.12610357 0.1381009
000070 04 27 7b 3e 8e 9c 64 bf 94 a2 f9 bb 0c 05 65 3e
       0.24526602 -0.89301383 -0.007618258 0.22365206
000080 1b 04 46 3e 22 d7 a3 3e 8c 70 f5 bd f5 52 16 3f
       0.19337504 0.3200007 -0.11984357 0.5872033
000090 e1 64 03 bd 77 8b 44 3e 4e 16 55 be 12 85 8b bf
       -0.032078627 0.19193827 -0.2080929 -1.0899985
0000a0 12 75 9b bd df 61 09 be c0 a2 1c 3f fa 83 2f bf
       -0.07590689 -0.13416241 0.61185837 -0.68560755
0000b0 f7 0e 9c 3d 22 69 e7 3e 9b 32 1b 3d 7f 5a 7f bd
       0.07620042 0.45197397 0.037890058 -0.062342163
0000c0 ca fe 80 3e cf 9c 95 3b db fc 25 3d 2d b5 cf 3b
       0.2519439 0.004565812 0.040524345 0.0063387365
0000d0 21 97 8a bd 3c 1d 1b bd 0a 6e a2 bc 7f 47 b2 bc
       -0.06767107 -0.037869677 -0.019827861 -0.021762608
0000e0 85 09 08 3e a1 8e 25 bf d1 e6 dc bd 61 cf b4 be
       0.13284881 -0.6467076 -0.10786212 -0.35314468
0000f0 0e 41 5a 3e b8 bb 11 3f 93 52 79 be e9 46 19 bd
       0.21313879 0.5692706 -0.24347906 -0.03742114
000100 77 a4 18 bc 43 bb cb bd f4 dc 62 bc d6 04 ed be
       -0.009316555 -0.09947827 -0.013846625 -0.46292752
000110 9e e4 90 3e b2 c8 50 bc b1 23 bb bc b6 3c 06 3e
       0.2829942 -0.012743162 -0.022844167 0.13109097
000120 e8 e5 db be 7f 21 3d 3e 04 71 3c bc bb 33 08 bd
       -0.42948842 0.18469809 -0.011501554 -0.03325246
000130 9e 2e 7c 3d f5 68 0b be 73 8d d6 3d 66 ae a5 3e
       0.061567895 -0.13614257 0.10476198 0.32359618
000140 28 7e 10 3d 65 e7 16 3d dc b0 8b 3e c4 a1 2d 3e
       0.035276562 0.03684177 0.2728337 0.1695624
000150 c9 90 c7 3d 35 8f 42 bf fc 3f b7 3e e4 f9 c1 bd
       0.097444125 -0.75999767 0.35791004 -0.09471491
000160 c7 57 f1 3d ce 7a 2a 3e 0f 16 a4 3e 76 f2 36 bd
       0.1178432 0.16648409 0.3204808 -0.044664823
000170 4d f4 8e 3c b1 06 76 be 68 42 e2 3d dc c1 88 3e
       0.017450476 -0.2402599 0.11047822 0.26710403
000180 86 60 8a bd d2 41 8e 3e 94 d5 a8 3d 0c 19 cf 3e
       -0.06756692 0.27784592 0.08243862 0.40448797
000190 7f 9f 75 be bb fe 22 3f ac d8 45 bd b0 6b cd bf
       -0.23986624 0.6366994 -0.048302338 -1.6048489
0001a0 8b 38 cf bd f8 a1 e3 bd 57 db 62 3e 60 4d 3f bf
       -0.101182066 -0.111148775 0.22153984 -0.7472744
0001b0 55 60 5e 3d 65 d4 09 3e 35 74 9b bc fb a3 1c 3e
       0.054291088 0.13459928 -0.01897631 0.15296929
0001c0 1b 6c d5 3d 32 12 8f be 56 6b 61 bd ed 90 42 3a
       0.1042101 -0.2794357 -0.055034004 0.00074221083
0001d0 5c 81 56 bd 74 db a4 bd 0c 2c c7 3c 7a ce 56 be
       -0.05236946 -0.0804967 0.024312995 -0.20977202
0001e0 65 0e 2d 3d 5b 4c 96 be d7 73 a9 3d 19 74 68 be
       0.042250056 -0.2935513 0.08274048 -0.22700538
0001f0 d6 d2 25 3e 75 8d c2 3e f6 ab 1e bf 70 ec 36 be
       0.16193709 0.37998548 -0.6198114 -0.17863631
000200 26 9b 8a be de 65 51 be 07 39 62 3e 35 7e 69 be
       -0.27071494 -0.20449015 0.22092067 -0.2280205
000210 4d d0 a9 bd 9e 40 9c be 44 2b f0 bc 29 67 bc 3d
       -0.08291683 -0.3051805 -0.029317506 0.09199364
000220 6c fa ce be 5d 18 d7 3d a1 ae 2d be 52 36 30 bc
       -0.40425432 0.10502694 -0.16961147 -0.0107551385
000230 e5 78 74 3d 35 6c f9 3d 93 3a 9b 3d a8 9b dd 3c
       0.059685607 0.12178842 0.075795315 0.027051762
000240 67 b5 89 3d 96 fb a6 3d 2d c0 c8 bc ef ee 32 ba
       0.06724053 0.08153455 -0.024505699 -0.0006825765
000250 9f 99 8b 3e e1 01 6a bf 12 9f 00 3e d3 fc 5b be
       0.2726564 -0.91409117 0.1256068 -0.21483164
000260 cf 0f b1 3e 68 02 98 3e 47 f9 81 3d 13 74 a1 bd
       0.34582373 0.29689336 0.06346374 -0.078834675
000270 c8 56 6a 3e e2 6c 89 be 34 14 da 3d a1 40 f6 3e
       0.22884667 -0.26840883 0.10648385 0.48096183
000280 0d 51 cc 3d 16 22 1a 3d 8c 50 bc 3d 72 36 23 3f
       0.09976397 0.037630163 0.091950506 0.6375495
000290 c8 9e 25 3d 08 47 18 3e 82 9d 87 3d ab a6 cd bf
       0.04043463 0.14870846 0.06621839 -1.6066488
0002a0 30 1d 85 3e 41 38 ad bd 87 37 23 3e 58 03 06 bf
       0.2599883 -0.08457995 0.15939151 -0.5234885
0002b0 2c 7e 90 bb e6 41 17 3d 36 4e 63 be 0f cf 33 3e
       -0.004409572 0.03692808 -0.22197804 0.17559455
0002c0 eb 6b c6 bc 65 a9 a8 be 27 e6 f3 ba 02 e8 9d 3d
       -0.024221381 -0.32941738 -0.001860802 0.077102676
0002d0 4b 99 3b 3e 01 7b 41 bd 30 41 82 3e d0 7e ea 3d
       0.18320195 -0.047236446 0.2544036 0.11449969
0002e0 81 b5 45 3e 8e 71 69 be c8 4d 7d be 5f 5a f0 be
       0.1930752 -0.22797224 -0.24736702 -0.46943948
0002f0 6b 2f 4a 3e 3f ba d8 3e 17 a0 22 bf 10 c8 73 3d
       0.19744651 0.42329594 -0.6352553 0.059516966
000300 aa 49 b7 3d e3 25 c9 be ad c1 bb be 5e 0e 8b be
       0.08949597 -0.39286718 -0.366712 -0.271594
000310 8e 81 4f bd 69 65 88 be 6e 81 9c be 06 b5 2a 3e
       -0.050660662 -0.2663987 -0.30567497 0.16670617
000320 16 af 07 3e 1a 07 04 3f ae 83 92 bc 0b 94 a7 bd
       0.13250384 0.51573336 -0.017885055 -0.08182534
000330 95 e9 1a be a7 ea 3b bd d3 d9 47 be f4 b7 72 3e
       -0.15128167 -0.04587808 -0.19516687 0.23702985
000340 18 94 71 be d1 92 2c 3e cb 5f 3d 3e 84 ae de be
       -0.2359165 0.16852881 0.18493573 -0.4349252
000350 2c f2 a4 bd fe 74 1c bf 51 f3 0b 3f ff e9 61 be
       -0.08054003 -0.61116016 0.54668146 -0.22061919
000360 71 eb 8d 3e a8 e9 96 3e f1 d2 ed bd f5 fc e8 bd
       0.2771869 0.2947514 -0.116124995 -0.11376373
000370 2d 44 c4 be 7b f8 d2 bd 42 0e 92 3d f5 db 9c be
       -0.38333264 -0.103013 0.07131626 -0.30636564
000380 18 a6 40 be 4f 20 60 bf 1b ff b3 be 2a 1d 6a 3f
       -0.1881336 -0.875493 -0.35155568 0.9145075
000390 69 2f 6e 3c c7 4a a7 3e 43 04 a0 bd 45 ff ae bf
       0.014537671 0.32674238 -0.07813313 -1.3671652
0003a0 88 94 bd bd 6a 4e 2a be 22 dd 2b 3e d7 03 3d bf
       -0.09256846 -0.16631475 0.16783574 -0.73833984
0003b0 eb 2b 84 be 9f ad b0 3e c2 b4 e5 bd cd d1 f1 3b
       -0.25814757 0.34507462 -0.112161174 0.0073797465
0003c0 08 88 43 3e 70 6a 0a 3d 7c f9 bf bd 91 38 28 bf
       0.1909486 0.033792913 -0.09373757 -0.65711313
0003d0 6c 4c 26 bf 57 c9 1c be a2 df 2c 3e 63 f7 ae bd
       -0.6496036 -0.1531118 0.16882184 -0.08543279
0003e0 2a 19 0a be 7c 79 06 bf 79 77 1e bf 11 40 3b bc
       -0.13486162 -0.5252912 -0.6190105 -0.011428849
0003f0 94 94 71 be de 70 fa 3e 44 e8 f8 be 8e 34 ba be
       -0.23591834 0.48914236 -0.48614705 -0.3636822

shared.2.bias f4 [64]
000000 8d dd 43 3e 68 a5 ba 3e d6 29 b9 3e 9b 9e cb 3d
       0.19127484 0.3645432 0.3616473 0.09942361
000010 44 01 9d 3d 17 d0 bf bc 12 3e ed bc 8f 3f ab 3d
       0.07666257 -0.023414655 -0.028960261 0.08361732
000020 5a d2 cc be 1b 5e fa 3e 63 5c b3 3e f4 45 21 3e
       -0.40004236 0.48899922 0.35031423 0.15749341
000030 93 31 ac 3e 18 41 ca 3e a9 7e ee 3e df c2 d2 bc
       0.33631572 0.39502788 0.4658101 -0.025727687
000040 18 4f 11 bd 6a 31 c3 bc ca e7 e8 3e 89 6b 53 3e
       -0.03547582 -0.023827273 0.4548934 0.2064649
000050 c5 31 25 3e 86 2a 7f 3d 3f 87 4c 3e 6f b3 f1 3e
       0.16132267 0.062296413 0.19973467 0.4720721
000060 8b 93 f0 3e 0a e9 e7 3e af b2 ba 3e 44 4c 67 3e
       0.46987566 0.45294982 0.3646445 0.22587687
000070 09 1b 77 3c 46 ce 5c 3e a0 e1 d9 3e 00 93 c4 3e
       0.015082129 0.21563062 0.4255495 0.38393402
000080 63 00 02 3f ad 75 d9 3e 49 29 1e 3e 58 db e0 3e
       0.5078184 0.42472592 0.15445437 0.43917346
000090 dd 26 ea 3e 7f 9b b0 3e c9 f4 a6 3e 7a 00 00 3f
       0.45732775 0.34493634 0.3260863 0.5000073
0000a0 8a af a0 bc a8 31 17 3e d4 b7 ea 3e 32 5d e8 3e
       -0.019614954 0.14765036 0.45843375 0.45383602
0000b0 90 56 30 bd e6 cb 01 bd a4 58 c1 3e 39 ab b6 3e
       -0.043051302 -0.031688593 0.3776294 0.35677508
0000c0 7b 6c 95 3e 23 c7 b5 3e 82 fa d8 3e 16 e1 d2 3e
       0.29184327 0.35503492 0.42378622 0.41187352
0000d0 49 5e 90 3e 79 4a a6 3e 91 9e e3 3d 4c 7c 2e bd
       0.28196934 0.32478693 0.111142285 -0.042599007
0000e0 22 fe 06 3f e2 21 3d be 91 ed d4 3e ad 4a da 3e
       0.52731526 -0.18469957 0.415875 0.42635098
0000f0 22 be 44 3e fd cd 02 3f e5 f3 79 3e 86 53 80 3e
       0.19213155 0.51095563 0.24409445 0.25063723

actor.0.weight f4 [32, 64]
000000 f7 cb a7 bd 5a 69 60 be fb 48 d2 bd 6d 39 d4 bd
       -0.081932 -0.21915188 -0.10267826 -0.103625156
000010 a6 18 80 3d 5d 81 26 3e 93 21 45 be a5 ab 18 be
       0.06254701 0.16260286 -0.19251089 -0.14909227
000020 2b eb d3 3d 69 bb 00 3e 0c 81 5c be 20 71 dd 3d
       0.10347589 0.12571491 -0.21533602 0.108125925
000030 45 08 c3 3d 3a 1d 1a 3c f1 69 e5 3c 6b 94 90 bd
       0.09523062 0.009406382 0.028004618 -0.070595585
000040 80 a9 8b 3d fd cb d4 3d 9a d8 e0 bc 72 a8 5c be
       0.06819439 0.1039047 -0.027447034 -0.21548632
000050 95 32 d0 3c e4 98 17 be 14 f9 e4 3d de 3a 55 b9
       0.025414744 -0.14804417 0.111803204 -0.00020335193
000060 2d 68 b5 bb 8b c3 d0 bd f1 e1 e5 3c 35 97 d1 bd
       -0.0055361004 -0.10193547 0.028061839 -0.102339186
000070 53 cb 51 bc 73 fb 97 be 70 bc 71 bd 13 b8 b2 be
       -0.012804824 -0.29684028 -0.0590176 -0.34906062
000080 cf 87 41 3d ec 9b e0 bd ca b7 bc 3d 02 57 fb 3d
       0.047248658 -0.1096724 0.092147425 0.12272455
000090 c5 77 14 be 6c 33 18 be cd ef 85 be fa cc cf bd
       -0.14498813 -0.14863366 -0.26159516 -0.10146518
0000a0 36 49 6d bb ab 97 b5 3d 33 91 db bc 1d a1 90 be
       -0.0036206967 0.08866819 -0.026802635 -0.2824792
0000b0 5b 9e bb 3c f5 02 44 3d 60 aa 0f 3d 05 d7 28 bc
       0.022902658 0.047854383 0.03507459 -0.010305171
0000c0 9c 5f d4 bd c6 f6 e7 bc a9 17 26 be 1e ed 94 bd
       -0.103697985 -0.028315913 -0.16219963 -0.07271789
0000d0 12 d4 09 be 2e 01 d2 3d e2 b2 33 bd 89 19 b5 bd
       -0.13459805 0.10254131 -0.043871768 -0.08842761
0000e0 a9 2a 54 3e 2b a4 5c be b1 d5 93 bd 62 69 94 bd
       0.20719399 -0.21547 -0.07218493 -0.07246663
0000f0 2e 49 53 3d d3 93 a3 bc c7 97 c6 3b d4 ba e6 bc
       0.05158346 -0.019967949 0.0060605737 -0.028165258
000100 09 23 2f bd 7a fe 33 3e f0 a1 01 bd 1c f3 60 3c
       -0.04275802 0.17577544 -0.031648576 0.013729837
000110 96 e5 97 3e fc 5f 18 bd b1 32 0e 3a 89 06 9b 3d
       0.29667348 -0.037200913 0.0005424424 0.07569606
000120 a8 16 d0 bd 6e ab 0a bc 21 4c 8c 3d 41 4b df 3d
       -0.10160571 -0.008463724 0.06850458 0.109030254
000130 d3 a4 13 be a0 40 07 be a8 f2 b4 3d 1d 95 e8 3d
       -0.14418344 -0.13208246 0.088353455 0.11356566
000140 e8 e4 db be 94 b4 95 3d f3 fe cc bd 2b b5 42 bd
       -0.4294808 0.07309833 -0.10009565 -0.047536056
000150 0e 25 57 3c ff 3c da bd 71 55 93 3d 1b fa 15 bd
       0.013131393 -0.10656165 0.07194031 -0.036615472
000160 5c d8 a3 bd e9 28 5d 3b ef be be 3c 36 2f 8e 3e
       -0.08000252 0.0033746308 0.023284404 0.27770394
000170 65 ef 05 3e f8 2f 5e 3e 54 de f5 3c 67 65 7e 3b
       0.13079603 0.21697986 0.03001324 0.0038817765
000180 0d 4e 28 3d 31 60 55 bb bf 5a 0b 3d c1 26 c8 bd
       0.04109006 -0.0032558555 0.03402209 -0.09773017
000190 62 b9 20 be 76 4a 55 bc f7 15 6c be f2 0e 66 bd
       -0.15695718 -0.013018241 -0.23055254 -0.056166597
0001a0 d5 48 15 3e 27 4e 40 3e b5 9d 02 3d e4 42 d3 bd
       0.14578564 0.18779813 0.031888682 -0.10315493
0001b0 06 48 85 bd 49 2c 00 3e 16 e7 80 bc 72 28 9e bc
       -0.06507878 0.12516893 -0.01573519 -0.019306395
0001c0 cf f3 f9 3d 7e d1 36 be 75 79 73 bd 61 10 86 be
       0.12204706 -0.17853352 -0.059442002 -0.2618437
0001d0 80 fc 11 be 91 1e de bd 9e 43 1c be 53 ed 82 3c
       -0.14256477 -0.10845674 -0.15260169 0.015982306
0001e0 6b 72 72 bd d6 e9 b3 bd 5a 5d f9 3b 38 9d 51 be
       -0.05919115 -0.08784835 0.0076100053 -0.2047013
0001f0 56 10 82 bb 40 2d b2 bd 4a d0 01 bc 0b 69 d0 3d
       -0.0039692326 -0.08700037 -0.007923195 0.10176285
000200 c3 1b 2c 3e a7 b3 c1 3d 81 6a d1 3d 61 8e ea bd
       0.16807465 0.09458094 0.10225392 -0.11452938
000210 a6 b4 d7 be 44 46 59 3f 5c ff bb bc cc a6 07 3e
       -0.4213001 0.8487284 -0.022948913 0.13247222
000220 0c ce d6 bd 13 0d 44 be ef 60 9c be b2 b2 05 3e
       -0.10488519 -0.19145612 -0.30542704 0.13056448
000230 28 f1 2a be bb 61 7e be 06 26 96 bd a3 a4 0e bc
       -0.16693556 -0.24841969 -0.07331471 -0.008706245
000240 9d 16 95 3d ff ed 3b bd 8d 67 66 3e 90 ee 6f 3e
       0.07279704 -0.045881268 0.22500439 0.23430848
000250 ba c8 1f 3d 82 a0 31 be 11 82 20 bd 05 32 75 bd
       0.039009787 -0.17346385 -0.03918654 -0.059862155
000260 0e fb f9 38 ce 64 cb bc 47 7a 94 3e d3 0d dd bd
       0.00011920008 -0.02482834 0.2899954 -0.107936524
000270 84 42 3a 3e 20 1b 88 be ea 32 f8 3d a2 2e a1 be
       0.18189436 -0.26583195 0.12119086 -0.3148089
000280 6b cd 86 3e 4e d7 07 3e b0 d5 2c bd 30 f7 cb bd
       0.26328596 0.13265726 -0.042195976 -0.09959257
000290 6d 90 8a 3d f1 74 95 3d 85 da ab bd 28 08 c8 3d
       0.06765828 0.072976954 -0.08391289 0.09767181
0002a0 f3 0e ec bc da fd 3d be 5f 99 e0 bd e5 3e 61 3e
       -0.028815722 -0.18553868 -0.10966753 0.21996649
0002b0 4f 1a 2b bb a9 b7 39 3c 8e 6d b1 bd c9 eb 0f 3e
       -0.002610821 0.011335292 -0.08663474 0.14054789
0002c0 c7 ae ab bc 19 45 79 3e 1c 58 3a bd b0 f0 a7 bd
       -0.020957364 0.24342765 -0.045494184 -0.08200204
0002d0 12 c1 c0 3e 6e 23 be 3e 10 92 f9 bd 1d c5 52 bd
       0.376473 0.37136406 -0.12186062 -0.051457513
0002e0 28 90 2e 3e 09 bc 2b 3e fc a3 a5 3e 1d c0 a1 3e
       0.17047179 0.16770948 0.32351673 0.31591883
0002f0 a5 97 61 3e 55 60 ec bd 32 de 02 3f 98 92 27 bd
       0.22030504 -0.115418114 0.51120293 -0.040911287
000300 20 19 c7 bd 30 9e 9a bd 9d 02 5f 3d 23 ed 07 be
       -0.09721589 -0.07549703 0.05444585 -0.13274054
000310 dd 5f 7b 3d 90 1f 00 bd 64 df a5 3d a5 c7 0a 3e
       0.06137072 -0.0312801 0.08099249 0.13552721
000320 92 53 4e 3e cd 1c 2a be 72 8a c9 3d c9 db 70 3c
       0.20149067 -0.16612549 0.098408595 0.014700838
000330 3e 75 03 be 20 02 8c 3d d2 62 01 3d 91 51 41 be
       -0.12837693 0.06836343 0.031588383 -0.18878771
000340 05 1e 53 3d 8a a7 c9 bc 85 98 f3 3c ac 37 2d bc
       0.0515423 -0.024616022 0.029735813 -0.010572355
000350 8d c0 6d 3d 91 59 7d bd 05 a6 c4 3c 70 67 15 3e
       0.05804496 -0.061852995 0.024004946 0.1459024
000360 52 78 f1 bd 9f 36 f1 bd 99 57 a0 3d d3 a1 82 3e
       -0.117905274 -0.11777996 0.07829208 0.25514087
000370 3d 56 4b bc fb 38 ce bd 9c c9 d0 3d 6a 5f 21 3e
       -0.0124106975 -0.10069462 0.10194704 0.15759054
000380 8e d3 92 3c 3b 6c f5 bd 55 ab 64 3d 39 f7 25 3c
       0.017923143 -0.11983534 0.055827457 0.010129743
000390 02 9e 86 bd 90 63 5f be 22 0b be bc 1e ed 58 be
       -0.06573106 -0.21815324 -0.023198668 -0.21184203
0003a0 45 30 11 3e 7f 80 36 be ef da 3b be 17 d4 8a bd
       0.1417857 -0.17822455 -0.18345235 -0.06778734
0003b0 7a 8f 4b 3d a7 6f c8 3d 23 2a 35 3e 9e a8 92 bd
       0.049697377 0.09786921 0.17691855 -0.071610674
0003c0 d9 78 74 be ca 11 7e 3b 80 5e 95 bd 94 52 a9 3d
       -0.23874225 0.0038767927 -0.07293415 0.08267704
0003d0 7c 54 15 3e 66 79 51 be dd a7 aa bd d4 21 4e be
       0.1458301 -0.20456466 -0.08332799 -0.20130092
0003e0 a1 dd b3 bc 84 61 21 3e d4 2f c0 3e 48 b9 8c 3e
       -0.021956267 0.15759856 0.3753649 0.27485108
0003f0 34 d4 c1 bd 01 58 cd bb 83 a5 3d 3c 64 ce 0f be
       -0.09464303 -0.0062665944 0.011575106 -0.14043576

actor.0.bias f4 [32]
000000 f7 c9 52 bc 76 6f 55 bc 9b a6 f7 3d 9d 65 95 3c
       -0.012865535 -0.013027063 0.12092324 0.01823693
000010 16 9d 07 bc 77 bc 82 3d fa b6 59 be 89 59 2f be
       -0.008277198 0.06383603 -0.21261206 -0.17123999
000020 1c 8f ab 3d 0b 02 59 3e 1f d8 45 3e 10 93 09 bc
       0.08376905 0.21192186 0.19320725 -0.008396879
000030 64 c7 ed 3d d9 6f bc 3c c4 ce 20 3b 45 0e 5d bd
       0.11610296 0.023002552 0.0024537304 -0.053968687
000040 fc d5 26 be 2f 26 83 bc a8 45 51 be d1 b4 51 bc
       -0.16292566 -0.016009418 -0.20436728 -0.012799458
000050 a5 9c 68 bd 01 a7 36 bd 17 f0 4a bc e9 ad 40 bc
       -0.056790013 -0.04459286 -0.012386343 -0.011760213
000060 6d 83 be 3d 00 00 00 00 17 28 45 be 57 04 19 bc
       0.09302411 0.0 -0.19253574 -0.009339414
000070 2e ac 95 bb 8c 9b 52 bb 93 10 f8 bb da 9b c9 bc
       -0.0045676446 -0.003213617 -0.007570335 -0.024610449

actor.2.weight f4 [2, 32]
000000 ec 86 33 be 8c a2 7d be 16 d9 79 3e cf 46 84 3d
       -0.17531937 -0.24769038 0.24399218 0.06458818
000010 27 44 9f bc 31 25 39 3a 5c 53 7f bf 15 7f 00 bf
       -0.019441677 0.0007062732 -0.9973657 -0.5019391
000020 0a b1 cd 3e 85 fa aa 3f 0d 9b 4b 3f d6 f6 88 3e
       0.40174133 1.3357702 0.79533464 0.2675082
000030 9b d8 34 3f 6e 65 b8 be 3d 43 8b 3b 1f c9 d4 bd
       0.70643014 -0.36014885 0.004249959 -0.10389923
000040 56 49 b4 bf bd da a5 bd b7 b3 62 bf 47 fc 1d bd
       -1.408488 -0.08098362 -0.88555473 -0.03857067
000050 e6 aa ca bb 1c 93 e4 3d 44 a6 3e 3c 45 a5 0f be
       -0.0061849235 0.111608714 0.0116363205 -0.14027889
000060 f7 c2 1c bf 00 2b 6c be ea 22 92 bf 80 64 06 be
       -0.6123499 -0.23063278 -1.1416905 -0.13124275
000070 b6 05 c2 3d 99 8d 79 3e 46 1f b0 3e fb 51 8a 39
       0.094737455 0.24370421 0.3439886 0.0002638249
000080 f8 c0 24 3e 7c 4d a9 bc 0b f5 91 be 92 2e 8a be
       0.16089237 -0.02066683 -0.28507265 -0.26988655
000090 88 86 80 be 9f 3c 00 be b7 4d 67 3f 37 77 e1 3e
       -0.2510264 -0.12523125 0.9035296 0.44036266
0000a0 93 6b 37 bf 17 f6 b2 bf c2 b2 6a bf 90 d3 a0 bd
       -0.7164852 -1.3981351 -0.9167901 -0.07852852
0000b0 4f 33 6e bf 09 20 c7 be b9 e5 aa be 33 24 a5 3e
       -0.9304704 -0.38891628 -0.3337839 0.3225418
0000c0 67 6d b7 3f 7f a2 0e be 6f 7e 59 3f 43 d3 55 be
       1.4330262 -0.13929175 0.8495855 -0.20881371
0000d0 1e 37 9f be 43 9f 20 3e 90 ad 14 bd f0 be 15 bd
       -0.3109674 0.15685754 -0.036298335 -0.036559045
0000e0 41 26 38 3e 6f af 58 3d cd 84 7f 3f fe 22 8e 3d
       0.17983343 0.05290168 0.9981201 0.06940268
0000f0 5a d6 19 be af e1 58 bd ae d9 0d 3e 9a cc 31 be
       -0.15023175 -0.052949604 0.1385257 -0.17363206

actor.2.bias f4 [2]
000000 30 93 49 3e 21 93 49 be
       0.19685054 -0.19685031

critic.0.weight f4 [32, 64]
000000 da ae 42 3e 61 7a 56 be 8c 77 c8 bd 0d fa bf 3c
       0.19012013 -0.20945121 -0.09788427 0.023434663
000010 b3 b8 55 bd 3e 02 fe bc 80 0c 33 be 39 d2 a2 bc
       -0.052178096 -0.031006929 -0.17485237 -0.019875633
000020 75 81 41 3d 36 88 61 3e d7 d6 64 3d ba e8 dc 3d
       0.0472426 0.22024617 0.05586895 0.107865766
000030 27 7f af bc 95 a1 43 bc b4 81 7d 3d 97 94 95 3d
       -0.021422936 -0.01194038 0.061891273 0.07303732
000040 76 9e 92 3b de 4b ca bd 85 96 b7 bc 1d bd 96 bd
       0.0044744564 -0.09877752 -0.02241064 -0.07360289
000050 73 9e 7a be 3c e3 53 3d 4a 3b 0f 3e 58 00 c2 3d
       -0.24474506 0.05173038 0.1398746 0.09472722
000060 d5 ec 7e 3c bf 7f 9f bd 3e f3 a1 bd 63 05 cb bd
       0.015559395 -0.077880375 -0.07907723 -0.09913137
000070 fb 58 ea 3d 19 74 5b bd 37 c6 8b bd 54 41 11 bd
       0.11442753 -0.053577516 -0.06824916 -0.035462692
000080 e6 dd 03 bc d4 db 4c 3d 0d 00 d6 bb e3 65 2c 3e
       -0.00804851 0.050014332 -0.006530768 0.16835742
000090 45 6d bc be be 39 94 be a8 c2 c2 bc 09 23 84 bd
       -0.36802116 -0.28950304 -0.02377446 -0.06451995
0000a0 6c 89 19 3e b3 6f 3d bc 37 15 7b bd cc ee 7d 3e
       0.14993829 -0.011562276 -0.06129953 0.24798125
0000b0 83 61 1f 3e 01 76 07 3d 9b 01 68 3e dc ca ba bd
       0.15564542 0.03307152 0.22656862 -0.091207236
0000c0 4a bb 1e 3e b7 38 1f be 6a 38 b8 bd 35 77 14 bd
       0.15501133 -0.15548979 -0.08995135 -0.036246497
0000d0 94 f5 34 bd d9 49 5c be 43 c2 a1 3d fe 31 90 be
       -0.044179514 -0.21512546 0.078983806 -0.2816314
0000e0 4d 9f 13 3d 29 eb b5 bc 2e d4 8e bd 76 cf 90 bc
       0.036040593 -0.02220686 -0.06974064 -0.01767705
0000f0 09 ac cd 3d e3 fb ed bd 09 2c b8 3d a1 f5 14 bc
       0.10042579 -0.11620309 0.08992774 -0.009091766
000100 2b 30 7f 3e 73 93 28 3e 5a 70 30 3e 81 e1 86 be
       0.24920718 0.16462497 0.17230359 -0.2634392
000110 b7 7c 20 3f 2e 7f 40 3e 7a 1d 98 3c 47 94 a4 bd
       0.626903 0.18798515 0.018568743 -0.08036094
000120 28 d6 b3 be 57 a9 4a 3e cc 28 e4 bd 8f 31 64 be
       -0.35124326 0.1979116 -0.11140594 -0.2228453
000130 54 69 69 be 80 90 05 bd 75 8c 38 3d e2 bc 10 3e
       -0.22794086 -0.03260851 0.045055825 0.14134553
000140 ce 17 e5 3c c8 6a 3e bd 0f 5d 58 3e 0b b5 9e 3e
       0.027965453 -0.046488553 0.21129249 0.309975
000150 a9 3c 81 3e 21 1f 03 3d 49 24 af 3e 98 55 5b be
       0.25241593 0.03201211 0.3420737 -0.2141937
000160 b9 0a 3b be 37 d5 74 3c c8 0c f6 3d 97 70 71 be
       -0.18265809 0.0149434125 0.120141566 -0.23578106
000170 3b c5 6a 3e d3 29 cd be 28 85 3b 3e d2 30 fb bd
       0.229268 -0.40070972 0.18312514 -0.12265171
000180 7c 88 6e bd f2 3a 74 3c 56 b7 a1 be c0 0b 42 3c
       -0.05823563 0.014906632 -0.31585187 0.011843622
000190 f8 40 1e be 9d e0 6c 3e c8 89 11 be ec 1f 1f bd
       -0.15454471 0.23132558 -0.14212716 -0.038848802
0001a0 b0 c0 80 bd de 14 68 3e 6f 45 78 3d 2a c2 59 be
       -0.06286752 0.2266421 0.060613092 -0.21265474
0001b0 3e 8f c8 3c f7 e5 19 3e f2 91 9f 3e 66 06 d9 bd
       0.024482366 0.15029131 0.31166035 -0.105969235
0001c0 a6 d1 6c 3d 36 33 f7 bd a3 55 6a be 54 d4 85 3c
       0.057817124 -0.120703146 -0.2288423 0.016336598
0001d0 94 35 a4 bd 51 ea dd 3e 24 c2 a8 bd f6 b6 68 bd
       -0.08018032 0.43342832 -0.082401544 -0.05681511
0001e0 b7 d5 36 bb f0 bb 46 be aa 32 03 be e5 0d 56 3d
       -0.002789838 -0.1940763 -0.12812296 0.052259345
0001f0 f7 a4 84 bd 86 08 8e 3c 8a ef 53 3d db 5e e2 3e
       -0.06476777 0.017338049 0.051742114 0.44212994
000200 b1 72 93 bb 9e 0d 67 bc 11 e0 30 be 75 cc 6c be
       -0.0044997563 -0.014102368 -0.17272975 -0.23124869
000210 7b ca 17 3f 8e 33 b5 bd 9b 82 ec 3c 4c ae 99 3e
       0.59293336 -0.08847724 0.028870871 0.3001579
000220 73 ca 69 be 4a 9f e3 3d 16 98 9f be cf f0 9d be
       -0.22831134 0.11114366 -0.3117072 -0.30847785
000230 51 45 01 be 8b eb 24 be e7 4e 15 bd 97 61 99 bd
       -0.12624098 -0.16105478 -0.0364522 -0.07489317
000240 ef 13 cb 3d 7e 91 ea bd 63 1f 8f 3b c3 6f 37 3e
       0.099159114 -0.11453532 0.0043677553 0.17913727
000250 4e a6 03 3f 70 09 1f 3c 79 dd ec 3e c4 ba 75 be
       0.51425636 0.00970684 0.4626272 -0.23997027
000260 69 d8 d6 3b 20 a1 e5 bc 9a e9 23 3e 5b 73 a9 3d
       0.00655656 -0.028030932 0.1600708 0.082739554
000270 39 0b c2 3e 91 a4 ee bd 3d 13 29 be db f1 6e be
       0.37899187 -0.11652482 -0.16511245 -0.23334448
000280 53 32 5e bc fa 74 ce 3d c1 be 9a bd 04 bb 2a be
       -0.013561803 0.10080905 -0.07555915 -0.16672903
000290 c2 ad c4 bb 56 5d 7d 3d be 8e d2 bd 16 39 3a 3e
       -0.006002159 0.06185659 -0.10281132 0.18185839
0002a0 2e ca 0f 3e 12 d9 fa 3e da 4b 18 3d 06 67 b8 bd
       0.14041969 0.48993737 0.037181713 -0.09004025
0002b0 a4 e2 a5 3e 63 c0 f1 bd 28 be af 3c be 3e ee bd
       0.32399476 -0.11804273 0.021452978 -0.11633061
0002c0 e1 fb 4e 3d d3 59 7a be 83 eb d3 3d 32 9b 53 bd
       0.05053318 -0.24448328 0.10347655 -0.051661678
0002d0 4b 97 5c 3e 19 6e cc 3e 49 47 4d be a3 44 95 3d
       0.21542089 0.39927748 -0.20046724 0.07288482
0002e0 87 fc 51 3e 7c 32 30 3e 2b 26 35 bd 78 0e 54 be
       0.20506488 0.17206758 -0.044225853 -0.20708644
0002f0 8b 64 47 be 8c b3 58 be 76 06 fe 3e 42 f4 4f 3d
       -0.19471948 -0.21162242 0.49614304 0.05077005
000300 f8 24 0f 3e 5d e9 10 be bc 88 ed 3c c7 a6 08 bf
       0.13978946 -0.14151521 0.028995864 -0.5337948
000310 24 d5 85 3f 28 8a a8 3e bd 56 4f 3d eb de ad 3d
       1.045567 0.32917905 0.05061983 0.08489784
000320 c9 a6 33 bf 42 d3 07 3b 87 de b9 be 6c 1d d5 bd
       -0.7017637 0.0020725285 -0.36302587 -0.104060024
000330 34 46 cd bc 81 32 5a bd ee 3c d6 bd c1 31 17 3c
       -0.02505789 -0.05327082 -0.1046084 0.009228171
000340 95 56 80 3d 17 e6 59 3c d5 d5 98 3d 21 ed df 3e
       0.06266514 0.013299487 0.0746266 0.43735602
000350 29 f3 3e 3f 58 83 0d 3e 8d d5 a6 3e 9f 3d 08 bd
       0.7458978 0.13819635 0.325848 -0.03326189
000360 67 4e 53 bc 87 fd 84 be 46 47 35 3c ed 10 d6 be
       -0.012897111 -0.25974676 0.011064356 -0.41809788
000370 bb 65 96 3e 10 9b 0b bf 9b 21 d4 3d a9 7b 69 bd
       0.2937449 -0.5453348 0.10357972 -0.057002697
000380 7e 29 05 be 8b 90 9b 3b 65 0a 12 be bb e1 7c bd
       -0.1300411 0.0047474555 -0.14261778 -0.06173871
000390 72 a6 08 3d f0 dc b8 3d 50 69 f4 be 03 37 07 be
       0.03336186 0.090265155 -0.47736597 -0.13204579
0003a0 4e ee 44 bd a0 9a 4f 3f a5 ce 17 be 1c 73 ba 3e
       -0.048078828 0.81095314 -0.14824922 0.36415946
0003b0 0a 49 f6 3c c5 fa 82 3b b7 a3 14 3d 75 7e 86 bd
       0.030064125 0.003997179 0.036288943 -0.065670885
0003c0 de b5 17 3e 51 00 82 3d c9 2f dd 3d 5d 38 38 bd
       0.1481547 0.063477166 0.1080013 -0.044975627
0003d0 70 3f 41 be 89 ab fb 3d 45 41 cb bc bb e8 07 3e
       -0.18871856 0.12288577 -0.024811396 0.13272373
0003e0 7a ff e9 bc 81 2f 84 3e b0 47 30 bb 38 10 67 3c
       -0.028564204 0.25817493 -0.0026898198 0.014102988
0003f0 b2 dc fd be 3f dc a3 3e 5d fc 9d 3e e8 cf ce 3e
       -0.4958244 0.32003972 0.308566 0.40392995

critic.0.bias f4 [32]
000000 9a dd 2e bc 7c 61 65 3d 5a 18 5b 3d 36 57 0e 3e
       -0.010672951 0.05600117 0.05349002 0.13900456
000010 5c fe fe 3e 3b 19 fb 3e ee 4a 8f bc 69 47 0f 3f
       0.49803436 0.49042687 -0.017491784 0.5596834
000020 00 00 00 00 79 59 44 bc ef f7 16 3f 5d 10 02 3f
       0.0 -0.011984223 0.58972067 0.5080622
000030 c3 8e 01 3f e8 b3 03 bc a2 4e 06 3f ee e0 60 bc
       0.5060846 -0.008038498 0.52463734 -0.013725502
000040 3a 5d 03 3f 35 8d 88 3d fd 08 d5 bc dc 03 f1 3e
       0.5131413 0.06667558 -0.026005263 0.47073257
000050 82 85 06 3f 79 28 05 3f 5d aa 00 3f 1d a8 f9 3e
       0.52547467 0.5201488 0.50259954 0.48761073
000060 3d 19 00 3f 31 3d 0c 3f 5e d5 01 3f c4 34 65 be
       0.5003851 0.5478087 0.507162 -0.2238341
000070 76 3f fc 3e 96 4d 0a 3e d6 1a 03 3f f9 cc 0e 3f
       0.49267167 0.13506159 0.51212823 0.55781513

critic.2.weight f4 [1, 32]
000000 9a a8 a0 3b cf fe d6 3e e5 5b 00 3f c4 0b 82 3f
       0.0049029114 0.4199128 0.5014022 1.015984
000010 2b 32 f4 be ba fc ac be 7b 01 17 3c c0 d3 9e be
       -0.47694525 -0.33786565 0.009216662 -0.31020927
000020 1e fc 4e 3e 00 22 3d 3e ba 2c 89 be 94 06 c1 be
       0.20213363 0.18470001 -0.26791936 -0.3770033
000030 14 13 06 bf 14 a9 94 3c d6 ff bc be 4f ba f8 3c
       -0.5237286 0.018147029 -0.36913937 0.030362276
000040 7f 3e b8 be 3c 01 0d 3f b3 ba 06 3c 15 12 e5 be
       -0.3598518 0.5508001 0.0082232235 -0.44740358
000050 88 09 12 bf 73 7b 13 bf 02 e2 0f bf f1 fc e9 be
       -0.57045794 -0.57610244 -0.56204236 -0.4570079
000060 7a 7a ce be a7 c7 b7 be 2b ab cb be 02 2b 58 3f
       -0.40327817 -0.3589451 -0.39779028 0.84440625
000070 fd fb e7 be 69 30 57 3f 12 35 d0 be 54 fe ff be
       -0.4530944 0.84058243 -0.4066549 -0.49998724

exp_avg f4 [64, 12]
000000 00 db 32 3a 5e 51 00 b9 1b 2b c0 ba 09 f0 db 38
       0.00068227947 -0.00012237343 -0.0014661284 0.00010487444
000010 1f d5 e1 39 f9 db 07 ba f3 1e 4d b7 5e 51 00 b9
       0.00043074132 -0.000518262 -1.2226158e-05 -0.00012237343
000020 04 00 00 80 21 40 2c b9 26 9b 13 01 00 db 32 3a
       -6e-45 -0.00016427088 2.711095e-38 0.00068227947
000030 cc 4f 3d 3b 0f 29 02 39 42 78 b5 3a bf 1b d7 39
       0.0028886674 0.00012413062 0.0013845044 0.00041028668
000040 23 d3 34 3a ec 7e 09 3b de 44 b3 36 0f 29 02 39
       0.0006897917 0.0020980192 5.342633e-06 0.00012413062
000050 8f f5 d2 ba 85 0a 5a ba 19 99 56 ba 07 0f 2e 3b
       -0.0016094911 -0.00083176076 -0.00081862655 0.002655925
000060 67 ed 0d 3c 4c 9f a6 3a 10 6e df 3a 7d 46 70 3b
       0.008662558 0.0012712269 0.0017046351 0.0036663108
000070 7e 2e 9b 3b 9b 5f 98 3c dc a1 bc 39 4c 9f a6 3a
       0.004735767 0.018600276 0.0003597875 0.0012712269
000080 d4 40 41 3b 0d c3 af 3b 26 9b 4a 3b bf 41 15 3c
       0.0029488103 0.005363828 0.003091523 0.009109913
000090 b7 95 69 bc fa 9f e2 ba 54 f5 ac ba f6 76 67 bb
       -0.014256886 -0.0017290108 -0.0013195672 -0.003531871
0000a0 8b 0e 8e bb 4e f7 96 bc 88 07 55 b9 fa 9f e2 ba
       -0.0043352298 -0.018428471 -0.00020316069 -0.0017290108
0000b0 24 f3 ef 3a 64 09 ca b9 9b a7 3c 3b 22 53 74 bc
       0.0018306714 -0.0003853544 0.0028786424 -0.0149123985
0000c0 04 00 00 00 04 00 00 00 04 00 00 00 04 00 00 00
       6e-45 6e-45 6e-45 6e-45
0000d0 04 00 00 00 04 00 00 00 04 00 00 00 04 00 00 00
       6e-45 6e-45 6e-45 6e-45
0000e0 04 00 00 00 04 00 00 00 04 00 00 00 04 00 00 00
       6e-45 6e-45 6e-45 6e-45
0000f0 04 00 00 00 04 00 00 00 04 00 00 00 04 00 00 00
       6e-45 6e-45 6e-45 6e-45
000100 04 00 00 00 04 00 00 00 04 00 00 00 04 00 00 00
       6e-45 6e-45 6e-45 6e-45
000110 04 00 00 00 04 00 00 00 04 00 00 00 04 00 00 00
       6e-45 6e-45 6e-45 6e-45
000120 48 14 05 3c d8 82 5f 3a c2 43 1a 3b 43 12 19 3b
       0.008122511 0.0008526272 0.0023538922 0.0023356832
000130 61 19 65 3b 69 2a 42 3c 15 3a 1f 38 d8 82 5f 3a
       0.0034957754 0.011850932 3.7962647e-05 0.0008526272
000140 2f ee 41 ba 00 9e 55 38 d8 b3 9c 39 58 7e 09 3c
       -0.0007397858 5.0930306e-05 0.00029888633 0.008391939
000150 04 00 00 00 04 00 00 00 04 00 00 00 04 00 00 00
       6e-45 6e-45 6e-45 6e-45
000160 04 00 00 00 04 00 00 00 04 00 00 00 04 00 00 00
       6e-45 6e-45 6e-45 6e-45
000170 04 00 00 00 04 00 00 00 04 00 00 00 04 00 00 00
       6e-45 6e-45 6e-45 6e-45
000180 25 32 15 bb 9f 93 c7 b9 51 7e db bb e2 37 3a ba
       -0.0022765484 -0.00038066224 -0.0066984077 -0.0007103664
000190 91 3a 7c ba de c4 da bb e1 59 86 b9 9f 93 c7 b9
       -0.0009621764 -0.0066763004 -0.00025625437 -0.00038066224
0001a0 26 36 f7 bb 83 29 0a bc 7a 8d fa bb c1 cb 96 bb
       -0.007544297 -0.008432749 -0.00764626 -0.004601926
0001b0 1d da 3c 3c 79 53 ba 39 c8 1e f9 3b 4d 3e a8 3a
       0.011526612 0.00035538877 0.0076025464 0.001283595
0001c0 9a 88 29 3b 0a 90 2e 3c 37 51 51 b8 79 53 ba 39
       0.0025868774 0.010654459 -4.990512e-05 0.00035538877
0001d0 07 fa a3 ba 0c c2 b4 b9 47 13 04 ba 49 b9 3d 3c
       -0.0012510427 -0.00034476852 -0.0005038273 0.01157982
0001e0 85 24 a8 3b ab 45 e3 39 eb 60 17 3b 7f e4 97 3a
       0.0051313066 0.0004334872 0.002309854 0.0011588483
0001f0 94 d6 f6 3a d0 e5 b6 3b 58 4d 22 37 ab 45 e3 39
       0.001883226 0.005581595 9.67396e-06 0.0004334872
000200 0e 3b bd b9 95 60 2f 39 d2 f7 5e 39 23 e1 ad 3b
       -0.00036092888 0.0001672528 0.0002126389 0.0053063794
000210 2d 94 6f 3b ff bc f3 39 f0 59 8a 3b 4a 57 95 3a
       0.0036556826 0.00046489385 0.004222147 0.0011393812
000220 9b f5 b8 3a e6 93 99 3b 71 d3 65 38 ff bc f3 39
       0.0014111282 0.0046868203 5.4794775e-05 0.00046489385
000230 eb c1 08 b9 98 d3 bf 39 90 22 37 3a 49 4d 82 3b
       -0.00013042211 0.00036588009 0.0006986046 0.0039764983
000240 63 e0 e9 39 f7 39 50 38 e3 63 d5 38 58 9f 26 39
       0.00044608404 4.964505e-05 0.00010175237 0.00015890354
000250 c4 7c 55 39 6b 95 70 3a b5 f1 4b b7 f7 39 50 38
       0.00020359742 0.00091775384 -1.215602e-05 4.964505e-05
000260 6a 14 51 b9 b7 48 ca 37 0e d2 c8 b8 b4 68 e3 39
       -0.00019939398 2.4114137e-05 -9.575869e-05 0.00043374824
000270 75 6b 3a 3b ed 0e 99 39 70 e4 8b 3b d4 25 1d 3a
       0.0028445397 0.00029193555 0.004269175 0.00059947115
000280 e7 54 87 3a 2f b6 3e 3b 57 a4 e5 37 ed 0e 99 39
       0.0010324985 0.002910029 2.7375454e-05 0.00029193555
000290 10 d4 b4 39 24 75 f3 39 9f 32 89 3a 2e 81 44 3b
       0.00034490274 0.00046435848 0.0010467357 0.0029984224
0002a0 d0 48 90 3b 84 50 e1 39 0f 76 41 3b d2 31 4f 3a
       0.004403211 0.00042975333 0.0029519831 0.0007903847
0002b0 38 7a a7 3a c1 b7 77 3b c1 eb cb 38 84 50 e1 39
       0.0012777513 0.0037798735 9.723707e-05 0.00042975333
0002c0 a6 6f 12 3b 7e 9f 06 3b ff 0b fb 3a 48 7c a0 3b
       0.002234438 0.0020541842 0.0019153355 0.004897628
0002d0 d4 98 55 3a b2 05 85 39 3c 20 1f b9 27 53 4d 3a
       0.00081480783 0.0002537198 -0.0001517543 0.000783252
0002e0 7a 81 39 3a 95 4b 18 3b 0e 35 61 b8 b2 05 85 39
       0.00070764835 0.002323841 -5.369359e-05 0.0002537198
0002f0 1e 23 f9 3a 59 a3 aa 3a 00 21 10 3b 6a ec c4 3a
       0.0019007658 0.0013018652 0.0021992326 0.001502407
000300 91 d3 17 3b 1f a5 3c 39 34 d3 09 3b 42 13 0d 3a
       0.0023166875 0.0001799059 0.0021030428 0.0005381593
000310 26 3a 42 3a 6d 64 0c 3b 50 ac 12 b7 1f a5 3c 39
       0.00074091775 0.0021422163 -8.742398e-06 0.0001799059
000320 8f 46 b4 b9 2c fd 65 b8 cf af 46 b8 3f 1d 13 3b
       -0.00034384846 -5.483364e-05 -4.7370613e-05 0.0022447852
000330 00 00 00 00 00 00 00 00 00 00 00 00 00 00 00 00
       0.0 0.0 0.0 0.0
000340 00 00 00 00 00 00 00 00 00 00 00 00 00 00 00 00
       0.0 0.0 0.0 0.0
000350 00 00 00 00 00 00 00 00 00 00 00 00 00 00 00 00
       0.0 0.0 0.0 0.0
000360 29 83 8a 39 bf 54 2b 39 d8 6a 9e 3a 3d b4 1e 35
       0.00026419133 0.00016339401 0.0012086285 5.912187e-07
000370 a1 8e 17 b8 9b 76 15 3b f7 fa e6 b7 bf 54 2b 39
       -3.613404e-05 0.002280629 -2.7535001e-05 0.00016339401
000380 e7 2c b8 ba 95 fd 64 ba 99 eb 07 b7 b6 0e 97 39
       -0.0014051468 -0.00087352964 -8.101481e-06 0.00028811925
000390 db 45 a0 3b 20 9e 29 3a 04 00 00 00 98 f8 9f 3a
       0.00489114 0.0006470401 6e-45 0.0012204824
0003a0 2b d0 4b 3a d2 0d bd 3b f3 12 93 39 20 9e 29 3a
       0.0007774855 0.00576947 0.00028052143 0.0006470401
0003b0 84 68 4c 3b 81 12 18 3b 89 eb 45 3b 37 7c 9c 3b
       0.0031190226 0.0023204389 0.0030200204 0.0047755498
0003c0 85 b0 36 3b f0 f5 17 3a 50 75 1a 3a 6b 2d a5 3a
       0.002787621 0.00057968404 0.0005892115 0.0012602037
0003d0 8a b9 da 3a ef b2 ab 3b d4 2a c7 39 f0 f5 17 3a
       0.0016687375 0.0052398364 0.00037988147 0.00057968404
0003e0 40 2b 1f 3b 5c ca 96 3b a4 aa 44 3b a0 c7 4c 3b
       0.0024287254 0.00460176 0.0030008936 0.0031246915
0003f0 a0 db 06 bd 01 74 c1 ba 17 7a 4c bc 6a 72 cb bb
       -0.032924294 -0.0014759303 -0.01248028 -0.0062087076

exp_avg_sq f4 [64, 12]
000000 f9 7b 20 38 4f 58 5d 35 93 04 26 38 81 da 65 36
       3.826243e-05 8.245742e-07 3.9581744e-05 3.4250845e-06
000010 79 12 0b 37 68 17 48 38 78 6c 19 33 4f 58 5d 35
       8.289347e-06 4.7705515e-05 3.572174e-08 8.245742e-07
000020 ab 9d e3 1e 9c bb c7 35 df 14 d7 2f 19 7b 20 38
       2.409977e-20 1.4881257e-06 3.9123102e-10 3.8261616e-05
000030 19 de 7b 38 f7 65 d3 35 fe ea 59 38 ea b0 f3 36
       6.0049908e-05 1.5750401e-06 5.1955685e-05 7.26256e-06
000040 ff 15 87 37 05 7e fc 38 ba 2d 34 35 f7 65 d3 35
       1.6103497e-05 0.00012039769 6.7121766e-07 1.5750401e-06
000050 1b b5 de 38 e5 9c b1 38 a5 bb c7 38 ad b2 8a 38
       0.000106195184 8.4692416e-05 9.524011e-05 6.613634e-05
000060 f8 bf 30 3a b1 fd ce 37 b2 bf 07 3a 37 94 b9 38
       0.0006742473 2.4675248e-05 0.0005178406 8.8490946e-05
000070 2a f9 20 39 b2 30 97 3a b8 9c ee 36 b1 fd ce 37
       0.0001535161 0.0011534898 7.111197e-06 2.4675248e-05
000080 df 4e f8 39 5d 0b c3 39 7c 47 dc 39 19 fc 43 3a
       0.0004736101 0.00037201765 0.0004201493 0.0007476225
000090 a7 9e 4d 3a da 78 57 38 b5 ec ea 39 ea 73 4f 39
       0.00078437704 5.1372546e-05 0.00044808318 0.0001978424
0000a0 00 89 93 39 d2 1c 1f 3b 98 be 79 37 da 78 57 38
       0.00028140098 0.0024278653 1.4885933e-05 5.1372546e-05
0000b0 26 69 60 3a 5f 43 32 3a f8 c6 66 3a 3f dd 80 3a
       0.000856059 0.00068002 0.00088034524 0.0009831561
0000c0 d3 b6 52 10 44 0b 13 0d 3e 22 63 11 ec bb 12 0e
       4.155604e-29 4.5311433e-31 1.7917694e-28 1.808637e-30
0000d0 81 67 38 0f 9c 73 00 10 41 c7 0e 0d 44 0b 13 0d
       9.0918345e-30 2.533261e-29 4.399697e-31 4.5311433e-31
0000e0 39 1e 5d 11 88 1b 5d 11 42 59 3d 11 5d 45 02 10
       1.7443139e-28 1.744231e-28 1.4936976e-28 2.5691415e-29
0000f0 f4 01 00 00 f4 01 00 00 f4 01 00 00 f4 01 00 00
       7e-43 7e-43 7e-43 7e-43
000100 f4 01 00 00 f4 01 00 00 f4 01 00 00 f4 01 00 00
       7e-43 7e-43 7e-43 7e-43
000110 f4 01 00 00 f4 01 00 00 f4 01 00 00 f4 01 00 00
       7e-43 7e-43 7e-43 7e-43
000120 49 c0 85 39 a0 88 0f 37 90 70 fc 38 21 4b 17 38
       0.00025511 8.555275e-06 0.00012037263 3.6071175e-05
000130 2b 95 7c 38 95 fc ea 39 f0 36 1c 36 a0 88 0f 37
       6.0220405e-05 0.00044820146 2.327779e-06 8.555275e-06
000140 f0 ca 3b 39 48 64 15 39 1a 87 ee 38 7e f5 8b 39
       0.0001790931 0.00014247105 0.00011373889 0.00026695052
000150 f4 01 00 00 f4 01 00 00 f4 01 00 00 f4 01 00 00
       7e-43 7e-43 7e-43 7e-43
000160 f4 01 00 00 f4 01 00 00 f4 01 00 00 f4 01 00 00
       7e-43 7e-43 7e-43 7e-43
000170 f4 01 00 00 f4 01 00 00 f4 01 00 00 f4 01 00 00
       7e-43 7e-43 7e-43 7e-43
000180 1b 2c 60 39 f0 01 b5 37 d3 94 bd 3a d7 16 bc 38
       0.00021378735 2.1577784e-05 0.0014463909 8.968793e-05
000190 ce af 7f 39 47 90 d9 3a 8e ee fa 36 f0 01 b5 37
       0.00024384187 0.0016598784 7.478352e-06 2.1577784e-05
0001a0 7f 57 b0 3a 0d e0 95 3a 7c a4 b1 3a 1f bd a3 39
       0.001345381 0.001143457 0.0013553048 0.0003123069
0001b0 ea e2 17 3a 03 ac d7 36 1a 03 0d 3a d6 6e 03 38
       0.00057940057 6.427524e-06 0.00053791853 3.1336058e-05
0001c0 17 82 b0 38 22 0a 22 3a 7d cf 2f 34 03 ac d7 36
       8.416565e-05 0.00061813195 1.6373629e-07 6.427524e-06
0001d0 c9 82 21 38 dc 57 d3 36 5e a7 1c 38 34 30 19 3a
       3.8507194e-05 6.298518e-06 3.734917e-05 0.00058436696
0001e0 1b e3 a4 38 bf 60 0e 36 ee da 92 38 a5 43 03 37
       7.862431e-05 2.1215963e-06 7.002601e-05 7.823958e-06
0001f0 82 c5 8d 37 b6 d7 f2 38 99 30 15 35 bf 60 0e 36
       1.6900482e-05 0.000115796385 5.5577544e-07 2.1215963e-06
000200 20 76 4b 38 41 a4 28 38 30 f6 ec 37 93 0e aa 38
       4.8508984e-05 4.0207295e-05 2.8248032e-05 8.108946e-05
000210 51 aa 43 39 c8 98 6f 36 13 61 64 39 0d e6 80 37
       0.00018660097 3.5702706e-06 0.00021779937 1.5365915e-05
000220 f0 c6 16 38 4f e6 83 39 9e ee 8c 35 c8 98 6f 36
       3.5948062e-05 0.0002515786 1.050026e-06 3.5702706e-06
000230 e1 d2 0e 39 44 37 00 39 e8 19 d7 38 91 47 4a 39
       0.00013620734 0.0001222762 0.00010256824 0.00019290882
000240 4e 3f ae 36 1e 68 06 34 94 93 71 36 0e a3 13 35
       5.1929737e-06 1.25176e-07 3.59977e-06 5.4999043e-07
000250 39 90 9e 35 7b 0f 43 37 08 c2 ca 32 1e 68 06 34
       1.1813892e-06 1.162651e-05 2.360413e-08 1.25176e-07
000260 cb dc b8 35 a6 93 63 35 03 40 85 35 72 a5 b3 36
       1.3773328e-06 8.4778947e-07 9.927902e-07 5.353876e-06
000270 38 23 fb 38 99 7e 8c 35 46 04 72 39 9e 33 68 36
       0.00011975173 1.0467658e-06 0.0002308051 3.460074e-06
000280 36 04 ad 37 50 72 a8 38 00 0a b3 34 99 7e 8c 35
       2.0625168e-05 8.0321566e-05 3.3348624e-07 1.0467658e-06
000290 f6 be cd 38 c7 2f ca 38 fa 6d bb 38 05 05 fe 38
       9.810731e-05 9.64101e-05 8.9373396e-05 0.00012112599
0002a0 7e a9 04 39 33 9a 56 36 90 2f 3b 39 62 68 29 37
       0.00012651642 3.197824e-06 0.00017851428 1.00974885e-05
0002b0 41 4c c6 37 72 66 da 38 f0 9f 61 35 33 9a 56 36
       2.3638948e-05 0.00010414132 8.405177e-07 3.197824e-06
0002c0 1f 97 a4 38 40 02 8a 38 53 cc 8c 38 c1 bf 0a 39
       7.848278e-05 6.580772e-05 6.7137786e-05 0.0001323214
0002d0 c2 d3 db 38 b1 73 c3 36 ba ef 2b 39 97 20 98 37
       0.00010482177 5.824921e-06 0.00016397136 1.8134988e-05
0002e0 62 74 fe 37 a8 1f 61 39 30 f8 f6 35 b1 73 c3 36
       3.0333355e-05 0.00021469465 1.840066e-06 5.824921e-06
0002f0 aa c6 36 39 4f 2a d8 38 0b 62 0a 39 94 85 10 39
       0.0001743088 0.00010307563 0.0001319723 0.00013782672
000300 cd 59 48 38 0d 7d b5 35 f7 6e 85 38 55 d4 93 36
       4.776735e-05 1.3521945e-06 6.362603e-05 4.40566e-06
000310 76 43 1e 37 fb 80 89 38 1b d7 e7 34 0d 7d b5 35
       9.433241e-06 6.5566936e-05 4.3183613e-07 1.3521945e-06
000320 60 16 1b 38 4c 8a b4 37 19 4d 13 38 bb 7f 60 38
       3.6975718e-05 2.1522072e-05 3.5119334e-05 5.352472e-05
000330 00 00 00 00 00 00 00 00 00 00 00 00 00 00 00 00
       0.0 0.0 0.0 0.0
000340 00 00 00 00 00 00 00 00 00 00 00 00 00 00 00 00
       0.0 0.0 0.0 0.0
000350 00 00 00 00 00 00 00 00 00 00 00 00 00 00 00 00
       0.0 0.0 0.0 0.0
000360 1e 52 c2 39 23 86 53 36 78 33 01 3a 3b b3 3a 37
       0.00037063746 3.1519528e-06 0.0004928629 1.1128194e-05
000370 e0 58 4f 38 ea 8d 81 39 4e 40 d3 34 23 86 53 36
       4.9435417e-05 0.00024710532 3.93486e-07 3.1519528e-06
000380 e0 47 0e 38 e0 b2 20 38 67 f4 df 34 aa 53 c2 39
       3.3922377e-05 3.8313563e-05 4.1714813e-07 0.00037064898
000390 b5 d8 82 39 57 a6 d0 36 ca ae f8 05 0e 29 22 38
       0.00024956992 6.2182476e-06 2.3386015e-35 3.8662045e-05
0003a0 c9 cf 8c 38 f5 d0 fe 39 ee ab 04 36 57 a6 d0 36
       6.714423e-05 0.0004860234 1.976961e-06 6.2182476e-06
0003b0 44 1f 91 39 a8 1a 75 39 d3 a1 82 39 f4 9e 91 39
       0.0002767985 0.00023374951 0.000249161 0.00027774984
0003c0 b4 d7 5b 38 54 e8 e4 36 43 e5 16 39 7a 16 d4 37
       5.2414558e-05 6.821976e-06 0.00014390521 2.5282836e-05
0003d0 35 ed 1c 38 15 20 b0 39 23 79 25 36 54 e8 e4 36
       3.7414215e-05 0.0003359324 2.4657427e-06 6.821976e-06
0003e0 b8 e7 4e 39 83 5b 49 39 1a 66 43 39 17 3d 87 38
       0.00019732013 0.00019202945 0.00018634685 6.4486805e-05
0003f0 c1 49 b9 3b 5c 51 24 38 f3 f2 7e 3b 3a 88 94 39
       0.005654544 3.917642e-05 0.0038902133 0.00028330256
