models/checkpoint_750000.pt (torch, 125871 bytes, 33 tensors)

shared.0.weight f4 [64, 12]
0	0xbe509298	-0.20368421
1	0xbef653ec	-0.48110902
2	0x3dcb1435	0.099159636
3	0x3f59e60b	0.8511664
4	0xbe3e87d6	-0.18606505
5	0xbb73a6cb	-0.0037178274
6	0xbeed7dcd	-0.4638504
7	0xbf2940c0	-0.66114426
8	0xbe74e0e6	-0.23913917
9	0xbe1f0da6	-0.1553255
10	0xbe21cb70	-0.15800261
11	0x3d7afff8	0.061279267
12	0x3d299bfe	0.04140853
13	0x3c89d919	0.016827153
14	0xbe53e2bd	-0.20691963
15	0x3f4ed01a	0.8078629
16	0x3d99b59d	0.07505343
17	0xbe160df2	-0.14653757
18	0x3e225457	0.15852486
19	0x3e7a1fbb	0.24426167
20	0x3cdb770b	0.026790163
21	0xbdcde775	-0.100539126
22	0x3c53bba3	0.012923154
23	0x3e3fabd6	0.18717894
24	0x3dc32f25	0.095304765
25	0xbbc88d32	-0.0061203474
26	0xbc24dbb4	-0.010062147
27	0xbdfbb6cb	-0.12290724
28	0xbf30f73f	-0.6912727
29	0x3dae0478	0.08496946
30	0x3e074d85	0.13213165
31	0x3d10bc92	0.035336085
32	0xbe67c20d	-0.22632618
33	0x3dfeb8f3	0.1243762
34	0x3e81995e	0.25312322
35	0x3cc3ac6b	0.023885926
36	0xbe446f39	-0.19183053
37	0xbee5d9f2	-0.44892842
38	0xbc2a82ff	-0.010407208
39	0x3da15ce2	0.07879044
40	0x3e9cbfb8	0.3061502
41	0x3ea58a16	0.32331914
42	0x3e12315a	0.14276639
43	0xbdf82231	-0.121158965
44	0xbdfbbeb2	-0.122922316
45	0x3d783d82	0.060605533
46	0x3d850478	0.06494993
47	0x3e43ffc9	0.19140543
48	0x3dc22eed	0.09481607
49	0xbe9d8c96	-0.3077132
50	0x3d8ddaba	0.069264844
51	0xbf361884	-0.7113116
52	0xbe98e41d	-0.29861537
53	0xbe0f7787	-0.1401044
54	0xbf1bf65a	-0.6092278
55	0xbe232018	-0.15930212
56	0x3d0aef2d	0.033919502
57	0x3e04e749	0.12978853
58	0xbe4a8120	-0.1977582
59	0xbea97817	-0.33099434
60	0xbe2d3ccd	-0.16917725
61	0xbcc65073	-0.024208283
62	0xbe9196cb	-0.28435358
63	0xbefb097e	-0.4903068
64	0xbec08c7e	-0.37607187
65	0x3d88f763	0.0668781
66	0xbe1dd098	-0.15411603
67	0xbdaf77f8	-0.08567804
68	0x3bd8d66c	0.006617358
69	0xbca6dad4	-0.020368017
70	0xbd37cb7e	-0.0448718
71	0x3e0043ef	0.12525915
72	0xbd011eee	-0.031523637
73	0x3ef6fa9c	0.48238075
74	0xbb82def5	-0.0039938637
75	0x3f048cdf	0.5177745
76	0xbf3f5b58	-0.74748755
77	0xbe1e73a0	-0.15473795
78	0x3a3c39c4	0.00071802386
79	0x3e84912c	0.25892007
80	0x3d85a4a3	0.065255426
81	0x3d1dc190	0.038514674
82	0x3d918c9b	0.071068965
83	0x3e4e4df5	0.20146926
84	0x3d91570c	0.07096681
85	0xbeaa2460	-0.33230877
86	0x3d0142a4	0.031557694
87	0xbebf43e0	-0.37356472
88	0xbef4d383	-0.4781762
89	0xbd25f535	-0.04051705
90	0xbef3f525	-0.47647968
91	0xbe67bee2	-0.2263141
92	0xbd146292	-0.036226816
93	0xbe90065f	-0.2812986
94	0x3e2212c1	0.15827467
95	0x3d397a24	0.045282498
96	0xbe9ef528	-0.31046414
97	0xbe89f100	-0.2694168
98	0x3dd44194	0.103640705
99	0xbecf7665	-0.40520015
100	0x3e3d6a45	0.1849757
101	0x3cc27492	0.023737226
102	0xbfacedd2	-1.3510077
103	0xbe2fe884	-0.17178541
104	0x3e034fb5	0.12823375
105	0x3d4b7ffd	0.049682606
106	0x3c94bc75	0.01815627
107	0xbf7275ba	-0.94710886
108	0x3cd5c914	0.026096858
109	0x3e69d66f	0.22835706
110	0x3d99428b	0.07483395
111	0xbdca3de3	-0.09875085
112	0xbf10790a	-0.5643469
113	0x3e157743	0.14596276
114	0xbf9b706b	-1.2143682
115	0x3da0d70d	0.07853518
116	0x3e14b65b	0.14522688
117	0xbe9ca17a	-0.30591947
118	0x3dec0d84	0.115260154
119	0xbe6838a4	-0.22677857
120	0xbdf70698	-0.120618045
121	0x3d6631bc	0.056199774
122	0x395bcd3b	0.00020961922
123	0x3ef06bee	0.46957344
124	0xbf36f5dc	-0.714689
125	0xbdcf5e71	-0.10125435
126	0xbd437edf	-0.047728416
127	0xbdc1f166	-0.09469871
128	0xbd8742a9	-0.06604511
129	0x3d62b1b6	0.05534526
130	0x3d51122b	0.051042717
131	0x3e656a27	0.22403775
132	0xbebaeed6	-0.36510342
133	0x3f1ed49f	0.62043184
134	0x3d9d62da	0.0768487
135	0x3fae8d66	1.3636901
136	0xbe31484a	-0.17312732
137	0xbdb1f0d6	-0.08688514
138	0x3e855f57	0.260493
139	0x3f01d0d0	0.5070925
140	0x3cf58bb4	0.029973842
141	0xbd7be3cc	-0.06149654
142	0x3d71f1a1	0.059068326
143	0x3e2c7417	0.1684116
144	0xbe3d04b4	-0.18458825
145	0x3eadfa85	0.33980194
146	0xbd1be413	-0.038059305
147	0xbc20cab7	-0.009813956
148	0xbe965f3d	-0.29369536
149	0x3e4e2ec6	0.2013503
150	0x3e7ad2ec	0.24494523
151	0x3d9173da	0.07102175
152	0x3ca19264	0.019723125
153	0xbdf31530	-0.118692756
154	0xbd320c36	-0.043468677
155	0x3dca87aa	0.09889157
156	0xbeef8864	-0.46783745
157	0x3da69aca	0.081349924
158	0xbd0ded05	-0.034649868
159	0x3e99a2d5	0.30007043
160	0x3d94ceba	0.072659925
161	0x3af784d5	0.0018884192
162	0x3f25e4cf	0.6480226
163	0x3ea4e8ed	0.32208958
164	0x3d78b5fa	0.06072042
165	0xbe997af7	-0.29976627
166	0x3dd0b776	0.101912424
167	0x3eb3d501	0.35123447
168	0xbe1ab5a7	-0.15108357
169	0x3be9b2e3	0.0071319207
170	0xbe3dee01	-0.18547823
171	0x3eb42ed9	0.35191992
172	0xbf176e8b	-0.5915305
173	0x3e31d0ed	0.17364855
174	0x3ec76818	0.38946605
175	0xbdaffcfa	-0.08593173
176	0xbc95f5be	-0.018305656
177	0x3c722b28	0.014780797
178	0x3e33467c	0.17507356
179	0x3e97b131	0.29627374
180	0x3cfbe060	0.030746639
181	0xbef0184d	-0.4689354
182	0x3df832f8	0.121190965
183	0x3d4cd320	0.050006032
184	0xbf00dfa2	-0.50341237
185	0xbd40de44	-0.04708697
186	0xbeca1c0a	-0.39474517
187	0xbec4efc3	-0.38464174
188	0x3e81167c	0.25212467
189	0xbe7495f4	-0.23885328
190	0x3d3e5aa9	0.04647318
191	0xbe6187d9	-0.22024478
192	0xbe7d1f2b	-0.24718921
193	0x3e2e6540	0.17030811
194	0xbd0e0649	-0.034673963
195	0x3f41937c	0.7561567
196	0xbda4f29d	-0.08054087
197	0xbe0a96ad	-0.13534041
198	0x3dd7b93c	0.105333775
199	0x3ee7110b	0.4513019
200	0xbe51f73f	-0.20504473
201	0xbdd47fd2	-0.10375942
202	0x3ca321a5	0.019913504
203	0x3ea2bde8	0.31785512
204	0x3c990c5e	0.018682655
205	0x3c820370	0.01587078
206	0xbe24deba	-0.16100588
207	0xbd8e186c	-0.06938252
208	0xbe1aa945	-0.15103634
209	0xbd155a83	-0.03646327
210	0x3d30f67b	0.043203812
211	0xbd65363b	-0.05595992
212	0xbd86ab06	-0.06575589
213	0xbdc562c7	-0.09637981
214	0xbd96c731	-0.073622115
215	0xbd01ed38	-0.03172037
216	0xbe6fb2ef	-0.23408101
217	0x3f2d246d	0.67633706
218	0x3e588754	0.21145374
219	0x3eaf1d9a	0.34202272
220	0x3c2dd9d0	0.010611013
221	0x3d937798	0.07200545
222	0x3df4dfa2	0.11956717
223	0x3f32cef5	0.6984704
224	0xbdacb328	-0.08432609
225	0x3d54b386	0.05192902
226	0xbf6733d9	-0.9031349
227	0xbe858c23	-0.26083478
228	0x3e5074db	0.20357077
229	0xbf1202c3	-0.57035464
230	0xbee094c4	-0.438635
231	0x3f31749d	0.6931856
232	0x3e66f9b0	0.22556186
233	0xbe209e28	-0.15685332
234	0xbf3e3f08	-0.7431493
235	0xbf03193e	-0.5121039
236	0xbd1e90f7	-0.038712468
237	0x3dfc627f	0.12323474
238	0xbdd94035	-0.1060795
239	0xbe277e9b	-0.1635689
240	0xbd256535	-0.04037972
241	0xbdd4e2a2	-0.10394789
242	0x3ca8fcc0	0.020628333
243	0xbdb89486	-0.090127036
244	0xbee52abf	-0.44759175
245	0x3e1dbe46	0.15404615
246	0xbec4abd9	-0.3841236
247	0xbd40e3eb	-0.04709236
248	0xbce5ed8e	-0.028067376
249	0x3ed62fd3	0.41833362
250	0xbe0a8a57	-0.13529335
251	0xbee05875	-0.43817487
252	0x3e855cca	0.26047355
253	0xbd513ab5	-0.051081378
254	0xbd02e14c	-0.03195314
255	0xbff8e347	-1.944436

shared.0.bias f4 [64]
0	0x3e348b26	0.17631206
1	0x3e583fb9	0.21118058
2	0x3d2f9d82	0.04287482
3	0xbe8ffb47	-0.28121397
4	0x3e19a8c6	0.15005788
5	0x3d7c00ee	0.061524324
6	0x3ee08201	0.43849185
7	0x3ccb75f7	0.024836523
8	0x3ee097a7	0.43865702
9	0x3e1def66	0.15423355
10	0x3eb9a205	0.36256424
11	0x3e60104f	0.21881221
12	0x3da68496	0.081307575
13	0xbba58b26	-0.005051988
14	0x3dea0d6d	0.11428342
15	0xbdb14b73	-0.08656969
16	0x3e282fab	0.16424434
17	0x00000000	0.0
18	0x3e6f37a8	0.23361075
19	0x3e87dc1f	0.26535127
20	0x3d5683a4	0.052371636
21	0x3ea4b749	0.32171085
22	0x3cd0e0a3	0.02549774
23	0xbea8999b	-0.32929692
24	0x3edac1f8	0.4272611
25	0x3ec40571	0.382854
26	0x3eb4f396	0.3534209
27	0xbc1bfdc4	-0.009520952
28	0x3dae070a	0.08497436
29	0xbd7c2305	-0.061556835
30	0x3ed929c7	0.42414686
31	0x3ea9bb41	0.33150676
32	0x3e97eff5	0.2967526
33	0xbd20b1eb	-0.039232176
34	0xbda60401	-0.081062324
35	0x3e26e826	0.16299495
36	0x3ecd4244	0.4008962
37	0xbd5ba136	-0.05362054
38	0x3edf573c	0.43621242
39	0x3e5b7e4e	0.214349
40	0x3e588478	0.21144283
41	0x00000000	0.0
42	0x3e840c11	0.25790456
43	0xbe59c5bf	-0.2126684
44	0x3d9327df	0.07185339
45	0x3eb3d925	0.35126606
46	0x3e49e25f	0.1971526
47	0x3eba8048	0.36425996
48	0x3ddd7f78	0.10815328
49	0x3e3d5e05	0.18492897
50	0xbc7dceb2	-0.0154911745
51	0x3da828e0	0.08210921
52	0x3e911a01	0.28340152
53	0x3eb88bc7	0.36044142
54	0x3e8776d3	0.26457843
55	0x3e76b184	0.24091154
56	0x00000000	0.0
57	0x3e9283b5	0.2861611
58	0xbe8c0b74	-0.27352488
59	0x3d7c1117	0.061539736
60	0x3e6c59c7	0.23081122
61	0x3db71dad	0.08941207
62	0x3e24eb06	0.1610528
63	0x3e7a76f2	0.24459437

shared.2.weight f4 [64, 64]
0	0xbe3a2b84	-0.18180662
1	0xbd03a73d	-0.032141913
2	0x3f2ad3d6	0.66729486
3	0xbc784d0e	-0.01515509
4	0x3ebf304d	0.37341538
5	0xbe0883f3	-0.13331585
6	0xbd53f9a5	-0.05175175
7	0x3e18d043	0.14923196
8	0xbf3badf5	-0.7331231
9	0x3f1110ca	0.56666243
10	0x3e5dc74b	0.21658055
11	0x3da8a74c	0.08235034
12	0x3e27d842	0.1639109
13	0xbe458aab	-0.19291179
14	0x3de8f5eb	0.1137503
15	0x3d654cab	0.05598132
16	0xbd9304a5	-0.0717862
17	0x3d8646ff	0.0655651
18	0x3d89a32a	0.06720574
19	0x3d960a7f	0.07326221
20	0x3f06ed36	0.52705705
21	0xbed23bd3	-0.41061267
22	0x3f0b75c7	0.5447659
23	0xbdf714ea	-0.12064536
24	0x3d7373f0	0.05943674
25	0x3e86f08c	0.26355398
26	0x3ded0267	0.11572724
27	0x3e0d6a53	0.1381009
28	0x3e84f6f9	0.25969675
29	0xbf5de5e6	-0.8667892
30	0xbd0d528a	-0.034502544
31	0x3e9d4f83	0.30724725
32	0x3e9d687c	0.30743778
33	0x3eb5845a	0.3545254
34	0xbe7b049d	-0.24513479
35	0x3f27fb7b	0.65618104
36	0x3cc7e69e	0.024401959
37	0x3e448b77	0.19193827
38	0xbe42fcb4	-0.19041711
39	0xbfb13866	-1.3845336
40	0xbdb2e265	-0.087345876
41	0xbe0961df	-0.13416241
42	0x3f0b85ff	0.54501337
43	0xbf2f83fa	-0.68560755
44	0x3de2335b	0.110449515
45	0x3f1f6562	0.6226407
46	0x3d1b329b	0.037890058
47	0x3db38a76	0.08766644
48	0x3ec5b5ef	0.38615367
49	0xbe08f22c	-0.13373631
50	0xbc8b3019	-0.016990708
51	0xbe182e5d	-0.14861436
52	0xbdc4c66a	-0.09608157
53	0xbd16005b	-0.036621433
54	0xbd436a74	-0.047708943
55	0x3c4ad8a0	0.012380749
56	0x3e080985	0.13284881
57	0xbf3e62e2	-0.74369633
58	0xbe1ade27	-0.15123807
59	0xbea98fbe	-0.3311748
60	0x3e0b7e80	0.13622475
61	0x3f11bbb8	0.5692706
62	0xbdd479ed	-0.10374818
63	0xbdba97ad	-0.09110961
64	0xbd8dd6c7	-0.06925731
65	0xbe180043	-0.1484385
66	0x3d15b43f	0.03654885
67	0xbf0a3d9a	-0.54000247
68	0x3e90e49e	0.2829942
69	0xbc50c8b2	-0.012743162
70	0xbd8dcf6d	-0.06924329
71	0x3e063cb6	0.13109097
72	0xbecc91d9	-0.39955023
73	0x3e48b9a8	0.19602072
74	0xbcd7a529	-0.026323872
75	0xbe166da1	-0.14690258
76	0xbbda9873	-0.0066710054
77	0xbe963ae1	-0.29341796
78	0x3d8d819f	0.06909489
79	0x3ebc4c72	0.36777073
80	0xbda76e58	-0.08175343
81	0x3d16e765	0.03684177
82	0x3e4c2471	0.19935776
83	0x3e659979	0.22421826
84	0x3e0fef8c	0.14056224
85	0xbf35840c	-0.7090461
86	0x3e95ce22	0.2925883
87	0xbd1526f4	-0.0364141
88	0x3c0de493	0.008660453
89	0x3d8645b0	0.065562606
90	0x3e866928	0.26252103
91	0xbd36f276	-0.044664823
92	0x3babd734	0.00524416
93	0xbeaab66b	-0.333423
94	0x3d8e7ff5	0.069579996
95	0x3e9a62e2	0.30153567
96	0xbdb7a731	-0.08967436
97	0x3ec381bd	0.3818492
98	0x3d9916fe	0.074750885
99	0x3e9bc938	0.30426955
100	0xbeabdd7d	-0.3356742
101	0x3f22febb	0.6366994
102	0xbde39b0b	-0.111135565
103	0xbfc31e7e	-1.524368
104	0xbe87b35a	-0.26504022
105	0xbde3a1f8	-0.111148775
106	0x3e6e70a6	0.2328516
107	0xbf3f4d60	-0.7472744
108	0xbdbcbfb5	-0.09216253
109	0x3e0190b1	0.12652852
110	0xbc9b7435	-0.01897631
111	0x3dcd2b06	0.10017972
112	0x3d972971	0.07380951
113	0xbece1257	-0.40248367
114	0xbe179017	-0.1480106
115	0x3d0ed410	0.034870207
116	0x3d0abc67	0.03387108
117	0xbe195bb2	-0.14976385
118	0xbd8d6f43	-0.06905987
119	0xbe6a54c9	-0.22883905
120	0x3d2d0e65	0.042250056
121	0xbed0d342	-0.40786177
122	0x3da2bc96	0.07946126
123	0xbe85fb1f	-0.26168153
124	0x3e3f66f4	0.18691617
125	0x3ec28d75	0.37998548
126	0xbf18cb69	-0.5968538
127	0xbdd75ab4	-0.10515347
128	0xbe7e34cd	-0.2482483
129	0xbe65da91	-0.22446658
130	0x3e6d2271	0.2315767
131	0xbe69118e	-0.22760603
132	0xbda9d04d	-0.08291683
133	0xbe9c409e	-0.3051805
134	0xbd363ed3	-0.044493508
135	0x3dbc6729	0.09199364
136	0xbec600b4	-0.3867241
137	0x3d3fc6c2	0.04682041
138	0xbe4c8780	-0.19973564
139	0xbd2fcc4a	-0.042919435
140	0x3c3a2a81	0.011362673
141	0x3da58f86	0.080840155
142	0x3d815138	0.06314319
143	0x3d0ba6a8	0.034094483
144	0x3d2fcb9b	0.042918783
145	0x3da6fb96	0.08153455
146	0xbc6c6000	-0.014427185
147	0xbd02d65f	-0.03194272
148	0x3eac2f45	0.33629814
149	0xbf7471da	-0.95486224
150	0x3e066985	0.1312619
151	0xbe4e942e	-0.20173714
152	0x3e8f7516	0.28019017
153	0x3e866ead	0.26256314
154	0x3d604500	0.054753304
155	0xbda17413	-0.078834675
156	0x3e629273	0.22126178
157	0xbe87eede	-0.2654943
158	0x3ddf5a97	0.109059505
159	0x3f08bab5	0.5340989
160	0x3d820fd6	0.06350677
161	0x3d95d559	0.073160835
162	0x3d9f2e62	0.07772519
163	0x3f24a5ae	0.6431531
164	0xbace04f1	-0.0015718025
165	0x3e184708	0.14870846
166	0x3d69e37b	0.057101708
167	0xbfd2af97	-1.6459836
168	0x3e24d59a	0.16097108
169	0xbdad3841	-0.08457995
170	0x3e1b7915	0.15182908
171	0xbf060358	-0.5234885
172	0xbd7d3ef8	-0.06182763
173	0x3d1d0350	0.038333237
174	0xbe634e36	-0.22197804
175	0x3e4906b8	0.19631469
176	0xbd7d4cbc	-0.061840758
177	0xbed98988	-0.4248774
178	0xbcd41bf6	-0.025892239
179	0x3dd1e4e3	0.10248735
180	0x3e72a58d	0.23695965
181	0xbd9045c5	-0.070445575
182	0x3e62ddcf	0.22154926
183	0x3dd32419	0.103096195
184	0x3e45b581	0.1930752
185	0xbea88ff1	-0.3292232
186	0xbe62c888	-0.22146809
187	0xbf04dcbc	-0.51899314
188	0x3e10d3e5	0.14143331
189	0x3ed8ba3f	0.42329594
190	0xbf20e101	-0.6284333
191	0x3d331323	0.043719422
192	0x3dbb3e35	0.091427244
193	0xbeb7444c	-0.35794294
194	0xbf0ac28d	-0.5420311
195	0xbec2da03	-0.38056955
196	0xbd4f818e	-0.050660662
197	0xbe886569	-0.2663987
198	0xbe857bd7	-0.26071045
199	0x3e2ab506	0.16670617
200	0x3e44b602	0.19210055
201	0x3f0a081b	0.5391862
202	0x3cbb400c	0.022857688
203	0xbcaf92de	-0.021432336
204	0xbe3b93ce	-0.18318102
205	0x3bf41c30	0.0074496493
206	0xbea2e27b	-0.31813416
207	0x3e5ba79f	0.21450661
208	0xbe49b20f	-0.1969683
209	0x3e2c92d1	0.16852881
210	0x3e5a4ff8	0.21319568
211	0xbf3840e4	-0.71974015
212	0xbec9ed9e	-0.394391
213	0xbf15ce2d	-0.58517724
214	0x3f107cc5	0.56440383
215	0xbec4de58	-0.38450885
216	0x3e9cb73a	0.3060854
217	0x3eb559a7	0.35419962
218	0xbdef7a64	-0.11693266
219	0xbde8fcf5	-0.11376373
220	0xbef1262b	-0.47099432
221	0xbd14348f	-0.036182936
222	0x3d861145	0.06546263
223	0xbe378788	-0.17922795
224	0xbf00412b	-0.5009944
225	0xbfa8290d	-1.3137528
226	0xbf0e3b84	-0.55559564
227	0x3f8bf44d	1.093393
228	0x3d5a65d3	0.053319763
229	0x3ea74ac7	0.32674238
230	0xbd936369	-0.07196695
231	0xbfc22060	-1.516613
232	0x3d616e3e	0.055036776
233	0xbe2a4e6a	-0.16631475
234	0x3e7eaa0d	0.24869557
235	0xbf3d03d7	-0.73833984
236	0xbe617bb0	-0.2201984
237	0x3ed0d74a	0.40789253
238	0xbde5b4c2	-0.112161174
239	0x3d68b259	0.05681071
240	0x3e826c6c	0.25473344
241	0x3dac5aa4	0.08415726
242	0xbe1cb357	-0.15302788
243	0xbf3963e0	-0.7241802
244	0xbf201785	-0.6253589
245	0xbdba6291	-0.09100831
246	0x3e4c431a	0.19947472
247	0xbdc5b67c	-0.09653947
248	0xbe0a192a	-0.13486162
249	0xbebb03fe	-0.36526483
250	0xbf36ca84	-0.71402764
251	0x3c9ddea7	0.019271208
252	0xbf0a1551	-0.53938776
253	0x3efa70de	0.48914236
254	0xbed62516	-0.4182517
255	0xbf2cfeec	-0.6757648

shared.2.bias f4 [64]
0	0x3e4e95e4	0.20174366
1	0x3eac912b	0.33704504
2	0x3ece7839	0.40326098
3	0x3dc70066	0.09716873
4	0x3d8a0063	0.06738355
5	0xbc9f41d8	-0.019440576
6	0xbd1d0bbd	-0.038341273
7	0x3c1a5615	0.009419938
8	0xbef6a193	-0.48170146
9	0x3f0b662c	0.54452777
10	0x3eb373b3	0.3504921
11	0x3e3a69ec	0.18204468
12	0x3eb218bb	0.34784493
13	0x3ed5a62c	0.41728342
14	0x3f0782e5	0.52934104
15	0xbcd2c2df	-0.025727687
16	0x3d573276	0.052538358
17	0xbcc3316a	-0.023827273
18	0x3efbf772	0.49212223
19	0x3e43753b	0.19087689
20	0x3e68f360	0.2274909
21	0x3dcba311	0.09943212
22	0x3e80e2f4	0.25173151
23	0x3f0caff3	0.5495598
24	0x3f09e555	0.5386556
25	0x3f06c4b9	0.52643925
26	0x3ea64484	0.32474148
27	0x3e60a80c	0.21939105
28	0x3d7b2b2a	0.06132046
29	0x3e6f51bf	0.23371027
30	0x3ef44ef7	0.47716495
31	0x3edf8c03	0.43661508
32	0x3f14c6bb	0.5811574
33	0x3ef26a31	0.47346643
34	0x3e77733d	0.24165054
35	0x3f0444ce	0.5166749
36	0x3f08258a	0.5318228
37	0x3eb32bcd	0.34994355
38	0x3ea88f71	0.32921937
39	0x3f0ec68d	0.55771714
40	0xbca0af8a	-0.019614954
41	0x3e528438	0.2055825
42	0x3f0645aa	0.5245005
43	0x3ef8a600	0.48564148
44	0xbd305690	-0.043051302
45	0xbd01cbe6	-0.031688593
46	0x3ea92041	0.3303242
47	0x3ecec20f	0.4038243
48	0x3ea18d8c	0.31553304
49	0x3e9147d3	0.2837511
50	0x3ef41824	0.47674668
51	0x3ef13e09	0.47117642
52	0x3ec4738f	0.38369414
53	0x3ec86d3d	0.39145842
54	0x3db524a6	0.08844881
55	0xbd54e390	-0.051974833
56	0x3f14b198	0.58083487
57	0xbe3d21e2	-0.18469957
58	0x3ecbb401	0.3978577
59	0x3ef31ebd	0.4748439
60	0x3e5dabfe	0.21647641
61	0x3f125fcf	0.5717744
62	0x3e8d0aaa	0.275472
63	0x3e9b9433	0.30386505

actor.0.weight f4 [32, 64]
0	0xbda343df	-0.0797193
1	0xbe60695a	-0.21915188
2	0xbdd22eb7	-0.102628164
3	0xbdd4396d	-0.103625156
4	0x3d890b4c	0.06691608
5	0x3e2bf027	0.1679083
6	0xbe452193	-0.19251089
7	0xbe18aba5	-0.14909227
8	0x3dd3eb2b	0.10347589
9	0x3e06ba5e	0.13157031
10	0xbe5b6525	-0.21425302
11	0x3ddd7120	0.108125925
12	0x3dc3beb2	0.095578566
13	0x3c19a6bc	0.0093781315
14	0x3d081278	0.03322074
15	0xbd90946b	-0.070595585
16	0x3d8c1f18	0.06841868
17	0x3dd4cbfd	0.1039047
18	0xbcb89a58	-0.022534534
19	0xbe5af687	-0.21383105
20	0x3cec460b	0.028841993
21	0xbe1798e4	-0.14804417
22	0x3dea284e	0.11433469
23	0x3b9e4c0c	0.004830843
24	0xb97704c3	-0.0002355753
25	0xbdc70145	-0.09717039
26	0x3ce5b388	0.028039709
27	0xbdcc3cda	-0.09972544
28	0xbc40e579	-0.011773461
29	0xbe975335	-0.2955567
30	0xbd60e572	-0.054906316
31	0xbeb2b813	-0.34906062
32	0x3d5cb77c	0.05388592
33	0xbdd4434b	-0.103643976
34	0x3dc268d0	0.09492648
35	0x3e01eaa7	0.12687169
36	0xbe0fe08d	-0.14050503
37	0xbe1811b6	-0.14850506
38	0xbe85e770	-0.26153135
39	0xbdc46cfd	-0.095911
40	0xbb6d4936	-0.0036206967
41	0x3dc010d5	0.093782105
42	0xbcb52b10	-0.02211526
43	0xbe8fcffb	-0.28088364
44	0x3cbb9e5b	0.022902658
45	0x3d4402f5	0.047854383
46	0x3d0faa60	0.03507459
47	0xbc038da9	-0.00802938
48	0xbdd472d4	-0.10373464
49	0xbce8580f	-0.028362302
50	0xbe228d74	-0.15874273
51	0xbd8e48c9	-0.069474764
52	0xbe07be41	-0.1325617
53	0x3de2a8b7	0.11067336
54	0xbd33b2e2	-0.043871768
55	0xbdb51989	-0.08842761
56	0x3e588b95	0.21146996
57	0xbe5ca42b	-0.21547
58	0xbd919d0f	-0.07110035
59	0xbd8fd37f	-0.070227616
60	0x3d631a49	0.05544499
61	0xbc989daf	-0.018629877
62	0x3bc697c7	0.0060605737
63	0xbce6bad4	-0.028165258
64	0xbd2f2309	-0.04275802
65	0x3e33fe7a	0.17577544
66	0xbd01a1f0	-0.031648576
67	0x3c60f31c	0.013729837
68	0x3e97e596	0.29667348
69	0xbd185ffc	-0.037200913
70	0x3a0e32b1	0.0005424424
71	0x3d9b0689	0.07569606
72	0xbdd016a8	-0.10160571
73	0xbc0aab6e	-0.008463724
74	0x3d8c4c21	0.06850458
75	0x3ddf4b41	0.109030254
76	0xbe13a4d3	-0.14418344
77	0xbe0740a0	-0.13208246
78	0x3db4f2a8	0.088353455
79	0x3de8951d	0.11356566
80	0xbedbe4e8	-0.4294808
81	0x3d95b494	0.07309833
82	0xbdccfef3	-0.10009565
83	0xbd42b52b	-0.047536056
84	0x3c57250e	0.013131393
85	0xbdda3cff	-0.10656165
86	0x3d935571	0.07194031
87	0xbd15fa1b	-0.036615472
88	0xbda3d85c	-0.08000252
89	0x3b5d28e9	0.0033746308
90	0x3cbebeef	0.023284404
91	0x3e8e2f36	0.27770394
92	0x3e05ef65	0.13079603
93	0x3e5e2ff8	0.21697986
94	0x3cf5de54	0.03001324
95	0x3b7e6567	0.0038817765
96	0x3d284e0d	0.04109006
97	0xbb556031	-0.0032558555
98	0x3d0b5abf	0.03402209
99	0xbdc826c1	-0.09773017
100	0xbe20b962	-0.15695718
101	0xbc554a76	-0.013018241
102	0xbe6c15f7	-0.23055254
103	0xbd660ef2	-0.056166597
104	0x3e1548d5	0.14578564
105	0x3e404e27	0.18779813
106	0x3d029db5	0.031888682
107	0xbdd342e4	-0.10315493
108	0xbd854806	-0.06507878
109	0x3e002c49	0.12516893
110	0xbc80e716	-0.01573519
111	0xbc9e2872	-0.019306395
112	0x3df9f3cf	0.12204706
113	0xbe36d17e	-0.17853352
114	0xbd737975	-0.059442002
115	0xbe861061	-0.2618437
116	0xbe11fc80	-0.14256477
117	0xbdde1e91	-0.10845674
118	0xbe1c439e	-0.15260169
119	0x3c82ed53	0.015982306
120	0xbd72726b	-0.05919115
121	0xbdb3e9d6	-0.08784835
122	0x3bf95d5a	0.0076100053
123	0xbe519d38	-0.2047013
124	0xbb821056	-0.0039692326
125	0xbdb22d40	-0.08700037
126	0xbc01d04a	-0.007923195
127	0x3dd0690b	0.10176285
128	0x3d9ac247	0.07556587
129	0x3db3dde4	0.08782557
130	0x3b11bce3	0.002223783
131	0xbdc10b46	-0.09425978
132	0xbf03d7cc	-0.51501155
133	0x3f7c5a45	0.9857524
134	0xbcbbff5c	-0.022948913
135	0x3e03555d	0.12825532
136	0xbe7d6cf8	-0.247486
137	0xbe557a2a	-0.20847383
138	0xbe269ef6	-0.16271576
139	0x3e3b7f4b	0.18310277
140	0xbda66529	-0.081247635
141	0xbe86487d	-0.2622718
142	0xbdd87240	-0.105686665
143	0xbc0ea4a3	-0.008706245
144	0xbe8e38b0	-0.27777624
145	0xbd3bedff	-0.045881268
146	0x3e86a216	0.26295537
147	0x3e36f8ca	0.17868343
148	0xbc4bade4	-0.0124315955
149	0xbee5b5c2	-0.44865233
150	0xbd9caa02	-0.07649614
151	0xbdecb6ca	-0.11558302
152	0xbb4d8150	-0.0031357594
153	0xbd713755	-0.05889066
154	0x3e926caa	0.2859853
155	0xbd1b07e9	-0.03784934
156	0x3e316fd2	0.17327812
157	0xbde51875	-0.111863054
158	0x3e433bbe	0.19065759
159	0xbea83eda	-0.32860452
160	0x3e881e8c	0.26585805
161	0x3e101966	0.14072189
162	0xbd417ba3	-0.04723705
163	0xbdbf9069	-0.09353716
164	0x3c8321ff	0.016007422
165	0xbd9c0b74	-0.07619372
166	0xbe86c91a	-0.26325303
167	0x3dbcd2b3	0.09219875
168	0xbcec0ef3	-0.028815722
169	0xbb778f2b	-0.0037774544
170	0xbe1648dd	-0.14676233
171	0x3e2d3968	0.1691643
172	0xbb2b1a4f	-0.002610821
173	0x3c39b7a9	0.011335292
174	0xbea71fae	-0.32641357
175	0x3e2bfef6	0.16796479
176	0xbebc6f8b	-0.3680385
177	0x3e85bd21	0.26120856
178	0xbd109fb6	-0.035308562
179	0xbd61a626	-0.055090092
180	0x3e3c5999	0.18393554
181	0x3ebb1e49	0.36546543
182	0xbdf7d87f	-0.1210184
183	0xbd52c51d	-0.051457513
184	0x3e5bba4a	0.21457782
185	0x3e2bbc09	0.16770948
186	0x3f00c388	0.50298357
187	0x3eae1c46	0.34005946
188	0x3eb1b93c	0.34711635
189	0xbe0f7bcf	-0.14012073
190	0x3edc0d2e	0.42978805
191	0xbe4e619f	-0.20154427
192	0xbdc71920	-0.09721589
193	0xbd9a9e30	-0.07549703
194	0x3d5f029d	0.05444585
195	0xbe07ed23	-0.13274054
196	0x3d7b5fdd	0.06137072
197	0xbd001f90	-0.0312801
198	0x3da5df64	0.08099249
199	0x3e0ac7a5	0.13552721
200	0x3e4e5392	0.20149067
201	0xbe2a1ccd	-0.16612549
202	0x3dc98a72	0.098408595
203	0x3c70dbc9	0.014700838
204	0xbe03753e	-0.12837693
205	0x3d8c0220	0.06836343
206	0x3d0162d2	0.031588383
207	0xbe415191	-0.18878771
208	0x3d531e05	0.0515423
209	0xbcc9a78a	-0.024616022
210	0x3cf39885	0.029735813
211	0xbc2d37ac	-0.010572355
212	0x3d6dc08d	0.05804496
213	0xbd7d5991	-0.061852995
214	0x3cc4a605	0.024004946
215	0x3e156770	0.1459024
216	0xbdf17852	-0.117905274
217	0xbdf1369f	-0.11777996
218	0x3da05799	0.07829208
219	0x3e82a1d3	0.25514087
220	0xbc4b563d	-0.0124106975
221	0xbdce38fb	-0.10069462
222	0x3dd0c99c	0.10194704
223	0x3e215f6a	0.15759054
224	0x3c92d38e	0.017923143
225	0xbdf56c3b	-0.11983534
226	0x3d64ab55	0.055827457
227	0x3c25f739	0.010129743
228	0xbd869e02	-0.06573106
229	0xbe5f6390	-0.21815324
230	0xbcbe0b22	-0.023198668
231	0xbe58ed1e	-0.21184203
232	0x3e113045	0.1417857
233	0xbe36807f	-0.17822455
234	0xbe3bdaef	-0.18345235
235	0xbd8ad417	-0.06778734
236	0x3d4b8f7a	0.049697377
237	0x3dc86fa7	0.09786921
238	0x3e352a23	0.17691855
239	0xbd92a89e	-0.071610674
240	0xbe7478d9	-0.23874225
241	0x3b7e11ca	0.0038767927
242	0xbd955e80	-0.07293415
243	0x3da95294	0.08267704
244	0x3e15547c	0.1458301
245	0xbe517966	-0.20456466
246	0xbdaaa7dd	-0.08332799
247	0xbe4e21d4	-0.20130092
248	0xbcb3dda1	-0.021956267
249	0x3e216184	0.15759856
250	0x3ec02fd4	0.3753649
251	0x3e8cb948	0.27485108
252	0xbdc1d434	-0.09464303
253	0xbbcd5801	-0.0062665944
254	0x3c3da583	0.011575106
255	0xbe0fce64	-0.14043576

actor.0.bias f4 [32]
0	0xbbca97f8	-0.006182667
1	0xbc556f76	-0.013027063
2	0x3e067fdf	0.13134716
3	0x3c95659d	0.01823693
4	0xbc4bd55d	-0.0124410065
5	0x3d84fa84	0.064930946
6	0xbe76d59a	-0.2410492
7	0xbe43a9dc	-0.19107765
8	0x3dab8f1c	0.08376905
9	0x3e839574	0.2569996
10	0x3e4ff813	0.20309477
11	0xbc099310	-0.008396879
12	0x3dedc764	0.11610296
13	0x3d248d5e	0.04017388
14	0x3b20cec4	0.0024537304
15	0xbd02f859	-0.031975124
16	0xbe5cb84f	-0.21554683
17	0xbc83262f	-0.016009418
18	0xbe345b30	-0.1761291
19	0xbc51b4d1	-0.012799458
20	0xbd689ca5	-0.056790013
21	0xbd4b079e	-0.04956781
22	0xbcba59fb	-0.022747984
23	0xbc8b9fcc	-0.01704397
24	0x3d16ab4c	0.036784455
25	0x00000000	0.0
26	0xbe582272	-0.2110689
27	0xbc190457	-0.009339414
28	0xbb95ac2e	-0.0045676446
29	0xbb529b8c	-0.003213617
30	0xbbf81093	-0.007570335
31	0xbcf89c30	-0.030347914

actor.2.weight f4 [2, 32]
0	0xbe355e1d	-0.17711683
1	0xbe7da28c	-0.24769038
2	0x3e8070b8	0.25085998
3	0x3d8446cf	0.06458818
4	0xbca2a5b6	-0.019854408
5	0x3e663f80	0.22485161
6	0xbf7a8a0c	-0.9786689
7	0xbf01f933	-0.5077087
8	0x3ecdb10a	0.40174133
9	0x3fadb6f1	1.3571454
10	0x3f3dd608	0.7415471
11	0x3e88f6d6	0.2675082
12	0x3f34d89b	0.70643014
13	0xbe7db3cf	-0.24775623
14	0x3b8b433d	0.004249959
15	0xbe12e2c3	-0.14344315
16	0xbfc729bd	-1.5559613
17	0xbda5dabd	-0.08098362
18	0xbf7d03b6	-0.9883379
19	0xbd1dfc47	-0.03857067
20	0xbbcaaae6	-0.0061849235
21	0x3df21f5d	0.11822388
22	0x3cafe9d9	0.021473812
23	0xbe0a0a50	-0.13480496
24	0xbf124b36	-0.5714601
25	0xbe6c2b00	-0.23063278
26	0xbfa368b5	-1.2766329
27	0xbe066480	-0.13124275
28	0x3dc205b6	0.094737455
29	0x3e798d99	0.24370421
30	0x3eb01f46	0.3439886
31	0xbb0c2a07	-0.0021387355
32	0x3e269829	0.16268982
33	0xbca94d7c	-0.02066683
34	0xbe95795a	-0.29194146
35	0xbe8a2e92	-0.26988655
36	0xbe805070	-0.2506137
37	0xbeb2e13c	-0.34937465
38	0x3f62844b	0.88483113
39	0x3ee46b71	0.4461322
40	0xbf376b93	-0.7164852
41	0xbfb5b287	-1.4195107
42	0xbf5cedba	-0.8630024
43	0xbda0d390	-0.07852852
44	0xbf6e334f	-0.9304704
45	0xbf0055dd	-0.50131017
46	0xbeaae5b9	-0.3337839
47	0x3eb96327	0.3620846
48	0x3fca4dcf	1.5804995
49	0xbe0ea27f	-0.13929175
50	0x3f73ce69	0.9523683
51	0xbe55d343	-0.20881371
52	0xbe9f371e	-0.3109674
53	0x3e19d92a	0.15024248
54	0xbd3cf90c	-0.046135947
55	0xbd2c2ad0	-0.042033017
56	0x3e0e46da	0.13894215
57	0x3d58af6f	0.05290168
58	0x3f910849	1.1330653
59	0x3d8e22fe	0.06940268
60	0xbe19d65a	-0.15023175
61	0xbd58e1af	-0.052949604
62	0x3e0dd9ae	0.1385257
63	0xbe2f56cd	-0.17122956

actor.2.bias f4 [2]
0	0x3e5eab97	0.21745144
1	0xbe5eab83	-0.21745114

critic.0.weight f4 [32, 64]
0	0x3e42aeda	0.19012013
1	0xbe567a61	-0.20945121
2	0xbdc8778c	-0.09788427
3	0x3cbffa0d	0.023434663
4	0xbd55b8b3	-0.052178096
5	0xbcfe023e	-0.031006929
6	0xbe330c80	-0.17485237
7	0xbca2d239	-0.019875633
8	0x3d418175	0.0472426
9	0x3e618836	0.22024617
10	0x3d64d6d7	0.05586895
11	0x3ddce8ba	0.107865766
12	0xbcaf7f27	-0.021422936
13	0xbc43a195	-0.01194038
14	0x3d7d81b4	0.061891273
15	0x3d959497	0.07303732
16	0x3b929e76	0.0044744564
17	0xbdca4bde	-0.09877752
18	0xbcb79685	-0.02241064
19	0xbd96bd1d	-0.07360289
20	0xbe7a9e73	-0.24474506
21	0x3d53e33c	0.05173038
22	0x3e0f3b4a	0.1398746
23	0x3dc20058	0.09472722
24	0x3c7eecd5	0.015559395
25	0xbd9f7fbf	-0.077880375
26	0xbda1f33e	-0.07907723
27	0xbdcb0563	-0.09913137
28	0x3dea58fb	0.11442753
29	0xbd5b7419	-0.053577516
30	0xbd8bc637	-0.06824916
31	0xbd114154	-0.035462692
32	0xbc03dde6	-0.00804851
33	0x3d4cdbd4	0.050014332
34	0xbbd6000d	-0.006530768
35	0x3e2c65e3	0.16835742
36	0xbebc6d45	-0.36802116
37	0xbe9439be	-0.28950304
38	0xbcc2c2a8	-0.02377446
39	0xbd842309	-0.06451995
40	0x3e19896c	0.14993829
41	0xbc3d6fb3	-0.011562276
42	0xbd7b1537	-0.06129953
43	0x3e7deecc	0.24798125
44	0x3e1f6183	0.15564542
45	0x3d077601	0.03307152
46	0x3e68019b	0.22656862
47	0xbdbacadc	-0.091207236
48	0x3e1ebb4a	0.15501133
49	0xbe1f38b7	-0.15548979
50	0xbdb8386a	-0.08995135
51	0xbd147735	-0.036246497
52	0xbd34f594	-0.044179514
53	0xbe5c49d9	-0.21512546
54	0x3da1c243	0.078983806
55	0xbe9031fe	-0.2816314
56	0x3d139f4d	0.036040593
57	0xbcb5eb29	-0.02220686
58	0xbd8ed42e	-0.06974064
59	0xbc90cf76	-0.01767705
60	0x3dcdac09	0.10042579
61	0xbdedfbe3	-0.11620309
62	0x3db82c09	0.08992774
63	0xbc14f5a1	-0.009091766
64	0x3e7e9d64	0.24864727
65	0x3e8c9934	0.27460635
66	0x3e4cae29	0.19988312
67	0xbe950658	-0.29106402
68	0x3f5b8073	0.8574287
69	0x3e76679d	0.24062963
70	0x3cd9187d	0.026500935
71	0xbd90cea3	-0.07070663
72	0xbf0e60b0	-0.55616283
73	0x3e4379a8	0.19089377
74	0xbea15375	-0.31508985
75	0xbe972c50	-0.29525995
76	0xbe584ef4	-0.21123868
77	0xbc9f6aeb	-0.019460162
78	0x3d1c9e20	0.038236737
79	0x3e10bce2	0.14134553
80	0x3e4501f6	0.1923903
81	0xbd3e6ac8	-0.046488553
82	0x3e47ebcd	0.19523545
83	0x3f0595c6	0.5218166
84	0x3ea7c94d	0.32770768
85	0x3ec7cba5	0.39022556
86	0x3eea066f	0.45708033
87	0xbe52a3d3	-0.20570306
88	0xbe519ea3	-0.20470671
89	0x3c331097	0.010929248
90	0x3e40d076	0.18829522
91	0xbea372c4	-0.31923497
92	0x3f22726d	0.6345585
93	0xbf22a210	-0.6352854
94	0x3e221b5a	0.15830746
95	0xbdc4960b	-0.09598931
96	0xbd8a8260	-0.06763148
97	0x3a96ed7b	0.0011514866
98	0xbedf2fd4	-0.43591177
99	0xbc8d7d27	-0.017271591
100	0xbe3042eb	-0.17213027
101	0x3ebddd60	0.37082958
102	0xbd0333f6	-0.032031976
103	0xbd59c375	-0.053164918
104	0xbd80c0b0	-0.06286752
105	0x3e39043b	0.1806802
106	0x3d801817	0.06254595
107	0xbe3d9072	-0.18512133
108	0x3cc88f3e	0.024482366
109	0x3e19e5f7	0.15029131
110	0x3ec52676	0.38505906
111	0xbdccefb5	-0.10006658
112	0x3e586349	0.21131624
113	0xbe041094	-0.12896949
114	0xbe77bfef	-0.2419431
115	0x3c291607	0.010320193
116	0x3e0cabbf	0.13737391
117	0x3ef95670	0.4869876
118	0xbd961692	-0.07328524
119	0xbd68b6f6	-0.05681511
120	0xbbb4ac4f	-0.005513705
121	0xbe46bbf0	-0.1940763
122	0xbe090831	-0.13382031
123	0x3d81ff08	0.063474715
124	0xbdb5d684	-0.08878806
125	0x3bfd22b5	0.0077250847
126	0x3ed7cf72	0.42150456
127	0x3f2c10de	0.6721324
128	0xbd7598f9	-0.05996034
129	0x3db6002e	0.08886753
130	0xbe2b2c76	-0.16716179
131	0xbe4fbce9	-0.20286907
132	0x3f4c5499	0.79816586
133	0xbcdd36bd	-0.02700364
134	0x3d16dc25	0.03683104
135	0x3e261209	0.16217817
136	0xbef02ad2	-0.4690767
137	0x3dbd502d	0.09243808
138	0xbeb9638a	-0.36208755
139	0xbef841d7	-0.48487732
140	0xbde2ccd6	-0.110742256
141	0xbe1e9497	-0.1548637
142	0xbd4d4738	-0.050116748
143	0xbd996197	-0.07489317
144	0x3e63ee61	0.22258903
145	0xbdea917e	-0.11453532
146	0xbb959928	-0.004565377
147	0x3edd4883	0.43219385
148	0x3f183a2b	0.5946376
149	0x3ec57ec0	0.38573265
150	0x3f1533ab	0.58281964
151	0xbe7895a2	-0.2427583
152	0xbc1e8a49	-0.009676524
153	0xbd215a02	-0.03939248
154	0x3e10c612	0.14138058
155	0x3d2868e6	0.041115664
156	0x3f43b19f	0.76442903
157	0xbeb3761a	-0.35051042
158	0xbe4916da	-0.19637623
159	0xbe80981a	-0.25116044
160	0xbd055546	-0.032552026
161	0x3d94d6e6	0.07267551
162	0xbdf81984	-0.12114242
163	0xbe4339ff	-0.19065093
164	0xbce0e8eb	-0.027454814
165	0x3ea1d096	0.3160445
166	0xba0ef28c	-0.00054530124
167	0x3e23221d	0.15930982
168	0x3e0fca2e	0.14041969
169	0x3ef0ee78	0.47056937
170	0x3d0339b2	0.032037444
171	0xbd9fe673	-0.078076266
172	0x3ea5e2a4	0.32399476
173	0xbdf1c063	-0.11804273
174	0x3e26d395	0.1629165
175	0xbddd6e2b	-0.108120285
176	0x3e878752	0.2647043
177	0xbe59bb18	-0.21262777
178	0x3d9d1cca	0.07671507
179	0xbd9521ec	-0.07281861
180	0x3ef2a6e9	0.47392967
181	0x3ef450bf	0.47717854
182	0xbe43f006	-0.1913453
183	0x3d9544a3	0.07288482
184	0x3e4d12d2	0.2002671
185	0x3e30327c	0.17206758
186	0xbd9949e3	-0.07484796
187	0xbe4dbc59	-0.2009138
188	0xbe5ca21b	-0.21546213
189	0xbe7e818d	-0.24854107
190	0x3f5aacb9	0.85419804
191	0x3eb4954a	0.3527015
192	0x3da57bc8	0.0808025
193	0x3bdad2dd	0.006677969
194	0x3cdcb435	0.026941398
195	0xbf0ed3b5	-0.5579179
196	0x3fa2bfe1	1.2714807
197	0x3ed780f4	0.4209057
198	0x3d728e71	0.059217874
199	0xbd6246eb	-0.055243414
200	0xbf846268	-1.0342531
201	0xbc90a461	-0.017656507
202	0xbedc817c	-0.4306754
203	0xbe21b7ef	-0.15792821
204	0xbcff9ec9	-0.031203644
205	0xbd365b25	-0.044520516
206	0xbdece215	-0.11566559
207	0x3c1731c1	0.009228171
208	0x3e33b03e	0.175477
209	0x3c59e617	0.013299487
210	0x3d71a952	0.058999367
211	0x3f2dad70	0.6784277
212	0x3f51951c	0.8186815
213	0x3f03d4a4	0.5149634
214	0x3ee03d26	0.43796653
215	0xbd16894c	-0.03675203
216	0xbd13058b	-0.035893958
217	0xbe8b898d	-0.2725338
218	0x3d605bef	0.054775175
219	0xbee30174	-0.44337046
220	0x3f32899b	0.6974122
221	0xbf4df24d	-0.80447847
222	0x3d821caf	0.06353127
223	0xbd97987d	-0.07402132
224	0xbe1bfaea	-0.15232435
225	0xbcbc0bea	-0.0229549
226	0xbe8aaefa	-0.27086622
227	0xbdc13e65	-0.09435729
228	0x3c781859	0.015142524
229	0x3e317d5a	0.17332974
230	0xbebec1e3	-0.372573
231	0xbe1be0fe	-0.15222546
232	0xbd44ee4e	-0.048078828
233	0x3f4375d7	0.76351684
234	0xbe1c6c7a	-0.15275756
235	0x3eb82650	0.3596673
236	0x3cf6490a	0.030064125
237	0x3b82fac5	0.003997179
238	0x3e37719f	0.17914437
239	0xbda82832	-0.08210792
240	0x3ebf1f6d	0.37328663
241	0x3da7acee	0.081872806
242	0x3d8fc7de	0.070205435
243	0xbd8ed036	-0.06973307
244	0x3d9ed305	0.077550925
245	0x3e43d1f0	0.19123054
246	0xbc7e2dd0	-0.015513852
247	0x3e07e8bb	0.13272373
248	0xbd30934d	-0.043109227
249	0x3e842f81	0.25817493
250	0xbd4a4b9b	-0.04938851
251	0x3cb5700a	0.022148151
252	0xbee6fd06	-0.45114917
253	0x3e8b725b	0.27235684
254	0x3f28083e	0.65637577
255	0x3f22a4c4	0.6353266

critic.0.bias f4 [32]
0	0xbc2edd9a	-0.010672951
1	0x3d6340d5	0.05548175
2	0x3d7a4f8d	0.06111102
3	0x3e1dbda4	0.15404373
4	0x3f1506a6	0.5821327
5	0x3f138407	0.5762333
6	0xbc8f4aee	-0.017491784
7	0x3f23ddf0	0.64010525
8	0x00000000	0.0
9	0x3d11f34e	0.035632424
10	0x3f2be97a	0.6715313
11	0x3f16f1e4	0.58962846
12	0x3f16b777	0.58873695
13	0xbc4c61db	-0.012474502
14	0x3f1baa8b	0.608071
15	0xbc60e0ee	-0.013725502
16	0x3f1966f0	0.59922695
17	0x3de87c27	0.11351805
18	0xbd26f912	-0.040764876
19	0x3f0de134	0.5542176
20	0x3f1b462b	0.6065394
21	0x3f1a90cb	0.60377187
22	0x3f15452f	0.5830869
23	0x3f122f56	0.5710348
24	0x3f1574f2	0.5838157
25	0x3f210983	0.6290514
26	0x3f16c44e	0.5889329
27	0xbe9ef72e	-0.31047958
28	0x3f1398a3	0.5765478
29	0x3e067534	0.13130647
30	0x3f17316e	0.590598
31	0x3f24cc51	0.6437426

critic.2.weight f4 [1, 32]
0	0x3ba0a89a	0.0049029114
1	0x3f26628c	0.6499412
2	0x3f232568	0.6372895
3	0x3f9490bf	1.1606673
4	0xbef84578	-0.484905
5	0xbeab4934	-0.33454287
6	0x3c17017b	0.009216662
7	0xbea17eef	-0.31542155
8	0x3e4efc1e	0.20213363
9	0x3ec9facc	0.39449155
10	0xbe8bbdca	-0.27293235
11	0xbec44746	-0.38335627
12	0xbf07c96a	-0.5304171
13	0x3c8878c9	0.016659157
14	0xbebe14f6	-0.37125367
15	0x3cf8ba4f	0.030362276
16	0xbeb87472	-0.3602634
17	0x3f4632f1	0.7742148
18	0x3c04f78b	0.0081156595
19	0xbee88dc0	-0.45420647
20	0xbf148f49	-0.58031136
21	0xbf153ed1	-0.58298975
22	0xbf111210	-0.56668186
23	0xbeee4d02	-0.46543127
24	0xbecf20f1	-0.4045482
25	0xbebb963c	-0.36638057
26	0xbecf56d3	-0.4049593
27	0x3f657582	0.8963243
28	0xbeeb8bd5	-0.4600512
29	0x3f62aaa4	0.88541627
30	0xbed4ed62	-0.4158736
31	0xbf011590	-0.50423527

exp_avg f4 [64, 12]
0	0x3976464d	0.00023486577
1	0x3837d9b4	4.383335e-05
2	0x39ade90c	0.00033170765
3	0x38f97106	0.000118942975
4	0x3982267d	0.00024824208
5	0x39e267e4	0.00043183484
6	0xb764c64a	-1.3636027e-05
7	0x3837d9b4	4.383335e-05
8	0x80000004	-6e-45
9	0xb935a5a9	-0.00017323218
10	0x2cb6218e	5.1764764e-12
11	0x3976464d	0.00023486577
12	0x3b3ae90d	0.0028520257
13	0x38eb767e	0.00011227744
14	0x3a83aabf	0.0010045393
15	0x3a0d765f	0.0005396362
16	0x3a3ff43e	0.00073224667
17	0x3b05b6d6	0.0020403168
18	0x38e8737a	0.00011084131
19	0x38eb767e	0.00011227744
20	0x3b364918	0.0027814563
21	0x3b20eb2d	0.0024554238
22	0x39daa560	0.00041703414
23	0x3b25e23e	0.0025311853
24	0x3b5377d5	0.003226747
25	0x3ad5dca3	0.0016316365
26	0x3bd0c949	0.0063716513
27	0x3b2c8ed3	0.0026330247
28	0x3b3e1ace	0.0029007676
29	0x3c2fe189	0.010734924
30	0x3a3ec6bd	0.0007277539
31	0x3ad5dca3	0.0016316365
32	0x3bf8e753	0.0075959354
33	0x3bc133cb	0.005896067
34	0x3be34b65	0.006936478
35	0x3b33bd4f	0.002742607
36	0xbc21bc6f	-0.009871586
37	0xbb47d5a4	-0.003049233
38	0xbc33e001	-0.0109787
39	0xbbd79672	-0.006579214
40	0xbbe2db1c	-0.0069230925
41	0xbcbce09f	-0.023056326
42	0xbaae7ed4	-0.0013312944
43	0xbb47d5a4	-0.003049233
44	0xbc316935	-0.010828306
45	0xbc1d8bf2	-0.009615885
46	0xbc0bce3c	-0.008533057
47	0xbc3fc61c	-0.011704948
48	0x00000004	6e-45
49	0x00000004	6e-45
50	0x00000004	6e-45
51	0x00000004	6e-45
52	0x00000004	6e-45
53	0x00000004	6e-45
54	0x00000004	6e-45
55	0x00000004	6e-45
56	0x00000004	6e-45
57	0x00000004	6e-45
58	0x00000004	6e-45
59	0x00000004	6e-45
60	0x00000004	6e-45
61	0x00000004	6e-45
62	0x00000004	6e-45
63	0x00000004	6e-45
64	0x00000004	6e-45
65	0x00000004	6e-45
66	0x00000004	6e-45
67	0x00000004	6e-45
68	0x00000004	6e-45
69	0x00000004	6e-45
70	0x00000004	6e-45
71	0x00000004	6e-45
72	0xba0f3759	-0.00054632645
73	0x38bc0172	8.964808e-05
74	0xba9ab780	-0.0011803955
75	0x3a6a7b61	0.00089447765
76	0x3a268e84	0.0006353634
77	0x3b826f79	0.0039805737
78	0x381617df	3.578502e-05
79	0x38bc0172	8.964808e-05
80	0xb94e9349	-0.00019700559
81	0x39203a9c	0.00015280623
82	0x3ac145f6	0.0014745581
83	0xba23ac44	-0.0006243626
84	0x00000004	6e-45
85	0x00000004	6e-45
86	0x00000004	6e-45
87	0x00000004	6e-45
88	0x00000004	6e-45
89	0x00000004	6e-45
90	0x00000004	6e-45
91	0x00000004	6e-45
92	0x00000004	6e-45
93	0x00000004	6e-45
94	0x00000004	6e-45
95	0x00000004	6e-45
96	0x3aa1e3ce	0.0012351216
97	0xb95dee82	-0.00021165053
98	0x3bfed2b0	0.0077765808
99	0xba9c0d83	-0.0011905882
100	0x395d0fe2	0.00021082119
101	0xbb0ea1b3	-0.002176386
102	0x38c89b4e	9.565671e-05
103	0xb95dee82	-0.00021165053
104	0x3aa374d3	0.0012470729
105	0x3b3275fa	0.0027230964
106	0x3aa76fda	0.0012774423
107	0x3aca316c	0.0015426106
108	0x39a2a2eb	0.0003102043
109	0x3a0cd414	0.0005372178
110	0x36973397	4.5061565e-06
111	0x3a8986a3	0.0010492395
112	0x3a01bd40	0.000494916
113	0x3b3d9582	0.0028928225
114	0x38c9e95c	9.6278935e-05
115	0x3a0cd414	0.0005372178
116	0xba18ec86	-0.00058335846
117	0xbab432c2	-0.0013748037
118	0xba2b0cd3	-0.0006525043
119	0x3a8522f7	0.0010157515
120	0xb93f4491	-0.00018240722
121	0x383e5a4e	4.5383633e-05
122	0xba23984f	-0.00062406523
123	0x398ae116	0.00026489113
124	0x38d65d16	0.00010221654
125	0x3a935dd0	0.0011243168
126	0x37e7671a	2.7585356e-05
127	0x383e5a4e	4.5383633e-05
128	0x39597313	0.00020737601
129	0x393a7831	0.00017783117
130	0x3970904b	0.00022941937
131	0xb9948e46	-0.00028334762
132	0x3aa76713	0.0012771807
133	0x39c305a1	0.00037197492
134	0x39be9656	0.00036351633
135	0x3a8d3c2c	0.0010775379
136	0x3a6200fe	0.00086213637
137	0x3b883069	0.0041561616
138	0x391f271e	0.00015177994
139	0x39c305a1	0.00037197492
140	0x3a83dc23	0.0010060113
141	0x3a908623	0.0011026304
142	0x3a6c231a	0.0009007916
143	0x3ab13a5b	0.001352142
144	0x3b026b8a	0.0019900524
145	0x38d5fb63	0.00010203456
146	0x3a8350e9	0.001001862
147	0x3970f4d3	0.00022979388
148	0x3a0fca27	0.000548514
149	0x3aa99264	0.0012937305
150	0x381b6261	3.7046502e-05
151	0x38d5fb63	0.00010203456
152	0x39073cf0	0.00012897304
153	0x398e79b1	0.00027175018
154	0xb9709675	-0.00022944233
155	0x3af91330	0.0019002911
156	0x39042a29	0.00012604207
157	0x3947f83a	0.0001907059
158	0x3a544b6b	0.00080983964
159	0x39a48e6a	0.00031386624
160	0x398caf16	0.0002683333
161	0x3a688637	0.0008870097
162	0x38999fc4	7.325367e-05
163	0x3947f83a	0.0001907059
164	0x3a378aab	0.0007001559
165	0x39d73a93	0.00041051637
166	0x3a88407e	0.0010395197
167	0x397098cc	0.00022945105
168	0x3ab140e7	0.0013523371
169	0x394c3858	0.00019475946
170	0x3b8275db	0.0039813346
171	0x39b4864a	0.00034432329
172	0x3a406046	0.00073385646
173	0x3aa2d216	0.001242223
174	0x38a9119e	8.0618294e-05
175	0x394c3858	0.00019475946
176	0x3ab716ec	0.0013968623
177	0x3a09f0a0	0.0005261991
178	0x3a6f3540	0.00091250613
179	0x3b06055f	0.0020449979
180	0x00000004	6e-45
181	0x00000004	6e-45
182	0x00000004	6e-45
183	0x00000004	6e-45
184	0x00000004	6e-45
185	0x00000004	6e-45
186	0x00000004	6e-45
187	0x00000004	6e-45
188	0x00000004	6e-45
189	0x00000004	6e-45
190	0x00000004	6e-45
191	0x00000004	6e-45
192	0xba363d7f	-0.00069519127
193	0x38fce46b	0.000120588425
194	0x39bb8e4a	0.00035773433
195	0x391f135e	0.00015170636
196	0x3892d25c	7.001005e-05
197	0x3a6c0fd4	0.0009005044
198	0x386c1e74	5.6295146e-05
199	0x38fce46b	0.000120588425
200	0x39ba81a4	0.00035573274
201	0x38bd4b98	9.026303e-05
202	0x3a9ad6d8	0.0011813296
203	0xba0682f3	-0.0005131207
204	0x00000000	0.0
205	0x00000000	0.0
206	0x00000000	0.0
207	0x00000000	0.0
208	0x00000000	0.0
209	0x00000000	0.0
210	0x00000000	0.0
211	0x00000000	0.0
212	0x00000000	0.0
213	0x00000000	0.0
214	0x00000000	0.0
215	0x00000000	0.0
216	0x3af9b64c	0.0019051521
217	0x3931da25	0.000169613
218	0x3b229b68	0.0024811868
219	0x3a21191a	0.0006145403
220	0x3980c2c6	0.0002455918
221	0x3b591cbd	0.0033128702
222	0x388485b6	6.319156e-05
223	0x3931da25	0.000169613
224	0x3a5bf436	0.0008390577
225	0x3b06dd81	0.0020578804
226	0x390b7435	0.00013299363
227	0x3b016c6b	0.001974846
228	0xbacc0b20	-0.001556728
229	0x37abf7b8	2.0500142e-05
230	0x00000004	6e-45
231	0x39904475	0.00027516825
232	0xb8899b85	-6.561637e-05
233	0x3aaded0c	0.0013269498
234	0x38929e3a	6.9912945e-05
235	0x37abf7b8	2.0500142e-05
236	0x3ac798b7	0.0015228008
237	0x3ab42a67	0.0013745547
238	0x3b07e7c2	0.0020737504
239	0xbae6dc6c	-0.0017613298
240	0x3b278f6d	0.0025567666
241	0x39b5c124	0.0003466691
242	0x3af5dc08	0.0018757591
243	0x3a442ebd	0.0007483771
244	0x3a3c8db3	0.00071927457
245	0x3b750ae0	0.0037390515
246	0x39cbdea1	0.0003888505
247	0x39b5c124	0.0003466691
248	0x3b97ab0d	0.004628545
249	0x3bad502a	0.0052890973
250	0x3b44e144	0.0030041495
251	0x3ad41c70	0.0016182791
252	0x3aad3400	0.001321435
253	0xb9a743f5	-0.00031903354
254	0xbbb77831	-0.0055990447
255	0x3b08dae6	0.0020882427

exp_avg_sq f4 [64, 12]
0	0x377c9145	1.5054194e-05
1	0x3498d5da	2.8467804e-07
2	0x37939d58	1.7597034e-05
3	0x35b0a5da	1.3161291e-06
4	0x36706dcc	3.5826697e-06
5	0x37cedf63	2.4661136e-05
6	0x32137a93	8.584396e-09
7	0x3498d5da	2.8467804e-07
8	0x000001f4	7e-43
9	0x34f6d3ea	4.5975258e-07
10	0x32392406	1.0776608e-08
11	0x377cab3e	1.5060241e-05
12	0x38aac3a3	8.142672e-05
13	0x3607a2bd	2.0211294e-06
14	0x393aea7d	0.00017825696
15	0x36c9a47f	6.0094167e-06
16	0x379c4467	1.8628501e-05
17	0x38f00e8a	0.000114468
18	0x355464fc	7.9123106e-07
19	0x3607a2bd	2.0211294e-06
20	0x390ea292	0.00013602737
21	0x38ea2497	0.00011164805
22	0x38d8cf6c	0.00010338318
23	0x38baf00e	8.913885e-05
24	0x3a2e2e4a	0.0006644471
25	0x37b8c7c1	2.2027527e-05
26	0x3a16627d	0.0005736722
27	0x38975da7	7.217685e-05
28	0x38e97b1a	0.00011133235
29	0x3aa98272	0.0012932552
30	0x36f6b268	7.3521405e-06
31	0x37b8c7c1	2.2027527e-05
32	0x3a073f63	0.00051592867
33	0x39d7cb75	0.00041159583
34	0x3a051179	0.0005076151
35	0x3a43efcb	0.00074743916
36	0x3a51d2bc	0.0008004119
37	0x384e65d1	4.920905e-05
38	0x3a0c0f71	0.0005342877
39	0x39460632	0.0001888506
40	0x3988a561	0.00026063158
41	0x3b10bb7b	0.0022084403
42	0x3782751d	1.5551743e-05
43	0x384e65d1	4.920905e-05
44	0x3a89e73e	0.0010521186
45	0x3a47c224	0.0007620177
46	0x3a897405	0.0010486847
47	0x3a831926	0.0010002002
48	0x000001f4	7e-43
49	0x000001f4	7e-43
50	0x000001f4	7e-43
51	0x000001f4	7e-43
52	0x000001f4	7e-43
53	0x000001f4	7e-43
54	0x000001f4	7e-43
55	0x000001f4	7e-43
56	0x000001f4	7e-43
57	0x000001f4	7e-43
58	0x000001f4	7e-43
59	0x000001f4	7e-43
60	0x000001f4	7e-43
61	0x000001f4	7e-43
62	0x000001f4	7e-43
63	0x000001f4	7e-43
64	0x000001f4	7e-43
65	0x000001f4	7e-43
66	0x000001f4	7e-43
67	0x000001f4	7e-43
68	0x000001f4	7e-43
69	0x000001f4	7e-43
70	0x000001f4	7e-43
71	0x000001f4	7e-43
72	0x393d67ad	0.00018063067
73	0x36bbc7dd	5.5963014e-06
74	0x38bdc854	9.049536e-05
75	0x37cd0ac2	2.4442914e-05
76	0x3820b1d9	3.8312606e-05
77	0x398bcbb0	0.00026663905
78	0x35a49019	1.226089e-06
79	0x36bbc7dd	5.5963014e-06
80	0x38c51a3c	9.3985785e-05
81	0x3897ee0f	7.244583e-05
82	0x387ecd54	6.0749546e-05
83	0x393f4b1f	0.00018243164
84	0x000001f4	7e-43
85	0x000001f4	7e-43
86	0x000001f4	7e-43
87	0x000001f4	7e-43
88	0x000001f4	7e-43
89	0x000001f4	7e-43
90	0x000001f4	7e-43
91	0x000001f4	7e-43
92	0x000001f4	7e-43
93	0x000001f4	7e-43
94	0x000001f4	7e-43
95	0x000001f4	7e-43
96	0x390f0fa8	0.00013643375
97	0x37a181a3	1.9253062e-05
98	0x3abcbf92	0.0014400354
99	0x3894ef2d	7.10174e-05
100	0x395254c1	0.00020058734
101	0x3ab3e44e	0.0013724656
102	0x36bddf20	5.658614e-06
103	0x37a181a3	1.9253062e-05
104	0x3a90b40f	0.001103999
105	0x3a732e34	0.0009276599
106	0x3a9191b8	0.001110605
107	0x39492342	0.00019181988
108	0x39863311	0.0002559652
109	0x36a196b1	4.8157167e-06
110	0x39c1265c	0.0003684041
111	0x37991681	1.82495e-05
112	0x382e772a	4.1595813e-05
113	0x39c72335	0.0003798247
114	0x35462dd0	7.3827414e-07
115	0x36a196b1	4.8157167e-06
116	0x3931bdac	0.00016950694
117	0x38fde823	0.00012107219
118	0x392f11cc	0.0001669593
119	0x398c10d4	0.0002671542
120	0x3832e62a	4.2652864e-05
121	0x35812e16	9.624662e-07
122	0x3844572c	4.6811227e-05
123	0x36728f12	3.6144088e-06
124	0x37115666	8.66279e-06
125	0x3874ccc4	5.8364836e-05
126	0x3494ddc2	2.7728498e-07
127	0x35812e16	9.624662e-07
128	0x38142bf6	3.532689e-05
129	0x37edcad2	2.8347047e-05
130	0x37bfe227	2.2874285e-05
131	0x383f6e98	4.5640947e-05
132	0x3949c25b	0.00019241257
133	0x36432fce	2.908509e-06
134	0x395ca06d	0.00021040598
135	0x374fccd7	1.23858545e-05
136	0x37ff4702	3.0431434e-05
137	0x395caeb0	0.00021045911
138	0x35755288	9.138971e-07
139	0x36432fce	2.908509e-06
140	0x391c6c5b	0.00014917685
141	0x39064e60	0.00012808433
142	0x38cbaf5a	9.712456e-05
143	0x394d614a	0.00019586566
144	0x38a79174	7.990273e-05
145	0x3586361e	9.999528e-07
146	0x38d7e627	0.00010294868
147	0x3685b8dc	3.9852293e-06
148	0x3741d2bf	1.1552765e-05
149	0x38a790d1	7.990155e-05
150	0x34722c89	2.2554208e-07
151	0x3586361e	9.999528e-07
152	0x37f62118	2.9340896e-05
153	0x37dc2ec8	2.6247828e-05
154	0x37c62885	2.3622308e-05
155	0x38aba367	8.1843515e-05
156	0x37c0d3f6	2.2986886e-05
157	0x354f7a4e	7.7291486e-07
158	0x38980b06	7.249978e-05
159	0x3614f157	2.2194197e-06
160	0x3705e248	7.980103e-06
161	0x384a62c1	4.8252525e-05
162	0x3486bf87	2.50988e-07
163	0x354f7a4e	7.7291486e-07
164	0x38565ec8	5.1109848e-05
165	0x383b3171	4.463032e-05
166	0x384c83d4	4.8760165e-05
167	0x37ec5fcb	2.8178e-05
168	0x39006285	0.00012243733
169	0x36ba5ff9	5.5544047e-06
170	0x392734c2	0.00015946015
171	0x37917ac9	1.7342523e-05
172	0x37ee9de7	2.844534e-05
173	0x39281455	0.00016029303
174	0x35d8f243	1.6163762e-06
175	0x36ba5ff9	5.5544047e-06
176	0x391f88ed	0.0001521443
177	0x38fb1835	0.000119731216
178	0x38f814ba	0.00011829422
179	0x39093bb3	0.00013087578
180	0x2eeec5dc	1.0858134e-10
181	0x2df0d4e4	2.7379383e-11
182	0x30aa187d	1.2376088e-09
183	0x2e606be2	5.1027522e-11
184	0x2e8ebea8	6.49128e-11
185	0x306bea5d	8.582555e-10
186	0x2c8f08db	4.0652876e-12
187	0x2df0d4e4	2.7379383e-11
188	0x30ae7f73	1.269639e-09
189	0x2f94bd3b	2.70555e-10
190	0x30ac0a81	1.2517632e-09
191	0x2ee0b4e3	1.02184726e-10
192	0x388a1291	6.583811e-05
193	0x35a4b9b5	1.2273e-06
194	0x390708ef	0.00012877931
195	0x36871723	4.026007e-06
196	0x3763e6e0	1.3584009e-05
197	0x38aacef0	8.144777e-05
198	0x350c662b	5.230274e-07
199	0x35a4b9b5	1.2273e-06
200	0x38daafa4	0.00010427766
201	0x38bbbe76	8.952331e-05
202	0x38a08afa	7.655281e-05
203	0x3893c5e9	7.04637e-05
204	0x00000000	0.0
205	0x00000000	0.0
206	0x00000000	0.0
207	0x00000000	0.0
208	0x00000000	0.0
209	0x00000000	0.0
210	0x00000000	0.0
211	0x00000000	0.0
212	0x00000000	0.0
213	0x00000000	0.0
214	0x00000000	0.0
215	0x00000000	0.0
216	0x3a1a6cc1	0.00058908394
217	0x36bd417a	5.6402614e-06
218	0x3a2fdbfb	0.00067085
219	0x37b8a8e5	2.2013157e-05
220	0x38a2b987	7.759319e-05
221	0x39c2a863	0.0003712802
222	0x3590752b	1.0762936e-06
223	0x36bd417a	5.6402614e-06
224	0x3923abf8	0.00015608955
225	0x391e6c71	0.00015108452
226	0x358d1a81	1.0513032e-06
227	0x3a1a63bb	0.0005889495
228	0x391da247	0.0001503314
229	0x3699a15b	4.5785396e-06
230	0x3297f937	1.7692043e-08
231	0x37e7555c	2.7577094e-05
232	0x38473e23	4.7503167e-05
233	0x39ac7642	0.00032894505
234	0x35b9d59d	1.3845744e-06
235	0x3699a15b	4.5785396e-06
236	0x392f9417	0.00016744468
237	0x391150ca	0.00013858374
238	0x392bc07c	0.00016379537
239	0x3936207e	0.00017368977
240	0x3865a2af	5.4749366e-05
241	0x36e52cf2	6.829964e-06
242	0x3984f9d0	0.00025363127
243	0x37c113ff	2.3016704e-05
244	0x382a66f8	4.0627056e-05
245	0x39ce66ad	0.0003936788
246	0x3665580b	3.4174907e-06
247	0x36e52cf2	6.829964e-06
248	0x39a7151a	0.00031868444
249	0x39a8dfaa	0.000322101
250	0x3997d443	0.00028959112
251	0x389b808b	7.414919e-05
252	0x3bb4b9da	0.0055153193
253	0x382bc866	4.0956213e-05
254	0x3b8a08df	0.0042124833
255	0x3990e55c	0.00027636706

exp_avg f4 [64]
0	0x3a75b9ef	0.00093737146
1	0x3b694128	0.0035591815
2	0x3c1f3cce	0.009719087
3	0xbcd87cab	-0.026426634
4	0x00000004	6e-45
5	0x00000004	6e-45
6	0x3b5a29b0	0.0033289008
7	0x00000004	6e-45
8	0x3abceba3	0.0014413487
9	0x3a2a627c	0.00064996607
10	0x3a5c881a	0.00084126147
11	0x3b85a32e	0.0040782904
12	0x3ace65ff	0.001574695
13	0x3a759ab4	0.0009369061
14	0x3b3a1cea	0.0028398582
15	0x00000004	6e-45
16	0x3997864c	0.00028901023
17	0x00000000	0.0
18	0x3b6f65ef	0.0036529263
19	0x397dedc0	0.00024216529
20	0x3b84a99a	0.0040485384
21	0x3c59d378	0.013295047
22	0x3a14057a	0.0005646568
23	0x393d309b	0.00018042552
24	0x3af647ba	0.0018789687
25	0x3bad9b89	0.0052980823
26	0x3bdfb514	0.006827006
27	0x00000004	6e-45
28	0xba398e37	-0.00070783816
29	0x36506b15	3.1056745e-06
30	0x3b0dd7e3	0.002164357
31	0x3c4be7bd	0.012445387
32	0x3a659c39	0.0008758936
33	0xbb3c2059	-0.0028705804
34	0xba3593e0	-0.0006926637
35	0xba4fa859	-0.0007921509
36	0x3aca276b	0.0015423124
37	0x00000004	6e-45
38	0x3bacd2db	0.0052741594
39	0xbaa84cf3	-0.0012840315
40	0xbab1fd41	-0.0013579504
41	0x00000000	0.0
42	0xbb728ee8	-0.0037011448
43	0x00000004	6e-45
44	0xb92e35b9	-0.00016613946
45	0x3b0f5a29	0.0021873808
46	0x00000004	6e-45
47	0x3b39d664	0.0028356547
48	0x3b88b7e1	0.0041723107
49	0xbba280c6	-0.0049591986
50	0xba294f03	-0.0006458612
51	0x38ebb2d7	0.00011238985
52	0x3bdb70c3	0.006696792
53	0x3b777c53	0.0037763312
54	0x3a3b715d	0.00071503763
55	0x3aaa947e	0.0013014225
56	0x00000000	0.0
57	0x3b4ac362	0.003093921
58	0x37a9e868	2.0254593e-05
59	0xbb8a16da	-0.00421415
60	0x3a2c1b4d	0.00065653474
61	0x00000004	6e-45
62	0xbbc63c55	-0.0060496726
63	0x3b1f6abc	0.0024325093
