models/checkpoint_930000.pt (torch, 125871 bytes, 33 tensors)

shared.0.weight f4 [64, 12]
000000 58 98 a4 be e1 e8 d2 be 6a 38 91 3d 6a dc 65 3f
       -0.3214748 -0.41193298 0.07090838 0.8978945
000010 89 1b 6c bd 56 23 08 bd ca 17 12 bf e1 8a 17 bf
       -0.057643447 -0.033236824 -0.5706755 -0.5919629
000020 45 8b 27 be 02 7a 9b be 17 c7 52 be e0 a2 75 bd
       -0.16361721 -0.30366522 -0.20583759 -0.059969783
000030 4d cc 0c 3d 79 b5 6f 3e 6a a0 4a be 5b d1 80 3f
       0.034374524 0.2340907 -0.19787756 1.006389
000040 2e eb 62 3e 6a da 86 bd f5 99 64 3e 0b 4d ec 3e
       0.22160026 -0.06584628 0.22324355 0.4615253
000050 b0 f2 33 3d bd b2 0d be c2 be c0 3d 16 e3 62 3e
       0.043932617 -0.13837714 0.09411384 0.22156939
000060 f5 94 18 3e f1 7d 03 3d 64 6f 05 bc f8 7a 04 be
       0.14900573 0.03210253 -0.008144233 -0.12937534
000070 04 b6 5a bf 66 c0 d1 3d cd a2 6e 3e de a5 96 3d
       -0.85433984 0.10241775 0.23304291 0.073558554
000080 52 ad e1 bd 4f 4f 17 3e 6a a0 7d 3e fd e3 08 3c
       -0.11019386 0.14776348 0.24768224 0.008355138
000090 02 34 85 be 8a c0 13 bf 8d f5 f3 bc a2 aa 2c bd
       -0.2601624 -0.57715666 -0.029780174 -0.042154916
0000a0 8b dc 53 3e d0 99 73 3e ed 6d 53 3d 62 5f 7f be
       0.20689599 0.23789144 0.051618505 -0.2493873
0000b0 c2 29 0f be 1b 8c 33 3d d8 0e fb 3c a0 33 15 3e
       -0.13980773 0.043834787 0.030646726 0.14570475
0000c0 ed 2e c2 3d 96 8c 9d be ba da 8d 3d 84 18 36 bf
       0.09481607 -0.3077132 0.069264844 -0.7113116
0000d0 1d e4 98 be 87 77 0f be 5a f6 1b bf 18 20 23 be
       -0.29861537 -0.1401044 -0.6092278 -0.15930212
0000e0 2d ef 0a 3d 49 e7 04 3e 20 81 4a be 17 78 a9 be
       0.033919502 0.12978853 -0.1977582 -0.33099434
0000f0 cd 3c 2d be 73 50 c6 bc cb 96 91 be 7e 09 fb be
       -0.16917725 -0.024208283 -0.28435358 -0.4903068
000100 7e 8c c0 be 63 f7 88 3d 98 d0 1d be f8 77 af bd
       -0.37607187 0.0668781 -0.15411603 -0.08567804
000110 6c d6 d8 3b d4 da a6 bc 7e cb 37 bd ef 43 00 3e
       0.006617358 -0.020368017 -0.0448718 0.12525915
000120 80 55 09 bd 3e 9e fc 3e 93 d2 e6 3b 39 5e 04 3f
       -0.033528805 0.4933948 0.0070441454 0.5170627
000130 b5 db 30 bf 58 26 c7 bd 1c 4e 90 bd 68 35 8a 3e
       -0.69085246 -0.0972411 -0.07046148 0.2699387
000140 44 17 00 3e 42 c1 80 3d 44 40 d2 3d 9a 2e 5a 3e
       0.12508875 0.06286861 0.10266164 0.2130684
000150 0c 57 91 3d 60 24 aa be a4 42 01 3d e0 43 bf be
       0.07096681 -0.33230877 0.031557694 -0.37356472
000160 83 d3 f4 be 35 f5 25 bd 25 f5 f3 be e2 be 67 be
       -0.4781762 -0.04051705 -0.47647968 -0.2263141
000170 92 62 14 bd 5f 06 90 be c1 12 22 3e 24 7a 39 3d
       -0.036226816 -0.2812986 0.15827467 0.045282498
000180 b5 35 86 be b8 94 86 be f4 9e e0 3d d0 b9 e6 be
       -0.2621285 -0.26285338 0.10967818 -0.4506364
000190 0c 53 7e 3e 78 35 5c bb 73 27 c1 bf aa 2f 29 be
       0.24836367 -0.0033601206 -1.5090164 -0.16522089
0001a0 87 96 a8 3d 79 99 b8 3a 79 35 bd 3b dd 22 6c bf
       0.08231836 0.0014083824 0.0057741967 -0.922407
0001b0 4b b8 3d 3c ae 49 3e 3e 90 fd 66 3d 81 a9 0d be
       0.011579583 0.18582794 0.05639416 -0.13834192
0001c0 7f a3 2d bf 04 ae 26 3e 57 35 94 bf 84 7b 13 3d
       -0.678276 0.16277319 -1.1578778 0.036006466
0001d0 8a ef 44 3e 52 cf 6c be 0f 66 3b 3e e1 96 6d be
       0.19232002 -0.23125961 0.18300651 -0.23202087
0001e0 cd 95 90 bd ee 8a 8b 3c 77 d9 66 be c7 57 db 3e
       -0.07059822 0.01703402 -0.22543894 0.42840406
0001f0 71 af 4f bf e3 21 e1 bd 4f 27 00 be c0 13 09 be
       -0.8112708 -0.109927915 -0.12514995 -0.1338644
000200 39 19 07 bd a0 73 50 3d 8e 88 57 bd 35 ee 2d 3e
       -0.03298304 0.05089152 -0.052620463 0.169854
000210 70 7f 9f be 58 52 44 3f bc 41 05 3e 89 2d c9 3f
       -0.31151915 0.76688147 0.13013357 1.5717021
000220 4e bb d3 bb f1 0c 14 3c b6 8b b5 3e 8a 4e 27 3f
       -0.0064615374 0.009036289 0.35458153 0.65354216
000230 d3 d1 14 3e 98 05 0d 3d e8 31 6f 3e 5d d5 88 3e
       0.14533167 0.034429163 0.23358881 0.26725283
000240 e6 8b 12 be 09 2a 58 3e a3 44 67 3c 33 10 3c be
       -0.1431118 0.21109785 0.014115485 -0.18365555
000250 45 93 fd be 96 2f 31 3e e4 c8 8b 3e 4e 48 6c bd
       -0.4952642 0.17303309 0.27301705 -0.057686143
000260 22 bc 8d bb 8f cd 9c bd 9b a3 2c bd db 7c 9f 3d
       -0.0043254057 -0.07656395 -0.042148214 0.07787486
000270 3a e9 de be 78 12 93 3d 15 8d 39 bb 61 e4 e2 3e
       -0.43537313 0.07181257 -0.0028312851 0.44314864
000280 81 a9 23 3e 45 a4 73 3c ce a2 3f 3f 37 07 a0 3e
       0.1598263 0.014870708 0.74857795 0.31255504
000290 9d a9 eb 3d c0 88 4c be 5e 1a 0c 3e 8f 2f de 3e
       0.115069605 -0.19974041 0.13681933 0.4339566
0002a0 d4 82 04 be 2b 13 7b 3b e3 88 80 bd b3 1b 80 3e
       -0.12940532 0.0038310986 -0.06276109 0.25021133
0002b0 5a 74 3a bf 45 3e e8 3d 31 28 b4 3e d3 be b6 bd
       -0.7283379 0.11340002 0.35186914 -0.089231156
0002c0 60 c2 cc 3c ac 22 1b 3d 47 56 03 3e 91 b6 87 3e
       0.024995029 0.037874863 0.12825881 0.26506475
0002d0 60 e0 fb 3c 4d 18 f0 be f8 32 f8 3d 20 d3 4c 3d
       0.030746639 -0.4689354 0.121190965 0.050006032
0002e0 a2 df 00 bf 44 de 40 bd 0a 1c ca be c3 ef c4 be
       -0.50341237 -0.04708697 -0.39474517 -0.38464174
0002f0 7c 16 81 3e f4 95 74 be a9 5a 3e 3d d9 87 61 be
       0.25212467 -0.23885328 0.04647318 -0.22024478
000300 8b dc 7e be 59 52 9c 3e 02 ff 36 bc d0 76 73 3f
       -0.24888818 0.30531576 -0.011169197 0.9510317
000310 e5 45 6d 3b ec ac 28 be c5 ee 0f 3e 01 19 16 3f
       0.003620499 -0.16472214 0.14055927 0.586319
000320 9f 71 2f be ca 2e c3 bd 87 47 b0 3d ce d1 b6 3e
       -0.17133187 -0.09530409 0.08607393 0.35706943
000330 5e 0c 99 3c 70 03 82 3c ba de 24 be 6c 18 8e bd
       0.018682655 0.01587078 -0.16100588 -0.06938252
000340 45 a9 1a be 83 5a 15 bd 7b f6 30 3d 3b 36 65 bd
       -0.15103634 -0.03646327 0.043203812 -0.05595992
000350 06 ab 86 bd c7 62 c5 bd 31 c7 96 bd 38 ed 01 bd
       -0.06575589 -0.09637981 -0.073622115 -0.03172037
000360 86 0a 6e be da 2e 4f 3f c0 6c 3f 3e 9a 2e d3 3e
       -0.23246202 0.80930865 0.18693829 0.41246492
000370 c0 60 13 bd 39 be fb 3c e2 45 9a 3d 62 d9 54 3f
       -0.03598094 0.030730354 0.0753286 0.831442
000380 35 8c 1b bd df 90 1f 3c 5e 32 92 bf 39 8a 84 be
       -0.03797551 0.00973913 -1.1421621 -0.25886706
000390 c8 4a 00 3e ce 64 f0 be 3c 1e e3 be eb 35 47 3f
       0.12528527 -0.46951908 -0.44359004 0.7781665
0003a0 01 7f 6a 3e 96 10 59 be eb 14 40 bf 02 91 d2 be
       0.2290001 -0.21197733 -0.7503192 -0.41126257
0003b0 af dc d9 bc a7 9b 27 3e 72 3b 61 bd 1b b9 54 be
       -0.026594488 0.1636797 -0.054988332 -0.20773737
0003c0 56 7c 88 bd 01 3b a7 bd 10 ef 8f 3c 23 73 68 bd
       -0.0666434 -0.08165551 0.017570049 -0.056750428
0003d0 e2 b3 df be 33 c7 1e 3e e9 70 e4 be 01 29 cb bc
       -0.43691927 0.15505676 -0.44617394 -0.024799826
0003e0 cd 63 0e bd 20 97 cd 3e 24 16 2a be fb f3 00 bf
       -0.034763146 0.40154362 -0.16610008 -0.50372285
0003f0 14 5c 82 3e 27 e2 09 3e d2 57 c3 3b 7a df 07 c0
       0.25460875 0.13465177 0.0059613967 -2.123015

shared.0.bias f4 [64]
000000 82 a5 70 3e 1e 76 88 3e b8 8e 43 3c 0b 6a bf be
       0.23500636 0.26652616 0.011935882 -0.37385592
000010 c6 a8 19 3e ee 00 7c 3d 19 09 0e 3f f7 75 cb 3c
       0.15005788 0.061524324 0.5548263 0.024836523
000020 ab e5 06 3f f3 03 c6 3d 0e 65 b5 3e c9 04 c7 3e
       0.52694196 0.09668722 0.3542866 0.38870838
000030 26 b3 38 bc e8 35 10 bd 3f f9 a6 3d 73 4b b1 bd
       -0.011273181 -0.03520766 0.08153009 -0.08656969
000040 96 1a 75 3e 00 00 00 00 ce 3e 7d 3e f4 1a 77 3e
       0.23935923 0.0 0.2473099 0.24131376
000050 69 60 9d 3d 63 0e 9e 3e af ac 5c 3d da 60 db be
       0.076844044 0.3087035 0.05387562 -0.4284733
000060 09 7d dc 3e 40 aa d7 3e 49 a5 9a 3e c4 fd 1b bc
       0.43064144 0.42122078 0.30204228 -0.009520952
000070 b9 64 91 3d f5 d5 91 3d 11 c2 d1 3e a5 8b bf 3e
       0.070992894 0.07120887 0.40968373 0.37411228
000080 cc 4e 43 3e e3 f3 cf bb 6b 63 85 bd 69 f9 2a 3e
       0.19073027 -0.0063462122 -0.06513103 0.16696705
000090 db a1 ee 3e 36 a1 5b bd b3 27 bc 3e 30 35 74 3e
       0.4660786 -0.05362054 0.36749038 0.23848414
0000a0 0d 36 7f 3e 00 00 00 00 c1 83 89 3e bf c5 59 be
       0.24922962 0.0 0.26858333 -0.2126684
0000b0 69 4a 31 3d 0e f2 b2 3e 5f e2 49 3e be 4f ba 3e
       0.043283854 0.34950298 0.1971526 0.36388963
0000c0 d9 d1 d9 3d 54 54 64 3e 9a 5a ec bd 4a 71 bf 3d
       0.106357284 0.22297794 -0.115407184 0.0934778
0000d0 42 cf 90 3e 4a c4 bc 3e 75 d9 5a 3e 6c 8a 61 3e
       0.28283125 0.36868507 0.21372016 0.2202546
0000e0 00 00 00 00 26 af 93 3e 19 21 b6 be fd b9 5c 3d
       0.0 0.28844565 -0.35572127 0.05388831
0000f0 fd ac 7a 3e ad 1d b7 3d bb 1d 13 3e 4a c0 76 3e
       0.24480052 0.08941207 0.1436681 0.2409679

shared.2.weight f4 [64, 64]
000000 f3 85 17 be 9c c6 87 3d 75 d9 77 3f d1 28 1c bc
       -0.14797191 0.066296786 0.9681619 -0.009531216
000010 4d 30 bf 3e f3 83 08 be 15 94 c4 3d 43 d0 18 3e
       0.37341538 -0.13331585 0.09598557 0.14923196
000020 52 e3 55 bf 2c 83 2c 3f b7 49 ad 3e 56 de 1f 3e
       -0.8354999 0.6738765 0.33845302 0.15612158
000030 a4 a0 ad 3e 50 55 75 be c1 cb 29 3e ab 4c 65 3d
       0.33911622 -0.23958325 0.16581632 0.05598132
000040 75 26 88 bd ff 46 86 3d f0 fa 7c 3e 30 92 17 3e
       -0.0664796 0.0655651 0.247051 0.1480186
000050 7e 17 17 3f 92 f1 88 be 61 f8 21 3f 4f c1 04 be
       0.5902022 -0.26746804 0.6326962 -0.12964366
000060 d7 bf e1 3d 27 94 8a 3e 7c b4 4a 3e 53 6a 0d 3e
       0.11022919 0.27066156 0.19795412 0.1381009
000070 09 59 96 3e 0e 72 46 bf de d9 62 3d f4 d5 01 3f
       0.29364803 -0.77517784 0.055383556 0.5071709
000080 7f b3 cb 3e 3d bc 21 3f 8f ea ca bd f9 de 25 3f
       0.39785382 0.63177854 -0.0990802 0.64793354
000090 18 bb 20 3d 77 8b 44 3e f4 e1 a4 bd 2f 9f b9 bf
       0.039240927 0.19193827 -0.0805091 -1.4501704
0000a0 df e5 b5 bd df 61 09 be 7a e0 17 3f fa 83 2f bf
       -0.08881735 -0.13416241 0.593269 -0.68560755
0000b0 23 95 b4 3d e5 df 29 3f 9b 32 1b 3d 21 32 2f 3d
       0.08817508 0.6635726 0.037890058 0.042772416
0000c0 c5 e3 25 3f 3c 74 fb bc 31 ab d7 3c 98 d5 b5 bd
       0.64800674 -0.030695073 0.026326748 -0.088786304
0000d0 8f 5d f7 bd 32 11 28 3d 4a 80 57 bc c5 6b 9d bc
       -0.12078392 0.041032024 -0.013153145 -0.019216428
0000e0 85 09 08 3e 52 75 56 bf 20 36 b3 bd bf 9b 3b be
       0.13284881 -0.83772767 -0.08750558 -0.18321131
0000f0 15 70 32 3e b8 bb 11 3f be 58 58 bc 97 9a a5 bd
       0.17425568 0.5692706 -0.013204752 -0.08086126
000100 8e ab 14 bc 8d d4 ba bd e4 31 89 3e 80 6b bd be
       -0.009074105 -0.09122572 0.26795876 -0.36996078
000110 9e e4 90 3e b2 c8 50 bc 50 3b 1f 3d b6 3c 06 3e
       0.2829942 -0.012743162 0.038874924 0.13109097
000120 d2 6a bf be b9 f4 ac 3e ce bb 12 3e 44 07 94 bd
       -0.37386185 0.3378046 0.14329454 -0.07227948
000130 52 0d 93 3e e2 a6 53 be d2 29 22 3e 72 4c bc 3e
       0.287211 -0.2066913 0.15836266 0.36777073
000140 7b 3e 8a bd 65 e7 16 3d bd 5d 74 3e 00 f5 29 3e
       -0.067501985 0.03684177 0.23863883 0.16597366
000150 7d a9 81 3e f4 a2 19 bf eb 96 82 3e 4b dd bc bc
       0.25324622 -0.6001427 0.25505766 -0.02305474
000160 b6 12 47 3d 45 6b ed 3d 5a 63 ad 3e 76 f2 36 bd
       0.04860183 0.11592726 0.33864862 -0.044664823
000170 e0 77 db 3d 2b 4f 92 be a5 da d3 3d e0 4e f7 3e
       0.10716224 -0.28576025 0.103444375 0.48302364
000180 da 12 07 3e 52 94 e5 3e 96 71 85 3d 51 25 4e 3e
       0.13190785 0.44839722 0.065158054 0.20131423
000190 08 90 6b be bb fe 22 3f 2f 04 42 bd 2b 32 c7 bf
       -0.23004162 0.6366994 -0.04736727 -1.5562185
0001a0 4d 9c a9 be f8 a1 e3 bd 57 db e9 3d 60 4d 3f bf
       -0.3312706 -0.111148775 0.11418789 -0.7472744
0001b0 19 17 e7 bd 59 79 9a 3e 35 74 9b bc e1 3c e4 3d
       -0.112837024 0.30170706 -0.01897631 0.11144424
0001c0 0a 26 a9 3e 26 f0 17 be 27 e3 ed bd 64 8e 13 be
       0.33036834 -0.14837703 -0.116155915 -0.14409786
0001d0 64 24 7c 3c 2c 23 5a bd 10 18 81 3c 0f 92 81 be
       0.015389536 -0.0532562 0.015758544 -0.25306746
0001e0 65 0e 2d 3d 92 96 99 be f5 3e e6 3d a0 e9 8f be
       0.042250056 -0.2999769 0.11242477 -0.2810793
0001f0 7a 9d 37 3e 75 8d c2 3e f5 e3 04 bf 66 a0 f9 bd
       0.17931166 0.37998548 -0.51910335 -0.12188797
000200 01 42 90 be e4 76 90 be c2 d3 a1 3e 7a 74 95 be
       -0.28175357 -0.28215706 0.3160687 -0.29190427
000210 4d d0 a9 bd 9e 40 9c be e0 21 65 bd 29 67 bc 3d
       -0.08291683 -0.3051805 -0.05594051 0.09199364
000220 77 93 d2 be c6 18 9e 3d 8b 35 0f be 1f 07 e3 bd
       -0.41128132 0.07719569 -0.13985269 -0.110853426
000230 16 cd 40 3d 3f 25 86 bd 91 1a c0 3c a8 a6 0b 3d
       0.047070585 -0.06550073 0.023450168 0.034094483
000240 79 19 19 bd 96 fb a6 3d b6 0b d0 bd a4 88 f6 bd
       -0.03737781 0.08153455 -0.10158484 -0.12037781
000250 6c b1 ce 3e c5 ee 80 bf b2 54 c2 3d f4 ad 84 be
       0.40369737 -1.0072867 0.094888106 -0.25913966
000260 80 5a 62 3e 64 32 6b 3e 1c 9b 65 3d 13 74 a1 bd
       0.22104836 0.22968441 0.056056127 -0.078834675
000270 0c 18 62 3e 78 9c a8 be 4c a7 cf 3d 88 3e 23 3f
       0.22079486 -0.32931876 0.10139331 0.6376729
000280 b9 3b 6c bc 2b e3 4f 3d 13 ff 2e bc bb a1 25 3f
       -0.014418536 0.050753754 -0.010680932 0.64699906
000290 44 b1 fd bb 08 47 18 3e 0b bf 85 3d ea 06 c1 bf
       -0.007742079 0.14870846 0.06530579 -1.5080235
0002a0 93 77 39 3e 41 38 ad bd a1 9e 88 3e 58 03 06 bf
       0.1811202 -0.08457995 0.26683524 -0.5234885
0002b0 7c 41 92 bd 81 86 4b 3d 36 4e 63 be 89 6a 6a 3e
       -0.071413964 0.04968882 -0.22197804 0.22892202
0002c0 e2 38 a3 3d c1 be 89 be 75 bc 81 be e0 72 71 3d
       0.07969834 -0.26903346 -0.25339094 0.058947444
0002d0 f5 02 42 3e f8 cc 5c bd 37 87 19 3e 06 6c 62 3d
       0.1894644 -0.05390641 0.14992987 0.0552788
0002e0 81 b5 45 3e 28 f0 f0 be 02 80 3e be c3 03 eb be
       0.1930752 -0.47058225 -0.18603519 -0.45901307
0002f0 42 66 89 3e 3f ba d8 3e 33 19 0d bf 1d 4e 8d bc
       0.2683583 0.42329594 -0.55116576 -0.017249161
000300 ab 05 df 3d 43 ea a7 be d0 40 ff be be 34 06 bf
       0.10889753 -0.32795915 -0.49854136 -0.5242423
000310 8e 81 4f bd 69 65 88 be 7f 18 5a be 06 b5 2a 3e
       -0.050660662 -0.2663987 -0.21298407 0.16670617
000320 d6 dd 54 3e 98 26 08 3f 41 75 c6 3a 36 c8 39 3c
       0.20787749 0.5318389 0.0015141146 0.011339238
000330 cd 05 7b be 85 ce 0f 3e 02 f9 0b bf 9f a7 5b 3e
       -0.24513932 0.14043625 -0.5467683 0.21450661
000340 d8 49 0f be d1 92 2c 3e ee 7d 87 3e 26 09 87 bf
       -0.13993013 0.16852881 0.26463264 -1.0549667
000350 e8 a9 fe be 69 a4 2b bf 65 aa 10 3f 54 13 02 bf
       -0.49739003 -0.67047745 0.5651 -0.5081074
000360 f8 72 ae 3e 4e 29 de 3e 0e 23 e7 bd f5 fc e8 bd
       0.3407209 0.43390888 -0.11285983 -0.11376373
000370 03 48 03 bf d1 09 a3 bc 3c be d9 3d 13 e4 1a bc
       -0.51281756 -0.019902142 0.106319875 -0.009453791
000380 c9 9f 47 bf 18 18 a8 bf 72 b9 47 bf 27 52 98 3f
       -0.7797819 -1.3132353 -0.7801734 1.1900071
000390 88 6b c4 3d c7 4a a7 3e 35 ba 5f bd 12 ce df bf
       0.095908225 0.32674238 -0.05462094 -1.7484763
0003a0 5a 20 05 3e 6a 4e 2a be b7 7b 88 3e d7 03 3d bf
       0.13000622 -0.16631475 0.26656887 -0.73833984
0003b0 c8 09 4c be 1e 61 d8 3e c2 b4 e5 bd 48 eb c2 3d
       -0.19925606 0.42261595 -0.112161174 0.095175326
0003c0 f4 f5 a8 3e 97 9a 92 3d 58 b1 35 be e2 77 36 bf
       0.33000147 0.07158392 -0.17743433 -0.71276677
0003d0 82 f5 25 bf 39 fe a3 bd 33 7f 81 3e a9 85 79 bd
       -0.6482774 -0.080074735 0.25292358 -0.060918484
0003e0 2a 19 0a be 58 61 d8 be 86 4e 44 bf b6 aa e5 bc
       -0.13486162 -0.42261767 -0.7668232 -0.028035503
0003f0 83 02 5c bf de 70 fa 3e 91 24 ee be 45 d1 82 bf
       -0.8594133 0.48914236 -0.46512273 -1.0220114

shared.2.bias f4 [64]
000000 ee 22 90 3e da 7e d5 3e c7 e0 d4 3e 75 79 d3 3d
       0.2815165 0.41698343 0.41577742 0.103259005
000010 26 36 05 3e fa c0 90 3d 01 4d 1a bd 15 56 1a 3c
       0.13008937 0.07068057 -0.037671093 0.009419938
000020 64 f3 11 bf 55 b0 19 3f 58 50 c1 3e 79 7e 5e 3e
       -0.5701201 0.60034686 0.3775661 0.21727933
000030 14 40 b3 3e 1d de bf 3e eb 18 15 3f df c2 d2 bc
       0.35009825 0.37474146 0.58241147 -0.025727687
000040 59 7f 3f 3d 6a 31 c3 bc 0a 68 04 3f 2e 49 60 3e
       0.046752308 -0.023827273 0.5172125 0.21902916
000050 cc e4 93 3e 53 4d 72 3e 17 81 a2 3e ff 28 1e 3f
       0.28885496 0.2366231 0.31739113 0.61781305
000060 6d 86 1b 3f 02 a7 17 3f a1 7e a1 3e f3 cb 81 3e
       0.6075199 0.5923921 0.31541923 0.25350913
000070 f0 9d 57 3e 17 31 68 3e c5 9d 05 3f f0 5b b8 3e
       0.21056342 0.22674976 0.5219386 0.36007643
000080 73 15 26 3f a3 2a 04 3f c8 90 6f 3e d0 87 16 3f
       0.6487648 0.5162756 0.23395073 0.58800983
000090 25 1d 1a 3f 05 cb ac 3e 5a 85 cc 3e 12 9a 1d 3f
       0.6020072 0.33748642 0.3994549 0.6156322
0000a0 94 a6 ee bc 6e 5f a6 3e 51 da 15 3f 2f 0b fe 3e
       -0.029132165 0.32494682 0.5853625 0.49617907
0000b0 90 56 30 bd 1c f2 d2 bc d2 67 d5 3e 59 59 c6 3e
       -0.043051302 -0.025750212 0.4168077 0.38740042
0000c0 86 6d b6 3e 4e 2f 7a 3e 4c f4 08 3f e3 0c 05 3f
       0.35630435 0.24432108 0.5349777 0.5197279
0000d0 56 8f 9c 3e 9c 6e bf 3e a6 24 b5 3d 17 42 62 bc
       0.30578107 0.37389076 0.08844881 -0.013809702
0000e0 4a 63 21 3f e7 80 3d be 16 60 d9 3e 9d 8b ec 3e
       0.6304213 -0.18506204 0.4245612 0.46200266
0000f0 56 dc 89 3e 74 b5 21 3f ec c6 9a 3e 0c ca d4 3e
       0.26925915 0.631675 0.3022989 0.415604

actor.0.weight f4 [32, 64]
000000 df 43 a3 bd b2 74 60 be ee 2d d2 bd 6d 39 d4 bd
       -0.0797193 -0.21919516 -0.10262667 -0.103625156
000010 53 d8 78 3d 3f 52 1b 3e 67 21 45 be a5 ab 18 be
       0.060753178 0.15168093 -0.19251023 -0.14909227
000020 2b eb d3 3d f4 12 f2 3d df da 5b be 20 71 dd 3d
       0.10347589 0.11820021 -0.21470211 0.108125925
000030 b2 be c3 3d bc a6 19 3c 15 32 aa 3c 6b 94 90 bd
       0.095578566 0.0093781315 0.020775834 -0.070595585
000040 c0 f4 82 3d fd cb d4 3d e3 7e 04 bd 86 86 5c be
       0.063943386 0.1039047 -0.03234757 -0.21535692
000050 fd 73 df 3c d1 93 20 be d7 4f e4 3d 4c 41 1c bc
       0.027276987 -0.15681387 0.11148041 -0.009537052
000060 d8 29 4a bc 5c 51 e0 bd 88 b3 e5 3c c9 d1 d4 bd
       -0.012339078 -0.10953018 0.028039709 -0.10391576
000070 32 23 b0 bc 0b 78 98 be ae 10 83 bd 73 b7 b2 be
       -0.021501157 -0.29779086 -0.06399666 -0.34905586
000080 c1 bd 1d 3d 0b 6e ed bd 8a 69 c2 3d 79 1f ee 3d
       0.03851104 -0.11593255 0.09492786 0.11627097
000090 95 70 1e be b6 11 18 be 70 e7 85 be 84 6f df bd
       -0.15472634 -0.14850506 -0.26153135 -0.10909942
0000a0 36 49 6d bb f6 91 ab 3d 28 dd 09 bd c8 20 91 be
       -0.0036206967 0.08377449 -0.033658177 -0.28345323
0000b0 5b 9e bb 3c f5 02 44 3d c6 45 0b 3d de 32 1f bc
       0.022902658 0.047854383 0.034002088 -0.0097167175
0000c0 3a 92 df bd 0f 58 e8 bc dc 0e 28 be bf 11 a1 bd
       -0.109165624 -0.028362302 -0.16411918 -0.07864713
0000d0 6e 0f 0c be 86 03 cc 3d e2 b2 33 bd 89 19 b5 bd
       -0.13677761 0.099616095 -0.043871768 -0.08842761
0000e0 75 f5 4e 3e 2b a4 5c be 0f 9d 91 bd 95 0b 94 bd
       0.20210822 -0.21547 -0.07110035 -0.072287716
0000f0 3f 79 4e 3d fc 07 c2 bc 9d ed 68 3b 3e 4e 01 bd
       0.050408598 -0.023685448 0.003554202 -0.03156876
000100 09 23 2f bd 7a fe 33 3e f0 a1 01 bd 1c f3 60 3c
       -0.04275802 0.17577544 -0.031648576 0.013729837
000110 96 e5 97 3e fc 5f 18 bd b1 32 0e 3a 89 06 9b 3d
       0.29667348 -0.037200913 0.0005424424 0.07569606
000120 a8 16 d0 bd 6e ab 0a bc 21 4c 8c 3d 41 4b df 3d
       -0.10160571 -0.008463724 0.06850458 0.109030254
000130 d3 a4 13 be a0 40 07 be a8 f2 b4 3d 1d 95 e8 3d
       -0.14418344 -0.13208246 0.088353455 0.11356566
000140 e8 e4 db be 94 b4 95 3d f3 fe cc bd 2b b5 42 bd
       -0.4294808 0.07309833 -0.10009565 -0.047536056
000150 0e 25 57 3c ff 3c da bd 71 55 93 3d 1b fa 15 bd
       0.013131393 -0.10656165 0.07194031 -0.036615472
000160 5c d8 a3 bd e9 28 5d 3b ef be be 3c 36 2f 8e 3e
       -0.08000252 0.0033746308 0.023284404 0.27770394
000170 65 ef 05 3e f8 2f 5e 3e 54 de f5 3c 67 65 7e 3b
       0.13079603 0.21697986 0.03001324 0.0038817765
000180 0d 4e 28 3d 31 60 55 bb bf 5a 0b 3d c1 26 c8 bd
       0.04109006 -0.0032558555 0.03402209 -0.09773017
000190 62 b9 20 be 76 4a 55 bc f7 15 6c be f2 0e 66 bd
       -0.15695718 -0.013018241 -0.23055254 -0.056166597
0001a0 d5 48 15 3e 27 4e 40 3e b5 9d 02 3d e4 42 d3 bd
       0.14578564 0.18779813 0.031888682 -0.10315493
0001b0 06 48 85 bd 49 2c 00 3e 16 e7 80 bc 72 28 9e bc
       -0.06507878 0.12516893 -0.01573519 -0.019306395
0001c0 cf f3 f9 3d 7e d1 36 be 75 79 73 bd 61 10 86 be
       0.12204706 -0.17853352 -0.059442002 -0.2618437
0001d0 80 fc 11 be 91 1e de bd 9e 43 1c be 53 ed 82 3c
       -0.14256477 -0.10845674 -0.15260169 0.015982306
0001e0 6b 72 72 bd d6 e9 b3 bd 5a 5d f9 3b 38 9d 51 be
       -0.05919115 -0.08784835 0.0076100053 -0.2047013
0001f0 56 10 82 bb 40 2d b2 bd 4a d0 01 bc 0b 69 d0 3d
       -0.0039692326 -0.08700037 -0.007923195 0.10176285
000200 a9 38 a0 3d 46 36 a2 3c 15 99 1b be 61 53 89 be
       0.07823307 0.01980127 -0.15195115 -0.26821426
000210 94 cc 09 bf 8d d8 8a 3f e5 eb bc bc 5d 55 03 3e
       -0.53827786 1.0847336 -0.023061702 0.12825532
000220 2d 82 c8 be 16 78 63 be 77 9d 02 bd f7 94 0f 3e
       -0.39161816 -0.22213778 -0.03188845 0.1402167
000230 7e a1 30 be 97 13 35 be 0c e3 01 be a3 a4 0e bc
       -0.17249104 -0.17683254 -0.12684268 -0.008706245
000240 e3 5f bc be ff ed 3b bd bc 89 95 3e 03 88 af 3e
       -0.36791906 -0.045881268 0.29206645 0.34283456
000250 74 96 1b 3d 5f 6d f3 bd a0 25 51 bd 69 6d 2a be
       0.03798528 -0.11886095 -0.051061273 -0.16643299
000260 69 c2 2a bd 1a 13 dd bd 53 c8 92 3e 0d 69 8f bc
       -0.04168931 -0.10794659 0.2866846 -0.017506147
000270 00 7d a3 3e 6f 07 01 be c6 d4 44 3e 4f 6a d9 be
       0.31931305 -0.12600492 0.19221792 -0.4246392
000280 0d 6e 8b 3e 7f ae 12 3e 71 74 fc bd c3 9e e4 bd
       0.272324 0.14324377 -0.12326897 -0.11163094
000290 a5 43 0c bc a1 27 94 bd a5 38 81 be 5c 20 88 3d
       -0.00856105 -0.07234121 -0.2523853 0.06646797
0002a0 f3 0e ec bc 31 7f 1e 3e 6d 7e 17 be c2 66 cb 3d
       -0.028815722 0.15478207 -0.14794321 0.09931709
0002b0 4f 1a 2b bb f7 15 10 3d ce 4b c6 be 62 2d 0f 3d
       -0.002610821 0.035177197 -0.3872971 0.03495539
0002c0 13 c7 af be b4 8a f0 3d 9e c0 5e bd 7d 56 2c bd
       -0.3433157 0.117452055 -0.054382913 -0.04207467
0002d0 4e 63 8f 3d 12 22 7c 3e 7f d8 f7 bd 8a 23 42 bd
       0.07001363 0.24622372 -0.1210184 -0.047397174
0002e0 c5 93 57 3e 09 bc 2b 3e 44 a7 ad 3e d1 90 95 3e
       0.21052463 0.16770948 0.33916676 0.2921205
0002f0 90 cc 95 3e 63 fb 49 be ec b5 a7 3e 38 c5 30 be
       0.2925763 -0.19724803 0.32755983 -0.17262733
000300 20 19 c7 bd 30 9e 9a bd 9d 02 5f 3d 23 ed 07 be
       -0.09721589 -0.07549703 0.05444585 -0.13274054
000310 dd 5f 7b 3d 90 1f 00 bd 64 df a5 3d a5 c7 0a 3e
       0.06137072 -0.0312801 0.08099249 0.13552721
000320 92 53 4e 3e cd 1c 2a be 72 8a c9 3d c9 db 70 3c
       0.20149067 -0.16612549 0.098408595 0.014700838
000330 3e 75 03 be 20 02 8c 3d d2 62 01 3d 91 51 41 be
       -0.12837693 0.06836343 0.031588383 -0.18878771
000340 05 1e 53 3d 8a a7 c9 bc 85 98 f3 3c ac 37 2d bc
       0.0515423 -0.024616022 0.029735813 -0.010572355
000350 8d c0 6d 3d 91 59 7d bd 05 a6 c4 3c 70 67 15 3e
       0.05804496 -0.061852995 0.024004946 0.1459024
000360 52 78 f1 bd 9f 36 f1 bd 99 57 a0 3d d3 a1 82 3e
       -0.117905274 -0.11777996 0.07829208 0.25514087
000370 3d 56 4b bc fb 38 ce bd 9c c9 d0 3d 6a 5f 21 3e
       -0.0124106975 -0.10069462 0.10194704 0.15759054
000380 8e d3 92 3c 3b 6c f5 bd 55 ab 64 3d 39 f7 25 3c
       0.017923143 -0.11983534 0.055827457 0.010129743
000390 02 9e 86 bd 90 63 5f be 22 0b be bc 1e ed 58 be
       -0.06573106 -0.21815324 -0.023198668 -0.21184203
0003a0 45 30 11 3e 7f 80 36 be ef da 3b be 17 d4 8a bd
       0.1417857 -0.17822455 -0.18345235 -0.06778734
0003b0 7a 8f 4b 3d a7 6f c8 3d 23 2a 35 3e 9e a8 92 bd
       0.049697377 0.09786921 0.17691855 -0.071610674
0003c0 d9 78 74 be ca 11 7e 3b 80 5e 95 bd 94 52 a9 3d
       -0.23874225 0.0038767927 -0.07293415 0.08267704
0003d0 7c 54 15 3e 66 79 51 be dd a7 aa bd d4 21 4e be
       0.1458301 -0.20456466 -0.08332799 -0.20130092
0003e0 a1 dd b3 bc 84 61 21 3e d4 2f c0 3e 48 b9 8c 3e
       -0.021956267 0.15759856 0.3753649 0.27485108
0003f0 34 d4 c1 bd 01 58 cd bb 83 a5 3d 3c 64 ce 0f be
       -0.09464303 -0.0062665944 0.011575106 -0.14043576

actor.0.bias f4 [32]
000000 34 71 b2 bc 76 6f 55 bc a1 57 25 3e 9d 65 95 3c
       -0.021782495 -0.013027063 0.16146709 0.01823693
000010 54 3f 96 bc 4a 56 5d 3d 47 19 93 be a4 42 86 be
       -0.018340744 0.05403737 -0.28730223 -0.26222718
000020 1c 8f ab 3d 2b ff a8 3e 20 93 86 3e 10 93 09 bc
       0.08376905 0.33007178 0.26284122 -0.008396879
000030 64 c7 ed 3d 82 fe 06 3e 49 2c f2 3b 5b 4f 5f bd
       0.11610296 0.13183025 0.007390533 -0.05451904
000040 23 18 97 be 97 20 83 bc 02 ab 86 be d1 b4 51 bc
       -0.29510602 -0.016006751 -0.26302344 -0.012799458
000050 a5 9c 68 bd 02 87 5a bd 73 98 0c bd cc 9f 8b bc
       -0.056790013 -0.05335141 -0.034325074 -0.01704397
000060 36 a9 c8 bc 00 00 00 00 b4 39 92 be 57 04 19 bc
       -0.024494749 0.0 -0.2855965 -0.009339414
000070 2e ac 95 bb 8c 9b 52 bb c5 0a e4 3d d8 bc bb bc
       -0.0045676446 -0.003213617 0.111348666 -0.022917196

actor.2.weight f4 [2, 32]
000000 46 8a 33 be 8c a2 7d be 69 d7 b1 3e cf 46 84 3d
       -0.17533216 -0.24769038 0.34734657 0.06458818
000010 f7 8a a5 bc 5d 6a 8a 3e 83 39 94 bf 28 25 2f bf
       -0.020207865 0.27034274 -1.1580051 -0.6841607
000020 0a b1 cd 3e 75 9c e1 3f d3 79 50 3f d6 f6 88 3e
       0.40174133 1.7625872 0.8143589 0.2675082
000030 9b d8 34 3f b1 85 52 bd e2 6a 96 3b a7 56 3e be
       0.70643014 -0.05139703 0.004590378 -0.18587743
000040 d7 05 c1 bf 4b da a5 bd 4d b4 75 bf 47 fc 1d bd
       -1.5079907 -0.08098277 -0.9597824 -0.03857067
000050 e6 aa ca bb 20 57 ff 3d 66 1e d8 3c 50 0a 0a be
       -0.0061849235 0.1246779 0.026381683 -0.13480496
000060 59 86 0d bf 00 2b 6c be df 5b b3 bf 80 64 06 be
       -0.55283123 -0.23063278 -1.4012412 -0.13124275
000070 b6 05 c2 3d 99 8d 79 3e 8e e0 db 3e df c2 40 3c
       0.094737455 0.24370421 0.4294476 0.011765211
000080 52 c4 24 3e 7c 4d a9 bc 10 e0 c6 be 92 2e 8a be
       0.16090515 -0.02066683 -0.3884282 -0.26988655
000090 1a 22 80 be a4 2b ca be 6c 36 88 3f 8e 61 1f 3f
       -0.25026017 -0.3948642 1.0641608 0.6225823
0000a0 93 6b 37 bf 09 98 e9 bf 82 91 6f bf 90 d3 a0 bd
       -0.7164852 -1.8249522 -0.935814 -0.07852852
0000b0 4f 33 6e bf 74 9a 32 bf 53 12 ab be c4 1c cf 3e
       -0.9304704 -0.69766927 -0.33412418 0.40451634
0000c0 e7 29 c4 3f af a2 0e be 00 7f 6c 3f 43 d3 55 be
       1.5325288 -0.13929246 0.92381287 -0.20881371
0000d0 1e 37 9f be 4f 3d 13 3e 68 13 51 bd d0 2a 2c bd
       -0.3109674 0.14378856 -0.051043898 -0.042033017
0000e0 a1 66 f6 3d 6f af 58 3d 73 fb a0 3f fe 22 8e 3d
       0.12031294 0.05290168 1.2576736 0.06940268
0000f0 5a d6 19 be af e1 58 bd 66 59 59 3d a1 93 3d be
       -0.15023175 -0.052949604 0.053063773 -0.18513347

actor.2.bias f4 [2]
000000 f9 29 94 3e e7 29 94 be
       0.28938273 -0.2893822

critic.0.weight f4 [32, 64]
000000 72 23 49 3e 91 68 54 be 2b 2f e5 bd 76 4b eb 3c
       0.19642428 -0.20743014 -0.11190637 0.028722506
000010 b3 b8 55 bd ee 41 00 bd 80 0c 33 be 39 d2 a2 bc
       -0.052178096 -0.031312875 -0.17485237 -0.019875633
000020 8e 92 31 3d 55 0a 55 3e 1a b5 34 3d 26 f3 bb 3d
       0.043352656 0.20804723 0.044118024 0.09177236
000030 98 7d 4e bd 48 c2 29 bc c6 8d 4f 3d 97 94 95 3d
       -0.050412744 -0.010361262 0.050672315 0.07303732
000040 30 c7 9e bc de 4b ca bd f5 e9 35 bd 3a 9e c8 bd
       -0.01938209 -0.09877752 -0.044412572 -0.09795804
000050 b5 f7 90 be da 43 3a 3d 6c b1 0a 3e a2 44 ab 3d
       -0.28313985 0.045474865 0.13544244 0.083627
000060 b8 cd 46 ba a6 63 bb bd 3e f3 a1 bd c9 55 a5 bd
       -0.0007583755 -0.09149866 -0.07907723 -0.08073003
000070 73 f3 be 3d 50 d2 59 bd 3d 9f af bd 99 f9 57 bd
       0.09323778 -0.053179085 -0.08575294 -0.05272827
000080 2f 54 b2 bc ec 77 ec 3c 18 f8 b9 3c 79 37 20 3e
       -0.021768657 0.028865777 0.022701308 0.15646161
000090 16 bc c2 be be 39 94 be e2 99 c1 bc 51 a3 a1 bd
       -0.38034123 -0.28950304 -0.023632947 -0.07892478
0000a0 6c 89 19 3e a2 cf 81 bc e1 40 98 bd 1e d0 76 3e
       0.14993829 -0.015846077 -0.0743425 0.24102828
0000b0 83 61 1f 3e 01 76 07 3d b2 ef 7d 3e 24 f7 e1 bd
       0.15564542 0.03307152 0.24798468 -0.110334665
0000c0 10 d4 26 3e b7 38 1f be 77 67 e2 bd 85 9c 3c bd
       0.16291833 -0.15548979 -0.110548906 -0.046047706
0000d0 2c a0 51 bd 7b 15 80 be 43 c2 a1 3d be d0 a0 be
       -0.051178142 -0.25016388 0.078983806 -0.31409258
0000e0 e9 aa c6 3c 29 eb b5 bc 86 c2 9a bd 8e 15 1e bd
       0.024251418 -0.02220686 -0.07556634 -0.038594775
0000f0 73 b5 03 3e f4 cd 00 be fd 9b cf 3d a5 88 74 bc
       0.12862186 -0.12578565 0.10137174 -0.014925157
000100 c7 b3 0e 3e e1 56 49 3e c3 34 a2 3d f7 1c 67 be
       0.13935767 0.19662048 0.0792022 -0.22569643
000110 25 1c 9e 3f aa 53 a7 3e 11 41 fe 3d a3 ce 90 bd
       1.2352339 0.32681018 0.12414754 -0.07070663
000120 59 4a 38 bf 06 55 53 3e 44 f0 d1 be e4 67 f5 be
       -0.71988446 0.20637903 -0.4100362 -0.47930825
000130 35 4e be be b9 c0 0b bc 53 c7 66 3d e2 bc 10 3e
       -0.37169042 -0.008529835 0.056342434 0.14134553
000140 dc f1 b8 3e c8 6a 3e bd 88 f0 5d 3e 68 8f ec 3e
       0.36122024 -0.046488553 0.21673787 0.4620316
000150 ef 59 7f 3e 66 d9 0d 3f a4 f1 c0 3e 95 1f 3e be
       0.2493665 0.5540985 0.37684357 -0.18566735
000160 77 3e 39 be f8 aa e3 3c 92 4f 4c 3e 6a b4 26 bf
       -0.18090235 0.027791485 0.19952229 -0.6511904
000170 90 c6 33 3f d7 cc 38 bf 14 83 19 3e 26 0b 88 bd
       0.7022486 -0.7218756 0.14991409 -0.066427514
000180 bf ce 0e bd f2 87 e7 3c ba b8 e1 be 25 49 be bc
       -0.034865137 0.028263066 -0.44086248 -0.023228237
000190 fc 26 27 be 11 e8 ba 3e 81 8c aa 3d 8c df ef bc
       -0.16323465 0.36505178 0.0832758 -0.0292814
0001a0 b0 c0 80 bd 06 3c 94 3e 07 56 ab 3d 2c 9e 10 be
       -0.06286752 0.28952044 0.08366018 -0.14122838
0001b0 3e 8f c8 3c 6f d6 18 3e 69 73 eb 3e bb 50 64 be
       0.024482366 0.1492555 0.45986488 -0.22296421
0001c0 fb a3 c6 3e be af 81 be d9 16 74 be 81 47 39 3d
       0.38796982 -0.25329393 -0.2383684 0.045234207
0001d0 d4 45 9a 3e b3 ef de 3e 92 16 96 bd 06 54 1b be
       0.301314 0.4354225 -0.07328524 -0.15168771
0001e0 f8 9d a6 3c f0 f1 48 be 39 5e b5 be ea 9e 0b be
       0.020338997 -0.19623542 -0.3542345 -0.1363484
0001f0 30 8e ac be 46 32 02 3d 4d c2 15 3f ac d1 80 3f
       -0.3370223 0.031786226 0.58499604 1.0063987
000200 cc 96 a7 be 4f 97 bb 3b f7 42 58 be ac 0f 3b 3c
       -0.32732236 0.0057248245 -0.21119295 0.011417311
000210 e4 58 91 3f 36 e8 08 3e d7 32 ec 3d 09 12 26 3e
       1.1355252 0.13369831 0.115331344 0.16217817
000220 f8 ff 1c bf 79 bc 31 3e 83 5a 12 bf c2 d7 6a bf
       -0.6132808 0.17357053 -0.5716936 -0.9173547
000230 ca 84 69 be 7b 49 9b be 0b e1 c6 3c 97 61 99 bd
       -0.22804561 -0.303295 0.02427723 -0.07489317
000240 54 be 99 3e 7e 91 ea bd f4 2e ce 3d 43 ee bd 3e
       0.3002802 -0.11453532 0.10067549 0.37095842
000250 59 47 08 3f 28 96 f1 3e 16 16 02 3f 3c 18 21 be
       0.5323387 0.47184873 0.5081495 -0.15731901
000260 96 ee b0 3d d9 66 33 3d 07 29 1b 3e ba 12 97 be
       0.08639257 0.043799255 0.1515237 -0.29506475
000270 5d 8a 67 3f 6f cc 11 bf 15 8e 16 be 76 a8 2c be
       0.904455 -0.56952566 -0.14702637 -0.16861138
000280 70 4a 33 3d e7 19 17 3e cb f4 be be 3a 44 fa bd
       0.04377216 0.14755975 -0.37296137 -0.122200444
000290 0b 0b 2c 3d b2 94 9f 3e fe 47 57 3e 6b 85 72 3e
       0.04200272 0.31168133 0.21023557 0.23683707
0002a0 2e ca 0f 3e 51 2a 1c 3f cc ff ec 3d d9 52 aa 3c
       0.14041969 0.6100207 0.11572227 0.020791458
0002b0 a4 e2 a5 3e 6e 7b e2 bd d0 4e be 3e 17 4d 20 be
       0.32399476 -0.110586986 0.37169504 -0.15654407
0002c0 d2 73 d3 3e ae bc 56 be 14 38 22 3e 56 8d d1 3c
       0.412993 -0.20970413 0.15841705 0.02558009
0002d0 90 6e 2a 3f 85 6e d4 3e 06 f0 43 be c9 9d 95 3d
       0.66574955 0.4149057 -0.1913453 0.07305486
0002e0 7f eb 97 3e 6b f1 2d 3e 49 cd 6e be f5 c5 9b be
       0.29671857 0.16986625 -0.23320498 -0.30424467
0002f0 2e 50 f2 be a1 aa 26 be f2 1e 82 3f 9e 7a 40 3f
       -0.47326797 -0.16276027 1.0165694 0.751871
000300 ae 43 af bd 0c 9e 23 be 66 70 45 3d 01 cb f7 be
       -0.08557831 -0.15978259 0.048202895 -0.48397067
000310 f3 1c d0 3f f3 ca f8 3e 0b cf 24 3e eb 46 62 bd
       1.6258835 0.48592338 0.16094606 -0.055243414
000320 89 f7 92 bf a9 be a3 ba c7 bd 1d bf 57 e3 db be
       -1.1481792 -0.0012492734 -0.616177 -0.42946884
000330 04 1d 93 bd 9d d8 f5 bd a7 e2 b5 bd c1 31 17 3c
       -0.07183269 -0.12004206 -0.08881121 0.009228171
000340 e7 a7 9c 3e 17 e6 59 3c 4d 39 9c 3d 82 1c 1b 3f
       0.3059685 0.013299487 0.07628117 0.60590374
000350 97 9a 3d 3f e0 9c 2f 3f c6 58 ba 3e 9d 35 d5 bb
       0.7406401 0.6859875 0.36395854 -0.0065066353
000360 08 a6 c6 3a 61 27 79 be ff 14 7f 3d 49 7f 2f bf
       0.0015155682 -0.24331428 0.062275883 -0.68553597
000370 48 67 3b 3f 5c f2 63 bf 37 6c 7a 3d b5 3b 0b bd
       0.7320447 -0.89041686 0.061138358 -0.033992488
000380 f1 53 08 be 83 12 93 bb cb c5 ac be 07 5a d6 bd
       -0.13313271 -0.0044882908 -0.33744654 -0.1046639
000390 ec 71 bb 3c 25 67 37 3e a8 1c 82 be 7c 13 09 be
       0.02288147 0.1791044 -0.25412488 -0.13386339
0003a0 4e ee 44 bd 28 47 65 3f fc e7 05 be 86 69 e3 3e
       -0.048078828 0.895617 -0.13076776 0.44416445
0003b0 0a 49 f6 3c f9 5e dc bc fa f1 af 3e 89 b6 f5 bd
       0.030064125 -0.026900755 0.343643 -0.119977064
0003c0 c2 61 d9 3e 78 d3 fa 3d 82 ae bf 3d 37 95 25 bd
       0.42457396 0.12247366 0.093594566 -0.040425505
0003d0 07 4b 6c 3e ad 9a 0e 3e d0 2d 7e bc a4 4b d1 3d
       0.23075496 0.13926192 -0.015513852 0.102195054
0003e0 1f a7 2a bc c2 57 83 3e 7d d8 2e be ff ab e9 bd
       -0.010415821 0.2565289 -0.17074771 -0.11409759
0003f0 35 72 1e bf fb 1d a1 3e 30 81 50 3f a4 23 82 3f
       -0.61893016 0.31468186 0.81447124 1.0167127

critic.0.bias f4 [32]
000000 93 e1 dd bc b6 8a dd 3d 3b 71 42 3e 83 bd 48 3e
       -0.027085101 0.10817473 0.18988506 0.19603543
000010 bf 14 2a 3f 35 12 2c 3f 82 c9 92 bc 48 81 3a 3f
       0.66437906 0.6721528 -0.017918352 0.7285352
000020 00 00 00 00 31 2e 0f 3e a0 ef 41 3f c5 12 2c 3f
       0.0 0.13982464 0.75756264 0.6721614
000030 24 ad 2c 3f db 61 4c bc f2 2b 33 3f ee e0 60 bc
       0.6745169 -0.012474502 0.6998893 -0.013725502
000040 a2 61 31 3f 03 47 3f 3e 12 f9 26 bd 3a ec 23 3f
       0.692896 0.18679433 -0.040764876 0.6403233
000050 40 c1 2f 3f 72 48 31 3f 89 53 2b 3f ea e9 27 3f
       0.6865425 0.6925117 0.6692434 0.655913
000060 3e 58 2d 3f 38 6a 35 3f a7 5f 2b 3f eb b7 ca be
       0.6771277 0.708652 0.6694283 -0.39593443
000070 d1 63 28 3f 87 55 79 3e bb b8 2a 3f 02 3c 3b 3f
       0.6577731 0.24349032 0.66688126 0.7313844

critic.2.weight f4 [1, 32]
000000 d7 e1 3c bd 6a 5b 4f 3f 7d f5 42 3f a8 f0 a1 3f
       -0.046113815 0.8099886 0.76155835 1.2651567
000010 e7 0f f9 be 01 b8 a0 be 9d 2b 23 3e fc 86 9f be
       -0.48644945 -0.31390384 0.15934606 -0.31157672
000020 1e fc 4e 3e eb 06 11 3f f4 10 88 be bc 38 c4 be
       0.20213363 0.5665118 -0.26575434 -0.38324535
000030 12 3d 07 bf c9 78 88 3c 8c 8e b5 be 4f ba f8 3c
       -0.5282756 0.016659157 -0.35460317 0.030362276
000040 43 8e b0 be 4c 55 77 3f 8b f7 04 3c 67 cb e4 be
       -0.34483537 0.9661453 0.0081156595 -0.44686434
000050 cc 96 14 bf f3 d2 13 bf d0 d8 10 bf b1 83 eb be
       -0.580426 -0.5774376 -0.5658083 -0.4599891
000060 3b 4d c8 be 50 19 bb be f7 d9 ce be 44 42 4d 3f
       -0.39121422 -0.3654275 -0.4040067 0.8017924
000070 d4 8f ec be db 95 87 3f 31 c2 d4 be 48 01 ff be
       -0.46203482 1.0592607 -0.41554406 -0.49805665

exp_avg f4 [64, 12]
000000 55 7f 2f ba 87 d8 76 b8 d5 e2 ca b8 03 6d 3a b9
       -0.0006694694 -5.8852627e-05 -9.674361e-05 -0.00017778952
000010 3f 75 80 b9 a3 5a db 38 30 01 ab 36 87 d8 76 b8
       -0.00024501418 0.00010459616 5.0963354e-06 -5.8852627e-05
000020 04 00 00 00 a9 ee dc 37 0e 5d 9a aa 55 7f 2f ba
       6e-45 2.6337178e-05 -2.7420465e-13 -0.0006694694
000030 bb 2c 5e ba 54 f4 e0 b8 1a 2e e4 ba 6d 38 2a 37
       -0.0008475293 -0.00010726662 -0.0017408759 1.0145927e-05
000040 ca a1 25 b9 d1 ee 72 3a 5d 42 ac b4 54 f4 e0 b8
       -0.00015795897 0.0009267154 -3.2085782e-07 -0.00010726662
000050 fa 5b fd b9 1f 6b d8 b9 c8 43 ab b9 d0 19 b7 b9
       -0.00048324448 -0.00041278542 -0.00032666163 -0.00034923712
000060 78 f2 be 3b bd 42 fc 39 47 59 7f 3b 1f a5 64 3a
       0.0058272444 0.0004811491 0.0038963126 0.0008722115
000070 0c 9d 8d 3a 3e 38 f7 3b 58 da d2 39 bd 42 fc 39
       0.001080425 0.0075445464 0.00040217 0.0004811491
000080 b8 65 e1 3a b3 95 5c 3a b0 e3 21 3b dc 60 f9 3b
       0.0017196452 0.0008414641 0.0024702363 0.0076104235
000090 04 00 00 00 04 00 00 00 04 00 00 80 04 00 00 00
       6e-45 6e-45 -6e-45 6e-45
0000a0 04 00 00 00 04 00 00 00 04 00 00 00 04 00 00 00
       6e-45 6e-45 6e-45 6e-45
0000b0 04 00 00 00 04 00 00 00 04 00 00 00 04 00 00 00
       6e-45 6e-45 6e-45 6e-45
0000c0 04 00 00 00 04 00 00 00 04 00 00 00 04 00 00 00
       6e-45 6e-45 6e-45 6e-45
0000d0 04 00 00 00 04 00 00 00 04 00 00 00 04 00 00 00
       6e-45 6e-45 6e-45 6e-45
0000e0 04 00 00 00 04 00 00 00 04 00 00 00 04 00 00 00
       6e-45 6e-45 6e-45 6e-45
0000f0 04 00 00 00 04 00 00 00 04 00 00 00 04 00 00 00
       6e-45 6e-45 6e-45 6e-45
000100 04 00 00 00 04 00 00 00 04 00 00 00 04 00 00 00
       6e-45 6e-45 6e-45 6e-45
000110 04 00 00 00 04 00 00 00 04 00 00 00 04 00 00 00
       6e-45 6e-45 6e-45 6e-45
000120 be 5f 0c 3b 50 55 0e 39 23 f9 b9 3a 1e 39 00 3a
       0.0021419371 0.00013573957 0.0014188628 0.00048913236
000130 90 a8 26 3a 7e fa 98 3b a4 43 cd 38 50 55 0e 39
       0.0006357515 0.004668533 9.787761e-05 0.00013573957
000140 46 c7 6a ba 18 89 07 b9 48 eb 01 ba a2 fd 3c 3b
       -0.00089560857 -0.00012925675 -0.0004956019 0.00288377
000150 04 00 00 00 04 00 00 00 04 00 00 00 04 00 00 00
       6e-45 6e-45 6e-45 6e-45
000160 04 00 00 00 04 00 00 00 04 00 00 00 04 00 00 00
       6e-45 6e-45 6e-45 6e-45
000170 04 00 00 00 04 00 00 00 04 00 00 00 04 00 00 00
       6e-45 6e-45 6e-45 6e-45
000180 31 18 aa 3a 90 f8 96 39 e0 fb 09 3c d0 7e 22 ba
       0.001297718 0.00028795423 0.008421868 -0.0006198706
000190 30 88 62 39 94 dd d5 bb 5a ed 5c 3a 90 f8 96 39
       0.00021603773 -0.0065266583 0.0008427702 0.00028795423
0001a0 d0 50 38 3c 02 a2 18 3c 21 a2 22 3c d2 e7 d6 3a
       0.011249736 0.009315969 0.00992635 0.0016395992
0001b0 1c 51 b1 b9 08 41 4f b8 b7 64 d4 39 75 61 3e 39
       -0.00033820502 -4.941321e-05 0.0004051083 0.00018156118
0001c0 52 7d aa 38 0b 10 c9 3a 6b ad 91 b8 08 41 4f b8
       8.1295744e-05 0.0015339864 -6.9464404e-05 -4.941321e-05
0001d0 b2 be 2d ba b9 6b 44 ba 2d 09 8f b9 4e 0d 4d 3a
       -0.0006627842 -0.00074928586 -0.00027281922 0.0007822112
0001e0 81 20 b5 3a 6c e5 9d 39 13 88 de 39 e7 e0 3e 3a
       0.0013818891 0.00030116306 0.00042444523 0.0007281438
0001f0 d4 be 87 3a cf 42 5f 3b b6 99 0d 38 6c e5 9d 39
       0.0010356554 0.003406692 3.3760174e-05 0.00030116306
000200 62 27 d6 ba f3 d5 bf b8 a8 e0 1e ba 37 85 ba 3a
       -0.0016338641 -9.147441e-05 -0.0006060698 0.0014230375
000210 72 5a c3 3a b4 0c 60 39 7d 9b 61 3a fa b7 37 3a
       0.0014904274 0.00021367037 0.00086062384 0.00070083106
000220 e3 3e 21 3a 66 fa 96 3b 64 0c f1 38 b4 0c 60 39
       0.00061510334 0.0046074865 0.000114940834 0.00021367037
000230 3a 0d 29 ba fb 1b 35 b7 19 53 ae b9 db 70 0f 3b
       -0.0006448809 -1.0794955e-05 -0.0003324978 0.0021887335
000240 bf 98 7c 3a d4 b3 e5 36 56 35 42 3a af 66 9c 38
       0.0009635798 6.8456666e-06 0.00074084604 7.457786e-05
000250 86 cf 67 39 4d 40 93 3a b7 1a 1c b8 d4 b3 e5 36
       0.00022107185 0.0011234373 -3.721818e-05 6.8456666e-06
000260 aa 61 d5 39 1f 79 65 b9 44 86 ed 39 0b 43 99 3a
       0.0004069929 -0.00021884263 0.00045304198 0.0011692954
000270 b1 64 9b ba ef c4 bc b8 9b 8c e1 37 cc 92 81 ba
       -0.001185557 -9.00122e-05 2.6887565e-05 -0.0009885668
000280 69 a5 ca ba 37 22 91 bb 9f ed 91 b8 ef c4 bc b8
       -0.0015460673 -0.0044291276 -6.958399e-05 -9.00122e-05
000290 d2 e6 eb 39 18 9f 6b 39 12 37 41 b9 81 e7 87 ba
       0.00044994667 0.00022470613 -0.0001842643 -0.0010368676
0002a0 f9 53 f5 ba 66 05 91 b9 eb ff f0 ba 4b ab 81 ba
       -0.0018717042 -0.00027660577 -0.0018386816 -0.0009892968
0002b0 ab 90 76 ba 87 e3 93 bb f4 70 07 b9 66 05 91 b9
       -0.00094057125 -0.0045132074 -0.00012916682 -0.00027660577
0002c0 d8 74 1b ba f8 43 91 ba e9 d9 14 ba be 87 94 ba
       -0.0005930192 -0.0011082878 -0.0005678223 -0.0011331958
0002d0 04 00 00 00 04 00 00 00 04 00 00 00 04 00 00 00
       6e-45 6e-45 6e-45 6e-45
0002e0 04 00 00 00 04 00 00 00 04 00 00 00 04 00 00 00
       6e-45 6e-45 6e-45 6e-45
0002f0 04 00 00 00 04 00 00 00 04 00 00 00 04 00 00 00
       6e-45 6e-45 6e-45 6e-45
000300 87 f0 a4 39 71 f4 89 38 4a 8b 0c b7 fc 94 e7 39
       0.00031459724 6.5782e-05 -8.377081e-06 0.00044170755
000310 6e 77 91 39 9c 0c 28 3b c5 64 e0 37 71 f4 89 38
       0.00027745537 0.0025642281 2.6749805e-05 6.5782e-05
000320 9d e4 66 b9 3d 66 b1 b8 d3 70 05 b9 54 e3 72 3a
       -0.00022019674 -8.459061e-05 -0.00012725899 0.0009265442
000330 00 00 00 00 00 00 00 00 00 00 00 00 00 00 00 00
       0.0 0.0 0.0 0.0
000340 00 00 00 00 00 00 00 00 00 00 00 00 00 00 00 00
       0.0 0.0 0.0 0.0
000350 00 00 00 00 00 00 00 00 00 00 00 00 00 00 00 00
       0.0 0.0 0.0 0.0
000360 34 03 0b 3b f5 a6 81 39 52 ac 30 b9 e1 19 ca 3a
       0.0021211626 0.0002472919 -0.00016848862 0.001541909
000370 6f 28 db 3a 1d f3 04 3c d6 fb 75 b8 f5 a6 81 39
       0.0016720424 0.008114603 -5.8647092e-05 0.0002472919
000380 bf f9 10 b9 42 0f 81 39 ea 68 9e 32 34 03 0b 3b
       -0.00013825948 0.00024616165 1.844133e-08 0.0021211626
000390 48 56 7f 3b bf df 8d 39 04 00 00 00 e8 98 17 3b
       0.003896134 0.0002706032 6e-45 0.002313191
0003a0 27 b1 2e 3b 4e e4 3e 3c 18 04 fb b7 bf df 8d 39
       0.0026655884 0.011651112 -2.9923438e-05 0.0002706032
0003b0 94 c1 ff ba 3d 61 3e ba b6 2f 9c ba 3e b2 66 3b
       -0.0019512647 -0.00072624144 -0.0011916074 0.0035201455
0003c0 7c 1a 00 3a b0 fd 3c 39 b3 cd 81 3a 93 86 70 3a
       0.0004886759 0.00018023583 0.0009903222 0.00091753266
0003d0 b3 ca ab 3a 0e fe 9c 3b 85 a7 3f b8 b0 fd 3c 39
       0.0013106674 0.004791028 -4.5693963e-05 0.00018023583
0003e0 91 47 5d ba f4 3b 35 ba 9e 47 5d ba 44 e1 88 b8
       -0.0008441145 -0.0006913536 -0.0008441153 -6.526944e-05
0003f0 d2 ed f6 bb 64 12 06 3a 7b e0 d2 3a 1c 52 59 bb
       -0.0075356746 0.0005114435 0.0016088629 -0.0033160513

exp_avg_sq f4 [64, 12]
000000 45 48 83 37 12 9a 09 34 d7 fa c7 37 66 fb 6b 35
       1.565007e-05 1.281517e-07 2.3839455e-05 8.7910155e-07
000010 19 17 52 36 ab a7 b3 37 2e 9f 13 31 12 9a 09 34
       3.1305883e-06 2.141654e-05 2.1481799e-09 1.281517e-07
000020 69 76 5d 29 2a 15 cb 33 76 c1 a2 31 3d 4c 83 37
       4.9174562e-14 9.456774e-08 4.7368145e-09 1.5651918e-05
000030 f5 71 f6 37 e0 ef a3 35 8c 38 da 38 c0 ff 83 36
       2.937855e-05 1.2214259e-06 0.00010405583 3.9338775e-06
000040 8c 97 39 37 97 6e 94 38 39 cc d5 34 e0 ef a3 35
       1.1062144e-05 7.077789e-05 3.9822933e-07 1.2214259e-06
000050 92 e1 90 38 e1 66 81 38 05 62 85 38 6c 35 19 38
       6.908471e-05 6.170362e-05 6.360192e-05 3.6527796e-05
000060 a7 64 f7 39 fe d7 6d 37 87 01 e2 39 5e c6 39 38
       0.00047186503 1.417659e-05 0.00043107217 4.429218e-05
000070 be 5c 92 38 9f b1 39 3a f8 de c3 36 fe d7 6d 37
       6.979097e-05 0.00070836575 5.83741e-06 1.417659e-05
000080 8c f1 02 3a f7 69 d5 39 fb fb ec 39 22 93 0c 3a
       0.00049951 0.00040705476 0.00045201168 0.00053625007
000090 10 b6 ba 0e 8d 5f 52 0e b7 b0 62 0e ed a0 c2 0f
       4.602786e-30 2.5930504e-30 2.7941736e-30 1.9191863e-29
0000a0 df b3 10 10 1d 42 84 11 fe e3 92 0d 8d 5f 52 0e
       2.853756e-29 2.0866673e-28 9.052832e-31 2.5930504e-30
0000b0 cf ec 0f 10 75 34 c3 10 c8 f5 80 11 e8 f2 02 11
       2.8384208e-29 7.699476e-29 2.0346314e-28 1.0330043e-28
0000c0 f4 01 00 00 f4 01 00 00 f4 01 00 00 f4 01 00 00
       7e-43 7e-43 7e-43 7e-43
0000d0 f4 01 00 00 f4 01 00 00 f4 01 00 00 f4 01 00 00
       7e-43 7e-43 7e-43 7e-43
0000e0 f4 01 00 00 f4 01 00 00 f4 01 00 00 f4 01 00 00
       7e-43 7e-43 7e-43 7e-43
0000f0 f4 01 00 00 f4 01 00 00 f4 01 00 00 f4 01 00 00
       7e-43 7e-43 7e-43 7e-43
000100 f4 01 00 00 f4 01 00 00 f4 01 00 00 f4 01 00 00
       7e-43 7e-43 7e-43 7e-43
000110 f4 01 00 00 f4 01 00 00 f4 01 00 00 f4 01 00 00
       7e-43 7e-43 7e-43 7e-43
000120 29 de 2c 39 fd 82 06 37 64 cd 07 39 07 76 dd 37
       0.0001648596 8.0175205e-06 0.00012951117 2.6400214e-05
000130 98 b9 23 38 f3 d4 85 39 54 65 11 36 fd 82 06 37
       3.9035076e-05 0.00025526396 2.1665664e-06 8.0175205e-06
000140 e3 d0 0f 39 ca 64 c0 38 3b f7 e9 38 3f dd 3f 39
       0.00013715359 9.174047e-05 0.00011156356 0.000182976
000150 f4 01 00 00 f4 01 00 00 f4 01 00 00 f4 01 00 00
       7e-43 7e-43 7e-43 7e-43
000160 f4 01 00 00 f4 01 00 00 f4 01 00 00 f4 01 00 00
       7e-43 7e-43 7e-43 7e-43
000170 f4 01 00 00 f4 01 00 00 f4 01 00 00 f4 01 00 00
       7e-43 7e-43 7e-43 7e-43
000180 f8 31 76 39 a5 74 d0 37 7c 5d db 3a ee 0a e2 38
       0.00023479003 2.4849849e-05 0.0016736235 0.000107785556
000190 97 11 93 39 7a 45 f6 3a 5f 2f bb 36 a5 74 d0 37
       0.0002805113 0.0018789016 5.578549e-06 2.4849849e-05
0001a0 9f f9 88 3a 6d a5 66 3a 44 3c 8a 3a a0 0d a4 39
       0.001045037 0.0008798454 0.0010546525 0.0003129067
0001b0 fa ac 02 38 8d f9 57 36 fd 27 ec 38 38 56 28 37
       3.1155512e-05 3.2182754e-06 0.00011260805 1.0033655e-05
0001c0 86 51 8c 37 c1 5b 3c 39 fe 68 61 35 8d f9 57 36
       1.6727263e-05 0.00017963258 8.3971815e-07 3.2182754e-06
0001d0 85 6b 0d 39 a7 01 b7 38 fe 05 0a 39 d3 69 4b 38
       0.00013486862 8.726428e-05 0.00013162938 4.8497528e-05
0001e0 53 0a ed 38 24 76 79 36 90 1d a6 37 d2 08 9b 37
       0.00011302964 3.7172658e-06 1.9802508e-05 1.8481547e-05
0001f0 d8 32 da 37 ed 79 25 39 cd d6 84 35 24 76 79 36
       2.6011301e-05 0.00015781047 9.897282e-07 3.7172658e-06
000200 a0 4a b0 38 93 7c 82 38 19 87 81 38 00 26 03 39
       8.406234e-05 6.222087e-05 6.176363e-05 0.0001250729
000210 00 d1 07 39 e1 8d 8f 36 f3 bf 16 39 36 80 67 37
       0.00012952462 4.278249e-06 0.00014376621 1.3798524e-05
000220 ed 5e d2 37 e3 52 34 39 21 4e ab 35 e1 8d 8f 36
       2.5078154e-05 0.00017197015 1.2763231e-06 4.278249e-06
000230 7a dc dd 38 3d 13 a4 38 d2 53 b4 38 75 df 11 39
       0.00010579168 7.823713e-05 8.5986816e-05 0.00013911522
000240 8a 3f 09 37 c7 1b 26 35 25 b2 e0 37 3c 83 d5 35
       8.18063e-06 6.188024e-07 2.6785836e-05 1.5907931e-06
000250 13 f8 22 36 40 79 37 38 fd 8d f5 33 c7 1b 26 35
       2.428428e-06 4.3743523e-05 1.1434529e-07 6.188024e-07
000260 1a 08 e4 36 87 84 8e 36 ee ba d9 36 55 ff 27 37
       6.7958727e-06 4.247358e-06 6.4888654e-06 1.0013425e-05
000270 f7 4f 43 39 59 d9 9d 36 11 da 80 39 cb 98 9b 37
       0.00018626438 4.704267e-06 0.00024576535 1.854859e-05
000280 0c 17 2e 38 e3 30 79 39 39 8d cb 35 59 d9 9d 36
       4.1506297e-05 0.00023764702 1.516578e-06 4.704267e-06
000290 3c 30 5d 39 71 ea 42 39 71 73 2c 39 a5 23 4e 39
       0.00021094171 0.00018588618 0.00016446204 0.0001965897
0002a0 9e c0 ce 38 80 d0 f8 35 6a 4f c2 38 25 ed 07 37
       9.858723e-05 1.8538121e-06 9.265433e-05 8.101842e-06
0002b0 ab 84 88 37 53 b6 20 39 14 d7 22 35 80 d0 f8 35
       1.6274242e-05 0.0001532671 6.066268e-07 1.8538121e-06
0002c0 7a f6 a7 38 49 e2 94 38 98 d6 85 38 91 15 de 38
       8.0090904e-05 7.099339e-05 6.3819054e-05 0.00010589802
0002d0 f4 01 00 00 f4 01 00 00 f4 01 00 00 f4 01 00 00
       7e-43 7e-43 7e-43 7e-43
0002e0 f4 01 00 00 f4 01 00 00 f4 01 00 00 f4 01 00 00
       7e-43 7e-43 7e-43 7e-43
0002f0 f4 01 00 00 f4 01 00 00 f4 01 00 00 f4 01 00 00
       7e-43 7e-43 7e-43 7e-43
000300 11 a9 88 38 6f 3b 9c 35 cf 1c 40 39 85 56 8c 36
       6.5164764e-05 1.1640203e-06 0.00018321279 4.1823973e-06
000310 f8 04 8d 37 b9 06 e8 38 c0 4d 39 35 6f 3b 9c 35
       1.6810824e-05 0.00011063874 6.903101e-07 1.1640203e-06
000320 6a bf 26 39 bc f9 1f 39 68 fb fc 38 86 e8 92 38
       0.00015902301 0.00015256455 0.000120631244 7.0051334e-05
000330 00 00 00 00 00 00 00 00 00 00 00 00 00 00 00 00
       0.0 0.0 0.0 0.0
000340 00 00 00 00 00 00 00 00 00 00 00 00 00 00 00 00
       0.0 0.0 0.0 0.0
000350 00 00 00 00 00 00 00 00 00 00 00 00 00 00 00 00
       0.0 0.0 0.0 0.0
000360 2a 24 19 3a 9b d5 e2 36 00 3e 37 3a 23 56 ec 37
       0.00058418757 6.760192e-06 0.0006990135 2.8173503e-05
000370 af e9 b4 38 95 b9 0e 3a d5 29 8a 35 9b d5 e2 36
       8.626596e-05 0.0005444524 1.0293976e-06 6.760192e-06
000380 fb 98 ab 38 d9 34 92 38 e6 8d 45 34 9a 1e 19 3a
       8.18241e-05 6.971666e-05 1.8398677e-07 0.0005841047
000390 03 7f 82 39 79 99 90 36 f4 01 00 00 78 e0 e4 37
       0.00024890163 4.309401e-06 7e-43 2.7284244e-05
0003a0 04 05 5b 38 f2 0f ea 39 ba 21 8f 35 79 99 90 36
       5.221834e-05 0.00044643838 1.0664146e-06 4.309401e-06
0003b0 bb ca 14 39 34 61 ea 38 1b 94 eb 38 ed 81 8a 39
       0.00014189903 0.00011176095 0.0001123326 0.00026418213
0003c0 47 d4 2b 37 c0 55 5f 36 7b d1 08 39 cc 0c 4d 37
       1.0241819e-05 3.3279503e-06 0.00013048008 1.2221932e-05
0003d0 a2 3e ba 37 41 af 86 39 b4 dc 86 35 c0 55 5f 36
       2.2202094e-05 0.00025689046 1.0048011e-06 3.3279503e-06
0003e0 df 21 b0 38 79 b1 c9 38 0f 53 b0 38 26 97 2e 37
       8.398643e-05 9.617484e-05 8.407805e-05 1.04064e-05
0003f0 f2 6b e1 3b c7 98 ba 38 b3 9e c1 3b 10 bd de 39
       0.006879323 8.897628e-05 0.005908811 0.00042484002
