models/checkpoint_940000.pt (torch, 125871 bytes, 33 tensors)

shared.0.weight f4 [64, 12]
00000000: af43 a0be 3597 c5be e673 443d 3092 6c3f
00000010: d0d4 1bbd 11ef cabc 68d5 edbe eae1 10bf
00000020: 3f76 dbbd 40e8 6ebe e166 c0bd de95 4ebd
00000030: d3b2 c43c d779 5b3e 9efb 56be 632e 803f
00000040: dd8f 513e df8c a4bd b0f2 543e 432f e23e
00000050: e2ea 073d c7cb 0ebe 035a 983d 4592 513e
00000060: 5a70 263e fbb0 6f3c ca94 8dbb 3a56 ffbd
00000070: 5633 5cbf 363a f73d 9ab6 683e ceb9 653d
00000080: 2203 cabd 5214 173e ba96 6b3e 6cfa 823c
00000090: 0234 85be 8ac0 13bf 8df5 f3bc a2aa 2cbd
000000a0: 8bdc 533e d099 733e ed6d 533d 625f 7fbe
000000b0: c229 0fbe 1b8c 333d d80e fb3c a033 153e
000000c0: ed2e c23d 968c 9dbe bada 8d3d 8418 36bf
000000d0: 1de4 98be 8777 0fbe 5af6 1bbf 1820 23be
000000e0: 2def 0a3d 49e7 043e 2081 4abe 1778 a9be
000000f0: cd3c 2dbe 7350 c6bc cb96 91be 7e09 fbbe
00000100: 7e8c c0be 63f7 883d 98d0 1dbe f877 afbd
00000110: 6cd6 d83b d4da a6bc 7ecb 37bd ef43 003e
00000120: fd57 b4bc 0180 fe3e 7b41 d43c 5343 073f
00000130: 1f1c 33bf e2a5 a1bd efb5 58bd 0317 8c3e
00000140: c46f 0b3e 8c3d a73d 5409 c33d d13c 6b3e
00000150: 0c57 913d 6024 aabe a442 013d e043 bfbe
00000160: 83d3 f4be 35f5 25bd 25f5 f3be e2be 67be
00000170: 9262 14bd 5f06 90be c112 223e 247a 393d
00000180: 01ca 92be b384 7abe 96a1 db3d c92f ebbe
00000190: 5d5f 823e 069f 7db9 7472 bebf 038b 16be
000001a0: 5457 db3d 0a37 533c dfca fd3c 8da2 6ebf
000001b0: 4785 473c 34a3 3c3e 6965 a63d d175 09be
000001c0: 740e 2dbf f7f0 363e 32e7 90bf 3ce2 0c3d
000001d0: 78d5 633e 9c31 56be 89f6 513e f023 5ebe
000001e0: f219 83bd b5d1 25bb def3 43be ff55 d63e
000001f0: 3446 57bf dd02 efbd 78ac 00be 611c 1dbe
00000200: d474 61bc 458b 723d bb1f 94bd 2d2e 263e
00000210: e20b a2be 26b8 413f aa6f 083e f977 c93f
00000220: ab8f 92bc f894 543c f963 b23e 58b4 243f
00000230: 79d5 133e 6619 f43c 31fd 643e 3c63 873e
00000240: 7f59 1abe 2993 753e 88f6 0a3d d998 2cbe
00000250: bb82 fbbe 20d4 353e bc0e 983e 1c48 edbc
00000260: d595 eaba 4d34 92bd 1bdc 08bd 9695 873d
00000270: 6e31 debe d9fc ae3d 49b9 0f3b 1e98 e53e
00000280: bee0 403e 1040 9e3c ced7 433f e301 a73e
00000290: 0978 023e 643e 3fbe 2aae 353e 0595 de3e
000002a0: c2e6 1ebe 5ce1 0ebd 00be a9bd 5477 623e
000002b0: e324 47bf bc10 b63d af00 ab3e 2704 03be
000002c0: b8cb 243d c2f5 433d 140e ed3d 7207 763e
000002d0: 60e0 fb3c 4d18 f0be f832 f83d 20d3 4c3d
000002e0: a2df 00bf 44de 40bd 0a1c cabe c3ef c4be
000002f0: 7c16 813e f495 74be a95a 3e3d d987 61be
00000300: 47b6 70be 87a2 9c3e 7aa7 87bc 297e 773f
00000310: e0dc 1a3c 769c 24be 5e0d 0d3e f540 163f
00000320: 698e 2cbe 0f60 bcbd 26cb a93d aa46 b93e
00000330: 5e0c 993c 7003 823c bade 24be 6c18 8ebd
00000340: 45a9 1abe 835a 15bd 7bf6 303d 3b36 65bd
00000350: 06ab 86bd c762 c5bd 31c7 96bd 38ed 01bd
00000360: 5c67 78be 9b60 4d3f 298c 2b3e 3544 d33e
00000370: 84b1 73bd f73f ca3c 209f a03d 230b 533f
00000380: 623b b0bc d716 c93c 57a6 8fbf 46c9 89be
00000390: c129 f23d 7643 f2be 3c1e e3be 96f0 473f
000003a0: 9a14 693e 3c67 4ebe 4a55 3ebf aa6f d4be
000003b0: 7bc8 09bd aa96 273e 58a8 ddbd a05e 67be
000003c0: 3ad6 c5bd 6e8c c2bd 36fb 723a 27a0 aebd
000003d0: 2f8b ecbe afba f23d e940 edbe 2c37 1cbd
000003e0: c392 8bbd 92f4 bf3e 1a1d 50be 0e6b 07bf
000003f0: 5a49 743e fef0 013e c5c3 093c bb1a 08c0
-0.31301638 -0.38591924 0.047962092 0.92410564 -0.03804475 -0.024772199 -0.4645188 -0.5659472
-0.10715913 -0.23330784 -0.093946226 -0.050435893 0.024011051 0.21433197 -0.20994422 1.0014156
0.20465036 -0.080346815 0.20795703 0.44176683 0.033182986 -0.13944922 0.074390434 0.20465954
0.16253796 0.014629598 -0.0043207156 -0.12467618 -0.8601583 0.1207165 0.22725907 0.0560854
-0.09863879 0.14753845 0.23006716 0.015988551 -0.2601624 -0.57715666 -0.029780174 -0.042154916
0.20689599 0.23789144 0.051618505 -0.2493873 -0.13980773 0.043834787 0.030646726 0.14570475
0.09481607 -0.3077132 0.069264844 -0.7113116 -0.29861537 -0.1401044 -0.6092278 -0.15930212
0.033919502 0.12978853 -0.1977582 -0.33099434 -0.16917725 -0.024208283 -0.28435358 -0.4903068
-0.37607187 0.0668781 -0.15411603 -0.08567804 0.006617358 -0.020368017 -0.0448718 0.12525915
-0.022014612 0.49707034 0.02591013 0.52837104 -0.69964784 -0.07892968 -0.05290788 0.27361307
0.13616854 0.08166036 0.095232636 0.22972418 0.07096681 -0.33230877 0.031557694 -0.37356472
-0.4781762 -0.04051705 -0.47647968 -0.2263141 -0.036226816 -0.2812986 0.15827467 0.045282498
-0.28669742 -0.24464683 0.107241794 -0.45934895 0.2546338 -0.00024187201 -1.4878678 -0.14701466
0.10710016 0.01289154 0.030980526 -0.9321678 0.012177772 0.18421632 0.08124811 -0.1342385
-0.6760018 0.17865358 -1.1320555 0.03439544 0.222494 -0.20917362 0.20504202 -0.21693397
-0.06401433 -0.0025301997 -0.19135997 0.41862485 -0.84091496 -0.11670468 -0.12565792 -0.15342857
-0.013760764 0.05921485 -0.072326146 0.16228552 -0.3164969 0.75671613 0.13323846 1.5739738
-0.017890772 0.01297497 0.34841898 0.6433768 0.14436902 0.029797267 0.2236221 0.26442897
-0.15073203 0.23981918 0.033926517 -0.16855182 -0.49123177 0.177567 0.2969874 -0.028965048
-0.0017897437 -0.07138882 -0.033413034 0.06620328 -0.43397087 0.085443206 0.0021930507 0.4484262
0.18835732 0.019317657 0.76501167 0.32618627 0.12741102 -0.18676144 0.1774222 0.43473068
-0.15517715 -0.03488289 -0.08288193 0.22115833 -0.7779066 0.088899106 0.3339896 -0.12794553
0.040233344 0.047841795 0.11574951 0.24026278 0.030746639 -0.4689354 0.121190965 0.050006032
-0.50341237 -0.04708697 -0.39474517 -0.38464174 0.25212467 -0.23885328 0.04647318 -0.22024478
-0.23507033 0.3059275 -0.016559351 0.9667688 0.009452075 -0.1607531 0.1377463 0.58692867
-0.168512 -0.09198009 0.082907006 0.36186725 0.018682655 0.01587078 -0.16100588 -0.06938252
-0.15103634 -0.03646327 0.043203812 -0.05595992 -0.06575589 -0.09637981 -0.073622115 -0.03172037
-0.24258178 0.80225533 0.16752686 0.41262975 -0.059495464 0.024688704 0.07842851 0.8243887
-0.021512691 0.024547024 -1.1222638 -0.26911372 0.1182437 -0.47317094 -0.44359004 0.7810148
0.22761765 -0.20156568 -0.7434889 -0.41491443 -0.03363846 0.16366068 -0.10823125 -0.2259469
-0.09660001 -0.09499441 0.0009269001 -0.085266404 -0.4619994 0.11852013 -0.46338585 -0.038138554
-0.06815102 0.3749128 -0.20323601 -0.5289773 0.23856106 0.12689587 0.0084084915 -2.1266315

shared.0.bias f4 [64]
00000000: 5650 743e f562 823e 6e77 f23c 0b6a bfbe
00000010: c6a8 193e ee00 7c3d 1248 103f f775 cb3c
00000020: 59ee 043f d737 dc3d f2c8 ab3e ba29 c63e
00000030: 4dd0 0ebc 4ad5 cabc 81d1 483d 734b b1bd
00000040: 61f3 763e 0000 0000 f927 793e 27d2 753e
00000050: e1c7 453d 2cfe a33e 9bb1 573d 59a9 dcbe
00000060: 83b6 e03e ba65 de3e 8496 933e c4fd 1bbc
00000070: 7245 973d a785 eb3d 4f27 cd3e 67e9 bf3e
00000080: f6ee 3f3e f6fb e7bc f7f6 5dbd 77ab 273e
00000090: e979 ea3e 36a1 5bbd 9f66 bc3e 2f62 6f3e
000000a0: 3e88 793e 0000 0000 ae01 803e bfc5 59be
000000b0: 694a 313d 7e30 ad3e 5fe2 493e 7b94 bb3e
000000c0: d33c a93d c80f 733e adc9 0ebe b272 cc3d
000000d0: 21aa 953e bd83 b73e 1a44 653e 19b6 813e
000000e0: 0000 0000 0854 9c3e 1921 b6be 29bc 563d
000000f0: 1251 5f3e ad1d b73d 1125 023e b016 813e
0.2385877 0.25466123 0.029597964 -0.37385592 0.15005788 0.061524324 0.5635997 0.024836523
0.5192619 0.10752838 0.33551747 0.3870371 -0.008716655 -0.024759907 0.049027923 -0.08656969
0.24116279 0.0 0.24331655 0.24005948 0.048286323 0.32029855 0.052659612 -0.43097952
0.43889245 0.43436986 0.28825772 -0.009520952 0.073862925 0.115001015 0.40069053 0.3748276
0.187435 -0.028318387 -0.054190602 0.16374002 0.45796135 -0.05362054 0.36797044 0.23377298
0.24368379 0.0 0.25001281 -0.2126684 0.043283854 0.3382606 0.1971526 0.3663672
0.082635544 0.23736489 -0.1394412 0.09982814 0.2923136 0.35842696 0.2238926 0.25334242
0.0 0.3053286 -0.35572127 0.052425537 0.2180827 0.08941207 0.12709452 0.25212622

shared.2.weight f4 [64, 64]
00000000: a57b 23be e68a 16bc 946e 6d3f d128 1cbc
00000010: 4d30 bf3e f383 08be 845c 053d 43d0 183e
00000020: a0fd 59bf 6fbd 2b3f 17cf 9f3e a744 9e3d
00000030: d5d4 a03e 1681 a8be 29da 093e ab4c 653d
00000040: 8792 17be ff46 863d e2e3 523e 67ab e83d
00000050: e0ac 123f 6d08 9ebe d578 1d3f 7cc4 1abe
00000060: 9310 9c3d e61b 843e 1d72 1c3e 536a 0d3e
00000070: 436d 6f3e f80b 5dbf 8dc6 69ba 4574 e93e
00000080: 59d9 d53e 0eac 143f a07b 30be b4eb 223f
00000090: cca6 a2bc 778b 443e 302f e5bd 86bc bdbf
000000a0: 1b30 e3bd df61 09be cf19 0b3f fa83 2fbf
000000b0: 2395 b43d d65b 283f 9b32 1b3d 9da1 903c
000000c0: 5809 273f bbd5 f0bc a3a3 1cbd 4f81 e9bd
000000d0: cb76 35be adcd 833a e25f aebd 437d 9abd
000000e0: 8509 083e 253f 59bf 2036 b3bd 0a2a 40be
000000f0: 1f54 303e b8bb 113f af47 febc 3015 0abe
00000100: 855a 98bc 5e33 0dbe 180a 843e 806b bdbe
00000110: 9ee4 903e b2c8 50bc 9151 293c b63c 063e
00000120: 7b2e c1be 3410 a43e 5ebe 093e cd88 eebd
00000130: fa27 8f3e ed5f 8cbe 741a 0e3e 724c bc3e
00000140: 50d7 f4bd 65e7 163d a26e 6d3e c4c2 0f3e
00000150: e801 793e ea4a 12bf 8e18 933e 722f a1bd
00000160: c749 0b3d 43db f13d c360 a23e 76f2 36bd
00000170: 3b1f 903d 55da abbe d94c a73d 6b9d ea3e
00000180: 8879 033e 40e1 e43e 97fd 9e3c 553e 593e
00000190: 31dc 83be bbfe 223f 5e3a 5bbd 8521 cabf
000001a0: 2ff1 a2be f8a1 e3bd 7810 ec3d 604d 3fbf
000001b0: 1917 e7bd 984f 9f3e 3574 9bbc 1708 d63d
000001c0: 45cc b23e fd18 03be 3395 25be 74be 06be
000001d0: df22 b8bc 1fd5 a8bd 39b4 20bd 98a2 84be
000001e0: 650e 2d3d f836 a3be f53e e63d eb5c 79be
000001f0: 4d87 2b3e 758d c23e 79d8 f9be f662 26be
00000200: dd19 84be a7e4 66be 357a ba3e 7a74 95be
00000210: 4dd0 a9bd 9e40 9cbe abf7 20bc 2967 bc3d
00000220: b2f3 b5be 2cfa ad3d 5c3b cabd 3739 76bd
00000230: 2796 793d 8d03 46bc d086 593d a8a6 0b3d
00000240: 03f4 3a3c 96fb a63d ea3c d9bd 8e92 a6bd
00000250: 5bb1 da3e efd9 77bf 89cd 9e3d edac 2cbe
00000260: f1b6 823e ebd4 783e bf51 d13d 1374 a1bd
00000270: 0839 773e c71e 8bbe 6176 143e e5f9 2a3f
00000280: a97f fb3b b0e4 5b3d b5f3 183d 735e 2b3f
00000290: b7dc 1f3d 0847 183e aa07 c13d 857a c3bf
000002a0: a734 5c3e 4138 adbd 0328 953e 5803 06bf
000002b0: 7c41 92bd 0b9f 853d 364e 63be b926 863e
000002c0: d882 a53d 0b44 8fbe aafa 4ebe 5533 b13d
000002d0: da0a 6d3e 7839 49bc 427b 503e a735 c63d
000002e0: 81b5 453e 316e e1be 0280 3ebe fd75 edbe
000002f0: c3fe 8c3e 3fba d83e 8576 02bf 0242 373d
00000300: 3edd e73d ff87 9abe 8b77 dcbe be34 06bf
00000310: 8e81 4fbd 6965 88be e8fe 3bbe 06b5 2a3e
00000320: 6944 6e3e f9e0 153f 5639 2f3c 10b0 2a3d
00000330: e3db 8bbe 5894 423e 3d7b febe 9fa7 5b3e
00000340: 2321 07be d192 2c3e 0d2b 723e 66bc 86bf
00000350: 429b 09bf 919e 1dbf 7c07 113f 7e62 d5be
00000360: f418 aa3e c015 d23e b392 a5bd f5fc e8bd
00000370: 92b2 fcbe 3c41 443c 21fd f63d c201 793c
00000380: 1ee5 3fbf e2b9 a4bf 336c 40bf 2164 9a3f
00000390: 7577 e63d c74a a73e ebb3 63bd e547 e3bf
000003a0: 87dc 0e3e 6a4e 2abe 3638 a03e d703 3dbf
000003b0: c809 4cbe f5e5 d53e c2b4 e5bd e3d0 e03d
000003c0: 66c9 b43e aac1 7d3d 1f98 fbbd b7e3 28bf
000003d0: d17f 22bf 146f afbd df94 893e 3331 01bd
000003e0: 2a19 0abe 1a56 e8be 864e 44bf 07aa 2dbd
000003f0: 1080 5cbf de70 fa3e 97b4 e3be 9df2 83bf
-0.15965135 -0.009188389 0.92746854 -0.009531216 0.37341538 -0.13331585 0.032558933 0.14923196
-0.85152626 0.6708593 0.31212685 0.07727938 0.31412378 -0.32910985 0.13462128 0.05598132
-0.1480199 0.0655651 0.20594743 0.113608174 0.57295036 -0.30865803 0.615125 -0.15114015
0.07620349 0.25802535 0.15277906 0.1381009 0.23381524 -0.8634639 -0.0008917831 0.4559652
0.41767386 0.58075035 -0.17234659 0.63640904 -0.019854926 0.19193827 -0.11190641 -1.4823158
-0.1109316 -0.13416241 0.54336256 -0.68560755 0.08817508 0.6576513 0.037890058 0.017655188
0.6524863 -0.02939879 -0.038241994 -0.11401617 -0.17721097 0.0010055803 -0.08514382 -0.07543423
0.13284881 -0.84861976 -0.08750558 -0.18766037 0.1721959 0.5692706 -0.03104004 -0.13484645
-0.01859785 -0.13789126 0.2578895 -0.36996078 0.2829942 -0.012743162 0.010334388 0.13109097
-0.37730774 0.32043612 0.13451526 -0.116471864 0.27960187 -0.27416936 0.13877279 0.36777073
-0.1195513 0.03684177 0.23186734 0.14039141 0.24317133 -0.5714556 0.2872967 -0.078703776
0.034005906 0.11809399 0.31714448 -0.044664823 0.07037207 -0.33565012 0.081689544 0.45823225
0.12839329 0.44703102 0.01940803 0.21215184 -0.2575393 0.6366994 -0.05352246 -1.5791479
-0.31824633 -0.111148775 0.11526579 -0.7472744 -0.112837024 0.31115413 -0.01897631 0.10450762
0.3492147 -0.12802501 -0.16170196 -0.1315859 -0.022477565 -0.082437746 -0.039234374 -0.259053
0.042250056 -0.31877875 0.11242477 -0.24351852 0.16750832 0.37998548 -0.48797968 -0.16248688
-0.25800982 -0.22548161 0.36421362 -0.29190427 -0.08291683 -0.3051805 -0.009824674 0.09199364
-0.35537487 0.08494982 -0.09874603 -0.060113158 0.060934212 -0.0120858075 0.053107083 0.034094483
0.011410716 0.08153455 -0.106073216 -0.08133422 0.42713436 -0.96816915 0.077540465 -0.16862841
0.25530198 0.24299972 0.1022067 -0.078834675 0.2414285 -0.2717192 0.14498283 0.6678756
0.0076751304 0.05368489 0.037341792 0.66940993 0.03902885 0.14870846 0.0942529 -1.5271765
0.2150446 -0.08457995 0.2913209 -0.5234885 -0.071413964 0.06524476 -0.22197804 0.26201418
0.08081597 -0.279816 -0.20212808 0.08652369 0.23148671 -0.012281768 0.20359519 0.09678202
0.1930752 -0.44029382 -0.18603519 -0.4637908 0.27538118 0.42329594 -0.50962096 0.044740684
0.113214955 -0.30181882 -0.43059954 -0.5242423 -0.050660662 -0.2663987 -0.18358958 0.16670617
0.23268284 0.58546406 0.010694822 0.041671813 -0.27316198 0.19001901 -0.49703398 0.21450661
-0.13196234 0.16852881 0.23649235 -1.0526245 -0.5375253 -0.6157008 0.56652045 -0.41676706
0.33222163 0.4103222 -0.08084621 -0.11376373 -0.49354988 0.011978444 0.12059999 0.015198173
-0.7495898 -1.2869227 -0.751651 1.2061807 0.11253253 0.32674238 -0.055591505 -1.7756315
0.13951312 -0.16631475 0.31292886 -0.73833984 -0.19925606 0.41777006 -0.112161174 0.10977342
0.35309905 0.06195227 -0.12284874 -0.65972465 -0.6347628 -0.08566108 0.26871392 -0.03154106
-0.13486162 -0.4537819 -0.7668232 -0.04239848 -0.8613291 0.48914236 -0.44473717 -1.0308415

shared.2.bias f4 [64]
00000000: 68b9 5d3e 44ed c73e 1ae2 ed3e fe8d 013e
00000010: 387f 223e 476d b53d 014d 1abd 1556 1a3c
00000020: 5337 14bf 92a2 193f 6e68 c33e 173b 7c3e
00000030: 4cdd ac3e 853b b73e 4c45 153f dfc2 d2bc
00000040: 7a09 bc3c 6a31 c3bc fa50 043f 9b6e 593e
00000050: 0944 993e b8f2 863e 608c a33e 1672 1e3f
00000060: 6d16 1b3f 3968 173f a17e a13e 7e89 803e
00000070: c47a 3b3e bf90 733e 0ed4 063f cb53 ba3e
00000080: 5890 263f 1b3f 043f c890 6f3e a80e 173f
00000090: a666 1a3f 05cb ac3e 99fa d43e e8de 1c3f
000000a0: 94a6 eebc 8b66 8d3e 58d1 153f 754d 023f
000000b0: 9056 30bd 2be5 3cbd bad8 ec3e 82f7 c63e
000000c0: 866d b63e 4e2f 7a3e 4e7b 083f 915f 053f
000000d0: 568f 9c3e 027a be3e a624 b53d b72e bfbc
000000e0: 90e3 203f e780 3dbe 0903 e73e beed f03e
000000f0: 3e16 853e 8b4d 223f 022e 923e ed79 cf3e
0.21652758 0.39048207 0.46461564 0.12651822 0.15868843 0.088587336 -0.037671093 0.009419938
-0.5789692 0.6001369 0.3816561 0.24631916 0.33762586 0.35787597 0.58308864 -0.025727687
0.022953738 -0.023827273 0.5168606 0.21233599 0.2993472 0.26357055 0.31943035 0.6189283
0.60581094 0.59143406 0.31541923 0.25104898 0.1830855 0.23785685 0.5266732 0.36392054
0.65064 0.5165879 0.23395073 0.5900674 0.6031288 0.33748642 0.4159744 0.6127763
-0.029132165 0.27617297 0.5852256 0.5089944 -0.043051302 -0.04611699 0.462591 0.38860708
0.35630435 0.24432108 0.5331315 0.5209895 0.30578107 0.3720246 0.08844881 -0.023337705
0.6284723 -0.18506204 0.45119503 0.47056383 0.25993532 0.6339957 0.28550726 0.4052271

actor.0.weight f4 [32, 64]
00000000: df43 a3bd b274 60be ee2d d2bd 6d39 d4bd
00000010: 53d8 783d 3f52 1b3e 6721 45be a5ab 18be
00000020: 2beb d33d f412 f23d dfda 5bbe 2071 dd3d
00000030: b2be c33d bca6 193c 1532 aa3c 6b94 90bd
00000040: c0f4 823d fdcb d43d e37e 04bd 8686 5cbe
00000050: fd73 df3c d193 20be d74f e43d 4c41 1cbc
00000060: d829 4abc 5c51 e0bd 88b3 e53c c9d1 d4bd
00000070: 3223 b0bc 0b78 98be ae10 83bd 73b7 b2be
00000080: c1bd 1d3d 0b6e edbd 8a69 c23d 791f ee3d
00000090: 9570 1ebe b611 18be 70e7 85be 846f dfbd
000000a0: 3649 6dbb f691 ab3d 28dd 09bd c820 91be
000000b0: 5b9e bb3c f502 443d c645 0b3d de32 1fbc
000000c0: 3a92 dfbd 0f58 e8bc dc0e 28be bf11 a1bd
000000d0: 6e0f 0cbe 8603 cc3d e2b2 33bd 8919 b5bd
000000e0: 75f5 4e3e 2ba4 5cbe 0f9d 91bd 950b 94bd
000000f0: 3f79 4e3d fc07 c2bc 9ded 683b 3e4e 01bd
00000100: 0923 2fbd 7afe 333e f0a1 01bd 1cf3 603c
00000110: 96e5 973e fc5f 18bd b132 0e3a 8906 9b3d
00000120: a816 d0bd 6eab 0abc 214c 8c3d 414b df3d
00000130: d3a4 13be a040 07be a8f2 b43d 1d95 e83d
00000140: e8e4 dbbe 94b4 953d f3fe ccbd 2bb5 42bd
00000150: 0e25 573c ff3c dabd 7155 933d 1bfa 15bd
00000160: 5cd8 a3bd e928 5d3b efbe be3c 362f 8e3e
00000170: 65ef 053e f82f 5e3e 54de f53c 6765 7e3b
00000180: 0d4e 283d 3160 55bb bf5a 0b3d c126 c8bd
00000190: 62b9 20be 764a 55bc f715 6cbe f20e 66bd
000001a0: d548 153e 274e 403e b59d 023d e442 d3bd
000001b0: 0648 85bd 492c 003e 16e7 80bc 7228 9ebc
000001c0: cff3 f93d 7ed1 36be 7579 73bd 6110 86be
000001d0: 80fc 11be 911e debd 9e43 1cbe 53ed 823c
000001e0: 6b72 72bd d6e9 b3bd 5a5d f93b 389d 51be
000001f0: 5610 82bb 402d b2bd 4ad0 01bc 0b69 d03d
00000200: 8ab7 e23d 3c45 173d c7c3 10be 962f 90be
00000210: 14a4 05bf 16ee 8d3f e5eb bcbc 5d55 033e
00000220: b119 bbbe d6cf 54be 37eb 8dbc e537 1a3e
00000230: f4ee 22be f160 2ebe c723 eabd a3a4 0ebc
00000240: c68e bdbe ffed 3bbd f091 9c3e 765f c83e
00000250: f83a 583d 2161 d0bd ae70 45bd 1122 1dbe
00000260: eb60 01bd ef70 c6bd 53c8 923e 64ef b63c
00000270: dc70 bd3e a50e d2bd 0ac0 533e aa56 dfbe
00000280: bf47 933e b618 223e 7174 fcbd 1be2 c6bd
00000290: 569b bb3b a127 94bd 5550 92be c964 a43d
000002a0: f30e ecbc e2ef 2e3e 847c 08be 3154 d13d
000002b0: 4f1a 2bbb 755d b33c 015a b3be be7b 0d3d
000002c0: 13c7 afbe b48a f03d 9fd1 36bd 62d4 e5bc
000002d0: 4e63 8f3d 09b1 7a3e 7fd8 f7bd 8a23 42bd
000002e0: 6fd8 633e 09bc 2b3e 22cb ba3e 7b8c a03e
000002f0: 2037 a93e f59d 3fbe a34a b63e 7c20 0dbe
00000300: 2019 c7bd 309e 9abd 9d02 5f3d 23ed 07be
00000310: dd5f 7b3d 901f 00bd 64df a53d a5c7 0a3e
00000320: 9253 4e3e cd1c 2abe 728a c93d c9db 703c
00000330: 3e75 03be 2002 8c3d d262 013d 9151 41be
00000340: 051e 533d 8aa7 c9bc 8598 f33c ac37 2dbc
00000350: 8dc0 6d3d 9159 7dbd 05a6 c43c 7067 153e
00000360: 5278 f1bd 9f36 f1bd 9957 a03d d3a1 823e
00000370: 3d56 4bbc fb38 cebd 9cc9 d03d 6a5f 213e
00000380: 8ed3 923c 3b6c f5bd 55ab 643d 39f7 253c
00000390: 029e 86bd 9063 5fbe 220b bebc 1eed 58be
000003a0: 4530 113e 7f80 36be efda 3bbe 17d4 8abd
000003b0: 7a8f 4b3d a76f c83d 232a 353e 9ea8 92bd
000003c0: d978 74be ca11 7e3b 805e 95bd 9452 a93d
000003d0: 7c54 153e 6679 51be dda7 aabd d421 4ebe
000003e0: a1dd b3bc 8461 213e d42f c03e 48b9 8c3e
000003f0: 34d4 c1bd 0158 cdbb 83a5 3d3c 64ce 0fbe
-0.0797193 -0.21919516 -0.10262667 -0.103625156 0.060753178 0.15168093 -0.19251023 -0.14909227
0.10347589 0.11820021 -0.21470211 0.108125925 0.095578566 0.0093781315 0.020775834 -0.070595585
0.063943386 0.1039047 -0.03234757 -0.21535692 0.027276987 -0.15681387 0.11148041 -0.009537052
-0.012339078 -0.10953018 0.028039709 -0.10391576 -0.021501157 -0.29779086 -0.06399666 -0.34905586
0.03851104 -0.11593255 0.09492786 0.11627097 -0.15472634 -0.14850506 -0.26153135 -0.10909942
-0.0036206967 0.08377449 -0.033658177 -0.28345323 0.022902658 0.047854383 0.034002088 -0.0097167175
-0.109165624 -0.028362302 -0.16411918 -0.07864713 -0.13677761 0.099616095 -0.043871768 -0.08842761
0.20210822 -0.21547 -0.07110035 -0.072287716 0.050408598 -0.023685448 0.003554202 -0.03156876
-0.04275802 0.17577544 -0.031648576 0.013729837 0.29667348 -0.037200913 0.0005424424 0.07569606
-0.10160571 -0.008463724 0.06850458 0.109030254 -0.14418344 -0.13208246 0.088353455 0.11356566
-0.4294808 0.07309833 -0.10009565 -0.047536056 0.013131393 -0.10656165 0.07194031 -0.036615472
-0.08000252 0.0033746308 0.023284404 0.27770394 0.13079603 0.21697986 0.03001324 0.0038817765
0.04109006 -0.0032558555 0.03402209 -0.09773017 -0.15695718 -0.013018241 -0.23055254 -0.056166597
0.14578564 0.18779813 0.031888682 -0.10315493 -0.06507878 0.12516893 -0.01573519 -0.019306395
0.12204706 -0.17853352 -0.059442002 -0.2618437 -0.14256477 -0.10845674 -0.15260169 0.015982306
-0.05919115 -0.08784835 0.0076100053 -0.2047013 -0.0039692326 -0.08700037 -0.007923195 0.10176285
0.110701635 0.03693126 -0.14137183 -0.28161305 -0.5220349 1.1088283 -0.023061702 0.12825532
-0.36543038 -0.20782408 -0.017324073 0.15060385 -0.15911466 -0.17029168 -0.11432605 -0.008706245
-0.3702299 -0.045881268 0.3058009 0.3913533 0.052790612 -0.10174776 -0.048203163 -0.15345027
-0.03158657 -0.09689509 0.2866846 0.022330947 0.37000167 -0.102566995 0.20678726 -0.43620807
0.28765675 0.15829739 -0.12326897 -0.09711095 0.0057253046 -0.07234121 -0.28576913 0.08027036
-0.028815722 0.17083696 -0.13328749 0.10221136 -0.002610821 0.02189515 -0.35029605 0.034541838
-0.3433157 0.117452055 -0.044633504 -0.028055374 0.07001363 0.24481596 -0.1210184 -0.047397174
0.22250532 0.16770948 0.36483103 0.31357178 0.3304987 -0.187126 0.35603818 -0.13781923
-0.09721589 -0.07549703 0.05444585 -0.13274054 0.06137072 -0.0312801 0.08099249 0.13552721
0.20149067 -0.16612549 0.098408595 0.014700838 -0.12837693 0.06836343 0.031588383 -0.18878771
0.0515423 -0.024616022 0.029735813 -0.010572355 0.05804496 -0.061852995 0.024004946 0.1459024
-0.117905274 -0.11777996 0.07829208 0.25514087 -0.0124106975 -0.10069462 0.10194704 0.15759054
0.017923143 -0.11983534 0.055827457 0.010129743 -0.06573106 -0.21815324 -0.023198668 -0.21184203
0.1417857 -0.17822455 -0.18345235 -0.06778734 0.049697377 0.09786921 0.17691855 -0.071610674
-0.23874225 0.0038767927 -0.07293415 0.08267704 0.1458301 -0.20456466 -0.08332799 -0.20130092
-0.021956267 0.15759856 0.3753649 0.27485108 -0.09464303 -0.0062665944 0.011575106 -0.14043576

actor.0.bias f4 [32]
00000000: 3471 b2bc 766f 55bc bf69 353e 9d65 953c
00000010: 543f 96bc 7a74 9c3d 253f 95be 6b6d 87be
00000020: 1c8f ab3d 0091 af3e b41b 8c3e 1093 09bc
00000030: 64c7 ed3d 1041 1c3e 492c f23b 5b4f 5fbd
00000040: 3cf5 9cbe 9720 83bc 02ab 86be d1b4 51bc
00000050: a59c 68bd 0287 5abd 7398 0cbd cc9f 8bbc
00000060: 36a9 c8bc 0000 0000 ddd3 98be 5704 19bc
00000070: 2eac 95bb 8c9b 52bb 2ee5 fb3d d8bc bbbc
-0.021782495 -0.013027063 0.1771612 0.01823693 -0.018340744 0.07639404 -0.29149738 -0.26450667
0.08376905 0.34290314 0.27364886 -0.008396879 0.11610296 0.15259194 0.007390533 -0.05451904
-0.3065585 -0.016006751 -0.26302344 -0.012799458 -0.056790013 -0.05335141 -0.034325074 -0.01704397
-0.024494749 0.0 -0.2984914 -0.009339414 -0.0045676446 -0.003213617 0.12299572 -0.022917196

actor.2.weight f4 [2, 32]
00000000: 468a 33be 8ca2 7dbe a598 c63e cf46 843d
00000010: f78a a5bc cf02 823e 5b3d 95bf 606f 34bf
00000020: 0ab1 cd3e 5aa8 e63f 9144 543f d6f6 883e
00000030: 9bd8 343f 05a6 87bc e26a 963b a756 3ebe
00000040: aa00 c1bf 4bda a5bd 4db4 75bf 47fc 1dbd
00000050: e6aa cabb 2057 ff3d 661e d83c 500a 0abe
00000060: 5986 0dbf 002b 6cbe ab86 b3bf 8064 06be
00000070: b605 c23d 998d 793e d5b2 dd3e dfc2 403c
00000080: 52c4 243e 7c4d a9bc 4ba1 dbbe 922e 8abe
00000090: 1a22 80be 17c4 c1be 443a 893f c6ab 243f
000000a0: 936b 37bf efa3 eebf 405c 73bf 90d3 a0bd
000000b0: 4f33 6ebf a685 3bbf 5312 abbe c41c cf3e
000000c0: ba24 c43f afa2 0ebe 007f 6c3f 43d3 55be
000000d0: 1e37 9fbe 4f3d 133e 6813 51bd d02a 2cbd
000000e0: a166 f63d 6faf 583d 3e26 a13f fe22 8e3d
000000f0: 5ad6 19be afe1 58bd f9c6 4a3d a193 3dbe
-0.17533216 -0.24769038 0.38788334 0.06458818 -0.020207865 0.25392768 -1.1659349 -0.70482445
0.40174133 1.8020127 0.82917124 0.2675082 0.70643014 -0.016558656 0.004590378 -0.18587743
-1.5078328 -0.08098277 -0.9597824 -0.03857067 -0.0061849235 0.1246779 0.026381683 -0.13480496
-0.55283123 -0.23063278 -1.4025472 -0.13124275 0.094737455 0.24370421 0.433005 0.011765211
0.16090515 -0.02066683 -0.42896494 -0.26988655 -0.25026017 -0.37844917 1.0720906 0.64324605
-0.7164852 -1.8643779 -0.9506264 -0.07852852 -0.9304704 -0.73250806 -0.33412418 0.40451634
1.5323708 -0.13929246 0.92381287 -0.20881371 -0.3109674 0.14378856 -0.051043898 -0.042033017
0.12031294 0.05290168 1.2589796 0.06940268 -0.15023175 -0.052949604 0.04950616 -0.18513347

actor.2.bias f4 [2]
00000000: b5ac 9a3e a4ac 9abe
0.3020989 -0.3020984

critic.0.weight f4 [32, 64]
00000000: 7223 493e 9168 54be 2b2f e5bd 764b eb3c
00000010: b3b8 55bd ee41 00bd 800c 33be 39d2 a2bc
00000020: 8e92 313d 550a 553e 1ab5 343d 26f3 bb3d
00000030: 987d 4ebd 48c2 29bc c68d 4f3d 9794 953d
00000040: 30c7 9ebc de4b cabd f5e9 35bd 3a9e c8bd
00000050: b5f7 90be da43 3a3d 6cb1 0a3e a244 ab3d
00000060: b8cd 46ba a663 bbbd 3ef3 a1bd c955 a5bd
00000070: 73f3 be3d 50d2 59bd 3d9f afbd 99f9 57bd
00000080: 2f54 b2bc ec77 ec3c 18f8 b93c 7937 203e
00000090: 16bc c2be be39 94be e299 c1bc 51a3 a1bd
000000a0: 6c89 193e a2cf 81bc e140 98bd 1ed0 763e
000000b0: 8361 1f3e 0176 073d b2ef 7d3e 24f7 e1bd
000000c0: 10d4 263e b738 1fbe 7767 e2bd 859c 3cbd
000000d0: 2ca0 51bd 7b15 80be 43c2 a13d bed0 a0be
000000e0: e9aa c63c 29eb b5bc 86c2 9abd 8e15 1ebd
000000f0: 73b5 033e f4cd 00be fd9b cf3d a588 74bc
00000100: 3952 1a3e 9577 4a3e fd35 8b3d 793a 30be
00000110: c7df ab3f 4edd ad3e 1141 fe3d a3ce 90bd
00000120: 0690 26bf bfe9 6e3e 3a7e c9be eab1 e5be
00000130: 7139 d0be b129 77bd baea a03d e2bc 103e
00000140: 80f3 b93e c86a 3ebd 0e18 853e 3dc3 fa3e
00000150: 439c 893e fd92 193f e42b cc3e f495 24be
00000160: 1d33 15be d431 6d3d 924f 4c3e 6655 1cbf
00000170: 2484 3c3f 9924 36bf f29f 3c3e d7a2 b8bd
00000180: 4c0d 81bb b872 823d bab8 e1be a394 453c
00000190: f7af 07be 11e8 ba3e 72c6 593c a447 4b3b
000001a0: b0c0 80bd 2ddd 953e 4c49 e53d e90b 1bbe
000001b0: 3e8f c83c 2865 e33d 1ac1 de3e 1a38 6ebe
000001c0: fba3 c63e beaf 81be 07e8 57be 1878 9c3d
000001d0: d445 9a3e 7351 e63e 9216 96bd 0654 1bbe
000001e0: b73b 523d f0f1 48be 030b a5be dcb4 f4bd
000001f0: d93c 9bbe df6f 6e3d 8fc5 143f 020d 7c3f
00000200: 8c55 b3be 4dbc dbbc 7b81 59be e64e f8bc
00000210: 2bc7 9f3f c6a4 063e d732 ec3d 0912 263e
00000220: e6ad 24bf 2579 1a3e a161 1ebf cf7b 73bf
00000230: 34d7 83be 0c01 b5be 0743 263b 9761 99bd
00000240: aeab a43e 7e91 eabd e6bd 9f3d bcd3 c93e
00000250: 96f3 0c3f d916 fb3e adb2 073f 0190 38be
00000260: 151c 723d f879 9f3c 0729 1b3e f446 9abe
00000270: caaa 6d3f f9ab 19bf 1a96 2cbe 12f7 3dbe
00000280: 06af b53c 22ca fe3d cbf4 bebe bc08 12be
00000290: 5213 b13c b294 9f3e 03e9 5c3e ad37 5c3e
000002a0: 2eca 0f3e cb19 1d3f 904b c23d 4c36 40ba
000002b0: a4e2 a53e 724a 16be 99d3 b13e 5c88 35be
000002c0: d273 d33e aebc 56be af50 073e 67fb e73b
000002d0: 906e 2a3f 10be db3e 06f0 43be fd0a 843d
000002e0: 96e8 8c3e 6bf1 2d3e 44ff 81be 1883 afbe
000002f0: 79e8 f8be 18b1 3dbe ee8b 813f 7db0 3a3f
00000300: 349d a7bd 55d2 29be 2317 9f3b 2e31 e3be
00000310: 85c8 dd3f 427f fa3e 0bcf 243e eb46 62bd
00000320: 02f3 93bf 556a 2f3a 0f1e 1cbf b743 cabe
00000330: 8ee4 b0bd 3e18 24be c7c7 bfbd c131 173c
00000340: df72 9c3e 17e6 593c 07fa bf3d e183 223f
00000350: 6685 423f 9b7e 393f d37e c53e 86af 05bc
00000360: 5edc 163c 207c 76be ff14 7f3d b2c4 28bf
00000370: 5a7e 443f 35a5 64bf ad2b 953d f138 7dbd
00000380: 980d 04be 739a 783b cbc5 acbe a443 c2bd
00000390: 39b5 de3c 2567 373e f8d4 9dbe f9f4 01be
000003a0: 4eee 44bd dc15 663f 4775 03be 827c d13e
000003b0: 0a49 f63c 5468 9ebd 2323 9f3e 6882 14be
000003c0: c261 d93e 78d3 fa3d 77aa b93d cf68 15bd
000003d0: 074b 6c3e e074 1d3e d02d 7ebc a44b d13d
000003e0: 93a0 b8bb c257 833e 052d 0ebe 53b8 cebd
000003f0: 692c 17bf ae18 a03e d05d 4f3f d951 7c3f
0.19642428 -0.20743014 -0.11190637 0.028722506 -0.052178096 -0.031312875 -0.17485237 -0.019875633
0.043352656 0.20804723 0.044118024 0.09177236 -0.050412744 -0.010361262 0.050672315 0.07303732
-0.01938209 -0.09877752 -0.044412572 -0.09795804 -0.28313985 0.045474865 0.13544244 0.083627
-0.0007583755 -0.09149866 -0.07907723 -0.08073003 0.09323778 -0.053179085 -0.08575294 -0.05272827
-0.021768657 0.028865777 0.022701308 0.15646161 -0.38034123 -0.28950304 -0.023632947 -0.07892478
0.14993829 -0.015846077 -0.0743425 0.24102828 0.15564542 0.03307152 0.24798468 -0.110334665
0.16291833 -0.15548979 -0.110548906 -0.046047706 -0.051178142 -0.25016388 0.078983806 -0.31409258
0.024251418 -0.02220686 -0.07556634 -0.038594775 0.12862186 -0.12578565 0.10137174 -0.014925157
0.15070428 0.1977218 0.06797407 -0.17209806 1.3427666 0.33957905 0.12414754 -0.07070663
-0.6506351 0.23331355 -0.39354116 -0.448623 -0.40668824 -0.060342494 0.078572705 0.14134553
0.36318588 -0.046488553 0.25994915 0.4897708 0.2687703 0.5998991 0.39877236 -0.16072828
-0.1457028 0.057908848 0.19952229 -0.6106781 0.7363913 -0.71149594 0.1842039 -0.09015434
-0.0039383527 0.06369537 -0.44086248 0.012059364 -0.13250719 0.36505178 0.013291942 0.0031018043
-0.06286752 0.29270306 0.11195621 -0.15141262 0.024482366 0.111032784 0.435067 -0.23263589
0.38796982 -0.25329393 -0.21084605 0.076400936 0.301314 0.44984016 -0.07328524 -0.15168771
0.05132648 -0.19623542 -0.32234964 -0.11948559 -0.3031986 0.058212157 0.5811395 0.9845735
-0.35026205 -0.026823187 -0.21240799 -0.03031106 1.2482656 0.13148794 0.115331344 0.16217817
-0.6432785 0.15085275 -0.6186772 -0.9511079 -0.25750124 -0.3535236 0.0025369541 -0.07489317
0.3216223 -0.11453532 0.07799892 0.39419353 0.5505918 0.4904087 0.5300701 -0.18023683
0.059108812 0.019467339 0.1515237 -0.30132258 0.9283873 -0.60028034 -0.16854134 -0.18551281
0.022178184 0.124408975 -0.37296137 -0.14261144 0.021615658 0.31168133 0.21573262 0.21505614
0.14041969 0.6136748 0.09487069 -0.00073323096 0.32399476 -0.14676836 0.3473175 -0.17727798
0.412993 -0.20970413 0.13214372 0.00707953 0.66574955 0.42918444 -0.1913453 0.06447408
0.275212 0.16986625 -0.25390065 -0.34279704 -0.48614863 -0.18524587 1.0120828 0.7292555
-0.08184281 -0.16584142 0.004855053 -0.4437346 1.7326819 0.48925215 0.16094606 -0.055243414
-1.1558535 0.0006691565 -0.60983366 -0.39504787 -0.08637343 -0.16024873 -0.093642764 0.009228171
0.3055639 0.013299487 0.09373861 0.6348248 0.759848 0.7245881 0.38573322 -0.008159524
0.009207813 -0.24070787 0.062275883 -0.65925133 0.767553 -0.89314586 0.07283721 -0.06182188
-0.1289581 0.0037933856 -0.33744654 -0.09485558 0.027186023 0.1791044 -0.30826545 -0.12691106
-0.048078828 0.89877105 -0.12837707 0.40915304 0.030064125 -0.07734743 0.31081495 -0.14502871
0.42457396 0.12247366 0.09065717 -0.036476906 0.23075496 0.15376616 -0.015513852 0.102195054
-0.0056343763 0.2565289 -0.13884361 -0.10093751 -0.5905214 0.3126883 0.8100252 0.9856239

critic.0.bias f4 [32]
00000000: 93e1 ddbc 2d82 173e ef26 313e e81c 5b3e
00000010: 5284 2a3f 9bda 2c3f 82c9 92bc 9c15 3b3f
00000020: 0000 0000 c842 113e 2e7a 423f 5388 2c3f
00000030: 8959 2d3f 6269 acbc 37cb 333f eee0 60bc
00000040: 7b1a 323f 6088 543e 12f9 26bd 5e76 243f
00000050: 8455 303f 98df 313f 31db 2b3f e580 283f
00000060: 87ed 2d3f 18f9 353f 00e9 2b3f 2c19 b4be
00000070: 9ace 283f 476b 6c3e 1f32 2b3f ffdc 3b3f
-0.027085101 0.14795752 0.17300008 0.21397746 0.66608155 0.67521065 -0.017918352 0.7307985
0.0 0.14185631 0.7596768 0.67395514 0.67714745 -0.021046344 0.70231956 -0.013725502
0.69571656 0.20755148 -0.040764876 0.64243114 0.68880486 0.694818 0.67131335 0.6582168
0.6794056 0.7108321 0.67152405 -0.35175455 0.6594025 0.23087798 0.66873354 0.7338409

critic.2.weight f4 [1, 32]
00000000: d7e1 3cbd fa02 543f 9d4a 493f d366 a43f
00000010: c9c3 f9be bd3b a1be 9d2b 233e 27a3 9fbe
00000020: 1efc 4e3e ed44 0e3f 53c2 88be 8001 c5be
00000030: 1079 07bf 3083 063c 84ce b5be 4fba f83c
00000040: 4de9 b0be d43b 7b3f 8bf7 043c aab3 e5be
00000050: 30dc 14bf 5509 14bf 9d2e 11bf 5a15 ecbe
00000060: a9eb c8be 1069 bbbe bf4a cfbe e86a 513f
00000070: c508 edbe d649 8b3f 5967 d5be d936 ffbe
-0.046113815 0.8281704 0.78629476 1.284388 -0.48782185 -0.3149089 0.15934606 -0.31179163
0.20213363 0.5557392 -0.26710758 -0.38477707 -0.529191 0.0082099885 -0.3550912 0.030362276
-0.34552994 0.98138165 0.0081156595 -0.44863635 -0.5814848 -0.5782674 -0.5671175 -0.4611004
-0.39242294 -0.36603594 -0.40486714 0.8180375 -0.46295753 1.0881908 -0.4168041 -0.49846533

exp_avg f4 [64, 12]
00000000: 2afb bf3a 4685 aeb7 5bf0 a83a 5db0 3338
00000010: 0057 21b9 1fb7 b336 964c 94b7 4685 aeb7
00000020: f99d e2b8 cdc6 cfb8 5db8 03b9 6d20 bb3a
00000030: c94a 93ba dcff 2d39 50f4 8339 e1ea 1539
00000040: 6317 ccb9 b885 a4ba 3eac 3b39 dcff 2d39
00000050: 3cf2 353b a866 df39 b0d5 283b 289b 85ba
00000060: 086d 3d39 d181 083a b328 273b afd7 cb39
00000070: 3ac0 3eb9 3293 4ebb 30d8 3639 d181 083a
00000080: f7d4 e83a 91f4 a239 9516 dd3a a2b3 923a
00000090: 0400 0000 0400 0000 0400 0080 0400 0000
000000a0: 0400 0000 0400 0000 0400 0000 0400 0000
000000b0: 0400 0000 0400 0000 0400 0000 0400 0000
000000c0: 0400 0000 0400 0000 0400 0000 0400 0000
000000d0: 0400 0000 0400 0000 0400 0000 0400 0000
000000e0: 0400 0000 0400 0000 0400 0000 0400 0000
000000f0: 0400 0000 0400 0000 0400 0000 0400 0000
00000100: 0400 0000 0400 0000 0400 0000 0400 0000
00000110: 0400 0000 0400 0000 0400 0000 0400 0000
00000120: 0ef5 12bb 396b 36b9 63a6 26b8 c46c 2cb8
00000130: da5d 0aba c389 03ba cb97 9438 396b 36b9
00000140: d11b cd3a 2b2b 0f3a 5dd4 b83a 378e d5ba
00000150: 0400 0000 0400 0000 0400 0000 0400 0000
00000160: 0400 0000 0400 0000 0400 0000 0400 0000
00000170: 0400 0000 0400 0000 0400 0000 0400 0000
00000180: b068 873a 02d4 1bb7 7694 783a b185 c5b9
00000190: e381 793a 69b3 8a3b b1c4 01b8 02d4 1bb7
000001a0: ddf7 31b9 da56 4b3b 23f6 21ba bc6b 6b3a
000001b0: 73a3 cab8 078a 85b9 4f16 81ba 316b 74b9
000001c0: 5f02 62b9 cb9e 9b37 d371 edb8 078a 85b9
000001d0: 26b5 02bb 6658 d8b9 9ea6 faba a2eb 4a39
000001e0: e21f 1ebb 61f5 86b9 baff 6cba 6226 2ab9
000001f0: f115 07ba 09ee bab9 45e7 dbb8 61f5 86b9
00000200: 2f91 ecb9 d4cc 1dba a22e 93b8 3196 d6ba
00000210: 0eaa 35ba 3497 29b9 e7cb 203a be63 7eb9
00000220: 1052 2eba d91a a1ba 14bf 8ab8 3497 29b9
00000230: 078c e6b8 c868 4dba 4e43 5ab8 5b84 b1b9
00000240: d204 bb36 8189 f4b8 474c 86ba e390 ccb8
00000250: 5d2b 19b9 98c4 f8b9 8122 c636 8189 f4b8
00000260: e93b 8bb9 6898 43b7 77c9 90b9 005a 08b8
00000270: 4e32 b3ba 5c86 8837 bfc0 f1ba 6a08 a6b9
00000280: 77fe 09ba fdf1 08bb ffe3 9737 5c86 8837
00000290: 7de4 62b8 3f70 0a39 8bea 84b8 8558 e3ba
000002a0: a53c b8b9 a5a7 a139 d17d a63a d1d2 093a
000002b0: cbb4 3b3a a3e7 f13a d67e 7439 a5a7 a139
000002c0: 194c 313b 3e44 d83a 5b8e 613b 591b 57b9
000002d0: 0400 0000 0400 0000 0400 0000 0400 0000
000002e0: 0400 0000 0400 0000 0400 0000 0400 0000
000002f0: 0400 0000 0400 0000 0400 0000 0400 0000
00000300: 9406 91ba b0e2 9cb8 c0f7 96ba ff0a 8cb9
00000310: 9a38 1cba af55 dfba 9793 54b8 b0e2 9cb8
00000320: 1ea3 8b38 9d58 bcba a6c9 44b9 672f 7aba
00000330: 0000 0000 0000 0000 0000 0000 0000 0000
00000340: 0000 0000 0000 0000 0000 0000 0000 0000
00000350: 0000 0000 0000 0000 0000 0000 0000 0000
00000360: 7a3e 36ba 1172 e9b9 735f 52ba d79a 15ba
00000370: 16de 15bb ef7b 29bb 03f7 f3b8 1172 e9b9
00000380: 5c1c 3a39 fcd5 01b9 fc0a 74b0 7a3e 36ba
00000390: 0fe6 673a fe51 6fb9 0400 0000 e04a 98b9
000003a0: 444d 77b9 ce45 163a 3930 82b9 fe51 6fb9
000003b0: c210 4cbb d508 1fbb 3b16 17bb 8c22 833a
000003c0: 32cb c1b7 ca4e 8936 dd27 36b9 a60b fe37
000003d0: 5746 8e36 9919 36b9 a4ee 3eb7 ca4e 8936
000003e0: 35fb 07ba 8ded b9b9 35fb 07ba 7f38 31b8
000003f0: 8a2f aebb 5235 aab8 da70 0ebb 6a61 193a
0.0014646996 -2.0804477e-05 0.0012889014 4.2841177e-05 -0.00015386567 5.355934e-06 -1.7678638e-05 -2.0804477e-05
-0.000108059445 -9.907559e-05 -0.00012561814 0.0014276631 -0.0011237498 0.0001659388 0.00025168294 0.00014297247
-0.00038927337 -0.0012552058 0.00017897875 0.0001659388 0.002776279 0.0004261036 0.0025762133 -0.0010193335
0.00018065062 0.00052073324 0.0025506436 0.00038879874 -0.00018191422 -0.003152084 0.00017437409 0.00052073324
0.0017763664 0.00031081264 0.0016867692 0.0011192451 6e-45 6e-45 -6e-45 6e-45
6e-45 6e-45 6e-45 6e-45 6e-45 6e-45 6e-45 6e-45
6e-45 6e-45 6e-45 6e-45 6e-45 6e-45 6e-45 6e-45
6e-45 6e-45 6e-45 6e-45 6e-45 6e-45 6e-45 6e-45
6e-45 6e-45 6e-45 6e-45 6e-45 6e-45 6e-45 6e-45
-0.0022423896 -0.00017396816 -3.9732444e-05 -4.110929e-05 -0.0005278267 -0.00050177815 7.0854636e-05 -0.00017396816
0.0015648549 0.00054614496 0.0014101375 -0.0016292994 6e-45 6e-45 6e-45 6e-45
6e-45 6e-45 6e-45 6e-45 6e-45 6e-45 6e-45 6e-45
0.0010330882 -9.288082e-06 0.00094825716 -0.00037674376 0.0009517951 0.004232813 -3.093918e-05 -9.288082e-06
-0.00016972372 0.003102711 -0.000617834 0.0008980592 -9.6625554e-05 -0.00025470575 -0.0009848567 -0.00023309585
-0.00021553923 1.8551384e-05 -0.00011322242 -0.00025470575 -0.0019944399 -0.00041264592 -0.0019123142 0.00019352001
-0.002412789 -0.00025741293 -0.0009040792 -0.00016226762 -0.0005153111 -0.00035654035 -0.00010485811 -0.00025741293
-0.00045121598 -0.00060195965 -7.018192e-05 -0.0016371665 -0.0006929942 -0.00016173424 0.00061338994 -0.00024260484
-0.00066498015 -0.0012291326 -6.615944e-05 -0.00016173424 -0.00010993337 -0.0007835743 -5.2037933e-05 -0.00033858683
5.5735954e-06 -0.00011660439 -0.0010246121 -9.754465e-05 -0.00014607371 -0.0004744872 5.9048766e-06 -0.00011660439
-0.00026556783 -1.1658391e-05 -0.00027615923 -3.2508746e-05 -0.0013671608 1.627503e-05 -0.0018444284 -0.00031668256
-0.00052640535 -0.002089619 1.8106772e-05 1.627503e-05 -5.4095395e-05 0.0001320252 -6.3379375e-05 -0.0017345106
-0.00035140399 0.00030833218 0.0012702291 0.00052575493 0.0007160424 0.0018455874 0.00023316903 0.00030833218
0.0027053414 0.001649983 0.0034417126 -0.00020514186 6e-45 6e-45 6e-45 6e-45
6e-45 6e-45 6e-45 6e-45 6e-45 6e-45 6e-45 6e-45
-0.0011064583 -7.4808835e-05 -0.0011517927 -0.00026711074 -0.0005959362 -0.0017039086 -5.0682193e-05 -7.4808835e-05
6.6584194e-05 -0.001436967 -0.00018767136 -0.00095438067 0.0 0.0 0.0 0.0
0.0 0.0 0.0 0.0 0.0 0.0 0.0 0.0
-0.0006952059 -0.0004452621 -0.00080250873 -0.0005706972 -0.002286797 -0.0025861224 -0.000116331525 -0.0004452621
0.00017748907 -0.00012382114 -8.878229e-10 -0.0006952059 0.0008846232 -0.0002282336 6e-45 -0.00029047485
-0.0002358454 0.00057324476 -0.0002483146 -0.0002282336 -0.0031137918 -0.002426674 -0.0023054022 0.0010004803
-2.3102013e-05 4.0920904e-06 -0.00017371723 3.0284584e-05 4.2401184e-06 -0.00017366408 -1.1380445e-05 4.0920904e-06
-0.0005187274 -0.0003546294 -0.0005187274 -4.2252705e-05 -0.0053157257 -8.1161634e-05 -0.0021734745 0.00058510026

exp_avg_sq f4 [64, 12]
00000000: d2d7 9b37 063c 9634 9c4d c537 497d ec35
00000010: 4b40 8c36 0720 cf37 4e84 2432 063c 9634
00000020: 93b8 5a34 a698 eb34 440d c034 333f 9c37
00000030: bfb3 c737 d5d6 e435 e7be bb38 d94e 8c36
00000040: 20f6 2737 581f 6a38 a422 0a35 d5d6 e435
00000050: bbf0 8638 3982 5938 bdea 7438 318b e937
00000060: ed90 2a3a db9b 8337 14ae 2c3a 8944 5b38
00000070: 884c be38 be0b 8e3a e288 9536 db9b 8337
00000080: 274b c939 cdc3 9d39 5fb7 9c39 f6c7 343a
00000090: fc57 1e0a 2369 b209 863f c009 e00e 250b
000000a0: 5f6f 750b ea53 e00c 6a25 f908 2369 b209
000000b0: c41d 740b 1b8c 250c b1bb da0c 771b 5e0c
000000c0: f401 0000 f401 0000 f401 0000 f401 0000
000000d0: f401 0000 f401 0000 f401 0000 f401 0000
000000e0: f401 0000 f401 0000 f401 0000 f401 0000
000000f0: f401 0000 f401 0000 f401 0000 f401 0000
00000100: f401 0000 f401 0000 f401 0000 f401 0000
00000110: f401 0000 f401 0000 f401 0000 f401 0000
00000120: 748b 2a39 526f 3c37 0444 2139 5ff5 0238
00000130: 75f1 3c38 1be5 8b39 c285 4636 526f 3c37
00000140: abc9 2a39 566a e538 00b7 0539 5aca 3e39
00000150: f401 0000 f401 0000 f401 0000 f401 0000
00000160: f401 0000 f401 0000 f401 0000 f401 0000
00000170: f401 0000 f401 0000 f401 0000 f401 0000
00000180: b586 6e39 ddaf ce37 e565 d13a 280f cb38
00000190: 899e 8439 c66f eb3a f96e c636 ddaf ce37
000001a0: c564 7f3a c5f4 4b3a de73 813a 5642 8639
000001b0: e8b1 a738 516d 0136 2ad2 3839 10bf 0637
000001c0: 80b2 9437 1bb4 6939 29ee 0035 516d 0136
000001d0: c1b4 d538 c4d0 ad38 e1ec d138 1f71 b938
000001e0: 24e8 f538 c530 6e36 45a8 e937 2276 8d37
000001f0: 417c c937 01c0 3139 0c45 7735 c530 6e36
00000200: d4c2 a838 f03d 8738 f5e0 6d38 1daa 0339
00000210: bbad ad38 f6c4 4f36 816d d238 4a7e 1637
00000220: 22dd 9237 c25f b738 16b4 7f35 f6c4 4f36
00000230: df01 9e38 6f43 6c38 94d9 7738 b308 bd38
00000240: 27e2 2638 a720 0d36 4aee ca38 c4c0 b636
00000250: c652 1237 96ce 1539 1ad7 a234 a720 0d36
00000260: a39b 8237 8139 2037 249d 6b37 cd82 3538
00000270: 7249 4039 81a3 aa36 5acd 7d39 734d 9037
00000280: 7386 1538 19f1 7939 cf7a b935 81a3 aa36
00000290: e938 4539 27a6 3239 a490 0439 0c1c 4339
000002a0: bacb 2c38 8f99 2236 e2fd 8138 a3ea c936
000002b0: a1a2 0e37 b9ac a538 db04 7b35 8f99 2236
000002c0: be14 a638 3c3e 6b38 8e9d 7238 a36a 4638
000002d0: f401 0000 f401 0000 f401 0000 f401 0000
000002e0: f401 0000 f401 0000 f401 0000 f401 0000
000002f0: f401 0000 f401 0000 f401 0000 f401 0000
00000300: 46ea 6038 55e5 a535 9e4d 1c39 ee75 8d36
00000310: 5129 7437 52e6 c038 e7b1 1035 55e5 a535
00000320: 36b3 1239 64ff 0739 da32 eb38 ee00 6138
00000330: 0000 0000 0000 0000 0000 0000 0000 0000
00000340: 0000 0000 0000 0000 0000 0000 0000 0000
00000350: 0000 0000 0000 0000 0000 0000 0000 0000
00000360: df33 ff39 bbdc af36 0602 293a 4411 b037
00000370: 7913 9838 c67c dc39 ebd4 5235 bbdc af36
00000380: 44d7 a938 e59d a638 c4b6 8034 1c40 ff39
00000390: 3dc9 4439 da01 9536 f401 0000 b3d2 ce37
000003a0: cf8e 3a38 2430 e639 2493 5e35 da01 9536
000003b0: 9c5c e138 78ac b138 e352 c638 87f7 4d39
000003c0: 6213 9436 2f46 ae35 363c 7938 e78a 9d36
000003d0: 9f9a fb36 6ee4 e538 b264 ea34 2f46 ae35
000003e0: 3da5 2638 b7b3 4638 0742 2838 3602 8636
000003f0: 2e6e d53b 7ed6 a438 cd07 c33b 101c ca39
1.8577939e-05 2.798335e-07 2.352037e-05 1.7619833e-06 4.17981e-06 2.4691237e-05 9.576139e-09 2.798335e-07
2.036998e-07 4.3883227e-07 3.577244e-07 1.8626079e-05 2.380635e-05 1.7049848e-06 8.952413e-05 4.181504e-06
1.0011281e-05 5.581914e-05 5.1459415e-07 1.7049848e-06 6.4344575e-05 5.185811e-05 5.839275e-05 2.784058e-05
0.0006506581 1.5688993e-05 0.0006587219 5.2277497e-05 9.074161e-05 0.001083724 4.4564813e-06 1.5688993e-05
0.000383937 0.00030091256 0.0002989126 0.00068962516 7.623971e-33 4.295081e-33 4.6282056e-33 3.1789035e-32
4.726907e-32 3.4563169e-31 1.4994938e-33 4.295081e-33 4.7015084e-32 1.2753299e-31 3.370118e-31 1.7110523e-31
7e-43 7e-43 7e-43 7e-43 7e-43 7e-43 7e-43 7e-43
7e-43 7e-43 7e-43 7e-43 7e-43 7e-43 7e-43 7e-43
7e-43 7e-43 7e-43 7e-43 7e-43 7e-43 7e-43 7e-43
0.00016264414 1.1231592e-05 0.00015379494 3.1222935e-05 4.5047567e-05 0.00026682843 2.9582156e-06 1.1231592e-05
0.0001628759 0.000109393775 0.00012752041 0.00018195194 7e-43 7e-43 7e-43 7e-43
7e-43 7e-43 7e-43 7e-43 7e-43 7e-43 7e-43 7e-43
0.00022747631 2.4639006e-05 0.0015975802 9.6826174e-05 0.0002529512 0.0017962388 5.9137788e-06 2.4639006e-05
0.0009742494 0.0007780309 0.000987645 0.00025607896 7.996318e-05 1.9286128e-06 0.000176259 8.031508e-06
1.7726095e-05 0.00022287706 4.8030284e-07 1.9286128e-06 0.000101902995 8.2881685e-05 0.00010010019 8.842558e-05
0.0001172575 3.5493151e-06 2.7854121e-05 1.686352e-05 2.4018927e-05 0.00016951562 9.2115147e-07 3.5493151e-06
8.047154e-05 6.4488384e-05 5.671471e-05 0.00012556506 8.281643e-05 3.096005e-06 0.00010033977 8.970101e-06
1.750753e-05 8.743956e-05 9.525696e-07 3.096005e-06 7.5343756e-05 5.6329587e-05 5.9092024e-05 9.013843e-05
3.9788105e-05 2.1029643e-06 9.6764954e-05 5.4464635e-06 8.72155e-06 0.00014286707 3.0331358e-07 2.1029643e-06
1.5569682e-05 9.550132e-06 1.4043679e-05 4.327558e-05 0.00018337907 5.085429e-06 0.0002420446 1.7202203e-05
3.5649584e-05 0.00023836306 1.3819316e-06 5.085429e-06 0.00018808585 0.000170373 0.00012642384 0.00018607097
4.119773e-05 2.4229264e-06 6.198489e-05 6.017582e-06 8.501725e-06 7.899985e-05 9.351185e-07 2.4229264e-06
7.91936e-05 5.6086326e-05 5.784403e-05 4.7306192e-05 7e-43 7e-43 7e-43 7e-43
7e-43 7e-43 7e-43 7e-43 7e-43 7e-43 7e-43 7e-43
5.3623946e-05 1.2360202e-06 0.00014906234 4.2158563e-06 1.4553153e-05 9.198174e-05 5.390306e-07 1.2360202e-06
0.00013990406 0.00012969744 0.00011215145 5.3645046e-05 0.0 0.0 0.0 0.0
0.0 0.0 0.0 0.0 0.0 0.0 0.0 0.0
0.00048676037 5.241103e-06 0.000644714 2.0988875e-05 7.251552e-05 0.00042054633 7.854093e-07 5.241103e-06
8.098644e-05 7.944907e-05 2.3974837e-07 0.00048685155 0.00018766984 4.4407616e-06 7e-43 2.4655228e-05
4.4478857e-05 0.00043904886 8.291556e-07 4.4407616e-06 0.00010746086 8.4721425e-05 9.4568146e-05 0.00019642535
4.413e-06 1.2984436e-06 5.9422302e-05 4.695135e-06 7.498383e-06 0.00010962119 4.3659162e-07 1.2984436e-06
3.9731374e-05 4.737425e-05 4.0115814e-05 3.9937686e-06 0.0065133786 7.860082e-05 0.0059518577 0.0003854935

exp_avg f4 [64]
00000000: b577 4b3a 74e4 81ba 8df0 8cba 0400 0000
00000010: 0400 0000 0400 0000 00be bcba 0400 0000
00000020: c505 9c3b 0a5a 54ba eba5 02bb ec68 b9ba
00000030: 7c44 2dba 9ffd 03bb 4dde 3b3b 0400 0000
00000040: 05f5 39bb 0000 0000 8b98 5dbb b9ef c7ba
00000050: b7c2 63b9 cf34 4f3b 0486 a6bb 2919 f639
00000060: f836 81bb 8999 e3bb 2eaf 45bb 0400 0000
00000070: a577 193a b8bd cf38 5ec5 50bb 3fd9 06bc
00000080: d77d 62b9 bdf5 283b fca1 c33a ad6d 16bc
00000090: 0964 36bb 0400 0000 c96b 5dbb 5bfe 95bb
000000a0: 0180 ae3b 0000 0000 3a14 e7b9 0400 0000
000000b0: 0400 0000 922b 3dbb 0400 0000 bd9d 4bbb
000000c0: 1f2a 053b c614 573b 706a fcba 0721 35bb
000000d0: 8642 d9bb 9f02 13bb c09b 15bb 1be3 b33a
000000e0: 0000 0000 36e6 eb3b 0400 0000 cda6 3c3c
000000f0: 091e c5ba 0400 0000 4c97 65bc 8daa 0c39
0.0007761673 -0.0009910003 -0.0010752842 6e-45 6e-45 6e-45 -0.0014399886 6e-45
0.00476143 -0.0008100575 -0.001993532 -0.0014145649 -0.0006609631 -0.0020140184 0.0028666437 6e-45
-0.0028374803 0.0 -0.0033812847 -0.0015253938 -0.00021720944 0.003161717 -0.005081894 0.00046939522
-0.0039433204 -0.006945793 -0.003016423 6e-45 0.0005854315 9.905867e-05 -0.0031855921 -0.008230506
-0.00021599919 0.0025781237 0.0014925594 -0.009181422 -0.0027830622 6e-45 -0.0033786169 -0.0045774407
0.005325318 0.0 -0.00044074823 6e-45 6e-45 -0.0028865081 6e-45 -0.003106936
0.0020319296 0.0032818778 -0.0019257795 -0.0027638094 -0.0066302447 -0.0022431982 -0.002282843 0.0013724299
0.0 0.007199074 6e-45 0.011514378 -0.0015038858 6e-45 -0.014013123 0.00013414976

exp_avg_sq f4 [64]
00000000: b975 4338 450c ec38 ac50 cb3a 3954 e20c
00000010: f401 0000 f401 0000 b705 d739 f401 0000
00000020: fe95 523b 22fc a539 5b36 8939 b43a 3139
00000030: 49b7 2b39 8b8d e039 51df f138 f401 0000
00000040: 8eb6 4339 0000 0000 10c0 6a3a bc19 243a
00000050: b6b2 0b39 3957 773c 816c 1c3b 37ef d237
00000060: 411a 0f3a 78a8 743a 9b45 803a f401 0000
00000070: ef1c 6839 dac8 cf39 6498 0f3a c9a3 873b
00000080: d707 ac38 18e5 0b3a 40ae 5f39 1f6c 543b
00000090: 4aa3 0839 f401 0000 6e16 313a 8442 913b
000000a0: 8b32 8139 0000 0000 662f 013b f401 0000
000000b0: f401 0000 4a0f 0f3b f401 0000 56bd bc3a
000000c0: 036c 003a 4aab cb3a ac1b eb38 4bee 053a
000000d0: 5192 373b f92a e138 6cc4 5139 59d5 0139
000000e0: 0000 0000 559e 2b3b f401 0000 301b b53a
000000f0: 8dcc f139 f401 0000 ff34 833b 2590 6239
4.660126e-05 0.00011255642 0.0015511713 3.4871503e-31 7e-43 7e-43 0.00041012253 7e-43
0.003213286 0.00031659106 0.00026171174 0.00016901904 0.0001637611 0.00042830067 0.000115333714 7e-43
0.00018664656 0.0 0.0008955011 0.0006259938 0.00013322648 0.015096479 0.0023868384 2.5145344e-05
0.0005458929 0.0009332965 0.0009786369 7e-43 0.00022136023 0.00039631763 0.0005477725 0.0041393978
8.2030594e-05 0.0005336567 0.0002133185 0.0032413078 0.000130308 7e-43 0.00067553564 0.004432978
0.00024642455 0.0 0.001971209 7e-43 7e-43 0.0021829181 7e-43 0.0014399688
0.00048989075 0.0015538719 0.000112108275 0.0005109056 0.0028010795 0.0001073684 0.00020004966 0.00012381877
0.0 0.0026186903 7e-43 0.0013817307 0.00046119504 7e-43 0.0040041204 0.00021606738
