models/checkpoint_50000.pt (torch, 125817 bytes, 33 tensors)

shared.0.weight f4 [64, 12]
00000000: 8297 3abe be95 4e3e ca20 563e 7260 d23e
00000010: fb31 f3bd 548e 35be f1ec bf3c 6cdd b13c
00000020: cfb7 ec3c bdbc 913d 115e 2b3d 18a0 d93d
00000030: b450 483b 728e ff3d 2ef3 44be 0bc2 dd3e
00000040: 0f0e d0bc 76c5 c7bd f054 963e 7856 b43e
00000050: 5d9c 923d 50bf 6ebc eb6d b13b 4fff c33c
00000060: e6a9 1b3d 0a62 78be 0e4c 793c 1c2f 37be
00000070: 65df 39be 58cf 583d 027c afbd c2ef 4dbe
00000080: 804a 47be 4c2e edbc ccfd e73d 640e ab3d
00000090: 0e94 c9bd 390e b8be d286 e2bd ce83 963d
000000a0: 9e58 64bd ef4f 143e 129b c83d 82e9 01bd
000000b0: ad00 1fbe 2eae ca3c 2e74 0b3e 9af0 703d
000000c0: 652b 6c3e 3e9a c2be 3c5c 073e 13d2 eebe
000000d0: a803 31be 6069 aa3d e7f0 d0be 613d 6dbe
000000e0: c1fe fc3d ad81 4b3e 53c9 f0bd d120 0cbe
000000f0: 293f d6bd a432 18be 7a91 9bbd ef26 aebd
00000100: d6e0 adbc b8b4 0c3e 9b04 5bbe 9e24 57be
00000110: fc3f 1ebd 79ea 99bc 6408 84bd d0d6 553e
00000120: 37e0 b7bd c51a 913e 2b36 643d 0878 723e
00000130: 14c0 62be 65d5 e5bd bc99 423e db8e 753d
00000140: f438 2a3e 9747 543d efd4 86bd 603e 123e
00000150: 14ec 2f3e 6b55 71be 5693 db3d 8bd5 49be
00000160: 3e20 a6be f8ad 5bbc fbbc 98be c7ca 04be
00000170: f648 553d d818 43be af27 1a3e 98ed 213e
00000180: cd5e 38be f6e6 1dbe 73f2 ce3c 5364 1bbd
00000190: cc0d 873e ad1f c13d 5445 17bf d2b8 67bd
000001a0: f4a1 403e 6b4c 313e ffac e7bc 1a8c cabe
000001b0: 2fc1 a53d aaf4 5e3e 256b e93d 17e9 6b3d
000001c0: 8ebb 51be 899d 6a3d 8f7e bdbe 5a13 8b3d
000001d0: 5cb2 15be c949 cebb 9631 5dbd ae7f 8fbe
000001e0: 966e e0bd 4b5f 633e dd4a cbbc 3502 a33e
000001f0: a4a8 93be cb23 b4bd e10e c63d 08b5 913d
00000200: 0fd7 ad3d a0ce 4d3d 603e 043e 994e 4c3e
00000210: 81e7 7dbe 8b61 b73e 7940 0c3e 7c5c fb3e
00000220: 48bc 18be 4d21 f5bd d211 9a3e ccb2 7a3e
00000230: f3e0 0c3e e680 09bd 77e7 1c3e 3951 3e3e
00000240: fa3c 22be f419 ab3e 3da4 cdbc 5c5d 943e
00000250: d15b 31be 8167 8c3e 6189 383e 81e9 853d
00000260: 5b7c b63c 1fdb cabd 6201 9ebd 0ca0 ad3d
00000270: 9021 92be bd23 4c3d f1fd 8dbd 724c 483e
00000280: 9387 113d 2c10 f63d 9393 c63e d3c5 943e
00000290: a35c ea3d 4d95 7fbe 92cd a33d bfc3 9d3e
000002a0: 4fe4 9dbd 269b 213d 7f8e 1ebe 2a0f a63e
000002b0: 4789 e8be f991 e43d 3e1d 343e 4c94 5bbd
000002c0: 1da8 753d c76c 96bc 668c 8f3e 0f25 523e
000002d0: f8a5 f4bc 32ed 49be a6c2 213e 00a6 25bd
000002e0: 5d27 a8be 5971 65bd 4974 d3bc 0b36 e7bd
000002f0: c89c 7b3e e326 a03b 3fa5 133e 4b1d f4bc
00000300: 655b 01be b3c9 6a3e bfa9 a7ba 860f a63e
00000310: 438a 15be 7cc7 cf3a 97e4 2b3e 52a1 023f
00000320: c2fb fdbd 1443 0fbd e3c4 2d3d 5d82 6a3e
00000330: 5e0c 993c 7003 823c bade 24be 6c18 8ebd
00000340: 45a9 1abe 835a 15bd 7bf6 303d 3b36 65bd
00000350: 06ab 86bd c762 c5bd 31c7 96bd 38ed 01bd
00000360: 0d0c 2dbe aa3e 813e ca03 103e 738e 3a3e
00000370: 80f1 253c 81df a83d 1974 de3d b093 8c3e
00000380: c3bf 2e3c c5c4 a53d 7198 d4be f864 21be
00000390: 52ae 7d3e 3b90 9fbe b727 01bf da12 a93e
000003a0: d4fd ca3d 2fc9 acbd 55ff b0be 92bc 81be
000003b0: 4fe1 5f3d 7aca c53d 3500 23be 6df3 fbbd
000003c0: 9d5c 023e ced6 01be 41df 67be 819e 5abd
000003d0: 881b b3be 00db 9b3e e535 98bd 143d 8fbd
000003e0: 26ee 3bbb 189b a43e 8ac6 56bc a5c0 64be
000003f0: 2101 803e 3186 33bf 3872 0c3d 90aa 2cbf
-0.18221858 0.2017431 0.20910946 0.41089207 -0.118747674 -0.17730075 0.023428412 0.021712027
0.02889624 0.07116077 0.041837756 0.106262386 0.003056568 0.12478341 -0.1923339 0.43312106
-0.025397329 -0.097544596 0.29361677 0.3522222 0.0715873 -0.01457198 0.0054147146 0.023925452
0.038003825 -0.24256149 0.015215887 -0.17889065 -0.18151625 0.052932113 -0.085685745 -0.20110992
-0.19462013 -0.02895274 0.11327705 0.08352354 -0.09842692 -0.3594835 -0.11060871 0.073493585
-0.055748574 0.14483617 0.09795202 -0.03171683 -0.15527602 0.024741258 0.13618538 0.058823206
0.23063429 -0.38008302 0.13218778 -0.4664465 -0.17286551 0.0832088 -0.40808794 -0.23167945
0.12353278 0.19873686 -0.117571495 -0.13684393 -0.104612656 -0.14863068 -0.07596107 -0.0850352
-0.021225374 0.13740814 -0.21388476 -0.21010062 -0.03863524 -0.018788563 -0.06446913 0.20882726
-0.089783125 0.28340736 0.05571572 0.23678601 -0.22143584 -0.112223424 0.19003958 0.05995069
0.16623288 0.051826086 -0.065835826 0.14281607 0.171799 -0.2356774 0.107214615 -0.19710366
-0.32446474 -0.013408177 -0.2983168 -0.12967978 0.052071534 -0.19052446 0.150542 0.15813291
-0.18004914 -0.15420136 0.025262093 -0.037937474 0.26377714 0.0942987 -0.5909016 -0.056572743
0.1881178 0.17314307 -0.028280733 -0.39560014 0.080934875 0.2177302 0.11397389 0.05759534
-0.20481703 0.057279143 -0.3701062 0.067908004 -0.1461882 -0.006295417 -0.054002367 -0.280271
-0.109585926 0.2220432 -0.024815971 0.3183762 -0.288396 -0.087958895 0.09670807 0.07114607
0.08488285 0.05024588 0.12914419 0.19951858 -0.24795343 0.35816607 0.1369647 0.49093997
-0.14915574 -0.11969242 0.3009172 0.24482268 0.13757686 -0.033570193 0.15322672 0.18585671
-0.15843573 0.33418238 -0.025102729 0.28977478 -0.17320181 0.27422717 0.18021156 0.06538678
0.022276094 -0.09905075 -0.077151075 0.08477792 -0.2854123 0.04983877 -0.06933201 0.19560412
0.035529684 0.12014803 0.38784465 0.29057178 0.1144345 -0.24959297 0.07998194 0.30813405
-0.07709562 0.0394546 -0.15484045 0.32433444 -0.45417234 0.111606546 0.1758928 -0.053608224
0.05997478 -0.018362416 0.28036803 0.20521949 -0.029864296 -0.19719389 0.15796909 -0.040441513
-0.32842532 -0.0560163 -0.025812285 -0.11289605 0.24571526 0.004887448 0.14418505 -0.029799124
-0.1263252 0.22928505 -0.0012791677 0.32433718 -0.14603524 0.0015852298 0.16786419 0.51027405
-0.124015346 -0.03497608 0.042424094 0.22901292 0.018682655 0.01587078 -0.16100588 -0.06938252
-0.15103634 -0.03646327 0.043203812 -0.05595992 -0.06575589 -0.09637981 -0.073622115 -0.03172037
-0.16899128 0.2524312 0.14063945 0.18218403 0.010128379 0.08245755 0.108619876 0.27456427
0.010665837 0.080941714 -0.41522554 -0.15761173 0.24773529 -0.31164727 -0.50451225 0.33022195
0.09911695 -0.0843681 -0.34569803 -0.2533918 0.05465823 0.0965776 -0.15918048 -0.12302289
0.12730642 -0.12679598 -0.22643758 -0.053373817 -0.34981942 0.3044052 -0.074321546 -0.069940716
-0.0028675883 0.32149577 -0.013108859 -0.22339113 0.2500086 -0.70126635 0.034288615 -0.6744776

shared.0.bias f4 [64]
00000000: 5a1e 193e 08f3 733e 03ee 5a3e 3be2 b23d
00000010: 02f7 5e3e dd97 6b3e acc7 ff3d 98b9 333e
00000020: 535d c53d 6fe7 e83d ae77 303e 8d89 e43d
00000030: 256c 493e caa9 1e3e 08e9 923d 093e f13d
00000040: 4271 373e 0000 0000 9c4c f73d 386a 243e
00000050: 0142 a13d 594f 763e a49c bf3d cedb ab3c
00000060: 7560 6e3e 287e 4f3e f4ce 573e 0000 0000
00000070: 0e88 393e 264b e03d 87da 7f3e 9039 263e
00000080: cee4 693e 83d8 613d 60e3 353e 908b 053e
00000090: ad0a 6e3e 7e58 393e a9af 883e 8bb6 473e
000000a0: 168c 4c3e 0000 0000 620f 883e ffe2 5fbd
000000b0: 71e6 473e 4610 853e 1553 3d3e 8943 3c3e
000000c0: eec1 433e 19b2 403e b3df ea3d 505d cf3d
000000d0: 618d 833e dc05 343e 8d22 673e 44bc 7a3e
000000e0: 0000 0000 17bd 293e 1e5b afbd d9ec 273e
000000f0: 53f1 213e 4fc9 3f3e eea9 173e ec0a 0c3e
0.14952984 0.23823178 0.21379857 0.08734556 0.21773914 0.2300715 0.12489256 0.17551267
0.09636941 0.113722675 0.17233154 0.11159048 0.1967016 0.15494457 0.071733534 0.117794104
0.17914298 0.0 0.12075159 0.16056144 0.07873917 0.24053706 0.09356049 0.020978834
0.23278983 0.20262969 0.2107504 0.0 0.18118307 0.109518334 0.24985705 0.16232896
0.22841188 0.055138122 0.17762518 0.1304152 0.2324626 0.18100163 0.26696518 0.19503228
0.19975314 0.0 0.26574236 -0.05465984 0.195215 0.25988978 0.18488725 0.18385138
0.19116947 0.18817939 0.114684485 0.1012522 0.256938 0.1758036 0.22571774 0.2448588
0.0 0.16576038 -0.08562301 0.16398944 0.15814714 0.18729137 0.14810917 0.13676041

shared.2.weight f4 [64, 64]
00000000: 7b92 ec3d 4e7b 153e 3018 e23d affc 813e
00000010: 6a07 873e 4859 c23c e05d 3d3d 0570 0a3e
00000020: 746e aabe b366 863e b36e 9a3e 81d8 543e
00000030: 6c90 8ebd b0a4 85bd 7af5 e03d c0be 08be
00000040: ef99 ee3d ff46 863d ad29 02bd 644a 2f3e
00000050: 5138 72bc 81d9 0dbd a589 fc3e ae11 05be
00000060: ca13 133c 0b54 2b3e 40fb 573e 09db 153e
00000070: fd8b 993e 2a77 3abe 5f67 b13d 326f a13c
00000080: 61db 453e e180 013e 5b5f 1fbe 0eca 183f
00000090: 4091 283e b232 ac3d 4016 ccbd 555a 2c3e
000000a0: 3996 2f3e df61 09be 3e9b 633e d877 0fbf
000000b0: bd75 803e bedc a83e 1c75 433d 8d80 4abd
000000c0: 8e17 1f3e b673 543e f1cf 093e dfb5 38bd
000000d0: e73a 183e cec8 e03d 67f4 0a3d a024 c83e
000000e0: 8509 083e ede7 4bbd 58c4 a33d 00a5 66bd
000000f0: 0e81 833e 4f13 393e 0ec8 ca3d 6b81 0fbc
00000100: e15e fa3d 967f 203d af13 0abe f222 6abd
00000110: a24f 883e d297 db3d e046 253d 7261 4f3d
00000120: c238 52be 3a66 4a3e 5d94 273e 4f3b 4b3d
00000130: 2351 183e 59d8 e8bc 023b 413e 9af9 9d3e
00000140: 4269 1b3e 65e7 163d 8304 9b3e 5bb1 5b3e
00000150: 0ccb 01bd 2f57 84bd d657 c03e 4e02 81bd
00000160: f60c 1a3e bbb8 cd3d 1b8b b73e b853 15bd
00000170: ca78 78bc 862b d8bd b0c8 2a3e 578e 643e
00000180: 1143 7c3d de9d af3e 3069 3b3e 1584 b53e
00000190: 60a9 efbd 4f34 dc3e 82ce a2ba 7577 2dbd
000001a0: 0820 9ebc f8a1 e3bd b607 8bbd 1ffc 32bf
000001b0: ab4f 063e 9023 dc3d dc70 1cbd 536d 193e
000001c0: 9395 cc3d 02c7 193e 279e b93a 5520 8cbc
000001d0: 91ef 013d a148 6b3d 32e3 003e 9655 a53b
000001e0: 650e 2d3d ce74 283e 1f5b c23d 0f0e 173e
000001f0: aece a73e e4ed 49bd 6a0e 263d 1524 16be
00000200: c733 11be 51dd e8bd 4c7a 103e 4a03 223e
00000210: 10d4 1abc 0a5c 08be 091f e9bb 9fd3 ec3d
00000220: 5e08 48be f34d 083e 15d3 26bd 5eba 583c
00000230: fb30 0d3e 56c6 393e c1da ec3d c5f6 9fbc
00000240: b8b7 163e 96fb a63d ec4a f139 263c aebb
00000250: e0f4 313e 79b8 94bd 6025 9a3c 97be 30be
00000260: 2ba1 b13e e8a1 693e de51 ad3d fdd9 8fbd
00000270: 2e18 743e c805 2cbe c1c5 0a3e de07 b83e
00000280: b341 523e ac13 063e e901 053e 859b 073f
00000290: d5ca ef3d bc01 693d 0016 d63d 025d 133d
000002a0: 33df c63e 4138 adbd 898b 01bd e3e4 98be
000002b0: 0b94 ca3d b378 35bc bcb2 2dbe a9b6 e73d
000002c0: e824 bd3b 0818 9e3d 1504 473c 56d4 4f3c
000002d0: 85c6 5a3e 233e 863d 1cf7 9b3e 4d88 803e
000002e0: 81b5 453e d410 4f3e b3e1 d7bd 6244 1d3d
000002f0: bff1 983e b004 483d 0e3c 063e 028a 4c3d
00000300: 3e4f 613e 7fdb 913e e23c 813e 016b 72bc
00000310: 88c8 b1bd e302 d4bd 3228 a83d ae79 343e
00000320: 6fb6 85bc 9793 943e 8f54 b73e e943 51bb
00000330: d516 f7bd 182f 763d 81ff 3a3e 7b7f 7e3d
00000340: c52d a7bc d192 2c3e 5c6d 423e e6eb 07bc
00000350: eb06 893e ad39 58bd 0cba f53e 2b43 1fbe
00000360: 632d 863e f796 3f3e 3a41 a5bc 9937 d8bd
00000370: 0d65 7fbc ff26 573d 2c95 773e 767a cebc
00000380: b40d 7a3e 1d82 833c c769 553e 04d4 093f
00000390: 6e35 103d 6b3c 2f3e 3860 213d 1389 b0bc
000003a0: c0f5 9b3d 6a4e 2abe 27c4 63bd 6bfd 29bf
000003b0: 65d1 f2bd 7f68 323e 9405 e7bd e449 d1bd
000003c0: d700 efb8 9a3e 723e 30c5 aa3b ffd7 8a3d
000003d0: b024 f4bc 86d4 343e 44a7 8c3e dc26 d43e
000003e0: 2a19 0abe 87aa 5a3e 9aee 43be ba49 443e
000003f0: fd5a 3a3e 2701 fb3d 24b2 4dbd 1508 ee3d
0.115513764 0.14597818 0.1103977 0.25388095 0.26372844 0.023724213 0.046232104 0.13519295
-0.33287394 0.26250228 0.30162582 0.20785715 -0.0696114 -0.06525552 0.10984321 -0.13354015
0.11650454 0.0655651 -0.031778026 0.17118222 -0.014783935 -0.034631256 0.49323764 -0.12995026
0.008976886 0.16731279 0.21091938 0.14634337 0.29989615 -0.1820952 0.086622946 0.019706342
0.19321968 0.1264682 -0.15563719 0.5968331 0.16461658 0.08408107 -0.09965181 0.16831334
0.17147149 -0.13416241 0.22227189 -0.5604224 0.25089827 0.32980913 0.047719106 -0.049439
0.15536329 0.20747265 0.1345823 -0.04509532 0.1486622 0.109758005 0.033924486 0.39090443
0.13284881 -0.04978173 0.07996434 -0.0563097 0.25684398 0.18073772 0.09901439 -0.008758883
0.12225128 0.039184175 -0.13484071 -0.057162233 0.26623255 0.10722317 0.040350795 0.05063004
-0.20529464 0.19765559 0.1636519 0.049617108 0.14874701 -0.028423475 0.18870166 0.30854493
0.15176871 0.03684177 0.3027688 0.21454374 -0.03168778 -0.064619415 0.37567014 -0.06299268
0.15044007 0.10045 0.35848317 -0.036456794 -0.015165517 -0.105551764 0.16678119 0.22319923
0.061587397 0.3430013 0.18301845 0.35452333 -0.117022276 0.43008658 -0.0012421163 -0.04235025
-0.019302383 -0.111148775 -0.0678858 -0.69915956 0.13116328 0.107489705 -0.03819357 0.1498311
0.099894665 0.15017322 0.0014161513 -0.01710526 0.03172261 0.05744231 0.12586668 0.005045603
0.042250056 0.16450807 0.09490036 0.14751457 0.32774872 -0.049299136 0.04054109 -0.14662202
-0.14179908 -0.11370338 0.14109153 0.15821567 -0.009449974 -0.1331636 -0.0071142954 0.11563801
-0.19534442 0.13310985 -0.040728647 0.013228027 0.13788216 0.18142065 0.115651615 -0.019526849
0.1471852 0.08153455 0.00046022923 -0.005317229 0.17378569 -0.07261748 0.01881665 -0.17260204
0.34693274 0.22815669 0.084628806 -0.07024 0.23837349 -0.1679908 0.13552 0.35943502
0.20532875 0.13093442 0.1298901 0.5297168 0.11708609 0.05688642 0.10453415 0.03597737
0.38842162 -0.08457995 -0.03162721 -0.29862127 0.09891518 -0.01107614 -0.16962713 0.113141365
0.005772222 0.07719427 0.012146969 0.012684902 0.21364792 0.065548204 0.30461967 0.2510399
0.1930752 0.20221263 -0.105410956 0.038395293 0.29871938 0.048832595 0.13108847 0.049936302
0.22002885 0.28487775 0.25241762 -0.0147960195 -0.086808264 -0.10352113 0.08210792 0.17624542
-0.016322343 0.29018852 0.358067 -0.0031931347 -0.12064902 0.060103506 0.1826153 0.062133294
-0.020407567 0.16852881 0.1898703 -0.008295989 0.2676309 -0.05278938 0.47993505 -0.15552966
0.26206502 0.18709932 -0.020172704 -0.105574794 -0.015588057 0.052527424 0.24177998 -0.025204878
0.2441929 0.016053254 0.20841132 0.53839135 0.035207205 0.17112891 0.039398402 -0.021549737
0.076152325 -0.16631475 -0.055606987 -0.6640231 -0.11856345 0.17422675 -0.11280361 -0.10219172
-0.000113965645 0.23656693 0.005211495 0.06779479 -0.02980265 0.17659196 0.27471364 0.41435897
-0.13486162 0.21354114 -0.19133988 0.1916875 0.18198772 0.12256079 -0.050218716 0.11622635

shared.2.bias f4 [64]
00000000: 4d09 ac3d 276a df3d 8f09 d03d 53d7 a03d
00000010: 5eb7 8e3d 25f2 333d d5c6 a2bc 0000 0000
00000020: 9ed2 31bd 6cd3 133e 753c f53d 55df d73d
00000030: a2c9 ba3d 2313 153e e11e 073e 2b4b 86bc
00000040: 08fb 60bc 8e72 a4bc 8a3d 213e 0ddb ff3d
00000050: a610 d83d 0000 0000 0284 e23d 9640 103e
00000060: de60 1d3e e7cc 183e e053 233e 9753 1a3e
00000070: 10b7 89bc 0168 283e 554c f43d 42f2 0f3e
00000080: 16ac 143e c856 f73d 6044 cc3d e26d 103e
00000090: 956d fb3d ca69 2a3e f121 ec3d 1ada 383e
000000a0: 8e1c 2bbc bce0 1b3d b0ec 023e 52f4 203e
000000b0: 0000 0000 caca c3bc 016a 093e d86f c53d
000000c0: 62a4 013e 8ce2 f03d 4872 c33d 5083 eb3d
000000d0: d410 2f3e 805f 0f3e 3d9a f53d f650 c2bc
000000e0: 8761 543e e21d 50ba d5bd 2e3e 2d0e 163e
000000f0: 67ca 863d 3793 423e dcdb 943d 5eb5 1d3e
0.084002115 0.10908919 0.10158073 0.0785357 0.06968568 0.0439321 -0.019870201 0.0
-0.04341375 0.1443612 0.11974422 0.10540644 0.0912049 0.14558081 0.13195373 -0.016393265
-0.0137317255 -0.020074155 0.15746132 0.124929525 0.105500504 0.0 0.11060335 0.14087138
0.15368983 0.14921914 0.15949965 0.1507095 -0.016810924 0.16445924 0.11928622 0.14057258
0.1451877 0.12077099 0.09973979 0.14104417 0.122767605 0.16641918 0.11529911 0.18051949
-0.01044382 0.03805612 0.12785602 0.15718201 0.0 -0.023900408 0.13419344 0.09640473
0.12660363 0.117619604 0.09543282 0.11499655 0.17096263 0.14001274 0.11992309 -0.023720246
0.20740329 -0.0007939023 0.17064603 0.14653845 0.06581574 0.1900147 0.07268497 0.15401217

actor.0.weight f4 [32, 64]
00000000: 0569 90bd 3acb 53be 0b1d b6bd db99 d3bd
00000010: e653 4c3d 3c53 353e 9321 45be 275d 12be
00000020: 2beb d33d 35cb 0e3e c83c 55be 5c18 df3d
00000030: 48cd dd3d d743 c13c a012 2b3d 6b94 90bd
00000040: 80a9 8b3d fdcb d43d cd8c 68bc ad1e 51be
00000050: 8bc1 f43c e498 17be c418 ee3d 421a 673c
00000060: 84c1 e43b 1f08 b5bd 2b47 1d3d 9cc6 b4bd
00000070: 40f6 48bc d1a1 95be 0ab5 3cbd bec3 acbe
00000080: 895f 773d fd3d c5bd 1ca1 d13d 3700 093e
00000090: 5ef7 05be 2ea1 11be 6051 84be 6ba8 b3bd
000000a0: 3649 6dbb bed1 cf3d 344a 5ebc 2695 89be
000000b0: 5b9e bb3c f502 443d ceeb 453d 5238 ad39
000000c0: 592e c4bd 7b6a 88bc ce69 19be 67d5 74bd
000000d0: 7348 04be b008 ee3d e511 07bd 8919 b5bd
000000e0: 3b4d 603e 2ba4 5cbe 2a58 80bd ab98 77bd
000000f0: 2e49 533d c619 fabb 81d6 2e3c 839c c8bc
00000100: 476c 11bd 1587 3c3e 9668 c5bc e6ea b13c
00000110: e994 9b3e b645 eabc b132 0e3a 8906 9b3d
00000120: a816 d0bd 9a34 17ba 82ed 9c3d b611 f03d
00000130: ad1e 0cbe 7eb8 fdbd 59f3 c53d 1d95 e83d
00000140: e8e4 dbbe 94b4 953d 9a85 b9bd e392 1fbd
00000150: 3d7a 9a3c ff3c dabd 0846 9d3d f5de debc
00000160: 5f64 91bd 4fb8 3c3c 50af 023d 7b7d 923e
00000170: b18f 0a3e e899 663e fb59 1b3d 317a 563c
00000180: 7c4d 4f3d 41b2 c23b 9ef0 2f3d 58e7 b7bd
00000190: 1fd3 19be dc38 93bb b05d 64be da54 42bd
000001a0: d548 153e 96ee 493e 3456 223d fc8d bebd
000001b0: 0648 85bd 492c 003e 0b15 cfbb 875a 26bc
000001c0: cf6b 053e 32c8 2ebe 08db 51bd 4fc4 81be
000001d0: 555c 09be 1a94 ccbd 0c31 14be 53ed 823c
000001e0: 04bc 49bd c7e9 a2bd b59e 833c 4553 48be
000001f0: 11f2 2b3b 8b44 a0bd 019a 03bc b60a e23d
00000200: b84f 923d d58c 6bbd 1d78 293e fd16 583d
00000210: 7816 12bd 40e4 963e 5cff bbbc 4da3 843d
00000220: ec1c a43b ed52 6fbe 7d1a 0fbe 37da ac3d
00000230: 9249 3ebe 701d 61be 5d41 a6bd a3a4 0ebc
00000240: 3e6a 923d 94f0 3bbd 714c 603d ef34 723e
00000250: 8125 09bc eb10 8abc 2d7c 28bd f908 cd3b
00000260: 55e2 b93b 1985 c9bc 642f b43d b0da c1bc
00000270: 9ff6 cd3d e1a7 53be e020 f2bd bc77 26be
00000280: 6bb2 033e a31b d7bc c801 97bd bedc 4dbe
00000290: c239 853d 2553 2c3e 13e3 4fbe e4fe 413d
000002a0: f30e ecbc 0108 a6bb 288a 7cbd b733 133e
000002b0: 82b6 8cbd a9b7 393c 674e 68bd 9c33 3c3e
000002c0: e504 c6bd b12c f53d 2dd3 4abd 37ad 8dbe
000002d0: df0f a33d 254c 02bd 0f2b 7bbe b74b 58bd
000002e0: 30fc 3a3d d3bb 603d 4651 883d 52b0 cc3d
000002f0: 856d cfbd f541 d53b d681 883e cb53 5f3e
00000300: eddf cabd 2d35 9abd 4f27 4b3d b980 d4bd
00000310: 3c17 d43d e79d 173d 64df a53d a5c7 0a3e
00000320: 9a34 103e fe8a 2ebe d751 e03d 8adf f23c
00000330: 550f f9bd be08 903d 1720 4e3d 9151 41be
00000340: 051e 533d 8aa7 c9bc 0773 693c 5431 83bd
00000350: 2571 403d 9159 7dbd 756d 963d 1cdb 243e
00000360: 3b5c cdbd 913b d4bd 43f9 903d 515d 843e
00000370: 849e 90bd 4e16 2cbd cda3 c53d 5480 453e
00000380: eda3 0b3c 4896 f9bd b59c 1e3d 128d 833b
00000390: d810 82bd 2d6a 53be a3f8 d7bc d537 5cbe
000003a0: 4530 113e 942b 13be 9aed 2fbe c146 7bbd
000003b0: 7a8f 4b3d a76f c83d 15fd 3a3e b65c 6ebd
000003c0: 2bf0 72be 48ac e33b e58b 97bd 40a0 993d
000003d0: 1ab0 043e 5706 3ebe 9b28 b9bd d421 4ebe
000003e0: 6de0 d1bc 85f6 6a3d 0499 bc3e 190c 883e
000003f0: 765a 3fbd 314f 743c 2094 90bd 710e 9fbd
-0.07051281 -0.20682994 -0.08892258 -0.1033208 0.0498847 0.17707533 -0.19251089 -0.14293347
0.10347589 0.13944705 -0.20823967 0.10893318 0.1083017 0.023591919 0.04176581 -0.070595585
0.06819439 0.1039047 -0.014193726 -0.20421858 0.029877445 -0.14804417 0.116258174 0.014105381
0.0069810767 -0.088394396 0.03839795 -0.08826944 -0.012265742 -0.2922502 -0.04607109 -0.3374309
0.060393844 -0.09630964 0.10235807 0.13378988 -0.13082644 -0.14221641 -0.25843334 -0.087723576
-0.0036206967 0.10147427 -0.013567496 -0.26871604 0.022902658 0.047854383 0.048320584 0.00033039093
-0.095791526 -0.016652336 -0.14981768 -0.05977383 -0.12918262 0.11622751 -0.03297605 -0.08842761
0.21904461 -0.21547 -0.06266816 -0.06044833 0.05158346 -0.007632467 0.010671259 -0.024488693
-0.035503652 0.18410905 -0.024097722 0.021718454 0.30387047 -0.028597694 0.0005424424 0.07569606
-0.10160571 -0.0005768031 0.076624885 0.11722128 -0.13683577 -0.12388705 0.096655555 0.11356566
-0.4294808 0.07309833 -0.090586856 -0.03895844 0.018857116 -0.10656165 0.07679373 -0.027205924
-0.070992224 0.011518552 0.031905472 0.2861136 0.13531376 0.22519648 0.03792761 0.013090656
0.050611004 0.0059416597 0.04295408 -0.08979672 -0.15021943 -0.004492862 -0.22301364 -0.047444202
0.14578564 0.1971992 0.03963299 -0.09304425 -0.06507878 0.12516893 -0.006319647 -0.010153419
0.13029407 -0.17068556 -0.051234275 -0.25345084 -0.13414128 -0.09989186 -0.14471835 0.015982306
-0.04925157 -0.07954746 0.016066888 -0.19563015 0.0026236812 -0.078255735 -0.008032323 0.11037199
0.071441114 -0.057507355 0.16549726 0.0527563 -0.03566596 0.29471016 -0.022948913 0.0647646
0.0050083306 -0.23371477 -0.13974948 0.08440059 -0.18582752 -0.21983886 -0.08117936 -0.008706245
0.0714917 -0.04588373 0.0547604 0.23653005 -0.008370758 -0.01685377 -0.04113405 0.006257173
0.005672733 -0.024599599 0.087981015 -0.023663849 0.10056805 -0.2066951 -0.11822677 -0.16256613
0.1286103 -0.026258295 -0.073733866 -0.20103738 0.06505157 0.16828592 -0.20301466 0.047362223
-0.028815722 -0.005066872 -0.061655194 0.14375196 -0.06870748 0.011335292 -0.056715395 0.18379062
-0.09668902 0.11971415 -0.0495178 -0.27671215 0.079620115 -0.0318109 -0.24528144 -0.052806582
0.04565066 0.054866623 0.06656127 0.09994568 -0.10128311 0.006508107 0.26661557 0.21809308
-0.09905992 -0.07529674 0.049598034 -0.103761144 0.10355994 0.03701582 0.08099249 0.13552721
0.14082566 -0.17045209 0.1095311 0.029647607 -0.121611275 0.070329174 0.050323572 -0.18878771
0.0515423 -0.024616022 0.014248616 -0.06405893 0.046982903 -0.061852995 0.07345096 0.16099209
-0.10027357 -0.10362924 0.07078793 0.25852445 -0.070614845 -0.04201346 0.09650383 0.19287235
0.00852297 -0.12186867 0.038723666 0.0040146196 -0.06350869 -0.20645972 -0.026363676 -0.21505673
0.1417857 -0.14372092 -0.17180482 -0.061346773 0.049697377 0.09786921 0.18260606 -0.058193885
-0.2372443 0.0069480278 -0.0739973 0.075012684 0.12957802 -0.18557106 -0.09040948 -0.20130092
-0.02561971 0.057364006 0.36835492 0.2657173 -0.04671713 0.014911459 -0.070595026 -0.07766426

actor.0.bias f4 [32]
00000000: 6f13 4839 09ba 77bb 4928 9dbc f655 6cba
00000010: 169d 07bc 2634 36bb 6cbf e1bc bd56 f2bc
00000020: 429e 2d3d ee02 183d a168 bd3c 1093 09bc
00000030: 7b2d fc3c 15f5 7cbb e713 aebb a901 373b
00000040: e9b8 7bbc 7410 a03a 4221 bdbc 2ddc 7abb
00000050: e2ee 8fba ae59 50bc 209f 9cbb 6b9a 11bb
00000060: af37 5fbc 0000 0000 5d98 efbc 5704 19bc
00000070: e0f1 26bb 8c9b 52bb 0000 0000 457e 8ebc
0.00019080726 -0.0037800095 -0.019184249 -0.0009015495 -0.008277198 -0.002780208 -0.027557097 -0.029582376
0.042387255 0.03711217 0.02312118 -0.008396879 0.030783406 -0.0038598229 -0.005312431 0.0027924574
-0.01536391 0.0012211935 -0.023087148 -0.0038278208 -0.0010981227 -0.012716694 -0.0047797114 -0.0022217284
-0.013624116 0.0 -0.029247457 -0.009339414 -0.0025473759 -0.003213617 0.0 -0.017394194

actor.2.weight f4 [2, 32]
00000000: 35d0 37be 0f3f 82be 9cac 1f3e 334e 0d3e
00000010: 2744 9fbc 1e3f 90bd 2bd9 83be 50b3 54be
00000020: 572f da3d a2a2 c93e cdd6 853e d6f6 883e
00000030: 5d9b a83e b8db c3be 1197 5f3d 9c8b faba
00000040: 4f02 f8be d7a8 98bd 8e59 0bbf b87e 15bd
00000050: a329 d1bd c58a fb3d b585 743c ab63 13be
00000060: d42e 86be 002b 6cbe 84e9 e2be 8064 06be
00000070: fe23 d63d 998d 793e 127c b33e 6b90 cfb9
00000080: 420a 293e 92e0 64bc aebd 49be a7c3 afbe
00000090: 8886 80be a88f 5dbd 189e 273e 38a4 153e
000000a0: 32b0 d7be ec90 e9be 0806 c4be 90d3 a0bd
000000b0: bca7 0dbf c0a9 bbbe 9aab c4be 73d9 613e
000000c0: 4349 023f 5e3b 15be 4a24 023f 98f2 57be
000000d0: e82e 5cbe 4723 153e 4e25 22bd 23c5 06bd
000000e0: b987 2ebe 6faf 583d 1067 993e fe22 8e3d
000000f0: 86e5 23be afe1 58bd 1320 073e a61f 31be
-0.17950518 -0.25438735 0.15593189 0.13799362 -0.019441677 -0.07043289 -0.25751624 -0.20771527
0.106535606 0.3938189 0.26140442 0.2675082 0.32931033 -0.3825357 0.054587428 -0.0019115093
-0.4843926 -0.07454079 -0.54433525 -0.0364978 -0.1021302 0.122823276 0.014924456 -0.14393489
-0.26207602 -0.23063278 -0.44318783 -0.13124275 0.10456084 0.24370421 0.35055596 -0.00039589716
0.1650782 -0.013969557 -0.19701263 -0.34328958 -0.2510264 -0.05409208 0.16368902 0.14613426
-0.42126614 -0.4561838 -0.3828585 -0.07852852 -0.5533407 -0.36652946 -0.38412172 0.22055607
0.5089304 -0.14573428 0.5083662 -0.21088636 -0.21502268 0.14564238 -0.039586358 -0.032902848
-0.17043962 0.05290168 0.29961443 0.06940268 -0.16005525 -0.052949604 0.13195829 -0.17297229

actor.2.bias f4 [2]
00000000: ad36 a33c ad36 a3bc
0.019923532 -0.019923532

critic.0.weight f4 [32, 64]
00000000: daae 423e 617a 56be 8c77 c8bd 0dfa bf3c
00000010: b3b8 55bd 3e02 febc 800c 33be 39d2 a2bc
00000020: 7581 413d 3688 613e d7d6 643d bae8 dc3d
00000030: 277f afbc 95a1 43bc b481 7d3d 9794 953d
00000040: 769e 923b de4b cabd 8596 b7bc 1dbd 96bd
00000050: 739e 7abe 3ce3 533d 4a3b 0f3e 5800 c23d
00000060: d5ec 7e3c bf7f 9fbd 3ef3 a1bd 6305 cbbd
00000070: fb58 ea3d 1974 5bbd 37c6 8bbd 5441 11bd
00000080: e6dd 03bc d4db 4c3d 0d00 d6bb e365 2c3e
00000090: 456d bcbe be39 94be a8c2 c2bc 0923 84bd
000000a0: 6c89 193e b36f 3dbc 3715 7bbd ccee 7d3e
000000b0: 8361 1f3e 0176 073d 9b01 683e dcca babd
000000c0: 4abb 1e3e b738 1fbe 6a38 b8bd 3577 14bd
000000d0: 94f5 34bd d949 5cbe 43c2 a13d fe31 90be
000000e0: 4d9f 133d 29eb b5bc 2ed4 8ebd 76cf 90bc
000000f0: 09ac cd3d e3fb edbd 092c b83d a1f5 14bc
00000100: b0d5 2f3e bc8d f93d 60ce 293e cb42 13bd
00000110: 59b4 1f3e 973d c43c 7a1d 983c ff7f 533c
00000120: 4095 ecbd 5309 2b3e 55cd 9a3d e427 95bd
00000130: 72b6 6fbe 5e02 e5bc e78f 5d3c e2bc 103e
00000140: 8c54 d03c c86a 3ebd ee1d 313e eb43 09bd
00000150: da25 53bd af30 0cbe a405 e23c 24c0 78be
00000160: 088c 35be c87e 403c 6ebc b63d b13d 733d
00000170: 7b7c 7dbc 10a8 44bd f6c0 1a3e 0dcb d0bc
00000180: 72f2 cebd 17a5 f9bc b918 1abe 1ecf 4bbc
00000190: 2146 0bbe a2fb 2b3e 28a6 0ebd 94ad 66bd
000001a0: b0c0 80bd 9dec 94bd 9c4c f93c 23bc 85be
000001b0: 3e8f c83c f7e5 193e 76fc 8f3e 4ab4 a4bd
000001c0: 322a c93a 895e 2fbe aa83 83be 36e7 15bc
000001d0: 431a 82be 2e6b 653e 9d7b 2abc f6b6 68bd
000001e0: 2972 21bd 2307 42be 8099 30be e1ba e93b
000001f0: 3716 783d 7beb 973d ea49 3bbe 9d09 a83d
00000200: 407b 8cbd 290c b2bc 12b0 b0bd 81a8 1fbc
00000210: 22ab 0d3c 2e30 37be 9b82 ec3c 59e6 953e
00000220: f43b e83d cb32 f63d 1f7a dfbd 79aa 28bc
00000230: c401 d9bd f220 d3bd 3f5f 60bc 9761 99bd
00000240: 3e40 df3d 7e91 eabd 4362 73bc db21 14be
00000250: 9836 843d 6838 c8bd f886 babc 25e5 51be
00000260: 3bdc 873d 7da7 1f3d 09b9 063e 9d4a 6b3e
00000270: 6b50 ff3c b354 973a 1679 29be 54bb 84bd
00000280: 7bfd 613b 9f6d cd3d 5c05 d9bd 7cfb f4bd
00000290: 40d9 843d 8aa3 c4bb cd1f d53c eaf8 5c3e
000002a0: 2eca 0f3e fa70 613d 6899 723d 9469 7cbd
000002b0: a4e2 a53e 63c0 f1bd dc56 e83c 6de8 79bd
000002c0: 2cb3 63bb 1d00 8fbe a75c f53d b48b 18bc
000002d0: 6efa 81bd 7271 163e 46a0 d0bd a344 953d
000002e0: 553d 633e 7c32 303e 57fe 65bd 8779 29be
000002f0: 74ad c9bd 4925 afbd 39ba 853e 941c 12be
00000300: 5cd2 203e dc55 49be e99c d53d 3e68 17be
00000310: 2d20 c03d 91f3 ea3d bd56 4f3d b259 c53d
00000320: 835d ffbd c6e7 92bc 154f abbd 0a12 8a3d
00000330: 4911 e8bc 022b eabc 6513 06be c131 173c
00000340: 5ed3 723d 17e6 593c 9223 be3c 00eb 6ebd
00000350: 65cf 7a3e f6bb 123d 2f9b 3cbe 1949 8fbd
00000360: 9d0e 703d 7954 4ebe 5478 75bc b43a 8c3d
00000370: 2b67 dfbc 0408 7dbe 6c7b b93d 395a e9bb
00000380: 5607 29be 80cc 2abd 9a3d 6f3c a573 903d
00000390: 9cb3 6e3d 9b2a 683c 6ba6 68bd 808e e6bd
000003a0: 4eee 44bd 5003 403e 857c 2bbe 87ba ae3e
000003b0: 0a49 f63c c5fa 823b 8721 023d ecfd ebbc
000003c0: 6c30 ed3d 3323 7b3c 84ed e63d c182 4fbd
000003d0: ee7f a0be a49e 21be 4431 5cbd bbe8 073e
000003e0: f5b1 8cbc e9fb 153e ec67 52bc f4d6 cc3c
000003f0: f003 93bd 5ba9 c23e 1ef5 3f3c 4992 ab3d
0.19012013 -0.20945121 -0.09788427 0.023434663 -0.052178096 -0.031006929 -0.17485237 -0.019875633
0.0472426 0.22024617 0.05586895 0.107865766 -0.021422936 -0.01194038 0.061891273 0.07303732
0.0044744564 -0.09877752 -0.02241064 -0.07360289 -0.24474506 0.05173038 0.1398746 0.09472722
0.015559395 -0.077880375 -0.07907723 -0.09913137 0.11442753 -0.053577516 -0.06824916 -0.035462692
-0.00804851 0.050014332 -0.006530768 0.16835742 -0.36802116 -0.28950304 -0.02377446 -0.06451995
0.14993829 -0.011562276 -0.06129953 0.24798125 0.15564542 0.03307152 0.22656862 -0.091207236
0.15501133 -0.15548979 -0.08995135 -0.036246497 -0.044179514 -0.21512546 0.078983806 -0.2816314
0.036040593 -0.02220686 -0.06974064 -0.01767705 0.10042579 -0.11620309 0.08992774 -0.009091766
0.17171359 0.12185237 0.16582632 -0.03595237 0.15596141 0.02395515 0.018568743 0.012908935
-0.11551905 0.16702776 0.07558695 -0.07282999 -0.23409441 -0.02795523 0.0135230785 0.14134553
0.02543094 -0.046488553 0.17296574 -0.033512037 -0.05154977 -0.13690446 0.02759058 -0.24292046
-0.17729199 0.011748977 0.08922659 0.059385005 -0.015471573 -0.04801184 0.15112671 -0.025487447
-0.101048365 -0.030474229 -0.15048493 -0.012439517 -0.13600971 0.16795209 -0.034826428 -0.05631788
-0.06286752 -0.07271693 0.030432038 -0.261201 0.024482366 0.15029131 0.281223 -0.080422
0.0015347658 -0.17125906 -0.2568639 -0.009149363 -0.2541066 0.22404167 -0.010405448 -0.05681511
-0.039415512 -0.18948035 -0.17246056 0.0071328734 0.06056806 0.07417961 -0.18289915 0.082049586
-0.068594456 -0.021734314 -0.08627333 -0.009744764 0.008646758 -0.17889473 0.028870871 0.29277304
0.1133956 0.12021407 -0.109119646 -0.01029455 -0.1059604 -0.10309018 -0.013694583 -0.07489317
0.10900925 -0.11453532 -0.01485497 -0.1446604 0.064557254 -0.09776384 -0.022769436 -0.20497568
0.066338025 0.03897809 0.13156523 0.22977681 0.031166276 0.0011545628 -0.16550097 -0.064810425
0.0034483362 0.10030674 -0.10596725 -0.11962029 0.0648675 -0.0060009407 0.02601614 0.21579328
0.14041969 0.055039383 0.05922833 -0.061624125 0.32399476 -0.11804273 0.02836173 -0.061012674
-0.0034744246 -0.27929774 0.11980563 -0.009310652 -0.06346594 0.14691713 -0.1018682 0.07288482
0.22191365 0.17206758 -0.05615076 -0.16550265 -0.09847537 -0.085520335 0.2611864 -0.14268714
0.15705246 -0.19661659 0.10430319 -0.14785859 0.09381137 0.11472238 0.05061983 0.09636249
-0.12469008 -0.017932784 -0.08364693 0.06741722 -0.028328555 -0.02858496 -0.13093336 0.009228171
0.059283607 0.013299487 0.02321032 -0.058329582 0.24493177 0.035823785 -0.18418573 -0.06996364
0.058607686 -0.20149411 -0.014982302 0.06847134 -0.027270874 -0.24710089 0.09056744 -0.007121351
-0.16506705 -0.041698933 0.014602089 0.070533074 0.058276758 0.014170314 -0.056799334 -0.112576485
-0.048078828 0.18751264 -0.16746719 0.34126684 0.030064125 0.003997179 0.031770255 -0.028807603
0.11581501 0.015328216 0.11275771 -0.050661806 -0.31347603 -0.15783173 -0.05375792 0.13272373
-0.0171747 0.14646877 -0.01284216 0.025004841 -0.071784854 0.38019833 0.011716155 0.08377511

critic.0.bias f4 [32]
00000000: 9add 2ebc ef12 43bc ec56 b4bc 5cdf 86bc
00000010: 1a73 863d 8362 4a3d 95ff 04bc d68b fd3d
00000020: 0000 0000 b566 22bb 1081 233e bdfa 9f3d
00000030: 1177 8b3d e8b3 03bc 8b2a a23d eee0 60bc
00000040: 6e21 973d 964f 16bc 0000 0000 c689 613d
00000050: 0c10 c03d 10af ad3d b7b3 673d 184a 6a3d
00000060: 75e9 763d c6b4 0b3e 9a3b a93d db09 b73d
00000070: f2ec 6d3d ebf0 ebbb 7bab b13d 43f0 e43d
-0.010672951 -0.01190637 -0.022014104 -0.016463928 0.06564923 0.049410354 -0.008117576 0.12380187
0.0 -0.0024780456 0.15967202 0.078114964 0.068098195 -0.008038498 0.07918271 -0.013725502
0.07379423 -0.009174248 0.0 0.05506303 0.09378061 0.08480656 0.056567874 0.057199568
0.060281236 0.13643178 0.08263321 0.08937427 0.058087297 -0.0072003505 0.086752854 0.11178639

critic.2.weight f4 [1, 32]
00000000: 9aa8 a03b 47e4 063e dc0e cc3c ed87 223e
00000010: fb95 d7be 6e5c a1be c8c2 973c 40a4 85be
00000020: 1efc 4e3e 58af 453e a992 79be d826 a9be
00000030: 0a79 f4be 14a9 943c 138c adbe 4fba f83c
00000040: 66fe a5be 7aac c83d e101 2c3d 3434 c8be
00000050: 2ba1 06bf 52e0 05bf 14d7 05bf e8db d2be
00000060: 09f6 c3be ce5a a2be c6e3 b3be 8e7c 173f
00000070: e2fa ccbe 4751 ce3e de25 babe 0c96 f1be
0.0049029114 0.13173018 0.02490943 0.15872164 -0.42106614 -0.3151583 0.018525496 -0.26101875
0.20213363 0.1930517 -0.24372353 -0.33037448 -0.47748595 0.018147029 -0.3389593 0.030362276
-0.32420653 0.09798522 0.04199398 -0.39102328 -0.5258967 -0.5229541 -0.5228131 -0.411834
-0.38273647 -0.31709903 -0.35134715 0.5917443 -0.40035158 0.40296385 -0.36357015 -0.4718479

exp_avg f4 [64, 12]
00000000: 8adc bf3a d2e1 023a 6ba7 b73a 015e da39
00000010: d780 be3a 92f7 84ba 1d81 fd39 d2e1 023a
00000020: 789c 7d3b 24a7 9a3b 4903 683b b759 2f3b
00000030: 132b a1ba 2c23 033a 4b8b 2a3b 7b42 0739
00000040: 134e b43a 6ddc 33bb 784c 173a 2c23 033a
00000050: 680c c13b b9a9 d43b af5d a53b 7bd1 8b38
00000060: 36c2 5f3b 6a3f 863a faf3 a03a 019c d73a
00000070: a677 0f3b 1c37 2e3b 2c8b 8339 6a3f 863a
00000080: 8b9b 1d3a 8e5f ab3a 7555 d53a 5470 8d3b
00000090: 56cc 883a 6c94 ab39 4383 da3a 3de0 203a
000000a0: 55f6 613a fcd7 033b 6d9d 1439 6c94 ab39
000000b0: e28e d43a f52a bb3a bc9a e43a e97d 983a
000000c0: 903e 273b 0664 ed39 cdfd 60ba b292 683a
000000d0: 68f8 9b39 7b9c 143b e76f 4537 0664 ed39
000000e0: ef04 4fbb 9839 55bb 913b 27bb 5d2a 183b
000000f0: 5b16 013b c4ea 1b3a 934c bc3a f1b7 843a
00000100: b7e3 a43a 5ef8 2d3b eac2 4039 c4ea 1b3a
00000110: 8890 9e3a 24e5 903a 2105 743a 5168 143b
00000120: a0aa 04ba d65d ca39 9c30 943a 88d4 4c39
00000130: f99f 463a 4e9c edba 5327 ae39 d65d ca39
00000140: f45c 2d3b c8f8 4b3b e7b5 1d3b 8b2d 3f39
00000150: ace3 353b 7122 7b3a 2f63 153b 5e64 8d3a
00000160: ed31 e33a c6e9 a739 de63 173a 7122 7b3a
00000170: 0894 4d3b 8afb 6a3b 286d 433b 0ef2 843b
00000180: 8c6a 19bb d11d 99ba b6f4 dabb 2a1c acba
00000190: c627 74bb c7ec 6cbb e4f1 81ba d11d 99ba
000001a0: e67b 31bc 3d15 3dbc 354c 20bc 4b72 9fbb
000001b0: 9478 13bb ca17 b739 d1c2 2fbb 1c2a 2cb8
000001c0: 41d8 17ba b4e9 5cbb cb05 8d39 ca17 b739
000001d0: 6647 6b3a d512 9b3a 0c5c 603a 9e3a 1cbb
000001e0: facd 0f3a 5cc8 d23a bdcb 983b 3fa3 c33a
000001f0: 3793 5f3b d7f0 dbba 1f9d 923a 5cc8 d23a
00000200: fa54 113c 363d 203c 5016 003c b391 363b
00000210: 17e5 51ba c382 fa37 d7d0 a43a cf5d 75b9
00000220: 0df0 1d3a 5105 e9ba 3baa 9439 c382 fa37
00000230: 2468 7a3b 94eb 863b 9f4e 513b 3703 ebb8
00000240: 6be3 0b3a f4ae 123a 4f4f 3f3b 8118 4c3a
00000250: dd93 c33a 807b ca3a 1b16 be39 f4ae 123a
00000260: eec5 833b 61ef 6b3b 6dc7 633b 56b6 693a
00000270: 3088 043a a8ea 163a 246b 883b b41b 373a
00000280: 5540 e73a 0fbb b43a cb38 053a a8ea 163a
00000290: 2a02 d13b 71b7 c83b 373f aa3b 5c46 a33a
000002a0: fafc 0d3b 641d 9d3a f2bb bf3b 3a63 aa3a
000002b0: 08ea 473b dce9 083b 730e 2c3a 641d 9d3a
000002c0: 8d89 df3b 73f3 d33b efd1 ba3b 5657 643b
000002d0: 0b7b 9e39 ae5f e5b6 03c6 adba a79c 9938
000002e0: 7ca5 a839 6f6a 5aba 8a14 5239 ae5f e5b6
000002f0: 9f4c c03a 1235 963a ce37 a93a fc1a 8c3a
00000300: 84e5 b139 0344 3e3a 4f47 a03b d271 573a
00000310: ab65 113b 6fc4 843a bb11 2c3a 0344 3e3a
00000320: 4565 013c 74ed ff3b 5312 d23b a7ba b63a
00000330: 0000 0000 0000 0000 0000 0000 0000 0000
00000340: 0000 0000 0000 0000 0000 0000 0000 0000
00000350: 0000 0000 0000 0000 0000 0000 0000 0000
00000360: b373 dcb9 e9c2 463a 2953 c03a 026b 1c3a
00000370: 840e 523a e8f7 d8ba ce8e 0d3a e9c2 463a
00000380: 741e 813b ad94 6d3b e49c 2b3b 90b0 c7b9
00000390: 5b2e 30ba cad4 6b3a 0400 0000 2f9d 1a3a
000003a0: 5ce5 ca3a b8ae 76bb 7f6a 3d39 cad4 6b3a
000003b0: 41f9 7d3a 3257 9f3a ce2f 1b3b 6fed 973a
000003c0: b2a0 77b9 a29c be39 be33 faba e1dd b639
000003d0: 5e4b dc39 acd1 eeb9 7952 0b38 a29c be39
000003e0: 08d1 d0ba e044 9bba 45a9 2cba c488 87b8
000003f0: 55cb 793b 8be5 dfb8 4960 7dbb be94 323a
0.0014637869 0.00049927563 0.0014011686 0.0004165024 0.0014534247 -0.0010144582 0.00048352117 0.00049927563
0.0038698 0.0047196317 0.0035402349 0.0026756355 -0.0012296162 0.00050024944 0.0026022966 0.00012899369
0.0013756178 -0.0027444616 0.00057715876 0.00050024944 0.0058913715 0.006489959 0.0050465683 6.667055e-05
0.0034142858 0.0010242288 0.0012279742 0.0016449691 0.0021891384 0.002658314 0.00025089958 0.0010242288
0.00060122524 0.0013074742 0.0016276079 0.004316369 0.0010436873 0.00032726245 0.0016671199 0.000613693
0.0008619775 0.002011775 0.00014173026 0.00032726245 0.0016216899 0.001427977 0.0017441134 0.0011634204
0.0025519468 0.00045278686 -0.0008582741 0.0008871957 0.0002974898 0.0022676277 1.1768169e-05 0.00045278686
-0.0031588634 -0.003253555 -0.0025517682 0.002321861 0.0019697163 0.00059477636 0.0014366083 0.001012562
0.0012580071 0.0026545743 0.00018383158 0.00059477636 0.0012097517 0.0011054617 0.00093086256 0.0022645185
-0.00050608255 0.00038598356 0.0011305991 0.0001953413 0.00075769384 -0.0018128247 0.00033217165 0.00038598356
0.002645311 0.0031123627 0.002406472 0.00018232146 0.0027754111 0.00095800223 0.0022794714 0.0010787358
0.0017333605 0.00032026897 0.0005775074 0.00095800223 0.003136875 0.0035855495 0.00298197 0.0040571755
-0.0023409454 -0.001168186 -0.006682004 -0.0013130952 -0.0037255152 -0.0036151872 -0.0009914008 -0.001168186
-0.010832762 -0.011540708 -0.009783794 -0.0048659197 -0.002250229 0.00034922204 -0.0026819 -4.1047213e-05
-0.0005792417 -0.0033708634 0.00026897932 0.00034922204 0.0008975178 0.0011831174 0.0008558638 -0.002383865
0.000548571 0.001608144 0.0046629594 0.001492597 0.0034114846 -0.001678015 0.0011185742 0.001608144
0.008870358 0.009780219 0.00781782 0.002785784 -0.00080068543 2.9863213e-05 0.0012574446 -0.00023399967
0.0006024845 -0.0017778074 0.0002835559 2.9863213e-05 0.0038209045 0.0041174386 0.003193773 -0.00011206272
0.0005336317 0.0005595528 0.0029191559 0.0007785634 0.0014921386 0.0015448183 0.00036256094 0.0005595528
0.004021398 0.0036000835 0.0034756318 0.0008915415 0.0005055694 0.00057570124 0.004163163 0.0006985024
0.0017643074 0.0013788658 0.000508201 0.00057570124 0.006378432 0.0061253835 0.005195524 0.0012456882
0.0021665678 0.0011986909 0.0058512622 0.0012999543 0.0030504484 0.0020891344 0.00065634324 0.0011986909
0.0068218173 0.0064682304 0.0057012956 0.0034842095 0.00030227783 -6.8358704e-06 -0.0013257865 7.324787e-05
0.00032166752 -0.00083319 0.00020034812 -6.8358704e-06 0.0014671272 0.0011459908 0.0012910308 0.0010689194
0.00033931073 0.00072580593 0.004891313 0.00082185597 0.0022185843 0.0010129343 0.00065639213 0.00072580593
0.00789768 0.007810289 0.006410876 0.0013941125 0.0 0.0 0.0 0.0
0.0 0.0 0.0 0.0 0.0 0.0 0.0 0.0
-0.00042047873 0.00075821445 0.0014673221 0.0005966873 0.0008013027 -0.0016553374 0.00054000027 0.00075821445
0.003940398 0.0036251948 0.0026186043 -0.00038087787 -0.00067207747 0.00089962466 6e-45 0.0005898056
0.0015479731 -0.0037640762 0.00018064117 0.00089962466 0.0009688326 0.0012156724 0.0023679617 0.0011591146
-0.0002361562 0.00036356325 -0.0019088907 0.00034879058 0.00042017823 -0.00045551115 3.321699e-05 0.00036356325
-0.0015931437 -0.0011846088 -0.00065865024 -6.462776e-05 0.003811558 -0.00010676224 -0.0038662127 0.00068123254

exp_avg_sq f4 [64, 12]
00000000: 1743 5f39 bee9 b636 527c 6939 5508 c037
00000010: 2492 3738 7d11 b539 1019 9535 bee9 b636
00000020: 78a1 2839 cd7a 1139 a1e4 0839 4e93 6439
00000030: e911 be39 87db e536 239f 023a 4ddd da37
00000040: 2408 9138 4a4c 033a 331c e335 87db e536
00000050: 8a3a 9f39 5b19 9239 3aa8 7339 6bcb c039
00000060: b565 2639 ce42 2737 f003 1139 9d84 fe37
00000070: dc91 3b38 967a 6939 ba6e b835 ce42 2737
00000080: 4e1a da38 36db 9038 14d2 dc38 42e0 3439
00000090: d660 2937 d34f fc34 3d66 fb36 ca41 f235
000000a0: 5a02 4536 63a2 9b37 c841 b533 d34f fc34
000000b0: 2c74 2337 5afb 0637 7d06 2537 62e6 3237
000000c0: f99d 3e39 8dbf 7036 b43d 8939 8d59 5b37
000000d0: be8e 1338 613f 5739 9ed3 8335 8dbf 7036
000000e0: ba89 3e39 c630 2b39 8b99 1239 47fb 4139
000000f0: 30dd e237 a8de e635 c962 ab37 d86b b236
00000100: 2565 0137 1c24 3038 8d0b 8e34 a8de e635
00000110: 6e85 b537 8dff 6137 7f40 9c37 2408 f737
00000120: b208 d938 e618 2636 0416 0339 0f7f 1a37
00000130: 010b a937 e188 2039 1c76 0a35 e618 2636
00000140: a6db a838 b447 9138 98c3 8538 a49e df38
00000150: 0a3d 2039 3ece 0137 05ea fb38 0426 cb37
00000160: b8a2 1f38 d72f 6539 48d9 aa35 3ece 0137
00000170: 1df8 0839 3cdd 9c38 1a36 f838 9c31 2b39
00000180: 7716 8539 c576 5c37 8e51 563a 880d 7938
00000190: 60eb 1739 b8c0 823a e2d5 8536 c576 5c37
000001a0: 2d4a 5f3a 77d1 423a f837 553a ca67 8239
000001b0: bca2 b239 bb7c 8537 4624 133a e7aa 4238
000001c0: 08d5 b838 c019 263a 7db0 f435 bb7c 8537
000001d0: af71 3138 7412 a138 6420 5538 94b6 b039
000001e0: 0bef 413a 5ec1 c637 15ba 703a 091c a138
000001f0: 4dbb 2339 9957 8d3a 4b61 9d36 5ec1 c637
00000200: acae 233a 53e2 073a d6c2 023a 1e00 483a
00000210: fc0b 3c39 1f85 2b36 6700 8f39 a59e 2e37
00000220: ec9d 0638 2620 6839 caa3 4135 1f85 2b36
00000230: 3909 1b39 64c6 1339 c771 e238 a955 3e39
00000240: 69f8 cb38 abb9 0b36 b956 1939 f742 c536
00000250: ec5a 9237 1807 bb38 9bb9 1035 abb9 0b36
00000260: 7a6d d038 38e6 bb38 723a 9138 bcfb cd38
00000270: ebc9 0439 9df3 1a36 b8a4 7939 fcd9 e436
00000280: d5c5 ce37 9e47 0a39 041c 5935 9df3 1a36
00000290: de50 3339 2fb8 2839 65e8 0b39 788a 0539
000002a0: e07c 8f39 7c54 fe36 7684 9e39 be66 de37
000002b0: 1469 5d38 d792 cb39 dc14 e935 7c54 fe36
000002c0: 9f9c 9039 536d 7839 db84 6339 8be2 9239
000002d0: c712 b737 6ddb e535 0ddc 2d38 4a1b 9b36
000002e0: 2d5c 0037 bdb2 4538 55a5 d934 6ddb e535
000002f0: 1033 6538 5a68 0738 b5d9 4e38 a230 dd37
00000300: 5940 8839 2d9d a236 ba75 f739 6975 7637
00000310: bd97 5238 bebf 9739 ad13 d135 2d9d a236
00000320: c4ca a539 f44a 9b39 b0b3 8139 ed83 8939
00000330: 0000 0000 0000 0000 0000 0000 0000 0000
00000340: 0000 0000 0000 0000 0000 0000 0000 0000
00000350: 0000 0000 0000 0000 0000 0000 0000 0000
00000360: 4c72 9439 399a 0a37 4eea c439 ebf8 d737
00000370: 9b4b 6c38 4e14 cc39 c1e1 c235 399a 0a37
00000380: 37b4 ed38 1055 de38 52df df37 6b7d 9439
00000390: 4c8e 333a b174 9537 f985 192d eb2b c638
000003a0: b349 2439 e3d9 903a a501 6036 b174 9537
000003b0: 235a fc39 8013 cf39 af79 cd39 79e1 363a
000003c0: 4800 a838 8e93 a436 e98c 8738 4f63 8337
000003d0: 87aa c037 f0ad 0b39 bad7 8135 8e93 a436
000003e0: e0d3 ce38 31ee 8e38 093c b938 ec6b b038
000003f0: 036f 6d3a 8990 4637 3d26 a83a b3e4 6338
0.0002129193 5.451234e-06 0.00022266924 2.2892063e-05 4.3766704e-05 0.0003453604 1.1108659e-06 5.451234e-06
0.0001608188 0.00013874024 0.00013055142 0.0002179865 0.00036252968 6.850288e-06 0.00049828197 2.6090676e-05
6.915655e-05 0.00050086214 1.6921025e-06 6.850288e-06 0.00030370458 0.0002786618 0.00023236955 0.00036772652
0.00015868882 9.96953e-06 0.00013829744 3.0340912e-05 4.4720116e-05 0.00022266278 1.3741294e-06 9.96953e-06
0.0001039995 6.907286e-05 0.000105295476 0.0001724968 1.0095731e-05 4.6996738e-07 7.492285e-06 1.8049552e-06
2.9356656e-06 1.8553057e-05 8.440435e-08 4.6996738e-07 9.7426055e-06 8.045545e-06 9.836277e-06 1.0663267e-05
0.00018178661 3.5874284e-06 0.0002617665 1.3074267e-05 3.518047e-05 0.00020527608 9.821849e-07 3.5874284e-06
0.00018171119 0.00016326 0.00013980844 0.00018499522 2.7044298e-05 1.7201137e-06 2.0430789e-05 5.317368e-06
7.712549e-06 4.19953e-05 2.6457965e-07 1.7201137e-06 2.1639014e-05 1.3470545e-05 1.8626683e-05 2.9448485e-05
0.00010348986 2.475042e-06 0.00012501335 9.208698e-06 2.0151494e-05 0.0001530978 5.158088e-07 2.475042e-06
8.051777e-05 6.9274945e-05 6.3783664e-05 0.00010663018 0.00015281528 7.737019e-06 0.00012012202 2.4217188e-05
3.8060098e-05 0.00021856964 1.2729224e-06 7.737019e-06 0.000130624 7.479868e-05 0.00011835639 0.00016326312
0.00025384474 1.3140675e-05 0.0008175605 5.9378828e-05 0.00014488166 0.0009975648 3.988608e-06 1.3140675e-05
0.0008517828 0.00074317254 0.0008133645 0.0002487286 0.00034072052 1.5912918e-05 0.000561301 4.641237e-05
8.813484e-05 0.00063362345 1.8230782e-06 1.5912918e-05 4.2305965e-05 7.6805154e-05 5.0813323e-05 0.00033705367
0.0007397986 2.3693483e-05 0.0009183002 7.6823e-05 0.00015614666 0.0010783552 4.690291e-06 2.3693483e-05
0.00062439847 0.0005183566 0.0004988139 0.0007629412 0.00017933542 2.5558472e-06 0.00027275385 1.04081455e-05
3.2095166e-05 0.0002213722 7.213645e-07 2.5558472e-06 0.00014785388 0.00014092919 0.000107977125 0.00018151723
9.726064e-05 2.0820687e-06 0.00014623524 5.8788532e-06 1.7446895e-05 8.918176e-05 5.391427e-07 2.0820687e-06
9.9386045e-05 8.9597364e-05 6.925025e-05 9.822051e-05 0.00012663721 2.308959e-06 0.00023807853 6.820306e-06
2.4649236e-05 0.00013187385 8.087957e-07 2.308959e-06 0.00017100896 0.00016090342 0.00013342647 0.00012735452
0.00027368125 7.579625e-06 0.000302348 2.6512305e-05 5.2788368e-05 0.0003882858 1.7365924e-06 7.579625e-06
0.00027582512 0.0002369185 0.000216979 0.00028016078 2.1824044e-05 1.7125691e-06 4.1451352e-05 4.622537e-06
7.650856e-06 4.7134923e-05 4.0539695e-07 1.7125691e-06 5.464541e-05 3.2283693e-05 4.9316983e-05 2.63679e-05
0.00025987884 4.846274e-06 0.00047199224 1.4690079e-05 5.020922e-05 0.00028943823 1.557744e-06 4.846274e-06
0.00031622325 0.00029619748 0.00024738675 0.0002622897 0.0 0.0 0.0 0.0
0.0 0.0 0.0 0.0 0.0 0.0 0.0 0.0
0.00028313918 8.261349e-06 0.00037558604 2.5745909e-05 5.6337198e-05 0.0003892504 1.4519829e-06 8.261349e-06
0.00011334608 0.00010601629 2.6687663e-05 0.00028322203 0.0006849512 1.7816523e-05 8.726791e-12 9.449556e-05
0.00015667714 0.0011051263 3.3379558e-06 1.7816523e-05 0.00048132343 0.00039496645 0.00039191308 0.0006976347
8.010917e-05 4.9047585e-06 6.463548e-05 1.5662661e-05 2.2967592e-05 0.0001332087 9.674034e-07 4.9047585e-06
9.86231e-05 6.815454e-05 8.83267e-05 8.412436e-05 0.00090573746 1.1835372e-05 0.0012828779 5.433401e-05

exp_avg f4 [64]
00000000: 44c3 9d3a a240 c6b8 1871 a23b 5fa8 3d3b
00000010: cea6 d43a 7bf8 6b3b 30cf efb9 ec62 203b
00000020: e40a 02bc fefc 9dbb 25e5 463b 180f adb9
00000030: 173c 4f3b 3ef7 783b 15a7 a43b a8c4 62b9
00000040: 0dd8 873b 0000 0000 98fb 37ba bd94 9fba
00000050: c176 10ba d87c c83a 8c66 cc3b d631 613b
00000060: 27f2 d93a 30c6 153b 9614 c93b 0000 0000
00000070: 1621 ff3a 795e 75bb 359a a13b baf6 083a
00000080: 86d3 383b e1ea 003b 6093 aa3b f1ad 9fba
00000090: 46b4 0f3b 62f7 ab3a b180 7f3b 2a2e a5b8
000000a0: 56b1 873b 0000 0000 11a2 333a 7e5a a83c
000000b0: 87eb af3b 035c fdba ad11 e039 a95e 21bb
000000c0: a00c 8f3b aa7f 693b a837 a2ba f7ed b7bb
000000d0: 5b9d e13b eac7 8d3b 849e 553b c5d1 5dba
000000e0: 0000 0000 39f5 433c e021 26bb e0a4 e039
000000f0: e3b0 343c 0b61 fe3a fad6 f737 6f14 6fbb
0.0012036343 -9.4534145e-05 0.0049573295 0.0028939468 0.0016224028 0.003600626 -0.0004574 0.0024473025
-0.007937167 -0.004821419 0.0030348983 -0.00033008377 0.003162151 0.0037989165 0.0050248005 -0.000216263
0.0041456283 0.0 -0.00070183864 -0.0012175065 -0.000551086 0.0015295995 0.0062378105 0.003436198
0.0016627953 0.0022853725 0.0061364872 0.0 0.0019464816 -0.0037440343 0.004931713 0.00052247534
0.002820225 0.0019671249 0.0052055568 -0.0012182576 0.002192752 0.001311999 0.0038986618 -7.876412e-05
0.004141013 0.0 0.0006852458 0.020550963 0.005368653 -0.001932979 0.0004273778 -0.0024623072
0.0043655187 0.0035629072 -0.0012376206 -0.0056130844 0.0068852133 0.00432681 0.0032595703 -0.0008461739
0.0 0.011960321 -0.002534978 0.0004284745 0.011028501 0.0019407583 2.95448e-05 -0.0036480685

exp_avg_sq f4 [64]
00000000: d26f 003a 5b8f 453a 27fb da39 a383 0038
00000010: 05a5 c739 0c1c 9838 fbff 6539 d1ba c439
00000020: a2b8 cd3a 662a 7e3a b2f6 d13a 0bc5 bb39
00000030: 7e00 3f39 f501 8c39 8e4f 1a3a a855 a938
00000040: 7a4d 0e3a 0000 0000 442e 1d3a 2d1b d33a
00000050: eea6 6839 51e0 f53a 8aab 363b ac7f 7a3a
00000060: 3546 b13a c7c8 593a 273b b93a 0000 0000
00000070: 302d bc38 d4a4 e338 cc12 663a 002c b63a
00000080: 53e3 aa3a 5aeb 9038 d236 2339 41c7 e73a
00000090: c59d 773a 92f2 a539 e2e5 963a b6a6 9438
000000a0: 0afb 873a 0000 0000 99c8 c639 2886 033c
000000b0: 67c1 bb39 82a4 a33a 0604 5a39 fa1f f939
000000c0: 9995 6939 82d8 bc39 9047 6139 ad2b 223a
000000d0: 1ff3 543b 88d2 223a f18a 983a 7465 003b
000000e0: 0000 0000 94ee 223b c7c1 e33a fd42 c439
000000f0: 5fe7 2a3b f299 5d39 6cd7 1339 4fd1 e339
0.0004899475 0.0007536315 0.00041767323 3.0640174e-05 0.00038079187 7.253149e-05 0.00021934502 0.00037523222
0.0015695284 0.0009695649 0.0016018956 0.00035814228 0.00018215363 0.0002670434 0.00058864884 8.074503e-05
0.0005428415 0.0 0.0005995969 0.0016106121 0.0002218743 0.0018758868 0.0027873241 0.0009555768
0.0013524952 0.0008307811 0.0014132009 0.0 8.9729554e-05 0.00010854905 0.00087766047 0.0013898611
0.0013037719 6.910293e-05 0.00015565314 0.0017683284 0.0009445812 0.0003165198 0.0011512602 7.088242e-05
0.0010374498 0.0 0.0003791496 0.008027591 0.00035811515 0.001248494 0.00020791599 0.00047516805
0.00022276341 0.00036019465 0.00021484331 0.0006186318 0.0032493544 0.0006211181 0.0011638087 0.001959172
0.0 0.0024861442 0.0017376476 0.00037433943 0.002607785 0.00021133551 0.00014099263 0.0004345276
