models/checkpoint_770000.pt (torch, 125871 bytes, 33 tensors)

shared.0.weight f4 [64, 12]
000000 ed e6 7b be b2 b4 ef be 76 6b d0 3d 06 02 5b 3f
       -0.2459981 -0.46817547 0.101767465 0.8554996
000010 39 2b 48 be 9a af de bc 57 e4 d0 be 0d f1 25 bf
       -0.19547738 -0.027183343 -0.4079921 -0.6482094
000020 e6 e0 74 be c0 b3 c9 bd ee 9c 30 be 4e 47 9f 3c
       -0.23913917 -0.09848738 -0.17247364 0.01944318
000030 2f a5 c1 3c 78 44 bc 3d f1 7c 4a be ec f0 60 3f
       0.023638336 0.09192747 -0.19774224 0.8786762
000040 09 c5 cd 3d 72 62 f6 bd 2c d6 31 3e 64 83 a3 3e
       0.10047347 -0.12030496 0.17366856 0.3193618
000050 20 eb f7 3c fa 4d dc bd ae 9f 1a 3d 11 02 3f 3e
       0.030263484 -0.1075706 0.03774994 0.18653132
000060 28 5a f3 3d cb be 28 bb 2b 69 f0 bc fa c7 d5 bd
       0.1188243 -0.0025748487 -0.029347023 -0.10438533
000070 54 3b 32 bf 1e 5b ed 3d c6 7e 11 3e 22 42 1f 3d
       -0.6962178 0.11589645 0.14208516 0.03888143
000080 60 8c 5b be af ff f4 3d 87 e8 80 3e 84 fa 1c 3d
       -0.21440268 0.1196283 0.25177404 0.038324848
000090 7a 10 34 be 50 16 ea be 86 94 d3 3c a3 f9 b3 3d
       -0.1758441 -0.45720148 0.025827657 0.08787849
0000a0 2d 82 a7 3e 6d 6b a6 3e f1 2d f7 3d 37 8a 04 be
       0.32716504 0.32503834 0.120693095 -0.1294335
0000b0 91 72 ee bd 53 5f 74 3d 9d 04 80 3d a9 75 54 3e
       -0.116429456 0.05966122 0.0625088 0.20748009
0000c0 ed 2e c2 3d 96 8c 9d be ba da 8d 3d 84 18 36 bf
       0.09481607 -0.3077132 0.069264844 -0.7113116
0000d0 1d e4 98 be 87 77 0f be 5a f6 1b bf 18 20 23 be
       -0.29861537 -0.1401044 -0.6092278 -0.15930212
0000e0 2d ef 0a 3d 49 e7 04 3e 20 81 4a be 17 78 a9 be
       0.033919502 0.12978853 -0.1977582 -0.33099434
0000f0 cd 3c 2d be 73 50 c6 bc cb 96 91 be 7e 09 fb be
       -0.16917725 -0.024208283 -0.28435358 -0.4903068
000100 7e 8c c0 be 63 f7 88 3d 98 d0 1d be f8 77 af bd
       -0.37607187 0.0668781 -0.15411603 -0.08567804
000110 6c d6 d8 3b d4 da a6 bc 7e cb 37 bd ef 43 00 3e
       0.006617358 -0.020368017 -0.0448718 0.12525915
000120 c5 86 0b bd 99 63 f7 3e a1 10 c0 bc 03 2e 07 3f
       -0.034064073 0.48318174 -0.02344543 0.52804583
000130 21 60 44 bf ba a0 28 be e8 f8 e3 3c 5b fa 84 3e
       -0.7670918 -0.16467562 0.027828649 0.25972256
000140 f9 62 5b 3d 6f 91 5c 3d 0c 9f 67 3d c4 3d 54 3e
       0.053561185 0.053849634 0.056548163 0.20726687
000150 0c 57 91 3d 60 24 aa be a4 42 01 3d e0 43 bf be
       0.07096681 -0.33230877 0.031557694 -0.37356472
000160 83 d3 f4 be 35 f5 25 bd 25 f5 f3 be e2 be 67 be
       -0.4781762 -0.04051705 -0.47647968 -0.2263141
000170 92 62 14 bd 5f 06 90 be c1 12 22 3e 24 7a 39 3d
       -0.036226816 -0.2812986 0.15827467 0.045282498
000180 41 58 63 be 1a e5 71 be a8 46 eb 3d 16 85 c2 be
       -0.22201635 -0.23622552 0.11488086 -0.37992162
000190 3b e9 5e 3e 66 04 fc 3c 46 22 ad bf bf eb 0d be
       0.21768658 0.030763816 -1.3526084 -0.13859461
0001a0 11 8a f2 3d 01 df 71 3d d4 a1 84 3c 51 1e 65 bf
       0.1184274 0.059050564 0.016190447 -0.89499384
0001b0 cc 16 86 3d 30 bd 4d 3e 4f e5 e7 3d 39 87 c8 bd
       0.06547317 0.200917 0.11323034 -0.09791417
0001c0 bf e9 0f bf 10 fb 39 3e a3 85 9c bf a1 49 51 3d
       -0.56216043 0.18162179 -1.2228283 0.05109561
0001d0 fe fb 33 3e 9c fe 8c be 20 ea 05 3e 8f 06 33 be
       0.17576596 -0.27538002 0.13077593 -0.1748297
0001e0 e8 35 e3 bd 32 95 7e 3d 60 24 c0 bc c8 8b f3 3e
       -0.11094266 0.062154002 -0.023454845 0.47567582
0001f0 25 bc 40 bf c0 8c c2 bd c9 a0 1d bd c3 bf b5 bd
       -0.75287086 -0.09499502 -0.038483415 -0.08874466
000200 ee 23 85 bd fe 58 6e 3d d7 7e 90 3c 75 46 63 3e
       -0.06500994 0.05819034 0.017638607 0.22194846
000210 27 a6 be be fc d1 24 3f 80 0a 83 3d 90 87 b4 3f
       -0.3723614 0.6438291 0.06398487 1.410387
000220 9b f2 1a be 02 c7 9a bd c7 26 92 3e 2d ce 07 3f
       -0.15131609 -0.07557489 0.2854521 0.53048974
000230 dd 75 1c 3d 05 7c 5b bd ce 23 ae 3d a9 40 35 3e
       0.03819834 -0.05358507 0.08502923 0.17700447
000240 3b 49 16 be b3 a5 b5 3e 35 f5 f9 3b bd 40 86 ba
       -0.14676373 0.3547798 0.007628108 -0.0010242682
000250 4b 93 97 be 9d a3 71 3e de 46 83 3e c2 1f b0 3d
       -0.29604563 0.2359757 0.25640005 0.08599807
000260 f3 7a 81 3d 9f 7e ac bd 07 d6 41 bc b9 19 06 3e
       0.06322279 -0.084225886 -0.011830813 0.1309575
000270 a8 22 dc be 7a 0b 90 3d 63 78 43 bc f3 81 9a 3e
       -0.4299519 0.07033439 -0.011930558 0.30177268
000280 4f a5 70 3d cd e1 20 3d 97 89 26 3f 00 45 9f 3e
       0.0587514 0.03927784 0.65053695 0.3110733
000290 ec 4f be 3d 56 dc 96 be aa 3c f6 3d 21 74 c9 3e
       0.09292588 -0.29464978 0.120232895 0.39346412
0002a0 ce d2 03 be 8a 6e 59 bc a1 24 15 be 5c 7c 9d 3e
       -0.12873384 -0.0132709835 -0.14564754 0.3075894
0002b0 4f 4a 17 bf fa 09 29 3e 6e 0d dc 3e d7 c5 d9 bd
       -0.5909776 0.16507712 0.42978996 -0.10633438
0002c0 11 9e 2d 3b cb 51 31 3d 3b 3c 32 3e a5 85 a2 3e
       0.002649192 0.043290894 0.17405789 0.31742588
0002d0 60 e0 fb 3c 4d 18 f0 be f8 32 f8 3d 20 d3 4c 3d
       0.030746639 -0.4689354 0.121190965 0.050006032
0002e0 a2 df 00 bf 44 de 40 bd 0a 1c ca be c3 ef c4 be
       -0.50341237 -0.04708697 -0.39474517 -0.38464174
0002f0 7c 16 81 3e f4 95 74 be a9 5a 3e 3d d9 87 61 be
       0.25212467 -0.23885328 0.04647318 -0.22024478
000300 03 1d 73 be 84 a9 56 3e 1f d0 35 bc 60 a2 4e 3f
       -0.23741536 0.20963103 -0.011096983 0.80716515
000310 61 9f 57 bd fe 33 13 be 71 91 ff 3d 25 33 fb 3e
       -0.05264223 -0.14375302 0.124789126 0.49062458
000320 63 70 36 be 5d 6c b8 bd 47 78 e6 3c 0a 4e ac 3e
       -0.1781631 -0.09005044 0.028133525 0.3365329
000330 5e 0c 99 3c 70 03 82 3c ba de 24 be 6c 18 8e bd
       0.018682655 0.01587078 -0.16100588 -0.06938252
000340 45 a9 1a be 83 5a 15 bd 7b f6 30 3d 3b 36 65 bd
       -0.15103634 -0.03646327 0.043203812 -0.05595992
000350 06 ab 86 bd c7 62 c5 bd 31 c7 96 bd 38 ed 01 bd
       -0.06575589 -0.09637981 -0.073622115 -0.03172037
000360 ad 51 70 be 8e 57 2c 3f 43 93 4c 3e 32 58 b4 3e
       -0.23468657 0.673211 0.19978051 0.35223538
000370 02 41 fd 3b 01 c6 61 3d 37 49 01 3e 16 02 32 3f
       0.007728697 0.055120472 0.12625585 0.6953443
000380 66 0a ab bd 9a 94 4e 3d bb 1b 7b bf f6 ad 85 be
       -0.08351593 0.050434686 -0.9808919 -0.26109284
000390 d6 49 35 3e 0e 5a 0d bf 3c 1e e3 be c9 90 34 3f
       0.17703947 -0.5521554 -0.44359004 0.70533425
0003a0 8c 27 67 3e f7 e6 1e be 3d e0 34 bf 2c e1 fc be
       0.2257368 -0.15517794 -0.7065466 -0.49390543
0003b0 6e 67 09 bd 09 67 10 3e c5 f6 b2 bd e5 c7 2b be
       -0.033545904 0.14101805 -0.08738474 -0.16775472
0003c0 d9 f3 9e bd 97 98 c8 bd 3b 29 cd bc 7c c2 c8 bd
       -0.07761354 -0.09794729 -0.025044074 -0.0980272
0003d0 8d 3e ef be d9 88 0d 3e c7 90 cb be 90 4f 28 bd
       -0.4672741 0.13821734 -0.39758894 -0.0410915
0003e0 24 5e 8f bd 87 35 bf 3e e5 46 33 be 34 dc f1 be
       -0.07000378 0.37345526 -0.17507513 -0.47238314
0003f0 ff 5a 84 3e b7 8e 27 bd 9d fd a8 bc 48 0c fd bf
       0.25850675 -0.040907588 -0.020628745 -1.9769373

shared.0.bias f4 [64]
000000 4a ed 35 3e c1 94 68 3e d6 a4 3b 3d 02 78 91 be
       0.177663 0.22712995 0.045811497 -0.2841187
000010 c6 a8 19 3e ee 00 7c 3d a1 ff e8 3e f7 75 cb 3c
       0.15005788 0.061524324 0.4550753 0.024836523
000020 87 04 f4 3e f5 ae 3d 3e 32 14 b8 3e 8f 5f 78 3e
       0.47659704 0.18523772 0.35952908 0.24255203
000030 6a 81 cb 3d 21 5c 1f 3c b8 46 02 3e 73 4b b1 bd
       0.09936793 0.009726555 0.1272229 -0.08656969
000040 fd 67 44 3e 00 00 00 00 0f 48 78 3e 63 a3 8b 3e
       0.19180293 0.0 0.24246238 0.27273092
000050 3e 17 9a 3c 37 b4 a3 3e dc 6f 37 3d bc f9 a4 be
       0.01880991 0.3197343 0.04478441 -0.32221782
000060 22 f7 e6 3e 28 f6 d2 3e 52 20 b4 3e c4 fd 1b bc
       0.45110422 0.41203427 0.35180908 -0.009520952
000070 25 17 cd 3d 49 bc 24 bc 39 3c db 3e d1 01 b4 3e
       0.1001418 -0.010054656 0.42819384 0.35157636
000080 f6 51 90 3e ee 34 0d bd 2a 9b 54 bd 98 c9 2f 3e
       0.2818753 -0.034474306 -0.05190579 0.17166746
000090 20 1d d8 3e 36 a1 5b bd cc 43 e0 3e 42 a0 45 3e
       0.4220972 -0.05362054 0.43801725 0.19299415
0000a0 54 21 47 3e 00 00 00 00 92 fb 81 3e bf c5 59 be
       0.19446307 0.0 0.25387245 -0.2126684
0000b0 69 4a 31 3d 7c f6 ae 3e 5f e2 49 3e 03 81 b7 3e
       0.043283854 0.34172428 0.1971526 0.35840616
0000c0 ef 77 b3 3d fc ce 3d 3e 07 1c 3b bd 9f ea a5 3d
       0.0876311 0.1853599 -0.045681026 0.08101391
0000d0 6a a7 94 3e 5d 25 ca 3e 1b 9b 8b 3e 8a 98 88 3e
       0.29033977 0.3948163 0.27266774 0.26678878
0000e0 00 00 00 00 53 f8 98 3e 45 17 b0 be fc c3 79 3d
       0.0 0.29876956 -0.34392753 0.06097792
0000f0 61 ee 65 3e ad 1d b7 3d 50 e4 27 3e ff 59 87 3e
       0.22454216 0.08941207 0.16395688 0.2643585

shared.2.weight f4 [64, 64]
000000 78 0a 56 be f1 a4 7d bd ab e3 28 3f 4d b1 84 bc
       -0.20902431 -0.06192488 0.65972394 -0.016197825
000010 4d 30 bf 3e f3 83 08 be 88 af 7d bd 43 d0 18 3e
       0.37341538 -0.13331585 -0.061934978 0.14923196
000020 03 67 44 bf 75 81 1a 3f 87 85 5f 3e 0c ad 8e 3d
       -0.76719683 0.60353786 0.2182828 0.069666
000030 35 84 38 3e 0b 29 30 be 41 b4 ed 3d ab 4c 65 3d
       0.18019183 -0.17203157 0.11606646 0.05598132
000040 ee 76 ac bd ff 46 86 3d 91 81 ac 3d a2 22 92 3b
       -0.084211215 0.0655651 0.0842315 0.004459695
000050 f2 00 03 3f 87 a8 db be 37 11 03 3f 26 e2 a0 bd
       0.5117332 -0.42902014 0.5119814 -0.078556344
000060 97 4e 1c 3d b9 c7 60 3e 5a 7d d8 3d 53 6a 0d 3e
       0.038160887 0.21951188 0.10570784 0.1381009
000070 fc 5e 8f 3e 6a 19 63 bf 77 fa 83 bd 2e cc 9b 3e
       0.28002155 -0.88710654 -0.06444257 0.30429214
000080 44 e9 8a 3e 92 7f 9f 3e 5e 86 86 be f4 12 2a 3f
       0.27131093 0.31152016 -0.2627439 0.6643517
000090 c6 5c f1 3b 77 8b 44 3e bf 13 4e be 37 a3 b0 bf
       0.007365796 0.19193827 -0.2012472 -1.3799809
0000a0 a8 66 b0 bd df 61 09 be 40 c2 05 3f fa 83 2f bf
       -0.0861333 -0.13416241 0.52249527 -0.68560755
0000b0 23 95 b4 3d 70 a3 14 3f 9b 32 1b 3d 0a 35 fe 3c
       0.08817508 0.58061886 0.037890058 0.03103115
0000c0 3f c6 e7 3e 61 4f 25 be 05 00 2c bd 18 a8 85 be
       0.45268437 -0.16143562 -0.041992206 -0.26104808
0000d0 a6 2a 30 be 8d 1a 4f bd da 67 64 bd 77 10 69 bc
       -0.17203769 -0.05056243 -0.055763103 -0.014225117
0000e0 85 09 08 3e 14 10 4b bf b3 1c b3 bd 81 77 a0 be
       0.13284881 -0.7932141 -0.08745708 -0.31341174
0000f0 18 f0 09 3e b8 bb 11 3f 9f 42 7e bd a0 18 fc bd
       0.13470495 0.5692706 -0.062075254 -0.12309384
000100 de 85 a2 bd 5e a3 44 be f4 80 02 ba 01 ea 0a bf
       -0.079356894 -0.19202945 -0.0004978322 -0.5426331
000110 9e e4 90 3e b2 c8 50 bc d9 76 dc bd b6 3c 06 3e
       0.2829942 -0.012743162 -0.10764856 0.13109097
000120 71 50 c2 be 90 8a 7f 3e dd 1c 85 bd 85 2a 32 be
       -0.37951997 0.24955201 -0.06499646 -0.17399032
000130 a3 b3 1c bc d6 0a 9c be b8 b2 0a 3d 72 4c bc 3e
       -0.009564313 -0.30477017 0.033861846 0.36777073
000140 7e 65 eb bd 65 e7 16 3d e5 5f 50 3e 43 04 32 3e
       -0.114939675 0.03684177 0.20349081 0.17384438
000150 58 06 e0 3d 84 12 35 bf 81 61 96 3e ef 9b f2 3b
       0.1093871 -0.7073138 0.29371265 0.0074038426
000160 b2 85 8f 3b 4f 59 91 3d 42 1b 77 3e 76 f2 36 bd
       0.0043799514 0.070971124 0.24131492 -0.044664823
000170 8a 99 a2 3c 51 43 b7 be 1a f9 ed 3c 43 ac 88 3e
       0.019848604 -0.35793546 0.029049445 0.26693925
000180 6d d9 b1 bd 42 7f c9 3e f0 4b 1e 3d 66 7f 9e 3e
       -0.08684049 0.39354903 0.03864664 0.30956572
000190 90 93 ac be bb fe 22 3f f9 8d 07 be 44 13 c5 bf
       -0.3370633 0.6366994 -0.13237752 -1.5396504
0001a0 79 8c 96 be f8 a1 e3 bd 2b 06 6e 3e 60 4d 3f bf
       -0.29404047 -0.111148775 0.2324454 -0.7472744
0001b0 19 17 e7 bd 5d 06 1b 3e 35 74 9b bc 1d 15 db 3d
       -0.112837024 0.15139146 -0.01897631 0.106973864
0001c0 87 a4 df 3d be f8 d6 be 3c ea 31 be a6 85 1a bd
       0.10920053 -0.4198665 -0.1737451 -0.037725113
0001d0 bf 06 7d 3a 62 e5 32 be 70 47 bf bd ed 11 8f be
       0.00096521893 -0.17470315 -0.093397975 -0.27943364
0001e0 65 0e 2d 3d 68 80 e3 be f5 3e e6 3d a2 8a 6b be
       0.042250056 -0.44433904 0.11242477 -0.23002103
0001f0 f1 39 3c 3e 75 8d c2 3e 64 c3 11 bf 3b ff 1a be
       0.18381478 0.37998548 -0.5693877 -0.15136425
000200 07 49 7d be a0 2f 68 be 49 b8 4e 3e 16 12 71 be
       -0.24734889 -0.22674417 0.20187487 -0.23542055
000210 4d d0 a9 bd 9e 40 9c be 06 9f 43 bd 29 67 bc 3d
       -0.08291683 -0.3051805 -0.04775908 0.09199364
000220 45 25 c2 be e7 a8 0a 3d 21 a5 4f be 4e 96 4d bd
       -0.3791906 0.033852484 -0.20277835 -0.05019217
000230 2b 01 60 3c 1c 34 74 3d 7b c2 79 3d a8 a6 0b 3d
       0.013672153 0.059620008 0.060976487 0.034094483
000240 81 14 0e 3d 96 fb a6 3d 66 29 4b bc 90 7e fc bc
       0.034687523 0.08153455 -0.012400007 -0.030822068
000250 4b 38 a1 3e 81 e7 78 bf b5 95 01 3e ca 0d 68 be
       0.3148826 -0.97228247 0.12654765 -0.2266151
000260 79 ee 8d 3e 8a e7 87 3e e8 9d 5b 3d 13 74 a1 bd
       0.27721003 0.26543838 0.053617388 -0.078834675
000270 7a c2 4e 3e f3 6f 8c be 1b 39 e7 3d 9e d8 09 3f
       0.20191374 -0.2742916 0.11290189 0.53846157
000280 63 a6 84 3d 37 fe 44 3c 40 35 b4 3d 91 f5 2c 3f
       0.06477048 0.0120235 0.08799219 0.67562205
000290 22 dc 4e ba 08 47 18 3e eb f1 6b 3d 23 9d d0 bf
       -0.0007891079 0.14870846 0.057603758 -1.6297954
0002a0 ea ca 27 3e 41 38 ad bd aa 82 22 3e 58 03 06 bf
       0.16386 -0.08457995 0.15870157 -0.5234885
0002b0 7c 41 92 bd 78 1a 93 3d 36 4e 63 be b3 0b 67 3e
       -0.071413964 0.07182783 -0.22197804 0.22563057
0002c0 47 0d 0b bd 5e 08 d0 be 2f 57 1b bd 77 28 96 3d
       -0.03394821 -0.40631384 -0.03792494 0.07331937
0002d0 4c e9 83 3e 70 33 8a bd 10 6d 5e 3e 79 7a d2 3d
       0.2576393 -0.06748092 0.21721292 0.10277266
0002e0 81 b5 45 3e f5 a1 9a be 99 12 40 be 38 7b 05 bf
       0.1930752 -0.30201688 -0.18757094 -0.5214114
0002f0 be d0 32 3e 3f ba d8 3e 48 b6 1a bf 97 05 36 3d
       0.17462441 0.42329594 -0.6043439 0.044438925
000300 5a 1b af 3d f2 ca b4 be c7 b5 14 bf bf d2 d6 be
       0.08550139 -0.35311085 -0.5808987 -0.41957662
000310 8e 81 4f bd 69 65 88 be 53 49 84 be 06 b5 2a 3e
       -0.050660662 -0.2663987 -0.25837192 0.16670617
000320 83 32 43 3e 02 d3 00 3f 2c a2 02 3d f6 6d b3 bc
       0.19062237 0.5032197 0.03189294 -0.02190302
000330 24 c3 5b be 20 7a 30 3d 27 60 bb be 9f a7 5b 3e
       -0.21461159 0.043085217 -0.36596796 0.21450661
000340 7a 8f 3c be d1 92 2c 3e d6 27 5a 3e bd ea 42 bf
       -0.18414107 0.16852881 0.21304259 -0.7613943
000350 15 42 c3 be 08 e1 22 bf 18 fe 1c 3f 9f 73 d7 be
       -0.38136354 -0.6362462 0.61325216 -0.420804
000360 82 6c 97 3e d6 7e b7 3e 31 37 08 be f5 fc e8 bd
       0.29574972 0.35838956 -0.13302304 -0.11376373
000370 2d 9b 01 bf c0 1f 0a bd f2 3a 7e 3d 97 72 23 be
       -0.50627404 -0.033721685 0.062067933 -0.15961681
000380 ec ad 0a bf 92 47 9e bf 5c 1a 11 bf c1 b7 8c 3f
       -0.54171634 -1.2365592 -0.56680846 1.0993577
000390 08 aa 61 3d c7 4a a7 3e 3b 62 a8 bd 60 20 c2 bf
       0.055093795 0.32674238 -0.08221861 -1.516613
0003a0 71 92 99 3d 6a 4e 2a be 87 d8 5e 3e d7 03 3d bf
       0.074986346 -0.16631475 0.21762286 -0.73833984
0003b0 c8 09 4c be 0e 77 ca 3e c2 b4 e5 bd 27 46 67 3d
       -0.19925606 0.39543957 -0.112161174 0.056463387
0003c0 c5 a7 78 3e ca 1b b5 3d 5e d1 26 be e0 63 39 bf
       0.24282749 0.08843191 -0.16290805 -0.7241802
0003d0 e1 d6 15 bf 1c 09 d3 bd ef 74 45 3e 95 7b 7f bd
       -0.58531004 -0.10304472 0.19282888 -0.062373716
0003e0 2a 19 0a be 63 02 97 be 86 4e 44 bf 80 ec 04 bd
       -0.13486162 -0.29494008 -0.7668232 -0.032452106
0003f0 a9 42 0f bf de 70 fa 3e 5d 12 ef be b4 83 37 bf
       -0.5596109 0.48914236 -0.46693698 -0.7168534

shared.2.bias f4 [64]
000000 ff 90 30 3e c7 0f 9f 3e c0 a8 d4 3e a7 6f b8 3d
       0.17242812 0.31066725 0.41534996 0.09005671
000010 63 f0 e7 3d 4a 11 4f bb bd 0b 1d bd 15 56 1a 3c
       0.11325147 -0.0031595998 -0.038341273 0.009419938
000020 1c 19 05 bf 4d db 0e 3f 87 13 ad 3e 31 66 4e 3e
       -0.5199144 0.55803376 0.3380396 0.2015617
000030 a6 ee ab 3e 70 1b db 3e 95 98 0a 3f df c2 d2 bc
       0.33580512 0.4279437 0.5413907 -0.025727687
000040 f8 da 84 3d 6a 31 c3 bc 71 0f 01 3f ea d1 44 3e
       0.064870775 -0.023827273 0.50414187 0.19220701
000050 d5 7a 4e 3e 8c 3d 0e 3e ca 44 7c 3e a4 c7 0f 3f
       0.20164044 0.13890666 0.24635616 0.56164
000060 7e 1a 0d 3f 2d c5 09 3f a1 7e a1 3e 67 c5 53 3e
       0.5511855 0.5381649 0.31541923 0.20680772
000070 9a 91 b5 3d a9 b3 63 3e 6f 7c fa 3e c0 cc de 3e
       0.08865662 0.22236504 0.4892306 0.43515587
000080 83 37 18 3f f4 a2 f8 3e e6 b4 6c 3e b0 37 07 3f
       0.59459704 0.48561823 0.23115882 0.5281935
000090 ea 7a 0b 3f 05 cb ac 3e a8 28 9f 3e 52 16 12 3f
       0.54484427 0.33748642 0.31085706 0.5706531
0000a0 8a af a0 bc 38 4a 56 3e 95 8c 09 3f 75 29 fe 3e
       -0.019614954 0.2092675 0.53730136 0.49641004
0000b0 90 56 30 bd e6 cb 01 bd dd ed c1 3e 81 18 d1 3e
       -0.043051302 -0.031688593 0.37876788 0.40839007
0000c0 a5 81 b3 3e 19 d6 95 3e c7 cf fa 3e 58 1b f7 3e
       0.35059848 0.29264906 0.48986647 0.4826305
0000d0 46 e4 ca 3e cd b4 b2 3e a6 24 b5 3d 90 e3 54 bd
       0.39627284 0.34903565 0.08844881 -0.051974833
0000e0 09 ee 17 3f e2 21 3d be fa 9e da 3e 58 69 f8 3e
       0.5934759 -0.18469957 0.42699414 0.4851787
0000f0 d9 21 54 3e 7a 9f 15 3f 56 85 7f 3e b4 1f a0 3e
       0.20716037 0.58446467 0.24953207 0.31274188

actor.0.weight f4 [32, 64]
000000 df 43 a3 bd 5a 69 60 be ee 2d d2 bd 6d 39 d4 bd
       -0.0797193 -0.21915188 -0.10262667 -0.103625156
000010 61 bd 86 3d 57 c2 25 3e 93 21 45 be a5 ab 18 be
       0.0657909 0.16187416 -0.19251089 -0.14909227
000020 2b eb d3 3d 6a a6 00 3e 25 65 5b be 20 71 dd 3d
       0.10347589 0.12563482 -0.21425302 0.108125925
000030 b2 be c3 3d bc a6 19 3c 88 83 e2 3c 6b 94 90 bd
       0.095578566 0.0093781315 0.02765061 -0.070595585
000040 11 a4 86 3d fd cb d4 3d cb e2 e0 bc d0 f3 5a be
       0.06574262 0.1039047 -0.027451893 -0.2138207
000050 5e 80 ec 3c a0 d7 19 be 53 37 ea 3d 01 37 b3 b9
       0.028869804 -0.1502366 0.114363335 -0.00034182522
000060 f1 49 bc bb 7c 86 d1 bd 88 b3 e5 3c 2b 79 cf bd
       -0.005746119 -0.10230729 0.028039709 -0.10130533
000070 57 a0 76 bc 0b 78 98 be b6 dc 72 bd 73 b7 b2 be
       -0.015052876 -0.29779086 -0.059292518 -0.34905586
000080 33 62 42 3d b5 44 e0 bd 8a 69 c2 3d ca 3c fb 3d
       0.04745693 -0.10950605 0.09492786 0.12267454
000090 26 6f 15 be b6 11 18 be 70 e7 85 be d9 f4 cf bd
       -0.14593181 -0.14850506 -0.26153135 -0.10154123
0000a0 36 49 6d bb d0 a2 b6 3d e8 e4 dd bc b5 07 91 be
       -0.0036206967 0.08917773 -0.02708669 -0.28326192
0000b0 5b 9e bb 3c f5 02 44 3d 2f ad 0f 3d de 32 1f bc
       0.022902658 0.047854383 0.03507727 -0.0097167175
0000c0 ca 87 d9 bd 0f 58 e8 bc 24 2e 26 be 47 87 96 bd
       -0.10621603 -0.028362302 -0.16228539 -0.07350021
0000d0 6e 0f 0c be 3b be d6 3d e2 b2 33 bd 89 19 b5 bd
       -0.13677761 0.10485502 -0.043871768 -0.08842761
0000e0 59 ea 53 3e 2b a4 5c be 0f 9d 91 bd 95 0b 94 bd
       0.20694865 -0.21547 -0.07110035 -0.072287716
0000f0 1d 73 59 3d 9a 8c ae bc 11 0f c7 3b a1 8f e6 bc
       0.053088296 -0.021307278 0.006074794 -0.02814466
000100 09 23 2f bd 7a fe 33 3e f0 a1 01 bd 1c f3 60 3c
       -0.04275802 0.17577544 -0.031648576 0.013729837
000110 96 e5 97 3e fc 5f 18 bd b1 32 0e 3a 89 06 9b 3d
       0.29667348 -0.037200913 0.0005424424 0.07569606
000120 a8 16 d0 bd 6e ab 0a bc 21 4c 8c 3d 41 4b df 3d
       -0.10160571 -0.008463724 0.06850458 0.109030254
000130 d3 a4 13 be a0 40 07 be a8 f2 b4 3d 1d 95 e8 3d
       -0.14418344 -0.13208246 0.088353455 0.11356566
000140 e8 e4 db be 94 b4 95 3d f3 fe cc bd 2b b5 42 bd
       -0.4294808 0.07309833 -0.10009565 -0.047536056
000150 0e 25 57 3c ff 3c da bd 71 55 93 3d 1b fa 15 bd
       0.013131393 -0.10656165 0.07194031 -0.036615472
000160 5c d8 a3 bd e9 28 5d 3b ef be be 3c 36 2f 8e 3e
       -0.08000252 0.0033746308 0.023284404 0.27770394
000170 65 ef 05 3e f8 2f 5e 3e 54 de f5 3c 67 65 7e 3b
       0.13079603 0.21697986 0.03001324 0.0038817765
000180 0d 4e 28 3d 31 60 55 bb bf 5a 0b 3d c1 26 c8 bd
       0.04109006 -0.0032558555 0.03402209 -0.09773017
000190 62 b9 20 be 76 4a 55 bc f7 15 6c be f2 0e 66 bd
       -0.15695718 -0.013018241 -0.23055254 -0.056166597
0001a0 d5 48 15 3e 27 4e 40 3e b5 9d 02 3d e4 42 d3 bd
       0.14578564 0.18779813 0.031888682 -0.10315493
0001b0 06 48 85 bd 49 2c 00 3e 16 e7 80 bc 72 28 9e bc
       -0.06507878 0.12516893 -0.01573519 -0.019306395
0001c0 cf f3 f9 3d 7e d1 36 be 75 79 73 bd 61 10 86 be
       0.12204706 -0.17853352 -0.059442002 -0.2618437
0001d0 80 fc 11 be 91 1e de bd 9e 43 1c be 53 ed 82 3c
       -0.14256477 -0.10845674 -0.15260169 0.015982306
0001e0 6b 72 72 bd d6 e9 b3 bd 5a 5d f9 3b 38 9d 51 be
       -0.05919115 -0.08784835 0.0076100053 -0.2047013
0001f0 56 10 82 bb 40 2d b2 bd 4a d0 01 bc 0b 69 d0 3d
       -0.0039692326 -0.08700037 -0.007923195 0.10176285
000200 ee 3b ad 3d e4 07 7b 3d 8e 01 60 bc e7 bf 03 be
       0.08458696 0.061286822 -0.013672246 -0.12866174
000210 e3 a3 f5 be c3 8d 77 3f 5c ff bb bc 5d 55 03 3e
       -0.47976598 0.96700686 -0.022948913 0.12825532
000220 e8 cb 9d be 76 18 55 be 3d ad 02 be 0f cf 76 3e
       -0.3081963 -0.20810112 -0.12761398 0.24102424
000230 1b 94 07 be 07 5e 73 be f1 01 de bd a3 a4 0e bc
       -0.13240092 -0.23766337 -0.10840214 -0.008706245
000240 6f 62 9d be ff ed 3b bd 89 5e 8c 3e de 86 14 3e
       -0.3073916 -0.045881268 0.27415875 0.14504573
000250 96 94 0d bd bd 85 bf be 1e ea d0 bd 2f 21 ff bd
       -0.03456553 -0.37406722 -0.10200904 -0.12457501
000260 93 21 c9 bb 7e be 7e bd 53 c8 92 3e 12 63 71 bd
       -0.0061380356 -0.062193386 0.2866846 -0.05893237
000270 6b 2b 3d 3e a4 fa ee bd 99 6b 4d 3e 7e 55 b3 be
       0.18473594 -0.116689 0.20060576 -0.35026163
000280 a3 89 8b 3e 40 1d 1a 3e af 3b bb bd ad 39 b9 bd
       0.27253446 0.1505022 -0.09142243 -0.09044204
000290 f1 b0 4e 3c a1 27 94 bd 6a 80 7c be 0a 33 ba 3d
       0.012615428 -0.07234121 -0.24658361 0.09091766
0002a0 f3 0e ec bc d9 f0 ca ba fd 81 14 be 04 ce 23 3e
       -0.028815722 -0.0015483155 -0.14502712 0.15996557
0002b0 4f 1a 2b bb a9 b7 39 3c 23 38 e2 be 2c 3b 2d 3e
       -0.002610821 0.011335292 -0.44183454 0.16917104
0002c0 5c 61 cb be 7f 84 03 3e 74 12 0a bd 78 3b 25 bd
       -0.39722717 0.12843512 -0.033709005 -0.040339917
0002d0 dd 61 32 3e 13 9c a5 3e 7f d8 f7 bd 1d c5 52 bd
       0.17420144 0.32345638 -0.1210184 -0.051457513
0002e0 78 b4 61 3e 09 bc 2b 3e a8 8f f8 3e f7 c8 b5 3e
       0.220415 0.16770948 0.485471 0.35504887
0002f0 a5 c1 9d 3e 40 6c 1a be b2 3c d7 3e be 25 8c be
       0.30811802 -0.15080357 0.42038494 -0.27372545
000300 20 19 c7 bd 30 9e 9a bd 9d 02 5f 3d 23 ed 07 be
       -0.09721589 -0.07549703 0.05444585 -0.13274054
000310 dd 5f 7b 3d 90 1f 00 bd 64 df a5 3d a5 c7 0a 3e
       0.06137072 -0.0312801 0.08099249 0.13552721
000320 92 53 4e 3e cd 1c 2a be 72 8a c9 3d c9 db 70 3c
       0.20149067 -0.16612549 0.098408595 0.014700838
000330 3e 75 03 be 20 02 8c 3d d2 62 01 3d 91 51 41 be
       -0.12837693 0.06836343 0.031588383 -0.18878771
000340 05 1e 53 3d 8a a7 c9 bc 85 98 f3 3c ac 37 2d bc
       0.0515423 -0.024616022 0.029735813 -0.010572355
000350 8d c0 6d 3d 91 59 7d bd 05 a6 c4 3c 70 67 15 3e
       0.05804496 -0.061852995 0.024004946 0.1459024
000360 52 78 f1 bd 9f 36 f1 bd 99 57 a0 3d d3 a1 82 3e
       -0.117905274 -0.11777996 0.07829208 0.25514087
000370 3d 56 4b bc fb 38 ce bd 9c c9 d0 3d 6a 5f 21 3e
       -0.0124106975 -0.10069462 0.10194704 0.15759054
000380 8e d3 92 3c 3b 6c f5 bd 55 ab 64 3d 39 f7 25 3c
       0.017923143 -0.11983534 0.055827457 0.010129743
000390 02 9e 86 bd 90 63 5f be 22 0b be bc 1e ed 58 be
       -0.06573106 -0.21815324 -0.023198668 -0.21184203
0003a0 45 30 11 3e 7f 80 36 be ef da 3b be 17 d4 8a bd
       0.1417857 -0.17822455 -0.18345235 -0.06778734
0003b0 7a 8f 4b 3d a7 6f c8 3d 23 2a 35 3e 9e a8 92 bd
       0.049697377 0.09786921 0.17691855 -0.071610674
0003c0 d9 78 74 be ca 11 7e 3b 80 5e 95 bd 94 52 a9 3d
       -0.23874225 0.0038767927 -0.07293415 0.08267704
0003d0 7c 54 15 3e 66 79 51 be dd a7 aa bd d4 21 4e be
       0.1458301 -0.20456466 -0.08332799 -0.20130092
0003e0 a1 dd b3 bc 84 61 21 3e d4 2f c0 3e 48 b9 8c 3e
       -0.021956267 0.15759856 0.3753649 0.27485108
0003f0 34 d4 c1 bd 01 58 cd bb 83 a5 3d 3c 64 ce 0f be
       -0.09464303 -0.0062665944 0.011575106 -0.14043576

actor.0.bias f4 [32]
000000 10 bf 46 bc 76 6f 55 bc 4a 1a 13 3e 9d 65 95 3c
       -0.012130514 -0.013027063 0.14365497 0.01823693
000010 dc b1 4a bc 1b 88 2d 3d 88 7e 7d be 85 5b 4c be
       -0.012371507 0.04236613 -0.24755299 -0.19956787
000020 1c 8f ab 3d 1e 0a 8c 3e f5 f0 69 3e 10 93 09 bc
       0.08376905 0.2735147 0.22845824 -0.008396879
000030 64 c7 ed 3d 76 75 fd 3b c4 ce 20 3b 77 74 c3 bc
       0.11610296 0.0077349497 0.0024537304 -0.023859246
000040 21 0f 41 be 2f 26 83 bc ac 44 52 be d1 b4 51 bc
       -0.18853427 -0.016009418 -0.20534009 -0.012799458
000050 a5 9c 68 bd a0 bc 54 bd 30 3d a2 bc cc 9f 8b bc
       -0.056790013 -0.0519377 -0.019804567 -0.01704397
000060 54 b1 83 3b 00 00 00 00 7c 46 67 be 57 04 19 bc
       0.004018942 0.0 -0.22585481 -0.009339414
000070 2e ac 95 bb 8c 9b 52 bb 16 af ea 3c 5f e4 f8 bc
       -0.0045676446 -0.003213617 0.02864794 -0.030382333

actor.2.weight f4 [2, 32]
000000 8e 4e 35 be 8c a2 7d be 91 7a 86 3e cf 46 84 3d
       -0.17705747 -0.24769038 0.26265386 0.06458818
000010 79 a7 a2 bc 22 0a 80 3e c8 ea 82 bf 79 d6 09 bf
       -0.019855248 0.2500773 -1.02279 -0.53842884
000020 0a b1 cd 3e 8b cd b6 3f 09 db 41 3f d6 f6 88 3e
       0.40174133 1.4281477 0.75724846 0.2675082
000030 9b d8 34 3f 17 14 82 be 3d 43 8b 3b 88 e8 14 be
       0.70643014 -0.25405952 0.004249959 -0.14541829
000040 2f 7b cb bf bd da a5 bd 37 e0 7a bf 47 fc 1d bd
       -1.5896968 -0.08098362 -0.97998375 -0.03857067
000050 e6 aa ca bb 82 06 f7 3d fc 3f fc 3c 50 0a 0a be
       -0.0061849235 0.12061788 0.030792229 -0.13480496
000060 a1 03 10 bf 00 2b 6c be 0d 8d a8 bf 80 64 06 be
       -0.5625554 -0.23063278 -1.3168045 -0.13124275
000070 b6 05 c2 3d 99 8d 79 3e 27 bd 98 3e 11 08 0e bb
       0.094737455 0.24370421 0.29831812 -0.0021672288
000080 9a 88 26 3e 7c 4d a9 bc 35 83 9b be 92 2e 8a be
       0.16263047 -0.02066683 -0.3037354 -0.26988655
000090 51 50 80 be 77 cb bf be 85 cf 6d 3f bf 25 f4 3e
       -0.25061277 -0.3745992 0.92894775 0.47685048
0000a0 93 6b 37 bf 21 c9 be bf ba f2 60 bf 90 d3 a0 bd
       -0.7164852 -1.490513 -0.8787037 -0.07852852
0000b0 4f 33 6e bf a3 71 fd be b9 e5 aa be 08 66 ba 3e
       -0.9304704 -0.4950076 -0.3337839 0.3640597
0000c0 41 9f ce 3f 7f a2 0e be ea aa 71 3f 43 d3 55 be
       1.614235 -0.13929175 0.9440142 -0.20881371
0000d0 1e 37 9f be 9b 65 17 3e 24 24 63 bd d0 2a 2c bd
       -0.3109674 0.14784853 -0.05545439 -0.042033017
0000e0 47 28 05 3e 6f af 58 3d a1 2c 96 3f fe 22 8e 3d
       0.13003646 0.05290168 1.173237 0.06940268
0000f0 5a d6 19 be af e1 58 bd 6c 9e 3c 3e 59 4f 2f be
       -0.15023175 -0.052949604 0.18419808 -0.17120112

actor.2.bias f4 [2]
000000 be 6a 6d 3e ac 6a 6d be
       0.2318525 -0.23185223

critic.0.weight f4 [32, 64]
000000 da ae 42 3e 61 7a 56 be 8c 77 c8 bd 0d fa bf 3c
       0.19012013 -0.20945121 -0.09788427 0.023434663
000010 b3 b8 55 bd 3e 02 fe bc 80 0c 33 be 39 d2 a2 bc
       -0.052178096 -0.031006929 -0.17485237 -0.019875633
000020 75 81 41 3d 36 88 61 3e d7 d6 64 3d ba e8 dc 3d
       0.0472426 0.22024617 0.05586895 0.107865766
000030 27 7f af bc 95 a1 43 bc b4 81 7d 3d 97 94 95 3d
       -0.021422936 -0.01194038 0.061891273 0.07303732
000040 76 9e 92 3b de 4b ca bd 85 96 b7 bc 1d bd 96 bd
       0.0044744564 -0.09877752 -0.02241064 -0.07360289
000050 73 9e 7a be 3c e3 53 3d 4a 3b 0f 3e 58 00 c2 3d
       -0.24474506 0.05173038 0.1398746 0.09472722
000060 d5 ec 7e 3c bf 7f 9f bd 3e f3 a1 bd 63 05 cb bd
       0.015559395 -0.077880375 -0.07907723 -0.09913137
000070 fb 58 ea 3d 19 74 5b bd 37 c6 8b bd 54 41 11 bd
       0.11442753 -0.053577516 -0.06824916 -0.035462692
000080 e6 dd 03 bc d4 db 4c 3d 0d 00 d6 bb e3 65 2c 3e
       -0.00804851 0.050014332 -0.006530768 0.16835742
000090 45 6d bc be be 39 94 be a8 c2 c2 bc 09 23 84 bd
       -0.36802116 -0.28950304 -0.02377446 -0.06451995
0000a0 6c 89 19 3e b3 6f 3d bc 37 15 7b bd cc ee 7d 3e
       0.14993829 -0.011562276 -0.06129953 0.24798125
0000b0 83 61 1f 3e 01 76 07 3d 9b 01 68 3e dc ca ba bd
       0.15564542 0.03307152 0.22656862 -0.091207236
0000c0 4a bb 1e 3e b7 38 1f be 6a 38 b8 bd 35 77 14 bd
       0.15501133 -0.15548979 -0.08995135 -0.036246497
0000d0 94 f5 34 bd d9 49 5c be 43 c2 a1 3d fe 31 90 be
       -0.044179514 -0.21512546 0.078983806 -0.2816314
0000e0 4d 9f 13 3d 29 eb b5 bc 2e d4 8e bd 76 cf 90 bc
       0.036040593 -0.02220686 -0.06974064 -0.01767705
0000f0 09 ac cd 3d e3 fb ed bd 09 2c b8 3d a1 f5 14 bc
       0.10042579 -0.11620309 0.08992774 -0.009091766
000100 69 65 40 3e ae c4 86 3e ab 0b 2f 3e 40 0c 87 be
       0.18788685 0.2632193 0.17094295 -0.26376534
000110 30 4d 7d 3f 13 a6 88 3e 7d 18 d9 3c a3 ce 90 bd
       0.98945904 0.26689205 0.026500935 -0.07070663
000120 f2 f2 19 bf 70 39 4c 3e 36 01 c5 be 5f 71 98 be
       -0.6013633 0.19943786 -0.38477486 -0.29773995
000130 e5 dd 6c be e8 ab 2b bd 6d 68 39 3d e2 bc 10 3e
       -0.23131521 -0.04191199 0.045265604 0.14134553
000140 a3 f0 61 3e c8 6a 3e bd 37 70 4f 3e 38 72 14 3f
       0.22064452 -0.046488553 0.2025765 0.57986784
000150 6d d5 b5 3e c5 a0 fd 3e e3 b5 f8 3e c8 81 47 be
       0.35514393 0.4953672 0.4857627 -0.19483101
000160 79 c1 50 be 34 9e 7a 3c 92 4f 4c 3e fa 0b b5 be
       -0.20386304 0.015296508 0.19952229 -0.353607
000170 88 26 33 3f bc f3 2b bf b1 a2 20 3e 45 22 dd bd
       0.6998067 -0.67168784 0.15687062 -0.10797552
000180 29 04 78 bd 81 6e db 3b 22 9d b9 be ba 82 81 bc
       -0.060550842 0.0066965227 -0.36252695 -0.015809406
000190 65 89 29 be 11 e8 ba 3e 10 91 a7 bc 03 33 47 bd
       -0.16556318 0.36505178 -0.020454913 -0.048632633
0001a0 b0 c0 80 bd bf a5 79 3e 7e 5b 8f 3d d2 c2 41 be
       -0.06286752 0.24379633 0.069998726 -0.18921974
0001b0 3e 8f c8 3c f7 e5 19 3e 58 a7 d8 3e 55 9d d6 bd
       0.024482366 0.15029131 0.42315173 -0.104792275
0001c0 0b dc 7a 3e 29 ed 5f be f5 7c 76 be cf 56 41 3c
       0.24498002 -0.21867813 -0.24071105 0.011800482
0001d0 66 9f 3b 3e bd 84 08 3f 92 16 96 bd f6 b6 68 bd
       0.18322524 0.5332754 -0.07328524 -0.05681511
0001e0 9f 6e 2c bb f0 bb 46 be 5e cf 26 be 5e ff 75 3d
       -0.0026311052 -0.1940763 -0.16290042 0.06005799
0001f0 f2 01 a1 bd 7b 6d 3a 3b 4b 89 fa 3e 34 84 43 3f
       -0.07861699 0.0028446603 0.4893287 0.763736
000200 1d 4c 1a be 7f 0c ca 3d 04 f8 30 be cf 9d 1c be
       -0.15068097 0.09865665 -0.1728211 -0.15294574
000210 73 46 6a 3f 8a 5e a2 3c 25 dc 16 3d 09 12 26 3e
       0.91513747 0.01982047 0.03683104 0.16217817
000220 34 9f f5 be fd ba e9 3d 54 a3 d3 be 74 27 07 bf
       -0.47973025 0.11412618 -0.41335547 -0.52794576
000230 c7 2f 00 be ee 11 2c be b7 70 fd bc 97 61 99 bd
       -0.12518226 -0.16803715 -0.030937536 -0.07489317
000240 f1 84 89 3e 7e 91 ea bd 85 7b 99 3c a0 3b fc 3e
       0.2685924 -0.11453532 0.018735657 0.4926424
000250 b7 72 1f 3f 6a 53 fb 3e 35 b0 1c 3f e6 e5 5e be
       0.62284416 0.49087077 0.6120637 -0.21767387
000260 4a cf 51 3c 91 ff 84 bc 07 29 1b 3e a1 ef 94 3b
       0.012805769 -0.016235145 0.1515237 0.0045451676
000270 54 a6 56 3f 42 79 d3 be 52 c4 36 be 8e a6 70 be
       0.83847547 -0.4130345 -0.17848328 -0.23501036
000280 39 ba 23 bc 09 4e c7 3d b0 6e cb bd 76 6a 32 be
       -0.009993129 0.09731681 -0.09933221 -0.17423424
000290 1c b6 bd bb b2 94 9f 3e ef 7b 36 3d a3 ae 38 3e
       -0.0057895314 0.31168133 0.044551786 0.18035369
0002a0 2e ca 0f 3e 32 a1 05 3f d1 71 61 3d ec 46 84 bd
       0.14041969 0.5219909 0.055040184 -0.0645884
0002b0 a4 e2 a5 3e 63 c0 f1 bd e2 ec 40 3e c8 f7 b6 bd
       0.32399476 -0.11804273 0.18840364 -0.08933979
0002c0 fc 77 a9 3e f1 6f 71 be 7f 2b c3 3d c7 12 4a bd
       0.33099353 -0.23577859 0.095297806 -0.049334314
0002d0 db e6 0a 3f 83 d2 07 3f 06 f0 43 be a3 44 95 3d
       0.5425851 0.5305559 -0.1913453 0.07288482
0002e0 62 d3 5e 3e 7c 32 30 3e aa 38 dd bd cb b0 3e be
       0.21760324 0.17206758 -0.108018234 -0.18622129
0002f0 83 bd 53 be 9f ee 70 be 82 57 6c 3f ab b5 ea 3e
       -0.20677762 -0.23528527 0.92321026 0.45841727
000300 05 d5 d6 3c 76 17 8f 3b 18 0a be bb 04 46 f8 be
       0.026224623 0.0043668104 -0.005799543 -0.48490918
000310 0c 13 b3 3f e7 78 f7 3e 71 8e 72 3d eb 46 62 bd
       1.3990188 0.4833443 0.059217874 -0.055243414
000320 b5 8c 8a bf 0f 7d 5a bc d5 bd f5 be b4 d2 6f be
       -1.082419 -0.01333548 -0.47996393 -0.2342022
000330 11 ad 2b bd ca 15 a1 bd 96 ed ea bd c1 31 17 3c
       -0.041913096 -0.07865484 -0.11471097 0.009228171
000340 af 0d 5e 3e 17 e6 59 3c bd 9c 82 3d b9 bf 3c 3f
       0.21684907 0.013299487 0.06377552 0.73730046
000350 82 60 58 3f d4 a9 25 3f 9a 91 ee 3e 20 e6 f6 bc
       0.8452226 0.6471226 0.4659546 -0.030139029
000360 74 57 ff bc 18 31 8a be ff 14 7f 3d 3c 59 d5 be
       -0.03116963 -0.2699058 0.062275883 -0.41669643
000370 82 a8 43 3f ed ba 50 bf 00 e2 87 3d 59 6b ae bd
       0.76429 -0.81535226 0.06634903 -0.08516569
000380 60 49 1b be a6 7d 94 bc b7 bf 36 be 94 fe d2 bd
       -0.15164709 -0.01812632 -0.17846571 -0.10302463
000390 a8 df 72 3c 25 67 37 3e a8 83 be be cb 86 1b be
       0.014823832 0.1791044 -0.3720982 -0.15188138
0003a0 4e ee 44 bd d2 24 51 3f 2b 2b 1b be cd b0 b7 3e
       -0.048078828 0.8169681 -0.15153186 0.35877076
0003b0 0a 49 f6 3c c5 fa 82 3b 8f 37 6c 3e c8 00 a5 bd
       0.030064125 0.003997179 0.23068069 -0.0805679
0003c0 a4 a3 c4 3e d5 84 60 3d 3b 84 86 3d 78 03 8b bd
       0.38406098 0.05481418 0.0656819 -0.06787771
0003d0 ba da f4 3d 92 5a 88 3e d0 2d 7e bc bb e8 07 3e
       0.11955781 0.266316 -0.015513852 0.13272373
0003e0 d3 ff 2c bd 81 2f 84 3e 48 80 9a bd f3 e1 d8 3b
       -0.04223616 0.25817493 -0.07543999 0.006618732
0003f0 c1 f9 c4 be 01 78 88 3e 61 35 39 3f 48 e3 3d 3f
       -0.38471797 0.26654056 0.72347075 0.7417493

critic.0.bias f4 [32]
000000 9a dd 2e bc ae 2d ae 3d ac 13 d6 3d 64 b8 3b 3e
       -0.010672951 0.085048065 0.10452971 0.18332058
000010 8c 07 19 3f a3 ea 17 3f 2f b0 ae 3b fe e1 27 3f
       0.5977714 0.593424 0.0053310613 0.6557921
000020 00 00 00 00 b9 c4 9a 3d 45 2c 30 3f ee 03 1b 3f
       0.0 0.07557053 0.6881755 0.6055287
000030 e9 b1 1a 3f db 61 4c bc 41 e1 1f 3f ee e0 60 bc
       0.6042772 -0.012474502 0.62453085 -0.013725502
000040 56 a3 1d 3f 60 64 05 3e 12 f9 26 bd e3 dd 11 3f
       0.61577356 0.13026571 -0.040764876 0.569792
000050 c3 21 1f 3f 00 a8 1e 3f 80 60 19 3f b5 42 16 3f
       0.6216089 0.619751 0.5991287 0.58695537
000060 04 b1 19 3f fa 03 25 3f 5a a8 1a 3f 9a 85 a6 be
       0.6003573 0.6445919 0.60413134 -0.32523805
000070 29 7f 17 3f 7d 29 22 3e 9a 16 1b 3f 64 06 29 3f
       0.59178406 0.15836139 0.6058136 0.66025376

critic.2.weight f4 [1, 32]
000000 9a a8 a0 3b 16 e2 3f 3f 28 ba 3c 3f b6 32 a3 3f
       0.0049029114 0.74954355 0.7372155 1.2749851
000010 05 6d fb be 1b a6 ad be 44 02 90 3d 68 19 a4 be
       -0.49106613 -0.3391579 0.07031682 -0.32050633
000020 1e fc 4e 3e 87 8d fe 3e b6 87 8e be 84 45 c7 be
       0.20213363 0.49717352 -0.27837914 -0.38920224
000030 bc 19 09 bf c9 78 88 3c 18 ca c0 be 4f ba f8 3c
       -0.5355489 0.016659157 -0.37654185 0.030362276
000040 19 f2 ba be d1 4c 61 3f 8b f7 04 3c 83 15 eb be
       -0.3651283 0.8800784 0.0081156595 -0.4591485
000050 fc df 15 bf e9 a9 16 bf 80 94 12 bf 70 4b f1 be
       -0.585449 -0.5885301 -0.57257843 -0.47127867
000060 40 a9 d1 be 0a c3 be be d3 1e d2 be d6 1e 6b 3f
       -0.4094944 -0.37258178 -0.41039142 0.91843927
000070 eb 61 ee be f8 e6 7d 3f 84 fd d7 be b3 89 02 bf
       -0.4655908 0.99180555 -0.42185605 -0.5099136

exp_avg f4 [64, 12]
000000 99 03 0a ba 9f 10 d7 b8 03 d5 b5 38 54 30 9e b9
       -0.00052648183 -0.00010255095 8.670429e-05 -0.00030172116
000010 fa 70 6c b9 6a 55 7d ba 14 6e 35 37 9f 10 d7 b8
       -0.00022548801 -0.0009663912 1.081407e-05 -0.00010255095
000020 04 00 00 80 be f9 73 38 98 f2 af 35 04 c6 09 ba
       -6e-45 5.8168305e-05 1.310912e-06 -0.0005255642
000030 cd 34 82 ba 0f f2 41 39 d3 b1 2c 3a 7f b5 80 39
       -0.0009933949 0.00018496088 0.0006587777 0.00024549288
000040 0b 63 10 39 74 49 3a 3a b3 9d 01 39 0f f2 41 39
       0.00013769807 0.0007106282 0.00012361146 0.00018496088
000050 74 1d e4 3a df 02 a9 3a 15 68 db 3a 4d 42 e6 b9
       0.0017403797 0.0012894532 0.0016739393 -0.00043918416
000060 06 ee 4a bc 04 1e d7 ba 3f b0 e7 bb a1 61 4c bb
       -0.012385851 -0.0016412144 -0.0070705707 -0.003118612
000070 46 93 08 bb b2 7a 39 bc 12 fa 74 b7 04 1e d7 ba
       -0.0020839735 -0.011320757 -1.4601757e-05 -0.0016412144
000080 58 b9 a5 3b 92 9e 7a 3b 55 82 b0 3b e6 c0 4b bc
       0.005057495 0.0038241488 0.0053866305 -0.012436127
000090 28 9e fb bb 2f 36 a0 ba bc ca d9 39 0d 5c 75 bb
       -0.007678766 -0.0012223179 0.00041540514 -0.00374389
0000a0 5a 1e 33 bc 32 c6 48 bc 33 49 3d ba 2f 36 a0 ba
       -0.010932529 -0.012254285 -0.00072206854 -0.0012223179
0000b0 a2 16 3e bc 77 42 49 bc 64 d7 28 bc cd 88 20 bc
       -0.011602076 -0.012283913 -0.010305259 -0.009798241
0000c0 04 00 00 00 04 00 00 00 04 00 00 00 04 00 00 00
       6e-45 6e-45 6e-45 6e-45
0000d0 04 00 00 00 04 00 00 00 04 00 00 00 04 00 00 00
       6e-45 6e-45 6e-45 6e-45
0000e0 04 00 00 00 04 00 00 00 04 00 00 00 04 00 00 00
       6e-45 6e-45 6e-45 6e-45
0000f0 04 00 00 00 04 00 00 00 04 00 00 00 04 00 00 00
       6e-45 6e-45 6e-45 6e-45
000100 04 00 00 00 04 00 00 00 04 00 00 00 04 00 00 00
       6e-45 6e-45 6e-45 6e-45
000110 04 00 00 00 04 00 00 00 04 00 00 00 04 00 00 00
       6e-45 6e-45 6e-45 6e-45
000120 69 ce 10 39 48 e8 a4 b9 ef 99 df 39 8c 52 02 ba
       0.00013809804 -0.0003145358 0.00042648564 -0.0004971407
000130 4e 3c ad 3a 32 38 0c 3b 0f 92 90 b7 48 e8 a4 b9
       0.0013216825 0.00213958 -1.7234152e-05 -0.0003145358
000140 a8 a3 9f 39 54 b8 c5 3a ad 29 51 3a 8f e7 d4 39
       0.00030448777 0.0015084841 0.00079789275 0.00040608316
000150 04 00 00 00 04 00 00 00 04 00 00 00 04 00 00 00
       6e-45 6e-45 6e-45 6e-45
000160 04 00 00 00 04 00 00 00 04 00 00 00 04 00 00 00
       6e-45 6e-45 6e-45 6e-45
000170 04 00 00 00 04 00 00 00 04 00 00 00 04 00 00 00
       6e-45 6e-45 6e-45 6e-45
000180 7d 12 93 ba 97 2c ac b9 c7 8a d6 bb 2b 9d b2 b8
       -0.001122072 -0.00032839619 -0.0065473053 -8.516976e-05
000190 ca c8 08 bb df 2e b6 bb 5a 8a 64 37 97 2c ac b9
       -0.0020871633 -0.0055597867 1.36220715e-05 -0.00032839619
0001a0 71 0b 7f bb 7f b1 8c bb 8d 6d c5 bb d9 07 b7 ba
       -0.0038916732 -0.00429362 -0.0060250224 -0.0013964131
0001b0 47 ec 7b bb 27 7c ee b9 36 85 11 bb 4d 5e 78 ba
       -0.0038440393 -0.00045487398 -0.0022204644 -0.0009474501
0001c0 bb f0 94 b9 5f 28 38 bb ac 0a 45 b9 27 7c ee b9
       -0.00028408118 -0.0028100235 -0.0001879136 -0.00045487398
0001d0 7d c6 49 ba 4e dd c1 ba c5 be de 39 f0 76 92 bb
       -0.00076971186 -0.0014790685 0.00042485274 -0.004469745
0001e0 a3 b3 e6 3a 62 7c 6a 38 28 e0 da 3a 00 f9 a5 39
       0.0017601143 5.5905788e-05 0.0016698884 0.00031656772
0001f0 df 1f 85 3a 3b 56 0a 3b e7 8b 89 38 62 7c 6a 38
       0.0010156593 0.0021108526 6.558728e-05 5.5905788e-05
000200 50 0e 2d 3b 83 e2 06 3b d0 75 b7 3a df ee d6 3a
       0.0026406236 0.002058179 0.0013996903 0.0016398093
000210 cf ef 02 bb 04 3f 8a b9 58 f7 c2 ba 1c 4c 0b ba
       -0.0019979363 -0.0002636836 -0.001487474 -0.00053137704
000220 ec f4 78 39 5d c0 fc b9 dc 91 91 37 04 3f 8a b9
       0.00023742364 -0.00048208507 1.7353268e-05 -0.0002636836
000230 ac 9c 7e 3a e2 f6 9e 3a 27 57 80 3a 03 87 d9 ba
       0.0009712677 0.001212802 0.0009791598 -0.0016596023
000240 95 a3 ce 39 61 ac 9f 39 f3 e3 92 3a ca 35 19 3a
       0.0003941326 0.00030455276 0.001120685 0.0005844502
000250 b6 8a cb 39 fe b9 7f 3a 49 df 5d 38 61 ac 9f 39
       0.00038822525 0.0009755193 5.2898456e-05 0.00030455276
000260 f4 f7 b1 3a 8f a2 f7 39 a0 48 26 3a 51 b3 87 39
       0.0013577924 0.00047232627 0.00063432194 0.00025882808
000270 22 0c 1e ba 1c a8 52 38 c7 91 01 b9 e2 bc 9f 38
       -0.00060290296 5.0224466e-05 -0.00012356705 7.616893e-05
000280 85 e5 31 b9 92 bd 3c ba 35 50 41 37 1c a8 52 38
       -0.00016965538 -0.0007199879 1.1522371e-05 5.0224466e-05
000290 48 63 1a 3a 86 97 50 39 fe d0 ed 39 3b ad 20 ba
       0.0005889428 0.00019892873 0.00045359874 -0.0006129329
0002a0 39 64 81 ba f1 c3 a3 b9 54 c8 1b b9 70 d2 f4 b9
       -0.0009871788 -0.0003123577 -0.0001485658 -0.00046696095
0002b0 0a 19 bd 3a c1 03 19 3b 79 bb af b8 f1 c3 a3 b9
       0.0014427018 0.0023348185 -8.37957e-05 -0.0003123577
0002c0 43 b4 72 3a 1f 75 82 3a e3 a7 e4 3a b5 33 4e ba
       0.00092584285 0.0009953118 0.0017445054 -0.00078659813
0002d0 04 00 00 00 04 00 00 00 04 00 00 00 04 00 00 00
       6e-45 6e-45 6e-45 6e-45
0002e0 04 00 00 00 04 00 00 00 04 00 00 00 04 00 00 00
       6e-45 6e-45 6e-45 6e-45
0002f0 04 00 00 00 04 00 00 00 04 00 00 00 04 00 00 00
       6e-45 6e-45 6e-45 6e-45
000300 68 16 e1 3a 3b 10 14 39 97 44 69 3b 81 0e 1b 39
       0.0017172815 0.00014120426 0.0035593861 0.00014787355
000310 93 50 b2 3a d4 c3 e0 3a 0e ee 60 39 3b 10 14 39
       0.0013604335 0.0017148205 0.00021450987 0.00014120426
000320 47 34 ae 3b 3c 8d 9d 3b eb ad 00 3b 80 9c 15 3b
       0.0053162905 0.004808096 0.0019634913 0.0022828877
000330 00 00 00 00 00 00 00 00 00 00 00 00 00 00 00 00
       0.0 0.0 0.0 0.0
000340 00 00 00 00 00 00 00 00 00 00 00 00 00 00 00 00
       0.0 0.0 0.0 0.0
000350 00 00 00 00 00 00 00 00 00 00 00 00 00 00 00 00
       0.0 0.0 0.0 0.0
000360 2a e1 18 bc 74 15 4d ba 2f 63 be bb 52 cc 03 bb
       -0.009331027 -0.0007823326 -0.0058101634 -0.0020110798
000370 6b b4 e3 ba e7 62 d1 bb b9 36 c0 b9 74 15 4d ba
       -0.0017372494 -0.006389964 -0.00036661865 -0.0007823326
000380 b4 10 44 bb 68 ba 93 bb 74 80 7c 38 0c ac 18 bc
       -0.0029917182 -0.0045083053 6.0201113e-05 -0.009318363
000390 8c 45 0c bb d3 fc aa b9 de 22 3b 00 9d 50 95 ba
       -0.0021403758 -0.00032613295 5.430802e-39 -0.0011391822
0003a0 ea 1a 0e 3a 2e b6 0c bb 8a f0 ca 38 d3 fc aa b9
       0.00054208806 -0.0021470892 9.6769145e-05 -0.00032613295
0003b0 44 69 2f 3a 38 e1 39 3b 28 28 c4 3a 89 7c 22 bb
       0.0006691406 0.0028363 0.0014965581 -0.0024793467
0003c0 aa 9b 2c b9 a4 01 52 b9 7f ec 91 ba fb c7 3b b9
       -0.00016461188 -0.00020027772 -0.0011133103 -0.00017908208
0003d0 22 57 2a b9 e5 57 3d ba b2 c5 01 b9 a4 01 52 b9
       -0.00016244923 -0.0007222875 -0.00012376046 -0.00020027772
0003e0 52 77 df 39 02 90 05 b9 52 77 df 39 c1 62 f0 b7
       0.00042622775 -0.00012737515 0.00042622775 -2.8656215e-05
0003f0 78 5c 6d bc 57 d2 77 b9 76 f2 a1 3b 72 ca 99 bb
       -0.014487378 -0.00023634113 0.0049422337 -0.004693323

exp_avg_sq f4 [64, 12]
000000 d1 93 08 38 8e 2e 7e 34 d0 74 25 38 88 bc e8 35
       3.256259e-05 2.367253e-07 3.9447856e-05 1.7340217e-06
000010 83 4e a7 36 0f 7c 1d 38 1f 06 5c 31 8e 2e 7e 34
       4.986128e-06 3.7547255e-05 3.2017693e-09 2.367253e-07
000020 f4 01 00 00 97 9a 53 34 c6 22 ab 30 b7 99 08 38
       7e-43 1.9707146e-07 1.2451771e-09 3.2568085e-05
000030 9c 82 8a 38 3c d6 a4 35 3a 5f 0d 39 c9 95 93 36
       6.604681e-05 1.2281303e-06 0.00013482283 4.3983787e-06
000040 e9 ef 75 37 15 f1 d1 38 a5 85 01 35 3c d6 a4 35
       1.4658996e-05 0.000100108016 4.8250723e-07 1.2281303e-06
000050 c9 c4 e5 38 f7 b1 d1 38 18 f6 a8 38 4c 7d 91 38
       0.00010956225 9.999045e-05 8.056703e-05 6.937477e-05
000060 20 c7 1c 3a d0 3e 3e 37 88 74 d4 39 d0 fb 41 38
       0.00059805997 1.1339507e-05 0.00040522614 4.6249304e-05
000070 cb 9e ad 38 b6 56 88 3a 6f e2 79 36 d0 3e 3e 37
       8.27886e-05 0.0010401818 3.7235693e-06 1.1339507e-05
000080 a3 2d be 39 83 ce a3 39 06 ce c1 39 1a fd 26 3a
       0.00036273626 0.00031243646 0.00036965328 0.00063701125
000090 e6 05 37 3a 01 c4 21 38 02 49 00 3a 3c 88 22 39
       0.0006981775 3.8567934e-05 0.00048936915 0.00015500275
0000a0 4b 71 70 39 bf 12 00 3b 74 3c 43 37 01 c4 21 38
       0.00022930389 0.0019542424 1.1636981e-05 3.8567934e-05
0000b0 0c 4d 2f 3a cb 78 13 3a 5c 0b 35 3a b2 6f 65 3a
       0.0006687201 0.00056256045 0.0006906295 0.00087523006
0000c0 f4 01 00 00 f4 01 00 00 f4 01 00 00 f4 01 00 00
       7e-43 7e-43 7e-43 7e-43
0000d0 f4 01 00 00 f4 01 00 00 f4 01 00 00 f4 01 00 00
       7e-43 7e-43 7e-43 7e-43
0000e0 f4 01 00 00 f4 01 00 00 f4 01 00 00 f4 01 00 00
       7e-43 7e-43 7e-43 7e-43
0000f0 f4 01 00 00 f4 01 00 00 f4 01 00 00 f4 01 00 00
       7e-43 7e-43 7e-43 7e-43
000100 f4 01 00 00 f4 01 00 00 f4 01 00 00 f4 01 00 00
       7e-43 7e-43 7e-43 7e-43
000110 f4 01 00 00 f4 01 00 00 f4 01 00 00 f4 01 00 00
       7e-43 7e-43 7e-43 7e-43
000120 b7 f2 12 39 7e 3c b9 36 1f 19 c0 38 f0 8b af 37
       0.00014014063 5.520472e-06 9.1599526e-05 2.092679e-05
000130 0e fd 11 38 c0 ec 7d 39 51 da b4 35 7e 3c b9 36
       3.480637e-05 0.00024216156 1.3474584e-06 5.520472e-06
000140 90 d4 c4 38 ee 23 8f 38 39 5b 8f 38 21 1b 1e 39
       9.385601e-05 6.825464e-05 6.835763e-05 0.0001507816
000150 f4 01 00 00 f4 01 00 00 f4 01 00 00 f4 01 00 00
       7e-43 7e-43 7e-43 7e-43
000160 f4 01 00 00 f4 01 00 00 f4 01 00 00 f4 01 00 00
       7e-43 7e-43 7e-43 7e-43
000170 f4 01 00 00 f4 01 00 00 f4 01 00 00 f4 01 00 00
       7e-43 7e-43 7e-43 7e-43
000180 c4 e2 28 39 fd 8e 5c 37 1d 4b 9a 3a ec 04 56 38
       0.00016106205 1.3146314e-05 0.0011771653 5.102616e-05
000190 d6 3e 26 39 69 19 9a 3a cc 6e 86 36 fd 8e 5c 37
       0.00015854402 0.001175684 4.0064097e-06 1.3146314e-05
0001a0 d4 30 46 3a 44 f0 29 3a 6d 6c 48 3a 0c a3 4d 39
       0.00075603765 0.0006482641 0.0007645551 0.00019611063
0001b0 5c 1b 4d 39 fc e1 2a 36 aa 13 8e 39 ca 0d 18 37
       0.00019560516 2.5463514e-06 0.00027099 9.0631165e-06
0001c0 fe 9d 02 38 fc df 7f 39 ed 1f 08 35 fc e1 2a 36
       3.1141557e-05 0.00024402136 5.0710406e-07 2.5463514e-06
0001d0 4f 9e c6 38 5f 11 a0 38 ba 85 af 38 af 9d 52 39
       9.470863e-05 7.63263e-05 8.369559e-05 0.00020085902
0001e0 23 37 2f 38 01 cc 77 35 f6 f3 2a 38 f3 6e 80 36
       4.17746e-05 9.2311535e-07 4.0758365e-05 3.8276135e-06
0001f0 b6 6f 19 37 e1 55 86 38 dc 58 98 34 01 cc 77 35
       9.14552e-06 6.405614e-05 2.837686e-07 9.2311535e-07
000200 c2 77 05 38 e7 01 d2 37 24 02 df 37 22 8f 41 38
       3.1821204e-05 2.5034837e-05 2.6584668e-05 4.614809e-05
000210 39 e5 43 39 1b fa 65 36 32 fa 61 39 90 01 59 37
       0.00018682041 3.426924e-06 0.00021550877 1.2934572e-05
000220 3f f1 f6 37 68 c9 88 39 8e 1b 9f 35 1b fa 65 36
       2.9437824e-05 0.0002609 1.1854443e-06 3.426924e-06
000230 a1 3e 2b 39 c0 b4 11 39 3e 10 e5 38 6d a1 4a 39
       0.00016331162 0.00013895612 0.00010922596 0.00019324357
000240 22 64 6b 38 d8 dd 94 35 26 0f 85 38 c5 1a 9f 36
       5.6121622e-05 1.1091424e-06 6.344756e-05 4.7416856e-06
000250 03 4e 3d 37 2a f9 8b 38 f5 fc bb 34 d8 dd 94 35
       1.1283441e-05 6.674447e-05 3.5015515e-07 1.1091424e-06
000260 93 24 5a 38 d4 6d 46 38 1e b5 00 38 2e 52 75 38
       5.2009313e-05 4.7309164e-05 3.0686257e-05 5.8489088e-05
000270 d9 75 ba 36 e6 68 d6 34 ae 03 68 37 2a d7 9b 35
       5.5569512e-06 3.993693e-07 1.3829134e-05 1.1611021e-06
000280 e9 cb 04 36 fc 5e 9f 37 5f 74 fb 33 e6 68 d6 34
       1.9788224e-06 1.8998508e-05 1.1709266e-07 3.993693e-07
000290 a9 0b 2f 37 a1 7b d2 36 81 db 1f 37 a6 2f ea 36
       1.0433528e-05 6.27288e-06 9.528246e-06 6.9792904e-06
0002a0 14 28 d5 38 3d b3 b5 36 8c a1 d6 38 55 0b 92 37
       0.000101640966 5.4150864e-06 0.000102344056 1.7409833e-05
0002b0 48 a7 ea 37 00 32 32 39 b9 ca c1 35 3d b3 b5 36
       2.797287e-05 0.0001699403 1.4438621e-06 5.4150864e-06
0002c0 fd 38 db 38 30 86 a4 38 61 44 ab 38 af d1 e9 38
       0.00010453349 7.845124e-05 8.166652e-05 0.000111493624
0002d0 75 16 97 25 0b 64 98 24 36 43 57 27 a1 01 0e 25
       2.6209542e-16 6.608897e-17 2.9873679e-15 1.2317089e-16
0002e0 ea a5 34 25 b3 47 15 27 0b 04 35 23 0b 64 98 24
       1.5668725e-16 2.0716772e-15 9.812886e-18 6.608897e-17
0002f0 51 d5 5c 27 16 3c 3c 26 5b b9 59 27 ef 2f 8e 25
       3.0646772e-15 6.5307034e-16 3.021528e-15 2.4665554e-16
000300 4a a2 a8 38 13 00 fb 35 82 8d a4 38 2e be f5 36
       8.041093e-05 1.8700979e-06 7.846487e-05 7.323709e-06
000310 75 ef 5f 37 d7 c1 1f 39 ca 3c 38 35 13 00 fb 35
       1.3347589e-05 0.00015235633 6.86338e-07 1.8700979e-06
000320 e0 34 ae 38 c6 ad 84 38 49 88 5a 38 1d 84 b5 38
       8.306815e-05 6.326618e-05 5.2102176e-05 8.6553606e-05
000330 00 00 00 00 00 00 00 00 00 00 00 00 00 00 00 00
       0.0 0.0 0.0 0.0
000340 00 00 00 00 00 00 00 00 00 00 00 00 00 00 00 00
       0.0 0.0 0.0 0.0
000350 00 00 00 00 00 00 00 00 00 00 00 00 00 00 00 00
       0.0 0.0 0.0 0.0
000360 a3 ac f3 39 99 7b a4 36 46 e7 1a 3a e5 fd 98 37
       0.00046477196 4.9019695e-06 0.0005909096 1.823804e-05
000370 b8 4a 81 38 46 83 bf 39 68 50 72 35 99 7b a4 36
       6.165117e-05 0.00036528165 9.026903e-07 4.9019695e-06
000380 71 cd f8 38 b7 c5 ed 38 5b d3 4f 35 f1 b7 f3 39
       0.00011863828 0.00011337868 7.742107e-07 0.0004648562
000390 78 1f 71 39 15 f2 c1 36 4a ca 8d 34 4e b4 01 38
       0.00022995274 5.7800303e-06 2.641048e-07 3.092392e-05
0003a0 a6 2d 6e 38 a8 e1 e5 39 95 44 fd 35 15 f2 c1 36
       5.6786135e-05 0.0004384641 1.8869929e-06 5.7800303e-06
0003b0 69 b0 69 39 1d 4a 3e 39 61 a2 54 39 ba 30 87 39
       0.0002228633 0.00018147421 0.00020278386 0.0002578551
0003c0 d8 03 86 35 df 04 d0 34 68 8c 25 37 4a ff 98 35
       9.984897e-07 3.8746563e-07 9.867457e-06 1.1399181e-06
0003d0 da df d5 35 84 ed a0 37 07 c5 40 34 df 04 d0 34
       1.5934886e-06 1.9184088e-05 1.7953072e-07 3.8746563e-07
0003e0 70 62 1d 37 62 ca 79 37 36 60 1d 37 03 1c 28 35
       9.3808485e-06 1.48886775e-05 9.38033e-06 6.262564e-07
0003f0 59 41 d3 3b 3c b2 56 38 cf e0 b8 3b 10 26 a3 39
       0.006446999 5.118757e-05 0.0056420336 0.00031118141
