models/checkpoint_370000.pt (torch, 125871 bytes, 33 tensors)

shared.0.weight f4 [64, 12]
0	0xbe1f3fd3	-0.15551691
1	0x3dae6321	0.08515001
2	0x3e3d3441	0.18476965
3	0x3f43f612	0.7654735
4	0xbe3a32a5	-0.18183382
5	0xbe0d4f54	-0.13799793
6	0xbe048a21	-0.12943317
7	0xbdc25161	-0.09488178
8	0xbd3c4298	-0.045961946
9	0x3dd914b3	0.10599651
10	0xbde43852	-0.11143555
11	0x3de6f17b	0.112765275
12	0xbddf26aa	-0.108960465
13	0xbb99644a	-0.004681145
14	0xbdf280d4	-0.11840978
15	0x3efac5e8	0.48979115
16	0xbd561f7f	-0.05227613
17	0xbe92a1a9	-0.28638962
18	0x3e310b32	0.17289427
19	0x3e641a22	0.22275594
20	0xbcf99181	-0.03046489
21	0xbdb9fae6	-0.09081058
22	0xbd1777dd	-0.036979545
23	0xbd06acd1	-0.032879654
24	0x3d805c8b	0.06267651
25	0xbecbb606	-0.3978731
26	0xbd89edd4	-0.06734815
27	0xbe4b392f	-0.19846033
28	0xbec0c072	-0.37646824
29	0xbcd5a6f5	-0.026080588
30	0x3b482f1f	0.0030545664
31	0xbeb67cbc	-0.3564204
32	0xbe88601c	-0.26635826
33	0x3dc8f01b	0.098114215
34	0x3e8419aa	0.2580083
35	0x3c1f2362	0.009713026
36	0xbe352c9d	-0.176928
37	0xbeab6f90	-0.33483553
38	0xbd90d696	-0.07072179
39	0x3d9be9a3	0.07612922
40	0x3db327cf	0.08747827
41	0x3e8f82c4	0.28029454
42	0x3e81c471	0.25345185
43	0xbbe7a651	-0.007069387
44	0xbe4611f3	-0.19342785
45	0x3cc8f7f1	0.02453229
46	0x3e1ebc84	0.155016
47	0x3d66e28a	0.05636839
48	0x3e55a8d8	0.2086519
49	0xbe839a8e	-0.25703853
50	0x3e12503b	0.14288418
51	0xbf1d937d	-0.61553174
52	0xbe286be0	-0.16447401
53	0x3dbacf57	0.09121578
54	0xbf119226	-0.5686363
55	0xbdde777c	-0.108626336
56	0x3d8e0299	0.06934089
57	0x3e3d254c	0.18471259
58	0xbe052b85	-0.13004883
59	0xbe49bad9	-0.19700183
60	0xbe2d3ccd	-0.16917725
61	0xbcc65073	-0.024208283
62	0xbe9196cb	-0.28435358
63	0xbefb097e	-0.4903068
64	0xbec08c7e	-0.37607187
65	0x3d88f763	0.0668781
66	0xbe1dd098	-0.15411603
67	0xbdaf77f8	-0.08567804
68	0x3bd8d66c	0.006617358
69	0xbca6dad4	-0.020368017
70	0xbd37cb7e	-0.0448718
71	0x3e0043ef	0.12525915
72	0xbdd74ced	-0.10512719
73	0x3ef34e17	0.47520515
74	0x3d331ae0	0.043726802
75	0x3ebbe98c	0.3670162
76	0xbf138887	-0.576302
77	0xbe4e7129	-0.20160355
78	0x3c999109	0.018745916
79	0x3e80e54c	0.2517494
80	0x3d87c13d	0.06628654
81	0xbd53ecee	-0.051739626
82	0xbdc3a5c9	-0.095531054
83	0x3e073f32	0.13207701
84	0x3d91570c	0.07096681
85	0xbeaa2460	-0.33230877
86	0x3d0142a4	0.031557694
87	0xbebf43e0	-0.37356472
88	0xbef4d383	-0.4781762
89	0xbd25f535	-0.04051705
90	0xbef3f525	-0.47647968
91	0xbe67bee2	-0.2263141
92	0xbd146292	-0.036226816
93	0xbe90065f	-0.2812986
94	0x3e2212c1	0.15827467
95	0x3d397a24	0.045282498
96	0xbeb19e62	-0.3469115
97	0xbef92320	-0.4865961
98	0x3dc62af3	0.09676161
99	0xbe94bad2	-0.29048783
100	0x3e881b02	0.26583105
101	0x3dc2f319	0.095190234
102	0xbf9951ba	-1.1978066
103	0xbec7269e	-0.3889665
104	0x3e092e8e	0.13396665
105	0x3d6a8901	0.057259563
106	0xbce2a4ef	-0.027666537
107	0xbf372daa	-0.7155405
108	0x3d74c7b5	0.059760768
109	0x3e41fd07	0.18944179
110	0x3deef97e	0.116686806
111	0xbdbe65f9	-0.092967935
112	0xbecd99ce	-0.40156406
113	0x3db79719	0.089643665
114	0xbf9291ba	-1.1450722
115	0x3d22460d	0.039617587
116	0x3c9bc760	0.019015968
117	0xbeeb12f5	-0.459129
118	0x3db0691b	0.08613797
119	0xbe84a28e	-0.2590527
120	0xbdf9c495	-0.12195698
121	0x3e47b867	0.19503938
122	0xba24a05d	-0.00062799995
123	0x3ec3dad7	0.382529
124	0xbf0d758b	-0.5525748
125	0xbe3e1aad	-0.18564864
126	0x3cf47582	0.029841188
127	0x3d34cfbf	0.044143435
128	0xbce36003	-0.027755743
129	0xbbeed021	-0.0072879945
130	0x3d7b3784	0.06133224
131	0x3e7172ec	0.23578995
132	0xbea7bee5	-0.32762828
133	0x3f0135bc	0.5047262
134	0x3dc8305c	0.09774849
135	0x3f739365	0.9514678
136	0xbe7930de	-0.24335048
137	0xbde47c5f	-0.111565344
138	0x3ec22503	0.37918863
139	0x3ec8639c	0.39138496
140	0x3da857a8	0.08219844
141	0xbd056d9b	-0.03257523
142	0x3d58ea49	0.052957807
143	0x3e3cacf3	0.1842535
144	0xbe7cdab8	-0.2469281
145	0x3edb0030	0.4277358
146	0xbb6951de	-0.0035601775
147	0x3e375e97	0.17907177
148	0xbe54fbe6	-0.20799217
149	0x3e1245a9	0.14284386
150	0x3ec26328	0.37966275
151	0x3e22c348	0.15894806
152	0x3dd6a5f7	0.10480874
153	0xbe0bc7b3	-0.13650398
154	0xbdce7f2a	-0.10082848
155	0x3d93dc6e	0.07219778
156	0xbed3070b	-0.4121631
157	0x3e1a5a47	0.150735
158	0xbdf4dd26	-0.11956243
159	0x3ee7bb2d	0.4525999
160	0x3e10f66c	0.14156502
161	0x3dd83b83	0.10558226
162	0x3f4daa73	0.8033821
163	0x3ec86ea9	0.39146927
164	0x3d99551b	0.07486936
165	0xbe9251f6	-0.28578156
166	0x3d934aed	0.07192025
167	0x3ea2d144	0.31800282
168	0xbd94dab9	-0.072682805
169	0x3d3573db	0.04429994
170	0xbe1b1234	-0.15143663
171	0x3eeccd0e	0.46250194
172	0xbeff1a0e	-0.49824566
173	0x3e2ee171	0.17078187
174	0x3ea8b770	0.32952452
175	0xbd47bc95	-0.04876383
176	0x3c225cc3	0.009909811
177	0xbcd387c3	-0.025821572
178	0x3e73a87d	0.23794742
179	0x3eaa46a4	0.3325702
180	0xbc639665	-0.013890837
181	0xbebf27c7	-0.37335035
182	0x3e4419b8	0.19150436
183	0x3d5b27fe	0.053504936
184	0xbeb636e4	-0.35588753
185	0xbcd5cfa2	-0.026099984
186	0xbe9cbc1e	-0.30612272
187	0xbe93ff3b	-0.28905663
188	0x3e9643fd	0.29348746
189	0xbd51bd3d	-0.051205862
190	0x3e0724af	0.13197587
191	0xbe1b6772	-0.1517618
192	0xbe69ea69	-0.22843327
193	0x3ec0f62e	0.3768782
194	0xbd1a5e36	-0.037687503
195	0x3f0ef774	0.55846334
196	0xbdcb7f13	-0.09936347
197	0xbd8082e8	-0.062749684
198	0x3eeae766	0.45879668
199	0x3f286a6a	0.65787375
200	0xbe05925c	-0.13044113
201	0xbd3d7aa9	-0.046259556
202	0x3d577e4d	0.052610684
203	0x3e8185fc	0.25297534
204	0x3c990c5e	0.018682655
205	0x3c820370	0.01587078
206	0xbe24deba	-0.16100588
207	0xbd8e186c	-0.06938252
208	0xbe1aa945	-0.15103634
209	0xbd155a83	-0.03646327
210	0x3d30f67b	0.043203812
211	0xbd65363b	-0.05595992
212	0xbd86ab06	-0.06575589
213	0xbdc562c7	-0.09637981
214	0xbd96c731	-0.073622115
215	0xbd01ed38	-0.03172037
216	0xbe68998e	-0.22714826
217	0x3f0cbbc5	0.54974014
218	0x3e19700b	0.14984147
219	0x3ec4617c	0.38355625
220	0xbbf0ef91	-0.0073527773
221	0x3d9fbe7c	0.07800004
222	0x3e9c48f1	0.305244
223	0x3f12664d	0.5718735
224	0xbd2c590b	-0.042077105
225	0x3dbe2033	0.09283485
226	0xbf15a97b	-0.5846173
227	0xbe65e643	-0.22451119
228	0x3e936ac8	0.28792405
229	0xbed1fa80	-0.4101143
230	0xbec5cd5c	-0.3863324
231	0x3f0c78cb	0.54871815
232	0x3e1e6852	0.15469483
233	0xbd8c50b8	-0.068513334
234	0xbf0da58a	-0.5533072
235	0xbeb426e0	-0.3518591
236	0x3d43343d	0.04765724
237	0x3e169e9b	0.1470894
238	0xbe17dd5e	-0.14830539
239	0xbe0fc1da	-0.14038792
240	0x3df8e334	0.121527106
241	0xbd5a0268	-0.05322495
242	0xbea486ed	-0.3213419
243	0x3bd062c4	0.00635943
244	0xbed79121	-0.42102912
245	0x3e889d09	0.26682308
246	0xbe8c8523	-0.27445325
247	0x3b6de646	0.0036300584
248	0xbe10c264	-0.14136654
249	0x3e918d2e	0.28428024
250	0xbe0c40e9	-0.13696636
251	0xbebac811	-0.36480764
252	0x3e8b75f9	0.27238443
253	0xbe54a047	-0.20764266
254	0x3c816eef	0.015799968
255	0xbfcb431b	-1.5879854

shared.0.bias f4 [64]
0	0x3e63e737	0.2225617
1	0x3e3a6286	0.18201646
2	0x3e00c0f7	0.1257361
3	0xbde28c54	-0.11061922
4	0x3e95dd33	0.29270324
5	0x3d7c00ee	0.061524324
6	0x3e7c5206	0.24640664
7	0x3ccb75f7	0.024836523
8	0x3ea264c5	0.31717506
9	0x3e44e2dd	0.19227166
10	0x3e8f244a	0.27957374
11	0x3e28526c	0.16437691
12	0x3e272e2e	0.1632621
13	0x3d27d852	0.040977784
14	0x3de2c144	0.11072019
15	0x3daf4f43	0.0856004
16	0x3e175405	0.14778145
17	0x00000000	0.0
18	0x3e603dea	0.21898618
19	0x3e8296d5	0.255057
20	0x3da6f4f4	0.0815219
21	0x3ea3fee8	0.32030416
22	0x3a8c758c	0.0010716184
23	0xbe4af5b3	-0.1982029
24	0x3eca911e	0.3956384
25	0x3eac4ffb	0.3365477
26	0x3e9fbef7	0.31200382
27	0xbc1bfdc4	-0.009520952
28	0x3e0c551f	0.13704346
29	0xbd081647	-0.03322437
30	0x3eb4cfd0	0.35314798
31	0x3e74f9ff	0.23923491
32	0x3e984621	0.29741004
33	0xbc3024d2	-0.010750966
34	0xbc37e454	-0.011223871
35	0x3e1f532d	0.15559073
36	0x3eb3a2a9	0.35085037
37	0xbd5ba136	-0.05362054
38	0x3ec02f09	0.37535885
39	0x3e61b96d	0.2204339
40	0x3e68dcf7	0.22740541
41	0x00000000	0.0
42	0x3e8d4ffd	0.2760009
43	0xbe59c5bf	-0.2126684
44	0x3e571639	0.21004571
45	0x3eb663c7	0.35623
46	0x3ea79ce4	0.32736886
47	0x3ea4fb95	0.32223192
48	0x3e28ce13	0.16484861
49	0x3e128e5a	0.14312115
50	0x3c807ad1	0.015683563
51	0x3e0eb9f5	0.13938124
52	0x3e80d0f3	0.25159416
53	0x3e740ff6	0.23834214
54	0x3e7c5483	0.24641614
55	0x3e8bb047	0.27282926
56	0x00000000	0.0
57	0x3e7090f8	0.23492801
58	0xbe8dde65	-0.27708736
59	0x3de128c8	0.109941065
60	0x3e84f9e6	0.25971907
61	0x3db71dad	0.08941207
62	0x3e2d3b00	0.16917038
63	0x3e32c9e9	0.17459835

shared.2.weight f4 [64, 64]
0	0xbdbc5667	-0.091961674
1	0xbdd1d707	-0.10246091
2	0x3ebe813e	0.3720798
3	0x3d7f516a	0.062333502
4	0x3ec31792	0.3810392
5	0xbe0883f3	-0.13331585
6	0xbdce8fb3	-0.10086002
7	0x3e18d043	0.14923196
8	0xbf1ffcfb	-0.6249539
9	0x3ebfc222	0.374528
10	0x3e2184e2	0.15773347
11	0x3ced6002	0.028976444
12	0xbdc45781	-0.095870025
13	0xbe4ea85c	-0.20181412
14	0x3b1b77e4	0.0023722583
15	0xbe1d0d92	-0.15337208
16	0xbd303c53	-0.04302628
17	0x3d8646ff	0.0655651
18	0xbdae8c40	-0.08522844
19	0x3df9d578	0.12198919
20	0x3de5e50a	0.11225326
21	0xbecfff09	-0.40624264
22	0x3f41e0ba	0.7573353
23	0xbdf33ea3	-0.118771814
24	0xbbcfaa8c	-0.0063374694
25	0x3e1f3b96	0.15550074
26	0x3e00f29a	0.12592545
27	0x3e0d6a53	0.1381009
28	0x3e9a96db	0.3019322
29	0xbf19178f	-0.5980157
30	0x3b38c996	0.0028196326
31	0xbceb14f1	-0.02869651
32	0x3e41c5d4	0.18923122
33	0x3e8339b4	0.25629961
34	0xbe660744	-0.22463709
35	0x3f39508e	0.7238854
36	0x3cd4d399	0.025979804
37	0x3e448b77	0.19193827
38	0xbe2e1291	-0.1699927
39	0xbf16aeab	-0.5886027
40	0x3dca2956	0.098711655
41	0xbe0961df	-0.13416241
42	0x3ed03a48	0.40669465
43	0xbf2f83fa	-0.68560755
44	0x3e479dd2	0.19493797
45	0x3eac2647	0.33622953
46	0x3db51f2e	0.08843838
47	0xbd5a4fce	-0.053298764
48	0x3df6a865	0.120438375
49	0xbb9dbd90	-0.0048138574
50	0x3c76e9dd	0.015070406
51	0xbdb4cbdb	-0.08827945
52	0xbdff49e8	-0.124652684
53	0xbd32645b	-0.043552738
54	0xbdd42a1b	-0.103595935
55	0x3ded3527	0.11582404
56	0x3e080985	0.13284881
57	0xbee0ce41	-0.4390736
58	0xbd724a99	-0.059153173
59	0xbe79a3af	-0.24378847
60	0x3e12e9e5	0.14347036
61	0x3f11bbb8	0.5692706
62	0xbeefa744	-0.468073
63	0xbdc5cb4b	-0.09657916
64	0x3daf58f7	0.085618906
65	0xbdd742a8	-0.105107605
66	0x3da0ea60	0.078572035
67	0xbe699ef4	-0.22814542
68	0x3edf4654	0.43608344
69	0xbc50c8b2	-0.012743162
70	0xbcdc0802	-0.026859287
71	0x3e063cb6	0.13109097
72	0xbed5e17f	-0.41773602
73	0x3e8c6653	0.27421817
74	0x3de8dda3	0.11370399
75	0x3c16b834	0.009199191
76	0x3e012eab	0.12615459
77	0xbd9a4942	-0.07533504
78	0x3df8486d	0.12123189
79	0x3ebb9ab9	0.36641482
80	0x3db62832	0.088943854
81	0x3d16e765	0.03684177
82	0x3e8bfa53	0.2733942
83	0x3e488c78	0.19584835
84	0x3cfba913	0.03072027
85	0xbee7ab72	-0.4524799
86	0x3f2b55f1	0.6692801
87	0xbc531749	-0.01288397
88	0x3e1bc25f	0.15210865
89	0x3dd00887	0.101578765
90	0x3eb7cca3	0.35898313
91	0xbd36f276	-0.044664823
92	0x3d085d44	0.03329207
93	0xbe9424ac	-0.28934228
94	0x3e2699ce	0.1626961
95	0x3e56d4d5	0.20979626
96	0x3d2d2a5a	0.042276718
97	0x3f06b278	0.5261607
98	0x3e2159f6	0.15756974
99	0x3f0444f6	0.51667726
100	0xbe1f6c82	-0.15568736
101	0x3f22febb	0.6366994
102	0xbb48ff90	-0.0030669905
103	0xbf58d467	-0.846991
104	0xbc52b0ed	-0.012859565
105	0xbde3a1f8	-0.111148775
106	0x3e42f926	0.19040355
107	0xbf3f4d60	-0.7472744
108	0x3e16a976	0.14713082
109	0x3db90cbc	0.09035632
110	0x3d879bf4	0.066215426
111	0x3e509441	0.20369054
112	0x3dcbe05e	0.09954904
113	0x3d96709e	0.07345699
114	0xbaef1028	-0.0018239068
115	0xbcc77a77	-0.024350388
116	0xbde92560	-0.11384082
117	0xbc9be282	-0.019028906
118	0x3d7cb124	0.061692372
119	0xbe3273f3	-0.17427044
120	0x3d2d0e65	0.042250056
121	0xbdc82601	-0.09772874
122	0x3d25d272	0.0404839
123	0xbd019d2e	-0.03164404
124	0x3e733afe	0.23752972
125	0x3ec28d75	0.37998548
126	0xbef70d9a	-0.48252565
127	0xbe322575	-0.17397101
128	0xbe3b6df8	-0.18303668
129	0xbe6b26a0	-0.22963953
130	0x3e92b501	0.2865372
131	0x3bdc36c0	0.006720394
132	0x3d2f2336	0.04275819
133	0xbe9c409e	-0.3051805
134	0xbd90bbd8	-0.07067078
135	0x3dbc6729	0.09199364
136	0xbed569f6	-0.41682404
137	0x3e4630c8	0.19354546
138	0xbda7787e	-0.08177279
139	0xba126c87	-0.000558563
140	0x3df9425c	0.1217086
141	0x3e20569d	0.1565804
142	0x3d8fd9f5	0.07023994
143	0xbb619e24	-0.0034426535
144	0x3dc91412	0.09818281
145	0x3da6fb96	0.08153455
146	0xbcccbbca	-0.024991889
147	0xbb808ddd	-0.0039231614
148	0x3e5b9682	0.21444133
149	0xbf1d3b04	-0.61418176
150	0x3ebbada5	0.36655918
151	0xbe02c4cb	-0.12770383
152	0x3ebab95c	0.36469543
153	0x3e62852c	0.22121114
154	0x3d8c82eb	0.06860908
155	0xbda17413	-0.078834675
156	0x3e73528a	0.23761955
157	0xbea5a0c0	-0.32349205
158	0x3df80d1d	0.12111876
159	0x3ec140fb	0.3774489
160	0x3e4d3851	0.20041014
161	0x3e4a0b12	0.19730785
162	0x3e067fe8	0.1313473
163	0x3f387ea1	0.7206822
164	0x3dbb175f	0.09135317
165	0x3e184708	0.14870846
166	0x3dab0676	0.08350842
167	0xbf5771dd	-0.84158117
168	0x3eb14414	0.34622252
169	0xbdad3841	-0.08457995
170	0x3db2dae6	0.08733158
171	0xbf060358	-0.5234885
172	0x3d96409e	0.073365435
173	0xbcbe766a	-0.023249824
174	0xbe32f714	-0.17477065
175	0x3e3da7ff	0.18521117
176	0xbcf4eeb3	-0.029898977
177	0x396faa71	0.0002285631
178	0x3c9ba320	0.018998682
179	0x3c8b83d9	0.017030643
180	0x3da0baf2	0.07848157
181	0xbc969515	-0.018381635
182	0x3e86c638	0.26323104
183	0x3dc0c7ef	0.09413134
184	0x3e45b581	0.1930752
185	0xbd2e5551	-0.042561833
186	0xbe81d441	-0.2535725
187	0xbe82cbbd	-0.25546065
188	0x3e70b52e	0.23506615
189	0x3ed8ba3f	0.42329594
190	0xbf0c0566	-0.5469574
191	0x3d069c75	0.032864053
192	0x3da17d61	0.07885242
193	0xbd9df0a1	-0.07711912
194	0x3e4373f9	0.19087209
195	0xbc86fdb0	-0.01647839
196	0xbd38c1e1	-0.045106772
197	0xbe886569	-0.2663987
198	0xbe7c580c	-0.24642962
199	0x3e2ab506	0.16670617
200	0xbc48a737	-0.012246898
201	0x3ec693cb	0.38784632
202	0x3dd76076	0.10516445
203	0xbe22e555	-0.15907796
204	0xbe75b91e	-0.23996398
205	0xbdf43ad6	-0.119252846
206	0xbdbee7dd	-0.09321568
207	0x3da4a95b	0.080401145
208	0xbe7eaa21	-0.24869587
209	0x3e2c92d1	0.16852881
210	0x3ddf9f64	0.10919073
211	0xbe75a0b5	-0.23987086
212	0x3e2c4dad	0.16826506
213	0xbed9e37c	-0.4255637
214	0x3f6c4785	0.9229663
215	0xbe85e78c	-0.2615322
216	0x3e406710	0.18789315
217	0x3e67981a	0.22616616
218	0xbe301ad8	-0.1719774
219	0xbde8fcf5	-0.11376373
220	0xbe01d6a3	-0.12679534
221	0xbe41465e	-0.18874499
222	0x3da51eaa	0.08062489
223	0xbe969963	-0.294139
224	0x3cadf958	0.02123706
225	0x388f5db7	6.836227e-05
226	0xbc453879	-0.01203739
227	0x3f500bc6	0.81267965
228	0xbd18dc12	-0.03731925
229	0x3ea74ac7	0.32674238
230	0xbdecae16	-0.11556642
231	0xbf34c22c	-0.7060878
232	0xbd77ad7f	-0.060468193
233	0xbe2a4e6a	-0.16631475
234	0x3e795b01	0.24351121
235	0xbf3d03d7	-0.73833984
236	0xbe8b91a5	-0.27259555
237	0x3e5c7faf	0.21533082
238	0xbe06ebe8	-0.13175929
239	0xbc070095	-0.008239885
240	0xbd5079c4	-0.050897375
241	0x3b6124bf	0.0034354178
242	0xbe490a58	-0.19632852
243	0xbd866b59	-0.06563444
244	0xbeaab6d2	-0.33342606
245	0xbdf16ce9	-0.11788351
246	0x3db55a6a	0.08855136
247	0x3e3903b6	0.18067822
248	0xbe0a192a	-0.13486162
249	0xbde6c0f1	-0.112672694
250	0xbed2c206	-0.41163653
251	0x3e28fdaf	0.16503023
252	0xbdbe9640	-0.09306002
253	0x3efa70de	0.48914236
254	0xbee78f86	-0.45226687
255	0xbe1cb117	-0.1530193

shared.2.bias f4 [64]
0	0x3e3c207d	0.18371768
1	0x3e9fec89	0.3123515
2	0x3e8dee70	0.27720976
3	0x3dd66067	0.10467606
4	0x3d5f3341	0.05449224
5	0xbc3a54ee	-0.011372788
6	0xbced3e12	-0.028960261
7	0xbc929808	-0.01789476
8	0xbe95e712	-0.29277855
9	0x3ebfa7aa	0.37432605
10	0x3e97ac88	0.29623818
11	0x3e1609ec	0.14652222
12	0x3e8af6c8	0.27141404
13	0x3ea7e7a3	0.32793912
14	0x3eb6b0e1	0.35681823
15	0xbcd2c2df	-0.025727687
16	0xbd054397	-0.03253516
17	0xbcc3316a	-0.023827273
18	0x3eba4d6a	0.36387187
19	0x3e20d617	0.15706669
20	0x3e06b643	0.13155465
21	0x00000000	0.0
22	0x3e1d9116	0.15387377
23	0x3eb3a34f	0.35085532
24	0x3eb18018	0.3466804
25	0x3ea91415	0.33023134
26	0x3ebadbd2	0.36495835
27	0x3e62bac6	0.22141561
28	0xbd8e93f9	-0.06961817
29	0x3e1e7f1c	0.15478176
30	0x3eb08504	0.34476483
31	0x3ea23467	0.31680605
32	0x3ec22f83	0.37926874
33	0x3eaba2da	0.33522683
34	0x3e877379	0.26455286
35	0x3ea5f23e	0.3241138
36	0x3eab723e	0.33485597
37	0x3eb105ea	0.34574825
38	0x3e878f12	0.2647634
39	0x3ec725c2	0.38895994
40	0xbc2b1c8e	-0.01044382
41	0xbd00e683	-0.031469833
42	0x3eae31fe	0.34022516
43	0x3ec10fb4	0.37707293
44	0xbd305690	-0.043051302
45	0xbd01cbe6	-0.031688593
46	0x3ea360ba	0.31909734
47	0x3e8f7586	0.2801935
48	0x3ea3edbd	0.32017317
49	0x3e9a78bb	0.30170235
50	0x3ea22f60	0.3167677
51	0x3ea3b96a	0.31977397
52	0x3eb2d202	0.34925848
53	0x3e55c9b9	0.20877732
54	0x3e878ef0	0.2647624
55	0xbd078af6	-0.033091508
56	0x3ed8d341	0.42348674
57	0xbe3d21e2	-0.18469957
58	0x3eb4a20c	0.35279882
59	0x3eb15999	0.3463867
60	0x3e55612f	0.20837854
61	0x3ece6100	0.4030838
62	0x3e442676	0.19155297
63	0x3e4693e5	0.19392355

actor.0.weight f4 [32, 64]
0	0xbd906905	-0.07051281
1	0xbe53cb3a	-0.20682994
2	0xbdb61d0b	-0.08892258
3	0xbdd399db	-0.1033208
4	0x3d4c53e6	0.0498847
5	0x3e35533c	0.17707533
6	0xbe452193	-0.19251089
7	0xbe125d27	-0.14293347
8	0x3dd3eb2b	0.10347589
9	0x3e0ecb35	0.13944705
10	0xbe553cc8	-0.20823967
11	0x3ddf185c	0.10893318
12	0x3dddcd48	0.1083017
13	0x3cc143d7	0.023591919
14	0x3d2b12a0	0.04176581
15	0xbd90946b	-0.070595585
16	0x3d8ba980	0.06819439
17	0x3dd4cbfd	0.1039047
18	0xbc688ccd	-0.014193726
19	0xbe511ead	-0.20421858
20	0x3cf4c18b	0.029877445
21	0xbe1798e4	-0.14804417
22	0x3dee18c4	0.116258174
23	0x3c671a42	0.014105381
24	0x3be4c184	0.0069810767
25	0xbdb5081f	-0.088394396
26	0x3d1d472b	0.03839795
27	0xbdb4c69c	-0.08826944
28	0xbc48f640	-0.012265742
29	0xbe95a1d1	-0.2922502
30	0xbd3cb50a	-0.04607109
31	0xbeacc3be	-0.3374309
32	0x3d775f89	0.060393844
33	0xbdc53dfd	-0.09630964
34	0x3dd1a11c	0.10235807
35	0x3e090037	0.13378988
36	0xbe05f75e	-0.13082644
37	0xbe11a12e	-0.14221641
38	0xbe845160	-0.25843334
39	0xbdb3a86b	-0.087723576
40	0xbb6d4936	-0.0036206967
41	0x3dcfd1be	0.10147427
42	0xbc5e4a34	-0.013567496
43	0xbe899526	-0.26871604
44	0x3cbb9e5b	0.022902658
45	0x3d4402f5	0.047854383
46	0x3d45ebce	0.048320584
47	0x39ad3852	0.00033039093
48	0xbdc42e59	-0.095791526
49	0xbc886a7b	-0.016652336
50	0xbe1969ce	-0.14981768
51	0xbd74d567	-0.05977383
52	0xbe044873	-0.12918262
53	0x3dee08b0	0.11622751
54	0xbd0711e5	-0.03297605
55	0xbdb51989	-0.08842761
56	0x3e604d3b	0.21904461
57	0xbe5ca42b	-0.21547
58	0xbd80582a	-0.06266816
59	0xbd7798ab	-0.06044833
60	0x3d53492e	0.05158346
61	0xbbfa19c6	-0.007632467
62	0x3c2ed681	0.010671259
63	0xbcc89c83	-0.024488693
64	0xbd2f2309	-0.04275802
65	0x3e33fe7a	0.17577544
66	0xbd01a1f0	-0.031648576
67	0x3c60f31c	0.013729837
68	0x3e97e596	0.29667348
69	0xbd185ffc	-0.037200913
70	0x3a0e32b1	0.0005424424
71	0x3d9b0689	0.07569606
72	0xbdd016a8	-0.10160571
73	0xbc0aab6e	-0.008463724
74	0x3d8c4c21	0.06850458
75	0x3ddf4b41	0.109030254
76	0xbe13a4d3	-0.14418344
77	0xbe0740a0	-0.13208246
78	0x3db4f2a8	0.088353455
79	0x3de8951d	0.11356566
80	0xbedbe4e8	-0.4294808
81	0x3d95b494	0.07309833
82	0xbdccfef3	-0.10009565
83	0xbd42b52b	-0.047536056
84	0x3c57250e	0.013131393
85	0xbdda3cff	-0.10656165
86	0x3d935571	0.07194031
87	0xbd15fa1b	-0.036615472
88	0xbda3d85c	-0.08000252
89	0x3b5d28e9	0.0033746308
90	0x3cbebeef	0.023284404
91	0x3e8e2f36	0.27770394
92	0x3e05ef65	0.13079603
93	0x3e5e2ff8	0.21697986
94	0x3cf5de54	0.03001324
95	0x3b7e6567	0.0038817765
96	0x3d284e0d	0.04109006
97	0xbb556031	-0.0032558555
98	0x3d0b5abf	0.03402209
99	0xbdc826c1	-0.09773017
100	0xbe20b962	-0.15695718
101	0xbc554a76	-0.013018241
102	0xbe6c15f7	-0.23055254
103	0xbd660ef2	-0.056166597
104	0x3e1548d5	0.14578564
105	0x3e404e27	0.18779813
106	0x3d029db5	0.031888682
107	0xbdd342e4	-0.10315493
108	0xbd854806	-0.06507878
109	0x3e002c49	0.12516893
110	0xbc80e716	-0.01573519
111	0xbc9e2872	-0.019306395
112	0x3df9f3cf	0.12204706
113	0xbe36d17e	-0.17853352
114	0xbd737975	-0.059442002
115	0xbe861061	-0.2618437
116	0xbe11fc80	-0.14256477
117	0xbdde1e91	-0.10845674
118	0xbe1c439e	-0.15260169
119	0x3c82ed53	0.015982306
120	0xbd72726b	-0.05919115
121	0xbdb3e9d6	-0.08784835
122	0x3bf95d5a	0.0076100053
123	0xbe519d38	-0.2047013
124	0xbb821056	-0.0039692326
125	0xbdb22d40	-0.08700037
126	0xbc01d04a	-0.007923195
127	0x3dd0690b	0.10176285
128	0x3dc62510	0.09675038
129	0x3d0cf3dc	0.03441225
130	0x3e0e6449	0.13905443
131	0xbd8b7633	-0.06809654
132	0xbe106aaa	-0.14103189
133	0x3f0ca2a7	0.5493569
134	0xbcbbff5c	-0.022948913
135	0x3d83ec71	0.06441582
136	0xbc0491c7	-0.008091397
137	0xbe5a3491	-0.21309115
138	0xbe83f1a7	-0.25770304
139	0x3cf659a1	0.030072035
140	0xbe3be659	-0.1834959
141	0xbe48aaa1	-0.1959634
142	0xbd8826bd	-0.06648014
143	0xbc0ea4a3	-0.008706245
144	0x3d926a3e	0.0714917
145	0xbd3bedff	-0.045881268
146	0x3e086fde	0.13323924
147	0x3eb0d67a	0.34538633
148	0x3e370061	0.17871238
149	0xbc8a10eb	-0.01685377
150	0x3d17c8aa	0.037056603
151	0x3bca9cb9	0.0061832336
152	0xbc2c4bfc	-0.010516163
153	0xbd220fa7	-0.03956571
154	0x3e1904f1	0.14943291
155	0xbd863638	-0.0655331
156	0x3e06c420	0.13160753
157	0xbe80b4ef	-0.2513804
158	0xbc2112c0	-0.0098311305
159	0xbe74ce80	-0.23906898
160	0x3e475f7f	0.19470023
161	0x3d88cd52	0.06679787
162	0xbc96e247	-0.018418444
163	0xbe5c74aa	-0.21528879
164	0x3d8e5a6a	0.06950839
165	0x3e2a132b	0.16608874
166	0xbe3b77f1	-0.18307473
167	0x3d97b648	0.07407814
168	0xbcec0ef3	-0.028815722
169	0xbe6baa31	-0.23014142
170	0xbdae55f9	-0.08512492
171	0x3e5e58c8	0.21713555
172	0xbb2b1a4f	-0.002610821
173	0x3c39b7a9	0.011335292
174	0xbd0e4492	-0.034733362
175	0x3e1694f4	0.14705259
176	0xbd0d2104	-0.034455314
177	0x3e22744c	0.15864676
178	0xbd98a1ae	-0.07452713
179	0xbe3f773a	-0.18697825
180	0x3e4abc94	0.197985
181	0x3ea161f8	0.31520057
182	0xbe5f6ffa	-0.2182006
183	0xbd52c51d	-0.051457513
184	0x3daa4cf6	0.083154604
185	0x3e2bbc09	0.16770948
186	0x3e118f6d	0.14214869
187	0x3e4eb4c5	0.20186146
188	0x3c8f2a02	0.017476086
189	0xbd67b31e	-0.056567304
190	0x3f27192c	0.65272784
191	0x3e6908e5	0.22757299
192	0xbdc71920	-0.09721589
193	0xbd9a9e30	-0.07549703
194	0x3d5f029d	0.05444585
195	0xbe07ed23	-0.13274054
196	0x3d7b5fdd	0.06137072
197	0xbd001f90	-0.0312801
198	0x3da5df64	0.08099249
199	0x3e0ac7a5	0.13552721
200	0x3e4e5392	0.20149067
201	0xbe2a1ccd	-0.16612549
202	0x3dc98a72	0.098408595
203	0x3c70dbc9	0.014700838
204	0xbe03753e	-0.12837693
205	0x3d8c0220	0.06836343
206	0x3d0162d2	0.031588383
207	0xbe415191	-0.18878771
208	0x3d531e05	0.0515423
209	0xbcc9a78a	-0.024616022
210	0x3cf39885	0.029735813
211	0xbc2d37ac	-0.010572355
212	0x3d6dc08d	0.05804496
213	0xbd7d5991	-0.061852995
214	0x3cc4a605	0.024004946
215	0x3e156770	0.1459024
216	0xbdf17852	-0.117905274
217	0xbdf1369f	-0.11777996
218	0x3da05799	0.07829208
219	0x3e82a1d3	0.25514087
220	0xbc4b563d	-0.0124106975
221	0xbdce38fb	-0.10069462
222	0x3dd0c99c	0.10194704
223	0x3e215f6a	0.15759054
224	0x3c92d38e	0.017923143
225	0xbdf56c3b	-0.11983534
226	0x3d64ab55	0.055827457
227	0x3c25f739	0.010129743
228	0xbd869e02	-0.06573106
229	0xbe5f6390	-0.21815324
230	0xbcbe0b22	-0.023198668
231	0xbe58ed1e	-0.21184203
232	0x3e113045	0.1417857
233	0xbe36807f	-0.17822455
234	0xbe3bdaef	-0.18345235
235	0xbd8ad417	-0.06778734
236	0x3d4b8f7a	0.049697377
237	0x3dc86fa7	0.09786921
238	0x3e352a23	0.17691855
239	0xbd92a89e	-0.071610674
240	0xbe7478d9	-0.23874225
241	0x3b7e11ca	0.0038767927
242	0xbd955e80	-0.07293415
243	0x3da95294	0.08267704
244	0x3e15547c	0.1458301
245	0xbe517966	-0.20456466
246	0xbdaaa7dd	-0.08332799
247	0xbe4e21d4	-0.20130092
248	0xbcb3dda1	-0.021956267
249	0x3e216184	0.15759856
250	0x3ec02fd4	0.3753649
251	0x3e8cb948	0.27485108
252	0xbdc1d434	-0.09464303
253	0xbbcd5801	-0.0062665944
254	0x3c3da583	0.011575106
255	0xbe0fce64	-0.14043576

actor.0.bias f4 [32]
0	0x3948136f	0.00019080726
1	0xbc556f76	-0.013027063
2	0x3dabd78a	0.0839072
3	0x3c95659d	0.01823693
4	0xbc079d16	-0.008277198
5	0x3cabcc3e	0.020971414
6	0xbe211602	-0.15731052
7	0xbe658ac0	-0.2241621
8	0x3dab8f1c	0.08376905
9	0x3e318b11	0.17338206
10	0x3e04dee9	0.12975658
11	0xbc099310	-0.008396879
12	0x3e21f9dc	0.1581797
13	0xbc11c7b7	-0.008897713
14	0x3b20cec4	0.0024537304
15	0xbd347014	-0.0440522
16	0xbded96e6	-0.11601047
17	0xbc1b9cb6	-0.009497812
18	0xbe27c509	-0.16383757
19	0xbc51b4d1	-0.012799458
20	0x3ca52a1e	0.020161685
21	0xbcb9b621	-0.022669854
22	0xbc497696	-0.0122963395
23	0xbb119a6b	-0.0022217284
24	0x3c92b5b8	0.017908916
25	0x00000000	0.0
26	0xbe1a6ddd	-0.15080972
27	0xbc190457	-0.009339414
28	0xbb95ac2e	-0.0045676446
29	0xbb529b8c	-0.003213617
30	0xbbf81093	-0.007570335
31	0xbcc79442	-0.024362687

actor.2.weight f4 [2, 32]
0	0xbe37d035	-0.17950518
1	0xbe7da28c	-0.24769038
2	0x3e1c7f8e	0.15283033
3	0x3d8446cf	0.06458818
4	0xbc9f4427	-0.019441677
5	0xbcf85971	-0.030316086
6	0xbf2e5717	-0.6810164
7	0xbee0edf1	-0.43931535
8	0x3ecdb10a	0.40174133
9	0x3f5d0387	0.8633351
10	0x3f19b410	0.6004038
11	0x3e88f6d6	0.2675082
12	0x3f2e244b	0.6802413
13	0xbec28004	-0.37988293
14	0x3b8b433d	0.004249959
15	0xbdb958ad	-0.09050117
16	0xbf71eb8f	-0.9450006
17	0xbda51240	-0.080601215
18	0xbf64b56c	-0.8933933
19	0xbd1dfc47	-0.03857067
20	0xbd9e1d92	-0.07720484
21	0x3dfc45ea	0.123180225
22	0x3c3f0ec7	0.011661238
23	0xbe1363ab	-0.14393489
24	0xbea15736	-0.3151185
25	0xbe6c2b00	-0.23063278
26	0xbf5de2fe	-0.8667449
27	0xbe066480	-0.13124275
28	0x3dc205b6	0.094737455
29	0x3e798d99	0.24370421
30	0x3eb01f46	0.3439886
31	0x39dc0c61	0.00041970893
32	0x3e290a42	0.1650782
33	0xbca94d7c	-0.02066683
34	0xbe4690b9	-0.19391145
35	0xbe8a2e92	-0.26988655
36	0xbe808688	-0.2510264
37	0xbdc0f09a	-0.09420891
38	0x3f165170	0.58718014
39	0x3ec1667b	0.377735
40	0xbf376b93	-0.7164852
41	0xbf6cfa51	-0.9256945
42	0xbf38cbc0	-0.721859
43	0xbda0d390	-0.07852852
44	0xbf677f00	-0.9042816
45	0xbebd0575	-0.36918226
46	0xbeaae5b9	-0.3337839
47	0x3e9e4802	0.30914313
48	0x3f7833b5	0.969539
49	0xbe0f06be	-0.13967416
50	0x3f5b8024	0.857424
51	0xbe55d343	-0.20881371
52	0xbe75b4fa	-0.23994818
53	0x3e14c5c2	0.14528564
54	0xbd14c7aa	-0.036323227
55	0xbd06c523	-0.032902848
56	0xbdf06dc0	-0.11739683
57	0x3d58af6f	0.05290168
58	0x3f3921b8	0.72317076
59	0x3d8e22fe	0.06940268
60	0xbe19d65a	-0.15023175
61	0xbd58e1af	-0.052949604
62	0x3e0dd9ae	0.1385257
63	0xbe31f577	-0.17378794

actor.2.bias f4 [2]
0	0x3e05f58b	0.13081948
1	0xbe05f587	-0.13081942

critic.0.weight f4 [32, 64]
0	0x3e42aeda	0.19012013
1	0xbe567a61	-0.20945121
2	0xbdc8778c	-0.09788427
3	0x3cbffa0d	0.023434663
4	0xbd55b8b3	-0.052178096
5	0xbcfe023e	-0.031006929
6	0xbe330c80	-0.17485237
7	0xbca2d239	-0.019875633
8	0x3d418175	0.0472426
9	0x3e618836	0.22024617
10	0x3d64d6d7	0.05586895
11	0x3ddce8ba	0.107865766
12	0xbcaf7f27	-0.021422936
13	0xbc43a195	-0.01194038
14	0x3d7d81b4	0.061891273
15	0x3d959497	0.07303732
16	0x3b929e76	0.0044744564
17	0xbdca4bde	-0.09877752
18	0xbcb79685	-0.02241064
19	0xbd96bd1d	-0.07360289
20	0xbe7a9e73	-0.24474506
21	0x3d53e33c	0.05173038
22	0x3e0f3b4a	0.1398746
23	0x3dc20058	0.09472722
24	0x3c7eecd5	0.015559395
25	0xbd9f7fbf	-0.077880375
26	0xbda1f33e	-0.07907723
27	0xbdcb0563	-0.09913137
28	0x3dea58fb	0.11442753
29	0xbd5b7419	-0.053577516
30	0xbd8bc637	-0.06824916
31	0xbd114154	-0.035462692
32	0xbc03dde6	-0.00804851
33	0x3d4cdbd4	0.050014332
34	0xbbd6000d	-0.006530768
35	0x3e2c65e3	0.16835742
36	0xbebc6d45	-0.36802116
37	0xbe9439be	-0.28950304
38	0xbcc2c2a8	-0.02377446
39	0xbd842309	-0.06451995
40	0x3e19896c	0.14993829
41	0xbc3d6fb3	-0.011562276
42	0xbd7b1537	-0.06129953
43	0x3e7deecc	0.24798125
44	0x3e1f6183	0.15564542
45	0x3d077601	0.03307152
46	0x3e68019b	0.22656862
47	0xbdbacadc	-0.091207236
48	0x3e1ebb4a	0.15501133
49	0xbe1f38b7	-0.15548979
50	0xbdb8386a	-0.08995135
51	0xbd147735	-0.036246497
52	0xbd34f594	-0.044179514
53	0xbe5c49d9	-0.21512546
54	0x3da1c243	0.078983806
55	0xbe9031fe	-0.2816314
56	0x3d139f4d	0.036040593
57	0xbcb5eb29	-0.02220686
58	0xbd8ed42e	-0.06974064
59	0xbc90cf76	-0.01767705
60	0x3dcdac09	0.10042579
61	0xbdedfbe3	-0.11620309
62	0x3db82c09	0.08992774
63	0xbc14f5a1	-0.009091766
64	0x3e2947af	0.16531251
65	0x3decbbae	0.115592346
66	0x3e217356	0.15766653
67	0xbd3c1eb2	-0.04592771
68	0x3e1b4c87	0.15165912
69	0x3c96b4e6	0.018396806
70	0x3c981d7a	0.018568743
71	0x3c537fff	0.012908935
72	0xbdec9540	-0.11551905
73	0x3e214e93	0.1575263
74	0x3d86a6bc	0.06574771
75	0xbda7997d	-0.081835724
76	0xbe78197e	-0.24228474
77	0xbd137a9d	-0.036005605
78	0x3bd1d32e	0.0064033484
79	0x3e10bce2	0.14134553
80	0x3cd0548c	0.02543094
81	0xbd3e6ac8	-0.046488553
82	0x3e296452	0.16542175
83	0xbd18a51d	-0.03726684
84	0xbd5108cd	-0.051033784
85	0xbe0c30af	-0.13690446
86	0x3ce400a7	0.027832342
87	0xbe80d06a	-0.25159007
88	0xbe40d1d1	-0.18830039
89	0x3ba0fa30	0.004912637
90	0x3da8874e	0.08228932
91	0x3d5a31c9	0.053270135
92	0xbc96d383	-0.018411404
93	0xbd636ee0	-0.05552566
94	0x3e1450c2	0.14483932
95	0xbd0d5ee6	-0.03451433
96	0xbde01038	-0.109405935
97	0xbd18cade	-0.037302844
98	0xbe22926b	-0.15876167
99	0xbcf5ac99	-0.029989528
100	0xbe1caf4e	-0.15301248
101	0x3e223bbb	0.15843098
102	0xbd2e00f0	-0.042481363
103	0xbd846573	-0.064646624
104	0xbd80c0b0	-0.06286752
105	0xbda0bc85	-0.07848457
106	0x3cc57677	0.02410434
107	0xbe896203	-0.2683259
108	0x3cc88f3e	0.024482366
109	0x3e19e5f7	0.15029131
110	0x3e8c2536	0.2737214
111	0xbdb4aee0	-0.08822417
112	0xbbc1ab70	-0.0059103295
113	0xbe369c2b	-0.17833011
114	0xbe89b97a	-0.2689932
115	0xbc7708c6	-0.015077775
116	0xbe859782	-0.26092154
117	0x3e5e3e29	0.217034
118	0xbc9d4285	-0.019196758
119	0xbd68b6f6	-0.05681511
120	0xbd46161c	-0.04836093
121	0xbe46bbf0	-0.1940763
122	0xbe37b450	-0.17939878
123	0x39d94100	0.00041437894
124	0x3d5719ee	0.052514963
125	0x3d80a74f	0.062819116
126	0xbe3b488b	-0.18289392
127	0x3d998254	0.07495561
128	0xbd8c7b40	-0.068594456
129	0xbcb20c29	-0.021734314
130	0xbdb0b012	-0.08627333
131	0xbc1fa881	-0.009744764
132	0x3c0dab22	0.008646758
133	0xbe37302e	-0.17889473
134	0x3cec829b	0.028870871
135	0x3e95e659	0.29277304
136	0x3de83bf4	0.1133956
137	0x3df632cb	0.12021407
138	0xbddf7a1f	-0.109119646
139	0xbc28aa79	-0.01029455
140	0xbdd901c4	-0.1059604
141	0xbdd320f2	-0.10309018
142	0xbc605f3f	-0.013694583
143	0xbd996197	-0.07489317
144	0x3ddf403e	0.10900925
145	0xbdea917e	-0.11453532
146	0xbc736243	-0.01485497
147	0xbe1421db	-0.1446604
148	0x3d843698	0.064557254
149	0xbdc83868	-0.09776384
150	0xbcba86f8	-0.022769436
151	0xbe51e525	-0.20497568
152	0x3d87dc3b	0.066338025
153	0x3d1fa77d	0.03897809
154	0x3e06b909	0.13156523
155	0x3e6b4a9d	0.22977681
156	0x3cff506b	0.031166276
157	0x3a9754b3	0.0011545628
158	0xbe297916	-0.16550097
159	0xbd84bb54	-0.064810425
160	0x3b61fd7b	0.0034483362
161	0x3dcd6d9f	0.10030674
162	0xbdd9055c	-0.10596725
163	0xbdf4fb7c	-0.11962029
164	0x3d84d940	0.0648675
165	0xbbc4a38a	-0.0060009407
166	0x3cd51fcd	0.02601614
167	0x3e5cf8ea	0.21579328
168	0x3e0fca2e	0.14041969
169	0x3d6170fa	0.055039383
170	0x3d729968	0.05922833
171	0xbd7c6994	-0.061624125
172	0x3ea5e2a4	0.32399476
173	0xbdf1c063	-0.11804273
174	0x3ce856dc	0.02836173
175	0xbd79e86d	-0.061012674
176	0xbb63b32c	-0.0034744246
177	0xbe8f001d	-0.27929774
178	0x3df55ca7	0.11980563
179	0xbc188bb4	-0.009310652
180	0xbd81fa6e	-0.06346594
181	0x3e167172	0.14691713
182	0xbdd0a046	-0.1018682
183	0x3d9544a3	0.07288482
184	0x3e633d55	0.22191365
185	0x3e30327c	0.17206758
186	0xbd65fe57	-0.05615076
187	0xbe297987	-0.16550265
188	0xbdc9ad74	-0.09847537
189	0xbdaf2549	-0.085520335
190	0x3e85ba39	0.2611864
191	0xbe121c94	-0.14268714
192	0x3dff8665	0.124768056
193	0xbe307c3b	-0.1723489
194	0x3c6cd62a	0.014455358
195	0xbe673712	-0.22579601
196	0x3eda6889	0.4265788
197	0x3e8a0953	0.2696024
198	0x3d4f56bd	0.05061983
199	0x3dc559b2	0.09636249
200	0xbe8ff260	-0.28114605
201	0xbcee6e9a	-0.029105473
202	0xbe56f188	-0.20990574
203	0x3d94c162	0.07263447
204	0xbd39ba2c	-0.045343563
205	0xbd0d9dba	-0.034574248
206	0xbe07c4a0	-0.132586
207	0x3c1731c1	0.009228171
208	0x3d72d35e	0.059283607
209	0x3c59e617	0.013299487
210	0x3c89e4ac	0.016832672
211	0x3e1410ae	0.14459488
212	0x3ee59e2f	0.44847247
213	0x3d12bbf6	0.035823785
214	0x3ca9ec16	0.020742457
215	0xbd85118a	-0.06497486
216	0xbc45862e	-0.012055917
217	0xbe858e69	-0.26085213
218	0xbc4ecad3	-0.012621599
219	0xbd3345d4	-0.043767765
220	0xbc85416a	-0.016266543
221	0xbe6130f4	-0.2199133
222	0x3db744cf	0.08948671
223	0xbd66bee7	-0.056334402
224	0xbe30d4fe	-0.1726875
225	0xbd1d80de	-0.038452975
226	0x3ac2dee1	0.0014867448
227	0xbd6b6111	-0.057465617
228	0x3d3cd66d	0.04610293
229	0xbb121027	-0.002228746
230	0xbe4f3fd5	-0.20239194
231	0xbe11817b	-0.14209549
232	0xbd44ee4e	-0.048078828
233	0x3eb4d20d	0.35316506
234	0xbe286c1d	-0.16447492
235	0x3ea89885	0.32928863
236	0x3cf6490a	0.030064125
237	0x3b82fac5	0.003997179
238	0x3d0418b6	0.03225013
239	0xbd7ffaf2	-0.06249518
240	0x3df516fd	0.11967275
241	0x3c88bc8e	0.016691472
242	0x3d9bc6b5	0.0760626
243	0xbd407d29	-0.046994362
244	0xbea7516e	-0.32679313
245	0xbd9275f6	-0.071514055
246	0xbdadaea0	-0.08480573
247	0x3e07e8bb	0.13272373
248	0xbd6fe58b	-0.05856852
249	0x3e842f81	0.25817493
250	0xbcd48e36	-0.025946718
251	0x3c33f060	0.010982603
252	0xbe65a364	-0.2242561
253	0x3eb39432	0.35074002
254	0x3e2b9cca	0.16759029
255	0x3e30e1ba	0.17273608

critic.0.bias f4 [32]
0	0xbc2edd9a	-0.010672951
1	0xbc991633	-0.018687343
2	0xbcb456ec	-0.022014104
3	0x3cdbc8aa	0.026829083
4	0x3eae6812	0.34063774
5	0x3ea7223b	0.32643303
6	0xbc8f4aee	-0.017491784
7	0x3ece8d41	0.40342143
8	0x00000000	0.0
9	0xbc445979	-0.011984223
10	0x3edd84b5	0.4326531
11	0x3eb563ba	0.35427648
12	0x3eb2fe08	0.34959435
13	0xbc03b3e8	-0.008038498
14	0x3ebbe9e9	0.36701897
15	0xbc60e0ee	-0.013725502
16	0x3eb27b15	0.3485953
17	0xbce23e62	-0.027617637
18	0xbc54eee7	-0.012996412
19	0x3ea1950f	0.31559035
20	0x3ec037fb	0.3754271
21	0x3eb7a40d	0.35867348
22	0x3eaf0b35	0.34188238
23	0x3ea8c66f	0.32963893
24	0x3ead2bce	0.33822483
25	0x3ece77fd	0.4032592
26	0x3eb37cd0	0.35056162
27	0xbd278b66	-0.040904425
28	0x3eaa02d6	0.3320529
29	0xbbebf0eb	-0.0072003505
30	0x3ebaea78	0.3650701
31	0x3eca00c7	0.39453718

critic.2.weight f4 [1, 32]
0	0x3ba0a89a	0.0049029114
1	0x3df40cd8	0.11916512
2	0x3ccc0edc	0.02490943
3	0x3ed4cace	0.41560978
4	0xbef3c041	-0.47607616
5	0xbeb961b4	-0.36207354
6	0x3c17017b	0.009216662
7	0xbea0d74e	-0.31414264
8	0x3e4efc1e	0.20213363
9	0x3e3d2200	0.18470001
10	0xbe92b029	-0.28650025
11	0xbec259b2	-0.37959057
12	0xbf06fb17	-0.5272688
13	0x3c94a914	0.018147029
14	0xbec3b917	-0.3822715
15	0x3cf8ba4f	0.030362276
16	0xbebe8939	-0.37214068
17	0x3d9fac15	0.07796494
18	0x3cdf29a1	0.02724153
19	0xbee4e129	-0.44703034
20	0xbf123283	-0.57108325
21	0xbf1438cd	-0.5789917
22	0xbf109f62	-0.564932
23	0xbeec8e9d	-0.46202555
24	0xbed833a4	-0.422269
25	0xbebe0b1d	-0.37117854
26	0xbecdaae6	-0.40169448
27	0x3f6b0b87	0.91814464
28	0xbee9357a	-0.45548612
29	0x3ece5147	0.40296385
30	0xbed4001c	-0.41406333
31	0xbf04258e	-0.51619804

exp_avg f4 [64, 12]
0	0x3aa3042e	0.0012437159
1	0xb9430cf8	-0.0001860148
2	0xbb079e0c	-0.0020693569
3	0xb9167567	-0.0001434885
4	0x3923f922	0.000156377
5	0xba088715	-0.0005208117
6	0xb8a4fcec	-7.86724e-05
7	0xb9430cf8	-0.0001860148
8	0xba3fa374	-0.0007310428
9	0xba25e75b	-0.0006328725
10	0xba22d934	-0.00062121754
11	0x3ab11824	0.0013511223
12	0x3a05b47f	0.00051004434
13	0x398a5bc7	0.0002638979
14	0x39861607	0.00025574883
15	0x39d28f57	0.00040161118
16	0x39c59161	0.00037683084
17	0x3a0b36b8	0.0005310583
18	0x3946c628	0.0001895657
19	0x398a5bc7	0.0002638979
20	0x3ab421c3	0.0013742972
21	0x3a82b68d	0.0009972617
22	0x3a5c5d8e	0.0008406275
23	0x3a701df4	0.0009159737
24	0x3ae631f4	0.0017562495
25	0xb9477e3f	-0.00019025149
26	0x395e21f1	0.00021184214
27	0x3a2e926f	0.00066593935
28	0x3abb3df0	0.0014285427
29	0x3b05249a	0.0020316006
30	0xb68b146c	-4.1449002e-06
31	0xb9477e3f	-0.00019025149
32	0x379fb1cb	1.9037068e-05
33	0x393bc527	0.00017907155
34	0x3a00e45c	0.00049168407
35	0x3ad8ca09	0.0016539703
36	0xb9c65742	-0.00037830515
37	0x39fc0137	0.0004806609
38	0x3ac96de7	0.0015367836
39	0x39ab316b	0.0003265248
40	0x3990d6c8	0.00027625845
41	0x3b4115cb	0.0029462453
42	0x39a6b3e3	0.00031796013
43	0x39fc0137	0.0004806609
44	0x3b1535e2	0.0022767712
45	0x3b472c11	0.0030391256
46	0x3b16ef42	0.0023030792
47	0xbaf97702	-0.001903266
48	0xbaa79bc1	-0.0012787507
49	0xba1c602a	-0.00059652573
50	0xbb63732b	-0.0034706097
51	0xba6c1802	-0.0009006263
52	0xba542e1b	-0.00080940285
53	0xbba71283	-0.0050986423
54	0xb9e227f2	-0.0004313584
55	0xba1c602a	-0.00059652573
56	0x3a19a2b1	0.000586073
57	0x39ccc41f	0.00039056034
58	0x38fb6087	0.00011986592
59	0xba4a1b42	-0.000770975
60	0x00000004	6e-45
61	0x00000004	6e-45
62	0x00000004	6e-45
63	0x00000004	6e-45
64	0x00000004	6e-45
65	0x00000004	6e-45
66	0x00000004	6e-45
67	0x00000004	6e-45
68	0x00000004	6e-45
69	0x00000004	6e-45
70	0x00000004	6e-45
71	0x00000004	6e-45
72	0x3a427127	0.00074173737
73	0xba1f21de	-0.0006070415
74	0xbab41727	-0.001373981
75	0x38c0f06e	9.200057e-05
76	0x3a0d817d	0.00053980184
77	0xba9d46c4	-0.0011999239
78	0xb987a1cc	-0.00025869755
79	0xba1f21de	-0.0006070415
80	0xbac6e555	-0.0015174547
81	0xbac40131	-0.0014953968
82	0xba47fa71	-0.0007628566
83	0x3a867d38	0.0010260707
84	0x00000004	6e-45
85	0x00000004	6e-45
86	0x00000004	6e-45
87	0x00000004	6e-45
88	0x00000004	6e-45
89	0x00000004	6e-45
90	0x00000004	6e-45
91	0x00000004	6e-45
92	0x00000004	6e-45
93	0x00000004	6e-45
94	0x00000004	6e-45
95	0x00000004	6e-45
96	0x3b916e7e	0.0044382205
97	0x3a8edd1c	0.0010899636
98	0x3c239348	0.009983845
99	0x3b1203dd	0.0022280135
100	0x3b475781	0.0030417147
101	0x3c691f8c	0.014228713
102	0x398f7b16	0.00027366792
103	0x3a8edd1c	0.0010899636
104	0x3ba034ac	0.0048890915
105	0x3b73dc07	0.0037210004
106	0x3ba06764	0.0048951376
107	0x3b198fe6	0.0023431717
108	0x3b513e01	0.0031927826
109	0x399317b9	0.000280557
110	0x3a30daab	0.0006746451
111	0x39da40eb	0.00041628568
112	0x3aee3493	0.0018173627
113	0xbaddeb75	-0.0016931134
114	0xb8569335	-5.1158673e-05
115	0x399317b9	0.000280557
116	0xba223a83	-0.00061885285
117	0xb9f25c47	-0.0004622659
118	0xba2c850e	-0.0006581106
119	0x3b820fef	0.0039691846
120	0x398eeaa8	0.00027259183
121	0xbaafff6f	-0.0013427566
122	0xbb9ba673	-0.004750067
123	0xba8fce02	-0.0010971429
124	0x383a3d9e	4.440324e-05
125	0xbbcca37a	-0.006245074
126	0xba34fc34	-0.0006904036
127	0xbaafff6f	-0.0013427566
128	0xbb8d4ae9	-0.0043119085
129	0xbb868417	-0.004105102
130	0xbb0a3c4a	-0.0021093064
131	0x3adfd58b	0.001707719
132	0x3a3ae308	0.0007129167
133	0xb965a9eb	-0.00021902441
134	0xba2312db	-0.0006220766
135	0xb97b1e1f	-0.00023948446
136	0x39aa1472	0.0003244016
137	0xbaa2a91f	-0.0012410021
138	0xb9277f0d	-0.00015973691
139	0xb965a9eb	-0.00021902441
140	0xbb0ffa1d	-0.0021969147
141	0xbb046f49	-0.0020207933
142	0xba9b75a9	-0.0011860627
143	0x3a7a7d7f	0.00095554435
144	0x3a837334	0.001002884
145	0x382fbb86	4.1897896e-05
146	0x3ad39fe9	0.0016145679
147	0x38f6847a	0.0001175487
148	0x3a986bb0	0.0011628773
149	0x3ade04cf	0.0016938689
150	0xb9331577	-0.00017078767
151	0x382fbb86	4.1897896e-05
152	0xbaff5cd7	-0.0019482624
153	0xbb0248cc	-0.0019879816
154	0xb8a3c999	-7.809996e-05
155	0x3ae748ba	0.0017645576
156	0x3b3179a1	0.0027080553
157	0x39c7ff50	0.0003814646
158	0x3ba07333	0.0048965453
159	0x3a19f8d8	0.00058735674
160	0x3af1c088	0.001844422
161	0x3b6980d5	0.0035629768
162	0x3901cc81	0.00012378582
163	0x39c7ff50	0.0003814646
164	0x3b14b03a	0.0022688047
165	0x3b1b45ad	0.0023692653
166	0x3b31385d	0.0027041652
167	0x3b5d65a5	0.0033782509
168	0x3ab72699	0.0013973295
169	0xb8a8cf79	-8.049509e-05
170	0x3a00515e	0.0004894937
171	0xb6cebc58	-6.1612045e-06
172	0x3a87ce94	0.0010361248
173	0x3a49c738	0.00076972274
174	0xb94c1d91	-0.0001946597
175	0xb8a8cf79	-8.049509e-05
176	0xbad1d28a	-0.001600818
177	0xbada6af4	-0.0016663955
178	0xb925f354	-0.00015826273
179	0x3b0ab47e	0.002116471
180	0xba03d93c	-0.0005029624
181	0xb98dbdfe	-0.0002703517
182	0xbb217113	-0.0024634048
183	0xb9c43dd9	-0.00037430113
184	0xb99bae31	-0.00029693687
185	0xbb2db58a	-0.002650591
186	0xb7bb5ecf	-2.2336286e-05
187	0xb98dbdfe	-0.0002703517
188	0x39ae775e	0.00033276802
189	0x3a2ddd9f	0.00066324504
190	0x39832d87	0.00025020188
191	0x389fe494	7.624287e-05
192	0x3790b000	1.7248094e-05
193	0xb9144711	-0.00014140854
194	0xb814f664	-3.551542e-05
195	0xb8adf312	-8.294558e-05
196	0x3a3cd890	0.0007203901
197	0x38dc32eb	0.00010499902
198	0xb9322f74	-0.0001699308
199	0xb9144711	-0.00014140854
200	0xbb063e7c	-0.002048402
201	0xbaf8e84e	-0.0018990131
202	0x37eb31e8	2.8037422e-05
203	0x3a8feb75	0.0010980206
204	0x00000000	0.0
205	0x00000000	0.0
206	0x00000000	0.0
207	0x00000000	0.0
208	0x00000000	0.0
209	0x00000000	0.0
210	0x00000000	0.0
211	0x00000000	0.0
212	0x00000000	0.0
213	0x00000000	0.0
214	0x00000000	0.0
215	0x00000000	0.0
216	0x3accc6ed	0.0015623249
217	0xb8268a0b	-3.9706047e-05
218	0x3a94aa0d	0.0011342183
219	0xb8514b02	-4.989934e-05
220	0x3ab5da22	0.0013874213
221	0x3789ac40	1.6411883e-05
222	0xb9732169	-0.00023186732
223	0xb8268a0b	-3.9706047e-05
224	0xbb134555	-0.0022471745
225	0xbb20a74d	-0.0024513782
226	0x39cbd137	0.00038875054
227	0x3af35cb9	0.0018567062
228	0xb9f22471	-0.00046184988
229	0xba84152b	-0.0010077109
230	0xbb8e9b09	-0.0043519777
231	0xba668855	-0.0008794119
232	0x399456f5	0.00028293548
233	0xbb3ddd8d	-0.0028971166
234	0xba4f0879	-0.0007897686
235	0xba84152b	-0.0010077109
236	0xbbe99f07	-0.0071295532
237	0xbbbb4d91	-0.0057160337
238	0xbb6c8132	-0.0036087749
239	0xb9596300	-0.00020731613
240	0xb9a08d9b	-0.00030623082
241	0x38820cd4	6.2012725e-05
242	0xb33ed83d	-4.443449e-08
243	0x3950ea91	0.00019923809
244	0x395bb5f8	0.00020953256
245	0x3937f644	0.00017543981
246	0xb90e53ee	-0.00013573442
247	0x38820cd4	6.2012725e-05
248	0xba101b1d	-0.0005497204
249	0xba2760cc	-0.00063849683
250	0xb893969f	-7.0375616e-05
251	0xb940658a	-0.00018348373
252	0xbc644a76	-0.0139337685
253	0x3ad2c22b	0.0016079595
254	0x3c81121f	0.015755711
255	0xbad5c286	-0.0016308583

exp_avg_sq f4 [64, 12]
0	0x3888ca18	6.522628e-05
1	0x3501962d	4.827478e-07
2	0x38860c17	6.39187e-05
3	0x365a1c05	3.250084e-06
4	0x37794305	1.4857161e-05
5	0x38feead4	0.00012155404
6	0x33fe03db	1.1828498e-07
7	0x3501962d	4.827478e-07
8	0x37e9f6f9	2.789077e-05
9	0x37cd1c98	2.445122e-05
10	0x37ce6c51	2.4607552e-05
11	0x3889c337	6.569031e-05
12	0x37c11b7c	2.3020191e-05
13	0x35c7e7cd	1.4894118e-06
14	0x369f7848	4.752572e-06
15	0x36d3f74f	6.3170805e-06
16	0x3718ee66	9.1154125e-06
17	0x37ce14de	2.456683e-05
18	0x34801019	2.385357e-07
19	0x35c7e7cd	1.4894118e-06
20	0x3762a924	1.3510031e-05
21	0x37127ecc	8.7318e-06
22	0x37582bf7	1.288484e-05
23	0x37d4e0d3	2.5377061e-05
24	0x39dd937b	0.00042262286
25	0x366a24fe	3.489025e-06
26	0x3810c2bd	3.451364e-05
27	0x3828a8dc	4.0211584e-05
28	0x389856d4	7.264098e-05
29	0x3a0837fc	0.00051963306
30	0x35c25a7e	1.4480463e-06
31	0x366a24fe	3.489025e-06
32	0x3968dbd5	0.00022207138
33	0x3972a711	0.00023141156
34	0x39892bfe	0.00026163453
35	0x39f42a2d	0.0004657073
36	0x399e749e	0.00030222995
37	0x37954d70	1.7798244e-05
38	0x393002a7	0.00016785656
39	0x388b4889	6.641547e-05
40	0x38d6e4c9	0.0001024693
41	0x3a614468	0.0008593262
42	0x3687ef25	4.0511536e-06
43	0x37954d70	1.7798244e-05
44	0x399ed1f9	0.0003029255
45	0x39749324	0.00023324467
46	0x39a8f0c9	0.00032222856
47	0x39b413ad	0.00034346935
48	0x39a2f2ca	0.0003107994
49	0x37571b50	1.2821358e-05
50	0x39aa0a5f	0.00032432654
51	0x382e1cb0	4.151155e-05
52	0x389b69ee	7.410707e-05
53	0x39a991e7	0.00032342898
54	0x363746ec	2.7310407e-06
55	0x37571b50	1.2821358e-05
56	0x3982ad33	0.00024924576
57	0x3944fd72	0.00018786432
58	0x393ec290	0.00018192292
59	0x39b1672e	0.00033836946
60	0x003c9e61	5.566945e-39
61	0x000053a7	3.0009e-41
62	0x000001f4	7e-43
63	0x0003f11a	3.61997e-40
64	0x0009f141	9.13065e-40
65	0x00a045ad	1.4718674e-38
66	0x0000174d	8.359e-42
67	0x000053a7	3.0009e-41
68	0x0013b04b	1.808116e-39
69	0x0011d5a0	1.637838e-39
70	0x000e0181	1.286236e-39
71	0x003f163c	5.793612e-39
72	0x39757f14	0.00023412361
73	0x36e3eafc	6.792483e-06
74	0x39346a1a	0.00017205664
75	0x37d1fc50	2.5032234e-05
76	0x38335e68	4.276485e-05
77	0x39b33643	0.0003418197
78	0x35cf541b	1.544718e-06
79	0x36e3eafc	6.792483e-06
80	0x3905b7de	0.00012752364
81	0x38c638ef	9.4519804e-05
82	0x38bb85bd	8.9417656e-05
83	0x397fa6d1	0.00024380839
84	0x000001f4	7e-43
85	0x000001f4	7e-43
86	0x000001f4	7e-43
87	0x000001f4	7e-43
88	0x000001f4	7e-43
89	0x000001f4	7e-43
90	0x000001f4	7e-43
91	0x000001f4	7e-43
92	0x000001f4	7e-43
93	0x000001f4	7e-43
94	0x000001f4	7e-43
95	0x000001f4	7e-43
96	0x3956f990	0.000205016
97	0x37c8f310	2.3955043e-05
98	0x3a9cdbc9	0.0011967357
99	0x38f4c056	0.00011670652
100	0x39944870	0.0002828273
101	0x3b021e61	0.0019854533
102	0x36e12207	6.709484e-06
103	0x37c8f310	2.3955043e-05
104	0x3aa1a287	0.0012331762
105	0x3a83b935	0.0010049703
106	0x3aa30294	0.0012436681
107	0x397fdf50	0.00024401885
108	0x3a0f1721	0.00054584636
109	0x374581d3	1.1772342e-05
110	0x3a35200b	0.0006909377
111	0x3848eeff	4.79063e-05
112	0x38efd0c3	0.00011435293
113	0x3a5e4426	0.0008478783
114	0x34a0ef90	2.9976627e-07
115	0x374581d3	1.1772342e-05
116	0x385cec50	5.267217e-05
117	0x37209069	9.570366e-06
118	0x3859c305	5.1918458e-05
119	0x3a0fcaa1	0.0005485211
120	0x3a2f937f	0.0006697699
121	0x37ae2ba3	2.0762736e-05
122	0x3a02a820	0.0004984159
123	0x38a2fe7e	7.772165e-05
124	0x3910a8dd	0.00013795817
125	0x3a8f7e2f	0.001094764
126	0x36a8035a	5.0071803e-06
127	0x37ae2ba3	2.0762736e-05
128	0x39fe61a5	0.00048519406
129	0x39bfb6dc	0.000365666
130	0x39c3ed03	0.00037369886
131	0x3a35f84e	0.00069416023
132	0x394f8f2f	0.00019794398
133	0x358febee	1.0722995e-06
134	0x398623db	0.00025585186
135	0x36afd784	5.2404957e-06
136	0x37f09d8b	2.8683591e-05
137	0x392de2c6	0.00016583045
138	0x3488b541	2.5463854e-07
139	0x358febee	1.0722995e-06
140	0x38996949	7.3152194e-05
141	0x388fda4a	6.859431e-05
142	0x3846f56a	4.743544e-05
143	0x394f4198	0.00019765494
144	0x394bf317	0.00019450147
145	0x35b426e2	1.3422361e-06
146	0x3988ded7	0.0002610597
147	0x36996315	4.57129e-06
148	0x37c957e5	2.4001996e-05
149	0x38c58437	9.418319e-05
150	0x34b23cee	3.3199416e-07
151	0x35b426e2	1.3422361e-06
152	0x38ac2602	8.2086786e-05
153	0x38a60d2e	7.917952e-05
154	0x384d48c7	4.8943588e-05
155	0x394d7453	0.00019593658
156	0x38db56e7	0.000104589206
157	0x35ab484b	1.2761533e-06
158	0x3979b98f	0.00023815616
159	0x36949d8d	4.429085e-06
160	0x37bfa5a8	2.2846114e-05
161	0x38d1b2b4	9.999183e-05
162	0x34f7d225	4.6160235e-07
163	0x35ab484b	1.2761533e-06
164	0x3905f265	0.00012774167
165	0x39003d34	0.00012229831
166	0x3904ea89	0.00012675872
167	0x38f2d573	0.00011579217
168	0x39572a1c	0.00020519685
169	0x3613733c	2.1971782e-06
170	0x398b67ee	0.0002658958
171	0x36ebab1b	7.023465e-06
172	0x37e5927a	2.7367136e-05
173	0x38f9467c	0.00011886374
174	0x3503a278	4.9037726e-07
175	0x3613733c	2.1971782e-06
176	0x38abcfd4	8.1926264e-05
177	0x389b8cdf	7.417215e-05
178	0x3857eb76	5.1479285e-05
179	0x39585da5	0.0002063425
180	0x380efecd	3.409274e-05
181	0x363e6d25	2.8375737e-06
182	0x38a0f75a	7.675467e-05
183	0x36fa5207	7.46013e-06
184	0x37530dcd	1.2579793e-05
185	0x389a1888	7.3478615e-05
186	0x3583bfab	9.816043e-07
187	0x363e6d25	2.8375737e-06
188	0x38d89493	0.00010327357
189	0x3885c495	6.3785505e-05
190	0x38b20919	8.489396e-05
191	0x384d769d	4.8986276e-05
192	0x3934218d	0.00017178636
193	0x35c368e1	1.4559156e-06
194	0x39b9ede6	0.00035463198
195	0x36b746fb	5.462088e-06
196	0x38023689	3.1045205e-05
197	0x390f396d	0.00013658935
198	0x3549151c	7.4909053e-07
199	0x35c368e1	1.4559156e-06
200	0x3979f840	0.00023838971
201	0x39724048	0.00023102865
202	0x394a56f8	0.0001929662
203	0x393ec8f3	0.00018194671
204	0x00000000	0.0
205	0x00000000	0.0
206	0x00000000	0.0
207	0x00000000	0.0
208	0x00000000	0.0
209	0x00000000	0.0
210	0x00000000	0.0
211	0x00000000	0.0
212	0x00000000	0.0
213	0x00000000	0.0
214	0x00000000	0.0
215	0x00000000	0.0
216	0x39f9ca67	0.00047643782
217	0x363240d0	2.6561793e-06
218	0x3a1e3b99	0.00060361024
219	0x3720eb69	9.591554e-06
220	0x3875e15b	5.862243e-05
221	0x398d3aad	0.00026937333
222	0x34d90bcd	4.0427986e-07
223	0x363240d0	2.6561793e-06
224	0x38adca49	8.2869614e-05
225	0x38a84429	8.02356e-05
226	0x36b2f1f7	5.332982e-06
227	0x39fa1fb6	0.00047707342
228	0x3a04443d	0.00050455687
229	0x3739516b	1.1045816e-05
230	0x39930bc0	0.0002804678
231	0x385e14f6	5.2948446e-05
232	0x38e37b8c	0.00010847216
233	0x3a2e0aae	0.00066391646
234	0x363622c0	2.714034e-06
235	0x3739516b	1.1045816e-05
236	0x39c3260c	0.00037221645
237	0x39970b7f	0.0002880953
238	0x3984fb60	0.0002536429
239	0x3a076bc8	0.0005165902
240	0x37a6e025	1.9893117e-05
241	0x35b94110	1.380251e-06
242	0x3531a219	6.617352e-07
243	0x36e31e43	6.76865e-06
244	0x3716d814	8.991006e-06
245	0x384c0afb	4.8647616e-05
246	0x3470bcf2	2.242048e-07
247	0x35b94110	1.380251e-06
248	0x3752f64b	1.257432e-05
249	0x377dd638	1.5129852e-05
250	0x37478221	1.1891622e-05
251	0x37a94a37	2.0180929e-05
252	0x3b87e601	0.0041472916
253	0x3836810a	4.351236e-05
254	0x3b8e15e5	0.004336106
255	0x39788341	0.00023700019

exp_avg f4 [64]
0	0xba2e5963	-0.0006650893
1	0x3aa412b3	0.001251778
2	0x3adcb2b1	0.0016837922
3	0x3aff3a90	0.0019472409
4	0xbb5a1053	-0.003327389
5	0x00000004	6e-45
6	0x38877d72	6.460668e-05
7	0x00000004	6e-45
8	0x3c6301b6	0.013855388
9	0x3aa0223d	0.0012217235
10	0xbb73d393	-0.0037204965
11	0xba9e4a2f	-0.0012076552
12	0x3ad9c166	0.0016613423
13	0x3babd0d2	0.005243399
14	0x3a738534	0.0009289563
15	0xbb048c1b	-0.002022511
16	0x391147f1	0.00013855078
17	0x00000000	0.0
18	0x3a4410c5	0.00074793055
19	0xbb1b53fc	-0.0023701182
20	0x3a06c887	0.0005141575
21	0xbb779cea	-0.0037782737
22	0x3c52211a	0.012825275
23	0x39fc1203	0.00048078605
24	0xb93365e0	-0.00017108722
25	0x3a0a25d3	0.00052699185
26	0xbb10eede	-0.0022115032
27	0x00000004	6e-45
28	0xbb203901	-0.002444804
29	0x3bcd30d3	0.006261924
30	0xbb0b3b70	-0.0021245144
31	0xbbfdb869	-0.0077429307
32	0x3ac8a13f	0.0015306844
33	0xba41fe90	-0.00074002985
34	0x3b1e98b1	0.0024199898
35	0xbb480d88	-0.0030525643
36	0xbaa19214	-0.001232686
37	0x00000004	6e-45
38	0xbb313815	-0.0027041484
39	0x3c88880b	0.016666433
40	0xbb09b877	-0.002101449
41	0x00000000	0.0
42	0xba684661	-0.0008860585
43	0x00000004	6e-45
44	0xba9eb7d3	-0.0012109227
45	0x3a81f81d	0.0009915862
46	0xbb130930	-0.0022435896
47	0x3b1f007e	0.0024261768
48	0xbab37aba	-0.0013693192
49	0x3af94e4e	0.0019020529
50	0x39b7aa27	0.00035031253
51	0x3c064d48	0.008197136
52	0x3b9e4762	0.004830287
53	0xbaa2aa1a	-0.0012410313
54	0x3aa25744	0.0012385626
55	0x3b6addfe	0.0035837884
56	0x00000000	0.0
57	0xb9181f00	-0.00014507398
58	0x3b87752e	0.004133842
59	0x3b35f4ef	0.00277644
60	0xbae570ef	-0.001750497
61	0x00000004	6e-45
62	0xbbe44289	-0.0069659394
63	0x3b0bcc3e	0.0021331455
